TFT-pytorch-age-and-vaccination/results/age_groups_3039/checkpoints/latest-epoch=6.ckpt (torch, 436013 bytes, 506 tensors)

prescalers.AGE3039.weight f4 [8, 1]
0.15405661 -0.7446998 0.23898727 0.2944773 -0.70608765 -0.21555167 -0.64260185 0.36384052
00000000: 04c1 1d3e a5a4 3ebf 14b9 743e bbc5 963e
00000010: 29c2 34bf 94b9 5cbe 8e81 24bf 4e49 ba3e

prescalers.AGE3039.bias f4 [8]
-0.22216445 0.69952786 0.59946495 0.036728453 -0.36917228 -0.5966957 -0.09740566 -0.21623768
00000000: 147f 63be 4214 333f 8976 193f 9370 163d
00000010: 2604 bdbe 0dc1 18bf 9e7c c7bd 696d 5dbe

prescalers.SinWeekly.weight f4 [8, 1]
0.23238757 -0.93160284 0.97650945 -0.7971593 0.7722224 -0.29179817 0.6516905 0.46645194
00000000: 02f7 6d3e 867d 6ebf 86fc 793f a212 4cbf
00000010: 5eb0 453f 9266 95be 30d5 263f cad2 ee3e

prescalers.SinWeekly.bias f4 [8]
0.039667953 0.036423407 0.62714934 0.22051878 0.5659914 -0.68929476 0.70605385 0.3483429
00000000: dd7a 223d b630 153d dc8c 203f adcf 613e
00000010: d0e4 103f 9f75 30bf f2bf 343f 005a b23e

prescalers.VaccinationFull.weight f4 [8, 1]
0.16332063 -0.01667662 0.3836086 0.96341616 -0.13734017 -0.46890232 -0.12862006 -0.57602614
00000000: 863d 273e 689d 88bc 5968 c43e 71a2 763f
00000010: e7a2 0cbe f713 f0be fab4 03be 7376 13bf

prescalers.VaccinationFull.bias f4 [8]
0.53081465 -0.48517677 -0.53968143 0.925288 0.86406124 0.08172782 -0.32758015 -0.113757364
00000000: 78e3 073f 1769 f8be 9028 0abf addf 6c3f
00000010: 1e33 5d3f ea60 a73d 96b8 a7be 9ff9 e8bd

prescalers.Cases.weight f4 [8, 1]
0.57926357 -1.0411379 -1.0408217 0.5784667 1.1543795 -0.029533232 -0.73047 0.39012527
00000000: 9e4a 143f 0244 85bf a539 85bf 6516 143f
00000010: b5c2 933f adef f1bc 1500 3bbf 80be c73e

prescalers.Cases.bias f4 [8]
-0.45690098 -0.038920082 0.37934014 0.2604117 0.1056402 -0.051489048 0.11518461 -0.82497424
00000000: edee e9be aa6a 1fbd df38 c23e af54 853e
00000010: e459 d83d 2ee6 52bd e9e5 eb3d 8331 53bf

static_variable_selection.single_variable_grns.AGE3039.resample_norm.mask f4 [16]
-0.09924277 -0.15067044 0.018965768 0.05753953 -0.03463633 -0.10451052 0.02526875 -0.0021726836
-0.019113008 -0.022619223 0.025302513 0.057778206 -0.024812179 0.07561402 -0.0032812678 0.0047370526
00000000: cb3f cbbd 5a49 1abe 195e 9b3c 92ae 6b3d
00000010: d3de 0dbd 9d09 d6bd 6900 cf3c 9563 0ebb
00000020: e292 9cbc f34b b9bc 3747 cf3c d7a8 6c3d
00000030: e942 cbbc 86db 9a3d 8a0a 57bb 4739 9b3b

static_variable_selection.single_variable_grns.AGE3039.resample_norm.norm.weight f4 [16]
0.9193226 0.9152402 1.0242243 1.056028 0.9896012 0.90630215 1.0701624 0.9269526
0.9697972 0.9835002 1.0095378 1.0946231 0.9896768 1.0622165 0.9575934 1.0467778
00000000: ba58 6b3f 2f4d 6a3f c819 833f ed2b 873f
00000010: 8156 7d3f 6b03 683f 15fb 883f c44c 6d3f
00000020: a144 783f abc6 7b3f 8938 813f 9c1c 8c3f
00000030: 755b 7d3f b6f6 873f d724 753f d1fc 853f

static_variable_selection.single_variable_grns.AGE3039.resample_norm.norm.bias f4 [16]
0.07618683 -0.0383212 0.013712141 0.059172336 -0.01183635 -0.06901275 -0.056532066 -0.07384783
0.03679665 0.006813348 -0.0004744164 -0.09949679 -0.024426578 -0.005258203 0.04193201 0.074258335
00000000: d707 9c3d b1f6 1cbd e3a8 603c b15e 723d
00000010: 40ed 41bc 8f56 8dbd 2b8e 67bd 883d 97bd
00000020: 16b8 163d 8142 df3b 17bb f8b9 f9c4 cbbd
00000030: 3f1a c8bc 014d acbb e6c0 2b3d c114 983d

static_variable_selection.single_variable_grns.AGE3039.fc1.weight f4 [8, 8]
0.4122614 -0.61144125 -0.45717183 -0.23403753 -0.42103174 -1.4819645 0.012081975 -0.3442156
-0.5718028 -0.9084976 -0.23979385 0.5869791 -0.17094062 -0.3723096 0.7092968 -0.010307011
0.24547341 0.3218549 0.62870204 -0.1989481 0.05398516 -0.2506792 0.27488804 -0.26357323
-0.6069678 -0.15877892 -0.008732601 -0.28648216 -0.30130106 0.14077368 -0.26746675 0.7330868
-0.43448776 0.50744826 -0.15295702 -0.2904289 -0.3424921 0.93646914 0.38169816 -0.045998633
0.23057611 -0.026640147 -0.19361545 -0.06534274 0.45573965 -0.42023954 0.17455997 -0.28179407
-0.052337922 -0.70475215 -0.2529432 0.27145123 0.34541062 1.3288014 0.34066653 -0.12697789
-0.6900444 -0.55852795 -0.112855695 0.4870356 0.009685139 -0.4528672 0.26584 0.12782474
00000000: ed13 d33e 6a87 1cbf 6d12 eabe 89a7 6fbe
00000010: 7991 d7be 03b1 bdbf 7af3 453c 073d b0be
00000020: ab61 12bf 4c93 68bf 858c 75be 4344 163f
00000030: 0f0b 2fbe 5d9f bebe 7a94 353f bdde 28bc
00000040: 625d 7b3e 2aca a43e 9ef2 203f 0db9 4bbe
00000050: 8b1f 5d3d 0659 80be 20be 8c3e 12f3 86be
00000060: 3e62 1bbf f196 22be 2f13 0fbc caad 92be
00000070: 2244 9abe fa26 103e 67f1 88be 94ab 3b3f
00000080: 2e75 debe 21e8 013f c4a0 1cbe 19b3 94be
00000090: 205b afbe 71bc 6f3f f16d c33e 1069 3cbd
000000a0: 251c 6c3e 703c dabc 2143 46be 6ad2 85bd
000000b0: b556 e93e a329 d7be d9bf 323e 5047 90be
000000c0: 4a60 56bd a36a 34bf c581 81be a8fb 8a3e
000000d0: a9d9 b03e 2a16 aa3f d86b ae3e 7e06 02be
000000e0: c0a6 30bf b0fb 0ebf e320 e7bd bb5c f93e
000000f0: 6bae 1e3c 36de e7be 2e1c 883e 7de4 023e

static_variable_selection.single_variable_grns.AGE3039.fc1.bias f4 [8]
-0.053486157 0.021916455 -0.031146405 0.011111056 0.073409095 0.03859762 0.057668883 0.016165683
00000000: 4d14 5bbd 238a b33c bf26 ffbc 260b 363c
00000010: 8257 963d 8a18 1e3d 3536 6c3d e56d 843c

static_variable_selection.single_variable_grns.AGE3039.fc2.weight f4 [8, 8]
-0.009753342 0.6990347 0.13027948 -0.29807028 0.22820182 -0.41863048 0.76743835 0.8617204
-0.52286744 -0.57527196 0.26672083 -0.20323914 0.24476701 0.0543219 0.3357263 -0.03686029
-0.21679352 0.39633334 -0.06870867 0.15928148 0.16739947 -0.49686435 -0.3057037 0.71531594
0.7984726 -0.03504253 0.5118151 -0.45830876 -0.044818304 -0.11116139 0.6268541 -0.7679749
0.4316649 -0.32093018 0.16769336 0.38956976 0.32619256 0.019942475 0.51367354 0.1488455
0.27780128 -0.17509937 -0.48328194 0.06496327 0.28030106 -0.15305756 -0.6980974 0.17973152
-0.9351599 0.08573016 0.01526632 -0.20947479 0.5176234 0.5230781 -0.37541935 -0.5298659
0.08063422 0.38039544 -0.6482677 -0.22308296 0.12973356 0.061984804 0.2590976 -0.5215582
00000000: 7bcc 1fbc f0f3 323f fc67 053e ab9c 98be
00000010: bdad 693e bc56 d6be d776 443f b599 5c3f
00000020: a4da 05bf 0645 13bf a28f 883e ec1d 50be
00000030: 34a4 7a3e a480 5e3d 51e4 ab3e d1fa 16bd
00000040: 1fff 5dbe 34ec ca3e 22b7 8cbd af1a 233e
00000050: c46a 2b3e 0165 febe 3285 9cbe f21e 373f
00000060: b368 4c3f c288 0fbd 5006 033f 72a7 eabe
00000070: 6693 37bd 95a8 e3bd 8379 203f 019a 44bf
00000080: 2f03 dd3e f650 a4be cfb7 2b3e b075 c73e
00000090: b602 a73e 675e a33c 1c80 033f f46a 183e
000000a0: f83b 8e3e 404d 33be bb70 f7be 770b 853d
000000b0: 9f83 8f3e 1fbb 1cbe 83b6 32bf 8a0b 383e
000000c0: a466 6fbf 4b93 af3d 961f 7a3c 8f80 56be
000000d0: f882 043f 72e8 053f f736 c0be 4ba5 07bf
000000e0: 8e23 a53d 31c3 c23e dff4 25bf dc6f 64be
000000f0: e0d8 043e c7e3 7d3d 71a8 843e d784 05bf

static_variable_selection.single_variable_grns.AGE3039.fc2.bias f4 [8]
0.042227052 0.06755901 -0.005196956 -0.048608135 0.033626627 -0.060435038 -0.01101668 0.058277745
00000000: 46f6 2c3d 615c 8a3d 3a4b aabb 5319 47bd
00000010: 13bc 093d bb8a 77bd 4e7f 34bc a5b4 6e3d

static_variable_selection.single_variable_grns.AGE3039.gate_norm.glu.fc.weight f4 [32, 8]
-0.08985088 0.25558054 -0.28974736 -0.21490748 0.054501228 -0.16574074 -0.488596 0.12549412
0.0056529 0.13251626 -0.011093436 0.33371812 -0.15084772 0.2465446 -0.27679873 -0.049411677
0.27101648 0.11419826 -0.32303512 -0.019207926 0.23779252 -0.290392 0.032223735 0.19709602
-0.3418882 0.16651054 -0.37211984 -0.2953343 0.023237344 -0.33237264 -0.09632231 0.16762556
-0.079930864 -0.32936865 0.2924222 -0.355567 0.102962084 -0.17401643 -0.32746944 0.057673562
0.42362815 0.09527996 -0.35330242 0.028045446 -0.049361896 -0.32626456 0.2936718 0.22191793
-0.13698204 -0.1822456 0.14781016 -0.029457582 -0.04113739 -0.11862602 0.09730267 0.29968426
0.3037291 0.32323584 -0.029703239 -0.017184515 -0.14113578 -0.09123401 0.06427669 0.043768227
-0.28907236 -0.22898884 0.17155597 0.29575536 0.30897072 0.23120652 0.26674432 0.100450136
0.21044558 -0.056392834 0.092937335 0.15377279 0.05998511 0.0032079546 -0.20839341 -0.25005034
-0.22136249 0.114715956 0.31421345 -0.13503583 -0.2971502 -0.41367528 0.21293041 0.13482928
-0.12499614 -0.21090671 0.35719675 -0.35596466 0.2162409 -0.05629906 -0.15852071 0.45951897
-0.2122427 0.34712833 0.20373905 0.13175906 0.18923749 0.043104433 0.3265893 0.10382173
-0.42238957 0.03517704 -0.0129537685 0.23520829 -0.097668104 0.05555059 0.16551083 0.01445757
-0.3089098 0.545386 -0.22148201 0.109123796 -0.15432006 0.00511692 0.46655783 0.06070212
-0.17672305 -0.017212113 -0.24216145 0.37199318 0.20689818 0.36687177 -0.010599411 -0.39010176
-0.22988985 -0.17396903 0.15696532 0.35340977 0.20255491 -0.3352122 0.011269949 -0.18837635
0.42545238 -0.5771058 -0.267462 0.11429597 0.064280674 -0.22383845 -0.34639832 -0.28625
0.19789822 -0.050558023 -0.09180703 0.1778417 -0.33548927 0.30554417 -0.08264739 0.31373465
-0.004540833 0.6250361 -0.24955578 -0.098617636 -0.15913182 -0.020532755 -0.066864766 0.3477397
-0.0082007805 -0.33230162 -0.02431035 -0.051627748 -0.050749067 -0.15683928 -0.13962784 -0.027637308
0.13619898 -0.035702623 0.25462162 -0.014077639 0.27281064 0.15982784 -0.37547752 0.19187574
0.1657875 0.29209223 -0.2948523 -0.10338327 -0.25488204 -0.20749623 -0.07367991 -0.19570109
-0.21839963 0.03620018 0.30596197 0.097331494 0.05569489 0.21605928 -0.07732431 -0.32845163
-0.0134915635 0.36921322 -0.057979375 0.057074416 0.26931167 0.12204624 -0.11067222 0.4129125
0.011866003 -0.01087028 0.50119424 -0.3283489 0.46527424 -0.21731222 -0.14854728 0.39139342
0.28459725 -0.19578184 0.17952335 0.0025202048 -0.3730518 -0.1573279 0.1311789 -0.3487207
-0.06584449 0.26566926 0.16911663 0.29064763 -0.21450785 0.1069465 0.13956687 -0.11152719
-0.09868765 -0.1525687 0.6158741 -0.5080584 0.06505577 0.28116325 -0.1359873 0.43356794
-0.060455322 -0.069447994 -0.36843613 -0.24879158 -0.054156356 0.15814775 -0.018940326 0.014278382
0.3255089 0.40196317 -0.22403435 -0.102228686 0.2516334 -0.42399654 0.5390845 0.16887878
0.07253175 -0.33860695 -0.10734854 -0.35970122 0.17813976 -0.3180435 -0.25056833 0.39355463
00000000: bd03 b8bd 74db 823e c459 94be b510 5cbe
00000010: ae3c 5f3d f1b7 29be 4129 fabe 8881 003e
00000020: f63b b93b 58b2 073e 3ec1 35bc 1add aa3e
00000030: d377 1abe 3076 7c3e 90b8 8dbe e663 4abd
00000040: acc2 8a3e c7e0 e93d dc64 a5be f159 9dbc
00000050: e27f 733e 43ae 94be 09fd 033d 8ad3 493e
00000060: f80b afbe bd81 2a3e 7e86 bebe 0f36 97be
00000070: 3e5c be3c bf2c aabe a244 c5bd 09a6 2b3e
00000080: cbb2 a3bd 02a3 a8be 5db8 953e e10c b6be
00000090: c9dd d23d 5d31 32be 13aa a7be 1d3b 6c3d
000000a0: cae5 d83e 2422 c33d 0ee4 b4be 90bf e53c
000000b0: b32f 4abd 260c a7be 265c 963e 743e 633e
000000c0: 0545 0cbe 979e 3abe 8c5b 173e 0751 f1bc
000000d0: ae7f 28bd 33f2 f2bd 9f46 c73d 3770 993e
000000e0: 6182 9b3e 2b7f a53e 3554 f3bc 8ac6 8cbc
000000f0: e685 10be e6d8 babd 7fa3 833d 5046 333d
00000100: 4b01 94be 0d7c 6abe 5eac 2f3e 3f6d 973e
00000110: 6931 9e3e 67c1 6c3e b692 883e cdb8 cd3d
00000120: 0c7f 573e 2cfc 66bd ee55 be3d 9d76 1d3e
00000130: f2b2 753d 8c3c 523b 1565 55be 9906 80be
00000140: d9ac 62be 33f0 ea3d 96e0 a03e d546 0abe
00000150: 1224 98be 3fcd d3be 6e0a 5a3e b010 0a3e
00000160: fafd ffbd eef7 57be 7ee2 b63e 0041 b6be
00000170: 416e 5d3e d899 66bd 4153 22be 1246 eb3e
00000180: 2656 59be ceba b13e f8a0 503e d9eb 063e
00000190: 79c7 413e 468e 303d b636 a73e 7da0 d43d
000001a0: 7243 d8be cd15 103d 0b3c 54bc 71da 703e
000001b0: 3706 c8bd 0489 633d ac7b 293e 72df 6c3c
000001c0: 6d29 9ebe 6b9e 0b3f 2ecc 62be 4c7c df3d
000001d0: 1406 1ebe d6ab a73b abe0 ee3e c9a2 783d
000001e0: e3f6 34be 6b00 8dbc 2cf9 77be e475 be3e
000001f0: 1edd 533e 9ed6 bb3e 27a9 2dbc 6bbb c7be
00000200: 3f68 6bbe f024 32be 84bb 203e 20f2 b43e
00000210: 8e6a 4f3e efa0 abbe 98a5 383c bbe5 40be
00000220: e5d4 d93e 35bd 13bf c7f0 88be 0114 ea3d
00000230: 96a5 833d e835 65be 1f5b b1be 5c8f 92be
00000240: d5a5 4a3e ee15 4fbd 5305 bcbd 221c 363e
00000250: 40c5 abbe 4970 9c3e 0943 a9bd d4a1 a03e
00000260: 45cb 94bb 5e02 203f 8d8b 7fbe 0bf8 c9bd
00000270: 74f3 22be 4f34 a8bc 65f0 88bd f00a b23e
00000280: 915c 06bc 7023 aabe 8026 c7bc 9e77 53bd
00000290: 41de 4fbd 7a9a 20be 9afa 0ebe a367 e2bc
000002a0: bf77 0b3e ea3c 12bd c45d 823e e6a5 66bc
000002b0: d6ad 8b3e e9a9 233e 973e c0be 137b 443e
000002c0: 33c4 293e 1d8d 953e e1f6 96be 9cba d3bd
000002d0: e67f 82be e479 54be 7ee5 96bd de65 48be
000002e0: 27a4 5fbe a446 143d 0ca7 9c3e bc55 c73d
000002f0: 5320 643d a53e 5d3e 355c 9ebd d02a a8be
00000300: b80b 5dbc 8409 bd3e c87b 6dbd ddc6 693d
00000310: 38e3 893e 61f3 f93d 1ea8 e2bd 4469 d33e
00000320: a069 423c 4219 32bc 444e 003f 591d a8be
00000330: 6d38 ee3e 1887 5ebe c71c 18be b864 c83e
00000340: bbb6 913e 097b 48be f8d4 373e 052a 253b
00000350: a500 bfbe 911a 21be c353 063e 858b b2be
00000360: 7ad9 86bd cd05 883e e92c 2d3e c4cf 943e
00000370: f2a7 5bbe c406 db3d 9eea 0e3e 5e68 e4bd
00000380: c01c cabd f83a 1cbe eda9 1d3f 1e10 02bf
00000390: f63b 853d a1f4 8f3e 4140 0bbe 9efc dd3e
000003a0: 00a0 77bd c03a 8ebd a9a3 bcbe 38c3 7ebe
000003b0: 0ed3 5dbd 7cf1 213e be28 9bbc e0ef 693c
000003c0: 1aa9 a63e 1ece cd3e 4369 65be 465d d1bd
000003d0: 18d6 803e 1316 d9be 7101 0a3f 8fee 2c3e
000003e0: 878b 943d e45d adbe 8dd9 dbbd c22a b8be
000003f0: 456a 363e 99d6 a2be 7e4a 80be fe7f c93e

static_variable_selection.single_variable_grns.AGE3039.gate_norm.glu.fc.bias f4 [32]
0.077789634 -0.037135668 0.0081958445 0.0393133 -0.0029661304 -0.071956895 -0.049656197 -0.058401525
0.025013752 0.0068080095 0.0037124872 -0.09261363 -0.038658466 -0.009390236 0.07159138 0.08560587
-0.033483196 -0.061346546 -0.048933256 -0.105583444 0.014488273 0.05847391 -0.07659848 -0.004608068
-0.0926278 -0.13989729 -0.037915826 0.06066845 -0.17274253 -0.0060692327 0.018286865 0.00019680471
00000000: 2c50 9f3d 921b 18bd dd47 063c fc06 213d
00000010: 6963 42bb 235e 93bd 4c64 4bbd 7036 6fbd
00000020: a4e9 cc3c b915 df3b 334d 733b 37ac bdbd
00000030: 5758 1ebd 81d9 19bc 809e 923d 2152 af3d
00000040: ad25 09bd 8446 7bbd 3d6e 48bd 223c d8bd
00000050: 3960 6d3c 5782 6f3d aadf 9cbd 47ff 96bb
00000060: a5b3 bdbd 3c41 0fbe a04d 1bbd 7b7f 783d
00000070: 6be3 30be 6ae0 c6bb 56ce 953c 5d5d 4e39

static_variable_selection.single_variable_grns.AGE3039.gate_norm.add_norm.norm.weight f4 [16]
0.92929554 0.92322016 1.0409933 1.0612901 0.9889163 0.88058937 1.0453521 0.9504985
0.9461417 0.9638553 1.005256 1.098635 0.97072875 1.0428809 0.9806411 1.0695529
00000000: 50e6 6d3f 2858 6c3f 453f 853f 5bd8 873f
00000010: 9e29 7d3f 4e6e 613f 19ce 853f df53 733f
00000020: 5836 723f 39bf 763f 3bac 803f 12a0 8c3f
00000030: ae81 783f 1f7d 853f 4c0b 7b3f 1ce7 883f

static_variable_selection.single_variable_grns.AGE3039.gate_norm.add_norm.norm.bias f4 [16]
0.06617222 -0.034939334 0.041960884 0.070896 -0.004948927 -0.06626912 -0.07371908 -0.07597498
0.034565933 0.0052180053 -0.0006338715 -0.109293 -0.02549431 -0.0004192287 0.039640933 0.06420699
00000000: 4d85 873d 8c1c 0fbd 2ddf 2b3d ec31 913d
00000010: 9c2a a2bb 1bb8 87bd 07fa 96bd c598 9bbd
00000020: 0295 0d3d cdfb aa3b 652a 26ba 02d5 dfbd
00000030: 71d9 d0bc eccb dbb9 885e 223d f47e 833d

static_variable_selection.prescalers.AGE3039.weight f4 [8, 1]
0.15405661 -0.7446998 0.23898727 0.2944773 -0.70608765 -0.21555167 -0.64260185 0.36384052
00000000: 04c1 1d3e a5a4 3ebf 14b9 743e bbc5 963e
00000010: 29c2 34bf 94b9 5cbe 8e81 24bf 4e49 ba3e

static_variable_selection.prescalers.AGE3039.bias f4 [8]
-0.22216445 0.69952786 0.59946495 0.036728453 -0.36917228 -0.5966957 -0.09740566 -0.21623768
00000000: 147f 63be 4214 333f 8976 193f 9370 163d
00000010: 2604 bdbe 0dc1 18bf 9e7c c7bd 696d 5dbe

encoder_variable_selection.flattened_grn.resample_norm.mask f4 [3]
-0.21378915 -0.010517906 0.22127418
00000000: 8beb 5abe 4c53 2cbc b395 623e

encoder_variable_selection.flattened_grn.resample_norm.norm.weight f4 [3]
0.86173296 0.9518332 1.4242779
00000000: 889a 5c3f 57ab 733f bd4e b63f

encoder_variable_selection.flattened_grn.resample_norm.norm.bias f4 [3]
0.17393145 -0.093458846 -0.23477148
00000000: 161b 323e 5a67 bfbd ef67 70be

encoder_variable_selection.flattened_grn.fc1.weight f4 [3, 24]
0.2990873 -0.010307484 0.10799961 0.23161697 -0.0021815668 0.032196853 -0.18559724 -0.2069599
-0.30494648 0.08749803 0.1151811 -1.1853267 -0.021868099 -0.056283236 -0.035146248 0.031875726
0.50317305 -0.7200464 0.29043752 0.028046366 0.10811122 -0.262866 0.11281916 0.27063432
-0.058506902 0.3656303 -0.42288736 -0.09096162 0.07057763 0.05069716 0.06776827 0.55700254
-0.14112061 0.074930996 -0.70475984 -0.20670706 0.103988655 0.013332922 -0.058550797 0.2097962
0.106488034 -0.0262989 -0.5508705 -0.14703947 0.013802929 0.102487974 -0.08628055 0.08562042
0.14469482 -0.2190845 -0.16748366 0.24365874 0.34080708 0.47134045 -0.10710646 0.36109042
-0.33277133 0.25634542 0.18721959 0.37269297 0.017217709 -0.08427663 0.14185919 0.120653085
0.13580073 0.348936 -0.0155766895 -0.07464396 -0.2178932 -0.2242953 -0.42040652 0.111931235
00000000: f821 993e b9e0 28bc e62e dd3d 002d 6d3e
00000010: 9ef8 0ebb d9e0 033d 340d 3ebe 4ced 53be
00000020: f221 9cbe 2b32 b33d 12e4 eb3d c9b8 97bf
00000030: ba24 b3bc 4089 66bd 83f5 0fbd 1f90 023d
00000040: f3cf 003f f654 38bf 3ab4 943e 7ec1 e53c
00000050: 6a69 dd3d 5f96 86be bb0d e73d 9590 8a3e
00000060: efa4 6fbd e533 bb3e b184 d8be 164a babd
00000070: 018b 903d d3a7 4f3d 17ca 8a3d b897 0e3f
00000080: ec81 10be 6c75 993d 246b 34bf 04ab 53be
00000090: 01f8 d43d 5472 5a3c f6d2 6fbd d1d4 563e
000000a0: 6616 da3d ca70 d7bc d905 0dbf 8491 16be
000000b0: ae25 623c 37e5 d13d dbb3 b0bd c259 af3d
000000c0: e12a 143e b057 60be d680 2bbe ad81 793e
000000d0: 447e ae3e 8953 f13e a25a dbbd d8e0 b83e
000000e0: 0161 aabe b53f 833e 7eb6 3f3e 9dd1 be3e
000000f0: 270c 8d3c 3a99 acbd 8943 113e f718 f73d
00000100: 590f 0b3e bda7 b23e 5f35 7fbc efde 98bd
00000110: 651f 5fbe abad 65be 863f d7be 343c e53d

encoder_variable_selection.flattened_grn.fc1.bias f4 [3]
-0.014805482 -0.025646914 -0.117989026
00000000: b192 72bc 7a19 d2bc 3ba4 f1bd

encoder_variable_selection.flattened_grn.context.weight f4 [3, 16]
-0.23433632 -0.20044805 -0.31445014 -0.11543455 0.41252968 -0.33504808 0.08963516 0.16346239
-0.30680418 0.16545394 -0.089191385 0.20487182 0.33611342 0.069896765 -0.29483086 -0.20515186
0.54180545 -0.08611443 0.47330087 -0.43678972 -0.30558565 0.5669904 0.040099364 -0.33165255
0.012865569 -0.119274884 -0.4489297 0.15158671 0.14084372 -0.075299405 -0.40923092 0.036863983
0.39469975 -0.13867518 0.44245192 -0.2756315 -0.19354524 0.4467583 0.08256396 0.1835553
-0.353796 0.43182454 -0.041146483 0.06995922 0.1630417 0.00089208747 -0.20500141 0.4396041
00000000: dcf5 6fbe 4142 4dbe 9cff a0be f368 ecbd
00000010: 1737 d33e 6c8b abbe a492 b73d af62 273e
00000020: 7015 9dbe c26c 293e f9a9 b6bd ebc9 513e
00000030: 0f17 ac3e 0926 8f3d 12f4 96be 5413 52be
00000040: c3b3 0a3f c35c b0bd 7e54 f23e e7a2 dfbe
00000050: b975 9cbe 4826 113f 3b3f 243d 5dce a9be
00000060: 1cca 523c 6446 f4bd 1dda e5be 8c39 1b3e
00000070: 5639 103e 9336 9abd b786 d1be b0fe 163d
00000080: 1616 ca3e de00 0ebe 0f89 e23e 921f 8dbe
00000090: b930 46be 81bd e43e 4b17 a93d ecf5 3b3e
000000a0: c024 b5be 1b18 dd3e 3789 28bd c846 8f3d
000000b0: 67f4 263e fada 693a e4eb 51be ca13 e13e

encoder_variable_selection.flattened_grn.fc2.weight f4 [3, 3]
-0.9245532 -1.1524223 -0.16315918 -0.026180996 -1.0771229 -0.2629065 -0.3841876 -0.9000358
-0.7961968
00000000: 85af 6cbf 9382 93bf 3313 27be 8779 d6bc
00000010: 2adf 89bf ae9b 86be 3db4 c4be bf68 66bf
00000020: 8ed3 4bbf

encoder_variable_selection.flattened_grn.fc2.bias f4 [3]
0.06886088 -0.021761317 -0.09730636
00000000: ef06 8d3d ca44 b2bc 8f48 c7bd

encoder_variable_selection.flattened_grn.gate_norm.glu.fc.weight f4 [6, 3]
0.60216683 -0.17468762 0.70527345 -0.070231475 -0.4395365 0.6896264 -0.23634909 -0.2765324
-0.023983046 -0.484283 -0.52447134 0.709406 0.87015843 -0.024843076 -0.43056712 0.9388773
0.5584004 0.4078725
00000000: 9b27 1a3f 50e1 32be cd8c 343f 85d5 8fbd
00000010: ee0a e1be 5b8b 303f 7f05 72be a895 8dbe
00000020: 1878 c4bc f1f3 f7be c143 06bf a29b 353f
00000030: b4c2 5e3f b583 cbbc 4b73 dcbe 435a 703f
00000040: 54f3 0e3f aad4 d03e

encoder_variable_selection.flattened_grn.gate_norm.glu.fc.bias f4 [6]
0.076857746 -0.08950523 -0.31637064 -0.09713561 0.26635075 0.26380122
00000000: 9867 9d3d 854e b7bd 55fb a1be 09ef c6bd
00000010: 205f 883e f410 873e

encoder_variable_selection.flattened_grn.gate_norm.add_norm.norm.weight f4 [3]
0.7955132 0.71250427 0.3636338
00000000: c1a6 4b3f ae66 363f 362e ba3e

encoder_variable_selection.flattened_grn.gate_norm.add_norm.norm.bias f4 [3]
-0.020310432 -0.30315685 0.57560337
00000000: 1062 a6bc 6037 9bbe be5a 133f

encoder_variable_selection.single_variable_grns.SinWeekly.resample_norm.mask f4 [16]
-0.25221407 -0.08233716 -0.09270584 -0.24342406 -0.16513437 0.011730479 0.026248848 -0.38945368
0.00069999066 0.035275728 -0.18294835 0.046603687 -0.20438218 0.04383722 0.21046807 0.18803184
00000000: 3422 81be 63a0 a8bd 8fdc bdbd 2844 79be
00000010: fc18 29be 3231 403c d307 d73c 7966 c7be
00000020: 947f 373a 487d 103d d056 3bbe 82e3 3e3d
00000030: 9049 51be a88e 333d f184 573e 6b8b 403e

encoder_variable_selection.single_variable_grns.SinWeekly.resample_norm.norm.weight f4 [16]
0.8355459 0.9122316 1.0076021 0.88117087 0.79478705 1.0233834 1.1086997 0.70711136
0.99760514 1.019778 0.8781282 1.044015 0.910508 1.0359561 1.2327074 1.0620373
00000000: 56e6 553f 0388 693f 1bf9 803f 6a94 613f
00000010: 2a77 4b3f 3afe 823f dfe9 8d3f 4005 353f
00000020: 0d63 7f3f 1688 823f 02cd 603f 49a2 853f
00000030: 0d17 693f 369a 843f 5bc9 9d3f d7f0 873f

encoder_variable_selection.single_variable_grns.SinWeekly.resample_norm.norm.bias f4 [16]
-0.021523008 0.055812445 -0.16217436 -0.021168914 -0.022606803 0.03214359 -0.14519727 -0.1648312
0.030995872 -0.0016594873 0.053682398 0.10389548 -0.08477187 -0.0021814727 0.014994811 0.12556589
00000000: 0551 b0bc 979b 643d 0911 26be 6e6a adbc
00000010: e731 b9bc ffa8 033d 98ae 14be 83c9 28be
00000020: 0eeb fd3c 2783 d9ba 13e2 5b3d 27c7 d43d
00000030: e09c adbd 0af7 0ebb ccac 753c 5894 003e

encoder_variable_selection.single_variable_grns.SinWeekly.fc1.weight f4 [8, 8]
0.9985279 -1.259335 -0.74984235 -1.2428083 -0.28428274 -0.20759411 0.3682686 0.5311113
-0.1488248 0.36328527 -0.063461035 -0.11745019 -0.10403235 0.6340233 -0.21981795 -0.15900816
-0.119991116 -0.034421492 -0.36038306 0.28761983 -0.81673014 0.40733632 0.96595746 0.2966163
0.33865526 0.11059513 -0.28029853 0.20819876 0.39523944 0.02947555 0.38177848 0.6710282
-0.61157686 -0.10960435 1.1307614 -3.293991e-05 0.11210029 0.7386112 0.5519583 -0.98972654
0.4582303 -0.17430083 -0.8897976 0.1282111 0.043682303 -0.25963157 -0.32535934 0.04661816
-0.84803134 -0.20129596 -0.9509455 0.47654563 -0.08139859 -0.07267068 -0.3354351 0.025340648
0.3983237 0.0025022787 -0.7716661 0.23285665 0.7830664 0.4783681 -0.18382527 0.34812692
00000000: 869f 7f3f e431 a1bf abf5 3fbf 5814 9fbf
00000010: 828d 91be 8d93 54be b48d bc3e e9f6 073f
00000020: 8765 18be 8700 ba3e dcf7 81bd ba89 f0bd
00000030: ea0e d5bd 5a4f 223f f517 61be 09d3 22be
00000040: e7bd f5bd 8dfd 0cbd 2184 b8be e842 933e
00000050: 3a15 51bf 638e d03e fd48 773f 17de 973e
00000060: 3964 ad3e b37f e23d 4a83 8fbe 0e32 553e
00000070: d35c ca3e b576 f13c 7878 c33e 81c8 2b3f
00000080: 4d90 1cbf 3f78 e0bd cabc 903f f628 0ab8
00000090: d694 e53d a015 3d3f 244d 0d3f b85e 7dbf
000000a0: 299d ea3e eb7b 32be c7c9 63bf c549 033e
000000b0: 37ec 323d 6eee 84be 8095 a6be aff2 3e3d
000000c0: 9518 59bf 8720 4ebe 2a71 73bf cafd f33e
000000d0: 4eb4 a6bd 5ed4 94bd 26be abbe 3197 cf3c
000000e0: 16f1 cb3e 45fd 233b e98b 45bf f971 6e3e
000000f0: 0a77 483f aaec f43e b13c 3cbe b13d b23e

encoder_variable_selection.single_variable_grns.SinWeekly.fc1.bias f4 [8]
0.016051687 0.14414258 0.040312845 0.0092921285 -0.0027640522 -0.059543144 -0.04713111 -0.02640073
00000000: d47e 833c 1d9a 133e 151f 253d 033e 183c
00000010: 1a25 35bb 83e3 73bd 8d0c 41bd 5846 d8bc

encoder_variable_selection.single_variable_grns.SinWeekly.fc2.weight f4 [8, 8]
-1.1345861 0.12413371 -1.1479138 -0.6384066 -0.7623043 0.12756927 0.47402093 -0.36717287
-0.34162095 -0.2977277 0.49608356 0.16183273 -0.31598762 0.5050652 0.683513 0.21665956
0.7282582 -0.35670462 -0.01986579 -0.5498525 0.6681394 -0.19731635 0.54747254 0.61392784
-0.022426585 0.88664633 0.46656498 0.11838475 -0.0047402745 -0.7512823 0.09922012 -0.6077764
-1.0949712 1.2635429 -0.25284615 -0.27442455 -0.39977255 0.7643944 0.32377815 -0.07670438
0.50697315 -0.4408167 -0.62738574 -0.047531992 -0.5223787 0.21781816 -0.31824154 -0.16134728
0.198931 0.013375938 0.052628353 0.07372918 0.5054611 -0.38335687 0.1521463 0.22479716
0.54913396 -0.06657346 0.2893414 0.67328686 0.5877209 -0.3679102 0.6371315 -0.6777666
00000000: 1e3a 91bf d139 fe3d d7ee 92bf 9d6e 23bf
00000010: 6026 43bf 85a1 023e dfb2 f23e 15fe bbbe
00000020: f1e8 aebe c46f 98be aafe fd3e 7bb7 253e
00000030: 21c9 a1be f44b 013f b5fa 2e3f 01dc 5d3e
00000040: 216f 3a3f fda1 b6be 95bd a2bc 22c3 0cbf
00000050: 2f0b 2b3f 4c0d 4abe 2927 0c3f 602a 1d3f
00000060: f5b7 b7bc 41fb 623f 9be1 ee3e b473 f23d
00000070: 4e54 9bbb 0954 40bf eb33 cb3d 3c97 1bbf
00000080: 0428 8cbf c6bb a13f 0d75 81be 6081 8cbe
00000090: fdae ccbe 5aaf 433f 40c6 a53e 3017 9dbd
000000a0: fec8 013f bab2 e1be 5a9c 20bf e8b0 42bd
000000b0: 9cba 05bf b90b 5f3e 8ef0 a2be 3938 25be
000000c0: 91b4 4b3e c026 5b3c d490 573d 53ff 963d
000000d0: e665 013f 5a47 c4be 3dcc 1b3e 3a31 663e
000000e0: 0b94 0c3f ab57 88bd 8e24 943e 875c 2c3f
000000f0: e074 163f ba5e bcbe 0d1b 233f 1d82 2dbf

encoder_variable_selection.single_variable_grns.SinWeekly.fc2.bias f4 [8]
0.017130943 -0.039568935 -0.06670656 0.07015084 -0.118379734 -0.06438845 0.06266283 -0.057725295
00000000: 3156 8c3c 0913 22bd 739d 88bd 3eab 8f3d
00000010: 1371 f2bd 17de 83bd 5f55 803d 5c71 6cbd

encoder_variable_selection.single_variable_grns.SinWeekly.gate_norm.glu.fc.weight f4 [32, 8]
0.18933292 -0.028262522 -0.12951541 -0.13585028 -0.023385279 -0.30808926 -0.25433052 0.116059594
-0.123777546 0.09879168 -0.08722697 -0.23874442 0.13706669 0.11176544 0.36297047 0.019552521
0.33607385 -0.08752544 0.11928366 -0.017385777 0.4491335 0.11571403 -0.25330397 0.11691331
0.055135164 -0.10395773 -0.12502421 -0.26375827 0.2881302 0.19558823 -0.28701237 0.2717128
0.35106486 0.05977418 0.2497637 0.3127654 0.2647957 -0.17630254 0.13372742 0.07929204
0.15066236 -0.3182638 0.19047257 0.047685817 -0.29740512 -0.16465336 -0.118942976 0.22712031
0.099529855 0.1050512 -0.6285313 -0.064665064 0.13035281 -0.46625572 -0.10123754 -0.16821387
-0.38696143 -0.053527154 0.33995867 -0.5487216 -0.24955297 0.012032156 0.019398592 0.038887963
0.2893674 0.3023016 -0.21970844 0.42413342 0.10826702 -0.42411107 0.18357 0.289086
-0.09471156 -0.38967285 0.1920886 -0.107050255 -0.2973653 -0.043472696 0.08610199 0.08191217
0.1601512 0.084190466 -0.13244519 -0.060696226 -0.03706419 0.1800008 0.040381633 0.17250715
-0.12569125 -0.084393576 -0.15672162 -0.07696724 -0.22522938 -0.31685674 0.47560242 0.3895937
0.5866845 0.46032223 -0.16364464 -0.07729041 0.46263206 -0.7158552 -0.19492996 -0.48743972
0.058803674 -0.14740984 0.30654812 0.15982987 0.06877096 0.08597743 -0.1374518 -0.2879804
-0.31605858 -0.3700239 0.32321444 -0.052814364 -0.15732689 0.34460643 -0.24810377 0.05823976
0.10296761 -0.51711136 -0.33213767 0.24434869 -0.13955137 -0.26054937 0.2966645 0.0226426
0.18871415 0.11558298 0.13824871 0.41175514 0.39137787 -0.42377314 0.06552056 -0.39665008
0.14512005 -0.32702252 -0.015106962 -0.19044115 0.15021463 0.3242499 -0.25246102 -0.40377614
0.23761109 -0.31664547 -0.2796355 0.062843665 -0.09984061 -0.27234444 -0.043700006 0.10640463
0.20438993 0.0071385712 0.26698634 -0.20872606 -0.0938052 0.09043244 -0.08252087 0.11140405
0.3017545 0.40518573 -0.26572934 0.03798585 0.11580696 -0.28618643 0.14963591 0.18544085
0.004741498 -0.32378656 0.42524505 0.2021478 -0.29415613 -0.028912773 0.3792901 -0.23372099
-0.21752001 -0.34402606 0.20266809 -0.5661953 -0.31638357 0.06753333 0.18058018 0.23654053
-0.2192099 0.43353277 0.16092548 0.03091232 0.28676113 -0.09917739 -0.17800303 -0.31178525
-0.08787094 -0.04545336 0.11987828 -0.24459903 0.4150868 -0.08404021 0.03500149 0.033342123
-0.11634977 -0.17645791 -0.012160328 0.3028035 0.13263461 0.0053122467 -0.27761495 0.17809628
0.015881503 -0.17471047 -0.3689243 -0.42764732 0.17001197 0.3695887 -0.36775187 -0.2927681
0.046269838 -0.30876115 0.3684133 0.13755842 -0.006285174 0.29485303 0.4825209 0.13214211
-0.4723958 -0.3528114 0.46619046 -0.2581907 -0.1323165 0.48114994 0.1805169 0.3263805
-0.28680322 -0.05893864 -0.33034405 -0.0047761933 0.325473 -0.18046746 -0.12057818 0.0716611
-0.11589904 0.12788975 -0.2679701 0.2118404 -0.047434773 -0.34710643 -0.061254125 0.03258157
-0.010439104 0.3449827 -0.23779547 0.22854972 -0.06994944 -0.18152942 -0.14557861 -0.25224686
00000000: 7de0 413e ce86 e7bc b09f 04be 561c 0bbe
00000010: 7c92 bfbc e0bd 9dbe 9c37 82be a7b0 ed3d
00000020: 157f fdbd 4b53 ca3d 0ea4 b2bd 6b79 74be
00000030: 365b 0c3e 47e5 e43d 44d7 b93e 9c2c a03c
00000040: df11 ac3e 8a40 b3bd fe4a f43d 9e6c 8ebc
00000050: d3f4 e53e 7afb ec3d 0fb1 81be 3f70 ef3d
00000060: 69d5 613d cae7 d4bd 5906 00be 530b 87be
00000070: cd85 933e 4848 483e 49f3 92be f11d 8b3e
00000080: c6be b33e c5d5 743d 0ec2 7f3e c922 a03e
00000090: 4d93 873e a788 34be d7ef 083e dd63 a23d
000000a0: 3c47 1a3e 79f3 a2be 3e0b 433e 3452 433d
000000b0: 7c45 98be e49a 28be 6098 f3bd 3a92 683e
000000c0: 4fd6 cb3d 1525 d73d 6de7 20bf 1e6f 84bd
000000d0: 357b 053e 12b9 eebe a155 cfbd 4240 2cbe
000000e0: cf1f c6be 4a3f 5bbd 100f ae3e 0579 0cbf
000000f0: d08a 7fbe 8522 453c cce9 9e3c fc48 1f3d
00000100: f727 943e 46c7 9a3e 40fb 60be 0428 d93e
00000110: 19bb dd3d 1625 d9be c6f9 3b3e 1503 943e
00000120: 22f8 c1bd 3383 c7be e0b2 443e 2a3d dbbd
00000130: 4440 98be 6d10 32bd 3d56 b03d 91c1 a73d
00000140: adfe 233e 0d6c ac3d b69f 07be 9b9c 78bd
00000150: 9fd0 17bd 2152 383e 3667 253d b7a5 303e
00000160: 35b5 00be 8ad6 acbd a27b 20be 00a1 9dbd
00000170: 88a2 66be 0c3b a2be 2982 f33e d378 c73e
00000180: f530 163f 5baf eb3e 7692 27be 6f4a 9ebd
00000190: 1cde ec3e 4942 37bf b89b 47be b391 f9be
000001a0: 1fdc 703d 9bf2 16be e0f3 9c3e 71aa 233e
000001b0: cad7 8c3d ef14 b03d 2ac0 0cbe 2b72 93be
000001c0: 6ed2 a1be c673 bdbe 5d7c a53e e053 58bd
000001d0: 4d1a 21be 4170 b03e ea0e 7ebe d18c 6e3d
000001e0: afe0 d23d 6961 04bf f30d aabe 8b36 7a3e
000001f0: 8ee6 0ebe ba66 85be 69e4 973e f97c b93c
00000200: 483e 413e c5b6 ec3d 1291 0d3e 92d1 d23e
00000210: ae62 c83e cbf8 d8be a52f 863d b815 cbbe
00000220: 5a9a 143e 7f6f a7be 3183 77bc 0103 43be
00000230: ddd1 193e 1504 a63e 9242 81be bfbb cebe
00000240: 5250 733e 5b1f a2be 622c 8fbe 2eb4 803d
00000250: 3c79 ccbd bb70 8bbe c7fe 32bd acea d93d
00000260: 984b 513e adea e93b 6fb2 883e 49bc 55be
00000270: f11c c0bd a534 b93d b400 a9bd ce27 e43d
00000280: 917f 9a3e 8174 cf3e ad0d 88be 0d97 1b3d
00000290: 332c ed3d 0787 92be 283a 193e 35e4 3d3e
000002a0: 915e 9b3b 5ac7 a5be b8b9 d93e d5ff 4e3e
000002b0: a29b 96be 7bda ecbc 5032 c23e 8e54 6fbe
000002c0: 91bd 5ebe 2f24 b0be 3988 4f3e 2df2 10bf
000002d0: 07fd a1be ea4e 8a3d 03ea 383e ae37 723e
000002e0: 8f78 60be 02f8 dd3e a6c9 243e d53b fd3c
000002f0: 5bd2 923e 841d cbbd 6d46 36be 51a2 9fbe
00000300: aef5 b3bd 4d2d 3abd be82 f53d 2b78 7abe
00000310: 4286 d43e 461d acbd b95d 0f3d c091 083d
00000320: ca48 eebd 62b1 34be 1d3c 47bc 0f09 9b3e
00000330: 5ed1 073e 5b12 ae3b 8c23 8ebe df5e 363e
00000340: ed19 823c 4de7 32be a5e3 bcbe 97f4 dabe
00000350: 9e17 2e3e bb3a bd3e f949 bcbe b3e5 95be
00000360: 7185 3d3d f115 9ebe aba0 bc3e 1ddc 0c3e
00000370: dcf3 cdbb faf6 963e fb0c f73e 4350 073e
00000380: dddd f1be b2a3 b4be 84b0 ee3e 9231 84be
00000390: fa7d 07be 4959 f63e 6cd9 383e 581b a73e
000003a0: dfd7 92be a569 71bd db22 a9be 9d81 9cbb
000003b0: 66a4 a63e 76cc 38be b1f1 f6bd 0ec3 923d
000003c0: 7a5c edbd 88f5 023e 6033 89be b1ec 583e
000003d0: f74a 42bd efb7 b1be 9be5 7abd 4174 053d
000003e0: c708 2bbc 93a1 b03e a880 73be f008 6a3e
000003f0: a741 8fbd d9e2 39be 8f12 15be 8026 81be

encoder_variable_selection.single_variable_grns.SinWeekly.gate_norm.glu.fc.bias f4 [32]
0.09022484 0.0120548485 -0.17832334 0.0008043936 0.008654331 0.021592135 -0.14321174 -0.28542158
0.061651487 0.0055027828 0.07119807 0.1120948 -0.12989357 0.013145919 -0.0038737115 0.14965408
-0.03738113 -0.09568882 0.038099263 -0.15858972 0.026322158 0.087980874 -0.115500174 0.05524914
-0.007656245 0.050778095 -0.24511921 0.030376121 0.037056528 -0.119071074 0.06607526 0.058101118
00000000: cdc7 b83d b381 453c 659a 36be f1dd 523a
00000010: e5ca 0d3c fde1 b03c 19a6 12be c722 92be
00000020: 4586 7c3d b050 b43b 4bd0 913d f591 e53d
00000030: d202 05be fb61 573c 18de 7dbb eb3e 193e
00000040: f51c 19bd 80f8 c3bd f90d 1c3d 5865 22be
00000050: 91a1 d73c 512f b43d 5b8b ecbd ec4c 623d
00000060: 3de1 fabb b1fc 4f3d 8800 7bbe 58d7 f83c
00000070: 96c8 173d 89db f3bd 7752 873d 70fb 6d3d

encoder_variable_selection.single_variable_grns.SinWeekly.gate_norm.add_norm.norm.weight f4 [16]
0.8177697 0.84429747 1.0662186 0.7773994 0.8630448 0.9986046 1.1592368 0.6845704
0.99804735 1.0439905 0.8991053 1.2457278 1.0127964 0.9947304 1.1490308 1.0938177
00000000: 5b59 513f e123 583f da79 883f a603 473f
00000010: 81f0 5c3f 8da4 7f3f df61 943f 0140 2f3f
00000020: 0880 7f3f 7ba1 853f c42b 663f 0274 9f3f
00000030: 50a3 813f a7a6 7e3f 7113 933f 3802 8c3f

encoder_variable_selection.single_variable_grns.SinWeekly.gate_norm.add_norm.norm.bias f4 [16]
-0.06720593 0.088885516 -0.0365641 0.08460908 0.013069305 0.024351152 -0.13819724 -0.13460436
0.05002205 -0.023874031 -0.0075121084 0.15079346 -0.057142854 0.028898485 0.0062507736 0.077529855
00000000: 43a3 89bd 9c09 b63d 3dc4 15bd 8647 ad3d
00000010: a320 563c 117c c73c 9483 0dbe bad5 09be
00000020: ece3 4c3d 7993 c3bc 2228 f6bb 9a69 1a3e
00000030: a00e 6abd 84bc ec3c 4ad3 cc3b f9c7 9e3d

encoder_variable_selection.single_variable_grns.VaccinationFull.resample_norm.mask f4 [16]
-0.12960874 -0.13639894 0.049330983 -0.0703958 0.14301161 -0.054453455 0.099808484 0.32962754
0.041018832 -0.016362002 -0.013936213 -0.0897265 -0.14882073 0.22035953 -0.16472316 -0.0391968
00000000: 27b8 04be 2aac 0bbe 490f 4a3d ac2b 90bd
00000010: a371 123e 960a 5fbd 6468 cc3d f1c4 a83e
00000020: 5d03 283d 9b09 86bc b754 64bc 87c2 b7bd
00000030: 7664 18be eea5 613e 30ad 28be d38c 20bd

encoder_variable_selection.single_variable_grns.VaccinationFull.resample_norm.norm.weight f4 [16]
0.87141246 0.83608246 1.0713483 0.9845704 1.2131048 0.965385 1.0546705 1.3287407
1.0553113 1.0178967 1.0027001 0.9146585 0.8299635 1.197259 0.8090805 0.90741146
00000000: e314 5f3f 8009 563f f121 893f ce0c 7c3f
00000010: 0547 9b3f 7923 773f 71ff 863f 2d14 aa3f
00000020: 7114 873f 704a 823f 7a58 803f 0f27 6a3f
00000030: 7d78 543f c83f 993f e61f 4f3f 1e4c 683f

encoder_variable_selection.single_variable_grns.VaccinationFull.resample_norm.norm.bias f4 [16]
-0.12071701 0.14520995 -0.06780822 -0.060222574 -0.17665924 0.0127293095 -0.021311402 0.1812657
0.026964203 0.06323737 0.0030453443 -0.02434598 -0.016972478 -0.085551105 -0.023903757 0.09185344
00000000: 7b3a f7bd ebb1 143e 09df 8abd f2ab 76bd
00000010: 29e6 34be 988e 503c 4095 aebc b79d 393e
00000020: 08e4 dc3c 9882 813d 6694 473b 3871 c7bc
00000030: de09 8bbc 6b35 afbd d0d1 c3bc a81d bc3d

encoder_variable_selection.single_variable_grns.VaccinationFull.fc1.weight f4 [8, 8]
0.30167288 -0.05543933 -0.4980878 -0.29385778 0.4557325 0.09092924 -0.4768691 -0.017231043
0.19139503 -0.16118912 -0.741915 -0.7835214 -0.042719413 -0.23619805 0.40570766 -0.27433223
0.11748289 -0.5590994 -0.11841001 -0.2937263 -0.34373018 0.42222682 -0.19611879 -0.5292777
-0.17238757 -0.8323848 -0.22784404 0.30504864 -0.76043963 0.6296712 0.14673913 0.035060093
0.26013178 0.57711333 0.249097 0.3834593 0.012930444 0.32098743 0.59114194 0.74698967
-0.06772891 0.25853676 -0.25541666 -0.03678797 -0.08183367 -0.77777237 -0.8375364 -1.7585905
-0.5626931 0.31636176 0.23344511 0.19842699 0.9893053 -0.14327691 0.19452561 0.16077614
0.37475267 0.12919463 -0.699778 -0.091769546 -0.32734102 -1.2314576 -0.33633858 -1.6441948
00000000: de74 9a3e 5a14 63bd 5d05 ffbe 8774 96be
00000010: c555 e93e 1c39 ba3d 3028 f4be 1e28 8dbc
00000020: 0ffd 433e c30e 25be 24ee 3dbf dc94 48bf
00000030: 8dfa 2ebd e7dd 71be eab8 cf3e 4675 8cbe
00000040: df9a f03d 2321 0fbf f380 f2bd 4b63 96be
00000050: 67fd afbe 1d2e d83e 5dd3 48be be7e 07bf
00000060: 5e86 30be 2c17 55bf f34f 69be 562f 9c3e
00000070: 2cac 42bf 2232 213f c842 163e 2c9b 0f3d
00000080: fe2f 853e b3bd 133f 4913 7f3e c754 c43e
00000090: 37da 533c 7758 a43e 1455 173f b73a 3f3f
000000a0: 74b5 8abd ee5e 843e f9c5 82be fcae 16bd
000000b0: 6998 a7bd 171c 47bf c968 56bf 7e19 e1bf
000000c0: a80c 10bf 2bfa a13e 3c0c 6f3e 7230 4b3e
000000d0: 1d43 7d3f 2fb7 12be b931 473e 80a2 243e
000000e0: 95df bf3e 994b 043e a724 33bf acf1 bbbd
000000f0: 3e99 a7be 67a0 9dbf 9234 acbe fa74 d2bf

encoder_variable_selection.single_variable_grns.VaccinationFull.fc1.bias f4 [8]
-0.10020441 0.02344212 0.08352711 0.010950534 0.005163926 0.01961799 -0.09264943 0.040638585
00000000: f837 cdbd b009 c03c 4310 ab3d de69 333c
00000010: 2736 a93b e8b5 a03c fcbe bdbd a574 263d

encoder_variable_selection.single_variable_grns.VaccinationFull.fc2.weight f4 [8, 8]
-0.17832625 0.023286203 -0.2609736 -0.62651217 -0.9138079 0.1516752 -0.6996392 0.052982178
0.7496646 -0.2087623 -0.2801406 -0.27262902 -0.42618904 -0.457704 0.35351244 -0.03501997
-1.694303 0.0031561963 -0.25487402 0.56207645 -0.25724867 0.24879377 0.16366048 0.4295886
0.19148912 -0.3330526 -0.008255494 -0.46993014 0.6624227 -0.8437294 0.006181874 -0.139706
-0.31128016 -0.28670186 0.26057345 -0.20829774 0.4239437 0.28648472 -1.1652728 0.80890256
-0.34057495 0.33088976 0.75254875 0.37286624 0.11724759 -0.1211682 -0.17233251 -1.0739176
0.5571829 -0.01460524 -0.14909053 0.650134 0.1430746 -0.4830996 -0.14273559 0.18541262
-0.20712441 0.23843072 0.3656535 0.4228334 -0.5923027 -0.6770086 0.072103664 -0.47694373
00000000: 289b 36be b5c2 be3c 559e 85be 1a63 20bf
00000010: 51ef 69bf be50 1b3e 8e1b 33bf d703 593d
00000020: 05ea 3f3f c9c5 55be 976e 8fbe 0896 8bbe
00000030: 7335 dabe 2e58 eabe 95ff b43e 1a71 0fbd
00000040: ecde d8bf 30d8 4e3b d97e 82be 3ee4 0f3f
00000050: 19b6 83be cbc3 7e3e 9d96 273e 09f3 db3e
00000060: b915 443e df85 aabe 0d42 07bc af9a f0be
00000070: 8994 293f a6fe 57bf 5191 ca3b 170f 0fbe
00000080: 1d60 9fbe 96ca 92be e269 853e 014c 55be
00000090: 260f d93e 20ae 923e a927 95bf 3d14 4f3f
000000a0: d75f aebe 626a a93e 09a7 403f 53e8 be3e
000000b0: 811f f03d 0927 f8bd ef77 30be 2276 89bf
000000c0: 8aa3 0e3f d14a 6fbc 30ab 18be 2f6f 263f
000000d0: 2682 123e d558 f7be 4729 12be cedc 3d3e
000000e0: 6c18 54be 2f27 743e f036 bb3e 9f7d d83e
000000f0: 26a1 17bf 7050 2dbf 16ab 933d f831 f4be

encoder_variable_selection.single_variable_grns.VaccinationFull.fc2.bias f4 [8]
-0.040773265 -0.03641011 -0.04405676 -0.05382687 0.10997331 0.03239193 -0.025378646 0.041526917
00000000: de01 27bd c422 15bd dc74 34bd 9079 5cbd
00000010: b039 e13d 67ad 043d e1e6 cfbc 2118 2a3d

encoder_variable_selection.single_variable_grns.VaccinationFull.gate_norm.glu.fc.weight f4 [32, 8]
0.09037224 0.16668579 0.42420354 0.25015447 -0.2937021 0.20614456 -0.058688078 -0.17772348
-0.46204582 0.22362648 -0.39550135 0.1235312 0.22466992 -0.16444954 0.21093263 -0.269675
-0.08186393 0.31145626 0.14476408 0.14228037 -0.23451915 0.49383587 -0.22063623 0.5134588
-0.2891033 -0.19113678 0.15776946 0.36905825 -0.4011367 0.2947617 0.08261414 0.2714917
0.17641841 -0.07687161 0.19904487 -0.316783 0.22179636 -0.05346605 -0.2964026 0.070521496
0.23331152 0.33815745 0.2582061 -0.28611252 -0.13616954 0.34561378 -0.09020579 0.33638304
-0.09104203 0.26634943 0.058037873 -0.08485895 0.017700093 0.0055315793 0.269049 -0.18562356
-0.26429555 0.085225515 0.2540611 -0.6515543 0.56293464 -0.5469566 0.17091465 -0.69743925
-0.030484872 0.3106404 -0.108663626 -0.28146935 -0.34923142 0.26696268 0.024015753 0.40283856
0.17632514 0.039998017 0.21644352 -0.33528495 -0.12147715 -0.34452805 -0.45044285 -0.2834193
-0.102619596 -0.10887027 0.05159525 -0.26214164 0.18237804 0.00231188 0.12355428 -0.010270719
-0.1577736 -0.4014749 0.03975296 0.07871757 0.06256839 -0.059842207 -0.25468135 0.18839273
-0.24627866 0.20708016 -0.21237667 -0.3744133 0.088405825 -0.25266328 -0.27144745 -0.3287461
0.4122699 -0.37767047 0.1621903 0.17969859 0.31114045 0.2500854 -0.027285945 -0.31610462
-0.22075357 0.061896905 -0.09528899 0.028857112 -0.2331648 0.021914968 -0.17457739 0.09236673
-0.29832855 -0.06757511 0.057813 0.015674854 0.20085974 -0.070203826 0.34756774 -0.063834675
0.2195699 -0.21937025 0.25991905 -0.033783156 0.120474994 0.25799486 -0.16552648 -0.38133404
-0.1546796 -0.0148080215 0.23032148 0.116928644 0.039320763 0.30733535 -0.027999602 0.13615002
0.2136461 0.3724665 0.02401997 0.27678558 0.04122875 0.36734644 0.09825448 0.30291086
0.07790728 0.13010854 0.23367175 0.20734319 0.022233408 -0.1614478 -0.20216727 -0.11823749
-0.08923475 -0.23296407 0.08962689 0.49453354 -0.0036905943 0.06453079 -0.05119039 0.06031826
0.020240756 -0.09273653 0.38465443 0.025471041 -0.20969795 0.10966175 -0.4275893 0.07810244
0.28354442 0.24261057 -0.2500506 0.3050713 -0.18073814 0.13845325 -0.42160758 0.24514754
-0.13563694 0.019182911 0.52452743 -0.13377172 0.0490231 -0.4191427 -0.58924997 -0.32694077
0.11836003 -0.034375757 0.13710669 -0.31141686 -0.14184313 0.012570239 0.13977 -0.34055287
0.4991188 -0.2910366 0.38772634 -0.10977824 0.30997738 -0.012354341 -0.17318389 0.14298567
-0.15401089 -0.018011503 0.33486193 -0.15762475 0.0830945 -0.47407973 0.057727087 -0.028445274
-0.07472873 0.24264969 0.25210795 0.15549599 -0.14364344 0.11075498 -0.05944904 -0.32952398
0.36762926 0.19114685 -0.25728872 0.27025682 0.18913238 0.18962786 -0.32874465 0.06662418
-0.1689081 -0.42857093 -0.16302638 -0.36228454 0.24045517 -0.12298121 -0.22907457 -0.029933916
0.6072952 -0.1327034 0.07410798 0.2338539 -0.035045248 -0.3680152 -0.07433946 -0.41995496
-0.29245493 0.38771397 0.22761954 0.36419246 -0.25750664 -0.18242294 0.43188295 -0.24940796
00000000: 1515 b93d aeaf 2a3e 3531 d93e 3f14 803e
00000010: 1f60 96be 8f17 533e e962 70bd 25fd 35be
00000020: 4591 ecbe 57fe 643e 277f cabe edfd fc3d
00000030: df0f 663e 7665 28be b9fe 573e d712 8abe
00000040: 47a8 a7bd 3277 9f3e 093d 143e f2b1 113e
00000050: ca25 70be 0ed8 fc3e 77ee 61be 0972 033f
00000060: 5905 94be 5cb9 43be 518e 213e 34f5 bc3e
00000070: ca61 cdbe 01eb 963e 9a31 a93d f600 8b3e
00000080: 07a7 343e dd6e 9dbd 6bd2 4b3e 6231 a2be
00000090: 961e 633e 38ff 5abd 15c2 97be 936d 903d
000000a0: 37e9 6e3e f922 ad3e 9733 843e 577d 92be
000000b0: 0770 0bbe 4af4 b03e d0bd b8bd 663a ac3e
000000c0: 3e74 babd f45e 883e 1fb9 6d3d 87ca adbd
000000d0: c9ff 903c 4042 b53b cac0 893e 1a14 3ebe
000000e0: bf51 87be b78a ae3d 4c14 823e 43cc 26bf
000000f0: 7c1c 103f 5905 0cbf 4004 2f3e 618b 32bf
00000100: 69bb f9bc 420c 9f3e 098b debd c01c 90be
00000110: 76ce b2be 55af 883e afbc c43c db40 ce3e
00000120: 948e 343e f6d4 233d 5fa3 5d3e 78aa abbe
00000130: 03c9 f8bd fb65 b0be 72a0 e6be 561c 91be
00000140: 392a d2bd 60f7 debd 8a55 533d 6e37 86be
00000150: 4fc1 3a3e e982 173b 070a fd3d 8546 28bc
00000160: 678f 21be 1e8e cdbe 00d4 223d ad36 a13d
00000170: db23 803d 1a1d 75bd 9865 82be 06ea 403e
00000180: 7930 7cbe d20c 543e 4579 59be 1ab3 bfbe
00000190: 1d0e b53d 155d 81be 29fb 8abe 6951 a8be
000001a0: 0a15 d33e 065e c1be 3715 263e e802 383e
000001b0: cd4d 9f3e 320b 803e c686 dfbc 77d8 a1be
000001c0: 390d 62be 9c87 7d3d e026 c3bd c065 ec3c
000001d0: c1c2 6ebe 0587 b33c 6ac4 32be c52a bd3d
000001e0: 85be 98be d264 8abd 53cd 6c3d 8d68 803c
000001f0: 2dae 4d3e 06c7 8fbd 66f4 b13e c1bb 82bd
00000200: efd6 603e 98a2 60be 1c14 853e 3560 0abd
00000210: 98bb f63d e717 843e c67f 29be 373e c3be
00000220: 5464 1ebe 589d 72bc 65d9 6b3e 4978 ef3d
00000230: cf0e 213d 0f5b 9d3e 6c5f e5bc e96a 0b3e
00000240: 0bc6 5a3e eeb3 be3e 87c5 c43c d7b6 8d3e
00000250: 7adf 283d d514 bc3e a539 c93d 2217 9b3e
00000260: da8d 9f3d 2c3b 053e a647 6f3e c651 543e
00000270: d622 b63c 9252 25be f004 4fbe 7f26 f2bd
00000280: b5c0 b6bd 228e 6ebe 4e8e b73d 8033 fd3e
00000290: e6dd 71bb b828 843d 04ad 51bd 4810 773d
000002a0: f1cf a53c a6ec bdbd 6df1 c43e a5a8 d03c
000002b0: 0fbb 56be 5796 e03d fcec dabe 2cf4 9f3d
000002c0: bc2c 913e e86e 783e a206 80be 4e32 9c3e
000002d0: 6b13 39be b0c6 0d3e f3dc d7be f507 7b3e
000002e0: 69e4 0abe 7b25 9d3c 6e47 063f 74fb 08be
000002f0: 72cc 483d df99 d6be 16d9 16bf c864 a7be
00000300: be66 f23d 98cd 0cbd b265 0c3e 0872 9fbe
00000310: 533f 11be 67f3 4d3c de1f 0f3e f25c aebe
00000320: 808c ff3e c002 95be 1184 c63e 6ad3 e0bd
00000330: 5bb5 9e3e dd69 4abc 1e57 31be d66a 123e
00000340: 08b5 1dbe dc8c 93bc 0673 ab3e 6268 21be
00000350: 732d aa3d 94ba f2be 3d73 6c3d 1006 e9bc
00000360: 600b 99bd 2979 783e 4b14 813e 573a 1f3e
00000370: 4417 13be 82d3 e23d d680 73bd 5eb7 a8be
00000380: e739 bc3e 00bc 433e 59bb 83be 1a5f 8a3e
00000390: ebab 413e ce2d 423e 3851 a8be 4272 883d
000003a0: 3ff6 2cbe a66d dbbe 63f0 26be 5c7d b9be
000003b0: e139 763e 93dd fbbd 8692 6abe f937 f5bc
000003c0: b377 1b3f 66e3 07be edc5 973d 6677 6f3e
000003d0: 9b8b 0fbd 7d6c bcbe 493f 98bd 5604 d7be
000003e0: a7bc 95be 7282 c63e 1915 693e 6f77 ba3e
000003f0: e9d7 83be 14cd 3abe c31f dd3e cd64 7fbe

encoder_variable_selection.single_variable_grns.VaccinationFull.gate_norm.glu.fc.bias f4 [32]
-0.104281895 0.10864154 -0.040444937 -0.048564136 -0.15097255 0.041147247 -0.04101319 0.2548187
-0.0018942789 0.08682178 0.024596306 -0.007288794 -0.064640254 -0.07359166 -0.03593838 0.06272147
-0.07920225 0.07339612 0.0392394 0.11588778 0.08570626 -0.068464346 -0.07029385 0.22033106
0.060467537 -0.09669243 -0.07645827 -0.020411074 -0.08916458 -0.03176776 -0.17000312 -0.13969855
00000000: bf91 d5bd 757f de3d 97a9 25bd 30eb 46bd
00000010: 8c98 1abe 048a 283d 72fd 27bd 9977 823e
00000020: 7449 f8ba 9ecf b13d 317e c93c d6d6 eebb
00000030: 1c62 84bd 39b7 96bd 1f34 13bd 1d74 803d
00000040: ca34 a2bd b450 963d 7eb9 203d 9356 ed3d
00000050: c386 af3d 0937 8cbd 39f6 8fbd 779e 613e
00000060: cfac 773d ae06 c6bd 2796 9cbd 2035 a7bc
00000070: eb9b b6bd e91e 02bd 4c15 2ebe 230d 0fbe

encoder_variable_selection.single_variable_grns.VaccinationFull.gate_norm.add_norm.norm.weight f4 [16]
0.69322604 0.8492079 0.9880593 0.89308864 1.106764 0.9676367 0.85507756 0.72670615
0.9622115 0.9466852 0.9076914 0.74092966 0.73703945 1.0113316 0.7993085 0.7529441
00000000: 4377 313f b065 593f 74f1 7c3f 75a1 643f
00000010: 71aa 8d3f 0ab7 773f 5de6 5a3f 6a09 3a3f
00000020: 7e53 763f f659 723f 775e 683f 91ad 3d3f
00000030: 9eae 3c3f 5073 813f 7b9f 4c3f f2c0 403f

encoder_variable_selection.single_variable_grns.VaccinationFull.gate_norm.add_norm.norm.bias f4 [16]
-0.1126565 0.14023788 0.037240867 0.056160726 -0.07309159 0.009401145 -0.11907007 -0.18605094
-0.08103551 0.026873345 -0.02397193 -0.012173302 -0.009252579 -0.012926455 -0.04722028 0.0968339
00000000: 73b8 e6bd 859a 0f3e e189 183d ca08 663d
00000010: 0bb1 95bd 4307 1a3c 02db f3bd 2384 3ebe
00000020: f2f5 a5bd 7d25 dc3c c860 c4bc 8772 47bc
00000030: 2198 17bc 7bc9 53bc 0d6a 41bd da50 c63d

encoder_variable_selection.single_variable_grns.Cases.resample_norm.mask f4 [16]
0.089373514 -0.08405792 -0.47832498 0.09116588 -0.0075343857 0.13643211 -0.0703815 -0.030772904
-0.47304487 0.2709402 0.27107507 -0.10912869 -0.4186805 -0.097626925 0.366435 0.018201249
00000000: 7609 b73d 8f26 acbd 03e7 f4be 2db5 ba3d
00000010: 02e3 f6bb dcb4 0b3e 2d24 90bd 7517 fcbc
00000020: f032 f2be adb8 8a3e 5aca 8a3e dd7e dfbd
00000030: 4a5d d6be a0f0 c7bd 5e9d bb3e c91a 953c

encoder_variable_selection.single_variable_grns.Cases.resample_norm.norm.weight f4 [16]
0.963954 0.8924212 0.5253751 1.0620792 0.894001 1.1170752 1.0358127 1.0005078
0.56908333 1.251824 1.2536398 0.8858436 0.5556113 0.89107335 1.3348395 1.0061647
00000000: b0c5 763f b775 643f fc7e 063f 36f2 873f
00000010: 40dd 643f 52fc 8e3f 8395 843f a410 803f
00000020: 72af 113f c53b a03f 4577 a03f a5c6 623f
00000030: 8b3c 0e3f 621d 643f 05dc aa3f 01ca 803f

encoder_variable_selection.single_variable_grns.Cases.resample_norm.norm.bias f4 [16]
0.113237694 0.09075127 -0.14876604 -0.21809043 -0.24623245 -0.09121205 -0.21232474 0.032475192
0.06701143 0.21017827 -0.009912192 -0.023113841 -0.0726215 0.13842005 -0.006986874 0.1387178
00000000: 2ae9 e73d cddb b93d 2056 18be 1953 5fbe
00000010: 5c24 7cbe 62cd babd a86b 59be b504 053d
00000020: 4a3d 893d f938 573e bf66 22bc 3d59 bdbc
00000030: 95ba 94bd fcbd 0d3e 26f2 e4bb 0a0c 0e3e

encoder_variable_selection.single_variable_grns.Cases.fc1.weight f4 [8, 8]
0.029957863 1.3840592 0.122375086 0.10264927 -0.44474733 0.48834983 -0.2985481 -0.5259834
0.5646292 0.38491938 -0.2894208 -1.2095009 -1.0234284 0.39458162 0.11469319 -0.09306447
1.2338132 0.074475504 -0.06569443 -0.03346392 -0.057256803 -0.21840988 -0.91996443 0.6196797
-0.5585445 -0.14069264 0.74344134 0.44958222 0.8205711 -0.013821439 0.12452488 0.5387496
0.007239633 -0.57501996 -0.1469617 0.49575245 0.5424516 0.1456899 -0.15779734 0.41220665
-0.060343575 -0.12894838 0.05802274 -0.49111778 -0.45010123 0.59746176 -0.06277299 0.67967695
0.12227232 0.2731172 0.20758787 0.8600628 -1.3322272 0.21950684 0.5373026 -0.39737314
-0.18940309 -0.49870753 -0.4607615 -0.66381663 -0.069891855 -0.43190214 -0.7577392 1.3232371
00000000: 316a f53c da28 b13f ca9f fa3d c839 d23d
00000010: ecb5 e3be fd08 fa3e 4cdb 98be d9a6 06bf
00000020: 8a8b 103f 2714 c53e f72e 94be edd0 9abf
00000030: b4ff 82bf 9a06 ca3e 43e4 ea3d 9698 bebd
00000040: 97ed 9d3f 9d86 983d cd8a 86bd 7711 09bd
00000050: 1c86 6abd d7a6 5fbe ca82 6bbf 54a3 1e3f
00000060: c6fc 0ebf bb11 10be 2c52 3e3f a42f e63e
00000070: f310 523f 5173 62bc e606 ff3d 7eeb 093f
00000080: 713a ed3b 8234 13bf 217d 16be 44d3 fd3e
00000090: 1cde 0a3f bc2f 153e a095 21be c00c d33e
000000a0: d32a 77bd 0b0b 04be 41a9 6d3d ca73 fbbe
000000b0: ab73 e6be 41f3 183f 208f 80bd 4fff 2d3f
000000c0: e969 fa3d 05d6 8b3e ea91 543e 132d 5c3f
000000d0: 6c86 aabf 67c6 603e aa8c 093f 7e74 cbbe
000000e0: e2f2 41be 9856 ffbe eee8 ebbe e3ef 29bf
000000f0: 7623 8fbd 4722 ddbe 32fb 41bf d55f a93f

encoder_variable_selection.single_variable_grns.Cases.fc1.bias f4 [8]
-0.21965818 -0.19264299 0.084837995 -0.0059208306 0.10655293 -0.05153701 -0.27508506 0.07266748
00000000: 13ee 60be 3444 45be 8bbf ad3d 8703 c2bb
00000010: 6c38 da3d 7918 53bd f3d7 8cbe b0d2 943d

encoder_variable_selection.single_variable_grns.Cases.fc2.weight f4 [8, 8]
-0.08139204 0.9573671 -0.086287156 -0.6232107 0.28550628 0.062154662 0.95765054 -0.027502852
-0.26992705 -0.04541816 -0.16074638 -0.64152694 0.21907838 0.14374778 0.0787527 -1.3594693
-0.091686085 -0.2529523 -0.97003543 0.30111647 0.61332285 -0.22946408 -0.6296406 0.851195
-0.29067472 -0.54132915 -0.4261102 -0.9175398 0.6375013 -0.82602775 -0.4747753 -0.15183519
0.4590904 0.65641165 0.19115013 0.4514028 0.27940884 -0.10903507 0.2624763 0.7036993
0.13333859 -0.07556371 1.1199229 0.7585412 -0.30206674 -0.015933855 -0.12136837 0.50212044
-0.5517448 -0.3448575 -0.56517535 0.31245854 -0.08428488 -0.30904388 0.56038517 -0.23878253
0.5176029 0.61387956 -0.15609133 -0.288617 -0.055863574 0.08079729 0.054634772 -0.121332206
00000000: dfb0 a6bd 0316 753f 52b7 b0bd bd8a 1fbf
00000010: e12d 923e e395 7e3d 9628 753f a94d e1bc
00000020: e133 8abe 6408 3abd b39a 24be 1c3b 24bf
00000030: 1556 603e 9e32 133e 1849 a13d 1703 aebf
00000040: eac5 bbbd f782 81be 3e54 78bf f02b 9a3e
00000050: ba02 1d3f a2f8 6abe 2030 21bf eae7 593f
00000060: 51d3 94be 8c94 0abf 1e2b dabe e3e3 6abf
00000070: 4933 233f 8e76 53bf c015 f3be af7a 1bbe
00000080: e60d eb3e 980a 283f dcbc 433e 451e e73e
00000090: ad0e 8f3e c74d dfbd 4b63 863e a325 343f
000000a0: e989 083e 25c1 9abd a259 8f3f c22f 423f
000000b0: 7ea8 9abe b787 82bc fb8f f8bd f78a 003f
000000c0: 263f 0dbf 2a91 b0be 55af 10bf 91fa 9f3e
000000d0: 8d9d acbd 003b 9ebe 6775 0f3f 6883 74be
000000e0: a081 043f 3627 1d3f 68d6 1fbe 9cc5 93be
000000f0: 34d1 64bd 0d79 a53d b6c8 5f3d 057d f8bd

encoder_variable_selection.single_variable_grns.Cases.fc2.bias f4 [8]
-0.307821 0.04051893 0.015152422 0.22789061 -0.055489242 0.11424019 0.050739236 -0.010257335
00000000: b79a 9dbe 2df7 253d dd41 783c 285c 693e
00000010: b048 63bd c3f6 e93d f2d3 4f3d 620e 28bc
