age-groups/results/AGE4049/checkpoints/latest-epoch=16.ckpt (torch, 735853 bytes, 506 tensors)

prescalers.AGE4049.weight f4 [8, 1]
0	0xbd9deb08	-0.07710844
1	0xbf07856a	-0.5293795
2	0xbab0c2ac	-0.0013485751
3	0xbe1049bb	-0.14090626
4	0xbe59720a	-0.21234909
5	0x3e371b77	0.17881571
6	0xbf3a1e27	-0.7270226
7	0x3f2cdffd	0.6752928

prescalers.AGE4049.bias f4 [8]
0	0xbca097d6	-0.019603651
1	0x3f556c66	0.8336853
2	0xbd13399f	-0.035943624
3	0x3df46901	0.119340904
4	0x3e5f1b3c	0.21787733
5	0xbf4657fb	-0.77478
6	0x3f4fcd7e	0.8117293
7	0xbf2880a0	-0.65821266

prescalers.SinWeekly.weight f4 [8, 1]
0	0xbea67cce	-0.32517093
1	0xbfd9ddbc	-1.7020793
2	0x3f807171	1.003462
3	0xbf8ae08e	-1.0849779
4	0x3ef03a44	0.46919453
5	0xbe98f255	-0.29872385
6	0x3f7f5631	0.9974089
7	0x3f0f8eca	0.56077254

prescalers.SinWeekly.bias f4 [8]
0	0x3e6fa2c8	0.2340194
1	0xbdaa0b19	-0.08302898
2	0x3f490528	0.7852349
3	0x3eea4b7b	0.45760712
4	0x3ee06bc3	0.43832216
5	0xbf424ae5	-0.7589553
6	0x3f8f0ee1	1.1176416
7	0x3f4e2518	0.8052535

prescalers.VaccinationFull.weight f4 [8, 1]
0	0x3ec1c4a0	0.37845325
1	0x3e33524a	0.1751186
2	0x3f8cb32a	1.0992177
3	0x3f33a45b	0.7017266
4	0xbf17a8bf	-0.5924186
5	0xbf8b9fec	-1.0908179
6	0xbe79128f	-0.24323486
7	0xbf7668b3	-0.9625351

prescalers.VaccinationFull.bias f4 [8]
0	0x3f3d2191	0.73879343
1	0xbec77ed1	-0.3896394
2	0xbdc86e49	-0.0978666
3	0x3fac883f	1.3479079
4	0x3f8f92b0	1.121664
5	0x3e01c629	0.12673248
6	0xbe63c697	-0.22243725
7	0x3e669b26	0.22520122

prescalers.Cases.weight f4 [8, 1]
0	0x3e0ce7ea	0.13760343
1	0xbf7e156b	-0.9925143
2	0xbf566978	-0.8375468
3	0x3f44d9c1	0.76894766
4	0x3fe7dea0	1.8114815
5	0xbd1ba0ed	-0.037995268
6	0xbf2e4958	-0.68080664
7	0x3eecc5a8	0.4624455

prescalers.Cases.bias f4 [8]
0	0xbec7d51a	-0.3902977
1	0xbeece902	-0.4627152
2	0x3f74f4db	0.9568612
3	0x3f102115	0.5630048
4	0x3e2482ac	0.16065472
5	0x3ccbae33	0.024863338
6	0x3ebd0176	0.36915177
7	0xbfa9e80d	-1.3273941

static_variable_selection.single_variable_grns.AGE4049.resample_norm.mask f4 [16]
0	0xbf9f69f1	-1.2454206
1	0xbf398dea	-0.7248217
2	0x3f945ce2	1.1590846
3	0xbfe9e5ca	-1.8273251
4	0xc00b1121	-2.1729205
5	0xbf8a8941	-1.0823137
6	0xbfe40538	-1.7814093
7	0xbfc34bd2	-1.5257514
8	0xbf92acb5	-1.1458956
9	0xbfad3733	-1.353247
10	0xc002a203	-2.0411384
11	0xbe7b4ed0	-0.24541783
12	0xbfe08419	-1.7540313
13	0x3f50fcd4	0.81635785
14	0xbf041265	-0.5159057
15	0x40064a4c	2.0982847

static_variable_selection.single_variable_grns.AGE4049.resample_norm.norm.weight f4 [16]
0	0x3f8279f7	1.0193471
1	0x3f9508f9	1.1643363
2	0x402be3ad	2.6857712
3	0x3ec6e07f	0.38843152
4	0x3d0bd4a7	0.034138348
5	0x3fae393f	1.361122
6	0x3ee6e036	0.45092934
7	0x3f939006	1.1528327
8	0xbe54b000	-0.20770264
9	0x3ea3976c	0.31951463
10	0x3e8878ed	0.2665476
11	0x400a9567	2.1653688
12	0x3eee6bc5	0.46566597
13	0x40075761	2.1147082
14	0x3f7cdf66	0.9877838
15	0x402c796a	2.6949105

static_variable_selection.single_variable_grns.AGE4049.resample_norm.norm.bias f4 [16]
0	0xbe8e3da9	-0.27781418
1	0xbda85851	-0.0821997
2	0x3e5e3407	0.21699534
3	0xbea20f3c	-0.31652248
4	0x3e179bb1	0.14805485
5	0xbf5cb9da	-0.86221087
6	0x3f0df052	0.55444825
7	0xbee74595	-0.45170274
8	0xbf5e0048	-0.8671918
9	0x3d96b5e6	0.07358913
10	0x3e7d8b29	0.24760117
11	0xbee8a05c	-0.45434844
12	0x3eb32f16	0.3499686
13	0xbe839296	-0.25697774
14	0x3f075efe	0.5287932
15	0x3cbf77f8	0.023372635

static_variable_selection.single_variable_grns.AGE4049.fc1.weight f4 [8, 8]
0	0x3a8437e9	0.0010087463
1	0x3f6480f2	0.89259255
2	0xbe0797e1	-0.13241531
3	0xbebcea8f	-0.36897704
4	0xbd141b59	-0.036158893
5	0xbfd9f4f0	-1.7027874
6	0x3ea91a68	0.3302796
7	0xbf15fa8b	-0.58585423
8	0xbf001e93	-0.5004665
9	0xbe5b29f2	-0.2140272
10	0xbecbb17a	-0.3978384
11	0x3e717f0c	0.23583621
12	0x3ee7c50a	0.45267516
13	0xbf944835	-1.1584536
14	0x3fb3cdc4	1.404717
15	0xbf0fdc58	-0.5619559
16	0x3dccc0e2	0.09997727
17	0x3f76b5c4	0.963711
18	0x3eb7560a	0.3580783
19	0xbe765dfe	-0.24059293
20	0xbbbf5ed2	-0.005840161
21	0xbdc52638	-0.0962643
22	0xbd7139af	-0.058892902
23	0xbe0dce65	-0.13848265
24	0xbe678f71	-0.22613312
25	0xc00cf103	-2.2022102
26	0x3e07b8ae	0.13254043
27	0xbeba8bf8	-0.36434913
28	0xbe9dbd75	-0.30808607
29	0x3e8c1fb0	0.27367926
30	0xbed9e1c7	-0.42555067
31	0x3f87860a	1.058778
32	0xbf0d2d3c	-0.5514715
33	0x3f887295	1.0659968
34	0xbd5ced8c	-0.05393748
35	0xbce1782c	-0.027523123
36	0xbf4ced67	-0.8004975
37	0x3f7bb47e	0.98322284
38	0xbe5bfd66	-0.21483383
39	0x3f0aee58	0.54269934
40	0xbe8e6b4f	-0.27816245
41	0x3e9e5856	0.3092677
42	0xbec83fdc	-0.3911122
43	0x3eeb7d5b	0.45994076
44	0x3e5da1e6	0.2164379
45	0xbd6b7866	-0.057487868
46	0x3c5ab9a7	0.013349927
47	0xbde8fac9	-0.113759585
48	0xbe9c978f	-0.3058438
49	0xbef47de1	-0.47752288
50	0xbe1996c8	-0.14998925
51	0xbe9bd95e	-0.30439276
52	0xbf0f46ab	-0.55967206
53	0x3fb1c5dc	1.3888507
54	0xbd2e8a2c	-0.04261224
55	0x3e8ed9a5	0.27900425
56	0xbef12dc0	-0.47105217
57	0xbefa9f9d	-0.489499
58	0x3e9f35a9	0.31095627
59	0xbeeabc4c	-0.45846784
60	0xbe8eb6c4	-0.27873814
61	0xbf12d694	-0.5735867
62	0xbe15ca7e	-0.14628026
63	0x3f0f8b80	0.56072235

static_variable_selection.single_variable_grns.AGE4049.fc1.bias f4 [8]
0	0x3ef8315a	0.48475152
1	0x3ee8ce9d	0.45470133
2	0x3eb5fc4e	0.35544056
3	0xbf088a2d	-0.5333584
4	0x3ee53d70	0.44773436
5	0x3db22796	0.08698957
6	0x3ec46b95	0.3836333
7	0x3ed95082	0.42444235

static_variable_selection.single_variable_grns.AGE4049.fc2.weight f4 [8, 8]
0	0x3d179e36	0.037016116
1	0x3d46528c	0.048418567
2	0x3f00a4be	0.50251377
3	0xbf8c2298	-1.0948057
4	0x3f3a589c	0.7279146
5	0xbeb855d5	-0.36002985
6	0x3e4c6eb7	0.1996411
7	0x3f50c20a	0.8154608
8	0xbf978876	-1.183852
9	0xbf3a48ab	-0.7276713
10	0xbecd2105	-0.40064254
11	0x3f53ebe5	0.8278182
12	0xbf315f9e	-0.69286525
13	0xbeb83cc5	-0.35983863
14	0x3efb1450	0.49038935
15	0xbdb0a8b7	-0.0862593
16	0x3f241bb7	0.6410479
17	0x3db0341c	0.08603689
18	0x3d88f111	0.06686605
19	0x3f208cc8	0.62714815
20	0xbe8fc019	-0.28076246
21	0x3ea67ce7	0.32517168
22	0x3e774b04	0.2414971
23	0xbb5305c5	-0.0032199484
24	0x3ee07ac5	0.43843666
25	0xbddb218b	-0.10699757
26	0x3ee717b9	0.45135286
27	0xbfaa81f5	-1.332091
28	0x3e90af21	0.28258613
29	0x3e232efe	0.15935895
30	0x3f1ee7c1	0.6207238
31	0xbf4576bc	-0.771343
32	0xbdaa9776	-0.0832967
33	0xbf16aa56	-0.5885366
34	0xbdc63f11	-0.09679998
35	0x3f8990d9	1.0747329
36	0x3d09afdc	0.03361498
37	0xbd9b52e9	-0.07584173
38	0x3f47b9a1	0.7801762
39	0x3e57dcc8	0.21080315
40	0x3d3ce40a	0.046115912
41	0xbf0c893f	-0.5489692
42	0xbde9fa66	-0.11424713
43	0xbf8e92a0	-1.1138496
44	0x3f21b3cf	0.6316499
45	0x3d0ebff6	0.034851037
46	0x3ddf19d3	0.108935975
47	0xbd9ab182	-0.07553388
48	0xbf6f69e2	-0.9352094
49	0x3dd1205f	0.102112524
50	0xbe9c89b5	-0.30573812
51	0x3e22196a	0.15830007
52	0xbeb16eb1	-0.34654763
53	0xbdd0f6b4	-0.10203305
54	0xbedba32e	-0.42897934
55	0xbea0799d	-0.31342784
56	0x3e592916	0.2120708
57	0xbe4ad5c9	-0.19808115
58	0xbf340095	-0.7031339
59	0x3f0d0afb	0.5509488
60	0x3ea83992	0.32856423
61	0x3e8043d0	0.25051737
62	0x3e9a65bc	0.30155742
63	0xbc81a72d	-0.015826786

static_variable_selection.single_variable_grns.AGE4049.fc2.bias f4 [8]
0	0x3f1b3e60	0.6064205
1	0xbe5d0aab	-0.21586101
2	0x3ddae1dd	0.10687611
3	0x3e310d9d	0.1729035
4	0x3c9855ec	0.018595658
5	0xbd83967d	-0.06425188
6	0xbf1bc9cd	-0.608548
7	0xbeb53f49	-0.35399845

static_variable_selection.single_variable_grns.AGE4049.gate_norm.glu.fc.weight f4 [32, 8]
0	0xbec5fd6a	-0.38669902
1	0x3f86d033	1.0532287
2	0xbdf405fd	-0.11915205
3	0xbfa4752c	-1.2848258
4	0x3f4682e7	0.7754349
5	0xbf503e12	-0.8134471
6	0x3ef92cc6	0.48666972
7	0x3f911df9	1.1337272
8	0xbf4b392f	-0.7938413
9	0xbc4f4e29	-0.012652912
10	0x3d3bb41d	0.045826066
11	0xbcb399d0	-0.02192393
12	0xbf04a112	-0.51808274
13	0xbcc1b181	-0.02364421
14	0x3f28f61f	0.6600055
15	0x3ca53d19	0.020170735
16	0x3e9d1a99	0.30684355
17	0xbf02d4be	-0.5110587
18	0x3d8ab316	0.06772439
19	0x3f616149	0.8803907
20	0xbf2bd196	-0.6711668
21	0xbec3aeb4	-0.38219225
22	0xbdf3e1ab	-0.11908277
23	0xbedf0df5	-0.43565336
24	0xbf1eacbe	-0.61982334
25	0xbdd3c91f	-0.10341095
26	0x3e67cd60	0.22636938
27	0xbf0c6446	-0.54840505
28	0xbeb31ea6	-0.3498432
29	0xbfc1329a	-1.5093567
30	0x3f84b297	1.0367001
31	0x3f7771b1	0.96657854
32	0xbcf8e130	-0.030380815
33	0xbf63b0e8	-0.8894181
34	0x3f7497b2	0.9554397
35	0xbedb57ca	-0.42840415
36	0xbf56b47f	-0.83869165
37	0xbfb1a149	-1.3877345
38	0xbe77a204	-0.24182898
39	0x3f7461c9	0.9546171
40	0xbdfebc74	-0.12438288
41	0x3d9c00cf	0.07617342
42	0xbe4bb3bf	-0.19892786
43	0xbf192bbe	-0.5983237
44	0xbe8eb157	-0.27869675
45	0xbe89e781	-0.26934436
46	0x3fa4ddcb	1.2880186
47	0xbe392980	-0.18082237
48	0x3f0e7855	0.5565236
49	0xbe2aeb4c	-0.16691321
50	0x3efad1fe	0.48988336
51	0xbe095fc5	-0.1341544
52	0xbe9773fb	-0.29580674
53	0xbfa49513	-1.2857994
54	0xbe3d5b03	-0.1849175
55	0x3f867d87	1.0507058
56	0x3f06f02a	0.5271021
57	0x3d5ee27d	0.054415215
58	0xbf098d3b	-0.53731126
59	0x3d4dc24e	0.05023413
60	0x3f9037e8	1.1267061
61	0x3f4671ce	0.775174
62	0x3e8668c6	0.2625181
63	0xbe9cd3fd	-0.30630484
64	0xbe805f94	-0.2507292
65	0xbe153f1d	-0.14574857
66	0x3f65d5d6	0.8977941
67	0x3ed5a4a9	0.41727188
68	0x3eb422e9	0.35182884
69	0xbece2063	-0.40259084
70	0x3eba3108	0.36365533
71	0x3e3918ea	0.1807591
72	0x3f5c6f0b	0.8610694
73	0xbf2bbb39	-0.67082554
74	0xbf16d32b	-0.58915967
75	0x3fd4d69f	1.6627997
76	0xbf876862	-1.057873
77	0x3f796d7f	0.974327
78	0x3d047306	0.032336257
79	0xbf36582f	-0.7122831
80	0x3d4d2926	0.05008807
81	0x3f1e1141	0.6174508
82	0x3ee316dd	0.4435338
83	0xbf34dfef	-0.70654196
84	0xbed30d05	-0.4122087
85	0xbedb60c6	-0.4284727
86	0xbc8cc9de	-0.017186102
87	0x3f9c671f	1.221897
88	0xbf08cb8a	-0.53435576
89	0xbe812398	-0.25222468
90	0x3f408850	0.75207996
91	0xbefbe161	-0.49195388
92	0x3ecb1611	0.39665273
93	0xbe71906e	-0.23590252
94	0x3ddc1245	0.10745672
95	0x3f447458	0.76740026
96	0xbdb2921e	-0.08719276
97	0xbd989e5b	-0.07452079
98	0x3f87cddd	1.06097
99	0x3dd0529a	0.10172005
100	0x3d2e921d	0.042619813
101	0xbf164eb2	-0.5871383
102	0x3ca92439	0.020647155
103	0x3edaa4db	0.427039
104	0xbde8c67d	-0.11365984
105	0x3e1904de	0.14943263
106	0xbf121c02	-0.57073987
107	0x3ee78024	0.4521495
108	0xbda12d56	-0.07869975
109	0x3e65e013	0.22448759
110	0x3f0f3876	0.5594553
111	0xbe01b27d	-0.12665744
112	0x3efedc07	0.49777243
113	0x3e2e18cb	0.17001645
114	0x3e6b1f26	0.22961101
115	0x3e7578b3	0.23971824
116	0x3f01806d	0.5058659
117	0x3ed3f611	0.4139867
118	0xbf80b6eb	-1.0055822
119	0xbf0f5969	-0.55995804
120	0x3ed358dc	0.41278732
121	0xbe57cf39	-0.21075143
122	0xbea8077f	-0.3281822
123	0x3f73b4f1	0.9519797
124	0xbe58e07d	-0.21179385
125	0x3f13a39b	0.5767152
126	0x3eb630ba	0.3558405
127	0xbfa3697e	-1.2766569
128	0xbf8f7982	-1.1208956
129	0xbe606b37	-0.21915899
130	0x3ea754b4	0.3268181
131	0xbf0d0ca5	-0.5509742
132	0x3da87fdc	0.08227512
133	0xbea9ff26	-0.33202475
134	0xbf49572f	-0.78648657
135	0xbe853936	-0.2602021
136	0x3e861f32	0.26195675
137	0xbe9eb138	-0.30994582
138	0xbfa79281	-1.3091584
139	0x3f9c1e32	1.2196715
140	0x3ebf722b	0.3739179
141	0x3e9995f3	0.29997215
142	0xbebd4d97	-0.3697326
143	0xbf55be1f	-0.83493227
144	0x3eac32f5	0.33632627
145	0xbee52cd8	-0.44760776
146	0xbe0158e9	-0.12631573
147	0x3f4ed7e0	0.8079815
148	0xbe86fc76	-0.26364487
149	0x3f0c6f44	0.5485728
150	0xbdf76e60	-0.12081599
151	0x3dde3b4e	0.10851155
152	0x3e86b658	0.26310992
153	0x3dc95799	0.09831161
154	0xbfd30cfc	-1.6488338
155	0x3e6eb6de	0.23311946
156	0x3e2f6b7c	0.17130846
157	0x3f172cfe	0.5905303
158	0xbf41df17	-0.75731033
159	0x3fa6aa76	1.302077
160	0x3fe0cbac	1.7562156
161	0xbf590044	-0.8476603
162	0xbe9d574d	-0.30730668
163	0x3f24f776	0.64440095
164	0x3e09efb7	0.1347035
165	0xbe541cf9	-0.20714177
166	0xbfaa1795	-1.3288447
167	0xbefc81b7	-0.49317715
168	0xbc632d04	-0.013865713
169	0x3f4b82e2	0.79496586
170	0xbe4c81b5	-0.19971354
171	0xbf15f381	-0.5857468
172	0xbe0e12be	-0.13874337
173	0x3f39ed55	0.72627765
174	0x3e19d126	0.1502119
175	0x3f75f213	0.960725
176	0x3f9c2ffe	1.2202146
177	0xbf0cb32e	-0.54960907
178	0x3e19b787	0.15011416
179	0x3f5d9357	0.8655295
180	0xbe301ce1	-0.17198516
181	0xbeab60cd	-0.3347229
182	0xbfe96870	-1.8234997
183	0xbea577fe	-0.3231811
184	0x3f3bf128	0.7341485
185	0x3f7471eb	0.95486325
186	0x3decd670	0.11564338
187	0x3f1ceb80	0.61296844
188	0x3e81cc80	0.25351334
189	0x3e6cca9b	0.23124163
190	0xbf59955e	-0.8499354
191	0x3e84931a	0.2589348
192	0x3e8ca318	0.2746818
193	0x3eb3bd3e	0.35105318
194	0xbe9a016e	-0.30079216
195	0xbf60ffe6	-0.8789047
196	0x3eb8e3c7	0.3611128
197	0x3fad2633	1.3527282
198	0xbd92b8a9	-0.071641274
199	0x3f117071	0.56812197
200	0xbea6a071	-0.32544282
201	0xbe93f691	-0.28899053
202	0x3f85ee59	1.0463363
203	0xbef4bfeb	-0.47802672
204	0xbec4a56e	-0.38407463
205	0xbe7a6de7	-0.24455987
206	0xbf8cfc2e	-1.1014459
207	0x3e17f3b1	0.14839055
208	0x3f8c2cea	1.0951207
209	0x3ea8a90b	0.3294147
210	0x3e5a11d5	0.21295865
211	0x3f846639	1.0343696
212	0xbee1fe69	-0.44139412
213	0x3e413132	0.18866423
214	0xbf8b0d38	-1.0863409
215	0xbec99daf	-0.39378116
216	0xbef23c8e	-0.47311825
217	0x3f2d1cef	0.67622274
218	0xbf3243af	-0.69634527
219	0x3eb0ba63	0.34517202
220	0x3f54bba7	0.83098835
221	0x3f6ddb10	0.9291239
222	0xbe08d6f4	-0.13363248
223	0xbd916781	-0.0709982
224	0xbf280aae	-0.65641296
225	0x3db08517	0.08619135
226	0x3fc2d25f	1.522045
227	0xbf8633d9	-1.0484573
228	0x3f0afb85	0.5429004
229	0xbf57205c	-0.8403375
230	0x3ea1c59d	0.3159608
231	0x3f607d51	0.8769122
232	0x3fbe08be	1.4846418
233	0xbf8098f8	-1.0046682
234	0x3ee3132f	0.44350573
235	0x3ea4f9bc	0.32221782
236	0xbe1f4cfe	-0.15556714
237	0x3e87407b	0.26416382
238	0xbfa40028	-1.2812548
239	0x3e154a82	0.14579204
240	0xbe1e9e2c	-0.15490025
241	0x3d4f6106	0.050629638
242	0x3ca0771d	0.019588048
243	0xbfa8bed6	-1.3183239
244	0xbed0d686	-0.40788668
245	0xbed8e3bf	-0.42361256
246	0xbe0a0b72	-0.13480929
247	0x3f9a49e5	1.2053801
248	0x3ec507ff	0.38482663
249	0xbd54b4e7	-0.051930334
250	0xbf09254f	-0.53572553
251	0xbed9d3d6	-0.4254443
252	0xbf22eadc	-0.63639617
253	0x3f1b39ae	0.6063489
254	0x3f3e7d68	0.74410105
255	0x3f6f22e0	0.9341259

static_variable_selection.single_variable_grns.AGE4049.gate_norm.glu.fc.bias f4 [32]
0	0xbed29067	-0.41125795
1	0xbd86d896	-0.06584279
2	0x3d9623ee	0.07331072
3	0xbea67914	-0.3251425
4	0x3dfd1bff	0.123588555
5	0xbede240e	-0.43386883
6	0x3f432fa1	0.7624455
7	0xbe9f2035	-0.3107926
8	0xbf489d0f	-0.7836465
9	0xbef70940	-0.48249245
10	0x3f142b0b	0.5787818
11	0xbe466808	-0.19375622
12	0x3ee80e7a	0.45323545
13	0xbef6a036	-0.48169106
14	0x3e9534ad	0.2914175
15	0x3e9b3d0c	0.30320013
16	0x3f21767a	0.63071406
17	0xbeef00bd	-0.4668025
18	0xbf513560	-0.8172207
19	0xbfa6046a	-1.2970097
20	0x3f759c56	0.95941675
21	0xbfbcfae7	-1.4764069
22	0x3f98c50b	1.1935133
23	0x3f023bf3	0.50872725
24	0xbf7c6a39	-0.9859958
25	0x3e507a11	0.20359065
26	0x3ee0fa61	0.43941024
27	0xbd144159	-0.036195133
28	0xbeb0a78a	-0.34502822
29	0xbdbf06e0	-0.09327483
30	0xbf4f255e	-0.8091639
31	0xbf5025bd	-0.81307584

static_variable_selection.single_variable_grns.AGE4049.gate_norm.add_norm.norm.weight f4 [16]
0	0x3f971a12	1.1804831
1	0x3e81e57d	0.25370398
2	0x3ffb17fd	1.9616696
3	0x3f1e1856	0.61755884
4	0x3f85d25d	1.0454823
5	0x3f014718	0.50499105
6	0x3f20be3d	0.6279028
7	0x3f631381	0.88701636
8	0x3ef2c688	0.47417092
9	0x3fc29880	1.5202789
10	0x3f4d5eda	0.80222857
11	0x3ff78b2d	1.9339348
12	0x3ed7dfd4	0.42162955
13	0x3fb568bc	1.4172587
14	0x3ebcac5b	0.36850247
15	0x3ffe01d5	1.9844309

static_variable_selection.single_variable_grns.AGE4049.gate_norm.add_norm.norm.bias f4 [16]
0	0xbf0e170c	-0.55503917
1	0x3ee96ed8	0.4559238
2	0x3f3c7734	0.7361939
3	0xbec3acf2	-0.38217884
4	0xbd1cb9b4	-0.038263038
5	0xbf2d39ae	-0.6766614
6	0x3e9778ac	0.29584253
7	0x3e94b6c1	0.2904568
8	0xbf0788bd	-0.5294302
9	0xbdbbcce9	-0.09169943
10	0xbe365aee	-0.17808124
11	0xbf212340	-0.6294441
12	0x3f42f27b	0.76151246
13	0x3e4a9653	0.19783907
14	0x3f08886c	0.53333163
15	0xbeb936a8	-0.36174512

static_variable_selection.prescalers.AGE4049.weight f4 [8, 1]
0	0xbd9deb08	-0.07710844
1	0xbf07856a	-0.5293795
2	0xbab0c2ac	-0.0013485751
3	0xbe1049bb	-0.14090626
4	0xbe59720a	-0.21234909
5	0x3e371b77	0.17881571
6	0xbf3a1e27	-0.7270226
7	0x3f2cdffd	0.6752928

static_variable_selection.prescalers.AGE4049.bias f4 [8]
0	0xbca097d6	-0.019603651
1	0x3f556c66	0.8336853
2	0xbd13399f	-0.035943624
3	0x3df46901	0.119340904
4	0x3e5f1b3c	0.21787733
5	0xbf4657fb	-0.77478
6	0x3f4fcd7e	0.8117293
7	0xbf2880a0	-0.65821266

encoder_variable_selection.flattened_grn.resample_norm.mask f4 [3]
0	0xbfae6023	-1.3623089
1	0x3e2fa98c	0.17154521
2	0x3ee01cd0	0.43771982

encoder_variable_selection.flattened_grn.resample_norm.norm.weight f4 [3]
0	0x3fb8c0a8	1.4433794
1	0x4013ddaa	2.3104043
2	0x40029b36	2.0407233

encoder_variable_selection.flattened_grn.resample_norm.norm.bias f4 [3]
0	0x3e02d4fd	0.12776561
1	0x3e65f708	0.22457516
2	0xbf1bfcdf	-0.60932726

encoder_variable_selection.flattened_grn.fc1.weight f4 [3, 24]
0	0x3f271130	0.652606
1	0xbf550011	-0.83203226
2	0x3ee86ba3	0.4539462
3	0xbf3247e2	-0.69640934
4	0x3ea63d7e	0.3246879
5	0x3e977eb9	0.2958887
6	0xbd7f7f51	-0.062377278
7	0xbdf3be84	-0.11901572
8	0xbf48968e	-0.7835473
9	0x3f5786ea	0.8419024
10	0x3f2e4111	0.68068033
11	0xbfab5d67	-1.3387879
12	0xbf2360e9	-0.6381975
13	0xbed798c3	-0.42108735
14	0x3ebdb39d	0.37051097
15	0xbec8f3a3	-0.3924838
16	0x3f4d5953	0.8021442
17	0xbf485fe4	-0.7827132
18	0x3daca50f	0.0842992
19	0x3da35aa5	0.079762734
20	0x3e681636	0.22664723
21	0xbebaddb0	-0.3649726
22	0x3cd707ef	0.0262489
23	0x3f15411c	0.58302474
24	0x3ec04457	0.3755214
25	0x3cdafe9f	0.02673274
26	0xbe78f593	-0.24312429
27	0xbed5af21	-0.41735175
28	0x3e750eb0	0.23931384
29	0x3e63bba2	0.22239545
30	0x3daec5b5	0.085338034
31	0x3f1c0c05	0.6095584
32	0xbeeea938	-0.4661348
33	0x3e29c165	0.1657768
34	0xbf788212	-0.9707347
35	0xbf033c96	-0.5126432
36	0x3d6c3582	0.057668217
37	0x3f0172e3	0.5056593
38	0x3e43e68b	0.19130914
39	0x3f357f20	0.708971
40	0xbf0d0645	-0.5508769
41	0x401314d6	2.2981467
42	0x3efa3cc8	0.48874497
43	0xbfc44523	-1.5333599
44	0xc00a5306	-2.1613173
45	0x3e92425d	0.28566256
46	0x3fae4e41	1.3617631
47	0xbec4ef66	-0.38463897
48	0x3de2a1b8	0.11066002
49	0x3f7b2f2b	0.9811885
50	0xc040f219	-3.0147765
51	0x3f8509d3	1.0393623
52	0xc02eeb2f	-2.7331045
53	0x3fcb0e56	1.586375
54	0xc0356696	-2.8343863
55	0xbfe8ee6c	-1.819776
56	0xbf165859	-0.5872856
57	0x3c066734	0.0082033165
58	0xbeb97840	-0.36224556
59	0x3e1de50b	0.15419404
60	0x3e7980f1	0.24365593
61	0x3f0a4b39	0.5402103
62	0x3ec49ef9	0.38402537
63	0x3f46b358	0.77617407
64	0x3eccdd8d	0.4001278
65	0x3deb9eae	0.11504875
66	0xbeae9d5a	-0.34104425
67	0x3dd2c722	0.10291888
68	0x3d15709d	0.03648435
69	0x3d3d3fec	0.04620354
70	0xbf3bd30a	-0.73368895
71	0x3e99b77f	0.3002281

encoder_variable_selection.flattened_grn.fc1.bias f4 [3]
0	0xbf16409b	-0.5869233
1	0xbe9c5e3c	-0.30540645
2	0xbf0792e7	-0.5295853

encoder_variable_selection.flattened_grn.context.weight f4 [3, 16]
0	0x3e0a8f92	0.1353133
1	0xbdfde874	-0.123978525
2	0x3d9b45de	0.075816855
3	0xbed03af4	-0.40669978
4	0xbce1f5f4	-0.0275831
5	0xbd5fcead	-0.05464046
6	0xbc842158	-0.01612918
7	0x3e502c9b	0.20329516
8	0xbe73b6ad	-0.23800154
9	0x3dfba2b4	0.122868925
10	0xbc94704a	-0.01811995
11	0xbbab4b57	-0.005227487
12	0xbe54cf40	-0.20782185
13	0xbf71dd7b	-0.9447858
14	0x3dc6dfaf	0.09710633
15	0x3f1f5a0a	0.62246764
16	0x3c72ba2e	0.0148148965
17	0xbd8078e4	-0.06273058
18	0x3b2b4c72	0.0026138094
19	0xbf0d6c9c	-0.5524385
20	0xbc5eeb5f	-0.0136059215
21	0x3f0c4663	0.547949
22	0x3e5c918b	0.21539895
23	0x3edea73f	0.43486974
24	0x3cb5d6fa	0.022197235
25	0x3d20db88	0.03927186
26	0xb8a3d353	-7.811808e-05
27	0xbaba0957	-0.0014193457
28	0xbf070b44	-0.52751565
29	0xbe4658c4	-0.19369799
30	0x3c8ade6b	0.01695176
31	0xbe139bca	-0.14414898
32	0xbce984d4	-0.02850572
33	0x3dd0984d	0.10185299
34	0x3d5c3932	0.053765483
35	0xbe9c081b	-0.30474934
36	0xbd612714	-0.05496891
37	0xbd86a0e1	-0.06573654
38	0x3e218612	0.157738
39	0x3d291d67	0.041287806
40	0x3d8d27f6	0.068923876
41	0x3d9a9995	0.07548825
42	0x3a7eef3a	0.00097249786
43	0x3a875e64	0.0010327813
44	0xbd2f2377	-0.04275843
45	0xbedcfdb7	-0.4316232
46	0xbd94febb	-0.072751485
47	0x3ed1e85e	0.40997595

encoder_variable_selection.flattened_grn.fc2.weight f4 [3, 3]
0	0xbe2bd8a6	-0.16781864
1	0xbe87a55c	-0.26493347
2	0x3ec6686c	0.38751543
3	0xbdb47b67	-0.088126
4	0xbf630d2e	-0.88691986
5	0xbecea1ae	-0.40357727
6	0xbc934187	-0.017975582
7	0xbf6b87b3	-0.92003936
8	0xbea5543e	-0.32290834

encoder_variable_selection.flattened_grn.fc2.bias f4 [3]
0	0xbe9e6f38	-0.30944228
1	0xbf00b5f8	-0.5027766
2	0xbf0d72d1	-0.5525332

encoder_variable_selection.flattened_grn.gate_norm.glu.fc.weight f4 [6, 3]
0	0x3e394f57	0.18096672
1	0x3d4f7a25	0.050653595
2	0x3e2d7aa3	0.16941313
3	0x3e931250	0.2872491
4	0xbf278324	-0.6543448
5	0xbf3dbfff	-0.7412109
6	0x3d4cd8cf	0.050011452
7	0xbdb5c167	-0.08874779
8	0xbcc6e80d	-0.024280572
9	0x3e7fa6ee	0.24966022
10	0x3d545bbf	0.05184531
11	0x3ebcbb27	0.36861536
12	0x3f4394d4	0.7639897
13	0xbfcdd6ed	-1.6081215
14	0xbfcaa368	-1.5831118
15	0x3f41471e	0.7549914
16	0x3dfaf531	0.12253798
17	0xbd44cd7a	-0.04804752

encoder_variable_selection.flattened_grn.gate_norm.glu.fc.bias f4 [6]
0	0xbd1fec7e	-0.039043896
1	0x3f30103d	0.6877478
2	0xbec6f969	-0.3886216
3	0xc0243e73	-2.5663116
4	0xbf3a4767	-0.727652
5	0xbebd7415	-0.37002626

encoder_variable_selection.flattened_grn.gate_norm.add_norm.norm.weight f4 [3]
0	0xbc95cf1f	-0.01828724
1	0x3ebf4f87	0.37365362
2	0x3eda1f6d	0.426021

encoder_variable_selection.flattened_grn.gate_norm.add_norm.norm.bias f4 [3]
0	0x3dd9df5d	0.10638306
1	0xbf0e134a	-0.5549818
2	0x3f2ed8eb	0.6829974

encoder_variable_selection.single_variable_grns.SinWeekly.resample_norm.mask f4 [16]
0	0xbd851423	-0.064979814
1	0xbe24bf74	-0.16088659
2	0x3f482326	0.7817863
3	0xbee645c4	-0.44975102
4	0xbebbda2f	-0.36689898
5	0xbee41724	-0.44548905
6	0xbeb71637	-0.35759136
7	0xbf80a103	-1.0049137
8	0xbd5706ee	-0.052496843
9	0x3d8c1d76	0.06841557
10	0x3ea0a91e	0.31379026
11	0xc000ebae	-2.0143847
12	0x3e89c995	0.26911607
13	0xbdcf9536	-0.101358816
14	0x3fd7c55e	1.6857107
15	0xbe5f1c5a	-0.21788159

encoder_variable_selection.single_variable_grns.SinWeekly.resample_norm.norm.weight f4 [16]
0	0x3f863bac	1.048696
1	0x3dcdec20	0.10054803
2	0x40228895	2.5395863
3	0x3ea0c07e	0.3139686
4	0x3f9afdee	1.2108743
5	0x3f5b968e	0.85776603
6	0x3f780ade	0.9689158
7	0x3ed457d8	0.4147327
8	0x3ddbf92e	0.10740887
9	0x3dae31fd	0.08505628
10	0x4013cd1e	2.3093944
11	0x3f61dd43	0.88228244
12	0xbc0fab2f	-0.008768841
13	0x3faedd0e	1.366121
14	0x405c9c0e	3.4470248
15	0x3f0ce1ef	0.5503225

encoder_variable_selection.single_variable_grns.SinWeekly.resample_norm.norm.bias f4 [16]
0	0x3c54676c	0.012964111
1	0x3e91c511	0.28470662
2	0xbf20b057	-0.62769073
3	0x3e1f11ff	0.15534209
4	0x3e6585ae	0.22414276
5	0xbea203ad	-0.3164343
6	0xbe9f1bdd	-0.31075945
7	0xbe039919	-0.12851371
8	0x3e668a04	0.22513586
9	0x3e128fe2	0.143127
10	0x3f41bb8f	0.75676817
11	0x3e6e9835	0.2330025
12	0xbe8ccc0f	-0.27499434
13	0x3e70df3d	0.23522659
14	0xbf4b1d54	-0.79341626
15	0xb97604de	-0.00023462201

encoder_variable_selection.single_variable_grns.SinWeekly.fc1.weight f4 [8, 8]
0	0xbef458f1	-0.47724107
1	0xbffbc686	-1.966996
2	0xbf56f042	-0.83960354
3	0xc072931a	-3.7902284
4	0xbe8ccd9f	-0.27500626
5	0x3e83883a	0.2568987
6	0x3e0b7ebe	0.13622567
7	0x3e9a286a	0.30108958
8	0x3e2d00cc	0.16894835
9	0x3efa9756	0.48943585
10	0xbfa26fe7	-1.26904
11	0xbe7f7966	-0.24948654
12	0xbf8aa6e1	-1.0832177
13	0x4002d097	2.0439813
14	0xc08ca8ad	-4.3955903
15	0xc03088ad	-2.758342
16	0xbd4f8de3	-0.050672423
17	0x3dec2408	0.1153031
18	0xbf539fac	-0.82665515
19	0x3e8d484c	0.2759422
20	0xbf91a0fa	-1.1377251
21	0x3f2ab484	0.66681695
22	0x3f26c836	0.6514925
23	0x3e036f1c	0.12835354
24	0x3ca0da10	0.01963523
25	0x3db65f60	0.0890491
26	0xbea345f3	-0.31889305
27	0x3d965804	0.073410064
28	0x3ebc7d6c	0.3681444
29	0x3eb0c3d5	0.34524408
30	0x3e7510ac	0.23932141
31	0x3f12d937	0.57362694
32	0xbf30561a	-0.6888138
33	0xbf078e7f	-0.52951807
34	0x3fb102c9	1.3828975
35	0xbf1ca1d6	-0.6118444
36	0x3eea28d3	0.4573427
37	0x3f1f16ca	0.6214415
38	0x3f42d154	0.7610066
39	0xbf38854e	-0.72078407
40	0x3f306398	0.6890197
41	0xbe99cc69	-0.30038765
42	0xbf0e0522	-0.5547658
43	0x3d479a7b	0.04873131
44	0x3e7d2eea	0.24724928
45	0xbe24a016	-0.16076693
46	0xbdcfa906	-0.101396605
47	0x3ea03e7f	0.3129768
48	0xbebc6b2b	-0.36800513
49	0x3e40481d	0.18777509
50	0xc003a4c0	-2.0569305
51	0x3f2a80f3	0.6660301
52	0xbf73ca24	-0.9523032
53	0x3f177488	0.5916219
54	0xc018967e	-2.3841853
55	0xbf19a113	-0.60011405
56	0x3d069da8	0.032865196
57	0x3d354c71	0.044262353
58	0xbee819d4	-0.45332205
59	0x3e2e9174	0.17047673
60	0x3f858d45	1.0433737
61	0x3f1ddea0	0.61667824
62	0x3db5db99	0.088797756
63	0x3f0f47e4	0.5596907

encoder_variable_selection.single_variable_grns.SinWeekly.fc1.bias f4 [8]
0	0xbf41b5b1	-0.75667864
1	0xbf29e665	-0.6636718
2	0xbe53dfce	-0.20690843
3	0xbebf2b2b	-0.37337622
4	0xbc873578	-0.016504988
5	0xbe330d39	-0.17485513
6	0xbeebe414	-0.46072447
7	0xbeac4cd2	-0.3365236

encoder_variable_selection.single_variable_grns.SinWeekly.fc2.weight f4 [8, 8]
0	0xbf88f6cc	-1.0700316
1	0x3f639d40	0.8891182
2	0xbf79be4d	-0.97556
3	0xbd33f6ee	-0.043936662
4	0x3e35a59d	0.17738958
5	0x3ba64f96	0.0050754054
6	0x3f357522	0.70881855
7	0x3d02bcf1	0.03191847
8	0x3f1e0e42	0.61740506
9	0xbdc45b45	-0.09587721
10	0x3ea821e7	0.32838365
11	0x3c0a63c3	0.008446637
12	0xbe21fa75	-0.15818198
13	0xbc6b18b8	-0.014349155
14	0x3f368a05	0.7130435
15	0x3cdd7474	0.027033068
16	0x3f93ac23	1.1536907
17	0xbf8a59cf	-1.0808657
18	0xbd96c3db	-0.07361575
19	0xbcd0a314	-0.025468387
20	0x3e5c2b1f	0.21500824
21	0x3d0ef6aa	0.034903206
22	0x3edf5f98	0.4362762
23	0x3cf081a1	0.029358687
24	0x3f347a93	0.70499533
25	0x3f9cce6e	1.2250497
26	0x3e341d74	0.1758936
27	0xbd924c82	-0.07143499
28	0x3e801e59	0.25023153
29	0x3d03811e	0.032105558
30	0x3eee36de	0.46526235
31	0x3c94cf33	0.018165207
32	0xbfc0af66	-1.5053527
33	0x3fc28f15	1.5199915
34	0xbf1a7d7a	-0.6034771
35	0xbd586f1d	-0.05284034
36	0x3efb2950	0.49054956
37	0x3cab0fb9	0.02088152
38	0xbce51342	-0.027963284
39	0x3d76ee3c	0.06028579
40	0xbe2d1089	-0.16900839
41	0xbfa7b77c	-1.310287
42	0xbefb27a3	-0.49053678
43	0xbd9b728b	-0.07590207
44	0xbf0e107a	-0.5549389
45	0x3d470b2d	0.048594642
46	0xbf223fe3	-0.63378733
47	0x3c19e8eb	0.009393911
48	0x3f7e10e2	0.9924451
49	0xbe446603	-0.1917954
50	0x3dbf8bd2	0.093528405
51	0x3d354874	0.04425855
52	0x3f096e2b	0.5368373
53	0xbc840988	-0.016117826
54	0x3f0d6797	0.5523619
55	0x3cef4dcb	0.0292119
56	0x3f230338	0.63676786
57	0xbe724b47	-0.23661529
58	0xbd01970d	-0.031638194
59	0xbb11c0b2	-0.00222401
60	0x3f4b0064	0.7929747
61	0x3cdfe436	0.0273305
62	0x3f7d52f0	0.9895468
63	0xbc95c7a0	-0.018283665

encoder_variable_selection.single_variable_grns.SinWeekly.fc2.bias f4 [8]
0	0xbe5390a3	-0.20660643
1	0x3dfe9e29	0.124325104
2	0xbd135399	-0.035968397
3	0x3e9bfcf9	0.3046644
4	0xbd5888f6	-0.05286499
5	0x3dda95b9	0.106730886
6	0x3ee4f17b	0.44715485
7	0x3f0e4083	0.5556719

encoder_variable_selection.single_variable_grns.SinWeekly.gate_norm.glu.fc.weight f4 [32, 8]
0	0xbd9e1f3f	-0.077208035
1	0x3ddb36ae	0.10703789
2	0x3e36d29b	0.17853777
3	0xbdd2ece9	-0.10299093
4	0x3d908a4e	0.070576295
5	0xbc99377a	-0.018703211
6	0xbec04d2e	-0.37558883
7	0xbe851376	-0.2599141
8	0x3f096e80	0.53684235
9	0x3ceb6991	0.028736861
10	0x3f1481ec	0.58010745
11	0xbe2e0db7	-0.1699742
12	0xbd70036d	-0.058597017
13	0xbdf0f3ed	-0.11765275
14	0xbebafe2f	-0.36522052
15	0xbe59fdb4	-0.21288186
16	0x3ef9a6d3	0.4876009
17	0x3f483d34	0.7821839
18	0xbf0428fe	-0.5162505
19	0x3e795750	0.24349713
20	0x3e916666	0.28398436
21	0xbeb997ae	-0.36248535
22	0xbede67cd	-0.4343857
23	0xbddc64b7	-0.10761397
24	0x3f9df0b4	1.2339082
25	0x3f0c43ea	0.5479113
26	0xbf94c664	-1.1623044
27	0x3e21288c	0.15738124
28	0x3f8e3093	1.1108574
29	0xbf809dc9	-1.0048152
30	0xbf3155b4	-0.692714
31	0xbd7a2063	-0.061066043
32	0x3ecccf12	0.40001732
33	0x3f00d638	0.5032687
34	0x3e18d7d0	0.14926076
35	0x3e8076ce	0.2509064
36	0x3d58c522	0.052922376
37	0xbecbbf97	-0.3979461
38	0x3eee9d55	0.4660441
39	0x3e96c1b5	0.29444662
40	0x3e171304	0.14753348
41	0xbe610b57	-0.21976982
42	0xbde3f7e7	-0.11131268
43	0x3e5a128c	0.21296138
44	0xbf419c4d	-0.7562912
45	0xbda0a5c5	-0.07844118
46	0x3e79198c	0.24326152
47	0x3d97fb88	0.07421023
48	0x3ff11529	1.8834583
49	0x3e0870d5	0.13324292
50	0xbfce4aec	-1.6116614
51	0xbf6cb2ea	-0.924605
52	0x3fee84e8	1.863431
53	0x3d1958de	0.037438266
54	0xbfdb204e	-1.7119234
55	0xbfaa5fe7	-1.3310517
56	0x3e24f98a	0.16110817
57	0xbed93b1b	-0.42427906
58	0x3c311ef3	0.0108106015
59	0xbec34260	-0.38136578
60	0xbf0271a6	-0.50954664
61	0xbee17480	-0.44034195
62	0xbd730d4b	-0.05933885
63	0xbe7cd9a0	-0.24692392
64	0x3f8bd7d5	1.0925242
65	0x3f9165c0	1.1359177
66	0xbf8409c7	-1.0315484
67	0x3fc53af4	1.5408616
68	0x3fa0e346	1.2569358
69	0xbfc8c7e5	-1.5686003
70	0x3f3a4778	0.727653
71	0x3f8e8d8a	1.1136944
72	0xbc4141ed	-0.011795503
73	0xbeadfcbe	-0.3398189
74	0x3f1d616d	0.61476785
75	0x3d47bb06	0.048762344
76	0xbf0ed09f	-0.5578708
77	0x3cd4c9e0	0.025975168
78	0xbea5a338	-0.3235109
79	0xbe001f75	-0.12512
80	0x3eb6da8e	0.3571362
81	0x3ea5c9cf	0.3238053
82	0x3dad2cb0	0.08455789
83	0x3e90b59c	0.28263557
84	0x3ea0003e	0.31250185
85	0xbe81b5aa	-0.2533391
86	0x3f1340ba	0.5752064
87	0x3f28381f	0.65710634
88	0x3f02807c	0.509773
89	0x3e8408fc	0.25788105
90	0x3e46f672	0.19429949
91	0x3e368502	0.17824176
92	0x3ec8d94f	0.39228293
93	0xbf818ce0	-1.0121117
94	0xbe115e2e	-0.14196083
95	0x3d3219e5	0.043481726
96	0x3ea3c4db	0.31986126
97	0x3f82caf4	1.0218186
98	0xbea47335	-0.32119146
99	0x3f3c81c9	0.73635536
100	0x3eb46e45	0.3524038
101	0xbf7de848	-0.9918256
102	0xbe27c5cd	-0.16384049
103	0xbd8ef569	-0.06980402
104	0x3f156735	0.58360606
105	0xbf3d0c66	-0.73847044
106	0xbf2da466	-0.6782898
107	0xbfadc435	-1.3575503
108	0x3f3dc58a	0.74129546
109	0x3f7a96c4	0.978863
110	0xbf27c9a7	-0.6554207
111	0xbf48f2e7	-0.7849564
112	0xbd92364c	-0.071392626
113	0xbf13861f	-0.5762653
114	0xbd0d71ce	-0.03453236
115	0xbe301a84	-0.17197615
116	0x3d833b8e	0.064078435
117	0x3e4f0aea	0.20219007
118	0xbe0eea7d	-0.13956638
119	0xbf18473d	-0.594837
120	0x3e877d67	0.26462862
121	0xbe33fd12	-0.17577007
122	0x3e6e1001	0.23248293
123	0xbe9f2a8d	-0.3108715
124	0xba516bdb	-0.0007988789
125	0x3cb78c6b	0.022405824
126	0x3dddd35e	0.10831331
127	0xbdc85d2d	-0.09783397
128	0xbda3a53c	-0.079905
129	0xbba1f2dd	-0.0049422816
130	0x3e3b90bb	0.18316929
131	0xbdeace0b	-0.11465081
132	0xbc3978bb	-0.011320288
133	0xbecc0047	-0.39843962
134	0xbef4ccdf	-0.47812554
135	0xbf08e9d1	-0.53481776
136	0x3f2670f7	0.6501612
137	0xbf11965b	-0.5687005
138	0xbd8cf85f	-0.068833105
139	0x3d838fd0	0.064239144
140	0x3cb5c920	0.02219063
141	0xbf1a7318	-0.6033187
142	0xbea2797e	-0.31733316
143	0xbdd0f67d	-0.10203264
144	0x3df3cce9	0.11904318
145	0x3d0aff81	0.033935074
146	0xbdab606a	-0.08367999
147	0x3ea1485b	0.31500515
148	0x3d3fafaa	0.046798386
149	0x3df7d2a6	0.12100725
150	0x3e123a06	0.14279947
151	0x3ff95865	1.9480101
152	0x3ecda6ee	0.4016642
153	0x3fd18f01	1.6371766
154	0x3d35ea4a	0.04441289
155	0x4004904b	2.071307
156	0x3e8373a5	0.25674167
157	0xc047b5ce	-3.1204715
158	0x3df5cbef	0.12001788
159	0x3f34b371	0.70586306
160	0x3e8b76f6	0.27239197
161	0x3d45af30	0.048262775
162	0xbfa0f67a	-1.2575219
163	0xbd463edb	-0.048399787
164	0x3e3b54f0	0.1829412
165	0xbd67320b	-0.05644421
166	0xbee3a5d0	-0.44462442
167	0xbeb25758	-0.34832263
168	0x3e1bcbdb	0.15214483
169	0x3e056c22	0.1302953
170	0x3d4b7ae4	0.049677745
171	0xbcad3319	-0.02114253
172	0x3daa5525	0.08317021
173	0xbf06e013	-0.5268566
174	0xbe9b239b	-0.30300602
175	0xbf362c3c	-0.71161246
176	0xbf4f3fd3	-0.80956763
177	0xbf69913f	-0.9123725
178	0x400cccae	2.1999927
179	0x3da1d246	0.079014346
180	0xbf42c135	-0.7607606
181	0xbe995478	-0.29947257
182	0x3fb090de	1.379421
183	0x3f2a3d43	0.6649973
184	0xbdfe70e5	-0.12423877
185	0x3e1dc9e5	0.15409048
186	0x3ed42889	0.41437176
187	0xbe716d54	-0.23576862
188	0x3e3a1c62	0.1817489
189	0xbefe2b92	-0.49642617
190	0xbea1f4d4	-0.31632102
191	0xbf5ca035	-0.86181957
192	0x3f7d269c	0.9888704
193	0xbda2c4c5	-0.07947687
194	0xbee2f7d6	-0.4432971
195	0x3f10adf6	0.56515443
196	0x3fbdf57f	1.4840544
197	0xbf9a4706	-1.2052925
198	0xbe0b9581	-0.1363125
199	0xbe36f10c	-0.1786539
200	0x3ef81e46	0.48460597
201	0x3ee06cf2	0.4383312
202	0xbf493651	-0.78598505
203	0x3f14e3da	0.58160174
204	0x3f905e89	1.127885
205	0xbf5ecb41	-0.8702889
206	0xbd8e4509	-0.06946761
207	0xbd9f3410	-0.07773602
208	0x3e029366	0.1275154
209	0xbf0280ea	-0.5097796
210	0xbf835956	-1.0261638
211	0x3e66628c	0.2249853
212	0x3f341e89	0.7035909
213	0xbe88c64a	-0.26713783
214	0xbca7a9fc	-0.020466797
215	0xbebeb16d	-0.3724474
216	0x3f77d89a	0.9681488
217	0x3cd359ca	0.02579965
218	0x3e6e1658	0.23250711
219	0x3f332936	0.6998476
220	0x3f4dfe50	0.80466175
221	0xbf951c93	-1.1649345
222	0x3e344091	0.17602755
223	0xbec0f7a8	-0.37688947
224	0xbfad7343	-1.35508
225	0xbea417e2	-0.3204947
226	0x4030d475	2.7629673
227	0x3e1a4392	0.15064839
228	0xbfa29228	-1.2700853
229	0xbe3294f0	-0.17439628
230	0x3fe0290c	1.7512527
231	0x3f8525f3	1.0402206
232	0xbdb259ba	-0.0870852
233	0x4053e87f	3.3110654
234	0x3dd0d475	0.10196773
235	0x40197a78	2.3981
236	0xbdefb728	-0.11704856
237	0xc06bf69c	-3.6869268
238	0x3de7afda	0.11312838
239	0x3dcc9493	0.09989276
240	0xbd94e634	-0.0727047
241	0x3cdc0b5f	0.02686089
242	0xbe1caeeb	-0.15301101
243	0x3dddd5ce	0.10831796
244	0x3e6adc86	0.22935686
245	0xbeb5a190	-0.35474825
246	0xbead1b15	-0.33809724
247	0xbe4d25c9	-0.20033945
248	0x3e387a94	0.1801551
249	0x3d3b75c0	0.045766592
250	0x3dfd819f	0.12378239
251	0x3cb4273c	0.021991365
252	0x3e53f25b	0.2069792
253	0xbea613bf	-0.3243694
254	0xbeb8dde3	-0.36106786
255	0xbe664e73	-0.22490864

encoder_variable_selection.single_variable_grns.SinWeekly.gate_norm.glu.fc.bias f4 [32]
0	0x3e09094e	0.13382456
1	0x3ddf45b1	0.109019645
2	0x3f358404	0.70904565
3	0x3f8aaead	1.0834557
4	0x3e9c9679	0.30583552
5	0x3e504131	0.20337369
6	0xbfef1cf3	-1.868071
7	0xbd794388	-0.06085542
8	0x3f620537	0.8828921
9	0xbd0a8464	-0.033817664
10	0x3f103d22	0.5634328
11	0xbd68dad2	-0.05684931
12	0xbfa55610	-1.2916889
13	0xbe8a6d23	-0.2703639
14	0xbf74c457	-0.9561209
15	0xbe230d43	-0.15923028
16	0xc057e7ad	-3.3735154
17	0xbfdb3205	-1.712464
18	0x3fa3a3b6	1.2784336
19	0xc0143566	-2.3157592
20	0x3f288304	0.65824914
21	0xc0640cfa	-3.563292
22	0xbf8b8b73	-1.0901932
23	0xc02ffc7a	-2.749785
24	0xbfe38354	-1.7774453
25	0xbfde90f1	-1.7387983
26	0x3f6a8d47	0.9162182
27	0xc0156b73	-2.3346832
28	0xbfc14365	-1.5098692
29	0xc00e001c	-2.2187567
30	0x3f54f620	0.83188057
31	0xc05ce565	-3.4515011

encoder_variable_selection.single_variable_grns.SinWeekly.gate_norm.add_norm.norm.weight f4 [16]
0	0x3f1e94b4	0.6194565
1	0xbda00f32	-0.07815398
2	0x3fa1c2b8	1.2637548
3	0x3f8188b7	1.0119847
4	0x3f0417f7	0.5159907
5	0x3e89fb62	0.26949602
6	0x3faa06f3	1.3283371
7	0xbd265462	-0.040607817
8	0x3f60a5c5	0.87752944
9	0x3d22f219	0.039781664
10	0x3ff06aae	1.8782556
11	0x3efb25ea	0.49052364
12	0xbacfb80a	-0.0015847695
13	0x3fb70e6f	1.430128
14	0x3fe4b580	1.786789
15	0x3f0a52b2	0.54032433

encoder_variable_selection.single_variable_grns.SinWeekly.gate_norm.add_norm.norm.bias f4 [16]
0	0xbe7e3dc5	-0.2482825
1	0x3e236bb3	0.15959053
2	0xbdc2442a	-0.094856575
3	0x3e73a15b	0.23792021
4	0x3e9068ba	0.282049
5	0xbe5d1fa2	-0.21594098
6	0x3cd27688	0.025691286
7	0x3e614017	0.21997105
8	0xbd862b6d	-0.065512516
9	0xbe2cfa24	-0.16892296
10	0x3c017231	0.0079007605
11	0xbd3030c2	-0.04301525
12	0xbef5b599	-0.4799011
13	0x3d0e5018	0.034744352
14	0xbcd58b9a	-0.026067544
15	0x3e84fde9	0.25974968

encoder_variable_selection.single_variable_grns.VaccinationFull.resample_norm.mask f4 [16]
0	0x3f1b1767	0.60582584
1	0xbfee3b65	-1.8611876
2	0xbf7f015f	-0.9961147
3	0xbff27cab	-1.8944296
4	0x3fc640f7	1.5488576
5	0xbf8ab7bb	-1.083732
6	0xbf14a64e	-0.5806626
7	0x3f606cdc	0.87666106
8	0x3eb9f283	0.36317834
9	0xc00216a8	-2.0326328
10	0x3f2a0ccf	0.66425794
11	0x3e332aa3	0.17496733
12	0xbfb64072	-1.4238417
13	0xbeb16c0d	-0.3465275
14	0xbf469bb4	-0.77581334
15	0xbf7f8ea7	-0.99827045

encoder_variable_selection.single_variable_grns.VaccinationFull.resample_norm.norm.weight f4 [16]
0	0x3fcd036f	1.6016673
1	0x3f866333	1.0499023
2	0x3e38c675	0.18044455
3	0x3e386a4e	0.18009302
4	0x40234c98	2.55155
5	0x3f8066ae	1.0031335
6	0x3f732af0	0.9498739
7	0x4014347f	2.315704
8	0x3feba863	1.8410763
9	0xbe69fef4	-0.22851163
10	0x402f32af	2.7374685
11	0x3fba0d91	1.453539
12	0xbede2144	-0.43384755
13	0x3f6db7b4	0.92858434
14	0x3f20e9db	0.62856835
15	0x3f8c2ea2	1.0951731

encoder_variable_selection.single_variable_grns.VaccinationFull.resample_norm.norm.bias f4 [16]
0	0x3f272f76	0.65306795
1	0xbed45baa	-0.41476184
2	0x3e698383	0.22804074
3	0xbeacbe7f	-0.33739087
4	0x3efb9b95	0.49142137
5	0x3e448815	0.19192536
6	0x3e72bb9f	0.23704384
7	0x3f97c03e	1.1855543
8	0x3daf5f0a	0.08563049
9	0xbf0862a0	-0.5327549
10	0xbb88721c	-0.0041639935
11	0xbddea7d0	-0.108718514
12	0xbdc24508	-0.09485823
13	0x3df36a3e	0.118854985
14	0x3dc9b2d3	0.09848561
15	0xbe57489f	-0.21023796

encoder_variable_selection.single_variable_grns.VaccinationFull.fc1.weight f4 [8, 8]
0	0x3f01d18f	0.50710386
1	0xbe6afe1c	-0.22948498
2	0xbf3d903a	-0.740482
3	0x3d4616d9	0.048361633
4	0x3fad1077	1.352065
5	0x3d3c931c	0.046038732
6	0xbeee5574	-0.4654957
7	0xbe194de3	-0.14971118
8	0xbf1f59b7	-0.6224627
9	0xbe216ee6	-0.1576496
10	0xbfd3e6ef	-1.655485
11	0xc009bbd2	-2.1520886
12	0x3e3615d8	0.1778177
13	0x3f92f6ed	1.1481606
14	0x3f30a82a	0.690066
15	0x3f88d127	1.0688828
16	0x3e043d63	0.12914042
17	0xbf34bf03	-0.7060396
18	0xbd9d1aa4	-0.07671097
19	0xbe16e9c4	-0.14737612
20	0xbe04f80d	-0.12985249
21	0x3ebcb5ef	0.36857554
22	0xbe746a7f	-0.2386875
23	0xbf2029d8	-0.6256385
24	0xbedabaa4	-0.4272052
25	0xbf702eb4	-0.93821263
26	0xbf8e8cfa	-1.1136773
27	0xbe4f3569	-0.20235218
28	0xbeb72ee6	-0.35777968
29	0x400024b1	2.0022395
30	0xbe1ae364	-0.15125805
31	0x3fb96dbe	1.4486616
32	0xbf3b49a0	-0.7315922
33	0x3f518fe9	0.81860214
34	0xbed2f49d	-0.4120225
35	0xbf7c5dc0	-0.9858055
36	0xbcfc23d2	-0.0307788
37	0x3fb603ef	1.421995
38	0x3f44afab	0.7683055
39	0x3fe370dd	1.7768818
40	0xbe8dcb5e	-0.2769422
41	0x3e866ec0	0.2625637
42	0x3ec16ac3	0.37776765
43	0xbebb4a54	-0.36580145
44	0xc000ef44	-2.0146036
45	0xbf6f0ac9	-0.9337583
46	0xbefa45af	-0.4888129
47	0xbfe7decc	-1.8114867
48	0xbf24dba7	-0.6439766
49	0x3f09e919	0.53871304
50	0x3e4cdf77	0.2000712
51	0x3e04bb29	0.12962021
52	0x3f656985	0.89614135
53	0xbeb478c8	-0.352484
54	0x3e97e9c7	0.29670545
55	0xbd734c0d	-0.0593987
56	0x3d74124c	0.05958776
57	0xbe6b808e	-0.22998258
58	0xbe84cb22	-0.25936228
59	0xbf024d27	-0.50898975
60	0xbfbcee43	-1.4760212
61	0xbf9df71a	-1.2341034
62	0x3d4b8410	0.04968649
63	0xbfc22bd1	-1.5169622

encoder_variable_selection.single_variable_grns.VaccinationFull.fc1.bias f4 [8]
0	0x3f444b4c	0.76677394
1	0xbea462af	-0.3210654
2	0x3e03f983	0.1288815
3	0x3cd3a4c4	0.025835402
4	0xbf143786	-0.5789722
5	0xbf724cf2	-0.9464866
6	0xbe577eb7	-0.21044432
7	0xbf6b9183	-0.9201891

encoder_variable_selection.single_variable_grns.VaccinationFull.fc2.weight f4 [8, 8]
0	0xbf0c5691	-0.5481959
1	0xbf12a9fc	-0.57290626
2	0xbcab158b	-0.020884296
3	0xbf57fd60	-0.84370995
4	0xbf898e87	-1.0746621
5	0x3e3a686a	0.18203893
6	0xbdc5b67b	-0.09653946
7	0x3e0ecf21	0.13946201
8	0x3f641ebd	0.891094
9	0xbfddfd7c	-1.7342982
10	0xbd2a7c6c	-0.041622564
11	0xbf87b6da	-1.0602677
12	0xbfac8219	-1.3477203
13	0xbf6ecff1	-0.93286043
14	0xbbbcd26d	-0.0057623894
15	0xbef91aa0	-0.48653126
16	0xbfbaa01e	-1.4580114
17	0x3fbf3e2b	1.4940847
18	0xbc744f1b	-0.014911438
19	0x3fbffac5	1.4998404
20	0x3f3d30e7	0.73902744
21	0x3f3577e8	0.7088609
22	0x3bef678d	0.0073060454
23	0x3f5ccdab	0.86251324
24	0x3d6ab8ec	0.05730526
25	0xbfa4ac74	-1.2865129
26	0xbd595678	-0.05306098
27	0xbf08a025	-0.5336936
28	0xbeabcf20	-0.3355646
29	0xbfac3a54	-1.34553
30	0xbdb06176	-0.08612339
31	0xbf18494a	-0.5948683
32	0xbe0fb323	-0.14033179
33	0xbe620cb4	-0.22075158
34	0xbcc897d5	-0.024486462
35	0x3decc9e2	0.115619436
36	0x3e799cd9	0.24376239
37	0x3f367922	0.71278584
38	0xbe2a69e7	-0.16641961
39	0x3f8b8210	1.0899067
40	0x3db54d9f	0.08852696
41	0x3f4871f5	0.78298885
42	0x3c0ef6cd	0.008725834
43	0x3f829867	1.020276
44	0x3ef031c3	0.46912965
45	0xbe53652c	-0.20644063
46	0xbd269878	-0.04067275
47	0xbf8e978f	-1.1140002
48	0x3ef4e9fb	0.47834763
49	0x3e9865e0	0.29765224
50	0xbde5e0d5	-0.11224524
51	0x3f76ef7d	0.9645918
52	0x3f033235	0.51248485
53	0xbf3d54e1	-0.7395764
54	0xbdc97a9e	-0.098378405
55	0xbce5695c	-0.02800434
56	0x3e0d3779	0.13790692
57	0x3f857031	1.0424863
58	0xbce3b79b	-0.02779751
59	0x3f967216	1.1753566
60	0xbe2046c9	-0.15652002
61	0xbed8ea22	-0.4236613
62	0xbe54c315	-0.20777543
63	0xbe973975	-0.29536024

encoder_variable_selection.single_variable_grns.VaccinationFull.fc2.bias f4 [8]
0	0xbe3c4347	-0.1838504
1	0x3f59c164	0.85060716
2	0xbf842102	-1.0322573
3	0x3e88caf5	0.26717344
4	0xbe26cba7	-0.16288625
5	0x3eb0c1ac	0.3452276
6	0x3d7a1aa2	0.061060555
7	0x3e74cf7a	0.23907271

encoder_variable_selection.single_variable_grns.VaccinationFull.gate_norm.glu.fc.weight f4 [32, 8]
0	0xbe64d5f2	-0.22347239
1	0x402be887	2.6860673
2	0xbfed2e15	-1.8529688
3	0x3f3d12b4	0.73856664
4	0xbf0cabd0	-0.54949665
5	0x3f033402	0.5125123
6	0x3f104c16	0.563661
7	0x3e8e0c9e	0.27744
8	0x3d99d704	0.07511714
9	0xbf20211c	-0.6255052
10	0x3f281b43	0.656666
11	0xbfa716e4	-1.3053861
12	0x3f082cc2	0.53193295
13	0xbe6e18ee	-0.23251697
14	0xbea46b5e	-0.32113165
15	0xbe6ce0b4	-0.23132592
16	0xbf39401a	-0.72363436
17	0x3e2304e2	0.15919831
18	0xbe04e803	-0.1297913
19	0x3f72148c	0.945626
20	0xbe5dc5eb	-0.21657531
21	0x3e88dad8	0.26729465
22	0xbf5442e1	-0.8291455
23	0xbcb7fbe7	-0.022458984
24	0xbfe0b2fd	-1.7554623
25	0x3d9e48d4	0.077287346
26	0xbe57ca87	-0.21073352
27	0x4002fd47	2.0467088
28	0xc00c317d	-2.1905205
29	0x3fd49cbd	1.6610333
30	0x3ff0e18a	1.8818829
31	0x3fafeea8	1.3744707
32	0x3fc48dec	1.5355811
33	0x3e4f7d87	0.20262729
34	0x3eb79f7a	0.35863858
35	0xbe87ed87	-0.26548406
36	0x3fcfaae7	1.622403
37	0xbfe5d923	-1.795689
38	0xbfe8fac3	-1.8201526
39	0xbfc1462d	-1.5099541
40	0xbb8c13f8	-0.0042748414
41	0xbda1e5c3	-0.07905152
42	0x3f07e4ad	0.53083307
43	0xbd83c64a	-0.06434305
44	0xbf00f2ee	-0.5037068
45	0x3e95279f	0.2913179
46	0x3e13d8cf	0.14438175
47	0x3ed0f3c3	0.40810975
48	0xbdf95746	-0.12174849
49	0x3ea9872a	0.33110934
50	0x3b3056ca	0.00269072
51	0x3e505cad	0.20347853
52	0xbebdb95f	-0.3705549
53	0x3e901180	0.2813835
54	0x3eb92bf0	0.36166334
55	0x3dcff0d9	0.1015336
56	0x3f996dc0	1.1986618
57	0x3ffb60c4	1.9638906
58	0xbfd82326	-1.6885726
59	0xbe34b216	-0.1764606
60	0x3f321551	0.69563776
61	0xbf94663e	-1.1593702
62	0xbf822e84	-1.0170445
63	0xbfb6aeee	-1.4272134
64	0xbf221f19	-0.633287
65	0x3fff21ef	1.9932231
66	0xbff0ea3c	-1.8821483
67	0x3f48daf3	0.7845909
68	0xbf5e857c	-0.8692243
69	0x3f15993d	0.5843695
70	0x3f185c37	0.5951571
71	0x3f003c56	0.50092065
72	0x3ef17ebc	0.47167003
73	0x3d452a99	0.048136327
74	0x3d8dd268	0.069248974
75	0xbf0748e9	-0.5284563
76	0x3f447190	0.7673578
77	0xbf3259be	-0.69668186
78	0xbf4362f2	-0.76322854
79	0xbf055057	-0.52075714
80	0xbe7fadc7	-0.24968635
81	0x3f292f11	0.6608744
82	0xbe91eeeb	-0.28502592
83	0x3ee41ec0	0.4455471
84	0xbea0965a	-0.3136471
85	0x3e9d08fa	0.3067091
86	0x3e4696d9	0.19393481
87	0x3daffa31	0.08592642
88	0xbe2bee05	-0.16790016
89	0xbfb50334	-1.4141603
90	0x3f82525e	1.0181386
91	0xbf40f851	-0.753789
92	0x3dc3ef25	0.095670976
93	0xbe3bf6aa	-0.18355814
94	0xbec7f18c	-0.39051473
95	0xbc130d9b	-0.008975412
96	0x3e36d471	0.17854477
97	0x3f2ea84c	0.6822555
98	0xbf1bea5b	-0.60904473
99	0x3f50aa9c	0.8151033
100	0xbe3da4b0	-0.18519855
101	0xbe4b6049	-0.19860949
102	0xbe094a2c	-0.134072
103	0xbf26ff23	-0.6523306
104	0xbde7397f	-0.112902634
105	0xbfb11fc7	-1.3837823
106	0x3fa8f1af	1.3198756
107	0xbea2fbe6	-0.31832808
108	0x3eab6c70	0.3348117
109	0xbec550e3	-0.38538274
110	0xbe73be63	-0.23803096
111	0xbd80dfa1	-0.06292654
112	0xbe96a581	-0.29423144
113	0x3f4c5341	0.79814535
114	0xbef1e36e	-0.47243828
115	0x3f5cbb7d	0.86223584
116	0xbf0d3aa6	-0.55167615
117	0x3f09684a	0.5367476
118	0x3ea6e78f	0.3259854
119	0x3f24610a	0.6421057
120	0x3f174627	0.5909142
121	0x3e946c0b	0.2898868
122	0x3d8e0525	0.06934575
123	0x3e70df9b	0.23522799
124	0xbbc3749f	-0.00596483
125	0xbd0fa465	-0.03506889
126	0x3f01665f	0.5054683
127	0x3d82c013	0.063842915
128	0x3d4fc342	0.05072332
129	0xbf7a1283	-0.97684497
130	0x3fb59581	1.418625
131	0x3c645a88	0.0139376
132	0x3df3d6ab	0.11906179
133	0xbdd87e50	-0.10570967
134	0xbe0f9ff9	-0.14025868
135	0xbe836db5	-0.25669637
136	0xbdd366c9	-0.10322339
137	0x3f757cc2	0.9589349
138	0xbf3ff778	-0.7498698
139	0x3fa89ac0	1.3172226
140	0xbf511347	-0.8167004
141	0x3e981d8a	0.29710037
142	0x3f687fea	0.9082018
143	0x3e4806d8	0.1953386
144	0x3ec71576	0.3888356
145	0x403b70be	2.9287562
146	0xbe22556a	-0.15852895
147	0x3eef7807	0.4677126
148	0x3ec93ae9	0.39302757
149	0x3eb93c6f	0.3617892
150	0xbe0e5283	-0.13898663
151	0xbd4fe087	-0.050751235
152	0x3fbe82e8	1.48837
153	0x3e9ac958	0.30231738
154	0xbe0039f3	-0.12522106
155	0xbe7c089a	-0.24612656
156	0x3e8b2692	0.27177864
157	0xbfb81921	-1.4382669
158	0xbf116e73	-0.5680916
159	0xbf8b2fbe	-1.0873945
160	0xc067d891	-3.6225932
161	0x3ec0a076	0.37622422
162	0x3ded0e0a	0.11574943
163	0xbdd01426	-0.10160093
164	0xbed89d04	-0.42307293
165	0x405c339e	3.4406505
166	0x3f4bfcc9	0.79682595
167	0x405044c4	3.2541971
168	0x3e819cad	0.25314847
169	0xbfc46f2f	-1.534643
170	0x3f8266fe	1.0187681
171	0x3eee72e5	0.46572033
172	0x3dc52a58	0.09627217
173	0xbe2f5f17	-0.17126118
174	0xbf0e9e5c	-0.5571039
175	0xbecb2193	-0.39674053
176	0xbeaacfbf	-0.33361623
177	0x3f84d805	1.0378424
178	0xbf9b0286	-1.2110145
179	0x3eb29862	0.34881884
180	0xbec05155	-0.3756205
181	0x3edddf56	0.43334454
182	0x3e42424c	0.18970603
183	0x3e89773e	0.26848787
184	0x4027cd45	2.6219037
185	0xbd023d06	-0.031796478
186	0xbd546bb4	-0.051860526
187	0x3d3045e2	0.043035395
188	0x3ef69c0f	0.48165938
189	0xc01905b3	-2.3909729
190	0xbff25a9f	-1.8933905
191	0xbf8cb942	-1.0994036
192	0xbf07f85b	-0.53113335
193	0xbe33ba0a	-0.17551437
194	0x3e1e842e	0.1548011
195	0xbc6a18e0	-0.014288157
196	0xbdebe790	-0.115187764
197	0x3ef15998	0.47138667
198	0x3e25582e	0.16146919
199	0x3f47ebfd	0.78094465
200	0x3f36e441	0.7144204
201	0x3d4f0d23	0.050549638
202	0x3e5fe7d0	0.21865773
203	0xbf6a7759	-0.9158836
204	0x40017446	2.0227218
205	0xbf5435e7	-0.8289475
206	0xbefe1378	-0.49624228
207	0xbfb33dab	-1.4003195
208	0x3e8ffcfb	0.28122696
209	0xbeb7b54e	-0.35880512
210	0x3f560366	0.83598936
211	0xbf29171f	-0.66050905
212	0x3f3c6d5a	0.7360436
213	0xbec7a895	-0.38995805
214	0xbdf337f3	-0.11875906
215	0xbd450bba	-0.048106886
216	0x3f9266ba	1.14376
217	0xbd61f7c1	-0.055167917
218	0xbcb55d52	-0.022139225
219	0xbde947e8	-0.11390668
220	0x3ec13726	0.37737387
221	0x3d33ceea	0.0438985
222	0xbf842433	-1.0323547
223	0xbf61e0e5	-0.88233787
224	0x3e80347d	0.25040045
225	0x403cebf1	2.9519007
226	0xbfa0e506	-1.2569892
227	0x3fa26f8a	1.2690289
228	0xbeab6be8	-0.33480763
229	0x3df81e48	0.12115151
230	0x3dabc792	0.083876744
231	0xbe387da0	-0.18016672
232	0x3e2a9393	0.16657858
233	0xbf96b15b	-1.1772875
234	0x3ff9b3b2	1.9507964
235	0x3c729ca7	0.014807857
236	0x3e5675af	0.2094333
237	0xbde94dc2	-0.11391784
238	0xbc49f6e7	-0.0123269325
239	0xbe8c714d	-0.27430192
240	0x403c13f7	2.9387186
241	0xbe2017c3	-0.15634064
242	0x3d5b51a8	0.05354467
243	0xbdbf0735	-0.093275465
244	0xbe158240	-0.14600468
245	0xc02c96d2	-2.6967053
246	0xbdb80648	-0.08985573
247	0xc0449a24	-3.071908
248	0xbd08c46a	-0.03339044
249	0x3f625962	0.8841764
250	0x3d9103f0	0.07080829
251	0x3fc65931	1.5495969
252	0xbea00b9f	-0.31258866
253	0x3cf1fc6f	0.029539315
254	0xbf0dcd60	-0.553915
255	0xbe9dc606	-0.30815142

encoder_variable_selection.single_variable_grns.VaccinationFull.gate_norm.glu.fc.bias f4 [32]
0	0x3fad444c	1.3536468
1	0xbeb00611	-0.34379628
2	0xbdd0740b	-0.101783834
3	0xbff4c067	-1.9121217
4	0xbf97d86a	-1.1862919
5	0xbf28407e	-0.6572341
6	0x3e20933d	0.15681167
7	0x4010bdc4	2.2615824
8	0x3fad9bfc	1.3563228
9	0x3f5e769e	0.86899745
10	0x3e3ee22e	0.18640968
11	0xbf9a1877	-1.2038716
12	0x3f7567d3	0.9586155
13	0xbed3c968	-0.41364598
14	0x3f3a688c	0.72815776
15	0x3ecd37f1	0.40081742
16	0xc012a54c	-2.291339
17	0x3ed6fc47	0.41989347
18	0x3e880669	0.2656739
19	0x3e58f01f	0.21185349
20	0x3cb29554	0.02179972
21	0xc014f271	-2.3272974
22	0x3f44de6f	0.76901907
23	0xbdf80afe	-0.121114716
24	0xbf4b5fd5	-0.79443103
25	0x3e284528	0.16432631
26	0xbff0dbf6	-1.8817127
27	0xbecce301	-0.4001694
28	0x3f21dfaf	0.6323194
29	0xbfeab154	-1.8335366
30	0x3efdf124	0.49598038
31	0xbfa96c34	-1.3236146

encoder_variable_selection.single_variable_grns.VaccinationFull.gate_norm.add_norm.norm.weight f4 [16]
0	0x3fae168f	1.3600634
1	0x3fc9b922	1.5759623
2	0x3e212619	0.1573719
3	0x3f80c366	1.0059631
4	0x3f62e47f	0.8862991
5	0x3c19ef66	0.009395456
6	0x3eafe6cb	0.3435577
7	0x3ed908f9	0.42389658
8	0x3f3b30f0	0.7312155
9	0x3f0abf83	0.54198474
10	0xbf8651ab	-1.0493673
11	0x3f685ecf	0.90769666
12	0x3f2aa872	0.6666328
13	0x3f67af21	0.905016
14	0x3f57cca9	0.8429666
15	0x3d94bd28	0.07262641

encoder_variable_selection.single_variable_grns.VaccinationFull.gate_norm.add_norm.norm.bias f4 [16]
0	0xbeee8303	-0.4658433
1	0x3ddd277f	0.10798549
2	0xbcbdb670	-0.023158282
3	0x3c0742c6	0.008255666
4	0x3ee829a6	0.45344275
5	0xbe656bea	-0.22404447
6	0xbe0ad8a1	-0.135592
7	0x3e858ffd	0.26086417
8	0xbe3ecc62	-0.18632653
9	0xbe32ce75	-0.1746157
10	0x3e73ece9	0.23820843
11	0x3e6cc28c	0.23121089
12	0xbee4bab7	-0.44673702
13	0x3e347bbf	0.1762533
14	0xbe8fb472	-0.28067356
15	0x3db9e191	0.090762265

encoder_variable_selection.single_variable_grns.Cases.resample_norm.mask f4 [16]
0	0xbe28e8ee	-0.16495106
1	0x3e66abcf	0.22526477
2	0xbfe41d10	-1.7821369
3	0xbf11968b	-0.56870335
4	0xbec41fae	-0.3830542
5	0x3f642bfb	0.8912961
6	0xbf2f7235	-0.6853364
7	0xbfa3959a	-1.278003
8	0xc042e0e2	-3.0449758
9	0x3f8aef81	1.0854341
10	0xbe346e9b	-0.17620318
11	0xbe599533	-0.21248321
12	0xbfccb35d	-1.5992237
13	0xbf9db4ce	-1.2320802
14	0x3e8fe3a7	0.28103372
15	0x3ed49885	0.41522613

encoder_variable_selection.single_variable_grns.Cases.resample_norm.norm.weight f4 [16]
0	0x3fa7b664	1.3102536
1	0x4013632c	2.302928
2	0x3f97a3fa	1.1846917
3	0x3fa33db5	1.2753206
4	0x3f55502b	0.8332545
5	0x4006d1d8	2.1065578
6	0x3fd95e75	1.6981951
7	0x3f9ad75b	1.2096971
8	0xbd8c6a49	-0.0685621
9	0x4021fd7b	2.5310962
10	0x3fb4fddd	1.4139973
11	0x3faa4e33	1.3305115
12	0xbe475385	-0.19465454
13	0x3ef05c0d	0.4694523
14	0x40110068	2.2656498
15	0x3ff68c54	1.9261575

encoder_variable_selection.single_variable_grns.Cases.resample_norm.norm.bias f4 [16]
0	0x3e9f6bd0	0.31136942
1	0xbf12f8be	-0.574108
2	0xbf79e1c4	-0.97610116
3	0xbf6050e1	-0.8762341
4	0x3e674972	0.22586611
5	0xbf42c622	-0.76083577
6	0x3f252550	0.6451006
7	0xbe9419d8	-0.28925967
8	0xbef39be1	-0.47579864
9	0xbdc2974a	-0.09501512
10	0x3fa5a0fc	1.2939754
11	0xbec24cb7	-0.37949154
12	0x3f0f6e2c	0.56027484
13	0xbf0e16fb	-0.55503815
14	0x3ca61749	0.020274775
15	0x3f47da20	0.7806721

encoder_variable_selection.single_variable_grns.Cases.fc1.weight f4 [8, 8]
0	0xbe3c4023	-0.18383841
1	0x3ffab155	1.9585367
2	0x3e6047fb	0.21902458
3	0xbf8e891d	-1.1135594
4	0xbf716b0f	-0.94303983
5	0x3f0f577a	0.55992854
6	0xbe34417b	-0.17603104
7	0xbedbe624	-0.4294902
8	0x3ecfb0bc	0.40564525
9	0x3f94d17e	1.1626432
10	0xbe628c2a	-0.22123781
11	0xc054f869	-3.3276618
12	0xbfce01c9	-1.6094295
13	0xbe2248a4	-0.15848023
14	0x3e760a82	0.24027446
15	0x3d7cf2cf	0.061754998
16	0x3e62fd16	0.22166857
17	0x3e039a14	0.12851745
18	0x3e90e319	0.28298262
19	0x3c95754e	0.018244412
20	0xbdbb87b6	-0.09156744
21	0x3edcc18e	0.4311642
22	0xbf200ea4	-0.6252234
23	0x3df9f888	0.12205607
24	0xbf4a6999	-0.7906738
25	0x3e090eaa	0.133845
26	0x3f88c916	1.0686367
27	0x3e58c09b	0.21167223
28	0x3f161bfc	0.5863645
29	0xbef574ef	-0.47940776
30	0x3ef2279a	0.4729584
31	0x3ef5303a	0.47888356
32	0xbee64f74	-0.44982493
33	0xbe163152	-0.14667252
34	0x3ed998da	0.4249943
35	0x3db4de65	0.08831481
36	0x3e20e349	0.15711702
37	0x3e845474	0.25845683
38	0x3ea725ce	0.3264603
39	0x3d388286	0.04504635
40	0xbe4c7d92	-0.19969776
41	0x3f5e143d	0.8674963
42	0x3e28f800	0.16500854
43	0xc033ff41	-2.8124545
44	0xbf903ab2	-1.1267912
45	0xbea976c4	-0.33098423
46	0x3e0bad72	0.13640383
47	0x3f5feb19	0.87468106
48	0x3e2f8b78	0.17143047
49	0x3f1a04c0	0.601635
50	0x3c95a4c8	0.01826705
51	0x3db01691	0.08598054
52	0xbfc501b8	-1.539115
53	0x3ea364fa	0.31912977
54	0x3eb415a3	0.35172758
55	0xbd954143	-0.07287838
56	0x3d3ed45e	0.046589248
57	0xbf00f666	-0.50375974
58	0xbf4fd17a	-0.8117901
59	0xbeff60bb	-0.49878487
60	0x3dd3b278	0.103367746
61	0xbc301450	-0.01074703
62	0xbf333828	-0.7000756
63	0x40103fb3	2.253888

encoder_variable_selection.single_variable_grns.Cases.fc1.bias f4 [8]
0	0xbf11e3ab	-0.5698802
1	0xbf2084ba	-0.62702525
2	0x3cb29c0a	0.02180292
3	0xbf62cf91	-0.8859797
4	0xbf2e90e0	-0.6818981
5	0xbf0704bc	-0.527416
6	0xbf523eb3	-0.8212692
7	0xbf0ef526	-0.55842817

encoder_variable_selection.single_variable_grns.Cases.fc2.weight f4 [8, 8]
0	0x3ddf79b1	0.10911883
1	0x3f5ebbb5	0.8700517
2	0xbde1838b	-0.11011418
3	0xbd4c2494	-0.04983957
4	0x3d5fc3d0	0.0546301
5	0xbd865bad	-0.065604545
6	0x3f7b0c55	0.9806569
7	0x3e8a2590	0.26981783
8	0xbe6b8aaa	-0.23002115
9	0x3eb3be16	0.35105962
10	0x3e00a481	0.12562753
11	0xbd9f9208	-0.07791525
12	0x3dbd1e89	0.0923434
13	0x3d6b80a1	0.057495717
14	0xbd84e7dc	-0.06489536
15	0xbf3f83af	-0.7481031
16	0x3e31d5c1	0.17366697
17	0xbf01f8f7	-0.50770515
18	0xbe1dfd86	-0.15428743
19	0xbc9cb850	-0.019130856
20	0x3e8204c7	0.2539427
21	0x3e48beea	0.19604078
22	0xbdaa347b	-0.08310791
23	0x3f2dea60	0.6793575
24	0xbefa66e2	-0.48906618
25	0xbf37e5fd	-0.7183531
26	0xbd63a60e	-0.055578284
27	0xbcd0d7bf	-0.0254935
28	0xbd1854f6	-0.0371904
29	0xbf0977d6	-0.5369848
30	0xbf2109fe	-0.6290587
31	0xbe869227	-0.2628338
32	0x3f164795	0.58702976
33	0x3f53c3fc	0.82720923
34	0x3da4c098	0.08044547
35	0xbb9053ee	-0.0044045364
36	0x3d7e32bd	0.062060107
37	0xbe02597d	-0.1272945
38	0x3e960423	0.2930003
39	0x3f3bb3c6	0.7332119
40	0x3d9f6cdb	0.077844344
41	0x3e3b8811	0.18313624
42	0x3e55f19e	0.20892951
43	0xbd978e34	-0.0740017
44	0xbdc00976	-0.093768045
45	0x3e5987bf	0.2124319
46	0xbe01e79e	-0.12686011
47	0x3f3d50e3	0.7395155
48	0xbf7486a5	-0.9551795
49	0xbf267ae3	-0.6503126
50	0xbd46463b	-0.04840682
51	0xbcfbe4bc	-0.030748717
52	0xbce58365	-0.028016755
53	0xbeaced2a	-0.33774692
54	0x3e4faa4c	0.20279807
55	0xbe933b14	-0.2875601
56	0x3f22321d	0.63357717
57	0x3f687080	0.9079666
58	0xbd163245	-0.036669035
59	0x3c4bd67f	0.012441277
60	0xbde2736a	-0.1105717
61	0x3e98894f	0.29792258
62	0x3df3c0f1	0.11902035
63	0x3eb36721	0.3503962

encoder_variable_selection.single_variable_grns.Cases.fc2.bias f4 [8]
0	0xbe515ca5	-0.20445497
1	0x3ec9a01b	0.39379963
2	0xbebc7e04	-0.36814892
3	0x3e3473f4	0.17622358
4	0x3d89ffec	0.06738266
5	0xbd4cd0d2	-0.050003834
6	0xbc4905ba	-0.012269432
7	0xbe8df4aa	-0.27725726
