race-groups/results/Hispanic/checkpoints/best-epoch=2.ckpt (torch, 735853 bytes, 506 tensors)

prescalers.Hispanic.weight f4 [8, 1]
0	0x3d558035	0.05212422
1	0xbf0c1bbe	-0.5472983
2	0x3ecf1ffd	0.40454093
3	0x3e95ff8c	0.2929653
4	0xbe859857	-0.2609279
5	0xbbe2f4f9	-0.0069261757
6	0xbf557c15	-0.8339246
7	0x3ed86572	0.42264897

prescalers.Hispanic.bias f4 [8]
0	0xbe4b332a	-0.19843736
1	0x3f825b03	1.0184025
2	0x3da34d4a	0.07973726
3	0xbe8adee7	-0.27123186
4	0xbefc2525	-0.4924709
5	0xbec1ef4e	-0.37877887
6	0x3ed972e3	0.42470464
7	0xbea6c024	-0.32568467

prescalers.SinWeekly.weight f4 [8, 1]
0	0x3d9a356c	0.07529721
1	0xbfa2bb98	-1.2713499
2	0x3f79e335	0.97612315
3	0xbf7c3a98	-0.98526907
4	0x3f20f9e6	0.62881315
5	0xbe6fb6a4	-0.23409516
6	0x3f505285	0.81375915
7	0x3f1a41b3	0.602565

prescalers.SinWeekly.bias f4 [8]
0	0x3e1938ea	0.14963117
1	0xbd47af51	-0.04875118
2	0x3f243978	0.6415019
3	0x3e70c62c	0.23513097
4	0x3f108211	0.56448466
5	0xbf236f0c	-0.6384132
6	0x3f45e476	0.7730173
7	0x3ec1a444	0.37820637

prescalers.VaccinationFull.weight f4 [8, 1]
0	0xbb7d7af0	-0.0038678013
1	0x3eadd5d2	0.33952194
2	0x3f13e2d4	0.5776799
3	0x3f5c8a2e	0.86148345
4	0xbe2e2a6b	-0.17008369
5	0xbf0903bf	-0.5352134
6	0xbf12514c	-0.571553
7	0xbf277d56	-0.6542562

prescalers.VaccinationFull.bias f4 [8]
0	0x3f5d6ecc	0.8649719
1	0xbe4700b3	-0.1943386
2	0xbe9462c6	-0.28981608
3	0x3f9a652f	1.2062129
4	0x3f0bba1c	0.54580855
5	0x3dde26c9	0.108472414
6	0xbf0f629e	-0.5600985
7	0x3d66243c	0.0561869

prescalers.Cases.weight f4 [8, 1]
0	0x3ef5894a	0.47956306
1	0xbf7a9a2e	-0.9789151
2	0xbf176be6	-0.59149015
3	0x3f6e6163	0.9311735
4	0x3f9ab858	1.2087507
5	0x3dcab26a	0.09897311
6	0xbf2e352d	-0.6804989
7	0x3e46d22b	0.1941611

prescalers.Cases.bias f4 [8]
0	0xbf187e5a	-0.595678
1	0xbcdf16f0	-0.027232617
2	0x3f4bab79	0.7955852
3	0x3f071b18	0.52775717
4	0xbe8a3608	-0.26994348
5	0x3c1319ff	0.008978366
6	0x3e7490d0	0.23883367
7	0xbf63f8d6	-0.8905157

static_variable_selection.single_variable_grns.Hispanic.resample_norm.mask f4 [16]
0	0xbe250f32	-0.16119078
1	0x3d2516ba	0.040304877
2	0x3ed3f6d0	0.4139924
3	0xbf08903d	-0.5334509
4	0xbed241d2	-0.41065842
5	0x3d03bfc7	0.032165315
6	0x3cb07691	0.021540912
7	0xbf0d6faf	-0.5524854
8	0x3d98c1c1	0.074588306
9	0xbf0dfaba	-0.55460703
10	0x3e775fb0	0.24157596
11	0xbe5e5423	-0.21711783
12	0x3bb24192	0.0054399455
13	0x3e4acf88	0.1980573
14	0x3ec930de	0.39295095
15	0x3e9d9373	0.30776557

static_variable_selection.single_variable_grns.Hispanic.resample_norm.norm.weight f4 [16]
0	0x3f76e00d	0.96435624
1	0x3f71999c	0.94375014
2	0x3fc3454a	1.525552
3	0x3f3a9c83	0.7289507
4	0x3f6dccdb	0.9289071
5	0x3fa21276	1.2661884
6	0x3f9c1c5f	1.2196158
7	0x3f23db9f	0.6400699
8	0x3f9d56de	1.2292135
9	0x3f30776b	0.6893222
10	0x3fb46b31	1.4095212
11	0x3f5f8a93	0.8732082
12	0x3f903689	1.1266643
13	0x3fa224ab	1.266744
14	0x3fa75528	1.3072863
15	0x3fbc3456	1.4703472

static_variable_selection.single_variable_grns.Hispanic.resample_norm.norm.bias f4 [16]
0	0x3d29b201	0.041429523
1	0xbd41f036	-0.047348224
2	0x3ec8e4a4	0.3923694
3	0xbe3bc7ed	-0.18337984
4	0xbd1b4f3f	-0.03791737
5	0xbcd991ae	-0.026558723
6	0xbdd4455e	-0.10364793
7	0xbdebcacd	-0.115132906
8	0xbe6a78e6	-0.22897682
9	0x3e555457	0.20832954
10	0xbee3a3ab	-0.44460806
11	0xbe00016b	-0.12500541
12	0x3d6aaa71	0.05729145
13	0x3e812e8e	0.2523083
14	0xbd321fbd	-0.0434873
15	0x3db2cac5	0.087300815

static_variable_selection.single_variable_grns.Hispanic.fc1.weight f4 [8, 8]
0	0x3ec65a5c	0.38740814
1	0xbf0a0a66	-0.53922117
2	0xbedbc0be	-0.42920488
3	0xbebeef2f	-0.37291858
4	0xbeb677d4	-0.35638297
5	0xbfb2586d	-1.3933235
6	0x3dddb469	0.10825426
7	0xbecda7b9	-0.40167025
8	0xbf352a63	-0.707678
9	0xbf33b048	-0.7019086
10	0xbe03f76b	-0.12887351
11	0x3f17d6c6	0.59312093
12	0xbe769c7c	-0.24083132
13	0xbede2cf6	-0.43393677
14	0x3f272071	0.65283877
15	0x3c339bdd	0.010962454
16	0x3e58e618	0.21181524
17	0x3e8b5c81	0.27219012
18	0x3f199624	0.5999472
19	0xbe4a3077	-0.1974505
20	0x3cca6208	0.024704948
21	0xbe4f1b98	-0.2022537
22	0x3e860ddf	0.26182458
23	0xbe9ef1d3	-0.31043872
24	0xbf202525	-0.6255668
25	0x3d6b12df	0.057391044
26	0xbe37c459	-0.17945994
27	0xbf06ad4b	-0.52608174
28	0xbd58fafd	-0.052973736
29	0x3e88ec7b	0.2674292
30	0xbc7edfd9	-0.015556299
31	0x3f027276	0.50955904
32	0xbf0ade9c	-0.54245925
33	0x3f215b8a	0.630303
34	0x3cb13d42	0.021635655
35	0xbd3def68	-0.046370894
36	0xbed97c41	-0.4247761
37	0x3f54a88c	0.8306968
38	0x3e926fce	0.28600925
39	0xbd5e42b9	-0.05426285
40	0x3ee91bb7	0.45528957
41	0xbeb0bcd8	-0.34519076
42	0xbe449c2f	-0.19200204
43	0x3e057c67	0.13035737
44	0x3eb6fb9e	0.35738844
45	0xbed91a64	-0.42402947
46	0xbd37d9bd	-0.044885386
47	0xbdd669a8	-0.10469371
48	0xbe7c7890	-0.24655366
49	0xbf1cd3ba	-0.6126057
50	0xbe07c6f0	-0.13259482
51	0x3e885684	0.26628506
52	0x3dfbb26c	0.12289891
53	0x3f91ecd8	1.1400404
54	0x3e85afb3	0.2611061
55	0xbd85776d	-0.06516919
56	0xbf4f8981	-0.8106919
57	0xbe6faa4c	-0.23404807
58	0xbe59b3c3	-0.2125998
59	0x3e8d639b	0.27615055
60	0x3e36f0a5	0.17865236
61	0xbecd44af	-0.40091464
62	0x3f0187a2	0.50597584
63	0xbdd6f155	-0.10495249

static_variable_selection.single_variable_grns.Hispanic.fc1.bias f4 [8]
0	0xbe31d34b	-0.17365758
1	0x3e15fd51	0.14647414
2	0xbd3eeedb	-0.04661451
3	0xbdc89bc7	-0.09795337
4	0x3e6c92b5	0.2310284
5	0xbd952ac8	-0.072835505
6	0x3e63044f	0.22169612
7	0x3d89a1bc	0.067203015

static_variable_selection.single_variable_grns.Hispanic.fc2.weight f4 [8, 8]
0	0xbd9b8291	-0.07593263
1	0x3eb653ce	0.35610813
2	0x3e43739e	0.19087073
3	0xbd827724	-0.063703805
4	0x3ecbad82	0.39780813
5	0xbe867033	-0.26257476
6	0x3f0a08fa	0.5391995
7	0x3f4798bc	0.7796743
8	0xbee823bd	-0.45339766
9	0xbe3731bb	-0.17890064
10	0x3e016fe7	0.12640344
11	0xbd6b2cf1	-0.057415906
12	0x3e8282c4	0.2549039
13	0xbdaada5f	-0.08342432
14	0x3eaf05e8	0.34184194
15	0x3cc6fc41	0.024290206
16	0xbe5b008c	-0.21386927
17	0x3bfa66d2	0.0076416517
18	0x3be09335	0.006853486
19	0x3dfdc131	0.12390364
20	0x3e7ea8c6	0.2486907
21	0xbeb27f69	-0.3486283
22	0xbecf2e01	-0.40464786
23	0x3ea24bbc	0.31698406
24	0x3f20c05c	0.6279352
25	0x3e16f1ea	0.1474072
26	0x3efaee37	0.49009869
27	0xbce5da72	-0.028058264
28	0x3e8ea8a1	0.2786303
29	0xbea6b9fc	-0.3256377
30	0x3edcf965	0.43159023
31	0xbefc3258	-0.4925716
32	0x3ec739e2	0.3891135
33	0xbe7a3661	-0.24434806
34	0x3ec26ced	0.3797373
35	0x3e2b5bf8	0.16734302
36	0x3e009bcd	0.12559433
37	0x3e5c1d27	0.21495496
38	0x3ea82642	0.32841688
39	0xbdfa1c63	-0.122124456
40	0xbc862746	-0.016376149
41	0xbe11d10f	-0.14239906
42	0xbf28bdb4	-0.65914464
43	0xbdea0a1f	-0.11427712
44	0x3eb8e234	0.3611008
45	0x3dfeafb2	0.12435855
46	0xbf0ad0b0	-0.5422468
47	0xbe2c1fcf	-0.16809009
48	0xbf475fdb	-0.7788064
49	0x3e5b42b3	0.21412162
50	0xbe78764d	-0.24263878
51	0x3c931ba4	0.017957516
52	0x3def2c35	0.11678354
53	0x3ea82dad	0.32847348
54	0xbdd0751b	-0.10178586
55	0xbee30efe	-0.44347376
56	0x3e5f1374	0.21784765
57	0x3e312fe1	0.1730342
58	0xbefc915a	-0.49329644
59	0xbdda28c7	-0.10652309
60	0x3c2ca4b5	0.010537316
61	0x3dc565b8	0.09638542
62	0x3e9e1299	0.30873564
63	0xbeda5c4e	-0.42648548

static_variable_selection.single_variable_grns.Hispanic.fc2.bias f4 [8]
0	0x3e1dd621	0.15413715
1	0x3da042d9	0.0782525
2	0x3dbb8e49	0.09157998
3	0x3e3030ad	0.17206068
4	0x3e1c6107	0.15271388
5	0xbca267b9	-0.01982485
6	0x3ccf1c8e	0.02528217
7	0xbdd9ddba	-0.10637994

static_variable_selection.single_variable_grns.Hispanic.gate_norm.glu.fc.weight f4 [32, 8]
0	0x3dc7f2c6	0.09763102
1	0x3edb9f83	0.42895135
2	0x3ebf1108	0.3731768
3	0xbe47b223	-0.19501548
4	0x3e7e837b	0.24854843
5	0xbdba1760	-0.0908649
6	0xbeae8804	-0.34088147
7	0xbe0341c6	-0.1281806
8	0x3e0d20b9	0.13782014
9	0x3e57aad6	0.21061262
10	0x3daa6527	0.083200745
11	0x3e9f48e2	0.31110293
12	0xbebb15d8	-0.36540103
13	0x3ea3727f	0.3192329
14	0x3e4378a9	0.19088997
15	0x3dab5b0d	0.08366976
16	0x3bdd3a1e	0.006751313
17	0x3d85aaed	0.06526742
18	0xbeb7fcf4	-0.35935175
19	0x3e4ac3cd	0.19801255
20	0x3e5991f1	0.21247078
21	0xbe42baeb	-0.19016616
22	0x3bf7c912	0.0075618112
23	0x3dce71fc	0.100803345
24	0xbe9e0e45	-0.30870262
25	0x3eedf0d7	0.4647281
26	0xbea670ad	-0.3250784
27	0xbe4f15df	-0.20223187
28	0xbe16d111	-0.1472819
29	0xbe902310	-0.2815175
30	0xbe55b0b7	-0.20868193
31	0x3eb0f31b	0.34560475
32	0xbe169986	-0.14707002
33	0xbedebb00	-0.43502045
34	0x3e877cfc	0.26462543
35	0xbe95de63	-0.2927123
36	0x3e6c9533	0.2310379
37	0xbe872e62	-0.26402575
38	0xbe1df7ff	-0.15426634
39	0x3e42a0b1	0.19006611
40	0x3d9ae7fe	0.0756378
41	0xbe05ece6	-0.13078651
42	0xbed6d799	-0.41961363
43	0xbb03a683	-0.0020088262
44	0xbe6741a7	-0.22583638
45	0xbe9a115f	-0.30091378
46	0x3c84feb9	0.016234742
47	0x3e325ca4	0.17418152
48	0xbeda6edb	-0.426627
49	0xbe6102dd	-0.21973749
50	0xbe0b81e2	-0.13623765
51	0xbd1459fb	-0.036218625
52	0xbc85efca	-0.016349692
53	0xbe82d4e7	-0.25553057
54	0x3e3b45e4	0.1828838
55	0x3ef82807	0.48468038
56	0x3f000b00	0.50016785
57	0x3ea52aed	0.32259312
58	0x3e6edff7	0.23327623
59	0x3e221481	0.15828134
60	0xbe36803b	-0.17822354
61	0x3eb50398	0.35354304
62	0xbb796ead	-0.0038060353
63	0xbe2d3d35	-0.1691788
64	0x3e0c4d4b	0.1370136
65	0xbddf1e8a	-0.10894497
66	0x3d852fb6	0.06503241
67	0x3e20d63f	0.15706728
68	0x3eb868b5	0.36017385
69	0xbe1fa903	-0.15591817
70	0xbd951f81	-0.072813995
71	0x3eaae4e7	0.33377764
72	0x3edb4a10	0.42829943
73	0xbe3abbb6	-0.18235669
74	0x3e5fa3c6	0.21839818
75	0x3dffc917	0.12489527
76	0x3e1eccda	0.15507832
77	0x3e218804	0.15774542
78	0xbcfa8d33	-0.030584907
79	0xbf2cfeab	-0.6757609
80	0xbe6612ef	-0.2246816
81	0xbdd67fd6	-0.104736015
82	0xbdd41d85	-0.10357193
83	0xbe857502	-0.26065832
84	0xbe7e2918	-0.24820364
85	0xbf05c4e0	-0.5225353
86	0xbe7aef6f	-0.24505399
87	0x3e828911	0.25495198
88	0xbdfbb35a	-0.12290068
89	0xbe293d63	-0.16527323
90	0x3ed381e2	0.4131003
91	0xbd7d6267	-0.061861422
92	0x3ea03d98	0.31296992
93	0xbd91c524	-0.0711768
94	0xbe912bd5	-0.28353754
95	0x3e70faed	0.2353322
96	0x3da2b884	0.0794535
97	0x3eca59f9	0.3952177
98	0x3ecb376c	0.3969072
99	0x3e99fd9d	0.30076304
100	0x3e96dca8	0.29465222
101	0x3e93c7ba	0.28863317
102	0x3e950ed8	0.29112887
103	0xbdfea25d	-0.12433312
104	0xbe989dd0	-0.298079
105	0xbdeee8e5	-0.11665515
106	0x3e85d14a	0.26136237
107	0x3eafae43	0.3431264
108	0xbe28fb1b	-0.16502039
109	0x3e204dd7	0.15654694
110	0x3e1353ba	0.14387408
111	0x39ce8df9	0.0003939716
112	0x3e071d4a	0.13194767
113	0x3ef4ab92	0.47787148
114	0xbdd16b04	-0.1022549
115	0x3e8aae62	0.2708617
116	0xbcd58547	-0.026064528
117	0x3e067c3b	0.13133328
118	0x3e89f9be	0.2694835
119	0xbdbd911c	-0.09256193
120	0xbee72db3	-0.45152053
121	0xbd231511	-0.039815012
122	0xbf0fb56a	-0.5613619
123	0xbd3f000c	-0.046630904
124	0x3da61cce	0.08110963
125	0x3da54e76	0.08071606
126	0x3ecb7bfe	0.39743036
127	0xbe3cdbe0	-0.1844325
128	0x3e0d4ae1	0.13798095
129	0x3dcd3d85	0.100214995
130	0x3eb38ac3	0.35066804
131	0x3ee81055	0.4532496
132	0xbe90ed43	-0.28306016
133	0xbeff7c1c	-0.49899375
134	0xbf19bc83	-0.6005327
135	0x3e5480e5	0.20752294
136	0x3edeb91a	0.43500596
137	0xbefaf694	-0.4901625
138	0xbf270664	-0.65244126
139	0xbd49d58c	-0.04927592
140	0xbe820d49	-0.2540076
141	0xbf1865a7	-0.5953011
142	0xbee4f532	-0.4471832
143	0x3dd03cc0	0.10167837
144	0x3f234c61	0.6378842
145	0x3dfa7258	0.122288406
146	0xbc2d3d94	-0.010573763
147	0x3de985f4	0.11402503
148	0xbf2ea785	-0.68224365
149	0x3dd5deb9	0.104428716
150	0xbe076406	-0.1322175
151	0x3f3065b0	0.6890516
152	0x3e4bceb4	0.1990307
153	0x3e0743a2	0.13209394
154	0xbd96ac82	-0.07357122
155	0xbe4bc58a	-0.19899574
156	0xbece7d33	-0.40329894
157	0x3d03ba4a	0.03216008
158	0xbebb4166	-0.36573333
159	0x3e73c331	0.23804928
160	0x3d59c5ff	0.05316734
161	0xbdd8bacf	-0.10582506
162	0xbe2e25ef	-0.17006658
163	0xbdd31c5a	-0.10308142
164	0xbe8f75f2	-0.28019673
165	0xbef9d6e8	-0.48796773
166	0xbe6f7326	-0.2338377
167	0x3d959d38	0.07305378
168	0x3ed1f984	0.41010678
169	0x3e3c968c	0.18416804
170	0x3e55ffed	0.20898409
171	0xbe8859cf	-0.2663102
172	0xbe36ec7a	-0.17863646
173	0xbeb7a764	-0.35869896
174	0xbea346e7	-0.31890032
175	0x3f381d24	0.71919465
176	0x3c4cc69e	0.012498526
177	0x3ea1a30e	0.31569713
178	0xbf05ed88	-0.5231557
179	0xbd751106	-0.059830688
180	0xbd8ec61e	-0.069713816
181	0xbe4f46d6	-0.20241866
182	0xbd996b32	-0.07491149
183	0xbea8fae5	-0.33003917
184	0xbe6ead83	-0.23308377
185	0x3eb05dab	0.34446463
186	0x3eb35c5d	0.35031405
187	0x3cdf1602	0.027232174
188	0xbdedf8de	-0.11619733
189	0xbe6b0a9a	-0.22953263
190	0x3db5a5c9	0.08869512
191	0xbe415704	-0.1888085
192	0xbd069095	-0.032852728
193	0x3e00470a	0.12527099
194	0x3ef21d08	0.47287774
195	0xbe00eecd	-0.12591095
196	0xbdd4bf67	-0.103880696
197	0xbc619a28	-0.013769664
198	0xbda83209	-0.082126684
199	0x3f2284d2	0.6348392
200	0x3e557221	0.20844318
201	0xbe5fcf8f	-0.21856521
202	0x3ec408d7	0.38287994
203	0x3c426540	0.01186496
204	0x3f1e4980	0.618309
205	0xbe06f3f4	-0.13178998
206	0xbf1d4b69	-0.6144319
207	0x3e692a42	0.22770026
208	0x3f1906a2	0.59775746
209	0x3bcce9d2	0.0062534595
210	0x3f01711a	0.50563204
211	0x3e4156fc	0.18880838
212	0xbec37a53	-0.38179263
213	0xbccaf215	-0.024773637
214	0x3d839995	0.06425778
215	0xbec47c42	-0.3837605
216	0xbde5ce85	-0.11221031
217	0x3f03f2ed	0.5154255
218	0xbd988486	-0.07447152
219	0x3e70970b	0.23495118
220	0xbf3a10c6	-0.72681844
221	0xbe76bb95	-0.24094994
222	0xbdaa5664	-0.08317259
223	0x3ec8d483	0.39224634
224	0xbdb0725c	-0.08615562
225	0x3eac4a93	0.33650646
226	0x3eb5d240	0.3551197
227	0xbe51c275	-0.20484336
228	0xbe48c8bb	-0.19607823
229	0x3e2053fb	0.15657036
230	0xbe905697	-0.28191063
231	0x3eb056ac	0.34441125
232	0xbc686fb5	-0.014186789
233	0x3d7a7a2f	0.06115168
234	0xbebafd72	-0.36521488
235	0xbe3d24df	-0.18471096
236	0xbf07728f	-0.5290918
237	0xbec958b8	-0.393255
238	0xbcd82f15	-0.026389638
239	0x3ef7fbe4	0.48434365
240	0x3f0b49a7	0.5440926
241	0x3edd2d07	0.43198416
242	0xbeb65d6c	-0.3561815
243	0xbe79045b	-0.24318068
244	0xbecb07f1	-0.39654496
245	0xbea173d5	-0.31533685
246	0xbe0c6a73	-0.13712482
247	0x3f10df25	0.5659049
248	0xbf0857ae	-0.5325879
249	0xbe30f00d	-0.17279072
250	0xbf53e098	-0.8276458
251	0xbf2befee	-0.6716298
252	0xbe47ba33	-0.19504623
253	0xbf5b5c20	-0.85687447
254	0xbed38891	-0.4131513
255	0x3f585409	0.8450323

static_variable_selection.single_variable_grns.Hispanic.gate_norm.glu.fc.bias f4 [32]
0	0x3d289779	0.04116008
1	0xbd03ae21	-0.032148484
2	0x3e8f5ccf	0.28000495
3	0xbe2bf5da	-0.16793004
4	0xbd4e972a	-0.05043713
5	0xbd75f37a	-0.06004665
6	0xbd9e5900	-0.07731819
7	0xbd6aa2d2	-0.057284184
8	0xbe90df4f	-0.2829537
9	0x3e4cd07a	0.20001402
10	0xbecdb231	-0.40175012
11	0xbda92e7d	-0.0826082
12	0x3d268218	0.04065141
13	0x3e401369	0.18757404
14	0x3e16b136	0.14716038
15	0x3cfb8048	0.030700818
16	0xbf3b811c	-0.7324388
17	0xbf0ecac5	-0.5577815
18	0xbf117133	-0.56813353
19	0xbdb110c8	-0.08645779
20	0xbefe2d11	-0.49643758
21	0xbf089362	-0.5334989
22	0xbc34e515	-0.011040946
23	0x3d89ace5	0.0672243
24	0xbf006819	-0.5015884
25	0x3cd674a8	0.026178673
26	0xbcfaba72	-0.030606482
27	0xbf13d639	-0.5774875
28	0xbe6bbbd3	-0.23020868
29	0xbef89f7a	-0.4855917
30	0xbf2fb380	-0.6863327
31	0xbeb635c3	-0.35587892

static_variable_selection.single_variable_grns.Hispanic.gate_norm.add_norm.norm.weight f4 [16]
0	0x3f15070f	0.58213896
1	0x3f30aae5	0.69010764
2	0x3fb9292a	1.4465687
3	0x3ef7cfff	0.48400876
4	0x3f65ed28	0.89814997
5	0x3f9255b1	1.1432401
6	0x3f86e0cd	1.0537354
7	0x3e9764d8	0.29569125
8	0x3f95e22f	1.1709651
9	0x3f1f4952	0.6222125
10	0x3fb9a98a	1.4504864
11	0x3f64d07c	0.8938062
12	0x3f72b01c	0.9479997
13	0x3f96c387	1.177842
14	0x3f422058	0.758306
15	0x3f94f55b	1.1637377

static_variable_selection.single_variable_grns.Hispanic.gate_norm.add_norm.norm.bias f4 [16]
0	0x3cc14d0e	0.023596313
1	0x3cfbce46	0.030738007
2	0x3ee26e19	0.44224623
3	0xbdb39469	-0.08768541
4	0x3d670d95	0.056409437
5	0xbcb825b9	-0.022478925
6	0xbe03b71f	-0.12862824
7	0xbdecaf07	-0.11556821
8	0xbe8aa851	-0.2708154
9	0x3e14699a	0.14493409
10	0xbf0f099f	-0.55874056
11	0xbe5b4a6c	-0.21415108
12	0x3d872d61	0.06600452
13	0x3e78c697	0.24294506
14	0xbc3dae2f	-0.011577173
15	0x3d72b5bd	0.05925535

static_variable_selection.prescalers.Hispanic.weight f4 [8, 1]
0	0x3d558035	0.05212422
1	0xbf0c1bbe	-0.5472983
2	0x3ecf1ffd	0.40454093
3	0x3e95ff8c	0.2929653
4	0xbe859857	-0.2609279
5	0xbbe2f4f9	-0.0069261757
6	0xbf557c15	-0.8339246
7	0x3ed86572	0.42264897

static_variable_selection.prescalers.Hispanic.bias f4 [8]
0	0xbe4b332a	-0.19843736
1	0x3f825b03	1.0184025
2	0x3da34d4a	0.07973726
3	0xbe8adee7	-0.27123186
4	0xbefc2525	-0.4924709
5	0xbec1ef4e	-0.37877887
6	0x3ed972e3	0.42470464
7	0xbea6c024	-0.32568467

encoder_variable_selection.flattened_grn.resample_norm.mask f4 [3]
0	0xbeed2c6c	-0.46322954
1	0xbee36546	-0.44413203
2	0x3f6a0fac	0.91430163

encoder_variable_selection.flattened_grn.resample_norm.norm.weight f4 [3]
0	0x3f8df388	1.1089945
1	0xbca9e5a1	-0.020739378
2	0x3f89940e	1.0748308

encoder_variable_selection.flattened_grn.resample_norm.norm.bias f4 [3]
0	0x3eab0a13	0.33406124
1	0xbf33cc5c	-0.702337
2	0x3ee02e71	0.43785432

encoder_variable_selection.flattened_grn.fc1.weight f4 [3, 24]
0	0x3e7e8efe	0.24859235
1	0xbd40834e	-0.047000222
2	0xbd8b8611	-0.068126805
3	0x3dc40095	0.095704235
4	0xbe3cee47	-0.1845027
5	0x3eb03f53	0.34423313
6	0xbece62e9	-0.40309837
7	0xbed1cbda	-0.4097584
8	0xbf16efe1	-0.58959776
9	0x3ee81570	0.45328856
10	0x3f0814af	0.5315656
11	0xbf8ff99c	-1.124805
12	0xbeed3d25	-0.46335712
13	0xbecb7048	-0.397341
14	0xbda5ed4f	-0.08101904
15	0xbeba62bc	-0.36403453
16	0x3f3fa206	0.74856603
17	0xbf48f65d	-0.7850092
18	0x3d44c19f	0.048036214
19	0x3d3058e1	0.04305351
20	0x3e47e3fc	0.19520563
21	0xbecb7fbb	-0.39745888
22	0xbd10127e	-0.035173886
23	0x3f82e642	1.0226519
24	0xbe2533c3	-0.16133027
25	0x3f1bb6c5	0.6082576
26	0xbf3afaee	-0.7303914
27	0x3e03b1f1	0.12860848
28	0xbe8baf9d	-0.2728242
29	0x3e87fe41	0.26561168
30	0xbeafc82c	-0.34332407
31	0x3e8485db	0.25883374
32	0xbe47a712	-0.19497326
33	0x3e1b0696	0.15139231
34	0xbf0f9260	-0.56082726
35	0x3aa42b50	0.0012525115
36	0xbd80566c	-0.06266484
37	0xbe0e7724	-0.13912636
38	0xbe963ed6	-0.29344815
39	0x3baa6426	0.005199927
40	0xbe95603b	-0.2917498
41	0x3ed5ca95	0.4175612
42	0xbe21a6c2	-0.1578627
43	0xbee35391	-0.44399694
44	0xbee63ee8	-0.4496987
45	0x3c8318ca	0.016003031
46	0x3eba9b5a	0.3644665
47	0xbd7968c7	-0.06089094
48	0x3d038df6	0.032117806
49	0xbd46b6bc	-0.048514113
50	0x3a19f2ac	0.0005872648
51	0x3f037bad	0.5136059
52	0x3ef1786d	0.4716219
53	0xb9f0d424	-0.00045934424
54	0x3e342736	0.17593083
55	0x3f1352f6	0.57548463
56	0x3e73af23	0.23797278
57	0xbe2871b9	-0.16449632
58	0xbd4bfb94	-0.04980047
59	0x3f4c93e3	0.7991316
60	0x3efd9ce5	0.49533764
61	0xbd9d3848	-0.076767504
62	0xbe31d233	-0.17365341
63	0x3d4c9666	0.04994812
64	0xbe668d89	-0.22514929
65	0x3f19193c	0.5980413
66	0x3eb68bd6	0.3565356
67	0xbe392b27	-0.18082868
68	0xbefc2e01	-0.49253848
69	0xbda4f794	-0.08055034
70	0xbe0e375e	-0.13888308
71	0xbf5da5c2	-0.8658105

encoder_variable_selection.flattened_grn.fc1.bias f4 [3]
0	0xbec16046	-0.37768763
1	0xbe1e4948	-0.15457642
2	0x3ee01316	0.4376456

encoder_variable_selection.flattened_grn.context.weight f4 [3, 16]
0	0xbe975aaf	-0.29561374
1	0x3c23ff38	0.010009579
2	0xbec8c905	-0.39215866
3	0xbe507f3a	-0.20361033
4	0x3e8d407c	0.2758826
5	0xbd6dda49	-0.0580695
6	0x3e2cbeef	0.1686971
7	0xbd1e8e6d	-0.038710047
8	0xbd2bc232	-0.041933246
9	0x3d2616cd	0.04054909
10	0xbdb8b38c	-0.09018621
11	0x3e3e0fed	0.18560763
12	0x3e5269fe	0.20548245
13	0xbd74f392	-0.0598026
14	0xbf05dc0c	-0.5228889
15	0xbeeb75df	-0.45988366
16	0x3eb72b67	0.357753
17	0x3f42424b	0.75882405
18	0x3b427f8f	0.0029678082
19	0xbf0cce5e	-0.5500239
20	0x3cedaa71	0.029011937
21	0x3f258049	0.6464887
22	0xbe5482c5	-0.2075301
23	0xbeee819a	-0.46583253
24	0x3e705c86	0.23472795
25	0xbeca0305	-0.3945543
26	0xbead9aa0	-0.33907032
27	0x3f07d428	0.530581
28	0x3dd7a968	0.105303586
29	0xbf410ec2	-0.75413144
30	0xbe953ebc	-0.29149425
31	0xbe50697b	-0.20352738
32	0x3e85a3b8	0.2610147
33	0xbe69b7ed	-0.22824068
34	0x3f194663	0.59873027
35	0x3d3d4cd4	0.046215847
36	0xbceab910	-0.028652698
37	0x3e2ee420	0.1707921
38	0x3e84708e	0.25867122
39	0x3ec1c664	0.37846673
40	0xbf1e6918	-0.6187911
41	0x3eb05b55	0.3444468
42	0xbcdd208f	-0.026993064
43	0xbe57ed7e	-0.2108669
44	0x3e001546	0.12508115
45	0x3ecaf972	0.39643437
46	0xbe3872ff	-0.18012618
47	0x3f141636	0.5784639

encoder_variable_selection.flattened_grn.fc2.weight f4 [3, 3]
0	0xbf953313	-1.1656212
1	0xbf8cc7e7	-1.0998505
2	0x3eba381e	0.3637094
3	0x3d23d301	0.03999615
4	0xbf81e041	-1.0146562
5	0xbefb3cdd	-0.49069872
6	0xbdba8360	-0.09107089
7	0xbf198321	-0.5996571
8	0xbf69e6ae	-0.91367614

encoder_variable_selection.flattened_grn.fc2.bias f4 [3]
0	0x3ed40d88	0.41416574
1	0xbda9a325	-0.082830705
2	0xbf142adb	-0.5787789

encoder_variable_selection.flattened_grn.gate_norm.glu.fc.weight f4 [6, 3]
0	0x3f2240c4	0.63380075
1	0xbf3c89fd	-0.73648053
2	0x3f3c26fd	0.7349699
3	0xbea78c05	-0.32724014
4	0xbc329339	-0.010899358
5	0x3f29874e	0.66222084
6	0x3d932d55	0.07186381
7	0x3dfe7ef9	0.12426562
8	0xbe7adbeb	-0.24497955
9	0xbe8b7466	-0.27237242
10	0xbf682c99	-0.9069305
11	0x3f1a5870	0.60291195
12	0x3f6739c9	0.9032255
13	0xbe085f8f	-0.13317703
14	0xbf0ce88b	-0.5504233
15	0x3e75fcd0	0.24022222
16	0x3eab1bb9	0.33419588
17	0x3f0b960f	0.54525846

encoder_variable_selection.flattened_grn.gate_norm.glu.fc.bias f4 [6]
0	0x3f040ec6	0.5158504
1	0xbf1f9e7d	-0.6235121
2	0x3ec5436d	0.38528004
3	0xbd81ef8c	-0.06344518
4	0x3debfdf9	0.11523051
5	0x3dbf6b27	0.093466096

encoder_variable_selection.flattened_grn.gate_norm.add_norm.norm.weight f4 [3]
0	0x3e5f31e2	0.21796373
1	0x3e1e9299	0.1548561
2	0xbe0bb482	-0.13643077

encoder_variable_selection.flattened_grn.gate_norm.add_norm.norm.bias f4 [3]
0	0xbd071dcc	-0.0329874
1	0xbee15bef	-0.44015452
2	0x3ebf8434	0.3740555

encoder_variable_selection.single_variable_grns.SinWeekly.resample_norm.mask f4 [16]
0	0xbe43a6a4	-0.19106537
1	0x3e3ff97d	0.18747516
2	0x3eaefd64	0.34177697
3	0x3e0e59bf	0.13901423
4	0xbe955444	-0.29165852
5	0xbd54e0dc	-0.051972255
6	0xbe836e81	-0.25670245
7	0xbefab54f	-0.48966452
8	0xbe80be87	-0.2514536
9	0xbedc0b67	-0.4297745
10	0xbe878a3d	-0.26472655
11	0xbcb7c242	-0.022431497
12	0xbe43ef06	-0.19134149
13	0x3de4a6f9	0.1116466
14	0x3f1596d0	0.58433247
15	0x3e8b13b5	0.27163473

encoder_variable_selection.single_variable_grns.SinWeekly.resample_norm.norm.weight f4 [16]
0	0x3f72db8c	0.9486625
1	0x3f6c709b	0.9235932
2	0x3fc70e04	1.5551152
3	0x3f882766	1.0637023
4	0x3f721eb3	0.94578093
5	0x3f75e2d4	0.9604924
6	0x3f3b898f	0.7325677
7	0x3f115f94	0.56786466
8	0x3f1db097	0.6159758
9	0x3f30206d	0.6879948
10	0x3f81d91e	1.0144384
11	0x3f9feff0	1.2495098
12	0x3ee0f30e	0.43935436
13	0x3f916208	1.1358042
14	0x3fee39ea	1.8611424
15	0x3f99ca31	1.2014829

encoder_variable_selection.single_variable_grns.SinWeekly.resample_norm.norm.bias f4 [16]
0	0x3d915041	0.07095385
1	0x3e6235bb	0.22090809
2	0xbd5d8f99	-0.054092024
3	0x3e02da97	0.12778698
4	0xbe9f34ac	-0.31094873
5	0xbe0ce606	-0.13759622
6	0xbe3b30a2	-0.1828027
7	0xbe86b217	-0.26307747
8	0x3e39dcca	0.1815063
9	0xbdc6e84c	-0.09712276
10	0x3df05e8e	0.11736785
11	0x3e95511c	0.29163444
12	0x3e702057	0.23449837
13	0xbd07351c	-0.033009633
14	0xbe088943	-0.13333611
15	0x3df0b103	0.11752512

encoder_variable_selection.single_variable_grns.SinWeekly.fc1.weight f4 [8, 8]
0	0x3f92fdb5	1.1483675
1	0xbfe1f7a3	-1.7653698
2	0xbf2d337b	-0.6765668
3	0xc002494f	-2.0357244
4	0xbe7c18f2	-0.24618891
5	0xbd9a66fa	-0.075391725
6	0x3eb8738d	0.36025658
7	0x3f11ad68	0.5690522
8	0x3db79943	0.08964779
9	0x3e055efa	0.13024512
10	0x3e075e11	0.13219477
11	0xbea0275d	-0.31280032
12	0x3e0aff09	0.1357385
13	0x3f17eea5	0.5934852
14	0xbc93f28a	-0.018059988
15	0x3dcc6960	0.09981036
16	0xbd908eee	-0.07058512
17	0x3d9c95f8	0.07645792
18	0xbf4089db	-0.7521035
19	0x3eadecac	0.3396963
20	0xbfa6151f	-1.2975196
21	0x3f22fe42	0.63669217
22	0x3ebcd07d	0.36877814
23	0xbe071e4d	-0.13195153
24	0x3ea756d1	0.32683423
25	0x3d3dd8ca	0.046349324
26	0xbe9d2536	-0.30692452
27	0x3dc01f2a	0.09380944
28	0x3ea8e092	0.32983834
29	0x3e3a6eff	0.18206404
30	0x3e8e2603	0.27763376
31	0x3f1bb7ca	0.60827315
32	0xbf0f5536	-0.55989397
33	0xbd9c72d3	-0.076390885
34	0x3f9109a1	1.1331064
35	0x3cf3f2d9	0.029778885
36	0x3e0a05b1	0.13478734
37	0x3f475007	0.7785649
38	0x3f047fdd	0.51757604
39	0xbf7d6e1d	-0.98996145
40	0x3f241711	0.64097697
41	0xbe90aee7	-0.2825844
42	0xbf398bfd	-0.7247923
43	0x3d4c617d	0.04989766
44	0x3e0eafb4	0.13934213
45	0xbe9cf6b4	-0.3065697
46	0xbe6c3a0a	-0.23069015
47	0x3e345705	0.1761132
48	0xbf4ff55b	-0.8123376
49	0xbe0529a4	-0.13004166
50	0xbfc64121	-1.5488626
51	0x3efc000c	0.49218786
52	0xbf5ab69f	-0.8543491
53	0x3e5b7b0e	0.2143366
54	0xbf975f12	-1.1825888
55	0xbf267070	-0.65015316
56	0x3f0a2ccd	0.5397461
57	0x3d353aa7	0.04424539
58	0xbf6233ea	-0.88360465
59	0x3e80e6f2	0.25176197
60	0x3f272b2b	0.65300244
61	0x3f150559	0.58211285
62	0xbebe5675	-0.37175336
63	0x3e78ff94	0.24316245

encoder_variable_selection.single_variable_grns.SinWeekly.fc1.bias f4 [8]
0	0xbe4b7730	-0.19869685
1	0x3deac12a	0.11462624
2	0xbdffc53c	-0.12488791
3	0xbe1cc979	-0.1531123
4	0xbd762906	-0.060097717
5	0xbc7c5fe6	-0.015403723
6	0xbe8232ea	-0.2542947
7	0xbddb910b	-0.10721024

encoder_variable_selection.single_variable_grns.SinWeekly.fc2.weight f4 [8, 8]
0	0xbf965cb5	-1.1747042
1	0x3e4290f7	0.19000612
2	0xbf924d48	-1.1429834
3	0xbec25acf	-0.37959906
4	0xbf029e65	-0.5102294
5	0xbd5d292a	-0.053994335
6	0x3ea308e9	0.31842735
7	0xbe938f98	-0.2882049
8	0xbbf50097	-0.007476877
9	0xbe3f50e2	-0.18683198
10	0x3e773aa1	0.24143459
11	0x3df43ec6	0.119260356
12	0xbe41cda4	-0.18926102
13	0x3dbae656	0.09125964
14	0x3f0d79e9	0.55264145
15	0x3b25f0e4	0.0025320584
16	0x3f364049	0.7119184
17	0xbe8b7f79	-0.2724569
18	0xbc22c469	-0.009934523
19	0xbeb05646	-0.3444082
20	0x3ef840e9	0.48487023
21	0x3dcad500	0.09903908
22	0x3f436832	0.76330864
23	0x3ef412dc	0.4767064
24	0x3f0d1661	0.5511227
25	0x3f4430ca	0.76636946
26	0x3e1d3d3e	0.15355393
27	0x3e99fc52	0.30075318
28	0x3e73bffc	0.23803705
29	0xbec6e931	-0.38849786
30	0xbe815d52	-0.2526651
31	0xbf2d4267	-0.67679447
32	0xbfa58a89	-1.2932903
33	0x3f416792	0.7554866
34	0xbf211782	-0.62926495
35	0x3e2cd7d2	0.16879204
36	0xbdcce933	-0.10005417
37	0x3c41e2c7	0.011833853
38	0xbe9dbd40	-0.3080845
39	0xbeb81132	-0.3595062
40	0x3f0a335a	0.53984606
41	0xbef75fa5	-0.48315158
42	0xbf09ac21	-0.5377827
43	0xbdc3f722	-0.09568621
44	0xbed2d3fb	-0.41177353
45	0x3e43c517	0.19118153
46	0xbeb02fe8	-0.3441155
47	0xbe0abe76	-0.13549218
48	0x3c33602a	0.01094822
49	0x3dc43ffc	0.095825166
50	0x3ed0b36b	0.40761885
51	0xbe04e0e6	-0.12976417
52	0x3da4e7e9	0.08052046
53	0xbd71b326	-0.05900874
54	0x3f22e66f	0.63632864
55	0x3eee3122	0.4652186
56	0x3f6f2c11	0.93426615
57	0xbd354882	-0.044258602
58	0x3ecc5d3f	0.3991489
59	0x3e9d2f56	0.30700177
60	0x3edef4a8	0.43546033
61	0xbdab61ef	-0.08368289
62	0x3f84e23f	1.0381545
63	0xbf1b7e50	-0.6073961

encoder_variable_selection.single_variable_grns.SinWeekly.fc2.bias f4 [8]
0	0xbe3e9790	-0.18612504
1	0xbe054990	-0.13016343
2	0x3da1f57e	0.07908152
3	0x3e289d9f	0.16466378
4	0x3e12fb9f	0.14353798
5	0x3d9991ac	0.07498488
6	0xbb09dbef	-0.0021035632
7	0x3d85c7e5	0.065322675

encoder_variable_selection.single_variable_grns.SinWeekly.gate_norm.glu.fc.weight f4 [32, 8]
0	0x3df7e7c7	0.12104755
1	0xbcd89f7f	-0.026443241
2	0x3d98ce91	0.074612744
3	0xbe5bd997	-0.21469723
4	0xbe3d4559	-0.18483485
5	0xbec95766	-0.39324492
6	0xbd1efbcb	-0.038814347
7	0x3ec25674	0.37956583
8	0xbcb2db33	-0.021833038
9	0x3eb50389	0.3535426
10	0xbe157bbb	-0.1459798
11	0xbeabb764	-0.33538353
12	0x3e0ffd0b	0.14061372
13	0xbece2b0f	-0.40267226
14	0x3eda618e	0.42652553
15	0xbb01ff14	-0.0019835876
16	0x3e7843dc	0.24244636
17	0x3e974f4e	0.29552692
18	0x3ce6070c	0.028079532
19	0x3caae195	0.020859519
20	0x3eb76666	0.3582031
21	0xbe3fb0f0	-0.1871984
22	0x3e7111c5	0.23541935
23	0x3d75cf39	0.060012076
24	0x3e90d054	0.28283942
25	0xbe2431a7	-0.16034566
26	0xbf069918	-0.5257735
27	0xbf100c57	-0.5626883
28	0x3e9f7689	0.31145123
29	0xbd0b78eb	-0.034050863
30	0xbd2e46b4	-0.042547897
31	0xbe3d1b47	-0.18467437
32	0x3db6c607	0.089244895
33	0xbd1a7b32	-0.037715144
34	0x3e8a5306	0.27016467
35	0x3e111314	0.14167434
36	0x3e198c40	0.14994907
37	0xbe39000e	-0.18066427
38	0x3efd0314	0.4941641
39	0x3e66b9fc	0.22531885
40	0x3e85a0f6	0.26099366
41	0xbe9bae64	-0.30406487
42	0xbdc6e0b5	-0.09710828
43	0xbd14038a	-0.036136188
44	0xbd869a91	-0.0657245
45	0xbdfb0fa7	-0.12258845
46	0xbe9ff586	-0.31242007
47	0xbd60c731	-0.054877464
48	0x3ee60e49	0.44932774
49	0x3dbba183	0.09161665
50	0xbf6d1864	-0.9261534
51	0xbf1cafab	-0.6120555
52	0x3ef05ff2	0.469482
53	0xbee56ab3	-0.44807968
54	0xbd97dca9	-0.074151345
55	0xbf2ed25e	-0.68289745
56	0xbe94f407	-0.29092428
57	0x3ce1e89f	0.027576743
58	0x3eb8a80b	0.36065707
59	0xbe4f05c7	-0.20217048
60	0x3d7f8c63	0.062389743
61	0xbd8cc9a6	-0.06874399
62	0x3d05f97f	0.03270864
63	0x3de4a8bc	0.11164996
64	0x3edf12a6	0.43568915
65	0x3eea64dd	0.45780078
66	0xbe432e59	-0.19060649
67	0x3d6ca8fb	0.05777834
68	0x3e5e06c5	0.2168227
69	0xbecf349b	-0.40469822
70	0x3eae4e43	0.34044084
71	0x3d9cb2d8	0.07651299
72	0xbd829c97	-0.063775234
73	0xbdbc3c74	-0.09191218
74	0x3ec3fc82	0.38278586
75	0x3bdbbf2c	0.006706139
76	0xbe92be50	-0.28660822
77	0xbd960366	-0.07324867
78	0x3de15d7f	0.11004161
79	0x3e0b22fc	0.13587564
80	0xbcc09259	-0.023507284
81	0x3e628708	0.22121823
82	0x3ebd9141	0.37024882
83	0xbc4f8e89	-0.01266826
84	0xbece9fee	-0.40356392
85	0xbde443da	-0.11145754
86	0x3e9c1b01	0.30489352
87	0x3f2e9217	0.68191665
88	0xbce7e2e7	-0.028306438
89	0x3ebb41ec	0.36573732
90	0x3ea04afd	0.31307212
91	0xbeb90df3	-0.36143455
92	0xbece4879	-0.40289667
93	0xbf0ea412	-0.557191
94	0x3f032e84	0.5124285
95	0x3f22b61b	0.6355912
96	0x3f569baf	0.83831304
97	0x3f30fb51	0.6913348
98	0xbf57f59a	-0.84359133
99	0xbf145c36	-0.579532
100	0x3f6a9c38	0.9164462
101	0xbf2dd198	-0.6789794
102	0x3ed77a23	0.4208537
103	0xbf62af04	-0.885483
104	0xbd0a5b05	-0.03377821
105	0xbf0661b7	-0.5249285
106	0xbe807702	-0.25090796
107	0x3eb8f41c	0.3612374
108	0x3e0bbca4	0.1364618
109	0x3f027b4e	0.509694
110	0xbf3ecaee	-0.74528396
111	0xbf0d75c0	-0.552578
112	0xbeb63b91	-0.3559232
113	0xbf1431e2	-0.57888615
114	0x3e94ecc1	0.2908688
115	0x3ed3adb7	0.4134347
116	0xbea3ca9b	-0.31990513
117	0x3efb7e3c	0.49119747
118	0xbf214eeb	-0.63011044
119	0x3de67651	0.11253036
120	0x3e4bffe7	0.19921838
121	0xbe951a82	-0.29121786
122	0xbe9630fc	-0.29334247
123	0x3e05ff9d	0.1308579
124	0xbe61023a	-0.21973506
125	0xbe8ed9cf	-0.2790055
126	0x3df02b0b	0.1172696
127	0x3e0205dc	0.12697548
128	0x3eb4b21e	0.35292143
129	0x3e4a2f76	0.19744667
130	0x3eb7e739	0.35918596
131	0x3e4b52dd	0.19855829
132	0x3e04bad6	0.12961897
133	0xbf06c478	-0.5264354
134	0x3f0af704	0.54283166
135	0xbe62c0a7	-0.22143804
136	0x3eaae8c4	0.3338071
137	0x3e62f959	0.22165431
138	0x3e4d5084	0.20050246
139	0xbf0f0f3f	-0.5588264
140	0x3e103981	0.14084436
141	0xbe99818b	-0.29981646
142	0x3e21de30	0.15807414
143	0xbe984eb4	-0.29747546
144	0x3e375cff	0.17906569
145	0x3e8dae52	0.27672058
146	0xbea72471	-0.3264499
147	0xbe03ff07	-0.12890254
148	0x3de84ac5	0.11342386
149	0xbee56e38	-0.44810653
150	0x3ed08b2a	0.40731174
151	0xbcf6722d	-0.03008374
152	0x3bdc854b	0.006729757
153	0xbe4b8ede	-0.19878718
154	0x3cbd9867	0.02314396
155	0x3edc5aae	0.43037933
156	0xbdc0ceca	-0.09414442
157	0x3ddfd299	0.1092884
158	0xbe50def4	-0.2039755
159	0x3e82e922	0.2556849
160	0x3ea43925	0.32074848
161	0x3cad9b54	0.02119223
162	0xbf01bf90	-0.50682926
163	0x3ebe773e	0.3720035
164	0x3e2b1574	0.16707402
165	0x3dad6e61	0.08468319
166	0xbcfaef90	-0.03063181
167	0xbeb1bfd4	-0.34716666
168	0xbe3aaeea	-0.18230787
169	0x3d8ae0c6	0.067811534
170	0xbd772f4c	-0.06034784
171	0x3e67018c	0.22559184
172	0x3e32a545	0.17445858
173	0xbe5e7525	-0.21724375
174	0x3f1f30de	0.6218394
175	0xbed6267b	-0.41826233
176	0xbf204b43	-0.6261484
177	0xbe27d936	-0.16391453
178	0x3f3a1542	0.72688687
179	0x3f1b821a	0.60745394
180	0xbf58e394	-0.84722257
181	0x3e55238f	0.20814346
182	0xbed75909	-0.42060116
183	0x3f31db72	0.6947547
184	0xbee52623	-0.44755659
185	0x3efbd1d3	0.4918352
186	0x3eccdf09	0.40013912
187	0xbe06b3be	-0.13154504
188	0x3e274f67	0.16338883
189	0xbe41312a	-0.18866411
190	0x3e876baf	0.26449344
191	0xbda3be97	-0.079953365
192	0x3d3de7fc	0.046363816
193	0x3e0f11ff	0.13971709
194	0xbe001049	-0.12506212
195	0xbf42343a	-0.7586094
196	0x3ece1153	0.40247592
197	0xbef88aeb	-0.48543486
198	0x3e87fa42	0.2655812
199	0xbd7709fe	-0.060312264
200	0xbd67733a	-0.056506373
201	0xbe23b5fd	-0.15987392
202	0xbce2de5c	-0.02769392
203	0x3e778e11	0.24175288
204	0x3e402ff0	0.18768287
205	0x3e884053	0.26611575
206	0xbe90b21c	-0.28260887
207	0x3e3f93c9	0.1870872
208	0x3ed2c35d	0.41164675
209	0x3e8f13ed	0.2794489
210	0xbdefc1c4	-0.1170688
211	0xbf5e741b	-0.8689591
212	0x3eb20b60	0.34774303
213	0xbe935a12	-0.28779656
214	0x3e9caa49	0.30598667
215	0x3ddb95b7	0.10721915
216	0x3f62e42f	0.8862943
217	0x3e0b6a07	0.13614665
218	0x3ddc1365	0.10745887
219	0xbef7e051	-0.48413327
220	0x3f18fff6	0.59765565
221	0xbef29dc0	-0.4738598
222	0x3e44e7e7	0.19229089
223	0xbdc8876a	-0.09791453
224	0xbf159da6	-0.5844368
225	0xbeddab99	-0.4329498
226	0x3f00ecf9	0.5036159
227	0x3ebb7fec	0.36621034
228	0xbee4ed09	-0.44712093
229	0x3eb003ee	0.34377998
230	0xbe3c7d94	-0.18407279
231	0x3f35bac9	0.70988137
232	0x3dafa84b	0.08577021
233	0x3ef956c5	0.48699012
234	0x3e3ecf89	0.18633856
235	0xbe7a8bc7	-0.24467383
236	0x3e18a93b	0.14908306
237	0xbf2cdac8	-0.67521334
238	0x3ee51565	0.44742885
239	0x3ee77bc4	0.45211613
240	0xbea998b2	-0.3312431
241	0x3e277fbd	0.16357322
242	0xbd86bfdb	-0.06579562
243	0x3e35109a	0.17682114
244	0xbe8dfbbd	-0.27731124
245	0xbe15c9ab	-0.14627711
246	0x3da7fe75	0.08202831
247	0x3f2c6a6b	0.6734988
248	0x3d0cd65a	0.03438411
249	0x3ea60ecb	0.3243316
250	0xbe6e8675	-0.23293479
251	0x3e7345b3	0.23757057
252	0xbdd857b1	-0.10563601
253	0xbe949039	-0.29016283
254	0x3dcfa7ec	0.101394504
255	0xbed230bb	-0.41052803

encoder_variable_selection.single_variable_grns.SinWeekly.gate_norm.glu.fc.bias f4 [32]
0	0x3d28ed82	0.04124213
1	0x3e5e62a5	0.21717317
2	0x3d9d788e	0.076890096
3	0x3df9616d	0.121767856
4	0xbebc390b	-0.3676227
5	0xbe0447ef	-0.12918065
6	0xbe86e5b4	-0.26347125
7	0xbea1ab1c	-0.3157586
8	0x3e639d33	0.22227935
9	0xbe09bf40	-0.13451862
10	0x3b587fbd	0.0033035122
11	0x3db2f100	0.08737373
12	0xbe1615da	-0.14656773
13	0xbcbcf542	-0.023066167
14	0xbdc2a198	-0.09503478
15	0x3e1e5d78	0.15465343
16	0xbe7b91b4	-0.245673
17	0xbec29363	-0.38003072
18	0xbeffe22e	-0.4997725
19	0xbe613482	-0.21992686
20	0xbe04f5cb	-0.12984388
21	0xbf3534b8	-0.7078357
22	0x3e119b00	0.14219284
23	0xbed7b0c3	-0.42127046
24	0x3d9a7049	0.07540948
25	0x3cbb5b6e	0.022870746
26	0xbd8be9c7	-0.06831699
27	0x3f309e6b	0.68991727
28	0x3e54b4d7	0.2077211
29	0xbd2c431b	-0.042056184
30	0x3ef24308	0.47316766
31	0xbf3e6f68	-0.7438874

encoder_variable_selection.single_variable_grns.SinWeekly.gate_norm.add_norm.norm.weight f4 [16]
0	0x3f35be15	0.7099317
1	0x3f54538e	0.82939994
2	0x3f9efca8	1.2420855
3	0x3f813cc7	1.0096673
4	0x3f42e33c	0.7612798
5	0x3f4fd83e	0.81189334
6	0x3f6f6ab2	0.9352218
7	0x3e979559	0.2960613
8	0x3f31d35c	0.69463134
9	0x3f05dd06	0.5229038
10	0x3f97aabc	1.1848979
11	0x3fefb351	1.8726598
12	0x3f71c037	0.9443392
13	0x3fb39a6c	1.4031501
14	0x3fb0a0de	1.3799093
15	0x3f8a23b3	1.0792145

encoder_variable_selection.single_variable_grns.SinWeekly.gate_norm.add_norm.norm.bias f4 [16]
0	0x3e104bfd	0.14091487
1	0x3db1805a	0.08667059
2	0xbe085b20	-0.13316011
3	0x3e013d6c	0.12621087
4	0xbdede3cf	-0.11615717
5	0xbe0706f8	-0.13186252
6	0xbe175a16	-0.14780459
7	0xbde75c53	-0.11296906
8	0x3db2e6d4	0.08735433
9	0xbdad4e71	-0.08462227
10	0x3dd091e6	0.10184078
11	0x3e87d0ae	0.26526397
12	0x3e3308b4	0.17483789
13	0xbb9462b5	-0.0045283684
14	0x3dad390b	0.08458146
15	0x3e3c466b	0.18386237

encoder_variable_selection.single_variable_grns.VaccinationFull.resample_norm.mask f4 [16]
0	0xbe69d703	-0.22835927
1	0x3f11a4d5	0.5689214
2	0xbc7b32d2	-0.015331941
3	0xbeffe4ab	-0.49979147
4	0x3e9d2503	0.306923
5	0xbddb269e	-0.10700725
6	0x3efb94c9	0.49136952
7	0x3e2ec5b8	0.17067611
8	0x3e735232	0.23761824
9	0xbf19be4a	-0.60055983
10	0xbf8188e0	-1.0119896
11	0x3ecff950	0.40619898
12	0xbf3e2e83	-0.7428972
13	0x3f95abcf	1.1693057
14	0xbe35d126	-0.17755565
15	0xbeab5cbe	-0.33469194

encoder_variable_selection.single_variable_grns.VaccinationFull.resample_norm.norm.weight f4 [16]
0	0x3f4fbde2	0.81149113
1	0x3f98dcb0	1.1942348
2	0x3f901c38	1.1258612
3	0x3f251d0e	0.6449746
4	0x3fb122de	1.3838766
5	0x3f67714b	0.90407246
6	0x3d15fd2f	0.036618408
7	0x3f25484c	0.6456344
8	0x3f87e470	1.0616589
9	0x3f318842	0.6934854
10	0x3e61c81b	0.2204899
11	0x3facbbc6	1.3494804
12	0x3eb0e3c9	0.34548786
13	0x3ffa65e6	1.9562347
14	0x3e0db41e	0.1383824
15	0x3f4a0922	0.78920186

encoder_variable_selection.single_variable_grns.VaccinationFull.resample_norm.norm.bias f4 [16]
0	0xbd28efad	-0.041244198
1	0x3f023e1b	0.50876015
2	0x3dd680c8	0.10473782
3	0x3ee50290	0.44728518
4	0xbe4ffa3d	-0.20310302
5	0x3e0b02ef	0.13575338
6	0xbf2ceff2	-0.6755363
7	0xbe5c43a2	-0.21510175
8	0x3d28ca8e	0.041208796
9	0xbed3dd46	-0.41379756
10	0xbf010c40	-0.50409317
11	0x3edc42c7	0.43019697
12	0x3b5e12e1	0.0033885764
13	0xbf197ab3	-0.5995285
14	0x3f2ad3c6	0.6672939
15	0x3e69e21b	0.22840159

encoder_variable_selection.single_variable_grns.VaccinationFull.fc1.weight f4 [8, 8]
0	0x3ef879ba	0.4853037
1	0xbe27bba8	-0.16380179
2	0xbf382e07	-0.7194523
3	0xbe1b362a	-0.1515738
4	0x3f224e33	0.6340057
5	0x3de64da2	0.11245276
6	0xbf1ec88b	-0.62024754
7	0xbd8df18b	-0.06930836
8	0x3e499d07	0.19688807
9	0xbec86eef	-0.39147136
10	0xbf7ef5b4	-0.99593663
11	0xbfa969d7	-1.3235425
12	0x3d83ef06	0.064420745
13	0x3e8ca249	0.27467564
14	0x3fd3db0c	1.6551223
15	0x3ec427a4	0.38311493
16	0xbd38285c	-0.044960365
17	0xbe8a5922	-0.27021128
18	0x3e6348ce	0.22195742
19	0xbe85035d	-0.25979128
20	0xbf366e45	-0.7126201
21	0x3e097d01	0.13426591
22	0xbe814bf4	-0.2525326
23	0xbf48ce8b	-0.7844016
24	0x3c97b445	0.018518576
25	0xbf71be8e	-0.9443139
26	0xbe7736be	-0.24141976
27	0x3ef899f5	0.4855496
28	0xbf21939e	-0.6311587
29	0x3f03dc9e	0.5150851
30	0x3c4326ee	0.011911137
31	0xbdb2fa34	-0.08739129
32	0x3eabf970	0.33588743
33	0x3f095616	0.5364698
34	0x3e58fef1	0.21191002
35	0x3efff39c	0.49990547
36	0x3d6613a1	0.056171063
37	0x3e6e6385	0.23280151
38	0x3ef5b1fe	0.4798736
39	0x3f1e0764	0.6173003
40	0xbeafd79c	-0.34344184
41	0x3f6a527f	0.9153213
42	0x3f0bd3b7	0.54619926
43	0xbdc74bef	-0.0973128
44	0xbf0daa00	-0.55337524
45	0xbf885187	-1.064988
46	0xbf5a331d	-0.8523424
47	0xbff9bb83	-1.9510349
48	0xbf0dba3f	-0.55362314
49	0x3e4373c3	0.19087128
50	0x3d603683	0.054739486
51	0x3e3235d1	0.17403342
52	0x3f81f4b7	1.0152806
53	0xbd1180ea	-0.035523333
54	0x3e5de644	0.2166987
55	0x3e71cbec	0.23612946
56	0x3f1133cf	0.5671968
57	0xbe1faec9	-0.15594019
58	0xbf6fbb76	-0.9364542
59	0x3bb29af5	0.005450601
60	0xbd3ec8dd	-0.046578277
61	0xbf8d26e0	-1.1027489
62	0xbea636f0	-0.3246379
63	0xbfc63444	-1.54847

encoder_variable_selection.single_variable_grns.VaccinationFull.fc1.bias f4 [8]
0	0x3e2966c0	0.16543102
1	0x3d786aba	0.060648657
2	0xbe75ca67	-0.24002992
3	0x3e3068a8	0.17227423
4	0x3e165389	0.14680304
5	0xbeb33319	-0.34999922
6	0xbd282349	-0.041049276
7	0x3e92bfdb	0.28662

encoder_variable_selection.single_variable_grns.VaccinationFull.fc2.weight f4 [8, 8]
0	0xbe8490b4	-0.2589165
1	0x3f4de050	0.804204
2	0xbe2e44e1	-0.17018463
3	0xbf048d07	-0.5177769
4	0xbf527c32	-0.82220757
5	0x3f07f6ac	0.53110766
6	0xbe6d9003	-0.23199467
7	0x3e1222d7	0.14271103
8	0x3f3085fd	0.6895445
9	0xbf00ee91	-0.50364023
10	0xbea12384	-0.3147241
11	0xbecdbe74	-0.40184367
12	0xbec6bc71	-0.38815644
13	0xbf5976da	-0.8494698
14	0xbe2ffbe6	-0.17185935
15	0xbe5fa0b7	-0.21838652
16	0xbfd8a354	-1.6924844
17	0x3ee2c90b	0.4429401
18	0xbd8adc3b	-0.06780287
19	0x3f17bfd5	0.5927709
20	0xbea570c4	-0.32312596
21	0x3f1cbc95	0.61225253
22	0x3ed0dbd4	0.40792716
23	0x3f0a1963	0.5394499
24	0x3e36307c	0.17791933
25	0xbf4eeb21	-0.8082753
26	0x3db17180	0.086642265
27	0xbed17105	-0.4090654
28	0x3f124d4b	0.5714919
29	0xbf4c252f	-0.7974424
30	0xbdbb0754	-0.09132257
31	0x3b12b91b	0.0022388163
32	0xbed6fa6b	-0.4198793
33	0xbe477338	-0.19477546
34	0x3ea697c4	0.32537663
35	0xbe1aadab	-0.15105312
36	0x3e6e6517	0.2328075
37	0x3ec7dbba	0.39034826
38	0xbf4f2da4	-0.8092902
39	0x3f3d0c76	0.7384714
40	0xbee97e1b	-0.45604023
41	0x3f9d0615	1.2267481
42	0x3f53b7b0	0.8270216
43	0x3eaef77b	0.34173188
44	0x3e2c16df	0.168056
45	0x3ed39928	0.41327786
46	0xbe604237	-0.21900259
47	0xbf5cfc6d	-0.8632267
48	0x3f4a3ae7	0.7899613
49	0xbf914244	-1.1348348
50	0xbe2e7cd5	-0.17039807
51	0x3f4e0dac	0.8048961
52	0x3e11ba48	0.14231217
53	0xbf13ef8d	-0.577874
54	0xbdf934fd	-0.1216831
55	0x3ed20b46	0.41024226
56	0xbdd14fab	-0.102202736
57	0x3ebe7af4	0.3720318
58	0x3e0d7a0c	0.13816088
59	0x3ed89931	0.42304376
60	0xbec2935d	-0.38003054
61	0xbf352526	-0.7075981
62	0x3c826242	0.015915994
63	0xbecbfc5c	-0.39840972

encoder_variable_selection.single_variable_grns.VaccinationFull.fc2.bias f4 [8]
0	0xbeae50c9	-0.3404601
1	0xbd89fdcf	-0.06737863
2	0xbd9542d9	-0.07288141
3	0x3d0b9c55	0.034084637
4	0x3de31cfb	0.11089512
5	0xbe484f17	-0.1956142
6	0x3ef1580e	0.47137493
7	0x3da13761	0.07871891

encoder_variable_selection.single_variable_grns.VaccinationFull.gate_norm.glu.fc.weight f4 [32, 8]
0	0xbecc3042	-0.39880568
1	0x3f0cfeae	0.5507611
2	0x3d33d8f1	0.043908063
3	0x3ee5bcaa	0.44870502
4	0xbf019493	-0.5061733
5	0x3eaca0b7	0.33716366
6	0x3eb3cc9a	0.35117036
7	0x3e771753	0.24129991
8	0xbf2b3ac6	-0.66886556
9	0x3eb342ec	0.35011995
10	0xbee99c94	-0.45627272
11	0x3de6a688	0.11262232
12	0x3e0c0711	0.1367457
13	0xbe8aba90	-0.2709546
14	0x3f21b29b	0.63163155
15	0xbb697523	-0.0035622797
16	0x3e491510	0.19636941
17	0x3e2b4c74	0.16728383
18	0x3ec8d816	0.3922736
19	0xbe257866	-0.1615921
20	0x3ddd2aa5	0.107991494
21	0x3edacee8	0.42735982
22	0xbdf8598e	-0.12126456
23	0x3dd61a3d	0.10454223
24	0xbf6bef70	-0.9216223
25	0x3e03f54a	0.12886539
26	0xbdaf5e08	-0.08562857
27	0x3ede5785	0.43426147
28	0xbe9947ca	-0.29937583
29	0x3e51490a	0.20438018
30	0x3f06a807	0.5260014
31	0x3f0395fe	0.51400745
32	0xbdc593fe	-0.09647368
33	0xbd156632	-0.036474414
34	0x3e438878	0.19095027
35	0xbec42952	-0.38312775
36	0x3e84d5bd	0.2594432
37	0xbf0c139a	-0.5471741
38	0x3e711878	0.2354449
39	0xbec2b2ef	-0.3802714
40	0x3ea0cd39	0.31406572
41	0x3eec73f4	0.46182215
42	0x3afe17a5	0.0019385709
43	0xbd60c3fe	-0.054874413
44	0xbeaa0cb1	-0.33212808
45	0x3f295889	0.6615072
46	0xbfb9c501	-1.4513246
47	0x3efd22b0	0.49440527
48	0x3e22a1a5	0.15881975
49	0xbe4636e6	-0.1935688
50	0x3eecff9a	0.4628876
51	0xbead4366	-0.33840483
52	0x3ea17d75	0.3154103
53	0x3edf2c22	0.43588358
54	0x3cb38ac4	0.021916755
55	0x3c49c0d2	0.012314038
56	0xbed22ec5	-0.41051307
57	0x3e2848f6	0.16434082
58	0x3d9e0531	0.07715834
59	0xbe3cb60c	-0.1842882
60	0x3e90123a	0.28138906
61	0xbefa41fc	-0.48878467
62	0x3e9eed34	0.31040347
63	0xbf110a70	-0.5665655
64	0xbeeada50	-0.45869684
65	0x3f4d236d	0.8013218
66	0xbf29dbba	-0.663509
67	0x3f010b4a	0.5040785
68	0xbf33be65	-0.70212394
69	0x3eb04df4	0.34434474
70	0x3e58dbb1	0.21177556
71	0x3f1997a9	0.5999704
72	0x3ed34d49	0.412699
73	0x3d0b16c5	0.03395726
74	0x3e89f706	0.26946276
75	0xbf03777a	-0.5135418
76	0xbe4f3702	-0.20235828
77	0x3a371865	0.0006984531
78	0xbf4482fe	-0.7676238
79	0x3c7c956f	0.015416487
80	0x3e322a32	0.17398909
81	0xbeeb8284	-0.45998013
82	0x3f1cb9f1	0.61221224
83	0xbf247685	-0.64243346
84	0x3f20b918	0.6278243
85	0xbe36dfd1	-0.17858817
86	0x3e0495f3	0.12947826
87	0xbeaee9bb	-0.34162697
88	0xbebd7f2e	-0.37011093
89	0x3cb870bd	0.022514695
90	0xbec333e4	-0.38125527
91	0x3ec89efe	0.391838
92	0xbeb9d7cc	-0.36297452
93	0x3e832aff	0.2561874
94	0xbdcdde43	-0.10052159
95	0x3e335dd9	0.17516269
96	0xbb1e153e	-0.0024121548
97	0xbe08d807	-0.13363658
98	0x3ddb75b3	0.10715809
99	0xbf5d769c	-0.8650911
100	0x3f0003f0	0.5000601
101	0x3ecfcfbf	0.40588185
102	0xbeacc167	-0.33741304
103	0xbecc7573	-0.39933357
104	0x3f0f7f7e	0.5605391
105	0xbf261c6b	-0.6488711
106	0x3e3fd4ae	0.18733475
107	0xbe78af43	-0.24285607
108	0x3ea2d76d	0.31804982
109	0x3e944536	0.28959054
110	0xbeae5653	-0.34050235
111	0xbe9b383b	-0.30316338
112	0xbf196e1c	-0.5993364
113	0x3eddf9d9	0.4335468
114	0xbebdf499	-0.37100676
115	0x3e90ba21	0.28267005
116	0xbea8c3af	-0.32961795
117	0xbe3025c8	-0.17201912
118	0x3e5aa2a6	0.21351108
119	0x3e46f396	0.19428858
120	0xbeb5d57d	-0.3551444
121	0x3e040a89	0.12894644
122	0xbccf80cc	-0.02532997
123	0xbdaa2623	-0.08308055
124	0xbe04a9e9	-0.1295544
125	0x3dac86dd	0.08424161
126	0x3eb32f3a	0.34996969
127	0x3e737097	0.23773418
128	0x3e8486a7	0.25883982
129	0xbe4196f0	-0.18905234
130	0x3e037b57	0.12840019
131	0x3d3ea887	0.04654744
132	0x3cafa446	0.021440636
133	0x3f018f50	0.506093
134	0xbf60d185	-0.878197
135	0xbe9c1c97	-0.30490562
136	0x3d74eb39	0.05979464
137	0xbce98db2	-0.028509948
138	0x3ed84e28	0.42247128
139	0x3e87bed9	0.26512793
140	0x3be48edd	0.0069750384
141	0x3f4dc235	0.8037446
142	0xbe8902c1	-0.26759914
143	0xbd85b59a	-0.065287784
144	0xbd3596f2	-0.044333406
145	0x3f31d578	0.6946635
146	0xbe9ed00e	-0.31018108
147	0x3f3bbcc3	0.733349
148	0xbea78b0e	-0.32723278
149	0x3e64fbb1	0.22361638
150	0xbc15dd48	-0.009146996
151	0x3f0ed151	0.5578814
152	0x3e8ad3a5	0.27114597
153	0x3da40410	0.08008587
154	0x3e07ccc1	0.13261701
155	0x3ca410e7	0.02002759
156	0x3ccac00d	0.02474978
157	0x3e7ff58b	0.24996011
158	0xbf0c70be	-0.5485953
159	0xbee37cad	-0.44431058
160	0xbd4f47a4	-0.05060543
161	0xbf5aeadd	-0.8551462
162	0x3f3d9092	0.7404872
163	0xbe1315db	-0.14363806
164	0x3f421536	0.75813615
165	0xbdc8826d	-0.09790502
166	0xbd062aa5	-0.032755513
167	0xbf547c99	-0.8300262
168	0x3fc1b8d8	1.5134535
169	0xbf539d7d	-0.82662183
170	0x3f9fae79	1.247512
171	0xbf94cbdd	-1.1624714
172	0x3df456bb	0.11930605
173	0x3df8ffcb	0.12158164
174	0xbf1f1fd0	-0.6215792
175	0xbeddc7ab	-0.43316397
176	0x3eeec17b	0.4663199
177	0x3edc2946	0.4300024
178	0xbe8119ec	-0.2521509
179	0x3ead138a	0.3380397
180	0xbec63d4f	-0.3871865
181	0x3d118490	0.035526812
182	0xbeee87ff	-0.46588132
183	0x3e8b3365	0.27187648
184	0xbe96660d	-0.29374734
185	0x3f74ce28	0.9562707
186	0xbd93d37b	-0.07218071
187	0x3f7a17a1	0.97692305
188	0xbf6069a8	-0.8766122
189	0xbd8176ad	-0.06321464
190	0xbea450e2	-0.3209296
191	0x3f184362	0.5947782
192	0xbe2ebbe0	-0.17063856
193	0xbde5ea22	-0.11226298
194	0x3e3826e4	0.17983586
195	0xbed0bea8	-0.4077046
196	0xbd4b702a	-0.049667515
197	0xbf1ef80b	-0.62097234
198	0x3f7de506	0.9917759
199	0xbe614ab9	-0.2200116
200	0x3edc76b1	0.43059304
201	0xbea6422c	-0.3247236
202	0x3f16274f	0.5865373
203	0xbec15d1f	-0.37766358
204	0x3f2b4ef6	0.6691736
205	0x3c501eb7	0.0127026355
206	0x3dd85388	0.10562807
207	0xbf0d2898	-0.55140066
208	0xbedaa4f0	-0.42703962
209	0x3e019f17	0.12658344
210	0x3e20caaf	0.15702318
211	0x3e186ab4	0.14884454
212	0x3e93f3c2	0.2889691
213	0xbf0686f6	-0.52549684
214	0x3ea3441f	0.3188791
215	0xbd5dd219	-0.054155443
216	0xbbb17e2c	-0.005416652
217	0x3e1d5194	0.15363151
218	0x3e267dea	0.1625897
219	0x3c9822e0	0.018571317
220	0x3dba88f5	0.09108154
221	0xbe9399d5	-0.28828302
222	0x3e15869f	0.14602135
223	0xbf1f0990	-0.62123966
224	0x3f24c513	0.6436321
225	0x3ed2926d	0.4112734
226	0xbe22902b	-0.15875308
227	0xbced5622	-0.028971735
228	0x3e28602a	0.16442934
229	0x3eb987c9	0.36236408
230	0xbf42a0f0	-0.7602682
231	0xbc023bf0	-0.0079488605
232	0xbe6d01f2	-0.23145273
233	0xbdbdf622	-0.09275462
234	0xbe3e3d3b	-0.18578045
235	0xbe182a32	-0.14859846
236	0x3e13a8ba	0.14419833
237	0xbef656f8	-0.48113227
238	0x3d880614	0.06641784
239	0xbe82a07f	-0.25513074
240	0x3d98cf45	0.074614085
241	0x3c34c76b	0.011033873
242	0xbd431e38	-0.04763624
243	0x3ddfafb5	0.10922185
244	0x3c9edc78	0.019392237
245	0xbf56aae7	-0.83854526
246	0x3ee60452	0.4492517
247	0xbedac5a9	-0.42728928
248	0xbf32a811	-0.697877
249	0x3efadac5	0.48995033
250	0x3eff97ba	0.49920446
251	0x3ec2ab6e	0.38021415
252	0xbdda23fa	-0.10651393
253	0xbe21f506	-0.15816125
254	0x3f1702a9	0.58988434
255	0xbd18caac	-0.037302658

encoder_variable_selection.single_variable_grns.VaccinationFull.gate_norm.glu.fc.bias f4 [32]
0	0xbeb0fc0a	-0.3456729
1	0x3f0037a4	0.500849
2	0xbd588f40	-0.05287099
3	0x3e8ff604	0.28117383
4	0x3ef7268b	0.48271593
5	0xbf18be12	-0.59665024
6	0xbf21cde5	-0.63204795
7	0x3e809c8e	0.25119442
8	0xbcfdc3d3	-0.030977165
9	0xbefe7011	-0.49694875
10	0xbe46a6c4	-0.19399554
11	0x3e92dec1	0.28685573
12	0xbf1b5442	-0.6067544
13	0xbed6cebd	-0.41954604
14	0x3f104723	0.56358546
15	0x3dcb6ee8	0.09933263
16	0xbf11f112	-0.5700847
17	0xbe32a46f	-0.17445539
18	0xbb18ce99	-0.0023316501
19	0xbed4ecdf	-0.41586968
20	0x3dde0878	0.10841459
21	0xbe9cee54	-0.3065058
22	0xbe1406db	-0.1445574
23	0xbd9699c4	-0.07353547
24	0x3f1dbbe2	0.6161481
25	0x3dba101c	0.09085104
26	0x3ec8c742	0.39214522
27	0x3e1bf293	0.15229253
28	0xbdc8f63c	-0.098125905
29	0x3e8908eb	0.26764616
30	0x3f0c9ddc	0.54928374
31	0x3d611815	0.054954607

encoder_variable_selection.single_variable_grns.VaccinationFull.gate_norm.add_norm.norm.weight f4 [16]
0	0x3f1a5cec	0.6029804
1	0x3f8268a8	1.0188189
2	0x3f3263d9	0.69683605
3	0x3eab292f	0.33429858
4	0x3f92668e	1.1437547
5	0x3f9431b6	1.157767
6	0x3e9b4ae2	0.3033057
7	0x3ebcd19c	0.3687867
8	0x3fa7dbf8	1.3114004
9	0x3f12dd56	0.5736898
10	0x3faacdbe	1.3344038
11	0x3fb9d081	1.4516755
12	0x3f09e652	0.53867066
13	0x3fa65809	1.2995616
14	0x3f85cf61	1.0453912
15	0x3f25f483	0.6482622

encoder_variable_selection.single_variable_grns.VaccinationFull.gate_norm.add_norm.norm.bias f4 [16]
0	0x3cc4f298	0.024041459
1	0x3eb73d92	0.35789162
2	0x3e46004d	0.19336052
3	0x3e85e738	0.26152968
4	0x3df3292c	0.11873087
5	0xbd7c6536	-0.06161996
6	0xbdb58673	-0.08863535
7	0xbf022717	-0.50840896
8	0xbea1a72b	-0.31572852
9	0xbe25b3ab	-0.16181819
10	0x3dee3a66	0.11632232
11	0xbd208a5b	-0.039194446
12	0x3e9af960	0.30268383
13	0xbdfd246b	-0.12360462
14	0x3deab85e	0.114609465
15	0x3ec9492e	0.39313644

encoder_variable_selection.single_variable_grns.Cases.resample_norm.mask f4 [16]
0	0x3e5c1109	0.21490873
1	0x3e7a8e3a	0.24468318
2	0xbf27b064	-0.65503526
3	0xbeeeb79b	-0.46624455
4	0xbe0e6bb9	-0.1390828
5	0x3ea8d21b	0.32972798
6	0xbd97924c	-0.07400951
7	0xbe639b88	-0.22227299
8	0xbf0a7feb	-0.5410144
9	0x3f045968	0.51698923
10	0x3e78d281	0.24299051
11	0xbe176646	-0.14785108
12	0xbf10108c	-0.5627525
13	0xbf9f2960	-1.2434502
14	0x3efd0094	0.49414504
15	0xbe5cd9f1	-0.21567513

encoder_variable_selection.single_variable_grns.Cases.resample_norm.norm.weight f4 [16]
0	0x3f9bb47a	1.2164452
1	0x3fbde737	1.4836186
2	0x3f5d41fc	0.8642881
3	0x3f564c46	0.83710134
4	0x3f79811c	0.9746263
5	0x3fb55067	1.4165162
6	0x3fa437b7	1.2829503
7	0x3f9cb3c4	1.224236
8	0x3f5ee1a2	0.8706304
9	0x3fcd9465	1.6060911
10	0x3fa0c606	1.2560432
11	0x3f74e7bc	0.956661
12	0x3f318a7c	0.69351935
13	0x3e723c80	0.23655891
14	0x3fdf3b9d	1.7440068
15	0x3f903603	1.1266483

encoder_variable_selection.single_variable_grns.Cases.resample_norm.norm.bias f4 [16]
0	0x3e785e44	0.2425471
1	0x3e11838a	0.14210334
2	0xbe2acdfa	-0.16680136
3	0xbdea7172	-0.11447419
4	0xbd3d2812	-0.046180792
5	0xbdfa209c	-0.12213251
6	0xbe8515c6	-0.25993174
7	0xbd4efc45	-0.05053355
8	0xbde16fc6	-0.11007647
9	0xbd958ddb	-0.073024474
10	0x3db9c7b5	0.09071294
11	0x3dceefd1	0.10104335
12	0x3e3d2422	0.18470815
13	0x3db84d61	0.08999134
14	0x3d1e0fb1	0.038589183
15	0x3e835e12	0.25657707

encoder_variable_selection.single_variable_grns.Cases.fc1.weight f4 [8, 8]
0	0xbdcb4f3b	-0.099272214
1	0x3fc8f450	1.5699558
2	0x3e3c0a9a	0.18363419
3	0xbf603775	-0.8758462
4	0xbf08c43a	-0.5342442
5	0x3e8b0e21	0.27159217
6	0xbe2573e6	-0.16157493
7	0xbf0e6a01	-0.556305
8	0x3efa659d	0.4890565
9	0x3f0fdc25	0.5619529
10	0xbe957807	-0.29193136
11	0xc024e696	-2.5765738
12	0xbf89f31e	-1.0777318
13	0xbcd3545f	-0.025797067
14	0x3e463eed	0.19359942
15	0xbd7e3bb5	-0.06206866
16	0x3f9d2586	1.2277076
17	0x3d518d6a	0.051160254
18	0xbde86f3c	-0.11349341
19	0x3c327c97	0.010893962
20	0xbd18ef32	-0.03733749
21	0xbe0dc35f	-0.1384406
22	0xbf679afb	-0.90470856
23	0x3f407f0b	0.7519385
24	0xbf01bdca	-0.5068022
25	0xbdc00ad7	-0.093770675
26	0x3f2532d7	0.645307
27	0x3ec88b74	0.39168894
28	0x3f4950af	0.7863874
29	0xbbba1b44	-0.00567952
30	0x3e2004ef	0.15626882
31	0x3f34ef29	0.7067743
32	0xbe237209	-0.1596147
33	0xbebc3c9b	-0.36764988
34	0xbcc40886	-0.023929846
35	0x3e8e2cb9	0.27768496
36	0x3eafa68e	0.3430676
37	0x3e9b32af	0.30312106
38	0x3d7b95ec	0.061422274
39	0x3f099087	0.53736156
40	0xbe248176	-0.1606501
41	0x3dd938a1	0.10606504
42	0x3e02b3bf	0.1276388
43	0xbfc62abb	-1.548179
44	0xbf1d9f40	-0.6157112
45	0x3eaea30b	0.34108767
46	0x3d9b5820	0.07585168
47	0x3f34b977	0.70595497
48	0x3e872544	0.2639562
49	0x3dc289e0	0.09498954
50	0x3b4dc27b	0.0031396437
51	0x3f747f65	0.9550689
52	0xbf8c732a	-1.0972645
53	0x3e2f5c85	0.17125137
54	0x3eab2edf	0.33434197
55	0xbe9bfefd	-0.30467978
56	0xbdd548a6	-0.10414247
57	0xbed4256b	-0.41434798
58	0xbf1aac4c	-0.60419154
59	0xbf476168	-0.77883005
60	0xbe012b61	-0.12614204
61	0xbe679c4f	-0.22618221
62	0xbf34d36b	-0.706351
63	0x4002af3b	2.0419452

encoder_variable_selection.single_variable_grns.Cases.fc1.bias f4 [8]
0	0xbe91baab	-0.2846273
1	0xbea2ce4a	-0.3179801
2	0xbd8eb36b	-0.06967815
3	0xbe843c03	-0.25827035
4	0xbe6a875d	-0.229032
5	0xbe308fd6	-0.17242369
6	0xbebdc106	-0.37061328
7	0xbec0f095	-0.3768355

encoder_variable_selection.single_variable_grns.Cases.fc2.weight f4 [8, 8]
0	0x3c7c5087	0.015400059
1	0x3f8e2bad	1.1107079
2	0xbc633fa5	-0.0138701545
3	0xbe884a1c	-0.2661904
4	0x3ef252ae	0.47328705
5	0xbc195347	-0.009358234
6	0x3f59a114	0.8501141
7	0xbc3dcf0a	-0.0115850065
8	0xbeac7860	-0.3368559
9	0x3dcb6112	0.09930624
10	0xbe8d95dc	-0.27653396
11	0xbf34699b	-0.7047364
12	0x3cfdef4a	0.030997891
13	0x3e28b3fe	0.16474912
14	0x3a26be17	0.0006360723
15	0xbfa15057	-1.2602643
16	0x3c53dd1f	0.012931137
17	0xbf1b66e9	-0.60703903
18	0xbf53ee68	-0.82785654
19	0x3e54e2cf	0.20789646
20	0x3f0eb791	0.5574885
21	0xbe684a16	-0.22684512
22	0xbee31e52	-0.4435907
23	0x3f627a6c	0.8846805
24	0xbebd80bb	-0.37012276
25	0xbf58b80f	-0.8465585
26	0xbedc4d88	-0.43027902
27	0xbf631a6e	-0.88712204
28	0x3f1a14d1	0.60188013
29	0xbf65d561	-0.89778715
30	0xbee4237d	-0.44558325
31	0xbe49eaea	-0.19718519
32	0x3f13ddb1	0.5776015
33	0x3f3f0e5c	0.74631286
34	0x3e8c9ea6	0.2746479
35	0x3ece43c6	0.40286082
36	0x3e9badea	0.30406123
37	0xbd90e07e	-0.070740685
38	0x3e403cb7	0.18773161
39	0x3f089e93	0.53366965
40	0x3ed7a8f2	0.42121083
41	0x3df7d679	0.12101454
42	0x3f79e756	0.97618616
43	0x3f1eab06	0.6197971
44	0xbe9e6917	-0.30939552
45	0x3e04c230	0.12964702
46	0x3dab3577	0.08359807
47	0x3eb45f57	0.3522899
48	0xbf4c73ca	-0.7986418
49	0xbf3ff883	-0.74988574
50	0xbf126b71	-0.5719519
51	0x3e9c94c7	0.30582258
52	0xbe32cf22	-0.17461827
53	0xbeec235e	-0.46120733
54	0x3edc231c	0.42995536
55	0xbe1bf0ce	-0.15228578
56	0x3ef9d13f	0.48792455
57	0x3f50c909	0.81556755
58	0x3e582c28	0.21110594
59	0xbcc83415	-0.024438897
60	0x3ea6d44d	0.32583848
61	0x3e04beb6	0.12963375
62	0xbe223d37	-0.15843664
63	0x3cab3c75	0.020902852
