race-groups/results/Hispanic/checkpoints/latest-epoch=5.ckpt (torch, 735853 bytes, 506 tensors)

prescalers.Hispanic.weight f4 [8, 1]
00000000: f40c c33d 6d0f 1fbf 4123 703e c677 553e
00000010: 1dde ecbd 15d3 4d3e 2239 5ebf 5341 0e3f
0.09523955 -0.6213291 0.23450948 0.20846471 -0.11565802 0.20100053 -0.8680593 0.55568427

prescalers.Hispanic.bias f4 [8]
00000000: 4081 7fbe cc89 833f b9eb adbc 2af1 86be
00000010: 3947 0cbf 3f7d c3be 8e12 123f 7dd1 a9be
-0.24951649 1.0276427 -0.021230565 -0.2635587 -0.5479618 -0.38181493 0.5705956 -0.3316764

prescalers.SinWeekly.weight f4 [8, 1]
00000000: 2189 a33d d52c abbf 0eb7 6c3f 4f96 82bf
00000010: f8fd 213f 3706 a6be c787 673f 8ada 1d3f
0.0798514 -1.3373057 0.9246682 -1.020212 0.6327815 -0.32426617 0.90441555 0.6166159

prescalers.SinWeekly.bias f4 [8]
00000000: fdde 873e 49ab 3fbd b8ca 383f f897 993e
00000010: b4c1 0c3f 698c 2dbf 8543 5c3f 7556 ca3e
0.26537314 -0.04679421 0.72184324 0.29998755 0.5498307 -0.67792374 0.86040527 0.39519086

prescalers.VaccinationFull.weight f4 [8, 1]
00000000: 197d 52bd 976b 833e 5256 2a3f e715 6b3f
00000010: 18d5 87be fb85 d3be 73b0 38bf ed42 22bf
-0.051388834 0.25668022 0.66537964 0.91830295 -0.26529765 -0.41313156 -0.7214424 -0.6338337

prescalers.VaccinationFull.bias f4 [8]
00000000: 31bb 4c3f 2033 2ebe e61b 79be 5940 9b3f
00000010: 9dbc 223f 0c5d 37bb 4f1e 15bf 32a5 933d
0.7997313 -0.1701169 -0.24327049 1.2129012 0.6356905 -0.0027979044 -0.5824937 0.07209243

prescalers.Cases.weight f4 [8, 1]
00000000: d7c5 cd3e 3335 77bf 120c 0dbf 9117 743f
00000010: b75b a43f 6b9a 8a3d 65e0 2abf 42b8 863e
0.40190002 -0.9656555 -0.5509654 0.9534846 1.2840489 0.06767734 -0.6674865 0.26312453

prescalers.Cases.bias f4 [8]
00000000: d174 2fbf 4e1d 2bbd 5e18 633f 0823 193f
00000010: 6662 a8be dd30 94bb dd5f 513e 07ae 7cbf
-0.6853762 -0.041775994 0.88709056 0.5981908 -0.32887572 -0.0045224265 0.20446725 -0.98703045

static_variable_selection.single_variable_grns.Hispanic.resample_norm.mask f4 [16]
00000000: 460c 2dbe 68a7 8d3e d391 073f bd91 31bf
00000010: 216b 86bf 3497 34be d116 cebe 84dc 5fbf
00000020: a6ea 3c3d fd0f 2bbf feb4 773e 433b f5be
00000030: 5d29 85be 3b1d d23e 6708 ef3e cd73 c53e
-0.16899213 0.27666783 0.52956885 -0.69363004 -1.0501443 -0.17635804 -0.40251783 -0.87445855
0.046122216 -0.6682127 0.24190137 -0.47896776 -0.2600812 0.41037926 0.46686098 0.3856491

static_variable_selection.single_variable_grns.Hispanic.resample_norm.norm.weight f4 [16]
00000000: 88c3 973f 6db6 923f 47df d03f cc75 583f
00000010: d052 1f3f 76b1 9f3f 9c01 843f 43cf cc3e
00000020: 854d a43f c79c 483f 42b9 be3f c105 033f
00000030: 7669 723f 5ff9 bd3f ea3a a33f 609b d43f
1.1856546 1.1461922 1.6318139 0.84554744 0.62235737 1.2476032 1.0312991 0.40001878
1.2836157 0.78364223 1.4900286 0.51180655 0.9469217 1.4841727 1.2752354 1.6609917

static_variable_selection.single_variable_grns.Hispanic.resample_norm.norm.bias f4 [16]
00000000: 423f 633e a516 2cbd a0bb 7e3e 69af 91be
00000010: 7ece 0abe 4fa3 acbd 152c ddbd 2314 d9bd
00000020: 1e6a 3cbe 2d76 763e bcf9 ecbe 5163 f0bd
00000030: e5eb aa3d e200 b83e 8ec0 bfbd fa67 6a3e
0.221921 -0.042013783 0.24876261 -0.2845414 -0.13555333 -0.08429586 -0.107994236 -0.10599544
-0.18399855 0.24068518 -0.46284282 -0.11737693 0.083457746 0.35938174 -0.09362899 0.22891226

static_variable_selection.single_variable_grns.Hispanic.fc1.weight f4 [8, 8]
00000000: 0107 ed3e bc88 13bf 6cd7 8abe 0813 8fbe
00000010: 81bf c4be 93c4 b3bf 6d60 1cbe dcf5 11be
00000020: e614 fbbe 8a70 55bf 7be8 e0bd ac01 233f
00000030: 554f 54be 476d aabe 3e24 0c3f 5856 b53d
00000040: d0fb c03e 83fb 6d3e fff1 403f dae3 0cbc
00000050: e2d8 b13c d158 94be 9985 a03d c319 83bd
00000060: 1003 17bf f673 1e3e aa8c aabe 1c91 23bf
00000070: 44d8 f43d aff5 963e 44d5 ed3d b52a c73e
00000080: 7afe babe c943 233f e364 91bd a045 0abd
00000090: da12 5cbe 967f 823f 717b f23e b06e 21be
000000a0: deaf 9e3e 54bf adbe bf6b d1bc 0698 203e
000000b0: 5432 0c3e 1544 1fbf 23d0 22be 56d6 40bd
000000c0: b7cd 34be ef68 8ebe b7fe f8bc 24d4 113e
000000d0: 2153 3b3d 7027 7a3f 0044 ad3e c93a e4bd
000000e0: c900 50bf ad75 32be d4cb 7ebd 983d d23e
000000f0: da40 0b3e 9d86 edbe 2d78 b63e 9c85 993d
0.46294406 -0.57630515 -0.2711748 -0.27944207 -0.38427356 -1.4044365 -0.15271159 -0.14253944
-0.49039382 -0.83374846 -0.10981842 0.63674426 -0.20733388 -0.33286497 0.547428 0.088543594
0.37692118 0.23240475 0.75369257 -0.008599246 0.021709863 -0.28974012 0.07837982 -0.06401398
-0.5898905 0.15473923 -0.33310443 -0.63893294 0.11955312 0.29484317 0.11612943 0.3889977
-0.36522275 0.63775307 -0.07099321 -0.033757806 -0.21491566 1.0195186 0.47359803 -0.1576488
0.3099355 -0.33935034 -0.025564073 0.15682992 0.13691074 -0.6221326 -0.1589971 -0.047079407
-0.17656599 -0.27814433 -0.030394895 0.14241081 0.045733575 0.97716427 0.33840942 -0.11144025
-0.812512 -0.17427702 -0.062206104 0.41062617 0.13598958 -0.46391764 0.35638562 0.07496187

static_variable_selection.single_variable_grns.Hispanic.fc1.bias f4 [8]
00000000: 6ed9 42be 8126 e23d 7fd6 afbd a4dd 6dbe
00000010: 6954 ce3d f080 f73d eb7e b23e 1a4b d73d
-0.19028255 0.110425 -0.08585834 -0.2322908 0.10074694 0.1208514 0.34862456 0.10512371

static_variable_selection.single_variable_grns.Hispanic.fc2.weight f4 [8, 8]
00000000: 32ab 0dbe 046a 9eba 67bb 403e 7bae e73c
00000010: d7bf fe3e 5d93 293c fe58 dd3e 8cc6 cf3e
00000020: 15fc 1fbe 6ff5 1b3e 125d 08be 7692 c4bc
00000030: aba6 5e3e 725e fd3d 925c 043f 87b9 5a3d
00000040: 1cd5 7cbe 59eb 22bd 190c c03d bf64 3c3e
00000050: e537 fc3d 9ba3 96be d4fb 89bd f994 833e
00000060: 881d f93e f5de 6f3d 9e6c d73e 1b40 cdbd
00000070: c8b9 a93e 9027 d53c 0428 f53e ea88 9bbe
00000080: 3933 0b3e 1c2a 10be cce2 713e 28d2 8d3d
00000090: 324f 253e 57c8 903c cf00 5f3e 8cbc acbc
000000a0: 2cfe 3dbd 5f62 e23c 140a 61be 33c9 563e
000000b0: d17d f73e 58c4 7f3c f114 bdbe 13d6 cdbd
000000c0: 59bd d1be edfd 09be 1871 153e 7c27 48bd
000000d0: 4939 de3d a9c1 393d 3e69 e4bc 7807 90be
000000e0: c080 903d 3220 cfbd 6560 16bd 80a8 3a3e
000000f0: 9304 dc3d 86e5 36be 6975 c53e 39a2 44be
-0.13834837 -0.0012086038 0.18821488 0.028281441 0.49755737 0.010350076 0.43231958 0.40581167
-0.15623505 0.15230344 -0.13316754 -0.02399562 0.21743266 0.1237153 0.5170375 0.05339959
-0.2469067 -0.039775226 0.093773074 0.18397807 0.123153485 -0.29421696 -0.067374855 0.25699595
0.48655343 0.058562238 0.42075056 -0.10021993 0.33149552 0.026019841 0.47882092 -0.30377895
0.13593759 -0.14078563 0.23621672 0.0692485 0.16143492 0.017673654 0.21777652 -0.021086
-0.046384975 0.027634798 -0.21976501 0.20975189 0.48338178 0.015610777 -0.3693004 -0.10050597
-0.40964773 -0.13475771 0.14593923 -0.04886578 0.1085077 0.045350704 -0.027882215 -0.28130698
0.07055807 -0.10113563 -0.036713023 0.1822834 0.1074306 -0.17860994 0.3856614 -0.19202508

static_variable_selection.single_variable_grns.Hispanic.fc2.bias f4 [8]
00000000: 26ef f53d f604 7abe 0c2b 06be 7e0d 093e
00000010: c68f cf3d e204 84bd 4a2c 663d 238d 93be
0.120085046 -0.24415955 -0.13102359 0.13384053 0.101348445 -0.06446244 0.05619458 -0.28818616

static_variable_selection.single_variable_grns.Hispanic.gate_norm.glu.fc.weight f4 [32, 8]
00000000: 2fcc 293e a236 bb3e 2f7a c63e e50d 1dbd
00000010: f7a9 1a3e fa5b eb3d 449b a0bd 6f9f 6abe
00000020: e1f4 f73c 9083 a43d fd6e 0b3e eb98 bf39
00000030: cbba a3be 717b cf3e a48a 2d3e 27ec c73d
00000040: 1050 30be d3da ef3c 3abf 9cbd d520 2ebe
00000050: e669 6c3e 2211 a8be 0ba0 0bbe cb6b 8a3e
00000060: 99a7 cbbd dea2 e73e 7245 fabd 5eed afbe
00000070: 4cdb a03d 3029 5fbe 41fa 71be 5997 c83e
00000080: be43 963c a9dd b5bc 1c44 c63e 143b 68be
00000090: dc3e 973e c188 54be 4a5e 8bbe e56e d73e
000000a0: 89cb b53d 62a4 053e 246f 2cbe 7429 47bd
000000b0: 8d16 9cbe 5ad4 7dbe 44e6 24be 801b 9e3e
000000c0: 36b2 c0be 9b37 dfbd 00cf f33c 7ebc cf3d
000000d0: 1725 54bd 44a3 06be efe4 153d 0070 d23e
000000e0: 8e02 573f 3d76 b73e cebb cf3e b554 083f
000000f0: 9348 adbd 07d4 273f 8d1e 1fbd 9d70 b4be
00000100: 0f43 853c e4ac e3be 9660 9abe 8c16 873e
00000110: 4f4f 6c3e 4f52 213d b55b 2cbb 8cab 0b3e
00000120: b8fb b13e 6b54 91be 8513 193e 601b 203e
00000130: 73d6 923d e2f1 0b3e 6f0d d9bd 3b50 19bf
00000140: 8fb4 aabe 586e 92be 5747 1fbe 1670 c4bd
00000150: 3a5d 83be 16a1 00bf a189 75bd 513d a03d
00000160: 509a 5a3e 04c9 3ebe 4117 033e 0220 8f3e
00000170: 6ebb 013e d1be a13c 6791 74be db35 dd3d
00000180: 080b 5ebc dfe9 acbd 6014 143d b6c0 b33e
00000190: 325d 3d3e 41df 4a3e 13b6 003f 3c4d afbd
000001a0: b140 bfbd ab27 863e 0646 603e 0724 903e
000001b0: 53fa 6abc fe3f 0e3e d8c9 7d3d 497b 173b
000001c0: c020 6e3c 5d64 983e 09f5 ecbd 8a2c a83d
000001d0: 6cec 7cbe 62ad 83bd 4217 683e 476c d53c
000001e0: e168 1cbf e9c7 dcbd 3e35 14bf 6e12 51bd
000001f0: d4d4 043e 1931 44be 43f3 973e e6eb 71be
00000200: e4b0 fd3e 0746 dc3e 0c1e 173f 62d8 053f
00000210: 9469 59be 5649 8fbe 1155 19bf 765d d43d
00000220: 044c b13e 40ad 01bf f019 37bf 3b07 27be
00000230: 8e57 bdbe 8d76 8ebf 6243 43bf a131 f43e
00000240: 09a7 553f 0cb9 0e3f 95b8 c33d ec37 8ebd
00000250: b408 35bf 2298 483e d212 dbbe 70b9 7c3f
00000260: 7319 d43d 9b2c 7c3e 29d2 debc 7b65 9cbd
00000270: 1b1b 20bf 02aa 84bd c87f 02bf d476 5b3e
00000280: e928 b33d 6293 923c bc43 0bbe 8540 9fbe
00000290: 5e0f 73be 8143 46bf 3a6c ffbe 77b9 b93d
000002a0: a519 b2bd cd61 c73d 1447 ac3b 16a1 2fbf
000002b0: 8072 c0be 5860 febe 3b9b 0fbf f672 823f
000002c0: b0ee 103e 0197 573f 5398 cabe 49da 2cbe
000002d0: 35f2 a2be 3787 99be 40b2 abbe a489 9fbd
000002e0: adfe 2c3e d49b 673f 4f89 8e3f af6a 2f3e
000002f0: 1a8d e1be 2683 9b3e 2735 81be 4ea2 bbbe
00000300: 8dbc 923d ef28 0d3f f0b5 783f c758 75be
00000310: bef0 13be c2ef 8cbe 1b0b 20bf eb16 9e3f
00000320: f570 3f3e f4e2 2fbb 379c 023f 5030 6ebd
00000330: 97e9 0e3f 9b07 80be 2d4c 59bf 3c5e cd3e
00000340: 226d 463f aa64 243e 49c0 143f 9e0a 1f3e
00000350: b33f cbbe 6ec7 bb3c 4e5b 86bd f94a 68be
00000360: cd50 59be 1e51 583f ab57 523e be02 d2bd
00000370: fb1a 76bf 3c7d eebe dcff 68be 8b7f 593f
00000380: d499 09be c475 653f 1038 1e3f d6bb 71be
00000390: 7038 a6be c706 88bd 3fbc 2abf bb2d 433f
000003a0: 8588 fc3c 0eae 483f 30c5 20be 0862 e0be
000003b0: 7dbf 12bf 73a6 11bf 2a08 09bf 1d2e 623f
000003c0: 05b5 d63e aa61 1e3f a3b1 b6bb ac50 3bbf
000003d0: c0ac 92bf 8c5e 1cbf eac5 18bf ed9c 7b3f
000003e0: 0358 7ebf 0a4d c0be 56c5 afbf fd21 9abf
000003f0: 5d62 e3be a842 b9bf 2fbc f2be 4055 933f
0.16581796 0.3656512 0.38765094 -0.03834333 0.15103899 0.114921525 -0.078421146 -0.22912382
0.030268135 0.08032906 0.13616557 0.00036544292 -0.3197845 0.40523866 0.16947418 0.09761839
-0.17218041 0.029279148 -0.07653661 -0.17004712 0.23087272 -0.3282557 -0.1363527 0.27035365
-0.09944076 0.45241445 -0.12220277 -0.34360784 0.078543276 -0.21793056 -0.2363062 0.3917797
0.018342849 -0.022200422 0.38723838 -0.22678787 0.29540145 -0.20755292 -0.27220374 0.42076793
0.08876712 0.13050988 -0.16839272 -0.048623517 -0.30485955 -0.24788037 -0.16103464 0.30880356
-0.37635964 -0.10899278 0.029761791 0.10143374 -0.051793184 -0.13148218 0.03659528 0.41101074
0.83988273 0.35832396 0.4057297 0.5325425 -0.08461108 0.65557903 -0.038847495 -0.35242167
0.016267328 -0.44467843 -0.30151814 0.2638439 0.23077129 0.039385136 -0.002629978 0.13639659
0.3476236 -0.28384718 0.14948852 0.15635443 0.07169809 0.1366649 -0.105982654 -0.59888047
-0.3334088 -0.2859981 -0.15554558 -0.09591691 -0.25657064 -0.502458 -0.059945706 0.07824195
0.21347928 -0.18631369 0.1280184 0.27954108 0.12669155 0.019744309 -0.23883592 0.10801288
-0.013552435 -0.08443045 0.036152244 0.35107964 0.18492582 0.19811727 0.50277823 -0.08559653
-0.09338511 0.2620214 0.21901712 0.28152487 -0.0143419085 0.13891599 0.06196007 0.0023114255
0.014534175 0.2976407 -0.11570174 0.0821162 -0.24699563 -0.064295545 0.22665122 0.026052607
-0.6109753 -0.10780317 -0.5789374 -0.051042967 0.12971812 -0.19159354 0.2967778 -0.23625144
0.4954902 0.43022177 0.5903022 0.522833 -0.21231681 -0.27985638 -0.59895426 0.10369389
0.34628308 -0.50654984 -0.7152395 -0.16311352 -0.3698086 -1.1129929 -0.76274693 0.47694114
0.83458 0.5575111 0.095566906 -0.0694426 -0.70716405 0.19589284 -0.42787796 0.98720455
0.103564166 0.2462639 -0.027199822 -0.07636543 -0.6254136 -0.06477739 -0.5097623 0.21432048
0.08748037 0.017892543 -0.13600057 -0.31103912 -0.23736331 -0.7744675 -0.49887258 0.09068578
-0.086962976 0.09735451 0.0052574966 -0.6860517 -0.37587357 -0.4968288 -0.5609624 1.0191333
0.14153552 0.8421479 -0.3956934 -0.16880144 -0.31825414 -0.29985973 -0.3353443 -0.07789925
0.16894026 0.9047215 1.1135653 0.1713054 -0.44052964 0.30373496 -0.25235865 -0.36647266
0.071648695 0.55140585 0.97152615 -0.23959647 -0.14447305 -0.2752667 -0.62516946 1.2350744
0.18695433 -0.0026838155 0.51019615 -0.058151543 0.5582518 -0.25005803 -0.8488186 0.40110958
0.77510273 0.16054025 0.58105904 0.15531394 -0.39697036 0.022922244 -0.06560384 -0.2268485
-0.2122223 0.84498775 0.20541255 -0.10254429 -0.9613492 -0.4657992 -0.22753853 0.8496024
-0.13437587 0.8963282 0.61804295 -0.2360681 -0.32464933 -0.06641918 -0.6669349 0.76241654
0.030826816 0.78390586 -0.15700221 -0.43824792 -0.5732344 -0.56894606 -0.5352808 0.88351613
0.41934982 0.61867774 -0.005575375 -0.7316997 -1.1458969 -0.6108177 -0.5967699 0.98286325
-0.99353045 -0.37558776 -1.3732097 -1.2041622 -0.44410983 -1.4473467 -0.47409198 1.1510391

static_variable_selection.single_variable_grns.Hispanic.gate_norm.glu.fc.bias f4 [32]
00000000: b8e1 2b3e b4f8 9b3c 528b 513d 0967 75be
00000010: 14c1 c9bd 77a0 6fbc 7864 6dbd ffab 30bd
00000020: 20d6 85be 5511 2c3e a511 c5be 89e2 a9bd
00000030: cb2f d0bc 9729 863e e531 3c3d ee15 473e
00000040: c108 7bbf 680f a4bf 36a3 86bf a0d9 6fbe
00000050: 27e9 3bbf cdb0 8dbf 191b bcbe 2cf4 dc3d
00000060: baf9 8abf f019 82be 97f3 08be cf95 a4bf
00000070: 8056 57bf 2caa 70bf 1fa6 9ebf 3f48 23bf
0.16785324 0.01903949 0.051158257 -0.23965086 -0.0985128 -0.01462566 -0.057957143 -0.04313278
-0.26139927 0.16803487 -0.38490024 -0.08295161 -0.025413414 0.26203606 0.04594602 0.1944196
-0.9806023 -1.2817202 -1.0518558 -0.23422861 -0.7340264 -1.106958 -0.36739424 0.107887596
-1.085746 -0.25410414 -0.13374172 -1.2858218 -0.84116364 -0.9400966 -1.2394446 -0.63782114

static_variable_selection.single_variable_grns.Hispanic.gate_norm.add_norm.norm.weight f4 [16]
00000000: efc9 4c3f 722b 2c3f 2cb3 b93f 904d 123f
00000010: d715 e63e 1e07 923f 945b 5e3f 376b 8f3e
00000020: 0c0d 9c3f 8259 113f 9218 c73f 424b 053f
00000030: 28d7 2b3f 75a4 ac3f dc0f b43e de49 aa3f
0.79995626 0.6725379 1.4507804 0.571496 0.44938537 1.1408422 0.8685849 0.28011486
1.2191482 0.56777203 1.5554373 0.5206796 0.6712518 1.3487688 0.3516835 1.3303792

static_variable_selection.single_variable_grns.Hispanic.gate_norm.add_norm.norm.bias f4 [16]
00000000: 42a5 5d3e 9276 a13c e27f 983e a895 b5bd
00000010: c428 4bbb f2aa 8abd b432 05be 8407 1d3c
00000020: b098 80be 95f2 313e a078 29bf 011c 52be
00000030: 6ae0 b13d e689 ac3e f227 53bd 582c 523e
0.21645072 0.019709859 0.29785067 -0.08866435 -0.003099964 -0.067708865 -0.13007623 0.009584311
-0.2511649 0.17377694 -0.66199684 -0.20518495 0.08685382 0.33698958 -0.051551767 0.20524728

static_variable_selection.prescalers.Hispanic.weight f4 [8, 1]
00000000: f40c c33d 6d0f 1fbf 4123 703e c677 553e
00000010: 1dde ecbd 15d3 4d3e 2239 5ebf 5341 0e3f
0.09523955 -0.6213291 0.23450948 0.20846471 -0.11565802 0.20100053 -0.8680593 0.55568427

static_variable_selection.prescalers.Hispanic.bias f4 [8]
00000000: 4081 7fbe cc89 833f b9eb adbc 2af1 86be
00000010: 3947 0cbf 3f7d c3be 8e12 123f 7dd1 a9be
-0.24951649 1.0276427 -0.021230565 -0.2635587 -0.5479618 -0.38181493 0.5705956 -0.3316764

encoder_variable_selection.flattened_grn.resample_norm.mask f4 [3]
00000000: 29c4 11bf ef91 7bbf 434a b93f
-0.5693994 -0.9826955 1.4475788

encoder_variable_selection.flattened_grn.resample_norm.norm.weight f4 [3]
00000000: 4c14 d83f a1a5 3ebe 069e 9c3f
1.6881194 -0.1861787 1.2235725

encoder_variable_selection.flattened_grn.resample_norm.norm.bias f4 [3]
00000000: ff70 ac3e 2d83 21bf b69f dd3e
0.3367996 -0.63090783 0.43285912

encoder_variable_selection.flattened_grn.fc1.weight f4 [3, 24]
00000000: 69f8 4c3e 07a5 d73c c0ce 69bd f6bc 533e
00000010: cd1b 3bbe f54b ca3e 5ab9 d8be cea1 cabe
00000020: 883a 26bf 006d e23e ea2d 053f ea9d 9abf
00000030: b621 07bf 9755 b9be de80 0c3c eace a5be
00000040: f188 593f eee5 59bf 8be7 8fbd 16ca cc3d
00000050: 64a7 8a3e cb9c 47be 9e88 d4bd c260 a93f
00000060: 66c7 3ebe 628b 3e3f 1ae0 89bf e155 793e
00000070: f99a 25bf 8638 9b3e 5994 3dbf bff4 8fbd
00000080: 2701 28be bc6f 913e 3ef3 c4be 74df de3d
00000090: d4c9 1c3d a87a afbe b39f e1be 3724 4cbe
000000a0: bdf0 11bf 50fe b43f b947 f03d 13c9 c8bf
000000b0: 4321 97bf 5227 05bf cf09 823f b222 51be
000000c0: 82c6 303e 9a00 543e 0c6b 52be 7de4 3b3f
000000d0: acb6 9f3e 5bbf acbd 0814 393d 397d b53e
000000e0: 838e e43e 8fec b8bd b26c bf3c fb79 843f
000000f0: b97b fc3e 8291 35be 0678 c6be ca25 65bd
00000100: c1d2 25be 5725 f83e 5dff 9b3e b44b 76bd
00000110: b5a7 c7be a3d7 61bc a2dc 7abe e3fd 8ebf
0.20016636 0.026323808 -0.057081938 0.20677552 -0.18272324 0.39511076 -0.42328912 -0.39576572
-0.6493306 0.44223785 0.52023184 -1.2079442 -0.52785814 -0.36198112 0.008575646 -0.32384425
0.8497458 -0.8511647 -0.07026585 0.09999482 0.27080834 -0.19493406 -0.1037762 1.3232653
-0.18630752 0.7443143 -1.0771515 0.24349166 -0.64689595 0.3031656 -0.74054486 -0.070291035
-0.1640669 0.2840556 -0.3846683 0.10882464 0.038278416 -0.34273267 -0.44067153 -0.1993569
-0.5700796 1.414011 0.1173243 -1.5686363 -1.1807026 -0.52013123 1.0159243 -0.20423391
0.17263225 0.20703354 -0.20548648 0.7339552 0.31194055 -0.08434936 0.04518512 0.354471
0.44639978 -0.09029495 0.02336726 1.0349725 0.49313143 -0.17731288 -0.38763446 -0.05594424
-0.16193677 0.48465988 0.30468264 -0.06013079 -0.38995138 -0.013784322 -0.24498227 -1.117123

encoder_variable_selection.flattened_grn.fc1.bias f4 [3]
00000000: b846 debe b979 febd 64e7 283f
-0.4341333 -0.124255605 0.65978074

encoder_variable_selection.flattened_grn.context.weight f4 [3, 16]
00000000: e0b3 89be 4157 30be 4501 86be 900d adbe
00000010: 4c7a 593e d14b ea3c a2d0 283d fd86 933a
00000020: 869a a03a c07a ffbd 3f31 64bd 2e07 5a3e
00000030: d5f2 92bd 8e14 3bbe 0445 1fbf 0fdd a0be
00000040: c3d9 c73e 6dd4 923f bb0e 13be 019b 8bbe
00000050: 8db8 13bd 8d28 003f a6e1 aabe f9c5 29be
00000060: ff19 0a3d f74b 55be 6a9e 92bb 043b e93e
00000070: fc50 aa3d 8eeb 79bf 6f55 09bf 1a85 bdbc
00000080: 99cc bd3e 1d93 c7be c858 443f e4fd 9c3d
00000090: ab36 1cbe cd80 973e a5a2 8f3e 275a 8f3e
000000a0: 14fc 2ebf b271 d03e 5755 d3bc 3e66 d5be
000000b0: e7be 823c 5137 2b3f 4f80 513e 514c 073f
-0.26895046 -0.17220785 -0.26172844 -0.3379941 0.21238059 0.028600605 0.041214593 0.001125544
0.0012253083 -0.124745846 -0.055711027 0.21291801 -0.07175223 -0.1826956 -0.62214684 -0.31418654
0.39033327 1.1471077 -0.14361088 -0.27266696 -0.036064673 0.50061876 -0.3337528 -0.16579427
0.033716198 -0.2082976 -0.004474451 0.45552838 0.08316228 -0.9762505 -0.53645986 -0.023134757
0.37070158 -0.38979426 0.7669797 0.07665613 -0.15255229 0.29590455 0.28053775 0.27998468
-0.6835339 0.40711743 -0.02579753 -0.41679567 0.01596017 0.6688128 0.20459102 0.52850825

encoder_variable_selection.flattened_grn.fc2.weight f4 [3, 3]
00000000: 4d0a 9cbf fc8e a3bf eacc 3a3e 945f fc3d
00000010: dff4 89bf 25a8 d2be db62 a03d 6826 0dbf
00000020: 5554 59bf
-1.2190644 -1.277801 0.18242231 0.123229176 -1.0777854 -0.4114391 0.07831355 -0.5513673
-0.84894305

encoder_variable_selection.flattened_grn.fc2.bias f4 [3]
00000000: 1dd6 ff3e 035d 963d 7a9c 24bf
0.49968043 0.07341959 -0.64301264

encoder_variable_selection.flattened_grn.gate_norm.glu.fc.weight f4 [6, 3]
00000000: e443 043f 7080 adbe baff 6f3f 0efb f2bd
00000010: f282 093e 4a07 f43e a376 263e 0042 5d3e
00000020: 7fa6 cdbe c4a7 a4be 0bf8 82bf 06f7 103f
00000030: b71a 513f 8aae 85be b428 1ebf 8f45 793b
00000040: 64e0 723f 2cde 103f
0.5166609 -0.33887053 0.9374958 -0.11864291 0.13428858 0.4766181 0.16256194 0.21607208
-0.4016609 -0.32159245 -1.0231947 0.5662693 0.8168139 -0.26109725 -0.6178086 0.0038035845
0.9487364 0.5658901

encoder_variable_selection.flattened_grn.gate_norm.glu.fc.bias f4 [6]
00000000: 1ff2 103f 7b4b fbbe d93b c03e 9a75 09bf
00000010: 2bc3 2f3e 22bd 01bd
0.5661945 -0.49081025 0.3754566 -0.5369507 0.17164294 -0.03167451

encoder_variable_selection.flattened_grn.gate_norm.add_norm.norm.weight f4 [3]
00000000: 019a 293e 75af 553e ce29 72bd
0.16562654 0.20867713 -0.0591219

encoder_variable_selection.flattened_grn.gate_norm.add_norm.norm.bias f4 [3]
00000000: cc66 9bbd 3c60 c9be ebb5 c73e
-0.07587966 -0.39331234 0.3900598

encoder_variable_selection.single_variable_grns.SinWeekly.resample_norm.mask f4 [16]
00000000: 0aff 11be 4bdb 893e c28a 0a3f 6768 3e3d
00000010: 4d50 b2be 047e f8bd de84 f5be cd82 31bf
00000020: 764f e4be 5244 2abf d5db 90be 60da 5c3c
00000030: 4815 f3bd 18de 593e bc03 413f 852a 32bd
-0.14257446 0.2692512 0.5411798 0.046486285 -0.3482689 -0.121334106 -0.47952932 -0.6934021
-0.44591874 -0.665105 -0.2829272 0.013479799 -0.118692935 0.21276128 0.75396323 -0.04349758

encoder_variable_selection.single_variable_grns.SinWeekly.resample_norm.norm.weight f4 [16]
00000000: c75d 4d3f 8963 633f cd04 e93f 5bf3 693f
00000010: bad8 893f 4c68 763f f866 233f 9866 243f
00000020: 6410 d73e 9fd7 f23e 0b13 a13f c4f5 c03f
00000030: b221 f23e cab7 bb3f f53e 0a40 60ff 713f
0.8022122 0.88823754 1.820459 0.91386956 1.0769265 0.96252894 0.6382899 0.64219046
0.42004693 0.4743013 1.2583936 1.5075002 0.47291332 1.4665463 2.1600926 0.94530296

encoder_variable_selection.single_variable_grns.SinWeekly.resample_norm.norm.bias f4 [16]
00000000: 0d1b 943d c6e6 bb3e a6fc d83c e29e 133e
00000010: 62b0 b2be 997b 3bbe d943 64be 4d6a b9be
00000020: dd27 143e 6f0a 01be 4d55 433d ce90 ec3e
00000030: b72f b23d d2e5 6cbd ee68 50be 1a9a b03d
0.07231722 0.36699504 0.02648766 0.14416078 -0.34900194 -0.18308868 -0.22291507 -0.36213914
0.14468332 -0.12601636 0.04768877 0.46204227 0.08700507 -0.05783636 -0.20352527 0.086231425

encoder_variable_selection.single_variable_grns.SinWeekly.fc1.weight f4 [8, 8]
00000000: f487 6e3f 8b90 e2bf e0ca 42bf c986 10c0
00000010: cce2 a6be 3064 6f3d 2f7f 853e 70e4 f63e
00000020: e403 5d3a b81f 603e 4dea ea3d c3b0 61be
00000030: 027d f03d 9cd7 193f 114b cd3c 3345 af3d
00000040: 162b 0bbd 657b a23d 0315 55bf 432f 9a3e
00000050: ec3e b1bf 8231 4e3f efbc 533d 1b3a 44be
00000060: 79dc a83e f8f4 0f3e c0ff c6be 90e4 0e3e
00000070: a331 903e 49ec 5e3e dcab 4f3e 889d 053f
00000080: be37 febe 9f1a 4dbb c036 893f 045e a53d
00000090: fb99 e43d d9ff 4f3f b0f8 e23e f874 88bf
000000a0: ad8d 1d3f 2b65 86be 4bf1 21bf 9aa7 6f3d
000000b0: 4e0a 813e ad9c a2be 174b e9bd 6b9a 623e
000000c0: db4e 55bf fb03 06be e2aa d7bf 7647 e03e
000000d0: 5853 86bf 23a9 fa3e 20a1 ddbf cd17 43bf
000000e0: 5eb2 0e3f 7aff 85bd b436 3cbf 9827 0e3e
000000f0: 972e 453f aa7d 263f c397 92be d631 c73e
0.931762 -1.7700361 -0.7609081 -2.2582266 -0.32594907 0.058445156 0.26073596 0.4822116
0.00084310607 0.218871 0.114704706 -0.22040085 0.11742593 0.6009462 0.025060209 0.085581206
-0.033976637 0.07933692 -0.83235186 0.30114183 -1.3847327 0.8054429 0.051693853 -0.1916279
0.32980707 0.14058292 -0.38866997 0.13954377 0.2816287 0.21769823 0.20280403 0.521935
-0.49651903 -0.0031296385 1.0719833 0.08074573 0.11162182 0.8124977 0.44330359 -1.0660696
0.61544305 -0.2624906 -0.6325881 0.058509447 0.25203174 -0.3176016 -0.113912754 0.22129218
-0.8332345 -0.13087456 -1.6849024 0.4380452 -1.0494184 0.48957166 -1.7314796 -0.7620819
0.55740917 -0.06542869 -0.7352097 0.13882291 0.77024215 0.650355 -0.2863141 0.3890521

encoder_variable_selection.single_variable_grns.SinWeekly.fc1.bias f4 [8]
00000000: 5a18 babe ece8 d53d a865 6ebe 01ca 36be
00000010: e0ef 5cbd e7ba e6bc d675 d5be 81e2 5abe
-0.36346704 0.10444817 -0.23280966 -0.17850496 -0.0539397 -0.028165294 -0.41691464 -0.21375467

encoder_variable_selection.single_variable_grns.SinWeekly.fc2.weight f4 [8, 8]
00000000: e285 88bf 3489 6b3e 3f02 8dbf 67f0 9d3d
00000010: b59c 71be c4c7 db3c 24de 8a3e d6bd 83be
00000020: 8fed 43be be85 36be b464 c33e 1944 a33d
00000030: 6fd0 d1be 8dcc 6c3d e531 4e3f de70 37bd
00000040: c686 3a3f 6182 d8bb 12f1 a0bd c801 ccbd
00000050: 6711 373e f647 2e3d 4db1 573f 951a cc3e
00000060: 3151 183f 0c5e 2f3f 3f40 9d3d bd0d b63b
00000070: 085e 7f3e a047 a33a 11be d6be 251b fcbe
00000080: e207 a1bf b50e 163f 079a 0bbf b9fe f4bd
00000090: c322 f93d b240 beba 127c dabe 7251 bebd
000000a0: bcf3 043f 61b3 febe 030f bbbe fb50 213d
000000b0: 3df9 edbe 6cec fd3c acfb b0be 1f4f 2f3e
000000c0: b9ea 8c3b fa6c 433e d3d1 9a3e e51c a0bd
000000d0: 2b9a e0bd 87c1 8fbd 5b8b 233f e2ce b23e
000000e0: eadd 753f 9364 a93d 1f0a aa3e 6708 f23d
000000f0: 9f3b 0f3e 9c07 c13a 3448 903f 72a0 fcbe
-1.0665858 0.23001558 -1.101631 0.07711869 -0.23594935 0.026828654 0.27122605 -0.2573077
-0.1913359 -0.17824456 0.38162768 0.07971973 -0.40979335 0.057812262 0.80544883 -0.044785373
0.728619 -0.0066073393 -0.078584805 -0.09961277 0.17877732 0.042549096 0.84254915 0.3986403
0.5949889 0.6850288 0.076782696 0.005555837 0.24938214 0.0012457259 -0.41941884 -0.4923946
-1.2580531 0.5861619 -0.545319 -0.11962647 0.121648334 -0.001451513 -0.42672783 -0.09292878
0.5193441 -0.4974623 -0.3653489 0.03938387 -0.46479216 0.030996524 -0.3456701 0.17120026
0.004300442 0.1908454 0.30238208 -0.07818011 -0.10966905 -0.07019334 0.63884515 0.34923464
0.9604174 0.08271136 0.33210847 0.11818009 0.13987587 0.0014726999 1.1272035 -0.4934116

encoder_variable_selection.single_variable_grns.SinWeekly.fc2.bias f4 [8]
00000000: 5392 c8be 0b73 a3bd 4e33 3c3d 0e7e 003e
00000010: c7ee 59bc 29eb f83c caa5 b5bc db18 2f3e
-0.39174137 -0.07980927 0.045947365 0.12548086 -0.013301558 0.03038557 -0.022173781 0.17099325

encoder_variable_selection.single_variable_grns.SinWeekly.gate_norm.glu.fc.weight f4 [32, 8]
00000000: bee4 563e e37e 76be d14a cdbd d601 5ebe
00000010: bfc7 23bd a242 c9be b4ac 9cbe 2f49 90bc
00000020: 23f8 6d3d 7928 3b3f 1a0e d53d 2668 19bf
00000030: 0302 cf3d 36c3 44bf c42a 293f e024 853e
00000040: 7036 a03e f58d d23d 842e 66be 6f3f 98bd
00000050: b41f 183f 8cd4 8ebd f045 2d3e b76b 3abe
00000060: 64c5 093f b5ba 02be c445 34bf 8d19 dabe
00000070: 812a cc3e 447b 24be c9fc 5dbd 2ec1 bebe
00000080: aebb e4bc 0575 413d 8c69 2e3e 17f7 3a3e
00000090: 469a 4f3e 3a03 2dbe a6ff ba3e 9235 ad3e
000000a0: 1799 353e 06a5 a5be 69c3 95bd 3962 d03d
000000b0: ec91 8ebd 5db5 113e 553c cbbe 1f38 283e
000000c0: eec3 df3e a614 91bd 3da7 7bbf 01a5 aebe
000000d0: f94f 103f 6e57 8abe 803b abbe 5d71 8dbf
000000e0: e6f1 e1be cd51 40be 0ca8 b03e 0b07 79be
000000f0: 86dd d63e 81ae a53e 15e4 1cbe 603f 22be
00000100: d92f 823e e88d f03d d357 37be aae5 783e
00000110: 3cd3 453e 3f45 cb3d 6a07 273d 0fd5 74be
00000120: 996a 4fbd 1a01 06bd 84a3 823e 4701 9bbe
00000130: 93bd 08be c5a5 0ebe b321 653d a975 27bc
00000140: 9319 1abe 6a12 a73e 81b7 d43e bdd4 42be
00000150: 9a00 e5be 579d 8bbe 6cfc b63e 4ba4 313f
00000160: 0a39 11be b3c4 043f 001a 1c3f 33f0 c0be
00000170: 9dec 07bf 8545 0dbf 42ad f53e 2d9d 0f3f
00000180: b382 633f 7ec1 613f f473 6bbf 15ac 4abf
00000190: 220c 783f d289 34bf 1beb 4b3f 0348 30bf
000001a0: 609a 74be 3545 2cbf 7675 83be 9c8c 023f
000001b0: ccee 813e 3cf0 143f 74f3 27bf 1fbf 0cbf
000001c0: 4012 a9be de10 36bf 0856 8e3e aa61 103f
000001d0: 0f9b 9dbe 3765 123f c885 3abf a650 8d3e
000001e0: bed7 9b3e 9687 9cbd 710c 49be 2322 213e
000001f0: 3d99 5fbe a359 aebe d5e8 c43e 1f3d 223e
00000200: bfb5 b23e 7cfa 4d3e 73b9 a83e e990 e7bd
00000210: d96a 1f3e 7175 15bf 700a f93e 8ab8 683a
00000220: 1f3b 1cbe 02b9 103f c8d8 f23e a2cd 52bf
00000230: 131f 50be efb3 39bf 1532 343f 2c9b c43e
00000240: b265 8b3d d1ac 583f f71f bb3c 5818 08bf
00000250: 7c91 08be 9099 a8bf 3a3b 5f3f 41f5 333e
00000260: 8017 eabd f269 4ebe f13e d33d 1287 e93d
00000270: 14d1 cfbe 9dc3 3c3e 56f7 69bd e970 f23d
00000280: e94c 1e3f ea0a 243d 0eb4 11bf 3d70 6a3e
00000290: 24f8 7f3e 75dc 253e cf52 913d 03de ffbe
000002a0: 2ea2 fdbd ce55 6d3e 5cb4 9f3d 1149 f23d
000002b0: a9e2 42be 3296 0dbf 26f3 3b3f 3ed6 07bf
000002c0: d1f1 1bbf 8c61 64bd a974 883f 05ac d53e
000002d0: 320c a3bf 8d92 373d cb13 37be d2cf c33f
000002e0: 3b9a dcbe 61fe 3a3f af6b ae3e 6bd1 e33c
000002f0: 79c3 f83d e17d 90bd 2fd1 b03e 03ae 19be
00000300: 7d12 3dbe 7bac a83d 6c40 e2bd 8b47 d6be
00000310: b9b8 873e 49d6 ccbe 4521 db3e 5ef0 38be
00000320: d19f 2f3e 9331 183d 1028 b93c 5a65 b3be
00000330: ffdf 743e f152 7f3e 3495 21be ce55 3c3e
00000340: 258f e93e c36a 253e c581 023d 4370 90bf
00000350: 33da 5f3e 5f01 7ebe 7199 d03e c9da 623e
00000360: 48ec 8d3f ee5e d63e c003 c9bd 0781 4bbf
00000370: 541c 1e3f 1fda 2abf a1a0 223e 513c eebd
00000380: 72da 96bf 717c edbe 9c29 173f c0cb 373f
00000390: 9624 5dbf 773a 853e 92bf 97be 4fdc 703f
000003a0: 77e3 5c3e 0895 3f3f 09ce c53d 173f aabe
000003b0: ded5 d5bc 95fe 1dbf 7792 043f a445 eb3e
000003c0: 5a18 01bf 02a5 333e cc0d 7d3e 3602 023e
000003d0: d988 a9be 6c56 383c 648d 883e b4fa 773f
000003e0: dc5e 553e 2063 a83e f7d9 dbbe a358 0b3f
000003f0: ae03 febd ab54 b73c 6928 033f 66bc 1abe
0.20985696 -0.24071841 -0.10024036 -0.21680388 -0.039985415 -0.3930865 -0.30600512 -0.017613022
0.05809797 0.7310863 0.1040308 -0.5992454 0.101078056 -0.7686037 0.6608088 0.26004696
0.31291533 0.102809824 -0.22478682 -0.07433974 0.59423375 -0.06974134 0.1692121 -0.18205152
0.5381682 -0.12766536 -0.70418954 -0.4259762 0.39876178 -0.16062647 -0.054196153 -0.3725676
-0.027921524 0.04723074 0.1703245 0.1825832 0.20273694 -0.16895762 0.3652317 0.33829933
0.1773418 -0.32352465 -0.07312662 0.101749845 -0.06961426 0.14229341 -0.39694467 0.16427658
0.4370417 -0.070840165 -0.9830206 -0.34110263 0.5637203 -0.2701983 -0.33443832 -1.1050221
-0.44129866 -0.18781205 0.3450321 -0.24319093 0.41965884 0.32359698 -0.15321381 -0.15844488
0.2542713 0.117458165 -0.17904596 0.2430636 0.19318861 0.09925317 0.040778555 -0.239094
-0.05063877 -0.032715894 0.25515378 -0.30274412 -0.13353567 -0.13930424 0.05594034 -0.010220923
-0.15048818 0.32631236 0.41546252 -0.19026466 -0.4472702 -0.27268478 0.35739458 0.69391316
-0.14181915 0.5186264 0.6097717 -0.37683257 -0.5309542 -0.55184203 0.47983748 0.56099206
0.88871306 0.8818587 -0.91973805 -0.79168826 0.96893513 -0.705228 0.7965562 -0.6885988
-0.23887014 -0.672931 -0.25675553 0.509958 0.253775 0.5817907 -0.65605855 -0.5497913
-0.33021736 -0.7111949 0.27800012 0.56399024 -0.30782363 0.5718569 -0.72860384 0.27600592
0.30438036 -0.076430485 -0.19633652 0.15735678 -0.218358 -0.34052762 0.38458887 0.15843628
0.34904286 0.20115083 0.32953987 -0.11306936 0.15568103 -0.58382326 0.48640776 0.0008877596
-0.15256928 0.565323 0.47431016 -0.8234502 -0.20324354 -0.7254018 0.7038892 0.38399637
0.06806506 0.84638697 0.02284239 -0.53162146 -0.13336748 -1.3171864 0.8719975 0.17574026
-0.114302635 -0.20157602 0.103147395 0.11402716 -0.405892 0.18433996 -0.057120644 0.11837942
0.61836106 0.04004947 -0.56915367 0.22894378 0.24997002 0.16197379 0.070958726 -0.4997407
-0.12384449 0.23177263 0.07798073 0.118303426 -0.19031776 -0.55307305 0.7341789 -0.5306128
-0.6091586 -0.05575709 1.0660602 0.41732803 -1.2738097 0.044817496 -0.17878644 1.5297797
-0.43086419 0.730444 0.3406653 0.02780982 0.121466585 -0.070552595 0.34534594 -0.15007786
-0.18464084 0.08236023 -0.11047444 -0.41851458 0.2650812 -0.40007237 0.4279882 -0.18060443
0.17150809 0.037156653 0.022602111 -0.35038263 0.23913573 0.24933983 -0.15779573 0.18392107
0.45617023 0.16154008 0.03186204 -1.128426 0.2186058 -0.2480521 0.40742067 0.22153772
1.1087732 0.418693 -0.098151684 -0.79493755 0.61761975 -0.66739076 0.15881588 -0.11632598
-1.1785414 -0.46384004 0.59047866 0.7179527 -0.8638395 0.26021168 -0.29638344 0.94086164
0.21571146 0.7483678 0.09658439 -0.3325126 -0.026102956 -0.61716586 0.5178599 0.4595157
-0.5042778 0.17543414 0.24712294 0.12696156 -0.3311222 0.011251073 0.26670372 0.9686692
0.20836967 0.32888126 -0.4293973 0.54432124 -0.124030456 0.02237924 0.51233536 -0.15110931

encoder_variable_selection.single_variable_grns.SinWeekly.gate_norm.glu.fc.bias f4 [32]
00000000: f2d5 ea3c 8f9d e23e 3c2e 673d c048 733e
00000010: 984a a3be 2a4a 7fbe 0904 93be 0bb5 bcbe
00000020: 66f9 a03b 7d6f 0ebe 5bb8 0f3e fc3f 903e
00000030: e30c eabe 8cb8 b0be f8f7 15be f71c 223e
00000040: 9648 02bf 17c4 21bf 3458 66bf 2a1a 37bf
00000050: 68e6 edbe fb89 acbf e6d1 bc3e 6aed 0fbf
00000060: 1972 00bf 871f 35be e782 b83c 8c3c 903f
00000070: 2f17 923e 4fc4 29bd 035a 163f 3766 e4bf
0.02866647 0.44260833 0.056440577 0.2375822 -0.31892848 -0.24930635 -0.28714016 -0.36856875
0.004912543 -0.13909717 0.1403517 0.28173816 -0.45712957 -0.34515798 -0.14645374 0.15831362
-0.5089201 -0.63189834 -0.8997834 -0.715243 -0.4646485 -1.3479608 0.3687889 -0.5622164
-0.501741 -0.17687808 0.022523357 1.1268477 0.28533313 -0.04144698 0.58731097 -1.7843693

encoder_variable_selection.single_variable_grns.SinWeekly.gate_norm.add_norm.norm.weight f4 [16]
00000000: 63bb b23e e99d 373f 7fa6 9e3f 4b8e 5e3f
00000010: c7b5 1c3f 1a7d 1c3f 5bab 5b3f d0dd 413e
00000020: 5d62 d23e c888 6f3e cc07 a63f 5365 0440
00000030: 4d66 813f 07b4 b93f 9758 b23f 3f4e 483f
0.3490859 0.71725327 1.239456 0.8693587 0.6121487 0.6112839 0.8580834 0.18932271
0.4109067 0.23392022 1.297113 2.0686843 1.0109345 1.4508065 1.3933285 0.78244394

encoder_variable_selection.single_variable_grns.SinWeekly.gate_norm.add_norm.norm.bias f4 [16]
00000000: 6e14 0a3e 0841 813d 204b 34be 516c de3d
00000010: 896e cfbd 0b9e 35be 5eff 6ebe 9d4a 35be
00000020: be29 9d3d 4d0e fabd 890e 953d 2ad2 f23e
00000030: a3e1 ec3d de94 8e3d 9ad7 b93d 5b0f 333e
0.13484356 0.06311232 -0.17606783 0.108605035 -0.10128505 -0.1773607 -0.23339602 -0.17704244
0.07673977 -0.12209759 0.07278163 0.47425967 0.11566474 0.06961988 0.09074326 0.17486326

encoder_variable_selection.single_variable_grns.VaccinationFull.resample_norm.mask f4 [16]
00000000: 03e6 94be 1195 0c3f 9cbc 4bbe d876 42bf
00000010: 48d6 083f e5ee 09bf 9d76 533f f01a 9a3e
00000020: 3798 113f 9b32 68bf 6816 8bbf c6f4 553e
00000030: 2a8a 4ebf a96e b93f d1b8 3fbf 5660 20bf
-0.29081735 0.5491496 -0.19896168 -0.7596259 0.5345197 -0.5388015 0.82602865 0.30098677
0.56872886 -0.9070222 -1.0866213 0.20894155 -0.8067957 1.4486896 -0.7489138 -0.62646997

encoder_variable_selection.single_variable_grns.VaccinationFull.resample_norm.norm.weight f4 [16]
00000000: 93b7 593f b2a3 883f 05c4 8a3f 55b3 f23e
00000010: 0deb c83f ff70 3b3f 05ce 19be 6960 e13e
00000020: b533 b23f bd6d 0e3f 5582 14bf 9b69 9d3f
00000030: 966e f73e 2f5e 0940 f982 0abe e136 543f
0.8504574 1.0674956 1.084107 0.47402444 1.5696732 0.73219293 -0.15019996 0.44018868
1.392203 0.556362 -0.5801137 1.2297853 0.48326558 2.1463735 -0.13526525 0.8289624

encoder_variable_selection.single_variable_grns.VaccinationFull.resample_norm.norm.bias f4 [16]
00000000: d0ad 303e c194 123f 20ed 09bd ffde 173f
00000010: 8116 78be 664c 8e3d 19c1 0dbf f80b d3be
00000020: d318 a93e 7ba9 f5be 2d7f 21bf 38b7 923e
00000030: 62be adbb de53 29bf 65e1 603f 85a7 5b3e
0.17253804 0.5725823 -0.033673406 0.5932464 -0.24227335 0.069481656 -0.5537277 -0.4122007
0.33026752 -0.47980866 -0.6308468 0.2865541 -0.0053022364 -0.66143596 0.87843925 0.21450622

encoder_variable_selection.single_variable_grns.VaccinationFull.fc1.weight f4 [8, 8]
00000000: d4b6 f43e 6445 b9bd 831c 40bf a6ab f2bd
00000010: 5009 0b3f 9203 b13d d668 22bf f086 c5bd
00000020: 7e98 893e 1a48 0abf eb38 94bf 33cc bbbf
00000030: 5a61 423e 12cf fa3e 5268 1840 030e 213f
00000040: bf0e a2be 5349 1ebe 3a8d bf3e 71f8 a4be
00000050: a09e bcbf 77d7 773d df8f 75be daba 5dbf
00000060: 49b4 27be 34a6 55bf 44e9 41be 41c6 cb3e
00000070: 727c 41bf b8c3 f93e c3fc 8e3d 74bb dfbd
00000080: 6399 183e dd7c 1f3f fce0 5b3e b6f6 b73e
00000090: de29 0dbe 44c9 783e ae24 1b3f b585 1f3f
000000a0: 8b55 acbe 5623 583f 9d7e 153f 478f cbbd
000000b0: db2f f8be 3d89 85bf a15d 5cbf a3ca f8bf
000000c0: f8e6 1ebf 0b8e 853e e45c fa3d dc9d 1a3e
000000d0: d3b8 703f 2f4a c2bd 12a7 553e 7fcb 2f3e
000000e0: 06e4 163f c684 33be 852e 6ebf 0014 033d
000000f0: 2640 0ebc 9c8b 88bf 9171 9fbe f53e c4bf
0.47795737 -0.09046438 -0.75043505 -0.118491456 0.54311085 0.08643259 -0.63441217 -0.09644878
0.26874155 -0.5401627 -1.157987 -1.4671692 0.18982449 0.48986107 2.3813672 0.62912005
-0.31651875 -0.15457658 0.37412435 -0.32220796 -1.4735909 0.060508218 -0.23980664 -0.8661324
-0.16377367 -0.8345673 -0.1893664 0.39799693 -0.75580513 0.48782134 0.06981804 -0.10924426
0.14902262 0.622999 0.21472543 0.35930413 -0.13785502 0.24295527 0.60602844 0.62313396
-0.33659014 0.8442892 0.5839632 -0.09939437 -0.4847401 -1.0432507 -0.86080366 -1.943684
-0.6207118 0.26084933 0.12224749 0.15099281 0.9403202 -0.09486806 0.20864514 0.17167471
0.58941686 -0.17531118 -0.93039733 0.032001495 -0.008682286 -1.0667605 -0.31141332 -1.5331713

encoder_variable_selection.single_variable_grns.VaccinationFull.fc1.bias f4 [8]
00000000: fc02 7e3e 8fef d33d 94a4 13bf 63e9 3a3d
00000010: d27b a13c c799 ddbe 6b31 00be b67d b93e
0.24805826 0.103484266 -0.57673 0.04563273 0.019712362 -0.43281385 -0.12518851 0.36228722

encoder_variable_selection.single_variable_grns.VaccinationFull.fc2.weight f4 [8, 8]
00000000: cfcc 6dbe 4220 933f 6dca 90bd ba06 c6be
00000010: 608d 0bbf d4c3 103f 38a4 bbbd 6c87 a43d
00000020: 9f6a 003f cc5d 31bf fd49 8cbe 6d1b d1be
00000030: cc61 11bf b6d5 5fbf 7232 62be 661a 5abe
00000040: 7698 bfbf 52a9 1c3f e5ca 23be fab2 273f
00000050: 34f4 e03c 043e 033f ab39 853e 9b27 f63e
00000060: 2e7f 773c ec2f 82bf 4497 e43d 17e9 bbbe
00000070: 69c0 803e 68a0 58bf 7a78 87bd e653 e1bc
00000080: c727 ccbe 00bb 1cbe dbc2 a23e 236d 7bbe
00000090: f8b3 493e 66aa cc3e 131a b9be 717c 303f
000000a0: fd5e c2be 3047 da3f 3164 4e3f dfc8 bc3e
000000b0: 9a29 863e 83a6 d93e 3369 2fbe 9ee4 6fbf
000000c0: 257c 2a3f 6cf1 d3bf d554 a0be b3ea be3e
000000d0: c9b9 e9bd bbb2 26bf d283 c0bd d67a cc3e
000000e0: c34e 21be 35a5 5b3e 8281 443e d4a3 e43e
000000f0: df9c bebe 5975 3cbf b4eb 04be 1898 babe
-0.2322266 1.1494219 -0.0706986 -0.38677007 -0.54512596 0.5654881 -0.091621816 0.08033642
0.5016269 -0.6928375 -0.274002 -0.40841237 -0.5678985 -0.8743547 -0.22089556 -0.21299133
-1.4968402 0.6119586 -0.15995367 0.6550747 0.027460195 0.51266503 0.2602056 0.48077092
0.015106006 -1.0170875 0.11161664 -0.3670127 0.25146797 -0.8461976 -0.06614776 -0.027505826
-0.39874098 -0.1530571 0.31789288 -0.24553351 0.19697559 0.39973754 -0.36152706 0.6893988
-0.37963095 1.7052975 0.8062163 0.36872002 0.26203614 0.4250985 -0.17129974 -0.9370822
0.6659568 -1.6558051 -0.31314722 0.37288436 -0.11412389 -0.6511647 -0.09400143 0.39937466
-0.15752701 0.2144974 0.19190028 0.4465624 -0.37229058 -0.7361656 -0.12980539 -0.36444163

encoder_variable_selection.single_variable_grns.VaccinationFull.fc2.bias f4 [8]
00000000: 85d3 1abf 329a 6ebd 280d cebd 3d36 5b3d
00000010: 1668 e33d 6ce2 c0be b919 393f 8acb 903d
-0.60479003 -0.05825252 -0.10061103 0.053518523 0.11103837 -0.37672746 0.72304875 0.07070072

encoder_variable_selection.single_variable_grns.VaccinationFull.gate_norm.glu.fc.weight f4 [32, 8]
00000000: 6f56 2abf f2b2 5c3f 3be9 a7be 85ca 383f
00000010: 5406 28bf 6528 203f 5751 5b3f f9e4 be3e
00000020: f5d9 f0be 0d5e b13e 59dc 55be e0bb c5bd
00000030: f674 753e c5e7 c5be 4e44 e73e f944 8bbd
00000040: 03ae 2a3e d523 8d3e b941 613e c32c 13be
00000050: 111b 5b3b 8c67 5c3e 0c32 19bd 9175 fc3d
00000060: 0243 98bf 0f86 443e f1d2 6abe 0c63 023f
00000070: c287 0abf 97ff 6b3e a15e 8a3f a579 0b3f
00000080: 21c0 d2be 71d1 71bd 5174 833e 1262 cabe
00000090: 75fc aa3e a13a 45bf e2f7 503f 3cc3 f4be
000000a0: a039 003f 79d7 e53e 9ed7 64bd add8 4a3d
000000b0: 191f 02bf 6add 6a3f 4ef0 fdbf 7b21 193f
000000c0: ecc0 bf3c 6595 a73d 8def e4bd d9af 9cbe
000000d0: 849b 05bd 0fcf 873e e73b 8a3c 3e92 ac3d
000000e0: aa3f b1be d84e 7e3e bcd0 3e3e b72c d2bc
000000f0: 4048 083f 9e5a 12bf b8d3 d43e 9ad0 46bf
00000100: 0d14 55bf 5be2 6f3f 48ac 41bf ab75 2f3f
00000110: 2d1b 59bf 756c 9c3e fc82 bc3e 50cd 433f
00000120: 6811 233f e8bc c3bd 404b b93e c492 29bf
00000130: 2075 0fbe 7c81 a23d b167 57bf a283 213e
00000140: 4b3d d23e ca82 2cbf b09b 433f 1c7e 23bf
00000150: 161e 323f 7642 dfbe b223 873d 5cc5 20bf
00000160: cc94 e5be c6ad 5b3e 02be b6be 29f9 6d3e
00000170: 3941 d0bc 5088 b13d 46dd a13d 7185 873e
00000180: c088 c5bd de3e 8739 bf9f 85bd 8c88 4fbf
00000190: 8f56 9d3e f7b4 053f cf00 d7be 668f e0bd
000001a0: 6723 2f3f 8f76 4abf c72d 813e aeca 09bf
000001b0: bf07 c03e f911 993e 08c6 00bf e34b 77be
000001c0: 7200 26bf 7c35 023f f233 e1be 2900 f43e
000001d0: 6f09 96be 20a6 33be 7921 493e b43f 9a3e
000001e0: 983d f6bd b18e 5c3e ec83 ccbe f7e1 613e
000001f0: 57df 85be 5852 6a3e 9910 623e 6045 ff3e
00000200: 33b5 f03e 8026 69be 561a 783e fd7a ae3c
00000210: e2d5 8abc ea72 ff3e e185 96bf fa95 66bd
00000220: 9b90 0e3e 58c1 a33a af16 b53e 9379 bb3e
00000230: c275 623d 215f 8e3f bfa0 13bf 763c 8b3e
00000240: 5db2 653d 1604 b03e 3d91 c93d 1e38 733f
00000250: a7cf 56be d89e 333e 7a31 e2bd ee30 2d3f
00000260: 00c3 e13e 1de7 533e ba8a 8c3e 40f1 a6bb
00000270: d5d7 3e3d fbb4 7b3e 92c9 a6bf 379c 6ebe
00000280: 6325 82bc 3ebf 5cbf 5868 1e3f b59a fcbe
00000290: b643 c43f f9f7 e9bc 760a 28be 086c bebf
000002a0: e9c9 853f 89a3 6cbf cda8 b63f f48f b5bf
000002b0: 75d4 a13e b56e 8c3c d79a f4be c742 9abe
000002c0: e280 213f 1b01 b43e 6628 8e3d f4ed ce3e
000002d0: ffa0 88be 9ddb 373e 084c bebe 2df7 c93e
000002e0: 104c 87be 0788 a73f 1dbb 623e 2c90 383f
000002f0: e977 98bf 3f9b 863c 73e4 07bc e1ec 263f
00000300: 1972 8bbe 797a 46ba 21ce 363e 544b c0be
00000310: 5f01 593e 4f33 8ebf 9220 403f c23c 81be
00000320: 4318 bf3e 6c59 babe 5d1b 1b3f 43d1 32bf
00000330: b5c9 883f 5eb1 753e 2d2e 2e3c d874 63bf
00000340: cc04 c5be 3072 ffbd 9fa6 b63e 51e6 253d
00000350: 5f14 0e3f 1aa9 7abf 43a6 b93e 5664 d5be
00000360: ec61 67be 10b9 793e 4d2e 833e ddd6 a43e
00000370: 71bc a43e 6eff 23bf b58f a63e a6af 39bf
00000380: c7ac 593f 9a28 ad3e 5eac 3e3e 2d4c 6cbc
00000390: 7769 813e 0469 f23e be9f a2bf 2d62 3fbc
000003a0: 9e7c 3ebe 7cd3 48be ce05 0abe 21ad d9bd
000003b0: 7863 533e f7e0 6cbf 9d11 cf3d fe5e dd3b
000003c0: 944a e23c 2a15 9ebd deeb e3bd 9004 3ebe
000003d0: 4551 b2bd ec84 7dbf e187 fb3e 1dee 01be
000003e0: 50e9 89bf f7bc 0f3f 44bd 443e 4e6c 223f
000003f0: 360b 3fbe 4e4e 39be 4b01 813f a555 7abd
-0.6653814 0.8621055 -0.32795128 0.7218402 -0.65634656 0.6256164 0.8567099 0.37284067
-0.47041288 0.34642068 -0.20884837 -0.09654975 0.23970398 -0.3865339 0.451693 -0.06800265
0.16667943 0.275664 0.21997727 -0.14372544 0.003343288 0.21523875 -0.037401244 0.123271115
-1.1895449 0.19191764 -0.2293203 0.50932384 -0.541134 0.23046719 1.0810128 0.5448249
-0.41162208 -0.05903763 0.2567468 -0.39527947 0.33395734 -0.77042586 0.8162824 -0.47805202
0.5008793 0.44890955 -0.05586969 0.049523044 -0.508287 0.917441 -1.983896 0.5981671
0.023407422 0.081827916 -0.11178503 -0.3060291 -0.032619014 0.2652516 0.016874267 0.08426331
-0.34618884 0.24834764 0.18634313 -0.025656087 0.53235245 -0.5716952 0.4156778 -0.7766205
-0.8323372 0.93704766 -0.75653505 0.6853892 -0.8480709 0.30551496 0.36818683 0.76485157
0.63698435 -0.095575154 0.36190224 -0.6623957 -0.14009523 0.079348534 -0.84142596 0.1577287
0.41062388 -0.6738707 0.76409435 -0.638643 0.6957716 -0.43605393 0.06598605 -0.62801147
-0.44840086 0.21453008 -0.3569184 0.23239578 -0.025421726 0.08668578 0.07903533 0.26468995
-0.096452236 0.00025796046 -0.0652461 -0.8106773 0.307301 0.52229255 -0.41992804 -0.10964851
0.68413395 -0.79087156 0.25230238 -0.5382489 0.3750591 0.29896525 -0.5030217 -0.24150042
-0.6484443 0.5086286 -0.43984944 0.47656372 -0.29304072 -0.1754384 0.19641675 0.30126727
-0.12023467 0.21538807 -0.39944398 0.22058855 -0.26146957 0.22882974 0.22076644 0.49857616
0.47013244 -0.22768593 0.24228796 0.02129888 -0.01694769 0.4989236 -1.1759607 -0.056295373
0.1392235 0.0012493534 0.3536887 0.3661619 0.055288084 1.1122781 -0.57667154 0.27194566
0.056078304 0.34378117 0.09842155 0.95007503 -0.2097765 0.17541063 -0.11044593 0.67652786
0.44094086 0.20693631 0.2744959 -0.005094677 0.046592552 0.24580757 -1.3030264 -0.23301779
-0.015886968 -0.8622931 0.61877966 -0.49336782 1.5333164 -0.028560625 -0.1641024 -1.4876719
1.0452243 -0.92437035 1.4270264 -1.4184556 0.31607404 0.017142633 -0.47774383 -0.30129072
0.63087285 0.35157093 0.06941299 0.4041592 -0.2668533 0.1795487 -0.37167382 0.39446393
-0.2642522 1.3088387 0.2214169 0.7209499 -1.1911594 0.016431449 -0.008294213 0.652052
-0.27235487 -0.00075713504 0.1785207 -0.3755747 0.2119193 -1.1109408 0.750497 -0.25241667
0.37323198 -0.36396348 0.6058863 -0.6985056 1.0686556 0.23993441 0.010631126 -0.88850164
-0.38480222 -0.124729514 0.35673997 0.04050285 0.55499834 -0.9791428 0.3625966 -0.41678113
-0.22595948 0.24387002 0.25621262 0.32195178 0.3217502 -0.6406163 0.32531515 -0.72533643
0.8502926 0.3382004 0.1862044 -0.014422459 0.25275776 0.47345746 -1.2705 -0.011681122
-0.18602225 -0.19611925 -0.13478777 -0.10628725 0.20643413 -0.9253077 0.10110781 0.0067557087
0.027623452 -0.077188805 -0.111289725 -0.18556428 -0.08706907 -0.9903095 0.49127105 -0.1268849
-1.0774326 0.5614771 0.19212824 0.6344651 -0.1865662 -0.18096277 1.007852 -0.061116833

encoder_variable_selection.single_variable_grns.VaccinationFull.gate_norm.glu.fc.bias f4 [32]
00000000: 0b07 f4bd 524d 043f 22b4 67bc 4758 d13e
00000010: e541 7d3f 0256 a9bf 5786 72be c61e 7f3e
00000020: c036 3c3e ca0b 08bf 3aa5 64be 04de 373e
00000030: e956 4abf 5c20 d4be a656 323f b927 c73b
00000040: 2d04 4fbf 7af6 37bf 50cc bebe 93da 11bf
00000050: 9d1b 833e 2b0c abbe 5c93 2abf 0b87 99bc
00000060: 26db 9d3f 8a00 a13e cffd e73e 9679 5a3b
00000070: fcfa 28bf 1f76 b53e 8828 543f 7013 853e
-0.11915406 0.5168048 -0.014142068 0.40887663 0.9892867 -1.3229373 -0.23684059 0.24914083
0.1838026 -0.5314299 -0.22328654 0.17955786 -0.79038864 -0.41430938 0.69663465 0.0060777334
-0.80865747 -0.7186047 -0.37265253 -0.5697414 0.25607005 -0.3340772 -0.666311 -0.018741151
1.2332504 0.31445724 0.45310828 0.003333663 -0.6600797 0.35441682 0.82874346 0.25991392

encoder_variable_selection.single_variable_grns.VaccinationFull.gate_norm.add_norm.norm.weight f4 [16]
00000000: 624b 843f 38c4 563f dd82 e73e bc06 273f
00000010: 3554 b43f 1fff ae3f 6588 783e 3fcc c33d
00000020: 3287 b03f ff59 173f 68fb bd3f c029 8c3f
00000030: d658 bf3e c3d4 a83f 421f 783f d0af 223f
1.0335505 0.83893156 0.45217028 0.6524465 1.4088198 1.3671607 0.2427078 0.09560441
1.3791258 0.591217 1.4842348 1.0950241 0.37372464 1.318993 0.96922696 0.6354952

encoder_variable_selection.single_variable_grns.VaccinationFull.gate_norm.add_norm.norm.bias f4 [16]
00000000: 3977 0a3d 9ef2 e33e e934 553e db94 9d3e
00000010: 42a9 373e 8b87 f2bd 2406 19be c762 2cbf
00000020: 887a ddbe 2306 85be 0591 013e 2fda 4f3d
00000030: df2b 813e 104e e8bd da43 373e b36b e03e
0.033805106 0.4452104 0.20820965 0.3077763 0.1793566 -0.11842259 -0.14943749 -0.6733822
-0.43257546 -0.25981244 0.12652977 0.050745185 0.25228783 -0.11343014 0.17896977 0.43832168

encoder_variable_selection.single_variable_grns.Cases.resample_norm.mask f4 [16]
00000000: 89e2 ad3e 60e9 8e3e 7a0d 44bf 339b 20bf
00000010: b80d 7abe 0cc5 cb3e 7b6d d8bd 4dfd 9abe
00000020: 3801 87bf 2ff5 223f b788 a23e 7b68 28bf
00000030: 1c67 21bf ebb3 f8bf 7fd6 163f edf2 8ebe
0.33961895 0.27912426 -0.76583064 -0.62736815 -0.24419296 0.39798772 -0.10567757 -0.30271378
-1.0547247 0.6365537 0.3174493 -0.65784425 -0.6304796 -1.9429907 0.58921045 -0.27919713

encoder_variable_selection.single_variable_grns.Cases.resample_norm.norm.weight f4 [16]
00000000: f5a0 b93f 6cfe d43f f2c7 883f 9f3e 7a3f
00000010: ea65 803f 7e10 c73f 12a5 bf3f 3ef8 b63f
00000020: 54aa 423f 4bf5 e23f 55b6 ad3f 9b82 533f
00000030: 5e26 563f 93b2 d5bd 8c40 ff3f d894 ab3f
1.4502245 1.6640143 1.0686018 0.977518 1.0031102 1.5551908 1.497225 1.4294508
0.7604115 1.7731107 1.3571268 0.82621163 0.83652294 -0.10434451 1.9941573 1.3404799

encoder_variable_selection.single_variable_grns.Cases.resample_norm.norm.bias f4 [16]
00000000: c82e a43e 3e07 343e 3a16 29be 98c5 45be
00000010: 6a99 3fbd 943d 6abe fdfa 58be 401a d8bd
00000020: 3554 09be 2227 b4bd a3c7 f43d 5a5e 723e
00000030: 4862 743e 15a1 80bd e153 223e bc9e b43e
0.3206694 0.17580888 -0.16512385 -0.19313657 -0.046777166 -0.22875053 -0.21189494 -0.10551882
-0.13411029 -0.087965265 0.1195214 0.23668805 0.23865616 -0.06280724 0.1585231 0.35277355

encoder_variable_selection.single_variable_grns.Cases.fc1.weight f4 [8, 8]
00000000: 7fc4 20be be4d d73f 3eae 573e 56e1 9abf
00000010: 57bd 20bf c801 963e e7bd d1bd 965c 10bf
00000020: 47c9 e13e 4ee7 263f d550 89be d853 42c0
00000030: a5ed 93bf 6e61 a4bd 13d3 783e 514f 7cbd
00000040: 5501 9e3f f227 143d 0eb2 49be 1f87 c63c
00000050: c648 56bc 3566 2abe 56e8 64bf b45e 4a3f
00000060: 7eca 1abf b041 5fbd 0c89 2f3f a025 b73e
00000070: bf8a 3d3f 1f4e 12be b0a5 603e fafd 2f3f
00000080: e5e1 f3bd f32b babe 9deb eebd 024e 863e
00000090: 7768 b63e 0c21 8c3e 1e6b 9e3d a762 343f
000000a0: 5bcf 1abe 416e 363e 0487 c73d 32a9 0dc0
000000b0: b9e0 27bf c35a a43e af45 b23d 92ae 433f
000000c0: 05e2 813e d90b 3e3d e3db 99bc 9e45 763f
000000d0: 32ed 89bf c071 9e3e 846f 963e f2f3 92be
000000e0: 88a6 dc3d bcfe edbe a095 5cbf 1d42 42bf
000000f0: 84c8 3dbd 2f59 09be 5793 40bf 89b3 4640
-0.15699957 1.68206 0.21062562 -1.2100017 -0.6278891 0.29298234 -0.10241299 -0.56391275
0.44098875 0.6519669 -0.26819482 -3.0363674 -1.1556898 -0.08026396 0.24299268 -0.06159908
1.2344157 0.036170907 -0.19696829 0.024234353 -0.013078874 -0.16640551 -0.89417017 0.79050756
-0.6046523 -0.054506004 0.6856849 0.35770893 0.74039835 -0.14287613 0.21938205 0.6874691
-0.1190832 -0.36361656 -0.116660334 0.2623139 0.35626575 0.27368963 0.07735275 0.7046303
-0.15118162 0.17815496 0.09742549 -2.2134519 -0.65577275 0.32100496 0.08704697 0.7643825
0.25367752 0.046398018 -0.018781608 0.9619998 -1.0775511 0.3094616 0.29381955 -0.2870174
0.10773951 -0.4648341 -0.8616581 -0.7588213 -0.046333805 -0.13412927 -0.7522482 3.104708

encoder_variable_selection.single_variable_grns.Cases.fc1.bias f4 [8]
00000000: 700a a5be 4ca0 b6be ae3d 53be 42c6 bbbe
00000010: f6fd e1be c954 8bbe 8c50 dbbe 6d9e 35bf
-0.32234526 -0.35669172 -0.20628998 -0.36674696 -0.4413907 -0.27213123 -0.4283489 -0.70944864

encoder_variable_selection.single_variable_grns.Cases.fc2.weight f4 [8, 8]
00000000: 271b 403e 96cf 933f 9929 eb3d 7749 a9bd
00000010: 1d01 1f3f 699d b9bd 5c1d 4b3f 7596 243d
00000020: 18a2 b0be 2220 473e 6342 69be 057b 31bf
00000030: 3313 ddbc 69f7 503e 84d7 78bd 1966 8abf
00000040: 63cf 8d3d 93e5 61bf 72c3 3abf aa64 703e
00000050: 13ad 193f fc19 a3be 914b 36be 47c7 763f
00000060: 343e 08bf f6ce 69bf 9e97 cabe 6ea9 5cbf
00000070: 3996 0f3f e2bf 5abf 7710 f5be 6f8e 2cbe
00000080: ff11 183f 33db 263f a44f a83e a2cf e83e
00000090: 6d3c dd3e 3a35 3ebe d007 ab3c 1b43 fb3e
000000a0: fdf3 083f 6a94 543e d7d3 603f 0e31 e63e
000000b0: f28e a3be 9169 763e d753 233d d875 e43e
000000c0: 49e2 5dbf 9f8f 68bf ffdc f9be 39c2 b73e
000000d0: 457e 0cbe 3ef9 08bf c442 e53e ee32 d2bd
000000e0: f52b 123f 1d94 4e3f 1134 3e3e 6a29 3dbd
000000f0: 7286 a33e 5ff5 0f3e 55f3 1fbe 2299 0a3e
0.18760358 1.1547725 0.114825435 -0.082659654 0.62111074 -0.09063227 0.79341674 0.04018255
-0.34498668 0.19445851 -0.22779231 -0.6932834 -0.026986694 0.2040688 -0.060752407 -1.0812408
0.069243215 -0.8824093 -0.72954476 0.234759 0.60029715 -0.31855762 -0.17802264 0.96397823
-0.53219914 -0.9133142 -0.395688 -0.8619603 0.56088597 -0.8544904 -0.47864124 -0.16851209
0.5940246 0.6517822 0.3287326 0.4547091 0.43210164 -0.18574992 0.020877749 0.49074635
0.53497297 0.2075974 0.8782324 0.449593 -0.31944996 0.24063708 0.039874878 0.44621158
-0.8667341 -0.9084415 -0.4880142 0.35890368 -0.13720043 -0.53505313 0.447775 -0.1026362
0.57098323 0.8069475 0.1857455 -0.046182074 0.3193851 0.14058445 -0.15620168 0.13534978

encoder_variable_selection.single_variable_grns.Cases.fc2.bias f4 [8]
00000000: da37 6abd 4ac5 973c e529 443d b134 3b3e
00000010: fb86 d93b 9448 e4bd 939d 903d f530 e7bd
-0.05718217 0.018526692 0.047891516 0.18281819 0.0066384054 -0.11146656 0.07061305 -0.11288635
