results/AGE75PLUS/checkpoints/latest-epoch=3.ckpt (torch, 735917 bytes, 506 tensors)

prescalers.AGE75PLUS.weight f4 [8, 1]
-0.17033023 -0.0022183855 0.48254213 0.4763228 -0.6410053 -0.3138526 -0.74863356 -0.03636586
00000000: 0c6b 2ebe 5562 11bb c30f f73e 95e0 f33e
00000010: ec18 24bf 4ab1 a0be 73a6 3fbf 5ef4 14bd

prescalers.AGE75PLUS.bias f4 [8]
-0.0777113 0.3939151 0.7950607 0.23999745 -0.5412796 -0.70683736 -0.29865617 -0.071508296
00000000: 1a27 9fbd 3daf c93e 1989 4b3f e4c1 753e
00000010: 4d91 0abf 4bf3 34bf 76e9 98be f172 92bd

prescalers.SinWeekly.weight f4 [8, 1]
-0.17857444 -1.1812875 1.1396679 -0.918144 0.5822768 -0.13580973 0.8468958 0.53027403
00000000: 38dc 36be 6e34 97bf a3e0 913f 7c0b 6bbf
00000010: 1810 153f b511 0bbe 2ace 583f 0ac0 073f

prescalers.SinWeekly.bias f4 [8]
0.21027172 -0.16369179 0.685057 0.26621747 0.5067869 -0.6436703 0.8335266 0.4099647
00000000: 7851 573e d29e 27be e55f 2f3f a84d 883e
00000010: c9bc 013f 94c7 24bf 0062 553f e5e6 d13e

prescalers.VaccinationFull.weight f4 [8, 1]
0.044874478 0.19133589 0.657383 0.9408832 -0.31173378 -0.60160005 -0.29841447 -0.70224804
00000000: 4dce 373d 8eed 433e 414a 283f b9dd 703f
00000010: 929b 9fbe 7602 1abf c8c9 98be 87c6 33bf

prescalers.VaccinationFull.bias f4 [8]
0.63518 -0.47794044 -0.29859492 0.9931962 0.77548623 -0.010236278 -0.45130673 0.19776884
00000000: 289b 223f 9cb4 f4be 6fe1 98be 1b42 7e3f
00000010: 4486 463f 10b6 27bc ad11 e7be ea83 4a3e

prescalers.Cases.weight f4 [8, 1]
0.6203495 -1.0634676 -1.0384876 0.82864535 1.3167396 0.07323448 -0.7722642 0.44778857
00000000: 3acf 1e3f b51f 88bf 29ed 84bf 1a22 543f
00000010: ec8a a83f f6fb 953d 1bb3 45bf 8b44 e53e

prescalers.Cases.bias f4 [8]
-0.6926155 -0.15377353 0.47855997 0.4969354 0.059521325 -0.059102535 0.28216892 -0.89498836
00000000: 404f 31bf cf76 1dbe d005 f53e 516e fe3e
00000010: a2cc 733d 8015 72bd 7278 903e f51d 65bf

static_variable_selection.single_variable_grns.AGE75PLUS.resample_norm.mask f4 [16]
-0.5451854 -0.5346474 -0.47545946 0.1498864 -0.0015577454 0.29271728 0.25350413 0.09966542
0.4226 0.31684652 -0.011163172 -0.12939405 0.58408374 -0.09256397 0.14734487 -0.45641923
00000000: 4591 0bbf a7de 08bf 6c6f f3be d27b 193e
00000010: 432d ccba 0adf 953e 4bcb 813e 621d cc3d
00000020: 075f d83e b539 a23e bde5 36bc e07f 04be
00000030: 8386 153f 2e92 bdbd 93e1 163e c8af e9be

static_variable_selection.single_variable_grns.AGE75PLUS.resample_norm.norm.weight f4 [16]
0.36158073 0.63495916 0.91695505 1.3612067 1.1232642 1.6178863 1.3688413 1.3719333
1.2321854 1.6086942 1.1900342 1.1203988 1.7389424 1.066008 1.0664338 0.9374665
00000000: 1c21 b93e af8c 223f 91bd 6a3f 053c ae3f
00000010: 1fc7 8f3f e616 cf3f 3136 af3f 839b af3f
00000020: 40b8 9d3f b1e9 cd3f 0a53 983f 3a69 8f3f
00000030: aa95 de3f f372 883f e780 883f cefd 6f3f

static_variable_selection.single_variable_grns.AGE75PLUS.resample_norm.norm.bias f4 [16]
0.2199576 0.016155543 -0.052092478 0.28269944 0.09117487 -0.031228438 -0.027103703 -0.11156935
-0.048144117 -0.09010511 -0.0052895546 -0.023070667 0.12695307 -0.26891237 -0.06399426 0.13031086
00000000: 913c 613e a158 843c ec5e 55bd fbbd 903e
00000010: e4b9 ba3d c8d2 ffbc 9608 debc 797e e4bd
00000020: c432 45bd 0789 b8bd 0054 adbb b2fe bcbc
00000030: fcff 013e e2ae 89be 6c0f 83bd 3670 053e

static_variable_selection.single_variable_grns.AGE75PLUS.fc1.weight f4 [8, 8]
-0.15837593 -0.5263649 -0.16731393 -0.3984555 -0.492946 -1.5722373 0.1487601 -0.47938657
-0.71348053 -0.8141173 -0.10574151 0.5346596 -0.30128118 -0.46914876 0.75091845 0.12846673
0.23451759 0.10127711 0.4938078 -0.15133384 0.15455659 -0.0863625 0.21001598 -0.3444624
-0.41520917 -0.00011286959 -0.15430045 -0.5733805 -0.0550003 0.19018272 0.025193693 0.5265355
-0.09411923 0.4602032 -0.48318157 -0.30738938 -0.08554472 1.13 0.46212566 -0.13948087
0.62305796 -0.12358126 -0.44465375 0.07168815 0.442213 -0.3103823 0.04561697 -0.31065688
-0.63611966 -0.5130105 0.26588827 0.24471173 0.21446632 0.96775985 0.42538446 -0.41275656
-0.19727515 -0.49969852 -0.3699376 0.36422744 0.2166249 -0.3301795 0.45368925 -0.041376226
00000000: 4d2d 22be dabf 06bf 5854 2bbe 5c02 ccbe
00000010: 6b63 fcbe 123f c9bf 9154 183e 2872 f5be
00000020: a9a6 36bf fe69 50bf 018f d8bd 74df 083f
00000030: 8741 9abe 4434 f0be 313c 403f c88c 033e
00000040: 6125 703e 606a cf3d 60d4 fc3e 42f7 1abe
00000050: 1544 1e3e d3de b0bd 6e0e 573e 605d b0be
00000060: 4c96 d4be 66b4 ecb8 f000 1ebe 10c9 12bf
00000070: ff47 61bd 42bf 423e 0163 ce3c 08cb 063f
00000080: 95c1 c0bd c19f eb3e 9363 f7be 2462 9dbe
00000090: 1232 afbd d7a3 903f bc9b ec3e 13d4 0ebe
000000a0: ba80 1f3f 2c18 fdbd a8a9 e3be 3dd1 923d
000000b0: be69 e23e 6eea 9ebe dcd8 3a3d 6b0e 9fbe
000000c0: bdd8 22bf a854 03bf 8222 883e b695 7a3e
000000d0: 0f9d 5b3e 1cbf 773f fecb d93e d454 d3be
000000e0: 7f02 4abe 7cd8 ffbe 7668 bdbe 057c ba3e
000000f0: ebd2 5d3e 4a0d a9be f549 e83e 1e7a 29bd

static_variable_selection.single_variable_grns.AGE75PLUS.fc1.bias f4 [8]
0.078531 0.045178507 -0.17064004 0.09961152 -0.16091368 -0.106256716 0.3864347 -0.068508424
00000000: dcd4 a03d 190d 393d 43bc 2ebe 2001 cc3d
00000010: 8ec6 24be 1f9d d9bd c5da c53e 254e 8cbd

static_variable_selection.single_variable_grns.AGE75PLUS.fc2.weight f4 [8, 8]
0.032976836 0.43666106 -0.0785621 -0.27091613 0.0031960383 -0.53676987 0.6673237 0.42441595
-0.16829179 -0.017871147 0.2187128 -0.16730724 0.19191931 -0.32862246 0.2615279 -0.04621848
-0.5670374 -0.060992878 -0.124051556 0.17986979 0.4058191 -0.07381806 -0.13894536 0.5747829
0.8326904 0.00055550784 0.53975856 0.17537145 -0.34647545 -0.35623842 0.39798054 -0.4112555
0.56960255 -0.2746708 0.27496892 0.20078862 0.51290476 0.15704301 0.48725474 0.05063359
0.4972355 -0.010827491 -0.31775588 -0.11460585 0.17736925 -0.22626394 -0.7858676 -0.012157983
-0.795019 0.21051154 -0.098114766 -0.17100015 0.45268542 0.3550109 -0.3514687 -0.38226295
0.038808655 0.009147238 -0.6574072 0.06086522 0.07852363 -0.028439756 0.27289596 -0.3693846
00000000: b812 073d 0a92 df3e 2be5 a0bd 85b5 8abe
00000010: a074 513b c069 09bf bad5 2a3f 0c4d d93e
00000020: af54 2cbe 8366 92bc 40f6 5f3e 9752 2bbe
00000030: 7f86 443e 3441 a8be fce6 853e 974f 3dbd
00000040: 5d29 11bf abd3 79bd be0e febd c92f 383e
00000050: 85c7 cf3e ec2d 97bd b147 0ebe f924 133f
00000060: 332b 553f 809f 113a 9e2d 0a3f 9394 333e
00000070: 3b65 b1be e264 b6be 1bc4 cb3e 1590 d2be
00000080: 79d1 113f a7a1 8cbe bac8 8c3e 889b 4d3e
00000090: ba4d 033f e2cf 203e 7479 f93e 2b65 4f3d
000000a0: a795 fe3e ca65 31bc e6b0 a2be 79b6 eabd
000000b0: 49a0 353e bcb1 67be 9e2e 49bf 4732 47bc
000000c0: 5d86 4bbf 5690 573e 65f0 c8bd aa1a 2fbe
000000d0: 62c6 e73e fdc3 b53e b5f3 b3be f8b7 c3be
000000e0: d3f5 1e3d 4cde 153c d74b 28bf cf4d 793d
000000f0: ffd0 a03d 7efa e8bc 05b9 8b3e fa1f bdbe

static_variable_selection.single_variable_grns.AGE75PLUS.fc2.bias f4 [8]
-0.16249342 -0.010813785 -0.1857304 0.21834077 0.11891258 -0.024408467 -0.15290694 -0.20065115
00000000: ad64 26be 4d2c 31bc 1c30 3ebe b994 5f3e
00000010: 7088 f33d 44f4 c7bc a393 1cbe 7f77 4dbe

static_variable_selection.single_variable_grns.AGE75PLUS.gate_norm.glu.fc.weight f4 [32, 8]
0.0945273 0.5115489 -0.22883922 -0.3571337 0.032406732 -0.1285659 -0.35378432 0.2936371
0.21162985 0.155877 -0.04260694 0.29405096 -0.13287225 0.09085335 -0.4411893 -0.06753831
0.4628214 -0.19458087 -0.027286667 0.0039627794 -0.11884463 -0.3720796 -0.22033155 0.21976408
-0.32143202 -0.08640448 -0.17619757 -0.11751379 -0.2911829 -0.3056529 -0.37441656 0.062342778
-0.008941453 -0.043068703 0.60080767 -0.52711135 0.2584827 -0.41642967 -0.117144264 0.2489969
0.26296806 0.09050847 -0.36646658 0.092473745 -0.1312375 -0.29530305 0.3545397 -0.005155497
-0.39066976 0.14880744 -0.017220482 0.26701245 -0.24244513 -0.058313273 -0.0082092285 0.24828479
-0.18690027 -0.08776868 -0.18660478 0.4174843 -0.17549562 0.12878549 -0.26101843 0.08737778
-0.33497226 -0.5199492 -0.04619247 0.29152524 0.049323503 -0.0671083 0.3663607 0.11886771
0.220289 -0.3051159 -0.20995437 0.07076123 0.13888945 0.0092254 -0.16642003 0.007418641
-0.22454882 0.0016282748 0.13302723 0.017281821 0.27576473 -0.07669217 0.12439405 0.06321696
-0.24686117 0.14939247 -0.14374284 -0.09844401 0.51825 -0.0057840007 -0.22399873 0.12658638
-0.26038587 0.3841791 0.39135337 -0.10143621 0.4387593 -0.067481585 0.67628264 -0.025493072
-0.13693826 -0.06277744 0.5936696 -0.064420044 -0.318037 -0.39006045 0.5108398 0.115682945
0.009459998 0.20877682 -0.28538305 -0.35055333 0.088431224 -0.19515404 0.5465019 -0.0624873
-0.11218687 0.054345872 -0.23676866 0.5062642 0.044556107 0.5858698 -0.1783867 -0.3931246
0.19234909 -0.09556759 0.3274843 0.06036645 0.21538278 -0.46897766 -0.09373117 0.20411217
0.6871395 -0.3835419 -0.3419247 0.07713563 -0.4127109 0.067671336 -0.32702756 -0.26072395
0.47829103 0.16488516 0.17543831 -0.30488715 -0.47769323 0.3658819 0.6112686 0.5393809
0.28929013 0.2907378 -0.28370914 -0.2976714 -0.93205863 -0.052852154 -0.21473673 0.49744782
-0.27019766 -0.3277049 -0.12527746 -0.08210198 -0.6246019 0.18628271 -0.49351534 0.53459865
1.0143865 -0.025960919 1.0215515 -1.060904 -0.41138893 0.07639377 -0.30202052 0.92308974
0.7505369 0.2498503 -0.11930804 -0.5005045 -0.7724779 -0.41541323 0.062874526 0.42233455
-0.12654193 0.048138026 0.31910568 0.1637803 -0.58265686 0.30605322 -0.2633298 -0.009330889
0.56006074 0.12282584 0.45461702 -0.821803 -0.59098166 0.08794635 -0.45524016 1.2639184
0.48262975 -0.26466924 0.7243496 -0.7286759 -0.64411944 -0.5191996 -0.2414008 1.1683223
0.64916575 0.072420366 0.47105774 -0.38107616 -0.5031273 -0.69505805 0.362224 0.15417187
0.2948908 0.39772117 0.51474553 -0.24116987 -0.3561717 -0.36527747 0.3019338 0.3276815
-0.023926577 0.49806142 0.10376913 -0.89370465 -0.20700984 0.2209397 0.5586556 0.35865486
0.4817255 -0.42094195 -0.9651428 -0.35247263 -0.09961179 0.46589395 -0.267242 0.42478338
1.1329188 -0.074514784 -0.14560091 0.012662538 0.17081597 0.06559922 -0.21416456 0.3954749
0.10550595 -0.4674712 -0.33609825 -0.08739549 -0.029059347 -0.37890023 -0.51786315 0.3097307
00000000: 8797 c13d def4 023f d454 6abe 3ada b6be
00000010: ecbc 043d c7a6 03be 3823 b5be 9a57 963e
00000020: 7fb5 583e 389e 1f3e 9d84 2ebd d98d 963e
00000030: aa0f 08be 5211 ba3d 90e3 e1be 8751 8abd
00000040: edf6 ec3e 3540 47be 4a88 dfbc 34da 813b
00000050: d064 f3bd 3881 bebe 989e 61be d609 613e
00000060: bd92 a4be d5f4 b0bd 236d 34be 12ab f0bd
00000070: ed15 95be 897e 9cbe 87b3 bfbe 245b 7f3d
00000080: 2c7f 12bc cf68 30bd 88ce 193f c5f0 06bf
00000090: d857 843e 4536 d5be 55e9 efbd 0bf9 7e3e
000000a0: c0a3 863e 815c b93d 82a1 bbbe e062 bd3d
000000b0: 2063 06be f631 97be 3a86 b53e 72ef a8bb
000000c0: de05 c8be fa60 183e f811 8dbc dbb5 883e
000000d0: 8943 78be e6d9 6ebd 0080 06bc 5e3e 7e3e
000000e0: c962 3fbe 11c0 b3bd 5315 3fbe 81c0 d53e
000000f0: 20b5 33be 58e0 033e 35a4 85be 1ff3 b23d
00000100: 7c81 abbe 641b 05bf 5134 3dbd cc42 953e
00000110: 7107 4a3d 1470 89bd a193 bb3e ea70 f33d
00000120: 7193 613e 2738 9cbe 47fe 56be 44eb 903d
00000130: 0939 0e3e 2226 173c 036a 2abe 1218 f33b
00000140: 20f0 65be d66b d53a 4a38 083e 9b92 8d3c
00000150: 0931 8d3e c910 9dbd 4fc2 fe3d e577 813d
00000160: 2dc9 7cbe 57fa 183e 5331 13be 039d c9bd
00000170: 08ac 043f b787 bdbb ec5f 65be dc9f 013e
00000180: 4c51 85be 1fb3 c43e 785f c83e cabd cfbd
00000190: 0fa5 e03e c933 8abd dc20 2d3f d9d6 d0bc
000001a0: 8b39 0cbe 7591 80bd bbfa 173f a8ee 83bd
000001b0: bfd5 a2be 01b6 c7be 66c6 023f 2eeb ec3d
000001c0: 1cfe 1a3c 97c9 553e ba1d 92be ba7b b3be
000001d0: 6e1b b53d 76d6 47be 8ce7 0b3f aff2 7fbd
000001e0: 3bc2 e5bd c799 5e3d 7c73 72be 889a 013f
000001f0: 7780 363d 90fb 153f 01ab 36be a147 c9be
00000200: 29f7 443e f1b8 c3bd 06ac a73e d042 773d
00000210: 4e8d 5c3e d71d f0be 21f6 bfbd c802 513e
00000220: 60e8 2f3f 9b5f c4be c110 afbe 49f9 9d3d
00000230: d84e d3be 4597 8a3d 2870 a7be 9c7d 85be
00000240: 90e2 f43e a8d7 283e 1aa6 333e 2b1a 9cbe
00000250: 3594 f4be df54 bb3e 197c 1c3f de14 0a3f
00000260: d61d 943e 96db 943e 5342 91be 6368 98be
00000270: 659b 6ebf 807b 58bd f2e3 5bbe 7bb1 fe3e
00000280: 5957 8abe f0c8 a7be bc48 00be 1525 a8bd
00000290: e9e5 1fbf e5c0 3e3e 0bae fcbe 75db 083f
000002a0: 6bd7 813f feab d4bc 33c2 823f b4cb 87bf
000002b0: 92a1 d2be 5674 9c3d 6fa2 9abe 9c4f 6c3f
000002c0: 3023 403f c2d8 7f3e c657 f4bd 1021 00bf
000002d0: 1dc1 45bf 0bb1 d4be 5cc4 803d 3c3c d83e
000002e0: 3594 01be 612c 453d d261 a33e 06b6 273e
000002f0: 0029 15bf 02b3 9c3e 2ad3 86be 96e0 18bc
00000300: 2460 0f3f 1d8c fb3d 90c3 e83e ae61 52bf
00000310: 934a 17bf 371d b43d 3d15 e9be 14c8 a13f
00000320: 3f1b f73e ba82 87be fa6e 393f 818a 3abf
00000330: 03e5 24bf 44ea 04bf c531 77be 968b 953f
00000340: ba2f 263f 2151 943d 7b2e f13e 6a1c c3be
00000350: f3cc 00bf 53ef 31bf 6d75 b93e 3bdf 1d3e
00000360: edfb 963e 1ca2 cb3e 5dc6 033f 3cf5 76be
00000370: 235c b6be a605 bbbe 1197 9a3e dfc5 a73e
00000380: ab01 c4bc e801 ff3e e984 d43d d4c9 64bf
00000390: 63fa 53be 043e 623e 0e04 0f3f 9ca1 b73e
000003a0: baa4 f63e b485 d7be 9913 77bf 4b77 b4be
000003b0: 4401 ccbd a789 ee3e f2d3 88be 357d d93e
000003c0: 7c03 913f 359b 98bd 6818 15be 8976 4f3c
000003d0: 62ea 2e3e e258 863d f44d 5bbe b07b ca3e
000003e0: 8113 d83d 6358 efbe 1215 acbe 68fc b2bd
000003f0: de0d eebc 36ff c1be ae92 04bf 0695 9e3e

static_variable_selection.single_variable_grns.AGE75PLUS.gate_norm.glu.fc.bias f4 [32]
0.15223289 -0.040313065 0.034420077 0.2462259 0.08530459 0.05823845 -0.03237003 -0.09127851
-0.10630928 -0.0957652 0.008216608 0.0041979994 0.14785434 -0.21439618 0.032667015 0.07092234
-0.38864806 -0.35515696 -0.6935752 -0.50440276 -0.22503798 -1.075546 -0.856813 -0.406448
-1.1157935 -0.9459211 -0.811641 -0.58386266 -0.23557064 -0.4320736 -0.24038616 -0.12259247
00000000: f0e2 1b3e 501f 25bd 11fc 0c3d a422 7c3e
00000010: 2cb4 ae3d 718b 6e3d 7096 04bd 3af0 babd
00000020: aeb8 d9bd 8c20 c4bd f49e 063c 5f8f 893b
00000030: 2167 173e ac8a 5bbe d9cd 053d bb3f 913d
00000040: e1fc c6be 22d7 b5be 258e 31bf 8a20 01bf
00000050: 5b70 66be 7eab 89bf 1958 5bbf f419 d0be
00000060: 52d2 8ebf e327 72bf b4c7 4fbf 0678 15bf
00000070: 6e39 71be c038 ddbe ca27 76be c311 fbbd

static_variable_selection.single_variable_grns.AGE75PLUS.gate_norm.add_norm.norm.weight f4 [16]
0.081968166 0.3341432 0.9517973 1.4719726 1.0933852 1.4583668 1.2742567 1.1549757
1.0346674 1.4507781 1.2000974 1.2662396 1.398127 0.98396957 0.8276714 0.60927355
00000000: edde a73d d114 ab3e fda8 733f 9969 bc3f
00000010: 0cf4 8b3f c3ab ba3f d81a a33f 3ed6 933f
00000020: fb6f 843f 19b3 b93f cb9c 993f 2414 a23f
00000030: d3f5 b23f 6ee5 7b3f 46e2 533f 5af9 1b3f

static_variable_selection.single_variable_grns.AGE75PLUS.gate_norm.add_norm.norm.bias f4 [16]
0.008554499 0.016853936 0.11873966 0.4790483 0.16244818 0.00024820835 -0.055757143 -0.24268703
-0.119052835 -0.11716175 -0.16245857 -0.23990163 0.11076871 -0.18868683 -0.046253968 0.075232945
00000000: 2b28 0c3c 4411 8a3c c72d f33d d245 f53e
00000010: d158 263e f621 8239 9a61 64bd f382 78be
00000020: f9d1 f3bd 80f2 efbd 8a5b 26be c6a8 75be
00000030: b5da e23d 1f37 41be cd74 3dbd bb13 9a3d

static_variable_selection.prescalers.AGE75PLUS.weight f4 [8, 1]
-0.17033023 -0.0022183855 0.48254213 0.4763228 -0.6410053 -0.3138526 -0.74863356 -0.03636586
00000000: 0c6b 2ebe 5562 11bb c30f f73e 95e0 f33e
00000010: ec18 24bf 4ab1 a0be 73a6 3fbf 5ef4 14bd

static_variable_selection.prescalers.AGE75PLUS.bias f4 [8]
-0.0777113 0.3939151 0.7950607 0.23999745 -0.5412796 -0.70683736 -0.29865617 -0.071508296
00000000: 1a27 9fbd 3daf c93e 1989 4b3f e4c1 753e
00000010: 4d91 0abf 4bf3 34bf 76e9 98be f172 92bd

encoder_variable_selection.flattened_grn.resample_norm.mask f4 [3]
-0.4759484 -0.122572936 0.45318818
00000000: 82af f3be 8507 fbbd 4808 e83e

encoder_variable_selection.flattened_grn.resample_norm.norm.weight f4 [3]
1.1577523 1.3075604 1.5923795
00000000: 3a31 943f 245e a73f 17d3 cb3f

encoder_variable_selection.flattened_grn.resample_norm.norm.bias f4 [3]
0.32472366 -0.05421292 -0.33787993
00000000: 2e42 a63e 5e0e 5ebd 99fe acbe

encoder_variable_selection.flattened_grn.fc1.weight f4 [3, 24]
0.20582204 -0.95517653 0.73551875 -0.9226242 0.55457604 -0.03685929 0.23595777 0.30982804
-0.34178203 0.08295474 0.08878745 -1.0938869 -0.034832224 -0.00028269363 -0.092746496 0.0016778007
0.3692655 -0.6663132 0.4162219 -0.064256586 0.043856405 -0.4553369 0.2334894 0.07871455
0.22382317 0.9107133 -1.1585199 0.33078754 -0.75538355 0.083974734 -0.75507766 -0.27235505
-0.23620889 -0.05736793 -1.0996774 -0.49825162 0.27733028 0.7025247 0.097188175 0.91224
0.12014505 -0.072018944 -0.56807655 -0.08236771 0.061159365 0.29770574 -0.09073877 0.08265376
0.018444572 -0.13119192 -0.45469534 0.20958018 -0.004504909 0.6582032 -0.41936237 0.03887663
-0.31601903 0.4402486 0.47198424 0.45077857 -0.27727023 -0.2806832 0.12258898 -0.054530714
0.22154637 0.21440831 -0.10561449 0.071641356 -0.091649756 -0.40610763 -0.5044312 0.15844673
00000000: 03c3 523e 7386 74bf f54a 3c3f 1931 6cbf
00000010: b2f8 0d3f c4f9 16bd ea9e 713e c8a1 9e3e
00000020: 0efe aebe 2de4 a93d 32d6 b53d 7c04 8cbf
00000030: 3cac 0ebd 7f36 94b9 e0f1 bdbd a6e9 db3a
00000040: 5e10 bd3e 8093 2abf 091b d53e f598 83bd
00000050: c6a2 333d eb21 e9be d817 6f3e 1835 a13d
00000060: e731 653e 8224 693f 614a 94bf fc5c a93e
00000070: d160 41bf f2fa ab3d c54c 41bf 1f72 8bbe
00000080: bee0 71be a2fa 6abd 3bc2 8cbf d61a ffbe
00000090: 3cfe 8d3e a9d8 333f 980a c73d 9088 693f
000000a0: 9c0e f63d ab7e 93bd 776d 11bf 67b0 a8bd
000000b0: 3e82 7a3d e36c 983e 40d5 b9bd 6046 a93d
000000c0: 1219 973c 2d57 06be d4cd e8be 309c 563e
000000d0: ea9d 93bb 0180 283f aab6 d6be 1a3d 1f3d
000000e0: 3fcd a1be 4468 e13e eba7 f13e 73cc e63e
000000f0: 5df6 8dbe b5b5 8fbe ee0f fb3d 995b 5fbd
00000100: 0ddd 623e da8d 5b3e 694c d8bd b4b8 923d
00000110: deb2 bbbd 57ed cfbe 6722 01bf dc3f 223e

encoder_variable_selection.flattened_grn.fc1.bias f4 [3]
-0.09264566 0.004373165 -0.29871988
00000000: 02bd bdbd c44c 8f3b d0f1 98be

encoder_variable_selection.flattened_grn.context.weight f4 [3, 16]
-0.25075784 0.08899228 -0.18546936 -0.042143118 0.28481147 -0.22085072 0.13511585 0.15109406
-0.20787618 -0.1156008 -0.009394301 -0.08466969 -0.2512742 0.02034418 -0.1590317 -0.14952967
0.06369309 0.091320924 0.42189533 -0.32615322 -0.26681936 0.5065254 -0.07257042 -0.2787442
0.23054934 0.138141 -0.09639798 0.24867424 0.095785186 -0.02263762 -0.14456248 0.087127164
0.036916427 0.074036494 0.7506278 -0.47569624 -0.28814003 0.7087274 -0.028343642 -0.042836
-0.5873535 0.022627916 -0.29688907 0.112775795 0.03167906 0.054639056 -0.2697511 0.2275024
00000000: 5563 80be 9641 b63d aeeb 3dbe 439e 2cbd
00000010: cfd2 913e b126 62be cf5b 0a3e 67b8 1a3e
00000020: 7edd 54be 1dc0 ecbd 8eea 19bc 4d67 adbd
00000030: 03a7 80be d6a8 a63c 35d9 22be 4e1e 19be
00000040: 8671 823d 7706 bb3d aa02 d83e 8efd a6be
00000050: 8c9c 88be a6ab 013f cd9f 94bd 8fb7 8ebe
00000060: 2015 6c3e d674 0d3e 4e6c c5bd 76a4 7e3e
00000070: 062b c43d 8872 b9bc 3008 14be ba6f b23d
00000080: ae35 173d 72a0 973d 2529 403f 758e f3be
00000090: 1787 93be 296f 353f ed30 e8bc cd74 2fbd
000000a0: cd5c 16bf 2e5e b93c d801 98be fff6 e63d
000000b0: e7c1 013d 34cd 5f3d d11c 8abe 64f6 683e

encoder_variable_selection.flattened_grn.fc2.weight f4 [3, 3]
-0.49755055 -0.97559863 0.080346376 -0.010301692 -1.1327978 -0.26247185 -0.32231322 -0.5827003
-0.36683598
00000000: f2be febe d5c0 79bf a48c a43d 6ec8 28bc
00000010: 85ff 90bf b662 86be 3d06 a5be d92b 15bf
00000020: edd1 bbbe

encoder_variable_selection.flattened_grn.fc2.bias f4 [3]
-0.18299472 -0.062490594 -0.18191592
00000000: f862 3bbe 23f6 7fbd 2b48 3abe

encoder_variable_selection.flattened_grn.gate_norm.glu.fc.weight f4 [6, 3]
0.17570888 -0.078524 0.5680372 -0.35283405 -0.54524386 0.2199578 0.0022280158 -0.18615542
0.11227155 -0.35942763 -0.494701 0.5587188 0.12658395 -0.605661 -0.41467813 0.47186846
0.16057636 -0.1783813
00000000: 07ed 333e 31d1 a0bd e36a 113f aaa6 b4be
00000010: 1a95 0bbf 9e3c 613e e703 123b 879f 3ebe
00000020: a0ee e53d e606 b8be 7349 fdbe 3208 0f3f
00000030: 399f 013e 990c 1bbf b150 d4be be98 f13e
00000040: 216e 243e 96a9 36be

encoder_variable_selection.flattened_grn.gate_norm.glu.fc.bias f4 [6]
0.12088994 0.011150023 -0.2927977 -0.26391605 -0.085890174 -0.075847246
00000000: 2595 f73d 96ae 363c 95e9 95be 0120 87be
00000010: 30e7 afbd cd55 9bbd

encoder_variable_selection.flattened_grn.gate_norm.add_norm.norm.weight f4 [3]
0.01967025 0.5412027 0.27819592
00000000: 8123 a13c 438c 0a3f b26f 8e3e

encoder_variable_selection.flattened_grn.gate_norm.add_norm.norm.bias f4 [3]
0.20420103 -0.5644824 0.61812145
00000000: 131a 513e eb81 10bf 353d 1e3f

encoder_variable_selection.single_variable_grns.SinWeekly.resample_norm.mask f4 [16]
-0.14718968 -0.40467983 0.4525572 0.013817482 -0.36198294 -0.044506684 -0.72125286 -0.66204077
-0.5066603 -0.04197011 -0.6506621 -0.27453232 -0.41671675 0.44394276 0.5910101 0.3223908
00000000: e4b8 16be 3232 cfbe 94b5 e73e b862 623c
00000010: d455 b9be a44c 36bd 07a4 38bf 817b 29bf
00000020: 7db4 01bf dae8 2bbd cb91 26bf 808f 8cbe
00000030: e65b d5be 774c e33e 704c 173f 6810 a53e

encoder_variable_selection.single_variable_grns.SinWeekly.resample_norm.norm.weight f4 [16]
1.227873 0.5425647 1.736657 1.1313138 0.7040973 0.9242262 0.687893 0.6652951
0.22866897 1.311952 0.86162907 1.1978391 0.8715968 1.5136296 1.7533339 1.0905021
00000000: f12a 9d3f 85e5 0a3f c74a de3f e4ce 903f
00000010: b83f 343f 179a 6c3f c119 303f c850 2a3f
00000020: 3328 6a3e 0bee a73f b993 5c3f cb52 993f
00000030: f820 5f3f 9dbe c13f 3f6d e03f 9395 8b3f

encoder_variable_selection.single_variable_grns.SinWeekly.resample_norm.norm.bias f4 [16]
0.12703317 0.20141926 -0.3013589 0.08003293 0.07049176 0.009027651 -0.49805042 -0.11330075
0.03705014 -0.22925198 0.19554889 0.3809335 -0.1498958 -0.18760008 -0.011096167 0.108475834
00000000: fc14 023e da40 4e3e b74b 9abe 4ee8 a33d
00000010: fc5d 903d b6e8 133c 7700 ffbe 390a e8bd
00000020: e3c1 173d 08c1 6abe f83d 483e b709 c33e
00000030: 497e 19be 3c1a 40be b3cc 35bc 9428 de3d

encoder_variable_selection.single_variable_grns.SinWeekly.fc1.weight f4 [8, 8]
0.6399412 -1.6722343 -0.7095601 -2.177943 -0.26152328 0.039676808 0.30336526 0.50549555
-0.18546645 0.33550826 -0.31193417 -0.21643423 -0.3258251 0.9192185 -0.9322255 -0.5358052
-0.26979497 0.10976429 -0.7402548 0.33212006 -1.1643806 0.6256524 0.5166977 -0.09136798
0.18228659 0.043228265 -0.33756855 0.074335515 0.32481042 0.24270388 0.21804973 0.5702533
-0.6322881 -0.3708398 1.2859858 -0.3984484 0.27836448 0.75886 0.64651346 -0.8630108
0.6294749 -0.42998534 -0.73517 -0.08868364 0.15725864 -0.18487892 -0.26498216 0.21573207
-1.122338 -0.106843345 -1.5205401 0.45912892 -0.6990973 0.32791 -1.652171 -0.8198109
0.30883846 -0.0736624 -0.69042933 0.11547166 0.87043506 0.6133772 -0.084653646 0.4983698
00000000: 30d3 233f c60b d6bf bba5 35bf 6b63 0bc0
00000010: 61e6 85be 2684 223d b152 9b3e 2868 013f
00000020: ebea 3dbe bdc7 ab3e d6b5 9fbe efa0 5dbe
00000030: 8cd2 a6be e751 6b3f 55a6 6ebf 882a 09bf
00000040: 9122 8abe 1acc e03d 5781 3dbf a40b aa3e
00000050: 6c0a 95bf c12a 203f 4d46 043f 231f bbbd
00000060: 56a9 3a3e 1f10 313d c9d5 acbe 383d 983d
00000070: 8d4d a63e 5e87 783e 6e48 5f3e 1ffc 113f
00000080: a2dd 21bf b7de bdbe 2f9b a43f 6e01 ccbe
00000090: ca85 8e3e a644 423f e881 253f 47ee 5cbf
000000a0: 4425 213f 0a27 dcbe 1a34 3cbf c59f b5bd
000000b0: 6908 213e e650 3dbe beab 87be dee8 5c3e
000000c0: c6a8 8fbf afd0 dabd 0fa1 c2bf f212 eb3e
000000d0: 0af8 32bf d2e3 a73e 577a d3bf 21df 51bf
000000e0: 1320 9e3e 50dc 96bd fabf 30bf 687c ec3d
000000f0: d5d4 5e3f 4a06 1d3f e45e adbd 542a ff3e

encoder_variable_selection.single_variable_grns.SinWeekly.fc1.bias f4 [8]
-0.27458796 -0.12258317 -0.13446994 -0.21766733 -0.05575157 -0.17374146 -0.3746326 -0.16102646
00000000: cb96 8cbe e30c fbbd 7db2 09be 2fe4 5ebe
00000010: c25b 64bd 48e9 31be d8cf bfbe 1fe4 24be

encoder_variable_selection.single_variable_grns.SinWeekly.fc2.weight f4 [8, 8]
-1.1497556 -0.03227619 -1.2179854 -0.2396608 -0.49904868 -0.065031834 0.4657651 -0.19809388
-0.2946664 -0.5269191 0.11522107 0.1712514 -0.20214367 0.49207023 0.5319035 0.2321498
0.57849574 -0.33449963 0.064053364 -0.14199065 0.6402932 -0.08510675 0.62105024 0.2844637
0.4764226 0.68509394 0.40912747 0.026925704 0.36544102 -0.47021788 0.42066643 -0.14525391
-1.2071186 0.8528741 -0.5694682 0.10045708 -0.09151301 0.2134453 0.04409164 -0.09741889
0.48837167 -0.5348674 -0.49720773 0.0009228299 -0.53172195 0.032863718 -0.5280389 -0.09694842
0.4624009 0.37855828 0.2252313 -0.05112387 0.5525478 0.20891798 0.7268101 0.22101665
0.7440687 -0.036384687 0.32287428 0.16085774 0.6562805 -0.14887188 0.99966764 -0.55286205
00000000: 312b 93bf 0a34 04bd f2e6 9bbf a469 75be
00000010: 4f83 ffbe 692f 85bd c378 ee3e 1fd9 4abe
00000020: 84de 96be 2ce4 06bf 06f9 eb3d 875c 2f3e
00000030: c0fe 4ebe a1f0 fb3e d42a 083f adb8 6d3e
00000040: 4c18 143f 8943 abbe 692e 833d ff65 11be
00000050: 41ea 233f 734c aebd 26fd 1e3f 3aa5 913e
00000060: aaed f33e 5162 2f3f 2879 d13e 4b93 dc3c
00000070: 161b bb3e 66c0 f0be 9761 d73e 71bd 14be
00000080: dd82 9abf f555 5a3f abc8 11bf 71bc cd3d
00000090: 2c6b bbbd 6891 5a3e 6f99 343d 8e83 c7bd
000000a0: da0b fa3e 12ed 08bf 0392 febe 11ea 713a
000000b0: ee1e 08bf 1b9c 063d 8f2d 07bf e58c c6bd
000000c0: d0bf ec3e 64d2 c13e 09a3 663e 4367 51bd
000000d0: c673 0d3f 98ee 553e 3a10 3a3f 3052 623e
000000e0: 497b 3e3f 1c08 15bd c74f a53e e4b7 243e
000000f0: 0002 283f df71 18be 38ea 7f3f 5e88 0dbf

encoder_variable_selection.single_variable_grns.SinWeekly.fc2.bias f4 [8]
-0.065737374 -0.20130728 0.16063108 0.25072795 0.054013677 0.0641673 0.09199106 0.13423277
00000000: 51a1 86bd 7f23 4ebe 797c 243e 6a5f 803e
00000010: 723d 5d3d 256a 833d cf65 bc3d 5174 093e

encoder_variable_selection.single_variable_grns.SinWeekly.gate_norm.glu.fc.weight f4 [32, 8]
0.33409727 0.45294613 0.022568084 0.48403993 0.36507583 -0.67622036 0.32893637 0.62417
-0.120742455 -0.14234571 0.06577654 -0.55490977 -0.18076004 0.24641998 0.2992208 0.33114776
0.53488135 0.33363488 -0.47200763 0.30021903 0.48401743 -0.34858 -0.31054214 -0.34992856
0.060726643 -0.15993477 -0.17953353 -0.1950539 0.21250609 0.19543779 0.011871384 0.22913565
0.4061879 0.4816463 0.32988995 0.5068101 0.29457918 -0.6272734 0.74192 0.41759178
0.2471499 -0.2290915 -0.023402555 -0.14483227 -0.25625244 -0.07998967 0.005800846 0.046642177
0.53061616 0.41456863 -0.70030016 -0.1443373 0.45223194 -0.3989402 -0.33475974 -0.46759564
-0.20398222 -0.21962568 -0.16047691 -0.49060288 -0.22845557 0.020026011 -0.39572978 -0.34565234
0.34629306 0.30383632 0.096119754 0.691579 0.38104007 -0.6967484 0.4664879 0.52506244
-0.416543 -0.5107317 0.52362067 -0.21532065 -0.37612328 0.45979536 0.40223774 0.26792482
-0.01256876 0.12115057 0.2255113 0.32178038 -0.17394195 -0.09974254 0.19667032 0.2649272
0.104036495 0.42603585 0.37747186 0.42076805 0.16880195 -0.6803602 0.5447763 0.4440446
0.4604163 0.55148697 -0.3124171 -0.3044396 0.5801172 -0.42115328 -0.48575407 -0.334966
0.53457135 0.3215643 -0.65449864 -0.5616815 0.48177058 -0.14861023 -0.97330785 -0.6264142
-0.1983784 -0.28694123 0.2632309 -0.3985895 -0.17749967 0.29099965 -0.20705675 -0.005462898
-0.01792543 -0.35315958 -0.20491616 -0.19299679 -0.27070853 -0.19069774 -0.0050952346 -0.10936192
0.6013691 0.5799786 0.0047506015 0.7271359 0.5133684 -0.6291399 0.16205333 0.011509978
0.15133345 -0.31144264 -0.14574486 -0.2844303 -0.11307909 0.6768659 -0.32960036 -0.45075437
-0.4710131 -0.417285 -0.08417067 0.21173182 -0.5555552 0.12569344 0.2859824 0.95280945
0.18474454 -0.039360262 -0.40045258 -0.4994718 -0.082159 0.17163341 -0.15655796 0.27418113
0.52981144 0.6131903 -0.29581952 0.2313574 0.6448546 -0.45434663 0.03808762 -0.007856253
0.0146657955 0.06112801 0.04297244 -0.23046514 0.16982459 -0.506031 0.11525344 -0.21244857
-1.1727808 -0.24273445 0.9077303 -0.3776135 -0.85681665 -0.013392831 0.7620426 0.471376
0.005221708 0.7319826 0.00709172 0.22295594 0.36646652 -0.907421 -0.059426934 -0.09132705
0.1499529 0.3991581 0.100402385 0.30058506 0.49791816 -0.44014794 0.2242662 0.23872776
-0.15046139 -0.036570117 0.37058893 0.83502126 -0.14249119 -0.09837501 0.32541853 0.27840275
0.20092425 0.046546116 -0.85324013 -0.1495544 0.26597905 0.30653375 -0.37720653 -0.5354627
0.56837547 0.25305057 -0.14990507 0.19729953 0.6630403 -0.24067621 -0.061241925 -0.24822256
-0.63752455 -0.61004674 1.0267457 0.11509318 -0.22989254 0.28385648 0.7687554 0.72520196
-0.32472387 -0.4612443 0.3108321 0.09132484 -0.2510647 0.16317116 0.5372442 0.6918325
-0.5012884 -0.41670018 -0.089165844 -0.08571678 -0.17501782 0.14723386 0.14123987 0.0327012
-0.08940853 0.33064127 0.03535165 -0.20093967 -0.027935084 -0.18146591 -0.21857202 -0.36522597
00000000: cc0e ab3e 8ee8 e73e b4e0 b83c 15d4 f73e
00000010: 38eb ba3e c71c 2dbf 596a a83e 9bc9 1f3f
00000020: d247 f7bd 13c3 11be dab5 863d 910e 0ebf
00000030: 2919 39be 8555 7c3e 7833 993e 338c a93e
00000040: fced 083f 31d2 aa3e fcaa f1be 4fb6 993e
00000050: 22d1 f73e 1479 b2be 61ff 9ebe d629 b3be
00000060: 80bc 783d f1c5 23be a3d7 37be 36bc 47be
00000070: 329b 593e d820 483e 3280 423c 89a2 6a3e
00000080: dcf7 cf3e 589a f63e 56e7 a83e 4fbe 013f
00000090: 15d3 963e fd94 20bf 78ee 3d3f 97ce d53e
000000a0: dd14 7d3e f696 6abe b7b6 bfbc e94e 14be
000000b0: 8533 83be a0d1 a3bd 0615 be3b de0b 3f3d
000000c0: 76d6 073f 5742 d43e df46 33bf 28cd 13be
000000d0: f28a e73e e441 ccbe a165 abbe b268 efbe
000000e0: b7e0 50be 8ee5 60be 0f54 24be 4d30 fbbe
000000f0: 42f0 69be 970d a43c 189d cabe 58f9 b0be
00000100: 534d b13e 6f90 9b3e 6fda c43d 520b 313f
00000110: af17 c33e 1a5e 32bf 81d7 ee3e 7e6a 063f
00000120: 2045 d5be 50bf 02bf 010c 063f 047d 5cbe
00000130: 3b93 c0be 4c6a eb3e 1bf2 cd3e 712d 893e
00000140: 33ed 4dbc ca1d f83d 6fec 663e 66c0 a43e
00000150: d71d 32be d145 ccbd f263 493e 8aa4 873e
00000160: 1611 d53d 5f21 da3e fe43 c13e e96e d73e
00000170: 6bda 2c3e 162c 2ebf 7676 0b3f d059 e33e
00000180: afbb eb3e 402e 0d3f 22f5 9fbe 82df 9bbe
00000190: 9082 143f 67a1 d7be c2b4 f8be aa80 abbe
000001a0: abd9 083f 13a4 a43e 398d 27bf 5cca 0fbf
000001b0: a2aa f63e 482d 18be b42a 79bf ae5c 20bf
000001c0: b523 4bbe f6e9 92be 33c6 863e ec13 ccbe
000001d0: 79c2 35be e8fd 943e af06 54be 1c02 b3bb
000001e0: 5ad8 92bc 55d1 b4be 8bd5 51be f3a0 45be
000001f0: 4f9a 8abe 4546 43be edf5 a6bb 24f9 dfbd
00000200: 53f3 193f 7a79 143f efaa 9b3b 9425 3a3f
00000210: 1d6c 033f 500f 21bf 4ff1 253e 5994 3c3c
00000220: 28f7 1a3e 6975 9fbe 243e 15be d9a0 91be
00000230: 0396 e7bd 1547 2d3f 61c1 a8be 47c9 e6be
00000240: a128 f1be 61a6 d5be ac61 acbd 3ad0 583e
00000250: de38 0ebf c8b5 003e 496c 923e 52eb 733f
00000260: ac2d 3d3e 3a38 21bd 1f08 cdbe c5ba ffbe
00000270: fa42 a8bd abc0 2f3e bb50 20be 7861 8c3e
00000280: b9a1 073f 0afa 1c3f a875 97be f4e8 6c3e
00000290: 3115 253f 1fa0 e8be c401 1c3d 83b7 00bc
000002a0: ce48 703c 5d61 7a3d df03 303d 0eff 6bbe
000002b0: 7fe6 2d3e 3f8b 01bf ff09 ec3d 1e8c 59be
000002c0: ae1d 96bf 618f 78be 0361 683f 8f56 c1be
000002d0: 5658 5bbf 9b6d 5bbc 3915 433f 3258 f13e
000002e0: dd1a ab3b 3663 3b3f a961 e83b 904e 643e
000002f0: 80a1 bb3e be4c 68bf a869 73bd ad09 bbbd
00000300: 418d 193e 735e cc3e c49f cd3d 49e6 993e
00000310: 21ef fe3e 125b e1be 0aa6 653e 0d75 743e
00000320: 8d12 1abe 8cca 15bd d5bd bd3e f4c3 553f
00000330: 36e9 11be d678 c9bd 429d a63e ce8a 8e3e
00000340: 16bf 4d3e 24a7 3e3d f26d 5abf ca24 19be
00000350: 682e 883e fef1 9c3e 3721 c1be 1514 09bf
00000360: 0e81 113f d88f 813e b780 19be e308 4a3e
00000370: 02bd 293f d373 76be d0d8 7abd 0e2e 7ebe
00000380: cf34 23bf 062c 1cbf 676c 833f f9b5 eb3d
00000390: f368 6bbe a355 913e 27cd 443f d6a6 393f
000003a0: 3542 a6be 3628 ecbe 6325 9f3e 8508 bb3d
000003b0: 8d8b 80be 5716 273e d688 093f ef1b 313f
000003c0: 7054 00bf ba59 d5be 959c b6bd 478c afbd
000003d0: df37 33be 79c4 163e 2fa1 103e b2f1 053d
000003e0: d21b b7bd d049 a93e e4cc 103d 21c3 4dbe
000003f0: 1ed8 e4bc 33d2 39be 58d1 5fbe e6fe babe

encoder_variable_selection.single_variable_grns.SinWeekly.gate_norm.glu.fc.bias f4 [32]
0.39367285 0.044282883 -0.3521476 0.02969675 0.083014235 -0.04308845 -0.543828 -0.21469992
0.14732857 -0.12094142 0.19797762 0.32713377 -0.16970682 -0.50635684 0.025037184 0.11700863
0.4589631 0.14370747 -0.19033712 -1.1750464 0.3408914 -1.1732033 -0.6353658 -0.112614885
-0.11224026 0.11679155 -0.7638976 0.07220946 -0.20177394 0.71419406 -0.058879778 -0.8125022
00000000: 7d8f c93e f861 353d b14c b4be 9946 f33c
00000010: 5e03 aa3d 847d 30bd 5038 0bbf 4cda 5bbe
00000020: 4ddd 163e 23b0 f7bd a5ba 4a3e 147e a73e
00000030: a0c7 2dbe 9aa0 01bf c81a cd3c 38a2 ef3d
00000040: 36fd ea3e 0d28 133e bce7 42be ec67 96bf
00000050: 5189 ae3e 872b 96bf 55a7 22bf a2a2 e6bd
00000060: 39de e5bd 6830 ef3d cb8e 43bf 8ee2 933d
00000070: d49d 4ebe 6cd5 363f ec2b 71bd 2500 50bf

encoder_variable_selection.single_variable_grns.SinWeekly.gate_norm.add_norm.norm.weight f4 [16]
1.390757 -0.037357006 1.6876806 0.95233554 0.76184624 0.69244975 0.8394593 0.42055336
0.6664681 1.3187633 0.93547547 1.8968517 0.6273781 2.1167066 1.6027262 1.0677068
00000000: 5304 b23f a903 19bd eb05 d83f 43cc 733f
00000010: 5b08 433f 6344 313f cee6 563f c552 d73e
00000020: a79d 2a3f 3ccd a83f 527b 6f3f 09cc f23f
00000030: da9b 203f 1f78 0740 2226 cd3f 9eaa 883f

encoder_variable_selection.single_variable_grns.SinWeekly.gate_norm.add_norm.norm.bias f4 [16]
-0.03731682 0.19668454 -0.17375359 0.29328287 0.1098695 0.022824153 -0.22046328 -0.18067354
-0.03567253 -0.338338 -0.21979213 0.05703803 -0.18244216 -0.006786376 0.2650772 0.26960412
00000000: 86d9 18bd ac67 493e 76ec 31be 2c29 963e
00000010: 4303 e13d b8f9 ba3c 20c1 61be 7c02 39be
00000020: 5c1d 12bd a33a adbe 3011 61be b6a0 693d
00000030: 1ed2 3abe 3f60 debb 33b8 873e 8d09 8a3e

encoder_variable_selection.single_variable_grns.VaccinationFull.resample_norm.mask f4 [16]
-0.38657513 0.2357038 -0.057616763 -0.6553082 0.24857283 -0.091818884 1.18019 0.49253285
0.034758203 -0.99336565 -0.58504975 0.12598407 -0.20464516 0.322196 0.6580562 -0.7825044
00000000: 2ded c5be 565c 713e 8eff 6bbd 47c2 27bf
00000010: e089 7e3e 8a0b bcbd 7710 973f 442d fc3e
00000020: 9e5e 0e3d 364d 7ebf d2c5 15bf f801 013e
00000030: 808e 51be e0f6 a43e 5f76 283f 3552 48bf

encoder_variable_selection.single_variable_grns.VaccinationFull.resample_norm.norm.weight f4 [16]
0.6739431 0.7952821 1.1409032 0.6622064 1.3352952 0.8506577 1.9656792 1.3729161
1.2352192 0.41317788 0.7195998 1.0695404 0.9708685 1.3320144 1.3626614 0.5374069
00000000: 8987 2c3f 9c97 4b3f 1e09 923f 5c86 293f
00000010: f4ea aa3f b4c4 593f 609b fb3f b7bb af3f
00000020: aa1b 9e3f 0d8c d33e b137 383f b3e6 883f
00000030: d78a 783f 737f aa3f b06b ae3f 8093 093f

encoder_variable_selection.single_variable_grns.VaccinationFull.resample_norm.norm.bias f4 [16]
0.005359045 0.30080062 -0.18894276 0.00034073717 -0.055989314 0.12887113 0.19822851 0.30255073
-0.09632246 -0.05888845 -0.20859964 -0.007499018 -0.11952369 -0.13469356 0.05775048 -0.21813104
00000000: ee9a af3b 8a02 9a3e 367a 41be f8a4 b239
00000010: 0d55 65bd cbf6 033e 6afc 4a3e eee7 9a3e
00000020: b644 c5bd 0435 71bd 259b 55be 53ba f5bb
00000030: d6c8 f4bd 1ced 09be c48b 6c3d be5d 5fbe

encoder_variable_selection.single_variable_grns.VaccinationFull.fc1.weight f4 [8, 8]
0.55314386 -0.41301188 -0.8151502 -0.1163855 1.3191776 0.08022483 -0.6790297 -0.024349948
0.48717323 -0.6131321 -1.3905016 -0.85431486 0.44936022 0.5195855 0.48858127 0.62555444
0.06443386 -0.5243984 -0.32557532 -0.2574379 -0.3146437 0.4432674 -0.18844926 -0.5029721
-0.11685608 -0.99451923 -0.7802796 0.18637237 -0.54017156 1.1676683 0.18442151 0.6345652
0.17479381 0.6643188 0.22701617 0.40813205 -0.027253771 0.2709074 0.5114563 0.6901227
-0.28506565 0.749202 0.31367788 -0.16484775 -1.0921112 -0.89554375 -0.71995515 -1.8676136
-0.7627983 0.4725812 0.031163577 -0.09478223 0.8557632 0.12116366 0.43849346 0.45726368
0.26175487 0.20220648 -0.5260296 -0.20336404 -0.503714 -1.1848085 -0.27082908 -1.5794771
00000000: d69a 0d3f 4b76 d3be afad 50bf 855b eebd
00000010: d0da a83f ea4c a43d e4d4 2dbf 8b79 c7bc
00000020: c56e f93e 3af6 1cbf f5fb b1bf 61b4 5abf
00000030: 8b12 e63e 8e03 053f 5327 fa3e 5624 203f
00000040: e6f5 833d f93e 06bf cfb1 a6be e7ce 83be
00000050: fb18 a1be f2f3 e23e d8f8 40be c8c2 00bf
00000060: 3e52 efbd d098 7ebf 67c0 47bf 66d8 3e3e
00000070: af48 0abf 2876 953f fed8 3c3e dd72 223f
00000080: 26fd 323e cc10 2a3f ed76 683e aff6 d03e
00000090: 4d43 dfbc 60b4 8a3e cdee 023f e2ab 303f
000000a0: 20f4 91be b4cb 3f3f 639a a03e d9cd 28be
000000b0: 4dca 8bbf 5b42 65bf fb4e 38bf f60d efbf
000000c0: c046 43bf 2af6 f13e c24a ff3c 301d c2bd
000000d0: 4c13 5b3f a724 f83d 3782 e03e 771e ea3e
000000e0: bc04 863e 370f 4f3e e0a9 06bf aa3e 50be
000000f0: 67f3 00bf cea7 97bf 1caa 8abe 4e2c cabf

encoder_variable_selection.single_variable_grns.VaccinationFull.fc1.bias f4 [8]
0.3803785 0.42251447 0.050147567 0.14523911 -0.035103913 -0.46437874 -0.27660865 -0.16463523
00000000: f9c0 c23e d153 d83e 8967 4d3d 90b9 143e
00000010: 1fc9 0fbd 0dc3 edbe a69f 8dbe 2396 28be

encoder_variable_selection.single_variable_grns.VaccinationFull.fc2.weight f4 [8, 8]
-0.19897735 -0.17761339 -0.040432498 -0.7010841 -0.45344713 0.627868 -0.71704656 0.46616268
0.42611954 -0.39707643 -0.2603756 -0.43546823 -0.32512492 -0.7717181 0.21978383 -0.28587297
-2.1462648 0.496486 -0.1877397 0.48337358 0.048674714 0.49015898 0.33990705 0.5580363
0.1334997 -0.882275 -0.05050761 -0.58777565 0.20517613 -0.86221915 -0.20204808 -0.038487718
-0.45791942 -0.5952458 0.5105587 -0.23712534 -0.058216088 0.39640883 -0.76594335 0.9381322
-0.3854872 0.54611915 0.62475336 0.6235621 0.0690156 0.12881961 -0.10189053 -0.8713946
1.0585651 -0.4278995 0.087139554 0.669979 0.10060752 -0.73177063 -0.1452553 0.08460649
-0.20711179 0.62627375 0.13164702 0.5098485 -0.3411909 -0.422664 -0.06809973 -0.34596616
00000000: b8c0 4bbe 49e0 35be 8c9c 25bd 3f7a 33bf
00000010: 392a e8be f5bb 203f 5d90 37bf e0ac ee3e
00000020: 572c da3e 9a4d cbbe f34f 85be b1f5 debe
00000030: c676 a6be 518f 45bf 030f 613e f15d 92be
00000040: 675c 09c0 6a33 fe3e d63e 40be be7c f73e
00000050: 235f 473d 1ef6 fa3e 4c08 ae3e 78db 0e3f
00000060: 25b4 083e c6dc 61bf 11e1 4ebd 7778 16bf
00000070: b119 523e 65ba 5cbf b1e5 4ebe 4ca5 1dbd
00000080: 6a74 eabe 0762 18bf fab3 023f fcd0 72be
00000090: fe73 6ebd 19f6 ca3e dd14 44bf 6f29 703f
000000a0: 945e c5be 77ce 0b3f d6ef 1f3f c4a1 1f3f
000000b0: 0d58 8d3d 4ae9 033e fbab d0bd b713 5fbf
000000c0: 107f 873f a515 dbbe 3976 b23d be83 2b3f
000000d0: 510b ce3d 5255 3bbf cebd 14be 2b46 ad3d
000000e0: 1d15 54be 7a53 203f 7ace 063e 6e85 023f
000000f0: 93b0 aebe 6a67 d8be df77 8bbd 7a22 b1be

encoder_variable_selection.single_variable_grns.VaccinationFull.fc2.bias f4 [8]
-0.03179137 -0.14670046 -0.5206916 0.09027696 0.101230465 0.0071244542 0.50106925 0.06336878
00000000: ab37 02bd a538 16be 0b4c 05bf 20e3 b83d
00000010: eb51 cf3d 4174 e93b 1346 003f 7ec7 813d

encoder_variable_selection.single_variable_grns.VaccinationFull.gate_norm.glu.fc.weight f4 [32, 8]
0.091106415 -0.05138365 0.4551171 0.24581821 -0.11982723 0.3725072 -0.24452403 0.104446806
0.20275189 0.2191834 -1.250583 0.35899806 0.45753187 -0.38725275 0.7688513 -0.42884517
-0.037079744 -0.22959414 0.6031031 -0.6064725 0.0028576453 0.1633058 -0.818823 0.14356384
-0.88164645 0.7300252 -0.2585798 0.80569 -0.7674028 0.85649616 0.9028068 0.74087095
0.41065222 -0.2689016 0.29145142 -0.34416118 0.24057372 -0.3227338 -0.24651368 -0.41439432
0.3644211 -0.14931928 0.8035516 -0.76044834 0.23559646 -0.16504222 -0.4893549 -0.22147919
-0.12857139 0.64831585 -0.3200478 0.28495428 -0.12093751 -0.09000748 0.6952225 0.13499162
-0.5340493 0.45162466 0.10521693 0.32971066 0.30253878 0.1999135 0.11913889 -0.21989724
-0.7089141 0.47967806 -0.43402496 -0.42867935 -0.8536748 0.7148307 0.45128876 0.5426315
0.57207996 -0.5444461 0.04581783 -0.36466768 0.52115023 -0.5635382 -0.31335205 -0.5819225
-0.14587308 -0.28534433 0.3204318 -0.47032166 0.18626803 0.07492196 -0.2591722 0.11115836
-0.18561469 -0.4524148 0.29474205 -0.058669165 0.10574573 0.09310185 -0.4360226 -0.2668968
0.1856669 -0.05371068 0.15268017 -0.6589749 0.057986382 -0.32536334 -0.50696224 0.028246336
0.52368295 -0.6570897 0.09717365 -0.42839122 0.38718575 -0.25738436 -0.33222014 -0.32258558
-0.82393265 0.690169 0.06166999 0.37504405 -0.7740856 0.70756483 -0.23930731 0.85145944
-0.29232705 -0.23627105 0.39184996 -0.20625953 0.1576231 -0.13976844 0.17230481 0.0589951
0.96958673 -0.15861149 0.14029126 -0.030367916 2.428435 -0.7043334 -0.07468491 -1.9168433
0.7271504 -0.8866876 0.76419306 -0.7009345 0.47699252 -0.17217019 -0.2896075 -0.23545112
1.0666995 0.19832565 0.30510727 0.42554188 1.0490936 -0.17960517 -0.311606 -0.5688714
0.22768065 -0.8536751 0.53714544 -0.46817943 0.27519697 -0.28500578 -0.6393284 -0.29515776
0.08546011 -0.06545023 -0.63345957 0.22262053 0.111418106 -0.14292464 0.40870216 -0.05041015
0.23043346 -0.49422795 0.7881461 -0.2974516 0.07693178 0.025276205 -0.93525845 -0.21011932
0.57405734 0.21351577 0.09975335 1.0918698 0.041452106 -0.1473038 -0.34046808 -0.04387672
0.10934678 0.21217793 0.6411358 0.67456275 -0.27271172 -0.16374214 -0.68606955 -0.026181243
0.072537266 0.073048204 -0.47934353 0.19639334 -0.05877975 0.023432428 0.445606 -0.09013275
0.18004042 -0.641736 0.3340769 -0.20037402 0.72802955 -0.29281002 -0.064124614 -0.1081832
0.070328236 -0.5084152 0.4649334 -0.1655804 0.44689578 -0.39486367 -0.29281715 -0.2864399
0.008683477 -0.13965113 0.420225 0.02995082 -0.109170586 0.11289442 -0.6025298 -0.4464913
0.15911135 -0.20477098 0.7467345 0.12660997 0.1911341 0.2516629 -1.1110462 0.45763072
0.06232817 -0.13174537 -0.026121177 0.3612267 0.31570855 -0.6195433 -0.024203729 -0.2747022
1.0825579 -0.13843803 0.100392334 0.3441146 0.005774215 -0.31723315 -0.09535413 -0.9262994
-0.24017864 0.08651888 0.4967601 0.23232928 -0.086601876 -0.2867664 -0.026674358 -0.2737842
00000000: 0096 ba3d aa77 52bd 1c05 e93e c5b7 7b3e
00000010: fb67 f5bd 44b9 be3e 8264 7abe 35e8 d53d
00000020: 319e 4f3e 9d71 603e 1b13 a0bf 98ce b73e
00000030: 9e41 ea3e fe45 c6be 70d3 443f 9891 dbbe
00000040: eee0 17bd ba1a 6bbe f764 1a3f c841 1bbf
00000050: 5547 3b3b a339 273e 629e 51bf 6602 133e
00000060: 95b3 61bf eee2 3a3f 9264 84be b341 4e3f
00000070: 8374 44bf 5543 5b3f 591e 673f b8a9 3d3f
00000080: 0241 d23e 78ad 89be 1f39 953e e535 b0be
00000090: f558 763e 5d3d a5be 156e 7cbe 7e2b d4be
000000a0: 6795 ba3e 27e7 18be 8fb5 4d3f beac 42bf
000000b0: 3340 713e d400 29be ba8c fabe 71cb 62be
000000c0: 38a8 03be 07f8 253f 4edd a3be 87e5 913e
000000d0: 16ae f7bd d755 b8bd 1afa 313f 3e3b 0a3e
000000e0: 74b7 08bf 593b e73e f97b d73d d6cf a83e
000000f0: 5de6 9a3e 20b6 4c3e 17ff f33d be2c 61be
00000100: 657b 35bf 5d98 f53e 8538 debe dc7b dbbe
00000110: 6f8a 5abf 25ff 363f 520f e73e e6e9 0a3f
00000120: d573 123f d260 0bbf 7aab 3b3d b9b5 babe
00000130: 1a6a 053f 0a44 10bf ae6f a0be dff8 14bf
00000140: c15f 15be a718 92be a30f a43e 00ce f0be
00000150: 0cbd 3e3e af70 993d 38b2 84be ffa6 e33d
00000160: c711 3ebe eaa2 e7be 6ee8 963e 144f 70bd
00000170: 3891 d83d 2fac be3d 5b3e dfbe b3a6 88be
00000180: 771f 3e3e bbff 5bbd 3158 1c3e 94b2 28bf
00000190: 2183 6d3d 0696 a6be 47c8 01bf dc64 e73c
000001a0: 1610 063f 0837 28bf fb02 c73d 1856 dbbe
000001b0: 363d c63e e2c7 83be c218 aabe f029 a5be
000001c0: 40ed 52bf eaae 303f ac99 7c3d c605 c03e
000001d0: 792a 46bf f822 353f fa0c 75be 3ff9 593f
000001e0: e4ab 95be 0af1 71be 8fa0 c83e b335 53be
000001f0: f367 213e 751f 0fbe ac70 303e d9a4 713d
00000200: d636 783f 0d6b 22be 83a8 0f3e 23c6 f8bc
00000210: 7b6b 1b40 324f 34bf 67f4 98bd 1f5b f5bf
00000220: 8726 3a3f f5fd 62bf 28a2 433f 7270 33bf
00000230: 5d38 f43e 624d 30be 6f47 94be 191a 71be
00000240: 9c89 883f e115 4b3e 0537 9c3e a0e0 d93e
00000250: b348 863f 6bea 37be d28a 9fbe 8ea1 11bf
00000260: 1e25 693e 748a 5abf 5d82 093f 37b5 efbe
00000270: 9ee6 8c3e 47ec 91be 07ab 23bf eb1e 97be
00000280: b605 af3d c50a 86bd 682a 22bf a3f6 633e
00000290: 2d2f e43d d65a 12be 6941 d13e e07a 4ebd
000002a0: c0f6 6b3e 720b fdbe f1c3 493f 934b 98be
000002b0: 698e 9d3d 0b10 cf3c 196d 6fbf 8529 57be
000002c0: 6cf5 123f e1a3 5a3e 7c4b cc3d 64c2 8b3f
000002d0: afc9 293d cfd6 16be d551 aebe 13b8 33bd
000002e0: 34f1 df3d 2c45 593e 7a21 243f 25b0 2c3f
000002f0: dfa0 8bbe 05ac 27be 41a2 2fbf 0c7a d6bc
00000300: 6b8e 943d 4c9a 953d 846c f5be 561b 493e
00000310: 09c3 70bd 5df5 bf3c 7826 e43e 8597 b8bd
00000320: 845c 383e cf48 24bf 210c ab3e d92e 4dbe
00000330: 2560 3a3f 32eb 95be c453 83bd 278f ddbd
00000340: 4008 903d 8027 02bf c00b ee3e e98d 29be
00000350: 86cf e43e 922b cabe 21ec 95be 40a8 92be
00000360: 2445 0e3c b500 0fbe bb27 d73e 6c5b f53c
00000370: d494 dfbd 3135 e73d 653f 1abf 829a e4be
00000380: 16ee 223e 7caf 51be fe29 3f3f 0ba6 013e
00000390: a8b8 433e f6d9 803e c336 8ebf 934e ea3e
000003a0: d34b 7f3d 42e8 06be 14fc d5bc b5f2 b83e
000003b0: 8da4 a13e 649a 1ebf e646 c6bc c4a5 8cbe
000003c0: 4291 8a3f b3c2 0dbe 7f9a cd3d ca2f b03e
000003d0: a035 bd3b 626c a2be 0749 c3bd f521 6dbf
000003e0: 64f1 75be d030 b13d 5757 fe3e bae7 6d3e
000003f0: 535c b1bd 0cd3 92be 2f84 dabc 712d 8cbe

encoder_variable_selection.single_variable_grns.VaccinationFull.gate_norm.glu.fc.bias f4 [32]
-0.26972687 1.1320915 -0.06510119 -0.6128586 -0.17169513 -0.14916171 0.079947785 0.340101
0.2180504 0.610127 -0.059716076 -0.045036707 0.098454975 0.36927724 -0.6226142 -0.01939652
0.3928018 -0.059558813 0.03878587 0.14537153 1.050004 -0.9733478 -0.26391706 -0.55781215
0.839542 0.20930903 -0.3596511 -0.90176624 -0.8412725 0.07118369 -0.25922024 -0.7176513
00000000: a419 8abe 60e8 903f c653 85bd 4de4 1cbf
00000010: d9d0 2fbe d9bd 18be aabb a33d b821 ae3e
00000020: 9b48 5f3e 4831 1c3f d898 74bd 6978 38bd
00000030: c3a2 c93d e811 bd3e a563 1fbf 73e5 9ebc
00000040: 511d c93e f1f3 73bd efdd 1e3d 46dc 143e
00000050: 8866 863f 522d 79bf 2320 87be c7cc 0ebf
00000060: 39ec 563f 1b55 563e 3024 b8be 27da 66bf
00000070: a25d 57bf c1c8 913d 84b8 84be ffb7 37bf

encoder_variable_selection.single_variable_grns.VaccinationFull.gate_norm.add_norm.norm.weight f4 [16]
0.076128006 1.1391531 0.8033441 1.2098824 0.80855733 0.83985585 1.3049432 0.7788238
0.89944476 0.94749874 -0.10931564 0.3427966 0.50061125 1.209334 1.2718506 -0.0033440844
00000000: 00e9 9b3d c5cf 913f f5a7 4d3f 6ddd 9a3f
00000010: 9dfd 4e3f cb00 573f 6108 a73f ff60 473f
00000020: 0342 663f 478f 723f e1e0 dfbd 0983 af3e
00000030: 0f28 003f 75cb 9a3f 00cc a23f 6d28 5bbb

encoder_variable_selection.single_variable_grns.VaccinationFull.gate_norm.add_norm.norm.bias f4 [16]
-0.017507581 0.113646016 0.18601891 0.08725193 -0.049345706 0.07614843 -0.11111624 -0.065767996
0.07356038 0.110499956 -0.12636968 0.33366504 -0.1675314 0.08056899 -0.044094726 0.1406944
00000000: 0f6c 8fbc 3ebf e83d be7b 3e3e 24b1 b23d
00000010: b91e 4abd b5f3 9b3d e990 e3bd 5fb1 86bd
00000020: d3a6 963d cd4d e23d 0e67 01be 25d6 aa3e
00000030: 5a8d 2bbe 5b01 a53d ac9c 34bd 3112 103e

encoder_variable_selection.single_variable_grns.Cases.resample_norm.mask f4 [16]
0.31453538 -0.2900883 -1.9185315 -0.06698935 -0.40974766 0.4693707 0.0051378426 -0.010666967
-0.14049385 0.30214462 0.7414965 -0.11903122 -1.418998 -1.372919 0.23341729 0.10947456
00000000: c80a a13e 7486 94be 7192 f5bf b631 89bd
00000010: 72ca d1be 5b51 f03e 595b a83b 81c4 2ebc
00000020: 9fdd 0fbe b3b2 9a3e b7d2 3d3f a4c6 f3bd
00000030: baa1 b5bf cfbb afbf f104 6f3e 3334 e03d

encoder_variable_selection.single_variable_grns.Cases.resample_norm.norm.weight f4 [16]
1.397209 1.1172425 0.533653 1.2455751 0.8904245 1.5998949 1.6156273 1.4976721
1.3193808 1.5701004 1.7639436 1.3908502 0.096039884 0.100757614 1.6547266 1.3802168
00000000: bfd7 b23f cd01 8f3f 7c9d 083f 016f 9f3f
00000010: dcf2 633f 5bc9 cc3f e0cc ce3f b8b3 bf3f
00000020: 78e1 a83f 0df9 c83f e7c8 e13f 6107 b23f
00000030: 8fb0 c43d 025a ce3d 15ce d33f f2aa b03f

encoder_variable_selection.single_variable_grns.Cases.resample_norm.norm.bias f4 [16]
0.23866118 0.0992186 -0.529374 -0.2921256 0.030555887 -0.23662864 -0.17642054 -0.08957852
-0.15527657 0.13382676 -0.0027176368 -0.09350203 0.15520889 0.066169314 0.18490854 0.25050172
00000000: 9963 743e 1f33 cb3d 0e85 07bf 7d91 95be
00000010: 5750 fa3c c74e 72be 96a7 34be f174 b7bd
00000020: d200 1fbe e209 093e 611a 32bb fe7d bfbd
00000030: 14ef 1e3e c783 873d aa58 3d3e c341 803e

encoder_variable_selection.single_variable_grns.Cases.fc1.weight f4 [8, 8]
-0.033472765 1.5406355 0.19816585 -0.8722696 -0.5711274 0.5300295 -0.23712382 -0.5216218
0.46737713 0.63109815 -0.17516585 -2.6414967 -1.2303132 0.25712976 0.21411306 -0.10974253
1.1355556 0.14947687 0.0047539575 -0.05638678 -0.11707117 0.036141958 -0.79244834 0.7032931
-0.5875252 -0.035996865 0.8175167 0.37098166 0.7269195 0.017565737 0.2573734 0.7195041
-0.31835756 -0.16140887 0.23102185 0.06591434 0.13347785 0.08275915 0.20552455 0.2662945
-0.18079315 0.085689634 0.19868535 -1.3908676 -0.6559051 0.5671958 0.07123679 0.646674
0.3319725 -0.1496368 -0.10317745 1.2493516 -0.8709723 0.37164557 0.18130997 -0.32506144
-0.0621573 -0.56747115 -0.58546954 -0.5705092 0.02458567 -0.276715 -0.81187147 1.5817128
00000000: bd1a 09bd 8b33 c53f fdeb 4a3e 0f4d 5fbf
00000010: 6835 12bf 03b0 073f 96d0 72be 0289 05bf
00000020: 0e4c ef3e a68f 213f ad5e 33be 480e 29c0
00000030: e77a 9dbf 83a6 833e 7440 5b3e b1c0 e0bd
00000040: e359 913f 7710 193e 16c7 9b3b d3f5 66bd
00000050: 02c3 efbd 9709 143d e5dd 4abf 040b 343f
00000060: 0d68 16bf 7371 13bd c648 513f 4ff1 bd3e
00000070: 6517 3a3f 05e6 8f3c 72c6 833e 6c31 383f
00000080: c3ff a2be 5e48 25be fe90 6c3e 19fe 863d
00000090: 6bae 083e a17d a93d 0775 523e c157 883e
000000a0: d721 39be 0c7e af3d 2c74 4b3e f307 b2bf
000000b0: 66e9 27bf be33 113f 98e4 913d 6d8c 253f
000000c0: 4df8 a93e 643a 19be b34e d3bd c1ea 9f3f
000000d0: 0af8 5ebf 5448 be3e 52a9 393e 746e a6be
000000e0: a798 7ebd ca45 11bf 55e1 15bf e40c 12bf
000000f0: e367 c93c 97ad 8dbe cfd6 4fbf 9175 ca3f

encoder_variable_selection.single_variable_grns.Cases.fc1.bias f4 [8]
-0.34206364 -0.30437934 -0.011836534 -0.27187374 -0.1806316 -0.12404084 -0.2608855 -0.023956038
00000000: f722 afbe 9cd7 9bbe 06ee 41bc 0933 8bbe
00000010: 7df7 38be 2009 febd c992 85be 743f c4bc

encoder_variable_selection.single_variable_grns.Cases.fc2.weight f4 [8, 8]
-0.21248795 0.8271006 -0.2970103 -0.053747028 0.14234498 -0.29885772 0.58922815 -0.21502712
-0.30293405 0.06794986 0.20496203 -0.25145507 0.39097464 0.11340321 -0.2544085 -0.9348845
0.07433965 -0.3485167 -0.6996672 -0.012639812 0.449868 -0.030292626 -0.22675289 1.0208466
-0.4060469 -0.9772452 -0.4449675 -0.6659407 0.23601149 -0.96557987 -0.40618402 -0.1239808
0.5881328 0.7317278 0.2075194 0.14724797 0.16608271 -0.1617017 0.18924798 0.6926032
0.44950184 0.20196591 0.8327168 0.33720228 -0.049548555 0.0949732 0.18541646 0.29488894
-0.87364346 -0.86494213 -0.46574816 0.6341422 -0.12280754 -0.5464723 0.33172524 -0.19276172
0.3925427 0.75239164 0.03122346 -0.02362472 0.018583613 -0.04211409 -0.3225359 0.16663751
00000000: 7196 59be ddbc 533f bc11 98be d825 5cbd
00000010: e2c2 113e e103 99be a8d7 163f 1230 5cbe
00000020: 2c1a 9bbe 4c29 8b3d 91e1 513e b8be 80be
00000030: d42d c83e f13f e83d d541 82be 9754 6fbf
00000040: 633f 983d c870 b2be 641d 33bf 3717 4fbc
00000050: 1955 e63e 3e28 f8bc e931 68be 1aab 823f
00000060: 61e5 cfbe be2c 7abf c8d2 e3be 177b 2abf
00000070: ffac 713e 3e30 77bf 5af7 cfbe a5e9 fdbd
00000080: df8f 163f 8352 3b3f f77f 543e 2cc8 163e
00000090: 9611 2a3e 2195 25be 39ca 413e 714e 313f
000000a0: 1b25 e63e 27d0 4e3e ee2c 553f c7a5 ac3e
000000b0: 6df3 4abd 4f81 c23d d0dd 3d3e affb 963e
000000c0: 19a7 5fbf d96c 5dbf 8b76 eebe 2557 223f
000000d0: 8582 fbbd 9ce5 0bbf e4d7 a93e 5463 45be
000000e0: 5bfb c83e bd9c 403f 57c8 ff3c a188 c1bc
000000f0: a93c 983c d37f 2cbd 6d23 a5be 06a3 2a3e

encoder_variable_selection.single_variable_grns.Cases.fc2.bias f4 [8]
0.03383789 0.20029981 -0.13733873 0.23644722 -0.014249121 0.11638247 0.16698489 -0.007944712
00000000: 9999 0a3d 651b 4d3e 86a2 0cbe 381f 723e
00000010: 2575 69bc ef59 ee3d 16fe 2a3e 8a2a 02bc
