race-groups/results/Black/checkpoints/best-epoch=2.ckpt (torch, 735725 bytes, 506 tensors)

prescalers.Black.weight f4 [8, 1]
00000000: c5c3 02bf d5de 92bf 9403 8c3f 2f70 423f
00000010: 09a5 b5be d5f0 2ebf f40b 6bbf 768a 1a3f
-0.5107997 -1.1474253 1.0938592 0.7595243 -0.35477474 -0.6833623 -0.91815114 0.60367525

prescalers.Black.bias f4 [8]
00000000: 5942 b1bc 920c 0c3f 1efc f83e eb69 a1bd
00000010: 04bb 00bd fed1 18bf 930b 6fbb 13b8 3d3d
-0.021638082 0.5470668 0.4862985 -0.078815304 -0.031428352 -0.5969542 -0.0036475405 0.046318125

prescalers.SinWeekly.weight f4 [8, 1]
00000000: c518 113d 50b4 99bf cf1a 843f 6b07 78bf
00000010: 3219 103f 2292 3abe de8a 503f a358 fa3e
0.035424013 -1.2008152 1.0320681 -0.9688632 0.56288445 -0.18219808 0.81461895 0.4889575

prescalers.SinWeekly.bias f4 [8]
00000000: 247d 213e 3690 14bc 652f 3e3f f09f bd3e
00000010: 6721 203f 3dae 31bf a46d 433f ff08 a93e
0.15770394 -0.009067586 0.7429107 0.37036085 0.6255097 -0.6940649 0.76339173 0.33014676

prescalers.VaccinationFull.weight f4 [8, 1]
00000000: 9908 793e dd91 07be 43d7 283f aeb9 4c3f
00000010: 7da8 d8be 9913 1fbf a45d d73b 819d 2bbf
0.24319686 -0.13239236 0.65953463 0.79970825 -0.42316046 -0.6213928 0.006572442 -0.67037207

prescalers.VaccinationFull.bias f4 [8]
00000000: 68af 333f 5e9c b1be ddc0 11be c2cb 8b3f
00000010: 0838 343f da47 0c3c 60d3 d6be 8a48 d03d
0.70189524 -0.3468961 -0.14233728 1.0921557 0.70397997 0.008562053 -0.4195814 0.10170086

prescalers.Cases.weight f4 [8, 1]
00000000: 4ca7 f83e 92b3 92bf 3d53 43bf f67f 283f
00000010: 3466 b13f 1eba b53d 8e2d 20bf 6765 c13e
0.48565137 -1.146105 -0.76298887 0.6582025 1.3859315 0.0887339 -0.6256951 0.37772676

prescalers.Cases.bias f4 [8]
00000000: ee33 1fbf beeb 05be be21 1c3f d02f c63e
00000010: 0572 1fbd 43b5 0e3d 9423 893e 40b6 74bf
-0.62188613 -0.1307821 0.60988986 0.38708353 -0.038927097 0.034840833 0.26784956 -0.9559059

static_variable_selection.single_variable_grns.Black.resample_norm.mask f4 [16]
00000000: 0614 a1be 2bb6 c9be 5c6b 243e f5b9 0bbd
00000010: 7de7 b13d dc05 4a3e fcb7 20be 08be f33e
00000020: 73b9 2abf 9370 91be 4bf6 afbe 698d 043f
00000030: f655 a13d 4aac 753e 4768 9dbc c9f4 623d
-0.3146059 -0.39396796 0.1605658 -0.03411289 0.08686731 0.19728798 -0.15695184 0.4760592
-0.66689223 -0.284062 -0.34367594 0.51778275 0.07877724 0.23991504 -0.019214762 0.055409227

static_variable_selection.single_variable_grns.Black.resample_norm.norm.weight f4 [16]
00000000: e077 ff3e 42dd 4d3f 98bb a33f 625b 943f
00000010: 6113 953f 8a12 9c3f 3bdb 573f b902 cb3f
00000020: e020 1f3f 31a3 533f 1ce2 3c3f 9633 ce3f
00000030: 1074 993f b500 9c3f 6e0f 223f fefc 913f
0.49896145 0.8041574 1.2791624 1.1590388 1.1646539 1.2193158 0.84318894 1.5860206
0.6215954 0.82670885 0.73782516 1.6109493 1.1988544 1.2187716 0.63304794 1.1405332

static_variable_selection.single_variable_grns.Black.resample_norm.norm.bias f4 [16]
00000000: 99f4 373e 01e3 a3bd 5a9c 2bbd 82ef 8a3e
00000010: db18 f7b9 1e0f 1d3c 2cc3 383e 8fbf 80be
00000020: 3c33 3f3e 7b7c dc3d 4994 943d b102 00bf
00000030: 0884 0fbe b814 84ba 050f 683e 5bef 813e
0.179644 -0.08002282 -0.041897155 0.27135855 -0.0004713003 0.009586124 0.18043202 -0.25146148
0.18671888 0.1076593 0.07254846 -0.50004107 -0.1401521 -0.0010076975 0.2266198 0.25377926

static_variable_selection.single_variable_grns.Black.fc1.weight f4 [8, 8]
00000000: 9443 333e b3f5 6cbf 16aa 8fbe 71b5 6cbd
00000010: 64ab 07bf d7b6 c1bf cd85 0dbe d3ed fdbd
00000020: 3ffa 3dbf 199a 73bf 8fb6 d2bd 74af 433f
00000030: e6e5 b6be c719 fbbe ac88 023f e993 e53d
00000040: b243 473d 2d92 753d e9d3 7e3f 4647 953e
00000050: 8738 a2be 10a0 d7be 9df9 86be 8377 d33d
00000060: 8aa5 e4be 53ec 163e f550 3dbe 3f61 2fbf
00000070: 09ae 97bd 8ab9 353e 2911 2b3e 2e39 aa3e
00000080: 2655 11bf 5039 313f 9b73 e5bd 750b 16bf
00000090: 68bb abbe 75b7 553f 7a6a 2b3f 6ae9 5cbe
000000a0: 76e6 723e bb8a dc3c e61c 99be d1a6 dabd
000000b0: b9ff f73e 1303 bdbe 46a0 843e 3dc2 c5be
000000c0: b0cd c8bd 1312 f0be 4ed0 93be e633 9bbd
000000d0: 6bcc ae3e 1617 a13f 6296 253f 2a16 e1be
000000e0: e012 4fbf d9cb 34bf 9a07 1c3d a5eb 303f
000000f0: 4930 17be 85d9 08bf 67bd 5c3d 90e8 943e
0.17506248 -0.9256241 -0.28059453 -0.057790224 -0.52995896 -1.5133923 -0.13820572 -0.12398877
-0.7420997 -0.9515701 -0.102887265 0.76439595 -0.35722274 -0.49043104 0.50989795 0.11209852
0.048648544 0.059953857 0.995421 0.2915594 -0.31683752 -0.42114305 -0.26362315 0.103255294
-0.44657546 0.14738588 -0.18487914 -0.6850776 -0.074062414 0.17746559 0.16705765 0.3324675
-0.5677055 0.69228077 -0.112036906 -0.5861123 -0.33541417 0.8348306 0.66959345 -0.21573415
0.23720726 0.02692162 -0.2990486 -0.10676349 0.48437288 -0.36916408 0.2590353 -0.38624755
-0.09804857 -0.4688879 -0.2886986 -0.07578258 0.34140334 1.258517 0.6468259 -0.43962222
-0.80888176 -0.70623547 0.038093187 0.69109565 -0.14764513 -0.5345691 0.053891566 0.2908368

static_variable_selection.single_variable_grns.Black.fc1.bias f4 [8]
00000000: da10 10be ee96 bc3d a635 0c3b 3930 de3d
00000010: 7f6e 3d3e 1814 823c 9ac3 423e c815 ee3c
-0.14068928 0.09208475 0.0021394282 0.108490415 0.18499182 0.015878722 0.19019929 0.02906312

static_variable_selection.single_variable_grns.Black.fc2.weight f4 [8, 8]
00000000: 7b74 763e 2338 243f 294e df3e f03f 16be
00000010: 8c54 c53d 3697 b5be d7cb 003f f9a8 913f
00000020: 577f b9be f092 fabe 342d 553e a36c 253d
00000030: f8e2 a23e 0dbb 2abd 7f54 ca3e 1be1 93bc
00000040: 88c7 6dbe dbb7 0d3e 9940 7ebe 97d8 193e
00000050: 5bb2 913e b5e1 99be b8b1 bdbd 4e06 f53e
00000060: 57b9 493f 8c8a ecbd 21b0 1c3f 595e 87bd
00000070: a9a0 c3be d84b 84be adda fa3e 881f 07bf
00000080: 2d1c a63e d0a1 8cbe 8466 503e e6a3 323e
00000090: 43b7 373f 0d1f 613e a360 0c3f 5f67 0c3d
000000a0: 6fc7 7fbd 7d9b a9be 4d34 23bf 84fd 223d
000000b0: f79d f23e 24ae bc3d 5437 27bf e947 c2bd
000000c0: 0327 74bf 73be 05bf abd6 42be a158 3b3e
000000d0: 8ae8 e53e 9a4f 093f 6dff c6be 298c 44bf
000000e0: 72aa 373e 2dff 053f 5836 3fbf 78a8 a4be
000000f0: 2a3d b03e 0c5a f83d 1e79 c33e 6147 17bf
0.24067871 0.6414816 0.4361432 -0.14672828 0.09635267 -0.35466927 0.50311035 1.1379691
-0.36229965 -0.4894023 0.20818025 0.040386807 0.31813788 -0.04168229 0.3951759 -0.018051675
-0.23220646 0.13839667 -0.2482933 0.15024029 0.28456387 -0.30055013 -0.09262413 0.47856373
0.7879843 -0.11549863 0.6120625 -0.06609792 -0.3820851 -0.25839114 0.4899496 -0.5278249
0.3244337 -0.27467203 0.20351607 0.17445335 0.7176401 0.21984501 0.54834956 0.03427827
-0.062446054 -0.3312644 -0.6375168 0.039792553 0.47386143 0.09212902 -0.653188 -0.09486372
-0.9537203 -0.5224373 -0.19027202 0.18295528 0.44903976 0.5363709 -0.3886675 -0.7677637
0.17936113 0.5234249 -0.74692297 -0.3215978 0.34421664 0.1212655 0.38178343 -0.5909329

static_variable_selection.single_variable_grns.Black.fc2.bias f4 [8]
00000000: b000 7a3e 7394 a63d d642 36be 4a3a 4b3c
00000010: b30b f93d 605b f0bc 064c c93d e20a 00be
0.24414325 0.08133783 -0.17798933 0.012404034 0.121604346 -0.029340446 0.098289534 -0.12504151

static_variable_selection.single_variable_grns.Black.gate_norm.glu.fc.weight f4 [32, 8]
00000000: 7342 d2bd 477a 6c3e cc79 10be 91d4 61be
00000010: 7fce 3f3f e35c 89be 0f15 14bd 3b41 153e
00000020: 5809 11be 475b 123e 96aa ae3d 6b48 bf3d
00000030: 6701 36be 6fa1 983e b13f 26be 524c 643e
00000040: 9bdd d0bc f9ab ab3e b55c 03be be0d 7fbe
00000050: 1273 f93d 4c44 f33d f655 a23e 8e90 433e
00000060: 051c 06be a31d c8be 9c91 67bb f55d d1bc
00000070: 4426 e3bd 2487 cdbe bcd9 3bbf d0aa b33d
00000080: 98b5 a9bd e372 37be 1c59 8b3e fe91 0cbf
00000090: 5c41 293e 1469 b1bd 582e 43be d253 c43d
000000a0: 52d4 f03e c679 87be fd33 1cbe 8c1d 673e
000000b0: 6ef0 0fbd 3aae 4dbe 77ed 0a3e 816c 243e
000000c0: 174f aabe af0a cf3e 2966 76be 7466 afbd
000000d0: d73e 193c eff3 943e f2b3 2a3f aaaa b03e
000000e0: df03 473f cf34 973c ef5f 043e 26fc a43e
000000f0: 82e4 6abc 2888 e0be adf0 a7be 7c8a 51be
00000100: b402 a9be eb69 eebe c919 9f3e b19c 2a3e
00000110: a2be 8cbd 1859 3638 6fa6 6c3e a695 cd3d
00000120: 95ca 583e a953 eb3d ac8d dabe 3c77 35be
00000130: 2ef7 5a3e 105e cd3e e40b 2b3e d6c2 01bd
00000140: 23ed 3cbf c615 053f 1d92 a4be d2bd 08bf
00000150: ca2e d7bd d383 143f 01ba 633f 5e8d db3e
00000160: b0c1 b23e 24ac 09be 8809 983e b544 67bc
00000170: 478b 783e 1ce0 cdbe e4f8 95bd a9af c13e
00000180: e179 bcbe 3de1 393f 4a49 683d f6ad e33d
00000190: 4081 143e 5414 163e 7de9 a43e 388d fc3e
000001a0: 6573 b5be f753 693d 72c8 0dbe 5710 943e
000001b0: dd7f 3dbe ad64 6abe 4fde 863e 922d 3ebe
000001c0: 34ec 02bf b046 0d3f fa98 e0be ccec 74be
000001d0: e9bc f63c 4069 e23e 88e6 253f 3dcd 563e
000001e0: 0e0d bdbc 10ff 62be f5c0 29be 07f6 fd3e
000001f0: 3bc9 4b3e be30 a43d 42bb 0fbe 7a11 0bbf
00000200: a331 9bbe 3251 00bd 7a2b 553f 9ad3 b93e
00000210: 0e1f 4bbe 5ec4 27be 940a 9abe 88b9 84bd
00000220: f0e2 403e 8483 1bbf 7eae 2fbf 1ac6 36be
00000230: d625 5d3e 1f26 70be 9f57 5ebe 77f0 a0be
00000240: db4a a23e e403 7abd 3f53 87be c466 90bd
00000250: a00a 573d 4bbf b03e da1d 6b3d 8499 1a3f
00000260: 1320 8f3d 244a 61bd 4c5d 38be c196 173c
00000270: a3d0 02bf 502a 62bd e4f5 31bf e520 293f
00000280: a750 523e 5fd8 adbe 836c 1d3e 4d68 70bd
00000290: bf4c 2b3d 7a78 95be 6e84 13bd ab62 1f3e
000002a0: 352e 85bd 1e6c 133d 0794 3c3e ec84 76bd
000002b0: d731 c83e 7483 733e 3322 dabd b167 233f
000002c0: 8b5f 5d3e 5134 1d3d e187 a1be 260e 55bd
000002d0: 48c2 29bf ad00 1abf d07c c3be f18e 17be
000002e0: 0e5a 863e 9e22 49bd 3914 903e d760 f43e
000002f0: 1638 afbe fa00 8abd ec0d 78be 3944 c4be
00000300: 5db8 a53a f63b 003e b65c e3bd 6af8 2dbc
00000310: abe4 6d3e aeab 033e 3882 06bf 0fc4 983e
00000320: 12ee c6be a131 003e 01ee d8bc e0ae d9be
00000330: 0d73 333e 7151 9bbe 4faf 913d 2aac 183f
00000340: c8a8 de3e 8c1e b2be d41d 143f af7b 603e
00000350: 1da6 6cbf bd2b 04bf 3e63 69be 3dfb 42be
00000360: 3caf afbe df16 5c3d 216d 2abe 6da8 833e
00000370: 5dec f7be d75b f13e ce4e adbe 4455 8abe
00000380: 8691 a9be 06f6 75bd 18f6 093d 78ed f5be
00000390: 230e 923e a4b9 8f3d 4c8b b9bd 452a 3b3f
000003a0: 94eb a43d b599 02bf 9238 cf3d 7d87 a8bd
000003b0: 8673 d2be 1a6e e0ba 8e5a 5d3d 3e9e f43c
000003c0: b0d4 593f 3512 d43e a2a9 db3b cab3 e5be
000003d0: c407 d33e 2205 a8be b235 9d3e 916e 8e3e
000003e0: 86f5 a63e 8a6c b6be 17e0 0cbd 9f30 6ebe
000003f0: 7361 3dbe 0d1f 1ebf 1c37 06bf 4c9e 9a3e
-0.102665804 0.2309352 -0.14108962 -0.22053744 0.74924463 -0.2682868 -0.036152896 0.14575665
-0.1416372 0.14292632 0.085286304 0.093399845 -0.17773972 0.29810664 -0.16235234 0.22294739
-0.025496295 0.33529642 -0.12828334 -0.24907586 0.12180151 0.11878261 0.31706208 0.19098112
-0.13096626 -0.3908511 -0.0035334593 -0.025557498 -0.11091283 -0.40142167 -0.7337911 0.08772814
-0.082865894 -0.1791492 0.27216423 -0.54910266 0.16528839 -0.0866262 -0.19060647 0.095863
0.47036988 -0.26460093 -0.15254207 0.22569865 -0.0351414 -0.20085993 0.13567148 0.16057016
-0.33263466 0.40437838 -0.24062409 -0.08564463 0.009353361 0.29092357 0.66680825 0.34505206
0.7774028 0.018457798 0.12927221 0.32223624 -0.014336707 -0.4385388 -0.3280081 -0.20462984
-0.33009875 -0.46565184 0.3107436 0.16661336 -0.06872298 4.3475156e-05 0.23110364 0.10038309
0.21171029 0.11490566 -0.42686212 -0.17721266 0.21383354 0.40110826 0.16703755 -0.03167995
-0.7379934 0.5198635 -0.32142726 -0.5341464 -0.10506971 0.5801365 0.88955694 0.42881292
0.34913397 -0.13444573 0.29694772 -0.014115502 0.2427188 -0.40210044 -0.07322863 0.3782933
-0.36811736 0.7260931 0.05671052 0.11117165 0.1450243 0.14656192 0.32209387 0.4932649
-0.35439602 0.05696484 -0.13845995 0.28918716 -0.18505807 -0.22889967 0.26341483 -0.18572071
-0.5114167 0.55185986 -0.43866712 -0.23918456 0.030119376 0.44220924 0.6480489 0.2097673
-0.023077514 -0.22167611 -0.16577514 0.49601766 0.19900982 0.08017109 -0.14036277 -0.5432354
-0.30311307 -0.031327434 0.83269465 0.36294252 -0.19836065 -0.16383502 -0.30086195 -0.064807
0.1883657 -0.6074755 -0.6862563 -0.17849007 0.21596465 -0.23452042 -0.21713112 -0.3143346
0.31697735 -0.061038867 -0.264307 -0.07050851 0.052500367 0.34520945 0.057401516 0.60390496
0.069885395 -0.055002347 -0.1800434 0.009252251 -0.51099604 -0.055216134 -0.69515824 0.6606582
0.20538579 -0.3395414 0.15373425 -0.05869322 0.041821238 -0.2919348 -0.036014967 0.15564983
-0.06502954 0.03599178 0.18415843 -0.060185358 0.39100525 0.23780614 -0.10651054 0.63830096
0.21618478 0.03837997 -0.3154898 -0.052015446 -0.66312075 -0.6015728 -0.38181162 -0.14800622
0.2624058 -0.04910528 0.2814043 0.47730133 -0.34222478 -0.067384675 -0.24224061 -0.383333
0.0012643446 0.12522873 -0.111016676 -0.010618309 0.23231761 0.1285846 -0.5254245 0.2983708
-0.38853508 0.12518932 -0.026480677 -0.42516232 0.17524357 -0.30335572 0.071135156 0.596377
0.43488145 -0.3478893 0.57858014 0.21922182 -0.9244097 -0.5162924 -0.22791764 -0.19041152
-0.3431338 0.05373275 -0.16643192 0.25714436 -0.48422518 0.4714038 -0.33849186 -0.27018178
-0.33118838 -0.06004908 0.03368196 -0.48032737 0.2852641 0.0701783 -0.09059772 0.73111373
0.080527455 -0.5101579 0.10118212 -0.08228967 -0.41103762 -0.0017122657 0.054041438 0.029860612
0.8509016 0.4142014 0.0067035714 -0.4486373 0.41216862 -0.32816416 0.3070503 0.2781873
0.32609195 -0.35629684 -0.034393396 -0.23260735 -0.18494205 -0.6176613 -0.5242784 0.30198896

static_variable_selection.single_variable_grns.Black.gate_norm.glu.fc.bias f4 [32]
00000000: 2458 1b3e 2268 0dbe 2c5a 833d 21a2 423e
00000010: c6eb 153d c364 8e3d 60d7 113e c8e3 29be
00000020: 5129 ee3d c89a 233e 48c6 d93d c279 c6be
00000030: 91eb 55bd ee6a 6c3c 10c2 053e 62ae a03e
00000040: afaf aabe 0922 2fbe c811 4fbe 7aaf 6abe
00000050: 0b27 a2be bf14 cbbe 844b 04be 39ef e23d
00000060: 6cf7 12bf 2062 8ebe aaff f8be ce04 c53d
00000070: b25d 28be ab82 a8be 10c3 23be bbe4 f2bd
0.15170342 -0.13809255 0.06413683 0.1900716 0.036601804 0.069528125 0.14242315 -0.16590798
0.11628974 0.15977013 0.10633522 -0.3876477 -0.052226607 0.014429791 0.1306231 0.31383044
-0.3333716 -0.17102827 -0.20221627 -0.22918501 -0.31670412 -0.39664266 -0.12919432 0.11080784
-0.57408786 -0.27809238 -0.48632556 0.09620057 -0.16441992 -0.32912192 -0.15992379 -0.11860033

static_variable_selection.single_variable_grns.Black.gate_norm.add_norm.norm.weight f4 [16]
00000000: 8de3 133e d4f3 a63e 4ec8 943f ced7 a53f
00000010: 2831 893f e804 8a3f b661 173f 0e8d b63f
00000020: ea3c 4d3e 1e1e 893e 7d66 aa3f 24e0 cc3f
00000030: 4652 8f3f f4f1 7e3f 9253 443f af7b 863f
0.14442272 0.326079 1.1623628 1.2956483 1.0718126 1.0782747 0.5913347 1.4261796
0.20042768 0.2678079 1.3312527 1.6005902 1.1196983 0.9958794 0.7669002 1.0506495

static_variable_selection.single_variable_grns.Black.gate_norm.add_norm.norm.bias f4 [16]
00000000: da5c bf3d a2f7 a4bd 7e3e c33c aa68 ee3e
00000010: f8c1 f63d bbd8 b63d 7df8 263d 088b 33bd
00000020: 196d c4ba ea11 d1bd 4a13 8dbe ee16 08bf
00000030: acb7 8ebd d270 99bd 609e bcbd daba ba3e
0.09343882 -0.08055045 0.02383351 0.46564227 0.12048715 0.08928057 0.04076432 -0.043833762
-0.0014986127 -0.10208495 -0.2755378 -0.5315999 -0.069686264 -0.07492222 -0.09209895 0.3647068

static_variable_selection.prescalers.Black.weight f4 [8, 1]
00000000: c5c3 02bf d5de 92bf 9403 8c3f 2f70 423f
00000010: 09a5 b5be d5f0 2ebf f40b 6bbf 768a 1a3f
-0.5107997 -1.1474253 1.0938592 0.7595243 -0.35477474 -0.6833623 -0.91815114 0.60367525

static_variable_selection.prescalers.Black.bias f4 [8]
00000000: 5942 b1bc 920c 0c3f 1efc f83e eb69 a1bd
00000010: 04bb 00bd fed1 18bf 930b 6fbb 13b8 3d3d
-0.021638082 0.5470668 0.4862985 -0.078815304 -0.031428352 -0.5969542 -0.0036475405 0.046318125

encoder_variable_selection.flattened_grn.resample_norm.mask f4 [3]
00000000: 45ce 25bf b430 dabc 9421 d83e
-0.6476787 -0.026634552 0.42213118

encoder_variable_selection.flattened_grn.resample_norm.norm.weight f4 [3]
00000000: d334 7f3f 09bc 823f 6edd 0040
0.9968998 1.0213634 2.013515

encoder_variable_selection.flattened_grn.resample_norm.norm.bias f4 [3]
00000000: 5b6d 6a3e 1707 dd3d bd79 09bf
0.22893278 0.10792368 -0.5370138

encoder_variable_selection.flattened_grn.fc1.weight f4 [3, 24]
00000000: 3c6a 3d3f 7def 00bf 925f d13e a1e7 89be
00000010: 8b4d 8b3e c988 8b3d cdd7 fc3c 24dd 473d
00000020: f9b3 0abf 81eb 703e 7c5b 8d3d f2ec a7bf
00000030: 2258 94bc fc4d db3d b653 b13d a602 203e
00000040: a167 1f3f 77b7 51bf 3450 2d3e 7b76 9a3d
00000050: d052 623e 2a92 1bbe 2d3f 793c f559 d13e
00000060: 6815 41bd 4900 803e 5876 18bf 869b 93be
00000070: 7611 12be ec9e c63e 9efe 51be 1fb2 ad3e
00000080: 7f4a 27bf 1371 e63e 94e6 06bf 95cb 46bf
00000090: bc60 3cbe 9a7b de3b 894f b83e f9d5 673e
000000a0: 784e e6bd 3df1 983e 4412 95be 3b8d f8be
000000b0: 071e 9bbe 9b20 b13d feab 513e a86b 0e3c
000000c0: 2b7d f63e e7b4 34bf cc61 bd3d 2977 83be
000000d0: f5b6 143f d06f b93e 24c8 ff3d 6a23 183f
000000e0: 8ed0 afbe 21e5 453e d670 b63d 28d8 a63e
000000f0: 8528 3d3e e156 083d f2d8 493e df09 8c3e
00000100: f0f2 993e 294c da3d b83c 66be c6d0 1d3e
00000110: 0ed0 003d 1ffb c93a 7be8 20bf 978e e73d
0.73990226 -0.5036543 0.40893227 -0.2693453 0.27207598 0.06813199 0.03086462 0.04879488
-0.54180866 0.23527338 0.06902215 -1.3119185 -0.018108431 0.10708234 0.08658545 0.1562601
0.622675 -0.8192057 0.16925126 0.075421296 0.22101903 -0.15192476 0.015212816 0.40888944
-0.047139555 0.25000218 -0.5955558 -0.28829592 -0.14264473 0.38793123 -0.20507285 0.33924958
-0.65348047 0.45008144 -0.52695584 -0.7765439 -0.18396276 0.006789637 0.3599818 0.22640218
-0.112454355 0.2987155 -0.29115498 -0.4854525 -0.30296347 0.08648797 0.20475766 0.008692659
0.4814237 -0.70588535 0.09247169 -0.2567685 0.5809167 0.3621812 0.12489346 0.5942904
-0.34338802 0.19325687 0.089082405 0.3258679 0.18472488 0.03328598 0.19711664 0.2735128
0.3006816 0.10659058 -0.224841 0.15411672 0.031448416 0.0015409923 -0.6285474 0.11306494

encoder_variable_selection.flattened_grn.fc1.bias f4 [3]
00000000: 9d7c 15be 7acf c4be 2bbe 83bd
-0.14598317 -0.38439542 -0.06432756

encoder_variable_selection.flattened_grn.context.weight f4 [3, 16]
00000000: 63e7 12be 778b febd 6ea1 01bf 0cad babc
00000010: f306 773d aeff fabd 2fbc 97bd 46e3 ae3d
00000020: 70fb 0fbe 8d6c e5bd 9986 88bd 7c89 6d3c
00000030: 1023 bdbd cbf8 89bd 9173 17be adda 01be
00000040: 8d31 033f f120 9ebe b822 9c3d 08eb 11bf
00000050: b395 82be ab3b 423f 8fde 883d 39aa 01be
00000060: fd32 5cbe 8fe1 1fbc 5b18 febe 1f5d 1a3e
00000070: 5392 b7bc 89a2 4fbe 8bef a3be a7ee 0e3d
00000080: d166 633e 7038 20bd c6b1 6f3e cdb4 fd3c
00000090: a3d8 bbbe d19c ce3e 4a7f 68bc 8547 b13c
000000a0: e400 11bd da4b a8bb e959 a23d ced6 52bd
000000b0: 97b4 0ebd 9ca6 bb3c 3d77 a83d 5dfa 37bb
-0.1434608 -0.124289446 -0.5063695 -0.022787593 0.06030936 -0.12255798 -0.0740894 0.08539443
-0.1406076 -0.11202345 -0.066662975 0.014498111 -0.09235203 -0.067369066 -0.14790179 -0.12681074
0.51247483 -0.30884507 0.076238096 -0.56999254 -0.25504836 0.75872296 0.06683075 -0.12662591
-0.21503825 -0.009758367 -0.49627957 0.15074585 -0.02240864 -0.20276846 -0.32018694 0.034895565
0.2220719 -0.039116323 0.23407659 0.030970002 -0.36688718 0.40354016 -0.014190504 0.021640548
-0.03540124 -0.0051359953 0.07927305 -0.051474385 -0.034840193 0.022906594 0.08225868 -0.0028072812

encoder_variable_selection.flattened_grn.fc2.weight f4 [3, 3]
00000000: ca65 2dbf 1752 a2bf 36a8 b3bc c56f 83be
00000010: a67d 57bf e497 9fbe 1a32 91be 838b 5ebf
00000020: 8448 e9bd
-0.6773344 -1.2681302 -0.021930795 -0.2567121 -0.841761 -0.3117057 -0.28358537 -0.8693163
-0.113907844

encoder_variable_selection.flattened_grn.fc2.bias f4 [3]
00000000: 63b7 3b3e 7d1e 74be 0fe5 f3bd
0.18331675 -0.23839755 -0.11908924

encoder_variable_selection.flattened_grn.gate_norm.glu.fc.weight f4 [6, 3]
00000000: 1aab 593e 4c48 96bd ea39 113f 067c f43c
00000010: 440b fbbe 2ac7 993e 6a89 06bf f888 15bf
00000020: 2b49 00be 23ef cebe 1fec ebbe 5572 373f
00000030: deca 273f 7fff 28be 3212 c6bd 2b2f 7a3f
00000040: d088 be3e dbcd 413f
0.21256676 -0.07338008 0.56728995 0.029844295 -0.49032032 0.30034763 -0.5255343 -0.5841212
-0.12527911 -0.40416822 -0.46078584 0.7165883 0.65543926 -0.16503714 -0.09671439 0.9772822
0.37213755 0.75704736

encoder_variable_selection.flattened_grn.gate_norm.glu.fc.bias f4 [6]
00000000: e143 553e 910e 263e fe0b 1cbf d595 c8be
00000010: bf72 babe 7874 b73e
0.20826675 0.16216494 -0.609558 -0.39176813 -0.3641567 0.35831046

encoder_variable_selection.flattened_grn.gate_norm.add_norm.norm.weight f4 [3]
00000000: ae6c 9e3e 9213 813e 3f9a aa3e
0.3094229 0.25210243 0.33320805

encoder_variable_selection.flattened_grn.gate_norm.add_norm.norm.bias f4 [3]
00000000: 9b0d db3d 9563 e1be fca6 133f
0.106959544 -0.44021288 0.5767667

encoder_variable_selection.single_variable_grns.SinWeekly.resample_norm.mask f4 [16]
00000000: a268 a2bd 03b2 65be ca4c dc3e 3e0a 973e
00000010: 201c 33bf 765d 3abd 3aa9 6fbe a44e 98be
00000020: b14a 09bf 13d5 11be ca01 23be a518 0cbe
00000030: c091 343d ccdb ad3e a754 083f d59c c53d
-0.079301134 -0.22431187 0.43027335 0.29500002 -0.6996479 -0.045499288 -0.23404399 -0.29747498
-0.53629595 -0.14241438 -0.15918651 -0.13681276 0.04408431 0.33956754 0.5325417 0.09649054

encoder_variable_selection.single_variable_grns.SinWeekly.resample_norm.norm.weight f4 [16]
00000000: cd5c 793f bba9 c03e e24b c43f 6562 9c3f
00000010: 65a2 033f 7c62 833f 162c 3d3f 42b5 463f
00000020: a9db e03e 57fd 1f3f a501 8d3f 5cf6 973f
00000030: 9a14 853f 1d3f b13f 2d68 f83f ce55 603f
0.9740723 0.37629494 1.5335658 1.2217528 0.5141967 1.026443 0.73895395 0.7762033
0.43917587 0.6249594 1.1016127 1.1872058 1.0396912 1.3847386 1.9406792 0.8763093

encoder_variable_selection.single_variable_grns.SinWeekly.resample_norm.norm.bias f4 [16]
00000000: f644 dc3d d1ee d33d ba87 47be 8980 2f3e
00000010: c3e5 43be 16a0 ab3d ac20 55be 4b2a 35be
00000020: b9bc f8bc a72e 2b3d 4b32 89bc be00 0b3e
00000030: eda5 3bbe 37d6 b63d 4820 f4bd aa65 263e
0.10755341 0.10348285 -0.1948537 0.17138876 -0.19130616 0.08380143 -0.20813245 -0.17691915
-0.030363427 0.041792538 -0.016747614 0.13574502 -0.18325014 0.08927577 -0.1192022 0.1624972

encoder_variable_selection.single_variable_grns.SinWeekly.fc1.weight f4 [8, 8]
00000000: 3c06 7a3f 4656 e2bf 35ad 30bf b01f 00c0
00000010: aa04 69be 7cc1 d3bd d1cf c73e c3ae 173f
00000020: 18a6 5ebe bdf3 ab3e 0271 fcbe 2b85 50be
00000030: 5c5c 33bf fdb6 7d3f 4862 63bf bf81 07bf
00000040: 78b5 5ebe 916f aa3d d5e6 3bbf 0471 b13e
00000050: 085c 8cbf eb51 043f fd98 213f 9a78 f9bb
00000060: dc47 5c3e 7834 873d 75e3 cabe d4bf cf3d
00000070: 9eb8 8f3e ab2d 373e 68fc 6e3e 4cba 0c3f
00000080: 0786 eabe 6a73 b5be d42f a03f b24f 7abe
00000090: dfa4 883e 544e 2f3f 94b6 283f 551c 5abf
000000a0: 4f00 233f b234 c7be 1b3d 2abf d419 4dbd
000000b0: c165 603e 0af3 47be 968d 67be aa57 683e
000000c0: 4324 a2bf 5751 25bd 0b96 efbf 1ba5 0c3f
000000d0: bdef 96bf 3874 a73e 3d06 d3bf 2255 65bf
000000e0: dacf a93e 51b0 cebc a7f3 23bf fe77 483e
000000f0: 41bf 753f 28de e33e d517 f8bc 805a 083f
0.9766576 -1.7682579 -0.6901429 -2.001934 -0.22755685 -0.103396386 0.3902574 0.5925104
-0.21743047 0.33584395 -0.49304968 -0.203633 -0.70062804 0.9910734 -0.8882184 -0.5293235
-0.21748912 0.08322061 -0.73399097 0.34656537 -1.0965586 0.51687497 0.63124067 -0.007613254
0.21511787 0.066018045 -0.3962666 0.1014401 0.2807054 0.17888515 0.23338473 0.54971766
-0.4580538 -0.35439616 1.2514596 -0.24444464 0.26688287 0.68478894 0.6590359 -0.8519948
0.63672346 -0.3890739 -0.6649949 -0.05007346 0.21913816 -0.19526306 -0.22612604 0.22689691
-1.2667316 -0.040360775 -1.8717664 0.5493943 -1.1791912 0.32705855 -1.6486279 -0.8958303
0.3316639 -0.025230559 -0.6404366 0.19577023 0.95994955 0.4450543 -0.030284801 0.5326309

encoder_variable_selection.single_variable_grns.SinWeekly.fc1.bias f4 [8]
00000000: 3943 e9bd 1a76 28be b29d 00bd 22e4 03be
00000010: 6f00 f43c bf1c 15be 68c5 afbe 2bf1 aabc
-0.11389775 -0.16451302 -0.03140039 -0.12879995 0.029785363 -0.14561747 -0.34330297 -0.020866951

encoder_variable_selection.single_variable_grns.SinWeekly.fc2.weight f4 [8, 8]
00000000: 82ba 8fbf 74fb 4f3e e1a7 8fbf 8556 0bbf
00000010: b890 e1be 991f 8a3e c2ec 003f 591e bdbd
00000020: 123f 10be 24c0 cbbe 9a20 de3d b167 323e
00000030: 775d c83c 6500 013f 2a65 0b3f 3089 3a3e
00000040: dafd 223f 5c3d 7bbe 4033 b13c e109 cabd
00000050: 0875 263f 7b0f b9bd 92d6 623f ed7f cb3e
00000060: cfe6 b43e 7833 713f dfc2 973e 563f b03d
00000070: c1eb 903e 5022 f2be 348f f53e 3758 ecbe
00000080: 11c1 9dbf bce0 563f 6406 18bf 5292 853e
00000090: 9d00 a23d f983 7d3e 0ac8 8cbd b045 45be
000000a0: 367f 2b3f b129 0abf c538 efbe 0730 a1bc
000000b0: 825c f4be 99b9 3fbd 59b7 f7be 351d bcbe
000000c0: 10b0 d53e 451e b03e 5cb5 e43c 94d0 fcbd
000000d0: aeae 0e3f 5b56 b4bd 10e0 323f bffb 5a3e
000000e0: 86bc 1b3f 2eb5 383e c6c2 bf3e d046 1c3e
000000f0: 3cd4 043f 7e6f fcbd 20cc 8e3f e1b5 e0be
-1.1228793 0.20310766 -1.1223108 -0.54428893 -0.44055724 0.26977232 0.50361264 -0.09234304
-0.1408656 -0.3979503 0.10846062 0.17422368 0.02445863 0.50391227 0.5445124 0.18216395
0.63668597 -0.24535125 0.021630883 -0.098651655 0.65022326 -0.09036156 0.8860866 0.39746037
0.35332343 0.9421916 0.29640862 0.0860583 0.28304866 -0.47291803 0.47960818 -0.46161053
-1.2324544 0.8393667 -0.5938475 0.26088196 0.07910273 0.24757375 -0.06874092 -0.19264865
0.66990983 -0.53969866 -0.46723 -0.019676222 -0.47726828 -0.04680786 -0.4838207 -0.36741033
0.41735888 0.34398094 0.02791851 -0.123444706 0.5573529 -0.088055335 0.6987314 0.21385096
0.6083454 0.18037865 0.37453288 0.15261388 0.51886344 -0.12325953 1.1156044 -0.43888763

encoder_variable_selection.single_variable_grns.SinWeekly.fc2.bias f4 [8]
00000000: 346f 69be c2b4 19be 8bff 0a3e 393c 223e
00000010: 1350 3b3d 6dce a63d 6018 e83d 54c5 cc3d
-0.22796327 -0.1501036 0.13574044 0.15843286 0.04573066 0.08144841 0.11332774 0.09998575

encoder_variable_selection.single_variable_grns.SinWeekly.gate_norm.glu.fc.weight f4 [32, 8]
00000000: 1ef3 c43e f469 743e b8ee 34be cdb9 3d3e
00000010: 68b7 6b3e 2445 dbbe bf1f 3f3e 8902 cd3e
00000020: 147b 5abe bd08 f73d 37a0 41bc 18e6 bcbe
00000030: 2bb3 3fbe bc2e 5b3e 1027 013f 6e33 89bd
00000040: 10f7 af3e d83f 943e 109e 15be 759f a63e
00000050: bc53 9f3e 2c64 8abe b2c9 8cbc 5c3d f23d
00000060: 663f bf3d f3f1 eebd e8be 0dbf d6a1 d9be
00000070: d475 593e 19a2 ba3e 0790 10bf eab2 093e
00000080: 4536 d83e 0995 0d3f b0e4 bb3e 0024 413f
00000090: 95cc 9f3e 322b 51bf f8a6 643f 7298 243f
000000a0: 4941 5f3e fc54 26be 6e13 48bc 40ff 9a3b
000000b0: 051d f2bd c052 edbd e62b 47be 3aad aa3d
000000c0: ae59 713e 077c 133e 1dda 3cbf 685e dbbe
000000d0: af4d a73e 9051 f1be d49e 24bf 15ca efbe
000000e0: 1f13 01be e872 f0bd 0f84 3c3e 98ce acbe
000000f0: 7cc9 babd 1406 d9bc f0bd 3abe 592a 92be
00000100: cd84 013f 7a33 013f 8cb0 683e e7f0 6a3f
00000110: 6071 ea3e 2b9f 4dbf a2bb fa3e 0f5e ee3e
00000120: 7fef e23d c6a9 a4be f56e 223e b494 743d
00000130: 82d1 c5bd bfbd dbbd b7db b0bd 8d5b d3bc
00000140: c705 0a3d ff78 043e dbac 9d3e fb0b 6d3e
00000150: 8ef1 1ebe c022 0a3d f07c 263e d5ff ae3e
00000160: 067e a23e dc1f 8b3e b617 1a3e 9e5d 123e
00000170: 678a 693e 9158 1ebf ce3e f03e 530e da3e
00000180: c55d 0b3f a288 0e3f ba59 91be 55a6 4abe
00000190: 3b4e 083f 9881 eebe e813 12bf c2a8 d5be
000001a0: 9b3c ad3e c3e1 a23d 2286 06bf 8447 fcbe
000001b0: 8cce a53e ae07 a93b 945d 34bf 6234 31bf
000001c0: 10b1 31bf 4ef0 33bf d00b 853f fe9b b1bd
000001d0: e316 3fbf a227 1e3f 73d7 293e 4418 e93e
000001e0: dd16 753e 7094 e2be 1c0c c0be 7303 953d
000001f0: e9cb 9fbe 2fa1 55be ff9d 883e 6366 b1bd
00000200: b7f5 fb3e 4b6a 1e3f 9ff6 963d 63c3 143f
00000210: 032e 0b3f b5ce 1abf 5849 023f 6e54 e4bd
00000220: 6cc6 463e dc83 98be db96 173e d281 69be
00000230: 1fc3 853d 0813 af3e 94c6 45be 923a efbe
00000240: 40ee 653e ba9a dabd 31ee 91bd b9a5 1b3e
00000250: 62c1 b3bd dd0a 8ebe 2b36 403e 322c 913f
00000260: ced5 dc3e 57b5 32be 75fd f5be 54ef 95be
00000270: 72ac a63d e80f f43c 88d4 0fbf 98eb 27be
00000280: 549b 203f e0bc ad3e 345a d6be 10a5 303e
00000290: 72cc 0e3f e093 9bbe f19e 98bd 475c 043c
000002a0: 50d5 80bc 77d6 813d a1e0 19bd 1ef8 413e
000002b0: 1d68 af3d 4380 b6be ff26 b93e 0a43 f1be
000002c0: 27eb b3be 1a54 afbe b8b0 683f f9e2 9abe
000002d0: 2230 ffbe 065d 8c3e daa4 343f 08c8 0a3f
000002e0: 189a f0bd 9472 3c3f a316 d73d c06a 833e
000002f0: b06b 0d3e 8638 d1be 4de2 0abd de96 f4bd
00000300: 0074 3d3e 1d93 a33e c07f 343e 2e61 803e
00000310: eae6 033f 8bf9 92be b6cd 543e ce85 5f3e
00000320: 6a3c eabc 4199 07bd 01a2 57be bb12 363e
00000330: 7f6c b03d 4591 a8bd 0c34 8dbe 4e62 9fbd
00000340: 2050 693d 01df 73be af9f 3abf 821c c8bd
00000350: d9c8 fd3e 47f5 6a3e dfb6 cebe 0664 f8be
00000360: b606 133f 991d d43d 7a93 cfbd 28d0 403e
00000370: bd31 d33e 6a98 82be b36b fd3c a6e0 cabd
00000380: bbef 4dbf 1e31 1dbf 11f7 103f 66d6 c1be
00000390: ad9d 2abf 9cab c03e c8c9 3e3f a1ba 0b3f
000003a0: f326 e8bd 5f4d 88be 84ee aa3d 645f 23be
000003b0: ab48 11be a25b 7b3e 2e8b 2a3e 9c4e fb3e
000003c0: 8f4d 00bf efb3 fbbc b339 cf3d 0a5b 233d
000003d0: 7c72 18bf ee20 6c3e 4129 de3c 2b14 cb3e
000003e0: 5c3e 043e 41dd 2c3e 02c2 8bbe b62c b2bc
000003f0: c459 30be f7b8 ddbe 23f6 1f3e dfdc c2be
0.38466734 0.23868543 -0.17669189 0.18527909 0.23019183 -0.42826188 0.18664454 0.40040997
-0.21336013 0.120622136 -0.011817983 -0.36894298 -0.18720691 0.21404546 0.5045023 -0.066992626
0.3436818 0.2895496 -0.14611077 0.3254353 0.31118572 -0.2702955 -0.01718602 0.118281096
0.09338264 -0.11667242 -0.55369425 -0.42506284 0.21236354 0.36451796 -0.5646977 0.13447157
0.42228904 0.55305535 0.36697912 0.75445557 0.3121077 -0.81706536 0.89317274 0.64295113
0.21802248 -0.16243356 -0.012211664 0.004730135 -0.11821941 -0.11588049 -0.1945034 0.083338216
0.23569366 0.14402781 -0.73770314 -0.42845464 0.32676455 -0.4713254 -0.6430485 -0.46833864
-0.1260495 -0.11740667 0.18409751 -0.3375137 -0.09120461 -0.026492156 -0.18236518 -0.28547934
0.5059326 0.5046917 0.22723597 0.9177384 0.45789623 -0.80320996 0.48971277 0.46556136
0.110808365 -0.32160777 0.15862639 0.059712127 -0.09659101 -0.107295506 -0.08635657 -0.02580049
0.033696916 0.12936781 0.3079594 0.23149101 -0.15521833 0.033724546 0.16258597 0.3417956
0.31736773 0.27172744 0.15048108 0.14293525 0.22806703 -0.6185389 0.46922916 0.42589054
0.54439956 0.55677235 -0.28388768 -0.19790013 0.5324437 -0.46583247 -0.57061625 -0.41730314
0.338353 0.07953217 -0.5254842 -0.49273312 0.32384145 0.005158386 -0.7045529 -0.69220555
-0.694108 -0.7028855 1.039423 -0.08672331 -0.746443 0.61779225 0.16586094 0.45526326
0.23934503 -0.44253874 -0.3750924 0.072760485 -0.3121026 -0.20862268 0.2668304 -0.08662107
0.49210903 0.6188094 0.07371258 0.58110636 0.54367083 -0.6047166 0.50893164 -0.11148916
0.1941163 -0.297881 0.1480364 -0.22803429 0.06531357 0.34194207 -0.19314033 -0.46724373
0.22454166 -0.10674043 -0.071255095 0.15199937 -0.08777119 -0.27742663 0.18770663 1.1341612
0.4313187 -0.17451988 -0.48044935 -0.29284155 0.0813836 0.029792741 -0.5618367 -0.16398466
0.6273701 0.33933163 -0.41865695 0.17250466 0.5578071 -0.30386257 -0.07452191 0.008078641
-0.015726715 0.06339734 -0.03756774 0.18942305 0.0856478 -0.3564473 0.36162564 -0.4712146
-0.35140345 -0.34243852 0.9089465 -0.3025129 -0.4984141 0.2741472 0.70564044 0.54211473
-0.11748141 0.7361233 0.105023645 0.2566738 0.13810611 -0.40863436 -0.033907223 -0.11942838
0.18501282 0.31948176 0.17626858 0.25074142 0.5152422 -0.2870601 0.20781597 0.21828386
-0.02859326 -0.03310514 -0.21057893 0.17780583 0.08614444 -0.08230833 -0.2757877 -0.07782422
0.05696118 -0.23815538 -0.7289991 -0.097710624 0.49567297 0.22945128 -0.40373895 -0.48513812
0.57432115 0.10357208 -0.10135551 0.18829405 0.41248885 -0.25506908 0.030935144 -0.099061295
-0.80443925 -0.6140307 0.56626993 -0.37858886 -0.66646844 0.37630928 0.74526644 0.5458165
-0.11335554 -0.2662153 0.083462745 -0.15954357 -0.14187877 0.24546674 0.16654655 0.49083412
-0.50118345 -0.030725447 0.10118427 0.039881743 -0.5954969 0.23059437 0.02711928 0.39663824
0.12914413 0.16881277 -0.27296454 -0.021749835 -0.17221743 -0.4330518 0.15621237 -0.38059136

encoder_variable_selection.single_variable_grns.SinWeekly.gate_norm.glu.fc.bias f4 [32]
00000000: 1404 803e 127d 993d b966 853d bf98 613e
00000010: 4f8e 97bd c338 a03c 6c89 4bbe ff39 63be
00000020: 29c6 283d d133 2b3d 68b9 94bd 8f58 933e
00000030: 0eae bbbd 96cd f6bd cc17 2fbd 813a 1c3e
00000040: c0d7 f03d 8899 07bc b6f2 d63e ecb3 48be
00000050: 6e6b 1f3f 670a 8fbf 2b70 1c3d 1638 29be
00000060: 59f4 09bc 3444 37bf 2583 17bf bcc1 70bd
00000070: 3015 0abf 62bc 1f3f 7404 aabc 515a e3be
0.2500311 0.074945584 0.065137334 0.22030924 -0.0740019 0.019558316 -0.19876641 -0.22190093
0.041204605 0.041797463 -0.07261926 0.28778502 -0.09164058 -0.12050931 -0.042747304 0.15256692
0.11759901 -0.008276351 0.4198205 -0.19599885 0.622733 -1.117505 0.03819291 -0.16525301
-0.008420073 -0.71588445 -0.59184486 -0.05877851 -0.5393858 0.62396824 -0.020754077 -0.44404843

encoder_variable_selection.single_variable_grns.SinWeekly.gate_norm.add_norm.norm.weight f4 [16]
00000000: a500 743f 5bca b33e e829 ca3f da7b a73f
00000010: 15f1 893f 4b38 433f 1523 853f 7f5f 2f3f
00000020: f43d 973f 9fe8 173f 2dd3 963f d4be ce3f
00000030: 64f3 4d3f dfc7 dc3f 87c8 ae3f 2588 033f
0.95313483 0.35115322 1.5794039 1.3084671 1.0776697 0.7625777 1.0401331 0.6850509
1.1815782 0.59339327 1.1783196 1.6151986 0.8044951 1.7248496 1.3654946 0.51379615

encoder_variable_selection.single_variable_grns.SinWeekly.gate_norm.add_norm.norm.bias f4 [16]
00000000: e728 353d 8a20 023e 80fd ccbc e4af 0f3e
00000010: 057b 38bd 7b11 6b3d 8014 c0bd 1d52 a2bd
00000020: b87c 753e 7030 7ebd b506 3abe 88f7 7b3b
00000030: 8bde 30be be48 b53d dc78 813d 6525 f03d
0.04422846 0.12707725 -0.025023222 0.1403194 -0.045039196 0.057389718 -0.0937891 -0.07925818
0.23973358 -0.062057912 -0.18166621 0.00384471 -0.17272393 0.08851765 0.0632188 0.117258824

encoder_variable_selection.single_variable_grns.VaccinationFull.resample_norm.mask f4 [16]
00000000: 82b4 803d c62a 03bd 2297 f13d c246 1cbf
00000010: 5a48 0c3f ca40 0cbf 97cb ff3e 82b8 fb3e
00000020: 9e14 203e 4bbd 03bf 4be4 7bbe 63cd a83e
00000030: 23f0 10bf 2f9c 9c3e 6c62 e13e 5a32 9fbe
0.06284429 -0.032023214 0.117964044 -0.6104547 0.547979 -0.5478636 0.49960014 0.49164206
0.15632865 -0.51460713 -0.24598806 0.32969198 -0.5661642 0.3058791 0.44020402 -0.31093103

encoder_variable_selection.single_variable_grns.VaccinationFull.resample_norm.norm.weight f4 [16]
00000000: 3d23 843f da89 983e d8b3 a43f 9a7f 293f
00000010: a68e c93f aca5 213f c51a b33f 6057 c13f
00000020: abae a23f d5c8 313f f9da 623f 4c5d 9d3f
00000030: 809a 4d3f 2e51 b13f 50e8 7f3f d6b6 2b3f
1.0323254 0.29792672 1.2867384 0.6621033 1.5746658 0.6314342 1.3992544 1.510479
1.2709554 0.6944707 0.88615376 1.2294097 0.80313873 1.3852899 0.99963856 0.6707586

encoder_variable_selection.single_variable_grns.VaccinationFull.resample_norm.norm.bias f4 [16]
00000000: f3d4 743e 9821 283e b9c1 ebbe ba4a a63d
00000010: 3b06 993d f97c cc3d 9243 d7bc 161e 8f3e
00000020: 2701 533c dbeb 84be 1c79 21be 27a2 4b3d
00000030: 6e48 973c 53b2 8cbe 9a3b 383e 1565 d43c
0.23909359 0.16419065 -0.46046236 0.08119722 0.074718915 0.09984774 -0.026277337 0.2795264
0.012878693 -0.25961193 -0.15768856 0.049715187 0.018467154 -0.274798 0.17991486 0.025927106

encoder_variable_selection.single_variable_grns.VaccinationFull.fc1.weight f4 [8, 8]
00000000: 7197 fb3e edeb 65be 32ec 29bf 0bdf 1ebe
00000010: 7fa1 323f fceb 733d 63d8 2fbf 27a5 92bd
00000020: 332f 363e 78c9 afbe a713 94bf 7434 7fbf
00000030: 8f66 6a3e eb66 b63e 67c4 263f 0bb7 b23e
00000040: 614e 5f3e 1d7b 35bf 2cc0 b4be 056a 0fbe
00000050: 258f 6abd baa3 e93e c5e3 b2be 1fad fcbe
00000060: debf 42be f525 63bf c3fe 3fbf 5a5a 853e
00000070: ed01 febe 940b 813f 4741 ff3d f266 c03e
00000080: c4de 783e f303 153f 38be 4a3e 1048 d33e
00000090: baa3 8c3c 16f3 b23e 5c18 f63e d32c 3b3f
000000a0: e0b9 81be bd1f 053f 303f a83e 1a1c 44be
000000b0: 864e 65bf e57c 67bf cce0 1cbf cfd1 eabf
000000c0: 19ad 25bf 5939 d83e 5488 c33e 063e fb3d
000000d0: 996f 383f 3734 91be a32e c03e ec3a a93b
000000e0: 3220 8f3e 3edd 883e 38a4 f8be ec73 35be
000000f0: 3054 e3be 9dc6 9cbf 273f 9dbe e6cf c8bf
0.49138978 -0.2245328 -0.6637603 -0.15514772 0.69777673 0.059551224 -0.68689555 -0.071604066
0.17791443 -0.34333396 -1.1568497 -0.9968941 0.22890685 0.35625395 0.65143436 0.34905276
0.21807243 -0.7089098 -0.35302866 -0.14005287 -0.05726542 0.45632726 -0.349394 -0.4935083
-0.19018504 -0.8872979 -0.7499811 0.26045495 -0.49610844 1.0081658 0.124636225 0.3757854
0.24303728 0.5820915 0.19799125 0.41265917 0.017167915 0.34951085 0.4806546 0.7311527
-0.25337124 0.52001554 0.32860708 -0.19151345 -0.8957294 -0.9042495 -0.6128051 -1.8345279
-0.6471725 0.42231253 0.38189948 0.122676894 0.72045285 -0.2836015 0.3753558 0.0051644947
0.2795425 0.26731294 -0.4856279 -0.17720002 -0.44400167 -1.2248112 -0.30712244 -1.5688446

encoder_variable_selection.single_variable_grns.VaccinationFull.fc1.bias f4 [8]
00000000: 9bd7 293e 28ff 503e d8c5 833e 1321 1e3e
00000010: a530 a8ba 8b04 c5be 4d7a 81be 9b27 01be
0.16586153 0.20409834 0.2573688 0.15442304 -0.001283188 -0.3848003 -0.2528862 -0.12612765

encoder_variable_selection.single_variable_grns.VaccinationFull.fc2.weight f4 [8, 8]
00000000: 3c78 45be 486c 823c 2efd 37be f9f6 04bf
00000010: 16fe 29bf 5316 cb3e 4088 d2be 0458 ad3e
00000020: 07ea 203f 3095 ecbe 704e cabd ec71 f6be
00000030: b0b9 cfbe 8a94 30bf a228 a23d 0a58 57be
00000040: ed02 e6bf 22da 0e3d 559a b23d ead1 193f
00000050: 2b05 86be 0ec3 d13e 0e7c 573d 954a 143f
00000060: 7cba f93d 82b2 46bf cc51 a53c c119 fdbe
00000070: 5ebd 7c3d 18ca 5bbf 6eef ffbd d6f3 79bd
00000080: b153 5ebe 4e2d d9be 53f8 033f 4f41 9f3d
00000090: 4094 5a3e 67c2 ce3d 12f4 14bf ffa7 333f
000000a0: 21f3 97be 2620 6e3e 57b0 f03e 2800 c73e
000000b0: a648 4e3e 8c56 403d 26fb f2be 8051 6fbf
000000c0: 3a27 663f c814 9cbe c6af 0b3d 06ce 3f3f
000000d0: e355 31bd 6b26 54bf e7c1 393d 3327 92bd
000000e0: ced4 cebc 73fc a03e 405d b33d 3cb8 ef3e
000000f0: 4d81 96be feb3 ccbe c066 1bbd 59f9 8abe
-0.19284147 0.015920773 -0.17967674 -0.5193935 -0.6640333 0.3966547 -0.41119576 0.33856213
0.628571 -0.4620757 -0.09878242 -0.4813379 -0.40571356 -0.6897665 0.07917906 -0.21029678
-1.7969643 0.034875996 0.08720843 0.6008593 -0.26175818 0.40969127 0.052608542 0.57926303
0.12193772 -0.7761613 0.020180605 -0.4943371 0.061704032 -0.85855246 -0.124968395 -0.061023556
-0.21711613 -0.42417377 0.5155079 0.077761285 0.21345615 0.10095673 -0.5818492 0.70178217
-0.2967768 0.23254451 0.47009537 0.38867307 0.201449 0.046957538 -0.47457236 -0.93483734
0.89903605 -0.30484605 0.034103177 0.7492374 -0.0432948 -0.8287112 0.045350935 -0.07136383
-0.025247958 0.31442603 0.087580204 0.46820247 -0.29395524 -0.39981073 -0.037939787 -0.27143362

encoder_variable_selection.single_variable_grns.VaccinationFull.fc2.bias f4 [8]
00000000: 4625 80bd de68 163c ce31 2cbe cef4 bc3d
00000010: 403f 1a3e a38a 2f3e 8ddb 983e e691 5d3e
-0.06257109 0.009180276 -0.16815874 0.0922638 0.1506319 0.1714273 0.29855004 0.21637687

encoder_variable_selection.single_variable_grns.VaccinationFull.gate_norm.glu.fc.weight f4 [32, 8]
00000000: 496d 7bbd 52eb d23e 2e52 353e 5100 2f3f
00000010: f555 27be 49f0 933e e8b2 c13e 53bc 36be
00000020: 21ca 8dbe 2b73 17bc 5e9b 7fbe d971 da3d
00000030: e8c4 743e a2b7 6fbe d7f6 1a3e 4325 bfbe
00000040: 5392 67bd 8f29 1cbe 4539 833e 3db2 f4be
00000050: a9b7 adbd 460a 763e 06ae 63bf 77fc c13b
00000060: 526c 93bf af1b 353f edb7 57bf beac 853f
00000070: c738 48bf 4654 8f3f 50b9 473f 0989 803f
00000080: 7bf3 273f db00 40be fea8 0d3f bdae 10be
00000090: 778a 0a3f a3d4 febe b9ab ccbe 1ed0 03bf
000000a0: 7a53 8f3e f5be eebd b732 f33e 0e8b 2dbf
000000b0: 3cf6 fc3c 36ac bf3d 32e8 bebe bbd7 663d
000000c0: 8bde ca3d abe8 a23e ea50 823d cf27 903c
000000d0: cf01 5b3d 0c15 92bd 24fa 203e 27c6 a4bd
000000e0: 0235 93be 54c0 953e 1502 2fbe f43a 5b3e
000000f0: fbd4 8c3e 8ac0 c5bd d36a 103f 39eb 5ebe
00000100: 9de2 e3be 4ada ec3e a110 d2be d3e6 88bd
00000110: f650 0cbf 03cd 533f 11dc 803e 5d82 d83e
00000120: 0179 b73e 5c79 2ebe f8a7 ef3e 2f98 a6be
00000130: 232b dcbc f346 4ebe f874 46bf 2682 b1be
00000140: dfb6 87bd 28ce b0bd 3241 233e 2ddc 93be
00000150: f3e8 1f3e e570 f43d dee2 9dbc b132 903d
00000160: 376d 51be 4e33 21bf a68a 843e 00fb 3dbe
00000170: 215e 97bd 1948 383d ef92 01bf 7ba4 ca3d
00000180: bc4d 403d 6a3a 1e3e 2c4f acbd 0f0f f2be
00000190: 1ae1 a13d 77cc f2be ce4c 65be caeb 12be
000001a0: 4831 de3e 03a5 48bf 538c cc3e 91df 8cbe
000001b0: e887 b33e 368a 53bd 4588 00bf 39f0 ddbe
000001c0: ad49 08bf 88b4 093f 92cb dfbe 5be4 2d3f
000001d0: 1f71 0ebf a519 973e db99 0ebc 88ba e43e
000001e0: 9079 13be f407 60be e287 0b3d 8083 8abe
000001f0: f512 813e fbd2 02be be54 2ebc 13f2 0fbb
00000200: e529 6d3e 89a8 c7be b156 a33e ae9a aebe
00000210: f566 eb3c 5616 c23e 8896 04bf 0d38 dabe
00000220: 44e1 183e e87d b3bd de46 d73e 1679 35bd
00000230: ff07 b13d 6f59 3a3f 7881 a0be 8bbf e63e
00000240: 2810 8e3f 5737 c3bd dc95 ac3e b849 2ebd
00000250: 5769 d13f 7e21 1ebf a538 9cbe 078d 3dbf
00000260: 17ef cb3e a6c8 e2be 1462 253f f39a 8ebe
00000270: f5a8 c43c b530 84be af89 3bbf 3d71 f6be
00000280: ea8d 5bbe 6a84 c63d 0437 19be 34b8 d33e
00000290: 9d5e afbd d699 8b3c d645 6b3e 01fe 373d
000002a0: a7b7 ff3d 72d9 a4be 8374 113f eb9e a1be
000002b0: f696 77be 3ef1 8b3e c221 6ebf 9229 98bb
000002c0: 9064 6a3e 624e 123e 21a2 85bd 6867 3b3e
000002d0: 743f a1bc 62f3 133e fb0a 36bf b7dc bc3d
000002e0: f98b 0b3d 0be8 c03e 5847 a83e 71b9 af3e
000002f0: ecea 953d 536a 8ebe ed74 dcbe a629 9dbe
00000300: 03e6 0dbe a9a0 7f3e be58 31be 2879 233d
00000310: b31a 17bf 96e6 493e bd4b e33e 61e1 423e
00000320: 10d7 f53e cde1 1ebf b304 013f cdf8 c6be
00000330: be0e c33e 4d53 0cbf 6919 50be c807 b4be
00000340: 6226 9abd a475 c0be 8deb 9f3e 2451 c7be
00000350: bcb5 ba3c c559 5a3e 2332 7dbe 408d 043e
00000360: ef31 493f 4441 6e3d a160 f73e c420 f13a
00000370: 5b8e d43e 84a9 1dbf 7ed6 a1be 3654 44bf
00000380: fb98 8b3e f72d a13e 7380 5d3e f5ea ab3e
00000390: a888 1dbe b53a 883e a55d d4be 535a 433e
000003a0: eb79 6bbd 222f 77be ad43 82bb 6a89 ccbd
000003b0: 080f 3b3e fa0a d4bd 921e 02be d8d0 de3c
000003c0: bf54 913e cc7e 5bbe 181d 663d 2cb5 9bbe
000003d0: ed49 e6bd 72bd 90bd 76be 953d 469a c3be
000003e0: b87c bdbe bfb7 023d 1b0b 1a3f 91e7 0e3f
000003f0: d812 00be 09d4 653c 484f 443e e78f 8bbe
-0.06138352 0.4119516 0.1770713 0.6835986 -0.16341384 0.2889426 0.37831807 -0.17845277
-0.27693275 -0.009243767 -0.24961612 0.10666246 0.23903239 -0.23409894 0.15133224 -0.37333116
-0.05653603 -0.15250228 0.2562963 -0.47792235 -0.08482296 0.24027357 -0.88937414 0.0059199887
-1.1517432 0.70745367 -0.84265023 1.0443342 -0.78211635 1.1197593 0.7801714 1.004182
0.65605897 -0.18750326 0.55335987 -0.14129157 0.5411753 -0.49771604 -0.39974764 -0.51489437
0.27993375 -0.11657516 0.4749963 -0.67790306 0.030879132 0.093590185 -0.37286526 0.05635808
0.09905728 0.31818137 0.063630894 0.017597107 0.05346852 -0.071329206 0.15720421 -0.08045607
-0.2875138 0.29248297 -0.17090638 0.21409208 0.2750624 -0.096558645 0.56413 -0.21769418
-0.4450883 0.4626029 -0.41028312 -0.06684651 -0.54811037 0.827347 0.25167897 0.4228696
0.35834506 -0.17038482 0.46807837 -0.32537982 -0.026876038 -0.20144252 -0.7752223 -0.34669608
-0.06626677 -0.08633071 0.15942839 -0.28878918 0.15616207 0.119355954 -0.019273218 0.070409186
-0.20451818 -0.6296891 0.2588703 -0.1855278 -0.073910005 0.044990633 -0.5061483 0.098946534
0.046949133 0.1545197 -0.08413538 -0.47277114 0.07904263 -0.4742162 -0.2239258 -0.14347759
0.43396974 -0.7837679 0.3995081 -0.27514318 0.35064626 -0.05164548 -0.5020793 -0.43347338
-0.5323742 0.53791094 -0.4371 0.6792657 -0.5564136 0.29511753 -0.008703674 0.44673562
-0.14401841 -0.21878034 0.034065135 -0.27053452 0.25209776 -0.12775795 -0.010640321 -0.0021964356
0.23160513 -0.3899577 0.31902078 -0.34102386 0.028735617 0.37907666 -0.5179219 -0.42620888
0.14929682 -0.08764249 0.42046255 -0.04430493 0.08644103 0.72792715 -0.31348777 0.4506801
1.109868 -0.095320396 0.33708084 -0.042550772 1.6360272 -0.61769855 -0.30511966 -0.74043316
0.3983085 -0.44293708 0.6460278 -0.27852592 0.024006346 -0.2581841 -0.73256963 -0.4813327
-0.21440855 0.09693225 -0.14962393 0.41351473 -0.08562968 0.017041128 0.22975859 0.04491997
0.12486201 -0.32197148 0.5681841 -0.31566557 -0.24178681 0.2733249 -0.9302026 -0.0046436274
0.22889924 0.14287713 -0.06525064 0.18301165 -0.019683577 0.14448312 -0.71110505 0.092217855
0.034069035 0.37677035 0.3286693 0.34321168 0.073201984 -0.27815494 -0.43057957 -0.30695838
-0.13857274 0.2496363 -0.17319009 0.039910465 -0.59025115 0.19716868 0.4439372 0.19031288
0.48015642 -0.62063295 0.50397795 -0.38861695 0.38097185 -0.54814607 -0.20322193 -0.35162187
-0.07526852 -0.37589753 0.31234398 -0.38929093 0.022791736 0.21323307 -0.24726157 0.12944508
0.7859182 0.05816771 0.4831591 0.0018396606 0.4151486 -0.61586785 -0.31608957 -0.76690996
0.27265152 0.3148038 0.2163103 0.33577695 -0.15384161 0.2660729 -0.41477695 0.19077425
-0.057489317 -0.24139073 -0.0039753527 -0.09987147 0.18267453 -0.10353656 -0.12706974 0.027199194
0.2838497 -0.21435088 0.05618009 -0.3041166 -0.11244569 -0.07067384 0.07311718 -0.3820364
-0.37009215 0.031913515 0.60173196 0.5582209 -0.12507188 0.014027604 0.19170868 -0.27258226

encoder_variable_selection.single_variable_grns.VaccinationFull.gate_norm.glu.fc.bias f4 [32]
00000000: fca9 1b3f cd09 69ba 89eb 37bf 988d 4dbf
00000010: 5fce 6abe 01d3 72be aec4 5d3c 204d 473e
00000020: 4f7d 1f3e bad7 32be 4a0f 92bd fac6 d0be
00000030: 1dba 5fbd f074 8c3d 323b 92bd e429 28be
00000040: efde 4abf ffee 69bf 3c3a 103e 83f2 98be
00000050: cfb2 0c3f 2c9f d2bf 140e 3ebf 3f24 79bd
00000060: 59df c53e 30bf a5bd caad 71bf bed7 043e
00000070: ab93 47bf 21f3 723e 815c b6be 499e 00bf
0.6080625 -0.0008889705 -0.71843773 -0.8029418 -0.22930287 -0.23713304 0.013535662 0.19463015
0.15575145 -0.17465106 -0.071318224 -0.40776807 -0.05462085 0.068582416 -0.07140197 -0.1642223
-0.7924642 -0.91380304 0.14084715 -0.29872522 0.5496034 -1.6454825 -0.7424023 -0.060825583
0.38646963 -0.08093107 -0.94405806 0.12972924 -0.779597 0.23725559 -0.3561745 -0.50241524

encoder_variable_selection.single_variable_grns.VaccinationFull.gate_norm.add_norm.norm.weight f4 [16]
00000000: 5a6a 083f ba7e 953e f9ea 8d3f 651d af3f
00000010: 9eca 833f 9d5e fa3e e878 8a3f 57a6 743f
00000020: ba9d 7b3f cd6a 343f 3e73 ff3e f925 973f
00000030: 95ef 983e 9fb5 993f efe3 9b3f 8f42 3a3e
0.5328728 0.29198247 1.1087333 1.3680845 1.0296209 0.4890031 1.0818148 0.95566314
0.98287547 0.70475465 0.4989261 1.1808463 0.29870287 1.2008551 1.2178935 0.18189453

encoder_variable_selection.single_variable_grns.VaccinationFull.gate_norm.add_norm.norm.bias f4 [16]
00000000: e135 9e3d e388 933e e34a c83c f754 9d3c
00000010: a02f 163e de50 473d f348 bfbd 1e6c 0abe
00000020: 6621 8fbc 5e40 a8bd 8de6 aabd 9e25 823e
00000030: e33f fabd 1bbf 7f3d ffa9 4cbd 8d91 f83d
0.0772512 0.28815374 0.024449771 0.019205553 0.14666605 0.048661105 -0.09340086 -0.13517806
-0.01747198 -0.08215402 -0.08344755 0.25419325 -0.12219217 0.06243811 -0.04996681 0.121371366

encoder_variable_selection.single_variable_grns.Cases.resample_norm.mask f4 [16]
00000000: b483 0a3e 8899 8d3d baad a9bf 172a 1cbe
00000010: 0e6b 0fbc 199e e53e b4da d1be 658f 2abf
00000020: fc25 f3be 83f2 093f 3b74 163f cfe2 3c3e
00000030: 4234 55bf 0c31 2bbf c5ee 483e 17d7 0c3e
0.13526803 0.069140494 -1.3256142 -0.15250431 -0.008753551 0.4484718 -0.4098717 -0.6662505
-0.47489917 0.5388567 0.58771104 0.18445896 -0.83282864 -0.66871715 0.19622333 0.13753925

encoder_variable_selection.single_variable_grns.Cases.resample_norm.norm.weight f4 [16]
00000000: 277a 983f c733 b63f 2953 f93e 6592 813f
00000010: 768b 863f 4680 c73f 55f4 943f 2ae0 6c3f
00000020: a1bc 833f 3115 d83f a095 d73f 7f0d a53f
00000030: 3f02 903e 541e 123f 19f2 c33f 3843 ac3f
1.1912278 1.4234551 0.4869626 1.0122801 1.051131 1.5586021 1.1637064 0.9252955
1.029194 1.6881467 1.6842537 1.2894744 0.28126714 0.5707753 1.5308257 1.3458014

encoder_variable_selection.single_variable_grns.Cases.resample_norm.norm.bias f4 [16]
00000000: 42a4 7b3e 508c 5d3e 0450 73be 66bf 95be
00000010: 8282 13bd e5f4 36be c494 0fbe 0642 39be
00000020: f16a 58be c8ec b93b fb8a 023e cd35 0abd
00000030: 58e2 963e cd14 85bc 09b2 e23c 3254 823e
0.24574378 0.21635556 -0.23760992 -0.29247588 -0.036013134 -0.17866857 -0.14021593 -0.18091592
-0.21134545 0.0056739785 0.1274833 -0.033742715 0.29469562 -0.01624527 0.027672784 0.2545486

encoder_variable_selection.single_variable_grns.Cases.fc1.weight f4 [8, 8]
00000000: 4c7f 0c3d 613a bb3f 2cb3 d73d 4d7a 27bf
00000010: 31bc febe 5c38 083f db8b 96be d2ff e6be
00000020: 6af0 0e3f dd4c 1f3f 2cb5 93be 31a1 23c0
00000030: a42d 98bf db4f 8b3c a044 1e3e ab14 87bc
00000040: 7d83 8b3f aadd 083e a92d a13c b895 39bd
00000050: 5ede e1bd 2676 0b3e 0a10 4ebf 05e0 143f
00000060: 96f5 09bf eda2 15bd 99af 4e3f 23cd bc3e
00000070: c094 393f 45dd 993d 86a3 873e f2fe 2f3f
00000080: d0a3 8cbe a67a 44be 4f29 553e 75a5 ff3d
00000090: 1f60 293e 54e0 c33e ad9d 543e 5c76 913e
000000a0: 3b6a 31be a57a 1b3e 8064 363e bf75 a5bf
000000b0: 9887 33bf d039 0c3f 38dc b63d 6a43 2f3f
000000c0: dcfe 893e 2135 733e 5df7 f03c 3dd5 073f
000000d0: ce49 9fbf 591b da3d b0f6 c33e 45b1 57be
000000e0: f6cd 143d 2a5f 08bf fc35 16bf e691 20bf
000000f0: 6b52 52bc 4c6e 77be 68f7 4bbf 7135 c83f
0.034301087 1.4627191 0.10532221 -0.6542099 -0.49752954 0.53211 -0.29403576 -0.4511705
0.5583559 0.6222666 -0.2884916 -2.5567133 -1.1888928 0.017005851 0.15455866 -0.016489347
1.0899502 0.13365808 0.019675093 -0.0453088 -0.11028741 0.13619289 -0.80493224 0.58154327
-0.5389036 -0.03653233 0.8073669 0.36875257 0.724926 0.07512907 0.26491946 0.6874839
-0.2746873 -0.19187412 0.20816539 0.1248273 0.16540574 0.38257086 0.20763274 0.28410614
-0.1732568 0.15183504 0.17811775 -1.2926558 -0.70128775 0.54775715 0.08928722 0.6846224
0.26952255 0.23750736 0.029414827 0.5305975 -1.2444398 0.106497474 0.38274145 -0.21063717
0.036329232 -0.5327021 -0.58676124 -0.62722623 -0.012837033 -0.24163169 -0.79674387 1.5641309

encoder_variable_selection.single_variable_grns.Cases.fc1.bias f4 [8]
00000000: c603 c2be 8259 c0be 1e45 583c e223 6cbe
00000010: f495 3ebd 640c 1dbe fa13 05bf 199b b2bd
-0.37893504 -0.3756829 0.013200073 -0.23060563 -0.046529725 -0.15336758 -0.51983607 -0.08720989

encoder_variable_selection.single_variable_grns.Cases.fc2.weight f4 [8, 8]
00000000: 575c f9bd ef9e 6e3f fb49 48bd e040 1ebe
00000010: 522a 0f3f a77c 49be 2b38 583f f1f8 593d
00000020: 2f10 a2be 6468 8a3d 60e9 e6bd c01c eebe
00000030: 97f7 9e3e dd1f e13d aebe 69bc 41fa 9bbf
00000040: d6ce 123e 9406 b4be 9aea 3fbf 7d64 bd3d
00000050: 5918 f83e 59c7 2f3c 585d 9bbe 7701 7d3f
00000060: 9089 a0be 0d10 41bf d34e d6be e657 61bf
00000070: 9c3d 103f 2483 49bf 91b3 f9be 8cff abbd
00000080: a4a2 113f 2ff2 4a3f e84f 7b3d 53f3 963e
00000090: 4b49 6c3e b215 89bd 782e b43e 4963 133f
000000a0: fd60 823e 5fdc 613d 9079 823f 26bd 373f
000000b0: 2847 25be 3e04 a73d 73ab d7bb 0630 1d3f
000000c0: d74f 4abf 0089 5ebf dfb0 d6be 0356 be3e
000000d0: 77ca 43bb 22b5 e8be 155b b73e 9965 6abe
000000e0: def4 b73e d3a2 343f 374c 09be 0b33 b4bd
000000f0: 0bce b43d 1f94 93bd ffae 27be d100 55bd
-0.121758156 0.93211263 -0.04889868 -0.15454435 0.5592395 -0.19676457 0.84460706 0.053215925
-0.31652972 0.06758192 -0.112749815 -0.4650631 0.3104827 0.109924056 -0.014266653 -1.2185746
0.14336714 -0.3516127 -0.7496735 0.09247682 0.48456076 0.0107286805 -0.30344653 0.9883036
-0.31354952 -0.75415117 -0.41857013 -0.8802475 0.5634401 -0.7871573 -0.4876981 -0.08398351
0.56888795 0.7927579 0.0613555 0.29482517 0.23074834 -0.06693591 0.35191703 0.5757337
0.2546462 0.055141803 1.0193348 0.7177299 -0.16140425 0.08155106 -0.0065817176 0.614014
-0.79028076 -0.86927795 -0.41931817 0.37174997 -0.0029875317 -0.45450693 0.35811678 -0.22890319
0.35929006 0.7056095 -0.1340798 -0.08798798 0.08828362 -0.07205986 -0.1637535 -0.05200273

encoder_variable_selection.single_variable_grns.Cases.fc2.bias f4 [8]
00000000: 6ff2 ecbd 0794 773e e0a5 80bd f097 4f3e
00000010: 64f9 b8bd 6135 1d3d 7090 343d 1c86 013c
-0.11569678 0.24177562 -0.06281638 0.20272803 -0.090319425 0.038380984 0.04408306 0.007905509
