race-groups/results/Black/checkpoints/latest-epoch=5.ckpt (torch, 735725 bytes, 506 tensors)

prescalers.Black.weight f4 [8, 1]
-0.7716091 -1.5710222 1.2523241 1.2857256 -0.0076866457 -0.98527205 -1.0945925 0.7219071
00000000: 2d88 45bf 4117 c9bf 284c a03f a892 a43f
00000010: 42e0 fbbb ca3a 7cbf 9b1b 8cbf e7ce 383f

prescalers.Black.bias f4 [8]
0.09770997 0.34849024 0.4439359 -0.1717851 -0.0071349572 -0.5257721 0.06864235 0.20576477
00000000: 2a1c c83d 506d b23e 914b e33e 6fe8 2fbe
00000010: 5ccc e9bb 0099 06bf 5c94 8c3d 00b4 523e

prescalers.SinWeekly.weight f4 [8, 1]
0.050235838 -1.2734257 1.1332612 -0.95782363 0.513558 -0.23261042 0.8263885 0.54071367
00000000: 18c4 4d3d 9dff a2bf b40e 913f ee33 75bf
00000010: 8978 033f 6d31 6ebe 328e 533f 366c 0a3f

prescalers.SinWeekly.bias f4 [8]
0.26815102 -0.03271975 0.8273961 0.49670467 0.57987136 -0.751183 0.8822712 0.2498697
00000000: 174b 893e 2505 06bd 3bd0 533f 1350 fe3e
00000010: 7372 143f 874d 40bf 86dc 613f d8dd 7f3e

prescalers.VaccinationFull.weight f4 [8, 1]
0.06532855 -0.09934592 0.7519701 0.7070823 -0.5666748 -0.6284811 0.17131586 -0.73066634
00000000: faca 853d e075 cbbd 1d81 403f 5803 353f
00000010: 9a11 11bf 23e4 20bf 6d6d 2f3e f30c 3bbf

prescalers.VaccinationFull.bias f4 [8]
0.57451725 -0.100290984 -0.22245012 1.146438 0.83974177 0.12968566 -0.36717343 0.24976137
00000000: 9013 133f 5c65 cdbd f7c9 63be 7bbe 923f
00000010: 51f9 563f 51cc 043e 28fe bbbe 72c1 7f3e

prescalers.Cases.weight f4 [8, 1]
0.39333794 -1.2308743 -0.7129991 0.7244641 1.4893028 0.09830803 -0.65224564 0.3546137
00000000: 9763 c93e 4a8d 9dbf 1c87 36bf 7b76 393f
00000010: 79a1 be3f b855 c93d 92f9 26bf ed8f b53e

prescalers.Cases.bias f4 [8]
-0.7192727 -0.22900511 0.6798483 0.40945098 -0.04608816 0.0758145 0.28190678 -1.0527191
00000000: 4122 38bf 5180 6abe 8a0a 2e3f 8fa3 d13e
00000010: f0c6 3cbd a244 9b3d 1656 903e 80bf 86bf

static_variable_selection.single_variable_grns.Black.resample_norm.mask f4 [16]
-0.40710074 -0.50764036 0.0014464234 -0.1993929 0.13646615 0.46345267 -0.5044789 0.87163395
-1.1975563 -0.56631315 -0.83041734 0.61092985 0.08126148 0.2894648 0.20745105 -0.0064193653
00000000: 826f d0be b8f4 01bf ea95 bd3a a72d 4cbe
00000010: c8bd 0b3e ab49 ed3e 8725 01bf 6723 5f3f
00000020: 8649 99bf e6f9 10bf 3b96 54bf e665 1c3f
00000030: 6b6c a63d bb34 943e 0c6e 543e 8a59 d2bb

static_variable_selection.single_variable_grns.Black.resample_norm.norm.weight f4 [16]
0.66576016 0.9891317 1.2747931 1.1452154 1.3315015 1.573815 0.7634636 2.0305
0.20367344 0.48608476 0.44074863 1.7904452 1.3710713 1.3481512 0.8885208 1.1897091
00000000: 426f 2a3f bc37 7d3f 6c2c a33f 6b96 923f
00000010: a46e aa3f c572 c93f 5a72 433f b6f3 0140
00000020: c58f 503e 1ae0 f83e cea9 e13e 4f2d e53f
00000030: 447f af3f 3890 ac3f 1976 633f 6348 983f

static_variable_selection.single_variable_grns.Black.resample_norm.norm.bias f4 [16]
0.35806596 0.0088414345 -0.3181803 0.25872785 0.0012406785 0.07266383 0.58234435 -0.42116645
0.41937667 0.37480038 0.17616567 -0.6170385 -0.031497937 0.04195725 0.3936785 0.34300816
00000000: 6c54 b73e aadb 103c 87e8 a2be fa77 843e
00000010: 439e a23a c6d0 943d 8514 153f 21a3 d7be
00000020: 8ab8 d63e d6e5 bf3e c664 343e 3cf6 1dbf
00000030: fb03 01bd 5edb 2b3d 3a90 c93e c49e af3e

static_variable_selection.single_variable_grns.Black.fc1.weight f4 [8, 8]
0.35324544 -0.92093146 -0.378361 -0.030224558 -0.3020818 -1.4035528 -0.18002412 -0.24138844
-0.81228155 -1.2153438 -0.06921498 1.0994426 -0.3458117 -0.4901621 0.23007183 0.22406185
-0.057725463 -0.060577776 1.0849127 0.49396876 -0.263146 -0.47935885 -0.4951534 0.21984601
-0.6016637 0.04975366 -0.16523272 -0.5656386 -0.15752128 0.16151688 0.0947555 0.40665457
-0.5416838 0.68606 -0.255669 -0.6255459 -0.39878124 0.96876574 0.7421066 -0.14940476
0.12001726 -0.04562602 -0.34087175 -0.10567293 0.17784698 -0.31787184 0.30582023 -0.36630425
0.028016277 -0.47445843 -0.31876352 -0.08413422 0.5834964 1.3495795 0.6300676 -0.40211698
-0.91695243 -1.0563794 0.058819585 1.1219901 -0.16629732 -0.5082159 -0.2840096 0.40725306
00000000: 96dc b43e 2ac2 6bbf 88b8 c1be 7e99 f7bc
00000010: 77aa 9abe 9ea7 b3bf 3e58 38be 882e 77be
00000020: aff1 4fbf 6390 9bbf 95c0 8dbd 89ba 8c3f
00000030: 3b0e b1be 87f6 fabe f397 6b3e 7870 653e
00000040: 8971 6cbd 6720 78bd 6bde 8a3f 79e9 fc3e
00000050: 13bb 86be 866e f5be bf84 fdbe 501f 613e
00000060: a206 1abf 7eca 4b3d c432 29be b1cd 10bf
00000070: 424d 21be ae64 253e 2c0f c23d 0735 d03e
00000080: caab 0abf a1a1 2f3f 0ce7 82be c723 20bf
00000090: 0e2d ccbe 0801 783f b3fa 3d3f 90fd 18be
000000a0: 9ccb f53d 59e2 3abd be86 aebe 0d6b d8bd
000000b0: 851d 363e 19c0 a2be 7894 9c3e 3b8c bbbe
000000c0: 6482 e53c 37ec f2be f934 a3be 904e acbd
000000d0: 0560 153f 05bf ac3f 1c4c 213f 47e2 cdbe
000000e0: 65bd 6abf 7137 87bf ceec 703d 5f9d 8f3f
000000f0: d849 2abe 701a 02bf b569 91be 7983 d03e

static_variable_selection.single_variable_grns.Black.fc1.bias f4 [8]
-0.23115952 0.036637694 0.015941683 0.08454066 0.08107864 -0.06510282 0.09976473 -0.06590379
00000000: 15b5 6cbe 6811 163d 2298 823c a723 ad3d
00000010: 8f0c a63d a154 85bd 7351 cc3d 91f8 86bd

static_variable_selection.single_variable_grns.Black.fc2.weight f4 [8, 8]
0.417197 0.89924115 0.49419662 -0.101267144 -0.17044602 -0.38139564 0.46881908 1.3991414
-0.04904391 -0.21372361 0.4368927 -0.15186407 0.2930735 -0.2856754 0.4468195 0.2445464
0.004385131 0.41863117 -0.12946907 0.30802572 0.19810422 -0.2080964 -0.11829429 0.77794313
0.64815915 -0.24730194 0.57283795 -0.07010554 -0.4577611 -0.13011877 0.35119933 -0.64511305
0.3791004 -0.17166802 0.15346862 0.22136846 0.7356479 0.12559049 0.6795468 0.11884189
-0.28734618 -0.5896825 -0.918701 0.16357373 0.64421827 0.017195014 -0.3698376 -0.40717542
-0.7943084 -0.4421585 -0.06978908 0.16941074 0.37023222 0.12775211 -0.5176912 -0.716506
0.23306704 0.5655293 -0.72798765 -0.37249964 0.5310116 0.17588197 0.4659691 -0.52964467
00000000: d89a d53e ab34 663f 5707 fd3e 2665 cfbd
00000010: 6789 2ebe 4a46 c3be 0e09 f03e 1117 b33f
00000020: 44e2 48bd 5dda 5abe 66b0 df3e 4182 1bbe
00000030: bb0d 963e 0c44 92be 87c5 e43e 5f6a 7a3e
00000040: 25b1 8f3b d356 d63e 8a93 04be 8cb5 9d3e
00000050: d5db 4a3e 3917 55be 4744 f2bd 4827 473f
00000060: c2ed 253f b83c 7dbe 82a5 123f 7e93 8fbd
00000070: aa5f eabe db3d 05be 66d0 b33e 2126 25bf
00000080: 7319 c23e bec9 2fbe e126 1d3e 6aae 623e
00000090: 6c53 3c3f cb9a 003e c7f6 2d3f 6063 f33d
000000a0: 0a1f 93be 6ff5 16bf fd2f 6bbf df7f 273e
000000b0: 7deb 243f 8fdc 8c3c 5b5b bdbe 4c79 d0be
000000c0: cc57 4bbf 9962 e2be 94ed 8ebd 027a 2d3e
000000d0: 148f bd3e 73d1 023e 6987 04bf f06c 37bf
000000e0: 20a9 6e3e 87c6 103f 665d 3abf 46b8 bebe
000000f0: 60f0 073f 671a 343e 8093 ee3e cb96 07bf

static_variable_selection.single_variable_grns.Black.fc2.bias f4 [8]
0.106657915 0.0015745613 -0.20832448 0.14441775 -0.022293886 -0.17352267 0.17415433 -0.12726761
00000000: 776f da3d 8361 ce3a 0353 55be 3fe2 133e
00000010: aba1 b6bc edaf 31be 8355 323e 7152 02be

static_variable_selection.single_variable_grns.Black.gate_norm.glu.fc.weight f4 [32, 8]
-0.15146537 0.25698054 -0.6672524 -0.2743368 0.563167 -0.031493563 0.23201317 0.38558722
-0.040884368 0.0687858 -0.03303913 -0.013075574 -0.23235983 0.5075382 0.01930582 0.24256249
-0.1650464 0.21608566 -0.20105581 -0.49719915 0.36748013 0.47607338 0.53091836 0.46670172
-0.10089852 -0.3051196 -0.10511161 0.043073945 -0.15202698 -0.26693305 -0.5257759 0.13310754
-0.21508236 0.0006923954 0.036729287 -0.5539412 0.14913595 -0.049428448 -0.08689043 0.10665675
0.4266228 -0.3573388 0.040538233 0.3900859 -0.12695973 -0.48995635 -0.13819028 0.006474121
-0.10760546 0.3096801 -0.45804468 0.07172122 0.15410647 0.34683043 0.5947153 0.17907254
0.93247414 -0.11057983 0.5099188 0.46521202 -0.2822376 -0.9482469 -0.7305555 -0.4848063
-0.06782192 -0.65232503 0.19218236 0.26412 -0.21544196 -0.108575046 0.36025268 -0.0015089302
0.32549205 0.22238058 -0.8293279 -0.41525668 0.42852426 0.20582607 0.26884773 -0.21845247
-0.7776938 0.26478922 -0.5530726 -0.45809603 -0.05878646 0.48096868 0.93089366 0.35344613
0.43034557 -0.29585317 0.25253642 -0.019357994 0.1992221 -0.33642605 -0.22661248 0.10506494
-0.2480761 0.87339395 0.06470718 -0.066282615 0.17611487 0.21613514 0.27452174 0.5237162
-0.048949998 -0.17304008 -0.14379135 0.17424035 -0.23471482 -0.06883461 0.46625358 0.007131206
-0.6236567 0.39743826 -0.6527976 -0.12237912 -0.077507675 0.39800152 0.6428699 0.14576244
0.03928432 0.032814562 -0.0740058 0.5968938 -0.28321213 -0.1302396 0.0811676 -0.5222159
-0.38193 -0.038990963 0.6471739 0.43622 -0.13926533 -0.57371897 -0.23707537 0.22634456
0.418106 -0.45932728 -0.5261155 -0.30274135 0.48419943 -0.3008913 0.0101290215 -0.4395964
-0.023231598 -0.23553558 -0.4981604 0.0016818118 0.2848488 0.64641464 0.36345378 0.438611
-0.18391564 0.027021257 -0.38218713 -0.1455771 -0.6547246 0.17149039 -0.45776248 0.9495876
0.38753772 -0.65891296 0.054247033 0.23561405 -0.29306763 -0.15178919 0.017957682 0.24581668
-0.3166917 0.05441326 -0.3726131 -0.041360956 0.53663915 0.57382464 0.025864603 0.82703865
0.513563 0.278327 -0.20006938 0.29061863 -0.86077785 -1.1373109 -0.48970425 -0.40466776
0.55746496 0.053846713 0.12802316 0.5793683 -0.29647157 -0.09024738 -0.18996501 -0.9407348
0.044868242 0.33308953 -0.19857904 -0.07513814 0.5391454 0.45487532 -0.49480215 0.17717133
-0.6585031 -0.14794046 0.030344106 0.025730724 0.075502776 -0.058090158 0.21987654 0.598672
0.6264469 -0.021835966 0.2805035 0.46985683 -0.98304427 -0.5294747 -0.22073647 -0.5091574
-0.981612 0.017151734 -0.045213487 0.189778 -0.26637098 0.47640595 -0.26034284 0.0010696064
-0.14313304 0.20686838 0.2680068 -0.50438803 0.40896812 -0.18730535 -0.40215382 0.4869117
-0.006139101 -0.67453164 -0.06387745 0.09128341 -0.3556512 0.10052935 0.19038129 0.27505842
0.7096636 0.53411376 0.40698463 -0.29725283 0.45884714 -0.45028418 -0.033944033 0.035312075
0.6842531 -0.6446615 0.051325962 -0.16369489 -0.65467256 -0.8401812 -0.9227795 0.3081349
00000000: bd19 1bbe f492 833e 0ed1 2abf e075 8cbe
00000010: b62b 103f 65ff 00bd dc94 6d3e b06b c53e
00000020: 5e76 27bd 92df 8c3d 0a54 07bd ef3a 56bc
00000030: bcef 6dbe 06ee 013f 3d27 9e3c 4d62 783e
00000040: ec01 29be 8f45 5d3e 93e1 4dbe e390 febe
00000050: 5b26 bc3e e4bf f33e 44ea 073f 87f3 ee3e
00000060: e2a3 cebd a338 9cbe c144 d7bd 4e6e 303d
00000070: f6ac 1bbe 73ab 88be 4099 06bf 584d 083e
00000080: 8d3e 5cbe de81 353a 7371 163d 17cf 0dbf
00000090: 18b7 183e 7c75 4abd 9cf3 b1bd db6e da3d
000000a0: 4e6e da3e 1cf5 b6be 6b0b 263d 57b9 c73e
000000b0: bb01 02be 8fdb fabe c181 0dbe dd24 d43b
000000c0: 4060 dcbd 648e 9e3e d584 eabe 93e2 923d
000000d0: 16ce 1d3e c293 b13e 433f 183f cb5e 373e
000000e0: a0b6 6e3f ae77 e2bd 0a8a 023f 4530 ee3e
000000f0: 7281 90be 4fc0 72bf af05 3bbf 8838 f8be
00000100: 38e6 8abd c6fe 26bf 74cb 443e bd3a 873e
00000110: d19c 5cbe 985c debd 0a73 b83e 4cc7 c5ba
00000120: e5a6 a63e bcb7 633e d54e 54bf 869c d4be
00000130: 8867 db3e 12c4 523e 69a6 893e 01b2 5fbe
00000140: f116 47bf 7492 873e 2a96 0dbf 908b eabe
00000150: 12ca 70bd 8741 f63e 0c4f 6e3f e4f6 b43e
00000160: 4156 dc3e 117a 97be 744c 813e a894 9ebc
00000170: e100 4c3e 0940 acbe 1a0d 68be 4a2c d73d
00000180: a907 7ebe bf96 5f3f 3385 843d 2ebf 87bd
00000190: 7557 343e 8852 5d3e 1d8e 8c3e 4412 063f
000001a0: cb7f 48bd 6b31 31be 0a3e 13be 106c 323e
000001b0: 1559 70be 29f9 8cbd cab8 ee3e e4ac e93b
000001c0: f7a7 1fbf 077d cb3e be1d 27bf e7a1 fabd
000001d0: 58bc 9ebd dbc6 cb3e 1f93 243f c042 153e
000001e0: 98e8 203d 9068 063d 5a90 97bd 08ce 183f
000001f0: 2e01 91be 885d 05be 333b a63d f1af 05bf
00000200: 548c c3be fdb4 1fbd 30ad 253f 3a58 df3e
00000210: 929b 0ebe 3fdf 12bf e3c3 72be dec6 673e
00000220: fd11 d63e f22c ebbe 81af 06bf ea00 9bbe
00000230: fde8 f73e 6d0e 9abe 32f4 253c c812 e1be
00000240: 3150 bebc 3d30 71be e10e ffbe 3d70 dc3a
00000250: b4d7 913e 6e7b 253f 9d16 ba3e 9f91 e03e
00000260: 6254 3cbe af5b dd3c 08ae c3be 2a12 15be
00000270: 089c 27bf 2d9b 2f3e d85f eabe 2c18 733f
00000280: 586b c63e 85ae 28bf 2332 5e3d cf44 713e
00000290: f60c 96be a06e 1bbe fd1b 933c 5eb7 7b3e
000002a0: 6a25 a2be 70e0 5e3d 25c7 bebe 1b6a 29bd
000002b0: 2f61 093f 2ce6 123f 01e2 d33c ceb8 533f
000002c0: dd78 033f e080 8e3e fdde 4cbe f7cb 943e
000002d0: f05b 5cbf 6793 91bf 84ba fabe 9d30 cfbe
000002e0: 06b6 0e3f 5f8e 5c3d 8118 033e 7b51 143f
000002f0: 1fcb 97be 9ed3 b8bd 3086 42be ffd3 70bf
00000300: c3c7 373d b68a aa3e 4e58 4bbe 06e2 99bd
00000310: 6f05 0a3f 6be5 e83e b556 fdbe 676c 353e
00000320: a993 28bf b47d 17be 3494 f83c 3dc9 d23c
00000330: 33a1 9a3d f2ef 6dbd 5127 613e 9142 193f
00000340: d35e 203f 57e1 b2bc 289e 8f3e 1391 f03e
00000350: caa8 7bbf a78b 07bf be08 62be 2458 02bf
00000360: ed4a 7bbf cb81 8c3c c731 39bd 2a55 423e
00000370: c761 88be 7beb f33e a84b 85be 0932 8c3a
00000380: 7891 12be 4ed5 533e 3038 893e 931f 01bf
00000390: 4564 d13e f9cc 3fbe 1be7 cdbe 7e4c f93e
000003a0: 832a c9bb 1bae 2cbf 2ed2 82bd ccf2 ba3d
000003b0: ea17 b6be 55e2 cd3d 50f3 423e 75d4 8c3e
000003c0: 84ac 353f aebb 083f 4a60 d03e 8631 98be
000003d0: 03ee ea3e a68b e6be e608 0bbd 65a3 103d
000003e0: 362b 2f3f 8908 25bf 2c3b 523d a29f 27be
000003f0: 9f98 27bf 1d16 57bf 473b 6cbf dcc3 9d3e

static_variable_selection.single_variable_grns.Black.gate_norm.glu.fc.bias f4 [32]
0.15312786 0.043317005 0.0605802 -0.10131291 -0.10185117 -0.05817396 0.5411257 -0.04563121
0.46723348 0.33858275 0.065909386 -0.41660368 0.01711021 0.07897583 0.3791768 0.51711977
-0.6036244 -0.3720851 -0.1161027 -0.7565414 -0.49422458 -0.32166615 -0.038114157 0.287605
-0.67918247 -0.25709838 0.08210783 -0.08918434 -0.034384117 -0.62019455 -0.53132325 -0.2199075
00000000: 8dcd 1c3e 2c6d 313d f222 783d 257d cfbd
00000010: 5997 d0bd d147 6ebd 3787 0a3f cbe7 3abd
00000020: 3a39 ef3e b85a ad3e 80fb 863d 144d d5be
00000030: b62a 8c3c 14be a13d 7623 c23e f661 043f
00000040: 2187 1abf f081 bebe 41c7 edbd b2ac 41bf
00000050: 010b fdbe 6db1 a4be 971d 1cbd f640 933e
00000060: e7de 2dbf 66a2 83be 2628 a83d 47a6 b6bd
00000070: 5cd6 0cbd 12c5 1ebf cd04 08bf 6f2f 61be

static_variable_selection.single_variable_grns.Black.gate_norm.add_norm.norm.weight f4 [16]
0.1482528 0.03559564 1.1924183 1.2735038 1.1568537 1.2133639 0.48857778 1.7765081
0.21743168 0.13238023 1.5113599 1.8539705 1.0344306 0.76209205 0.9832114 1.0842022
00000000: 95cf 173e bccc 113d 2aa1 983f 2c02 a33f
00000010: c813 943f 824f 9b3f de26 fa3e 9e64 e33f
00000020: 69a6 5e3e af8e 073e 3e74 c13f e84e ed3f
00000030: 3968 843f 7718 433f beb3 7b3f 23c7 8a3f

static_variable_selection.single_variable_grns.Black.gate_norm.add_norm.norm.bias f4 [16]
-0.030394599 -0.05074336 -0.08837454 0.6917021 0.296752 0.16168968 0.21026519 0.0035978386
0.0014672884 -0.17742151 -0.4592881 -0.6921909 -0.08568673 -0.12890941 -0.15990463 0.52084637
00000000: 18fe f8bc 45d8 4fbd b6fd b4bd 6413 313f
00000010: e1ef 973e fb91 253e c24f 573e b7c9 6b3b
00000020: 0752 c03a fcad 35be cf27 ebbe 6c33 31bf
00000030: 867c afbd d400 04be 0abe 23be 3056 053f

static_variable_selection.prescalers.Black.weight f4 [8, 1]
-0.7716091 -1.5710222 1.2523241 1.2857256 -0.0076866457 -0.98527205 -1.0945925 0.7219071
00000000: 2d88 45bf 4117 c9bf 284c a03f a892 a43f
00000010: 42e0 fbbb ca3a 7cbf 9b1b 8cbf e7ce 383f

static_variable_selection.prescalers.Black.bias f4 [8]
0.09770997 0.34849024 0.4439359 -0.1717851 -0.0071349572 -0.5257721 0.06864235 0.20576477
00000000: 2a1c c83d 506d b23e 914b e33e 6fe8 2fbe
00000010: 5ccc e9bb 0099 06bf 5c94 8c3d 00b4 523e

encoder_variable_selection.flattened_grn.resample_norm.mask f4 [3]
-0.74384344 0.020989727 0.43524444
00000000: 866c 3ebf a6f2 ab3c 5cd8 de3e

encoder_variable_selection.flattened_grn.resample_norm.norm.weight f4 [3]
0.9784135 1.0881383 2.3444397
00000000: 4f79 7a3f 1e48 8b3f 4d0b 1640

encoder_variable_selection.flattened_grn.resample_norm.norm.bias f4 [3]
0.23155479 0.239928 -0.70111877
00000000: b31c 6d3e b0af 753e 857c 33bf

encoder_variable_selection.flattened_grn.fc1.weight f4 [3, 24]
0.7103628 -0.67201275 0.6057284 -0.45325932 0.38212052 0.08796513 0.17241591 0.23407848
-0.66636425 0.37289038 -0.11345225 -1.4840294 0.08006438 0.29231063 0.112776 0.33637828
0.6089351 -0.7966934 0.16954203 0.062136963 0.2098156 -0.062142793 0.042670682 0.41825667
0.097773746 0.32457867 -0.6220906 -0.1970683 -0.23899236 0.21260093 -0.26751238 0.32117516
-0.58636 0.36235988 -0.82747465 -0.87000054 0.011820215 0.3627851 0.20052387 0.5432618
-0.3468662 0.7857268 0.009334949 -0.7618071 -0.77288765 -0.12029482 0.57513416 -0.1849275
0.28057498 -0.7447262 -0.016933005 -0.4034017 0.40011916 0.58161104 -0.033557557 0.50869864
-0.52641064 0.31782445 0.08920164 0.17616692 -0.05126419 0.05562992 0.50065905 0.27115753
0.3621754 0.158944 -0.24227516 0.09586043 -0.004275203 0.05042315 -0.5977413 0.33268833
00000000: 56da 353f 0709 2cbf 0411 1b3f 9b11 e8be
00000010: 4da5 c33e 1027 b43d cc8d 303e 45b2 6f3e
00000020: d996 2abf 7deb be3e a759 e8bd adf4 bdbf
00000030: cbf8 a33d bda9 953e 1af7 e63d c639 ac3e
00000040: 2ce3 1b3f 19f4 4bbf 6d9c 2d3e 5483 7e3d
00000050: e7d9 563e 7189 7ebd 74c7 2e3d bd25 d63e
00000060: 9a3d c83d 2d2f a63e 5441 1fbf 46cc 49be
00000070: 6aba 74be 0fb4 593e 62f7 88be 1271 a43e
00000080: b01b 16bf 3c87 b93e 61d5 53bf 5bb8 5ebf
00000090: 93a9 413c f8be b93e 2156 4d3e 3513 0b3f
000000a0: 7298 b1be 6425 493f 9df1 183c ca05 43bf
000000b0: f7db 45bf 215d f6bd fe3b 133f a25d 3dbe
000000c0: 86a7 8f3e 60a6 3ebf 16b7 8abc ab8a cebe
000000d0: 6bdc cc3e 76e4 143f a673 09bd 133a 023f
000000e0: d9c2 06bf e3b9 a23e 59af b63d 1a65 343e
000000f0: 66fa 51bd 33dc 633d 312b 003f 29d5 8a3e
00000100: 0e6f b93e 37c2 223e fb16 78be 7952 c43d
00000110: 0117 8cbb 8188 4e3d 9305 19bf 2056 aa3e

encoder_variable_selection.flattened_grn.fc1.bias f4 [3]
-0.23990633 -0.26169136 -0.30244285
00000000: 01aa 75be 69fc 85be cad9 9abe

encoder_variable_selection.flattened_grn.context.weight f4 [3, 16]
-0.037414268 0.0075554256 -0.44656435 -0.13073981 0.006096612 -0.19465935 -0.00036425443 -0.030297175
0.027964478 -0.00029434456 0.07928552 -0.01832697 0.0014590219 0.0625187 -0.07917219 -0.003946799
0.22774501 -0.0053952257 0.27108532 -0.54559577 -0.17003798 0.8402552 -0.07683929 0.048081256
-0.030036997 -0.07813349 -0.31046125 -0.0035898907 -0.09457467 0.02100469 -0.021874914 -0.011063647
-0.16659124 0.053648118 0.40005666 -0.1366104 -0.106744014 0.6316745 -0.022430532 0.020625
-0.058715075 0.0143490415 0.023590669 0.21590246 0.044557735 -0.056378406 0.32962605 0.024770858
00000000: b43f 19bd 8193 f73b 15a4 e4be a8e0 05be
00000010: 17c6 c73b c854 47be 67f9 beb9 c831 f8bc
00000020: c315 e53c 4252 9ab9 7260 a23d 7122 96bc
00000030: a73c bf3a ce09 803d 0725 a2bd 2654 81bb
00000040: fd35 693e 6fca b0bb b2cb 8a3e 2aac 0bbf
00000050: 701e 2ebe f71a 573f eb5d 9dbd daf0 443d
00000060: 2610 f6bc 7404 a0bd c7f4 9ebe 5f44 6bbb
00000070: 5db0 c1bd 0712 ac3c 0533 b3bc 4d44 35bc
00000080: e596 2abe 21be 5b3d 3ad4 cc3e 99e3 0bbe
00000090: 9b9c dabd 6cb5 213f 3cc0 b7bc c3f5 a83c
000000a0: 387f 70bd 3e18 6b3c 3841 c13c 8915 5d3e
000000b0: 2c82 363d 0bed 66bd bfc4 a83e 41ec ca3c

encoder_variable_selection.flattened_grn.fc2.weight f4 [3, 3]
-0.6903002 -1.2303886 0.073855594 -0.33351293 -0.86220527 -0.015437028 -0.4469253 -0.7596954
-0.2357544
00000000: 84b7 30bf 607d 9dbf 9a41 973d 35c2 aabe
00000010: 7cb9 5cbf 97eb 7cbc 65d3 e4be 667b 42bf
00000020: 9a69 71be

encoder_variable_selection.flattened_grn.fc2.bias f4 [3]
0.1288095 -0.07736715 -0.22768605
00000000: a3e6 033e ab72 9ebd 8826 69be

encoder_variable_selection.flattened_grn.gate_norm.glu.fc.weight f4 [6, 3]
0.2548231 -0.19227636 0.3714728 -0.016097998 -0.39746282 0.12063133 -0.48115206 -0.5583055
-0.07570052 -0.33096722 -0.25128344 0.8656064 0.34821263 -0.21172062 -0.23091409 1.1288372
0.71771556 1.2215412
00000000: 2c78 823e 18e4 44be af31 be3e f3df 83bc
00000010: 3f80 cbbe 8f0d f73d 9059 f6be 1ced 0ebf
00000020: e008 9bbd 8974 a9be 39a8 80be 6298 5d3f
00000030: ed48 b23e 4acd 58be be74 6cbe bd7d 903f
00000040: 35bc 373f 765b 9c3f

encoder_variable_selection.flattened_grn.gate_norm.glu.fc.bias f4 [6]
0.23544301 0.13459751 -0.73244506 -0.7111071 -0.8458504 0.3960445
00000000: f917 713e eed3 093e 8581 3bbf 1d0b 36bf
00000010: a789 58bf 58c6 ca3e

encoder_variable_selection.flattened_grn.gate_norm.add_norm.norm.weight f4 [3]
0.32208478 0.09307365 0.34106752
00000000: 4ce8 a43e 669d be3d 67a0 ae3e

encoder_variable_selection.flattened_grn.gate_norm.add_norm.norm.bias f4 [3]
0.07378528 -0.43351093 0.6267288
00000000: bd1c 973d 25f5 ddbe 4c71 203f

encoder_variable_selection.single_variable_grns.SinWeekly.resample_norm.mask f4 [16]
0.062060893 -0.30506358 0.5438709 0.35023174 -1.0436375 -0.18302354 -0.35026747 -0.4417102
-0.6638354 -0.20538062 -0.22666325 -0.06390215 0.16966732 0.5296604 0.6404683 -0.08622638
00000000: 9033 7e3d 4b31 9cbe 203b 0b3f 9351 b33e
00000010: ea95 85bf 866a 3bbe 4256 b3be d727 e2be
00000020: 1ef1 29bf 4c4f 52be 691a 68be 21df 82bd
00000030: 45bd 2d3e d397 073f bbf5 233f 7597 b0bd

encoder_variable_selection.single_variable_grns.SinWeekly.resample_norm.norm.weight f4 [16]
0.7155036 -0.029556347 1.739848 1.1875665 0.39362136 1.0038915 0.6512271 0.75100344
0.34520087 0.3504366 1.2313099 1.459029 1.1482923 1.6748579 2.3164718 0.734912
00000000: 3e2b 373f 2720 f2bc 57b3 de3f 2e02 983f
00000010: bd88 c93e 847f 803f d2b6 263f c341 403f
00000020: 2bbe b03e 6d6c b33e 909b 9d3f 76c1 ba3f
00000030: 3efb 923f be61 d63f 1341 1440 3123 3c3f

encoder_variable_selection.single_variable_grns.SinWeekly.resample_norm.norm.bias f4 [16]
0.20365117 -0.03139516 -0.21560226 0.21946254 -0.1992092 0.15759102 -0.20713058 -0.06645359
0.065963484 0.11662422 -0.08279847 0.1265881 -0.3673005 0.12992364 -0.2940582 0.115738794
00000000: ef89 503e 3698 00bd d7c6 5cbe caba 603e
00000010: 7ffd 4bbe 8a5f 213e 0a1a 54be d218 88bd
00000020: dd17 873d aed8 ee3d 3f92 a9bd 50a0 013e
00000030: d00e bcbe b40a 053e cc8e 96be 7608 ed3d

encoder_variable_selection.single_variable_grns.SinWeekly.fc1.weight f4 [8, 8]
0.7621199 -1.9774295 -0.6942014 -2.7580984 -0.26542732 0.0054261694 0.35523584 0.605547
-0.14185454 0.38800752 -0.7354001 -0.21618924 -1.4821088 1.1874827 -1.5718486 -0.59807557
-0.2187992 0.040584452 -0.7684477 0.27168974 -1.0453051 0.6036396 0.62144166 0.048216112
0.22859277 0.08560397 -0.41790667 0.118527554 0.24259171 0.22137886 0.20765324 0.5647614
-0.39841628 -0.5485179 1.3853952 -0.3746329 0.39082474 0.62704223 0.77393275 -0.66010135
0.6258678 -0.35337514 -0.63653165 -0.0076900665 0.20788816 -0.20928793 -0.19619246 0.23720469
-1.111057 0.031198565 -2.0637577 0.5633923 -1.4396138 0.4347007 -2.0659232 -0.9306256
0.31568962 -0.078476034 -0.5305718 0.13893612 1.0137024 0.4883497 0.04228214 0.6377226
00000000: 4a1a 433f 691c fdbf 2fb7 31bf af84 30c0
00000010: 17e6 87be 02ce b13b 79e1 b53e 2105 1b3f
00000020: 5142 11be eca8 c63e 2e43 3cbf b660 5dbe
00000030: beb5 bdbf 6fff 973f 5632 c9bf 7b1b 19bf
00000040: e60c 60be e23b 263d fdb8 44bf eb1a 8b3e
00000050: 8fcc 85bf 2088 1a3f cd16 1f3f 427e 453d
00000060: 3914 6a3e 2251 af3d ddf7 d5be 93be f23d
00000070: f669 783e 24b1 623e 0da3 543e 3494 103f
00000080: 38fd cbbe ab6b 0cbf a154 b13f e2cf bfbe
00000090: 2e1a c83e d785 203f 7520 463f 67fc 28bf
000000a0: df38 203f 96ed b4be bdf3 22bf f4fc fbbb
000000b0: a2e0 543e 934f 56be ade6 48be c9e5 723e
000000c0: 1e37 8ebf 2294 ff3c 9b14 04c0 7a3a 103f
000000d0: 4445 b8bf 1791 de3e 1638 04c0 7b3d 6ebf
000000e0: 12a2 a13e 0bb8 a0bd 8ed3 07bf 4545 0e3e
000000f0: 00c1 813f f908 fa3e 0a30 2d3d ca41 233f

encoder_variable_selection.single_variable_grns.SinWeekly.fc1.bias f4 [8]
-0.27105844 -0.28899142 -0.1268239 -0.16295151 0.056283154 -0.1321258 -0.4076635 -0.07459135
00000000: 2cc8 8abe aff6 93be 20de 01be c3dc 26be
00000010: 2a89 663d fc4b 07be 45b9 d0be 5ac3 98bd

encoder_variable_selection.single_variable_grns.SinWeekly.fc2.weight f4 [8, 8]
-1.1896493 0.20031206 -1.1690975 -0.095051125 -0.2113467 0.11466062 0.35200715 -0.274433
-0.57221454 -0.20387568 0.23792395 0.22297032 -0.07368546 0.413752 0.7743858 0.11897553
0.6198401 -0.3435163 -0.22498131 -0.017340312 0.7678054 0.11457958 0.8564472 0.19927827
0.25399646 0.81567174 0.16139884 0.008354738 0.31046003 -0.37966016 0.6027815 -0.32102633
-1.2496746 1.0784655 -0.45577407 -0.06584799 0.28220525 0.2147237 0.06261488 -0.06883662
0.8779966 -0.66784775 -0.32704842 0.015683426 -0.60519326 -0.12156383 -0.5062837 -0.3337661
0.28694573 0.23989372 -0.09825685 -0.08077262 0.48592803 -0.07301356 0.828308 0.15848945
0.60800415 0.10796294 0.3076213 0.113544166 0.4534297 -0.002879813 1.1452516 -0.39558676
00000000: 6e46 98bf 9b1e 4d3e fda4 95bf 2aaa c2bd
00000010: 456b 58be 30d3 ea3d 483a b43e 7b82 8cbe
00000020: a77c 12bf c9c4 50be 56a2 733e 5552 643e
00000030: 67e8 96bd 4dd7 d33e 263e 463f 71a9 f33d
00000040: d7ad 1e3f 5ee1 afbe 8061 66be 450d 8ebc
00000050: e58e 443f b3a8 ea3d 2040 5b3f 9a0f 4c3e
00000060: d30b 823e ddcf 503f bd45 253e 50e2 083c
00000070: 9ef4 9e3e d162 c2be e34f 1a3f 905d a4be
00000080: 56f5 9fbf 280b 8a3f 385b e9be 50db 86bd
00000090: 357d 903e 88e0 5b3e 3b3c 803d 37fa 8cbd
000000a0: 63c4 603f 12f8 2abf e472 a7be 877a 803c
000000b0: f2ed 1abf 75f6 f8bd cf9b 01bf 64e3 aabe
000000c0: 8dea 923e b3a6 753e e33a c9bd 1e6c a5bd
000000d0: 8fcb f83e 2288 95bd fe0b 543f 0f4b 223e
000000e0: 29a6 1b3f ad1b dd3d 8a80 9d3e d889 e83d
000000f0: f027 e83e 3fbb 3cbb 9b97 923f 598a cabe

encoder_variable_selection.single_variable_grns.SinWeekly.fc2.bias f4 [8]
-0.2682944 -0.22195515 0.1567165 0.28945023 -0.07883736 0.2197161 0.24866642 0.21727581
00000000: e25d 89be 3648 63be 4a7a 203e d232 943e
00000010: 7b75 a1bd 42fd 603e 69a2 7e3e 8d7d 5e3e

encoder_variable_selection.single_variable_grns.SinWeekly.gate_norm.glu.fc.weight f4 [32, 8]
0.3433868 0.19640449 -0.03001426 0.18075056 0.23577642 -0.4667004 0.2471129 0.23316467
-0.24425997 -0.13468835 0.004880511 -0.27796614 -0.318347 0.46278793 0.5558012 0.111100405
0.35054612 0.57153714 -0.22171889 0.32403323 0.31096703 -0.34159094 -0.09852346 0.30585608
0.14657634 -0.119632676 -0.72711223 -0.5639234 -0.051804222 0.6662382 -0.65863377 -0.124847285
0.42812687 0.6351813 0.4157437 0.8009294 0.4207492 -0.7456595 0.9232695 0.84846807
0.27442503 -0.13302208 0.18609403 0.12105166 -0.24716729 -0.10164357 0.08704154 0.256102
0.6192899 0.33896858 -0.90241027 -0.57285833 0.5780146 -0.48864612 -0.93439 -0.6270449
-0.2773359 0.014159194 0.57762194 -0.10829882 -0.40079588 0.26470914 -0.1140894 -0.45263073
0.5845138 0.5818577 0.4800776 0.9137824 0.5180717 -0.9401954 0.5742391 0.57618463
0.03162943 -0.31966665 0.28304484 0.11325026 -0.097082235 -0.058160003 0.007007355 -0.097370215
-0.10871639 0.07362198 0.14517814 0.21484417 -0.06618838 -0.16042536 0.121021666 0.28761694
0.27971187 0.5438609 0.24865068 0.3575865 0.1230333 -0.6792614 0.3692308 0.30878478
0.74442035 0.6986556 -0.49248636 -0.48514882 0.76825666 -0.5878518 -0.5413803 -0.36080053
0.33007026 0.19270891 -0.37131748 -0.57656026 0.34924418 -0.20513125 -0.5982249 -0.54502475
-0.82807106 -1.1119398 1.0863911 -0.14106734 -1.0476557 0.896996 0.49218333 0.6755678
0.3697218 -0.601576 -0.46852183 -0.0141419 -0.12199627 -0.11400052 -0.14586867 -0.38648847
0.43940228 0.7212861 -0.2313274 0.6103328 0.24673618 -0.70386076 0.5390321 -0.032229926
0.0669026 -0.3163069 -0.01512214 0.206659 -0.035970937 0.3896045 0.25648856 -0.066724695
0.0071220207 0.026313966 0.1540958 0.10371743 0.021868566 -0.24664564 0.4554777 1.7340354
0.1605874 -0.35796696 -1.0518982 -0.7587951 -0.005182242 0.4562028 -0.91589713 -0.85914284
0.91894263 0.41607255 -0.3663688 0.019281719 0.7966977 -0.17938744 -0.2248464 -0.027495423
-0.07034911 -0.14214598 -0.19736797 -0.22746713 -0.15385069 -0.54715693 0.16360486 -0.7334772
-0.61393803 -0.45778927 1.4286104 0.089588396 -0.3739105 0.091499336 0.9810325 0.9053375
-0.39099175 0.8583687 0.3598693 0.47841746 -0.16408327 -0.42145884 0.35124105 -0.21710713
0.061531387 0.5019679 0.07638891 0.40466148 0.5165333 -0.59073734 0.08475843 0.20575058
-0.26296014 0.26810065 -0.23431608 0.1832729 -0.06911342 -0.08236431 -0.095876224 -0.23806597
0.12479596 -0.11829093 -0.7369694 -0.38190788 0.16251597 0.43069682 -0.6470481 -0.75721085
0.36775947 0.2535576 -0.12591861 -0.07186372 0.41421843 -0.44791856 -0.04056188 -0.15515222
-1.2387077 -1.0257287 0.40095267 -0.29997724 -0.81441706 0.53980434 0.74479115 0.35043308
-0.15170538 -0.37001786 0.16368614 0.0018489853 -0.1549027 0.31366825 0.15789157 0.3291751
-0.8521539 -0.18380755 0.115584046 0.04243385 -0.89144766 0.641089 0.11934472 0.22010791
0.06453889 0.119766414 -0.5330212 -0.25177282 -0.40357438 -0.022953378 -0.22600898 -0.60490197
00000000: 65d0 af3e 421e 493e 77e0 f5bc ad16 393e
00000010: 606f 713e 5bf3 eebe 2a0b 7d3e b8c2 6e3e
00000020: 491f 7abe beeb 09be b2ec 9f3b 9451 8ebe
00000030: 61fe a2be 8af2 ec3e fd48 0e3f 9c88 e33d
00000040: c87a b33e 4250 123f 470a 63be afe7 a53e
00000050: 1237 9f3e 02e5 aebe abc6 c9bd 2b99 9c3e
00000060: 1c18 163e fa01 f5bd 0724 3abf 495d 10bf
00000070: aa30 54bd 968e 2a3f 399c 28bf efaf ffbd
00000080: 7233 db3e 3e9b 223f 5cdc d43e b609 4d3f
00000090: 706c d73e 8ae3 3ebf 645b 6c3f 3435 593f
000000a0: 7081 8c3e f136 08be 6f8f 3e3e efe9 f73d
000000b0: 6c19 7dbe 812a d0bd d642 b23d cd1f 833e
000000c0: c889 1e3f 4a8d ad3e 5c04 67bf d8a6 12bf
000000d0: c4f8 133f d32f fabe 2f34 6fbf 0486 20bf
000000e0: f9fe 8dbe f7fb 673c 08df 133f c6cb ddbd
000000f0: 1e35 cdbe f587 873e b4a7 e9bd 37bf e7be
00000100: b2a2 153f a0f4 143f bbcc f53e a5ed 693f
00000110: 59a0 043f a5b0 70bf 5501 133f d680 133f
00000120: dc8d 013d 59ab a3be 41eb 903e c1ef e73d
00000130: 0dd3 c6bd 2f39 6ebd f49d e53b 096a c7bd
00000140: b3a6 debd 1fc7 963d 94a9 143e 1c00 5c3e
00000150: c68d 87bd 8c46 24be 35da f73d 8742 933e
00000160: 6536 8f3e 783a 0b3f 499e 7e3e 9415 b73e
00000170: e2f8 fb3d 13e4 2dbf d20b bd3e 0a19 9e3e
00000180: 5592 3e3f 18db 323f 2c27 fcbe 6d65 f8be
00000190: 78ac 443f 757d 16bf e697 0abf d9ba b8be
000001a0: f8fe a83e 7c55 453e 531d bebe 7499 13bf
000001b0: 22d0 b23e ed0d 52be 4425 19bf be86 0bbf
000001c0: 77fc 53bf 0b54 8ebf dd0e 8b3f f573 10be
000001d0: 9519 86bf 88a1 653f 74ff fb3e 03f2 2c3f
000001e0: 2d4c bd3e e200 1abf 18e2 efbe 6eb3 67bc
000001f0: 2ed9 f9bd 1b79 e9bd 995e 15be d1e1 c5be
00000200: 56f9 e03e 35a6 383f 17e1 6cbe c53e 1c3f
00000210: 69a8 7c3e 3830 34bf 02fe 093f 8703 04bd
00000220: 3b04 893d faf2 a1be dac2 77bc 6b9e 533e
00000230: 4356 13bd 3e7a c73e 7852 833e f5a6 88bd
00000240: d75f e93b 6390 d73c 4acb 1d3e ce69 d43d
00000250: b525 b33c ad90 7cbe 6034 e93e dff4 dd3f
00000260: 0671 243e 7247 b7be 9aa4 86bf 6540 42bf
00000270: cccf a9bb 6a93 e93e 3c78 6abf c9f0 5bbf
00000280: d33f 6b3f 7607 d53e b194 bbbe b2f4 9d3c
00000290: 61f4 4b3f 57b1 37be 223e 66be 153e e1bc
000002a0: 3213 90bd b78e 11be d41a 4abe 25ed 68be
000002b0: 098b 1dbe 7a12 0cbf 0888 273e 29c5 3bbf
000002c0: 0b2b 1dbf 5b63 eabe b5dc b63f 1f7a b73d
000002d0: 3271 bfbe 0164 bb3d f224 7b3f 33c4 673f
000002e0: 1230 c8be 0dbe 5b3f ca40 b83e 22f3 f43e
000002f0: 7205 28be 74c9 d7be ded5 b33e 5551 5ebe
00000300: 5608 7c3d f880 003f ca71 9c3d ca2f cf3e
00000310: 873b 043f 903a 17bf d495 ad3d 48b0 523e
00000320: b6a2 86be 7d44 893e 8ef0 6fbe e4ab 3b3e
00000330: 568b 8dbd 9fae a8bd c15a c4bd 91c7 73be
00000340: 0695 ff3d 8442 f2bd 07aa 3cbf 6e89 c3be
00000350: 966a 263e 4b84 dc3e f2a4 25bf 92d8 41bf
00000360: f84a bc3e 4dd2 813e cff0 00be 492d 93bd
00000370: 7014 d43e 9555 e5be 3724 26bd 39e0 1ebe
00000380: f98d 9ebf 144b 83bf ab49 cd3e 9e96 99be
00000390: a37d 50bf 9e30 0a3f a2aa 3e3f f76b b33e
000003a0: a858 1bbe fb72 bdbe 579d 273e a759 f23a
000003b0: d09e 1ebe 2099 a03e 54ae 213e a489 a83e
000003c0: c226 5abf 0c38 3cbe 54b7 ec3d 1ecf 2d3d
000003d0: ea35 64bf 691e 243f 016b f43d f863 613e
000003e0: f72c 843d 1848 f53d 1474 08bf 5ee8 80be
000003f0: 4da1 cebe b908 bcbc e66e 67be dbda 1abf

encoder_variable_selection.single_variable_grns.SinWeekly.gate_norm.glu.fc.bias f4 [32]
0.24066247 -0.009292643 0.36634383 0.25018147 0.0137835 0.035543967 -0.32915097 0.027910065
0.13691297 0.12601562 -0.14139514 0.32577506 -0.09509502 -0.067024186 -0.09111455 0.15477818
-0.2158566 -0.4172805 0.61637735 -0.4636652 1.1124625 -1.9615271 0.23946264 -0.5966631
-0.2799999 -1.8474387 -0.6288657 0.07351169 -1.0551687 0.8657828 -0.29631236 -0.5426496
00000000: 3970 763e 2b40 18bc 6b91 bb3e c917 803e
00000010: 30d4 613c 8d96 113d 7a86 a8be a6a3 e43c
00000020: ea32 0c3e 3d0a 013e e3c9 10be fdcb a63e
00000030: 2ec1 c2bd fa43 89bd 449a babd 2c7e 1e3e
00000040: 8309 5dbe caa5 d5be e8ca 1d3f 8665 edbe
00000050: 2c65 8e3f 5213 fbbf b235 753e eabe 18bf
00000060: 265c 8fbe df78 ecbf 58fd 20bf 4c8d 963d
00000070: c50f 87bf f1a3 5d3f 41b6 97be 16eb 0abf

encoder_variable_selection.single_variable_grns.SinWeekly.gate_norm.add_norm.norm.weight f4 [16]
0.57915443 0.25027558 1.547535 1.2249882 1.0810506 0.55788755 1.0275549 0.3732663
1.1341549 0.3528778 1.2549351 1.8524486 0.76891285 1.8460494 1.3509734 0.22097355
00000000: 7743 143f 1f24 803e a015 c63f 6acc 9c3f
00000010: de5f 8a3f b8d1 0e3f eb86 833f c31c bf3e
00000020: fd2b 913f 66ac b43e b7a1 a03f 091d ed3f
00000030: 79d7 443f 594b ec3f b2ec ac3f e446 623e

encoder_variable_selection.single_variable_grns.SinWeekly.gate_norm.add_norm.norm.bias f4 [16]
0.107357755 0.07373658 -0.10778286 0.08200793 -0.08965546 0.021492722 -0.18113844 -0.053643543
0.28906104 0.0013635646 -0.21943633 0.056507327 -0.29060718 0.14194545 -0.03589864 0.18062969
00000000: 62de db3d 3403 973d 43bd dcbd c6f3 a73d
00000010: 489d b7bd 8111 b03c 5b7c 39be 55b9 5bbd
00000020: cfff 933e a3b9 b23a ebb3 60be 3a74 673d
00000030: 77ca 94be 265a 113e 740a 13bd fdf6 383e

encoder_variable_selection.single_variable_grns.VaccinationFull.resample_norm.mask f4 [16]
-0.16157424 0.08802067 -0.07147068 -0.998199 0.93104047 -1.0906429 0.4215585 0.6275839
0.13513644 -0.74592835 -0.44529983 0.38880035 -0.8375408 0.38037893 0.7418171 -0.14404267
00000000: b873 25be 2e44 b43d 385f 92bd f889 7fbf
00000010: ab58 6e3f 309a 8bbf 84d6 d73e 57a9 203f
00000020: 3561 0a3e 29f5 3ebf 57fe e3be d710 c73e
00000030: 1369 56bf 07c1 c23e bae7 3d3f ec7f 13be

encoder_variable_selection.single_variable_grns.VaccinationFull.resample_norm.norm.weight f4 [16]
0.8264808 -0.11215871 1.1970147 0.44181803 1.9858662 0.30726305 1.3103704 1.707825
1.3230028 0.4972232 0.2522378 1.0797014 0.63532054 1.5749458 1.2321757 0.7265916
00000000: 3f94 533f 77b3 e5bd c737 993f f935 e23e
00000010: dd30 fe3f 9551 9d3e 38ba a73f 029a da3f
00000020: 2858 a93f 0a94 fe3e 5025 813e a833 8a3f
00000030: 5ea4 223f d397 c93f efb7 9d3f e801 3a3f

encoder_variable_selection.single_variable_grns.VaccinationFull.resample_norm.norm.bias f4 [16]
0.32047123 0.04094381 -0.41855058 0.09400007 -0.07217932 -0.079640724 0.007395601 0.27137724
0.14360224 -0.27474448 -0.10213542 0.15879568 0.20728907 -0.38369444 0.14731193 0.1968124
00000000: ce14 a43e b2b4 273d 434c d6be 1c83 c03d
00000010: c0d2 93bd ad1a a3bd cc56 f23b f5f1 8a3e
00000020: 770c 133e 4fab 8cbe 602c d1bd 569b 223e
00000030: 9643 543e 9973 c4be f0d8 163e 3189 493e

encoder_variable_selection.single_variable_grns.VaccinationFull.fc1.weight f4 [8, 8]
0.546625 -0.1372268 -0.6345297 -0.06075419 0.72469246 -0.016754426 -0.84793276 -0.13534859
0.31848535 -0.47066373 -1.271365 -0.85399 0.36414754 0.48306164 0.45553368 0.49326867
0.10470325 -0.6364247 -0.22793314 -0.18750465 -0.24667035 0.33986604 -0.20912622 -0.62353027
-0.25216818 -0.78055006 -1.094164 0.13759613 -0.40669745 1.4305503 0.060222268 0.77556944
0.20590651 0.5986169 0.2714626 0.40425348 -0.15509063 0.2966356 0.57018334 0.66911393
-0.33090723 0.44171405 0.3973082 -0.27550945 -1.7976296 -0.90379983 -0.2762862 -1.8595488
-0.56965274 0.36661464 0.30463618 0.1757154 0.85530347 -0.23445278 0.2960747 0.09287192
0.36193377 0.060809895 -0.4427657 -0.123450994 -0.45149723 -1.2113669 -0.30753717 -1.571106
00000000: 9eef 0b3f 2f85 0cbe 8a70 22bf 63d9 78bd
00000010: 7285 393f 9440 89bc 1f12 59bf d298 0abe
00000020: 8310 a33e d6fa f0be 17bc a2bf 179f 5abf
00000030: 8c71 ba3e db53 f73e b63b e93e b68d fc3e
00000040: a86e d63d bbec 22bf 4e67 69be 3801 40be
00000050: 2797 7cbe ec02 ae3e 2f25 56be ae9f 1fbf
00000060: 301c 81be 21d2 47bf 910d 8cbf 00e6 0c3e
00000070: a63a d0be 461c b73f a0ab 763d b88b 463f
00000080: 28d9 523e f53e 193f 25fd 8a3e 50fa ce3e
00000090: 14d0 1ebe 9fe0 973e 89f7 113f 0d4b 2b3f
000000a0: ac6c a9be 5828 e23e fb6b cb3e 930f 8dbe
000000b0: ba18 e6bf 6d5f 67bf 6375 8dbe b205 eebf
000000c0: c3d4 11bf eab4 bb3e 46f9 9b3e bdee 333e
000000d0: 2bf5 5a3f 6414 70be 1a97 973e a233 be3d
000000e0: 624f b93e cc13 793d 30b2 e2be e0d3 fcbd
000000f0: a52a e7be 120e 9bbf 8375 9dbe 001a c9bf

encoder_variable_selection.single_variable_grns.VaccinationFull.fc1.bias f4 [8]
0.31383646 0.3360136 0.12622982 0.1364967 -0.07045692 -0.62838924 -0.18719739 -0.10099124
00000000: 2caf a03e f909 ac3e 6442 013e cac5 0b3e
00000010: b84b 90bd 1ede 20bf acb0 3fbe 7fd4 cebd

encoder_variable_selection.single_variable_grns.VaccinationFull.fc2.weight f4 [8, 8]
-0.21931101 -0.1395522 -0.12752259 -0.63669705 -0.51531315 0.42040962 -0.06647099 0.3887366
0.49564078 -0.58324295 -0.21368377 -0.60416573 -0.3162397 -0.9549586 0.21386397 -0.2716548
-1.3809386 0.055101775 0.040095318 0.6419032 -0.15955733 0.5147316 0.028620157 0.67412746
0.34031305 -0.93909115 0.10320616 -0.60538644 0.20169641 -1.1277276 -0.11787108 -0.111772746
-0.2404384 -0.66552246 0.33645362 -0.12970191 0.15318704 -0.16991049 -0.28783724 0.6995148
-0.40634117 0.2888068 0.14289069 0.4160176 0.03383025 0.257982 -0.2608202 -0.8838748
0.7066505 -0.2625471 0.03799005 0.7666918 -0.020190766 -0.82659006 0.037437867 -0.048437625
-0.005826394 0.6376642 0.1943852 0.79389405 -0.12185659 -0.34123403 -0.2305863 -0.3480709
00000000: 1193 60be c6e6 0ebe 4895 02be 94fe 22bf
00000010: 90eb 03bf ee3f d73e f121 88bd 7c08 c73e
00000020: a1c4 fd3e 694f 15bf ebcf 5abe 9baa 1abf
00000030: 2cea a1be 2b78 74bf 28ff 5a3e 5716 8bbe
00000040: 99c2 b0bf 66b2 613d fd3a 243d c553 243f
00000050: ff62 23be 73c5 033f d274 ea3c 9e93 2c3f
00000060: 833d ae3e 4768 70bf c05d d33d 9bfa 1abf
00000070: 8189 4e3e 6159 90bf 6566 f1bd 1ce9 e4bd
00000080: 7c35 76be ae5f 2abf a643 ac3e 94d0 04be
00000090: 10dd 1c3e 04fd 2dbe 675f 93be 6713 333f
000000a0: f30b d0be 7cde 933e f051 123e 4200 d53e
000000b0: 9791 0a3d 3716 843e 3a8a 85be 9e45 62bf
000000c0: 0ce7 343f 936c 86be 749b 1b3d ea45 443f
000000d0: 1b67 a5bc 689b 53bf 7358 193d 8866 46bd
000000e0: 56eb bebb f63d 233f ea0c 473e a43c 4b3f
000000f0: f38f f9bd 3ab6 aebe d11e 6cbe 5936 b2be

encoder_variable_selection.single_variable_grns.VaccinationFull.fc2.bias f4 [8]
-0.13554728 0.24658 -0.08811007 0.5029896 0.15335122 0.030805811 0.4392395 0.16581103
00000000: e8cc 0abe 787f 7c3e 0d73 b4bd edc3 003f
00000010: 1a08 1d3e 785c fc3c 00e4 e03e 5eca 293e

encoder_variable_selection.single_variable_grns.VaccinationFull.gate_norm.glu.fc.weight f4 [32, 8]
-0.18680842 0.44761723 -0.09062693 0.61358637 -0.37216833 0.5011681 0.36825737 0.063073
-0.14356296 -0.21876249 -0.37013012 -0.40785512 0.1656125 -0.06146345 0.036571812 -0.3577769
-0.007932783 -0.5738389 0.32725945 -0.7064976 -0.0113099795 0.18374182 -0.7799237 0.1237784
-1.5304095 0.67755926 -0.9141668 0.39984602 -1.1923753 1.3758035 0.9955615 1.4555771
0.72452974 0.0020975356 0.61706764 0.16362238 0.7204327 -0.74139744 -0.46587983 -0.8527934
0.156016 -0.3331554 0.7577682 -0.75945944 0.050254866 -0.071107835 -0.32043728 -0.22239085
0.37904814 0.23745006 -0.0039064563 0.06140573 0.17357184 -0.23418705 0.11110981 -0.024289394
0.018692093 0.19946763 -0.24058856 0.48099247 0.3052339 0.08812849 0.47571433 -0.41981497
-0.7860941 -0.04958028 -0.13568363 -0.3747878 -0.5165117 0.64876354 0.35138443 0.4144348
0.46686617 -0.43405458 0.7273697 -0.13311018 0.31607768 -0.20706677 -0.9724814 -0.50608295
0.17081103 -0.36095613 0.22991388 -0.44849038 -0.010934823 -0.005538094 -0.3726959 0.16896753
-0.19182856 -0.7754005 0.26030132 -0.8566893 -0.098065406 0.12387584 -0.6589119 0.030749703
0.029330397 0.23088267 -0.14094935 -0.16794495 0.22875151 -0.4359507 -0.26997373 0.03259715
0.52788216 -0.85318923 0.61579955 -0.658553 0.31281662 -0.33830088 -0.5930421 -0.28464475
-0.4171289 0.93074363 -0.45319444 1.5040013 -0.44872445 0.3796523 0.07296535 0.24467374
-0.15878089 -0.3212749 0.120155774 -0.32140768 0.01082801 -0.10985904 0.037222296 0.3066383
0.31066942 -0.8905016 0.074491285 -1.1330805 -0.11320789 0.48862946 -0.52203524 -0.37175182
0.035405308 0.09828928 0.20312463 0.46423852 0.022541042 0.807114 -0.6341101 0.35220408
1.2467743 0.14926751 0.2268463 0.18416984 2.498792 -0.80504966 -0.48378262 -1.4657673
0.62064046 -0.24626887 0.5242599 0.30459607 0.58043206 -0.6300323 -0.8507647 -0.7455475
-0.14057456 0.04964407 -0.123159006 0.08873991 -0.15825424 -0.052715536 0.31124592 0.23986878
0.20171231 -0.5986694 0.5056825 -0.8261771 -0.23475863 0.2686951 -0.5221649 -0.1556149
0.15952782 0.59120435 -0.06975316 1.0042353 0.18085867 0.093422376 -0.6999728 0.10533838
0.08469859 0.08719918 0.3227433 -0.03188505 0.0031876916 0.014112231 -0.4600085 -0.06357828
-0.119418316 -0.144359 0.17846823 -0.49095064 -0.65742666 0.4933056 0.45389965 0.33315012
0.54965967 -0.44188824 0.30236214 -0.24481858 1.0693641 -1.1341085 -0.2975327 -1.0060576
-0.18689801 -0.5586815 0.6058651 -0.32183057 0.048495617 0.17678738 -0.22972813 0.08999615
0.64959687 -0.12421247 0.61355287 0.09399695 0.4734479 -0.7832651 -0.41270754 -0.63190025
0.27134156 0.31399444 0.32524964 0.40929678 0.0074548516 0.21256262 -0.4965454 0.46649128
-0.005043524 -0.4141176 -0.10814601 -0.50702745 -0.07638754 -0.02880136 -0.009989476 0.07910227
0.27334633 -0.53558517 0.2518389 -0.6273693 -0.15145962 0.19828929 0.17156304 -0.15451206
0.12300959 0.06274714 0.897682 0.5943677 0.016381215 0.06548253 -0.16098706 -0.33652517
00000000: b54a 3fbe 162e e53e 9d9a b9bd ff13 1d3f
00000010: d98c bebe 8d4c 003f 3b8c bc3e 6b2c 813d
00000020: 2b02 13be 4603 60be b281 bdbe 63d2 d0be
00000030: 5396 293e 19c1 7bbd 53cc 153d 892e b7be
00000040: 81f8 01bc 1be7 12bf 8d8e a73e 07dd 34bf
00000050: 7e4d 39bc d126 3c3e 14a9 47bf 887f fd3d
00000060: 75e4 c3bf 8674 2d3f d606 6abf 9eb8 cc3e
00000070: c19f 98bf 541a b03f 1edd 7e3f 5a50 ba3f
00000080: c87a 393f cf76 093b 25f8 1d3f a08c 273e
00000090: 476e 383f 39cc 3dbf cd87 eebe ab50 5abf
000000a0: a9c2 1f3e 5893 aabe 19fd 413f ef6b 42bf
000000b0: 0cd8 4d3d fca0 91bd 5b10 a4be 6dba 63be
000000c0: 9912 c23e 1c26 733e bb01 80bb 9384 7b3d
000000d0: d1bc 313e bbce 6fbe 8a8d e33d 8dfa c6bc
000000e0: 2920 993c 3e41 4c3e d95c 76be a544 f63e
000000f0: 9e47 9c3e b67c b43d d490 f33e fdf1 d6be
00000100: 773d 49bf b114 4bbd a6f0 0abe 30e4 bfbe
00000110: 1c3a 04bf 5e15 263f a9e8 b33e cc30 d43e
00000120: 1509 ef3e 673c debe e734 3a3f 094e 08be
00000130: efd4 a13e 5009 54be 8bf4 78bf a78e 01bf
00000140: 16e9 2e3e 3ecf b8be 8b6e 6b3e 88a0 e5be
00000150: f927 33bc e678 b5bb ffd1 bebe d305 2d3e
00000160: b56e 44be a680 46bf 3746 853e fd4f 5bbf
00000170: 84d6 c8bd 9eb2 fd3d 73ae 28bf cde6 fb3c
00000180: 4d46 f03c 826c 6c3e 0755 10be c3f9 2bbe
00000190: d63d 6a3e ee34 dfbe ff39 8abe 9784 053d
000001a0: 4923 073f 9c6a 5abf 0aa5 1d3f ee96 28bf
000001b0: 8029 a03e c635 adbe 9bd1 17bf f5bc 91be
000001c0: eb91 d5be 3745 6e3f 1a09 e8be 1d83 c03f
000001d0: 36bf e5be c961 c23e db6e 953d c18b 7a3e
000001e0: 7597 22be 257e a4be 3b14 f63d 8c8f a4be
000001f0: f767 313c c7fd e0bd 6876 183d b2ff 9c3e
00000200: 1010 9f3e eaf7 63bf e38e 983d c808 91bf
00000210: 8ad9 e7bd a42d fa3e 1aa4 05bf 4156 bebe
00000220: 2805 113d e44b c93d e7ff 4f3e acb0 ed3e
00000230: fea7 b83c 069f 4e3f 0a55 22bf 1854 b43e
00000240: 4d96 9f3f 95d9 183e 654a 683e 0597 3c3e
00000250: 35ec 1f40 bc17 4ebf 5bb2 f7be 439e bbbf
00000260: 4be2 1e3f e82d 7cbe e635 063f 04f4 9b3e
00000270: 3297 143f cc49 21bf b7cb 59bf 33dc 3ebf
00000280: c7f2 0fbe 9557 4b3d ca3a fcbd 45bd b53d
00000290: 660d 22be 3fec 57bd a05b 9f3e 29a0 753e
000002a0: ac8d 4e3e 6642 19bf 6974 013f 5880 53bf
000002b0: 9164 70be 6792 893e 99ac 05bf 8359 1fbe
000002c0: 435b 233e 2b59 173f bfda 8ebd c88a 803f
000002d0: 0433 393e 3b54 bf3d 6b31 33bf a6bb d73d
000002e0: 7476 ad3d 7c95 b23d 9c3e a53e e699 02bd
000002f0: 97e8 503b fd36 673c 3c86 ebbe 5435 82bd
00000300: 9791 f4bd d8d2 13be 60c0 363e e25d fbbe
00000310: 1d4d 28bf 8d92 fc3e 8965 e83e a792 aa3e
00000320: 7fb6 0c3f 2d3f e2be 36cf 9a3e b9b1 7abe
00000330: ece0 883f 782a 91bf 3556 98be 7fc6 80bf
00000340: 3162 3fbe c005 0fbf fa19 1b3f fac6 a4be
00000350: 57a3 463d c007 353e da3d 6bbe e74f b83d
00000360: fb4b 263f 1c63 febd cd11 1d3f 7981 c03d
00000370: c367 f23e 1084 48bf 674e d3be 37c4 21bf
00000380: 48ed 8a3e e1c3 a03e 1f87 a63e 598f d13e
00000390: d447 f43b 04aa 593e 333b febe f2d7 ee3e
000003a0: 2544 a5bb 3907 d4be a87b ddbd 8dcc 01bf
000003b0: 1271 9cbd d4f0 ebbc e6aa 23bc 5f00 a23d
000003c0: 0df4 8b3e 1c1c 09bf 07f1 803e 469b 20bf
000003d0: 3b18 1bbe 590c 4b3e 39ae 2f3e 6938 1ebe
000003e0: 74ec fb3d 9381 803d 7dce 653f 7b28 183f
000003f0: e631 863c b41b 863d cbd9 24be 074d acbe

encoder_variable_selection.single_variable_grns.VaccinationFull.gate_norm.glu.fc.bias f4 [32]
0.9575794 0.05183979 -1.0398393 -1.7123114 -0.493268 -0.6525129 0.19576262 0.2370044
0.2159469 0.15945023 0.033563726 -0.5841035 0.29062358 0.09275316 0.0027573023 -0.096480116
-0.84107524 -1.4153793 0.29333812 0.4244209 1.0139278 -2.0579937 -0.85097146 -0.27416056
0.058759846 0.14131512 -1.2307711 0.006409248 -1.0937811 0.48459807 -0.85605437 -0.84511703
00000000: ec23 753f f655 543d 7419 85bf 052d dbbf
00000010: a08d fcbe 160b 27bf ff75 483e 48b1 723e
00000020: 2f21 5d3e ec46 233e 1e7a 093d cf87 15bf
00000030: 9dcc 943e 5ef5 bd3d dbb3 343b 5e97 c5bd
00000040: b550 57bf 262b b5bf 6a30 963e b24d d93e
00000050: 63c8 813f 2bb6 03c0 44d9 59bf c65e 8cbe
00000060: 2aae 703d e9b4 103e e889 9dbf ab04 d23b
00000070: 0501 8cbf 3d1d f83e 6126 5bbf 9759 58bf

encoder_variable_selection.single_variable_grns.VaccinationFull.gate_norm.add_norm.norm.weight f4 [16]
0.4576803 0.11829749 1.0999669 1.6411645 0.9806932 0.4340086 1.1693282 1.1948565
0.8447289 0.7246979 0.0862429 1.2643862 -0.08371552 1.2078223 1.4361355 0.28500092
00000000: 1355 ea3e f445 f23d b7cb 8c3f ae11 d23f
00000010: b60e 7b3f 6036 de3e 8cac 953f 0ff1 983f
00000020: 2740 583f cd85 393f 1ea0 b03d 68d7 a13f
00000030: 0b73 abbd ec99 9a3f 4ad3 b73f a4eb 913e

encoder_variable_selection.single_variable_grns.VaccinationFull.gate_norm.add_norm.norm.bias f4 [16]
0.12743208 0.37571943 -0.06537455 -0.0741325 0.18552543 0.020146713 -0.17219837 -0.11404795
-0.05637651 -0.073125534 -0.10215444 0.41689947 -0.22115871 0.06468785 -0.15411018 0.19428852
00000000: 8e7d 023e 4c5e c03e 18e3 85bd c8d2 97bd
00000010: 61fa 3d3e b80a a53c c554 30be f991 e9bd
00000020: 0eeb 66bd d7c2 95bd 5936 d1bd d973 d53e
00000030: 6e77 62be 107b 843d 0fcf 1dbe 92f3 463e

encoder_variable_selection.single_variable_grns.Cases.resample_norm.mask f4 [16]
0.15430684 0.28991273 -1.9899898 -0.19407819 -0.045569193 0.5137022 -0.45040375 -1.0316596
-0.68814075 0.6343996 0.68329406 0.27553755 -1.216207 -0.8790857 0.24147946 0.19812505
00000000: 9d02 1e3e 716f 943e fcb7 febf 6fbc 46be
00000010: c3a6 3abd fd81 033f 529b e6be 6c0d 84bf
00000020: fe29 30bf 0368 223f 5cec 2e3f 4213 8d3e
00000030: acac 9bbf c30b 61bf 6446 773e 4be1 4a3e

encoder_variable_selection.single_variable_grns.Cases.resample_norm.norm.weight f4 [16]
1.2982856 1.8695673 0.53156024 1.180758 1.07802 1.6878941 1.3368946 1.076931
1.1221495 1.8917466 1.905289 1.4229966 0.049661677 0.61516434 1.8476807 1.5589966
00000000: 392e a63f fb4d ef3f 5514 083f 1423 973f
00000010: 8ffc 893f ea0c d83f 5d1f ab3f e0d8 893f
00000020: 98a2 8f3f c124 f23f 83e0 f33f c124 b63f
00000030: 0b6a 4b3d 697b 1d3f cd80 ec3f 338d c73f

encoder_variable_selection.single_variable_grns.Cases.resample_norm.norm.bias f4 [16]
0.23786405 0.26881367 -0.22181852 -0.3359023 -0.024669606 -0.2625489 -0.16918786 -0.1861006
-0.38699657 -0.05693961 0.20351082 -0.10741139 0.48702636 0.020798119 -0.056081466 0.4487997
00000000: a292 733e f2a1 893e 6524 63be 63fb abbe
00000010: ea17 cabc cf6c 86be 953f 2dbe 2891 3ebe
00000020: 6a24 c6be 8239 69bd 2465 503e 81fa dbbd
00000030: 855b f93e d160 aa3c aeb5 65bd 13c9 e53e

encoder_variable_selection.single_variable_grns.Cases.fc1.weight f4 [8, 8]
0.02355229 1.548707 0.09980035 -0.90006 -0.5559662 0.73413074 -0.28775215 -0.4149089
0.49094525 0.7844088 -0.23168205 -2.9742637 -1.3197455 -0.02569111 0.22346354 -0.034048527
0.99943507 0.171616 0.0669811 -0.060443822 -0.14117435 0.14016175 -0.72989494 0.50765145
-0.6600051 0.08447702 0.96226096 0.28509885 0.6019471 0.014028358 0.43705422 0.65316796
-0.24735765 -0.13579817 0.21854882 0.049612004 0.12712918 0.3946873 0.25086886 0.37140206
-0.20222136 0.08697584 0.18105298 -0.9049728 -0.676265 0.86747855 0.071415715 0.67863154
0.28503084 0.2805016 -0.0043935706 0.29791138 -1.2619953 0.36845693 0.35083285 -0.15171535
0.13340913 -0.6233469 -0.69067836 -0.5169082 0.09322043 -0.09615188 -0.85129386 1.5547357
00000000: bbf0 c03c 083c c63f 2064 cc3d 556a 66bf
00000010: cd53 0ebf feef 3b3f 4054 93be f06e d4be
00000020: 2d5d fb3e 04cf 483f 0f3e 6dbe 565a 3ec0
00000030: 6ced a8bf 2a76 d2bc a0d3 643e 7876 0bbd
00000040: fada 7f3f 1bbc 2f3e 632d 893d f193 77bd
00000050: 0290 10be 9086 0f3e 65da 3abf 72f5 013f
00000060: 18f6 28bf 4a02 ad3d bc56 763f 7af8 913e
00000070: 3519 1a3f 33d7 653c 92c5 df3e 0436 273f
00000080: 534b 7dbe ad0e 0bbe 43cb 5f3e f535 4b3d
00000090: 272e 023e 7414 ca3e e271 803e 6928 be3e
000000a0: 1e13 4fbe 6420 b23d f465 393e 4cac 67bf
000000b0: b41f 2dbf 1313 5e3f 6742 923d ccba 2d3f
000000c0: 90ef 913e e89d 8f3e f1f7 8fbb d787 983e
000000d0: 1089 a1bf 63a6 bc3e 5da0 b33e 455b 1bbe
000000e0: 679c 083e aa93 1fbf 4cd0 30bf 1954 04bf
000000f0: 5aea be3d 47eb c4bd 65ee 59bf 9401 c73f

encoder_variable_selection.single_variable_grns.Cases.fc1.bias f4 [8]
-0.4594036 -0.40610185 -0.033923354 -0.31152916 -0.23932922 -0.15786798 -0.61903685 -0.08822157
00000000: f336 ebbe 95ec cfbe 37f3 0abd c080 9fbe
00000010: b812 75be 25a8 21be 3379 1ebf 83ad b4bd

encoder_variable_selection.single_variable_grns.Cases.fc2.weight f4 [8, 8]
-0.068083525 0.94503635 0.065016955 -0.086851105 0.31464174 -0.2221558 0.8242255 0.33955523
-0.23986627 0.14446072 0.13909009 -0.19587977 0.05683514 0.14772956 0.015609771 -0.91382235
0.20418167 -0.45167604 -0.6647233 -0.1988353 0.23048356 0.075367175 -0.15812378 0.9940253
-0.34791455 -0.65794784 -0.2800412 -0.73455656 0.41844422 -0.5017142 -0.45423818 -0.14337757
0.55584526 0.7854194 -0.0018321252 0.13523415 0.045729272 -0.2255403 0.27366626 0.63617676
0.21172382 0.046877306 0.75225073 0.490332 -0.06633279 0.06476445 -0.023695651 0.4456298
-0.8200053 -0.87560636 -0.29662699 0.52119863 -0.06152934 -0.34423068 0.2967493 -0.262264
0.3872744 0.8376081 -0.1356792 -0.047290895 -0.050395142 -0.059316862 -0.22491343 -0.025337337
00000000: 606f 8bbd e7ed 713f 9c27 853d fede b1bd
00000010: b918 a13e cf7c 63be 7100 533f 2fda ad3e
00000020: 819f 75be 83ed 133e a26d 0e3e b594 48be
00000030: f7cb 683d 6b46 173e 20c0 7f3c 43f0 69bf
00000040: 0015 513e 1542 e7be 4e2b 2abf 7b9b 4bbe
00000050: e203 6c3e 1b5a 9a3d 33eb 21be 7178 7e3f
00000060: db21 b2be 456f 28bf 8f61 8fbe e60b 3cbf
00000070: 523e d63e 5870 00bf e891 e8be 92d1 12be
00000080: e04b 0e3f 3f11 493f ec23 f0ba d27a 0a3e
00000090: 9e4e 3b3d 09f4 66be fc1d 8c3e 7bdc 223f
000000a0: 21ce 583e 6b02 403d 8193 403f cc0c fb3e
000000b0: 7cd9 87bd 39a3 843d 621d c2bc 9729 e43e
000000c0: deeb 51bf bd27 60bf 7edf 97be 466d 053f
000000d0: 3006 7cbd 013f b0be 86ef 973e 7847 86be
000000e0: d548 c63e 7c6d 563f 7def 0abe 19b4 41bd
000000f0: 236b 4ebd 3df6 72bd b54f 66be 3f90 cfbc

encoder_variable_selection.single_variable_grns.Cases.fc2.bias f4 [8]
-0.06971795 0.23991817 -0.1331824 0.110748276 0.009050753 0.030537693 0.09185323 -0.064449
00000000: 49c8 8ebd 1cad 753e f860 08be fecf e23d
00000010: 9c49 143c 2f2a fa3c 8c1d bc3d d6fd 83bd
