TFT-pytorch_Tyler/total/checkpoints/latest-epoch=6.ckpt (torch, 847525 bytes, 815 tensors)

prescalers.AgeDist.weight f4 [8, 1]
0	0x3e982a34	0.29719698
1	0xbf41af3c	-0.7565801
2	0x3f49d2a0	0.78837013
3	0x3eddd8c1	0.43329433
4	0xbf48b272	-0.78397286
5	0xbec9c0de	-0.39404958
6	0xbf1c170c	-0.60972667
7	0xbc8c6968	-0.017140105

prescalers.AgeDist.bias f4 [8]
0	0xbe3e09b9	-0.18558396
1	0x3e2eebd6	0.17082152
2	0x3f53a1ca	0.82668746
3	0x3ecc38b6	0.39887017
4	0xbf35978c	-0.7093437
5	0xbf0a27fa	-0.5396725
6	0xbeb7d0aa	-0.35901386
7	0x3c226c19	0.009913468

prescalers.HealthDisp.weight f4 [8, 1]
0	0x3f5b7e00	0.85739136
1	0xbfb9f57c	-1.4528041
2	0x3f84fd93	1.0389885
3	0xbfa2e719	-1.2726775
4	0x3f49e06d	0.7885807
5	0x3d40b5b9	0.047048304
6	0x3f8e6b26	1.1126449
7	0x3f0581d4	0.52151227

prescalers.HealthDisp.bias f4 [8]
0	0x3de93eb3	0.11388912
1	0x3eb8155b	0.35953793
2	0x3eb195fd	0.34684744
3	0x3ec11aa4	0.37715638
4	0x3e802905	0.25031295
5	0xbf0e0793	-0.5548031
6	0x3e82a754	0.25518286
7	0x3e23a64e	0.15981409

prescalers.SinWeekly.weight f4 [8, 1]
0	0x3e935e43	0.28782853
1	0x3ec3d408	0.38247705
2	0x3e380a30	0.17972636
3	0x3fb73909	1.4314281
4	0xbedba76f	-0.4290118
5	0xbf611782	-0.87926495
6	0xbe3f8654	-0.18703586
7	0xbf8cd669	-1.1002933

prescalers.SinWeekly.bias f4 [8]
0	0x3ea13f61	0.31493667
1	0xbd16cf6c	-0.036818907
2	0xbe2a499a	-0.1662964
3	0x3f687b47	0.90813106
4	0x3f18a45a	0.5962578
5	0xbbee232e	-0.0072673773
6	0xbf00ce66	-0.5031494
7	0x3db0d65d	0.086346366

prescalers.CosWeekly.weight f4 [8, 1]
0	0x3e292b92	0.16520527
1	0xbf9453a4	-1.1588025
2	0xbf2b257e	-0.66854084
3	0x3f8c7bc8	1.0975275
4	0x3f9ac7be	1.2092206
5	0xbe95227a	-0.29127866
6	0xbe3457a0	-0.17611551
7	0x3f1a5ce1	0.6029797

prescalers.CosWeekly.bias f4 [8]
0	0xbdbacbb1	-0.09120882
1	0xbf149781	-0.58043677
2	0x3e1fd1ef	0.15607427
3	0x3efd8873	0.49518165
4	0x3e9fb5b3	0.31193313
5	0x3a3887a9	0.0007039258
6	0x3e946c84	0.2898904
7	0xbf2a6707	-0.6656346

prescalers.DiseaseSpread.weight f4 [8, 1]
0	0xbf269eea	-0.65086234
1	0xbedc3e71	-0.4301639
2	0xbfd8fcf5	-1.6952196
3	0xbf7b7ff1	-0.982421
4	0x3f6298d0	0.88514423
5	0x3fa8da4c	1.3191619
6	0x3eacfdcf	0.3378739
7	0x3df9e47a	0.122017816

prescalers.DiseaseSpread.bias f4 [8]
0	0x3eae55f9	0.34049967
1	0xbe6ae0f1	-0.22937371
2	0x3db03a53	0.086048745
3	0x3f6d92c2	0.9280206
4	0xbe8d09d7	-0.2754657
5	0xbce640fd	-0.02810716
6	0x3c86cf29	0.016456204
7	0xbeb26aeb	-0.34847197

prescalers.Transmission.weight f4 [8, 1]
0	0x3fbe312d	1.4858757
1	0xbfd1186e	-1.633558
2	0x3d51a5ff	0.051183697
3	0xbe6a6e6b	-0.22893684
4	0xbed8462b	-0.42241034
5	0xbf2d893c	-0.6778753
6	0x3f37e0d3	0.7182743
7	0x3f7d4c3c	0.9894445

prescalers.Transmission.bias f4 [8]
0	0xbcaf04d7	-0.021364613
1	0x3f212b71	0.6295691
2	0xbf2047dd	-0.62609655
3	0xbf58d5eb	-0.8470141
4	0xbc8b7666	-0.01702423
5	0xbd6b322d	-0.0574209
6	0xbf808c3a	-1.0042794
7	0xbf171efe	-0.59031665

prescalers.VaccinationFull.weight f4 [8, 1]
0	0xbf4e24b2	-0.8052474
1	0x3fac0d0d	1.3441483
2	0x3e538079	0.20654477
3	0x3f9af966	1.210736
4	0xbf1110ea	-0.56666434
5	0xbf8ac0dc	-1.0840106
6	0xbf87d19b	-1.0610842
7	0xbc2fb6e1	-0.010724754

prescalers.VaccinationFull.bias f4 [8]
0	0xbcaeac78	-0.021322474
1	0xbf119b00	-0.56877136
2	0x3e86e4d8	0.2634647
3	0xbed73b52	-0.42037445
4	0xbeede209	-0.46461514
5	0x3ea4a8ce	0.32160038
6	0xbed1984e	-0.40936512
7	0xbbade451	-0.0053067585

prescalers.SocialDist.weight f4 [8, 1]
0	0x3ec4ce10	0.38438463
1	0xbedb421f	-0.42823884
2	0xbea57041	-0.32312205
3	0xbf2b8c4f	-0.6701097
4	0xbe8c5670	-0.27409697
5	0xbf2bd1c1	-0.67116934
6	0xbf6d9790	-0.9280939
7	0x3ef22754	0.4729563

prescalers.SocialDist.bias f4 [8]
0	0x3dfee22d	0.12445483
1	0xbe62ee39	-0.22161187
2	0x3f1878ed	0.5955952
3	0xbf2fc881	-0.6866532
4	0x3e601048	0.21881211
5	0xbeb62ae6	-0.35579604
6	0xbf759af3	-0.9593956
7	0xbeb209a7	-0.3477299

prescalers.Cases.weight f4 [8, 1]
0	0x3ea3512c	0.31897867
1	0x3f7e3f7d	0.99315625
2	0xbf2308bb	-0.63685197
3	0xbeff65f3	-0.4988247
4	0xbf66635a	-0.8999535
5	0x3f33550b	0.7005164
6	0x3f269198	0.6506591
7	0x3e77cd58	0.24199426

prescalers.Cases.bias f4 [8]
0	0xbf3a6e1e	-0.72824275
1	0x3f2d89fd	0.6778868
2	0x3f6ea3da	0.9321877
3	0xbe1841ff	-0.14868926
4	0xbf11c62a	-0.56943
5	0x3e874760	0.26421642
6	0x3dd1a940	0.1023736
7	0x3d3dda39	0.04635069

static_variable_selection.flattened_grn.resample_norm.mask f4 [2]
0	0x3e67cf6d	0.2263772
1	0xbe619091	-0.22027804

static_variable_selection.flattened_grn.resample_norm.norm.weight f4 [2]
0	0x3f88cc9b	1.0687441
1	0x3f88cc6a	1.0687382

static_variable_selection.flattened_grn.resample_norm.norm.bias f4 [2]
0	0xbe950ee6	-0.2911293
1	0x3e950c89	0.29111126

static_variable_selection.flattened_grn.fc1.weight f4 [2, 16]
0	0x3ec51462	0.38492113
1	0x3e4508f7	0.19241701
2	0x3e65eb0c	0.22452945
3	0xbe739a13	-0.23789243
4	0xbf4632ca	-0.7742125
5	0xbf370419	-0.7149063
6	0xbf45889a	-0.7716156
7	0x3f940ca4	1.1566358
8	0xbdd02baf	-0.10164582
9	0x3dd472dc	0.1037347
10	0xbe4a819c	-0.19776005
11	0x3e7c0d8c	0.24614543
12	0xbef15b59	-0.47140005
13	0x3dba1e18	0.09087771
14	0xbf052bfa	-0.5202023
15	0x3ea60538	0.32425857
16	0xbe054a99	-0.13016738
17	0x3e9806f7	0.29692814
18	0xbe82d3b9	-0.25552157
19	0xbd04689c	-0.032326326
20	0xbdeeb867	-0.11656266
21	0x3f25cd68	0.6476655
22	0xbef28d16	-0.47373265
23	0xbdc8ee45	-0.09811071
24	0xbdb3b8ea	-0.08775504
25	0xbf5ba032	-0.85791314
26	0x3e70f615	0.23531373
27	0xbe90825c	-0.28224456
28	0x3e3c4455	0.18385442
29	0x3ec40882	0.3828774
30	0xbeb2a5c9	-0.3489211
31	0x3eae6228	0.34059262

static_variable_selection.flattened_grn.fc1.bias f4 [2]
0	0x3e4f59be	0.20249078
1	0xbec78daf	-0.38975284

static_variable_selection.flattened_grn.fc2.weight f4 [2, 2]
0	0xbf7e8d4e	-0.99434364
1	0xbf7d9679	-0.9905773
2	0xbfc160f9	-1.5107719
3	0x3e9fd09e	0.3121385

static_variable_selection.flattened_grn.fc2.bias f4 [2]
0	0x3e938ac2	0.288168
1	0xbe2b2342	-0.16712669

static_variable_selection.flattened_grn.gate_norm.glu.fc.weight f4 [4, 2]
0	0x3f11261e	0.5669879
1	0x3d8a18ca	0.067430094
2	0x3f3ec245	0.7451518
3	0xbf1f8a7f	-0.62320703
4	0xbf469368	-0.77568674
5	0xbef5d635	-0.4801499
6	0xbe5fbe44	-0.21849924
7	0xbf372881	-0.7154618

static_variable_selection.flattened_grn.gate_norm.glu.fc.bias f4 [4]
0	0xbe9d2d77	-0.3069875
1	0x3e884b84	0.26620114
2	0x3d268e90	0.040663302
3	0xbe1b01f9	-0.15137471

static_variable_selection.flattened_grn.gate_norm.add_norm.norm.weight f4 [2]
0	0x3ece0e84	0.4024545
1	0x3ece0e80	0.40245438

static_variable_selection.flattened_grn.gate_norm.add_norm.norm.bias f4 [2]
0	0x3e1408d5	0.14456494
1	0xbe1408df	-0.14456509

static_variable_selection.single_variable_grns.AgeDist.resample_norm.mask f4 [16]
0	0xbe1f4eac	-0.15557355
1	0xbe8aa19e	-0.2707643
2	0x3e276531	0.16347195
3	0xbf708067	-0.93945926
4	0x3e89115b	0.26771054
5	0xbde326fa	-0.110914186
6	0x3f1fc97c	0.62416816
7	0xbda18f2e	-0.078886375
8	0xbda65525	-0.08121709
9	0x3f969231	1.1763364
10	0xbf5c5994	-0.86074185
11	0xbe4c8cb9	-0.19975556
12	0xbe3fa91c	-0.18716854
13	0xbd2d1ffc	-0.04226683
14	0xbf2aceed	-0.66721994
15	0xbf9d6e6f	-1.2299327

static_variable_selection.single_variable_grns.AgeDist.resample_norm.norm.weight f4 [16]
0	0x3fa748c3	1.306908
1	0x3f93707e	1.1518705
2	0x3ff00820	1.875248
3	0x3f9603cc	1.1719909
4	0x3fc25ab4	1.518393
5	0x3f6cf820	0.9256611
6	0x3fc498cd	1.5359131
7	0x3f3f2001	0.7465821
8	0x3f3442df	0.7041454
9	0x40025847	2.036638
10	0x3f4b413f	0.7939643
11	0x3fa9438f	1.3223742
12	0x3f6a517a	0.91530573
13	0x3f920180	1.1406708
14	0xbe254081	-0.16137888
15	0x3f87c239	1.0606147

static_variable_selection.single_variable_grns.AgeDist.resample_norm.norm.bias f4 [16]
0	0xbdc358eb	-0.09538444
1	0xbd8e1d84	-0.069392234
2	0x3f0e52e7	0.5559525
3	0x3da43941	0.08018733
4	0x3d82cf1f	0.063871615
5	0x3d205691	0.039145056
6	0x3e9c9a97	0.30586693
7	0x3ee70d35	0.45127264
8	0x3e1055a7	0.14095174
9	0xbe11dc31	-0.14244153
10	0x389bf935	7.4373944e-05
11	0xbedc148a	-0.4298442
12	0x3e1a4d0e	0.15068457
13	0xbe13cbd4	-0.14433223
14	0x3dd9e755	0.10639826
15	0xbeb5c98e	-0.35505337

static_variable_selection.single_variable_grns.AgeDist.fc1.weight f4 [8, 8]
0	0xbf290374	-0.66020894
1	0xbe8d5b96	-0.27608937
2	0xbf2f13b4	-0.6838944
3	0x3e255a01	0.16147615
4	0xbe862f48	-0.26207948
5	0xbd6b15eb	-0.05739395
6	0x3e44374c	0.19161719
7	0x3ee55c9d	0.4479722
8	0x3ed1ef9a	0.41003114
9	0x3f453a13	0.7704174
10	0xbd38dc86	-0.045132183
11	0xbea378e3	-0.31928167
12	0x3dbf984d	0.09355221
13	0xbdf303b7	-0.11865943
14	0xbf743bed	-0.9540394
15	0x3ec42078	0.38306022
16	0x3f03fc37	0.51556724
17	0x3fe8d5c5	1.8190237
18	0xbf808a71	-1.0042249
19	0x3e05e749	0.1307651
20	0x3fc5909e	1.5434759
21	0x3f8d5743	1.1042255
22	0xbe476425	-0.19471796
23	0xbd7335cb	-0.059377473
24	0x3e715c0f	0.23570274
25	0xbf7650db	-0.96217126
26	0x3f3575c5	0.7088283
27	0x3f24ddc5	0.64400893
28	0xbe46b78a	-0.19405952
29	0x3c1b5d34	0.009482671
30	0xbf5cc8d0	-0.86243916
31	0xbb88e809	-0.0041780514
32	0x3e96a61f	0.29423615
33	0x3ec580ef	0.3857493
34	0x3e4b27a4	0.1983934
35	0xbbfbe03b	-0.0076866425
36	0xbe255ed0	-0.1614945
37	0x3cd2befb	0.025725832
38	0x3fad43db	1.3536333
39	0xbf5c99e1	-0.861723
40	0x3e1a6165	0.15076216
41	0x3b6e2329	0.0036336875
42	0x3f1161b4	0.5678971
43	0x3f1e1cfb	0.6176297
44	0xbf18ef57	-0.59740204
45	0xbe7a5f96	-0.24450526
46	0xbe80410e	-0.25049633
47	0xbe9f34f3	-0.31095085
48	0xbf2e6878	-0.68128157
49	0x3e87cafe	0.26522058
50	0xbee09374	-0.43862498
51	0x3f15d345	0.58525497
52	0xbdce30f3	-0.1006793
53	0x3e4937d3	0.19650201
54	0xbe8806f0	-0.26567793
55	0xbe84bdef	-0.25926158
56	0xbead22f9	-0.33815745
57	0xbe47cb0e	-0.19511053
58	0xbec8d18e	-0.39222378
59	0x3f11861f	0.5684528
60	0x3f6f755f	0.9353847
61	0xbe97de38	-0.29661727
62	0x3deb970d	0.1150342
63	0x3ea223c0	0.316679

static_variable_selection.single_variable_grns.AgeDist.fc1.bias f4 [8]
0	0xbe1134f5	-0.14180358
1	0xbdd43d93	-0.10363307
2	0xbe442763	-0.1915565
3	0x3ea19166	0.31556243
4	0xbe59a254	-0.2125333
5	0x3e400251	0.18750884
6	0xbe1c56fe	-0.1526756
7	0xbe6f50c7	-0.23370658

static_variable_selection.single_variable_grns.AgeDist.fc2.weight f4 [8, 8]
0	0x3e0a4e0c	0.13506335
1	0x3f12d907	0.5736241
2	0x3f30d2ec	0.6907184
3	0xbf04d865	-0.5189269
4	0x3e671cd5	0.22569592
5	0xbf23d73a	-0.64000285
6	0xbe9e5ffa	-0.309326
7	0xbf31561b	-0.6927201
8	0x3ecb9b7f	0.39767072
9	0xbdeef1e8	-0.11667234
10	0xbe485ba5	-0.1956621
11	0xbf6f8a4e	-0.9357041
12	0x3e789475	0.24275382
13	0xbd11d5a8	-0.03560415
14	0x3e79fc86	0.24412736
15	0xbf54f452	-0.83185303
16	0x3edea1ad	0.43482724
17	0x3e266628	0.16249907
18	0x3eebaabd	0.460287
19	0x3e39b66a	0.18135992
20	0x3e28d6eb	0.16488235
21	0xbec2cb55	-0.38045755
22	0xbc809e24	-0.015700407
23	0x3f2e5a41	0.68106467
24	0xbde0e5bb	-0.109813176
25	0xbf1599ef	-0.5843801
26	0x3f26a2b3	0.6509201
27	0x3ea4f5fb	0.32218918
28	0xbedbae43	-0.4290639
29	0xbea742dd	-0.326682
30	0xbe9d7d27	-0.30759546
31	0x3f0abb75	0.54192287
32	0xbd77a2c9	-0.06045798
33	0x3b20eee4	0.0024556452
34	0x3fbab2be	1.4585798
35	0x3f5169c3	0.81802005
36	0x3eaab075	0.3333775
37	0x3db225ed	0.0869864
38	0x3e64a074	0.22326833
39	0xbed7b085	-0.4212686
40	0x3d66075a	0.056159355
41	0x3e6cb3f3	0.2311552
42	0x3f1f85da	0.62313616
43	0xbeb57ac8	-0.35445237
44	0x3d33adf4	0.043867067
45	0x3dcd225b	0.100163184
46	0x3ed0cadd	0.40779772
47	0x3cdf19ea	0.027234036
48	0x3eb1c0af	0.34717318
49	0x3ca0492d	0.019566143
50	0x3eb4eb30	0.35335684
51	0x3ec17633	0.3778549
52	0x3e8bc87f	0.27301404
53	0x3ded6742	0.115919605
54	0x3edd1493	0.4317976
55	0xbe742b70	-0.23844695
56	0x3df562d9	0.11981744
57	0x3cb773ce	0.022394087
58	0xbf155827	-0.58337635
59	0xbd9c8d43	-0.07644131
60	0xbea69a59	-0.32539633
61	0x3f279111	0.6545573
62	0xbedd5e7e	-0.43236154
63	0xbf7576c5	-0.9588435

static_variable_selection.single_variable_grns.AgeDist.fc2.bias f4 [8]
0	0xbeaaa3d5	-0.3332812
1	0xbd123bcb	-0.035701554
2	0xbd908197	-0.07055967
3	0xbe22caff	-0.1589775
4	0x3e271e71	0.16320206
5	0xbe2eef0d	-0.17083378
6	0xbe1aacda	-0.15105
7	0x3e218454	0.15773135

static_variable_selection.single_variable_grns.AgeDist.gate_norm.glu.fc.weight f4 [32, 8]
0	0xbf2b3940	-0.6688423
1	0xbf503b5f	-0.81340593
2	0xbf0f952d	-0.56087
3	0xbebc0301	-0.36721042
4	0xbe5a8419	-0.21339454
5	0xbf007b2c	-0.50187945
6	0x3ee47912	0.4462362
7	0x3e3c54ea	0.18391767
8	0x3e858d9b	0.260846
9	0x3ee3883b	0.44439873
10	0x3e4c4dc6	0.19951543
11	0xbdb37ffc	-0.087646455
12	0xbe883fbf	-0.26611134
13	0x3eaa9cdb	0.33322796
14	0xbe127a8f	-0.14304565
15	0xbde46afc	-0.11153218
16	0xbe5172a8	-0.20453894
17	0x3eba53a4	0.36391938
18	0xbedc987a	-0.4308508
19	0x3e0298e5	0.12753637
20	0xbf36a4e0	-0.7134533
21	0xbe20a6ff	-0.15688704
22	0x3ea9635b	0.33083615
23	0x3e5b1324	0.2139402
24	0x3e9a0e61	0.30089095
25	0xbe5fad03	-0.21843342
26	0x3d8376bf	0.064191334
27	0x3f0c3024	0.54760957
28	0xbddd6b4e	-0.10811482
29	0xbece9ec9	-0.40355518
30	0xbeaa9ee8	-0.3332436
31	0x3e27181b	0.1631779
32	0xbe9589f4	-0.29206812
33	0xbc8bf3ce	-0.017084029
34	0xbf079a97	-0.5297026
35	0xbef9d8bc	-0.48798168
36	0x3ca7947d	0.020456547
37	0x3caa4d22	0.020788733
38	0xbdd592c8	-0.10428387
39	0x3ecf4e64	0.40489495
40	0xb9ac8de1	-0.00032912105
41	0x3d028777	0.03186747
42	0x3e993dc7	0.29929945
43	0x3f3b03b1	0.7305251
44	0x3ef4d98f	0.47822234
45	0x3f0efafc	0.5585172
46	0x3d710fb4	0.058852866
47	0xbee7cf98	-0.4527557
48	0xbd369b62	-0.04458178
49	0x3e9528c1	0.29132655
50	0x3cce513b	0.025185218
51	0xbd44c04b	-0.048034947
52	0xbd88b8f3	-0.06675901
53	0xbeac3746	-0.3363592
54	0xbe950620	-0.29106236
55	0xbe988dce	-0.29795688
56	0xbe429a69	-0.19004215
57	0x3e9d131e	0.30678648
58	0x3c75ad01	0.014994861
59	0x3e8443e4	0.25833046
60	0xbd8d4454	-0.06897798
61	0x3ec030cb	0.37537226
62	0xbf4aabc1	-0.79168326
63	0xbd9acc3e	-0.07558487
64	0x3df65f51	0.12029899
65	0x3c80c8fe	0.01572084
66	0xbe8e3b11	-0.2777944
67	0xbcc0848c	-0.023500703
68	0x3c201676	0.00977098
69	0xbec8880f	-0.39166304
70	0xbd06fb8d	-0.03295474
71	0x3d903ebd	0.070432164
72	0x3ecf8d58	0.40537524
73	0xbd791122	-0.060807355
74	0x3eb2578d	0.3483242
75	0x3ef63434	0.48086703
76	0xbdbd23d0	-0.09235346
77	0x3f14d7d6	0.5814184
78	0xbf03f207	-0.5154118
79	0xbf0ac908	-0.54213
80	0xbe538904	-0.20657736
81	0x3de894ea	0.11356528
82	0xbe9a90b0	-0.30188513
83	0xbde08bb6	-0.10964148
84	0xbf0641d0	-0.5244417
85	0xbe304a86	-0.17215928
86	0x3ccef2ec	0.025262319
87	0xbafa0644	-0.0019075354
88	0xbdfd6359	-0.12372465
89	0xbef7f0f4	-0.4842602
90	0x3ec5e53a	0.38651448
91	0xbf158973	-0.58412856
92	0xbf250f62	-0.644766
93	0xbe8f8621	-0.2803202
94	0xbe870c71	-0.2637668
95	0x3decb67a	0.11558242
96	0x3e50c70b	0.20388429
97	0x3f615c30	0.8803129
98	0xbe76bc41	-0.2409525
99	0xbe806562	-0.2507735
100	0xbe0455e2	-0.12923387
101	0x3eb0bcc9	0.34519032
102	0xbecc4549	-0.3989661
103	0xbda9fa7e	-0.08299731
104	0x3f37ed9b	0.7184693
105	0x3e9d4865	0.30719295
106	0x3e81c40c	0.25344884
107	0x3f2dfc3b	0.67963
108	0x3f1e7f30	0.6191282
109	0x3f296209	0.66165215
110	0x3cbf4002	0.023345951
111	0xbf85c07c	-1.0449367
112	0xbf2cc998	-0.6749511
113	0x3f096eaa	0.53684485
114	0xbe763fd0	-0.2404778
115	0xbf803aac	-1.0017905
116	0xbf07f226	-0.53103864
117	0x3d858c4a	0.06520899
118	0xbee89092	-0.45422798
119	0x3f758949	0.95912606
120	0xbeb1eece	-0.34752506
121	0xbed4ea32	-0.41584927
122	0x3f1d445f	0.6143245
123	0x3ea9bdf1	0.33152726
124	0x3f65de1a	0.89792025
125	0x3db24d24	0.0870612
126	0x3ee14184	0.43995297
127	0xbedcef3e	-0.43151277
128	0xbf35faf9	-0.7108608
129	0xbebabeee	-0.36473793
130	0xbe60af6b	-0.21941917
131	0xbf351162	-0.7072965
132	0xbe26b220	-0.16278887
133	0xbf867c12	-1.0506613
134	0x3e5aa23f	0.21350954
135	0x3e3b0115	0.18262132
136	0xbd8f0ea3	-0.069852136
137	0x3e1fed08	0.15617764
138	0x3e191071	0.14947678
139	0x3f2c6bc2	0.67351925
140	0xbf1082ba	-0.5644947
141	0xbec882e6	-0.39162368
142	0xbf2dd351	-0.6790057
143	0x3e970854	0.2949854
144	0x3e8c6e39	0.27427843
145	0xbe513158	-0.2042898
146	0xbe39eda6	-0.18157062
147	0xbec1e756	-0.37871808
148	0x3f115a5f	0.5677852
149	0x3eaa5f01	0.33275607
150	0x3ee3efbf	0.4451885
151	0xbe920ab6	-0.28523797
152	0x3dbe4898	0.0929119
153	0x3e35f59b	0.17769472
154	0x3eaaf327	0.33388636
155	0x3da52c6a	0.08065112
156	0xbc8854f4	-0.016642071
157	0xbebd087a	-0.3692053
158	0xbf0fdda5	-0.5619758
159	0x3d3fc5fc	0.046819672
160	0x3d4508c7	0.048104074
161	0xbded0614	-0.11573425
162	0x3e97b914	0.2963339
163	0xbe52f458	-0.20601022
164	0x3f582963	0.8443815
165	0x3ea8be18	0.3295753
166	0x3ec70225	0.38868824
167	0xbddf0abe	-0.10890721
168	0xbede5945	-0.43427482
169	0xbe9f87ad	-0.311582
170	0xbe9e73df	-0.30947778
171	0xbf84d481	-1.0377351
172	0xbe03cc56	-0.12870917
173	0xbf0f7862	-0.56043065
174	0x3e69f0f6	0.22845826
175	0x3f2a5c9f	0.6654758
176	0x3e1970c4	0.14984423
177	0x3ee608c9	0.44928578
178	0x3e27731c	0.16352504
179	0x3d6dba6d	0.058039118
180	0xbf860808	-1.0471201
181	0xbefc4763	-0.49273214
182	0x3ec40679	0.38286188
183	0xbed44a7d	-0.4146308
184	0xbeb1b84c	-0.3471092
185	0x3eb2a17d	0.3488883
186	0xbe07687b	-0.1322345
187	0x3f065456	0.52472436
188	0xbf2473e1	-0.6423932
189	0xbe0fed15	-0.14055283
190	0xbf3ff905	-0.7498935
191	0xbe15a069	-0.14611973
192	0xbeec1c69	-0.46115425
193	0xbefd48d8	-0.49469638
194	0x3db2f3bf	0.08737897
195	0x3f2044cb	0.6260497
196	0x3e9a1607	0.3009493
197	0x3f07dd7f	0.5307235
198	0xbe9a32fc	-0.30117023
199	0xbe332211	-0.17493464
200	0xbcb8aa40	-0.022542119
201	0xbea9ab28	-0.33138394
202	0xbf3c8ad6	-0.73649347
203	0xbf44016a	-0.7656466
204	0xbf262b94	-0.64910245
205	0xbe9ae5dc	-0.30253494
206	0x3d327729	0.04357067
207	0x3eb2ee16	0.3494727
208	0xbf186dfe	-0.59542835
209	0x3ecf4dcc	0.40489042
210	0xbf008e05	-0.50216705
211	0xbec24895	-0.37946
212	0xbec3749f	-0.38174912
213	0xbd4f4cce	-0.050610356
214	0x3dfee4a4	0.124459535
215	0xbee9341b	-0.45547566
216	0xbe432ebe	-0.190608
217	0x3edde980	0.4334221
218	0x3e3ed0de	0.18634364
219	0xbedee2bb	-0.43532357
220	0xbf534b67	-0.8253693
221	0x3c10b10e	0.008831276
222	0x3d168cb8	0.036755294
223	0x3e4d8be0	0.2007289
224	0xbe33caa8	-0.17557776
225	0x3ef2bca3	0.47409543
226	0xbeaa94ad	-0.33316556
227	0xbe08baf9	-0.13352574
228	0xbef9104c	-0.48645246
229	0xbb9aeab7	-0.004727687
230	0xbfbd19c3	-1.4773487
231	0xbe795dcb	-0.24352185
232	0x3e8387b8	0.25689483
233	0x3e1538a1	0.14572383
234	0x3ec9db57	0.39425156
235	0x3e4296a8	0.19002783
236	0x3ec1e294	0.37868178
237	0x3fa87b48	1.3162622
238	0x3e6144b6	0.21998867
239	0xbf645956	-0.89198816
240	0x3eec96e4	0.4620887
241	0x3e2a648b	0.16639917
242	0xbd706704	-0.058691993
243	0x3eb720d0	0.3576722
244	0xbe116128	-0.14197218
245	0x3e3b07e3	0.18264727
246	0xbe9661ae	-0.293714
247	0xbf3e3094	-0.74292874
248	0xbe2a4982	-0.16629604
249	0xbd588d3f	-0.052869078
250	0xbf1865df	-0.5953044
251	0xbebcb720	-0.36858463
252	0x3ecb4294	0.39699233
253	0x3f085618	0.5325637
254	0x3f44098c	0.7657707
255	0xbddc6bf4	-0.10762778

static_variable_selection.single_variable_grns.AgeDist.gate_norm.glu.fc.bias f4 [32]
0	0xbd9c65a8	-0.07636577
1	0x3e914cdf	0.2837896
2	0x3ee619cf	0.44941565
3	0x3e539992	0.20664051
4	0xbd2a81b5	-0.041627605
5	0xbe0cfc8f	-0.13768218
6	0x3ec464bc	0.38358104
7	0x3f0cbe31	0.5497771
8	0x3e2f8206	0.17139444
9	0xbeccb61c	-0.39982688
10	0x3e32f6f6	0.1747702
11	0x3d7923a6	0.060825013
12	0x3ce26bb7	0.027639253
13	0xbd06680c	-0.03281407
14	0x3eac6dec	0.33677614
15	0xbedeadc2	-0.43491942
16	0xbe8ab3d7	-0.27090332
17	0xbf8565af	-1.0421656
18	0x3f032062	0.5122129
19	0xbee1f7ce	-0.44134372
20	0x3d8ded4f	0.06930029
21	0xbecf4065	-0.40478817
22	0xbf1f20a7	-0.621592
23	0xbf0fa107	-0.56105083
24	0xbf3b73c0	-0.73223495
25	0xbeb83908	-0.3598101
26	0x3db30117	0.08740442
27	0xbcb26b6d	-0.02177974
28	0xbf05ba12	-0.52237046
29	0x3e653804	0.2238465
30	0xbe7e55dd	-0.24837442
31	0x3f25a0fd	0.64698774

static_variable_selection.single_variable_grns.AgeDist.gate_norm.add_norm.norm.weight f4 [16]
0	0x3fb4a6c0	1.4113388
1	0xbad5c4dd	-0.001630928
2	0x3fbd6e23	1.4799236
3	0x3f2691f4	0.65066457
4	0x3fc3826a	1.5274174
5	0x3f3dd1ad	0.74148065
6	0x3fafcd53	1.3734535
7	0x3dac8d7f	0.08425426
8	0x3ee19cc1	0.44064906
9	0x3ff6fae3	1.9295315
10	0x3f2e32b8	0.6804614
11	0x3fa8d6db	1.3190569
12	0x3ec8d0cd	0.39221802
13	0x3fd4399f	1.6580085
14	0x3f820ac2	1.0159533
15	0x3f911e06	1.1337287

static_variable_selection.single_variable_grns.AgeDist.gate_norm.add_norm.norm.bias f4 [16]
0	0x3eec71fd	0.46180716
1	0xbe2d602f	-0.16931222
2	0x3ec2cee8	0.38048482
3	0x3d82ccb4	0.063867
4	0x3e87e702	0.26543432
5	0xbeb280fe	-0.34864038
6	0xbb01d76b	-0.0019812237
7	0x3de689d6	0.11256759
8	0xbe9e3b0b	-0.3090442
9	0xbe688a70	-0.2270906
10	0xbc93f46d	-0.018060887
11	0xbe685a84	-0.22690779
12	0x3cb4066d	0.02197572
13	0x3e9eaef7	0.30992863
14	0xbe1bf565	-0.1523033
15	0xbe9f7b33	-0.3114868

static_variable_selection.single_variable_grns.HealthDisp.resample_norm.mask f4 [16]
0	0xbd547197	-0.05186614
1	0x3e35ce8c	0.17754573
2	0x3f4983fd	0.78717023
3	0xbf1849b9	-0.5948749
4	0x3e0ee3af	0.13954042
5	0xbeb65dcf	-0.35618445
6	0x3efa14da	0.48844033
7	0xbf55518f	-0.83327574
8	0x3c6f90c4	0.014621917
9	0xbeafdc3d	-0.34347716
10	0xbf1e5f25	-0.6186393
11	0x3df8f5a1	0.12156225
12	0xbf014968	-0.50502634
13	0xbe9f0307	-0.31056997
14	0x3e40957a	0.18807021
15	0x3cbfb4df	0.023401676

static_variable_selection.single_variable_grns.HealthDisp.resample_norm.norm.weight f4 [16]
0	0x3fae83ba	1.363395
1	0x3f825073	1.0180801
2	0x40013ae5	2.0192196
3	0x3f569dba	0.8383442
4	0x3fbdb23b	1.4820017
5	0x3f872e12	1.0560935
6	0x3fefa4ce	1.8722169
7	0x3f160b81	0.58611304
8	0x3f8d5f40	1.1044693
9	0xbd05ccf7	-0.032666173
10	0x3fa648be	1.2990949
11	0x3fdc908d	1.7231613
12	0xbd08df45	-0.03341605
13	0x3f92d5d8	1.147151
14	0x3fb2bf73	1.3964676
15	0x3f84ad7d	1.0365444

static_variable_selection.single_variable_grns.HealthDisp.resample_norm.norm.bias f4 [16]
0	0x3e25ca61	0.16190483
1	0x3e13b175	0.14423163
2	0x3dd4e4cc	0.10395202
3	0xbe8d0087	-0.27539465
4	0x3e0b8466	0.13624725
5	0xbd873f4f	-0.06603872
6	0x3b86e84e	0.0041170483
7	0xbb4bb150	-0.0031081028
8	0xbd664805	-0.056221027
9	0xbe2ab892	-0.1667197
10	0xbdad47da	-0.0846097
11	0x3c2c9652	0.010533886
12	0x3e9aef4d	0.30260697
13	0xbe7436e4	-0.23849064
14	0x3e611ec0	0.21984386
15	0x3d20466e	0.039129667

static_variable_selection.single_variable_grns.HealthDisp.fc1.weight f4 [8, 8]
0	0x3e64c923	0.22342353
1	0xbea198cb	-0.31561884
2	0xbe814d73	-0.25254402
3	0xbfec0494	-1.8438897
4	0x3f02b04d	0.51050264
5	0x3eb3833d	0.35061064
6	0x3ee2fd85	0.44334045
7	0xbec0da02	-0.37666327
8	0xbf05fcc6	-0.52338827
9	0x3e27c2db	0.16382925
10	0xbfd62c3e	-1.6732252
11	0xbe90c0bb	-0.28272042
12	0xbeb18163	-0.34669027
13	0xbe598b04	-0.21244437
14	0xbfed01fd	-1.8516232
15	0xbf091adc	-0.5355661
16	0x3d58be94	0.052916124
17	0x3ea2ee41	0.31822398
18	0x3f44107a	0.7658764
19	0x3e697e32	0.22802046
20	0x3e7cee0a	0.2470018
21	0xbe1be715	-0.1522487
22	0xbe889b02	-0.26680762
23	0x3f48ed8a	0.78487456
24	0xbe1080a0	-0.14111567
25	0x3e716c77	0.23576532
26	0xbfe620b2	-1.7978728
27	0x3f7cd04a	0.98755324
28	0xbe8fa2be	-0.2805385
29	0xbd540b06	-0.051768325
30	0xbf8ed9e2	-1.1160243
31	0xbf9e7d04	-1.2381902
32	0x3d0b6993	0.03403623
33	0xbf3fe87a	-0.74964106
34	0x3eff08f0	0.49811506
35	0xbf1e415c	-0.6181848
36	0xbeac48c9	-0.3364928
37	0xbeae4b42	-0.34041792
38	0xbe44b8bc	-0.19211096
39	0xbe349acb	-0.17637174
40	0xbe3a6295	-0.18201669
41	0xbe92f691	-0.2870374
42	0xbecd1b21	-0.4005976
43	0xbeae1344	-0.33999074
44	0xbe2f8fd9	-0.17144717
45	0x3ebdecc0	0.37094688
46	0x3f34bc63	0.70599955
47	0xbf134bb3	-0.5753738
48	0x3f2c84b4	0.6738999
49	0x3f176bad	0.59148675
50	0x3a840dcf	0.0010074916
51	0xbe804ee0	-0.25060177
52	0xbf9bfe44	-1.2186971
53	0x3dd507bd	0.104018666
54	0x3ea746ee	0.32671303
55	0xbe96a240	-0.29420662
56	0xbfa13a30	-1.2595882
57	0xbf087a4e	-0.5331162
58	0x3d555352	0.052081414
59	0xbe7856ae	-0.24251816
60	0x3d138a54	0.03602059
61	0x3c910858	0.017704174
62	0xbe8e9e3a	-0.27855092
63	0x3dde93b3	0.10868015

static_variable_selection.single_variable_grns.HealthDisp.fc1.bias f4 [8]
0	0xbe885fe9	-0.26635674
1	0xbc871193	-0.016487872
2	0xbf217be2	-0.63079655
3	0x3e06c048	0.13159287
4	0xbebf8b30	-0.3741088
5	0xbbdcb81c	-0.0067358147
6	0x3f021479	0.5081249
7	0x3e094181	0.13403894

static_variable_selection.single_variable_grns.HealthDisp.fc2.weight f4 [8, 8]
0	0x3ee5cdb3	0.448835
1	0xbe9ba3d9	-0.30398443
2	0x3ef95903	0.48700723
3	0x3f16a13f	0.5883979
4	0xbd7b50c6	-0.06135633
5	0x3cbedf4d	0.023299837
6	0x3ebace0e	0.36485332
7	0x3f164029	0.5869165
8	0x3a44336f	0.0007484471
9	0x3f72e56f	0.9488134
10	0x3d0e0f65	0.03468265
11	0x3f12a834	0.5728791
12	0x3ee6e9f6	0.45100373
13	0xbd0924ff	-0.033482548
14	0x3edfe6ab	0.43730673
15	0xbe8f01a7	-0.27930948
16	0xbf66d3a8	-0.9016671
17	0xbf6c0dbe	-0.9220847
18	0xbebe5f10	-0.37181902
19	0xbec850f9	-0.39124277
20	0xbf0d2705	-0.55137664
21	0x3e0eecef	0.1395757
22	0x3d8b1ada	0.06792231
23	0x3e34d5dc	0.17659706
24	0x3f4afe51	0.79294306
25	0xbebfa7ca	-0.374327
26	0xbd5cc140	-0.053895235
27	0x3f4b8e3a	0.79513896
28	0x3e62c9b7	0.2214726
29	0x3ebe19a6	0.37128943
30	0xbe821570	-0.2540698
31	0x3ed9a6f5	0.4251019
32	0x3f4ffd18	0.81245565
33	0xbf145e5d	-0.57956487
34	0x3e07e7c6	0.13272008
35	0x3e149d19	0.14513053
36	0x3e1053d1	0.14094473
37	0x3e3218fc	0.17392343
38	0x3cf24c39	0.029577361
39	0xbeecf8ca	-0.4628356
40	0xbf7a4690	-0.9776392
41	0x3e65ab1b	0.22428553
42	0x3e85a8d7	0.26105377
43	0x3eb27bbc	0.34860027
44	0xbec1600d	-0.37768593
45	0xbe52ae77	-0.20574366
46	0xbdda191d	-0.10649321
47	0xbe864f86	-0.26232547
48	0xbefdb4e3	-0.49552068
49	0x3e25ebc5	0.1620322
50	0xbee0a1d6	-0.4387347
51	0x3f29c668	0.6631837
52	0x3f6d431d	0.9268053
53	0xbb77bf43	-0.003780321
54	0x3eec81ce	0.46192783
55	0x3ec32204	0.3811189
56	0x3f6ae3fc	0.91754127
57	0x3ec3ccbf	0.38242146
58	0x3e3633ac	0.17793149
59	0x3f0d8fba	0.55297434
60	0x3e2fd3a6	0.17170581
61	0xbce7676f	-0.028247563
62	0xbea23577	-0.31681415
63	0xbea0b6bb	-0.31389412

static_variable_selection.single_variable_grns.HealthDisp.fc2.bias f4 [8]
0	0x3e50abd9	0.20378055
1	0xbd805593	-0.06266322
2	0x3dda9eaa	0.10674794
3	0xbea138b9	-0.31488588
4	0x3da02cfa	0.078210786
5	0xbdb72341	-0.08942271
6	0x3d598bcf	0.053111847
7	0xbd23e135	-0.040009696

static_variable_selection.single_variable_grns.HealthDisp.gate_norm.glu.fc.weight f4 [32, 8]
0	0x3e149840	0.14511204
1	0x3e89384c	0.26800764
2	0xbeb310d7	-0.34973785
3	0xbe2482d5	-0.16065533
4	0xbe85f814	-0.2616583
5	0x3e4b1735	0.19833072
6	0x3ecc506b	0.39905104
7	0x3efb1c8c	0.49045217
8	0xbe2b37dd	-0.16720529
9	0xbe7c0f61	-0.24615242
10	0xbe00fbe8	-0.12596095
11	0xbe754cfb	-0.23955147
12	0xbe231a55	-0.15928014
13	0xbcc11279	-0.023568379
14	0xbde011c3	-0.10940888
15	0xbe0252dd	-0.12726922
16	0x3e150408	0.14552319
17	0x3e4f5eac	0.20250958
18	0xbe2a66f9	-0.16640843
19	0xbe8cafab	-0.27477774
20	0xbf005e0d	-0.5014351
21	0x3f4d823b	0.8027684
22	0x3c9d5aa4	0.01920826
23	0x3de7c727	0.11317282
24	0x3e4bcd5c	0.19902557
25	0x3ebf7fc1	0.37402156
26	0xbe206be3	-0.15666156
27	0xbec31265	-0.3809997
28	0x3de93c5e	0.11388467
29	0xbe14e8b8	-0.145419
30	0x3ec23ac6	0.37935466
31	0xbe87d6ef	-0.2653117
32	0xbcf5bd16	-0.02999739
33	0xbe67a844	-0.22622782
34	0x3ee40474	0.44534647
35	0x3dfb99c6	0.12285189
36	0x3f16ab99	0.5885559
37	0xbed7176b	-0.42010054
38	0xbe992521	-0.2991114
39	0xbed2f9e2	-0.4120627
40	0xbf1f5293	-0.62235373
41	0xbf11830e	-0.568406
42	0x3ec14b0c	0.3775257
43	0xbe74ffad	-0.23925658
44	0x3f000649	0.5000959
45	0xbcebd99e	-0.028790291
46	0x3dc2b246	0.09506659
47	0xbee33569	-0.44376686
48	0x3e521ca9	0.20518745
49	0x3ecafdc1	0.39646724
50	0xbec6c132	-0.3881927
51	0x3e44c5ab	0.1921603
52	0xbce9b1c5	-0.02852715
53	0x3eef52d6	0.46742886
54	0xbe5a5e93	-0.2132514
55	0x3e1c9f41	0.15295126
56	0x3e7be88a	0.24600425
57	0xbd893be6	-0.06700878
58	0xbda3aa04	-0.07991412
59	0x3ccf8972	0.025334094
60	0xbdb3e130	-0.087831855
61	0x3c29b72e	0.010358615
62	0x3e4a6808	0.19766247
63	0xbde395da	-0.11112566
64	0xbdaddd3f	-0.08489465
65	0xbe6953e7	-0.22785912
66	0x3f18ac73	0.59638137
67	0xbf18e148	-0.5971875
68	0xbe7e5271	-0.24836136
69	0x3f0ba9e8	0.5455613
70	0xbe0e9550	-0.13924146
71	0xbef91308	-0.48647332
72	0x3ed7c6b1	0.42143777
73	0x3db5d4b0	0.088784575
74	0x3bf82201	0.007572413
75	0xbeb3054b	-0.34964976
76	0xbe9d8f77	-0.30773517
77	0x3e620917	0.2207378
78	0xbe20dc6b	-0.15709083
79	0xbee7a4a7	-0.45242807
80	0x3ebf1718	0.37322307
81	0x3d7c9dc0	0.06167388
82	0xbe23ea6e	-0.16007397
83	0x3d4edac7	0.05050161
84	0xbe2a523a	-0.1663293
85	0xbe00d3ec	-0.12580842
86	0x3e3bd720	0.18343782
87	0x3e0ee02c	0.13952702
88	0xbd8f7376	-0.07004444
89	0x3eddff37	0.43358776
90	0xbf31d33e	-0.69462955
91	0x3f4944be	0.7862052
92	0x3e192020	0.14953661
93	0x3de2563d	0.11051605
94	0x3edd1cf2	0.43186146
95	0x3efd9824	0.49530137
96	0xbe1881b4	-0.14893228
97	0xbd04bb60	-0.032405257
98	0x3ebe809a	0.3720749
99	0xbeeeaa92	-0.4661451
100	0xbdecd247	-0.11563545
101	0x3f6c128b	0.92215794
102	0x3dd713e8	0.10501844
103	0xbed1fcdf	-0.41013238
104	0x3ef00d40	0.4688511
105	0xbe3a97aa	-0.18221918
106	0xbf0241da	-0.5088173
107	0x3f1b5cc8	0.6068845
108	0x3f2a2bf7	0.66473335
109	0xbf0790b7	-0.5295519
110	0x3ddb916c	0.107210964
111	0x3f0168ae	0.50550354
112	0x3e1e935d	0.15485902
113	0xbe60fa9f	-0.21970604
114	0x3ea35e59	0.3190792
115	0xbec67cc6	-0.3876707
116	0x3f21d68e	0.6321801
117	0x3cbb88dc	0.022892408
118	0xbf268f16	-0.6506208
119	0xbee3e676	-0.44511765
120	0xbec13ef4	-0.37743342
121	0xbedcf273	-0.43153724
122	0x3efc8e6b	0.49327406
123	0xbf065c49	-0.52484566
124	0x3eb53353	0.3539072
125	0xbd620e55	-0.05518945
126	0x3e53a340	0.20667744
127	0xbeaf1a2c	-0.34199655
128	0x3ed9f969	0.42573097
129	0x3fadb681	1.3571321
130	0xbe577081	-0.2103901
131	0x3e15ac79	0.14616574
132	0x3d8b6adb	0.068074904
133	0x3ec741e3	0.38917455
134	0x3ebded81	0.37095264
135	0x3d7172f6	0.058947526
136	0xbe3e1a70	-0.18564773
137	0x3e68c6b8	0.22732055
138	0x3e470e1b	0.19438975
139	0x3e861e66	0.26195067
140	0xbe962942	-0.29328352
141	0x3da96e38	0.08272976
142	0x3f29709a	0.6618744
143	0x3e8edd5e	0.27903265
144	0x3f44c386	0.76860845
145	0x3f81a7db	1.012935
146	0x3d34a3da	0.044101574
147	0x3efbace1	0.49155334
148	0x3eda550a	0.42643005
149	0x3ec94d3e	0.39316744
150	0xbe885757	-0.26629135
151	0x3f557473	0.8338081
152	0xbdf1ddb4	-0.11809865
153	0x3ec58198	0.38575435
154	0x3de9b4c1	0.11411429
155	0x3ea4f0b0	0.3221488
156	0xbe25608f	-0.16150115
157	0x3e867bb2	0.26266247
158	0xbf116422	-0.56793416
159	0xbe8d0b2d	-0.2754759
160	0x3dc6df42	0.09710552
161	0xbe0b14be	-0.13582131
162	0x3ebbbe93	0.36668834
163	0x3d24b8bb	0.040215235
164	0xbdbab313	-0.09116187
165	0x3eecbeeb	0.4623941
166	0x3e04bc6e	0.12962505
167	0x3e73a6c8	0.23794091
168	0xbe5bb16f	-0.21454404
169	0x3f49650f	0.7866983
170	0xbe93f44b	-0.28897318
171	0xbdbc92ac	-0.09207663
172	0x3da1bb1b	0.07897016
173	0x3ec1b30d	0.37831917
174	0x3e892df9	0.26792887
175	0xbc059c3a	-0.008154923
176	0x3e91b53a	0.28458577
177	0x3f1287aa	0.57238257
178	0xbe51475d	-0.20437379
179	0xbeffd590	-0.49967623
180	0xbe3cf412	-0.1845248
181	0x3f1cd0d1	0.6125613
182	0x3f19296a	0.5982882
183	0x3e5c5039	0.21514978
184	0x3f06a831	0.5260039
185	0x3f5eba6b	0.870032
186	0xbe7b6282	-0.24549296
187	0x3b0505a4	0.0020297552
188	0xbd9825c8	-0.07429081
189	0x3ef7cdb9	0.4839914
190	0x3e877ea6	0.26463813
191	0xbd6076d3	-0.05480082
192	0x3f34898b	0.70522374
193	0x3e27c65b	0.1638426
194	0xbeb82881	-0.35968402
195	0x3eca6c51	0.39535764
196	0x3eb5cb35	0.35506597
197	0xbf62957e	-0.88509357
198	0xbe7ec3cb	-0.24879377
199	0x3df2c1a0	0.11853337
200	0x3eb6bd23	0.35691175
201	0x3f94a71c	1.1613498
202	0x3e18ffe8	0.1494137
203	0xbf2fc932	-0.68666375
204	0xbe0fba3b	-0.14035885
205	0xbd2df696	-0.04247149
206	0x39abb2ba	0.00032748823
207	0x3e3fd74c	0.18734473
208	0x3e8acf40	0.27111244
209	0x3d8ab0d4	0.067720085
210	0x3e4688aa	0.1938807
211	0xbeda8518	-0.42679667
212	0xbe2ea7ae	-0.17056152
213	0xbdfd6f0f	-0.12374698
214	0x3e0a699a	0.13516846
215	0xbecd59bf	-0.40107533
216	0xbefc68c8	-0.49298692
217	0x3d247452	0.040149994
218	0x3f435f5d	0.7631739
219	0xbf7760c9	-0.9663206
220	0x3de42f60	0.111418486
221	0x3c912865	0.017719457
222	0xbf88dc72	-1.0692275
223	0xbf0977ad	-0.53698236
224	0x3d0b88d6	0.034066044
225	0x3f13348d	0.5750206
226	0xbf80a572	-1.005049
227	0x3e3cdc20	0.18443346
228	0xbe012e28	-0.12615263
229	0xbec3ccb5	-0.38242117
230	0x3e95fc3d	0.29294005
231	0x3eec7d38	0.46189284
232	0x3e0de9cc	0.13858718
233	0x3f01ed44	0.50752664
234	0xbf3614e9	-0.71125656
235	0x3eb691b9	0.35658053
236	0xbd6a6630	-0.05722636
237	0xbec54c0e	-0.38534588
238	0x3ead5d23	0.3386012
239	0x3f606e0e	0.8766793
240	0x3f38645f	0.72028154
241	0x3f0a14d8	0.53938055
242	0x3ea95faf	0.33080813
243	0xbe8187c4	-0.25298893
244	0xbeb2dad7	-0.34932587
245	0x3e23a756	0.15981802
246	0x3bd9c3db	0.0066456622
247	0x3e6c2b49	0.23063387
248	0x3e82bf6f	0.25536677
249	0x3f4bd5d7	0.7962317
250	0x3eb70a30	0.3574996
251	0x3e009fe9	0.12561001
252	0xbe726596	-0.23671564
253	0x3cd92c51	0.02651039
254	0xbf0aad67	-0.5417084
255	0x3f075ab6	0.5287279

static_variable_selection.single_variable_grns.HealthDisp.gate_norm.glu.fc.bias f4 [32]
0	0xbd78d188	-0.0607467
1	0x3e52aee3	0.20574526
2	0x3eb09ec1	0.3449612
3	0xbe5e4745	-0.21706875
4	0x3d8433eb	0.06455215
5	0xbcb90dfa	-0.022589672
6	0x3e742627	0.23842679
7	0xbe76641f	-0.2406163
8	0x3dc7cc13	0.09755721
9	0x3dbf1160	0.09329486
10	0xbe186c6b	-0.14885108
11	0xbe833cb0	-0.25632238
12	0x3e1d3d70	0.15355468
13	0x3e1d1f24	0.1534391
14	0x3ec44ff8	0.3834226
15	0x3e052274	0.13001424
16	0xbf67cebf	-0.90549845
17	0xbfba724a	-1.4566128
18	0xbf81d3f1	-1.0142804
19	0xbf2c79de	-0.67373455
20	0xbdf69df9	-0.1204185
21	0xbf4ad631	-0.7923308
22	0xbf0efb7f	-0.558525
23	0xbf573590	-0.84066105
24	0xbed43d3b	-0.41452965
25	0xbf6548a3	-0.8956396
26	0xbfb32ced	-1.3998085
27	0xbef4f5fa	-0.47843915
28	0xbf0810d1	-0.5315066
29	0xbf09a2a0	-0.5376377
30	0xbf07c4da	-0.53034747
31	0xbf51aaff	-0.81901544

static_variable_selection.single_variable_grns.HealthDisp.gate_norm.add_norm.norm.weight f4 [16]
0	0x3f931b83	1.1492771
1	0x3ec3f567	0.38273165
2	0x4005e026	2.091806
3	0x3f25a158	0.64699316
4	0x3fc3eb94	1.5306268
5	0x3f8beb19	1.0931121
6	0x3fd1b5e0	1.6383629
7	0x3e749946	0.23886594
8	0x3f73ccf8	0.9523463
9	0xbdc29ebb	-0.09502932
10	0x3f95595c	1.1667895
11	0x3fe9cd1c	1.826572
12	0x3f8c0df9	1.0941764
13	0x3fbf1f46	1.4931419
14	0x3fa7bea6	1.3105056
15	0x3fa807f3	1.3127426

static_variable_selection.single_variable_grns.HealthDisp.gate_norm.add_norm.norm.bias f4 [16]
0	0x3ed9b534	0.4252106
1	0x3d9be0e7	0.07611256
2	0x3a791261	0.0009501335
3	0xbe83e7fb	-0.25762925
4	0x3ec931ab	0.39295706
5	0x3c56122d	0.013065857
6	0xbe31fb82	-0.17381099
7	0xbdc81e71	-0.09771431
8	0xbcd82997	-0.02638702
9	0xbe93dd3c	-0.28879726
10	0xbe463457	-0.19355904
11	0xbd525a14	-0.051355436
12	0x3d1066aa	0.035254158
13	0x3de8e35b	0.113714896
14	0x3e67c7dc	0.22634834
15	0x3d6d8844	0.05799128

static_variable_selection.prescalers.AgeDist.weight f4 [8, 1]
0	0x3e982a34	0.29719698
1	0xbf41af3c	-0.7565801
2	0x3f49d2a0	0.78837013
3	0x3eddd8c1	0.43329433
4	0xbf48b272	-0.78397286
5	0xbec9c0de	-0.39404958
6	0xbf1c170c	-0.60972667
7	0xbc8c6968	-0.017140105

static_variable_selection.prescalers.AgeDist.bias f4 [8]
0	0xbe3e09b9	-0.18558396
1	0x3e2eebd6	0.17082152
2	0x3f53a1ca	0.82668746
3	0x3ecc38b6	0.39887017
4	0xbf35978c	-0.7093437
5	0xbf0a27fa	-0.5396725
6	0xbeb7d0aa	-0.35901386
7	0x3c226c19	0.009913468

static_variable_selection.prescalers.HealthDisp.weight f4 [8, 1]
0	0x3f5b7e00	0.85739136
1	0xbfb9f57c	-1.4528041
2	0x3f84fd93	1.0389885
3	0xbfa2e719	-1.2726775
4	0x3f49e06d	0.7885807
5	0x3d40b5b9	0.047048304
6	0x3f8e6b26	1.1126449
7	0x3f0581d4	0.52151227

static_variable_selection.prescalers.HealthDisp.bias f4 [8]
0	0x3de93eb3	0.11388912
1	0x3eb8155b	0.35953793
2	0x3eb195fd	0.34684744
3	0x3ec11aa4	0.37715638
4	0x3e802905	0.25031295
5	0xbf0e0793	-0.5548031
6	0x3e82a754	0.25518286
7	0x3e23a64e	0.15981409

encoder_variable_selection.flattened_grn.resample_norm.mask f4 [7]
0	0xbe9ca3ab	-0.3059362
1	0xbf526715	-0.8218854
2	0x3f9fecd3	1.2494148
3	0x3eaf7e60	0.34276104
4	0xbffc5385	-1.9712988
5	0x3c9e0183	0.01928783
6	0x3c46fba8	0.01214496

encoder_variable_selection.flattened_grn.resample_norm.norm.weight f4 [7]
0	0x3fd18dcd	1.6371399
1	0x3f4b1ea1	0.7934361
2	0x3f846f85	1.0346533
3	0x3ffacf53	1.959452
4	0xbd8079eb	-0.06273254
5	0x3fb09005	1.3793951
6	0x3faa9f7f	1.3329924

encoder_variable_selection.flattened_grn.resample_norm.norm.bias f4 [7]
0	0x3d828113	0.06372275
1	0xbf90da65	-1.1316649
2	0x3dfa6738	0.12226719
3	0xbfb08cd1	-1.3792974
4	0xbf0a6124	-0.54054475
5	0xbf2b9e1d	-0.67038137
6	0x3f8a7149	1.0815822

encoder_variable_selection.flattened_grn.fc1.weight f4 [7, 56]
0	0xbe87fda8	-0.26560712
1	0xbda124a8	-0.0786832
2	0x3af6c946	0.0018828295
3	0xbf6fb973	-0.9364235
4	0xbea69895	-0.32538286
5	0x3f21cf84	0.6320727
6	0x3f10c8ab	0.56556195
7	0x3ebe8998	0.3721435
8	0xbe9348d2	-0.28766495
9	0x3d8521f2	0.06500615
10	0x3e830e1a	0.25596696
11	0xbe655703	-0.22396474
12	0xbecf10b5	-0.40442434
13	0x3f06e220	0.5268879
14	0x3d1a3bd4	0.037654713
15	0x3e9bf079	0.30456904
16	0xbf31de1c	-0.69479537
17	0x3e2fe79f	0.171782
18	0xbe7d2de5	-0.24724539
19	0xbed4e6fe	-0.41582483
20	0x3f055a9e	0.52091396
21	0x3f2b02fb	0.6680142
22	0xbed41aa7	-0.41426584
23	0x3f2df0a1	0.67945296
24	0x3dc9a320	0.09845567
25	0xbe9aae1a	-0.30210954
26	0x3ed1aa74	0.40950358
27	0x3e9cdb51	0.30636075
28	0xbddb9e78	-0.10723585
29	0x3e19c9bf	0.15018366
30	0x3eeb7245	0.45985618
31	0x3e0e0c8b	0.13871972
32	0xbf76d21c	-0.9641435
33	0x3f811e08	1.008729
34	0x3ea541c1	0.3227673
35	0x3f551a06	0.83242834
36	0xbf04162c	-0.5159633
37	0xbf90fb00	-1.1326599
38	0xbf0f7c34	-0.56048894
39	0xbdd9a8ff	-0.106279366
40	0xbee3e254	-0.44508612
41	0x3f1c9405	0.6116336
42	0xbf05066c	-0.51962924
43	0x3f0e70f8	0.55641127
44	0xbe0045ac	-0.12526578
45	0x3f099b6a	0.5375277
46	0x3f19ee62	0.6012937
47	0x3d53c868	0.051704794
48	0x3dfa9614	0.122356564
49	0xbee23391	-0.44179967
50	0xbd5bb0e4	-0.053635493
51	0x3f046667	0.51718754
52	0x3d5b96b5	0.053610522
53	0xbe8b7686	-0.27238864
54	0xbf092c3c	-0.5358312
55	0xbeb73092	-0.35779244
56	0x3f099e34	0.53757024
57	0x3f31cacd	0.69450074
58	0x3f37e0c0	0.71827316
59	0x3f28c179	0.65920216
60	0xbe84905a	-0.25891382
61	0xbec99b82	-0.39376456
62	0xbe8aff2f	-0.27147815
63	0xbf427328	-0.75956964
64	0x3eda1e3f	0.426012
65	0xbda832bf	-0.08212804
66	0x3d860fea	0.06546004
67	0x3e5051a7	0.20343648
68	0x3e46c171	0.1940973
69	0xbddf4535	-0.10901872
70	0xbed34b7b	-0.41268525
71	0xbda63891	-0.08116258
72	0xbe52f4c4	-0.20601183
73	0x3cdb2b1b	0.026753953
74	0xbf1cf8f6	-0.61317384
75	0xbe15785b	-0.14596693
76	0x3ebe404f	0.3715844
77	0x3eb2dc26	0.34933585
78	0x3e511425	0.20417841
79	0xbe80c3d3	-0.25149402
80	0xbe02a458	-0.12758005
81	0x3e8a3125	0.2699062
82	0xbe05e819	-0.1307682
83	0x3e342c48	0.17595017
84	0x3e04e8c9	0.12979425
85	0x3da26820	0.079300165
86	0xbe625558	-0.22102869
87	0x3d708186	0.058717273
88	0xbf488a52	-0.7833606
89	0x3f67d4ee	0.9055928
90	0x3eba375f	0.3637037
91	0x3f3f98e2	0.74842656
92	0xbf2119ad	-0.62929803
93	0xbf418fe6	-0.75610197
94	0xbf676fb6	-0.9040483
95	0xbcfab951	-0.030605944
96	0x3e562a5b	0.20914595
97	0x3dc54b04	0.09633449
98	0xbd6797e7	-0.05654135
99	0x3caa4d63	0.020788854
100	0xbec57c16	-0.38571233
101	0xbe3baa98	-0.18326795
102	0xbdbc4140	-0.09192133
103	0xbe0b3f7d	-0.13598438
104	0x3f2f8ca1	0.6857396
105	0x3ea80488	0.32815957
106	0xbed2004f	-0.4101586
107	0xbd26ab08	-0.04069045
108	0xbe8565ca	-0.2605422
109	0x3ebbc848	0.3667624
110	0x3ee59bcb	0.44845423
111	0x3f13a8f6	0.5767969
112	0x3e736b2f	0.23771356
113	0x3e890559	0.26761892
114	0xbd47dc30	-0.04879397
115	0xbe7f7d8c	-0.24950236
116	0xbe13d1cd	-0.14435501
117	0xbdfe8732	-0.1242813
118	0xbe36284e	-0.17788813
119	0xbee1a5b8	-0.44071746
120	0xbe9de099	-0.30835417
121	0x3ef69815	0.48162904
122	0x3e8580e5	0.260749
123	0xbf19948d	-0.59992296
124	0xbeb07845	-0.34466758
125	0x3e925eda	0.2858799
126	0xbd37607f	-0.04476976
127	0xbe807f22	-0.25096995
128	0xbe4fef48	-0.20306122
129	0xbe187824	-0.1488958
130	0x3e8220b4	0.25415576
131	0xbe984dcf	-0.29746863
132	0x3edc2fa4	0.43005097
133	0x3e655535	0.22395785
134	0xbe407111	-0.18793131
135	0xbe85dbd2	-0.26144272
136	0xbf8e0a00	-1.1096802
137	0x3fb4db00	1.4129333
138	0x3e87b0de	0.26502126
139	0x3ebcc869	0.3687165
140	0x3f51fcc4	0.82026315
141	0x3f0cf07a	0.5505444
142	0xbf43854a	-0.7637526
143	0xbfa77b39	-1.308448
144	0xbcf4b787	-0.029872669
145	0xbe1a3347	-0.15058623
146	0x3cbde540	0.023180604
147	0xbeb1ce19	-0.34727553
148	0x3f24563b	0.6419408
149	0xbdfd17a3	-0.12358024
150	0x3e5dfb0b	0.21677797
151	0x3d38e275	0.04513784
152	0x3e7e1b65	0.24815138
153	0xbe78f508	-0.24312222
154	0xbe7eb409	-0.24873365
155	0xbf29f32e	-0.6638669
156	0xbe0e5795	-0.13900597
157	0xbf139b8c	-0.5765922
158	0xbead9666	-0.33903807
159	0x3f43cfb3	0.764888
160	0x3f0599ec	0.5218799
161	0x3efc30ce	0.49255985
162	0xbed9193a	-0.4240206
163	0xbe227928	-0.1586653
164	0xbed915b4	-0.4239937
165	0x3f19a054	0.60010266
166	0x3f11afdb	0.5690896
167	0x3edf1041	0.43567088
168	0x3e2b3bbc	0.16722006
169	0x3f42910d	0.7600258
170	0x3f873d4c	1.0565581
171	0x3ec3b73a	0.38225728
172	0xbf8a417c	-1.0801234
173	0xbf58da43	-0.8470804
174	0x3ea30846	0.3184225
175	0xbf918719	-1.1369354
176	0x3e351ff0	0.17687964
177	0x3d66ef04	0.056380287
178	0x3e05e3bf	0.1307516
179	0x3d13c0f0	0.03607267
180	0x3e3cf171	0.18451478
181	0x3c5bd78c	0.01341809
182	0xbedbd4d5	-0.42935815
183	0x3ece7dd6	0.4033038
184	0xbf13924e	-0.5764512
185	0xbdc70feb	-0.09719833
186	0xbf3920f1	-0.7231589
187	0xbf6888b7	-0.9083361
188	0x3f145caf	0.57953924
189	0x3f2f1e9d	0.6840609
190	0x3e7e3923	0.24826483
191	0x3e4b6515	0.19862778
192	0x3db42ad5	0.08797232
193	0xbef9ba5e	-0.48775
194	0x3f0bbd47	0.5458569
195	0x3ed9a029	0.42505005
196	0xbe82e98d	-0.2556881
197	0x3e896286	0.2683298
198	0x3ecfb020	0.4056406
199	0x3e772d0f	0.24138282
200	0x3e2c9d78	0.16856945
201	0xbe070202	-0.1318436
202	0xbf756754	-0.9586079
203	0xbef41e57	-0.47679397
204	0x4007af96	2.120092
205	0x3e25d991	0.16196276
206	0x3f869adf	1.0516013
207	0x3de31fc9	0.11090047
208	0xbf2721e8	-0.6528611
209	0x3ed41402	0.41421515
210	0xbf02aa0d	-0.51040727
211	0x3e61ce58	0.2205137
212	0xbe1e048b	-0.1543142
213	0x3e50ad2f	0.20378564
214	0x3eadea3b	0.33967766
215	0x3ec042ae	0.37550873
216	0x3ccbfdea	0.02490135
217	0xbea6ca3a	-0.32576162
218	0xbd8a7830	-0.06761205
219	0xbe035d32	-0.1282852
220	0x3e5fdf4a	0.21862522
221	0xbe3dd645	-0.18538769
222	0xbe33ab0a	-0.17545715
223	0x3dae9519	0.08524532
224	0xbbfabbc4	-0.007651778
225	0xbec624ff	-0.387001
226	0xbe4ddd96	-0.2010406
227	0x3d9caa0e	0.07649623
228	0x3de68558	0.11255902
229	0x3e1f3d02	0.15550616
230	0xbeeb948b	-0.46011767
231	0xbde416a0	-0.11137128
232	0xbe91b36d	-0.28457204
233	0x3dd27bde	0.10277532
234	0x3eb3765e	0.35051244
235	0xbd31e412	-0.043430395
236	0xbdfa1d87	-0.12212663
237	0x3e5288d2	0.20560005
238	0x3e0ee7c2	0.13955596
239	0xbed1f5ff	-0.41007993
240	0x3e96e482	0.29471213
241	0xbab03353	-0.001344303
242	0x3dc57d59	0.09643049
243	0x3f29564d	0.6614731
244	0xbde41272	-0.11136331
245	0x3cc40d7c	0.023932211
246	0x3e1024db	0.14076559
247	0xbe2054ee	-0.15657398
248	0xbe8f4007	-0.27978536
249	0x3f528205	0.82229644
250	0xbe3a22a3	-0.18177275
251	0x3d6ea8d3	0.058266472
252	0x3ed905d8	0.4238727
253	0x3e66c553	0.2253621
254	0xbf6b4a9a	-0.9191071
255	0xbf172e7a	-0.5905529

encoder_variable_selection.flattened_grn.fc1.bias f4 [7]
0	0xbf011e6e	-0.50437057
1	0x3c03f51e	0.008054046
2	0xbd497bfd	-0.04919051
3	0xbee1c8df	-0.44098565
4	0x3e9e687e	0.30939096
5	0xbdeb442f	-0.11487614
6	0xbe533589	-0.20625891

encoder_variable_selection.flattened_grn.context.weight f4 [7, 16]
0	0xbe325b6d	-0.17417689
1	0x3fe83cfb	1.814361
2	0x3e8f0ebc	0.2794093
3	0x3e3ef8df	0.18649624
4	0xbf622239	-0.8833347
5	0xbef076f3	-0.4696575
6	0x3f5836ac	0.8445842
7	0x3ec449ba	0.383375
8	0x3e14a000	0.1451416
9	0xbed89405	-0.4230043
10	0xbef68709	-0.481499
11	0x3c9aa836	0.018879037
12	0x3e3d62da	0.1849474
13	0xbf86fc2c	-1.0545707
14	0xbe33629c	-0.17518085
15	0xbd408d04	-0.047009483
16	0xbdaa5301	-0.08316613
17	0xbe570252	-0.20996979
18	0xbe97d221	-0.29652503
19	0xbdc8f249	-0.09811837
20	0xbeae3e0a	-0.34031707
21	0x3e74c8be	0.23904702
22	0xbfde22d7	-1.7354382
23	0xbe12133c	-0.1426515
24	0x3f334b02	0.7003633
25	0x3f9d469c	1.2287173
26	0xbe8c11c2	-0.27357298
27	0xbf1416c9	-0.5784727
28	0x3e618b7f	0.2202587
29	0x3da7c63e	0.081921086
30	0x3fc3427d	1.5254666
31	0xbf06201f	-0.5239276
32	0x3d7582e4	0.05993928
33	0xbec87c24	-0.39157212
34	0xbf51236f	-0.8169469
35	0x3edcf4fe	0.43155664
36	0x3d772f90	0.060348094
37	0xbf096d90	-0.53682804
38	0xbf533ef5	-0.8251794
39	0xbdadbcf0	-0.084833026
40	0xbe50f323	-0.2040525
41	0x3f4387f4	0.76379323
42	0x3e98ba9c	0.29829872
43	0xbe730c62	-0.23735192
44	0xbf0c1851	-0.54724604
45	0xbec07725	-0.375909
46	0x3f4a0db4	0.7892716
47	0x3edc4926	0.43024558
48	0xbdf33090	-0.11874497
49	0xbed4b40d	-0.41543618
50	0xbf42c44f	-0.76080793
51	0xbe5e60a6	-0.21716556
52	0x3e2146e1	0.15749694
53	0x3f405bed	0.7514027
54	0x3ef948ec	0.48688447
55	0x3f10f5b6	0.56624925
56	0x3e99697e	0.29963297
57	0xbf69c2fd	-0.91313154
58	0x3f261999	0.6488281
59	0x3efc1036	0.49231118
60	0xbf1289e5	-0.5724166
61	0xbd5d615e	-0.054047935
62	0x3e9bf60c	0.30461156
63	0xbf8c075d	-1.0939747
64	0x3e848c2f	0.25888202
65	0xbe17cb58	-0.14823663
66	0xbe5d4bda	-0.21610966
67	0x3e51aaa2	0.20475248
68	0x3d2e0234	0.04248257
69	0xbdcdb201	-0.10043717
70	0x3ebb15de	0.3654012
71	0xbe14a555	-0.14516194
72	0xbeaf620c	-0.3425449
73	0xbf27b669	-0.6551271
74	0xbce632cd	-0.028100396
75	0x3ef4bcc0	0.47800255
76	0xbe6a0d5f	-0.22856663
77	0x3ecaf95f	0.3964338
78	0xbef56a82	-0.47932822
79	0x3df3b5ec	0.11899933
80	0xbd3de6e0	-0.046362758
81	0x3ec9f7c4	0.39446843
82	0xbf0325fa	-0.5122982
83	0x3d1593c0	0.03651786
84	0xbd873620	-0.066021204
85	0xbe6ded40	-0.23235035
86	0xbe439295	-0.19098885
87	0xbcfe82e0	-0.031068265
88	0xbd82bf6a	-0.063841656
89	0x3d5564fd	0.052098263
90	0x3eb96e77	0.3621709
91	0x3eb37d4a	0.35056525
92	0xbeeb9b13	-0.4601675
93	0x3eef7a00	0.46772766
94	0x3e21eed6	0.15813765
95	0xbe958633	-0.29203948
96	0xbe0de938	-0.13858497
97	0x3f941b5e	1.1570852
98	0xbc80c5f0	-0.015719384
99	0x3d82fd0e	0.063959226
100	0x3ee59f2c	0.44848
101	0xbe5b06ef	-0.21389364
102	0xbe10a1ee	-0.14124271
103	0xbf09eee1	-0.53880125
104	0x3f1fb808	0.62390184
105	0xbf0b2553	-0.5435383
106	0xbddd3e49	-0.108028956
107	0x3dcd071f	0.10011124
108	0x3e410a27	0.18851529
109	0xbe1e983c	-0.1548776
110	0xbdfdf39c	-0.123999804
111	0x3ef24bfe	0.47323602

encoder_variable_selection.flattened_grn.fc2.weight f4 [7, 7]
0	0xbe18f61f	-0.14937638
1	0x3fa07079	1.2534324
2	0x3f23cfc3	0.63988894
3	0x3e0c7abd	0.13718696
4	0x3f41ce9b	0.7570588
5	0xbf09b803	-0.53796405
6	0xbe298bd8	-0.16557252
7	0x3ed3af51	0.41344693
8	0xbd18b232	-0.037279315
9	0x3e9adbaa	0.30245715
10	0x3da1ac40	0.07894182
11	0xbf32d77c	-0.69860053
12	0x3f5d9469	0.8655458
13	0xbfa5485d	-1.2912709
14	0xbf306519	-0.6890426
15	0x3da455da	0.080241874
16	0x3ec1b4c3	0.37833223
17	0xbea3a7b8	-0.31963897
18	0xbe98a2f2	-0.29811817
19	0x3f6b70d5	0.91969043
20	0x3d7aa138	0.061188906
21	0x3e25013b	0.1611375
22	0xbe1ea5eb	-0.1549298
23	0xbf8ed409	-1.1158458
24	0x3e852743	0.26006517
25	0xbea4edf2	-0.32212788
26	0x3ccc677d	0.02495169
27	0xbef6a3a7	-0.48171732
28	0x3f2f63b7	0.6851153
29	0xbf9c7c11	-1.2225362
30	0xbf67ffca	-0.9062468
31	0x3f12aa79	0.5729137
32	0xbf0805ec	-0.53134036
33	0xbe38c088	-0.18042195
34	0x3f32bb85	0.6981738
35	0xbf98760f	-1.1911029
36	0x3ecc9b1b	0.39962086
37	0x3d84d17e	0.0648527
38	0xbf103f69	-0.56346756
39	0xbf048daa	-0.5177866
40	0x3f97f1c7	1.187066
41	0x3e588410	0.21144128
42	0x3d2ee5d5	0.042699654
43	0x3e6a0259	0.22852458
44	0xbe3270c1	-0.17425825
45	0x3e909932	0.2824188
46	0x3e72689b	0.23672716
47	0xbe1a2bf3	-0.15055828
48	0xbf499f3d	-0.78758603

encoder_variable_selection.flattened_grn.fc2.bias f4 [7]
0	0x3d806864	0.06269911
1	0xbf1e2539	-0.6177555
2	0xbcf0d846	-0.029400002
3	0xbf019249	-0.5061384
4	0xbee1b28d	-0.44081536
5	0xbefebd61	-0.4975386
6	0x3ed625b0	0.41825628

encoder_variable_selection.flattened_grn.gate_norm.glu.fc.weight f4 [14, 7]
0	0xbc10b66c	-0.008832555
1	0xbcedda02	-0.029034618
2	0xbec57fca	-0.38574058
3	0x3e6a7020	0.22894335
4	0x3d1cced8	0.0382832
5	0xbf06e0dc	-0.5268686
6	0x3f05250b	0.5200965
7	0x3f188830	0.59582806
8	0x3e78987e	0.24276921
9	0x3e1be76b	0.15224998
10	0xbde7a5b8	-0.11310905
11	0x3df3677b	0.11884972
12	0x3e527983	0.20554166
13	0x3da6281a	0.081131175
14	0x3d881025	0.06643704
15	0xbe79cf2d	-0.24395438
16	0x3ea52072	0.32251316
17	0x3e132e77	0.14373194
18	0xbe652878	-0.22378719
19	0x3d343ad3	0.04400141
20	0x3e4c1cbf	0.19932841
21	0xbf931aab	-1.1492513
22	0x3f697703	0.9119722
23	0x3f15102d	0.5822781
24	0x3f68fb8d	0.91008836
25	0x3f5f6a5f	0.87271684
26	0x3f138cd9	0.5763679
27	0xbf0438c7	-0.51649135
28	0xbdf29076	-0.1184396
29	0xbdae3d78	-0.08507818
30	0xbd02b964	-0.031915084
31	0x3f398c6f	0.7247991
32	0x3ec473bb	0.38369545
33	0xbf208d1b	-0.6271531
34	0x3edb488e	0.42828792
35	0xbf299000	-0.6623535
36	0xbd49f0f7	-0.049302068
37	0xbe2d7309	-0.16938414
38	0x3f255845	0.64587814
39	0x3f847e65	1.0351073
40	0xbec12361	-0.37722304
41	0xbf363e8c	-0.7118919
42	0x3eff1c10	0.49826097
43	0xbefc3c60	-0.49264812
44	0xbed58bb1	-0.4170814
45	0xbe955f76	-0.29174393
46	0xbe8e2d5a	-0.27768975
47	0xbf28109c	-0.65650344
48	0x3eb50ae9	0.35359886
49	0x3f159e7d	0.5844496
50	0xbeb182a6	-0.3466999
51	0xbe23a199	-0.15979613
52	0xbe56687f	-0.209383
53	0xbe230407	-0.15919505
54	0xbec9a639	-0.3938463
55	0x3e3358fb	0.17514412
56	0xbf83112e	-1.0239618
57	0xbea0bbd5	-0.31393304
58	0x3e8baca0	0.2728014
59	0x3d8806e8	0.06641942
60	0x3e90e3f6	0.2829892
61	0x3d889b90	0.06670296
62	0xbf06e44e	-0.52692115
63	0x3e269e48	0.16271317
64	0x3ec50f1c	0.3848809
65	0xbec5ab08	-0.3860705
66	0x3e24d6c8	0.16097558
67	0x3f1066c4	0.5640681
68	0xbd1af90a	-0.03783516
69	0xbeee4bac	-0.46542108
70	0x3ee52cb2	0.44760662
71	0xbf6536dc	-0.89536834
72	0xbdfd4893	-0.12367358
73	0xbf2bd133	-0.6711609
74	0xbeddfa0d	-0.43354836
75	0xbf7b0981	-0.98061377
76	0x3e68c4ff	0.22731398
77	0x3f3db74f	0.7410783
78	0xbf0b7f26	-0.5449089
79	0x3bbb7882	0.0057211528
80	0xbf1df087	-0.6169514
81	0xbeb740cc	-0.35791624
82	0xbe1cdc46	-0.15318403
83	0xbecca4be	-0.39969438
84	0x3e90710d	0.2821125
85	0x3dde7c38	0.108635366
86	0x3e4abdaa	0.19798914
87	0xbf4045fb	-0.7510678
88	0xbf14b182	-0.58083355
89	0x3df1b801	0.11802674
90	0x3f2a331a	0.66484225
91	0x3f1400b8	0.57813597
92	0xbe1f6a80	-0.1556797
93	0xbe522cac	-0.20524853
94	0xbe8eec68	-0.2791474
95	0xbeadc156	-0.33936566
96	0xbf105992	-0.56386673
97	0x3e51b111	0.20477702

encoder_variable_selection.flattened_grn.gate_norm.glu.fc.bias f4 [14]
0	0x3eb8d4f3	0.36099967
1	0xbf893ef3	-1.0722336
2	0xbd95ba4b	-0.07310923
3	0xbfc76982	-1.5579073
4	0xbee0d1ad	-0.4390997
5	0x3ecbe6f2	0.39824635
6	0x3f61ab45	0.8815196
7	0x3e709afc	0.23496622
8	0xbd86acbe	-0.06575917
9	0xc0031638	-2.0482311
10	0x3f24ab6d	0.64324075
11	0x3ecc8ee9	0.39952782
12	0xbfd65f71	-1.6747876
13	0x3f0498b0	0.5179548

encoder_variable_selection.flattened_grn.gate_norm.add_norm.norm.weight f4 [7]
0	0x3eab29c2	0.33430296
1	0x3d183089	0.03715566
2	0x3f359b73	0.7094032
3	0x3f02ade5	0.5104659
4	0x3d19d53f	0.037556883
5	0x3fd612cb	1.6724485
6	0x3f2b6e78	0.66965437

encoder_variable_selection.flattened_grn.gate_norm.add_norm.norm.bias f4 [7]
0	0x3ddb161e	0.10697578
1	0xbd20ebb4	-0.039287284
2	0x3dacd833	0.08439674
3	0xbc3c7c89	-0.011504301
4	0x3c8208e5	0.015873382
5	0xbe9609a1	-0.2930422
6	0x3e3fbc10	0.18724084

encoder_variable_selection.single_variable_grns.SinWeekly.resample_norm.mask f4 [16]
0	0xbd083c4e	-0.033260636
1	0xbf1fd72e	-0.62437713
2	0xbcd9b77f	-0.026576756
3	0xbdb6c3af	-0.089240424
4	0xbfaa3ff3	-1.3300766
5	0xbd8c4673	-0.068493746
6	0xbfa11dd7	-1.2587231
7	0x3f18806a	0.59570944
8	0xc001bb6b	-2.027064
9	0xbfc0c39b	-1.5059694
10	0xbfa09e15	-1.2548243
11	0xbf2caa0a	-0.6744696
12	0xbef24dd2	-0.47324997
13	0xbf340b43	-0.70329684
14	0xbe5d6fe2	-0.21624711
15	0x400920ee	2.1426349

encoder_variable_selection.single_variable_grns.SinWeekly.resample_norm.norm.weight f4 [16]
0	0x3fa08a49	1.2542201
1	0x3f277707	0.65415996
2	0x3fa31dfd	1.2743527
3	0x3fa1c004	1.2636724
4	0x3f2d793b	0.6776311
5	0x3f9a3895	1.2048517
6	0xbe7f29bd	-0.24918266
7	0x3fecf62d	1.8512627
8	0x3eceace8	0.40366292
9	0x3f0b5a9e	0.54435146
10	0x3f06e09a	0.52686465
11	0xbe1e0855	-0.15432866
12	0x3f3f75ff	0.7478942
13	0x3f579f7c	0.8422773
14	0x3f183356	0.5945333
15	0x4047f913	3.1245773

encoder_variable_selection.single_variable_grns.SinWeekly.resample_norm.norm.bias f4 [16]
0	0x3d2137fd	0.039360035
1	0x3c9ad1d7	0.018898888
2	0x3e3c5407	0.18391429
3	0x3dd03e68	0.10168153
4	0x3eabf77b	0.3358725
5	0xbdab7119	-0.08371181
6	0xbed25fc9	-0.41088703
7	0xbeba747b	-0.36416993
8	0xbdfa6ac4	-0.12227395
9	0xbe926f82	-0.286007
10	0xbef63751	-0.48089078
11	0x3e1352b1	0.14387013
12	0x3eb54a17	0.3540809
13	0x3e4e445e	0.20143268
14	0x3ed64dfd	0.41856375
15	0x3f0cc522	0.549883

encoder_variable_selection.single_variable_grns.SinWeekly.fc1.weight f4 [8, 8]
0	0x3f040370	0.51567745
1	0x3dda86aa	0.106702164
2	0x3cf66231	0.030076118
3	0xbd9696f9	-0.073530145
4	0xbe984408	-0.29739404
5	0x3eb4760a	0.35246307
6	0xbef87f52	-0.48534638
7	0xbd91cf2f	-0.07119595
8	0xbd2e49c4	-0.042550817
9	0xbe3807f4	-0.17971784
10	0x3f9e9a5d	1.2390858
11	0x3eba4815	0.3638312
12	0xbe402545	-0.18764217
13	0xbf2a2851	-0.6646777
14	0x3eb7ec62	0.35922533
15	0xbef2e2ec	-0.47438753
16	0xbda6e193	-0.081484936
17	0xbe005898	-0.12533796
18	0x3f9c6e0d	1.2221085
19	0xbed515c5	-0.4161817
20	0x3f229465	0.6350768
21	0xbf6e09aa	-0.92983496
22	0xbeca138f	-0.39468047
23	0xbf976c0d	-1.182985
24	0x3e530e17	0.20610844
25	0x3f6974f6	0.91194093
26	0x3e182a54	0.14859897
27	0x3e25c4b7	0.16188322
28	0xbf1d7afa	-0.6151577
29	0xbf6a85a3	-0.91610163
30	0xbeed0c09	-0.46298245
31	0xbfc8a0c5	-1.5674063
32	0x3f85e264	1.0459714
33	0xbeadc891	-0.33942083
34	0xbeaeea89	-0.3416331
35	0xbf411a2e	-0.7543057
36	0xbf487b9f	-0.7831363
37	0x3e9c5c2a	0.30539066
38	0xbef051f7	-0.46937534
39	0x3f78a610	0.9712839
40	0xbf0042d0	-0.5010195
41	0xbe3d355f	-0.1847739
42	0x3f0020ef	0.5005025
43	0xbe1394ee	-0.14412281
44	0x3f5016c3	0.8128473
45	0xbf94b9de	-1.1619222
46	0x3edd66d2	0.43242508
47	0x3e89a8a9	0.2688649
48	0xbedc6d84	-0.43052304
49	0x3fcbdce0	1.5926781
50	0x3ee3d6b3	0.4449974
51	0x3f11e167	0.5698456
52	0xbf4e415b	-0.80568475
53	0xbf19c4fd	-0.60066205
54	0x3e4b0fde	0.19830272
55	0xbf946688	-1.159379
56	0xbf2082b3	-0.6269943
57	0xbea145da	-0.31498605
58	0x3ea1737f	0.3153343
59	0xc039c6d1	-2.9027598
60	0xbe398c29	-0.18119873
61	0x3d6c5500	0.05769825
62	0x3fdd8950	1.730753
63	0x3f3ae58e	0.7300652

encoder_variable_selection.single_variable_grns.SinWeekly.fc1.bias f4 [8]
0	0xbe348515	-0.17628892
1	0xbdd19bf5	-0.102348246
2	0x3d1e6881	0.03867388
3	0xbe6519e6	-0.2237316
4	0xbe0c3ff8	-0.13696277
5	0x3dbe9b6d	0.09306989
6	0xbe5bc25b	-0.2146086
7	0xbeaeea9c	-0.34163368
