TFT-pytorch-AgeGroups/results/AGE1829/checkpoints/best-epoch=2.ckpt (torch, 735853 bytes, 506 tensors)

prescalers.AGE1829.weight f4 [8, 1]
0	0xbdfdd6f9	-0.123945184
1	0xbf381785	-0.7191089
2	0x3f085a79	0.5326305
3	0x3d70d22c	0.058794186
4	0xbe7e465e	-0.2483153
5	0x3d9af856	0.075668976
6	0xbf3c320b	-0.7351386
7	0x3f1b6da7	0.6071419

prescalers.AGE1829.bias f4 [8]
0	0xbe41934e	-0.18903849
1	0x3f52291b	0.8209397
2	0x3f2f080c	0.68371654
3	0xbe0c6bc7	-0.13712989
4	0xbd9ca721	-0.07649065
5	0xbf346500	-0.70466614
6	0x3dcbac84	0.09945014
7	0xbeb015da	-0.3439167

prescalers.SinWeekly.weight f4 [8, 1]
0	0x3d9635ea	0.07334502
1	0xbfa3cb46	-1.2796409
2	0x3f8becce	1.0931642
3	0xbf7608c5	-0.9610713
4	0x3f321572	0.6956397
5	0xbdf026a8	-0.11726123
6	0x3f2b7c0e	0.6698617
7	0x3eda0bcd	0.42587128

prescalers.SinWeekly.bias f4 [8]
0	0x3d2ac524	0.041691914
1	0x3d7cc08b	0.06170706
2	0x3f1ff4ee	0.6248311
3	0x3ebfea38	0.37483382
4	0x3f1226a4	0.5709021
5	0xbf1449d6	-0.57925165
6	0x3f44f453	0.7693531
7	0x3ecc23c2	0.3987103

prescalers.VaccinationFull.weight f4 [8, 1]
0	0x3e1a4944	0.15067011
1	0x3e3cf82b	0.18454044
2	0x3f43be54	0.7646229
3	0x3f5cbbb0	0.8622389
4	0xbdfa4ed4	-0.122220665
5	0xbedb4df6	-0.42832917
6	0xbf1aa9a1	-0.60415083
7	0xbf238f52	-0.63890564

prescalers.VaccinationFull.bias f4 [8]
0	0x3f3d7075	0.7399972
1	0xbec7743c	-0.38955867
2	0xbe33e85e	-0.1756911
3	0x3f89a26a	1.075269
4	0x3f10f41c	0.5662248
5	0x3dd51ad0	0.10405505
6	0xbef4bcbf	-0.47800252
7	0xbca4d450	-0.02012077

prescalers.Cases.weight f4 [8, 1]
0	0x3eef9de8	0.4680016
1	0xbf96a194	-1.176806
2	0xbf5559fe	-0.8334044
3	0x3f4b4432	0.7940093
4	0x3faea022	1.3642619
5	0xb9aa7e41	-0.00032518993
6	0xbf28f2b2	-0.65995324
7	0x3ec1fe54	0.3788935

prescalers.Cases.bias f4 [8]
0	0xbeebf287	-0.4608347
1	0xbe6eb3e9	-0.23310818
2	0x3efa07d1	0.48834088
3	0x3ee00b31	0.43758538
4	0xbd6a9d7a	-0.057279088
5	0x3d0bb709	0.034110103
6	0x3eb821bd	0.3596324
7	0xbf6c1da8	-0.9223275

static_variable_selection.single_variable_grns.AGE1829.resample_norm.mask f4 [16]
0	0x3df9428a	0.121708944
1	0x3f30bf19	0.6904159
2	0x3d0f7140	0.035020113
3	0x3dceb854	0.100937515
4	0x3d7493f6	0.05971142
5	0x3da33cba	0.07970567
6	0xbed0dd38	-0.40793777
7	0x3dc6a87a	0.09700103
8	0xbd88bfc0	-0.066771984
9	0xbda0888a	-0.07838543
10	0xbe771a2e	-0.2413108
11	0x3ee90675	0.4551274
12	0xbe226ba5	-0.15861376
13	0x3db617fb	0.08891293
14	0xbe02c3fd	-0.12770076
15	0x3e3762f1	0.17908837

static_variable_selection.single_variable_grns.AGE1829.resample_norm.norm.weight f4 [16]
0	0x3fa0470b	1.252168
1	0x3fbbf691	1.4684621
2	0x3f8e073b	1.1095957
3	0x3f98d515	1.1940027
4	0x3f9e7cc8	1.238183
5	0x3f972968	1.1809511
6	0x3f4265d4	0.7593663
7	0x3f02bdb4	0.51070714
8	0x3f7f3e4d	0.9970444
9	0x3f8941e5	1.0723234
10	0x3f66c483	0.90143603
11	0x3fcd0a89	1.601884
12	0x3f8018e3	1.0007595
13	0x3f93f817	1.1560086
14	0x3f8bfb63	1.0936092
15	0x3fa1d1ef	1.2642192

static_variable_selection.single_variable_grns.AGE1829.resample_norm.norm.bias f4 [16]
0	0xbe652d62	-0.22380593
1	0x3decb72e	0.11558376
2	0x3e42dc08	0.19029248
3	0x3e80d32f	0.2516112
4	0x3e8bf898	0.273381
5	0x3e469430	0.19392467
6	0xbe96d339	-0.29458025
7	0xbe07ed91	-0.13274218
8	0x3ca8dc9a	0.020613004
9	0xbe431827	-0.19052182
10	0x3d46de9e	0.048552148
11	0xbf2b9c94	-0.67035794
12	0x3c9ed72b	0.01938971
13	0xbdb3925a	-0.08768149
14	0x3d014eec	0.031569406
15	0xbd837d52	-0.06420387

static_variable_selection.single_variable_grns.AGE1829.fc1.weight f4 [8, 8]
0	0x3e5d9906	0.21640405
1	0xbe52d7a4	-0.20590073
2	0xbf000fb7	-0.5002398
3	0xbf026969	-0.50942093
4	0xbe3e76d2	-0.18600014
5	0xbfbcf6aa	-1.4762776
6	0x3edb522b	0.42836127
7	0xbf5c521f	-0.86062807
8	0xbf0ff69c	-0.5623567
9	0xbf89d8b8	-1.0769262
10	0xbe61cc4a	-0.22050586
11	0x3f255d6e	0.6459569
12	0xbe7b0740	-0.24514484
13	0xbeb82b1c	-0.3597039
14	0x3f1f145b	0.62140435
15	0x3e3b8833	0.18313675
16	0x3e9f60bd	0.31128493
17	0x3f0f9f3f	0.56102365
18	0x3f02f9e1	0.51162535
19	0xbed0bc12	-0.40768486
20	0x3e5a358f	0.21309493
21	0xbe56c6a3	-0.20974211
22	0x3f08b6c2	0.53403866
23	0xbf2a785e	-0.66589916
24	0xbf042dac	-0.5163219
25	0xbf21fbdd	-0.6327494
26	0x3c63274b	0.013864349
27	0xbe177874	-0.14792043
28	0xbebb3158	-0.36561084
29	0x3e53703d	0.20648284
30	0xbec3a4fa	-0.38211805
31	0x3faa5d61	1.3309747
32	0xbf254b5e	-0.64568126
33	0x3f810170	1.0078564
34	0xbd0d4072	-0.034485288
35	0xbe9d524b	-0.30726847
36	0xbebd04d4	-0.36917746
37	0x3f3bf9bb	0.73427933
38	0x3effc060	0.49951458
39	0xbf2c6c67	-0.6735291
40	0x3eb18a55	0.3467585
41	0xbf07130d	-0.52763444
42	0xbe1b83a7	-0.1518694
43	0x3e8b1c87	0.27170202
44	0x3e729691	0.23690249
45	0xbeb529ba	-0.35383397
46	0xbe8e2edf	-0.27770135
47	0x3eab8853	0.33502445
48	0xbea430e1	-0.32068542
49	0xbf0be7e9	-0.5465074
50	0xbce37a87	-0.027768387
51	0x3f0e27ee	0.5552968
52	0x3e3eb3d6	0.1862329
53	0x3f8fb58d	1.122728
54	0x3e1f6518	0.15565908
55	0xbe02f319	-0.12788047
56	0xbf02e03b	-0.511234
57	0xbf7c4cfd	-0.98554975
58	0xbe45ca8f	-0.19315551
59	0x3f043b1e	0.51652706
60	0x3d87ac8b	0.06624707
61	0xbe9c4562	-0.30521685
62	0x3ea78dd1	0.32725385
63	0x3ea79c00	0.32736206

static_variable_selection.single_variable_grns.AGE1829.fc1.bias f4 [8]
0	0x3cb63512	0.022242103
1	0xba42772c	-0.00074182707
2	0xbd48c6b7	-0.049017634
3	0xbda1bee3	-0.07897737
4	0x3e9a6b96	0.30160207
5	0xbda95a02	-0.08269121
6	0x3e89e7d7	0.26934692
7	0xbe15dff9	-0.1463622

static_variable_selection.single_variable_grns.AGE1829.fc2.weight f4 [8, 8]
0	0x3dad9f13	0.084776066
1	0x3e8c4a13	0.27400264
2	0x3ed795a3	0.4210635
3	0xbf1ef443	-0.62091464
4	0x3ed7bfbf	0.42138478
5	0xbe3a8ff2	-0.18218973
6	0x3f0f21d5	0.55911
7	0x3f0e6b7b	0.5563275
8	0xbe871e1a	-0.26390153
9	0xbea8f93a	-0.33002645
10	0x3edba7f7	0.42901585
11	0xbe870b5f	-0.26375863
12	0x3ef9103d	0.486452
13	0xbe1ee039	-0.15515222
14	0x3e978f84	0.2960168
15	0xbdb448a9	-0.08802921
16	0xbd943afd	-0.072378136
17	0x3e34e983	0.17667203
18	0xbe29e502	-0.16591266
19	0x3daa8ab4	0.08327237
20	0x3e4a64b0	0.19764972
21	0xbeb98ad5	-0.36238733
22	0xbe99b733	-0.30022582
23	0x3ea5c16f	0.3237414
24	0x3f535fe5	0.825682
25	0xbdeec60f	-0.116588704
26	0x3f13af23	0.5768911
27	0xbf2d3f49	-0.6767469
28	0x3e9d0fa8	0.30676007
29	0xbe2472de	-0.16059443
30	0x3ef105f6	0.4707486
31	0xbf4ca3b6	-0.79937303
32	0x3e026831	0.12735058
33	0xbee150e6	-0.44007033
34	0x3e9aeca6	0.30258673
35	0x3e03d596	0.12874445
36	0x3e671f88	0.22570622
37	0xbd4240b6	-0.047424994
38	0x3ec8a291	0.39186528
39	0x3cfb10a7	0.030647589
40	0x3eb5670b	0.35430178
41	0xbe9dba50	-0.30806208
42	0xbe12bcfb	-0.14329903
43	0xbeda2a42	-0.42610365
44	0x3f609e29	0.87741333
45	0xbe8fbde5	-0.28074566
46	0xbf463c88	-0.77436113
47	0xbe7d36a9	-0.24727882
48	0xbe76666b	-0.24062507
49	0xbec2951a	-0.3800438
50	0x3e7bf199	0.24603881
51	0xbed49114	-0.41516936
52	0x3efc5df7	0.4929044
53	0xbcb2e513	-0.021837747
54	0xbf1d91c1	-0.6155053
55	0xbf18cab0	-0.59684277
56	0xbdbc3b5d	-0.0919101
57	0x3e95e010	0.2927251
58	0xbf5aab9f	-0.85418123
59	0xbcfb6f4d	-0.03069272
60	0xbe81bed4	-0.25340903
61	0x3e1a0c31	0.15043713
62	0x3ef4fb13	0.47847804
63	0xbe8478b8	-0.2587335

static_variable_selection.single_variable_grns.AGE1829.fc2.bias f4 [8]
0	0x3e197411	0.14985682
1	0xbd22fdb1	-0.03979272
2	0xbc1782e5	-0.009247516
3	0x3cdc93db	0.026925972
4	0x3d0fafe3	0.035079848
5	0xbcf0625e	-0.02934378
6	0x3e19fc7e	0.15037724
7	0xbe0e6ce9	-0.13908733

static_variable_selection.single_variable_grns.AGE1829.gate_norm.glu.fc.weight f4 [32, 8]
0	0xbe51ff28	-0.2050749
1	0x3c949cf2	0.018141244
2	0xbe103410	-0.1408236
3	0xbe09226c	-0.13392037
4	0xbb4ed2f6	-0.0031558848
5	0xbe92da82	-0.28682333
6	0xbf21958b	-0.6311881
7	0x3ed2484e	0.4107079
8	0x3ee33ef9	0.44383982
9	0x3eb21fcf	0.34789893
10	0xbe150304	-0.14551932
11	0x3f330d98	0.6994262
12	0xbdad3ac7	-0.084584765
13	0x3ee62691	0.449513
14	0x3e787d3e	0.24266526
15	0xbe87402e	-0.26416153
16	0x3f0b8937	0.5450625
17	0x3e0ff8aa	0.14059702
18	0xbe2a0af3	-0.1660574
19	0xbd940310	-0.072271466
20	0x3e133b46	0.1437808
21	0xbdc44cb8	-0.095849454
22	0x3d706092	0.058685847
23	0x3e940861	0.28912643
24	0xbd865f82	-0.065611854
25	0xbddce6fe	-0.10786246
26	0xbe973dd5	-0.29539362
27	0xbdc1234e	-0.09430562
28	0x3e00f60c	0.1259386
29	0xbed46e2c	-0.41490304
30	0xbe6ea6c4	-0.23305804
31	0xbe164fd3	-0.14678888
32	0xbe3aaaa3	-0.18229155
33	0x3e1dcf82	0.15411189
34	0x3e289ea3	0.16466765
35	0xbf1cc1ad	-0.61233026
36	0x3e8e158e	0.2775082
37	0xbf2c3e40	-0.67282486
38	0xbc425ef6	-0.011863461
39	0x3c3a68b3	0.011377501
40	0xbe5247f9	-0.20535268
41	0xbe34352e	-0.17598411
42	0xbeb6c955	-0.3570048
43	0xbda0c80c	-0.07850656
44	0xbe1383f7	-0.1440581
45	0xbe6f9af9	-0.23398961
46	0x3e78be52	0.24291351
47	0x3d0e6c5e	0.034771316
48	0x3d80bc66	0.06285934
49	0x3df2bc41	0.11852313
50	0xbe8fe4e8	-0.2810433
51	0xbda13b00	-0.078725815
52	0x3dea0bd9	0.11428041
53	0xbd07c053	-0.0331424
54	0xbcf731a8	-0.030175045
55	0x3e9f9f96	0.31176442
56	0x3f3c505f	0.73560137
57	0x3ef9f93d	0.48822966
58	0xbdcd19b7	-0.1001467
59	0x3ee0eb17	0.4392936
60	0x3e3151f6	0.17316422
61	0x3ef475d9	0.4774616
62	0x3e9bd5ca	0.30436546
63	0xbca93119	-0.020653294
64	0xbe000f1e	-0.12505767
65	0x3dc65424	0.09684017
66	0x3ddf017b	0.10888954
67	0x3cfef0c2	0.031120662
68	0x3e92bc1b	0.28659138
69	0x3e363f2c	0.17797536
70	0x3eadcea3	0.33946714
71	0x3e745674	0.23861104
72	0x3dba6086	0.09100442
73	0xbe97d157	-0.296519
74	0x3e8a5061	0.2701445
75	0x3e187469	0.14888157
76	0xbe7bb1e5	-0.2457958
77	0x3e364158	0.17798364
78	0xbec7aeb7	-0.39000484
79	0xbd709f1f	-0.0587455
80	0xbdf2c1ff	-0.11853408
81	0x3e3eb121	0.18622257
82	0x3ec83276	0.39101
83	0xbeb0bb48	-0.34517884
84	0x3d2be3a8	0.041965157
85	0xbecc341a	-0.398835
86	0xbe028c99	-0.12748946
87	0x3e5cfb18	0.2158016
88	0xbea6166f	-0.3243899
89	0xbe9164e1	-0.28397277
90	0x3e75bd0f	0.23997901
91	0xbea36ec4	-0.31920445
92	0x3dd8d2bb	0.10587069
93	0xbeed846a	-0.46390086
94	0xbefdad5e	-0.4954633
95	0x3f48e9d6	0.78481805
96	0xbd9ec068	-0.07751542
97	0x3ef39ab9	0.47578982
98	0xbd03fc2f	-0.032222923
99	0x3e335f6d	0.17516871
100	0x3dedca19	0.11610813
101	0x3e31ca29	0.17362274
102	0x3eea7b53	0.45797214
103	0x3cbc42be	0.022981044
104	0xbe9c1121	-0.30481818
105	0x3de51950	0.111864686
106	0x3e0b215b	0.13586943
107	0x3eed3337	0.46328136
108	0xbe63fdf5	-0.22264846
109	0x3e918bf9	0.28427103
110	0x3e7e879e	0.24856421
111	0x3d5779d7	0.05260643
112	0xbf60198d	-0.8753899
113	0xbe2b0c6c	-0.16703957
114	0x3e378fea	0.17925993
115	0xbea9ab5b	-0.33138546
116	0x3e12d933	0.14340667
117	0xbeb21c20	-0.34787083
118	0xbe7b3bf7	-0.24534594
119	0x3eaace62	0.33360583
120	0xbeec0d5f	-0.4610395
121	0xbc16b8d0	-0.009199336
122	0xbe6c8d4a	-0.23100773
123	0xbe4e74bb	-0.20161717
124	0x3d42f3fd	0.047595967
125	0xbd45a01a	-0.048248388
126	0xbeae3419	-0.34024122
127	0xbe73a15e	-0.23792025
128	0xbd838555	-0.064219154
129	0xbc8af114	-0.016960658
130	0x3d41e5f1	0.04733843
131	0x3f1b48a0	0.6065769
132	0x3edb18b3	0.42792282
133	0xbd9184ec	-0.07105431
134	0xbe2645e3	-0.16237597
135	0xbe55a4b8	-0.20863616
136	0x3e628609	0.22121443
137	0xbeaa8b16	-0.3330924
138	0xbed477b6	-0.41497582
139	0xbdc62ca7	-0.096764855
140	0x3e369d14	0.17833358
141	0xbea7e24c	-0.32789838
142	0xbecb36f2	-0.39690357
143	0xbe490536	-0.19630894
144	0x3ed833a0	0.42226887
145	0xbe97f575	-0.29679456
146	0xbd911178	-0.0708341
147	0xbc1cf1a4	-0.009579096
148	0xbcf5d634	-0.030009367
149	0x3e7d3a54	0.24729282
150	0xbf31fcb7	-0.6952624
151	0x3f936784	1.1515965
152	0x3e8ddbef	0.2770686
153	0x3e494d2f	0.1965835
154	0x3e3b948e	0.18318388
155	0xbe249c6e	-0.16075298
156	0xbdc7659d	-0.09736178
157	0x3d599c92	0.053127833
158	0xbf44ee8c	-0.76926494
159	0x3f601f12	0.8754741
160	0xbe83928f	-0.25697753
161	0xbe82baa0	-0.2553301
162	0x3e0e4b6f	0.13895963
163	0xbf2044c7	-0.62604946
164	0xbdc0b45b	-0.094094
165	0xbf79aebb	-0.9753224
166	0xbeadd8d6	-0.33954495
167	0x3ea2392a	0.31684238
168	0x3e7866f8	0.2425803
169	0x3d0ce4b3	0.034397792
170	0x3dde706b	0.10861286
171	0xbd6af88e	-0.057365946
172	0x3e5bbf58	0.2145971
173	0x3dd44091	0.103638776
174	0xbef9f95f	-0.48823068
175	0x3f158398	0.5840392
176	0x3d557fc8	0.052123815
177	0x3e809821	0.25116065
178	0xbe3f2d23	-0.18669562
179	0x3d255418	0.0403634
180	0xbf21c224	-0.6318686
181	0xbe387a8e	-0.18015501
182	0x3c0a8863	0.008455369
183	0xbe207c66	-0.15672454
184	0x3d561cd1	0.052273575
185	0x3e64d1b5	0.22345622
186	0x3e2191b4	0.15778238
187	0x3eaf1ef3	0.342033
188	0xbd8af4f0	-0.06784999
189	0x3ec38cff	0.3819351
190	0x3ed6a382	0.41921622
191	0xbedf4929	-0.43610504
192	0x3edfd405	0.43716446
193	0x3f1044e7	0.56355137
194	0xbe8f372d	-0.27971783
195	0x3ea25165	0.31702724
196	0xbe3141f1	-0.17310311
197	0x3f0c70f6	0.54859865
198	0xbe54079b	-0.20706026
199	0x3f12e033	0.5737335
200	0xbe693df0	-0.22777534
201	0xbc5aec9f	-0.013362079
202	0x3e475988	0.19467747
203	0xbea15ead	-0.31517544
204	0x3eee1269	0.4649842
205	0xbeb47d6a	-0.35251933
206	0xbe201e5a	-0.15636578
207	0x3f137aad	0.57609063
208	0x3ee469ea	0.44612056
209	0x3de0dd22	0.10979678
210	0xbe84c0cd	-0.25928345
211	0x3f284b5d	0.65739995
212	0xbf3aea3b	-0.7301366
213	0x3e363175	0.17792304
214	0x3d9153ee	0.070960864
215	0xbe98e87b	-0.2986487
216	0x3e0a8c8e	0.1353018
217	0x3ba3ffbc	0.005004851
218	0x3e05d01e	0.13067672
219	0x3f5404e9	0.8281999
220	0xbddd7bb0	-0.10814607
221	0x3f8dffc2	1.1093676
222	0x3e6c5621	0.2307973
223	0xbe92bb11	-0.28658345
224	0xbf0c0671	-0.5469733
225	0xbe1e6371	-0.15467621
226	0x3ee1e974	0.44123423
227	0xbee28dde	-0.4424886
228	0x3e94fabf	0.29097554
229	0xbdae6a8e	-0.085164174
230	0xbe83d0ad	-0.25745144
231	0x3f42a866	0.76038206
232	0xbe8ffe67	-0.2812378
233	0xbba778e8	-0.0051108487
234	0xbdfeb464	-0.124367505
235	0xbf134dcc	-0.57540584
236	0xbdbfda7c	-0.093678445
237	0xbe18eb39	-0.1493348
238	0x3d48e9cc	0.04905109
239	0x3e5ee0cc	0.2176544
240	0xbd20b167	-0.039231684
241	0xbe74dc5c	-0.23912185
242	0x3d3b2d0d	0.04569726
243	0xbea0a227	-0.31373712
244	0x3ef94288	0.48683572
245	0xbf43b03a	-0.76440775
246	0xbf3cbb9c	-0.7372377
247	0x3f5dd885	0.8665851
248	0x3e770809	0.24124159
249	0xbeb1b12c	-0.34705484
250	0xbe2ddd75	-0.1697901
251	0xbe6744c7	-0.2258483
252	0xbe037a7a	-0.1283969
253	0xbe900f30	-0.28136587
254	0xbf935e89	-1.1513225
255	0x3f839c1d	1.0282017

static_variable_selection.single_variable_grns.AGE1829.gate_norm.glu.fc.bias f4 [32]
0	0xbe04bacd	-0.12961884
1	0x3dad5421	0.08463312
2	0x3e3fb2d1	0.18720557
3	0x3e0daaa9	0.13834633
4	0x3e51a115	0.20471604
5	0x3d9446fc	0.07240102
6	0xbe6d6e62	-0.23186639
7	0xbcbbeea8	-0.022940949
8	0xbcfcaf87	-0.030845417
9	0xbe03fd0a	-0.12889495
10	0x3d21b971	0.03948349
11	0xbf1c6038	-0.6108432
12	0xbd38d758	-0.045127243
13	0xbdde1996	-0.10844724
14	0x3e3821a7	0.17981587
15	0x3d8f22fc	0.069890946
16	0xbd6e00d6	-0.058106266
17	0x3df7a75e	0.1209247
18	0xbf46a793	-0.7759945
19	0xbf48a540	-0.7837715
20	0x3c58b34f	0.013226344
21	0xbefc5fb3	-0.49291763
22	0xbe4c6df7	-0.19963823
23	0xbd5e991d	-0.05434524
24	0xbf311412	-0.6917125
25	0xbe8906f0	-0.26763105
26	0xbeafde4e	-0.34349293
27	0x3e7c1671	0.24617936
28	0xbe5628e1	-0.20914032
29	0xbdef6cec	-0.11690697
30	0xbe95ee8e	-0.29283565
31	0xbf3dcf59	-0.7414451

static_variable_selection.single_variable_grns.AGE1829.gate_norm.add_norm.norm.weight f4 [16]
0	0x3f8d229a	1.1026185
1	0x3fa1574f	1.260477
2	0x3f8d6103	1.1045231
3	0x3f98f0a0	1.1948433
4	0x3fa40b5f	1.281597
5	0x3f94cc59	1.1624862
6	0x3ef553fe	0.47915643
7	0x3f198b38	0.59978056
8	0x3f04d91f	0.518938
9	0x3f72d0ba	0.9484974
10	0x3f6521a5	0.8950446
11	0x3fd56c45	1.6673666
12	0x3f499d0b	0.78755254
13	0x3f842ca5	1.0326124
14	0x3f640d58	0.8908286
15	0x3f8c95c8	1.098321

static_variable_selection.single_variable_grns.AGE1829.gate_norm.add_norm.norm.bias f4 [16]
0	0xbe8b1d56	-0.2717082
1	0x3e111863	0.14169459
2	0x3e9fa5b3	0.31181106
3	0x3eb42bbb	0.35189614
4	0x3ebad0f3	0.3648754
5	0x3e8f5d88	0.28001046
6	0xbe057f4a	-0.13036838
7	0x3bf59a4c	0.0074952003
8	0x3df04ebd	0.11733768
9	0xbe47036a	-0.19434896
10	0xbd85dea8	-0.06536609
11	0xbf53b954	-0.82704663
12	0x3ca802aa	0.020509083
13	0xbde4bc62	-0.11168744
14	0x3e1b395e	0.15158603
15	0xbce3de9f	-0.027816115

static_variable_selection.prescalers.AGE1829.weight f4 [8, 1]
0	0xbdfdd6f9	-0.123945184
1	0xbf381785	-0.7191089
2	0x3f085a79	0.5326305
3	0x3d70d22c	0.058794186
4	0xbe7e465e	-0.2483153
5	0x3d9af856	0.075668976
6	0xbf3c320b	-0.7351386
7	0x3f1b6da7	0.6071419

static_variable_selection.prescalers.AGE1829.bias f4 [8]
0	0xbe41934e	-0.18903849
1	0x3f52291b	0.8209397
2	0x3f2f080c	0.68371654
3	0xbe0c6bc7	-0.13712989
4	0xbd9ca721	-0.07649065
5	0xbf346500	-0.70466614
6	0x3dcbac84	0.09945014
7	0xbeb015da	-0.3439167

encoder_variable_selection.flattened_grn.resample_norm.mask f4 [3]
0	0xbf1d6821	-0.61487013
1	0xbd85636e	-0.06513105
2	0x3ed2424b	0.41066203

encoder_variable_selection.flattened_grn.resample_norm.norm.weight f4 [3]
0	0x3f63ffa4	0.8906195
1	0x3f845fdb	1.0341753
2	0x400d0859	2.2036345

encoder_variable_selection.flattened_grn.resample_norm.norm.bias f4 [3]
0	0x3eabd3eb	0.33560118
1	0xbd51d3ef	-0.051227506
2	0xbf0185eb	-0.5059497

encoder_variable_selection.flattened_grn.fc1.weight f4 [3, 24]
0	0x3f4e77cb	0.8065154
1	0xbef15367	-0.47133943
2	0x3ec4e3db	0.3845509
3	0xbe8010e2	-0.2501288
4	0x3e872703	0.2639695
5	0x3ce53891	0.027981075
6	0xbbec574f	-0.0072125564
7	0x3bda6280	0.006664574
8	0xbf023d34	-0.5087464
9	0xbcd016fd	-0.025401587
10	0x3c07258e	0.0082487
11	0xbfa30049	-1.2734462
12	0xbca0e535	-0.019640544
13	0x3dba94a0	0.09110379
14	0x3e1f58e9	0.1556126
15	0x3e02b9d3	0.12766199
16	0x3eedf9d9	0.4647968
17	0xbf358d0e	-0.7091836
18	0x3ea6bc06	0.32565325
19	0xbcbcd0c5	-0.023048768
20	0x3dd1bb9e	0.10240863
21	0xbe1a6e83	-0.1508122
22	0x3e1e0a32	0.15433577
23	0x3e1de57b	0.15419571
24	0xbe29b535	-0.16573031
25	0x3f2b1dd0	0.66842365
26	0xbf7a8f57	-0.9787497
27	0x3e178170	0.1479547
28	0xbf156dfc	-0.5837095
29	0x3dbcdee0	0.092221975
30	0xbf272d49	-0.65303475
31	0xbe47a478	-0.19496334
32	0xbe528fe1	-0.20562698
33	0xbd353853	-0.044243168
34	0xbf692a53	-0.91080207
35	0xbeab3176	-0.33436173
36	0x3e32860e	0.1743395
37	0x3ebffa6e	0.3749575
38	0x3eae7edd	0.34081164
39	0x3f2faac1	0.68619925
40	0x3e3e3405	0.18574531
41	0xbd9a4305	-0.07532314
42	0xbf1b74e6	-0.6072525
43	0xbda3cbf0	-0.07997882
44	0x3d889874	0.06669703
45	0x3ce4c603	0.02792645
46	0xbe1819bb	-0.14853565
47	0x3e4a0abc	0.19730657
48	0x3ef9d0eb	0.48792204
49	0xbf45a701	-0.7720795
50	0x3d2d46f5	0.042303998
51	0xbeca7dce	-0.39549106
52	0x3f0571a1	0.5212651
53	0x3f0ae3e9	0.54254013
54	0xba94aad6	-0.0011342417
55	0x3efc0ac9	0.49226978
56	0xbedd9464	-0.43277276
57	0x3e91b8ec	0.28461397
58	0x3e95c22c	0.29249704
59	0x3eab593c	0.33466518
60	0xbdc1e1a1	-0.094668634
61	0xbe08dbd9	-0.13365115
62	0x3e707dbc	0.23485464
63	0x3df8ab4f	0.121420495
64	0x3e5f04a4	0.21779114
65	0x3e8e28f0	0.27765608
66	0xbdc58d2e	-0.096460685
67	0xbc9de6fe	-0.019275185
68	0xbe0f2d15	-0.13982041
69	0xbdda8049	-0.10669
70	0xbf0009fa	-0.50015223
71	0x3dc03fd0	0.09387171

encoder_variable_selection.flattened_grn.fc1.bias f4 [3]
0	0xbde08145	-0.10962156
1	0x3c4b2b91	0.012400524
2	0xbe9014cd	-0.2814087

encoder_variable_selection.flattened_grn.context.weight f4 [3, 16]
0	0xbecd2471	-0.40066865
1	0xbd184337	-0.037173476
2	0xbe47730e	-0.19477484
3	0xbd0bc82b	-0.034126442
4	0x3e6cb07b	0.23114197
5	0xbe7b6466	-0.24550018
6	0x3c1112f4	0.008854616
7	0x3db77462	0.08957745
8	0xbe2799ee	-0.16367313
9	0xbc911d3a	-0.017714132
10	0x3d02e92b	0.031960648
11	0xbe2861b0	-0.16443515
12	0x3d36c0e9	0.044617567
13	0xbd9a578d	-0.0753623
14	0xbe84f2bf	-0.2596645
15	0xbd3ab298	-0.045580477
16	0x3e71415d	0.2356009
17	0x3d45fcce	0.048336796
18	0x3f0c74aa	0.54865515
19	0xbe6eaa41	-0.23307134
20	0xbe83de3e	-0.25755495
21	0x3ee7720e	0.45204204
22	0xbd8952c8	-0.067052424
23	0xbe259c0d	-0.1617281
24	0x3e1677a3	0.14694075
25	0xbd4e9732	-0.05043716
26	0xbdc5444a	-0.09632166
27	0xbd5c33ab	-0.053760212
28	0xbcee5dc9	-0.029097455
29	0xbcd58cb4	-0.026068069
30	0xbe6ded05	-0.23234947
31	0xbcc296ad	-0.023753488
32	0x3e9c4ac9	0.30525807
33	0xbd143730	-0.036185443
34	0x3f3e5fe2	0.74365056
35	0xbe9869ba	-0.29768163
36	0xbeec80c5	-0.46191993
37	0x3f152957	0.58266205
38	0xbd965d8e	-0.07342063
39	0x3df0c0c5	0.11755518
40	0xbeb13768	-0.34612584
41	0x3e62c860	0.2214675
42	0xbd8ddf11	-0.06927312
43	0x3de8b903	0.11363413
44	0xbe229c66	-0.15879974
45	0xbe6427b7	-0.22280775
46	0xbe813cb6	-0.2524163
47	0x3eb61215	0.3556067

encoder_variable_selection.flattened_grn.fc2.weight f4 [3, 3]
0	0xbf0ff952	-0.5623981
1	0xbf9f9ae8	-1.2469149
2	0xbe78f378	-0.24311626
3	0xbe98272e	-0.29717392
4	0xbf438ab2	-0.7638351
5	0xbea5024e	-0.3222832
6	0xbe954b3b	-0.2915896
7	0xbf322428	-0.6958642
8	0xbee1137a	-0.43960172

encoder_variable_selection.flattened_grn.fc2.bias f4 [3]
0	0x3db61e11	0.088924535
1	0xbe5458d5	-0.20737012
2	0xbe0f4746	-0.13992032

encoder_variable_selection.flattened_grn.gate_norm.glu.fc.weight f4 [6, 3]
0	0x3e3c4d9d	0.18388982
1	0xbd3ec75d	-0.046576846
2	0x3f21c32e	0.63188446
3	0xbd3eb403	-0.04655839
4	0xbf031076	-0.5119699
5	0x3e81d8a6	0.25360602
6	0xbdfc1c0d	-0.12310038
7	0xbe0af388	-0.13569462
8	0x3e09600a	0.13415542
9	0xbef22859	-0.47296408
10	0xbf231102	-0.63697827
11	0x3f13a31e	0.5767077
12	0x3f22d620	0.6360798
13	0xbe18e2d8	-0.14930284
14	0xbe4283c0	-0.18995571
15	0x3f848409	1.0352794
16	0x3e960b04	0.2930528
17	0x3ee9322f	0.455461

encoder_variable_selection.flattened_grn.gate_norm.glu.fc.bias f4 [6]
0	0x3e956749	0.29180363
1	0x3cbe8e26	0.023261141
2	0xbeb382b7	-0.35060665
3	0xbea9553c	-0.3307284
4	0xbe637da5	-0.22215898
5	0x3e089060	0.13336325

encoder_variable_selection.flattened_grn.gate_norm.add_norm.norm.weight f4 [3]
0	0x3e36181c	0.17782634
1	0x3ecb23fc	0.3967589
2	0x3eb1a1cd	0.34693757

encoder_variable_selection.flattened_grn.gate_norm.add_norm.norm.bias f4 [3]
0	0x3e4c0d67	0.19926988
1	0xbeed46c9	-0.46343067
2	0x3f0c7ee2	0.5488111

encoder_variable_selection.single_variable_grns.SinWeekly.resample_norm.mask f4 [16]
0	0xbef3ba8e	-0.47603267
1	0xbe167df9	-0.14696492
2	0x3f197a71	0.59952456
3	0x3db33969	0.087511845
4	0x3da220dc	0.07916424
5	0xbd943282	-0.07236196
6	0x3d8d96da	0.06913538
7	0xbe26f9f7	-0.16306292
8	0xbee5c23b	-0.4487475
9	0xbd798f44	-0.060927644
10	0xbed479e4	-0.41499245
11	0xbe881c7d	-0.26584235
12	0xbe70a1eb	-0.23499267
13	0xbd47941e	-0.04872524
14	0x3e6b4be1	0.22978164
15	0x3e626837	0.22110067

encoder_variable_selection.single_variable_grns.SinWeekly.resample_norm.norm.weight f4 [16]
0	0x3fdcc0fd	1.7246395
1	0x3ed33e50	0.41258478
2	0x3fe20c6c	1.7660041
3	0x3fa46d8d	1.2845932
4	0x3fac2270	1.344801
5	0x3f715ff3	0.9428703
6	0x3f6d2fa7	0.92650837
7	0x3f802534	1.0011353
8	0x3e969cc6	0.29416484
9	0x3f6b1e0a	0.9184271
10	0x3f701fb8	0.937984
11	0x3f8515e7	1.0397309
12	0x3f66a465	0.90094596
13	0x3f7a0bf2	0.9767448
14	0x3fca53d1	1.5806829
15	0x3f778064	0.96680284

encoder_variable_selection.single_variable_grns.SinWeekly.resample_norm.norm.bias f4 [16]
0	0x3d940a7a	0.07228561
1	0x3e392fa5	0.18084581
2	0xbe8451a6	-0.25843543
3	0x3e131f51	0.14367415
4	0xbdc99215	-0.09842316
5	0x3cab956d	0.020945275
6	0xbe5a8117	-0.21338306
7	0xbde8ccb2	-0.113671675
8	0x3dafaef3	0.08578291
9	0xbda6fa0b	-0.08153161
10	0x3d8aa84e	0.06770383
11	0x3e244b8d	0.16044445
12	0xbe297f7d	-0.16552539
13	0x3d0a652f	0.033787902
14	0x3c9c2d9b	0.019064715
15	0x3d993c2f	0.07482182

encoder_variable_selection.single_variable_grns.SinWeekly.fc1.weight f4 [8, 8]
0	0x3f42555a	0.75911486
1	0xbfce9d91	-1.6141835
2	0xbf3d38b0	-0.73914623
3	0xbfede587	-1.8585671
4	0xbe86ff95	-0.2636687
5	0xbd5c2456	-0.05374559
6	0x3ea37eb9	0.3193262
7	0x3f023dfc	0.5087583
8	0x3ea192d7	0.31557342
9	0x3e316f80	0.1732769
10	0x3d23b369	0.03996602
11	0xbe9f77fb	-0.31146225
12	0xbb3d0356	-0.00288411
13	0x3f47e2a5	0.7808021
14	0xbe6cc11f	-0.23120545
15	0xbdd8907d	-0.10574434
16	0xbe10be81	-0.14135171
17	0xbdd12a98	-0.10213202
18	0xbec9fe86	-0.39451998
19	0x3e3db2b4	0.18525201
20	0xbf49c59f	-0.7881717
21	0x3efca651	0.4934564
22	0x3f6ee6af	0.93320745
23	0x3e9d394b	0.30707774
24	0x3e4ba16c	0.19885796
25	0x3d7ace3b	0.061231833
26	0xbed60a4a	-0.41804725
27	0x3daaa02c	0.083313316
28	0x3e7a3872	0.24435595
29	0x3e58de0a	0.21178451
30	0x3e457598	0.1928314
31	0x3ef08d1f	0.46982667
32	0xbf66fd10	-0.9022989
33	0xbc6945e5	-0.014237856
34	0x3f85ab05	1.0442816
35	0x3d194f29	0.03742901
36	0x3d87e2c4	0.06635049
37	0x3f424dd7	0.75900024
38	0x3f026ee7	0.50950474
39	0xbf845ab2	-1.0340178
40	0x3ebdf008	0.37097192
41	0xbe41499b	-0.18875735
42	0xbfa6bf19	-1.3027068
43	0x3d5b090c	0.053475425
44	0xbefb6697	-0.49101707
45	0x3e167d12	0.14696148
46	0xbfbd0b22	-1.4769022
47	0xbf2e61a8	-0.6811776
48	0xbf94131f	-1.1568335
49	0xbdbc2417	-0.09186571
50	0xbfc780df	-1.5586203
51	0x3f037c61	0.5136166
52	0xbf40593d	-0.75136167
53	0x3ea6c567	0.3257248
54	0xbfd51946	-1.6648338
55	0xbf668578	-0.9004741
56	0x3ed206e1	0.41020873
57	0xbd5a8690	-0.053350985
58	0xbf220445	-0.63287765
59	0x3e3cf045	0.1845103
60	0x3f7244b0	0.9463606
61	0x3efb58a2	0.4909106
62	0xbd82d81f	-0.06388878
63	0x3f0754b1	0.52863604

encoder_variable_selection.single_variable_grns.SinWeekly.fc1.bias f4 [8]
0	0xbe20d560	-0.15706396
1	0xbd3b2e98	-0.045698732
2	0xbd666cb7	-0.056256022
3	0xbe2dbb60	-0.16966009
4	0x39def911	0.0004252871
5	0xbeb7ec39	-0.3592241
6	0xbead4dc5	-0.33848396
7	0xbd69d19f	-0.057084676

encoder_variable_selection.single_variable_grns.SinWeekly.fc2.weight f4 [8, 8]
0	0xbf83e102	-1.0303042
1	0x3e29cccf	0.16582035
2	0xbf718965	-0.9435027
3	0xbe36fde3	-0.17870288
4	0xbea734dc	-0.32657516
5	0x3d097b6d	0.033564974
6	0x3eade6b3	0.33965072
7	0xbe770208	-0.24121869
8	0x3e50cb89	0.20390143
9	0xbe006115	-0.12537034
10	0x3dd0f09c	0.102021426
11	0x3d07d397	0.033160772
12	0x3deffa53	0.117176674
13	0x3e83c078	0.2573278
14	0x3efd4b79	0.49471644
15	0x3d91e2df	0.0712335
16	0x3f13fc61	0.57806975
17	0xbe8b13a3	-0.2716342
18	0x3ce1f917	0.027584596
19	0xbea934a4	-0.33047974
20	0x3ee7b727	0.45256922
21	0x3d53fbb1	0.051753704
22	0x3f684ff6	0.9074701
23	0x3ec09f85	0.37621704
24	0xbece649a	-0.40311128
25	0x3f384afa	0.71989405
26	0x3ea148e6	0.3150093
27	0xbd3889ac	-0.04505317
28	0xbe57e879	-0.21084775
29	0xbf84c516	-1.0372646
30	0xbeb41027	-0.35168573
31	0xbe335304	-0.17512137
32	0xbf653283	-0.895302
33	0x3f7ddbab	0.9916331
34	0xbe79b3ab	-0.24384944
35	0x3e0b7c4b	0.13621633
36	0x3d7e2e55	0.062055904
37	0x3f12a541	0.5728341
38	0x3e296b54	0.16544849
39	0xbe280f3b	-0.1641206
40	0x3f4b6546	0.79451406
41	0xbee2a21f	-0.44264314
42	0xbf114491	-0.5674525
43	0xbe40224e	-0.18763086
44	0xbed8fe0e	-0.42381328
45	0x3e6809e3	0.22660021
46	0xbe5ec21d	-0.21753736
47	0xbe31ec3c	-0.17375273
48	0x3d7cd39d	0.061725248
49	0xbce93768	-0.028468803
50	0xbebfacaa	-0.3743642
51	0x3a85d5b3	0.0010210782
52	0x3ecd723c	0.40126216
53	0xbf1f1410	-0.6213999
54	0xbec712ec	-0.38881624
55	0x3d8ccb69	0.06874735
56	0x3f4601e8	0.7734666
57	0xbcc20c6d	-0.023687566
58	0x3e5e859d	0.21730657
59	0x3e8d9543	0.2765294
60	0x3f06ce63	0.5265867
61	0xbd4fc3df	-0.050723907
62	0x3f93f37b	1.1558679
63	0xbed9f842	-0.42572218

encoder_variable_selection.single_variable_grns.SinWeekly.fc2.bias f4 [8]
0	0xbde8b1d3	-0.11362042
1	0xbe20ff48	-0.15722382
2	0x3db20a18	0.086933315
3	0x3d1568e8	0.036477
4	0x3c8438f7	0.016140444
5	0x3d3c7541	0.04601026
6	0xbd495b57	-0.049159374
7	0x3dad7947	0.084703974

encoder_variable_selection.single_variable_grns.SinWeekly.gate_norm.glu.fc.weight f4 [32, 8]
0	0x3de4a93a	0.1116509
1	0x3ed134a5	0.40860477
2	0x3f127438	0.57208586
3	0xbf24911e	-0.6428393
4	0x3e676ef5	0.2260092
5	0xbde1f6bb	-0.11033388
6	0xbe8c9011	-0.27453664
7	0x3f1ed19e	0.620386
8	0xbe9bd65e	-0.30436987
9	0x3c40aa1d	0.011759308
10	0xbe9c18aa	-0.30487567
11	0xbdfada41	-0.1224866
12	0xbec1b7ec	-0.37835634
13	0x3dbb4cf9	0.09145541
14	0x3ece770e	0.40325207
15	0xbe78d8c9	-0.24301447
16	0x3ed294d7	0.4112918
17	0x3daf5929	0.08561928
18	0xbd81701a	-0.0632021
19	0xbdbfbf9b	-0.09362718
20	0x3ead1344	0.3380376
21	0xbe6ab57e	-0.22920796
22	0xbeee8bf7	-0.4659116
23	0xbd8a5c63	-0.067559026
24	0x3eb3cb60	0.351161
25	0x3e9b41da	0.30323678
26	0x3ec5adbf	0.3860912
27	0xbf679cd3	-0.9047367
28	0x3eb42627	0.35185358
29	0xbe172a22	-0.14762166
30	0xbf179197	-0.5920653
31	0x3efaa64a	0.48954993
32	0x3d585ba8	0.052821785
33	0x3deb5c66	0.11492233
34	0x3e8c99a9	0.27460983
35	0x3eb5ce4f	0.35508963
36	0x3dcf9c71	0.10137261
37	0xbe2156f0	-0.1575582
38	0x3e64b681	0.22335245
39	0x3e75dc5a	0.24009839
40	0x3e1274fc	0.14302438
41	0xbe42bf52	-0.19018295
42	0xbe6aed3a	-0.22942057
43	0x3dfa993d	0.12236259
44	0xbe76ce33	-0.24102096
45	0xbe57f17d	-0.21088214
46	0xbe23b58a	-0.1598722
47	0x3dda21d8	0.106509864
48	0xbea36d5d	-0.31919375
49	0xbf68d93b	-0.9095647
50	0xbf3964c3	-0.72419375
51	0x3f56a93c	0.8385198
52	0xbf4694c0	-0.77570724
53	0x3e37ab34	0.17936403
54	0x3f81a1ee	1.0127542
55	0xbf057242	-0.5212747
56	0x3e0e09be	0.13870904
57	0x3da78769	0.08180124
58	0xbe93ae97	-0.2884414
59	0xbd176013	-0.036956858
60	0xbe4234b0	-0.18965411
61	0xbf077a92	-0.529214
62	0x3dc52fa2	0.09628226
63	0xbda8b431	-0.08237494
64	0x3ee12e65	0.4398071
65	0x3df995a8	0.12186748
66	0xbe8e50aa	-0.27795917
67	0x3dd9170b	0.10600098
68	0x3eb8451e	0.35990232
69	0xbeb34bf8	-0.35018897
70	0x3db39847	0.08769279
71	0x3e4a2248	0.1973964
72	0xbe1cbc5e	-0.15306231
73	0xbeb11257	-0.34584305
74	0x3e3da892	0.18521336
75	0xbe2892a0	-0.16462183
76	0xbe314cbb	-0.17314427
77	0xbd1d1bc4	-0.038356557
78	0x3d1913c7	0.037372377
79	0x3e1e4eac	0.15459698
80	0x3e1c72e8	0.15278208
81	0x3e9ae24d	0.3025078
82	0x3e3e389b	0.18576281
83	0xbeb321ee	-0.34986824
84	0xbd8dfa2b	-0.069324814
85	0x3ea17f2a	0.3154233
86	0xbe2f6d3e	-0.17131516
87	0x3efef8fd	0.49799338
88	0x3db5ac17	0.08870714
89	0xbd8e5f08	-0.069517195
90	0x3d930010	0.07177746
91	0xbec51b56	-0.38497418
92	0x3d3cae87	0.04606488
93	0xbe519a5f	-0.20469044
94	0x3e194bac	0.14970273
95	0x3e984d76	0.29746598
96	0x3f096efe	0.53684986
97	0x3eb624f0	0.35575056
98	0xbeba26fc	-0.36357868
99	0x3e401109	0.18756498
100	0x3ee908f0	0.4551463
101	0xbf2f0eec	-0.68382144
102	0xbed05232	-0.4068771
103	0xbf0e2f93	-0.5554134
104	0x3f16cbc6	0.58904684
105	0xbd916073	-0.07098474
106	0xbebce3a7	-0.36892435
107	0x3ea09f38	0.31371474
108	0x3ef3417b	0.47510895
109	0xbef8b9b3	-0.48579177
110	0xbebcc6db	-0.36870465
111	0xbf2f09a6	-0.683741
112	0xbe534d72	-0.20635012
113	0xbe9a99ac	-0.30195367
114	0x3f04f345	0.519337
115	0xbce99a60	-0.028515995
116	0xbeaf619b	-0.34254155
117	0x3eba765e	0.36418432
118	0xbdbe4823	-0.09291103
119	0x3f0ec214	0.5576489
120	0x3de06806	0.10957341
121	0xbef591de	-0.4796285
122	0xbf29c6a1	-0.6631871
123	0x3eca6f1e	0.395379
124	0xbe130aed	-0.14359637
125	0xbef00b0b	-0.46883425
126	0x3eeadc31	0.45871118
127	0xbeba836e	-0.36428398
128	0x3e89a1ee	0.26881355
129	0x3dffaf6c	0.12484631
130	0x3e7613b3	0.24030952
131	0x3e5247f5	0.20535262
132	0x3e0c1465	0.13679655
133	0xbf25c18a	-0.6474844
134	0xbe1ca5b3	-0.15297584
135	0x3e23ca03	0.1599503
136	0xbca3998a	-0.019970674
137	0xbf1dbce3	-0.61616343
138	0xbf190bd0	-0.5978365
139	0x3eb7fc47	0.3593466
140	0xbdcbbc90	-0.09948075
141	0xbcc74898	-0.024326608
142	0xbe58dda2	-0.21178296
143	0xbf1a237a	-0.6021038
144	0x3e22ea28	0.15909636
145	0xbe7bfde5	-0.24608572
146	0xbb8dbcb6	-0.0043254746
147	0x3ea28c3c	0.31747615
148	0xbdd44ed6	-0.10366599
149	0xbc46ff63	-0.01214585
150	0xbcc9c3cf	-0.024629502
151	0x3e376d07	0.17912684
152	0x3ebea2be	0.37233537
153	0x3f251b4e	0.6449479
154	0x3ef854d9	0.48502234
155	0xbf2ade57	-0.66745514
156	0x3e34c357	0.17652641
157	0xbe543f08	-0.2072717
158	0xbeeb7ad0	-0.45992136
159	0x3e231537	0.15926062
160	0x3cdbd1da	0.026833463
161	0x3e8712e2	0.26381594
162	0xbee3a136	-0.44458932
163	0xbe3b477b	-0.18288986
164	0x3e64e524	0.22353035
165	0xbe28b131	-0.16473843
166	0x3da1b3a0	0.07895589
167	0xbddd2f0b	-0.10799988
168	0x3e11a1ad	0.1422183
169	0x3e633b01	0.22190477
170	0xbb634c04	-0.003468276
171	0xbd13520f	-0.03596693
172	0x3e06687b	0.13125794
173	0xbeff117c	-0.49818027
174	0xbe3bc108	-0.18335354
175	0xbf172f34	-0.590564
176	0x3f0adf6c	0.54247165
177	0x3eccadd2	0.39976364
178	0xbd1bdff3	-0.03805537
179	0xbeea7d18	-0.45798564
180	0x3eaf85e8	0.3428185
181	0xbf4f35cc	-0.8094146
182	0xbef55405	-0.47915664
183	0x3d0afb90	0.033931315
184	0xbe99ff4b	-0.30077586
185	0x3e5c5c9e	0.21519706
186	0xbda5d469	-0.08097155
187	0x3c83ceef	0.016089885
188	0x3f3e2998	0.7428222
189	0xbc447d5c	-0.011992779
190	0xbda2c7bf	-0.07948255
191	0xbe944e0e	-0.289658
192	0x3da1b934	0.07896653
193	0x3dabe579	0.08393378
194	0xbe293e77	-0.16527735
195	0xbf0b9cf3	-0.5453636
196	0x3f2431e4	0.6413863
197	0xbea27cd1	-0.31735852
198	0xbecbb3f2	-0.39785725
199	0xbea6f83e	-0.3261127
200	0x3cf5bda1	0.029997649
201	0xbdfff9ba	-0.124988034
202	0xbe63c580	-0.22243309
203	0x3ebaf204	0.36512768
204	0x3e8953a5	0.26821628
205	0xbd1fb6f9	-0.038992856
206	0xbef4222b	-0.47682318
207	0xbe45c26d	-0.19312449
208	0x3eed52c8	0.4635222
209	0x3e096c70	0.13420272
210	0xbf2df9a9	-0.67959076
211	0xbe2d1976	-0.16904244
212	0x3be7976a	0.0070676105
213	0x3e911131	0.28333429
214	0xbefb595a	-0.49091607
215	0xbe2d2f30	-0.16912532
216	0x3e6d284c	0.23159903
217	0x3d7c3711	0.061575953
218	0x3e06d03f	0.13165377
219	0xbe8481aa	-0.25880176
220	0x3ebe5031	0.37170556
221	0xbe562009	-0.20910658
222	0x3dd59bd4	0.104301125
223	0xbc84ca05	-0.016209612
224	0xbf19d9ed	-0.60098153
225	0xbd8b33f2	-0.06797017
226	0x3f274081	0.653328
227	0xbe19018a	-0.14941993
228	0xbe6998f1	-0.22812249
229	0x3f08c5ca	0.534268
230	0x3e8b2efa	0.27184278
231	0x3f0bca41	0.5460549
232	0xbf0b301f	-0.543703
233	0xbe9db28d	-0.30800286
234	0xbddc7592	-0.10764612
235	0x3e4e9ff0	0.20178199
236	0xbeb9ace0	-0.36264706
237	0x3ecd4108	0.40088677
238	0x3eedf1b8	0.4647348
239	0x3f158db7	0.58419365
240	0xbe8abfaf	-0.27099368
241	0xbe657d81	-0.22411157
242	0x3dbe3cea	0.09288962
243	0x3d8e66dc	0.069532126
244	0xbeabceb0	-0.33556128
245	0x3e40b0c2	0.18817428
246	0xbd8eaedc	-0.069669455
247	0x3f0ef56e	0.55843246
248	0x3e9da5ed	0.30790654
249	0x3e170f6f	0.14751981
250	0xbf0272f1	-0.50956637
251	0x3e3ab676	0.18233666
252	0x3e379616	0.17928347
253	0xbf004a89	-0.5011373
254	0xbc3188b0	-0.0108358115
255	0xbf081f5c	-0.5317285

encoder_variable_selection.single_variable_grns.SinWeekly.gate_norm.glu.fc.bias f4 [32]
0	0xbe4bc996	-0.19901118
1	0x3e3cb220	0.18427324
2	0xbe970cfb	-0.2950209
3	0x3e939595	0.2882506
4	0xbe27b156	-0.16376242
5	0xbd3d9ea2	-0.046293862
6	0xbee0a6bb	-0.43877205
7	0xbe0576a2	-0.13033536
8	0x3e151f5e	0.14562747
9	0xbdfde1e1	-0.123965986
10	0x3d871fd3	0.06597867
11	0x3dfaad7d	0.122401215
12	0xbe392477	-0.18080316
13	0x3cd22ce6	0.025656175
14	0x3ddde5da	0.10834856
15	0x3dcae432	0.09906806
16	0x3f081a39	0.5316501
17	0xbd8b7562	-0.06809498
18	0x3eb1e4ef	0.34744975
19	0xbf300a4b	-0.68765706
20	0xbf87ea1d	-1.0618321
21	0xbf378ed9	-0.71702343
22	0x3f28a108	0.65870714
23	0xbf2f9774	-0.68590474
24	0xbc917129	-0.017754154
25	0xbf00eb3f	-0.5035896
26	0xbd9134b6	-0.07090132
27	0xbf500817	-0.81262344
28	0xbe462120	-0.19348574
29	0x3f02b2f5	0.51054317
30	0x3e574818	0.21023595
31	0x3e6a9202	0.2290726

encoder_variable_selection.single_variable_grns.SinWeekly.gate_norm.add_norm.norm.weight f4 [16]
0	0x3feaedee	1.835386
1	0x3e2d8189	0.16943945
2	0x3fc8ee5f	1.5697745
3	0x3f94bec9	1.1620723
4	0x3f970c30	1.1800594
5	0x3f3dc926	0.74135053
6	0x3fa4c748	1.2873316
7	0x3f3756a0	0.71616554
8	0x3f11d6b4	0.56968236
9	0x3f5dfe71	0.8671637
10	0x3f8c51e7	1.0962495
11	0x3fa9f0a5	1.3276564
12	0x3f42a912	0.7603923
13	0x3f9acbd1	1.209345
14	0x3f80432c	1.0020499
15	0x3f9c2171	1.2197706

encoder_variable_selection.single_variable_grns.SinWeekly.gate_norm.add_norm.norm.bias f4 [16]
0	0x3dede12a	0.11615212
1	0x3e1522ca	0.14564052
2	0xbe0ab766	-0.13546523
3	0x3dda04fe	0.106454834
4	0x3d428c9d	0.04749738
5	0x3d997b91	0.074942715
6	0xbe26ec57	-0.16301094
7	0xbde34a92	-0.110982075
8	0x3e5e778d	0.21725293
9	0xbe230d8d	-0.15923138
10	0xbe14dd55	-0.14537556
11	0xbcb6bd32	-0.022307012
12	0xbe212221	-0.15735675
13	0x3e26b59a	0.16280213
14	0x3de135ac	0.10996565
15	0x3cf9ef73	0.030509686

encoder_variable_selection.single_variable_grns.VaccinationFull.resample_norm.mask f4 [16]
0	0x3d91c925	0.071184434
1	0x3d607100	0.054795265
2	0x3cba98a0	0.022777855
3	0xbeffd9a3	-0.4997073
4	0x3f10657f	0.5640487
5	0xbd4248af	-0.047432598
6	0x3ca04efc	0.019568913
7	0x3f0292d6	0.51005304
8	0xbe8b8f96	-0.27257985
9	0xbf1b133f	-0.6057624
10	0xbf049278	-0.51785994
11	0x3df24b38	0.11830753
12	0xbeceee02	-0.4041596
13	0x3f60d9bc	0.87832236
14	0x3e835639	0.2565172
15	0xbe48bfb0	-0.19604373

encoder_variable_selection.single_variable_grns.VaccinationFull.resample_norm.norm.weight f4 [16]
0	0x3f85d833	1.0456604
1	0x3efa5464	0.4889251
2	0x3f9c55ab	1.2213644
3	0x3f353e7f	0.70798486
4	0x3fe47f0f	1.7851275
5	0x3f6e26b1	0.9302779
6	0x3f5ae906	0.85511816
7	0x3fbd38b8	1.4782934
8	0x3f4d0182	0.80080426
9	0x3f20876a	0.62706625
10	0x3f1e34cc	0.6179931
11	0x3f8d4f3f	1.1039809
12	0x3f417ec5	0.7558406
13	0x3fdd2cf7	1.7279347
14	0x3fa7ce5a	1.3109848
15	0x3f726554	0.94685864

encoder_variable_selection.single_variable_grns.VaccinationFull.resample_norm.norm.bias f4 [16]
0	0x3e123dcf	0.1428139
1	0x3eb1f682	0.34758383
2	0xbe8054d1	-0.2506471
3	0x3da3f9e4	0.08006647
4	0xba5c3b61	-0.0008401182
5	0x3e1fb4cc	0.15596312
6	0x3de342fb	0.1109676
7	0x3eb76056	0.35815686
8	0xbe2342e3	-0.15943484
9	0xbe8e0be1	-0.27743438
10	0xbe2a2ca6	-0.16618595
11	0x3d9353be	0.07193707
12	0xbce792a9	-0.028268175
13	0xbea6b99b	-0.3256348
14	0xbdd5164a	-0.10404642
15	0xbd441be2	-0.047878154

encoder_variable_selection.single_variable_grns.VaccinationFull.fc1.weight f4 [8, 8]
0	0x3ec903e8	0.39260793
1	0xbe42aba5	-0.1901079
2	0xbf40e224	-0.75345063
3	0xbe89ebed	-0.2693781
4	0x3f29e99c	0.66372085
5	0x3e3616c6	0.17782125
6	0xbf0881a9	-0.53322846
7	0x3bd11ef9	0.006381866
8	0x3de66c87	0.11251169
9	0xbea92339	-0.33034685
10	0xbf8574fc	-1.0426326
11	0xbfa56fe4	-1.2924771
12	0x3d2f3282	0.042772777
13	0x3e52400b	0.20532243
14	0x3fddff18	1.7343473
15	0x3ec53167	0.38514253
16	0x3dcfda60	0.101490736
17	0xbf150680	-0.58213043
18	0xbe478cda	-0.19487324
19	0xbe61a32c	-0.22034901
20	0xbeaf136f	-0.34194514
21	0x3ed7e6b4	0.421682
22	0xbe79499a	-0.24344483
23	0xbf1bb183	-0.60817736
24	0xbca277e3	-0.019832557
25	0xbf7a0357	-0.97661346
26	0xbef3da70	-0.47627592
27	0x3eec50f3	0.4615551
28	0xbf0942ea	-0.5361773
29	0x3f2cac51	0.67450434
30	0x3d10a8ae	0.035317115
31	0xbca3c88c	-0.01999309
32	0x3e77120c	0.24127978
33	0x3efe3748	0.4965155
34	0xbccd9868	-0.025097087
35	0x3eab34c8	0.33438706
36	0x3d8f5b72	0.06999864
37	0x3f0f319f	0.5593509
38	0x3f1ed317	0.6204085
39	0x3f6ed810	0.93298435
40	0xbe8469e5	-0.2586204
41	0x3f4eec8f	0.8082971
42	0x3e901d14	0.28147185
43	0xbe1eb590	-0.15498948
44	0xbf0655e7	-0.52474827
45	0xbf77fe4f	-0.9687242
46	0xbf4a27f2	-0.789672
47	0xbfe806c6	-1.8127067
48	0xbf1c7b8b	-0.6112601
49	0x3eac9d9f	0.33714005
50	0x3e594c7c	0.21220583
51	0x3e054aaa	0.13016763
52	0x3f6b6fa5	0.9196723
53	0xbe108a40	-0.14115238
54	0x3e5bad8d	0.21452923
55	0x3ded9c8d	0.11602125
56	0x3e5dd2f4	0.21662503
57	0x3dab9069	0.083771534
58	0xbf406456	-0.751531
59	0xbe8dc22c	-0.27687204
60	0xbebbb658	-0.36662555
61	0xbf880f91	-1.062975
62	0xbe0d157f	-0.13777731
63	0xbfb48ca9	-1.4105426

encoder_variable_selection.single_variable_grns.VaccinationFull.fc1.bias f4 [8]
0	0x3de821f7	0.11334603
1	0x3dba386a	0.090927914
2	0x3d96a0ca	0.07354887
3	0x3e83de48	0.25755525
4	0x3d4fe144	0.05075194
5	0xbec0247f	-0.37527844
6	0xbe27793a	-0.16354838
7	0xbd04e877	-0.03244826

encoder_variable_selection.single_variable_grns.VaccinationFull.fc2.weight f4 [8, 8]
0	0xbe847697	-0.25871727
1	0x3d59479e	0.053046815
2	0xbe609934	-0.21933442
3	0xbf23c407	-0.6397099
4	0xbf45a520	-0.77205086
5	0x3eb41fab	0.3518041
6	0xbead5583	-0.33854303
7	0x3dfcacf7	0.12337678
8	0x3f2532b3	0.64530486
9	0xbf3d08d7	-0.73841614
10	0xbc4ae4a8	-0.012383617
11	0xbeaa50dc	-0.33264816
12	0xbed01fbe	-0.40649217
13	0xbf203df4	-0.6259453
14	0xbbca0ecc	-0.0061663147
15	0xbd748914	-0.05970104
16	0xbfc237d9	-1.5173293
17	0xbdd23193	-0.10263362
18	0xbdfddc07	-0.123954825
19	0x3f147bda	0.5800148
20	0xbec0a840	-0.37628365
21	0x3ea44393	0.32082805
22	0x3e6449c0	0.22293758
23	0x3ed77394	0.42080367
24	0x3e6cdddb	0.23131506
25	0xbf421f2d	-0.7582882
26	0xbd1bd44e	-0.038044266
27	0xbea5494f	-0.32282493
28	0x3edb8a14	0.42878783
29	0xbf6bf569	-0.9217134
30	0xbdbc04a4	-0.09180573
31	0x3cd9c1b3	0.02658162
32	0xbeb9d204	-0.36293042
33	0xbbe901ac	-0.007110795
34	0x3ebbb066	0.3665802
35	0xbd7db31f	-0.0619384
36	0x3e33249e	0.17494437
37	0x3eb7492a	0.35798007
38	0xbee80203	-0.45314035
39	0x3f2bbca2	0.67084706
40	0xbea454e5	-0.3209602
41	0x3edbb793	0.42913494
42	0x3ecfefee	0.4061274
43	0x3ee04a27	0.43806574
44	0x3eba64a9	0.36404923
45	0xbdf1be19	-0.118038364
46	0xbf02e521	-0.5113087
47	0xbf6f0f68	-0.93382883
48	0x3f2d64d3	0.6773197
49	0xbf195505	-0.59895355
50	0x3d9b1455	0.075722374
51	0x3f3a3349	0.72734505
52	0x3dbfc412	0.09363569
53	0xbf2a400a	-0.66503966
54	0xbdfa6fe9	-0.122283764
55	0x3e3d13cf	0.18464588
56	0xbe781fb9	-0.24230851
57	0x3d7fd70f	0.062460955
58	0xbd08e209	-0.03341869
59	0x3ed4c0ea	0.41553432
60	0xbf14964d	-0.5804184
61	0xbeff337e	-0.49843973
62	0xbdc474aa	-0.095925644
63	0xbe60c59b	-0.2195038

encoder_variable_selection.single_variable_grns.VaccinationFull.fc2.bias f4 [8]
0	0xbe824523	-0.25443372
1	0x3e03a8c3	0.12857346
2	0xbc1f2fcf	-0.009715988
3	0x3e1283df	0.14308117
4	0x3d75664c	0.05991201
5	0x3c8bc880	0.01706338
6	0x3ed746ad	0.4204611
7	0x3e398e9a	0.18120804

encoder_variable_selection.single_variable_grns.VaccinationFull.gate_norm.glu.fc.weight f4 [32, 8]
0	0x3e1fce1e	0.15605971
1	0x3ec5c765	0.38628688
2	0x3ecd583d	0.40106383
3	0x3ec99f5c	0.39379394
4	0xbe1165f6	-0.14199051
5	0x3de09233	0.10965385
6	0x3f117e06	0.5683292
7	0xbe46c916	-0.19412646
8	0xbedbe9c1	-0.42951778
9	0x3c4a2d44	0.012339894
10	0xbeaa7017	-0.33288643
11	0xbe93a3b4	-0.28835833
12	0x3e8656c3	0.2623807
13	0xbe5129c3	-0.20426087
14	0x3e4e1924	0.20126778
15	0x3b1fd292	0.0024386984
16	0x3e79b36a	0.24384847
17	0x3ddccc1a	0.10781117
18	0x3e9b84e4	0.30374825
19	0xbd09215f	-0.03347909
20	0xbd3bffa9	-0.045898113
21	0x3e89971b	0.26873097
22	0xbeba8ab8	-0.3643396
23	0x3eafd493	0.3434187
24	0xbf88ae7e	-1.0678251
25	0x3f8c39b8	1.0955114
26	0xbf4ddafb	-0.8041226
27	0x3fa1b9fb	1.2634882
28	0xbf59557b	-0.8489606
29	0x3f765eba	0.9623829
30	0x3f2c32d9	0.6726509
31	0x3f75f212	0.96072495
32	0x3f681bc6	0.9066738
33	0xbee04bcf	-0.43807837
34	0x3f2792e0	0.6545849
35	0xbf84e1fa	-1.0381463
36	0x3f47ee6b	0.7809817
37	0xbf02dcc4	-0.5111811
38	0xbefcf4f8	-0.49405646
39	0xbeeb3a2b	-0.45942816
40	0x3e0e0a44	0.13871104
41	0x3ee48966	0.44636077
42	0x3e487c8c	0.19578761
43	0xbe27e8be	-0.16397378
44	0xbdf16016	-0.11785905
45	0x3e3599c6	0.17734441
46	0xbdda9a07	-0.1067391
47	0x3db02d73	0.08602419
48	0xbe98a13a	-0.29810506
49	0x3ee38463	0.4443694
50	0xbe6db8a1	-0.23214962
51	0x3e2e0ad1	0.16996314
52	0xbec7ef75	-0.3904988
53	0x3ec5d9cf	0.38642737
54	0x3effa2a8	0.49928784
55	0x3e5635c7	0.20918952
56	0xbe923a8d	-0.28560296
57	0x3e9798d2	0.2960878
58	0x3b5f47c8	0.0034069885
59	0xbe207f3e	-0.15673539
60	0x3ea34846	0.31891078
61	0xbe629937	-0.2212876
62	0x3f02651d	0.50935537
63	0xbea6ce06	-0.32579058
64	0xbed5ba15	-0.41743532
65	0x3db7ce0b	0.089748465
66	0xbef6768f	-0.48137328
67	0x3dfbeefc	0.12301442
68	0xbf168cb1	-0.5880843
69	0x3f4914ce	0.7854737
70	0x3d0aebb7	0.0339162
71	0x3f022ad1	0.5084658
72	0x3df8dbcc	0.12151298
73	0x3e2375ff	0.1596298
74	0x3d035f25	0.03207316
75	0x3d14959e	0.0362755
76	0xbecc1742	-0.39861494
77	0xba36aa6e	-0.0006968145
78	0xbe93f049	-0.2889426
79	0x3da6c8d1	0.081437714
80	0x3e2d16af	0.16903184
81	0xbf028266	-0.5098022
82	0x3e2df955	0.16989644
83	0xbee38aee	-0.44441932
84	0x3e99a792	0.30010659
85	0xbe34d4ac	-0.17659253
86	0xbdd86dc8	-0.10567814
87	0xbdb2c1c9	-0.08728368
88	0xbe2ca226	-0.1685873
89	0xbf0e410e	-0.55568016
90	0xba3f02cd	-0.0007286489
91	0x3e5eb3cc	0.21748275
92	0xbdadf6e2	-0.08494355
93	0x3e956bd5	0.29183832
94	0xbf2f33a8	-0.68438196
95	0x3d8869cd	0.06660805
96	0xbd9dc5a8	-0.077037156
97	0x3e3e68ee	0.18594715
98	0xbe747ba2	-0.23875287
99	0xbf3075e2	-0.68929875
100	0x3e758629	0.2397696
101	0xbeae5d62	-0.3405562
102	0xbe78973b	-0.2427644
103	0xbe05fd7f	-0.13084982
104	0x3e2019a4	0.15634781
105	0xbf2fa213	-0.6860668
106	0x3e26283d	0.16226287
107	0xbdec834a	-0.11548479
108	0x3dd124f4	0.102121264
109	0x3e75aa31	0.23990704
110	0xbf2896e1	-0.6585522
111	0xbef358ff	-0.47528836
112	0xbecfb40f	-0.4056706
113	0xbd3f4ee5	-0.0467061
114	0xbcbd9d35	-0.023146251
115	0xbe7655f8	-0.24056232
116	0x3e0afa36	0.1357201
117	0x3da1b497	0.07895773
118	0xbe999e3f	-0.30003545
119	0x3e1ea5d3	0.15492944
120	0xbeaa18ad	-0.3322195
121	0xbdf55f30	-0.11981046
122	0x3dda4ba2	0.10658957
123	0xbe2c6d48	-0.16838562
124	0xbcbddaa6	-0.023175549
125	0x3df5738f	0.11984932
126	0x3e450844	0.19241434
127	0x3eae9c11	0.34103444
128	0x3d9075c6	0.070537135
129	0xbef19034	-0.4718033
130	0x3c648950	0.0139487535
131	0xbdb8ab98	-0.09017104
132	0xbe3d30b3	-0.18475609
133	0x3ebabeee	0.36473793
134	0xbf28432a	-0.65727484
135	0xbb0972a7	-0.002097288
136	0xbe62be33	-0.22142868
137	0xbe0f11d4	-0.13971645
138	0x3ddf8e08	0.10915762
139	0x3e4d8c4a	0.20073047
140	0xbd299152	-0.041398354
141	0x3f01f938	0.507709
142	0xbe62b6c6	-0.22140035
143	0x3edec70a	0.4351123
144	0x3e202472	0.15638903
145	0x3ed6fd92	0.41990334
146	0xbca75b3f	-0.020429252
147	0x3e5bf348	0.21479523
148	0x3de8ead5	0.11372916
149	0x3e98adc0	0.2982006
150	0xbc5691b4	-0.013096262
151	0x3dde9d2a	0.108698204
152	0x3eff596a	0.49872905
153	0xbeed1cd6	-0.46311063
154	0x3f1badf6	0.6081232
155	0xbf1b0304	-0.60551476
156	0x3e8ee267	0.27907106
157	0xbeb5224e	-0.35377735
158	0xbf13fe43	-0.5780985
159	0xbf0d68fd	-0.55238324
160	0xbe48b13c	-0.1959886
161	0x3e261102	0.16217425
162	0xbe0ab48a	-0.13545433
163	0x3e40d2bd	0.1883039
164	0xbd8a49b6	-0.067523405
165	0x3dd3b8c4	0.103379756
166	0x3e6aac36	0.22917256
167	0x3dfe9d62	0.12432362
168	0x3d68a0f6	0.05679413
169	0x3c3458cd	0.0110075
170	0x3eb6a9b2	0.35676342
171	0x3dd964d1	0.10614932
172	0xbed9df00	-0.42552948
173	0x3ea118a4	0.31464112
174	0xbf2cadf8	-0.67452955
175	0x3ee0cab1	0.4390464
176	0x3ea8cc9a	0.329686
177	0xbe2ea437	-0.1705483
178	0x3d2f0941	0.042733435
179	0xbd3cb21c	-0.046068296
180	0x3e66ba66	0.22532043
181	0x3df3bf7b	0.119017564
182	0xbf0d50d5	-0.55201465
183	0x3db819b2	0.08989276
184	0xbdf81531	-0.12113417
185	0x3ec9de82	0.39427572
186	0x3f133d93	0.5751583
187	0x3e863326	0.26210898
188	0xbda2c1d2	-0.079471245
189	0xbe748626	-0.23879299
190	0xbe97b9da	-0.2963398
191	0xbb239d35	-0.002496553
192	0x3c3c889b	0.011507179
193	0x3e77b245	0.24189098
194	0xbe37abee	-0.1793668
195	0xbdd3e26c	-0.10345921
196	0xbe9c7750	-0.30559778
197	0x3e0174f0	0.12642264
198	0x3f1123b4	0.56695104
199	0xbc8111cc	-0.015755557
200	0xbc670502	-0.014100315
201	0x3d5cd0da	0.053910114
202	0x3e076c8a	0.13224998
203	0x3e2088b0	0.15677142
204	0xbd123848	-0.035698205
205	0x3d5e7c29	0.054317627
206	0x3dd6458f	0.10462486
207	0x3e52845d	0.20558305
208	0x3c037ade	0.008024899
209	0xbe9230fd	-0.28553
210	0x3ecde7c4	0.40215886
211	0xbeef8b1c	-0.4678582
212	0x3ee0cb54	0.43905127
213	0xbf0f62fb	-0.5601041
214	0xbdf1c740	-0.11805582
215	0xbe9ea7f4	-0.30987513
216	0x3f9c38a3	1.2204784
217	0xbf4513f5	-0.76983577
218	0x3f6ee409	0.93316704
219	0xbf630145	-0.8867381
220	0x3eabac03	0.33529672
221	0xbe5f99c8	-0.21836007
222	0xbf38f1a9	-0.72243744
223	0xbf1f62b5	-0.6225999
224	0x3ec45e42	0.38353163
225	0x3e050074	0.12988454
226	0xbf05f5fc	-0.5232847
227	0x3e646f60	0.22308111
228	0x3d3ef19f	0.046617147
229	0x3e4f6de4	0.20256764
230	0xbf0b705b	-0.54468316
231	0x3eaca73a	0.33721334
232	0x3de92321	0.113836534
233	0xbf01311f	-0.5046558
234	0xbde6c19d	-0.112673976
235	0xbe189586	-0.14900789
236	0x3d852118	0.06500453
237	0x3e074477	0.13209711
238	0xbf2c53e6	-0.6731552
239	0x3c391607	0.011296756
240	0x3ecef203	0.40419015
241	0x3ded08e2	0.1157396
242	0xbe7e7d61	-0.24852516
243	0x3f176077	0.5913157
244	0xbe90f6a8	-0.28313184
245	0x3d2b63d6	0.041843258
246	0xbe7ba953	-0.24576311
247	0xbe08cb15	-0.1335872
248	0xbe0eeeb0	-0.1395824
249	0xbdf11fa9	-0.11773617
250	0x3ed9b88a	0.42523605
251	0x3ea688bd	0.32526198
252	0xbed15afb	-0.40889725
253	0xbe841cad	-0.25803128
254	0xbdf3f26d	-0.119114734
255	0xbe6a5172	-0.22882631

encoder_variable_selection.single_variable_grns.VaccinationFull.gate_norm.glu.fc.bias f4 [32]
0	0x3e708597	0.2348846
1	0x3e856e9e	0.26060957
2	0xbe471e75	-0.19445212
3	0xbe8e8cf7	-0.27841923
4	0xbeb28721	-0.3486872
5	0x3e071b52	0.13194016
6	0x3bfa33cb	0.0076355687
7	0x3e01cd77	0.12676035
8	0xbd4f02b6	-0.050539695
9	0xbde4978d	-0.111617185
10	0x3e50e4bf	0.2039976
11	0xbefc6f85	-0.49303833
12	0xbd661590	-0.056172907
13	0xbebf087d	-0.37311164
14	0xbded81e8	-0.11597043
15	0xbe191aa9	-0.14951576
16	0xbf1b515a	-0.6067101
17	0xbe0aa186	-0.13538179
18	0xbdb9658f	-0.09052574
19	0x3d7a50e1	0.06111229
20	0x3f0d9cfc	0.55317664
21	0xbfd569f3	-1.6672958
22	0xbdc6e671	-0.09711922
23	0xbe9e8f6a	-0.3096879
24	0x3f118770	0.56847286
25	0xbe92550c	-0.2858051
26	0x3c10ddd3	0.0088419495
27	0xbe38f06b	-0.18060462
28	0xbe8c853d	-0.27445403
29	0xbf631404	-0.88702416
30	0xbec23daf	-0.37937686
31	0xbf140b53	-0.5782978

encoder_variable_selection.single_variable_grns.VaccinationFull.gate_norm.add_norm.norm.weight f4 [16]
0	0x3f1ecb0d	0.6202858
1	0x3f1ceb05	0.6129611
2	0x3f69ab3d	0.91276914
3	0x3fa95a0a	1.3230603
4	0x3f83228f	1.0244921
5	0x3f3f5946	0.74745595
6	0x3f23c7bd	0.6397665
7	0x3f5a5e45	0.85300094
8	0x3f59d66c	0.85092807
9	0xbd3f1b18	-0.046656698
10	0x3f3d0cd5	0.73847705
11	0x3f80be59	1.005809
12	0x3d9e62bc	0.07733676
13	0x3fad7cc0	1.3553696
14	0x3f7f5f85	0.99755126
15	0x3e9b75dd	0.3036336

encoder_variable_selection.single_variable_grns.VaccinationFull.gate_norm.add_norm.norm.bias f4 [16]
0	0x3d272ad2	0.04081232
1	0x3e8c038d	0.2734646
2	0x3da07ac5	0.078359164
3	0x3dc5942a	0.09647401
4	0x3d6d5ddf	0.05795085
5	0x3dd285da	0.102794364
6	0xbda80fd8	-0.08206147
7	0xbcaf6b37	-0.021413429
8	0x3cc80ebe	0.024421092
9	0xbe0dc03c	-0.13842863
10	0xbe0f498e	-0.13992903
11	0x3e918972	0.28425175
12	0xbe25bd11	-0.16185404
13	0x3d4c4708	0.04987243
14	0xbd7c426e	-0.06158679
15	0xbd27093a	-0.040780284

encoder_variable_selection.single_variable_grns.Cases.resample_norm.mask f4 [16]
0	0xbe473038	-0.19451988
1	0x3e789a8b	0.24277703
2	0xbfaf34e0	-1.3688011
3	0x3dd3ca91	0.10341371
4	0xbe50faf5	-0.20408233
5	0x3ea9a49e	0.33133405
6	0xbe110c1f	-0.1416478
7	0xbe9f8681	-0.31157306
8	0xbe6620c3	-0.22473435
9	0x3f0ed149	0.55788094
10	0x3ef7fa5e	0.48433203
11	0x3e8112c4	0.2520963
12	0xbf808cc0	-1.0042953
13	0xbf25b637	-0.6473116
14	0x3e4b4037	0.19848715
15	0x3d9787c9	0.07398946

encoder_variable_selection.single_variable_grns.Cases.resample_norm.norm.weight f4 [16]
0	0x3f5cd132	0.86256707
1	0x3fc23a26	1.5173995
2	0x3f24b619	0.6434036
3	0x3fa83082	1.3139803
4	0x3f6c4c42	0.9230386
5	0x3fb63919	1.4236175
6	0x3fb04e65	1.3773924
7	0x3f9408f1	1.1565229
8	0x3f928e43	1.1449665
9	0x3fd645e3	1.6740078
10	0x3fc54974	1.5413041
11	0x3fb0a1d6	1.3799388
12	0x3e07b63b	0.13253109
13	0x3f0b4cd6	0.5441412
14	0x3fc4c3db	1.537227
15	0x3fac52c3	1.3462757

encoder_variable_selection.single_variable_grns.Cases.resample_norm.norm.bias f4 [16]
0	0x3e814ede	0.25255483
1	0x3d56a26b	0.052400988
2	0xbeedd982	-0.46455008
3	0xbedd1a0c	-0.43183935
4	0xbdef0bf6	-0.11672203
5	0xbe47de56	-0.19518408
6	0xbe42fd0f	-0.19041847
7	0xbd8fdf18	-0.07024974
8	0x3e067009	0.13128676
9	0x3dc2a53c	0.09504172
10	0x3dc28733	0.094984435
11	0xbbd45d09	-0.006480817
12	0x3e71bcee	0.23607227
13	0x3dbb698d	0.091509916
14	0x3d56f4de	0.052479617
15	0x3e8c18bf	0.2736263

encoder_variable_selection.single_variable_grns.Cases.fc1.weight f4 [8, 8]
0	0xbcd41e98	-0.025893494
1	0x3fcc7c8c	1.5975509
2	0x3e1f7555	0.15572102
3	0xbf5d1d5f	-0.8637294
4	0xbf0b768a	-0.5447775
5	0x3edb6727	0.42852136
6	0xbe865001	-0.26232913
7	0xbef713e4	-0.48257363
8	0x3f0518af	0.5199079
9	0x3f305a92	0.688882
10	0xbe8421a4	-0.25806916
11	0xc02a78b1	-2.6636164
12	0xbf9614ec	-1.1725135
13	0x3e44f619	0.19234504
14	0x3e115b2c	0.14194936
15	0xbd0307f9	-0.031990025
16	0x3f94f018	1.1635771
17	0x3de0f705	0.10984615
18	0xbd1cd30c	-0.038287207
19	0xbd20e804	-0.039283767
20	0xbdbb0f27	-0.091337495
21	0x3e25adbd	0.16179557
22	0xbf554b12	-0.83317673
23	0x3f3ab936	0.7293886
24	0xbf02936d	-0.51006204
25	0xbdc96c0e	-0.09835063
26	0x3f43d146	0.764912
27	0x3edab605	0.42716995
28	0x3f47b436	0.78009355
29	0x3e0a8b23	0.13529639
30	0x3e50e3ef	0.2039945
31	0x3f28b7aa	0.6590525
32	0xbe9b930c	-0.30385625
33	0xbe40683d	-0.18789764
34	0x3e7490a9	0.23883308
35	0x3e0f6e1e	0.1400685
36	0x3e22049d	0.15822072
37	0x3ea4d9ff	0.32197568
38	0x3e4735fe	0.1945419
39	0x3e2dfc4b	0.16990773
40	0xbe4696b4	-0.19393426
41	0x3e810023	0.25195417
42	0x3e527463	0.2055221
43	0xbfdfb69f	-1.7477607
44	0xbf3cc90b	-0.7374427
45	0x3f0445e8	0.5166917
46	0x3dc54a3d	0.096333005
47	0x3f33b26e	0.7019414
48	0x3e568924	0.20950752
49	0xbc7b904c	-0.015354227
50	0xbc0de1e2	-0.008659812
51	0x3f95f6c6	1.1715934
52	0xbf836bf6	-1.0267322
53	0x3e152dd9	0.1456827
54	0x3e9fbda5	0.31199375
55	0xbeb33491	-0.35001042
56	0xbb2768de	-0.0025544683
57	0xbf14df50	-0.5815325
58	0xbf138387	-0.5762257
59	0xbf11c676	-0.5694345
60	0x3cdae325	0.02671964
61	0xbe9a4f6a	-0.30138713
62	0xbf52db24	-0.8236563
63	0x3fb65ce1	1.4247094

encoder_variable_selection.single_variable_grns.Cases.fc1.bias f4 [8]
0	0xbeb4fc24	-0.35348618
1	0xbeb7c972	-0.35895878
2	0xbabcc380	-0.0014401525
3	0xbe3ab7ac	-0.18234128
4	0x3dd56521	0.104196794
5	0xbe430e34	-0.19048387
6	0xbe824e0f	-0.2545018
7	0x3c9430d5	0.018089691

encoder_variable_selection.single_variable_grns.Cases.fc2.weight f4 [8, 8]
0	0xbe8c9bb4	-0.27462542
1	0x3f2a98dd	0.666395
2	0xbee12d0f	-0.4397969
3	0xbed10f67	-0.40832064
4	0x3e510d3a	0.20415202
5	0xbe82ffcf	-0.2558579
6	0x3f250319	0.6445785
7	0xbea98ced	-0.3311533
8	0xbeb9e9ee	-0.36311287
9	0x3d591968	0.053002745
10	0xbc8127bd	-0.015766019
11	0xbed1c321	-0.40969184
12	0x3e95e5ee	0.29276985
13	0x3e04ab67	0.1295601
14	0xbde5f145	-0.11227659
15	0xbf8a5deb	-1.0809911
16	0x3d268b14	0.04065998
17	0xbef9981e	-0.4874887
18	0xbf5b03f2	-0.85552895
19	0x3d922108	0.071352065
20	0x3ed416d9	0.4142368
21	0xbe70c831	-0.23513867
22	0xbee6dd82	-0.45090872
23	0x3f512b51	0.8170672
24	0xbebaf82a	-0.3651746
25	0xbf59e510	-0.85115147
26	0xbecc30f3	-0.39881095
27	0xbf6323e9	-0.8872667
28	0x3ee4745a	0.4462002
29	0xbf8092e5	-1.0044829
30	0xbf06b87c	-0.5262525
31	0xbdcfc9f6	-0.10145943
32	0x3f0f3a94	0.5594876
33	0x3f3ef518	0.74592733
34	0x3d554641	0.052068952
35	0x3ee26a4e	0.4422173
36	0x3ecdc3dc	0.4018849
37	0xbddc6247	-0.107609324
38	0x3ea6daaf	0.32588717
39	0x3f0ee007	0.5581059
40	0x3e56ba44	0.20969492
41	0xbc931b2f	-0.017957298
42	0x3f532049	0.8247114
43	0x3f265533	0.64973754
44	0xbe423631	-0.18965985
45	0x3c787b76	0.015166154
46	0x3e7bc2e3	0.24586062
47	0x3e94f7e8	0.29095387
48	0xbf4ba94f	-0.7955522
49	0xbf51385c	-0.8172662
50	0xbef84599	-0.484906
51	0x3ee5472c	0.44780862
52	0xbe0c13a7	-0.13679372
53	0xbf0ef972	-0.55849373
54	0x3ec046b4	0.37553942
55	0xbe94821f	-0.29005525
56	0x3ed00705	0.40630355
57	0x3f56c703	0.8389742
58	0x3d03a073	0.03213544
59	0x3c83946f	0.01606199
60	0x3e670cc4	0.22563463
61	0x3e40c5c6	0.18825445
62	0xbe0b9095	-0.13629372
63	0x3e10f515	0.14155991
