TFT-pytorch-AgeGroups(Updated Results)/results/AGE3039/checkpoints/best-epoch=3.ckpt (torch, 735853 bytes, 506 tensors)

prescalers.AGE3039.weight f4 [8, 1]
0	0x3e1cedfc	0.15325159
1	0xbf0cded2	-0.55027497
2	0xbcb65980	-0.022259474
3	0x3e2b47c6	0.16726598
4	0xbee30581	-0.44340137
5	0xbd384006	-0.044982933
6	0xbeaaf1ea	-0.3338769
7	0x3ef0b4cf	0.47012946

prescalers.AGE3039.bias f4 [8]
0	0xbf09f535	-0.5388978
1	0x3f8b7d28	1.089757
2	0x3f11b80d	0.56921464
3	0xbe26f954	-0.16306049
4	0x3e8ffd14	0.2812277
5	0xbf2ae11f	-0.6674976
6	0x3ed66f78	0.4188192
7	0xbf1c9fc9	-0.6118131

prescalers.SinWeekly.weight f4 [8, 1]
0	0xbca6ff4a	-0.020385403
1	0xbfa87934	-1.3161988
2	0x3f704038	0.9384799
3	0xbf74e99b	-0.95668954
4	0x3f3df542	0.7420236
5	0xbe5490df	-0.20758389
6	0x3f32086f	0.6954412
7	0x3edb9c6f	0.42892787

prescalers.SinWeekly.bias f4 [8]
0	0xbc076e60	-0.008266062
1	0xbc372004	-0.011177067
2	0x3f35d78f	0.7103204
3	0x3e97846b	0.29593214
4	0x3f0422d4	0.51615644
5	0xbf0d7aca	-0.55265486
6	0x3f5db0e6	0.8659805
7	0x3ecef189	0.40418652

prescalers.VaccinationFull.weight f4 [8, 1]
0	0x3d83655f	0.064158194
1	0x3da2c7b7	0.07948249
2	0x3f3af54b	0.7303054
3	0x3f58f851	0.847539
4	0xbe1c9e92	-0.15294865
5	0xbf35bd8c	-0.7099235
6	0xbf146582	-0.5796739
7	0xbf2677d5	-0.650266

prescalers.VaccinationFull.bias f4 [8]
0	0x3f19d2f7	0.6008753
1	0xbef4b2fd	-0.47792807
2	0xbecf9b7c	-0.40548313
3	0x3f900d26	1.1254013
4	0x3f384108	0.7197423
5	0x3df728cc	0.12068328
6	0xbec0907e	-0.3761024
7	0x3e188c05	0.14897163

prescalers.Cases.weight f4 [8, 1]
0	0x3ee7726a	0.45204479
1	0xbf95571c	-1.1667209
2	0xbf3c5c31	-0.7357817
3	0x3f2c6ec1	0.673565
4	0x3fbcb8e2	1.4743922
5	0xbb80a4c8	-0.0039258935
6	0xbf4586a0	-0.77158546
7	0x3ed912f1	0.42397264

prescalers.Cases.bias f4 [8]
0	0xbf2a51b4	-0.6653092
1	0xbe258b1d	-0.16166349
2	0x3f2f9a5f	0.68594927
3	0x3ecd1f05	0.4006273
4	0x3d151c8b	0.036404174
5	0xbc154345	-0.009110277
6	0x3e2e2e0f	0.17009757
7	0xbf7411cc	-0.95339656

static_variable_selection.single_variable_grns.AGE3039.resample_norm.mask f4 [16]
0	0x3e0bfda9	0.13670982
1	0x3ef148bf	0.47125813
2	0x3f406529	0.7515436
3	0xbd4b7a25	-0.049677033
4	0xbef1f3a6	-0.47256202
5	0x3e15840c	0.14601153
6	0xbe8d1a2a	-0.27559024
7	0xbecc7374	-0.39931834
8	0xbed8ff23	-0.42382154
9	0xbec2e726	-0.38066977
10	0x3edd70ed	0.43250218
11	0x3e87078f	0.26372954
12	0xbf20db6f	-0.6283483
13	0xbf1d4b72	-0.61443245
14	0x3c363213	0.011120337
15	0x3f1144cf	0.5674562

static_variable_selection.single_variable_grns.AGE3039.resample_norm.norm.weight f4 [16]
0	0x3fa3f965	1.2810484
1	0x3f7fc31f	0.99907106
2	0x3fd79e7e	1.6845243
3	0x3f835f76	1.0263507
4	0x3f4ad960	0.7923794
5	0x3fa50799	1.2892944
6	0x3f7a70b0	0.978282
7	0x3f29d593	0.66341513
8	0x3f3cea8f	0.7379541
9	0x3f4b495d	0.7940882
10	0x3fc3de12	1.5302145
11	0x3fbc0ff1	1.4692365
12	0x3f30508b	0.688729
13	0x3ef05b50	0.46944666
14	0x3f9ae9c1	1.2102586
15	0x3fbf4396	1.49425

static_variable_selection.single_variable_grns.AGE3039.resample_norm.norm.bias f4 [16]
0	0xbdb63466	-0.08896713
1	0x3d35d528	0.044392735
2	0x3eba9106	0.3643877
3	0x3dc74e1f	0.09731697
4	0xbe3d0663	-0.18459468
5	0x3e89cda1	0.26914695
6	0xbe5a3440	-0.21308994
7	0x3cf49ca1	0.029859843
8	0x3ea24817	0.31695625
9	0x3e3ebdd6	0.18627104
10	0xbf1130d5	-0.56715137
11	0xbeedcbda	-0.4644459
12	0x3e5df423	0.21675162
13	0x3e9ee0c8	0.3103087
14	0xbdb03738	-0.08604282
15	0x3c98f8bc	0.018673293

static_variable_selection.single_variable_grns.AGE3039.fc1.weight f4 [8, 8]
0	0x3e4d9690	0.20076966
1	0x3e5c0df4	0.21489698
2	0xbf5f9019	-0.8732925
3	0xbf54e6b4	-0.83164525
4	0x3dfbcaf3	0.12294569
5	0xbf883c96	-1.0643489
6	0x3f1f04a7	0.62116474
7	0xbf8453a1	-1.0338022
8	0xbf348a8c	-0.70523906
9	0xbe123440	-0.14277744
10	0xbe1afc1b	-0.15135233
11	0x3eef3c17	0.46725532
12	0xbde495e1	-0.111614
13	0xbf046566	-0.5171722
14	0x3f4e92c5	0.806927
15	0xbe964050	-0.29345942
16	0xbe8fefb1	-0.28112558
17	0x3f8ea0be	1.1142805
18	0x3f4fcda4	0.8117316
19	0xbe193cda	-0.1496462
20	0x3b739801	0.0037169459
21	0xbeee94dc	-0.46597946
22	0x3e7b4e28	0.24541533
23	0xbf12dff5	-0.5737298
24	0xbdcf851e	-0.10132812
25	0xbf9b2b6b	-1.2122625
26	0xbce77944	-0.028256066
27	0xbe5ad0a3	-0.21368651
28	0xbec76e84	-0.38951504
29	0x3e48a92d	0.19595785
30	0xbeaf664c	-0.34257734
31	0x3f958a2e	1.1682794
32	0xbf17d036	-0.5930208
33	0x3f9f181e	1.2429235
34	0x3e1c7c1c	0.15281719
35	0xbd91535d	-0.070959784
36	0xbf06f02f	-0.5271024
37	0x3f1d193b	0.61366624
38	0x3e47c366	0.19508132
39	0xbc917e06	-0.017760288
40	0x3f43474c	0.76280665
41	0xbf94d3b9	-1.1627113
42	0xbe1112cd	-0.14167328
43	0x3e8770b9	0.26453188
44	0x3e3890aa	0.18023935
45	0xbeda8078	-0.4267614
46	0xbe4f1c0c	-0.20225543
47	0x3ea85d29	0.32883576
48	0xbbb186c1	-0.0054176752
49	0xbf598d22	-0.84980977
50	0xbe807465	-0.25088802
51	0x3e9bae6f	0.3040652
52	0x3e9a8e2d	0.30186597
53	0x3fabba8b	1.3416303
54	0x3e89e8ba	0.2693537
55	0x3a43c268	0.00074676285
56	0xbf41aa9e	-0.75650966
57	0xbec53574	-0.38517344
58	0x3cd32712	0.025775466
59	0x3f163c46	0.5868572
60	0xbe0b74a9	-0.13618721
61	0xbf294695	-0.66123325
62	0x3e3fa7ec	0.18716401
63	0x3e64649d	0.22304006

static_variable_selection.single_variable_grns.AGE3039.fc1.bias f4 [8]
0	0xbea420b5	-0.32056203
1	0x3e920b5c	0.28524292
2	0x3ea318ab	0.31854758
3	0xbe4ed4da	-0.20198384
4	0x3ee9295c	0.45539367
5	0xbe03e1d0	-0.1287911
6	0x3d00f543	0.0314839
7	0x3e43d560	0.19124365

static_variable_selection.single_variable_grns.AGE3039.fc2.weight f4 [8, 8]
0	0x3cf52208	0.029923454
1	0x3f132edf	0.57493395
2	0x3f06653c	0.5249822
3	0xbf4556bb	-0.77085465
4	0x3f2bb380	0.6707077
5	0xbee32c6a	-0.44369823
6	0x3f2493c6	0.64287984
7	0x3f1e4a35	0.6183198
8	0xbc85fb7d	-0.01635527
9	0x3d91a3b2	0.071113005
10	0x3ec463bf	0.3835735
11	0x3e9d9d22	0.30783945
12	0x3e93fdc9	0.2890456
13	0x3db198bd	0.08671711
14	0x3e9fa90d	0.31183663
15	0x3ec6207f	0.38696668
16	0x3bf745e6	0.0075461743
17	0x3e81ede1	0.253768
18	0x3e083c22	0.13304189
19	0x3e0fa3de	0.14027354
20	0x3e215739	0.15755929
21	0xbee943db	-0.45559582
22	0xbee72f1d	-0.45153132
23	0x3ec7ac69	0.38998726
24	0x3f5f8052	0.87305176
25	0xbe8e8c79	-0.27841547
26	0x3f26394b	0.6493117
27	0xbf82673d	-1.0187756
28	0x3dc6c5df	0.0970571
29	0xbf36bd5c	-0.7138269
30	0x3f21996c	0.6312473
31	0xbf4547cd	-0.77062684
32	0x3e99ea89	0.3006175
33	0xbe43e73d	-0.19131179
34	0x3e2e3b27	0.17014752
35	0x3f25dc24	0.6478903
36	0x3e410b50	0.18851972
37	0x3ec01fa8	0.37524152
38	0x3f012f56	0.50462854
39	0x3c9bf4f4	0.019037701
40	0x3e4a2475	0.1974047
41	0xbe6c94de	-0.23103663
42	0xbe858b01	-0.26082614
43	0xbf0301b9	-0.51174504
44	0x3f049f1c	0.5180528
45	0xbec0a9cc	-0.37629545
46	0xbf1c45a9	-0.6104379
47	0x3e8c2845	0.27374473
48	0xbee56b3a	-0.4480837
49	0x3daaec5a	0.08345862
50	0x3f46c0bb	0.77637833
51	0xbeddaf13	-0.43297634
52	0x3f02f028	0.511477
53	0xbdc8e02d	-0.09808383
54	0xbf66e929	-0.90199524
55	0xbdf2c658	-0.11854237
56	0x3d960a9e	0.07326244
57	0x3e7c1d4d	0.24620552
58	0xbf5e94ab	-0.869456
59	0x3e2a2ee8	0.16619456
60	0x3c10cdf0	0.008838162
61	0x3eb08a7c	0.34480655
62	0x3ec947ec	0.39312685
63	0xbeec27d4	-0.46124136

static_variable_selection.single_variable_grns.AGE3039.fc2.bias f4 [8]
0	0x3e2ede69	0.1707703
1	0x3d72d6cd	0.05928688
2	0x3dfdb742	0.12388469
3	0xbd1cbb54	-0.038264588
4	0x3c9c3b8c	0.019071363
5	0xbdeae98e	-0.11470328
6	0x3f02548f	0.50910276
7	0xbdfd7db8	-0.123774946

static_variable_selection.single_variable_grns.AGE3039.gate_norm.glu.fc.weight f4 [32, 8]
0	0xbe0185e4	-0.12648731
1	0x3dcc734f	0.09982931
2	0xbc486db4	-0.0122331865
3	0xbe69195a	-0.22763577
4	0x3e04dbae	0.12974426
5	0xbe2467a7	-0.16055165
6	0xbf16c5fb	-0.58895844
7	0x3e3c2fe3	0.18377642
8	0x3eb70956	0.3574931
9	0x3d42b4d3	0.04753573
10	0x3e3485f5	0.17629226
11	0x3f2261cc	0.63430476
12	0xbe86a26a	-0.26295787
13	0x3e4b4289	0.198496
14	0x3e4fa37a	0.20277205
15	0xbd9e725c	-0.07736656
16	0x3eed7c49	0.46383885
17	0x3e9006c4	0.28130162
18	0x3eb8c992	0.36091286
19	0x3eadd1d0	0.33949137
20	0x3ea70d06	0.32627124
21	0xbdf28268	-0.11841279
22	0x3f331227	0.69949573
23	0xbe7226a8	-0.23647559
24	0xbef00c81	-0.4688454
25	0x3d15b912	0.03655345
26	0xbdc9e9e7	-0.098590665
27	0xbed1f293	-0.41005382
28	0x3da7b11b	0.08188077
29	0xbecf1652	-0.40446717
30	0xbec53628	-0.3851788
31	0x3ef9a69a	0.4875992
32	0x3e8585ec	0.26078737
33	0xbef01159	-0.46888235
34	0x3f0c06b5	0.54697734
35	0x3dd75bc7	0.10515552
36	0xbe5fa2e2	-0.21839479
37	0xbe3ebc94	-0.18626624
38	0xbe8db38a	-0.2767604
39	0x3d410c53	0.047130894
40	0x3eb36b9e	0.35043043
41	0xbdc8fe23	-0.09814098
42	0x3e471ba0	0.19444132
43	0x3ef574f7	0.479408
44	0xbf009f9a	-0.5024353
45	0x3c94b74a	0.018153805
46	0x3f1e7c49	0.61908394
47	0xbeabab93	-0.33529338
48	0xbe2e89d3	-0.17044763
49	0xbd12d74c	-0.035849854
50	0xbeab8066	-0.33496398
51	0xbecae4ff	-0.39627835
52	0x3d9cf7ee	0.07664476
53	0xbf10dbcb	-0.5658538
54	0xbe01cea0	-0.12676477
55	0x3f1c0203	0.6094057
56	0x3efb93fd	0.49136344
57	0x3e047fef	0.12939428
58	0x3e69081c	0.22757
59	0x3e399b07	0.18125544
60	0xbcaaa8ff	-0.020832537
61	0x3c4d43e9	0.012528398
62	0x3edfa1ef	0.43678233
63	0x3e250b6e	0.16117641
64	0xbec77b43	-0.3896123
65	0xbe9c39ff	-0.30512998
66	0x3be47a1b	0.006972564
67	0x3ddb55a1	0.10709692
68	0x3ef9cb92	0.48788124
69	0x3e4056b3	0.18783073
70	0x3ef29f29	0.47387055
71	0x3df22172	0.118227854
72	0x3ebb02a6	0.36525458
73	0xbe2bae7e	-0.16765782
74	0x3e5a9859	0.21347179
75	0xbdc3b878	-0.09556669
76	0x3e5b289a	0.21402207
77	0xbdbf9b0c	-0.09355745
78	0x3c108730	0.008821294
79	0xbe6fb1c6	-0.23407659
80	0x3ddba87f	0.107254975
81	0x3f07a3be	0.52984226
82	0x3e16e205	0.14734657
83	0xbe49e6c3	-0.19716935
84	0xbd837929	-0.06419594
85	0xbcc834a8	-0.024439171
86	0x3badd2a1	0.00530465
87	0x3c4261b9	0.011864119
88	0xbe3e9113	-0.18610029
89	0xbdd4d031	-0.10391272
90	0x3c54418c	0.012955081
91	0xbefca0ff	-0.4934158
92	0x3eb51ba7	0.3537266
93	0x3df499f8	0.1194343
94	0xbf1f4014	-0.6220715
95	0x3f298ed6	0.66233575
96	0xbeec8fa0	-0.46203327
97	0x3eb3b82a	0.35101444
98	0x3e71f384	0.2362805
99	0x3dcb53c8	0.099280894
100	0x3e8afbde	0.27145284
101	0xbdeb064f	-0.11475813
102	0x3ed79778	0.4210775
103	0xbe78786d	-0.24264689
104	0xbf4ff217	-0.81228775
105	0x3d99dd22	0.07512881
106	0x3e791e1f	0.24327897
107	0xbe2f27a4	-0.17104965
108	0x3e864897	0.26227257
109	0x3dbc6b53	0.09200158
110	0x3ef2c181	0.47413257
111	0x3e511e58	0.20421731
112	0xbe8af5f8	-0.27140784
113	0x3deda39b	0.11603471
114	0xbec179b8	-0.37788177
115	0x3e992fa7	0.29919168
116	0xbe7dc4c8	-0.24782097
117	0x3dd1c72c	0.10243067
118	0xbdd91020	-0.10598779
119	0x3ea51ba5	0.32247654
120	0xbf51e61b	-0.8199174
121	0x3f009bc5	0.50237685
122	0xbe76b8ac	-0.24093884
123	0xbeea52de	-0.45766348
124	0x3ea9130b	0.3302234
125	0xbee466e4	-0.4460975
126	0xbe1a1ada	-0.15049306
127	0xbeacdc89	-0.33762005
128	0xbd7235cd	-0.05913334
129	0xbea511be	-0.322401
130	0xbe3fa3c8	-0.18714821
131	0x3ef2ff68	0.47460485
132	0x3df85caf	0.12127053
133	0x3cf5a7e2	0.02998728
134	0x3b90a852	0.0044145966
135	0xbeb1685e	-0.34649938
136	0x3f5f2281	0.87162024
137	0xbd40fa1b	-0.04711352
138	0xbee35612	-0.44401604
139	0x3e6493ea	0.2232205
140	0xbe510406	-0.20411691
141	0xbf0be86c	-0.5465152
142	0xbf066f57	-0.5251364
143	0xbe126212	-0.14295223
144	0x3e931315	0.28725496
145	0x3e231f97	0.1593002
146	0x3da980b4	0.08276501
147	0x3ed472d1	0.41493848
148	0xbe94890a	-0.29010803
149	0x3ecf966a	0.40544444
150	0x3ef0a7f9	0.47003153
151	0xbe2b35a2	-0.16719678
152	0xbd28234d	-0.04104929
153	0x3f293c2e	0.6610745
154	0xbe53bb9b	-0.20677035
155	0xbeac75a3	-0.336835
156	0x3d37bc46	0.044857286
157	0xbd605f29	-0.05477825
158	0xbf367ece	-0.7128724
159	0x3f819d75	1.0126177
160	0x3e7f661e	0.24941298
161	0xbca69130	-0.020332903
162	0xbd6e68c2	-0.058205374
163	0xbe4c8acf	-0.19974826
164	0xbe36e130	-0.1785934
165	0xbd1710e9	-0.03688136
166	0xbf0c3615	-0.5477002
167	0x3e9ed0d6	0.31018704
168	0x3d994bc1	0.07485152
169	0x3ea59d4a	0.32346565
170	0xbe84391b	-0.25824818
171	0xbf07de24	-0.53073335
172	0x3f584112	0.8447429
173	0xbe0b00b9	-0.13574494
174	0xbf45b2fa	-0.7722622
175	0x3f04b4a9	0.51838166
176	0x3e4d47b3	0.20046882
177	0x3e1e8a61	0.15482475
178	0xbe4edbce	-0.20201036
179	0x3ee31c26	0.44357413
180	0xbf028cc6	-0.50996053
181	0x3e88a063	0.26684865
182	0xbd5a104e	-0.053238206
183	0xbeed165d	-0.46306124
184	0xbdb98342	-0.090582386
185	0x3f2e850b	0.6817176
186	0x3e769e6a	0.24083868
187	0x3e5c7f99	0.2153305
188	0x3e2ea5cc	0.17055434
189	0x3eac7070	0.33679533
190	0xbc0f0f1d	-0.008731631
191	0xbf3abebd	-0.72947294
192	0x3db53bb0	0.08849275
193	0x3f2b30a9	0.66871125
194	0xbe841d4c	-0.25803602
195	0xbe4b51af	-0.19855379
196	0x3e604590	0.21901536
197	0x3ce8be02	0.028410915
198	0xbe39dd8b	-0.18150918
199	0x3f513c84	0.81732965
200	0xbc4834ac	-0.012219589
201	0xbe8a21dd	-0.2697896
202	0x3f02ed20	0.51143074
203	0xbf031507	-0.5120396
204	0x3f0f0caa	0.558787
205	0xbdaccdcf	-0.084376924
206	0xbe74afa6	-0.2389513
207	0x3e1fcf8f	0.15606521
208	0x3ef6f90c	0.48236883
209	0xbf4025f7	-0.7505793
210	0xbee37185	-0.44422546
211	0x3ca6c848	0.020359173
212	0xbf309dfc	-0.68991065
213	0xbec98459	-0.39358786
214	0xbec40245	-0.38282982
215	0x3e3468af	0.17618059
216	0x3e5da9e7	0.21646844
217	0xbd522e1b	-0.0513135
218	0x3e6c2581	0.23061182
219	0x3f94343a	1.1578438
220	0xbe90b1f5	-0.2826077
221	0x3f53d485	0.82746154
222	0x3ea13005	0.31481948
223	0xbf24b61e	-0.6434039
224	0xbf001411	-0.5003062
225	0x3e9bb298	0.30409694
226	0x3efd7921	0.49506477
227	0xbf0e3a96	-0.55558145
228	0x3dad6a44	0.08467534
229	0xbee417cc	-0.44549406
230	0x3e8f9bea	0.2804864
231	0x3e5f5ae6	0.21812019
232	0xbd6bb7b0	-0.057548225
233	0xbd920a7f	-0.07130908
234	0x3d4630c5	0.048386354
235	0xbf1a3fca	-0.60253584
236	0x3be2c779	0.0069207516
237	0x3eb9a3dc	0.36257827
238	0x3e59ce48	0.21270096
239	0x3eb83dbd	0.35984603
240	0x3ecd7b4a	0.40133125
241	0x3c96beee	0.01840159
242	0xbd1375ab	-0.03600089
243	0xbabd2300	-0.0014429986
244	0x3eba8be4	0.36434853
245	0x3efbef7b	0.49206147
246	0x3ddea5dc	0.10871479
247	0xbe8f7c84	-0.28024685
248	0xbef88686	-0.48540133
249	0xbd43968e	-0.047751002
250	0xbe5bf34a	-0.21479526
251	0xbf89260f	-1.071474
252	0x3da79ab1	0.08183802
253	0xbf67e5d2	-0.9058505
254	0xbf1238dc	-0.5711801
255	0x3f454db2	0.7707168

static_variable_selection.single_variable_grns.AGE3039.gate_norm.glu.fc.bias f4 [32]
0	0xbdd64035	-0.10461465
1	0x3d90111e	0.07034515
2	0x3f142134	0.57863164
3	0x3d15891a	0.036507703
4	0xbdb36c50	-0.08760893
5	0x3e0a87b9	0.13528337
6	0xbe587bb8	-0.21140945
7	0x3d38cb8b	0.04511599
8	0x3e2cfccf	0.16893314
9	0x3e08f0ef	0.13373159
10	0xbea54fe8	-0.32287526
11	0xbef05766	-0.4694168
12	0x3e5148b3	0.20437889
13	0x3efc80a9	0.4931691
14	0xbe788e07	-0.24272929
15	0x3e98a20e	0.29811138
16	0x3d11e66b	0.035620134
17	0xbe73d668	-0.23812258
18	0x3c845d2f	0.016157715
19	0xbede824f	-0.43458793
20	0xbf08fca5	-0.53510505
21	0xbedd4e01	-0.43223575
22	0xbe37712f	-0.1791427
23	0xbdb40698	-0.0879032
24	0xbe8cb5ee	-0.2748255
25	0xbe9c2c57	-0.3050258
26	0xbeff1b56	-0.49825543
27	0x3db098fc	0.086229295
28	0x3e90d709	0.2828906
29	0x3e072855	0.13198979
30	0xbe4c3491	-0.19941927
31	0xbe3708b8	-0.1787442

static_variable_selection.single_variable_grns.AGE3039.gate_norm.add_norm.norm.weight f4 [16]
0	0x3f673cda	0.9032723
1	0x3f4f18c7	0.8089718
2	0x3fabf8e7	1.3435334
3	0x3f91e6ba	1.1398537
4	0x3f44ed79	0.76924855
5	0x3f9046a6	1.127156
6	0x3f58a637	0.84628624
7	0x3ef77a02	0.48335272
8	0x3e873fac	0.26415765
9	0x3f1ed7ac	0.6204784
10	0x3fc3d4c6	1.5299308
11	0x3fd6aabd	1.6770855
12	0x3e4e609e	0.20154044
13	0x3f11c733	0.5694458
14	0x3f095875	0.536506
15	0x3f9fb35d	1.2476612

static_variable_selection.single_variable_grns.AGE3039.gate_norm.add_norm.norm.bias f4 [16]
0	0xbe30e2a8	-0.17273962
1	0x3dcc4d72	0.09975709
2	0x3f009f3a	0.5024296
3	0x3e9c0c53	0.30478153
4	0xbc2e0ef2	-0.01062368
5	0x3e7d5f0a	0.24743286
6	0xbe6a4817	-0.22879063
7	0x3dc6f4a8	0.09714633
8	0x3e6f8280	0.23389626
9	0x3d979bdf	0.07402777
10	0xbf071b2a	-0.52775824
11	0xbf341200	-0.70339966
12	0xbd16f6dd	-0.03685652
13	0xbc3bcb95	-0.011462112
14	0xbe56736d	-0.20942469
15	0x3d4ad8b1	0.04952306

static_variable_selection.prescalers.AGE3039.weight f4 [8, 1]
0	0x3e1cedfc	0.15325159
1	0xbf0cded2	-0.55027497
2	0xbcb65980	-0.022259474
3	0x3e2b47c6	0.16726598
4	0xbee30581	-0.44340137
5	0xbd384006	-0.044982933
6	0xbeaaf1ea	-0.3338769
7	0x3ef0b4cf	0.47012946

static_variable_selection.prescalers.AGE3039.bias f4 [8]
0	0xbf09f535	-0.5388978
1	0x3f8b7d28	1.089757
2	0x3f11b80d	0.56921464
3	0xbe26f954	-0.16306049
4	0x3e8ffd14	0.2812277
5	0xbf2ae11f	-0.6674976
6	0x3ed66f78	0.4188192
7	0xbf1c9fc9	-0.6118131

encoder_variable_selection.flattened_grn.resample_norm.mask f4 [3]
0	0xbf908762	-1.1291316
1	0x3cf98f0a	0.030463714
2	0x3ec92b77	0.39290974

encoder_variable_selection.flattened_grn.resample_norm.norm.weight f4 [3]
0	0x3f5ffde6	0.87496793
1	0x3f933854	1.1501565
2	0x4019c241	2.4024813

encoder_variable_selection.flattened_grn.resample_norm.norm.bias f4 [3]
0	0x3e74866a	0.238794
1	0x3d5a369d	0.05327474
2	0xbef5e16f	-0.48023555

encoder_variable_selection.flattened_grn.fc1.weight f4 [3, 24]
0	0x3f5f1fc8	0.8715787
1	0xbed486a4	-0.41508973
2	0x3eb37272	0.35048252
3	0xbe3b0bf9	-0.18266286
4	0x3e7215c5	0.23641117
5	0x3c870be4	0.016485162
6	0xbd123875	-0.035698373
7	0xbcabd5c4	-0.020975955
8	0xbefc7802	-0.4931031
9	0x3e0272f5	0.12739165
10	0x3dae25ff	0.08503341
11	0xbfa060d5	-1.2529551
12	0x3b48e2b5	0.0030652706
13	0x3d7d6dcf	0.0618723
14	0x3e17682c	0.14785832
15	0x3ddcb29d	0.10776255
16	0x3f19880d	0.5997322
17	0xbf56993b	-0.8382756
18	0x3e2e51e6	0.1702343
19	0x3daff159	0.08590955
20	0x3e6fabeb	0.23405425
21	0xbe381572	-0.1797693
22	0x3cc55bd5	0.02409164
23	0x3e9cf664	0.3065673
24	0x3e1f77f6	0.15573105
25	0x3f1ae79e	0.6050967
26	0xbf4d9e29	-0.8031946
27	0x3e0efb89	0.1396314
28	0xbeaf52a4	-0.34242737
29	0x3e27732b	0.16352527
30	0xbe99196f	-0.29902217
31	0x3e0a5671	0.13509537
32	0xbec03d4a	-0.3754676
33	0x3d7c3b81	0.061580185
34	0xbf81f097	-1.0151547
35	0xbf2100f1	-0.6289206
36	0x3e1206e7	0.14260446
37	0x3ef63ba4	0.48092377
38	0x3f580c5c	0.8439386
39	0x3f39583b	0.72400254
40	0x3e6e69c3	0.23282532
41	0xbd901712	-0.0703565
42	0xbf2502dd	-0.64457494
43	0xbe04cc4a	-0.12968555
44	0x3d8a6aad	0.06758628
45	0x3daab80e	0.08335887
46	0xbe172368	-0.147596
47	0x3e880d25	0.26572528
48	0xbe928402	-0.2861634
49	0xbe04c025	-0.12963922
50	0xbf1a72ee	-0.6033162
51	0x3e76e8cd	0.24112244
52	0xbdd08216	-0.10181062
53	0x3f6ae022	0.9174825
54	0xbf51ce64	-0.8195555
55	0xbe844cbc	-0.25839794
56	0xbf235c84	-0.6381304
57	0x3efbfa7f	0.4921455
58	0x3db6506c	0.08902058
59	0x39c7d3d6	0.00038114068
60	0xbe8ab009	-0.2708743
61	0x3de8283a	0.113357976
62	0x3f1890fd	0.59596235
63	0x3e9dca88	0.30818582
64	0x3c36bc0a	0.01115323
65	0x3ecb442f	0.39700457
66	0x3d86f9bd	0.065906025
67	0xbe11d65e	-0.14241931
68	0xbe86df2f	-0.2634215
69	0xbd833bd6	-0.06407897
70	0xbeba2191	-0.36353734
71	0xbb43c423	-0.0029871545

encoder_variable_selection.flattened_grn.fc1.bias f4 [3]
0	0xbdea951b	-0.11454221
1	0xbd97003e	-0.07373093
2	0xbee81fed	-0.45336857

encoder_variable_selection.flattened_grn.context.weight f4 [3, 16]
0	0xbd6c73d3	-0.057727646
1	0xbc2aafb8	-0.010417871
2	0xbeae8fba	-0.3409403
3	0xbe1feae7	-0.15616952
4	0x3d63b5de	0.055593364
5	0xbe63815a	-0.22217312
6	0x3e53ac69	0.20671238
7	0x3dbc0f38	0.0918259
8	0xbd2077c2	-0.03917671
9	0x3b8607d2	0.0040902877
10	0x3e45d3cc	0.19319075
11	0x3d8a7121	0.06759859
12	0xbd1807d2	-0.037116833
13	0x3e915b46	0.2838995
14	0xbdfe0912	-0.12404074
15	0xbdfb133e	-0.122595295
16	0x3eed800b	0.46386752
17	0xbd5803a7	-0.05273786
18	0x3e8bcce8	0.2730477
19	0xbeec339b	-0.46133122
20	0xbd9e1d6c	-0.077204555
21	0x3efde299	0.49586943
22	0xbc85006b	-0.01623555
23	0xbd9292bd	-0.07156894
24	0x3b99142e	0.004671595
25	0x3e323b04	0.17405325
26	0xbe155220	-0.1458211
27	0x3cb5c933	0.022190666
28	0xbd2d06f9	-0.042242978
29	0xbe9613f4	-0.29312098
30	0xbe2e8852	-0.1704419
31	0x3e4402fe	0.19141766
32	0x3efa007b	0.48828492
33	0xbda9a022	-0.08282496
34	0x3f34a33c	0.70561576
35	0xbf0e10b9	-0.55494267
36	0xbefde7d1	-0.49590924
37	0x3f3b6ff9	0.7321773
38	0x3e0a5776	0.13509926
39	0x3e83ffda	0.25781137
40	0xbee996bd	-0.45622817
41	0x3ed86c61	0.42270187
42	0x3e9f61c1	0.31129268
43	0x3e88d303	0.2672349
44	0x3d2ce8a4	0.04221405
45	0x3e3fd7cd	0.18734665
46	0xbddad814	-0.10685745
47	0x3ec7ccf0	0.39023542

encoder_variable_selection.flattened_grn.fc2.weight f4 [3, 3]
0	0xbf31242a	-0.69195807
1	0xbf98aa14	-1.1926904
2	0x3d25f381	0.040515427
3	0xbe60b3be	-0.21943566
4	0xbf47c6db	-0.78037804
5	0xbe93976d	-0.28826466
6	0xbe560312	-0.20899609
7	0xbf3d49b8	-0.7394061
8	0xbed9e8d7	-0.42560455

encoder_variable_selection.flattened_grn.fc2.bias f4 [3]
0	0x3e0b2aeb	0.1359059
1	0x3d03f3ff	0.032215115
2	0xbd8d0b79	-0.06886954

encoder_variable_selection.flattened_grn.gate_norm.glu.fc.weight f4 [6, 3]
0	0x3e260c3b	0.16215603
1	0xbe28e0c1	-0.16491987
2	0x3eb29e2a	0.34886295
3	0xbe255f0c	-0.16149539
4	0xbec7c99c	-0.39021003
5	0x3e69499d	0.22781987
6	0xbd4d0ffe	-0.05006408
7	0xbed29e8d	-0.4113659
8	0xbd8dbb35	-0.069204725
9	0xbea4c38f	-0.3218045
10	0xbf39a2df	-0.72514147
11	0x3ef1cce4	0.47226632
12	0x3f140075	0.578132
13	0xbec87469	-0.39151314
14	0xbec93b42	-0.39303023
15	0x3f6d27ba	0.9263874
16	0x3e3f2bee	0.18669102
17	0x3ec1d1dd	0.37855425

encoder_variable_selection.flattened_grn.gate_norm.glu.fc.bias f4 [6]
0	0x3e4e152a	0.20125261
1	0x3d6df6e0	0.058096766
2	0xbeab6fdd	-0.33483782
3	0xbf1a42d5	-0.6025823
4	0xbebe3a60	-0.37153912
5	0x3de2f1c9	0.11081273

encoder_variable_selection.flattened_grn.gate_norm.add_norm.norm.weight f4 [3]
0	0x3e4259c9	0.18979563
1	0x3e84af8d	0.25915185
2	0x3ecf8335	0.4052979

encoder_variable_selection.flattened_grn.gate_norm.add_norm.norm.bias f4 [3]
0	0x3de01497	0.10941427
1	0xbf07f787	-0.5311207
2	0x3f1ad3ff	0.6047973

encoder_variable_selection.single_variable_grns.SinWeekly.resample_norm.mask f4 [16]
0	0xbe8fd697	-0.28093407
1	0xbe8ec3ac	-0.2788366
2	0x3f220910	0.6329508
3	0x3ec8726f	0.39149806
4	0xbebb9956	-0.36640424
5	0xbdc84c8f	-0.097802274
6	0xbeb35f1a	-0.35033494
7	0xbf3960b2	-0.7241317
8	0xbf4a439f	-0.7900943
9	0xbdb815ca	-0.08988531
10	0xbf0fecac	-0.5622051
11	0xbe789867	-0.24276887
12	0xbea9494f	-0.33063743
13	0x3e987dc6	0.29783458
14	0x3e20ce2b	0.15703647
15	0x3e6e2c90	0.23259187

encoder_variable_selection.single_variable_grns.SinWeekly.resample_norm.norm.weight f4 [16]
0	0x3fa12cd6	1.2591808
1	0x3ef8798d	0.48530236
2	0x3ffb7f17	1.964816
3	0x3fbb8786	1.4650733
4	0x3f690f3d	0.91038877
5	0x3f718a09	0.9435125
6	0x3f40c50b	0.75300664
7	0x3eccc463	0.3999358
8	0x3e90bc34	0.28268588
9	0x3f7ce003	0.98779315
10	0x3f6186e5	0.8809646
11	0x3f89bd2b	1.0760854
12	0x3f7c7158	0.9861045
13	0x3fad2e30	1.352972
14	0x3fc19fb4	1.5126863
15	0x3f8263d0	1.018671

encoder_variable_selection.single_variable_grns.SinWeekly.resample_norm.norm.bias f4 [16]
0	0x3e436208	0.19080365
1	0x3daceac1	0.08443213
2	0xbec1c2f1	-0.3784404
3	0x3e3f5bc6	0.18687353
4	0xbd94d00c	-0.07266244
5	0x3c07a783	0.008279684
6	0xbeaf646c	-0.34256303
7	0xbda5114e	-0.08059941
8	0x3b5f6903	0.0034089691
9	0xbc70df76	-0.014701715
10	0x3e9003ea	0.28127986
11	0x3e908903	0.28229532
12	0xbee02353	-0.4377695
13	0x39b9ce42	0.00035439624
14	0xbc854d66	-0.016272258
15	0x3dbe5cd5	0.0929505

encoder_variable_selection.single_variable_grns.SinWeekly.fc1.weight f4 [8, 8]
0	0x3f3d5dfc	0.73971534
1	0xbfc62077	-1.5478657
2	0xbf48160a	-0.7815863
3	0xbfed13bf	-1.8521651
4	0xbe95baa7	-0.29243967
5	0xbd14adb1	-0.036298458
6	0x3e90caee	0.28279823
7	0x3ef1ad5b	0.47202572
8	0x3e2a94dc	0.16658348
9	0x3eabe44d	0.33572617
10	0xbc7360c3	-0.014854613
11	0xbe1fe017	-0.15612827
12	0xbd259c8c	-0.040432498
13	0x3f331c04	0.69964623
14	0xbe2052b1	-0.15656544
15	0xbcd6549c	-0.026163392
16	0x3dce91c1	0.10086394
17	0xbc634d99	-0.013873481
18	0xbf3228a0	-0.6959324
19	0x3e7a3308	0.2443353
20	0xbf8a86fa	-1.0822442
21	0x3f267eff	0.6503753
22	0x3f15cd85	0.5851672
23	0xbd021ca6	-0.031765603
24	0x3ec3fa00	0.38276672
25	0x3db38576	0.0876569
26	0xbed46c0b	-0.4148868
27	0x3df3f4e1	0.11911941
28	0x3e8dc078	0.27685905
29	0x3e5895c4	0.21150881
30	0x3e5ec5e3	0.21755175
31	0x3f003438	0.5007968
32	0xbf0aedfd	-0.5426939
33	0xbe86a7e1	-0.26299956
34	0x3f8f6d2f	1.1205195
35	0xbe771684	-0.24129683
36	0x3e0d4f4d	0.13799782
37	0x3f550ba0	0.83220863
38	0x3f032e8e	0.5124291
39	0xbf7bde6d	-0.9838627
40	0x3f800f36	1.0004642
41	0xbe9dc639	-0.30815294
42	0xbf1ea73c	-0.6197393
43	0x3d79aff5	0.06095882
44	0x3e8c5304	0.27407086
45	0xbec57fc2	-0.38574034
46	0xbdd009fd	-0.10158155
47	0x3ea96241	0.33082774
48	0xbf173274	-0.5906136
49	0xbd2a2806	-0.041542076
50	0xbfddd50f	-1.7330645
51	0x3f09c3d1	0.5381442
52	0xbf4e96e4	-0.8069899
53	0x3ee80b84	0.45321286
54	0xc00b3b9a	-2.1755128
55	0xbf80a8b6	-1.0051486
56	0x3e9871cb	0.29774317
57	0xbd461084	-0.048355594
58	0xbf14280c	-0.57873607
59	0x3e372f02	0.17889026
60	0x3f77b40e	0.96759117
61	0x3ef395e7	0.47575304
62	0xbd212ea5	-0.039351124
63	0x3f1ac9a0	0.60463905

encoder_variable_selection.single_variable_grns.SinWeekly.fc1.bias f4 [8]
0	0xbe66981f	-0.22518967
1	0x3d7da37c	0.06192349
2	0xbe16af6b	-0.14715354
3	0xbe45c028	-0.19311583
4	0xbe0c26fb	-0.13686745
5	0x3cf5aa04	0.029988296
6	0xbec0eda8	-0.37681317
7	0xbd3918b5	-0.045189578

encoder_variable_selection.single_variable_grns.SinWeekly.fc2.weight f4 [8, 8]
0	0xbf71dafb	-0.9447476
1	0x3d35e90e	0.04441171
2	0xbf986c71	-1.1908094
3	0xbe366110	-0.17810464
4	0xbebfd88a	-0.37469894
5	0xbd92517b	-0.071444474
6	0x3f3fa277	0.74857277
7	0xbe91589d	-0.2838792
8	0xbdd6dd00	-0.10491371
9	0xbed0b87e	-0.40765756
10	0x3dae16b3	0.08500423
11	0x3dbb0142	0.09131099
12	0xbd676917	-0.056496706
13	0x3e8af561	0.27140334
14	0x3f276537	0.65388817
15	0x3e36b95d	0.17844148
16	0x3f12f63c	0.57406974
17	0xbed32cb8	-0.41245055
18	0xbd179eb6	-0.037016593
19	0xbe3f48e3	-0.18680148
20	0x3edd1725	0.4318172
21	0x3de7b9e1	0.113147505
22	0x3f482a40	0.7818947
23	0x3ea28226	0.3173992
24	0x3f097679	0.536964
25	0x3f2179d3	0.63076514
26	0x3eb5aa04	0.35481274
27	0x3d4e094d	0.05030184
28	0x3e42e11b	0.19031183
29	0xbe960c7a	-0.29306394
30	0x3f258e26	0.64670026
31	0xbeb42e33	-0.35191497
32	0xbf9117c3	-1.1335377
33	0x3f29d8d9	0.6634651
34	0xbf1bec6b	-0.6090762
35	0x3e38836e	0.18018886
36	0x3de883cf	0.113532655
37	0xbdf41e91	-0.119198926
38	0xbe040da9	-0.12895836
39	0xbe85374e	-0.26018757
40	0x3ef895df	0.48551843
41	0xbedbf497	-0.42960045
42	0xbf003f1f	-0.50096315
43	0xbe2723b6	-0.16322216
44	0xbefc873a	-0.4932192
45	0xbdb63d24	-0.088983804
46	0xbf259d4f	-0.6469316
47	0xbe9741da	-0.29542428
48	0x3ed4f8af	0.4159598
49	0xb9566f4f	-0.00020450096
50	0x3d3ed9f6	0.046594582
51	0xbe037c8f	-0.12840484
52	0x3eddd04d	0.43322983
53	0x3d16b09f	0.036789533
54	0x3f1bfa83	0.60929126
55	0x3e4a8ccc	0.19780272
56	0x3f2165b3	0.63045806
57	0xbdd9a78e	-0.10627662
58	0x3e9c49ad	0.3052496
59	0x3e890db0	0.26768255
60	0x3ee8dd08	0.45481133
61	0x3d9db28e	0.07700072
62	0x3f7e8e94	0.99436307
63	0xbea7770b	-0.3270801

encoder_variable_selection.single_variable_grns.SinWeekly.fc2.bias f4 [8]
0	0xbe6d438f	-0.23170303
1	0xbe510e09	-0.2041551
2	0x3e13872c	0.14407033
3	0x3e0797a4	0.1324144
4	0x3db34697	0.08753698
5	0x3e5818b6	0.21103176
6	0x3da564ea	0.080758885
7	0x3d93bdf9	0.07213969

encoder_variable_selection.single_variable_grns.SinWeekly.gate_norm.glu.fc.weight f4 [32, 8]
0	0x3ec48116	0.38379735
1	0x3e5ed0ff	0.21759413
2	0x3ed9ac95	0.42514482
3	0x3ef584ca	0.47952873
4	0xbd542a8b	-0.051798385
5	0xbf2ec45b	-0.68268365
6	0x3f038b09	0.51384026
7	0x3f080689	0.5313497
8	0xbe508ab3	-0.2036541
9	0xbcc6335d	-0.024194414
10	0xbea7a2a5	-0.32741275
11	0xbf0feb81	-0.56218725
12	0x3e0752d0	0.13215184
13	0x3ee303f5	0.44338956
14	0xbe305f89	-0.17223944
15	0xbe248525	-0.16066416
16	0x3efdfc94	0.49606764
17	0x3f185059	0.594976
18	0xbe531e67	-0.20617066
19	0x3f0a3820	0.5399189
20	0x3f1ca6ed	0.6119221
21	0xbeea33f2	-0.45742756
22	0xbe99b5a7	-0.30021402
23	0xbc3a1c5f	-0.011359303
24	0x3ee7c714	0.45269072
25	0x3eed3b77	0.4633443
26	0xbe339642	-0.17537788
27	0x3c7528ce	0.014963342
28	0x3ee2e2ff	0.4431381
29	0xbedbc07a	-0.42920285
30	0xbe58ce59	-0.21172465
31	0x3e9b74a7	0.30362436
32	0x3e96e6f0	0.29473066
33	0x3de10e71	0.109890826
34	0x3e9fe5c7	0.31229994
35	0x3e451393	0.19245748
36	0x3dd8e21b	0.10590001
37	0xbe4b86b4	-0.19875604
38	0x3f1b5ce4	0.60688615
39	0x3e88b1fd	0.26698294
40	0x3ccd1d83	0.025038486
41	0xbead1a72	-0.3380924
42	0xbd590ade	-0.05298888
43	0xbdd07f96	-0.10180585
44	0xbe934238	-0.28761458
45	0xbe3d4ac5	-0.18485554
46	0xbde2fc6c	-0.11083302
47	0x3d78ab1f	0.06071007
48	0xbeae761f	-0.34074494
49	0xbf00cc71	-0.5031195
50	0xbf35b265	-0.70975333
51	0xbef4a1e1	-0.47779754
52	0xbdde4fdb	-0.10855075
53	0x3eed727d	0.4637641
54	0xbebfa940	-0.37433815
55	0xbecd5d6a	-0.40110332
56	0xbe89338f	-0.2679715
57	0xbda93fdb	-0.082641326
58	0x3e39c949	0.1814319
59	0x3d458fb2	0.04823274
60	0xbf00562c	-0.5013149
61	0xbdb33251	-0.087498315
62	0xbd941a74	-0.07231608
63	0xbe866da6	-0.2625553
64	0x3effee05	0.49986282
65	0x3f0bc898	0.54602957
66	0x3f0fc1d6	0.56155145
67	0x3f26a8a0	0.6510105
68	0x3d2e9090	0.042618334
69	0xbf4bac09	-0.7955938
70	0x3f375f12	0.7162944
71	0x3f0b58ed	0.54432565
72	0xbe8b3f23	-0.27196607
73	0xbeea0fbf	-0.45715138
74	0x3e7e0b80	0.24809074
75	0xbe209b01	-0.1568413
76	0xbebd2a15	-0.3694617
77	0x3e5db0fa	0.21649542
78	0x3df98230	0.121830344
79	0x3e66b9cb	0.22531812
80	0x3d6d4452	0.057926483
81	0x3df7bc08	0.12096411
82	0x3ec48f8d	0.3839077
83	0x3ecfef5b	0.406123
84	0xbe6dc430	-0.23219371
85	0xbb96adc9	-0.0045983535
86	0x3ed8da94	0.42354262
87	0x3f08c85a	0.5343071
88	0x3e792caa	0.24333444
89	0x3e2d21fe	0.16907498
90	0x3ead65e8	0.3386681
91	0x3e896b27	0.26839563
92	0xbc9ef50b	-0.019403955
93	0xbf160aae	-0.58610046
94	0x3ee8432d	0.4536375
95	0x3ed017d7	0.40643188
96	0x3f2b9ae2	0.6703321
97	0x3f3921db	0.72317284
98	0xbeca4bda	-0.39510995
99	0xbe3ae420	-0.18251085
100	0x3f2ad0c5	0.6672481
101	0xbf25e558	-0.64803076
102	0xbf313923	-0.6922781
103	0xbf0160d4	-0.50538373
104	0x3ea26ba9	0.31722763
105	0xbcffd09c	-0.031227402
106	0xbf06c965	-0.52651054
107	0xbf2eb493	-0.68244284
108	0x3f11d3a8	0.56963587
109	0xbe4c783b	-0.1996774
110	0xbf59e8eb	-0.8512103
111	0xbf266aa4	-0.6500647
112	0xbf19c7ba	-0.60070384
113	0xbf000024	-0.50000215
114	0x3f4bcb63	0.7960722
115	0x3e49f689	0.19722952
116	0xbf011791	-0.50426584
117	0x3e974094	0.29541457
118	0x3e9253d7	0.2857959
119	0x3ed41e2b	0.41429266
120	0x3dc8d04d	0.09805355
121	0xbec4708e	-0.38367122
122	0xbe88eb69	-0.26742104
123	0xbe084945	-0.133092
124	0xbdecc762	-0.11561467
125	0xbd653765	-0.05596103
126	0xbd134d03	-0.035962116
127	0xbe320413	-0.17384367
128	0x3f29dea2	0.66355336
129	0x3e995a63	0.29951772
130	0x3d4cad3d	0.0499699
131	0x3ede6cb4	0.4344231
132	0x3ed278a0	0.41107655
133	0xbf249c5c	-0.64301085
134	0x3e001780	0.12508965
135	0xbcd6d730	-0.026225656
136	0x3ee8d889	0.45477703
137	0xbf1f5a04	-0.6224673
138	0xbedc7821	-0.430604
139	0xbe97bb64	-0.29635155
140	0x3dccf774	0.100081354
141	0x3ea2e84f	0.31817862
142	0xbf3e55ec	-0.74349856
143	0xbefce3a8	-0.49392438
144	0xbe429528	-0.19002211
145	0xbed0a8fe	-0.4075393
146	0x3d8fbef9	0.07018847
147	0xbd1f4a03	-0.038888942
148	0xbe8015e5	-0.25016704
149	0x3e44a55a	0.19203702
150	0x3ef4027a	0.4765814
151	0x3f442a66	0.76627195
152	0x3e2c524b	0.16828267
153	0x3ec3c940	0.3823948
154	0x3e72ff45	0.2373019
155	0x3ed1bde3	0.40965185
156	0xbdf50322	-0.11963488
157	0xbd808c4c	-0.062767595
158	0x3e3af061	0.1825576
159	0x3f47f979	0.7811504
160	0x3eaa7970	0.33295774
161	0x3e473d74	0.19457036
162	0xbec43abd	-0.38326064
163	0xbd25588b	-0.040367644
164	0x3e8a39f8	0.26997352
165	0xbe055ed1	-0.13024451
166	0xbe016342	-0.1263552
167	0xbeae416b	-0.34034285
168	0xbe5d8d75	-0.21635993
169	0x3d3ca1e3	0.046052825
170	0xbd93038c	-0.07178411
171	0x3ee7e6ac	0.45293176
172	0xbcac0325	-0.020997593
173	0xbf1ddc4b	-0.61664265
174	0x3d1706ab	0.036871593
175	0xbf005bf3	-0.50140303
176	0x3ee7f41a	0.45303422
177	0x3eef0e73	0.4669071
178	0xbdfd0d5b	-0.12356063
179	0x3e0ae563	0.13564067
180	0x3ea74872	0.3267246
181	0xbf4dbf30	-0.80369854
182	0x3c3bdcf4	0.011466254
183	0x3cf4c642	0.029879693
184	0xbf164836	-0.58703935
185	0x3e1174fd	0.14204784
186	0x3ec20b57	0.37899277
187	0x3ef3aa39	0.47590807
188	0xbe951e2c	-0.29124582
189	0xbe0657ac	-0.13119382
190	0x3e357551	0.17720534
191	0x3dd4b90d	0.10386858
192	0x3e8d8d06	0.27646655
193	0x3e837720	0.25676823
194	0x3e21e05b	0.15808241
195	0x3e8f62da	0.28005105
196	0x3e9b2225	0.30299488
197	0xbe76737a	-0.24067488
198	0x3dcb5873	0.0992898
199	0x3e31a2af	0.17347215
200	0xbe8f392e	-0.27973312
201	0xbcf90b30	-0.030400842
202	0x3ea8afc4	0.329466
203	0x3f3bf6aa	0.73423254
204	0xbda8e1b5	-0.08246175
205	0x3e9d5ead	0.30736294
206	0x3e71f8cc	0.23630065
207	0x3f107545	0.5642894
208	0x3e412cc1	0.18864729
209	0xbe871f4a	-0.2639106
210	0xbf1f23bc	-0.621639
211	0xbeb3100f	-0.3497319
212	0x3f10ba4b	0.5653426
213	0x3ee6cbcf	0.4507737
214	0xbf185249	-0.5950056
215	0xbeb2e9fd	-0.34944144
216	0x3eea6e7a	0.45787412
217	0x3eba0dbb	0.363386
218	0x3e9dd2bd	0.30824843
219	0x3ef0dfc3	0.47045717
220	0x3ed8f213	0.42372188
221	0xbee06ffb	-0.43835434
222	0x3e2d43ca	0.1692039
223	0x3d12e650	0.035864174
224	0xbf8aab64	-1.0833554
225	0xbf38f1e3	-0.7224409
226	0x3f3c6141	0.735859
227	0x3dec58d6	0.115403816
228	0xbf31709a	-0.6931244
229	0x3f2d91e2	0.67800725
230	0x3f435ee3	0.7631666
231	0x3f6d5a96	0.9271635
232	0xbd58944a	-0.052875794
233	0xbf1ca46c	-0.6118839
234	0xbd91c4de	-0.071176276
235	0xbe96ff76	-0.29491776
236	0xbb823a9d	-0.0039742724
237	0x3ec52302	0.3850327
238	0xbcf6f8f0	-0.030148
239	0x3e708df9	0.23491658
240	0xbf153f4a	-0.58299696
241	0xbec8ce5e	-0.39219946
242	0x3e5a94a4	0.21345764
243	0x3de594e2	0.11210038
244	0xbf066489	-0.52497154
245	0xbde76b8d	-0.112998106
246	0x3dd20506	0.102548644
247	0x3ee0566e	0.4381594
248	0xbe2882b5	-0.16456111
249	0x3ec7ab09	0.38997677
250	0xbe3f5b8b	-0.18687265
251	0xbd9f6129	-0.07782204
252	0x3e3670b1	0.17816426
253	0xbc8a8bb7	-0.016912324
254	0xbe565ae6	-0.20933113
255	0xbecb4151	-0.3969827

encoder_variable_selection.single_variable_grns.SinWeekly.gate_norm.glu.fc.bias f4 [32]
0	0x3e9e9402	0.30972296
1	0x3e20cee3	0.15703921
2	0xbf078137	-0.5293154
3	0x3ea35ddd	0.3190755
4	0xbe0f9460	-0.14021444
5	0xbd5b32ff	-0.05351543
6	0xbf003e9b	-0.5009553
7	0xbd7e1a71	-0.062036935
8	0x3e0c71a9	0.13715233
9	0x3d9b9804	0.07597354
10	0x3e61b65b	0.2204222
11	0x3ea38377	0.31936237
12	0xbf2b952e	-0.67024505
13	0x3c4b3ba8	0.01240436
14	0x3d63a15b	0.055573802
15	0x3deab805	0.1146088
16	0x3ed89791	0.42303136
17	0xbe067ec2	-0.13134292
18	0x3f1d449b	0.6143281
19	0xbea5e889	-0.32403973
20	0x3e45a15a	0.19299832
21	0xbf984b07	-1.1897897
22	0x3e676780	0.22598076
23	0xbea0f4ab	-0.31436667
24	0x3f034fe3	0.5129377
25	0xbd929cc2	-0.071588054
26	0xbedf82b4	-0.43654406
27	0xbf119f94	-0.5688412
28	0x3d70e9a5	0.05881657
29	0x3f29a5bb	0.6626851
30	0xbe100cc9	-0.14067377
31	0xbeb13441	-0.3461018

encoder_variable_selection.single_variable_grns.SinWeekly.gate_norm.add_norm.norm.weight f4 [16]
0	0x3fb468c7	1.4094476
1	0x3f26cda7	0.6515755
2	0x3fd1c01e	1.6386755
3	0x3fa83e28	1.3143969
4	0x3f0ef58f	0.5584344
5	0x3f2f6ddb	0.68527
6	0x3f853972	1.0408156
7	0x3de57131	0.1120323
8	0x3fa0422b	1.2520193
9	0x3f55f9d7	0.8358435
10	0x3f94fdb4	1.1639924
11	0x3fc31101	1.5239564
12	0x3f5e879b	0.8692567
13	0x3fdc4a23	1.7210125
14	0x3f891000	1.0708008
15	0x3f646ff8	0.8923335

encoder_variable_selection.single_variable_grns.SinWeekly.gate_norm.add_norm.norm.bias f4 [16]
0	0x3d8d97e8	0.069137394
1	0x3e53e64d	0.20693322
2	0xba1b8daa	-0.00059338904
3	0x3ec4ed67	0.38462374
4	0x3ce5a7cb	0.028034111
5	0x3d394fc2	0.04524208
6	0xbec315e3	-0.38102636
7	0xbda18f89	-0.07888705
8	0x3ceb59d9	0.028729366
9	0xbe4c816a	-0.19971243
10	0xbe21a23b	-0.15784542
11	0x3d355baf	0.04427689
12	0xbe94bb40	-0.2904911
13	0x3ab60149	0.0013885881
14	0x3dc35306	0.0953732
15	0x3c5a702f	0.013332411

encoder_variable_selection.single_variable_grns.VaccinationFull.resample_norm.mask f4 [16]
0	0xbe014671	-0.12624528
1	0xbf59977f	-0.8499679
2	0x3d12767c	0.035757527
3	0xbf4869b1	-0.7828627
4	0x3f532c04	0.8248904
5	0xbeb597d0	-0.35467386
6	0x3e51a24f	0.20472072
7	0x3f11f211	0.5700999
8	0x3e809326	0.25112265
9	0xbf22cfbf	-0.63598245
10	0xbef4c454	-0.47806036
11	0x3eb7a72b	0.35869727
12	0xbf3a3a55	-0.7274526
13	0x3f20d934	0.62831426
14	0xbe7a8c86	-0.24467668
15	0xbe8b8625	-0.27250782

encoder_variable_selection.single_variable_grns.VaccinationFull.resample_norm.norm.weight f4 [16]
0	0x3f51b8cc	0.819226
1	0x3e8d92d0	0.27651072
2	0x3f9b8294	1.2149224
3	0x3f0a7a7d	0.5409315
4	0x3fe26310	1.7686481
5	0x3f48b21f	0.7839679
6	0x3f796fe0	0.9743633
7	0x3fc987c8	1.5744562
8	0x3fa2fe9e	1.2733953
9	0x3f08aea0	0.53391457
10	0x3f0c1640	0.5472145
11	0x3fbd2fd9	1.4780227
12	0x3eb33727	0.35003015
13	0x3fc2de6c	1.5224128
14	0x3f15f0bb	0.5857045
15	0x3f47aa76	0.7799448

encoder_variable_selection.single_variable_grns.VaccinationFull.resample_norm.norm.bias f4 [16]
0	0x3c5d51cc	0.013508271
1	0xbc8e34d6	-0.017359179
2	0xbe93980d	-0.28826943
3	0x3d249ebc	0.040190443
4	0xbdac6d0a	-0.08419235
5	0xbcd9b864	-0.026577182
6	0x3dec7dab	0.11547407
7	0x3eb967e0	0.36212063
8	0x3e5efe02	0.21776584
9	0xbe67de31	-0.22643353
10	0x3db8dd2d	0.09026561
11	0xbc40bb54	-0.0117634125
12	0xbd35e883	-0.044411194
13	0xbe228525	-0.15871103
14	0x3e8e500d	0.2779545
15	0x3da52e67	0.08065491

encoder_variable_selection.single_variable_grns.VaccinationFull.fc1.weight f4 [8, 8]
0	0x3eea486d	0.4575838
1	0xbe9a9722	-0.3019343
2	0xbf5fc18b	-0.874047
3	0xbe32d859	-0.17465343
4	0x3f5c63ea	0.86089957
5	0x3e4467ad	0.19180174
6	0xbf196857	-0.59924835
7	0x3ccc4bae	0.02493843
8	0xbd0ddba6	-0.0346333
9	0xbe6493d2	-0.22322014
10	0xbf73f5e5	-0.9529708
11	0xbfa4bc10	-1.2869892
12	0x3b2688d8	0.0025411155
13	0x3e216866	0.15762481
14	0x3ff0b72c	1.88059
15	0x3e0e1f62	0.13879159
16	0x3dacdf3e	0.084410176
17	0xbf0c10bc	-0.54713035
18	0xbdb9a94e	-0.090654954
19	0xbe6b613c	-0.2298631
20	0xbec3815b	-0.38184628
21	0x3eaa3ac1	0.3324795
22	0xbe69b0e9	-0.22821392
23	0xbf28ab5f	-0.6588649
24	0xbea02307	-0.31276724
25	0xbf72dddd	-0.94869787
26	0xbf45e84d	-0.7730759
27	0x3c6ad9bf	0.014334141
28	0xbf1b9f74	-0.6079018
29	0x3fab86e1	1.3400537
30	0x3f030261	0.51175505
31	0x3f3d347f	0.7390823
32	0xbdc1ebc4	-0.09468797
33	0x3f402720	0.750597
34	0x3e1dcb14	0.154095
35	0xbd5e6587	-0.054296043
36	0xbe246b88	-0.16056645
37	0x3f11cc12	0.5695201
38	0x3f708bd8	0.93963385
39	0x3f7bd636	0.98373735
40	0xbe647449	-0.22309984
41	0x3f199a4f	0.6000108
42	0x3eec8c03	0.4620057
43	0xbe3ba5ad	-0.18324919
44	0xbf0dc383	-0.5537645
45	0xbf73d6a3	-0.95249385
46	0xbf40132a	-0.7502924
47	0xbfe82c32	-1.8138487
48	0xbf1aaff1	-0.60424715
49	0x3eae2228	0.34010434
50	0x3d178a14	0.036996916
51	0x3e196ced	0.14982958
52	0x3f801806	1.0007331
53	0xbe023198	-0.12714231
54	0x3e7057e5	0.23471029
55	0x3e31fde5	0.1738201
56	0x3e7212c8	0.23639977
57	0x3eb6f52f	0.35733935
58	0xbe1d69a0	-0.15372324
59	0xbe71e978	-0.23624218
60	0xbf250bd0	-0.6447115
61	0xbfa9503d	-1.3227612
62	0xbe8427c6	-0.25811595
63	0xbfcd8f79	-1.6059409

encoder_variable_selection.single_variable_grns.VaccinationFull.fc1.bias f4 [8]
0	0x3e9f49ca	0.31110984
1	0x3cbdcf3b	0.023170104
2	0x3d46d764	0.048545256
3	0x3dc57c85	0.09642891
4	0xbe63402d	-0.2219245
5	0xbedc4f83	-0.43029413
6	0xbd86c45e	-0.06580423
7	0xbe9f36be	-0.31096452

encoder_variable_selection.single_variable_grns.VaccinationFull.fc2.weight f4 [8, 8]
0	0xbd57f04d	-0.052719403
1	0x3e9708e4	0.2949897
2	0xbc220096	-0.009887835
3	0xbebe4b33	-0.37166747
4	0xbf06cf08	-0.52659655
5	0x3ed2a94f	0.41144797
6	0xbed8fb0d	-0.42379037
7	0x3ea4a52c	0.32157266
8	0x3f44bba3	0.7684881
9	0xbf5fdda7	-0.8744759
10	0xbcebe321	-0.028794827
11	0xbf471685	-0.7776874
12	0xbf29f0b5	-0.66382915
13	0xbf2f796c	-0.6854465
14	0x3e243df3	0.16039257
15	0xbe84af09	-0.2591479
16	0xbfd7df86	-1.6865089
17	0x3ebd23e1	0.36941436
18	0xbde40ce8	-0.11135274
19	0x3f3c9c0d	0.73675615
20	0xbd2ea65c	-0.04263912
21	0x3f065a16	0.5248121
22	0x3e74009d	0.23828359
23	0x3f335826	0.7005638
24	0x3e53c963	0.20682292
25	0xbee75c35	-0.45187536
26	0xbdeb4fc7	-0.11489826
27	0xbe0b3c7d	-0.13597293
28	0x3f14eaad	0.58170587
29	0xbf8588e1	-1.0432397
30	0xbdda28fb	-0.10652348
31	0xbeabf95f	-0.33588693
32	0xbf2102fd	-0.62895185
33	0xbe6e0039	-0.23242272
34	0x3d25c378	0.040469617
35	0xbefc18c8	-0.49237657
36	0x3e9c5eed	0.30541173
37	0x3e7dc1d5	0.24780972
38	0xbf540f58	-0.8283591
39	0x3f3f74eb	0.7478778
40	0xbe456064	-0.19275051
41	0x3e683c20	0.22679186
42	0x3e202633	0.15639572
43	0x3f8012cc	1.0005736
44	0x3e803cc2	0.25046355
45	0xbd7f94c8	-0.06239775
46	0xbe5e9d49	-0.21739687
47	0xbf80b1f7	-1.005431
48	0x3f197dc1	0.5995751
49	0x3d7ed40c	0.062213942
50	0xbc8e52a3	-0.017373389
51	0x3f72a1ad	0.9477795
52	0x3eab4470	0.3345065
53	0xbf23aa7e	-0.63932025
54	0xbe854d76	-0.2603566
55	0x3d417346	0.047229074
56	0xbe010e8d	-0.12603207
57	0xbe2374ce	-0.15962526
58	0xbd08e4c1	-0.03342128
59	0x3e8f5b3f	0.27999303
60	0xbf480d4d	-0.78145295
61	0xbf2e5e4d	-0.6811264
62	0x3c9bf23c	0.019036405
63	0xbef2a22d	-0.47389355

encoder_variable_selection.single_variable_grns.VaccinationFull.fc2.bias f4 [8]
0	0xbe193714	-0.14962417
1	0x3ed573be	0.41689867
2	0xbebd4bb4	-0.3697182
3	0x3d772604	0.06033899
4	0xbe47a735	-0.19497378
5	0x3e0b2ae4	0.1359058
6	0x3dd08fc8	0.10183674
7	0x3e9e1258	0.3087337

encoder_variable_selection.single_variable_grns.VaccinationFull.gate_norm.glu.fc.weight f4 [32, 8]
0	0x3d99f997	0.075183086
1	0x3f123a6b	0.5712039
2	0x3e2f0dff	0.17095183
3	0x3e86e4a8	0.26346326
4	0x3d0a6c60	0.03379476
5	0x3d381d56	0.044949852
6	0xbe29851d	-0.16554685
7	0xbde703e8	-0.11280042
8	0xbec1c0a7	-0.37842295
9	0xbe98075b	-0.29693112
10	0xbe834f97	-0.2564666
11	0x3dde842c	0.108650535
12	0x3e410e44	0.18853098
13	0xbd52d8b8	-0.05147621
14	0xbd13daa4	-0.036097184
15	0xbe65e28a	-0.22449699
16	0x3e943efd	0.28954306
17	0xbf10c8d6	-0.5655645
18	0x3f056a0e	0.5211495
19	0xbd20ed4f	-0.039288815
20	0x3e207bd8	0.15672243
21	0x3e6df3db	0.23237555
22	0xbe73f443	-0.23823647
23	0x3d657658	0.056021065
24	0xbf97a00a	-1.1845715
25	0x3ef5f45b	0.4803799
26	0xbf3f348f	-0.74689573
27	0x3f967025	1.1752974
28	0xbf5eb3f9	-0.86993366
29	0x3f679d73	0.90474623
30	0x3f4b612e	0.7944516
31	0x3fa9b152	1.3257239
32	0x3f1b6df2	0.6071464
33	0xbeaa0498	-0.3320663
34	0x3f1c3c85	0.61029845
35	0xbf350de2	-0.7072431
36	0x3f36bac9	0.7137876
37	0xbf69afd1	-0.912839
38	0xbf5d2ffa	-0.8640133
39	0xbf21b37c	-0.63164496
40	0x3ecde86f	0.40216395
41	0xbf0b97a5	-0.54528266
42	0x3f17ff08	0.5937352
43	0xbf0359c1	-0.5130883
44	0x3b19d0ce	0.0023470405
45	0xbe1084cc	-0.14113158
46	0xbe1d6930	-0.15372157
47	0xbde67da7	-0.11254435
48	0xbf0ff4fd	-0.562332
49	0x3f455646	0.7708477
50	0xbea63dc8	-0.3246901
51	0x3f0c6afc	0.54850745
52	0xbef9b8a3	-0.4877368
53	0x3eda7749	0.42669132
54	0x3ed11741	0.40838054
55	0x3f09b496	0.5379118
56	0x3ce626b3	0.028094625
57	0x3f85af48	1.0444117
58	0xbf00c538	-0.5030093
59	0xbeda3506	-0.4261858
60	0x3ee1d0cc	0.44104612
61	0xbe9e23db	-0.3088673
62	0x3dee5798	0.11637801
63	0xbc65beff	-0.014022588
64	0xbe514cbe	-0.20439431
65	0x3ef30d62	0.47471148
66	0xbe7e2101	-0.24817277
67	0xbe8d6576	-0.2761647
68	0xbf05017b	-0.51955384
69	0x3eb86099	0.36011198
70	0x3e9d80ee	0.30762428
71	0x3ce43eff	0.02786207
72	0x3ee63aea	0.44966823
73	0x3d7ed288	0.062212497
74	0x3ef17727	0.4716122
75	0xbf34282d	-0.70373803
76	0x3e934497	0.28763267
77	0xbedc6a1b	-0.43049702
78	0xbf372860	-0.7154598
79	0xbee5fa4c	-0.44917524
80	0xbe1c9044	-0.15289408
81	0x3e1cf496	0.15327677
82	0xbce46a24	-0.027882643
83	0xbe596d40	-0.21233082
84	0x3e8ad5b9	0.27116182
85	0x3e0c0d4e	0.1367695
86	0x3da0d1f3	0.07852545
87	0xbdb1e200	-0.08685684
88	0xbef804e8	-0.48441243
89	0x3cbbc7ce	0.022922423
90	0xbe88517c	-0.26624668
91	0x3ed07ed1	0.40721753
92	0xbe8dd28f	-0.27699706
93	0x3e3a24f8	0.18178165
94	0x3e591816	0.21200594
95	0x3e8bc53b	0.27298912
96	0x3e4b4b45	0.19852932
97	0x3e4f0c3a	0.20219508
98	0xbe038809	-0.12844862
99	0xbef1258d	-0.4709896
100	0x3e8f2723	0.27959546
101	0xbe9c8ec4	-0.30577672
102	0xbf0f35a7	-0.5594124
103	0xbd31a4af	-0.043369945
104	0x3e020769	0.12698139
105	0xbf9482a4	-1.1602368
106	0x3f03165d	0.51206
107	0xbdc8ab52	-0.09798302
108	0x3ea346fc	0.31890094
109	0x3e965569	0.29362038
110	0xbe04e99a	-0.12979737
111	0xbeba873f	-0.3643131
112	0xbe302905	-0.17203148
113	0x3f575c32	0.84125054
114	0xbe6d5f3e	-0.23180863
115	0xbe16d1b3	-0.14728431
116	0xbe7d9954	-0.24765521
117	0x3d037344	0.032092348
118	0xbe850e83	-0.25987634
119	0x3eb5fc38	0.3554399
120	0xbed792ee	-0.42104286
121	0x3e834096	0.25635213
122	0xbe15b65d	-0.14620347
123	0xbdb26c5f	-0.087120764
124	0xbd6985e6	-0.05701246
125	0x3e0aebdc	0.13566536
126	0x3e18de0e	0.14928457
127	0x3ec1b759	0.37835196
128	0x3df373d8	0.1188733
129	0xbf19ae37	-0.60031456
130	0x3e49a0bf	0.19690226
131	0x3d0f60b0	0.035004318
132	0x3d843345	0.064550914
133	0xbe1339bb	-0.14377491
134	0xbe85bbf9	-0.26119974
135	0x3e26f9a9	0.16306175
136	0x3cecf499	0.028925227
137	0x3c274c0e	0.010211004
138	0x3f2e331f	0.68046755
139	0x3ec1e0e7	0.378669
140	0x3e22572a	0.15853563
141	0x3efd5e55	0.49486032
142	0xbeffeacc	-0.49983823
143	0x3e3e9fcb	0.18615644
144	0x3f0b58b9	0.54432255
145	0x3e1b31d3	0.15155725
146	0x3ec087fd	0.3760375
147	0xbdbfdfa4	-0.09368828
148	0x3ea6ce17	0.3257911
149	0x3e8cd727	0.27507898
150	0xbeb189d8	-0.3467548
151	0x3e2e1c22	0.1700292
152	0x3e5b1dcb	0.21398084
153	0xbda3d19e	-0.07998966
154	0x3ea8ec53	0.329928
155	0xbe91be85	-0.28465667
156	0x3eb64ea4	0.35606873
157	0xbe9a74e9	-0.3016732
158	0xbf041fb6	-0.5161089
159	0xbf28b751	-0.6590472
160	0xbf1cfeb8	-0.6132617
161	0xbe8e6c3b	-0.27816948
162	0x3d82aac1	0.06380225
163	0x3eaf17ae	0.34197754
164	0xbe9a133e	-0.30092806
165	0x3fe8da45	1.819161
166	0x3f16338d	0.5867241
167	0x3e3e0295	0.18555672
168	0x3df3d5b5	0.11905996
169	0xbfa46a2d	-1.2844902
170	0x3f8389d3	1.0276436
171	0xbe4d5f06	-0.2005578
172	0xbd426c3e	-0.04746651
173	0x3d26814f	0.040650662
174	0xbec49f1b	-0.38402638
175	0xbe0d3703	-0.13790517
176	0xbdb6fbc5	-0.0893474
177	0x3f1e9129	0.61940247
178	0xbf0e5639	-0.55600315
179	0x3e8f272e	0.2795958
180	0xbee3f829	-0.4452527
181	0x3eae00b6	0.33984917
182	0xbdcc6f38	-0.09982151
183	0x3e89d52c	0.2692045
184	0x3f595fe6	0.84911954
185	0x3e929e65	0.2863647
186	0x3e8d2faf	0.27575442
187	0xbeefbf27	-0.46825525
188	0x3e64ae6f	0.22332166
189	0xbfa7247c	-1.3058009
190	0xbfb20827	-1.3908738
191	0xbe876834	-0.26446688
192	0xbe11ac65	-0.1422592
193	0xbecd830f	-0.40139052
194	0x3e25f4ba	0.16206637
195	0xbe3b2adb	-0.18278067
196	0xbef7ea9b	-0.48421177
197	0x3ea505fb	0.32231125
198	0x3e4eb5c4	0.20186526
199	0xbe67af68	-0.22625506
200	0x3ef7ea5a	0.48420984
201	0xbd55fba9	-0.052241955
202	0x3f07d60d	0.5306099
203	0xbf197155	-0.59938556
204	0x3f05c54e	0.5225419
205	0xbf1b9ea7	-0.6078896
206	0xbec89f23	-0.39183912
207	0xbf12d450	-0.57355213
208	0x3e45b17a	0.19305983
209	0xbb15eec3	-0.0022877909
210	0x3e928f19	0.286248
211	0xbf41f97c	-0.7577131
212	0x3f8fc616	1.1232326
213	0xbed167fb	-0.40899643
214	0xbe73019a	-0.2373108
215	0xbf6b9fe8	-0.9204087
216	0xbdb9af0b	-0.0906659
217	0x3f8c892b	1.097936
218	0xbe270c39	-0.16313256
219	0x3d361970	0.044457853
220	0xbe2673f7	-0.16255175
221	0xbe07dd5d	-0.13268037
222	0xbbb67a1e	-0.0055687567
223	0x3dd98afc	0.10622212
224	0x3e4c0a8e	0.19925901
225	0x3f5f7bcc	0.87298274
226	0xbed211c6	-0.41029185
227	0x3eb4b684	0.35295498
228	0x3dc2b654	0.095074326
229	0x3ddb9e41	0.10723544
230	0xbeb6c091	-0.35693792
231	0x3e84e91a	0.25959092
232	0xbe034b67	-0.12821732
233	0xbfbd8fa3	-1.480946
234	0x3eab46a9	0.33452347
235	0x3d214e20	0.039381146
236	0x3e15d2bd	0.14631172
237	0x3de19067	0.11013871
238	0xbdfd2d47	-0.123621516
239	0xbd556bf5	-0.05210491
240	0x3eb4dc39	0.35324267
241	0xbed9e951	-0.4256082
242	0x3e63b6d1	0.22237708
243	0x3e3fd9cb	0.18735425
244	0x3dff91eb	0.124790035
245	0xbe69a0f2	-0.22815302
246	0xbcb16127	-0.021652771
247	0xbf16e471	-0.58942324
248	0x3d9074ff	0.07053565
249	0xbf345d89	-0.70455223
250	0x3f4d6eae	0.8024701
251	0x3eb71fe6	0.35766524
252	0x3ca9d616	0.020731967
253	0xbde253b0	-0.110511184
254	0x3e92e45a	0.28689843
255	0xbec672ff	-0.3875961

encoder_variable_selection.single_variable_grns.VaccinationFull.gate_norm.glu.fc.bias f4 [32]
0	0x3dfc28b9	0.12312455
1	0x3d46de4e	0.04855185
2	0xbe037f7f	-0.12841605
3	0xbf2137f8	-0.62976027
4	0xbed09381	-0.40737537
5	0xbe8b01d8	-0.27149844
6	0x3ebeb467	0.3724701
7	0x3f16c021	0.58886915
8	0x3e60df94	0.21960288
9	0x3e8e6778	0.27813315
10	0x3e48c5f6	0.19606766
11	0x3ddba3d9	0.10724611
12	0xbc1ce45e	-0.009575931
13	0xbe331ae1	-0.17490722
14	0x3da45c6f	0.08025443
15	0xbdb856d7	-0.090009384
16	0xbf1bc6ba	-0.6085011
17	0xbec5a273	-0.386005
18	0xbf0c272a	-0.5474726
19	0x3cd9b903	0.026577478
20	0xbd8a2257	-0.06744831
21	0xbfb28861	-1.394787
22	0x3f087cdf	0.5331554
23	0xbdb6fc84	-0.08934882
24	0xbe0290a4	-0.12750489
25	0x3d9b596b	0.075854145
26	0xbd0d07fc	-0.034431443
27	0x3f018978	0.50600386
28	0x3e84e4be	0.25955766
29	0xbf9cc5a5	-1.2247816
30	0xbf0e6e5a	-0.55637133
31	0xbf948f21	-1.160618

encoder_variable_selection.single_variable_grns.VaccinationFull.gate_norm.add_norm.norm.weight f4 [16]
0	0xbe5212bb	-0.20514958
1	0x3f249e82	0.64304364
2	0x3f7d6499	0.98981625
3	0x3fb46080	1.409195
4	0x3f77a701	0.967392
5	0x3f3035b5	0.6883195
6	0x3f8199d1	1.0125066
7	0x3f989bfd	1.1922604
8	0x3f3ee6d3	0.7457096
9	0x3f6096bf	0.8773002
10	0x3d2ba8c9	0.041909013
11	0x3f9d4e0f	1.2289447
12	0x3f219861	0.63123137
13	0x3f8d16b0	1.1022549
14	0x3f3544cf	0.7080812
15	0x3ee1f700	0.4413376

encoder_variable_selection.single_variable_grns.VaccinationFull.gate_norm.add_norm.norm.bias f4 [16]
0	0xbd33e49c	-0.04391919
1	0x3e4feaeb	0.20304458
2	0x3dc500a5	0.096192636
3	0x3d658ed8	0.05604443
4	0x3e07cd0e	0.13261816
5	0x3d5b04a9	0.05347124
6	0xbe89d482	-0.26919943
7	0xbd3796a6	-0.044821404
8	0xbdf3da16	-0.11906831
9	0xbe31e862	-0.17373803
10	0xbd021c91	-0.031765524
11	0x3e648787	0.22317325
12	0xbe8d1481	-0.27554706
13	0xbd085f39	-0.033293936
14	0x3d2f19b0	0.042749107
15	0xbd0d18e7	-0.034447577

encoder_variable_selection.single_variable_grns.Cases.resample_norm.mask f4 [16]
0	0x3d90c31c	0.07068464
1	0x3d2f8bff	0.04285812
2	0xbfab9dcb	-1.340753
3	0xbe990b3e	-0.2989139
4	0x3d8aa8d5	0.067704834
5	0x3e8d4838	0.2759416
6	0xbf119883	-0.5687334
7	0xbef5d4cf	-0.48013923
8	0xbf891708	-1.0710154
9	0x3f5725db	0.8404214
10	0x3e9dc987	0.30817816
11	0xbe4d0fd4	-0.20025569
12	0xbf81db70	-1.0145092
13	0xbf55f420	-0.8357563
14	0x3ed03b38	0.4067018
15	0x3e1eafb0	0.15496707

encoder_variable_selection.single_variable_grns.Cases.resample_norm.norm.weight f4 [16]
0	0x3f8b6e64	1.0893064
1	0x3fbc4cff	1.4710997
2	0x3f2e72c5	0.68143874
3	0x3f766666	0.9625
4	0x3f8eebdb	1.1165727
5	0x3fafadf9	1.3724967
6	0x3f9e0dc3	1.234795
7	0x3f9485ab	1.1603292
8	0x3f4afd45	0.7929271
9	0x400042b4	2.0040712
10	0x3fbf28a1	1.4934274
11	0x3f851009	1.0395519
12	0x3e30a7d9	0.17251529
13	0x3ecefdc4	0.40427983
14	0x3fdbce8d	1.7172409
15	0x3fb061c0	1.3779831

encoder_variable_selection.single_variable_grns.Cases.resample_norm.norm.bias f4 [16]
0	0x3e14656a	0.14491811
1	0x3e4d4322	0.2004514
2	0xbf07d79a	-0.53063357
3	0xbee0964e	-0.43864673
4	0xbd86d64d	-0.065838434
5	0xbe5be914	-0.21475631
6	0xbe8162c0	-0.25270653
7	0xbb80244f	-0.0039105783
8	0xbd5683cd	-0.05237179
9	0x3d595618	0.05306062
10	0x3ea01aa9	0.3127034
11	0xbe80dcf4	-0.25168574
12	0x3e01e952	0.12686661
13	0xbd8c86e5	-0.068616666
14	0x3e385052	0.1799939
15	0x3ea8afc5	0.32946602

encoder_variable_selection.single_variable_grns.Cases.fc1.weight f4 [8, 8]
0	0xbcfc6fbc	-0.030814998
1	0x3fcf709d	1.6206242
2	0x3e350996	0.17679438
3	0xbf67eeb6	-0.9059862
4	0xbf2328b7	-0.63734
5	0x3ece34eb	0.40274748
6	0xbe587f1b	-0.21142237
7	0xbef6e140	-0.48218727
8	0x3f10bf9a	0.5654236
9	0x3f2f0403	0.68365496
10	0xbe96b3af	-0.29433963
11	0xc0337956	-2.8042808
12	0xbf9e6a66	-1.237622
13	0x3e42227e	0.1895847
14	0x3e2efaca	0.17087856
15	0x3c6d1ee4	0.014472697
16	0x3f902d57	1.1263837
17	0x3da1909f	0.078889124
18	0xbd17ee99	-0.03709278
19	0x3c84ce03	0.016211515
20	0xbd4aeaac	-0.049540207
21	0x3dc3ae86	0.09554772
22	0xbf5ad260	-0.85477257
23	0x3f237935	0.6385682
24	0xbf1ab63d	-0.60434324
25	0xbda8c4f2	-0.08240689
26	0x3f55c953	0.8351032
27	0x3ee4c58e	0.44681972
28	0x3f43d41c	0.7649553
29	0x3e922212	0.2854162
30	0x3e82a5de	0.25517172
31	0x3f11e438	0.5698886
32	0xbe4f4e6f	-0.20244764
33	0xbe4249b1	-0.18973424
34	0x3e04643d	0.12928863
35	0x3dc1c8c9	0.09462125
36	0x3e30931f	0.17243622
37	0x3f08a8f3	0.53382796
38	0x3e46091b	0.19339411
39	0x3e81c593	0.2534605
40	0xbe4457cd	-0.19174118
41	0x3e861133	0.26184997
42	0x3e514377	0.20435892
43	0xbfcc695c	-1.5969653
44	0xbf4c4c79	-0.7980419
45	0x3ed04b4f	0.40682456
46	0x3e079bfa	0.13243094
47	0x3f34f0e0	0.70680046
48	0x3ea05b2b	0.31319556
49	0x3e8b36ee	0.27190346
50	0xbca7b335	-0.020471195
51	0x3e83ae5d	0.25718966
52	0xbfa15aff	-1.2605895
53	0x3e32cb92	0.17460468
54	0x3eba338b	0.3636745
55	0xbe1b6a27	-0.15177213
56	0x3ea69821	0.3253794
57	0xbf1bf15d	-0.60915166
58	0xbf43608a	-0.7631918
59	0xbf0efafc	-0.5585172
60	0x3d93a3e7	0.07208996
61	0xbea67fc1	-0.32519343
62	0xbf63a1c1	-0.8891869
63	0x3fdba44b	1.7159513

encoder_variable_selection.single_variable_grns.Cases.fc1.bias f4 [8]
0	0xbebfea53	-0.37483463
1	0xbedbfef7	-0.4296796
2	0x3d7af6af	0.061270412
3	0xbe0df3d7	-0.13862549
4	0x3d14024b	0.036135
5	0xbe528b33	-0.20560913
6	0xbf17f5e7	-0.5935959
7	0xbda5fd50	-0.08104956

encoder_variable_selection.single_variable_grns.Cases.fc2.weight f4 [8, 8]
0	0xbe7cf870	-0.24704146
1	0x3f6cff3d	0.9257696
2	0xbe821810	-0.25408983
3	0xbe8c400a	-0.27392608
4	0x3e818734	0.25298464
5	0xbe558341	-0.2085085
6	0x3f19c854	0.600713
7	0xbe72ab18	-0.2369808
8	0xbebb2c64	-0.36557305
9	0x3dda1e56	0.10650317
10	0x3cfd2a04	0.030903824
11	0xbec8ccd4	-0.3921877
12	0x3e87088a	0.26373702
13	0x3dfff2b7	0.12497466
14	0xbdd87937	-0.10569995
15	0xbf9b0207	-1.2109994
16	0xbc28dad4	-0.010306079
17	0xbf2ff6b7	-0.6873583
18	0xbf58b3ec	-0.8464954
19	0x3dc3a855	0.09553591
20	0x3edee626	0.43534964
21	0xbe83caa8	-0.25740552
22	0xbeac6f22	-0.33678538
23	0x3f718887	0.9434895
24	0xbed29988	-0.4113276
25	0xbf2082f1	-0.626998
26	0xbe9d7f90	-0.30761385
27	0xbf69af9f	-0.912836
28	0x3ec416d7	0.38298675
29	0xbf269663	-0.6507322
30	0xbf0102ad	-0.5039471
31	0xbd0833e9	-0.03325263
32	0x3f2a77a1	0.6658879
33	0x3f35e03f	0.710453
34	0x3dd991c5	0.106235065
35	0x3ee896b5	0.4542748
36	0x3ee43c37	0.4457719
37	0xbdd64a02	-0.104633346
38	0x3e818611	0.25297597
39	0x3f25fc0f	0.64837736
40	0x3ee0c9fa	0.43904096
41	0x3dc1c0f6	0.094606325
42	0x3f7692f8	0.96318007
43	0x3f0a5715	0.54039127
44	0xbe7308e1	-0.23733856
45	0x3e27a385	0.16370972
46	0x3e281bb5	0.1641682
47	0x3f028ee1	0.50999266
48	0xbf4a08cf	-0.7891969
49	0xbf1f3ba2	-0.6220037
50	0xbebbfcb2	-0.3671623
51	0x3ebf36bb	0.37346444
52	0xbdffb711	-0.12486089
53	0xbe8ffbeb	-0.28121886
54	0x3ef1e786	0.4724695
55	0xbe168eb3	-0.14702873
56	0x3ea2a911	0.31769612
57	0x3f485fed	0.7827137
58	0xbd9581b9	-0.07300133
59	0xbdabd244	-0.08389714
60	0x3e00f3c0	0.12592983
61	0x3c55b3d4	0.013043363
62	0xbea23534	-0.31681216
63	0xbce715d3	-0.028208649

encoder_variable_selection.single_variable_grns.Cases.fc2.bias f4 [8]
0	0xbe08f044	-0.13372904
1	0x3e484b71	0.19560029
2	0x3cf2c8f3	0.029636836
3	0x3dd81226	0.105503365
4	0x3d97d4e1	0.0741365
5	0xbce79cc6	-0.028272998
6	0xbcb45305	-0.022012243
7	0xbe23806a	-0.15966955
