TFT-pytorch-age-and-vaccination/results/age_groups_4049/checkpoints/best-epoch=7.ckpt (torch, 436013 bytes, 506 tensors)

prescalers.AGE4049.weight f4 [8, 1]
0	0x3e29ed81	0.16594507
1	0xbf3359d8	-0.70058966
2	0x3e0824d6	0.13295302
3	0x3ead8abb	0.33894905
4	0xbf171e48	-0.5903058
5	0xbb75e40e	-0.0037519964
6	0xbf15501e	-0.58325374
7	0x3eaeddf2	0.34153706

prescalers.AGE4049.bias f4 [8]
0	0xbe5c931b	-0.21540491
1	0x3f40f201	0.7536927
2	0x3f0a2751	0.5396624
3	0xbb436adf	-0.0029818339
4	0xbeae719b	-0.3407105
5	0xbf0b892d	-0.5450619
6	0xbcf02a69	-0.029317098
7	0xbe6936b6	-0.22774777

prescalers.SinWeekly.weight f4 [8, 1]
0	0x3e5ce996	0.21573481
1	0xbf76393b	-0.96181077
2	0x3f811f87	1.0087746
3	0xbf4c2490	-0.7974329
4	0x3f467e8b	0.7753684
5	0xbe65f53e	-0.22456834
6	0x3f246dcb	0.6423003
7	0x3eeab7de	0.45843405

prescalers.SinWeekly.bias f4 [8]
0	0x3d957c60	0.07299113
1	0xbb34fd3c	-0.002761676
2	0x3f19d224	0.60086274
3	0x3e5a9cfe	0.2134895
4	0x3f10a6d3	0.56504554
5	0xbf2f95a8	-0.6858773
6	0x3f34e004	0.7065432
7	0x3eb95812	0.36200005

prescalers.VaccinationFull.weight f4 [8, 1]
0	0x3e640534	0.2226761
1	0x3bdbd31f	0.006708517
2	0x3eca8bc8	0.3955977
3	0x3f762bfe	0.96160877
4	0xbe0613c5	-0.13093479
5	0xbf014762	-0.50499547
6	0xbe3b33d6	-0.18281493
7	0xbf15ab5a	-0.58464587

prescalers.VaccinationFull.bias f4 [8]
0	0x3f0ec5c6	0.5577053
1	0xbef5e387	-0.48025152
2	0xbf0c2d3a	-0.5475651
3	0x3f6d64f0	0.92732143
4	0x3f58d976	0.8470682
5	0x3da7bd32	0.08190383
6	0xbe9ffa12	-0.31245476
7	0xbdfe7dac	-0.12426314

prescalers.Cases.weight f4 [8, 1]
0	0x3f180c0d	0.5939339
1	0xbf82da9c	-1.0222964
2	0xbf743927	-0.9539971
3	0x3f0eea5d	0.5582636
4	0x3f956b39	1.1673347
5	0xbccadbe6	-0.024763059
6	0xbf439dde	-0.7641276
7	0x3ebf2f31	0.37340692

prescalers.Cases.bias f4 [8]
0	0xbeec8b1f	-0.4619989
1	0xbcf67750	-0.03008619
2	0x3edb992f	0.42890307
3	0x3e82dc6d	0.25558797
4	0x3db3389b	0.08751031
5	0x3d0208b7	0.031746592
6	0x3c67c0b3	0.014145064
7	0xbf584712	-0.84483445

static_variable_selection.single_variable_grns.AGE4049.resample_norm.mask f4 [16]
0	0xbcfe1d97	-0.031019969
1	0xbca7919b	-0.020455172
2	0x3e09c8ad	0.13455458
3	0x3d11dae6	0.03560915
4	0xbcdd128b	-0.026986381
5	0xbe14670e	-0.14492437
6	0xbd5518c7	-0.052025583
7	0x3d04b3c8	0.032398015
8	0xbd9ad7d2	-0.07560696
9	0x3d16d521	0.03682435
10	0xbc2d7f2c	-0.010589402
11	0x3d8116a5	0.06303147
12	0xbcccf301	-0.025018217
13	0xbc4377eb	-0.011930446
14	0xbd0ec6e3	-0.034857642
15	0x3d26b07a	0.040695645

static_variable_selection.single_variable_grns.AGE4049.resample_norm.norm.weight f4 [16]
0	0x3f8b2fbf	1.0873946
1	0x3f7bf180	0.98415375
2	0x3f8de52a	1.108556
3	0x3f830018	1.0234404
4	0x3f7f5aca	0.9974791
5	0x3f62d771	0.8860999
6	0x3f7a5c4a	0.9779707
7	0x3f8ad2c7	1.0845574
8	0x3f703547	0.93831295
9	0x3f850afc	1.0393977
10	0x3f80bc66	1.0057495
11	0x3f8d9f92	1.1064322
12	0x3f79db91	0.97600657
13	0x3f7dc8e2	0.9913465
14	0x3f71302f	0.9421415
15	0x3f899940	1.0749893

static_variable_selection.single_variable_grns.AGE4049.resample_norm.norm.bias f4 [16]
0	0x3d8ba537	0.068186216
1	0x3b73beab	0.0037192504
2	0x3d264089	0.04058889
3	0x3c894c3c	0.016759984
4	0xbb9b9aac	-0.004748663
5	0xbdd01020	-0.101593256
6	0xbdf047d1	-0.11732448
7	0xbd66b795	-0.05632742
8	0x3cfb7f56	0.030700367
9	0xbb276017	-0.0025539452
10	0x3c37ad1b	0.011210705
11	0xbdf44754	-0.11927667
12	0xba89c148	-0.0010509873
13	0xbbb30586	-0.005463305
14	0x3d98ac2b	0.074547134
15	0x3d87428d	0.066044904

static_variable_selection.single_variable_grns.AGE4049.fc1.weight f4 [8, 8]
0	0x3ecb6d48	0.39731812
1	0xbf098d3f	-0.5373115
2	0xbf0a1070	-0.5393133
3	0xbefe6035	-0.49682775
4	0xbe77b7df	-0.24191235
5	0xbfb390e1	-1.4028589
6	0x3e8d11cf	0.2755265
7	0xbefba5d7	-0.49149963
8	0xbf0af80b	-0.54284734
9	0xbf6e5055	-0.93091327
10	0xbe864dcc	-0.2623123
11	0x3f12342c	0.5711086
12	0xbe198409	-0.14991774
13	0xbeb284f3	-0.34867057
14	0x3f3a6ec2	0.72825253
15	0x3c9ed45d	0.019388372
16	0x3e2a5bc1	0.16636564
17	0x3edd8c49	0.43271092
18	0x3f25403e	0.6455115
19	0xbe637da2	-0.22215894
20	0x3d4cbd03	0.049984943
21	0xbe8e7fe9	-0.27831963
22	0x3e91c1fe	0.28468317
23	0xbed4d882	-0.41571432
24	0xbf2017bc	-0.62536216
25	0xbdf7eadf	-0.12105345
26	0xbd2555ce	-0.040365033
27	0xbed533c1	-0.41641048
28	0xbe5bfb7d	-0.21482654
29	0x3e29ad78	0.1657008
30	0xbe082086	-0.13293657
31	0x3f2e01f2	0.6797172
32	0xbeae55e7	-0.34049913
33	0x3ec32cb1	0.38120034
34	0xbe0b1703	-0.13582997
35	0xbd790fa6	-0.06080594
36	0xbee83b40	-0.45357704
37	0x3f6fa43b	0.9360997
38	0x3e3f56ff	0.1868553
39	0x3e1587f0	0.14602637
40	0x3e76a5aa	0.24086633
41	0xbd613d0c	-0.05498986
42	0xbe1dd795	-0.1541427
43	0x3d877af3	0.066152476
44	0x3eb777bf	0.35833547
45	0xbeeba0e1	-0.46021178
46	0x3d0bc0a4	0.034119263
47	0xbe6799a5	-0.22617204
48	0xbd84118f	-0.064486615
49	0xbf2c048e	-0.6719445
50	0xbe7dcd42	-0.24785331
51	0x3e861948	0.26191163
52	0x3eb57e26	0.35447806
53	0x3fa8d6dd	1.3190571
54	0x3eb2e6e3	0.34941778
55	0xbe0be19b	-0.1366028
56	0xbf32a750	-0.6978655
57	0xbf09c937	-0.53822654
58	0xbdec7b95	-0.11547009
59	0x3ee27e2e	0.44236892
60	0x3d175ea5	0.036955494
61	0xbee64af1	-0.4497905
62	0x3ea514bc	0.32242382
63	0x3ddff17b	0.109347306

static_variable_selection.single_variable_grns.AGE4049.fc1.bias f4 [8]
0	0xbdda96ba	-0.1067328
1	0x39a6bf64	0.00031804584
2	0xba4b47c1	-0.00077545276
3	0xbb4b3d31	-0.0031011815
4	0x3d70e37e	0.058810703
5	0x3d7e42ae	0.06207531
6	0x3d9b5f3d	0.07586525
7	0x3cca8239	0.024720298

static_variable_selection.single_variable_grns.AGE4049.fc2.weight f4 [8, 8]
0	0xbcc72967	-0.024311734
1	0x3f342a0a	0.70376647
2	0x3df8a2ce	0.121404275
3	0xbe8cff56	-0.27538556
4	0x3e6a40a9	0.22876228
5	0xbedafc21	-0.42770484
6	0x3f3eddc9	0.7455717
7	0x3f5fcfee	0.8742665
8	0xbed4617e	-0.4148063
9	0xbf14e7d0	-0.5816622
10	0x3e9a74ed	0.30167332
11	0xbe05ed6b	-0.13078849
12	0x3e1e01ac	0.15430325
13	0xbd03b17c	-0.032151684
14	0x3e96bec8	0.2944243
15	0x3d453c94	0.048153475
16	0xbe5fa443	-0.21840005
17	0x3ecb30ab	0.39685568
18	0xbdafa30a	-0.08576019
19	0x3e0869b0	0.13321567
20	0x3e4e7bcf	0.20164417
21	0xbef07430	-0.46963644
22	0xbe888a32	-0.26667935
23	0x3f277d3b	0.6542546
24	0x3f4b59bb	0.7943379
25	0x3b9f45ae	0.0048606014
26	0x3efe501d	0.49670497
27	0xbee145d8	-0.439986
28	0xbc8fbbf1	-0.017545672
29	0xbdbde809	-0.09272773
30	0x3f263554	0.6492512
31	0xbf3c0759	-0.7344871
32	0x3eae6d25	0.34067646
33	0xbea5936b	-0.32339033
34	0x3e1dd807	0.15414439
35	0x3e625c40	0.22105503
36	0x3ec31afe	0.3810653
37	0x3e115e4c	0.14196128
38	0x3f0961c6	0.53664815
39	0x3d5ef133	0.054429244
40	0x3e5f57b0	0.21810794
41	0xbe0d1b81	-0.13780023
42	0xbf03cff2	-0.51489174
43	0xbca797cd	-0.020458126
44	0x3eaf7637	0.34269878
45	0xbda89405	-0.082313575
46	0xbf2cbc46	-0.6747478
47	0x3e6e1dd7	0.2325357
48	0xbf3edcd8	-0.7455573
49	0x3dd31409	0.10306556
50	0x3c44f3a3	0.012020978
51	0xbbb9349a	-0.0056520225
52	0x3e9f46cc	0.311087
53	0x3e9eca07	0.3101351
54	0xbed4c02e	-0.4155287
55	0xbebf5246	-0.37367457
56	0x3df3908b	0.11892804
57	0x3ed6989e	0.41913313
58	0xbf3665a6	-0.71248853
59	0xbda645d4	-0.081187874
60	0x3d7cecd1	0.061749283
61	0x3c242fa9	0.010021129
62	0x3e99420b	0.299332
63	0xbedb2868	-0.42804265

static_variable_selection.single_variable_grns.AGE4049.fc2.bias f4 [8]
0	0x3d896fb8	0.06710762
1	0x3dda1432	0.10648383
2	0xbd3933dd	-0.045215476
3	0xbd9705a3	-0.07374122
4	0x3c47b662	0.01218948
5	0xbda7846e	-0.08179556
6	0x3caf4e75	0.021399716
7	0x3c6b665f	0.014367669

static_variable_selection.single_variable_grns.AGE4049.gate_norm.glu.fc.weight f4 [32, 8]
0	0xbd58dd6c	-0.05294554
1	0x3e8980c2	0.26856047
2	0xbe52e5f3	-0.20595531
3	0xbe5d7de5	-0.21630056
4	0x3d92c0e2	0.07165696
5	0xbe3b473a	-0.1828889
6	0xbedfc641	-0.43705943
7	0x3e028bd0	0.12748647
8	0xbd918dc1	-0.071071155
9	0x3e3480c8	0.17627251
10	0xbd0de2b5	-0.034640033
11	0x3eab4375	0.33449903
12	0xbe35ac66	-0.17741546
13	0x3e8a9703	0.27068338
14	0xbe7d8bcd	-0.24760361
15	0xbe06a9b8	-0.1315068
16	0x3e8ae41b	0.27127156
17	0x3dcd29a6	0.100177094
18	0xbe873abc	-0.26411998
19	0xbd0fa542	-0.03506971
20	0x3e423405	0.18965156
21	0xbe973087	-0.2952921
22	0xbca1e3f1	-0.019762011
23	0x3e240c52	0.16020325
24	0xbe7c42d1	-0.24634863
25	0x3e263c3f	0.1623392
26	0xbea8b5f8	-0.3295133
27	0xbe9ddabc	-0.30830944
28	0x3d8baa86	0.06819634
29	0xbeb15fc5	-0.3464338
30	0xbe05fc4e	-0.13084528
31	0x3e51500e	0.20440695
32	0xbdadfa09	-0.08494956
33	0xbe985422	-0.29751688
34	0x3e52166b	0.20516364
35	0xbed8c8bc	-0.42340648
36	0x3d861d7b	0.06548592
37	0xbe804388	-0.25051522
38	0xbe679cfe	-0.22618482
39	0x3d99b998	0.07506102
40	0x3ef02764	0.46905053
41	0xbd8744ee	-0.06604944
42	0xbe8011fe	-0.25013727
43	0xbc31ea49	-0.010859081
44	0xbda7211d	-0.08160613
45	0xbe74e37f	-0.23914908
46	0x3e652761	0.22378303
47	0x3e899595	0.26871935
48	0xbdfc4fdf	-0.12319922
49	0xbe2ba7a5	-0.1676317
50	0x3e4c1fda	0.19934025
51	0xbdbbd717	-0.091718845
52	0xbb9617ba	-0.004580465
53	0xbe09867a	-0.13430205
54	0x3e0e9375	0.13923438
55	0x3ebc1245	0.3673269
56	0x3ea06601	0.31327823
57	0x3e45aa32	0.19303206
58	0x3d8d0f4d	0.06887684
59	0xbd7b5232	-0.061357684
60	0xbdfa8b08	-0.12233549
61	0xbca6cca1	-0.020361247
62	0x3d2677cf	0.040641602
63	0x3d9bd78c	0.07609472
64	0xbe91699e	-0.28400892
65	0xbe8c691c	-0.27423942
66	0x3e647f32	0.22314146
67	0x3e9896b0	0.29802465
68	0x3ea952c9	0.33070973
69	0x3e6ae218	0.2293781
70	0x3e8976d1	0.26848462
71	0x3df1e95a	0.118120864
72	0x3e66b79a	0.22530976
73	0x3d8f9e45	0.070126094
74	0xbc83e62b	-0.016100964
75	0x3e741607	0.23836528
76	0x3dc658fe	0.09684943
77	0xbdc364bc	-0.09540698
78	0xbe060157	-0.13086449
79	0xbe7919f8	-0.24326313
80	0xbe667354	-0.22504932
81	0x3d8c38c3	0.06846764
82	0x3eb5fbb5	0.355436
83	0xbd017d4f	-0.031613644
84	0xbe98ba51	-0.29829648
85	0xbeb3b35b	-0.35097775
86	0x3e05a770	0.13052154
87	0x3e156994	0.14591056
88	0xbdd6425b	-0.10461875
89	0xbe1f024d	-0.15528221
90	0x3ea3333e	0.31875032
91	0xbec9fe1e	-0.3945169
92	0x3e842a21	0.25813392
93	0xbd2e2d9d	-0.04252397
94	0xbdf70a2c	-0.12062487
95	0x3edebf54	0.43505347
96	0xbe6bcc62	-0.23027185
97	0x3ebb16d2	0.36540848
98	0x3e121b3a	0.14268199
99	0x3e10bfe4	0.141357
100	0x3e84087f	0.25787732
101	0x3d14b03a	0.036300875
102	0x3ea60279	0.3242376
103	0x3d9deed5	0.07711569
104	0xbeb5db77	-0.35519
105	0xbd4a80db	-0.049439292
106	0xbc7e452e	-0.015519423
107	0x3e9da9cd	0.3079361
108	0xbda688b4	-0.08131543
109	0x3d37fcdb	0.044918876
110	0x3e0a2bbf	0.1349325
111	0x3d2b0bef	0.041759428
112	0xbeca8c66	-0.3956024
113	0x3f02ca44	0.5108988
114	0xbe8bce77	-0.27305958
115	0x3e327d4f	0.17430614
116	0xbe08b40a	-0.1334993
117	0x3d34c21b	0.044130426
118	0x3eadd138	0.33948684
119	0x3ccfe0f5	0.025375823
120	0xbe5c9928	-0.215428
121	0x3cbec6a3	0.023288077
122	0xbe739213	-0.23786192
123	0x3e983403	0.29727182
124	0x3e1da7c9	0.15396036
125	0x3ebe8079	0.37207392
126	0x3da85686	0.08219628
127	0xbecc7ab9	-0.3993738
128	0xbd8c64ab	-0.068551384
129	0xbef40be5	-0.47665325
130	0x3ee4aaf5	0.4466168
131	0x3e60968b	0.21932428
132	0x3ec31e7a	0.3810919
133	0xbe59689e	-0.21231315
134	0xbdec8a0d	-0.115497686
135	0x3bb0ca2f	0.005395196
136	0x3ec12d29	0.37729767
137	0xbece28df	-0.40265557
138	0xbeaa35c5	-0.33244148
139	0x3e055b7d	0.13023181
140	0x3d49ccae	0.049267463
141	0xbe80a1c4	-0.25123417
142	0xbe5ab107	-0.21356593
143	0xbeb28954	-0.34870398
144	0x3e518cc2	0.20463851
145	0xbe20af9d	-0.15691991
146	0xbd99f425	-0.0751727
147	0x3e1b1e52	0.15148285
148	0xbe812624	-0.2522441
149	0x3ebf5d61	0.3737593
150	0xbdcbb0c7	-0.09945827
151	0x3eb216f9	0.34783152
152	0x3d78d84f	0.060753163
153	0x3e9d9ade	0.30782217
154	0xbe53b4a8	-0.20674384
155	0xbe239a84	-0.15976912
156	0x3cc73b23	0.02432019
157	0x3e2181e7	0.1577221
158	0xbe562612	-0.2091296
159	0x3ef187c4	0.47173893
160	0xbc4df800	-0.012571335
161	0xbe699af7	-0.2281302
162	0xbd3572ef	-0.044299062
163	0x3c64deb7	0.013969115
164	0xbd93c4c0	-0.072152615
165	0xbe73a80d	-0.23794575
166	0xbd57ee94	-0.05271776
167	0x3cead7b6	0.028667312
168	0x3dca97fd	0.09892271
169	0xbc103931	-0.008802698
170	0x3e4c6f1d	0.19964261
171	0x3bbcc27e	0.00576049
172	0x3e7130cc	0.23553771
173	0x3e110470	0.14161849
174	0xbeb389e9	-0.35066155
175	0x3e1d22d8	0.15345323
176	0x3e10b72e	0.14132378
177	0x3ee96215	0.45582643
178	0xbee4e1b9	-0.44703463
179	0x3d13d596	0.036092363
180	0xbead31a3	-0.33826932
181	0xbe6e1e9c	-0.23253864
182	0xbcec6286	-0.028855573
183	0xbe8e1095	-0.27747026
184	0xbe520797	-0.20510708
185	0x3e8d9dda	0.27659494
186	0x3e7193a5	0.23591478
187	0x3e03988a	0.12851158
188	0x3da47489	0.0803004
189	0x3ddc6a0c	0.10762414
190	0x3dbce013	0.09222426
191	0xbea5f8a3	-0.32416257
192	0x3c004e54	0.007831175
193	0x3e84774c	0.25872266
194	0xbd941939	-0.07231373
195	0xbcb7f6bf	-0.022456525
196	0x3ea5267d	0.32255927
197	0x3e4fdb9d	0.2029862
198	0xbcc5a8b9	-0.024128305
199	0x3ed3efc4	0.41393864
200	0xbcbc2dc1	-0.022971036
201	0x3e9681ad	0.2939581
202	0x3e7a82a8	0.24463904
203	0xbd3fa870	-0.046791494
204	0x3f16d778	0.5892253
205	0xbedda5ca	-0.4329055
206	0xbc03b2e0	-0.008038253
207	0x3e9636ee	0.29338783
208	0x3ea76038	0.32690597
209	0xbe8678b6	-0.2626397
210	0x3e6d67e7	0.23184167
211	0xbd6fef7e	-0.058578007
212	0xbe7888a8	-0.2427088
213	0xbdf7a398	-0.1209175
214	0x3de7bbd3	0.113151215
215	0xbe7a8b6f	-0.24467252
216	0xbd888c70	-0.06667411
217	0x3e2a4565	0.16628034
218	0x3e4bfac6	0.19919881
219	0x3ea69c09	0.3254092
220	0xbe3e3609	-0.185753
221	0x3e67bf4b	0.22631566
222	0x3d39d6e7	0.045370962
223	0xbd9465cf	-0.07245981
224	0xbe1abac5	-0.1511031
225	0xbddfb9aa	-0.109240845
226	0x3f1f848a	0.62311614
227	0xbef49cef	-0.4777598
228	0x3da82a2f	0.08211171
229	0x3e6766da	0.22597829
230	0xbd0e0463	-0.034672152
231	0x3ed6c155	0.41944376
232	0xbc884c86	-0.016638052
233	0xbe08352b	-0.13301532
234	0xbea70804	-0.32623303
235	0xbe8efb52	-0.27926117
236	0xbaee8f28	-0.0018200623
237	0x3e1edd80	0.15514183
238	0x3d8bb23b	0.06821104
239	0x3ded2777	0.11579793
240	0x3e81fbf8	0.2538755
241	0x3eb40cdd	0.35166064
242	0xbea6177b	-0.3243979
243	0x3dc0d73b	0.09416052
244	0x3e9a03ac	0.30080926
245	0xbe984f69	-0.29748085
246	0x3e9e9e73	0.30980262
247	0x3de6f02a	0.112762764
248	0x3cef0586	0.029177438
249	0xbe83be24	-0.25731003
250	0xbe361232	-0.17780378
251	0xbeb37815	-0.35052553
252	0x3e2e7515	0.17036851
253	0xbeac1eab	-0.33617148
254	0xbe57c325	-0.21070535
255	0x3ebfc043	0.37451372

static_variable_selection.single_variable_grns.AGE4049.gate_norm.glu.fc.bias f4 [32]
0	0x3d916eb5	0.07101194
1	0xbbcab9a0	-0.006186679
2	0x3d2629e1	0.040567283
3	0x3bb6a9b9	0.0055744317
4	0x3afb83d7	0.0019189072
5	0xbdbc3d4d	-0.0919138
6	0xbde0e0da	-0.10980387
7	0xbd416bb7	-0.047221866
8	0x3ca072fc	0.019586079
9	0xbbdb35be	-0.006689756
10	0x3c217d6b	0.009856562
11	0xbdea4258	-0.11438435
12	0xbc0bd7c6	-0.008535331
13	0xbc80a980	-0.015705824
14	0x3dad452f	0.08460461
15	0x3d82ad3e	0.063806996
16	0xbe58a5a2	-0.21156934
17	0xbd2b055c	-0.041753158
18	0xbda84167	-0.082155995
19	0xbe59d831	-0.21273877
20	0xbc56d874	-0.01311313
21	0x3db412c1	0.087926395
22	0xbb2f852b	-0.0026782255
23	0xbd269b73	-0.04067559
24	0xbdbb5208	-0.091465056
25	0xbe000f62	-0.12505868
26	0xbdab97f5	-0.08378593
27	0x3d56d9c0	0.052453756
28	0xbe3dd058	-0.18536508
29	0xbd800889	-0.06251628
30	0x3d893ee7	0.06701451
31	0x3b5b9b3a	0.003350927

static_variable_selection.single_variable_grns.AGE4049.gate_norm.add_norm.norm.weight f4 [16]
0	0x3f88dc7b	1.0692285
1	0x3f779404	0.9671023
2	0x3f89791c	1.0740085
3	0x3f817eaf	1.0116786
4	0x3f81b6bb	1.013389
5	0x3f66770a	0.9002539
6	0x3f7cf83f	0.98816293
7	0x3f835b82	1.0262301
8	0x3f6dcc25	0.92889625
9	0x3f846eea	1.0346348
10	0x3f7fe05f	0.9995174
11	0x3f8e0f2e	1.1098382
12	0x3f75a567	0.9595551
13	0x3f6ffd20	0.93745613
14	0x3f7f42ed	0.99711496
15	0x3f86c0fa	1.0527642

static_variable_selection.single_variable_grns.AGE4049.gate_norm.add_norm.norm.bias f4 [16]
0	0x3d831c4c	0.064018816
1	0x3c1666a1	0.009179742
2	0x3d3ec813	0.046577524
3	0x3cfa3957	0.03054492
4	0x3c7272a6	0.014797842
5	0xbdac5780	-0.08415127
6	0xbdf2e129	-0.11859352
7	0xbd6a4c90	-0.057201922
8	0x3c9ef0ac	0.01940187
9	0xbba26ef7	-0.0049570757
10	0x3bf9a3a9	0.0076183868
11	0xbe042e71	-0.12908341
12	0xbad3922d	-0.0016141586
13	0xbc8ab132	-0.016930196
14	0x3da11c99	0.07866783
15	0x3d8ce372	0.06879319

static_variable_selection.prescalers.AGE4049.weight f4 [8, 1]
0	0x3e29ed81	0.16594507
1	0xbf3359d8	-0.70058966
2	0x3e0824d6	0.13295302
3	0x3ead8abb	0.33894905
4	0xbf171e48	-0.5903058
5	0xbb75e40e	-0.0037519964
6	0xbf15501e	-0.58325374
7	0x3eaeddf2	0.34153706

static_variable_selection.prescalers.AGE4049.bias f4 [8]
0	0xbe5c931b	-0.21540491
1	0x3f40f201	0.7536927
2	0x3f0a2751	0.5396624
3	0xbb436adf	-0.0029818339
4	0xbeae719b	-0.3407105
5	0xbf0b892d	-0.5450619
6	0xbcf02a69	-0.029317098
7	0xbe6936b6	-0.22774777

encoder_variable_selection.flattened_grn.resample_norm.mask f4 [3]
0	0xbe417867	-0.18893586
1	0xbd037d59	-0.032101963
2	0x3e82235a	0.25417596

encoder_variable_selection.flattened_grn.resample_norm.norm.weight f4 [3]
0	0x3f5f562b	0.87240857
1	0x3f68fb42	0.9100839
2	0x3fbe3844	1.4860921

encoder_variable_selection.flattened_grn.resample_norm.norm.bias f4 [3]
0	0x3e4fd7b7	0.20297132
1	0xbdf4a250	-0.11945021
2	0xbe83622e	-0.25660843

encoder_variable_selection.flattened_grn.fc1.weight f4 [3, 24]
0	0x3eca1e4e	0.39476246
1	0xbe091633	-0.13387375
2	0x3e3285c4	0.1743384
3	0x3ddb697c	0.10713479
4	0x3d8258f8	0.06364626
5	0x3c3fb68f	0.01170124
6	0xbe0cbbdd	-0.13743539
7	0xbe131d85	-0.1436673
8	0xbeaa344b	-0.3324302
9	0x3db52897	0.088456325
10	0x3de38d5c	0.111109465
11	0xbf985381	-1.1900483
12	0xbce4f402	-0.027948383
13	0xbcedb648	-0.029017583
14	0xbcd747cd	-0.026279354
15	0x3d57f8bc	0.052727446
16	0x3f01be73	0.5068123
17	0xbf35ef26	-0.71068037
18	0x3e9270c5	0.2860166
19	0x3c9f68fa	0.019459236
20	0x3dcde078	0.1005258
21	0xbe8470de	-0.2586736
22	0x3dde78fa	0.10862918
23	0x3e7eac42	0.24870399
24	0xbb3dad1a	-0.0028942288
25	0x3e95ad5e	0.2923383
26	0xbec61565	-0.38688198
27	0xbe23d5f2	-0.15999582
28	0x3ddd909f	0.108186
29	0x3d2cd64d	0.04219656
30	0x3dbccf40	0.09219217
31	0x3f17ad2e	0.59248626
32	0xbe36342d	-0.17793341
33	0x3da4aa6d	0.08040319
34	0xbf39b25c	-0.7253778
35	0xbe9773c7	-0.2958052
36	0x3dd27cc3	0.10277703
37	0x3d967241	0.07346011
38	0xbc6409be	-0.013918338
39	0x3e96fc22	0.29489237
40	0x3d09c8ff	0.03363895
41	0x3d035666	0.032064818
42	0xbef624aa	-0.48074847
43	0xbe407952	-0.1879628
44	0xbd4540c2	-0.04815746
45	0x3e1afc12	0.1513522
46	0xbc8ea683	-0.017413383
47	0xbb226aea	-0.0024782964
48	0x3e6711e5	0.2256542
49	0xbea8ac40	-0.32943916
50	0xbdcec768	-0.100966275
51	0x3dfe25f3	0.12409582
52	0x3ed068a1	0.40704826
53	0x3ee146a4	0.43999207
54	0xbd4ffba7	-0.050777104
55	0x3eda9ab2	0.42696148
56	0xbeb53f9a	-0.35400087
57	0x3e6a6791	0.2289107
58	0x3e3b5704	0.18294913
59	0x3ead4782	0.3384362
60	0x3cf699d3	0.030102646
61	0xbd53c20e	-0.051698737
62	0x3e36cc40	0.17851353
63	0x3e254594	0.16139823
64	0x3e28b03e	0.16473481
65	0x3ea70843	0.3262349
66	0xbd5389ae	-0.051644973
67	0xbd789260	-0.06068647
68	0xbe43af98	-0.19109952
69	0xbe778f97	-0.24175869
70	0xbee7c4fd	-0.45267478
71	0x3e020c4e	0.12700006

encoder_variable_selection.flattened_grn.fc1.bias f4 [3]
0	0xbcbc75bf	-0.023005364
1	0xbd096799	-0.033546064
2	0xbde12fe8	-0.109954655

encoder_variable_selection.flattened_grn.context.weight f4 [3, 16]
0	0xbe60278e	-0.21890089
1	0xbe733811	-0.23751856
2	0xbe9ed887	-0.31024572
3	0xbdf2c311	-0.11853612
4	0x3ed15177	0.40882465
5	0xbea3e28e	-0.32008785
6	0x3d19a732	0.037512966
7	0x3e245cd8	0.16051042
8	0xbe9526eb	-0.29131255
9	0x3e3da745	0.1852084
10	0xbdbf20bf	-0.09332418
11	0x3e5b8041	0.21435644
12	0x3eafc547	0.34330198
13	0x3d77f091	0.060532156
14	0xbea58c17	-0.32333443
15	0xbe854a20	-0.26033115
16	0x3f0d6158	0.5522666
17	0xbe15e0dd	-0.1463656
18	0x3eea3ca1	0.4574938
19	0xbee08840	-0.4385395
20	0xbe9c76de	-0.30559438
21	0x3f150507	0.58210796
22	0x3bf3d6c1	0.007441372
23	0xbe9e7f74	-0.30956614
24	0x3cc29a85	0.023755321
25	0xbdb7ba44	-0.08971074
26	0xbee33385	-0.44375244
27	0x3e2cb8be	0.16867349
28	0x3e0b55fc	0.13607019
29	0xbde435e9	-0.11143095
30	0xbed870e3	-0.42273626
31	0x3c70557b	0.014668818
32	0x3e6824e9	0.2267033
33	0xbdf40350	-0.11914694
34	0x3f0af564	0.54280686
35	0xbe885f79	-0.2663534
36	0xbe5a4a0f	-0.21317314
37	0x3ee45030	0.44592428
38	0xbc680a4e	-0.014162613
39	0x3e469e64	0.19396359
40	0xbea49428	-0.32144284
41	0x3edd6bd6	0.43246335
42	0xbc87fe9b	-0.016600898
43	0x3d48f1f4	0.04905887
44	0x3e425ae5	0.18979986
45	0x3d33ab35	0.043864448
46	0xbdfb40ef	-0.122682445
47	0x3ea95607	0.33073446

encoder_variable_selection.flattened_grn.fc2.weight f4 [3, 3]
0	0xbf64d736	-0.89390886
1	0xbf9707c7	-1.1799248
2	0xbe3e1326	-0.18561992
3	0x3a79c57c	0.00095280237
4	0xbf886b4a	-1.0657742
5	0xbe71bbb4	-0.2360676
6	0xbedfe8c7	-0.43732283
7	0xbf679130	-0.90455914
8	0xbf4f7bb5	-0.81048137

encoder_variable_selection.flattened_grn.fc2.bias f4 [3]
0	0x3dc05c1a	0.09392567
1	0xbd2b5ff7	-0.041839566
2	0xbdb819f6	-0.08989327

encoder_variable_selection.flattened_grn.gate_norm.glu.fc.weight f4 [6, 3]
0	0x3f17c51d	0.59285146
1	0xbe1ded4d	-0.15422554
2	0x3f382fd4	0.7194798
3	0xbd647e23	-0.055784356
4	0xbedd8b4d	-0.4327034
5	0x3f34d916	0.70643747
6	0xbe925d99	-0.28587034
7	0xbe80aecb	-0.25133356
8	0xbd671227	-0.056413796
9	0xbeebd665	-0.46062008
10	0xbf07896d	-0.5294407
11	0x3f3add7f	0.72994226
12	0x3f5535f1	0.83285433
13	0xbd1324be	-0.035923712
14	0xbee52438	-0.44754195
15	0x3f6d393b	0.9266545
16	0x3f087eb1	0.53318316
17	0x3ed999e4	0.42500222

encoder_variable_selection.flattened_grn.gate_norm.glu.fc.bias f4 [6]
0	0x3dd3b886	0.103379294
1	0xbde65025	-0.11245755
2	0xbea8b400	-0.3294983
3	0xbdbb12ba	-0.09134431
4	0x3e8f4c91	0.27988103
5	0x3e88849c	0.26663673

encoder_variable_selection.flattened_grn.gate_norm.add_norm.norm.weight f4 [3]
0	0x3f5058e7	0.81385654
1	0x3f2f29a1	0.68422896
2	0x3ec63b0d	0.38716927

encoder_variable_selection.flattened_grn.gate_norm.add_norm.norm.bias f4 [3]
0	0xbc3f2d74	-0.011668552
1	0xbea6c99a	-0.32575685
2	0x3f15aa9e	0.58463466

encoder_variable_selection.single_variable_grns.SinWeekly.resample_norm.mask f4 [16]
0	0xbe2fa4a1	-0.17152645
1	0xbdb42c26	-0.08797483
2	0xbdeb27af	-0.114821784
3	0xbdf11c5d	-0.11772988
4	0xbe2b4dab	-0.16728847
5	0x3d53e9e2	0.05173672
6	0xbd02cf12	-0.03193576
7	0xbe80ce81	-0.2515755
8	0xbcd788b9	-0.026310312
9	0xbadf7669	-0.0017048839
10	0xbe3457f0	-0.1761167
11	0xbc8f4f1d	-0.017493779
12	0xbe400678	-0.18752468
13	0x3dc8cad2	0.0980431
14	0x3e4e3a13	0.20139341
15	0x3e703c4f	0.23460506

encoder_variable_selection.single_variable_grns.SinWeekly.resample_norm.norm.weight f4 [16]
0	0x3f5610ed	0.83619577
1	0x3f64c145	0.89357406
2	0x3f80ebf0	1.0072002
3	0x3f7c160f	0.9847116
4	0x3f4a82a5	0.791056
5	0x3f895c81	1.0731355
6	0x3f850747	1.0392846
7	0x3f555806	0.8333744
8	0x3f77cd02	0.9679719
9	0x3f6c5b02	0.92326367
10	0x3f65251d	0.89509755
11	0x3f819ff3	1.0126938
12	0x3f812edd	1.0092427
13	0x3f8a8bae	1.0823877
14	0x3f9e8df3	1.238707
15	0x3f8de502	1.1085513

encoder_variable_selection.single_variable_grns.SinWeekly.resample_norm.norm.bias f4 [16]
0	0x3c696042	0.014244141
1	0x3d55f0de	0.052231662
2	0xbe8755ab	-0.26432547
3	0xbae6d399	-0.0017610668
4	0xbc99a4a3	-0.018755263
5	0x3d82028c	0.06348142
6	0xbe0ae174	-0.13562566
7	0xbe1ba9db	-0.15201513
8	0x3d2508e6	0.04029169
9	0x3cd9464a	0.026522774
10	0x3d8d2857	0.0689246
11	0x3e199d2e	0.15001366
12	0xbe38882f	-0.180207
13	0x3cab306a	0.020897109
14	0xbc58172e	-0.01318912
15	0x3e07cfbd	0.1326284

encoder_variable_selection.single_variable_grns.SinWeekly.fc1.weight f4 [8, 8]
0	0x3f79390f	0.9735269
1	0xbfa1ed5a	-1.2650559
2	0xbf460117	-0.7734541
3	0xbfa39228	-1.2778978
4	0xbe9e61f7	-0.30934116
5	0xbe2aeeb1	-0.16692616
6	0x3eac7ad9	0.33687475
7	0x3f008dba	0.5021626
8	0xbde6771c	-0.11253187
9	0x3e9e88b5	0.30963674
10	0xbd6c22d7	-0.057650413
11	0xbe3171ca	-0.17328563
12	0xbdb7de1d	-0.089779116
13	0x3f2f6643	0.68515414
14	0xbe596276	-0.21228966
15	0xbe10c44b	-0.1413738
16	0xbdbc1ab5	-0.091847815
17	0xbda3804b	-0.07983454
18	0xbeb7e000	-0.35913086
19	0x3e751867	0.2393509
20	0xbf4f94d9	-0.810865
21	0x3ede7c33	0.4345413
22	0x3f73cf22	0.95237935
23	0x3e966bd8	0.29379153
24	0x3ebc102c	0.36731088
25	0x3d90aa04	0.07063678
26	0xbe8316fe	-0.2560348
27	0x3e30a994	0.17252189
28	0x3ed6c962	0.41950518
29	0x3c900315	0.017579595
30	0x3ecccbee	0.39999336
31	0x3f311c8b	0.6918418
32	0xbf186eb6	-0.5954393
33	0xbe26da25	-0.16294153
34	0x3f90b78d	1.1306015
35	0xbd97232f	-0.073797576
36	0x3debb678	0.115094125
37	0x3f444694	0.76670194
38	0x3f0a3f04	0.54002404
39	0xbf7e5a6a	-0.9935671
40	0x3f047eb8	0.5175586
41	0xbe627fea	-0.22119108
42	0xbf52784d	-0.82214814
43	0x3db08c77	0.086205415
44	0x3dbf4d61	0.09340931
45	0xbe6f798e	-0.23386213
46	0xbea554b9	-0.322912
47	0x3da845de	0.08216451
48	0xbf55d4c2	-0.8352777
49	0xbe77c538	-0.24196327
50	0xbf7e218f	-0.99269956
51	0x3edc6609	0.43046597
52	0xbe0a8d73	-0.13530521
53	0x3b84d890	0.0040541366
54	0xbee0327b	-0.43788514
55	0xbd3bcea6	-0.045851372
56	0x3ed58c11	0.41708425
57	0xbc26df3f	-0.010185062
58	0xbf43fdfc	-0.76559424
59	0x3e5f3ef9	0.21801366
60	0x3f49f472	0.7888862
61	0x3f0282a2	0.5098058
62	0xbe4e1a60	-0.20127249
63	0x3eb1c0dc	0.34717453

encoder_variable_selection.single_variable_grns.SinWeekly.fc1.bias f4 [8]
0	0xbca63e2b	-0.020293316
1	0x3da44b37	0.080221586
2	0x3b94dc47	0.0045428607
3	0x3caa1c91	0.020765575
4	0xbd250b74	-0.040294126
5	0xbdc08771	-0.094008334
6	0xbdf8417c	-0.12121865
7	0xbd87d00d	-0.066314794

encoder_variable_selection.single_variable_grns.SinWeekly.fc2.weight f4 [8, 8]
0	0xbf93ebd0	-1.1556339
1	0x3de770bd	0.113008
2	0xbf8fbc38	-1.1229315
3	0xbf1c0345	-0.6094249
4	0xbf4153de	-0.75518596
5	0x3e002613	0.12514524
6	0x3ef7003b	0.48242363
7	0xbec9c9d1	-0.39411786
8	0xbea2817a	-0.31739408
9	0xbea2993c	-0.31757534
10	0x3eee3f00	0.4653244
11	0x3e139dff	0.1441574
12	0xbe9c70c8	-0.30554795
13	0x3ef9b53a	0.48771077
14	0x3f27e8ac	0.65589404
15	0x3e675f2f	0.22594903
16	0x3f2bc145	0.6709178
17	0xbe9f5697	-0.3112075
18	0x3c96618e	0.018357065
19	0xbf1c12f7	-0.6096644
20	0x3f1e637e	0.61870563
21	0xbe2349c9	-0.15946116
22	0x3f116cd5	0.5680669
23	0x3f2acdbc	0.66720176
24	0x3e2406b1	0.16018178
25	0x3f5c07f3	0.8594963
26	0x3ed95cbf	0.42453572
27	0x3e5451ce	0.20734331
28	0x3def4c95	0.11684529
29	0xbf48cc92	-0.7843715
30	0x3da9dc24	0.082939416
31	0xbf29327e	-0.6609267
32	0xbf8ef331	-1.1167966
33	0x3fa1c074	1.2636857
34	0xbe834443	-0.25638017
35	0xbea8c83d	-0.3296527
36	0xbec76b11	-0.38948873
37	0x3f44247e	0.7661818
38	0x3e94bf93	0.2905241
39	0xbd03e682	-0.03220225
40	0x3ef4cf7c	0.47814548
41	0xbeb46e30	-0.35240316
42	0xbf158104	-0.5839999
43	0xbdc334e4	-0.095315725
44	0xbf07fc2e	-0.5311917
45	0x3e899bf5	0.26876798
46	0xbe81c155	-0.25342813
47	0xbde1d7d2	-0.110274926
48	0x3e97f4a2	0.29678828
49	0xbd2b94fb	-0.041890126
50	0x3b803312	0.003912338
51	0x3deb00a7	0.11474734
52	0x3f13118a	0.5744864
53	0xbed174b8	-0.40909362
54	0x3e0720ed	0.13196154
55	0x3e4caff6	0.19988999
56	0x3f193ed2	0.5986148
57	0xbcb1d3c9	-0.021707432
58	0x3eb2d509	0.34928158
59	0x3f265531	0.6497374
60	0x3f1bc9a8	0.6085458
61	0xbea6ab52	-0.32552582
62	0x3f417385	0.75566894
63	0xbf257337	-0.6462893

encoder_variable_selection.single_variable_grns.SinWeekly.fc2.bias f4 [8]
0	0x3d488165	0.048951525
1	0xbda13ffe	-0.07873534
2	0xbdfa8c0d	-0.12233744
3	0x3dafd555	0.08585612
4	0xbe481235	-0.19538195
5	0xbdd95e69	-0.106137104
6	0x3da7cb2f	0.08193051
7	0xbd95fe93	-0.07323947

encoder_variable_selection.single_variable_grns.SinWeekly.gate_norm.glu.fc.weight f4 [32, 8]
0	0x3d912523	0.070871614
1	0xbd89965d	-0.06718133
2	0xbe080bbd	-0.13285728
3	0xbe67f1c6	-0.22650823
4	0xbdda4621	-0.10657907
5	0xbe798b20	-0.24369478
6	0xbe4b4583	-0.19850735
7	0x3e065e09	0.13121809
8	0xbd605775	-0.054770906
9	0x3db89a59	0.090138145
10	0xbcbb05c7	-0.022829903
11	0xbe1e6ed2	-0.15471962
12	0x3e10319b	0.14081423
13	0x3dd14568	0.10218316
14	0x3ecd5889	0.4010661
15	0x3c8d757d	0.017267937
16	0x3ecfe895	0.40607134
17	0xbcfdc91e	-0.03097969
18	0x3e46a90a	0.19400421
19	0xbd0b908a	-0.03407339
20	0x3efe94b9	0.4972284
21	0x3d19cf8d	0.03755145
22	0xbe8d7d94	-0.2763487
23	0xbcd0ddc8	-0.025496379
24	0x3e72801a	0.2368168
25	0x3c9625c2	0.018328551
26	0xbe3f8ec8	-0.1870681
27	0xbe1ced3b	-0.15324871
28	0x3eb76467	0.35818788
29	0x3d3d1cab	0.046169918
30	0xbeaf7e4e	-0.3427605
31	0x3e386076	0.18005547
32	0x3ea2dc64	0.3180877
33	0x3dc9d04b	0.09854182
34	0x3e5b5e90	0.21422791
35	0x3e83b62e	0.2572493
36	0x3ea4672e	0.3210997
37	0xbe57d859	-0.21078624
38	0x3e0b5883	0.13607983
39	0x3d804afd	0.06264303
40	0x3df5b7db	0.11997958
41	0xbeada5bf	-0.33915517
42	0x3e3a8b65	0.18217237
43	0x3df617b2	0.12016238
44	0xbe9f5b33	-0.31124267
45	0xbe0ccfad	-0.13751097
46	0xbda376cb	-0.07981642
47	0x3e6d4ff5	0.23175032
48	0x3bcf41c7	0.00632498
49	0x3ca0ecef	0.019644229
50	0xbeedff7c	-0.46483982
51	0xbe43ef7e	-0.19134328
52	0x3da18871	0.07887352
53	0xbeb58890	-0.3545575
54	0xbd8c34d5	-0.068460144
55	0xbde8a24a	-0.11359079
56	0xbec43cf6	-0.3832776
57	0xbdaa2a54	-0.08308855
58	0x3ea5cfa6	0.32384986
59	0xbee0dc14	-0.43917906
60	0xbe72451f	-0.2365918
61	0x3da2d1ea	0.07950194
62	0x3d582c56	0.052776657
63	0x3dc93cdf	0.09826063
64	0x3e758b55	0.23978932
65	0x3ea660f6	0.3249585
66	0xbe51f740	-0.20504475
67	0x3eab118f	0.33411834
68	0x3de46621	0.11152292
69	0xbecd471b	-0.40093312
70	0x3e5a6788	0.21328557
71	0x3e75719e	0.23969123
72	0xbd92f045	-0.07174734
73	0xbebbe05f	-0.3669462
74	0x3e3e72c3	0.18598466
75	0xbdffae3c	-0.124844044
76	0xbe8c1454	-0.2735926
77	0xbccbb5a7	-0.024866892
78	0x3d52031b	0.051272493
79	0x3d52d8f5	0.051476438
80	0x3ddc4dd5	0.10757033
81	0x3deb1805	0.11479191
82	0xbe05c5ac	-0.13063687
83	0xbe16566e	-0.14681408
84	0xbc9acbbe	-0.01889598
85	0x3e577a75	0.21042807
86	0x3cda555a	0.026652027
87	0x3e581d8d	0.21105023
88	0xbe2725c9	-0.16323008
89	0xbdf77d68	-0.12084466
90	0xbdcb3519	-0.09922237
91	0x3e500868	0.20315707
92	0xbe76f720	-0.24117708
93	0xbe82996a	-0.2550767
94	0x3f0d4836	0.5518831
95	0x3ed93ab1	0.4242759
96	0x3f1490e8	0.5803361
97	0x3ee12de2	0.43980318
98	0xbe24d9a7	-0.16098653
99	0xbe980c9d	-0.29697123
100	0x3ed1b3c3	0.4095746
101	0xbf2a621e	-0.66555965
102	0xbe74d623	-0.23909812
103	0xbeed0dc9	-0.4629958
104	0x3de581f9	0.11206431
105	0xbe0b330c	-0.13593692
106	0x3e4af7bf	0.1982107
107	0x3de31808	0.11088568
108	0x3da80b93	0.082053326
109	0x3dc81335	0.097692885
110	0xbe48e7e0	-0.19619703
111	0xbec3797c	-0.38178623
112	0xbe97aad5	-0.29622522
113	0xbeb8b59c	-0.36076057
114	0x3e913d78	0.2836721
115	0xbd3e98f8	-0.0465326
116	0xbe220fb1	-0.15826298
117	0x3e94eee4	0.2908851
118	0xbe871677	-0.26384327
119	0x3dea0163	0.11426046
120	0x3e17354c	0.14766425
121	0xbefab495	-0.48965898
122	0xbec6042a	-0.38675052
123	0x3de53d5e	0.111933455
124	0xbe2d63c4	-0.16932589
125	0xbe89bb61	-0.2690077
126	0x3e83beda	0.25731546
127	0x3d6ac602	0.05731774
128	0x3dcdd4a6	0.10050325
129	0x3cf004ec	0.029299222
130	0x3e132d97	0.1437286
131	0x3eae5f22	0.34056956
132	0x3e69e533	0.22841339
133	0xbe8b9a04	-0.27265942
134	0x3e15d42d	0.1463172
135	0xbecfbbfd	-0.4057311
136	0x3e0297ae	0.12753174
137	0xbebe256a	-0.3713792
138	0xbc61f00d	-0.013790143
139	0xbe676ed6	-0.22600874
140	0x3e2f9b99	0.171492
141	0x3ea23f9d	0.31689158
142	0xbe44aba6	-0.19206104
143	0xbea423f7	-0.3205869
144	0x3e354c24	0.17704827
145	0xbeb186a7	-0.34673044
146	0xbe8bdbe2	-0.27316195
147	0xbbe2dc15	-0.0069232085
148	0xbe2f6583	-0.17128567
149	0xbe4e0523	-0.20119147
150	0xbc7a3068	-0.01527033
151	0x3e5c8678	0.21535671
152	0x3e8bb6ef	0.27288005
153	0x3db55a40	0.088551044
154	0x3e2cff10	0.16894174
155	0x3dc5cf13	0.09658637
156	0xbdd62ae6	-0.10457401
157	0xbdef5742	-0.11686565
158	0xbda0289e	-0.07820247
159	0x3e23733e	0.1596193
160	0x3eaf6f9e	0.34264845
161	0x3ec0405a	0.37549096
162	0xbedd9eff	-0.43285367
163	0xbd8ae92d	-0.06782756
164	0x3e12b687	0.14327441
165	0xbeae9549	-0.3409827
166	0x3e0b255a	0.13588467
167	0x3e4908af	0.19632219
168	0xbd12c057	-0.03582796
169	0xbe990a02	-0.29890448
170	0x3ee5b77c	0.4486655
171	0x3e556291	0.20838381
172	0xbe993a41	-0.29927257
173	0xbc9d1bdf	-0.019178329
174	0x3edc4282	0.4301949
175	0xbe55da8e	-0.20884153
176	0xbe1089db	-0.14115088
177	0xbe3b630e	-0.18299505
178	0x3e20d05d	0.15704484
179	0xbede4ec7	-0.43419477
180	0xbe5f4516	-0.21803698
181	0xbe0886e4	-0.13332707
182	0x3d94c5d1	0.07264293
183	0x3e2baef7	0.16765963
184	0xbe2944a5	-0.16530092
185	0x3ef4309b	0.47693333
186	0x3e4144c0	0.18873882
187	0xbde1cd21	-0.11025453
188	0x3eb6ca71	0.35701326
189	0xbe74421f	-0.23853348
190	0xbe55fb31	-0.20896603
191	0xbee52f96	-0.44762868
192	0xbd56768e	-0.052359156
193	0x3ce476f2	0.027888749
194	0x3dc0177d	0.0937948
195	0xbe895fa8	-0.26830792
196	0x3edf86f8	0.4365766
197	0xbdc37dd4	-0.09545484
198	0x3c8d3182	0.017235521
199	0xbd6b4751	-0.05744106
200	0xbe0ab3a0	-0.13545084
201	0xbe47e56d	-0.19521113
202	0x3cebc738	0.028781518
203	0x3ea3482c	0.31891
204	0x3e0b929d	0.13630147
205	0x3aedc7c6	0.0018141202
206	0xbe908f7c	-0.2823447
207	0x3e333a90	0.17502809
208	0x3ba047b5	0.0048913606
209	0xbe4dd466	-0.20100555
210	0xbea9e6e6	-0.33183974
211	0xbed41245	-0.4142019
212	0x3deb4c93	0.11489215
213	0x3ea5d376	0.32387894
214	0xbea0dbd5	-0.3141772
215	0xbe8612d1	-0.2618623
216	0xbc1f36f3	-0.009717691
217	0xbeabab63	-0.33529195
218	0x3f051ac5	0.5199397
219	0x3eb4758b	0.35245928
220	0xbb2b1434	-0.0026104571
221	0x3ee4a6ed	0.44658604
222	0x3f10707f	0.56421655
223	0x3e01eb69	0.12687458
224	0xbf0c6a46	-0.5484966
225	0xbec6f239	-0.38856676
226	0x3f20b105	0.6277011
227	0xbd6d7839	-0.05797598
228	0xbe0ad47d	-0.1355762
229	0x3f13dfef	0.5776357
230	0x3e8e752b	0.27823767
231	0x3eb31870	0.34979582
232	0xbeb57e1d	-0.3544778
233	0xbded7fdf	-0.11596655
234	0xbe2a38c1	-0.16623212
235	0x3dad7e13	0.084713124
236	0x3e7fa16d	0.24963923
237	0xbd5a6830	-0.053322017
238	0xbd875c8a	-0.06609447
239	0x3e1fdbe4	0.15611225
240	0xbdcf7361	-0.10129429
241	0x3e06895d	0.13138337
242	0xbe9cee32	-0.3065048
243	0x3d730d94	0.05933912
244	0xbdd6495b	-0.1046321
245	0xbe944d7f	-0.28965375
246	0xbd809d29	-0.06279976
247	0x3da618be	0.08110188
248	0x3ce9e9ae	0.02855381
249	0x3ea40821	0.32037452
250	0xbeadf21e	-0.33973783
251	0x3eae4e7e	0.3404426
252	0xbdcdaa79	-0.10042281
253	0xbddd45e2	-0.10804345
254	0xbdf1f727	-0.11814719
255	0xbdd5aa73	-0.10432901

encoder_variable_selection.single_variable_grns.SinWeekly.gate_norm.glu.fc.bias f4 [32]
0	0x3d23683c	0.039894328
1	0x3d09cee6	0.03364458
2	0xbe950fa9	-0.2911351
3	0x3d612f5d	0.05497681
4	0xbb597bd1	-0.0033185373
5	0x3d912309	0.070867606
6	0xbdebe193	-0.11517634
7	0xbe7d413b	-0.24731915
8	0x3dd04f06	0.101713225
9	0x3ce7864c	0.02826228
10	0x3d90efe1	0.07077003
11	0x3e37ef2d	0.17962332
12	0xbe4245c6	-0.18971929
13	0x3d43d4bc	0.0478103
14	0xbcb5f259	-0.022210287
15	0x3dfe1c77	0.12407773
16	0xbdda516b	-0.106600605
17	0xbe0045a4	-0.12526566
18	0x3e15b0f3	0.14618282
19	0xbd83f7cf	-0.0644375
20	0x3d9973d5	0.07492796
21	0x3e11d18e	0.14240095
22	0xbe891811	-0.26776174
23	0xbd0ea138	-0.03482172
24	0xbcf2352f	-0.029566376
25	0x3c2878fa	0.010282749
26	0xbe337e68	-0.17528689
27	0xbb87ba63	-0.004142092
28	0xbd9dcf21	-0.07705522
29	0xbdc85b9d	-0.09783099
30	0x3d3b0871	0.045662347
31	0x3d82e30d	0.06390963

encoder_variable_selection.single_variable_grns.SinWeekly.gate_norm.add_norm.norm.weight f4 [16]
0	0x3f5eba8c	0.870034
1	0x3f5330c4	0.82496285
2	0x3f88ab5b	1.0677294
3	0x3f749365	0.95537406
4	0x3f522968	0.8209443
5	0x3f7d8389	0.9902883
6	0x3f86c0e0	1.0527611
7	0x3f43587a	0.7630688
8	0x3f8002a6	1.0000808
9	0x3f744932	0.9542419
10	0x3f714f4b	0.94261616
11	0x3fa281cc	1.2695861
12	0x3f75ef79	0.9606853
13	0x3f8df21c	1.1089511
14	0x3f930da6	1.148854
15	0x3f9268c7	1.1438226

encoder_variable_selection.single_variable_grns.SinWeekly.gate_norm.add_norm.norm.bias f4 [16]
0	0xbd090d91	-0.033460204
1	0x3da83807	0.08213811
2	0xbd97af10	-0.074064374
3	0x3d9c21b4	0.07623616
4	0x3ce31c02	0.027723316
5	0x3cf92d3a	0.030417074
6	0xbda8ebc0	-0.08248091
7	0xbe2393ba	-0.15974322
8	0x3d6d79d3	0.05797751
9	0xbce9e443	-0.028551226
10	0x39bcaeff	0.00035988537
11	0x3e15eca1	0.14641048
12	0xbd906703	-0.07050898
13	0x3c915eb8	0.01774536
14	0xbc81f365	-0.01586313
15	0x3dca83f4	0.09888449

encoder_variable_selection.single_variable_grns.VaccinationFull.resample_norm.mask f4 [16]
0	0xbe11c780	-0.1423626
1	0xbe17c28f	-0.14820312
2	0x3d2cd45c	0.04219471
3	0xbd655ca8	-0.055996567
4	0x3e148c58	0.14506662
5	0xbd8eceee	-0.069730625
6	0x3e214ec5	0.15752704
7	0x3ea8f7e8	0.33001637
8	0x3d2902bb	0.04126237
9	0xbda4cc55	-0.08046786
10	0x3b770a30	0.0037695281
11	0xbd286099	-0.041107748
12	0xbe2c10e5	-0.1680332
13	0x3e83f826	0.2577526
14	0xbe2e0ce7	-0.1699711
15	0xbd9943b9	-0.0748362

encoder_variable_selection.single_variable_grns.VaccinationFull.resample_norm.norm.weight f4 [16]
0	0x3f5a15ef	0.8518972
1	0x3f52495e	0.821432
2	0x3f883870	1.0642223
3	0x3f7fcf80	0.99925995
4	0x3f995002	1.1977541
5	0x3f73d459	0.9524589
6	0x3f8e33cd	1.1109558
7	0x3fa8b936	1.3181522
8	0x3f86dbf5	1.0535876
9	0x3f75441c	0.9580705
10	0x3f836c67	1.0267457
11	0x3f772daf	0.9655408
12	0x3f4c9cef	0.7992696
13	0x3f9d525f	1.2290763
14	0x3f4c9c98	0.79926443
15	0x3f5eb543	0.86995333

encoder_variable_selection.single_variable_grns.VaccinationFull.resample_norm.norm.bias f4 [16]
0	0xbe0877be	-0.13326928
1	0x3e257d5d	0.16161104
2	0xbd72f391	-0.059314314
3	0xbdb0e137	-0.08636706
4	0xbe10379a	-0.1408371
5	0x3c98889d	0.01861983
6	0xbd16b0ec	-0.03678982
7	0x3e5fd1c6	0.21857366
8	0x3cad7fa2	0.021179024
9	0x3bb298c4	0.00545034
10	0x3c10693e	0.008814154
11	0x3ca5d426	0.020242762
12	0xbcb68c02	-0.022283558
13	0xbddbb9e6	-0.10728817
14	0xbc55a66f	-0.013040169
15	0x3dc16bd1	0.094443925

encoder_variable_selection.single_variable_grns.VaccinationFull.fc1.weight f4 [8, 8]
0	0x3eaae57b	0.33378205
1	0xbd7d67d8	-0.06186661
2	0xbeffa35d	-0.49929324
3	0xbe8b94b2	-0.27261883
4	0x3ef1781d	0.47161952
5	0x3dabf8d7	0.08397072
6	0xbf03a98d	-0.5143059
7	0xbcd910ae	-0.026497211
8	0x3e23283a	0.15933314
9	0xbe23bd74	-0.1599024
10	0xbf441592	-0.76595414
11	0xbf6d1989	-0.9261709
12	0xbd272521	-0.040806893
13	0xbe39e144	-0.18152338
14	0x3f073f74	0.52831197
15	0xbe305306	-0.17219171
16	0x3db8df5f	0.0902698
17	0xbf0d1fd8	-0.55126715
18	0xbddfe111	-0.109316
19	0xbe9921b0	-0.29908514
20	0xbeb92cc8	-0.36166978
21	0x3ed585de	0.41703695
22	0xbe2edca0	-0.1707635
23	0xbf09d80e	-0.538453
24	0xbe615507	-0.22005092
25	0xbf4fcd36	-0.811725
26	0xbe5a0383	-0.21290402
27	0x3e7d4d0a	0.2473642
28	0xbf492341	-0.7856942
29	0x3f249a62	0.6429807
30	0x3e554329	0.20826401
31	0x3da23899	0.079209514
32	0x3e8e9e6c	0.2785524
33	0x3f0dae34	0.5534394
34	0x3e672b3d	0.22575088
35	0x3ec5d62b	0.3863996
36	0x3d100418	0.035160154
37	0x3eb1d1e0	0.34730434
38	0x3f10a87a	0.56507075
39	0x3f44a041	0.7680703
40	0xbd9764f5	-0.07392303
41	0x3e849e7d	0.25902167
42	0xbe8d67c3	-0.27618226
43	0xbd2ac34f	-0.041690167
44	0xbd9ee41e	-0.07758354
45	0xbf44f0bd	-0.7692984
46	0xbf5569f8	-0.8336482
47	0xbfe0bc4f	-1.7557467
48	0xbf0e71f2	-0.55642617
49	0x3eaa26f6	0.3323285
50	0x3e8a4903	0.2700883
51	0x3e5a912d	0.21344443
52	0x3f77ea58	0.96841955
53	0xbe375c97	-0.17906414
54	0x3e41cb8f	0.18925308
55	0x3e0e23f5	0.13880904
56	0x3ed37630	0.41301107
57	0x3dcae5df	0.09907126
58	0xbf368e47	-0.7131085
59	0xbd46ff0c	-0.048583075
60	0xbe972024	-0.2951671
61	0xbfa099dd	-1.2546955
62	0xbec6f1c9	-0.38856342
63	0xbfd848d2	-1.6897223

encoder_variable_selection.single_variable_grns.VaccinationFull.fc1.bias f4 [8]
0	0xbd9d68d8	-0.07686013
1	0x3c9b9dc8	0.018996134
2	0x3d82b53d	0.06382225
3	0xbc84ba93	-0.016202247
4	0x3ce3cf28	0.02780874
5	0x3c7fc001	0.015609742
6	0xbdd56b12	-0.10420813
7	0x3d97ba6f	0.07408606

encoder_variable_selection.single_variable_grns.VaccinationFull.fc2.weight f4 [8, 8]
0	0xbe2870b0	-0.16449237
1	0x3d0e8ee0	0.034804225
2	0xbe852372	-0.26003605
3	0xbf202980	-0.62563324
4	0xbf5eb749	-0.8699842
5	0x3df4ec4d	0.11959133
6	0xbf30bc17	-0.69037
7	0x3cb80a86	0.022465955
8	0x3f3aa50e	0.72908103
9	0xbeab518e	-0.3346066
10	0xbe9a94ac	-0.30191553
11	0xbe999b43	-0.30001268
12	0xbef7cb1f	-0.48397157
13	0xbece581e	-0.40301603
14	0x3eaeb70d	0.34124032
15	0x3cc5fd3c	0.024168603
16	0xbfdb9453	-1.715464
17	0x3c5abd81	0.013350845
18	0xbe88c728	-0.26714444
19	0x3f0b8501	0.5449982
20	0xbe9f6fa4	-0.31139863
21	0x3e91bde2	0.28465182
22	0x3e2d8196	0.16943964
23	0x3eeb3450	0.4593835
24	0x3e44cc61	0.1921859
25	0xbebccb8e	-0.3687405
26	0x3cff8c80	0.031194925
27	0xbedb9d4b	-0.42893443
28	0x3f1b60b9	0.6069446
29	0xbf54d962	-0.831442
30	0x3c1e6d95	0.009669681
31	0xbdfad87c	-0.12248322
32	0xbe96fa65	-0.2948791
33	0xbea64c18	-0.3247993
34	0x3e8d9b23	0.27657422
35	0xbe238f89	-0.15972723
36	0x3ec07369	0.3758805
37	0x3ea9950c	0.33121526
38	0xbf8ea397	-1.1143674
39	0x3f5ad6cc	0.85484004
40	0xbeb9d61e	-0.3629617
41	0x3eb779a1	0.35834983
42	0x3f385464	0.7200377
43	0x3ec28891	0.37994817
44	0x3e03ea42	0.12882331
45	0xbe0e34b1	-0.13887288
46	0xbe5538fc	-0.20822519
47	0xbf8c8636	-1.0978458
48	0x3f0d5994	0.5521481
49	0x3daa79e0	0.08324027
50	0xbd93bf23	-0.07214191
51	0x3f39915b	0.7248742
52	0x3e6ac3d0	0.22926259
53	0xbf0c572b	-0.5482051
54	0xbe148755	-0.1450475
55	0x3de8458c	0.1134139
56	0xbe7835cd	-0.24239273
57	0x3e923862	0.28558642
58	0x3ecbf6a1	0.398366
59	0x3eeb436d	0.4594988
60	0xbf13807b	-0.5761792
61	0xbf28e079	-0.6596752
62	0x3d8b6b38	0.0680756
63	0xbef0f0ff	-0.47058865

encoder_variable_selection.single_variable_grns.VaccinationFull.fc2.bias f4 [8]
0	0xbd43129d	-0.047625173
1	0xbca33036	-0.01992045
2	0xbd0c56f5	-0.034262616
3	0xbd0bf57a	-0.03416965
4	0x3e1da488	0.15394795
5	0x3bf3578f	0.0074262093
6	0xbd322026	-0.04348769
7	0x3d1a30aa	0.037644066

encoder_variable_selection.single_variable_grns.VaccinationFull.gate_norm.glu.fc.weight f4 [32, 8]
0	0x3dfdebd0	0.12398493
1	0x3e4a69eb	0.19766967
2	0x3ed7b40d	0.42129555
3	0x3e58b210	0.21161675
4	0xbe8998a3	-0.26874265
5	0x3e8046d8	0.2505405
6	0xbdc48f76	-0.095976755
7	0xbe5c68fc	-0.21524423
8	0xbeec0f44	-0.46105397
9	0x3e6f7e55	0.23388036
10	0xbeccc0dd	-0.39990893
11	0x3de9ce88	0.11416346
12	0x3e7296c9	0.23690332
13	0xbe2b7781	-0.16744806
14	0x3e5f890b	0.21829621
15	0xbe921dee	-0.2853846
16	0xbdc46543	-0.09589627
17	0x3e98457b	0.2974051
18	0x3e0fc279	0.14039029
19	0x3de63ef2	0.112424746
20	0xbe595ce2	-0.21226838
21	0x3f0208ec	0.50794864
22	0xbe5f0849	-0.21780504
23	0x3ee295d6	0.4425494
24	0xbea4be23	-0.32176313
25	0xbe7045f2	-0.23464182
26	0x3e160cfb	0.14653389
27	0x3ee11957	0.43964645
28	0xbed91c05	-0.4240419
29	0x3ec73e56	0.38914746
30	0x3df13402	0.11777498
31	0x3edddb7d	0.4333152
32	0x3e679ac5	0.22617634
33	0xbd9c1af0	-0.076223254
34	0x3e796711	0.24355723
35	0xbeab7029	-0.3348401
36	0x3e7dbfc1	0.2478018
37	0xbd76d8df	-0.06026542
38	0xbea192f8	-0.3155744
39	0x3d047b7e	0.032344334
40	0x3e7ef282	0.24897197
41	0x3eaee592	0.34159523
42	0x3e81b2cf	0.25331733
43	0xbe9322ed	-0.28737584
44	0xbe0f3128	-0.13983595
45	0x3e996cab	0.2996572
46	0xbda6bfea	-0.081420735
47	0x3eb610f9	0.35559824
48	0xbd9762e9	-0.073919125
49	0x3e853b79	0.26021937
50	0x3dbd1d08	0.09234053
51	0xbd9505b6	-0.0727648
52	0x3cf2f7bb	0.029659143
53	0xbd980746	-0.07423262
54	0x3e7a784e	0.24459955
55	0xbe427419	-0.189896
56	0xbe4b01b2	-0.19824865
57	0x3e2f2e2b	0.17107455
58	0x3e325646	0.17415723
59	0xbf1854f6	-0.5950464
60	0x3f1cf840	0.613163
61	0xbee0bf90	-0.4389615
62	0x3e4fb4b9	0.20283784
63	0xbf03c8bd	-0.5147818
64	0x3b96eb40	0.0046056807
65	0x3e96bde1	0.2944174
66	0xbd6f5e23	-0.058439385
67	0xbe96140a	-0.29312164
68	0xbed02ba8	-0.40658307
69	0x3e0f1d76	0.13976082
70	0x3cef62cb	0.029221913
71	0x3eaed29f	0.34145066
72	0x3e61eb3d	0.22062393
73	0xbcfa9463	-0.030588334
74	0x3e7dda9d	0.24790426
75	0xbeb3b097	-0.35095665
76	0xbde6141b	-0.112343036
77	0xbece8a35	-0.4033982
78	0xbf01e055	-0.5073293
79	0xbe961334	-0.29311526
80	0xbdfbafe6	-0.12289409
81	0xbde7a77f	-0.11311244
82	0x3d66af8b	0.056319755
83	0xbe8aa12f	-0.27076098
84	0x3e08fa29	0.13376679
85	0x3cffd4af	0.031229345
86	0x3e078e32	0.13237837
87	0xbd8bd94d	-0.06828556
88	0xbdf19eee	-0.117978916
89	0xbea984c4	-0.33109105
90	0xbc4b282f	-0.012399717
91	0x3d923444	0.07138875
92	0x3d855712	0.06510748
93	0x3cea29d4	0.028584398
94	0xbe8dc15a	-0.27686578
95	0x3e51fb43	0.20506005
96	0xbe651f85	-0.22375305
97	0x3e4eb1b2	0.20184973
98	0xbe5e119e	-0.21686408
99	0xbed8e897	-0.42364952
100	0x3e2af75a	0.1669592
101	0xbe97c8c2	-0.29645354
102	0xbe936521	-0.28788093
103	0xbec89f2e	-0.39183944
104	0x3eaf27e0	0.3421011
105	0xbec98845	-0.39361778
106	0x3e16726f	0.1469209
107	0x3e7ad3ac	0.24494809
108	0x3e94b5e9	0.29045036
109	0x3e82b196	0.25526112
110	0x3c91a3b7	0.01777826
111	0xbe8d30aa	-0.2757619
112	0xbe6812be	-0.226634
113	0x3d7201d9	0.059083793
114	0xbdec2992	-0.115313664
115	0x3cefc565	0.02926893
116	0xbe2cf835	-0.16891558
117	0x3d2263dc	0.039646015
118	0xbe46ffac	-0.19433469
119	0x3da6968a	0.08134182
120	0xbea4c9b7	-0.32185146
121	0xbdb4ed8c	-0.08834371
122	0x3dfd7018	0.12374896
123	0xbd7a398b	-0.061090034
124	0x3e46d0e7	0.19415627
125	0xbe0fda0b	-0.1404802
126	0x3ea07f84	0.31347287
127	0xbda53ec5	-0.08068613
128	0x3e4d2279	0.20032682
129	0xbe575dc6	-0.21031865
130	0x3e66c08d	0.2253439
131	0x3c133411	0.008984582
132	0x3d7e4d39	0.062085364
133	0x3e847cff	0.25876614
134	0xbe0faed8	-0.14031541
135	0xbec91cfe	-0.39279932
136	0xbe1b80d0	-0.15185857
137	0xbbf0f8bb	-0.0073538697
138	0x3e72e447	0.23719893
139	0x3de26da7	0.11056071
140	0x3d131ca2	0.03591598
141	0x3eabf064	0.3358184
142	0xbcc5d8b1	-0.024151178
143	0x3d8799ae	0.06621109
144	0x3e18e8a4	0.14932495
145	0x3eb31867	0.34979555
146	0xbd402fa8	-0.04692045
147	0x3eadae8d	0.33922234
148	0xbafd6d98	-0.001933503
149	0x3ec81685	0.3907968
150	0x3e19a1dc	0.1500315
151	0x3eaa403c	0.33252132
152	0x3e5eafb7	0.21746717
153	0x3e374d49	0.17900576
154	0x3e9e6e85	0.30943695
155	0x3ce0ebd4	0.027456202
156	0x3e2a6b52	0.16642502
157	0xbeb96c7e	-0.36215585
158	0xbeacc61a	-0.3374489
159	0xbeb6ca79	-0.3570135
160	0xbdd8c039	-0.105835386
161	0xbe4c44a8	-0.19948065
162	0x3d992f40	0.07479715
163	0x3ede9e5b	0.4348019
164	0xbc9564ed	-0.018236602
165	0x3e199916	0.14999804
166	0xbccf0e0a	-0.025275249
167	0x3dd8b3d1	0.10581172
168	0xbba59625	-0.005053299
169	0xbd67deb1	-0.05660886
170	0x3eb6a8f3	0.35675773
171	0x3df0d4c1	0.117593296
172	0xbe89be02	-0.26902777
173	0x3e2b5eb9	0.16735353
174	0xbed18c86	-0.40927523
175	0x3e06542e	0.1311805
176	0x3ea68820	0.3252573
177	0x3e5267b2	0.20547369
178	0xbe42e552	-0.19032791
179	0x3e90e57b	0.2830008
180	0xbe289a66	-0.16465148
181	0x3cc0adf1	0.023520442
182	0xbef47494	-0.47745192
183	0x3e6c858b	0.23097818
184	0x3d00f27a	0.031481244
185	0x3d1c4680	0.03815317
186	0x3effe125	0.4997646
187	0xbda107b8	-0.078628
188	0x3ca3b007	0.019981397
189	0xbea9357f	-0.33048627
190	0xbf1e7254	-0.618932
191	0xbe6d0950	-0.23148084
192	0x3dfaa718	0.12238902
193	0x3d1200a2	0.035645135
194	0x3d91c414	0.07117477
195	0xbe762101	-0.24036027
196	0xbdfd0b32	-0.12355651
197	0x3dcf6295	0.10126225
198	0x3e09019b	0.13379519
199	0xbe8e15a8	-0.27750897
200	0x3efefd78	0.49802756
201	0xbec8b722	-0.3920222
202	0x3eedfb68	0.4648087
203	0xbd98d80c	-0.07463083
204	0x3e89c4b2	0.2690788
205	0xbd8b5634	-0.06803551
206	0xbe36d13b	-0.17853253
207	0x3ddc1265	0.10745696
208	0xbe05b3ae	-0.13056824
209	0xbd0fa9df	-0.03507411
210	0x3ebda2a3	0.37038144
211	0xbe4d8246	-0.20069227
212	0x3dae905e	0.085236296
213	0xbee495ad	-0.44645444
214	0x3c67b704	0.014142755
215	0xbd7fab00	-0.062418938
216	0xbd369c3c	-0.04458259
217	0x3e1723b6	0.14759716
218	0x3eaeeb9a	0.34164125
219	0x3dd9ee7a	0.10641189
220	0xbe07574d	-0.13216896
221	0x3e60f77b	0.21969406
222	0xbdd2c903	-0.10292246
223	0xbe0c082b	-0.13674991
224	0x3ea913ca	0.3302291
225	0x3e920fd2	0.28527695
226	0xbe9bcc75	-0.30429426
227	0x3e849488	0.2589457
228	0x3e6227ba	0.22085467
229	0x3e36e4b8	0.17860687
230	0xbea8bd05	-0.3295671
231	0x3d9a9d80	0.07549572
232	0xbe300066	-0.17187652
233	0xbed2960a	-0.41130096
234	0xbe4e9858	-0.20175302
235	0xbe9b7160	-0.30359936
236	0x3e270926	0.16312084
237	0xbd9d07a0	-0.0766747
238	0xbe6fea76	-0.23429283
239	0xbc453037	-0.012035421
240	0x3f101201	0.5627747
241	0xbde36ba0	-0.11104512
242	0x3d905540	0.0704751
243	0x3e286f7e	0.16448781
244	0xbdd26536	-0.10273211
245	0xbe99d9ef	-0.30049083
246	0xbda084a7	-0.078378014
247	0xbec23aa2	-0.37935358
248	0xbeb968d0	-0.36212778
249	0x3eab2162	0.33423907
250	0x3eab019a	0.3339966
251	0x3e9e0d68	0.30869603
252	0xbe680a24	-0.22660118
253	0xbe88558f	-0.26627776
254	0x3ee0de50	0.4391961
255	0xbe9b2b2a	-0.3030637

encoder_variable_selection.single_variable_grns.VaccinationFull.gate_norm.glu.fc.bias f4 [32]
0	0xbdb913ce	-0.090369806
1	0x3e09a99a	0.13443604
2	0xbd1a3877	-0.037651505
3	0xbe1a9b1c	-0.15098232
4	0xbe008dd0	-0.12554097
5	0x3d36e6aa	0.044653572
6	0xbda366a4	-0.079785615
7	0x3e7341be	0.23755547
8	0x3c6428a3	0.013925704
9	0x3d366b2c	0.0445358
10	0x3c6555c6	0.013997501
11	0x3d42e220	0.04757893
12	0xbd4bb465	-0.049732585
13	0xbdd8900c	-0.1057435
14	0xbcd90174	-0.02648995
15	0x3d9af918	0.07567042
16	0xbd907cca	-0.070550516
17	0x3d9e395c	0.07725784
18	0xbd114879	-0.035469506
19	0x3ea69731	0.32537225
20	0x3dcd5f15	0.10027901
21	0xbdb51054	-0.08841005
22	0xbdbc0ffa	-0.09182735
23	0x3e4939f5	0.19651015
24	0x3dc639ef	0.09679019
25	0xbdb9ede4	-0.09078577
26	0xbdde7dba	-0.10863824
27	0xbded1e19	-0.11578006
28	0xbb99260e	-0.004673726
29	0xbd591b21	-0.053004388
30	0xbe56b8a6	-0.20968875
31	0xbda6e23d	-0.0814862

encoder_variable_selection.single_variable_grns.VaccinationFull.gate_norm.add_norm.norm.weight f4 [16]
0	0x3f288361	0.6582547
1	0x3f5860b1	0.8452254
2	0x3f7cd4de	0.9876231
3	0x3f61ee85	0.88254577
4	0x3f88cc7a	1.0687401
5	0x3f738450	0.9512377
6	0x3f604d94	0.87618375
7	0x3f3ca42e	0.7368802
8	0x3f6e54e1	0.93098265
9	0x3f6aeef0	0.9177084
10	0x3f6b13b5	0.91826946
11	0x3f4d6c71	0.80243593
12	0x3f51ad89	0.8190542
13	0x3f7fb7d6	0.99889886
14	0x3f433c58	0.7626395
15	0x3f2d5e92	0.6772243

encoder_variable_selection.single_variable_grns.VaccinationFull.gate_norm.add_norm.norm.bias f4 [16]
0	0xbdf9d23f	-0.121983044
1	0x3e1748af	0.1477382
2	0x3cab91d9	0.020943569
3	0x3daa1fb9	0.08306832
4	0xbd37d485	-0.04488041
5	0x3c9d98ea	0.019237954
6	0xbddfaf2e	-0.10922085
7	0xbe291a39	-0.1651391
8	0xbdd75722	-0.10514666
9	0xbcba0044	-0.022705205
10	0xbce0c1b3	-0.027436113
11	0x3d1bb6ce	0.038016133
12	0xbcb8a12e	-0.022537794
13	0xbcdd3e59	-0.027007269
14	0xbd2bda22	-0.041956075
15	0x3dd3c7d7	0.10340851

encoder_variable_selection.single_variable_grns.Cases.resample_norm.mask f4 [16]
0	0x3dbd519a	0.0924408
1	0xbd147f3b	-0.03625415
2	0xbee4d62f	-0.4469466
3	0x3d2e7a5a	0.042597152
4	0xbcac2f99	-0.02101879
5	0x3e256424	0.16151482
6	0xbd927f1c	-0.071531504
7	0xbe230092	-0.15918186
8	0xbefd6c49	-0.49496678
9	0x3eac217c	0.33619297
10	0x3e9836b6	0.2972924
11	0xbd5af688	-0.053457767
12	0xbe9f8c2b	-0.31161627
13	0xbe2caf5f	-0.16863774
14	0x3ebb50e5	0.36585155
15	0xbcea2bae	-0.028585281

encoder_variable_selection.single_variable_grns.Cases.resample_norm.norm.weight f4 [16]
0	0x3f7fb93f	0.9989204
1	0x3f73c23c	0.95218253
2	0x3f0df0b8	0.5544543
3	0x3f8256ee	1.0182779
4	0x3f66c848	0.90149355
5	0x3f9453c0	1.1588058
6	0x3f88d355	1.0689493
7	0x3f6628ea	0.8990618
8	0x3f1142e4	0.5674269
9	0x3fa9278f	1.3215197
10	0x3fa6b9e7	1.3025483
11	0x3f7488f8	0.955215
12	0x3f27a0eb	0.65479916
13	0x3f532f97	0.8249449
14	0x3fad5c24	1.3543744
15	0x3f85da68	1.0457277

encoder_variable_selection.single_variable_grns.Cases.resample_norm.norm.bias f4 [16]
0	0x3e19198a	0.14951149
1	0x3c9931f3	0.018700575
2	0xbe4fbc77	-0.20286737
3	0xbe3620a9	-0.17785896
4	0xbe2cc914	-0.1687358
5	0xbda52f61	-0.080656774
6	0xbe090802	-0.13381961
7	0xbc3eacf0	-0.011637911
8	0x3d8946a7	0.06702929
9	0x3e3b46e3	0.1828876
10	0x3d8dbb1e	0.069204554
11	0xbc01bc12	-0.007918375
12	0xbdde9752	-0.10868706
13	0x3de33130	0.11093366
14	0xbc6e5046	-0.014545506
15	0x3dfe3c14	0.12413803

encoder_variable_selection.single_variable_grns.Cases.fc1.weight f4 [8, 8]
0	0x3c739b68	0.014868595
1	0x3fb34f65	1.4008604
2	0x3e0c4736	0.1369904
3	0x3defb212	0.11703886
4	0xbeef4d3d	-0.46738616
5	0x3ef36cb0	0.4754386
6	0xbe88e43a	-0.26736623
7	0xbf09fa5d	-0.5389765
8	0x3f0fe737	0.5621218
9	0x3ed1069f	0.40825364
10	0xbe920220	-0.28517246
11	0xbfa4e8fd	-1.2883602
12	0xbf866977	-1.0500935
13	0x3ea034bc	0.31290233
14	0x3e1a5279	0.15070523
15	0xbdb262c4	-0.08710244
16	0x3f9d5a08	1.22931
17	0x3d810d0e	0.06301318
18	0xbd8be9aa	-0.06831677
19	0xbcad991e	-0.021191176
20	0xbd3a7254	-0.045519188
21	0xbe395aa9	-0.1810099
22	0xbf6e8c1f	-0.9318256
23	0x3f1d1fae	0.61376464
24	0xbf1a0969	-0.6017061
25	0xbe0aed68	-0.13567126
26	0x3f459cf8	0.7719264
27	0x3eec7a4f	0.46187064
28	0x3f50cb3e	0.8156012
29	0x3cd86052	0.026413117
30	0x3e0cb586	0.1374112
31	0x3efd0ce4	0.49423897
32	0xba3d630f	-0.0007224539
33	0xbf014152	-0.50490296
34	0xbdd49ea7	-0.10381823
35	0x3ed4db02	0.4157334
36	0x3ef17278	0.47157645
37	0x3e12b83f	0.14328097
38	0xbdbc9a25	-0.09209088
39	0x3ef8eff8	0.48620582
40	0xbd685384	-0.05672027
41	0xbe14a25f	-0.14515065
42	0x3d4a064e	0.04932242
43	0xbee52221	-0.447526
44	0xbedcea41	-0.43147472
45	0x3f145ef3	0.5795738
46	0xbdacbfa0	-0.08434987
47	0x3f2c6111	0.6733561
48	0x3e0dda1a	0.1385273
49	0x3e800931	0.25007012
50	0x3e42a70d	0.19009037
51	0x3f6126c3	0.8794977
52	0xbfa7f576	-1.3121784
53	0x3ded632c	0.11591181
54	0x3f072ffc	0.52807593
55	0xbec48991	-0.38386205
56	0xbe4c4168	-0.19946826
57	0xbef8440e	-0.48489422
58	0xbee820db	-0.45337567
59	0xbf2d0d7f	-0.6759872
60	0xbda98569	-0.08277399
61	0xbedda1d8	-0.4328754
62	0xbf3dcffb	-0.7414548
63	0x3faa4f29	1.3305408

encoder_variable_selection.single_variable_grns.Cases.fc1.bias f4 [8]
0	0xbe5396ea	-0.20663038
1	0xbe509e89	-0.20372976
2	0x3dc1da0b	0.094654165
3	0x3cd6d4be	0.02622449
4	0x3c6e4e96	0.014545104
5	0xbd1eb52d	-0.038747
6	0xbe92f988	-0.28706002
7	0x3d7f5621	0.062338
