TFT-pytorch-age-and-vaccination/results/age_groups_4049/checkpoints/latest-epoch=10.ckpt (torch, 436013 bytes, 506 tensors)

prescalers.AGE4049.weight f4 [8, 1]
000000 e5 7e 62 3e 3a 4f 3d bf f4 c3 e1 3d a3 46 b1 3e
       0.22118719 -0.73949015 0.11023703 0.34624204
000010 3b a6 1d bf 95 71 fc ba d7 6c 17 bf bd 5a bd 3e
       -0.6158177 -0.0019259924 -0.5915045 0.3698329

prescalers.AGE4049.bias f4 [8]
000000 f1 2d 4c be dd 52 3e 3f ca 1e f2 3e 31 7a c5 bc
       -0.199394 0.7434519 0.47289115 -0.024106117
000010 eb cf 96 be 93 80 00 bf bb a9 6d bc 59 53 70 be
       -0.29455504 -0.5019619 -0.014505799 -0.23469295

prescalers.SinWeekly.weight f4 [8, 1]
000000 84 9a 4e 3e d1 1a 81 bf a6 08 82 3f 1e 7b 53 bf
       0.2017613 -1.0086309 1.0158889 -0.82609737
000010 00 c7 46 3f 2f e1 68 be 60 f7 27 3f 4e 78 f2 3e
       0.776474 -0.2274215 0.6561184 0.4735741

prescalers.SinWeekly.bias f4 [8]
000000 68 65 98 3d 7b 41 9a bc a8 ed 14 3f 13 c5 4e 3e
       0.07441217 -0.018830052 0.58175135 0.20192365
000010 1d c6 0f 3f 17 c6 26 bf 3d 6f 34 3f 05 88 bd 3e
       0.5616167 -0.6514601 0.70482236 0.37017837

prescalers.VaccinationFull.weight f4 [8, 1]
000000 19 2c 59 3e 60 8e b9 bc 7b 52 d5 3e 58 e3 75 3f
       0.21208228 -0.022650898 0.4166449 0.96050024
000010 07 ea 16 be 07 c5 f7 be 6e 60 44 be 69 33 17 bf
       -0.14737712 -0.48392507 -0.1917741 -0.5906282

prescalers.VaccinationFull.bias f4 [8]
000000 f0 e8 13 3f b3 63 e9 be ee c9 0c bf 9b 6d 6f 3f
       0.5777731 -0.45583877 -0.5499562 0.9352662
000010 3a 94 5d 3f 8b 92 9c 3d 33 1c ac be 34 44 c9 bd
       0.865543 0.07645138 -0.33615264 -0.09827462

prescalers.Cases.weight f4 [8, 1]
000000 bf 8c 15 3f 63 67 82 bf e4 4c 70 bf 44 40 0b 3f
       0.58417886 -1.0187801 -0.93867326 0.54394937
000010 58 20 97 3f 51 37 42 3c 32 0e 3e bf 8b 57 bd 3e
       1.1806746 0.011854009 -0.7424041 0.36980852

prescalers.Cases.bias f4 [8]
000000 9d a3 f6 be f8 12 a5 bc 51 ee dc 3e cb be 85 3e
       -0.48171702 -0.020150647 0.4315057 0.26122126
000010 e5 4b c3 3d 24 2a a2 3c a8 44 97 3c 8d 98 5b bf
       0.0953596 0.019795485 0.018465355 -0.8577965

static_variable_selection.single_variable_grns.AGE4049.resample_norm.mask f4 [16]
000000 92 72 bb bc ce 96 77 3b 4e 94 25 3e 6b f9 30 3d
       -0.02288178 0.0037779096 0.16169855 0.043206614
000010 1b 5a 03 bd cd 55 32 be 80 66 73 bd 5c 07 0b 3d
       -0.032068353 -0.17415543 -0.059423923 0.033942565
000020 56 c6 a2 bd a8 10 61 3c 4e ac 4d bb b1 45 c7 3c
       -0.07947986 0.013736881 -0.003138322 0.024325224
000030 c5 73 f7 bc a7 20 b6 bb 5c 56 d6 bc 37 82 ee 3d
       -0.03020657 -0.0055580917 -0.026164226 0.1164593

static_variable_selection.single_variable_grns.AGE4049.resample_norm.norm.weight f4 [16]
000000 ef 77 94 3f 01 71 7e 3f 37 6a 90 3f 63 f5 83 3f
       1.1599101 0.9939118 1.1282414 1.0309261
000010 ba 68 80 3f a3 97 5f 3f 18 54 7a 3f 05 53 8b 3f
       1.003196 0.87340754 0.97784567 1.088471
000020 0d 13 6f 3f 48 59 82 3f f7 95 81 3f 83 20 8b 3f
       0.93388444 1.0183496 1.0123891 1.0869297
000030 ce 13 78 3f 5e d3 7f 3f 6f c7 71 3f 06 20 94 3f
       0.9690522 0.99931896 0.94444937 1.1572273

static_variable_selection.single_variable_grns.AGE4049.resample_norm.norm.bias f4 [16]
000000 be 65 a0 3d 84 5d 8e 38 b9 09 0f 3d 84 68 82 3c
       0.07831906 6.788506e-05 0.03492138 0.015918978
000010 86 67 10 3c 8d 85 03 be b3 e4 11 be 92 62 8a bd
       0.008813744 -0.12843914 -0.14247398 -0.06757082
000020 79 f5 2f 3d 0b c7 d3 3c 9e 23 0d 3c 89 23 ba bd
       0.04295871 0.025851747 0.008614449 -0.09088809
000030 f8 f4 0b 3c db ed 22 bc c2 bc 8b 3d 15 f3 81 3d
       0.008542292 -0.0099444045 0.06823112 0.06345192

static_variable_selection.single_variable_grns.AGE4049.fc1.weight f4 [8, 8]
000000 18 b9 b5 3e 44 cc fe be 34 a0 fc be e9 c0 e9 be
       0.35492778 -0.49765217 -0.49340975 -0.4565499
000010 f4 01 93 be 75 47 b9 bf 2d 4c 71 3e 16 8f 00 bf
       -0.28712428 -1.4474932 0.23564215 -0.5021833
000020 10 87 0b bf b0 52 6f bf 3d 5f 78 be dc de 18 3f
       -0.54502964 -0.93485546 -0.2425508 0.59715056
000030 35 12 34 be f8 ff ba be b5 28 33 3f 59 d3 30 3d
       -0.1758507 -0.36523414 0.6998399 0.043170307
000040 24 08 25 3e f9 aa e3 3e d9 57 23 3f 3d 4d 73 be
       0.16116387 0.4446638 0.6380592 -0.23759933
000050 5f 6b 7f 3d 70 d5 8c be 84 b7 9a 3e c4 ed df be
       0.062358256 -0.2750659 0.30218136 -0.43736088
000060 15 9d 18 bf 2c 14 1c be 59 fb 0b bd ba 23 c5 be
       -0.5961469 -0.1524207 -0.03417525 -0.3850382
000070 11 2f 6e be 48 1f 27 3e fe 93 26 be 07 e3 3b 3f
       -0.23260142 0.16320527 -0.16267392 0.7339329
000080 f1 66 ad be 24 10 c5 3e b2 ca ff bd a3 f5 1d bd
       -0.338676 0.38488877 -0.12489833 -0.038564336
000090 65 96 f1 be 6d 1a 6d 3f 25 cd 29 3e 52 9f 16 3e
       -0.47185054 0.9261845 0.16582163 0.14709213
0000a0 28 15 7f 3e fd 7d 76 bd 8b b9 2e be 92 ef 55 3d
       0.24910414 -0.060178746 -0.17062967 0.052230425
0000b0 a6 57 c1 3e e8 86 e3 be d8 fd 54 3d 27 89 6c be
       0.37762183 -0.44438863 0.051999897 -0.23099194
0000c0 60 61 09 be 13 d4 17 bf 0c 58 4d be 0d b8 8f 3e
       -0.13416052 -0.59307975 -0.20053118 0.28070107
0000d0 5a 8d a2 3e 59 08 a2 3f 00 ff a7 3e e5 05 5b be
       0.31748468 1.2658798 0.32811737 -0.21388967
0000e0 c9 e9 2f bf 71 44 0d bf 3f b1 d9 bd 6d fd ec 3e
       -0.687161 -0.5518256 -0.1062951 0.462871
0000f0 df 62 9b 3c 0d fa e9 be 7d 9c 99 3e 5e 0e 08 3e
       0.018968044 -0.45698586 0.30002204 0.1328673

static_variable_selection.single_variable_grns.AGE4049.fc1.bias f4 [8]
000000 c0 d4 6e bd 38 6e 96 3c 1b cc b3 bb e3 9c a2 ba
       -0.058308363 0.018363103 -0.0054869778 -0.0012406375
000010 b1 9b 8b 3d ee 99 3b 3d 81 8b 05 3e fd 37 00 3d
       0.06816805 0.045801096 0.13041498 0.031303395

static_variable_selection.single_variable_grns.AGE4049.fc2.weight f4 [8, 8]
000000 49 dc 8d 3c 81 c4 2d 3f c2 1b 05 3e f1 cf 88 be
       0.017316954 0.67877966 0.1299887 -0.26721147
000010 86 1f 59 3e 9c 75 e5 be b0 c8 36 3f 77 b0 5c 3f
       0.21203431 -0.4481629 0.71399975 0.86206764
000020 80 67 e1 be b8 28 16 bf a4 6a 98 3e 61 96 3b be
       -0.44024277 -0.5865588 0.2976886 -0.18319084
000030 dc 69 3b 3e ec 1b ed bb b2 2d a2 3e 7b 3a 9a 3c
       0.18302101 -0.0072359946 0.31675488 0.018826714
000040 58 58 58 be 19 8a c9 3e c5 c7 a8 bd 45 b1 00 3e
       -0.2112745 0.39363173 -0.08241228 0.12567623
000050 91 db 3d 3e 67 ff df be 25 59 86 be e1 91 1e 3f
       0.18540789 -0.43749544 -0.26239887 0.61941344
000060 20 e5 42 3f 63 36 82 bc 9b e9 01 3f 82 a4 e6 be
       0.76130867 -0.015895074 0.5074708 -0.45047385
000070 ef a2 42 bb 9e f9 ac bd 70 fe 24 3f fa 8c 3d bf
       -0.0029699167 -0.08446048 0.6445074 -0.7404324
000080 5b 80 be 3e b6 8b ba be 2d 8a 49 3e cf 10 56 3e
       0.37207302 -0.36434716 0.19681616 0.2090485
000090 c4 8a ae 3e e8 3d d7 3d 87 cc fa 3e 0e 3d a0 3d
       0.34090245 0.105098546 0.48984167 0.07824145
0000a0 81 de 37 3e f6 8a c9 bd d3 07 0d bf ce e6 b8 3c
       0.17955972 -0.09840958 -0.55090064 0.022570994
0000b0 1e c6 a7 3e 7b 91 b0 bd 53 62 26 bf 80 32 80 3e
       0.3276834 -0.08621498 -0.6499378 0.25038528
0000c0 1e 3f 50 bf df b2 07 3e f5 2c b3 bc 3e d2 a0 bc
       -0.8134631 0.13251828 -0.021872023 -0.019631501
0000d0 e6 ed a3 3e 09 40 ac 3e dd 59 b9 be c2 c6 c3 be
       0.3201744 0.33642605 -0.36201373 -0.38237578
0000e0 c0 52 18 3e 5b 77 c8 3e 94 84 30 bf c3 11 9b bd
       0.14875317 0.3915356 -0.689523 -0.07571747
0000f0 d9 ee 21 3d a8 a0 91 bc 03 a8 8a 3e 4a 21 d7 be
       0.039534424 -0.017776802 0.27081308 -0.42017585

static_variable_selection.single_variable_grns.AGE4049.fc2.bias f4 [8]
000000 d3 ac cc 3d 44 59 a4 3d 13 65 47 bd a7 95 92 bd
       0.09993901 0.080248386 -0.048680376 -0.0715745
000010 4f 5b 74 3d 55 81 d9 bd b1 c6 15 bd 6a 98 3a 3d
       0.05965739 -0.10620371 -0.03656644 0.04555551

static_variable_selection.single_variable_grns.AGE4049.gate_norm.glu.fc.weight f4 [32, 8]
000000 ea 6a 88 bd bc 4f 8f 3e 15 24 37 be 9b 08 56 be
       -0.06661017 0.2799052 -0.17884858 -0.2090172
000010 13 30 9b 3d dd 2f 38 be cc 6d d7 be 80 e5 b0 3d
       0.07577529 -0.17987008 -0.42075956 0.08637524
000020 23 a5 a0 bd 5e 9d 19 3e ff 57 b0 bc e9 0c a5 3e
       -0.07843997 0.15001437 -0.021526335 0.32236412
000030 3e 45 28 be 17 b2 83 3e 20 3d 76 be f0 2e f7 bd
       -0.16432664 0.2572181 -0.24046755 -0.120694995
000040 0b f5 8a 3e ee c5 cb 3d 42 c4 9b be 02 20 20 bd
       0.27140078 0.099498615 -0.3042317 -0.039093025
000050 2a 0b 34 3e 76 1d 97 be 4d 57 df bc e9 41 41 3e
       0.17582384 -0.29514664 -0.027263308 0.18872799
000060 6c 31 74 be c7 5b 50 3e b0 51 b0 be 7b 97 94 be
       -0.23846978 0.2034751 -0.34437323 -0.2902182
000070 61 a4 6d 3d 14 86 b0 be 39 30 10 be 34 05 5c 3e
       0.058018092 -0.34477293 -0.14080895 0.2148636
000080 b5 5f 8e bd ed ee 9d be b6 f9 48 3e 35 98 e0 be
       -0.069518484 -0.30846348 0.19626507 -0.43866125
000090 14 a9 d2 3c 10 4a 4a be 32 47 64 be 4b 04 fa 3d
       0.025715388 -0.19754815 -0.22292784 0.1220785
0000a0 46 be ea 3e 09 9a 87 bd 73 41 81 be 90 b8 0e 3d
       0.45848292 -0.06621177 -0.25245246 0.03484398
0000b0 f5 e5 9d bd 98 53 84 be c2 ab 73 3e aa 9e 85 3e
       -0.077098764 -0.25845027 0.23795989 0.26097614
0000c0 77 70 06 be 37 21 32 be 91 8e 64 3e a3 82 ae bd
       -0.1312884 -0.17395483 0.2232001 -0.08521011
0000d0 8a c8 82 3b 38 d3 06 be 8b 89 0d 3e 97 fb b6 3e
       0.0039911913 -0.13166511 0.13822 0.35738823
0000e0 40 08 a0 3e 88 92 54 3e 6d 35 18 3d dd a5 8e bd
       0.31256294 0.20759022 0.037160326 -0.0696523
0000f0 a7 34 f4 bd c6 ab 55 bc 82 5c 1e 3d b7 f8 81 3d
       -0.11924105 -0.013041442 0.03866244 0.06346267
000100 9e b4 8e be 5e a8 78 be 53 3f 49 3e cd cb 92 3e
       -0.27872175 -0.24282977 0.19653063 0.28671113
000110 2f b2 a3 3e f1 d9 6e 3e ad 91 8a 3e 2c 47 08 3e
       0.3197188 0.23325326 0.27064267 0.133084
000120 1f 9e 4a 3e 41 6d 1e 3d 98 fe 6a bb fd 35 7b 3e
       0.19786881 0.03867841 -0.0035857316 0.24532314
000130 f2 cc 9c 3d 68 f7 bf bd 36 c5 e1 bd 58 cc 70 be
       0.07656278 -0.09373361 -0.11023943 -0.23515451
000140 b4 63 5c be 5f 76 e1 3d cf 8a 89 3e 8c 7d 07 bb
       -0.21522409 0.110089056 0.26863715 -0.0020674197
000150 c7 a4 77 be 97 ca cc be 6e a7 29 3e 3b db 02 3e
       -0.24183951 -0.39998314 0.16567776 0.12778942
000160 b3 03 c6 bd 39 19 50 be f0 15 c8 3e b3 de d0 be
       -0.09668674 -0.20322122 0.39079237 -0.40794906
000170 3a 1a 5e 3e a7 ce 9a 3c 1c 7e 15 be 2d 66 cf 3e
       0.21689692 0.018897368 -0.14598888 0.4050764
000180 96 53 6e be ec 7b d4 3e cb 8f 00 3e cb 95 1a 3e
       -0.23274073 0.41500795 0.12554853 0.15096204
000190 0d 8d 72 3e 91 9e 48 3d 6d b2 a2 3e ee ce c6 3d
       0.23686619 0.048979346 0.31776753 0.097074375
0001a0 d1 f6 ae be 8f 3b 99 bd 57 b7 48 bc 62 31 9d 3e
       -0.3417268 -0.07482063 -0.012250743 0.3070174
0001b0 d9 8f b4 bd c2 9c 89 3d 5d ef c3 3d 70 fb 5c 3d
       -0.08816499 0.06719352 0.09567139 0.053950727
0001c0 a0 0a cf be c1 93 01 3f f4 ec 82 be 7c cc 2d 3e
       -0.40437794 0.5061608 -0.25571406 0.16972536
0001d0 8b 4f 8f bd 58 da 43 bd 44 c3 b9 3e 7f f1 54 3c
       -0.069975935 -0.04781565 0.36281788 0.01299703
0001e0 4c 49 5a be ed e6 1b 3d 9e 79 47 be 8e 25 94 3e
       -0.21317023 0.038062025 -0.19479987 0.28934902
0001f0 ef cb 2c 3e 97 de b4 3e 86 1f d3 3d f6 64 d6 be
       0.1687467 0.35326073 0.10308747 -0.41873902
000200 24 e9 b8 3c 0f 92 07 bf 62 12 d0 3e 20 55 85 3e
       0.022572108 -0.5295724 0.40639025 0.26041508
000210 58 19 e2 3e c5 b6 8f be 7b 9e 55 be 90 79 91 3d
       0.4415996 -0.2806913 -0.20861237 0.07103264
000220 fd b8 d4 3e 05 50 ec be a3 dc 97 be fd 7b c8 3d
       0.41547385 -0.461548 -0.2966052 0.09789274
000230 b0 e4 64 3d 3a 77 80 be 93 b3 7a be b0 55 a3 be
       0.055882156 -0.25090963 -0.24482565 -0.31901312
000240 f1 2d 57 3e 46 ff 0f be 22 0b 53 bd 84 6d 26 3e
       0.21013619 -0.14062223 -0.05152429 0.16252714
000250 95 56 80 be 25 cd c6 3e 40 4d be bd 2c 1b ad 3e
       -0.25066057 0.38828388 -0.09292078 0.33809793
000260 f9 23 e0 3d 11 a3 69 3e 6d cf 20 be fb 15 14 be
       0.10944361 0.22816111 -0.15704127 -0.1446151
000270 ce b6 0b bb 71 0e 48 3e 86 fe 93 be 78 5a 02 3f
       -0.0021318677 0.19536759 -0.28905123 0.50919294
000280 8b 84 08 bc 43 d2 86 be 42 b8 4b bb 91 52 b1 bc
       -0.008332382 -0.26332292 -0.0031085168 -0.021645816
000290 24 c9 8e bd b6 62 7f be 04 50 bd bd 96 b5 85 3c
       -0.06971958 -0.24939999 -0.092437774 0.016321938
0002a0 11 7b f6 3d af 1c d9 bc 85 30 5d 3e da 38 a7 bc
       0.12035192 -0.026502935 0.2160054 -0.020412851
0002b0 08 0b 72 3e db a3 17 3e 8e 97 bc be f4 dc 38 3e
       0.2363702 0.148086 -0.36834377 0.18053037
0002c0 8a 30 35 3e 7c 2c e7 3e ff fa fe be bd 92 88 3d
       0.17694297 0.45151126 -0.4980087 0.06668613
0002d0 59 0f a3 be dc 3a 82 be f7 84 17 bd 2a 65 8a be
       -0.31847647 -0.2543553 -0.03699204 -0.27030307
0002e0 f0 7e 46 be d4 21 84 3e f3 0b 80 3e c8 d0 2c 3e
       -0.1938436 0.2580706 0.25009117 0.16876519
0002f0 fd 27 c1 3d 2d a1 a5 3d 59 38 d4 3d c5 5a 97 be
       0.09431455 0.080873825 0.1036231 -0.2956144
000300 4e 4f 55 3c 4d 71 9e 3e 39 61 14 be 19 3d bd ba
       0.013019396 0.30945817 -0.14490213 -0.0014437764
000310 08 9d d6 3e d9 d8 07 3e a2 2f 3a bd c4 6a 01 3f
       0.4191668 0.13266315 -0.045455582 0.50553536
000320 ac c0 07 3d d6 75 9f 3e 51 97 48 3e 53 b8 c4 3c
       0.03314273 0.3114459 0.19588973 0.024013674
000330 ef 09 2d 3f 22 4b 02 bf e5 a0 b8 3c 7a c4 9c 3e
       0.6759328 -0.50895894 0.022537658 0.3061865
000340 ec bd c6 3e 04 c4 ab be 07 ec 83 3e f8 77 99 bd
       0.38816774 -0.33547986 0.25766012 -0.07493585
000350 73 83 57 be 6c 83 f3 bd f9 53 51 3d e1 7d 40 be
       -0.21046238 -0.11890301 0.051105473 -0.18798019
000360 7a 7e 6e bd 21 61 31 3e 87 66 37 3e d7 52 a5 3e
       -0.058226086 0.17322208 0.17910205 0.32289764
000370 34 d3 58 be 67 2c 8c 3e e5 5a 42 3d dc 5e 13 bd
       -0.21174318 0.27377626 0.047449965 -0.035979137
000380 3c 36 f0 bd 92 4c 12 be 31 e9 1c 3f 42 3c 04 bf
       -0.117290944 -0.14287022 0.6129332 -0.51654446
000390 3b 47 c9 3d 1a f7 52 3e fe bf eb bc 36 29 fc 3e
       0.09828039 0.20602074 -0.028778072 0.4925019
0003a0 9e b2 9e 3c 89 97 29 be 21 eb 99 be dd 5c 9c be
       0.01937228 -0.16561712 -0.30062202 -0.305396
0003b0 e7 15 8c bb 31 f0 2a 3e ff 8c 76 3d 79 d8 2e 3e
       -0.004275072 0.16693188 0.060193058 0.17074765
0003c0 4d 26 78 3e a6 15 b3 3e 0d 8d aa be 95 2d 00 3e
       0.2423336 0.34977454 -0.33310738 0.12517388
0003d0 24 e0 bb 3e f3 ff bf be 99 51 aa 3e fa 87 c7 3d
       0.36694443 -0.3749996 0.3326538 0.09742732
0003e0 6f 07 2e 3c 6a 1b 55 be b6 34 43 be 49 b8 a6 be
       0.0106218895 -0.20811239 -0.19063076 -0.32562473
0003f0 d9 49 30 3e e9 3d af be 4f ea 38 be 57 49 ba 3e
       0.1721567 -0.3422692 -0.18058132 0.3638408

static_variable_selection.single_variable_grns.AGE4049.gate_norm.glu.fc.bias f4 [32]
000000 c0 13 aa 3d 7b 97 56 bc b6 ea 2a 3d f8 10 1b 3c
       0.08304548 -0.013097639 0.041727744 0.009464495
000010 94 75 80 3c 52 f1 f8 bd a4 cf 06 be 20 9b 5b bd
       0.015681066 -0.12155403 -0.13165146 -0.053614736
000020 d3 cb 12 3d 66 21 d5 3c 27 f5 be 3b b0 f9 ad bd
       0.035838913 0.026016902 0.0058275643 -0.0849489
000030 b7 22 a2 3b 0a 90 a4 bc 09 ab 9d 3d db 7d 5f 3d
       0.004947986 -0.020088214 0.07698638 0.054563385
000040 2a 35 a7 be b7 c7 b3 bd f6 51 a3 bd d7 e2 72 be
       -0.32657748 -0.08778327 -0.07974617 -0.23719345
000050 2a bb 99 bc cd df a1 3d a8 09 86 bc 03 5e 6e bd
       -0.018766005 0.07904015 -0.016362026 -0.058195125
000060 e2 7e 27 be 40 b9 4e be 1b c8 20 be e8 14 37 3d
       -0.16356996 -0.20187855 -0.15701334 0.044697672
000070 bd 62 64 be 43 45 d5 bd a6 79 5b 3d 54 90 a7 3b
       -0.2230329 -0.10413601 0.05358281 0.005113641

static_variable_selection.single_variable_grns.AGE4049.gate_norm.add_norm.norm.weight f4 [16]
000000 77 bb 90 3f 65 5f 77 3f 57 b5 8c 3f 8f 9b 82 3f
       1.130721 0.96629936 1.099284 1.0203723
000010 32 d4 81 3f 3e c0 60 3f 27 ba 7b 3f 2f 85 82 3f
       1.0142882 0.8779334 0.9833092 1.0196894
000020 c7 22 6a 3f 71 ad 80 3f 01 54 80 3f d9 3d 8d 3f
       0.91459316 1.005293 1.0025636 1.10345
000030 f9 de 72 3f 37 62 6f 3f 18 17 79 3f 5c 71 8c 3f
       0.9487148 0.9350924 0.97300863 1.0972095

static_variable_selection.single_variable_grns.AGE4049.gate_norm.add_norm.norm.bias f4 [16]
000000 29 f5 8c 3d 9a 5e c5 3b e3 5a 38 3d c1 61 12 3d
       0.06882698 0.0060232403 0.04500855 0.035737757
000010 53 2d fe 3c ec 7d e0 bd 6a ea 14 be 3a c3 90 bd
       0.031027472 -0.10961518 -0.14542547 -0.070684865
000020 c8 51 05 3d a2 6f da 3c c0 7b 9a 3b 1e 08 ea bd
       0.032548696 0.026664559 0.004714459 -0.114273295
000030 df f5 02 3c f2 26 b4 bc 32 86 91 3d f3 d9 83 3d
       0.007993191 -0.021991227 0.07105674 0.06438055

static_variable_selection.prescalers.AGE4049.weight f4 [8, 1]
000000 e5 7e 62 3e 3a 4f 3d bf f4 c3 e1 3d a3 46 b1 3e
       0.22118719 -0.73949015 0.11023703 0.34624204
000010 3b a6 1d bf 95 71 fc ba d7 6c 17 bf bd 5a bd 3e
       -0.6158177 -0.0019259924 -0.5915045 0.3698329

static_variable_selection.prescalers.AGE4049.bias f4 [8]
000000 f1 2d 4c be dd 52 3e 3f ca 1e f2 3e 31 7a c5 bc
       -0.199394 0.7434519 0.47289115 -0.024106117
000010 eb cf 96 be 93 80 00 bf bb a9 6d bc 59 53 70 be
       -0.29455504 -0.5019619 -0.014505799 -0.23469295

encoder_variable_selection.flattened_grn.resample_norm.mask f4 [3]
000000 de 7a 5a be 42 7a 00 bd 7e 96 88 3e
       -0.21335933 -0.031366594 0.26677316

encoder_variable_selection.flattened_grn.resample_norm.norm.weight f4 [3]
000000 dd 2c 5c 3f 8f 2a 63 3f 1b 70 cc 3f
       0.86005956 0.88736814 1.5971712

encoder_variable_selection.flattened_grn.resample_norm.norm.bias f4 [3]
000000 40 aa 6c 3e 7b bb 15 be be f8 86 be
       0.2311182 -0.146223 -0.2636165

encoder_variable_selection.flattened_grn.fc1.weight f4 [3, 24]
000000 75 29 c4 3e 60 86 eb bd da b0 23 3e 5f 8e ff 3d
       0.3831288 -0.11500239 0.15985432 0.12478327
000010 d7 e7 4b 3d 68 f8 96 3c 3e 2b 19 be 17 be 21 be
       0.049781647 0.018428996 -0.14957902 -0.1579517
000020 9d 98 ae be 45 9e b8 3d 1c 44 d7 3d a9 5c 9a bf
       -0.3410081 0.090145625 0.10511038 -1.2059528
000030 95 13 db bc 4d 23 6a bc d1 65 5e bc 49 4d 91 3d
       -0.026742736 -0.014290643 -0.01357408 0.07094819
000040 15 7a 03 3f b1 46 37 bf ac bb 8e 3e 10 f6 ca 3c
       0.5135816 -0.7159224 0.27877557 0.024775535
000050 4c 8c d9 3d 04 36 72 be d6 06 d2 3d 66 86 85 3e
       0.10622463 -0.23653418 0.1025521 0.260791
000060 89 13 90 bd 49 50 bb 3e a4 f2 e9 be 04 46 c6 bd
       -0.07034976 0.3658469 -0.45692933 -0.09681323
000070 68 0a 2a 3d db fb 8a 3d be e9 14 3d 82 7f 06 3f
       0.04151383 0.06786319 0.036355726 0.5253831
000080 95 5c 3d be fe 33 ad 3d be 77 39 bf 44 5a a1 be
       -0.18492348 0.08457182 -0.7244834 -0.3151418
000090 df a2 cd 3d 68 32 a3 3d c2 ce 24 bb 9e 73 9d 3e
       0.10040831 0.079685986 -0.0025147651 0.3075227
0000a0 26 f6 85 3d 0a b0 23 3c 5f 4b 02 bf fa b8 2c be
       0.0654109 0.009990701 -0.5089626 -0.16867438
0000b0 a0 60 d3 bc 6c 8d 2d 3e 34 27 26 bd f2 b9 8e 3d
       -0.02580291 0.1694848 -0.04056473 0.0696906
0000c0 d8 42 81 3e e3 b1 b8 be e2 d0 a4 bd 24 9a b6 3d
       0.2524631 -0.36073217 -0.08047654 0.08916119
0000d0 3b ed d9 3e 21 87 dd 3e f6 73 12 bd 74 d1 e3 3e
       0.42563805 0.43267158 -0.03575512 0.44495738
0000e0 2d dc b2 be b5 e5 69 3e b7 66 41 3e 65 3f b1 3e
       -0.34933606 0.22841533 0.18886839 0.3461868
0000f0 a8 18 e9 3c 19 5c 77 bd 65 8b 30 3e 07 8c 1c 3e
       0.02845414 -0.060390566 0.17240675 0.15287791
000100 0b 8b 24 3e 36 0c a8 3e 29 96 4b bd 1f df 7b bd
       0.16068666 0.32821816 -0.04970375 -0.06149208
000110 93 0d 45 be c9 2e 80 be f9 1a e7 be 0b 40 e5 3d
       -0.1924346 -0.25035694 -0.45137766 0.11193856

encoder_variable_selection.flattened_grn.fc1.bias f4 [3]
000000 50 44 d2 bc 23 79 1c bd e3 5c e3 bd
       -0.02566734 -0.038201462 -0.11101701

encoder_variable_selection.flattened_grn.context.weight f4 [3, 16]
000000 a0 2d 40 be 7f 0f 6c be 25 1d a3 be 72 b4 ea bd
       -0.18767405 -0.23052786 -0.31858173 -0.114601985
000010 30 ec c7 3e cd a6 a0 be 60 06 11 3d d4 a0 32 3e
       0.39047384 -0.3137726 0.03540647 0.17444164
000020 e5 0b 92 be b1 eb 35 3e 45 08 9d bd 22 b0 26 3e
       -0.285247 0.1776569 -0.07667593 0.16278127
000030 20 c8 9a 3e 89 f9 e6 3c a0 c5 93 be 58 b5 70 be
       0.30230808 0.02819516 -0.28861713 -0.23506677
000040 d0 e0 28 3f a0 a9 10 be 15 a5 c9 3e 22 44 e0 be
       0.65968037 -0.14127207 0.3938376 -0.4380198
000050 d2 69 a4 be 9a f2 15 3f de 7e 22 3d 1f 09 53 be
       -0.32111984 0.58573306 0.03967177 -0.20608948
000060 f1 94 97 3c d7 10 d2 bd 31 cf df be 11 b1 fc 3d
       0.018503638 -0.10257118 -0.43712762 0.1233846
000070 25 d2 de 3d f2 ad 15 be fa 4a c7 be 3a 4b d1 3d
       0.10879926 -0.14617136 -0.3892439 0.102194265
000080 2d 72 76 3e 5a 8c f2 bd f0 ad 10 3f 96 ff 84 be
       0.24066992 -0.11843176 0.5651541 -0.25976247
000090 b5 cc 4e be 2d 51 e7 3e f5 f4 20 3c d0 b4 4f 3e
       -0.20195277 0.4517912 0.009824027 0.20283818
0000a0 5e fe bd be b1 36 c4 3e 9b 88 c7 bb 7e 44 1c 3c
       -0.3710813 0.38322976 -0.0060892827 0.009537814
0000b0 d4 79 00 3e 27 f9 d9 3c 4d 5d 05 be f5 da b6 3e
       0.12546474 0.026608063 -0.13023873 0.35713926

encoder_variable_selection.flattened_grn.fc2.weight f4 [3, 3]
000000 57 b4 5b bf 9c 3e 97 bf 12 72 3e be 6b 88 a1 ba
       -0.8582205 -1.1815982 -0.18598202 -0.0012323981
000010 c7 74 85 bf 5d f7 60 be ee de e9 be 73 36 5f bf
       -1.0426263 -0.21969362 -0.45677894 -0.8719246
000020 cc 65 47 bf
       -0.77889705

encoder_variable_selection.flattened_grn.fc2.bias f4 [3]
000000 37 ab cb 3d b9 db 80 bd a6 7f f2 bd
       0.09944766 -0.06291909 -0.11840753

encoder_variable_selection.flattened_grn.gate_norm.glu.fc.weight f4 [6, 3]
000000 91 94 14 3f 80 96 11 be 61 ef 35 3f d2 42 0a bd
       0.58039194 -0.14217567 0.7106839 -0.03375513
000010 ee 7c da be 70 bf 2e 3f e6 87 ab be 48 72 7b be
       -0.4267344 0.6826086 -0.3350212 -0.24555314
000020 51 42 fa bc 35 0b db be b4 fb 09 bf f1 28 3e 3f
       -0.0305492 -0.42781988 -0.53899693 0.7428122
000030 5a ec 43 3f eb 10 ce bc 1a b9 e1 be ce 7b 7d 3f
       0.7653252 -0.025154551 -0.44086534 0.99017036
000040 a1 04 05 3f 8a a6 c9 3e
       0.5196019 0.39384872

encoder_variable_selection.flattened_grn.gate_norm.glu.fc.bias f4 [6]
000000 a8 93 06 3e ba ff 01 be 3f 66 aa be a8 5f c3 bd
       0.13142264 -0.12695208 -0.33281133 -0.09539729
000010 85 3a 94 3e 64 86 83 3e
       0.28950897 0.2568847

encoder_variable_selection.flattened_grn.gate_norm.add_norm.norm.weight f4 [3]
000000 5e 2f 40 3f 0b 0b 24 3f b8 c2 c2 3e
       0.75072277 0.6407935 0.38039184

encoder_variable_selection.flattened_grn.gate_norm.add_norm.norm.bias f4 [3]
000000 ef 23 18 3c 35 91 bd be 14 26 17 3f
       0.009285911 -0.37024847 0.5904248

encoder_variable_selection.single_variable_grns.SinWeekly.resample_norm.mask f4 [16]
000000 a3 2e 33 be 0f c9 ce bd 21 15 dd bd 8d 81 e3 bd
       -0.17498259 -0.10096943 -0.10795046 -0.11108694
000010 7b c8 40 be e6 c0 03 3d e0 a4 a2 bd 9f d0 9c be
       -0.18826477 0.032166384 -0.07941604 -0.30627915
000020 8c 07 c1 bc 4b 5d eb 3c 66 2b 62 be 17 db 97 3b
       -0.023563169 0.028731009 -0.22086868 0.004634272
000030 2a e6 54 be 37 76 d4 3d 14 b8 5e 3e 09 79 b0 3e
       -0.20790926 0.1037411 0.21749908 0.34467342

encoder_variable_selection.single_variable_grns.SinWeekly.resample_norm.norm.weight f4 [16]
000000 9c 42 4f 3f 95 64 61 3f 40 06 85 3f 31 d2 82 3f
       0.8096101 0.880441 1.0392532 1.0220395
000010 fe a6 41 3f 57 1f 87 3f b2 4d 7d 3f ca ca 4b 3f
       0.75645435 1.0556439 0.9894668 0.79606307
000020 bd f1 76 3f 6a 6d 6d 3f e7 95 5c 3f 2f 2a 85 3f
       0.96462613 0.9274508 0.8616623 1.0403498
000030 e8 49 79 3f 9c 5b 8a 3f c1 46 a1 3f 45 77 96 3f
       0.97378397 1.0809207 1.2599717 1.1755148

encoder_variable_selection.single_variable_grns.SinWeekly.resample_norm.norm.bias f4 [16]
000000 81 02 d4 3c 03 a5 80 3d 35 ef 95 be 4e 10 9e 3c
       0.0258801 0.062814735 -0.29284063 0.019294884
000010 db 92 83 bc b1 7b 36 3d 2c e5 2f be 6c b9 4b be
       -0.016061237 0.044551555 -0.17177266 -0.19894952
000020 32 9c 6f 3d 07 f9 24 3d 80 12 c2 3d d9 d3 3b 3e
       0.05849857 0.040276553 0.09476185 0.18342532
000030 1c 49 42 be ed 60 6a 3b 5c c1 e9 bc fb cd 13 3e
       -0.18973202 0.0035763339 -0.028534584 0.14434044

encoder_variable_selection.single_variable_grns.SinWeekly.fc1.weight f4 [8, 8]
000000 25 49 81 3f 2c 51 aa bf 18 f7 3e bf 5b 0e ae bf
       1.0100447 -1.3306022 -0.74595785 -1.3598131
000010 f6 32 92 be 24 fa 2d be 8d e1 b4 3e 43 84 06 3f
       -0.28554505 -0.16989952 0.35328332 0.52545565
000020 0b 71 c8 bd 68 c8 96 3e 95 9b 37 bd 8e e6 40 be
       -0.09787186 0.29449773 -0.04482611 -0.1883795
000030 b0 8f 9d bd d4 47 32 3f bf fe 58 be 9d 9e 07 be
       -0.07693422 0.6964085 -0.21190928 -0.132441
000040 85 18 ba bd d6 6e bb bd 78 a5 b6 be d6 b3 66 3e
       -0.09086708 -0.09152 -0.35673118 0.2252954
000050 68 76 4f bf 3d cb e3 3e 55 e4 72 3f 76 1f 98 3e
       -0.8104005 0.44490996 0.9487966 0.29711503
000060 43 58 b4 3e e7 8e 85 3d 3e 2f 8c be a4 69 1e 3e
       0.35223588 0.06521397 -0.27379793 0.15469986
000070 07 00 cd 3e 3d cc 2c 3d 5a e1 c1 3e 7d 65 2c 3f
       0.40039083 0.042186964 0.37867242 0.6734236
000080 cd a2 1c bf e2 df 23 be 05 8b 8e 3f a1 49 af bd
       -0.61185914 -0.16003373 1.1136175 -0.085589655
000090 86 61 c7 3d 76 92 49 3f e6 6b 05 3f cd 5e 81 bf
       0.09735398 0.78739107 0.52117765 -1.0107056
0000a0 58 cb 12 3f b8 9a 8d be 6a 2d 48 bf 17 f2 25 3d
       0.5734153 -0.27657104 -0.78194296 0.040514078
0000b0 94 52 00 3e d3 de 6f be dd 0b 9c be 11 98 e5 3d
       0.12531501 -0.23424844 -0.304778 0.11210645
0000c0 6f 61 5e bf ef ae 69 be 5c 0e 87 bf fa 21 df 3e
       -0.8686742 -0.22820638 -1.0551257 0.4358061
0000d0 52 08 5e be 9c 96 27 3d 2d f8 07 bf 69 45 03 be
       -0.21682861 0.040915117 -0.5311306 -0.12819447
0000e0 5d 3c e0 3e 9a da d2 bc ac f8 3d bf 6f 16 53 3e
       0.43796054 -0.025739003 -0.7420757 0.20614026
0000f0 36 5d 4f 3f 3b a2 00 3f b2 b0 3a be 19 d9 bd 3e
       0.81001604 0.50247544 -0.18231466 0.37079695

encoder_variable_selection.single_variable_grns.SinWeekly.fc1.bias f4 [8]
000000 ad 19 de bc 0b aa 89 3d a3 48 f7 bb 1e d6 98 bb
       -0.027111853 0.06721886 -0.007546501 -0.0046641966
000010 eb ca 7d bd 31 11 d5 bd d9 b0 13 be 8a a3 85 bd
       -0.061961096 -0.104036696 -0.14422931 -0.06525333

encoder_variable_selection.single_variable_grns.SinWeekly.fc2.weight f4 [8, 8]
000000 e0 43 95 bf fe 10 ef 3d f2 e7 8c bf 66 c0 1b bf
       -1.1661339 0.11673163 -1.1008284 -0.6084045
000010 8a 1d 41 bf 93 04 04 3e 2f 03 fa 3e 86 8b c8 be
       -0.754357 0.1289237 0.48830554 -0.39168948
000020 04 9f 9b be 54 29 b0 be a3 21 d3 3e cf 44 1b 3e
       -0.30394757 -0.3440653 0.412366 0.15162967
000030 45 8f 8b be 74 66 e8 3e 85 9b 17 3f 26 6f 52 3e
       -0.27257743 0.45390666 0.5922168 0.20550212
000040 fd bc 2e 3f e9 14 a5 be 4f a3 c1 3c 9a 4c 15 bf
       0.68257123 -0.32242516 0.023637442 -0.5832001
000050 7a 29 1f 3f ea d5 29 be 74 c9 17 3f 26 23 24 3f
       0.62172663 -0.16585508 0.5929177 0.6411613
000060 ec 43 6e 3e ac 72 53 3f fc 73 bd 3e 67 3f 77 3e
       0.23268098 0.8259685 0.37002552 0.2414528
000070 ab 95 2f 3e 47 31 4f bf a3 07 6b 3d e5 6e 2d bf
       0.17146938 -0.80934566 0.05738033 -0.67747337
000080 cd 0f 8f bf f3 04 a1 3f 95 18 8b be 0b d3 a7 be
       -1.1176697 1.2579635 -0.27167192 -0.327782
000090 38 95 bb be 11 52 42 3f 86 c9 8d 3e 77 f9 03 bd
       -0.36637282 0.75906473 0.27692813 -0.03222033
0000a0 f8 42 0c 3f 42 85 bf be 2e 6a 1b bf c3 26 4a bd
       0.54789686 -0.37406355 -0.6070889 -0.049353372
0000b0 bb e4 f4 be 67 ea 79 3e 65 47 80 be 2d b6 15 be
       -0.47830757 0.24405824 -0.2505447 -0.14620276
0000c0 7f 3b 9d 3e 86 6a 63 3b 18 14 e8 3c 2f 21 92 3d
       0.30709454 0.0034700944 0.028329894 0.071352355
0000d0 08 8d 0d 3f b1 62 b8 be b6 c6 36 3e 24 d5 78 3e
       0.5529332 -0.36012796 0.1784924 0.24300057
0000e0 20 22 23 3f 97 2f f2 3b 69 31 cc 3e 02 9e 23 3f
       0.63723946 0.007390927 0.39881447 0.63912976
0000f0 62 37 1a 3f 43 6e 93 be 2c eb 59 3f 47 05 1e bf
       0.6024076 -0.2879506 0.8512447 -0.617268

encoder_variable_selection.single_variable_grns.SinWeekly.fc2.bias f4 [8]
000000 c9 31 2e 3d 22 8e d9 bd 15 b7 af bd 34 92 c6 3d
       0.042527948 -0.10622813 -0.08579842 0.09695855
000010 66 40 51 be 11 69 9e bd b2 de 10 3d 75 d0 85 bd
       -0.20434722 -0.077348836 0.03536863 -0.06533901

encoder_variable_selection.single_variable_grns.SinWeekly.gate_norm.glu.fc.weight f4 [32, 8]
000000 ea 38 54 3d 1e dc ef bd db 9b 11 be 05 fe 3b be
       0.05181209 -0.11711906 -0.1421961 -0.1835862
000010 31 f7 c5 bd 12 f1 36 be 27 9b 42 be 9d b0 c7 3d
       -0.09666289 -0.17865399 -0.19004498 0.09750483
000020 a2 74 b9 bc dd 7e e2 3d 4d e2 ec bb 1a 6d 1b be
       -0.022638623 0.110593535 -0.0072291256 -0.15178338
000030 6f c1 e0 3d fe c7 a9 3d f5 3a cd 3e 5b a9 0f 3d
       0.109743945 0.082900986 0.40084043 0.03507362
000040 90 81 c0 3e 17 1f 0e 3d 2e 74 6a 3e cc b3 1b bd
       0.37598848 0.03469762 0.22895882 -0.038013265
000050 2c 75 e3 3e c0 4b 26 3c 0c b6 9d be 47 64 6b 3a
       0.44425333 0.010149896 -0.30802953 0.0008979481
000060 f6 46 9d 3e ba 8c dc 3d 76 88 3a be 4b cc 14 be
       0.307182 0.10769029 -0.18216118 -0.14531057
000070 80 6e ba 3e 24 41 8a bd 2e 31 b0 be cf bb 6f 3e
       0.3641243 -0.06750706 -0.3441252 0.23411487
000080 a9 00 95 3e e0 34 a2 3d 0b e1 5d 3e 46 a4 3c 3e
       0.29102066 0.07920241 0.21667878 0.1842204
000090 e0 62 90 3e 10 b7 40 be ad 60 d3 3d 2d b3 0d 3d
       0.28200436 -0.18819833 0.10321174 0.034594703
0000a0 4b b3 0a 3e 5b 79 97 be f5 74 30 3e 4a 1f d7 3d
       0.13544957 -0.29584774 0.17232116 0.10504015
0000b0 f5 23 9c be a6 ab 0f be ae 8c 60 bd b2 04 79 3e
       -0.30496183 -0.14030322 -0.054821663 0.24318197
0000c0 65 60 08 3d 8f b2 a6 bc 69 92 e3 be 63 c7 47 be
       0.033295054 -0.020348815 -0.4444764 -0.19509654
0000d0 21 aa d1 3d 12 40 aa be bd d8 5e bd 52 29 14 be
       0.10237528 -0.33252007 -0.054405916 -0.14468887
0000e0 50 05 c4 be 80 04 d8 bd 61 8c 9d 3e d8 40 d4 be
       -0.38285303 -0.10547733 0.30771163 -0.41455722
0000f0 4d c8 80 be 56 39 c6 3d 20 cc aa 3d 17 be f7 3d
       -0.25152817 0.09678905 0.08339715 0.12096804
000100 b9 c7 8b 3e 3e ef 9f 3e b2 a1 49 be ce a0 89 3e
       0.27300814 0.31237215 -0.19690588 0.26880497
000110 32 58 fe 3d 4c b0 d8 be 4f 42 5a 3e 26 0d 61 3e
       0.12419166 -0.42322004 0.21314357 0.21977672
000120 37 d5 dc bd 9d 8c c4 be 7f fb 18 3e 0f 5a a7 bd
       -0.10782855 -0.3838853 0.14939688 -0.08171474
000130 ec 7f 73 be 55 3a 36 3c a4 5c a4 3d 48 e5 4f 3d
       -0.23779267 0.011122306 0.08025482 0.05075577
000140 a8 f6 e7 3d 06 48 b4 3d b3 dc 12 be 93 2e d1 bd
       0.11326343 0.088028 -0.14342003 -0.102139615
000150 d6 cf 5c 3d f1 8c 6a 3e 07 fb 7c 3b e4 e2 3f 3e
       0.053909145 0.22905327 0.0038601772 0.18738896
000160 2c 4d 4f be 64 73 41 be 47 84 90 bc 48 fc 99 3e
       -0.20244282 -0.18891674 -0.0176412 0.30075288
000170 01 a7 91 be 70 0e 12 be 99 26 09 3f ee 33 eb 3e
       -0.28447726 -0.1426332 0.5357452 0.45938057
000180 db 7a 1d 3f 9f ab fb 3e 6b 20 63 be 1e 1f ab be
       0.6151559 0.49154374 -0.22180335 -0.33422178
000190 52 cd ea 3e 9b 44 4c bf db a7 86 be a8 44 01 bf
       0.45859772 -0.79792184 -0.2629994 -0.50495386
0001a0 1b 75 04 3e c8 dc c4 bd cb d9 19 3e 4c f7 c1 3d
       0.12935297 -0.09612423 0.15024488 0.09470996
0001b0 b5 06 aa 3d d7 1c 77 3d 68 a1 4d be 1b cb c1 be
       0.083020605 0.06033024 -0.20081103 -0.3785027
0001c0 32 ee 8b be 12 3b 9f be 8e 5b 85 3e a5 90 29 bd
       -0.27330166 -0.31099755 0.26046413 -0.04139771
0001d0 d5 6e 52 be 69 47 8a 3e a8 5a 68 be 0d 5e 1e 3e
       -0.20550092 0.27007607 -0.22690833 0.15465565
0001e0 4b aa 1e 3e a6 8d e6 be c1 6f cb be 8c 16 e8 3c
       0.15494649 -0.45029944 -0.397337 0.028331064
0001f0 d1 98 65 be fd 45 6c be 57 99 8c 3e f3 c5 1c 3d
       -0.22421576 -0.23073573 0.2746074 0.038274717
000200 78 6d 04 3e 18 ac 81 3c c1 05 f9 3d c3 27 89 3e
       0.12932384 0.015829131 0.121593006 0.26788148
000210 0c 42 6d 3e 20 ae 8e be 29 74 87 3d c4 25 dc be
       0.23169726 -0.27867222 0.06613953 -0.42997563
000220 e9 2e 1b 3e 18 39 a4 be 29 e4 1d bb ec 3f a4 be
       0.15154614 -0.3207481 -0.0024092293 -0.3208002
000230 c8 06 58 3e 25 34 75 3e b6 b1 81 be dc 64 b4 be
       0.21096337 0.23945673 -0.25330895 -0.352332
000240 f1 dd 2b 3e 6c 2e 93 be a5 8f 6f be 18 1e d6 3c
       0.16783883 -0.28746355 -0.2339464 0.026137397
000250 24 c5 08 be c7 55 61 be 76 5a 12 3c 0f b6 72 3e
       -0.13356453 -0.22005378 0.0089327 0.23702262
000260 56 66 71 3e f8 3d a8 3d 09 0a 86 3e 8f 50 ff 3d
       0.23574194 0.082149446 0.2617953 0.12466537
000270 80 de dd bd 1a f2 2d be de 69 c9 bc fb 55 22 3e
       -0.10833454 -0.16986886 -0.024586614 0.15853111
000280 ee f7 a1 3e eb 8f b7 3e 96 3b ec be b0 ff c5 bd
       0.31634468 0.35851988 -0.4613921 -0.09667909
000290 96 d5 14 3e fc 96 b4 be e4 81 0f 3e 90 7a 4a 3e
       0.14534602 -0.35271442 0.14014393 0.19773316
0002a0 30 86 cc bc af a1 8b be 40 45 e6 3e 8b 57 53 3e
       -0.02496633 -0.27271792 0.4497471 0.20638864
0002b0 db 6a 9b be c0 20 30 3a 4e 90 ee 3e 42 36 53 be
       -0.30354962 0.00067187473 0.4659447 -0.20626166
0002c0 cd 8e 19 be 69 18 3d be 75 d5 42 3e 92 56 ef be
       -0.1499588 -0.18466343 0.1902674 -0.46745735
0002d0 9d 62 62 be 93 93 e2 bd 34 a2 17 3d 15 d1 0f 3e
       -0.2210793 -0.11063304 0.037019923 0.14044602
0002e0 fb d3 c7 bd 42 9d ff 3e a4 b0 40 3e ea 24 1f be
       -0.09757229 0.49924666 0.18817383 -0.15541425
0002f0 ad a0 bb 3e dc 4c 8f be 4c 79 80 be 0b ac fa be
       0.36646023 -0.27988327 -0.25092542 -0.48959383
000300 38 ec 04 bc 20 33 24 3d 52 41 c7 3d 00 4a 91 be
       -0.00811296 0.04008782 0.09729256 -0.2837677
000310 6e cd db 3e 86 3e 0a be 52 89 e3 bc 39 79 32 bd
       0.42930168 -0.13500413 -0.02777544 -0.04357264
000320 cc de 39 be a0 b5 42 be 65 a1 c6 3d 60 6e 96 3e
       -0.18151397 -0.19014597 0.09698752 0.29381084
000330 a9 bb fa 3d 45 4c 00 bc 9b 69 87 be ec eb 20 3e
       0.122428246 -0.007830684 -0.26447758 0.15714997
000340 da c7 4d 3d f4 8f 3c be 93 74 b3 be 8f 24 f2 be
       0.05023942 -0.18414289 -0.35049877 -0.47293517
000350 d9 67 5d 3e 1c 0d ae 3e 1c df b3 be 02 f7 97 be
       0.21621646 0.33994377 -0.35131156 -0.2968064
000360 ef 7d bd bd 6b 3b c1 be 99 85 14 3f 5b 93 eb 3e
       -0.092525356 -0.37740645 0.58016354 0.4601086
000370 a1 14 82 bd 44 29 15 3f aa 87 12 3f ed ae 3c 3e
       -0.06351591 0.5826609 0.57238257 0.18426104
000380 60 42 18 bf 7d 37 ea be fe eb 2b 3f 8f 7c f9 3c
       -0.5947628 -0.4574546 0.6715697 0.030454902
000390 58 1a 21 be f9 1d 38 3f d4 6f a3 3e e0 96 d1 3e
       -0.15732706 0.71920735 0.31921256 0.4093542
0003a0 76 67 a2 be 07 64 1a be 94 fc 19 be 9b ed bc 3d
       -0.3171956 -0.1507722 -0.15037757 0.09225007
0003b0 6a ec 85 3e 94 42 bc bd 2d 6a bf bd 7e b1 f6 3d
       0.26156932 -0.09192386 -0.09346423 0.12045573
0003c0 e0 0e ed bd 5c 31 8c 3d ff 0c 9a be 99 a9 f7 3d
       -0.11575103 0.06845352 -0.3008804 0.12092895
0003d0 f8 ed eb bd c7 0a 74 be ff 81 c2 bc 3e 52 ff 3d
       -0.11519998 -0.23832236 -0.023743628 0.12466858
0003e0 25 84 95 bc 2a c6 90 3e 7b 21 b0 be 78 73 ae 3e
       -0.018251488 0.28276187 -0.34400544 0.3407247
0003f0 76 a0 f3 bd 22 3e a9 bd 08 07 4e bd ad 67 96 bd
       -0.1189584 -0.08263804 -0.050299674 -0.07343993

encoder_variable_selection.single_variable_grns.SinWeekly.gate_norm.glu.fc.bias f4 [32]
000000 78 3f 6e 3d 89 38 ff 3c 8e 5d a7 be d3 83 cc 3d
       0.058165997 0.031154888 -0.32688564 0.09986081
000010 bf 3f 18 bb ee a0 6c 3d 87 ac 05 be 80 4d 9b be
       -0.0023231355 0.057770662 -0.13054095 -0.30332565
000020 dd 25 03 3e 14 f6 47 3d 9b 30 e2 3d fc 0a 6c 3e
       0.12807412 0.048818663 0.11044427 0.23051065
000030 de 26 5c be fb 5d 25 3d 93 5b e5 bc 78 31 0a 3e
       -0.21499202 0.04037283 -0.027997768 0.13495433
000040 57 f9 1f be 64 0f 4c be 61 90 3c 3e 2f fa b7 bc
       -0.1562246 -0.19927746 0.18414451 -0.022458164
000050 ab 59 ac 3d ea c2 f1 3d 3c 2f b9 be 5b 56 9a bc
       0.0841554 0.11804755 -0.3616885 -0.018840006
000060 1e da 2d bc b1 5d bf 3b fd 15 58 be 78 0d cf bc
       -0.010611085 0.0058400263 -0.21102138 -0.025274977
000070 2c e3 df bd 92 12 06 be 86 63 0c 3d 54 8d 8b 3d
       -0.109320015 -0.13093022 0.0342746 0.068140656

encoder_variable_selection.single_variable_grns.SinWeekly.gate_norm.add_norm.norm.weight f4 [16]
000000 f4 5a 56 3f f1 32 4e 3f af d0 8b 3f 32 c4 7c 3f
       0.83732533 0.8054648 1.092306 0.9873687
000010 cd 0e 3a 3f ae 32 79 3f ca 57 83 3f 0a 54 34 3f
       0.72678834 0.97342956 1.0261166 0.70440733
000020 43 7f 82 3f ff f0 70 3f 7b 6c 76 3f e0 fc b4 3f
       1.0195087 0.9411773 0.9625928 1.4139671
000030 28 dd 70 3f 4a 0c 96 3f b6 bf 92 3f 0c 61 9c 3f
       0.9408746 1.17225 1.1464756 1.2217116

encoder_variable_selection.single_variable_grns.SinWeekly.gate_norm.add_norm.norm.bias f4 [16]
000000 27 47 3e bd 7d 53 c5 3d 66 a6 9f bd 76 d0 dc 3d
       -0.046454575 0.09635065 -0.0779541 0.10781948
000010 41 74 a9 3c 39 6e a7 3c 44 8a b4 bd 26 8d 3a be
       0.020685317 0.0204383 -0.088154346 -0.18217906
000020 96 4e 9c 3d e0 e2 ec bc 49 3f 59 bc c1 de 06 3e
       0.076321766 -0.028916776 -0.013259717 0.13170911
000030 4a 88 a5 bd 99 90 9d 3c 8a 03 90 bc 66 40 fb 3d
       -0.08082636 0.019233989 -0.017579813 0.122681424

encoder_variable_selection.single_variable_grns.VaccinationFull.resample_norm.mask f4 [16]
000000 11 88 0c be 8f a8 29 be a8 85 00 3d d6 e2 e1 bd
       -0.1372378 -0.16568206 0.031377465 -0.11029594
000010 e7 7f 39 3e 2f 90 ac bd 87 4b 48 3e 0c 4c b3 3e
       0.18115197 -0.08425938 0.19560061 0.35018957
000020 10 3b 81 3d 79 b0 c0 bd b1 74 cc bc 5b f8 3a bd
       0.063100934 -0.094086595 -0.024957987 -0.045647006
000030 60 7d 47 be f5 c7 a5 3e d6 41 49 be 1d 99 b2 bd
       -0.1948142 0.32379118 -0.1965402 -0.0872061

encoder_variable_selection.single_variable_grns.VaccinationFull.resample_norm.norm.weight f4 [16]
000000 32 7c 5b 3f 3a 31 4c 3f 65 74 87 3f b4 96 75 3f
       0.8573638 0.79762614 1.0582396 0.9593308
000010 6b 12 9f 3f b9 e0 71 3f 4e a2 90 3f f8 9c aa 3f
       1.2427496 0.94483525 1.1299531 1.3329153
000020 52 54 8a 3f 97 48 74 3f 18 68 80 3f 4e 05 75 3f
       1.0806983 0.95423263 1.0031767 0.9571122
000030 69 8d 43 3f 9c a2 a5 3f ef a9 40 3f 69 1b 5a 3f
       0.7638765 1.294025 0.752593 0.85198075

encoder_variable_selection.single_variable_grns.VaccinationFull.resample_norm.norm.bias f4 [16]
000000 8a 77 fd bd 2b 44 35 3e 8b 0d 56 bd 08 08 6d bd
       -0.12376316 0.17701785 -0.05225901 -0.057868987
000010 c6 88 2a be 03 62 f0 3b 57 84 70 bd 50 c2 6d 3e
       -0.16653737 0.0073359027 -0.05871996 0.23218656
000020 b1 fa 33 3d df ac 01 3c 71 90 08 bc 7b 66 c2 3c
       0.04394025 0.007914751 -0.008335219 0.023730507
000030 d0 84 8c bc 66 a4 1a be d7 8b 4f ba c9 35 b2 3d
       -0.017153174 -0.15101776 -0.0007917261 0.08701665

encoder_variable_selection.single_variable_grns.VaccinationFull.fc1.weight f4 [8, 8]
000000 12 f2 bf 3e 2f b2 f5 bd df 79 13 bf 1c 64 82 be
       0.37489372 -0.119968764 -0.57607836 -0.25467002
000010 64 ee 09 3f 16 b6 f0 3d 11 83 0b bf cb 31 82 bc
       0.5387938 0.1175348 -0.54496866 -0.015892884
000020 18 95 0e 3e f8 a6 0c be a9 4e 3f bf 87 d6 72 bf
       0.13924062 -0.13735569 -0.747294 -0.9485859
000030 11 58 7d bd 32 9d 4c be e3 d1 0d 3f 91 12 41 be
       -0.061851565 -0.1998184 0.55398387 -0.18854739
000040 54 a4 9d 3d 06 88 0a bf 2b 5b bd bd 29 1b 99 be
       0.07697359 -0.54113805 -0.092459045 -0.29903534
000050 9f 87 c0 be 48 15 cb 3e ae f0 27 be a9 2f 0f bf
       -0.3760347 0.39664674 -0.16400406 -0.559321
000060 df b6 5d be 52 ae 4f bf c5 57 57 be 7b e5 82 3e
       -0.21651791 -0.81125367 -0.21029575 0.25565705
000070 2f 56 49 bf 6a ae 22 3f 19 17 50 3e f9 00 8f 3d
       -0.7864713 0.63547385 0.20321311 0.069826074
000080 20 19 87 3e 4c ad 0d 3f e7 d5 62 3e 5b 93 b8 3e
       0.26386356 0.55342555 0.2215191 0.36049923
000090 e0 a7 0d 3d af c0 b9 3e 4b 15 14 3f 51 e9 4a 3f
       0.034583926 0.36279818 0.5784499 0.7926226
0000a0 21 5f c8 bd d4 95 97 3e 59 6b 6d be 6a ef 3c bd
       -0.097837694 0.29606497 -0.23185481 -0.04612676
0000b0 8b aa ef bd 1b 68 4c bf 53 20 51 bf 43 d2 e2 bf
       -0.1170245 -0.7984635 -0.8168995 -1.7720417
0000c0 d3 5c 04 bf b8 02 96 3e 53 d5 76 3e ce f0 78 3e
       -0.5170414 0.2929895 0.24104814 0.2431061
0000d0 7e 98 80 3f 12 1b 2e be 32 18 1a 3e b1 f9 06 3e
       1.0046537 -0.17002514 0.15048292 0.13181187
0000e0 06 b7 bb 3e d6 56 09 3e de 9f 32 bf 9f 04 dc bd
       0.36663073 0.13412032 -0.6977519 -0.10743069
0000f0 27 6a a5 be c3 3f 9f bf 0e 13 aa be 54 1e d4 bf
       -0.3230755 -1.2441334 -0.33217663 -1.6571755

encoder_variable_selection.single_variable_grns.VaccinationFull.fc1.bias f4 [8]
000000 08 5e 90 bc 08 6f e7 ba 3e 80 4e 3d 5c 29 80 bc
       -0.017622963 -0.0017656991 0.05041527 -0.015644722
000010 fb e2 c8 3c b3 fb a8 bc 54 75 87 bd 9b 15 27 3d
       0.024522295 -0.020627832 -0.066141754 0.04079209

encoder_variable_selection.single_variable_grns.VaccinationFull.fc2.weight f4 [8, 8]
000000 58 94 4a be e4 e5 69 3d 33 8f 71 be 68 5d 1c bf
       -0.19783151 0.057104006 -0.23589782 -0.61080027
000010 ba 2e 56 bf 40 3d 0f 3e dc 7b 32 bf c5 b1 18 3d
       -0.8366505 0.13988209 -0.69720244 0.03727891
000020 b5 ea 3f 3f e1 68 c6 be 8a a6 9d be 54 2a a5 be
       0.7496751 -0.3875189 -0.30791122 -0.32258856
000030 98 5f f6 be 41 79 d9 be 7e 9e a5 3e de 98 cd 3b
       -0.48119807 -0.42475322 0.32347482 0.0062743267
000040 47 9d e6 bf 9d 7b 90 3d 7a 64 8a be 11 b6 12 3f
       -1.8016747 0.07054827 -0.27029783 0.5730906
000050 f6 c1 91 be 60 37 93 3e 00 f8 c3 3d 5c 26 e8 3e
       -0.28468293 0.28753185 0.095687866 0.45341766
000060 b3 1f 38 3e 87 b0 bd be 11 6a bb 3b ed 5f cc be
       0.17980842 -0.37048742 0.005719431 -0.39916936
000070 2f 3e 12 3f fb 2b 5b bf e0 fe e9 bc c9 a9 1c be
       0.57126135 -0.85613984 -0.028563917 -0.15299143
000080 c2 e9 a1 be 57 b6 79 be db 2f 9f 3e d3 70 aa bd
       -0.31623656 -0.24385963 0.31091198 -0.08322301
000090 f6 fe da 3e cf 99 92 3e ef 60 90 bf 7e a0 4d 3f
       0.42772645 0.28632972 -1.1279582 0.80323017
0000a0 6c 65 c3 be 78 09 ab 3e 00 0a 2c 3f e9 80 bf 3e
       -0.38163316 0.33405662 0.6720276 0.37403038
0000b0 54 45 90 3d 6f 0e 04 be a7 dc 79 be f5 34 8b bf
       0.07044473 -0.12896131 -0.24400578 -1.0875536
0000c0 58 cc 0e 3f 84 f2 93 3d 3b 85 7b bd 06 dd 32 3f
       0.55780554 0.072239906 -0.061406355 0.69868505
0000d0 62 2c 7f 3e e7 c0 0e bf 8f b3 0d be ff 52 d5 3d
       0.24919274 -0.55763096 -0.13838027 0.10416221
0000e0 db 98 77 be 22 39 56 3e c9 bd a3 3e ad 0a bd 3e
       -0.24179403 0.20920232 0.31980732 0.36922207
0000f0 8f 6f 1d bf 44 7c 20 bf ac a0 a5 3d 16 2b de be
       -0.6149835 -0.62689614 0.08087286 -0.43392247

encoder_variable_selection.single_variable_grns.VaccinationFull.fc2.bias f4 [8]
000000 68 c4 9c bd c2 3d 62 bb a4 f0 e4 bd e9 33 5b bd
       -0.07654649 -0.0034521674 -0.11178711 -0.053516302
000010 f4 bc ef 3d f1 94 3c bc 08 e0 1e bd e0 b9 42 3d
       0.11705962 -0.01151012 -0.03878787 0.047540545

encoder_variable_selection.single_variable_grns.VaccinationFull.gate_norm.glu.fc.weight f4 [32, 8]
000000 ff 13 09 3e 77 a2 3e 3e c2 ad be 3e 0a 0c 48 3e
       0.13386534 0.18616663 0.37241942 0.19535843
000010 8f cb 50 be 11 7f 83 3e 40 82 d1 bd b4 bf 47 be
       -0.20390151 0.2568288 -0.10229921 -0.19506723
000020 c8 7a f0 be d7 3c 83 3e b4 6d c0 be df f0 0e 3e
       -0.46968675 0.25632355 -0.37583697 0.13959073
000030 42 a3 4d 3e 33 0e 29 be bf c0 69 3e 81 db 9a be
       0.20081809 -0.16509323 0.22827433 -0.30245593
000040 ff 84 7f bd 94 45 8a 3e fa 13 16 3e d5 43 bb 3d
       -0.062382694 0.2700621 0.14656058 0.09143797
000050 78 1e 3b be 3c 26 fe 3e 50 f6 56 be bc 97 e6 3e
       -0.18273342 0.49638546 -0.20992398 0.4503764
000060 90 17 b6 be 7f fd 55 be a8 83 df 3d 49 9f ff 3e
       -0.35564852 -0.20897482 0.10913783 0.49926212
000070 1b fc f1 be da 64 cb 3e cf 90 2d 3e 6b 26 ef 3e
       -0.47262654 0.3972538 0.16949771 0.46708998
000080 5e 45 71 3e 15 46 b3 bd be ed 84 3e 13 02 ca be
       0.23561618 -0.087536015 0.25962633 -0.39454708
000090 9f 8e 84 3e d0 e3 e6 bd a4 75 bc be 54 f6 da bb
       0.2589006 -0.112739205 -0.36808503 -0.0066821966
0000a0 6c 2e 64 3e c9 db ba 3e 77 b7 8b 3e 20 cb 78 be
       0.22283334 0.36495808 0.2728841 -0.24296236
0000b0 3a 72 47 be 1c ac 8c 3e 2c 6b 8f bd ea c1 ae 3e
       -0.19477168 0.2747506 -0.07002863 0.3413232
0000c0 26 90 9f bd 57 18 81 3e 19 4e e4 3d 8d b6 bb bd
       -0.07791166 0.25213882 0.111477084 -0.09165678
0000d0 37 ac ea 3c 8e 84 74 bd 96 4c 60 3e 75 f1 61 be
       0.028646572 -0.059696727 0.21904215 -0.22064765
0000e0 7d d3 3a be f2 ed 3d 3e c2 83 4f 3e 72 4a 18 bf
       -0.18244739 0.185478 0.20265105 -0.59488595
0000f0 c6 e8 18 3f ef 33 ee be 59 cb 38 3e ce be fc be
       0.59730184 -0.46523997 0.18046321 -0.49364322
000100 e9 55 a4 3c 6d 23 a5 3e f5 eb 34 bd 19 c8 98 be
       0.020060496 0.3225359 -0.04417034 -0.29840162
000110 41 f3 be be a8 54 ff 3d 32 0c f3 3b 2a 6c 94 3e
       -0.37294963 0.12467319 0.0074172253 0.28988773
000120 1a 06 8c 3e ac 5a 1e be ec b9 99 3e 91 eb d0 be
       0.27348405 -0.15464276 0.3002466 -0.40804723
000130 d7 aa 56 bd ae 5c ce be 9b 91 12 bf 23 f7 a4 be
       -0.05240902 -0.40305084 -0.57253426 -0.322198
000140 ca 8c fb bd 15 cd 1a be c5 bd 33 3d bb 4f 82 be
       -0.12282713 -0.15117295 0.04388215 -0.25451455
000150 12 7a 28 3e 80 ee 43 3d 54 b6 e7 3d 9d 7e 71 bd
       0.16452816 0.047834873 0.11314073 -0.05895864
000160 4c 17 fb bd 3b 84 9a be 9b 4a c8 bc a1 32 87 3d
       -0.12260303 -0.3017901 -0.024449637 0.066014536
000170 0e 61 af 3d d6 40 f6 3c ec 49 92 be 0b 9c 3b 3e
       0.085634336 0.030060213 -0.28572023 0.18321244
000180 b2 f4 61 be cb 99 4a 3e 6f 88 74 be cd 57 d4 be
       -0.22066 0.1978523 -0.2388017 -0.41473237
000190 66 a3 3e 3e 38 92 9f be 59 e3 8a be 52 88 b4 be
       0.18617019 -0.31166244 -0.27126577 -0.35260254
0001a0 76 30 b9 3e 28 45 ef be 0f c0 31 3e a8 69 56 3e
       0.36169785 -0.4673245 0.17358421 0.20938742
0001b0 05 bc 93 3e bf 98 78 3e 23 5e d3 ba c1 eb 8d be
       0.28854385 0.24277018 -0.0016126077 -0.27718928
0001c0 5e 4f 72 be 9b 55 da 3d a3 de 11 be 9e 98 81 3d
       -0.23663089 0.10660859 -0.14245085 0.063279375
0001d0 58 f2 47 be bc 54 70 3d ee 16 0c be 4e dd a6 3d
       -0.1952604 0.05867456 -0.13680622 0.08147679
0001e0 c1 77 9e be 44 81 ca bd 44 d6 02 3e d3 14 a6 bd
       -0.3095074 -0.09887937 0.12777048 -0.08109441
0001f0 4a a6 32 3e 6d 54 e9 bd 29 6b a0 3e f7 d5 a2 bd
       0.17446247 -0.11393056 0.31331757 -0.07950967
000200 fd 71 81 3e 98 b8 95 be b7 c2 8c 3e ea 35 93 bc
       0.2528228 -0.29242396 0.27492306 -0.017970044
000210 9b b5 97 3d 02 8c 85 3e 0c b4 59 be 30 6d d3 be
       0.07407685 0.2608338 -0.21260089 -0.4129424
000220 ea fc ff bd 7d b7 77 bc 3d c7 88 3e fd 7c b0 3d
       -0.124994114 -0.015119431 0.26714507 0.086175896
000230 fe 89 03 3d 70 33 b8 3e d7 31 54 bd 2c 11 8a 3d
       0.03211402 0.35976744 -0.051805343 0.067415565
000240 9c 51 41 3e 6e d9 9e 3e 69 bc 71 3c fa 2a bc 3e
       0.18878788 0.3102526 0.014754393 0.3675154
000250 de aa fc bc 1a 8a d9 3e 62 1a 17 3e 6b 55 a4 3e
       -0.030843195 0.42488176 0.14756158 0.3209642
000260 9f 99 80 3e 2e b0 3b 3e 81 80 b9 3e 10 65 42 bd
       0.25117204 0.18328926 0.36230853 -0.047459662
000270 71 cd 4e 3e fb 36 e2 be 59 8f aa be e8 a5 dc be
       0.20195557 -0.44182572 -0.3331249 -0.43095326
000280 d1 18 d1 bd 88 e6 40 be 05 2e 9e 3d b4 83 cc 3e
       -0.102098115 -0.1883794 0.07723621 0.39944232
000290 2c 10 22 bd 66 59 e6 3d 2f a2 0f 3c 1c 62 8d 3d
       -0.039566204 0.1124752 0.008766695 0.069034785
0002a0 f1 12 e7 bc 0c c6 15 bd 55 5c ac 3e e9 26 2a 3e
       -0.028207274 -0.036565825 0.33664194 0.16616406
0002b0 98 64 89 be 1f ab 40 3e d0 4a b8 be c0 e4 2a 3e
       -0.2683456 0.18815278 -0.35994577 0.16688824
0002c0 02 6d b8 3e f0 dc 00 3e 01 80 05 be 6b 61 69 3e
       0.36020666 0.12584281 -0.13037111 0.22791068
0002d0 88 8d 15 be 1b e8 88 3c 0e c6 02 bf e6 29 42 3e
       -0.14604771 0.016712239 -0.5108346 0.18961295
0002e0 cf 2a 6f 3d 94 4c 0b bd 33 87 0c 3f f5 75 a8 bd
       0.058390435 -0.034008577 0.548938 -0.082256235
0002f0 ea 91 9f ba 6c 67 a2 be 00 71 19 bf fb e7 4e be
       -0.0012174223 -0.3171953 -0.5993805 -0.20205681
000300 ac 86 fa 3d 16 8f 40 3d 1b b1 bb 3d cb 52 5f be
       0.12232718 0.047011457 0.091646396 -0.21808927
000310 30 a2 f9 bd 18 d6 b3 3d 14 4e 0e 3e 16 28 8d be
       -0.12189138 0.087810695 0.13896972 -0.27569646
000320 4f b6 11 3f a8 a8 0a bf f9 64 0c 3f 0e a8 06 be
       0.56918806 -0.541636 0.5484157 -0.13150045
000330 8e 5f 97 3e da 5e a4 bd 5d 60 7e be 80 e0 9b 3d
       0.2956509 -0.08025904 -0.24841447 0.07611179
000340 43 a0 b0 bd 4e 35 1b bd 4b bb d8 3e 48 1d 6d be
       -0.086243175 -0.037892632 0.42330393 -0.23155701
000350 ad ee fa 3d db 10 c9 be d3 c8 a6 bb 4a 46 41 bd
       0.12252555 -0.39270672 -0.005089858 -0.047186173
000360 51 80 80 bc 8d e1 b5 3d aa f2 c7 3e 72 33 07 3e
       -0.015686186 0.08880911 0.39052325 0.13203219
000370 68 77 0f be 7f 2e 90 3e 93 75 e6 bd f5 dd a4 bd
       -0.14010394 0.28160474 -0.11252894 -0.080501474
000380 1a b1 9a 3e e1 09 a7 3e 58 b5 92 be 76 83 95 3e
       0.30213243 0.32624725 -0.2865398 0.2920186
000390 f3 f8 52 3e ac 7b 3e 3e 1c 7b 9a be b9 82 c7 3d
       0.20602779 0.18601865 -0.3017205 0.0974173
0003a0 ea 92 fb bd 02 c9 d7 be 25 9d 3b be b5 09 9e be
       -0.12283881 -0.42145544 -0.18321665 -0.3086678
0003b0 36 c1 2c 3e a7 7f c0 bd d3 8c 94 be 63 a3 0c bd
       0.16870579 -0.09399348 -0.2901369 -0.034335505
0003c0 d1 bb 18 3f d6 f4 38 be f0 bf f7 3d 96 b7 15 3e
       0.59661585 -0.18062147 0.12097156 0.14620814
0003d0 e9 37 2a bd d9 78 99 be 62 33 09 be 66 b4 bc be
       -0.041557226 -0.29975012 -0.13398507 -0.36856383
0003e0 33 d5 a5 be 2c 45 9b 3e 84 e6 c1 3e ab 05 83 3e
       -0.3238922 0.3032621 0.37871182 0.25590262
0003f0 5e eb 64 be 32 45 88 be 76 85 cf 3e 59 40 a3 be
       -0.2235541 -0.26615292 0.4053151 -0.3188503

encoder_variable_selection.single_variable_grns.VaccinationFull.gate_norm.glu.fc.bias f4 [32]
000000 07 fe af bd 48 2d 1b 3e 15 fe 20 bd c7 c0 1d be
       -0.08593374 0.15153992 -0.03930481 -0.1540557
000010 d9 ac 2c be 99 38 69 3d bb 17 d6 bd e7 a7 87 3e
       -0.16862811 0.05693874 -0.10453745 0.26495287
000020 ed 54 21 3d 1d e9 4d 3d 3d 5a 9c bc e4 83 76 3d
       0.039387632 0.050271142 -0.019085998 0.060184374
000030 a8 38 25 bd ff 63 1f be ed 82 50 bb 07 ab 93 3d
       -0.040337235 -0.15565489 -0.003181632 0.07210355
000040 f6 a8 2a be a7 8b 73 3d fb a5 d8 bd 5a f0 cf 3e
       -0.16666016 0.059459355 -0.10578533 0.4061306
000050 68 e6 10 3e 59 37 b0 bd 4c d3 04 be 93 06 08 3e
       0.14150393 -0.08604307 -0.12971228 0.13283758
000060 56 3d bf 3d c6 7f 0f be e4 b0 c4 bd 50 a8 2f be
       0.09337871 -0.14013585 -0.09604052 -0.1715405
000070 26 17 98 bb 04 4e 6f bd ad 14 82 be 6c b9 cd bd
       -0.0046414314 -0.05842401 -0.254064 -0.10045132

encoder_variable_selection.single_variable_grns.VaccinationFull.gate_norm.add_norm.norm.weight f4 [16]
000000 8c fc 17 3f f2 d5 53 3f 19 64 76 3f c2 e6 5d 3f
       0.5936973 0.8274833 0.96246487 0.86680233
000010 61 24 8b 3f 75 0a 72 3f a4 05 63 3f 5f 2f 3c 3f
       1.0870477 0.94547206 0.8868048 0.7350978
000020 c8 a3 6f 3f 72 fd 6c 3f 91 e2 63 3f 61 d7 47 3f
       0.93609285 0.92574227 0.8901759 0.7806302
000030 11 22 42 3f 50 e7 85 3f 0b e5 3f 3f 4e 7e 21 3f
       0.7583323 1.0461216 0.74958867 0.6308335

encoder_variable_selection.single_variable_grns.VaccinationFull.gate_norm.add_norm.norm.bias f4 [16]
000000 f8 61 e3 bd 69 c3 24 3e 6a 1d a8 3c 29 ef da 3d
       -0.111026704 0.16090168 0.020521838 0.106901474
000010 3b 32 39 bd cc d0 3c 3b 57 23 07 be 90 b1 28 be
       -0.04521392 0.0028810976 -0.13197075 -0.16473985
000020 1c b6 ae bd 39 5f 89 bc bb d4 2b bd 6c 62 12 3d
       -0.08530828 -0.016769039 -0.041950922 0.035738394
000030 3d 10 c2 bc a3 c4 73 bd af e5 2a bd f1 f7 cf 3d
       -0.023689384 -0.0595137 -0.04172295 0.10154713

encoder_variable_selection.single_variable_grns.Cases.resample_norm.mask f4 [16]
000000 7d d9 12 3e 3d f9 2b bd c7 81 01 bf f0 3f 3c 3d
       0.14340778 -0.04198574 -0.5058865 0.045959413
000010 21 91 88 bd 3f 23 35 3e 87 59 9c bd cd 5c 63 be
       -0.06668306 0.17689227 -0.076342635 -0.2220337
000020 ae 62 19 bf 27 8b bf 3e 9c ea a7 3e f6 64 10 bd
       -0.599162 0.37410852 0.3279618 -0.035252534
000030 d2 97 b8 be a4 4c 62 be d3 92 c5 3e 8b 56 34 bd
       -0.3605333 -0.22099549 0.3858858 -0.044027846

encoder_variable_selection.single_variable_grns.Cases.resample_norm.norm.weight f4 [16]
000000 37 b1 85 3f 19 9d 75 3f b8 1d 04 3f 44 79 83 3f
       1.0444707 0.95942837 0.5160785 1.0271382
000010 10 9c 5a 3f fe fa 95 3f 07 c7 8c 3f a0 52 64 3f
       0.8539438 1.1717222 1.0998238 0.89188576
000020 bd 2e 07 3f 97 2b b0 3f 2d 97 ab 3f de 55 77 3f
       0.5280569 1.3763303 1.340551 0.966154
000030 40 bc 1b 3f 46 3e 4a 3f dc c2 b1 3f 15 56 86 3f
       0.6083412 0.7900127 1.3887591 1.049502

encoder_variable_selection.single_variable_grns.Cases.resample_norm.norm.bias f4 [16]
000000 96 5d 23 3e 4a c8 77 3c c5 60 62 be db 2b 2a be
       0.15953669 0.015123436 -0.22107227 -0.16618292
000010 55 8f 3f be de 92 c9 bd 8b 9b fc bd 8a f7 5c 3a
       -0.1870702 -0.09842466 -0.12334355 0.000842922
000020 22 d8 c3 3d 08 ef 3a 3e 48 b7 92 3d 8b 4d e7 bc
       0.095627084 0.18255246 0.071638644 -0.028235218
000030 83 5d b3 bd fe 0a cf 3d 63 18 38 bc f7 12 0f 3e
       -0.0875807 0.101095185 -0.011236283 0.13972078
