TFT-pytorch-AgeGroups/results/AGE5064/checkpoints/latest-epoch=5.ckpt (torch, 735853 bytes, 506 tensors)

prescalers.AGE5064.weight f4 [8, 1]
000000 45 fc a1 be 5f 7a be be 48 b5 f9 3e 3c 31 be 3e
       -0.3163778 -0.37202737 0.4877112 0.37146938
000010 a7 dc 29 bf 14 a4 ca be da 47 37 bf 1d 79 5b be
       -0.66352314 -0.39578307 -0.7159401 -0.2143292

prescalers.AGE5064.bias f4 [8]
000000 61 2a 65 be d8 44 f6 3e f5 9b 6e 3f 1a 91 e1 3e
       -0.22379448 0.480994 0.9320672 0.44056016
000010 40 16 fd be 6c ae 3c bf cb f9 e5 be 4b 57 c9 bd
       -0.49431038 -0.73703647 -0.4491714 -0.09831103

prescalers.SinWeekly.weight f4 [8, 1]
000000 aa 7c 72 bd 20 b0 ba bf 9b 6a 7b 3f f0 20 84 bf
       -0.05920092 -1.4584999 0.9820954 -1.0322552
000010 47 3e 30 3f 45 c8 90 be cb 42 53 3f 5a af 09 3f
       0.6884503 -0.28277794 0.82523793 0.5378319

prescalers.SinWeekly.bias f4 [8]
000000 9e 33 aa 3d 2f c7 25 be 1c 2a 47 3f dc 99 c2 3e
       0.083106264 -0.16189264 0.7779863 0.3800801
000010 dc 75 24 3f 56 43 2d bf a1 13 7a 3f 96 69 c5 3e
       0.6424234 -0.6768087 0.976862 0.38557118

prescalers.VaccinationFull.weight f4 [8, 1]
000000 a8 56 ea bd d2 b7 fe 3c 7c 94 2d 3f ad bb 67 3f
       -0.114423096 0.031093512 0.67804694 0.90520746
000010 b2 fa 06 be b7 c1 62 bf bf fc 1d bf 6a f3 6a bf
       -0.1318157 -0.88576835 -0.61713785 -0.9177767

prescalers.VaccinationFull.bias f4 [8]
000000 ca 90 ac 3e 1d 2f 51 be e3 81 4d bb 01 eb 96 3f
       0.33704215 -0.20428129 -0.0031357936 1.1790468
000010 36 7f 64 3f 74 77 97 be 99 75 ee be d9 7d 14 be
       0.8925661 -0.29583323 -0.46574095 -0.14501132

prescalers.Cases.weight f4 [8, 1]
000000 4d 9e cf 3e 0b da a3 bf fe a6 8b bf 7e cf 5e 3f
       0.4055046 -1.2800916 -1.0910337 0.8703536
000010 d0 9c b3 3f a1 69 5e 3e ce 99 45 bf 68 6c f2 3e
       1.403223 0.21719982 -0.7718781 0.47348332

prescalers.Cases.bias f4 [8]
000000 7a 60 1a bf b8 07 4a be b9 af 01 3f 06 8f 0e 3f
       -0.6030346 -0.19729507 0.50658756 0.55686986
000010 39 c9 4c 3d f5 33 fd bc 0c 2a 83 3e 58 64 6d bf
       0.04999659 -0.030908564 0.25618017 -0.9273124

static_variable_selection.single_variable_grns.AGE5064.resample_norm.mask f4 [16]
000000 7d af f5 be c3 44 36 bf 4f 62 56 be 2e 7d 76 be
       -0.4798545 -0.7119867 -0.20935939 -0.2407119
000010 af 5f a8 3e 28 67 2d 3f 22 5a 05 3e 56 b7 ea be
       0.328855 0.6773553 0.13022664 -0.45843
000020 a9 56 c6 be f8 dc 90 bd 9f d4 db 3e 10 9c 3a 3d
       -0.3873799 -0.070733964 0.42935655 0.04555899
000030 6d b5 f3 3e 42 74 05 3e 0b d0 a3 be 09 30 0b bf
       0.47599354 0.1303263 -0.31994662 -0.5437017

static_variable_selection.single_variable_grns.AGE5064.resample_norm.norm.weight f4 [16]
000000 07 0c 73 3f 78 8a 03 3f 77 a4 8e 3f 75 34 8b 3f
       0.9494023 0.5138316 1.1143941 1.0875384
000010 2a 47 e3 3f e1 04 c8 3f 7a 9c ac 3f ef b8 68 3f
       1.7756093 1.5626489 1.3485253 0.90907186
000020 1c 13 50 3f 5b 73 9d 3f 9f 53 aa 3f fb 9f a7 3f
       0.8127916 1.2300829 1.3306769 1.3095697
000030 21 72 c9 3f 05 46 a5 3f 95 88 71 3e 00 0d 47 3f
       1.5737954 1.2911993 0.23587258 0.7775421

static_variable_selection.single_variable_grns.AGE5064.resample_norm.norm.bias f4 [16]
000000 2a c6 ec bd 76 e8 90 3d 5f 8c 67 3d cc 2d 3b 3e
       -0.11561234 0.070755884 0.056530353 0.18279189
000010 3e b4 f4 3d e9 ed 64 3d 2b 64 7c 3e 0f ec 21 be
       0.11948441 0.05589095 0.24647586 -0.15812705
000020 0f 95 25 bd 07 b2 d5 bd d0 d7 72 be 25 17 eb be
       -0.040425356 -0.10434347 -0.23715138 -0.45916095
000030 02 f7 42 bb 70 45 3b be 4a f1 ea bd 8a d7 07 bd
       -0.002974928 -0.18288207 -0.114718035 -0.03316454

static_variable_selection.single_variable_grns.AGE5064.fc1.weight f4 [8, 8]
000000 08 57 30 be e3 ee 5a bf ad 2a 69 be e0 20 d7 3e
       -0.172207 -0.8552076 -0.22770186 0.4201727
000010 de 04 75 bf f8 49 c9 bf 76 72 7b bf 53 b0 10 bf
       -0.9571055 -1.5725698 -0.9822153 -0.5651905
000020 85 fe 61 bf 1c 0e 67 bf a8 5a da 3c b7 d2 42 3f
       -0.8827899 -0.90255904 0.026654556 0.76102775
000030 91 c1 03 bf aa d0 20 bf 81 aa 84 3e 82 76 07 be
       -0.51467234 -0.62818396 0.25911334 -0.13228801
000040 a1 19 0e 3f fb de 50 3e b5 fe f1 3e 5d 10 71 be
       0.55507857 0.2039756 0.4726464 -0.23541398
000050 99 72 ca 3d 24 84 35 bc c6 b9 98 3e 82 fa ea 3d
       0.09885139 -0.011078868 0.29829234 0.11473562
000060 1a bb 2c bf 4d 18 2e 3d 0a 45 5d bc 79 ba e9 be
       -0.67472994 0.042503644 -0.01350523 -0.4565008
000070 30 ce 3b be f4 74 e9 3d a2 e7 7d bd 52 bc fd 3e
       -0.18340373 0.1139926 -0.06198848 0.4955774
000080 f0 ee f1 be 0a 31 e5 3e 70 e6 b0 3c d5 2c d2 3d
       -0.47252607 0.44763976 0.021594256 0.10262457
000090 da 50 43 bf 02 81 67 3f 49 b1 20 3d 08 36 6b 3e
       -0.76295245 0.90431225 0.039231572 0.2296983
0000a0 d6 7f 79 3e 65 d2 9f bd 4d 7b 45 be fb 16 86 bd
       0.24365172 -0.078038014 -0.19285317 -0.06547352
0000b0 8d 54 e9 3e 0d 30 f6 be 51 70 a6 3e d7 e9 98 be
       0.4557232 -0.48083535 0.32507566 -0.29865906
0000c0 2e a4 e0 be db b2 10 bf ae d8 66 3e a7 65 f5 3e
       -0.4387526 -0.5652291 0.22543594 0.47929117
0000d0 7a cd 2f be 94 2f 6e 3f 20 87 88 3d 47 86 6f be
       -0.17168227 0.9304135 0.06666398 -0.23391066
0000e0 7a d4 77 bf eb a6 35 bf 8f 0b 50 bc 5c 23 71 3f
       -0.9680859 -0.7095782 -0.012698068 0.9419458
0000f0 b8 6c c1 be ce f4 05 bf 8c 23 c0 be cb df fb 3d
       -0.37778258 -0.5232667 -0.3752712 0.122985445

static_variable_selection.single_variable_grns.AGE5064.fc1.bias f4 [8]
000000 a6 ff ec bd dd 73 af 3d c3 d4 6a be 5c 1b 0a 3e
       -0.115721986 0.08567021 -0.22932725 0.13487
000010 a3 0d 1b 3e 8b 09 9b bc 80 26 93 3e 9d 3c 08 bc
       0.15141921 -0.018925449 0.2874031 -0.008315233

static_variable_selection.single_variable_grns.AGE5064.fc2.weight f4 [8, 8]
000000 6e 29 fb 3e db 6c 1b 3f 0b c0 6d bb 68 25 6f bd
       0.49055046 0.60712975 -0.0036277797 -0.058385283
000010 2f 6c d3 bd 6a 0d 29 be 8a 0b 34 3f 43 73 90 3f
       -0.10323369 -0.16509023 0.7033011 1.1285175
000020 26 e3 ff be 18 43 03 bf 13 bc 00 3e fd ef 1b 3c
       -0.49977988 -0.5127425 0.12571745 0.009517667
000030 96 21 2d 3d 20 2b 0d be 7b 63 1e 3e 2f ec b3 bc
       0.04226836 -0.13785982 0.15467636 -0.021963207
000040 06 b8 e4 bc 8d d2 a3 3e ee 32 e6 bd e2 eb 70 3c
       -0.02791978 0.31996575 -0.11240183 0.014704676
000050 2a ef a9 3d 97 b9 bc be cb 95 be bd 9c fd 41 3f
       0.0829757 -0.36860344 -0.093059145 0.757776
000060 6f bc a6 3f 94 d0 67 3e 12 7b 09 3f 99 0b be 3d
       1.3026255 0.2263816 0.53703415 0.09279556
000070 aa c8 4a be e2 4c f3 3d a7 5c b0 3e d8 12 56 3c
       -0.1980311 0.118798986 0.34445688 0.013066016
000080 d1 fe aa 3d 8c 80 c7 be 27 6f 8d bd bb 6d 8f 3e
       0.083493836 -0.3896526 -0.06905966 0.28013405
000090 8f d9 18 3e d5 2c 2c 3d e9 9a 90 3e d1 06 2d 3d
       0.14926742 0.042034943 0.28243187 0.04224283
0000a0 b2 a0 33 3f 4e a2 2a 3e 2b 7a e8 be f5 9c a8 3d
       0.70167077 0.16663477 -0.45405707 0.08233062
0000b0 d2 44 42 bd 03 fe 17 3c a2 b9 11 bf 93 c2 28 3f
       -0.047428913 0.00927687 -0.5692388 0.65921897
0000c0 6f 63 72 bf 4b 8f 15 3c 7b 84 d1 bd b1 a8 28 bd
       -0.94682974 0.009128402 -0.10230347 -0.0411765
0000d0 a6 7e e5 bd 78 4f a5 3c 64 1d 98 be 5f 3b 14 bf
       -0.11205797 0.020179495 -0.29709923 -0.57903093
0000e0 2d 5b 6d 3e 7d dc 9c 3e 36 5d 01 bf ae f9 13 bd
       0.23179312 0.3063697 -0.50532854 -0.036126785
0000f0 96 23 d6 bd 31 77 04 3d 65 c8 10 3e 17 f0 af be
       -0.10456006 0.032340232 0.14138944 -0.34362862

static_variable_selection.single_variable_grns.AGE5064.fc2.bias f4 [8]
000000 a9 ef 9d bd d0 54 a1 ba 27 ce f1 bd 10 a7 3b 3e
       -0.07711727 -0.0012308601 -0.118068986 0.18325448
000010 59 dd 3c 3e d1 8b 27 3d d3 1c 32 be 50 0f b5 be
       0.18443812 0.040904824 -0.17393808 -0.35363245

static_variable_selection.single_variable_grns.AGE5064.gate_norm.glu.fc.weight f4 [32, 8]
000000 65 87 e9 bd 5e 36 47 bd 4c 25 aa be 83 d8 e8 be
       -0.114027776 -0.048635833 -0.3323158 -0.45477685
000010 25 f6 7f bd 56 6f 0c bd 99 56 2c bf c7 96 17 3e
       -0.0624906 -0.034285866 -0.6731964 0.1480361
000020 4a 5e 63 3f a9 ec 09 bf 9d b4 5c 3f 08 7b 9a 3f
       0.8881575 -0.5387674 0.86213094 1.2068796
000030 ae 2d 19 3d 81 d7 89 3f d2 d3 5c bf 54 c1 a7 bd
       0.03739708 1.0768892 -0.8626071 -0.08191171
000040 87 67 aa bd 60 78 e6 3e 64 8a bb be 55 c6 e7 be
       -0.083205275 0.45013714 -0.3662902 -0.45268503
000050 e5 9b 34 3e 27 7c ce be 46 ea 28 3f 68 55 4a 3e
       0.17637594 -0.40329096 0.6598247 0.19759142
000060 52 01 91 bd 53 52 41 bd 8c 02 4d be 66 11 70 3e
       -0.0708033 -0.04719765 -0.20020503 0.23444137
000070 e8 94 fd bd 2f ad d2 bd 27 20 89 be 76 e2 d2 3e
       -0.12381917 -0.102869384 -0.26782343 0.411884
000080 92 ce 0a be f2 46 de 3e a2 16 78 3e 3e 32 46 be
       -0.13555363 0.43413502 0.24227384 -0.19355103
000090 8b 4d 0d be c7 87 66 be 51 48 0f 3e c0 5c b5 3d
       -0.13799112 -0.22512732 0.1399243 0.08855581
0000a0 42 02 2b 3e 6e 48 b6 3d ee bc e4 3d 22 82 87 bd
       0.1670008 0.089005336 0.11168848 -0.06616618
0000b0 96 74 cf 3d b7 0d 17 bd b1 68 d3 3e 59 1b a7 be
       0.10129659 -0.036878314 0.4129081 -0.32638052
0000c0 4d bf 53 be 61 90 46 3d 6e 3a 02 3f da 93 ac 3d
       -0.20678444 0.048477534 0.50870407 0.08426638
0000d0 17 0a 1c be c5 15 8e bd 4b 5d 55 3d 6f 63 74 bd
       -0.15238224 -0.06937746 0.052090924 -0.05966514
0000e0 89 43 33 3e 7f 7c 84 3e a1 5e a3 be 85 d8 06 bc
       0.17506231 0.25876233 -0.31908134 -0.008230333
0000f0 dd 0f 9d 3e 1d 4c 36 be 95 d0 00 3e 70 8b 02 be
       0.30676165 -0.17802472 0.12579568 -0.12748504
000100 54 da 61 be 7a c8 07 bf e7 b1 74 3d fb 98 fc 3d
       -0.22055942 -0.5304028 0.059739973 0.12333866
000110 9c df 8c 3e 38 3c 3b 3f a6 64 23 bf 6e 15 a6 3e
       0.2751435 0.7313876 -0.6382545 0.32438225
000120 e5 21 cd 3e 69 3b 25 bf 52 26 f1 3d 09 45 0c 3f
       0.40064922 -0.6454378 0.11774887 0.5479284
000130 a8 e9 b6 3d 2c 41 8c 3e b7 e7 52 bf 7b f2 95 be
       0.08931285 0.27393472 -0.8238482 -0.2928656
000140 a9 3c 9c be 00 71 b5 3d 26 87 3a be f2 99 f3 be
       -0.3051503 0.08859444 -0.18215618 -0.47578388
000150 d1 5d 7a be 55 74 27 bf b5 81 15 3e b6 0c a4 3e
       -0.2444985 -0.65411884 0.1460026 0.32040948
000160 99 0d 46 be fc 0e f5 bd 20 49 3c 3e de 01 f4 be
       -0.19341125 -0.11965749 0.1838727 -0.47657675
000170 37 e0 34 be 66 d7 f1 be aa fc 9b 3d 3c 10 cb 3e
       -0.17663656 -0.47234648 0.07616551 0.39660823
000180 e4 ff 44 be a3 e0 99 3e 02 14 96 3d 7d b3 4c 3c
       -0.1923824 0.30054197 0.07328035 0.012493965
000190 64 ca 6a 3e 9c d4 30 be c5 48 20 3f d5 63 5a 3e
       0.22928768 -0.17268604 0.6261104 0.21327145
0001a0 a9 47 7e bd d2 7a 7b be 09 99 11 3d 55 1b 79 3e
       -0.06208006 -0.24558571 0.035546336 0.24326833
0001b0 04 bc 50 be ac 31 28 3d 67 a4 d5 bd f6 90 cb 3e
       -0.20384222 0.041062996 -0.10431748 0.39759034
0001c0 8c 4a 5f 3d b2 3e 68 3e 01 1a f8 bd ed f5 e6 3e
       0.054514453 0.22680166 -0.12114335 0.451095
0001d0 27 20 69 bd 21 f9 42 3e 71 59 a0 be 0e 25 25 3e
       -0.05691543 0.19040348 -0.31318238 0.16127416
0001e0 b1 42 a0 bd b6 f5 de bd 97 68 69 be 1c 0b b0 3e
       -0.078252204 -0.108867094 -0.22793804 0.34383476
0001f0 da 29 13 bf 92 20 cf 3e 6a de f0 3d 1e 55 95 bd
       -0.57485735 0.40454537 0.11761172 -0.072916254
000200 30 ef ef 3e 6b 9d 2c be 61 09 d1 3e 0a 92 b9 3e
       0.46862173 -0.16856925 0.40827468 0.3624423
000210 88 a2 95 3d d5 2c 19 be c0 34 42 3d 4a 7a 59 3f
       0.07306391 -0.14958508 0.047413588 0.84952223
000220 7d 9d a0 3f 71 10 52 bf 81 c0 9a 3e 45 ce 90 3f
       1.2548062 -0.8205634 0.30224994 1.1312948
000230 b4 56 ae be 10 f7 28 3f 0f 01 bf bf d3 77 96 be
       -0.34050524 0.6600199 -1.4922198 -0.29388294
000240 84 f7 c8 3e 43 81 77 be 38 d4 22 be 7d c8 6a 3e
       0.3925134 -0.24170403 -0.15901268 0.22928043
000250 2d 31 85 be 1a a1 0f 3f f1 54 4d bd 11 17 4f 3f
       -0.2601408 0.56105196 -0.050129835 0.8089457
000260 f7 e1 b6 3e c2 93 c4 3e 08 34 a2 be 6e ab 73 be
       0.35719272 0.3839398 -0.31680322 -0.23795864
000270 61 2d 89 be 73 62 8b bc c0 7b e6 be f6 8a ac 3f
       -0.26792434 -0.017014718 -0.4501629 1.3479908
000280 b2 1c b9 3e d5 bc d4 be 68 2c b4 3e 1a d1 1f 3f
       0.36154705 -0.41550317 0.3519013 0.6242844
000290 4f eb 95 be 72 e1 d0 3e 92 34 2c be 39 05 52 3f
       -0.2928109 0.40797 -0.16816929 0.8203922
0002a0 d7 d1 b1 3f b2 98 04 3d 41 de 5c 3f 2c 7c d8 3d
       1.3892163 0.032372184 0.8627663 0.10570559
0002b0 3c 99 5f be c9 c2 bb 3c e6 6e cd 3d 32 31 09 3f
       -0.21835798 0.02292003 0.10030918 0.5359069
0002c0 d7 82 dd 3e 6e 6e b6 bd a0 62 29 be 07 3f 4b 3d
       0.43263885 -0.089077815 -0.16541529 0.049620654
0002d0 c2 b0 e2 be 7a 54 f3 be d6 40 06 3d 16 02 1f 3e
       -0.4427548 -0.47525388 0.032776676 0.1552814
0002e0 6d 43 4c 3e d9 10 66 3e d4 c0 d4 3d 55 57 b1 3c
       0.19947596 0.22467364 0.103883415 0.021648088
0002f0 51 38 d6 be 8a 12 14 be 07 30 97 3e 12 69 a5 bd
       -0.4183984 -0.14460197 0.2952883 -0.08076681
000300 cc 43 2c 3f a6 6c 96 be df 4f 8a 3e 50 f5 39 3f
       0.6729095 -0.29379767 0.27014062 0.7263994
000310 2e aa 33 bf fe e5 4a 3f fc 58 ca be 34 11 36 3f
       -0.7018155 0.7925719 -0.39521015 0.7112
000320 4c 5a 3d 3f ca 3e 8c bf 90 5b f8 3e b5 ce 4f 3f
       0.7396591 -1.0956662 0.48507357 0.81174785
000330 e5 c7 1c 3e ce 53 0a 3f d4 c7 8a bf f5 d4 3c 3f
       0.15310629 0.54034126 -1.0842233 0.73762447
000340 e1 89 59 3f 2c 1a 9a be 5c 72 da 3e 57 da 93 3e
       0.8497601 -0.30098093 0.42665374 0.28877518
000350 1f d2 1c bf 0e d3 e4 3c 16 47 e6 be ba 07 c9 3d
       -0.6125812 0.02793267 -0.4497611 0.09815927
000360 2d eb e0 3d 2d 28 12 be 6d e9 93 3e 99 ba 69 3d
       0.10982356 -0.14273138 0.28889027 0.05706272
000370 d7 2e c0 bd 23 d1 48 3f 79 a4 2f bd b4 29 e8 3d
       -0.09383934 0.7844412 -0.042881463 0.11336079
000380 5f 47 b0 3e 1c b4 81 be f3 b8 2f 3f f3 33 4b 3f
       0.34429452 -0.25332725 0.68641585 0.79376143
000390 b6 ca a1 be 37 26 50 3f 06 d4 17 bf 4c 7e 71 3f
       -0.3159997 0.8130831 -0.593079 0.9433334
0003a0 e7 e0 61 3f 0d 32 1c be 54 d1 25 3e 2c 54 f5 3e
       0.882338 -0.15253468 0.16193134 0.4791578
0003b0 58 3c 06 bf af bf c8 3e 20 d7 0f bd 65 a8 05 3f
       -0.5243583 0.39208743 -0.03511727 0.52210075
0003c0 bc 42 20 3f d9 f7 cc 3e 7a 0a 1c 3d 8c 6e a9 bd
       0.6260183 0.40032843 0.03809593 -0.08273038
0003d0 d5 cb 09 3e 93 1d 78 be 2d 7c 1e 3e f2 11 06 3f
       0.13456662 -0.24230032 0.15477057 0.5237113
0003e0 f9 4c c4 3e 3b 14 2f be 91 d3 a9 3d 09 00 01 be
       0.38339975 -0.17097561 0.08292306 -0.1259767
0003f0 f5 85 d9 bd 3b b5 5d be 59 0c 0e bd 78 02 da 3e
       -0.106212534 -0.21651165 -0.034679744 0.42580009

static_variable_selection.single_variable_grns.AGE5064.gate_norm.glu.fc.bias f4 [32]
000000 4a c0 4a be 33 4c 47 3e 09 1c ab bd e2 88 c7 3d
       -0.19799915 0.19462661 -0.08354957 0.09742905
000010 5a b4 13 3e 19 43 3d 3e b3 90 ab 3e c8 c2 cd bd
       0.14424267 0.18482627 0.33508834 -0.10046917
000020 77 45 c5 3d b9 56 a5 3e e4 c9 f5 be e9 f1 b4 be
       0.0963239 0.32292727 -0.48005593 -0.35340813
000030 34 3d 5b be b2 e5 2e be bd ad 67 3d 6c 46 1e be
       -0.21410066 -0.1707981 0.056562174 -0.15456551
000040 cb 09 20 bf 9c 10 00 be 7a 93 92 be d8 02 a6 bf
       -0.6251494 -0.12506336 -0.2862814 -1.2969618
000050 e3 e8 74 bf 90 21 41 bf a7 64 4c bf f8 62 59 bf
       -0.95667857 -0.7544184 -0.79841083 -0.8491664
000060 c4 0b 3c be 0c cb b0 bd 3d ac d1 be 11 dc c4 be
       -0.18363863 -0.08632478 -0.4095172 -0.38449147
000070 24 61 3b bf 06 22 62 bf df bb 2b bf 99 f0 e8 be
       -0.731951 -0.88333166 -0.67083544 -0.4549606

static_variable_selection.single_variable_grns.AGE5064.gate_norm.add_norm.norm.weight f4 [16]
000000 f1 6f 56 3c f3 a8 84 3f d9 6f 97 3f ef 0c 94 3f
       0.013088212 1.0364059 1.1831008 1.1566447
000010 7d 97 b9 3f 2e c4 a4 3f 58 66 81 3f 86 36 10 3f
       1.4499356 1.2872369 1.0109358 0.56333196
000020 f7 3a d0 3e 9d ce 74 3f 09 50 a9 3f 9b 13 ad 3f
       0.40669987 0.95627767 1.322755 1.3521608
000030 e2 8b 96 3f fe c7 8a 3f cc f7 10 3e 32 2e 9a 3e
       1.1761439 1.0842283 0.14157027 0.3011337

static_variable_selection.single_variable_grns.AGE5064.gate_norm.add_norm.norm.bias f4 [16]
000000 52 07 ed bd b7 fb 13 3e 22 5d 47 3e 8d a0 bf 3e
       -0.11573662 0.1445149 0.19469121 0.37427178
000010 be b2 81 3e 81 4b b3 3d 7a 56 9c 3e 7f f6 d2 bd
       0.25331682 0.087546356 0.30534726 -0.10300922
000020 b9 59 4e bd 33 46 31 be aa 71 bf be f2 22 1c bf
       -0.050378535 -0.17311935 -0.37391406 -0.6099082
000030 48 68 c7 bc cc 67 e3 bd 86 4b ad 3d b1 e4 a9 bc
       -0.024341717 -0.11103782 0.084616706 -0.020738931

static_variable_selection.prescalers.AGE5064.weight f4 [8, 1]
000000 45 fc a1 be 5f 7a be be 48 b5 f9 3e 3c 31 be 3e
       -0.3163778 -0.37202737 0.4877112 0.37146938
000010 a7 dc 29 bf 14 a4 ca be da 47 37 bf 1d 79 5b be
       -0.66352314 -0.39578307 -0.7159401 -0.2143292

static_variable_selection.prescalers.AGE5064.bias f4 [8]
000000 61 2a 65 be d8 44 f6 3e f5 9b 6e 3f 1a 91 e1 3e
       -0.22379448 0.480994 0.9320672 0.44056016
000010 40 16 fd be 6c ae 3c bf cb f9 e5 be 4b 57 c9 bd
       -0.49431038 -0.73703647 -0.4491714 -0.09831103

encoder_variable_selection.flattened_grn.resample_norm.mask f4 [3]
000000 71 bc 91 bf 08 0b c0 3d 3b f4 9b 3e
       -1.1385633 0.09377104 0.3045977

encoder_variable_selection.flattened_grn.resample_norm.norm.weight f4 [3]
000000 84 d5 94 3f 67 8c 99 3f b3 90 d1 3f
       1.162766 1.1995972 1.6372284

encoder_variable_selection.flattened_grn.resample_norm.norm.bias f4 [3]
000000 df 1c 11 3f bb 61 d5 bd 14 3c 07 bf
       0.5668468 -0.10419031 -0.52826047

encoder_variable_selection.flattened_grn.fc1.weight f4 [3, 24]
000000 3b d1 29 3f db ad e8 be a2 0d 0b 3f 06 3e 1d be
       0.66334885 -0.4544514 0.5431768 -0.15355691
000010 a6 18 b0 3e 73 e9 8e be db e2 02 3e 9e 42 55 3e
       0.34393805 -0.27912483 0.12781851 0.20826194
000020 ee e6 22 3d 6a ca 05 be 0a 00 f6 3e a8 f9 16 bf
       0.039771013 -0.13065496 0.48046905 -0.58974695
000030 16 29 b6 3d 50 e7 fe be 88 b0 1b bf 38 ee ec be
       0.08894555 -0.49785852 -0.6081624 -0.46275496
000040 d4 62 1a 3f 23 59 a1 bf 1c e8 e5 3d b1 ce 12 3f
       0.6030705 -1.2605327 0.11225912 0.57346636
000050 d3 6b 0f 3f ad d0 ab be 98 e7 96 bd 1b 3a 3b 3e
       0.560239 -0.33557644 -0.07368392 0.18283884
000060 50 8f 52 bd 9d 00 f1 3e ec 42 74 bf bc 9e 8c bd
       -0.051406205 0.4707078 -0.95414615 -0.06866214
000070 77 2f 38 bf 80 d1 a0 3e 58 3e 7f bf 38 8c 7d 3d
       -0.71947426 0.31409836 -0.99704504 0.0619013
000080 79 60 e4 be 0a 98 81 3e b6 5b 30 bf 0d eb 11 bf
       -0.44604853 0.2531131 -0.6888994 -0.56999284
000090 67 58 1e bd ec 9c bd 3e 10 b4 b4 3d 43 aa 11 3f
       -0.038658526 0.37033784 0.08823407 0.56900424
0000a0 87 5d 9e 3d 03 8a 15 be fe a0 22 bf de ba 54 be
       0.07732683 -0.14603429 -0.63526905 -0.20774409
0000b0 f4 60 21 3e 9c 73 b6 3e ef 7b 2d be 34 26 6f bc
       0.15759641 0.35635078 -0.16941808 -0.014596511
0000c0 6e 60 13 bd d6 da cd be 5d 5d a6 bd 7d 57 3a 3d
       -0.035980634 -0.4020602 -0.081232764 0.04549359
0000d0 2f b2 aa 3e ad be 17 3f d6 25 42 be c7 a7 03 3f
       0.33339068 0.59275323 -0.18959746 0.5142788
0000e0 38 01 6a be cc 88 ef 3e c3 cd 5e 3f f6 79 2e 3f
       -0.22852027 0.46784055 0.8703272 0.6815485
0000f0 86 eb e1 be de 47 18 bf 36 fb 35 be 40 c7 c0 be
       -0.44125003 -0.5948466 -0.1777161 -0.37652016
000100 90 46 ac 3e b7 5a d3 bd 66 31 99 be d3 96 e0 3e
       0.33647585 -0.10320037 -0.299205 0.4386507
000110 b1 db 4e 3e 70 01 b4 bd 62 6c 34 bf b7 ea 48 3e
       0.20200993 -0.08789337 -0.7047788 0.19620787

encoder_variable_selection.flattened_grn.fc1.bias f4 [3]
000000 90 57 4f 3e f4 13 5a be dd 81 89 be
       0.20248246 -0.21296674 -0.2685689

encoder_variable_selection.flattened_grn.context.weight f4 [3, 16]
000000 eb bd cd be 1c 24 99 3d fc 08 16 bf 11 11 3c be
       -0.40183958 0.074775904 -0.5860746 -0.18365885
000010 ba 69 03 3f c2 f7 0d bf e7 e2 cb 3c d1 4e 17 3f
       0.513332 -0.55456173 0.024888469 0.5910464
000020 2c 5f 47 3d 95 24 d0 3c 07 2f 75 bd 2b fb 31 be
       0.048674747 0.025408069 -0.059859302 -0.17380969
000030 d9 ec b9 bd 2a 77 e4 3e 4c 41 79 bd 52 e2 0f be
       -0.09078378 0.44622165 -0.060853288 -0.14051178
000040 6d 35 4a bc ba 85 79 bd fd 2c ce 3e 46 8a e3 be
       -0.012341839 -0.060918547 0.40268698 -0.44441432
000050 ed 27 18 bf 77 47 15 3f c3 ec 39 bd bf 00 4b bc
       -0.5943592 0.5831217 -0.04539181 -0.012390315
000060 62 bd f4 bd b1 1d 62 3d 95 a1 24 be 77 9b bc 3d
       -0.119501844 0.055204097 -0.16077264 0.0920934
000070 a7 bc 86 be 3a 4a 3a 3e ca 82 a5 be 8f 00 43 3e
       -0.26315805 0.18192378 -0.32326347 0.19043182
000080 42 05 9d 3e 80 e4 c6 bd 53 74 d9 3e d2 cb f0 3d
       0.30668074 -0.09711552 0.4247156 0.11757626
000090 33 03 b6 be 8f 3e 02 3f ca fa 58 bc a4 5b 41 3c
       -0.35549316 0.50876707 -0.0132433865 0.011801634
0000a0 58 48 f8 bc 60 00 1e be 9d db bd 3d 91 a0 aa 3d
       -0.030307934 -0.1542983 0.092704035 0.08331407
0000b0 a8 55 90 3d d7 27 2f 3b b5 4d db bd df 47 51 3e
       0.07047588 0.0026726627 -0.10708181 0.20437573

encoder_variable_selection.flattened_grn.fc2.weight f4 [3, 3]
000000 b8 ea 81 bf 4b 91 38 bf 43 c7 09 be dd 02 b9 bd
       -1.0149755 -0.720967 -0.13454919 -0.09033749
000010 1d d7 6c bf 62 b2 11 bd 05 33 87 be 7f 51 3e bf
       -0.92515737 -0.03557051 -0.26406112 -0.74343103
000020 a8 52 19 bf
       -0.5989175

encoder_variable_selection.flattened_grn.fc2.bias f4 [3]
000000 5a 5e f1 be fb dd ae 3e 93 55 bc bc
       -0.47142297 0.34153733 -0.022990024

encoder_variable_selection.flattened_grn.gate_norm.glu.fc.weight f4 [6, 3]
000000 22 60 8d 3d 5c b0 5f be b9 26 b7 3e a6 97 57 3e
       0.069031015 -0.2184462 0.3577173 0.21053943
000010 b7 97 c8 be f7 f7 f9 3d b6 e2 74 bf 59 ae ab be
       -0.3917825 0.12205499 -0.95658433 -0.33531454
000020 18 44 c3 be 8f fe 95 3e 33 c1 2c bf 3c ff 45 3f
       -0.3813789 0.29295775 -0.674823 0.7734258
000030 b2 d8 71 3f ef 86 18 be 2a 33 ed 3e 71 24 e5 3f
       0.94471276 -0.14895223 0.46328098 1.7901746
000040 28 42 0b be 37 cf aa 3f
       -0.13599455 1.3344487

encoder_variable_selection.flattened_grn.gate_norm.glu.fc.bias f4 [6]
000000 92 e6 b8 3e 9e 0f ed bd 50 c2 d6 bd 03 23 5b bf
       0.3611341 -0.11575244 -0.10486281 -0.856003
000010 55 27 7a bf c4 7b 3a bf
       -0.97716266 -0.728451

encoder_variable_selection.flattened_grn.gate_norm.add_norm.norm.weight f4 [3]
000000 16 b3 a9 bd 78 e4 1d 3f 40 ef c4 3e
       -0.08286111 0.6167674 0.38463783

encoder_variable_selection.flattened_grn.gate_norm.add_norm.norm.bias f4 [3]
000000 5e b3 15 3e fd 66 fb be 3c 6e 28 3f
       0.14619204 -0.4910201 0.65793204

encoder_variable_selection.single_variable_grns.SinWeekly.resample_norm.mask f4 [16]
000000 55 63 db 3c 77 02 76 bd e0 b4 32 3f 99 a9 ec 3d
       0.026780764 -0.060060944 0.69807243 0.11555786
000010 6c e4 24 bf 33 1e 84 bd f3 16 3a bf 13 73 05 bf
       -0.64411044 -0.064510725 -0.7269127 -0.52128714
000020 f2 a3 35 bf 9d 92 ba 3a bf 13 38 bf 85 44 39 be
       -0.70953286 0.0014234368 -0.7190513 -0.18092544
000030 ef bf 08 3d 11 a8 de 3e ee ed 16 3f 0d 9b 4d 3d
       0.033386167 0.434876 0.589568 0.050196696

encoder_variable_selection.single_variable_grns.SinWeekly.resample_norm.norm.weight f4 [16]
000000 cb 48 83 3f e9 bb 3e 3f 42 5d fe 3f 30 d8 a0 3f
       1.025659 0.7450548 1.987221 1.2565975
000010 de b3 32 3f 08 52 75 3f 36 6c 02 3f 1d 0e 71 3f
       0.69805706 0.95828295 0.50946367 0.9416216
000020 c8 77 11 bf a2 7f 86 3f c9 c7 76 3f 9c 86 b6 3f
       -0.56823397 1.05077 0.963986 1.425983
000030 06 ce 70 3f af 34 d0 3f ca 68 f8 3f 78 ab 83 3f
       0.94064367 1.6266078 1.9406979 1.0286703

encoder_variable_selection.single_variable_grns.SinWeekly.resample_norm.norm.bias f4 [16]
000000 e0 55 88 3e 2a 9e 93 3e c4 3e 92 be ce f8 6f 3e
       0.26628017 0.28831607 -0.2856351 0.23434755
000010 02 fd 2d be f3 91 f2 3d 8e bb c5 be 42 88 67 be
       -0.16991046 0.11844244 -0.38619655 -0.22610572
000020 30 93 b1 3d 49 a7 15 be 3b c0 36 3b 5f 95 a2 3e
       0.08670652 -0.14614595 0.0027885574 0.31754586
000030 dd 15 21 3d 0d 60 ac bd fc cf 23 be 7c f1 e7 3d
       0.03932749 -0.08416758 -0.15997308 0.11325356

encoder_variable_selection.single_variable_grns.SinWeekly.fc1.weight f4 [8, 8]
000000 8f fe b0 3e 4b 13 ed bf be 9f 4a bf 5f c1 31 c0
       0.34569213 -1.8521513 -0.7915 -2.7774274
000010 a0 a5 ad be a1 53 3e 3e 37 41 39 3e 1d a9 fb 3e
       -0.33915424 0.1858659 0.18091284 0.4915246
000020 d9 a1 7a be c1 8f c1 3e 65 0d 59 bf 67 5b 6d be
       -0.24475802 0.37804988 -0.84786063 -0.23179398
000030 67 34 68 bf fc 06 a6 3f 5f 11 31 c0 80 cb 46 bf
       -0.9070496 1.2970881 -2.7666852 -0.77654266
000040 f0 71 cb bd a5 19 7d 3e 97 a6 4b bf 7b 07 fa 3e
       -0.09933841 0.24716814 -0.7955107 0.48833832
000050 9b de 83 bf 02 11 d3 3e 95 d1 52 3f 8e 08 63 bd
       -1.0302309 0.41223913 0.82351047 -0.05542808
000060 d4 06 e6 3e ed 7d ab 3d eb 6a df be 7f a5 e0 3d
       0.44927084 0.08373628 -0.4363626 0.10969066
000070 7b 57 83 3e 2d 4a 70 3e 3b dc 33 3e f0 7c 0c 3f
       0.2565268 0.23465796 0.1756448 0.5487814
000080 fd 5a 0c bf c6 0c 62 be 0c aa 98 3f ef f0 26 be
       -0.5482634 -0.22075185 1.1926894 -0.16302846
000090 dc c8 61 3e 8f 5d 38 3f bc 39 1a 3f 5b 76 61 bf
       0.22049278 0.7201776 0.60244346 -0.8807122
0000a0 6d 5d 1c 3f 48 b4 94 be 19 9f 14 bf 95 76 8b 3d
       0.61080056 -0.29043794 -0.58055264 0.06809727
0000b0 8e 34 a9 3e 39 c8 b5 be 55 1d 6f bd b0 fc 94 3e
       0.3304791 -0.3550432 -0.058377583 0.29099035
0000c0 96 34 87 bf 3d d4 d0 bd b7 a0 f1 bf c7 b0 e4 3e
       -1.0562923 -0.10196731 -1.8877171 0.4466612
0000d0 31 e6 73 bf 9c b4 f5 3e b5 56 1b c0 b3 c5 41 bf
       -0.9527312 0.47989357 -2.4271672 -0.7569229
0000e0 6f de c2 3d e4 f2 cf bd de 89 1f bf 8b f5 9c 3d
       0.09515082 -0.101537496 -0.62319744 0.07664021
0000f0 1c d7 6b 3f f5 a7 19 3f 39 15 fc bd 85 fc 04 3f
       0.92125106 0.6002191 -0.123087354 0.51947814

encoder_variable_selection.single_variable_grns.SinWeekly.fc1.bias f4 [8]
000000 7d 93 10 bf a2 aa ae be 0b ac 91 3d e6 f5 47 be
       -0.5647505 -0.34114558 0.07112893 -0.19527397
000010 68 4a 9d bc 8e d1 a7 bc 2f d4 e2 be 0b 4f 36 be
       -0.019200519 -0.020485666 -0.44302508 -0.1780359

encoder_variable_selection.single_variable_grns.SinWeekly.fc2.weight f4 [8, 8]
000000 a2 68 a4 bf 4a 68 0f 3f af 02 97 bf f5 9e 63 bd
       -1.2844431 0.5601851 -1.1797694 -0.055571515
000010 6b 2a 64 be 74 73 10 be 18 81 5a 3f ed 36 bd bd
       -0.22281806 -0.14106542 0.8535323 -0.09238992
000020 9c 99 ae be 58 f2 f4 bd ee 80 24 3e 39 c2 14 3e
       -0.3410157 -0.11960286 0.16064808 0.14527215
000030 30 54 11 bc 10 2b cd 3d fb ac 24 3f a0 22 23 3e
       -0.0088701695 0.10017979 0.6432645 0.15931177
000040 b3 46 2e 3f da 5c 17 bf 3e 7a 0d bd 03 bb 7a be
       0.6807663 -0.59126055 -0.034540407 -0.24485402
000050 b2 3f bd 3e 7a 89 bc 3d ec 43 94 3e 0a 23 ce 3e
       0.36962658 0.09205909 0.2895807 0.40261108
000060 07 8a 2c 3f 75 97 39 3f a4 39 02 3f 25 e5 fa 3c
       0.67398113 0.7249673 0.508692 0.030626843
000070 d2 e3 78 3e 81 0b 45 be d7 b1 4d 3e da 55 3f be
       0.24305657 -0.1924267 0.20087372 -0.18685094
000080 79 ef 9d bf d9 15 91 3f 28 bc 17 bf 0d d1 77 bd
       -1.2338706 1.1334792 -0.5927148 -0.0605021
000090 94 40 a1 3e 29 80 5f 3d f3 f8 45 3e 74 5b 05 be
       0.31494582 0.054565582 0.19333248 -0.13023168
0000a0 0c 93 25 3f ac 94 46 bf 90 52 8a be d4 56 82 3d
       0.646775 -0.77570605 -0.27016115 0.063642174
0000b0 e9 ca 0d bf bc 5c bd bc d7 61 c2 be 9f 8d cd be
       -0.5538774 -0.023115508 -0.3796527 -0.4014711
0000c0 b2 f7 10 3f e8 5d a1 3e 50 46 9f 3e 30 07 8a bd
       0.56627953 0.31516957 0.31108332 -0.06739652
0000d0 b9 10 c4 3e 62 65 0e bd 9a 61 2a 3f 48 d9 2c 3e
       0.38294008 -0.034764655 0.6655518 0.16879761
0000e0 e5 fb 3e 3f 43 34 26 3d 7d c5 ef 3e e0 ec 84 3c
       0.7460311 0.040577184 0.4683036 0.016226232
0000f0 86 44 06 3f a4 f4 39 3e 2f 3a 76 3f ab ff 95 be
       0.5244831 0.18159729 0.9618253 -0.29296622

encoder_variable_selection.single_variable_grns.SinWeekly.fc2.bias f4 [8]
000000 4d cf a1 3a 34 10 a0 bd bd 0b 51 bd 2e 1d 0b 3f
       0.0012345106 -0.078155905 -0.051036585 0.543414
000010 51 a1 93 3e a5 95 55 3e 73 55 e7 3e 98 d3 ae 3e
       0.28834012 0.20857866 0.4518238 0.34145808

encoder_variable_selection.single_variable_grns.SinWeekly.gate_norm.glu.fc.weight f4 [32, 8]
000000 dc 23 20 3f ce 61 ff 3e 62 da a5 be 88 dc 32 3f
       0.6255472 0.49879307 -0.32393175 0.69867754
000010 45 b0 27 3f 4a 14 38 bf 10 8c 59 3f e7 cd 15 3f
       0.6550334 -0.7190596 0.84979343 0.5851731
000020 c2 fd d4 be 55 55 aa bd b2 91 a7 3c 8f 21 e3 be
       -0.41599852 -0.08317057 0.020455215 -0.4436154
000030 25 97 ec 3d 8e 78 d5 3d 46 98 98 3e 59 9d fd 3d
       0.11552266 0.104233846 0.29803675 0.12383527
000040 ab 9e 7e 3e 75 7b da 3e 16 f7 9b be ca a5 ad 3d
       0.24865215 0.42672315 -0.3046195 0.084788874
000050 8b 82 8d 3e 51 34 cb be a6 c8 d5 be 35 e7 d3 be
       0.2763866 -0.39688352 -0.41754645 -0.41387334
000060 3d 5f 90 bd 86 cf 29 be 6d 77 d3 be 9b 42 a2 be
       -0.07049415 -0.1658307 -0.41302052 -0.3169144
000070 b7 f8 d2 bd d5 42 6e 3e 2f a8 be be 60 22 8c 3d
       -0.10301345 0.23267682 -0.3723769 0.06842494
000080 9f 3c e7 3e b6 d5 01 3f 50 7b 8b bc 8f 1b 08 3f
       0.45163438 0.5071672 -0.017026573 0.5316705
000090 ff b8 e3 3e 02 cc 1a bf 1d 5d 61 3f 69 0d 1e 3f
       0.44477078 -0.6046754 0.88032705 0.6173921
0000a0 48 6c ac 3d f1 9a df be 11 55 a7 bd e1 14 7a be
       0.084190905 -0.43672898 -0.08170522 -0.24422027
0000b0 62 7f a4 be 52 b2 22 be ba a2 a6 3c 00 75 22 3e
       -0.32128435 -0.15888336 0.020341266 0.15864944
0000c0 02 07 26 3f bb 06 e9 3e dd 65 44 bf 38 3b 34 bf
       0.64854443 0.45512947 -0.7671793 -0.7040286
0000d0 76 55 65 3f 39 c0 1b bf 31 05 5c bf ea 7d 56 bf
       0.8958353 -0.60840183 -0.8594542 -0.8378588
0000e0 87 36 2e be f9 af b6 3a 53 f5 de bd 4d 14 1d bf
       -0.17012988 0.0013937942 -0.10886636 -0.613591
0000f0 2b 2e 0d 3d ac 27 9e 3d 80 b6 6e be f3 1d 88 3d
       0.034467857 0.077224106 -0.23311806 0.06646337
000100 e3 e8 16 3f 33 b4 dd 3e e1 ba 8f be a9 2a 2c 3f
       0.58949107 0.43301544 -0.28072265 0.67252594
000110 98 bb 0c 3f d5 98 e3 be 8c 9b 03 3f 37 93 24 3f
       0.54973745 -0.4445254 0.5140922 0.6428713
000120 bc 96 ca be b4 79 cf be e2 89 d1 3e b6 40 94 be
       -0.39568126 -0.4052254 0.4092551 -0.2895562
000130 5f 06 d8 be cc 4c 0e 3f 38 cc c4 bd 74 ce 63 be
       -0.4219236 0.5558593 -0.09609264 -0.22246724
000140 c4 7e c0 3d 4d 5b e8 3c 06 1e ea 3d 61 3a da 3e
       0.093991786 0.028363848 0.11431508 0.42622665
000150 47 9b 81 3d ab a0 d1 3d 57 55 4f 3e ed c9 5b 3e
       0.06328445 0.10235723 0.20247398 0.21463747
000160 7f 53 3a 3e a0 6b da 3e 1b 6b cf bd e1 45 bc 3e
       0.18195914 0.42660236 -0.101278506 0.36772063
000170 e0 dd 70 3d 96 15 0e bf f8 2d f2 3e 80 79 0f 3f
       0.058805346 -0.5550169 0.47300696 0.5604477
000180 b7 93 01 3f 51 1c 0a 3f 73 82 22 bf f8 65 0b bf
       0.5061602 0.5394946 -0.634803 -0.54452467
000190 6b 1c 16 3f 70 55 de be cb 7d 0c bf 93 db 04 bf
       0.5863711 -0.4342456 -0.54879445 -0.51897544
0001a0 93 62 38 3f 1f 97 e3 3e 2c bd 26 bf bd df 44 bf
       0.7202541 0.44451234 -0.65132403 -0.769039
0001b0 c4 eb 1f 3f 14 0e fa be f5 37 6e bf 19 6e 44 bf
       0.62469125 -0.48838866 -0.93054134 -0.76730496
0001c0 b3 5b 5c be d2 6f c5 be 04 7b ca 3e 69 2e 21 be
       -0.21519355 -0.38561875 0.39546978 -0.1574036
0001d0 8a 70 f6 bd 6a a9 b1 3e 82 4b 91 be 10 95 6b 3e
       -0.12033184 0.34699565 -0.2837792 0.23006082
0001e0 00 55 c5 bc f4 7c 79 be 02 01 14 bd e1 eb 0d 3e
       -0.024088383 -0.24364072 -0.036133774 0.13859512
0001f0 85 f4 96 bc d5 64 fb be 07 34 4b 3e d9 6e 2f be
       -0.018427143 -0.49100366 0.19844066 -0.17132129
000200 17 35 03 3f 1e 14 37 3f 24 88 0b bf c2 e0 1d 3f
       0.51252884 0.7151507 -0.5450461 0.6167108
000210 30 47 3d 3f 69 1e 3d bf 5b c4 61 3e 36 de 14 3e
       0.7393675 -0.7387453 0.2204756 0.14537892
000220 b4 2e a4 3e 8d b4 9f bc 6d ae a0 3e 6d e1 b4 3d
       0.32066882 -0.019495273 0.31383076 0.08832059
000230 d3 d0 29 3e 4f 8f 89 be 29 2d 80 bc 66 a7 8c 3d
       0.16583566 -0.26867148 -0.015646534 0.06867866
000240 d2 03 52 bf 77 fa 1b be a5 8d 52 3e b7 9e 21 3f
       -0.8203708 -0.15232264 0.20561846 0.63132805
000250 f3 98 8e bf 9c eb 9d 3e 4c 7f 43 3f 95 f9 55 3f
       -1.1140426 0.30843818 0.76366115 0.83583957
000260 9d c3 26 3e cd 5a b2 3e 7a d6 f4 be 67 9c 10 bf
       0.16285558 0.348349 -0.47819883 -0.5648865
000270 00 dd 80 bd 9c ce 25 3e 55 3b ff be d1 90 c5 be
       -0.062921524 0.16192096 -0.49849954 -0.3858705
000280 73 1f f3 3e 23 38 d8 3e 6e 77 17 bf 13 45 66 3e
       0.4748493 0.4223033 -0.5916661 0.22487287
000290 ec bf 03 3f c3 82 01 bf 72 e6 a9 3d 58 bb eb 3d
       0.51464725 -0.5059015 0.08295907 0.11510342
0002a0 16 fe 27 3e 11 fb ae 3d 1c e7 0e 3e 11 1f 54 be
       0.1640552 0.08543981 0.13955349 -0.20714976
0002b0 0d 70 8d bd e0 f7 40 bf 03 d8 6e 3e 66 70 d5 be
       -0.069061376 -0.7537823 0.2332459 -0.41687316
0002c0 3f e0 21 bf bc 9c 6d bf 9a 54 a8 3f 2b 69 42 be
       -0.632328 -0.9281728 1.3150818 -0.18985431
0002d0 06 00 72 bf 53 3c f5 3e 29 a5 41 3f 9c d8 3c 3f
       -0.94531286 0.47897586 0.7564264 0.7376802
0002e0 68 5c 33 be 70 08 40 3f d0 1a 83 be d7 89 5f bd
       -0.17515719 0.75012875 -0.25606394 -0.054574814
0002f0 86 80 72 bd cc 3e 97 be 60 52 92 be d7 16 bf 3c
       -0.0592046 -0.29540098 -0.28578472 0.02332632
000300 82 03 99 3f ef 5c cb 3e e9 b9 52 bd 37 7b ab 3e
       1.1954195 0.3971934 -0.05144683 0.33492443
000310 83 43 a4 3f 64 04 06 bf de d3 4c 3e 98 77 3e 3e
       1.2833103 -0.5235045 0.20002696 0.18600309
000320 58 11 2a be d2 d0 c2 3d e1 15 ae 3d bb 2c a1 3f
       -0.16608179 0.095124856 0.08500267 1.2591776
000330 3f fa 6a 3d 86 a3 74 be 55 3f ce 3e a5 44 5a 3f
       0.05736756 -0.23890504 0.40282694 0.85260993
000340 a2 e4 5f 3e c1 53 21 3e 97 51 5d be ac 2a 95 bd
       0.2186456 0.15754606 -0.21613155 -0.0728353
000350 2d 6a 10 3e fe 8a 5f 3e c7 43 0e bf 2c 01 d1 be
       0.14103003 0.21830365 -0.5557217 -0.40821207
000360 dd aa 85 3e a4 37 87 3e a3 b6 04 bf 22 d8 45 3e
       0.2610692 0.26409638 -0.5184118 0.1932073
000370 7e db 08 3f 49 26 9b be 10 23 53 be d3 1b 4c be
       0.5345992 -0.30302647 -0.20618844 -0.19932489
000380 6a 3f ab be 13 75 63 be 91 cc 31 3f 76 19 0d 3f
       -0.3344682 -0.22212629 0.6945277 0.55116975
000390 3d 71 8f be ea 97 28 3e ca 9d 5d 3f 34 f0 0a 3f
       -0.2801608 0.164642 0.8656889 0.5427277
0003a0 c4 95 e8 be 38 a3 89 bf 90 90 3f 3f e4 14 1c be
       -0.45426762 -1.0752935 0.7482996 -0.15242344
0003b0 0c 0c c7 be b5 57 58 3f cd f2 8d 3e c9 bf d3 3e
       -0.3887638 0.8450883 0.27724305 0.41357258
0003c0 d5 88 7a bf 2e 43 07 be bb 71 44 bd 2b c9 d3 bd
       -0.9786504 -0.13209221 -0.047960024 -0.10341104
0003d0 b2 91 44 be 55 58 d0 3e 6f ac 77 be 0c 76 00 3d
       -0.19196203 0.40692392 -0.24186872 0.03136258
0003e0 44 f8 ae 3e 30 c7 a4 3e 6d 50 42 3e 1f 91 59 3c
       0.34173787 0.32183218 0.18975993 0.0132792285
0003f0 05 a2 27 3e 06 47 e3 3b b0 0e 1e 3d b6 c8 8c bd
       0.163704 0.006935957 0.038588226 -0.0687422

encoder_variable_selection.single_variable_grns.SinWeekly.gate_norm.glu.fc.bias f4 [32]
000000 9c 8c 0c 3f 6d d8 d6 3d 39 db 76 bf 80 b2 58 3e
       0.5490205 0.10490499 -0.9642826 0.21161842
000010 06 5d a7 3c cb 78 39 3a 07 66 a4 be a7 35 91 be
       0.0204301 0.00070751895 -0.3210909 -0.28361246
000020 bb 93 01 3e ae 7a 4e be 09 37 c8 3c 63 83 97 3e
       0.12654011 -0.20163986 0.024440305 0.29592428
000030 cc 03 a1 3d 69 b7 cf be 39 7f c0 bd 1d d4 4e 3d
       0.07862052 -0.40569618 -0.09399266 0.050495256
000040 ec e3 a9 3d cd 93 8e bf 0c ee 2e be c3 5a 51 bf
       0.08295426 -1.1138855 -0.17082995 -0.81779116
000050 83 3a c0 3e e5 66 dd bf 79 86 31 bf 19 f6 e7 3d
       0.3754464 -1.7297026 -0.69345814 0.11326236
000060 1d 54 d7 3b 80 c6 05 3e 0a ca 70 bf a5 10 1d 3e
       0.0065713064 0.13064003 -0.9405829 0.1533838
000070 fe 08 cf be 1c e4 6e 3e 7e 42 ef bc 46 8b ce bf
       -0.40436548 0.23329204 -0.02920651 -1.6136253

encoder_variable_selection.single_variable_grns.SinWeekly.gate_norm.add_norm.norm.weight f4 [16]
000000 b1 8d ad 3f 62 3b 08 3f 30 9c d4 3f 72 1e 50 3f
       1.3558866 0.5321561 1.6610165 0.81296456
000010 d1 88 5f 3f 08 1e 2d 3f 67 51 6e 3f 01 d0 b1 3e
       0.8731814 0.6762395 0.9309296 0.34729007
000020 3d f7 33 3f 5c fa 87 3f cb ff 81 3f 56 b9 f5 3f
       0.7029913 1.0623279 1.0156187 1.9197185
000030 1e 6d 1c 3f e5 fc 02 40 8c 67 d1 3f c1 c4 5d 3f
       0.61104 2.0466855 1.6359725 0.8662835

encoder_variable_selection.single_variable_grns.SinWeekly.gate_norm.add_norm.norm.bias f4 [16]
000000 1f e9 06 3d bd b2 9d 3e 99 d7 4c be 17 22 f4 3e
       0.032937165 0.3080043 -0.20004119 0.47682258
000010 a5 11 54 3d 12 c4 39 3e e3 e4 92 be 95 11 64 be
       0.05177464 0.18141201 -0.28690252 -0.22272332
000020 dc 66 97 bd c7 03 9b be 19 9c 8e be c2 cd 3c 3d
       -0.07392666 -0.3027632 -0.27853468 0.046094663
000030 b9 21 da bd ca 6c 1c bd 3e 50 01 3e 00 cd 60 3e
       -0.10650963 -0.038189687 0.12628266 0.21953201

encoder_variable_selection.single_variable_grns.VaccinationFull.resample_norm.mask f4 [16]
000000 10 71 53 be 74 8d 16 be 9f 52 bf bd 72 aa 1a bf
       -0.20648599 -0.14702398 -0.093419306 -0.6041633
000010 c4 50 7f 3e 5a dc 99 bd 0e 9c 1e 3f b7 16 e3 3e
       0.24933153 -0.07512732 0.6195687 0.44353268
000020 35 a0 19 3f 22 c1 2b bf 16 cb e1 be f0 c5 8b 3e
       0.6001008 -0.6709157 -0.44100255 0.27299452
000030 9f 45 87 bc 24 57 c6 3e cd 86 79 be 5e 8f 0e bf
       -0.01651269 0.38738358 -0.24367829 -0.5568751

encoder_variable_selection.single_variable_grns.VaccinationFull.resample_norm.norm.weight f4 [16]
000000 db fc 31 3f d2 b7 f0 3e af c0 ab 3f 14 74 44 3f
       0.6952645 0.47015244 1.3418177 0.7673962
000010 5d d4 b8 3f 13 32 69 3f ee fe ad 3f e9 df bc 3f
       1.4439808 0.9109203 1.3593423 1.4755832
000020 72 cb f9 3f b7 66 3a 3f ca 88 51 3f 06 25 8d 3f
       1.9515212 0.7281298 0.8184935 1.1026924
000030 54 be 7e 3f d8 61 b6 3f 44 87 07 bd d3 ca 33 3f
       0.9950917 1.424861 -0.033087984 0.7023136

encoder_variable_selection.single_variable_grns.VaccinationFull.resample_norm.norm.bias f4 [16]
000000 4e e1 b7 3e 31 b3 57 3e dd 02 fd be 72 ff b6 bd
       0.3591408 0.2106445 -0.49416247 -0.08935441
000010 86 95 b2 be 80 57 47 3e 36 05 10 3e d1 e1 6e 3e
       -0.34879702 0.19466972 0.14064488 0.2332833
000020 19 1f 39 3f 9f ab 2e be db a0 99 be 3a 57 d3 3d
       0.72313076 -0.17057656 -0.30005535 0.103193715
000030 d4 45 cc bc 20 73 b7 be 72 16 71 3e 5f dc 70 3d
       -0.02493564 -0.3583002 0.23543718 0.058803912

encoder_variable_selection.single_variable_grns.VaccinationFull.fc1.weight f4 [8, 8]
000000 c8 bf cd 3e 7f 98 a1 bc 53 50 36 bf 1f b5 3e be
       0.4018538 -0.019726036 -0.71216315 -0.1862378
000010 60 8e 2b 3f 98 86 55 3c 80 b1 0b bf bd 16 12 be
       0.6701412 0.013032578 -0.5456772 -0.14266486
000020 59 c7 7a 3d d2 fb 95 be 32 06 92 bf c6 fc a9 bf
       0.06122527 -0.29293686 -1.1408141 -1.3280265
000030 d1 6a e0 3d 0b c0 42 3f c5 9c d8 3f fd ec 24 3f
       0.109578736 0.76074284 1.6922842 0.64424115
000040 3a 4c 49 3d c3 14 2c bf 0a 32 e4 be 6e ea 09 bf
       0.04914496 -0.6721918 -0.44569427 -0.53873336
000050 14 c8 8d be b6 6a 73 3f dd 85 77 3e dd 22 2b bd
       -0.2769171 0.950847 0.24172159 -0.041781295
000060 d7 22 86 be ae ac 64 bf 0f f6 36 bf 36 d4 9a be
       -0.26198456 -0.8932599 -0.71469206 -0.3024003
000070 51 eb 25 bf 0b 3e ea 3f 03 79 b2 3f 2f 22 80 3f
       -0.6481219 1.8300184 1.394318 1.0010432
000080 8a a1 1e bd 16 13 2b 3f bb 37 64 3d 38 2d 5d be
       -0.038728274 0.66826 0.05571721 -0.21599281
000090 4e 26 8b bd 36 e8 92 3f 34 ee bb 3f ae f7 b4 3f
       -0.067944154 1.1477115 1.4682069 1.4138086
0000a0 af 23 5a be 6a 9f ea 3e 52 73 ef 3e 58 25 02 be
       -0.21302675 0.45824748 0.4676767 -0.12709558
0000b0 75 07 e9 be cd 48 86 bf ac f1 57 bf 7e a5 fa bf
       -0.45513502 -1.0490967 -0.84353137 -1.9581754
0000c0 a1 6a 59 bf 8a 6c 25 3f d8 ab d4 3e a1 83 49 bd
       -0.8492833 0.6461874 0.41537356 -0.049197797
0000d0 fa f8 23 3f ae d7 6c be a4 63 b5 3e 41 03 60 3d
       0.64051783 -0.2312915 0.35427582 0.054690603
0000e0 09 0a 5d 3e 4d 74 9b 3e dd e1 fd be c7 33 a0 be
       0.2158586 0.30362168 -0.49586383 -0.31289503
0000f0 98 27 25 bf 26 5f 91 bf c1 86 39 be 06 fe bb bf
       -0.6451354 -1.1357162 -0.18117811 -1.4686897

encoder_variable_selection.single_variable_grns.VaccinationFull.fc1.bias f4 [8]
000000 03 1c e5 3d 6f 2f a5 3d da 7e 98 3d 39 07 28 3d
       0.111869834 0.08065688 0.0744607 0.041022513
000010 ec 29 24 be f9 67 9a be b2 5c e8 be 7f 77 84 be
       -0.16031617 -0.3015745 -0.4538322 -0.25872418

encoder_variable_selection.single_variable_grns.VaccinationFull.fc2.weight f4 [8, 8]
000000 c0 23 06 3e c1 4c 12 bf 5f c5 cd bd f8 d5 4f bf
       0.13099575 -0.5714837 -0.10047411 -0.81185865
000010 3b a3 92 bf 81 e5 08 bd 2c c0 39 bf a4 8f c7 bd
       -1.1456064 -0.033421997 -0.72558856 -0.09744194
000020 3a 00 2f 3f 4a b1 bd bf 3b e1 03 bf 64 d7 b3 bf
       0.6835972 -1.4819729 -0.5151555 -1.4050107
000030 3e dc 99 bf 62 a4 56 bf 6f 3c 17 3e 90 d1 99 be
       -1.2020338 -0.8384458 0.14769147 -0.30042696
000040 57 98 9f bf 21 b6 58 3f da 07 6e 3e e2 cf b2 3f
       -1.2468365 0.84652907 0.23245183 1.3969691
000050 4f 9b 01 3f 48 7c fd 3e 49 26 cd 3d 79 07 1b 3f
       0.5062761 0.49508882 0.10017068 0.6055828
000060 d8 c4 36 bc fd f2 d5 be 8c 13 66 3e 53 8c 9b be
       -0.01115533 -0.41786948 0.22468394 -0.30380496
000070 b4 ec 03 3f 65 eb 6b bf 95 82 66 be 1d ae c3 bd
       0.51533055 -0.9215606 -0.2251075 -0.09554694
000080 d3 d1 58 be a8 3a 8c be 2b 55 36 3e ee 60 bc bd
       -0.21173792 -0.273885 0.17805927 -0.09198175
000090 76 e6 2b 3e a7 8b c6 3e 80 fa 06 bf a3 95 48 3f
       0.16787133 0.3877842 -0.5272598 0.7835333
0000a0 fc f4 27 be e4 ec bd 3e 0d bc 36 3e ad 2a a8 3e
       -0.16402048 0.37094796 0.17845173 0.3284506
0000b0 d2 d9 a6 3e 92 a0 12 3e b2 37 9f be 73 fd 44 bf
       0.3258806 0.14319065 -0.3109718 -0.7694923
0000c0 d2 bb 38 3f d9 c6 7d 3d d5 2d 23 be 83 09 13 3f
       0.7216159 0.061957214 -0.15935452 0.5743639
0000d0 fa 4e 87 3e f1 69 51 bf 70 8e 03 be 5e 2e b7 bd
       0.26427442 -0.8180228 -0.12847304 -0.08944391
0000e0 2c 17 a0 be e8 38 b3 3e 5b 3a 7b 3e 15 d5 e5 3e
       -0.3126768 0.35004354 0.2453398 0.4488913
0000f0 c1 0a 9b be 89 9b 06 bf 60 d9 9d be 38 61 9a be
       -0.30281642 -0.5258108 -0.30829906 -0.30152297

encoder_variable_selection.single_variable_grns.VaccinationFull.fc2.bias f4 [8]
000000 13 c3 c9 3e eb 95 12 3f d7 db 4c be aa 71 84 bc
       0.39406642 0.57260007 -0.20005737 -0.01616748
000010 b7 f3 1c 3e 6d 7d 6f 3e 53 f6 c2 3e a8 1a b3 3d
       0.15327345 0.2338769 0.38078555 0.08745319

encoder_variable_selection.single_variable_grns.VaccinationFull.gate_norm.glu.fc.weight f4 [32, 8]
000000 56 e1 5f be c8 ec 08 3f 53 c3 9b 3e e4 0a 02 3f
       -0.21863303 0.534863 0.30422458 0.5079787
000010 65 5f 00 bf ab 47 04 3f 88 79 98 3e f2 18 36 3e
       -0.5014556 0.51671857 0.2978022 0.17782953
000020 eb 7f b2 3e 13 ed 26 3f 2a 9f df be 22 54 ab be
       0.3486322 0.65205497 -0.4367612 -0.33462626
000030 7b 39 ce 3e fe f9 a6 be 42 4d 91 be 7c 85 11 bf
       0.4027823 -0.32612604 -0.28379256 -0.56844306
000040 d4 d7 e7 bd e5 4e 2e be cb 8a f6 3e fe c7 7a be
       -0.11320463 -0.17022283 0.48152766 -0.24490353
000050 8c a3 ac 3d c9 70 b3 3e 25 18 9b be dc 7a 95 3e
       0.084296316 0.35046986 -0.30291858 0.29195297
000060 6d 43 20 bf 13 f5 b0 3d 9b e8 18 bf 59 78 8a 3f
       -0.62602884 0.08640494 -0.5972993 1.0817977
000070 61 52 82 bf 9a a3 b0 3f 2b 9c 89 3f 4e 6d a5 3f
       -1.018139 1.3799927 1.0750784 1.2923982
000080 29 c2 1e 3f d5 9a 25 3f 6f 50 93 3b e9 b2 08 bf
       0.62015015 0.6468938 0.0044956724 -0.53397995
000090 45 df be 3e 7d 41 f3 be c8 ef a8 be 75 90 a5 be
       0.37279716 -0.475109 -0.3299544 -0.32336774
0000a0 b4 96 c9 3d 41 8c 3c be 4c 58 d6 3e 8a fb bf be
       0.098431975 -0.18412878 0.4186424 -0.37496597
0000b0 bc 0f 06 3f 8a fe 45 bd 23 da 35 be 7c 08 98 be
       0.5236776 -0.04833845 -0.17758994 -0.29693973
0000c0 b6 65 e2 bd 4a 1d 29 3f c8 1f 4b be 37 dd 8e bd
       -0.11054556 0.66060317 -0.19836342 -0.06975787
0000d0 9f c0 91 bd b4 7a 4a be 6f 15 23 3e 6e dd 80 ba
       -0.07116818 -0.1977337 0.15926145 -0.0009831616
0000e0 b7 c7 51 3f 87 e6 94 3f 32 bd 31 bf d2 71 78 be
       0.81945366 1.1632851 -0.69429314 -0.24262169
0000f0 aa bc e0 3e c5 c5 c8 be a7 e3 33 3e 7c 37 f2 be
       0.4389394 -0.39213386 0.17567311 -0.47307956
000100 74 9a 7f 3e 0e b1 32 3f 2f a4 de be a3 2d e7 3e
       0.24961263 0.69801414 -0.43484637 0.45152006
000110 06 e2 d4 be d4 6e ed 3e 01 e2 09 3f 05 a6 81 3e
       -0.41578692 0.46373618 0.5386048 0.25321975
000120 90 3d 67 3f 46 70 93 3d f9 90 08 3f 6e 2a 2b bf
       0.9032831 0.07199149 0.5334621 -0.6686162
000130 6d a7 38 3f ea 6c 31 bf 78 fd 65 bf fd 0a 30 bf
       0.7213047 -0.69306815 -0.8983989 -0.68766767
000140 2a ee 8f 3c b9 66 af bf 33 4d 78 3f 41 55 b3 be
       0.01756962 -1.3703223 0.96992797 -0.3502598
000150 a3 6b f4 3e d4 dc 62 be 93 4a 6b be 61 c1 c2 be
       0.4773837 -0.22154552 -0.22977667 -0.3803816
000160 e5 ec 2e bf 18 50 91 bf 84 b1 8d 3e 6f 4e 84 3e
       -0.6833022 -1.1352568 0.27674496 0.2584109
000170 41 6d 4f be 90 a8 c5 3e 6f 2e 69 bd d9 60 bc 3d
       -0.20256521 0.38605165 -0.05692905 0.0919816
000180 17 dc a4 3e aa 49 59 3f 80 6b 4e bf 0c 91 1a be
       0.32199165 0.8487803 -0.8063278 -0.15094393
000190 bf cf 38 be 67 b7 85 bc 31 2b 7b 3a 93 81 9e 3d
       -0.18047999 -0.016322805 0.0009581326 0.07739558
0001a0 86 64 5a bc dc 93 98 bf 02 6e 1c 3f 21 92 2a be
       -0.013329631 -1.1920123 0.6110536 -0.16657306
0001b0 a9 e9 38 3e 7b 2e ac bd dc 7b 95 be 9f cc 80 bd
       0.18057884 -0.08407303 -0.2919606 -0.062890284
0001c0 3c 14 14 bf 7c 10 43 3f d3 7c 08 bf 53 f3 20 3f
       -0.57843375 0.7619703 -0.53315467 0.62871283
0001d0 65 bc d2 be 72 6c 34 3e f5 a8 d0 3e 4a f0 58 3f
       -0.4115936 0.17619494 0.40753904 0.8474165
0001e0 87 8c 82 be f7 32 c5 3b 51 89 b3 3d 1b 5d 99 be
       -0.2549784 0.0060180384 0.087664254 -0.29953846
0001f0 15 d9 96 3e 56 72 d6 3d 7f 14 1f 3e 07 92 57 3d
       0.29462495 0.104710266 0.15535162 0.052629497
000200 6a 7d 0a 3f d9 c9 65 bd b9 69 9b 3f 83 00 bf bf
       0.54097617 -0.0561007 1.2141639 -1.4922031
000210 44 21 29 3f a8 76 c5 be 18 da ad bf 4d 36 a6 bf
       0.66066384 -0.3856709 -1.3582182 -1.2985321
000220 06 19 08 3d b9 37 a8 bf f9 61 b2 3f fc 0e 73 bf
       0.03322699 -1.3142005 1.3936149 -0.9494474
000230 3e 37 d7 3e 9e ea c8 3d 4f b9 3b bf ca 4c d2 be
       0.42034334 0.09810375 -0.73329633 -0.4107421
000240 e7 21 ee 3e 31 b0 b5 3e 0e 84 2b 3e 0f 8c 02 be
       0.4651024 0.35485986 0.16749594 -0.1274874
000250 a9 f0 4f be 27 1b d4 3d 07 3e 24 be 3a ce 9d 3e
       -0.20306648 0.103567414 -0.16039287 0.308214
000260 25 fc f1 3f 1c 1d ea 3e 97 1e 37 3d 52 29 9f be
       1.8905073 0.45725334 0.044706907 -0.31086212
000270 9d e6 1f 3f 1b a1 8c bf 9e 3f f7 be a9 25 50 bf
       0.6246126 -1.0986665 -0.48290724 -0.81307465
000280 99 d4 6f 3e 0d 6c 2d bf 58 ce f2 3e ab 8d dd bf
       0.23420943 -0.67743 0.47423053 -1.7308859
000290 39 48 8a 3f 9b 37 f6 be 9e e5 b1 bf c2 7d 91 bf
       1.0803291 -0.480893 -1.3898199 -1.1366503
0002a0 2a 4a b2 be 25 b2 8a bf 94 62 7b 3f d6 f3 aa 3c
       -0.34822208 -1.0835615 0.98197293 0.020868223
0002b0 0f 04 63 be 90 95 2a 3d be d3 98 be f5 c4 c4 3d
       -0.22169517 0.04164654 -0.29849046 0.09607879
0002c0 11 19 94 be ff fa 9c 3e ee c4 f3 bd 95 3e 60 3e
       -0.28925374 0.30660245 -0.11902796 0.21898873
0002d0 4b 00 cd bd 96 9c 16 3e 29 49 36 bf 05 da 03 3e
       -0.100098215 0.1470817 -0.71205384 0.12876137
0002e0 da 8e 2c 3f 90 a4 71 3f ef 98 8f be a6 9a c2 bd
       0.67405474 0.9439173 -0.28046367 -0.09502153
0002f0 53 d9 5b be 4b f1 d4 be 56 4b 23 bf 18 72 cf 3d
       -0.21469621 -0.41590342 -0.6378683 0.101291835
000300 f7 8d 08 3e 0e d1 bf 3e f7 97 22 be 8d f5 80 3d
       0.13335405 0.37464184 -0.15878282 0.06296835
000310 23 09 05 be da 7b b0 bd b7 06 0e 3e fa 3d aa 3b
       -0.12991767 -0.08617373 0.13869749 0.0051953765
000320 b3 54 b2 bd ef 44 a3 bf 78 62 ce 3f 45 47 fa be
       -0.08707561 -1.2755412 1.61238 -0.488825
000330 3a 0d 02 3f 7c ad f3 bc 77 bd 9f be 89 fe 1c be
       0.5080143 -0.02974581 -0.31199238 -0.15331472
000340 f9 52 17 bf 86 c9 31 bf af 2b 7f 3f ef 34 48 bc
       -0.5911098 -0.69448125 0.9967603 -0.012219652
000350 f3 a9 0e 3a 39 d0 03 be a4 3a 74 be 43 e8 2b bd
       0.00054421945 -0.128724 -0.23850495 -0.04196955
000360 36 98 00 3f fe 36 06 bf 58 25 1e 3f 72 90 c8 bf
       0.50232255 -0.5242766 0.6177573 -1.5669081
000370 7c 6b b3 3f 2b 80 28 bf 26 0c a2 bf b9 2d b5 bf
       1.4017177 -0.6582057 -1.2659957 -1.4154578
000380 41 33 c5 3e 99 3a d3 bc 1e e5 4d be 59 ea 23 bf
       0.38515666 -0.025784777 -0.20106933 -0.6402946
000390 0d 1a ac 3f fd ad 22 bf f9 ef db bf d0 5c ba bf
       1.344545 -0.63546735 -1.7182609 -1.4559574
0003a0 60 6d 32 3e 35 33 01 bf 20 15 81 3e aa d0 38 bf
       0.17424536 -0.5046876 0.2521143 -0.72193396
0003b0 b1 99 23 3e f4 34 28 be 90 6a ab be b0 c0 e1 3d
       0.15976597 -0.1642645 -0.33479738 0.1102308
0003c0 e4 e6 9a 3d 45 51 4a be 9c bc 68 3e 87 ff 31 bf
       0.0756357 -0.19757564 0.22728199 -0.6953053
0003d0 e4 d5 b4 3e 2b 2f 71 be 68 9b ee be 75 8a fa be
       0.35319436 -0.2355315 -0.4660294 -0.4893376
0003e0 4e 6b 15 be 70 82 81 be 6b 99 72 3f 81 9e 0f be
       -0.14591715 -0.25294828 0.9476535 -0.14025308
0003f0 8d ed bc 3b d3 30 fc be 34 eb 99 3c e4 9a 27 bd
       0.005765623 -0.49256 0.018788911 -0.0409192

encoder_variable_selection.single_variable_grns.VaccinationFull.gate_norm.glu.fc.bias f4 [32]
000000 d9 68 3f 3d 33 af 7e 3f 27 a9 3f be 9d 09 3f bf
       0.04673085 0.9948608 -0.1871687 -0.74624044
000010 00 f1 22 3f 26 b0 a7 bd 14 f3 1d 3d 9a e1 cf 3e
       0.63648987 -0.081878945 0.038561895 0.40601808
000020 d1 f1 82 3f b1 bc c7 3e 21 e5 ba bd 28 cc 7b bf
       1.0230047 0.39011148 -0.09125734 -0.9835839
000030 43 0d 1d 3f 5e 52 04 be a1 7b d3 3d 86 01 27 bb
       0.6134836 -0.12922046 0.10326315 -0.0025483086
000040 a6 04 ae be 7e 4b 21 bf fc be 29 bf 2c ea af 3e
       -0.3398792 -0.63005817 -0.66307044 0.34358346
000050 db d4 bf 3d da 71 c4 bf 57 be 28 bf 62 96 26 be
       0.09366771 -1.5347245 -0.65915436 -0.16268304
000060 96 c1 8c 3f ba 53 40 bf e7 55 1b bf 0d 1c 98 be
       1.0996578 -0.75127757 -0.6067795 -0.297089
000070 17 19 16 bf f8 3a c1 be 2b 11 27 bf 0b 91 da bf
       -0.58632034 -0.37740302 -0.6526057 -1.7075514

encoder_variable_selection.single_variable_grns.VaccinationFull.gate_norm.add_norm.norm.weight f4 [16]
000000 49 d4 19 3f ad 2d 47 3f 07 7b 4a 3f 7a 51 9b 3f
       0.60089546 0.7780407 0.79093975 1.213424
000010 f8 32 65 3f 9a f4 36 3f 5e 3b 0c 3f d0 be 9a 3f
       0.895309 0.7146698 0.5477809 1.2089481
000020 fe 13 55 3f 1d 63 56 3f c8 f5 21 3f 50 0d 89 3f
       0.8323363 0.83744985 0.6326566 1.0707188
000030 a9 3a 56 3f a8 98 77 3f 07 cb 84 3f e6 a6 af 3c
       0.8368326 0.9671731 1.0374459 0.021441888

encoder_variable_selection.single_variable_grns.VaccinationFull.gate_norm.add_norm.norm.bias f4 [16]
000000 7b b4 8d 3d b2 57 5a 3e d1 a7 2b 3e ac 61 b0 bd
       0.069191895 0.21322516 0.16763236 -0.086123794
000010 13 ac 90 3d 0b dc 4b 3e 91 1e a2 be 5e e0 c4 3d
       0.070640706 0.19908158 -0.31663945 0.09613107
000020 4a 25 03 3d 89 69 a6 bb 16 66 f3 bd 81 dc a5 3e
       0.032017983 -0.0050784987 -0.11884706 0.32394794
000030 74 de 28 be 90 16 d2 3d 69 9e 05 be 49 ec a9 3d
       -0.16491109 0.1025821 -0.1304871 0.08297021

encoder_variable_selection.single_variable_grns.Cases.resample_norm.mask f4 [16]
000000 fb c7 c7 3e 48 86 82 3d 95 a0 0b c0 5d 12 23 be
       0.3901976 0.06373268 -2.1816761 -0.15924974
000010 e4 3a 85 be 9b 91 06 3f f3 2c 5c 3e a7 ff 6e be
       -0.26021492 0.52565926 0.21501522 -0.23339711
000020 bb db d4 be be 7d e1 3e d1 ea 29 3f 49 e0 ae be
       -0.4157389 0.44041246 0.66373926 -0.3415549
000030 67 c4 c8 bf 12 7a c4 bf bd 8d 66 3e 84 cf 03 3e
       -1.5684937 -1.5349753 0.22515006 0.1287213

encoder_variable_selection.single_variable_grns.Cases.resample_norm.norm.weight f4 [16]
000000 8e 01 c1 3f 8c 6c d2 3f 04 51 24 3f a4 14 aa 3f
       1.50786 1.6439376 0.6418612 1.3287549
000010 33 f7 83 3f e2 03 d6 3f be 69 f8 3f 1d 94 d0 3f
       1.0309814 1.6719935 1.940727 1.62952
000020 e9 6e b0 3f 76 ed e0 3f 7a 1b e0 3f 4e ba 09 3f
       1.3783847 1.7572467 1.7508385 0.53799903
000030 47 07 27 3d 2a 11 d6 bd 6a b2 e5 3f 82 ce bf 3f
       0.040778425 -0.104524925 1.7945073 1.4984896

encoder_variable_selection.single_variable_grns.Cases.resample_norm.norm.bias f4 [16]
000000 7c 86 95 3e bc 41 40 3e 87 ff 30 bf b4 5a 4f be
       0.29204166 0.18775076 -0.69139904 -0.20249444
000010 3f c5 80 be 08 99 22 be ef 75 18 be 80 91 94 be
       -0.25150487 -0.1587869 -0.14888738 -0.29017258
000020 8d e8 18 be cf d5 f7 3d 04 86 24 bd 90 86 9f be
       -0.14932461 0.12101328 -0.04016687 -0.3115735
000030 2a ab 0b 3f f0 2b 9f be f3 28 03 3e d4 00 c4 3e
       0.5455805 -0.3108821 0.1280859 0.38281882
