TFT-pytorch-age-and-vaccination/results/age_groups_2029/checkpoints/best-epoch=9.ckpt (torch, 436013 bytes, 506 tensors)

prescalers.AGE2029.weight f4 [8, 1]
00000000: 239e 303e 0f62 2ebf 6946 733e 44c9 cf3e
00000010: 3d7f 3abf 25c3 88be da9c 3cbf cc36 bc3e
0.17247824 -0.68118376 0.23757328 0.4058324 -0.728504 -0.26711383 -0.73676836 0.36760557

prescalers.AGE2029.bias f4 [8]
00000000: c04c 69be c45a 223f 8799 1c3f b075 ee3b
00000010: 30d0 a9be 9be3 11bf e6c7 59bd fd93 57be
-0.22783184 0.6341975 0.61171764 0.007277213 -0.33166647 -0.56987923 -0.053169154 -0.21052547

prescalers.SinWeekly.weight f4 [8, 1]
00000000: 8f9f 4b3e 644a 7fbf 34b5 833f a70e 51bf
00000010: 278a 3c3f fae1 5dbe 4085 2d3f 4715 ea3e
0.19885086 -0.99722886 1.0289674 -0.8166298 0.73648304 -0.21668234 0.6778145 0.45719358

prescalers.SinWeekly.bias f4 [8]
00000000: fe0b 7e3d d82b 143d 5bc3 173f 7bfd 683e
00000010: cef0 173f 7c5e 26bf ecfb 313f 694d b33e
0.062023155 0.036174625 0.59282464 0.22752945 0.59351814 -0.6498792 0.6952503 0.35019997

prescalers.VaccinationFull.weight f4 [8, 1]
00000000: ab65 013e f311 81bc f315 e23e 9449 7f3f
00000010: 0c84 04be c67a f0be 9fc3 14be 7c8d 15bf
0.1263644 -0.01575563 0.4415737 0.99721646 -0.12940997 -0.4696867 -0.14527749 -0.58419013

prescalers.VaccinationFull.bias f4 [8]
00000000: 6509 193f 43d6 e9be 985b 14bf bda0 663f
00000010: 3554 573f 1d4d e03d a1a5 99be 8e73 42bd
0.5977996 -0.4567128 -0.5795226 0.9008902 0.84112865 0.10952208 -0.30009177 -0.047473483

prescalers.Cases.weight f4 [8, 1]
00000000: daf1 0e3f ac17 85bf 4ac4 74bf f3d3 063f
00000010: fe5a 973f 82f0 99bb 92b4 2cbf 6b31 bf3e
0.55837786 -1.0397849 -0.95612013 0.5266716 1.1824644 -0.00469786 -0.6746303 0.3734239

prescalers.Cases.bias f4 [8]
00000000: d3b4 01bf 40ab 43bd 5b5f e63e d03f 613e
00000010: cc13 903d 7ff0 1c3d 7474 783e 0bc0 54bf
-0.5066654 -0.04777074 0.44994625 0.21996999 0.07035026 0.038315292 0.24263173 -0.83105534

static_variable_selection.single_variable_grns.AGE2029.resample_norm.mask f4 [16]
00000000: 3402 c8bd 988d 39be f1fd 333c 4331 053d
00000010: b737 0ebd 0166 94bd ac8a a13d ddcd 063d
00000020: b44d 723d bc53 29bd 2849 803b aee7 8f3d
00000030: 7387 dabc 9c04 083e d4e4 41bc a6fc 973c
-0.09766045 -0.1812042 0.010985837 0.032517683 -0.034721103 -0.07246018 0.07887778 0.03291117
0.059156135 -0.04133962 0.003914971 0.07026611 -0.026675915 0.13283008 -0.011834342 0.01855309

static_variable_selection.single_variable_grns.AGE2029.resample_norm.norm.weight f4 [16]
00000000: 0e15 6d3f 1f91 683f 9d26 843f a937 863f
00000010: a92c 7d3f 92b4 6e3f 0a79 8b3f f3c8 853f
00000020: 17f8 833f d932 733f faa6 823f 52d0 8d3f
00000030: 5894 773f 327b 8c3f bf21 7b3f f230 863f
0.9261025 0.9084644 1.0324284 1.0485736 0.9889627 0.9324428 1.0896313 1.045195
1.0310086 0.9499946 1.0207207 1.1079199 0.9671073 1.0975096 0.9809837 1.0483687

static_variable_selection.single_variable_grns.AGE2029.resample_norm.norm.bias f4 [16]
00000000: 041c e83d 76e2 f6bb e837 bfbc d638 8e3d
00000010: 2d40 efbc 0eba 70bd 30a3 99bd 93a9 96bd
00000020: a497 e4bc 1deb 6b3d 5fc2 cdbb 2b8a 1fbe
00000030: acdd e8bc 865f 99bc a5e2 593d d51f d33d
0.113334686 -0.0075343205 -0.023342088 0.06944434 -0.029205406 -0.058771186 -0.07501829 -0.073565625
-0.02790434 0.05759727 -0.0062792744 -0.1558005 -0.028426014 -0.018722307 0.05319466 0.10308806

static_variable_selection.single_variable_grns.AGE2029.fc1.weight f4 [8, 8]
00000000: 8c5d c53e 1462 17bf d33d debe a370 9cbe
00000010: 018a cdbe cc77 c0bf 83bc ac3d 9605 b8be
00000020: 2958 10bf 22f0 65bf 9540 7fbe f0d5 0f3f
00000030: 2da3 1cbe 9e53 bbbe 94d7 3d3f 4acd d5bc
00000040: 7119 493e 9aca ba3e 0b59 253f 5c14 3ebe
00000050: 4dce ef3c d2a6 89be 05d2 823e 3fdc 9dbe
00000060: e566 21bf 6183 a2bd 53ca c0bd 748b 04bf
00000070: cbc8 fcbd 5953 623e ef3c 05bd 4eaf 1d3f
00000080: a860 e6be 9c9f 033f 4d82 b9bd ccf4 1fbe
00000090: 33d0 e2be f175 5f3f e196 8e3e 0831 bebc
000000a0: 843d 4c3e 1c5c e93b 90a9 50be c6c8 a5bd
000000b0: bc38 f53e 1102 d6be 1770 413e 001e 9ebe
000000c0: 85b6 5cbe 8d41 00bf f3aa ddbe 722e 9ebd
000000d0: 6a6c 303f 5d8c bc3f aefb 313f dc4f bebe
000000e0: cb2c 28bf 0d48 16bf 1d7b 12be 47ad e53e
000000f0: d3bf 323d e252 d7be 937b 9e3e acac 123e
0.38547933 -0.5913403 -0.43406543 -0.30554685 -0.4014435 -1.5036559 0.08434393 -0.35941762
-0.5638452 -0.8981954 -0.2492698 0.5618582 -0.15296622 -0.36587232 0.7415707 -0.026098866
0.19638611 0.36482698 0.64588994 -0.18562454 0.029273177 -0.26885086 0.25550857 -0.30832097
-0.6304763 -0.07935215 -0.0941359 -0.5177529 -0.12342986 0.22102107 -0.032528814 0.6159562
-0.44995618 0.5141542 -0.09058056 -0.15620726 -0.44299468 0.8728934 0.27849486 -0.02321674
0.19945341 0.007121576 -0.20377183 -0.08094935 0.47894847 -0.41798452 0.18890415 -0.30882263
-0.21554 -0.5010002 -0.43294486 -0.077237025 0.68915427 1.4730335 0.6952466 -0.37170303
-0.6569335 -0.5870369 -0.14304776 0.44858763 0.04363997 -0.42055422 0.30953655 0.14323682

static_variable_selection.single_variable_grns.AGE2029.fc1.bias f4 [8]
00000000: 61ed 03bd 2954 953c 4fa6 83bb f9ea 0ebd
00000010: 9d73 f83d 64ca 563d 6412 893d 4f71 afbc
-0.032208804 0.018228607 -0.0040176283 -0.034892056 0.121314265 0.05243911 0.06692961 -0.021416334

static_variable_selection.single_variable_grns.AGE2029.fc2.weight f4 [8, 8]
00000000: 252c 0d3d f29e 353f 02b7 033e 1616 b1be
00000010: 4e7c 693e 0f97 e5be a82b 473f 85a7 613f
00000020: 79dc efbe a95e 03bf 25b7 773e de86 72bd
00000030: dad4 5b3e f2af 203b bb10 dd3e 77f9 963d
00000040: 7517 63be 508a bf3e e3d6 a0bd 0c2b 393e
00000050: a0f9 053e 9ebd 06bf f212 bcbe 91c2 2d3f
00000060: 5491 6c3f 8391 b8bc 0813 073f c9ef c5be
00000070: 34ee e6bd 1195 69be 80f8 0b3f 141c 2dbf
00000080: f179 993e e3a4 b7be 2302 513e db83 ff3d
00000090: 6416 e53e 1b00 4e3e e134 0c3f d93f fbbc
000000a0: 3dcb a93e 9e21 48be b0a6 f3be 4045 e33c
000000b0: fb27 363e 03be 59be 5c7a 52bf df1e 3a3e
000000c0: a08d 5abf 7d3e 013d e23e 703d ae82 19be
000000d0: 52a2 f43e 6415 e63e 5baa ccbe f04b 0abf
000000e0: c5d2 583d 3414 ad3e c160 25bf d47b 70be
000000f0: de3a f23d 3acd a63d 5c28 8c3e f3a0 13bf
0.034465928 0.70945656 0.1286278 -0.34587163 0.22801325 -0.4484181 0.7780099 0.8814624
-0.46847895 -0.51316315 0.24190958 -0.05921065 0.21467915 0.0024518934 0.43176827 0.073718004
-0.22176917 0.37410212 -0.078534864 0.18082827 0.13083506 -0.5263308 -0.36733204 0.6787501
0.92409253 -0.022530323 0.52763414 -0.38659504 -0.112759024 -0.2281077 0.54676056 -0.6762097
0.29975846 -0.35867986 0.20410971 0.12476321 0.44743645 0.20117228 0.54768187 -0.030670093
0.3316287 -0.19544074 -0.4758811 0.027742982 0.17788689 -0.2126389 -0.82217956 0.18175839
-0.8537235 0.031553734 0.05865372 -0.14991257 0.4778009 0.44938195 -0.3997372 -0.5402212
0.05293538 0.33804476 -0.6460076 -0.23484737 0.11827634 0.081446126 0.27374542 -0.57667464

static_variable_selection.single_variable_grns.AGE2029.fc2.bias f4 [8]
00000000: 5330 5f3d ec65 433d 9984 61bc 9707 3d3c
00000010: a0e9 723c ca0f c4bc 2933 a93c 3aee 393d
0.054489445 0.047704622 -0.013764524 0.011537454 0.014826208 -0.02393331 0.020654278 0.045393206

static_variable_selection.single_variable_grns.AGE2029.gate_norm.glu.fc.weight f4 [32, 8]
00000000: 9057 923c 2396 a53e 3090 7abe c171 02be
00000010: fea8 613e 7479 88be 7ae7 c0be 8d01 ca3d
00000020: 77c7 e4bc d145 6d3d 4b10 513d dad6 a73e
00000030: 8e29 84be 3c74 ae3e 64b7 b9be aaa9 b0bd
00000040: 1378 933e b911 fd3d 201f 9cbe 0f99 0fbe
00000050: 8546 4d3e f281 92be ecd5 983d 62e1 663e
00000060: a8be 97be fe24 ed3d 1128 c9be 5d68 82be
00000070: 1c48 1e3e e600 dabe c76a 2bbe 50ab 353e
00000080: 55f8 2bbe b5bf 8ebe 40be 893e 9658 dabe
00000090: 1749 65bd 2b56 a7bd 00c6 8abe fde0 e23d
000000a0: 5cad c73e b82d d63c 8bc1 d2be 1943 9d3a
000000b0: b4c0 24bd f424 c6be 4026 903e 1c3e 873e
000000c0: 0ea7 23be d5d8 47bd a8cb 143e 421b 2fbd
000000d0: 0a45 e2bd 9502 f1bd 1ad2 d43d bb76 9b3e
000000e0: 56de 9d3e f608 a53e 5869 d8bc 9fd6 6a3c
000000f0: 8a68 14be 88d2 10bd 919d 1c3d 44b1 a23d
00000100: 9f03 bdbe c061 d6be a339 a03e 5c57 413e
00000110: 6bd0 243e 062b cd3e 71fe 2c3e 4fcf 093e
00000120: 38f8 743e 40a2 90bb 852b 29bd 0cb9 8e3e
00000130: dd36 3e3e a2e4 cebd d876 03be 2eb5 83be
00000140: 68c9 30be b9c6 2d3d e3a4 cd3e 4e99 4abd
00000150: 3ce8 9ebe 43f3 b0be 2579 033e 5cb4 133e
00000160: fc00 19be d140 a1bd 9aaa 7a3e c950 f5be
00000170: fbcd 373e b8a6 1dbe dd50 11be 3f06 ee3e
00000180: bf2b 98be 2d9b ca3e 9e65 1c3e e7ec b93d
00000190: 6ccd 583e a891 d53d c724 cf3e 7351 9c3d
000001a0: 1a70 ddbe 4fb3 0abe 96b5 193d 1e6f 143e
000001b0: 3bb0 f1bd b0e1 e83d 8143 393e 5145 f83a
000001c0: 243d 6abe 96db ff3e 5be7 7abe f83f 403e
000001d0: 64c5 873d 2484 21be 7ce9 d43e 468e 213d
000001e0: bbe6 15be ddeb 7a3d 9eb3 83be d803 f13e
000001f0: fe7f 683e 41d8 9f3e 9cdf 093d 6ac3 cebe
00000200: a946 03be 52bf 4abe e864 993e 9d5a 5b3e
00000210: f8e7 b83e bbf4 a7be 28d0 8cbd 78f4 8abc
00000220: af6e bb3e 54be 25bf 71d2 9abd 0abe 7a3d
00000230: 11cf 52be 67d3 98bd b8df dbbe d456 9dbe
00000240: 102b 1a3e 908c 7dbe 5487 e23c 9a1d 3f3e
00000250: 842c c0be 1fcd d13e 8bdb 57be 98f1 8c3e
00000260: 95e9 833c 28a7 dd3e df68 64be 951d 24be
00000270: 5deb dfbd 5616 a83c a414 52be c128 d03e
00000280: 6117 813e e2f8 0dbe ced4 02be fade ab3c
00000290: e06e c83d 844c c8be 54da 523c 45c2 5f3d
000002a0: 3cdf 3f3e 3381 573d 003e 873e 976e e63d
000002b0: 8438 bc3e 5862 6d3e b044 b9be b519 373e
000002c0: f131 813e b37b a63e c2fa b5be 2c93 22be
000002d0: 4df2 96be d497 a2be d7cb 70bc 296e 1abe
000002e0: 1132 41be d36c 073e 2962 a53e e904 f83c
000002f0: bf0d 98bd d0a8 e33d 9506 94bd eb3f 9ebe
00000300: 276b d23d ccf0 1c3f 70ee afbe a6ef 74bc
00000310: 0c42 f63e ae3d e6bd 5c58 013e d903 b93e
00000320: f8d9 ac3c 0a75 683e 5c83 9b3e 873a 35be
00000330: cc54 163f b2dc eabe 66f2 d1bc 724a bb3e
00000340: cf27 bb3e 4b80 05be d118 0c3e 19ff 75bd
00000350: 9a2d 43be 90ba 6cbe 62b0 bc3d 01f4 8fbe
00000360: dc45 85bd 2885 293e 3754 703e da1d c33e
00000370: 5194 7fbc 77a5 913e 67e5 663e 3b99 f1bd
00000380: dea4 38be 0054 8cbe 01b1 3a3f b9e2 e5be
00000390: 934b b8be 6a79 9b3e a0de b8be 19bb c73e
000003a0: ea07 ee3b 2490 39bc 9688 e2be 37f4 c5be
000003b0: e12a 9f3d f979 3d3d 56e0 563e 573d 823d
000003c0: 5444 d13e d844 a53e 0579 48be 3c63 b4bd
000003d0: 76bd cb3e 215f e8be 1a4c be3e e9ce 743e
000003e0: 44b4 823d 703a 60be ec9f 33be c99b 8fbe
000003f0: f5e1 5d3e 2023 b1be 79c2 51be 1cd7 b93e
0.017864019 0.32341108 -0.24469066 -0.12738706 0.22037122 -0.2665516 -0.37676603 0.09863577
-0.027927143 0.05792791 0.05104093 0.32781106 -0.25812954 0.34073055 -0.36272728 -0.08626111
0.28802547 0.12356896 -0.30492496 -0.14023231 0.20046432 -0.28614765 0.07462677 0.22546914
-0.29637647 0.11579321 -0.3928838 -0.25470248 0.15457195 -0.4257881 -0.16739951 0.17741132
-0.1679395 -0.27880636 0.26902962 -0.4264571 -0.055977907 -0.08170732 -0.27104187 0.11078069
0.3899945 0.026144847 -0.41163287 0.0011998146 -0.04022284 -0.38700068 0.28154182 0.26414573
-0.15981695 -0.04879077 0.14530814 -0.042750604 -0.110483244 -0.117680706 0.10391636 0.30364022
0.3083369 0.322334 -0.02641742 0.014333396 -0.14493003 -0.03535703 0.038236205 0.07943967
-0.36916825 -0.41871452 0.31293973 0.18880981 0.1609513 0.40071887 0.16893937 0.13457988
0.23922813 -0.004413873 -0.04130127 0.27875555 0.18575616 -0.10102202 -0.12838304 -0.25724167
-0.1726433 0.042425845 0.4016486 -0.04946261 -0.31036556 -0.34560594 0.12839182 0.1442427
-0.14941782 -0.07873691 0.24479142 -0.47913197 0.17949669 -0.1539563 -0.14191003 0.4648914
-0.29720876 0.39571515 0.15273139 0.09078389 0.21172112 0.10428172 0.40457746 0.07632723
-0.4324959 -0.13544963 0.03752669 0.14495513 -0.118011914 0.113711715 0.18092157 0.0018941556
-0.22874886 0.49972218 -0.24502318 0.18774402 0.06629446 -0.15773064 0.41584384 0.039442323
-0.14638798 0.061260093 -0.25722975 0.47073245 0.22705075 0.31219676 0.033660516 -0.40383464
-0.12819923 -0.19799545 0.29959798 0.21421285 0.36114478 -0.32803902 -0.0687564 -0.016962275
0.36607882 -0.6474354 -0.0755967 0.06121639 -0.20586802 -0.07462197 -0.4294412 -0.30730307
0.1505549 -0.24760652 0.02765242 0.18663636 -0.37533963 0.40976807 -0.21079843 0.2752807
0.016102592 0.43291593 -0.2230563 -0.1602691 -0.10933564 0.020518463 -0.20515686 0.40656093
0.2521315 -0.13864473 -0.12776491 0.020980347 0.09786773 -0.39120877 0.012869436 0.05462863
0.18737501 0.05261345 0.2641449 0.11251562 0.36761868 0.23182046 -0.36185217 0.178809
0.25233415 0.3251625 -0.35542876 -0.15876454 -0.29481736 -0.3175646 -0.014697037 -0.15081085
-0.18866755 0.13225107 0.32301453 0.030275779 -0.07424497 0.11116183 -0.07227818 -0.3090814
0.10274344 0.61304927 -0.343616 -0.014949715 0.48097265 -0.11242233 0.12631363 0.36135748
0.02110003 0.22700897 0.30373657 -0.17698108 0.5872314 -0.45871502 -0.02562828 0.36580235
0.3655381 -0.13037221 0.13681342 -0.060057733 -0.19060364 -0.23118043 0.0921333 -0.28115848
-0.06507465 0.16554701 0.23469625 0.38108712 -0.015599326 0.28446552 0.22548448 -0.117968045
-0.18031642 -0.27407837 0.72926337 -0.44899538 -0.3599516 0.3036607 -0.3610735 0.39009932
0.007264127 -0.01132587 -0.44244832 -0.38662884 0.077718504 0.0462589 0.20984015 0.06359356
0.40872443 0.32279086 -0.19577415 -0.0880799 0.39792985 -0.45385078 0.37167436 0.23907055
0.06382039 -0.21897292 -0.17541474 -0.28048542 0.21668227 -0.3459711 -0.20484342 0.36296928

static_variable_selection.single_variable_grns.AGE2029.gate_norm.glu.fc.bias f4 [32]
00000000: 8b3c ed3d e1ad 53bc 71a5 01bd 16d1 553d
00000010: c9b1 0fbd bd5e 60bd e036 8dbd 2371 78bd
00000020: 9c61 08bd cfaa 643d 4e3a e83b bdf7 19be
00000030: 1348 38bc 4d8f 8fbc 8858 a53d 58db c23d
00000040: 4e9b 38be da88 1dbd 2b06 14bd 84d5 08be
00000050: 1382 e2bc 281b 863d b298 0dbe e793 a0bc
00000060: 0c28 b8bd e277 c6bd 196a ebbd a740 d53d
00000070: 98b4 b0bd 7f26 9abd b5d1 93bd c1a6 263d
0.11583813 -0.012919874 -0.031651918 0.052201353 -0.03508166 -0.05477785 -0.06895232 -0.06065477
-0.033296213 0.05582696 0.0070870286 -0.15035911 -0.011247653 -0.017524386 0.080735266 0.09514493
-0.18027994 -0.03846059 -0.036138695 -0.133627 -0.027649915 0.065481484 -0.1382778 -0.019601775
-0.08992013 -0.096908346 -0.11494846 0.10412722 -0.086281955 -0.07526874 -0.07217733 0.040686373

static_variable_selection.single_variable_grns.AGE2029.gate_norm.add_norm.norm.weight f4 [16]
00000000: a88c 663f fa5c 703f d43c 8a3f a6dc 883f
00000010: cb31 7e3f 4221 693f 4531 893f c586 803f
00000020: 9eaf 843f 2779 723f 6e62 823f 3290 913f
00000030: 3e54 773f 7775 893f 6562 803f bc8b 893f
0.90058374 0.9389187 1.0799813 1.0692337 0.9929473 0.9106637 1.0718161 1.0041128
1.0366094 0.94716114 1.0186288 1.137213 0.9661292 1.0738972 1.0030028 1.0745769

static_variable_selection.single_variable_grns.AGE2029.gate_norm.add_norm.norm.bias f4 [16]
00000000: 42bd d43d 6294 cb3a f6af 583c ee1a d03d
00000010: 7378 16bc 70f5 4ebd ca61 b9bd 0c11 a4bd
00000020: 110f 11bd e4cd 3b3d 5986 bfbc 9262 40be
00000030: 78da 11bd 3284 6bbc 1937 5e3d 9ec7 ce3d
0.103876606 0.0015531892 0.013225546 0.101613864 -0.009183991 -0.050527036 -0.09051855 -0.08011064
-0.03541476 0.04585065 -0.023379492 -0.18787602 -0.03560874 -0.01437478 0.054251764 0.10096668

static_variable_selection.prescalers.AGE2029.weight f4 [8, 1]
00000000: 239e 303e 0f62 2ebf 6946 733e 44c9 cf3e
00000010: 3d7f 3abf 25c3 88be da9c 3cbf cc36 bc3e
0.17247824 -0.68118376 0.23757328 0.4058324 -0.728504 -0.26711383 -0.73676836 0.36760557

static_variable_selection.prescalers.AGE2029.bias f4 [8]
00000000: c04c 69be c45a 223f 8799 1c3f b075 ee3b
00000010: 30d0 a9be 9be3 11bf e6c7 59bd fd93 57be
-0.22783184 0.6341975 0.61171764 0.007277213 -0.33166647 -0.56987923 -0.053169154 -0.21052547

encoder_variable_selection.flattened_grn.resample_norm.mask f4 [3]
00000000: 85ba 4fbe fb7d 83bc fbe4 723e
-0.20285995 -0.016051283 0.23720162

encoder_variable_selection.flattened_grn.resample_norm.norm.weight f4 [3]
00000000: 6e3b 5e3f 1ab0 733f 9759 c73f
0.8680943 0.95190585 1.5574216

encoder_variable_selection.flattened_grn.resample_norm.norm.bias f4 [3]
00000000: 5ea4 413e a173 d5bd 5a34 86be
0.18910357 -0.10422445 -0.26211816

encoder_variable_selection.flattened_grn.fc1.weight f4 [3, 24]
00000000: ac85 ca3e 94f6 06be c27b 2f3e 2ba7 da3d
00000010: 03b6 783d fc77 423c e284 0fbe b7fa 16be
00000020: e347 9fbe 5c22 bb3d fbe6 e33d 3841 96bf
00000030: c248 eabc 3f98 14bd eefa 39bd a0aa fc3c
00000040: 3477 fc3e 2c0a 37bf fa0a 953e d14f ac3c
00000050: 1a90 d63d 7818 86be b08a eb3d f3c0 753e
00000060: 3ee0 4bbd b334 b33e 0a49 e0be 6ebd e5bd
00000070: 316f 6e3d f6b5 8e3d fe06 3f3d 9b8c 0a3f
00000080: b6b0 38be 3a50 ca3d e04e 34bf b392 89be
00000090: cd13 ad3d 9ffe 383d addf eabc e780 7c3e
000000a0: 0686 9c3d 79be 9d3b 8e9f 04bf 9b81 32be
000000b0: 8b4b 94bc 12c4 de3d 2471 5abd cc29 733d
000000c0: 9626 773e f88e b8be 1c2d 84bd bd49 b93d
000000d0: cdcb dc3e bef9 cc3e 6e89 5cbc a17d eb3e
000000e0: 8177 a2be 1244 4c3e 21d5 ec3d dc59 b33e
000000f0: 0852 893d a940 e9bc c674 223e 0394 263e
00000100: 8261 1e3e 4f41 a53e 5c7d 3ebd 3d8c 38bd
00000110: 70e7 40be cb1a 87be 531c e7be 43d9 c33d
0.3955511 -0.1318 0.17137054 0.10676416 0.060720455 0.011869427 -0.14015535 -0.14744078
-0.31109533 0.09137413 0.111280404 -1.1738653 -0.028599147 -0.036278006 -0.04540532 0.03084308
0.49309695 -0.71499896 0.29109937 0.021034153 0.10476704 -0.26190543 0.11501062 0.23999386
-0.0497744 0.35001144 -0.43805724 -0.112177715 0.05821151 0.069683 0.046637528 0.54120797
-0.1803616 0.09878583 -0.70432854 -0.26869735 0.08451042 0.0451647 -0.02867111 0.24658547
0.076427504 0.004813966 -0.5180596 -0.17432253 -0.018102428 0.10877241 -0.053330556 0.059366032
0.24135813 -0.36046576 -0.064539164 0.090472676 0.43124238 0.40034288 -0.0134605 0.45994285
-0.317318 0.19947842 0.115640886 0.35029495 0.06705099 -0.028473215 0.15864858 0.162674
0.15466884 0.3227639 -0.04650627 -0.045055617 -0.18838286 -0.2638763 -0.45138797 0.09562924

encoder_variable_selection.flattened_grn.fc1.bias f4 [3]
00000000: 82ae b4bc 2c1d 4fbd 951e 9cbd
-0.022055868 -0.05056493 -0.076230206

encoder_variable_selection.flattened_grn.context.weight f4 [3, 16]
00000000: a6b4 8ebe 4c8a 34be 2e80 a8be 9246 d7bd
00000010: ba24 c53e a660 a4be eeee 8e3d 9a62 203e
00000020: 4788 91be 8eee 293e 4144 abbd d56e 3c3e
00000030: 7caa aa3e 65af 1b3d 263e 80be e3fb 8dbe
00000040: 6d2d e33e 7c0f f3bd 42f6 f63e 5742 ddbe
00000050: 280c a4be 5b27 163f 9ffe 093d 3b7d a5be
00000060: eda7 823d f137 c7bd fed1 ddbe 36ce 083e
00000070: 83e9 663e 6f37 96bd fdee d3be 9a34 22be
00000080: acb4 853e 9c15 dabd 1799 103f c0df 68be
00000090: 9d84 73be 527b d83e 6fad 503c de8d 573e
000000a0: 74d5 cbbe b408 d03e fea5 eebc e251 56bc
000000b0: 04cc 043e d090 af3b 808c d83c 7a87 b93e
-0.278722 -0.17630881 -0.32910293 -0.10511507 0.38504583 -0.32104987 0.06979166 0.15662614
-0.28424284 0.16594908 -0.08362628 0.18401654 0.33333194 0.038009066 -0.25047415 -0.27731237
0.44370595 -0.11868188 0.48234755 -0.43214676 -0.32040524 0.586538 0.03369009 -0.32322106
0.063796856 -0.09727467 -0.43324274 0.13359913 0.22550015 -0.07334792 -0.4139327 -0.15840378
0.26114404 -0.10648653 0.56483597 -0.22741604 -0.23781057 0.42281586 0.012736662 0.21050212
-0.3981129 0.4063164 -0.029131886 -0.013081046 0.12968451 0.005357839 0.026434183 0.36236173

encoder_variable_selection.flattened_grn.fc2.weight f4 [3, 3]
00000000: e1b1 5bbf 0926 95bf 29da 2fbe e950 8bbb
00000010: 8c36 82bf b205 52be 247f dcbe ef52 59bf
00000020: 24a2 3fbf
-0.85818297 -1.1652232 -0.17173065 -0.0042515886 -1.0172896 -0.20509985 -0.4306575 -0.8489217
-0.7485678

encoder_variable_selection.flattened_grn.fc2.bias f4 [3]
00000000: 5715 c73d f9a7 c0bd 1cfb 0ebe
0.09720867 -0.09407038 -0.13962978

encoder_variable_selection.flattened_grn.gate_norm.glu.fc.weight f4 [6, 3]
00000000: 5f81 073f b4a2 2dbe f55e 2e3f 1bd6 033a
00000010: 20a8 d6be 75a7 2c3f 8345 8dbe ad08 6ebe
00000020: 223c 7c3c 35bd e7be b5bf 08bf e4ec 353f
00000030: a5ca 513f 0596 abbd e448 dabe 3da6 823f
00000040: 43e2 db3e 7a77 893e
0.5293178 -0.16956598 0.6811364 0.00050291576 -0.41925144 0.6744302 -0.27592096 -0.23245497
0.015395196 -0.4526154 -0.5341752 0.7106459 0.81949836 -0.08378223 -0.42633736 1.0206982
0.42946061 0.26848966

encoder_variable_selection.flattened_grn.gate_norm.glu.fc.bias f4 [6]
00000000: 42f3 d43d e80a c2bd 498d 94be 8888 05be
00000010: e37b 843e 2133 163e
0.1039796 -0.094747365 -0.29014042 -0.13040364 0.25875768 0.14667942

encoder_variable_selection.flattened_grn.gate_norm.add_norm.norm.weight f4 [3]
00000000: d1aa 423f ddcc 2a3f d060 bd3e
0.76041895 0.66718847 0.36987925

encoder_variable_selection.flattened_grn.gate_norm.add_norm.norm.bias f4 [3]
00000000: b508 c03a 07a8 b9be 3b27 173f
0.0014651032 -0.36261007 0.59044236

encoder_variable_selection.single_variable_grns.SinWeekly.resample_norm.mask f4 [16]
00000000: fea2 7fbe e74c f6bd 591f d6bd 988c d7bd
00000010: d1e9 b1bc 7182 053d 648e 9cbd f9b4 7fbe
00000020: 7769 b53d 170b 46bd a75f 81be 21e5 003d
00000030: 35a9 c2be 64ed a63d eb49 963e e9be 8d3e
-0.2496452 -0.12026387 -0.10455198 -0.10524863 -0.021717938 0.0325951 -0.07644346 -0.2497138
0.088580064 -0.04835042 -0.2526829 0.031468514 -0.3801972 0.081507474 0.2935327 0.27684715

encoder_variable_selection.single_variable_grns.SinWeekly.resample_norm.norm.weight f4 [16]
00000000: 3538 4a3f 1b96 713f 135a 7d3f 4258 803f
00000010: 2b11 6c3f 585b 893f 92de 6b3f 21c5 6c3f
00000020: 4784 893f 3494 633f 3cb1 493f 66e0 843f
00000030: df11 783f fbbd 873f 8edb a93f 1017 943f
0.78992015 0.9436967 0.9896557 1.0026934 0.92213696 1.0731001 0.9213649 0.92488295
1.0743493 0.88898015 0.78786063 1.0380981 0.9690227 1.0604852 1.3270128 1.1569538

encoder_variable_selection.single_variable_grns.SinWeekly.resample_norm.norm.bias f4 [16]
00000000: 6512 053d 5371 003d 888f 87be a982 4e3d
00000010: 50ec 553d 4657 be3b edda eebd 6b88 74be
00000020: 5f00 943d abef ddbc 4884 cc3d 5590 203e
00000030: 95b2 1dbe 1ea7 713c 5a19 0a3d 56e1 e63d
0.032488246 0.031358074 -0.26476693 0.050417576 0.05222732 0.0058087436 -0.116628505 -0.23880164
0.07226633 -0.027091822 0.09986168 0.15680058 -0.15400155 0.0147493165 0.033715583 0.11273448

encoder_variable_selection.single_variable_grns.SinWeekly.fc1.weight f4 [8, 8]
00000000: cedb 823f 87e4 a9bf ac10 3abf e941 a9bf
00000010: 46ac 89be 1da5 4bbe f318 c23e a155 0c3f
00000020: e9fb f13c 6649 333e 8c38 3a3d fce5 99be
00000030: eca9 a03c 2618 2f3f 15a4 2cbe 7e9c 68bd
00000040: 9658 8ebd 7bd6 ddbd 5f02 acbe dd53 5f3e
00000050: 9931 49bf 34c8 d43e 4b5b 7a3f 365c a43e
00000060: f243 c73e 9ca7 fe3c 28b3 7fbe d888 003e
00000070: 4226 d83e a027 f53c 622d cc3e 89b2 313f
00000080: 7052 1fbf 79bb ecbd 7239 903f 008a 2fbc
00000090: b19c de3d 5e9f 3f3f 61dd 0b3f 485d 7ebf
000000a0: 577b cf3e d969 19be 628e 7bbf e491 0b3e
000000b0: c427 94bd ddda 35be 1046 e4be a06b 98bd
000000c0: 816a 48bf e9df 88be 396e 5cbf 5de2 d53e
000000d0: d56d 7c3b 0dd6 a6bd 6733 87be ea36 ff3d
000000e0: 901a a03e 31cc c13d a301 5ebf 42a8 a23e
000000f0: f9a7 303f 4f1d 043f 1e62 87be afed 823e
1.0223329 -1.3272866 -0.7268169 -1.3223239 -0.26889247 -0.19887204 0.3790966 0.5481816
0.029539065 0.17508468 0.045464084 -0.30058277 0.019612275 0.6839622 -0.16859467 -0.056789868
-0.0695049 -0.108319245 -0.3359556 0.21809335 -0.78591305 0.41558993 0.9779555 0.321016
0.38919026 0.031085782 -0.24970686 0.12552202 0.42216688 0.029926121 0.39878374 0.6941305
-0.62235165 -0.11559195 1.1267531 -0.010714054 0.1086973 0.7485255 0.5463467 -0.99361086
0.40523788 -0.14981784 -0.98264134 0.13629872 -0.07234147 -0.17759271 -0.44584703 -0.07442403
-0.7828751 -0.2673333 -0.86105686 0.41774264 0.0038517613 -0.08146296 -0.26406404 0.12461646
0.31270266 0.094627745 -0.8672125 0.31768996 0.69006306 0.5160722 -0.26442045 0.25571963

encoder_variable_selection.single_variable_grns.SinWeekly.fc1.bias f4 [8]
00000000: 76aa 6f3b d1fd 663d 45b3 af3c 5864 873b
00000010: 2d0b 73bc 7c18 fbbd 92b5 7fbd ea2e 40bd
0.0036570108 0.056394402 0.021447787 0.004131835 -0.0148342075 -0.122605294 -0.06242902 -0.04691974

encoder_variable_selection.single_variable_grns.SinWeekly.fc2.weight f4 [8, 8]
00000000: a47c 94bf fd20 ed3d 8432 93bf 6a34 1dbf
00000010: ee20 41bf 8b40 a93d 685e da3e b6eb d1be
00000020: a48d aabe 7526 9fbe 0805 e23e d174 103e
00000030: 0537 9ebe ac33 f53e e8bc 203f aea8 593e
00000040: 9c24 323f 4ee2 b2be aace 633d 523f 0fbf
00000050: fa09 243f d9d3 25be 19a3 173f a85f 233f
00000060: 8423 1f3d b745 533f c0c9 ac3e 4b0e 8d3e
00000070: a323 723d 49e6 78bf db29 a7bd 1c01 4cbf
00000080: 8bac 92bf c9fa 9d3f 2652 65be a614 a9be
00000090: 37e2 d4be b5de 483f 0ffd 983e e6f0 22bd
000000a0: 166a 113f 6191 debe 18e1 1cbf ad90 8dbc
000000b0: abd0 eebe b0e3 753e 0479 97be 2c02 2dbe
000000c0: b18b 7e3e 646b 85bd 9258 2ebd 7ec6 e63d
000000d0: 1df6 0a3f dd87 d3be 84a1 823d c153 653e
000000e0: 6e93 1c3f 6b55 05be 1573 883e 0d37 353f
000000f0: 5699 213f 8723 cfbe baea 193f fa5b 2dbf
-1.1600537 0.11578558 -1.1499791 -0.614081 -0.7544087 0.08264264 0.4265015 -0.41000146
-0.33311188 -0.31084028 0.44144464 0.14107062 -0.30901352 0.47890985 0.6278825 0.21255752
0.6958711 -0.34938282 0.055617012 -0.55955994 0.64077723 -0.16194095 0.5923324 0.63817835
0.03885223 0.8252825 0.33747673 0.27549967 0.059116017 -0.9722639 -0.0816228 -0.7968919
-1.1458906 1.2342159 -0.22394618 -0.33023566 -0.41578838 0.78464824 0.29880568 -0.03978052
0.568025 -0.4347029 -0.61280966 -0.0172809 -0.46643576 0.24012637 -0.29584515 -0.1689536
0.24857976 -0.06514624 -0.042564936 0.11268328 0.5428179 -0.41314593 0.06378463 0.22395231
0.6116246 -0.13020866 0.266503 0.70787126 0.631246 -0.40456793 0.6012379 -0.6771847

encoder_variable_selection.single_variable_grns.SinWeekly.fc2.bias f4 [8]
00000000: 13ef 163d ba30 90bd 0884 85bd c706 0c3e
00000010: 8e3b 25be 253a 25bd 2f42 9c3d 5e69 2fbd
0.036849093 -0.07040544 -0.065193236 0.1367446 -0.16136 -0.040338654 0.07629811 -0.042825095

encoder_variable_selection.single_variable_grns.SinWeekly.gate_norm.glu.fc.weight f4 [32, 8]
00000000: 1034 723e 1eb4 db3c 4c7a 59be b040 6ebe
00000010: 71d8 dc3c b0b1 d4be 39ed 73be 8a19 ba3d
00000020: 4c4e 2cbd 13f7 6d3e 7959 103d 92ba dabe
00000030: e541 3a3e 72a4 2e3d a091 763e aa60 36be
00000040: 55ba a03e 7503 08be fad6 b83e 61fa 0cbe
00000050: 82cc cf3e 2844 2a3e d6c9 74be 8e1c 5f3d
00000060: 2115 5d3e 36b2 d53c 0f7a bcbd a0d3 01bf
00000070: 5b4c 983e ae1f 393e 5d9b a4be accc 0a3e
00000080: d3b9 973e bad1 adbd 84d6 043e a1ab 9e3e
00000090: 7caf 2a3e a400 86ba b538 6c3e 1b12 d43d
000000a0: 6e50 ed3d 3418 a8be 1df3 253e af9b 2a3e
000000b0: 2410 acbe 94c5 85bd 382f 0dbd 5bf6 833e
000000c0: 5683 83be 806a 90be 879b dcbe ac78 0d3e
000000d0: 4c20 51be ae95 1ebe 2bc0 5f3e 4c9d e53d
000000e0: 76e6 aabe d27c 9ebd dc96 b53e ca2c 92be
000000f0: 3830 08be 0284 a8bd decb dfbd 4111 233d
00000100: 0f3f 933e 7b69 303e 95c5 95be aab0 8e3e
00000110: 66d7 903d 75f6 b2be 8509 753e b469 823e
00000120: 493e b4bd 31c0 a4be b8aa 663e e72e b0bd
00000130: 9b4f 7abe 203a 27be 7848 153d 498d 9b3d
00000140: 09c3 5b3d 1bed c03c b181 5dbe a212 dcbb
00000150: 630e 15bd 368d 6d3e 0a10 ff3d a526 8d3e
00000160: a259 febd d536 a0bd 6285 bcbd 53ac a2bd
00000170: cab5 3cbe eff3 c1bd ae2f eb3e e36c 933e
00000180: e69a 213f 78bd 0f3f 455c 85bd d1f5 ebbe
00000190: 49e0 103f 297d 45bf 6464 abbe be91 0bbf
000001a0: d74a b53d 469e 48be 7c33 783e 0c37 8b3e
000001b0: 6324 523e 1620 453d ae95 01be 2673 77be
000001c0: 4d94 a2be aa2d a0be 1d2c 583e 8fb6 2d3e
000001d0: 38ed 1ebe 1f7b a13e fb4e 53be 2ef2 333e
000001e0: f73a 013e 3c08 dcbe abdc b9be 6b82 993e
000001f0: 13b4 83be 989b 9cbe 3039 b93e dd07 2e3e
00000200: 833b 4b3e a8bf 183e 5e16 6a3d 39ab a83e
00000210: edba c43e d924 b7be 8c04 d03d 24fb 95be
00000220: 6179 633e 2d7b 20be 973e e3bc 119d 9dbe
00000230: d72e 853e 572c 943b 19bd bbbe 8909 efbe
00000240: dae8 5a3e b6ce bdbe fce8 a7be 2e94 6cbd
00000250: a9a8 07be d7fb 83be ac02 cfbb dcbc 143e
00000260: d51d 473e 4b57 173e 988a 7e3e c12f 6ebe
00000270: 0ed0 7fbc 2222 88bd db7e 2fbe 5781 ca3d
00000280: 0736 8d3e 9cbf 813e 47e7 d5bd 2185 dbbd
00000290: 6451 ef3d 2e85 77be c466 5b3e 4092 863e
000002a0: 0a57 84bd cc10 bbbe 3161 8c3e 6b5c a03e
000002b0: a675 a0be a498 953c 3664 fa3e 068d 01be
000002c0: 8eb6 513e 87c9 333e ccf7 31be aadf d7be
000002d0: 2871 3f3d f27e 91be 2b12 25be c33b 2c3d
000002e0: 8104 8bbe f9cc aa3e 70d0 7f3e 6657 6a3d
000002f0: a59a 693e de63 dabd 42a3 a1bc 217b d0be
00000300: 0460 87bd f0dc 0abe a31c 113d abcc 43be
00000310: 17e8 c63e a7f7 47bd a373 023e ba0f fdbc
00000320: 3787 1fbe bf8d 31be 1ccc 033e 092f 703e
00000330: d3fa 013e c432 1d3d 975f 8ebe a174 383e
00000340: a8d6 2d3c bce4 1dbe 61fe cabe 370b bfbe
00000350: a43c f43d ea2c 1d3e cb97 a2be 105c 99be
00000360: 4973 403d d835 abbe 3007 e63e 8036 a43e
00000370: ee91 533d dfc2 cf3e 3299 013f da5f dc3d
00000380: ccdf ccbe 211a cbbe a583 6b3e 450f cb3c
00000390: eaf7 01be b791 f73e f92f 4c3e 55bb 8f3e
000003a0: 0046 a8be bac0 f6bd 39a1 92be e05d 193e
000003b0: 1a22 913e b77f 2dbe c4ae c6bd ac43 c93d
000003c0: e43a e2bd d930 b53d edaa c3be 604e fd3c
000003d0: be1e 8dbd d078 9abe 3c36 4abd 0c69 df3c
000003e0: c507 173d 8b7f b73e bd5c 07bf a935 723e
000003f0: 89dc f23c e000 aabe 884c 60be 4e81 53be
0.23652673 0.026819285 -0.21238059 -0.23266864 0.026958676 -0.41541815 -0.23820962 0.090869024
-0.042066857 0.23238783 0.035241578 -0.42720467 0.181892 0.042637296 0.24078989 -0.17810312
0.3139216 -0.13282569 0.36101514 -0.13767387 0.40585715 0.16627562 -0.2390512 0.05447059
0.21590091 0.026085954 -0.09202968 -0.5071354 0.29745755 0.18078491 -0.32149783 0.13554639
0.2963396 -0.08487268 0.12972456 0.30990317 0.16668504 -0.001022358 0.23068507 0.10355016
0.11587606 -0.32830966 0.16206022 0.16660951 -0.33606064 -0.06531826 -0.03446886 0.25773892
-0.2568614 -0.28206253 -0.43087408 0.13815564 -0.20422477 -0.15486786 0.2185065 0.112116426
-0.33378953 -0.07738651 0.3546666 -0.28549796 -0.13299644 -0.082283035 -0.109275565 0.039811376
0.28759047 0.17227738 -0.29252306 0.2786916 0.07072334 -0.34953657 0.23929413 0.2547127
-0.088009425 -0.3217788 0.22526062 -0.08602696 -0.2444443 -0.16330767 0.036446065 0.075953074
0.053652797 0.02355056 -0.21631505 -0.0067160884 -0.036390673 0.23198399 0.12454231 0.27568546
-0.1241944 -0.078229584 -0.09205128 -0.079430245 -0.18428722 -0.09470355 0.45934814 0.2879401
0.6312698 0.5614848 -0.0651174 -0.4608598 0.5659223 -0.77144104 -0.3347503 -0.5451926
0.08852165 -0.19591627 0.2423839 0.27190435 0.20521693 0.048126303 -0.12654755 -0.2416502
-0.3175377 -0.3128484 0.21110578 0.16964172 -0.1552018 0.31539246 -0.20635597 0.17572853
0.1262015 -0.42975032 -0.3630117 0.29982314 -0.25723323 -0.3058746 0.36176443 0.16995187
0.1984692 0.14916861 0.057150237 0.32943133 0.38423863 -0.357703 0.10157117 -0.29293168
0.22214271 -0.15671988 -0.027739806 -0.30783895 0.26012298 0.0045218873 -0.36667708 -0.46686962
0.21377888 -0.3707177 -0.3279494 -0.057758503 -0.13247932 -0.25778076 -0.006317457 0.14525169
0.19444974 0.14779393 0.24857557 -0.23260404 -0.015613569 -0.06647135 -0.17138235 0.09887951
0.27580282 0.253415 -0.10444503 -0.10718752 0.11685446 -0.24171898 0.2142592 0.26283455
-0.06461914 -0.36536252 0.274179 0.3132051 -0.3133976 0.018261261 0.4890458 -0.12651452
0.20479795 0.17557345 -0.17379683 -0.4216283 0.046738774 -0.28417164 -0.16120212 0.04204918
-0.27151874 0.33359507 0.24981856 0.057212256 0.22812898 -0.106635794 -0.019731168 -0.4071894
-0.066101104 -0.13560843 0.0354277 -0.19121043 0.38848945 -0.048820164 0.12739424 -0.030891288
-0.15578924 -0.17339228 0.1287083 0.23455442 0.12693338 0.038378492 -0.27807304 0.1801324
0.01061026 -0.15419286 -0.396472 -0.37313244 0.11925629 0.15349165 -0.31756434 -0.2995305
0.046984944 -0.33439517 0.4492736 0.3207283 0.05165284 0.40578362 0.5062438 0.1076047
-0.40014493 -0.39668372 0.22999437 0.024787555 -0.12692228 0.4835336 0.19940175 0.2807261
-0.32865906 -0.120484784 -0.28638628 0.14977217 0.2834633 -0.1694325 -0.09701303 0.098273605
-0.11046389 0.088472076 -0.38216344 0.030921161 -0.06890629 -0.30170298 -0.04936813 0.02727177
0.036872644 0.35839495 -0.5287588 0.23653282 0.029646175 -0.33203793 -0.21904194 -0.20654795

encoder_variable_selection.single_variable_grns.SinWeekly.gate_norm.glu.fc.bias f4 [32]
00000000: 296a 1f3e f662 b23c d0c0 9bbe 3f35 003e
00000010: 2046 853d 55a5 193d 0274 14be 312d 7dbe
00000020: 1fb7 d83d 3a2f 4abc d188 c93d 1ec2 1c3e
00000030: e871 59be 819b 753d 4baa e13c 6707 df3d
00000040: 5827 543d 5654 a5bc 47d3 b73d 36eb dabd
00000050: 0ed0 89be 488f 603e 369d c9ba f2c4 87bd
00000060: 30a5 90bd 50de f1bc f37d 00be 544c d5bd
00000070: 7c04 3b3e 5d7b 03be 9032 203d 1778 ab3d
0.1556784 0.021775704 -0.30420542 0.12520312 0.06507516 0.03751119 -0.14497378 -0.2472427
0.105818026 -0.012340361 0.09840549 0.15308425 -0.21234858 0.059962753 0.027547022 0.10890084
0.051795334 -0.020181816 0.08975845 -0.10689394 -0.26916546 0.21929657 -0.0015381936 -0.06629361
-0.07062757 -0.029524952 -0.12548046 -0.10414949 0.1826343 -0.12840028 0.03911072 0.08372515

encoder_variable_selection.single_variable_grns.SinWeekly.gate_norm.add_norm.norm.weight f4 [16]
00000000: 9a92 543f 1bd6 763f 4020 8d3f c839 813f
00000010: 10e1 763f 1480 7d3f c1f8 833f 1dbf 653f
00000020: 05d2 883f c77f 6f3f 3cc2 543f b124 a63f
00000030: d224 7b3f 22eb 843f ef31 9a3f c095 a13f
0.83036196 0.9642045 1.1025467 1.0095758 0.9643717 0.99023557 1.0310289 0.8974474
1.0689093 0.9355435 0.8310888 1.2979947 0.9810306 1.0384257 1.2046489 1.2623825

encoder_variable_selection.single_variable_grns.SinWeekly.gate_norm.add_norm.norm.bias f4 [16]
00000000: 085a 9dbb d80e ae3d b1ff 55bd 084c 073e
00000010: 541a 2b3d bf5c 583b 089b 43bd f110 2fbe
00000020: 3268 a63d 89eb b0bd a910 093a ed0c d03d
00000030: 9f6e 96bd cf9f 013d a265 ac3c a676 bf3d
-0.0048019923 0.08498925 -0.0522458 0.13212597 0.041773155 0.0033014265 -0.04775527 -0.17096306
0.081253424 -0.08638675 0.0005228618 0.101587154 -0.07345318 0.031646546 0.021044556 0.09348802

encoder_variable_selection.single_variable_grns.VaccinationFull.resample_norm.mask f4 [16]
00000000: c506 eebd 96e1 06be 15ff 443d e683 ccbd
00000010: 8d12 483e bd13 8dbd c0f4 673e 24d3 813e
00000020: 0d30 203d 03c2 aebd 2987 24bc ee8d 84bc
00000030: 10c0 4fbe 49a7 6d3e c930 24be 513d 8abd
-0.11622385 -0.13171992 0.048094828 -0.09986095 0.19538327 -0.068885304 0.22651958 0.253564
0.039108325 -0.085330985 -0.01004199 -0.016180959 -0.2028811 0.23208345 -0.16034235 -0.067499764

encoder_variable_selection.single_variable_grns.VaccinationFull.resample_norm.norm.weight f4 [16]
00000000: 1b68 623f 0eac 4b3f 8b57 893f de16 793f
00000010: 2fe6 a13f a646 783f ef7e 9c3f 8c9f a03f
00000020: 0882 873f 708e 763f 325a 813f ab42 803f
00000030: fc88 453f 8bfc 9b3f b539 4b3f 4a57 623f
0.884401 0.7955941 1.0729841 0.9730052 1.2648371 0.969828 1.2226237 1.254869
1.0586557 0.9631109 1.010565 1.0020345 0.77162147 1.2186445 0.7938493 0.8841444

encoder_variable_selection.single_variable_grns.VaccinationFull.resample_norm.norm.bias f4 [16]
00000000: 6f31 d4bd eb61 373e 077c 84bd 95aa 41bd
00000010: e8e9 2ebe e953 1ebd d2ab c0bc a4bb 2e3e
00000020: b51d 8e3c 0b9a 723c 0e2c c13c 5c59 00bc
00000030: 07d3 40bb b3ed f5bd dadb 9c3c a9ae eb3d
-0.10360991 0.17908446 -0.06468969 -0.04728182 -0.17081416 -0.03865424 -0.02351943 0.17063767
0.01734815 0.0148072345 0.023580577 -0.007833805 -0.0029422657 -0.12008228 0.019147802 0.11507923

encoder_variable_selection.single_variable_grns.VaccinationFull.fc1.weight f4 [8, 8]
00000000: 9369 a13e dd77 43bd 396d f9be aa55 90be
00000010: 8d98 e93e f88f 993d ba5c 03bf 6db3 14bd
00000020: 2a4e 023e 98cd f5bd a438 39bf 69ab 6dbf
00000030: 2e9b a1bd fc22 6ebe 08be 0a3f 0a53 64be
00000040: 623f d93d fcf7 0abf 09ed b0bd fbc4 83be
00000050: 24c4 bebe 372a bf3e 172b 40be f7d1 18bf
00000060: 6bb1 60be 39d4 46bf fb85 2bbe 455c 983e
00000070: 5fa2 52bf 5f62 173f 4a2d 3a3e 78b8 073c
00000080: 09c7 953e 7af3 093f e51d 513e b6e7 c33e
00000090: 114d 553d 6542 bf3e a68d 123f 6846 4a3f
000000a0: 8343 ebbd bbb5 963e bd99 45be fe1f 9dbd
000000b0: bd43 00be ecbe 47bf d463 4abf 9600 debf
000000c0: c92e 13bf 9388 af3e d3e7 953e e807 543e
000000d0: f2ee 733f d03c 4fbe 203d 4f3e c867 eb3d
000000e0: b7ce a73e edd9 2d3e 91fc 2bbf b041 0abe
000000f0: b9c8 b9be 5de5 9dbf 906d 97be f556 d0bf
0.3152586 -0.047721732 -0.48716143 -0.28190356 0.456242 0.07498163 -0.51313365 -0.036303926
0.1272513 -0.120021045 -0.7235205 -0.92839676 -0.07890926 -0.23255533 0.54196215 -0.22297302
0.106077924 -0.54284644 -0.08638961 -0.25736222 -0.37259018 0.37336895 -0.18766437 -0.5969538
-0.2194268 -0.77667576 -0.16750328 0.29757896 -0.8227901 0.5913448 0.18181339 0.008283727
0.29253414 0.5388714 0.2042156 0.3826272 0.05207545 0.37355343 0.5724739 0.7901368
-0.11487486 0.29435524 -0.19296928 -0.07672118 -0.1252584 -0.780257 -0.79058576 -1.7343929
-0.57493263 0.34283885 0.2927843 0.20706141 0.95286477 -0.20238042 0.20238161 0.11494404
0.32774898 0.16977663 -0.6718226 -0.1350162 -0.36285952 -1.2335621 -0.29575777 -1.6276537

encoder_variable_selection.single_variable_grns.VaccinationFull.fc1.bias f4 [8]
00000000: a7a0 bebd 1c74 a2bc fc50 753d 02c7 37bd
00000010: 7623 323d c2a4 c5bc ccdd f3bd 1075 ff39
-0.09307986 -0.019830756 0.059891686 -0.044867523 0.04349085 -0.024126414 -0.11907539 0.00048724608

encoder_variable_selection.single_variable_grns.VaccinationFull.fc2.weight f4 [8, 8]
00000000: 1b11 12be ecf0 9dbb ceff 85be 18bb 17bf
00000010: 1031 63bf 1d32 c63d 1f4e 23bf 2cd8 ac3b
00000020: c88d 2c3f e09c 96be bfeb 60be bfed 78be
00000030: 2a6c e2be 17dc dcbe 327a 873e 9cf9 e2bb
00000040: 1c2d dcbf d456 4a3d 69d9 86be f4e5 0c3f
00000050: 94de 91be e82a 873e 553d 473e 96af de3e
00000060: de3c 5d3e b147 e5be 3566 3dbd f60e eabe
00000070: 6071 1a3f c2a7 55bf d865 bd3c deec f8bd
00000080: aae5 94be f562 3ebe 2e1b ac3e 4738 63be
00000090: 4cb0 e93e 8bfc 8f3e bec3 94bf cd9e 4b3f
000000a0: f202 bcbe 3dfb 943e 5617 183f aed5 a03e
000000b0: 4bcb b33d 8876 fabd 321b 55be 1f5d 89bf
000000c0: 7eb2 093f 2904 debb a34f ddbd d63b 0b3f
000000d0: 17ad 233e 4799 04bf 7a12 34be 2285 1a3e
000000e0: f37c 8ebe 3fac 353e b46a 803e 28f0 b53e
000000f0: 76e5 29bf 9bcf 1abf 4d10 863d 5d60 d1be
-0.14264338 -0.00481998 -0.26171726 -0.5926986 -0.8874674 0.09677527 -0.6379108 0.005274793
0.6740384 -0.2941656 -0.2196493 -0.24309443 -0.44223148 -0.43136665 0.26460415 -0.0069267284
-1.7201266 0.049399212 -0.26337746 0.5503838 -0.28490126 0.26399922 0.1945699 0.43493336
0.2160525 -0.4478126 -0.04624005 -0.4571454 0.60329247 -0.83459103 0.023119852 -0.12154554
-0.2908147 -0.18592437 0.33614486 -0.22189437 0.45642316 0.28122362 -1.1622236 0.79539186
-0.36720997 0.2909793 0.5941061 0.31413025 0.087790094 -0.12229639 -0.20811155 -1.0731543
0.5378798 -0.0067753983 -0.10806205 0.5438818 0.15983997 -0.5179638 -0.17585173 0.15089849
-0.27829704 0.17741488 0.25081408 0.35534787 -0.66365755 -0.6047303 0.06546078 -0.40893832

encoder_variable_selection.single_variable_grns.VaccinationFull.fc2.bias f4 [8]
00000000: d02a 09bd 4894 a8bd 0c5c 70bd 7492 42bc
00000010: 01ae 023e 08b7 bc3a a884 5cbd 3d4a 9b3b
-0.033488095 -0.082314074 -0.058681533 -0.011875737 0.1276169 0.0014397809 -0.05383745 0.0047390745

encoder_variable_selection.single_variable_grns.VaccinationFull.gate_norm.glu.fc.weight f4 [32, 8]
00000000: 11c0 c33d 1d84 113e b752 b53e d26d 273e
00000010: 26bf 76be a494 853e 32e6 d8bd 228f 7dbe
00000020: 9a61 f6be fa69 853e 6100 c2be 5f9e e03d
00000030: f561 4b3e ca94 0bbe 79c6 6b3e 9491 89be
00000040: c676 1dbd b471 853e 165d 2f3e 4cc1 373d
00000050: 74b9 4fbe 31e1 fe3e c521 82be 236d f03e
00000060: ce69 8ebe 7144 48be ef9d 273e fae6 b53e
00000070: 4dfe c0be 7b17 a43e 5f9d e33d 759d 963e
00000080: 54dd 3b3e ba7f 1dbe a8db 873e 6676 b1be
00000090: 5209 a03e 2ae4 23be e066 bbbe a3aa 3cbd
000000a0: a50d 933e 3ee4 a93e 1703 943e 9030 8bbe
000000b0: 2cde 1cbe a375 b33e d949 c6bd 8281 ca3e
000000c0: 737c 9fbd e2a0 673e 6cd2 c33d 22b8 ddbd
000000d0: 7dd7 113d 0e9e d8bd 107a 4a3e 41c9 42be
000000e0: 7eea 72be 6ff9 c13d da42 8f3e 82f0 2ebf
000000f0: 5502 1a3f 3a0b eabe 2f66 4d3e 2afe 15bf
00000100: e273 b2bc ea26 963e d660 a5bd 211d 86be
00000110: 5d14 bbbe 3f74 6d3e fc7e 1a3d 8218 d73e
00000120: 134a 113d ee33 79bd cb0e 683e b2e5 a8be
00000130: 77de fdbd 4186 c7be 08c1 fcbe fdd7 98be
00000140: 22e4 e5bd d79e 38be 1042 ff3d c13c a5be
00000150: d5ac 503e 1f3e 13bc c0cf 153d 3519 98bd
00000160: b30e 17be c3ea 8dbe f954 43bd e962 f03d
00000170: d216 46bc 989e 003e a501 69be 9157 4f3e
00000180: d5c2 74be 65aa 4d3e 715c 64be 6a28 ddbe
00000190: dc1e 0b3e 7c2c 97be d12b 7bbe a711 afbe
000001a0: 35bd 9e3e 31f3 b8be 0c46 d13d 1876 a13e
000001b0: 2a38 7a3e 3f16 753e 4c9d d03c 3ff0 50be
000001c0: 71c8 1cbe 1aad 9f3d f888 c1bd 2682 093d
000001d0: b9f4 59be 1c10 6bba a3dc 3dbe d901 fe3c
000001e0: 8086 93be 460c 62bd 67d9 9e3d c11c a9bb
000001f0: 36af 293e 78e0 32bd 9329 ac3e 47e0 af3a
00000200: 66de 913e fdf3 78be f1d4 9a3e 897f 46bc
00000210: d2a9 a33d 74b1 9d3e 0cb4 5ebe 6c45 c0be
00000220: c308 efbd d5eb 2a39 266d 843e 1e88 7d3d
00000230: 13fc 4b3d 45ec ba3e ba74 84bd fc10 413d
00000240: eb23 a43e 5a63 aa3e 956a dbbd 4a7d df3e
00000250: 917f 4d3c 4ba5 e13e 67f9 e83d b99b b43e
00000260: 3610 1d3d c7de 533e aaa2 4a3e 167a 813e
00000270: d087 39bd 898d b9bd 954e 0fbe 300f 81bd
00000280: 0544 97bc 67ad 72be bb83 233e 0f41 c53e
00000290: 56f1 a03d 2cf0 f5bc a493 24be 9ec8 9ebc
000002a0: e235 a6bc 1454 8dbd d21b af3e 6bb9 ce3c
000002b0: 2b78 4cbe e261 dc3c e372 c8be 9496 e03d
000002c0: 9fbc b93e 29f9 103e ecdf febd 2715 623e
000002d0: b265 9ebd 4797 123e 9b03 06bf 8bab 683e
000002e0: 2cc5 e2bd 7a0f b4bc c30f 073f f6c8 2abe
000002f0: 73e7 8a3d 1c08 d8be 6a1f 24bf 82be 8cbe
00000300: b52e 6e3c 8dd8 073e da02 243d 7a3a d8bd
00000310: 5e49 89be b971 1d3e 1874 643e f7e8 3fbe
00000320: aab4 fd3e 6755 0cbf 7d23 e83e f8f5 42be
00000330: 8b65 af3e 6238 d3bd 6054 b8be fd34 2d3d
00000340: 6644 b7bd 94eb 91bd 2afc ec3e 167c 83be
00000350: e145 063e dca5 bebe 1b1c bcbc c0d9 05be
00000360: 901b 923d 2ff8 353d 0377 bd3e 15fa 3dbd
00000370: 03ab 42bd e62a 043e f8f8 45be bca3 6ebe
00000380: 0c6c c63e 91ac 883e c299 89be 623e 863e
00000390: 94db 313e 8ed5 5a3e e2a4 82be e8e5 053e
000003a0: c403 0bbe 475a c6be 013f 5fbe 6936 24be
000003b0: a600 083e c8d4 ef3d fcb9 2ebe 8e6d 3d3d
000003c0: ed6d fb3e 65e3 3abd 1680 ab3d 8439 1e3e
000003d0: 2164 7abd 203e cabe 4d7d 47bc ac22 03bf
000003e0: a3de 5bbe 22fd b83e 0e64 813e 2f8d c63e
000003f0: dc19 99be 1f1b efbd e410 d63e 2593 1fbe
0.09558118 0.14210553 0.3541467 0.16350487 -0.24096355 0.26089966 -0.10590781 -0.24761632
-0.4812134 0.26057416 -0.37890914 0.10967707 0.19861586 -0.13630977 0.2302493 -0.2686888
-0.03844335 0.2606331 0.17125353 0.044862077 -0.20285589 0.49781182 -0.2541639 0.46958265
-0.27815098 -0.19557358 0.1636884 0.35527784 -0.37694016 0.32049164 0.111140005 0.29417005
0.18346149 -0.15380755 0.26534772 -0.34660643 0.3125711 -0.16005006 -0.36601925 -0.04606117
0.28721347 0.33181947 0.28908607 -0.27185488 -0.15319127 0.35050687 -0.09682054 0.39551932
-0.07787409 0.22619966 0.09561619 -0.10826136 0.035605896 -0.105770215 0.19773126 -0.19022085
-0.23722264 0.09471404 0.2798069 -0.68335736 0.6015981 -0.4571169 0.20058511 -0.5859095
-0.021783773 0.29326564 -0.080751106 -0.261941 -0.36538973 0.23188876 0.037718758 0.42010885
0.035471033 -0.06084054 0.22661893 -0.32987744 -0.123959474 -0.38969615 -0.4936602 -0.29852286
-0.112251535 -0.18029343 0.12463772 -0.32272914 0.2037843 -0.008986979 0.03657508 -0.07426683
-0.14751701 -0.2771817 -0.047688458 0.117376156 -0.012090402 0.12560499 -0.22754534 0.20248248
-0.23902448 0.20084532 -0.22300889 -0.43194896 0.1358599 -0.29526126 -0.24528433 -0.34193155
0.31003729 -0.3612304 0.102184385 0.3153541 0.24435487 0.23934267 0.02546563 -0.20404147
-0.15310837 0.077966884 -0.09449953 0.033571385 -0.2128476 -0.0008966939 -0.18541197 0.03100674
-0.28813553 -0.055187486 0.0775631 -0.0051608984 0.16570744 -0.0436711 0.3362547 0.001341828
0.2848999 -0.24311824 0.30240586 -0.012115368 0.07991375 0.30799448 -0.2174837 -0.37552965
-0.11671593 0.00016300318 0.25864524 0.06189739 0.049800944 0.36508384 -0.06467576 0.04713534
0.32058653 0.33278924 -0.10713688 0.43650275 0.012542621 0.4407142 0.11375695 0.35275057
0.038345538 0.20690452 0.19788614 0.25288457 -0.045295537 -0.09060199 -0.1399482 -0.06301725
-0.018465051 -0.2369896 0.1596822 0.38526198 0.07858531 -0.03002175 -0.16071945 -0.019382771
-0.020289365 -0.06900802 0.34200913 0.025234899 -0.19967715 0.026902143 -0.39150152 0.109662205
0.3627672 0.14157547 -0.124450535 0.22078381 -0.077342406 0.1431552 -0.5234925 0.22721688
-0.11072764 -0.021980036 0.52758425 -0.16678223 0.06782427 -0.42193687 -0.64110434 -0.27489096
0.014537503 0.13266201 0.040041782 -0.105580285 -0.26813787 0.15375413 0.22309911 -0.18741213
0.49551898 -0.54817814 0.45339575 -0.19039142 0.3425716 -0.103134885 -0.36001873 0.04228686
-0.08948593 -0.07125011 0.46286136 -0.25680608 0.13112594 -0.37235916 -0.02296262 -0.13071346
0.071341634 0.04442614 0.3700486 -0.046381075 -0.04752637 0.1290699 -0.19333255 -0.23304647
0.38754308 0.26694158 -0.2687512 0.2621947 0.17368919 0.21370527 -0.2551642 0.13075984
-0.13575655 -0.3874075 -0.21801378 -0.16036381 0.13281497 0.11710507 -0.17063135 0.046247058
0.49107304 -0.045627017 0.0837404 0.15451628 -0.061130647 -0.39500523 -0.01217587 -0.5122478
-0.21471648 0.36130625 0.25271648 0.3877959 -0.29902542 -0.11675095 0.41809762 -0.15583475

encoder_variable_selection.single_variable_grns.VaccinationFull.gate_norm.glu.fc.bias f4 [32]
00000000: a34d 8bbd ec66 1d3e b304 80bd 1eba 0abd
00000010: b526 0cbe 37b2 343b 5208 e8bd c696 6a3e
00000020: fbce d93b 5795 823d d5b2 513c 32fd a73c
00000030: d8d5 35bd 0f66 e6bd 1b9a 6e3c ce95 be3d
00000040: 518d 57be a818 6c3d e049 88bd 0bdc 073e
00000050: 0b54 1b3e e039 9dbc 298b 1ebe 1626 363e
00000060: f5d5 0d3d bd45 66bd a7a1 eebd ef1c 11be
00000070: c16e 9dbc e9d0 c0bd 07bf 13be 92a9 55be
-0.068019174 0.15371293 -0.06250896 -0.0338689 -0.1368664 0.0027572045 -0.11329712 0.22909078
0.0066469884 0.063761406 0.012798985 0.020506475 -0.04439339 -0.11249935 0.014563109 0.09305917
-0.21050002 0.0576407 -0.066547155 0.13267533 0.15168779 -0.019192636 -0.15482773 0.17787966
0.034627873 -0.05621885 -0.116519265 -0.14171194 -0.01921785 -0.094148465 -0.1442834 -0.20865467

encoder_variable_selection.single_variable_grns.VaccinationFull.gate_norm.add_norm.norm.weight f4 [16]
00000000: 64e0 2a3f 1ca2 593f 3fda 793f 640f 5a3f
00000010: 7341 893f 08da 753f 3443 813f 8589 3a3f
00000020: b220 703f 3224 613f bd70 683f 6507 583f
00000030: 69f9 403f 01a1 7a3f 852f 423f 5ca4 423f
0.6674864 0.85012984 0.9759864 0.85179734 1.0723099 0.96035814 1.0098634 0.7286609
0.9379989 0.87945855 0.90797025 0.84386283 0.7538057 0.9790192 0.7585376 0.7603204

encoder_variable_selection.single_variable_grns.VaccinationFull.gate_norm.add_norm.norm.bias f4 [16]
00000000: de13 aebd 9958 343e 5800 fa3c fc14 bc3d
00000010: 148a b6bc e87b e6bc 5f9b bebd 5849 4fbe
00000020: de23 e5bd 2bc8 00bd 8ace debb b9e8 b6bc
00000030: 6fa4 d0bc c873 7abd 3b2d 52bb 91bb 963d
-0.08499883 0.17611922 0.030517742 0.0918369 -0.022282638 -0.028135255 -0.093069784 -0.20242822
-0.11188482 -0.031440895 -0.0067995237 -0.022327768 -0.025469033 -0.061145574 -0.0032070416 0.07359994

encoder_variable_selection.single_variable_grns.Cases.resample_norm.mask f4 [16]
00000000: 628f 073e 63ba 4b3d fdca d7be 12f7 3e3d
00000010: e83b afb9 4bea 0a3e 91e9 88bd eefe 5ebe
00000020: 4c1d 1dbf af94 a93e 18c2 b23e b79b adbc
00000030: 85f1 f8be 8797 afbd 698a 8c3e a25c a93d
0.1323829 0.0497383 -0.42147055 0.046622343 -0.00033423235 0.13565938 -0.06685174 -0.21776935
-0.6137283 0.3312125 0.34913707 -0.021192415 -0.48621765 -0.085738234 0.2744935 0.082696214

encoder_variable_selection.single_variable_grns.Cases.resample_norm.norm.weight f4 [16]
00000000: 9735 853f 986d 853f c656 1e3f d55f 843f
00000010: d3dc 6b3f f861 903f e799 8d3f 79de 603f
00000020: d51e 013f ee46 a93f 7028 ae3f dab7 773f
00000030: f270 f83e 366f 673f dd4a a43f 0d33 913f
1.0406979 1.042407 0.61851156 1.0341746 0.92133826 1.1279898 1.1062592 0.87839466
0.5043767 1.3224771 1.360609 0.9676491 0.4852367 0.9040407 1.2835346 1.1343704

encoder_variable_selection.single_variable_grns.Cases.resample_norm.norm.bias f4 [16]
00000000: 6f24 c63d ca52 de3c c986 35be 0109 06be
00000010: 8cd7 22be 8662 dfbd 1804 e8bd a7d5 203c
00000020: 7780 833d c055 e13d 482c 9e3d 7c81 87bc
00000030: 85ac babd 5bad 473e 57ae 0c3d 6ce2 bf3d
0.09674918 0.027139086 -0.17727198 -0.13089372 -0.15902537 -0.10907464 -0.11328906 0.009816564
0.06420987 0.11002684 0.0772329 -0.016541235 -0.09114937 0.19499724 0.03434595 0.093693584

encoder_variable_selection.single_variable_grns.Cases.fc1.weight f4 [8, 8]
00000000: 1d5b 083d 86f4 b23f 6a03 fe3d 8271 993d
00000010: 801a ebbe 46ad ec3e bdcb 99be c642 01bf
00000020: 8745 113f d372 d13e 4125 94be 5b37 a2bf
00000030: 1671 85bf b059 9d3e 27ca dc3d 5a96 9ebd
00000040: ba69 a43f 3d43 333d 56a7 dfbd 6766 25bc
00000050: 9d24 d0bc ae32 53be 908f 74bf ced6 263f
00000060: 1561 18bf 4ed3 0bbe 8bbe 443f cb51 ef3e
00000070: e5f1 503f 0374 663c 1939 193e 384d 003f
00000080: 1577 34be d45a eabe a217 fa3c ec71 d93e
00000090: 9a2e d73e 1ffe 743e 0355 343c e08c 8f3e
000000a0: 80ba bdbd 538b 14bd 05a5 d83d 1732 15bf
000000b0: 8ec3 0abf 67f8 1d3f c54e 1fbc 4dc7 2b3f
000000c0: d7a0 0d3e 10ab 8b3e fe20 463e da51 573f
000000d0: bd2c aabf 95fd f63d 20af 053f f845 c0be
000000e0: 024d 4cbe b503 fabe f9a5 e5be 0e9e 2abf
000000f0: 6d4d a2bd be3e efbe fc04 3fbf c71e a53f
0.033290017 1.3980873 0.12402995 0.07492353 -0.45918655 0.46225947 -0.30038252 -0.50492513
0.56746715 0.40907916 -0.28934672 -1.2673143 -1.0425136 0.3073249 0.10780745 -0.07743521
1.2844765 0.043765295 -0.10920589 -0.010095215 -0.025408084 -0.20624802 -0.9553156 0.65171516
-0.59523135 -0.13654825 0.76853245 0.4674209 0.816191 0.014065745 0.14963187 0.50117826
-0.17623551 -0.4577242 0.030528847 0.42469728 0.42027742 0.23925065 0.0110065965 0.28037167
-0.09264088 -0.036265682 0.1057835 -0.58279556 -0.5420464 0.61707157 -0.00972337 0.67100984
0.13830887 0.27278948 0.19348523 0.8410927 -1.3294903 0.12060086 0.52220345 -0.37553382
-0.19951251 -0.48830953 -0.4485319 -0.6664742 -0.07924924 -0.46727556 -0.7461698 1.2900017

encoder_variable_selection.single_variable_grns.Cases.fc1.bias f4 [8]
00000000: 8f01 7cbe 8984 5cbe e3be ac3d 0f5f e43c
00000010: 6bed 263e 36ea 6bbd 784d 99be 7cf0 a23d
-0.2460997 -0.21534933 0.08434846 0.027877359 0.16301505 -0.057596408 -0.29941916 0.07956025

encoder_variable_selection.single_variable_grns.Cases.fc2.weight f4 [8, 8]
00000000: f332 dabd 73d0 6e3f b3ec 05be 2aab 22bf
00000010: 8ce3 883e 28c2 0dbb bd21 6d3f 6248 83bd
00000020: c7fb 8bbe a3f7 ad3b fe94 0cbe 4516 29bf
00000030: fdc5 5e3e 308c 2d3e 9b94 783d e54b a9bf
00000040: 76ac edbd e737 b2be ad00 87bf 794c 9b3e
00000050: fcb2 063f bb6c 88be 5e8e 24bf 670b 433f
00000060: 9cb2 97be 3d62 11bf 2a5c e3be fe18 71bf
00000070: dc07 183f 5ab7 4cbf 1809 f3be c801 30be
00000080: dc1a f43e b53d 163f 0d24 f53d 9ac8 e73e
00000090: 659a 6f3e 1b97 07be 59d4 903e 6808 203f
000000a0: bf86 5e3e 029f fc3c 923c 8f3f c90f 393f
000000b0: f0e7 a4be 4fbc 503d a431 18bd 667c 003f
000000c0: e640 1abf 451c babe 2c2c 0cbf 8fe2 9c3e
000000d0: bc90 a0bd 1e72 a3be c81b fe3e 97fb 60be
000000e0: a932 ec3e f92b 113f 851a 1fbe 1e20 91be
000000f0: f134 07bd 1f23 053d 55e1 95ba 2607 e1bd
-0.10654249 0.9328682 -0.13078575 -0.63542426 0.26736104 -0.0021630619 0.92629606 -0.0641029
-0.27340528 0.0053090616 -0.13728711 -0.66049606 0.21755214 0.16948009 0.060688596 -1.3226286
-0.1160516 -0.34808275 -1.0547081 0.30331782 0.5261686 -0.26645455 -0.64279735 0.76189274
-0.29628456 -0.56790525 -0.44406253 -0.9417876 0.5938699 -0.7996727 -0.47467875 -0.1718818
0.47676742 0.5868791 0.11969767 0.45270234 0.2339874 -0.13241236 0.28287008 0.62512827
0.21731089 0.03083754 1.119036 0.7228971 -0.32208204 0.050960835 -0.037156716 0.50189817
-0.6025528 -0.36349693 -0.547549 0.306416 -0.07840106 -0.31923002 0.4963057 -0.21970974
0.461324 0.5670772 -0.1553746 -0.28344816 -0.033009473 0.032504197 -0.0011434952 -0.109876916

encoder_variable_selection.single_variable_grns.Cases.fc2.bias f4 [8]
00000000: aab8 98be 9570 4b3c 613b 7b3d b032 5a3e
00000010: 28df c5bb a3fb c33d 20bf e23c 1aff cebc
-0.29828387 0.012416978 0.061335925 0.21308398 -0.006038565 0.0956948 0.027679026 -0.025268126
