TFT-pytorch-age-and-vaccination/results/age_groups_5064/checkpoints/best-epoch=1.ckpt (torch, 436013 bytes, 506 tensors)

prescalers.AGE5064.weight f4 [8, 1]
000000 83 8a de 3c fa 9e 16 bf cf 17 bf 3e a5 d1 97 3e
       0.027165657 -0.5883633 0.37322852 0.29652134
000010 ca 92 04 bf 37 d4 fe bd 47 37 19 bf d7 67 5d 3e
       -0.5178648 -0.124428205 -0.5984997 0.21621643

prescalers.AGE5064.bias f4 [8]
000000 9d 36 6c be eb cd 39 3f fd 42 31 3f f8 4a 9d 3d
       -0.23067708 0.7257983 0.6924284 0.07680315
000010 1d 5e db be 5d df 1e bf 11 9c f2 bd fa 35 69 be
       -0.4284524 -0.62059575 -0.118461736 -0.22774497

prescalers.SinWeekly.weight f4 [8, 1]
000000 e5 95 9a 3e 0c 1b 5a bf ce 3c 71 3f 11 2b 3e bf
       0.30192485 -0.8519752 0.94233406 -0.74284464
000010 55 5e 4d 3f 8a d8 54 be cf ca 11 3f a5 44 d8 3e
       0.80222064 -0.20785728 0.56950086 0.42239872

prescalers.SinWeekly.bias f4 [8]
000000 d5 08 39 3d 6f 4a c9 3d 97 db 33 3f 5c f7 53 3e
       0.04517444 0.0982865 0.7025694 0.20699829
000010 ec 6a 0a 3f e1 b7 41 bf c4 74 3a 3f fb 2b b8 3e
       0.540694 -0.756712 0.7283442 0.35971054

prescalers.VaccinationFull.weight f4 [8, 1]
000000 bf e1 2d 3e 0b bd 43 3d b9 76 e1 3e ca 9a 58 3f
       0.16980647 0.047787707 0.4403589 0.8461119
000010 34 ee 3e be 84 cc 02 bf 0e 58 4a be 21 6e 13 bf
       -0.18645555 -0.51093316 -0.19760153 -0.5758992

prescalers.VaccinationFull.bias f4 [8]
000000 3b 46 03 3f 63 b5 00 bf 41 f0 0b bf 80 46 6d 3f
       0.5127904 -0.50276774 -0.54663473 0.926857
000010 01 eb 5c 3f 6e ed a9 3d 5e b2 80 be b4 c8 0f be
       0.8629609 0.08297239 -0.25136083 -0.14041406

prescalers.Cases.weight f4 [8, 1]
000000 1d f8 1c 3f 7c 34 87 bf e2 6d 70 bf 36 5b 24 3f
       0.6131609 -1.0562892 -0.9391767 0.64201677
000010 47 0c 95 3f 8b 06 0e be a9 8c 36 bf 48 b8 bd 3e
       1.1644372 -0.13869683 -0.7130838 0.37054658

prescalers.Cases.bias f4 [8]
000000 65 da f3 be 2e a9 19 bd c9 c7 bc 3e ff 84 9f 3e
       -0.4762756 -0.037514858 0.36871174 0.31156155
000010 fb 72 10 3d b6 eb 66 3d 99 8a 4c 3e 73 32 54 bf
       0.035265904 0.056377135 0.19974746 -0.8288948

static_variable_selection.single_variable_grns.AGE5064.resample_norm.mask f4 [16]
000000 fc 7a 82 bd 1f b1 27 bd a4 ec 91 bc 3e f4 2a 3d
       -0.06371114 -0.0409404 -0.017813034 0.041736834
000010 13 ab 2a bc 1e db 02 bd 40 26 12 bd a7 37 cc bb
       -0.010416764 -0.031947248 -0.03568101 -0.00623222
000020 f4 85 50 3d b5 c2 27 bd 42 35 07 3c f4 5a 2f 3d
       0.050908998 -0.04095717 0.008252444 0.04281135
000030 9d 48 3d 3c 91 8f 47 3d 31 3b 07 bd 82 ff 7e bd
       0.011552957 0.0487209 -0.033015434 -0.06225539

static_variable_selection.single_variable_grns.AGE5064.resample_norm.norm.weight f4 [16]
000000 4f da 6c 3f 85 65 76 3f df 45 7d 3f e3 ef 85 3f
       0.9252061 0.96248657 0.9893474 1.0463833
000010 6c 9b 7f 3f cc 11 7b 3f 99 28 7c 3f 97 4c 7e 3f
       0.9984653 0.9807403 0.9849945 0.99335617
000020 14 39 84 3f da 96 7b 3f f8 8c 81 3f 3a 65 86 3f
       1.0329919 0.98277056 1.0121145 1.0499642
000030 29 71 82 3f 19 a4 86 3f bd 82 78 3f e3 fa 70 3f
       1.0190784 1.0518829 0.9707449 0.9413282

static_variable_selection.single_variable_grns.AGE5064.resample_norm.norm.bias f4 [16]
000000 c0 b6 67 3d 68 14 c2 bc cc d7 a3 3c a1 06 5a 3d
       0.05657077 -0.023691371 0.02000036 0.053228978
000010 ad 12 a0 bb a5 45 aa bc fc 36 5c bd d2 4b 5a bc
       -0.004885039 -0.020785162 -0.053763375 -0.013323741
000020 b2 a2 27 bc ff 96 a6 bc 78 c2 44 bc 15 f2 89 bd
       -0.010231661 -0.020335672 -0.012009256 -0.067356266
000030 b2 a9 ca bc f7 fe 07 bc a9 8c 0f 3d 3f e7 7e 3d
       -0.02473912 -0.008300534 0.035046253 0.062232252

static_variable_selection.single_variable_grns.AGE5064.fc1.weight f4 [8, 8]
000000 60 87 ad 3e 1b d3 fd be a9 e2 ec be ae 4d d0 be
       0.33892345 -0.49575123 -0.46266678 -0.40684265
000010 a8 b3 a9 be 85 3c bd bf 47 fe 34 3e d7 e7 fa be
       -0.3314488 -1.4784094 0.17675124 -0.49005005
000020 8f dc 0e bf ae 84 62 bf 5d 26 9a be 34 76 03 3f
       -0.55805296 -0.88483703 -0.30107394 0.5135224
000030 df f0 b9 bd f3 4d a4 be 69 c1 4c 3f 5c fb 5b bd
       -0.09079146 -0.3209072 0.7998262 -0.05370651
000040 ae ea 6d 3e 18 01 94 3e 7a f3 35 3f 50 c9 a2 bd
       0.23234054 0.28907084 0.7107464 -0.079485536
000050 8e 90 a0 bd 37 ad 9e be 33 10 03 3e 4e f0 5c be
       -0.078400716 -0.30991527 0.12799148 -0.21576044
000060 4e 6a 23 bf bc 21 a7 bd 58 38 84 bd f5 fc e9 be
       -0.63834083 -0.08160731 -0.06456059 -0.45700803
000070 36 81 31 be d7 3b 3b 3e 20 5d bd bd 78 b6 21 3f
       -0.17334446 0.18284546 -0.09246278 0.6316905
000080 27 5b af be ff 7d d2 3e bb 2e 68 be 4d c6 5e be
       -0.3424923 0.41111752 -0.22674076 -0.21755333
000090 fd 16 a3 be 73 04 82 3f 90 c5 b0 3e 6b 06 58 3d
       -0.31853476 1.0157608 0.34525728 0.052740496
0000a0 2c 2e 8e 3e e8 25 bf bd f6 c8 34 be c7 8d f7 3c
       0.277696 -0.09333402 -0.17654786 0.030218972
0000b0 2a 6b c0 3e f7 44 e0 be 78 a6 a0 3d 5d fd 40 be
       0.3758176 -0.43802616 0.078442514 -0.1884665
0000c0 cb 21 5d bd cc f7 33 bf 60 72 77 be e5 74 71 3e
       -0.053987306 -0.70299983 -0.24164724 0.23579748
0000d0 5c 3d ac 3e 54 2a a9 3f 1a 17 c3 3e 8a ff 0a be
       0.33640563 1.3216043 0.38103563 -0.13574043
0000e0 aa 0a 35 bf ad c6 05 bf 68 68 13 be aa 44 c9 3e
       -0.707194 -0.5225628 -0.14395297 0.393102
0000f0 49 ed a4 3d d6 5e d8 be 52 27 ba 3e e1 6d 84 3d
       0.08053071 -0.42259854 0.36358124 0.0646627

static_variable_selection.single_variable_grns.AGE5064.fc1.bias f4 [8]
000000 41 42 0c bd 5a c7 7c bc 45 2a 32 3c 7b 37 01 bc
       -0.034242872 -0.0154283885 0.010874336 -0.007886763
000010 09 b5 67 bc b5 ca 0d 3d 57 82 7f 3d e9 b3 95 b9
       -0.014142283 0.034617145 0.06238016 -0.00028553538

static_variable_selection.single_variable_grns.AGE5064.fc2.weight f4 [8, 8]
000000 d0 99 2a bd 46 2c 37 3f dd 5b f4 3d 3a 59 b1 be
       -0.041650593 0.7155193 0.11931584 -0.34638387
000010 4d f8 80 3e c9 6c dc be 31 fa 49 3f 98 07 63 3f
       0.25189438 -0.43051746 0.78897387 0.8868346
000020 8b 4b e1 be 66 80 08 bf c0 c6 71 3e 93 8c 26 bd
       -0.44002947 -0.5332092 0.23610973 -0.040661406
000030 25 63 39 3e 42 b1 40 bd 91 82 ac 3e b1 6e 78 3d
       0.18104227 -0.047044046 0.33693364 0.06065244
000040 a6 4a 7b be b8 f6 d4 3e 26 fa bf bd 60 66 53 3e
       -0.24540195 0.4159448 -0.09373884 0.20644522
000050 72 56 5f 3e cb 30 ef be 4b e5 8d be 2d f4 3a 3f
       0.2181032 -0.46716914 -0.27714 0.7302883
000060 a2 67 5b 3f cc 0c 87 bb 1a b1 02 3f 1b d4 b8 be
       0.85705006 -0.0041213986 0.51051486 -0.36099324
000070 07 27 5e bd e3 eb 4b be 2a a4 1c 3f 0c 85 36 bf
       -0.054236438 -0.19914202 0.61187994 -0.71296763
000080 d8 50 ac 3e 93 e7 b2 be d5 b7 33 3e 1a 3d 4d 3e
       0.3365543 -0.34942302 0.17550595 0.2004284
000090 f7 6b db 3e 78 70 48 3e 64 6f 0a 3f c9 6b dc 3c
       0.42855808 0.19574153 0.5407622 0.026906865
0000a0 54 6c 88 3e 43 52 27 be d4 34 f9 be 28 c5 21 3d
       0.26645148 -0.16339974 -0.48673117 0.039494663
0000b0 55 58 ab 3e 25 b0 c8 bd e0 c9 2f bf ce e8 25 3e
       0.3346583 -0.09799222 -0.6866741 0.16202089
0000c0 9f 13 4f bf 0c b9 1f 3e 75 b9 1f bd 68 88 ed 3c
       -0.80889314 0.15597934 -0.038995225 0.028995708
0000d0 91 c9 ad 3e c6 38 ab 3e 0d 08 be be 0a 6c af be
       0.33942845 0.33441752 -0.37115517 -0.34262115
0000e0 ad 57 5b 3d 7e bb c5 3e a5 89 2f bf d3 de 86 be
       0.05355041 0.38619608 -0.68569404 -0.26341876
0000f0 d5 fe 0d 3e 75 05 0f 3e ee c5 99 3e 6d 8d 0b bf
       0.13866742 0.13966925 0.3003382 -0.54512674

static_variable_selection.single_variable_grns.AGE5064.fc2.bias f4 [8]
000000 b9 ff ae 3c 1c 62 7e 3d 1a f0 ff bc 7f 4c 15 bd
       0.021362172 0.062105283 -0.031242419 -0.036449905
000010 81 5f 41 3c d0 cc 8f bd 34 9b c8 bc a6 cc a2 3c
       0.011802555 -0.07021487 -0.02448807 0.019872975

static_variable_selection.single_variable_grns.AGE5064.gate_norm.glu.fc.weight f4 [32, 8]
000000 6c c0 9a bd 35 89 be 3e d5 3e 96 be 2f dc 55 be
       -0.07556233 0.37214056 -0.29344812 -0.20884775
000010 bd fe 14 3e bd 10 5c be cd d2 bc be 71 13 01 3e
       0.145503 -0.2149076 -0.36879578 0.12605073
000020 16 e7 1e 3a d7 eb 01 3e 92 6b ab bc d7 b0 a1 3e
       0.0006061656 0.12687622 -0.020925317 0.3158023
000030 f3 37 39 be 82 e5 98 3e a3 f0 66 be 58 38 b5 bd
       -0.18087749 0.298626 -0.22552733 -0.08848637
000040 5d 0f 96 3e b3 16 49 3d d7 32 72 be 66 75 30 bd
       0.29308596 0.049093913 -0.23652206 -0.04308071
000050 ec d3 1a 3e ec 9f 90 be 61 d0 41 bd 4f a3 39 3e
       0.15119904 -0.2824701 -0.047317866 0.18128704
000060 68 4f ac be 53 05 fd 3d 65 ef be be bf 0c 9f be
       -0.33654332 0.12354531 -0.3729202 -0.31064412
000070 7f a1 76 bc 89 e1 9c be 56 31 59 be fa c5 2b 3e
       -0.015053152 -0.3064082 -0.21210226 0.16774741
000080 14 8f 8d bd 43 26 7e be 0b 5b 93 3e 88 7f bb be
       -0.069120556 -0.24819283 0.28780398 -0.36620736
000090 35 59 83 3d 91 d8 83 be da 13 6c be a8 6b 67 3d
       0.06413499 -0.25751165 -0.23054448 0.056499153
0000a0 c6 c3 c0 3e 00 b8 87 bd f3 21 b6 be 2b 79 9f 3d
       0.37649363 -0.06626892 -0.35572776 0.07786783
0000b0 fb cb ef bd 14 73 7e be 80 45 3e 3e 09 0e 56 3e
       -0.11708828 -0.24848586 0.185812 0.20903791
0000c0 83 0a 25 be cb 20 b7 3b ff 63 9d 3d 53 50 83 3c
       -0.16117291 0.005588626 0.07685088 0.016029513
0000d0 19 44 9e 3a 07 ee 78 be 62 38 7c 3e 40 78 9a 3e
       0.0012074738 -0.2430955 0.24630883 0.30169868
0000e0 72 a1 9b 3e 29 83 ac 3e 9f 8c 2b bd dc 1e e4 3c
       0.3039661 0.33693817 -0.041882154 0.027846746
0000f0 0b a8 09 be 92 b5 b8 bd 02 2d e6 3d bd 35 d7 3b
       -0.1344301 -0.09019007 0.11239053 0.0065676854
000100 67 ed 90 be 7a 1b 73 be f4 b0 31 3e b3 ac 98 3e
       -0.28306124 -0.2374095 0.17352659 0.2981926
000110 c6 1b cf 3e 9d 92 69 3e a3 f2 92 3e 1d 89 28 3e
       0.40450877 0.22809835 0.28700742 0.16458555
000120 b9 16 81 3e d3 5e 05 be aa e2 99 3d 38 e5 09 3e
       0.2521265 -0.13024454 0.07513936 0.13466346
000130 c4 64 74 3d 30 c3 a1 bc aa 01 67 be 69 1a 64 be
       0.05966641 -0.019746393 -0.22559229 -0.222757
000140 ca 88 51 be 40 ce 48 3d c7 56 bb 3e 65 13 06 be
       -0.20462337 0.04902482 0.36589643 -0.13093336
000150 3d 9d 94 be e5 97 b2 be 8f c6 0e 3e 67 5a 04 3e
       -0.29026213 -0.3488151 0.13942932 0.12925111
000160 fd c5 27 be a8 4c d1 bd ee 2f a8 3e 00 3c ba be
       -0.1638412 -0.10219699 0.32849067 -0.363739
000170 c0 ea 8c 3e 34 d3 4d bd 3d 11 00 be f9 73 ea 3e
       0.2752285 -0.050250247 -0.12506576 0.45791605
000180 21 db 65 be e0 da b6 3e 71 20 9d 3e c4 2a cb 3d
       -0.22446872 0.35713863 0.30688813 0.09920266
000190 91 dc 80 3e 1b 80 96 3d bb 36 ad 3e 6f 01 df 3d
       0.2516828 0.07348653 0.3383082 0.10888945
0001a0 62 9a ba be 53 72 be bd 4d 2c 3e 3b 8e 6d 71 3e
       -0.3644591 -0.09299149 0.0029018105 0.23576948
0001b0 7f bc b6 bd 97 6b d8 3d 2a c5 36 3e de 20 2e 3d
       -0.089226715 0.10567396 0.1784865 0.042511813
0001c0 13 df af be d0 eb b5 3e f1 7f 40 be 7f 32 ba 3d
       -0.3434988 0.35531473 -0.18798806 0.090916626
0001d0 a6 1a 32 be 7d 4c e5 3d ae 8e 62 3e 49 9a 84 3d
       -0.17392978 0.111962296 0.2212474 0.0647474
0001e0 ab d3 5f be b9 aa a6 3d 30 21 a5 be af 3f c0 3e
       -0.21858089 0.081380315 -0.32251883 0.37548587
0001f0 31 dd 37 3e 77 5b a6 3e e1 5a 85 3d ef 2a d3 be
       0.17955472 0.32491657 0.065114744 -0.41243693
000200 35 7f 27 be 72 ce bf be 35 db a5 3e 9d 4b 90 3e
       -0.1635712 -0.37462193 0.32393804 0.28182688
000210 32 3c a4 3e 9b c9 62 be 3d d5 37 be 75 01 23 be
       0.32077175 -0.22147219 -0.17952438 -0.15918525
000220 92 f1 db 3e d4 4c e0 be 4b 8d a3 be d6 4b d0 3d
       0.4295774 -0.43808615 -0.31943735 0.101707146
000230 79 16 1b 3d 47 c2 78 be 74 0c 3f be 1c 56 9f be
       0.03786323 -0.24292861 -0.18657094 -0.31120384
000240 d5 d1 24 3e 19 e3 7b bd 70 a3 1c be 6b 72 38 3e
       0.1609567 -0.061495874 -0.15296721 0.18012397
000250 09 fe 55 be ed b5 ab 3e ec 82 1b bd b1 bc a4 3e
       -0.20897688 0.33537236 -0.037966654 0.3217521
000260 2e e2 8c bc f2 dc ae 3e ed 41 55 be fe 8e e2 bd
       -0.017197695 0.34152943 -0.2082593 -0.1106243
000270 28 10 ef bd da 19 4d 3e 08 66 a6 be 02 46 aa 3e
       -0.116730034 0.20029393 -0.3249972 0.33256537
000280 4a 27 8b 3b 9b 46 4d be f4 4d ea bd cf 9e 38 bd
       0.004246627 -0.20046465 -0.1144065 -0.045073327
000290 e2 c8 aa bd 4a ac 39 be 46 fd 7b bd 78 c5 d4 3c
       -0.083390966 -0.1813213 -0.061520837 0.025973067
0002a0 4e 6d 3d 3e 98 76 55 3c 05 31 83 3e 69 26 6d bd
       0.18498728 0.013028763 0.25623336 -0.05789796
0002b0 53 3b 8f 3e 18 28 f4 3d ca 71 a2 be 3f 9b 61 3e
       0.27974948 0.1192171 -0.3172744 0.22031878
0002c0 8b ce 12 3e e9 11 47 3e 96 18 9d be c2 c5 ba bd
       0.14336602 0.19440426 -0.3068282 -0.091197506
0002d0 ff d2 cf be b8 9d bd bd 3c 57 3b be 11 a5 78 be
       -0.40590665 -0.09258598 -0.18294996 -0.24281718
0002e0 47 79 67 be 19 1b 84 3e 26 ed 69 3e cc 35 e5 3d
       -0.22604857 0.25801924 0.22844371 0.111919016
0002f0 10 df 76 3d 61 00 f4 3d cf e9 7f 3c 77 3f aa be
       0.060271323 0.11914135 0.015619709 -0.33251545
000300 b3 9d 54 bd b2 18 94 3e 54 b4 39 bd a2 82 a9 3d
       -0.051908206 0.2892509 -0.04533799 0.08276869
000310 ec 38 83 3e 65 ed 71 3e 9b 1b 99 bc ec 20 a4 3e
       0.25629365 0.23625715 -0.018689921 0.32056367
000320 35 8f 60 bd 1f 64 8e bc 14 88 cb 3e 43 2d 9a be
       -0.054824073 -0.017381726 0.39752257 -0.30112657
000330 b4 d5 ef 3e 7e 1f 93 be 2f 37 bb bd ef 2e d4 3e
       0.4684273 -0.28734964 -0.09141385 0.41442057
000340 0f 12 9c 3e ff 18 ad be 4b e3 6c 3e 59 b2 35 bc
       0.30482528 -0.33808133 0.2313358 -0.011089885
000350 0d c8 9d be d3 fa 04 be c6 d9 79 3d df c8 99 be
       -0.3081669 -0.12986307 0.0609987 -0.30036065
000360 85 43 8f bd d6 72 1c 3e b5 fa 53 3e d2 a7 a8 3e
       -0.069953 0.15278181 0.20701106 0.32940537
000370 b4 cf 3d be 99 83 79 3e 3c 4a a3 3d a6 f9 da bd
       -0.18536264 0.24366607 0.079731435 -0.10692148
000380 44 18 73 be 94 43 7f 3d d1 e4 d4 3e 2c 8a d5 be
       -0.23739725 0.062320307 0.41580823 -0.4170698
000390 a8 e0 84 bc 29 46 43 3e d1 a0 c0 3b c0 ab 9b 3e
       -0.016220406 0.19069733 0.005878546 0.30404472
0003a0 99 fe 3c bc 20 4d 4d be 06 7c 9b be 28 d8 98 be
       -0.01153531 -0.20048952 -0.3036806 -0.29852414
0003b0 4a 65 2c bd f7 09 3c 3e 05 af a2 3d a3 46 92 3d
       -0.042088784 0.18363176 0.079435386 0.07142379
0003c0 02 e5 96 3e 0b fc 4d 3e 8f 2b 50 be 7f ad b4 bd
       0.29471594 0.20115678 -0.20329116 -0.08822154
0003d0 48 7c 82 3e b4 86 24 be 3a 35 5a 3e 07 2e 3b 3e
       0.25485444 -0.1606701 0.21309367 0.18279277
0003e0 01 86 33 bc 3d f4 33 be 30 fe 85 be 69 5e a2 be
       -0.010957242 -0.17573638 -0.26170492 -0.31712654
0003f0 49 29 14 3e f1 d2 ac be 15 b5 2b be a8 65 b1 3e
       0.14468874 -0.33754686 -0.16768296 0.3464787

static_variable_selection.single_variable_grns.AGE5064.gate_norm.glu.fc.bias f4 [32]
000000 ab 49 68 3d cd 75 c8 bc b8 e1 94 3c 1b e2 3f 3d
       0.05671088 -0.024470234 0.018174037 0.04684649
000010 4a 78 3a bb 4d 94 36 bc 19 aa 47 bd af c2 ca bb
       -0.0028453046 -0.011143756 -0.048746202 -0.006187759
000020 25 7f 17 bc b2 1f 26 bc 4d ea 8c bb 2e de 84 bd
       -0.009246622 -0.010139393 -0.004300392 -0.0648769
000030 65 b7 ce bc d7 77 e7 bb a3 63 10 3d d4 0c 84 3d
       -0.025233934 -0.0070638466 0.03525127 0.06447759
000040 92 10 ae bd ff 5c 57 bd fe a6 53 bd 40 16 92 bd
       -0.08499254 -0.052578922 -0.051672928 -0.0713315
000050 ad d8 3e bc 87 cf 26 3c 92 6a a3 bc 57 c3 9a bb
       -0.011648339 0.010181314 -0.019948278 -0.0047229934
000060 ab 9c b7 3b 21 18 f1 bd d8 15 2b bd 2c 69 87 3d
       0.005603393 -0.1177218 -0.04176888 0.06611857
000070 0d 12 6e bd 24 ab 3a bd 9d ce 0d 3c 76 2e 1d 3d
       -0.058122683 -0.04557337 0.0086552175 0.038374387

static_variable_selection.single_variable_grns.AGE5064.gate_norm.add_norm.norm.weight f4 [16]
000000 aa c9 6d 3f 5a 11 76 3f 76 d7 7d 3f 3c 95 85 3f
       0.9288584 0.96120226 0.9915689 1.0436168
000010 ae 0f 7f 3f 06 ac 7a 3f 24 31 7a 3f 63 a2 7c 3f
       0.996333 0.97918737 0.9773123 0.9868528
000020 86 1f 85 3f 68 4e 78 3f 75 db 80 3f e4 41 87 3f
       1.0400245 0.9699464 1.0066973 1.0566983
000030 dc 53 81 3f b2 01 83 3f 1b c8 76 3f 79 24 6f 3f
       1.0103717 1.0234892 0.96399087 0.9341503

static_variable_selection.single_variable_grns.AGE5064.gate_norm.add_norm.norm.bias f4 [16]
000000 1c c9 49 3d 23 6d ac bc d1 38 06 3d 60 27 58 3d
       0.04926406 -0.021048134 0.032769028 0.052771926
000010 f8 19 56 bb 86 2f a9 bc 29 1b 86 bd 93 3c 5c bc
       -0.0032669287 -0.020652544 -0.06548149 -0.013442176
000020 54 4a 14 bc c4 14 b9 bc 97 e1 15 bc 8f 93 8f bd
       -0.009050924 -0.02259291 -0.009148023 -0.070105664
000030 a6 dd ca bc 5a d4 6e bb 64 8b 10 3d c5 2c 77 3d
       -0.024763893 -0.003644249 0.035289183 0.06034543

static_variable_selection.prescalers.AGE5064.weight f4 [8, 1]
000000 83 8a de 3c fa 9e 16 bf cf 17 bf 3e a5 d1 97 3e
       0.027165657 -0.5883633 0.37322852 0.29652134
000010 ca 92 04 bf 37 d4 fe bd 47 37 19 bf d7 67 5d 3e
       -0.5178648 -0.124428205 -0.5984997 0.21621643

static_variable_selection.prescalers.AGE5064.bias f4 [8]
000000 9d 36 6c be eb cd 39 3f fd 42 31 3f f8 4a 9d 3d
       -0.23067708 0.7257983 0.6924284 0.07680315
000010 1d 5e db be 5d df 1e bf 11 9c f2 bd fa 35 69 be
       -0.4284524 -0.62059575 -0.118461736 -0.22774497

encoder_variable_selection.flattened_grn.resample_norm.mask f4 [3]
000000 e4 4d c5 bd 7c 3f 0c bd 17 90 44 3e
       -0.09633997 -0.03424023 0.19195591

encoder_variable_selection.flattened_grn.resample_norm.norm.weight f4 [3]
000000 35 ed 7d 3f 4c 16 72 3f c9 6b 95 3f
       0.99190074 0.9456527 1.1673518

encoder_variable_selection.flattened_grn.resample_norm.norm.bias f4 [3]
000000 f3 45 b5 3d 7b 11 5b bd 20 26 05 be
       0.088512324 -0.053483468 -0.13002825

encoder_variable_selection.flattened_grn.fc1.weight f4 [3, 24]
000000 4a 1c cb 3e 51 40 0d be 8e b6 41 3e 88 fc d5 3d
       0.3967002 -0.13794066 0.18917295 0.10448557
000010 1c be a0 3d 3e fa 0d bb 5d d3 f9 bd dc e7 02 be
       0.078487605 -0.0021664049 -0.121985175 -0.1278376
000020 ee 92 85 be 11 20 ac 3d a3 55 20 3e b2 a7 80 bf
       -0.2608866 0.08404554 0.15657668 -1.0051177
000030 bb 21 09 bd ea ef 11 be 67 3d f3 bd 45 eb 04 be
       -0.033479434 -0.14251676 -0.11876946 -0.12980373
000040 d6 b5 0f 3f f2 b6 3e bf 6f 0f 7c 3e 7f d4 42 3d
       0.56136835 -0.744979 0.24615262 0.047565933
000050 9a 5e 09 3e 49 b3 9c be ec fc 95 3d 90 b9 9a 3e
       0.13414994 -0.30605534 0.07323632 0.30219698
000060 39 84 75 3c c6 51 8c 3e 8e d9 b8 be 52 90 32 be
       0.014985138 0.27406138 -0.3610348 -0.17437866
000070 d9 d3 05 3e 84 a4 02 3d ca 45 e6 3d 03 ca 1d 3f
       0.13069095 0.031895176 0.1124378 0.6163637
000080 02 50 16 be 83 82 a9 3d be 3c 34 bf 70 6c 20 be
       -0.14678958 0.08276846 -0.70405185 -0.15666366
000090 80 ff c5 3d 98 bb 9e 3c 5f 21 ab bd f3 93 3d 3e
       0.096678734 0.019376561 -0.083559744 0.1851347
0000a0 ee c2 55 3d 97 14 38 3d c3 46 f8 be c3 49 45 be
       0.052187853 0.04494151 -0.48491487 -0.19266419
0000b0 a6 7f 7c bd 90 ab 0b 3e 42 95 78 bc 24 d9 b7 3c
       -0.061645173 0.13639665 -0.015172305 0.022442408
0000c0 2e f4 25 3e 1a ac 7c be 2b 30 07 be e4 36 61 3e
       0.16206428 -0.24675027 -0.13201968 0.21993595
0000d0 db 03 c1 3e a1 32 de 3e 46 a9 8d bd f9 43 cd 3e
       0.37698254 0.43398002 -0.06917052 0.40090922
0000e0 88 d2 91 be c3 a7 5b 3e c3 0f 6c 3e a8 78 dd 3e
       -0.28480935 0.21450715 0.23052888 0.43256116
0000f0 b2 b0 18 3d 46 ef 25 be dd 31 c7 3d 37 ba 48 3d
       0.037277885 -0.16204557 0.097263075 0.049005713
000100 9c 2c 51 3e 0e 2b 93 3e 44 03 b5 bd 8b fc d1 bc
       0.20427173 0.28743786 -0.088385135 -0.025633117
000110 0c 86 1c be 97 7e 91 be 09 f7 fc be 11 06 0c 3e
       -0.1528551 -0.28416893 -0.49407223 0.13674189

encoder_variable_selection.flattened_grn.fc1.bias f4 [3]
000000 3e ae 1f bc 4b 38 fb bc 2f a4 a9 bd
       -0.009746132 -0.030666491 -0.08283269

encoder_variable_selection.flattened_grn.context.weight f4 [3, 16]
000000 ff 6a 91 be 7d 76 8d be fd a9 9b be 72 8a ee bd
       -0.28401944 -0.27629462 -0.30403128 -0.116475
000010 95 40 d7 3e 59 05 aa be 90 7d c7 3d 09 09 4b 3e
       0.4204146 -0.33207205 0.09740746 0.19827665
000020 d1 44 9a be 45 8d 3f 3e 8e 24 01 be fb 6c 6f 3e
       -0.30130628 0.18706234 -0.12611601 0.23381416
000030 92 11 d7 3e 4c 3d 04 3e 3c af b4 be b4 9a a3 be
       0.42005593 0.12914008 -0.35289943 -0.31953967
000040 87 d1 e7 3e bd be 3c be 53 67 06 3f a0 8c e4 be
       0.45277044 -0.18432136 0.5250141 -0.44638538
000050 8d 83 a6 be 22 12 15 3f 8f cc 13 3c 4f 2e a3 be
       -0.3252224 0.58230793 0.009020939 -0.31871268
000060 88 ab 84 3d 52 5e 45 bd 92 02 ee be b1 11 39 3e
       0.064780295 -0.048185654 -0.46486336 0.18073155
000070 87 eb 67 3e af ad c2 bc 72 97 dc be 57 03 fe bd
       0.2264844 -0.02376446 -0.43084294 -0.12402981
000080 67 a7 94 3e 36 f6 2a be 6c 7d ee 3e a0 bd 7d be
       0.29033968 -0.16695485 0.46580064 -0.24779367
000090 f1 eb 4f be 06 10 d4 3e 67 23 56 3d 9e 9a 56 3e
       -0.20304848 0.41418475 0.052279856 0.2095742
0000a0 1e 46 99 be 83 a9 e4 3e ea 1d 82 bd 3f 1b 3b 3d
       -0.29936308 0.44660577 -0.06353362 0.04568028
0000b0 d3 dd 23 3e ce a2 c2 3d b7 31 ed bd 2e 4f de 3e
       0.16002588 0.09503709 -0.11581748 0.43419784

encoder_variable_selection.flattened_grn.fc2.weight f4 [3, 3]
000000 ce 49 7d bf 8c 75 92 bf 83 6f 11 be c6 c6 06 be
       -0.9894074 -1.1442122 -0.14202695 -0.13161764
000010 14 64 8b bf 48 cf 77 be 1a 3a a2 be 4c 9f 79 bf
       -1.0889916 -0.24200165 -0.31684953 -0.9750869
000020 6b 1c 65 bf
       -0.8949649

encoder_variable_selection.flattened_grn.fc2.bias f4 [3]
000000 54 05 33 3d 4a 35 f4 bc 73 f2 7e bc
       0.043706253 -0.029810566 -0.015560734

encoder_variable_selection.flattened_grn.gate_norm.glu.fc.weight f4 [6, 3]
000000 1c 5d 37 3f b2 cf 83 be 6f c6 42 3f bc de 49 be
       0.7162645 -0.25744396 0.76084036 -0.19713873
000010 e0 ff c9 be 7f 02 2a 3f 29 c8 15 be 94 54 06 be
       -0.3945303 0.6641006 -0.14627136 -0.13118201
000020 13 0b ca bd b9 29 d8 be 59 54 0d bf 57 f2 42 3f
       -0.098653935 -0.42219332 -0.5520683 0.7615103
000030 28 f9 51 3f 40 a6 e6 bc 52 09 ff be fa bf 4a 3f
       0.8202081 -0.028155446 -0.49811798 0.79199183
000040 9f d8 cb 3e 82 74 02 3f
       0.39813706 0.50959027

encoder_variable_selection.flattened_grn.gate_norm.glu.fc.bias f4 [6]
000000 89 32 e9 3c 4c 7d ab bd 6d b1 41 be 81 1f 0d bc
       0.02846648 -0.08373508 -0.18915339 -0.008613468
000010 7f e6 03 3e e9 6a 0e 3e
       0.12880896 0.1390797

encoder_variable_selection.flattened_grn.gate_norm.add_norm.norm.weight f4 [3]
000000 69 81 6d 3f 69 c3 4e 3f 26 35 05 3f
       0.9277559 0.8076692 0.52034223

encoder_variable_selection.flattened_grn.gate_norm.add_norm.norm.bias f4 [3]
000000 a1 03 dd bb 50 be 32 be 89 10 fe 3e
       -0.0067448174 -0.17455411 0.4962199

encoder_variable_selection.single_variable_grns.SinWeekly.resample_norm.mask f4 [16]
000000 fe 5d 1c be 1b ef 6d bc 4d 05 9f bd 05 a1 8c bc
       -0.1527023 -0.014522339 -0.07764683 -0.017166624
000010 d1 08 82 bc 89 6c a2 3d 6e d9 b3 bd 49 e4 3f be
       -0.015873345 0.07930858 -0.08781706 -0.18739428
000020 33 1b e2 3c 6d 21 06 bd 69 21 5a bd 14 76 86 bc
       0.02760086 -0.03274672 -0.05325452 -0.016413726
000030 04 36 f6 bd 53 d3 fd bb cd 6a a2 3d e6 80 da 3d
       -0.120220214 -0.007746139 0.07930527 0.10669117

encoder_variable_selection.single_variable_grns.SinWeekly.resample_norm.norm.weight f4 [16]
000000 fc 07 6e 3f f1 e4 70 3f ec 21 7c 3f 9d 5d 80 3f
       0.92980933 0.94099337 0.9848926 1.0028569
000010 f9 4d 75 3f 88 69 8a 3f bd 47 83 3f 88 85 54 3f
       0.958221 1.0813456 1.0256268 0.8301625
000020 0e 5e 84 3f 6f d6 75 3f 91 8b 73 3f f4 d2 79 3f
       1.0341203 0.96030325 0.95134836 0.97587514
000030 24 99 88 3f a1 ce 7b 3f ac 29 8a 3f 10 81 8c 3f
       1.0671735 0.98362166 1.0793967 1.0976887

encoder_variable_selection.single_variable_grns.SinWeekly.resample_norm.norm.bias f4 [16]
000000 28 f5 6f bd 1a 21 51 3d 7b 82 08 be 45 d5 42 3d
       -0.05858341 0.05105696 -0.13331024 0.04756667
000010 7f c4 34 3d 9a 17 cd 3d 43 13 0e be 82 f2 5a bd
       0.044132706 0.10014267 -0.13874535 -0.05345393
000020 4c f9 69 3d ef 21 c5 bc 25 38 16 3c 72 7b 15 3d
       0.057122514 -0.024064032 0.009168659 0.03649468
000030 53 a9 00 be c6 a8 50 3b 62 5e 0c 3d dd 16 4e 3d
       -0.12564592 0.0031838878 0.034269698 0.050314773

encoder_variable_selection.single_variable_grns.SinWeekly.fc1.weight f4 [8, 8]
000000 b0 c3 5e 3f a9 ea 89 bf 04 d3 51 bf f6 c9 84 bf
       0.87017345 -1.0774738 -0.8196261 -1.0374134
000010 63 7d b5 be 5f a7 58 be 4f b3 a7 3e e0 f9 ee 3e
       -0.35447225 -0.21157597 0.3275399 0.46675014
000020 7c 22 25 be 27 bd b2 3e 2c fd 0b be 64 9b 0c be
       -0.16126436 0.34909937 -0.13670796 -0.13731152
000030 fb 9d 2e be dc 69 35 3f ae 71 9b be 8b 52 6f be
       -0.17052452 0.70864654 -0.30360168 -0.23371331
000040 b6 b3 bf bd 57 90 6e bd 0f bf af be 42 54 89 3e
       -0.09360449 -0.058243122 -0.34325454 0.26822096
000050 37 75 4c bf f7 68 cd 3e 01 55 79 3f 79 b4 9c 3e
       -0.79866356 0.40119144 0.9739533 0.3060644
000060 76 c7 9f 3e 76 6c 1a 3e f0 0d 95 be 8e 0b 80 3e
       0.31206864 0.15080437 -0.29112196 0.25008816
000070 52 28 c5 3e e5 44 2f 3c d7 fc c3 3e 95 5c 29 3f
       0.38507324 0.010697578 0.3827884 0.66156894
000080 a0 e9 1c bf b4 82 a9 bd a7 bb 93 3f a4 e8 1d 3d
       -0.61293983 -0.08276883 1.1541642 0.03855194
000090 ac 01 0b 3e 5a b3 33 3f 03 a6 14 3f ad a7 77 bf
       0.13574857 0.70195544 0.58065814 -0.9674023
0000a0 dd 5a c7 3e 14 26 dc bd 9d 49 76 bf fe 01 3b 3e
       0.3893651 -0.1074945 -0.96206075 0.18262479
0000b0 e5 df f8 bc 6b 42 7c be 1d 8b bf be 60 61 c3 bc
       -0.030380199 -0.24634711 -0.37410823 -0.023850143
0000c0 72 55 5a bf 15 70 3f be 0d b9 63 bf f6 aa ff 3e
       -0.8528663 -0.186951 -0.8895424 0.4993512
0000d0 5c 81 c0 bc 81 ec 17 be 5e 60 6f be 57 9c d1 3d
       -0.023499183 -0.14836313 -0.23376605 0.102348976
0000e0 7f d1 db 3e 1d 4b f6 bc cc 31 45 bf 48 62 46 3e
       0.4293327 -0.030065114 -0.7702911 0.19373429
0000f0 c7 3e 49 3f 63 d9 08 3f 84 04 5c be e6 42 ad 3e
       0.78611416 0.53456706 -0.21486098 0.33840102

encoder_variable_selection.single_variable_grns.SinWeekly.fc1.bias f4 [8]
000000 61 68 7e 3d 36 b5 9f 3d 77 86 22 3d e2 0f 1b 3d
       0.062111262 0.07798235 0.039679017 0.037856944
000010 76 8d 0f 3d b3 49 57 bd 24 c7 44 3c cc 4f b6 bd
       0.035047017 -0.05256052 0.012010369 -0.08901939

encoder_variable_selection.single_variable_grns.SinWeekly.fc2.weight f4 [8, 8]
000000 19 24 89 bf 22 53 3d 3e 50 eb 8e bf ef 95 2a bf
       -1.0714141 0.18488744 -1.1165562 -0.6663503
000010 e8 74 45 bf a5 1f 46 3e b7 41 0f 3f 8c 22 b1 be
       -0.7713151 0.19348009 0.5595965 -0.3459667
000020 1c fe 9f be cf c0 90 be 35 82 00 3f 8f 09 0e 3e
       -0.31248558 -0.282721 0.5019868 0.13870834
000030 5d 63 a8 be 79 a7 0a 3f 1a b5 38 3f 57 94 7c 3e
       -0.32888308 0.54161793 0.7215134 0.24665962
000040 cc e0 2f 3f 91 19 d8 be e4 0b 6d bd de 09 06 bf
       0.6870239 -0.42207006 -0.057872668 -0.52358806
000050 ab 8c 33 3f 73 d7 87 be 04 05 f4 3e dd ca 13 3f
       0.7013652 -0.26531562 0.47660077 0.5773142
000060 be 0c 37 3d 36 3d 68 3f 20 75 f3 3e 8b ce 2e 3e
       0.044689886 0.907184 0.47550297 0.17070977
000070 c5 64 dd 3c e1 64 40 bf 86 76 fa 3d 6c 02 2a bf
       0.02702559 -0.7515393 0.12229638 -0.66409945
000080 7e 61 8d bf 65 41 98 3f f5 f0 98 be d1 6a 7d be
       -1.1045377 1.1894957 -0.29871336 -0.24747778
000090 43 0a bc be 7e 47 34 3f 2e 27 85 3e 63 3f fa bd
       -0.3672658 0.7042159 0.26006454 -0.12219121
0000a0 fd 3f a4 3e a1 18 f9 be f1 a8 1a bf 6d 3e ef bc
       0.3208007 -0.48651603 -0.60414034 -0.029204572
0000b0 e9 0c 16 bf b8 3d 2c 3e d0 34 bc be 7c 86 48 be
       -0.5861345 0.16820419 -0.36759043 -0.19582552
0000c0 c7 56 e0 3d 3a 70 e5 bb 4b 23 00 3c 7f 8d 00 3d
       0.109540515 -0.007001904 0.0078209145 0.03138494
0000d0 0c 9e f7 3e 16 ec d5 be 0f 6f 25 3d 24 3a 8a 3e
       0.48362768 -0.41781682 0.040389117 0.26997483
0000e0 e3 c5 9d 3e da ec 4c be 0d bc 98 3e a7 ab 3d 3f
       0.30815038 -0.20012227 0.2983097 0.74090046
0000f0 6c d7 0b 3f 11 f8 05 bf 34 54 01 3f 63 f8 45 bf
       0.5462558 -0.52331644 0.5051911 -0.77332133

encoder_variable_selection.single_variable_grns.SinWeekly.fc2.bias f4 [8]
000000 c7 54 81 3a da bb 54 bd ed ee f0 bc a2 40 bb 3d
       0.0009867185 -0.05193696 -0.029410804 0.09143187
000010 89 e4 ad bd c7 72 5f ba cf 02 e7 3b 28 15 11 3d
       -0.08490855 -0.0008523878 0.0070498954 0.035420567

encoder_variable_selection.single_variable_grns.SinWeekly.gate_norm.glu.fc.weight f4 [32, 8]
000000 78 7d 85 3e 53 35 df 3d 6b 51 4f be 84 3f 04 be
       0.26072288 0.10898843 -0.20245902 -0.12914854
000010 9d 30 5c 3d 10 2a d5 be 7b 44 83 be 70 b4 2c 3e
       0.0537573 -0.41633654 -0.25638184 0.16865706
000020 1c a3 46 be f8 db 63 3c ef 06 ef bc ca ae 66 be
       -0.19398159 0.013907425 -0.02917811 -0.22527614
000030 7f bb 80 3d a8 27 3a 3e b8 c4 bf 3e 3d 51 ee bc
       0.06285762 0.1817919 0.37454772 -0.029091472
000040 7f 28 8b 3e 5f bc 7a be 41 08 1a 3e be 9a 30 bd
       0.27179334 -0.2448592 0.15042211 -0.043116324
000050 a7 60 cb 3e 70 e0 2a 3e 3f 0e 6d be b0 62 be 3d
       0.39722177 0.16687179 -0.23149966 0.09296167
000060 33 10 53 3b 88 48 81 be 84 15 17 be 0f f1 80 be
       0.00322057 -0.2525065 -0.14754301 -0.25183913
000070 8e 86 95 3e e3 94 7c 3e a0 ba 92 be 02 0b 41 3e
       0.2920422 0.24666171 -0.2865801 0.18851855
000080 4e aa d4 3e 28 75 73 3d ef 4b ff 3d de 64 cd 3e
       0.41536182 0.0594379 0.12465655 0.40116018
000090 fc 75 81 3e a9 f3 71 be 02 34 80 3e ee a7 ea 3d
       0.25285327 -0.23628105 0.2503968 0.11457811
0000a0 1d c6 fe 3d 30 d1 c7 be d0 36 63 3e fd 04 26 3e
       0.12440131 -0.39026785 0.22188878 0.1621284
0000b0 5b 7b af be 6b c3 50 be f1 e6 c2 bd 2e a8 6b 3e
       -0.342738 -0.20387046 -0.09516705 0.23013374
0000c0 25 f3 9d bd a5 bd a7 bc 91 27 ea be 2a d8 80 bd
       -0.07712392 -0.020476172 -0.45733312 -0.0629123
0000d0 d6 3d 13 bd 94 1e bc be 00 ab 6b 3d fb d1 b3 bd
       -0.035947643 -0.3674208 0.057536125 -0.08780285
0000e0 69 ab d0 be 7e 16 1e 3d e5 d5 b4 3e 05 96 d1 be
       -0.40755776 0.03859567 0.3531944 -0.40934768
0000f0 35 83 57 be 57 89 80 bd 18 48 71 bd 15 1f 9b 3d
       -0.21046145 -0.062761955 -0.058906645 0.07574288
000100 d4 11 5b 3e b1 29 82 3e 20 6d 78 be 93 1e c4 3e
       0.2139352 0.25422433 -0.24260378 0.38304576
000110 a0 45 1a 3b 26 74 bd be c3 1e 7d 3e 02 f5 a1 3e
       0.0023540035 -0.37002677 0.24718766 0.3163224
000120 c4 1e 3a bd c2 22 b3 be 66 f1 69 3e 44 d8 21 be
       -0.045439497 -0.34987456 0.22845992 -0.15805155
000130 52 48 83 be 86 f5 16 be 45 50 5e bb 5d e5 5d 3d
       -0.25641114 -0.14742097 -0.0033922356 0.054173816
000140 88 58 3a 3e e8 7b 1b 3e c9 36 1b be 9b d2 43 be
       0.18197834 0.15183985 -0.15157618 -0.19123308
000150 58 fb 8c bd f3 dd 36 3e 8b 36 5d 3d e7 f5 7c 3e
       -0.068838775 0.17858104 0.054007094 0.2470318
000160 91 8a 1b 3d a1 e5 47 3d 8c 2e bd be fa b1 c8 bd
       0.037973944 0.048802976 -0.36949575 -0.09799571
000170 2f 0d 3f be e1 00 c0 be be 5f 96 3e 98 7a 7b 3e
       -0.18657373 -0.3750067 0.2936992 0.24558485
000180 4a 60 dd 3e c2 0c de 3e 33 84 0f 3e a8 98 05 be
       0.43237525 0.43369108 0.14015274 -0.13046515
000190 1b c8 cb 3e 1d ff da be 73 66 b2 bc 19 14 c1 be
       0.39801106 -0.4277276 -0.021777367 -0.37710646
0001a0 9b ae 36 3e a9 f9 f0 bd cd fc 9d 3e af f7 fb 3d
       0.17840044 -0.11766369 0.30856934 0.12303101
0001b0 13 d1 78 3e 5b 0d 6d bd ce 4e 8f be 67 7b b6 be
       0.24298505 -0.057874065 -0.2798981 -0.35641024
0001c0 22 0d c2 be 59 a5 7e be 2f be 9f 3e 31 a5 1b 3d
       -0.37900645 -0.24867763 0.31199786 0.037999336
0001d0 16 3f 07 bd 39 4a b9 3e 08 84 86 be d6 66 d6 3d
       -0.033019148 0.3618944 -0.26272607 0.10468833
0001e0 49 98 96 3d 08 fd 0b bf 6f 33 91 be 2f 2c 37 3e
       0.07353265 -0.5468297 -0.28359553 0.17887948
0001f0 7e 0d 62 be c3 98 0a be f9 f5 ed 3e 60 d9 c4 3d
       -0.2207546 -0.13534836 0.46476725 0.096117735
000200 34 7e 8b 3e 1d e7 1b 3e 6e e9 71 3d be 8f e8 3e
       0.27244723 0.15224881 0.059060507 0.45422167
000210 20 81 96 3e de 55 e8 be 10 88 9f 3d df 87 db be
       0.2939539 -0.4537801 0.07789624 -0.428771
000220 eb 76 2b 3e 53 69 b4 be f7 95 3e bd d7 e7 ac bd
       0.16744582 -0.35236606 -0.046529736 -0.084426574
000230 4f 14 96 3d 79 ac 8c 3e 90 6c 80 be b5 99 ae be
       0.07328092 0.27475336 -0.25082827 -0.34101644
000240 c5 f9 7e 3e 93 ae 79 be a3 fa a9 be f0 e4 a6 bd
       0.24899967 -0.24383001 -0.33199033 -0.08149135
000250 ff 32 f2 bd ee a9 95 be e1 2b 68 bc c8 3e ab 3d
       -0.11826133 -0.2923121 -0.014170618 0.08361584
000260 af 28 a2 3e ad bc f6 3d 74 4d f8 3d 9b 0d 08 bc
       0.31671664 0.12047706 0.12124148 -0.008304025
000270 bc 49 f8 bd 61 30 20 bc eb 82 d3 bd a9 8b e6 3d
       -0.12123439 -0.009777159 -0.10327705 0.11257107
000280 bc 16 3b 3e 84 5a 9c 3e 0f d2 49 be 71 39 63 3d
       0.18270391 0.30537808 -0.19709037 0.055474702
000290 2b 6c 06 3d 44 0b 5b be 61 29 8b 3e c4 1c a8 3e
       0.032818 -0.21391016 0.27180007 0.32834446
0002a0 2e ac 94 bc 28 49 a6 be 87 f2 d2 3e 2a 17 33 3e
       -0.018148508 -0.3247769 0.4120066 0.17489305
0002b0 55 f2 8f be 1c 01 fb bd 9d a0 d1 3e 34 a1 8c be
       -0.28114572 -0.12256071 0.4094285 -0.27466738
0002c0 f6 1d 34 3c 7f 81 eb b7 4f 8e c0 bd 15 5f a2 be
       0.010993471 -2.8074484e-05 -0.09402143 -0.31713167
0002d0 91 12 29 be f5 f6 82 be 59 09 c1 3b 4c 35 3b 3e
       -0.16510989 -0.25579038 0.005891007 0.1828205
0002e0 11 21 73 be 33 54 b3 3e b3 e6 44 3e a9 ca 7a bd
       -0.23743083 0.35025176 0.1922863 -0.061228428
0002f0 a3 7d 76 3e 72 e5 bf bd 4f d6 ec bd b7 9d 97 be
       0.24071364 -0.09369935 -0.115643136 -0.29612514
000300 a9 c0 a8 bc 71 ce 2b 3b c9 cf e8 3c a3 c6 84 be
       -0.02059968 0.0026215578 0.028419392 -0.25932798
000310 9c 2d df 3e 4e 81 e4 bd b0 83 3b bd 45 11 10 be
       0.43589485 -0.111574754 -0.045779884 -0.14069088
000320 f7 12 be bd fa c8 75 be ec df a3 bc c0 50 98 3e
       -0.09280961 -0.24002448 -0.020004235 0.29749107
000330 14 b4 0c 3e 02 e0 c2 3d c3 de 93 be 55 0d 3f 3e
       0.1374057 0.09515382 -0.2888089 0.1865743
000340 08 a1 ab bd 30 74 91 be 59 c6 82 be c6 ea 8a be
       -0.08380324 -0.28408957 -0.25541952 -0.27132243
000350 08 3f 8b bc cb c8 9c 3e e1 53 4e be f4 d4 27 be
       -0.01699783 0.30621943 -0.20149185 -0.16389829
000360 81 1c a2 3e 2d cf f7 bd df 40 02 3e 05 cc 6a 3e
       0.31662372 -0.121000625 0.12720059 0.2292939
000370 88 a8 54 3e 25 df 39 3e b2 9a 88 3e 9c bc 76 bc
       0.20767415 0.18151529 0.26680523 -0.015059616
000380 a1 6d d7 be f6 42 bb be 7b a2 23 3e 1a cb 1a be
       -0.42075828 -0.36574525 0.1597995 -0.1511654
000390 f5 cb 0f bd b3 10 8c 3e cc 9d 89 3d 3d 3e 7d 3e
       -0.035106618 0.2735649 0.067195505 0.24730773
0003a0 6f e4 a2 be b4 86 12 3d 14 ed bd be ef 5e 34 3e
       -0.31814906 0.035772994 -0.3709494 0.1761434
0003b0 9e 47 9a 3e d9 26 2a be 7d 86 ea bd c0 13 13 3e
       0.30132765 -0.16616382 -0.11451433 0.14363003
0003c0 b0 bb 0b be 51 49 64 3e 1b 45 a5 be 95 c0 01 3d
       -0.13645816 0.22293593 -0.32279286 0.0316778
0003d0 f0 70 bd bc a0 da b5 be 7a c1 90 bd 85 27 11 bd
       -0.023125142 -0.3551836 -0.07068153 -0.03543808
0003e0 76 cd 89 3d 6e ba d9 3e 90 c2 81 be e5 bb ac 3e
       0.06728642 0.42525047 -0.25343752 0.33737102
0003f0 64 d9 76 bd e2 69 80 be 25 e6 be bd 80 02 4e be
       -0.060265914 -0.25080782 -0.0932124 -0.20118141

encoder_variable_selection.single_variable_grns.SinWeekly.gate_norm.glu.fc.bias f4 [32]
000000 65 ae 03 3d 85 83 4d 3d 74 c7 13 be 40 5b 51 3d
       0.032148737 0.050174255 -0.14431554 0.051112413
000010 bd c5 a9 3d f2 35 bc 3d 97 7c 0c be 32 5c dc bd
       0.08289669 0.09189977 -0.13719402 -0.10759772
000020 e4 03 66 3d cf 69 af bc fb 86 29 3a 17 da 32 3d
       0.056156054 -0.021412758 0.0006466952 0.043665018
000030 ef ea f7 bd f3 05 a8 3c ee 36 e8 3c 69 a6 c3 3c
       -0.12105357 0.02051065 0.028346505 0.023883061
000040 1e 23 14 bc 37 5e f3 bc 1f 1c b1 bc 17 06 f6 bd
       -0.009041576 -0.029708011 -0.021619854 -0.1201288
000050 64 7d 3c 3d 28 ca 8e 3d 64 1e b8 bd 28 3e 86 3d
       0.04601802 0.06972152 -0.089901716 0.06554824
000060 2a 88 45 bd 20 6f ee bc 3a c0 55 bb 18 7f e0 3b
       -0.04822556 -0.029105723 -0.0032615797 0.0068510883
000070 c3 77 c7 3d 6d 47 9d bc 0b 50 46 3c 3c 22 9e 3c
       0.097396396 -0.019199098 0.012104045 0.019303434

encoder_variable_selection.single_variable_grns.SinWeekly.gate_norm.add_norm.norm.weight f4 [16]
000000 1a c7 79 3f bc 63 66 3f 2f d1 81 3f 54 b4 70 3f
       0.9756943 0.8999593 1.0141963 0.9402516
000010 e3 4d 76 3f bd 2c 83 3f dd 42 86 3f 50 e3 4e 3f
       0.96212596 1.0248028 1.0489155 0.808156
000020 96 55 78 3f b5 a1 77 3f 10 a5 71 3f 00 25 6d 3f
       0.97005594 0.9673112 0.9439249 0.9263458
000030 68 5c 82 3f dd dc 6b 3f 28 d6 85 3f e9 4d 8d 3f
       1.018445 0.92133886 1.045598 1.1039401

encoder_variable_selection.single_variable_grns.SinWeekly.gate_norm.add_norm.norm.bias f4 [16]
000000 0a 05 94 bd b7 c7 6f 3d e5 0f cf bc b4 84 86 3d
       -0.072275236 0.058540072 -0.025276134 0.0656828
000010 92 9b 8d 3a 43 4d 40 3d f4 fe b1 bd 40 9e 85 bc
       0.001080381 0.046948683 -0.086912066 -0.016310811
000020 98 e4 8f 3d 2b 4c 4f bd 0d 87 fe bb f3 9e 5c 3d
       0.07026023 -0.05060975 -0.007767564 0.053862523
000030 9a f6 4f bd 02 78 79 3c 18 42 28 3b 97 0d a6 3c
       -0.050772287 0.015226366 0.002567416 0.020270152

encoder_variable_selection.single_variable_grns.VaccinationFull.resample_norm.mask f4 [16]
000000 5d ab fe bd 16 61 66 bd f7 e8 4d 3d e8 d1 c6 bc
       -0.12435029 -0.056244932 0.050271 -0.024270013
000010 23 99 0b 3e 4c 18 2a bd 52 30 b2 3d f0 b7 38 3e
       0.13632636 -0.041527078 0.087006226 0.18038917
000020 9a ff c5 3c 43 a6 d7 bc 66 a9 fa 3b 63 ce 8c bd
       0.024169732 -0.026324397 0.0076495884 -0.06875303
000030 94 52 70 bd 31 24 12 3e ee a6 d4 bd 6b 11 94 bd
       -0.058672503 0.14271618 -0.10383402 -0.07229885

encoder_variable_selection.single_variable_grns.VaccinationFull.resample_norm.norm.weight f4 [16]
000000 af 07 5d 3f c2 aa 65 3f ac ba 87 3f a2 f4 7e 3f
       0.8633985 0.8971368 1.0603843 0.9959203
000010 53 02 95 3f 7d 24 77 3f 00 f0 83 3f f8 bf 94 3f
       1.1641334 0.9654005 1.0307617 1.1621084
000020 28 92 83 3f e3 57 7c 3f ee e9 81 3f 14 2e 6f 3f
       1.0278978 0.98571604 1.0149515 0.93429685
000030 c0 b2 6e 3f 01 e8 8f 3f 7b 8e 5e 3f 32 6a 61 3f
       0.932415 1.1242677 0.8693616 0.88052666

encoder_variable_selection.single_variable_grns.VaccinationFull.resample_norm.norm.bias f4 [16]
000000 e2 d9 f9 bd df 4f e7 3d 99 61 87 bd d1 f6 72 bd
       -0.12199761 0.11294531 -0.06610412 -0.059317414
000010 1d 2f fd bd 63 8f 14 3d 0a 3a af 3c 43 72 e5 3d
       -0.12362502 0.036269557 0.02138998 0.11203434
000020 6c b8 84 3c d2 06 5b bb ed 0d 8d 3c b8 6a 07 bd
       0.01620122 -0.0033420813 0.017218554 -0.03306076
000030 01 aa aa bc 33 77 22 bd 01 cd bf bb 26 da 8e 3d
       -0.020833017 -0.03966446 -0.005853296 0.06975202

encoder_variable_selection.single_variable_grns.VaccinationFull.fc1.weight f4 [8, 8]
000000 1b 90 a8 3e 2d 05 df bd ff 41 1a bf 7b 2c a0 be
       0.32922444 -0.10889659 -0.6025695 -0.31283936
000010 67 56 06 3f 10 70 3a 3e d7 cc f4 be 70 de 64 3d
       0.5247559 0.18206811 -0.4781253 0.055876195
000020 28 48 b4 3d 68 7c aa bd 1a 0b 2e bf 07 1c 71 bf
       0.08802825 -0.0832451 -0.6798569 -0.9418339
000030 27 ed f4 bd b5 04 8d be 0c 09 1d 3f 20 ed 8f be
       -0.11959296 -0.27542654 0.6134193 -0.281106
000040 f0 03 9c 3d d3 cd ff be 9c dd 0e bd a2 6f 88 be
       0.076179385 -0.4996172 -0.034879312 -0.2664767
000050 23 53 d2 be d8 24 ae 3e fb 16 25 be c8 69 1d bf
       -0.41079053 0.34012485 -0.16122048 -0.61489534
000060 f3 38 0a be 4d 84 57 bf a1 a7 45 be 29 ce ca 3e
       -0.13498287 -0.8418625 -0.19302227 0.39610413
000070 0e 30 43 bf a0 25 12 3f 5c 06 7d 3d d4 61 4b bd
       -0.762452 0.5708866 0.061773643 -0.049653843
000080 a5 04 a7 3e 0e 2d 0a 3f 69 89 61 3e 6d be ef 3e
       0.3262073 0.53975 0.22025074 0.4682497
000090 2a f9 56 3d 91 f1 a8 3e bb 6a f8 3e 3d d8 36 3f
       0.052483715 0.329968 0.4851893 0.71423703
0000a0 73 5c b9 bd 05 e2 88 3e ad ae 91 be ca 83 9c bd
       -0.090508364 0.2673494 -0.2845358 -0.07642324
0000b0 b1 9b ad bd 2b f4 3b bf 00 43 52 bf f7 ef db bf
       -0.084769614 -0.73419446 -0.82133484 -1.7182606
0000c0 78 0e 0b bf 72 16 97 3e 2d cd 4d 3e 04 c5 50 3e
       -0.5431895 0.29509312 0.200978 0.20387655
0000d0 15 14 82 3f ab df e4 bd ae a1 3f 3e 3d b0 3d 3e
       1.0162379 -0.11175474 0.1871402 0.18524261
0000e0 ab 30 eb 3e e5 91 8b 3d 94 bd 37 bf 04 1f 86 bc
       0.45935568 0.068149365 -0.7177365 -0.016372211
0000f0 ed bc 8b be bf 36 a2 bf f2 bd e8 be c4 e0 d9 bf
       -0.27292576 -1.2672957 -0.45457417 -1.7021718

encoder_variable_selection.single_variable_grns.VaccinationFull.fc1.bias f4 [8]
000000 68 37 3d bd e8 3f 72 bd 8e f0 b0 3c 64 0e ae 3c
       -0.046195418 -0.059142977 0.02159908 0.021247096
000010 ee 2a 52 3d 62 86 22 3c b2 d8 87 bd 1a dd de 3d
       0.051310472 0.009919735 -0.06633128 0.108820155

encoder_variable_selection.single_variable_grns.VaccinationFull.fc2.weight f4 [8, 8]
000000 ea 02 24 be 06 69 be 3c e2 ab ad be ed 03 30 bf
       -0.16016737 0.023243438 -0.339202 -0.6875599
000010 f2 89 70 bf c3 d8 87 3d 2b d1 35 bf 21 fe e1 bc
       -0.9396049 0.06633141 -0.7102229 -0.027586998
000020 5e 58 4b 3f 37 72 3c be a3 67 af be c0 3a 8c be
       0.7943171 -0.18402945 -0.34258756 -0.27388573
000030 4f 0a ad be c0 12 f3 be 1d f6 cb 3e 42 d6 35 bd
       -0.33796927 -0.47475243 0.39836207 -0.044393785
000040 b1 06 da bf 83 d9 f7 bd fd bf 6f be 4a 91 14 3f
       -1.7033292 -0.12102034 -0.23413081 0.58034194
000050 01 61 c3 be 06 97 a1 3e a6 ca 48 3e 45 45 00 3f
       -0.38159946 0.31560534 0.19608554 0.50105697
000060 8a 4a 65 3e ee 6e e4 be f6 75 35 3d 4d 4b d3 be
       0.22391716 -0.44615883 0.04430195 -0.41268387
000070 f6 8e 2c 3f 66 ba 47 bf a9 fb 95 3d 0f e0 82 bd
       0.6740564 -0.78018796 0.07323391 -0.06390392
000080 cf 81 c2 be 9a 1e b6 be 68 34 a1 3e 14 df 4c be
       -0.3798966 -0.35570222 0.31485295 -0.20006973
000090 8f cc ab 3e f9 5e c6 3e 03 00 9d bf a4 a3 67 3f
       0.33554503 0.38744333 -1.2265629 0.9048407
0000a0 6c f3 c5 be 3d 54 98 3e 10 85 40 3f f4 e4 95 3e
       -0.3866228 0.2975177 0.7520304 0.2927624
0000b0 00 78 cb 3d 89 e2 ba bd 1b 32 3a be 52 17 87 bf
       0.099349976 -0.091252394 -0.18183176 -1.0553992
0000c0 a1 33 1b 3f c5 86 8e bd a2 1b e4 bd 88 71 4a 3f
       0.60625654 -0.06959299 -0.11138083 0.79079485
0000d0 df 20 1a 3e 8f a0 e5 be eb 92 b8 bd 54 a8 74 3e
       0.15051602 -0.4484906 -0.090123974 0.23892337
0000e0 3a 2e 8f be a9 6a 85 3e c6 8d c8 3e 25 08 c0 3e
       -0.27964956 0.26057938 0.39170665 0.37506214
0000f0 0d 1f 1e bf a7 04 21 bf 45 38 aa 3d bd 4e e4 be
       -0.6176613 -0.62897724 0.08311514 -0.44591323

encoder_variable_selection.single_variable_grns.VaccinationFull.fc2.bias f4 [8]
000000 60 af 5f bd f7 e5 d5 bb c2 0a 6f 3c 97 f6 b7 3c
       -0.05461061 -0.006527658 0.014589967 0.02245645
000010 88 4f c3 3d 1a 8a 9f bb e8 99 2d 3d 59 ca c1 3b
       0.09536654 -0.004868758 0.042383105 0.0059140143

encoder_variable_selection.single_variable_grns.VaccinationFull.gate_norm.glu.fc.weight f4 [32, 8]
000000 d0 ad c4 3d 29 0e 8f 3e b8 70 ba 3e d4 ef 80 3e
       0.096034646 0.2794049 0.36414123 0.25182974
000010 95 04 c5 be 75 b4 b8 3e fb ea 0d be 02 d2 fd bd
       -0.38480058 0.36075178 -0.13859169 -0.123935714
000020 46 c9 e3 be 79 39 44 3e ce 8b c8 be 93 30 cf 3d
       -0.44489497 0.19162549 -0.39169163 0.10116687
000030 83 08 8f 3e 25 63 5d be 0c 34 63 3e fb d2 8d be
       0.2793618 -0.21619852 0.22187823 -0.27700028
000040 7d 6b ed bd 20 63 a6 3e ab ae d4 3d a7 bf 2b 3e
       -0.115927674 0.324975 0.10384878 0.16772328
000050 a1 76 89 be d2 b5 00 3f 52 4c 64 be a3 01 0a 3f
       -0.2684832 0.50277436 -0.22294739 0.5390875
000060 30 9b 80 be 20 bb 75 be b6 de 01 3e 12 55 ba 3e
       -0.251184 -0.23997164 0.12682614 0.36393028
000070 4d 5d c9 be e7 b3 a3 3e 68 03 78 3d bc 9d 92 3e
       -0.39328995 0.31973192 0.060550123 0.28635967
000080 48 64 47 3e 49 6b ab bd 4d b9 8c 3e 21 eb a8 be
       0.19471848 -0.083700724 0.27485123 -0.3299189
000090 3a 35 71 3e 75 51 d1 bd 75 3d a8 be 71 f4 01 3e
       0.2355546 -0.10220615 -0.32859388 0.12690903
0000a0 36 95 8f 3e 4f b3 a6 3e 41 eb 88 3e 1a 95 a3 be
       0.28043526 0.32558677 0.26741984 -0.31949693
0000b0 5a 1d d4 bd 4e 29 8e 3e c4 d4 a8 bd 0a 73 ba 3e
       -0.10357161 0.27765888 -0.08243707 0.36415893
0000c0 fe d5 2a be e3 78 a7 3e 6f da e3 3b 5d 56 1d 3b
       -0.16683194 0.32709417 0.0069535295 0.0024007775
0000d0 e7 3d 94 bd 0c e1 df 3d 1f 44 b3 3e 68 d6 83 3a
       -0.072383694 0.10931596 0.3501291 0.0010058405
0000e0 3b 12 93 be 3e d6 35 3e 93 ec d0 3d 30 7c ef be
       -0.28724846 0.17757508 0.10201373 -0.46774435
0000f0 5e 56 dd 3e 47 66 d9 be 1d 67 ae 3e b8 e1 01 bf
       0.43229955 -0.42460844 0.34063044 -0.50735044
000100 36 82 67 3c 90 34 88 3e 72 1d 85 bd e7 85 b6 be
       0.014130166 0.26602602 -0.06499757 -0.35649034
000110 c0 70 9e be df 99 27 3e e3 37 68 3c 1b d4 b7 3e
       -0.30945396 0.16367291 0.014173481 0.3590401
000120 6a 37 8c 3d df 29 18 3e 08 d5 d7 3d c8 e6 4b be
       0.06846507 0.14859723 0.10538679 -0.19912255
000130 6c ed 69 be 01 f0 a1 be 3b 37 aa be c1 fd 8a be
       -0.22844476 -0.3162842 -0.33245263 -0.27146724
000140 b0 4e 19 be 6c bb 09 be 00 94 e5 3d 5d e5 bc be
       -0.14971423 -0.13450402 0.112098694 -0.3689374
000150 4f 98 6a 3e ae 92 10 3d a3 1a ed 3d 1b 45 88 bd
       0.22909664 0.035296135 0.11577346 -0.06653806
000160 4a 56 2d be 7d 25 b7 be 57 22 e9 3c f0 45 cb 3c
       -0.16927448 -0.3577079 0.028458757 0.024813622
000170 d3 b3 8a 3c e6 30 0d 3c fd 65 92 be 54 4e 88 3e
       0.01693145 0.008617615 -0.28593436 0.2662226
000180 f7 7e 81 be 8a 58 79 3e 80 11 89 be f8 9d b3 be
       -0.2529218 0.24350181 -0.26771164 -0.35081458
000190 f9 08 0d 3d 25 d3 6b be 53 ee 8b be ac 4c a5 be
       0.034432385 -0.23029764 -0.27330264 -0.32285058
0001a0 e4 8b c1 3e 31 ea a7 be 41 39 f1 3d 59 a3 a5 3e
       0.3780204 -0.3279586 0.117784984 0.32351187
0001b0 56 b2 87 3e 1e 11 9e 3e 57 8f 6c 3d b0 22 a0 be
       0.26503247 0.30872434 0.057753887 -0.31276464
0001c0 f5 08 3a be e2 0f 21 bc b4 f8 9c bd dd 16 1f bd
       -0.1816748 -0.009830447 -0.07664624 -0.038840163
0001d0 8c 07 22 be 0f 8e 80 bd 89 85 7b be 09 f4 9e 3a
       -0.15823191 -0.062770955 -0.24562658 0.0012127172
0001e0 3a 45 ac be fc f1 e9 bd 86 34 f5 3d b9 85 06 bc
       -0.33646566 -0.11423108 0.11972909 -0.008210593
0001f0 7a 54 73 3e c0 83 f8 bd 1c a6 bd 3e 91 77 9c bd
       0.23762694 -0.12134504 0.37040794 -0.07639993
000200 17 5a 06 3e 1e 22 56 be a5 67 6d 3e 58 c2 06 3c
       0.13120304 -0.20911452 0.23184069 0.008225046
000210 cf 26 10 3e 77 37 29 3e 99 29 8f bd 24 de eb be
       0.14077304 0.16525064 -0.06990356 -0.46067917
000220 7b af 23 be 4c 0b ba bc bf b2 83 3e fc 64 b7 3d
       -0.15984909 -0.022710465 0.2572231 0.08954808
000230 d2 36 ee 3d 47 1e 6b 3e 98 a7 b1 bc cf ea 57 bd
       0.1163155 0.22960769 -0.02168636 -0.052714165
000240 f6 df 82 3e 93 1c a4 3e 52 76 11 bd 6f ea 99 3e
       0.25561494 0.3205305 -0.03551323 0.3006167
000250 39 63 0e 3e 29 56 8f 3e a5 a8 7e 3d 48 6d 2c 3e
       0.13905038 0.27995422 0.06217255 0.16838562
000260 08 59 b6 3c 85 a0 35 3e cf 61 74 3e 26 33 49 3e
       0.02225925 0.17737015 0.23865436 0.19648418
000270 65 92 62 3d 6d 57 2d be 45 b1 36 be a5 9a 41 be
       0.055315394 -0.16927882 -0.1784106 -0.18906648
000280 f3 2f 6a bd 8f c4 84 be 91 9d 29 3e bb 43 e7 3e
       -0.057174634 -0.25931212 0.16564013 0.45168862
000290 c4 11 30 3d de ba 82 3c 34 74 ca bd 20 d7 84 3d
       0.042985693 0.015958246 -0.09885445 0.06486344
0002a0 33 d0 56 bb c2 aa 68 bd dc 9d c2 3e 0e 4a 5d bc
       -0.0032777905 -0.056803472 0.38011062 -0.013506426
0002b0 6c 8d 77 be 49 e9 12 3e 05 c6 d5 be d5 eb f7 3d
       -0.24175042 0.14346804 -0.4175264 0.12105528
0002c0 b7 54 29 3e 79 06 a7 3e 19 5c ac be aa 6c bb 3e
       0.16536222 0.32622126 -0.33664015 0.36606342
0002d0 0b ff 8c be 17 b8 22 3e 5a 62 a9 be fb 56 ab 3e
       -0.27538332 0.15890537 -0.3308285 0.33464798
0002e0 c4 81 9a be 31 2a 12 3e 25 57 b3 3e 71 89 5a 3d
       -0.30177128 0.14273907 0.35027424 0.05335373
0002f0 7f 57 10 be 8a a2 c9 be 73 37 d1 be b2 8f 1e be
       -0.14095877 -0.3938182 -0.40862617 -0.15484503
000300 86 86 61 3d 23 ca 21 3d 58 22 7c 3d cf 74 20 be
       0.055059932 0.039499413 0.06155619 -0.15669559
000310 43 f0 81 be 89 04 10 3e d0 8d 69 3e 54 c3 50 be
       -0.25378618 0.1406423 0.22808003 -0.20387012
000320 f3 a3 71 3e db c6 07 be a2 aa ad 3e 7d 3d 85 3c
       0.23597698 -0.13259451 0.33919245 0.016264671
000330 02 0b 8c 3e c6 c5 90 ba 59 91 13 3d ae 96 27 3e
       0.27352148 -0.0011045269 0.036027286 0.16366073
000340 0b 13 35 be b6 ea 06 3c b7 d4 ab 3e f0 14 63 be
       -0.17683046 0.00823467 0.33560726 -0.22175956
000350 9d 44 e2 3d 04 42 e1 be 8a c1 ca 3d 4e b1 c5 bd
       0.11048243 -0.43995678 0.09900196 -0.09652959
000360 7f 12 e3 bc 9a c3 62 3e 9a 54 94 3e 12 cd b3 3d
       -0.02771878 0.22144929 0.28970796 0.087793484
000370 b6 22 0f be 9f 39 3d 3e f7 3e b5 bd a9 03 48 be
       -0.13978085 0.18479012 -0.088499 -0.19532646
000380 e2 a3 d5 3e f3 bb 5d 3e 0b 7b 89 be 0c ea 4e 3e
       0.41726595 0.21653728 -0.26851687 0.2020647
000390 18 57 62 3e 84 64 24 3e e9 68 c4 be 7a f7 e2 3c
       0.22103536 0.16053969 -0.3836129 0.027705897
0003a0 18 76 72 be 59 a9 c8 be 7c db 79 be 70 be ae be
       -0.23677862 -0.39191702 -0.24400133 -0.34129667
0003b0 c5 aa 4e 3e 24 b2 03 be 9b b5 61 be 4d d0 7b bb
       0.20182331 -0.12860924 -0.22041933 -0.0038423717
0003c0 bd 9d c8 3e 85 5f 01 3c 0d 8b 4d bd 4c 96 81 3e
       0.39182845 0.007896309 -0.050181437 0.2530998
0003d0 f7 e9 27 be 9b 6d bc be 73 22 b8 3d 66 b2 d2 be
       -0.16397844 -0.36802372 0.08990946 -0.41151732
0003e0 a8 84 c3 be d0 66 9d 3e 93 ea aa 3e 0d f2 87 3e
       -0.38187146 0.30742502 0.3338209 0.26551858
0003f0 22 fd de bd 8a 0e c0 be 39 8e c9 3e ed b6 da be
       -0.10888125 -0.37511092 0.3936632 -0.42717686

encoder_variable_selection.single_variable_grns.VaccinationFull.gate_norm.glu.fc.bias f4 [32]
000000 8e 29 0c be 0e 61 a5 3d e7 6c bd bc a7 6e 84 bd
       -0.13687727 0.08075152 -0.023123218 -0.06466418
000010 9e a3 85 bd 2b 50 6d 3d 25 df 9e 3c 39 10 d6 3d
       -0.06525348 0.057937782 0.019393513 0.10452313
000020 6c 77 fe 3b e6 37 72 3c b5 9e 2e 3d 4e 8f 45 bc
       0.007765701 0.014783835 0.042631824 -0.012058092
000030 e1 69 48 bd da 48 50 bd de a3 8b bc cd a7 6e 3d
       -0.0489291 -0.050850727 -0.017045911 0.058265496
000040 0e 05 fb 3c bd 46 bf 3d d5 0c d1 3d b5 d9 e2 3d
       0.030642059 0.09339664 0.10207526 0.110766806
000050 fe 88 ff 3d 29 f9 34 bd 08 d9 ae 3c b4 d4 07 3e
       0.12477301 -0.04418293 0.021343723 0.13264734
000060 55 b2 1a 3b 83 ce 55 bd 94 be 29 bd 5d 25 cb bc
       0.002360483 -0.052198898 -0.041441515 -0.02479809
000070 46 df 0c bd 05 c5 fc bb 56 c6 8e bd 14 58 c4 3d
       -0.034392618 -0.0077139162 -0.06971423 0.09587112

encoder_variable_selection.single_variable_grns.VaccinationFull.gate_norm.add_norm.norm.weight f4 [16]
000000 5c 47 4b 3f 4c 6e 66 3f 7e a1 82 3f 03 ab 6a 3f
       0.7940576 0.9001205 1.0205534 0.91667193
000010 a0 1b 84 3f 83 35 77 3f 45 4a 60 3f 1d a5 47 3f
       1.032093 0.9656603 0.87613326 0.7798632
000020 e2 ef 6f 3f a9 17 6a 3f 22 99 73 3f e4 c6 55 3f
       0.9372541 0.9144235 0.9515554 0.8350661
000030 6d 39 72 3f be c3 7a 3f 27 35 58 3f 06 34 46 3f
       0.94618875 0.9795493 0.84456104 0.7742313

encoder_variable_selection.single_variable_grns.VaccinationFull.gate_norm.add_norm.norm.bias f4 [16]
000000 cd 39 e1 bd a8 ff c8 3d 17 7c 2b 3c 9a 2f 7d 3d
       -0.10997353 0.098143876 0.010466597 0.061812975
000010 9b e4 f0 bc f2 37 27 3d e4 93 6b bd cc 50 07 be
       -0.029405883 0.040824838 -0.057514086 -0.13214415
000020 7a e8 7a bd 6b 10 40 bd 60 77 2d bc 8c 9a 50 bc
       -0.061256863 -0.046890657 -0.010587543 -0.012732159
000030 78 5d 5a bc 32 55 fe bb 65 c2 1e bc b0 2d 4a 3d
       -0.013327949 -0.007761621 -0.009689902 0.049359977

encoder_variable_selection.single_variable_grns.Cases.resample_norm.mask f4 [16]
000000 00 9b 23 3c 5f 88 8c 3d 92 f4 a4 be 98 a7 e4 3d
       0.009985685 0.06861948 -0.32217842 0.111647785
000010 02 c4 96 3c 0d 5a dc 3c 69 e3 16 3c 1f 68 17 bb
       0.01840401 0.026898408 0.009209492 -0.0023102832
000020 32 da 8b be 01 4c 4b 3e fa ee 40 3e fd 43 c3 bd
       -0.27314907 0.19853212 0.18841162 -0.09534452
000030 e3 7f 34 be fe 9e a9 bc 5e 8e 86 3e a2 63 9f 3c
       -0.1762691 -0.020705696 0.26280493 0.019456688

encoder_variable_selection.single_variable_grns.Cases.resample_norm.norm.weight f4 [16]
000000 4f 68 69 3f 96 7e 84 3f f1 3c 26 3f 59 1f 88 3f
       0.9117479 1.0351131 0.6493674 1.0634567
000010 2e e0 72 3f 8a fa 80 3f 13 5e 85 3f ea fb 74 3f
       0.9487332 1.0076458 1.0419334 0.9569689
000020 ed cd 30 3f a0 f5 93 3f 3b fd 96 3f e2 3c 62 3f
       0.6906422 1.1559334 1.179603 0.8837415
000030 90 a5 4d 3f 2b 68 71 3f 43 e8 9c 3f b0 45 80 3f
       0.80330753 0.9429957 1.2258381 1.0021267

encoder_variable_selection.single_variable_grns.Cases.resample_norm.norm.bias f4 [16]
000000 d9 63 cf 3d 1b 5b ba bb c2 2b 7d bd 93 ca 24 be
       0.10126466 -0.00568713 -0.06180931 -0.16092901
000010 ca 23 73 be 1d 52 cc bd a0 f5 1a be 18 de c2 3c
       -0.23744121 -0.09976599 -0.15132761 0.023787543
000020 bd ef 89 3d 5c 8e 3e 3e a6 b8 86 3d c7 2c 8f bd
       0.067351796 0.18608993 0.06578188 -0.069909625
000030 a5 e3 11 bc 0c c0 fc 3d c5 8d a8 bc e1 8d f1 3d
       -0.008904372 0.123413175 -0.020575413 0.117946394
