All Experiments/1. Original Variables/Results/checkpoints/best-epoch=3.ckpt (torch, 847525 bytes, 815 tensors)

prescalers.AgeDist.weight f4 [8, 1]
0.17656139 -0.7207368 0.7090326 0.31574973 -0.72400767 -0.3507039 -0.5414957 0.023158614
00000000: 82cc 343e 3582 38bf 2983 353f f3a9 a13e
00000010: 9158 39bf 768f b3be 769f 0abf 22b7 bd3c

prescalers.AgeDist.bias f4 [8]
-0.112417996 0.28024378 0.7660094 0.41068524 -0.60824674 -0.48994744 -0.35518202 -0.13226818
00000000: 683b e6bd 1d7c 8f3e 3119 443f 5645 d23e
00000010: 0fb6 1bbf 64da fabe 6bda b5be 4f71 07be

prescalers.HealthDisp.weight f4 [8, 1]
0.89284694 -1.2848978 1.0952204 -1.1398095 0.53233176 -0.15574844 0.92761546 0.6611648
00000000: 9e91 643f 8877 a4bf 2f30 8c3f 47e5 91bf
00000010: e546 083f 857c 1fbe 3578 6d3f 1942 293f

prescalers.HealthDisp.bias f4 [8]
0.10041462 0.27706334 0.5167839 0.28968978 0.3834467 -0.5998924 0.4288939 0.09611137
00000000: 2ea6 cd3d 3fdb 8d3e f34b 043f 3852 943e
00000010: 2053 c43e 8c92 19bf fb97 db3e 0ad6 c43d

prescalers.SinWeekly.weight f4 [8, 1]
0.2484497 0.31688526 0.18520597 1.3427811 -0.33718476 -0.7066925 -0.1598606 -0.98099023
00000000: 9969 7e3e c93e a23e a2a6 3d3e 40e0 ab3f
00000010: 7ba3 acbe cde9 34bf 7fb2 23be 2d22 7bbf

prescalers.SinWeekly.bias f4 [8]
0.32756937 -0.06763156 -0.18576843 0.89718974 0.5936872 -0.0480604 -0.42796957 0.036518864
00000000: 2cb7 a73e 6a82 8abd 143a 3ebe 3aae 653f
00000010: e2fb 173f fbda 44bd d41e dbbe ce94 153d

prescalers.CosWeekly.weight f4 [8, 1]
0.26384053 -1.1322644 -0.6907118 1.1338454 1.074095 -0.23358306 -0.3008814 0.46176514
00000000: 1b16 873e 0aee 90bf 7dd2 30bf d921 913f
00000010: f27b 893f 6630 6fbe 200d 9abe 7b6c ec3e

prescalers.CosWeekly.bias f4 [8]
-0.15273897 -0.47697428 0.32897872 0.53483444 0.25711218 -0.0061723334 0.23326021 -0.718543
00000000: 9b67 1cbe f935 f4be e66f a83e e9ea 083f
00000010: 35a4 833e 4941 cabb c4db 6e3e 6ff2 37bf

prescalers.DiseaseSpread.weight f4 [8, 1]
-0.6119598 -0.29853982 -1.5281703 -0.8758175 0.7806393 1.1215099 0.34764588 -0.017788107
00000000: 66a9 1cbf 36da 98be 169b c3bf 9335 60bf
00000010: fad7 473f a38d 8f3f a4fe b13e 5db8 91bc

prescalers.DiseaseSpread.bias f4 [8]
0.32641974 -0.26822644 0.035667267 0.9257731 -0.25434417 -0.09790582 0.14162867 -0.33652595
00000000: 7d20 a73e fa54 89be d717 123d 77ff 6c3f
00000010: 6639 82be d982 c8bd 1b07 113e 214d acbe

prescalers.Transmission.weight f4 [8, 1]
1.3288901 -1.52755 -0.032975297 -0.29881135 -0.5146694 -0.5484558 0.82121027 0.98012626
00000000: 1219 aa3f c286 c3bf 1b11 07bd cdfd 98be
00000010: 60c1 03bf 9967 0cbf d63a 523f 8ee9 7a3f

prescalers.Transmission.bias f4 [8]
-0.0023412697 0.6597614 -0.61961675 -0.7208721 0.06705849 -0.08126398 -0.99339396 -0.5376127
00000000: fd6f 19bb 20e6 283f 349f 1ebf 138b 38bf
00000010: f655 893d bb6d a6bd 114f 7ebf fca0 09bf

prescalers.VaccinationFull.weight f4 [8, 1]
-0.766695 1.2792884 0.22601353 1.1318024 -0.581332 -1.0553521 -0.91475695 0.022045044
00000000: 2046 44bf b9bf a33f 1770 673e e7de 903f
00000010: 2dd2 14bf c715 87bf 832d 6abf cf97 b43c

prescalers.VaccinationFull.bias f4 [8]
0.20265484 -0.62027055 0.36447692 -0.40807256 -0.38388312 0.2884411 -0.3837343 0.010679232
00000000: c084 4f3e 0dca 1ebf b89c ba3e e3ee d0be
00000010: 548c c4be 8dae 933e d278 c4be f2f7 2e3c

prescalers.SocialDist.weight f4 [8, 1]
0.11278103 -0.1936889 -0.38213295 -0.5042432 -0.10781525 -0.4694075 -0.75488085 0.29739612
00000000: bef9 e63d 6256 46be eea6 c3be 1516 01bf
00000010: 3ece dcbd 2e56 f0be df3f 41bf 4e44 983e

prescalers.SocialDist.bias f4 [8]
0.19501583 -0.17536436 0.7289295 -0.6473351 0.06317537 -0.4295184 -1.0408713 -0.25089768
00000000: 3bb2 473e b792 33be 209b 3a3f c1b7 25bf
00000010: 1762 813d d6e9 dbbe 453b 85bf a975 80be

prescalers.Cases.weight f4 [8, 1]
0.27646527 0.8825405 -0.54630417 -0.47666132 -0.8853933 0.6786181 0.6588712 0.298324
00000000: db8c 8d3e 2dee 613f 97da 0bbf f40c f4be
00000010: 23a9 62bf eab9 2d3f c8ab 283f ecbd 983e

prescalers.Cases.bias f4 [8]
-0.68855447 0.6502207 0.8616312 -0.20360093 -0.48608673 0.32151976 0.20463312 0.028544525
00000000: 1b45 30bf dd74 263f dd93 5c3f c37c 50be
00000010: 5ce0 f8be 3d9e a43e 588b 513e 35d6 e93c

static_variable_selection.flattened_grn.resample_norm.mask f4 [2]
0.096532196 -0.093097374
00000000: acb2 c53d d6a9 bebd

static_variable_selection.flattened_grn.resample_norm.norm.weight f4 [2]
1.1002455 1.1002055
00000000: d8d4 8c3f 89d3 8c3f

static_variable_selection.flattened_grn.resample_norm.norm.bias f4 [2]
-0.011467998 0.011453243
00000000: 45e4 3bbc 62a6 3b3c

static_variable_selection.flattened_grn.fc1.weight f4 [2, 16]
0.15379128 0.40336603 0.051961534 -0.35302517 -0.56437963 -0.6278687 -0.55329245 1.0544813
-0.17429794 0.14883909 -0.2960003 0.2830126 -0.58177835 0.1306585 -0.6055722 0.20532267
-0.3942067 0.5177556 -0.11219784 0.15484445 -0.21572348 0.41792375 -0.5284924 -0.36687407
-0.37256038 -0.5743065 -0.047321074 -0.006585204 -0.047548756 0.11918026 -0.62395865 0.04934962
00000000: 767b 1d3e fe85 ce3e 9ed5 543d b7bf b4be
00000010: 2f7b 10bf 01bc 20bf 93a4 0dbf 3ef9 863f
00000020: 297b 32be 4669 183e 5a8d 97be 07e7 903e
00000030: 6def 14bf 58cb 053e c806 1bbf 1b40 523e
00000040: 76d5 c9be a28b 043f fbc7 e5bd 8b8f 1e3e
00000050: 9ee6 5cbe 1afa d53e 474b 07bf ebd6 bbbe
00000060: 3cc0 bebe c005 13bf bed3 41bd b2c8 d7bb
00000070: 7cc2 42bd c814 f43d c1bb 1fbf d422 4a3d

static_variable_selection.flattened_grn.fc1.bias f4 [2]
0.15756448 -0.11466192
00000000: 9558 213e ded3 eabd

static_variable_selection.flattened_grn.fc2.weight f4 [2, 2]
-1.2313054 -0.7976784 -1.4315848 0.18721332
00000000: 6a9b 9dbf a734 4cbf 2c3e b7bf d9b4 3f3e

static_variable_selection.flattened_grn.fc2.bias f4 [2]
0.03748376 0.0017036704
00000000: 9288 193d b14d df3a

static_variable_selection.flattened_grn.gate_norm.glu.fc.weight f4 [4, 2]
0.3246733 -0.38138658 0.9918143 -0.17588834 -0.7828065 -0.45406848 -0.26914972 -0.73790365
00000000: 943b a63e 1a45 c3be 8be7 7d3f 131c 34be
00000010: 0266 48bf aa7b e8be fecd 89be 41e7 3cbf

static_variable_selection.flattened_grn.gate_norm.glu.fc.bias f4 [4]
-0.025352813 -0.019329729 0.14739712 -0.08046016
00000000: b4b0 cfbc 6159 9ebc 45ef 163e 4cc8 a4bd

static_variable_selection.flattened_grn.gate_norm.add_norm.norm.weight f4 [2]
0.576134 0.5761341
00000000: 857d 133f 867d 133f

static_variable_selection.flattened_grn.gate_norm.add_norm.norm.bias f4 [2]
0.1930846 -0.19308473
00000000: f8b7 453e 01b8 45be

static_variable_selection.single_variable_grns.AgeDist.resample_norm.mask f4 [16]
-0.13499552 -0.27262297 0.27335206 -0.7247337 0.11630117 -0.29164654 0.6353503 -0.18280819
-0.080569185 0.8524996 -0.6294061 -0.012028657 0.03319344 -0.11128221 -0.58435065 -0.3070681
00000000: 443c 0abe 3d95 8bbe cdf4 8b3e 2688 39bf
00000010: 4f2f ee3d b252 95be 51a6 223f 1232 3bbe
00000020: 7501 a5bd 6a3d 5a3f c220 21bf d813 45bc
00000030: d8f5 073d ede7 e3bd 0198 15bf 0838 9dbe

static_variable_selection.single_variable_grns.AgeDist.resample_norm.norm.weight f4 [16]
1.1022007 0.95660865 1.7341329 1.0714685 1.2845762 0.7373075 1.5040575 0.89887094
0.9354218 1.6518515 0.8268915 1.2670851 0.95122975 1.0364244 0.60546046 1.1158266
00000000: ea14 8d3f 4ee4 743f 11f8 dd3f e125 893f
00000010: fe6c a43f 2fc0 3c3f f584 c03f 681c 663f
00000020: ce77 6f3f df6f d33f 29af 533f d82f a23f
00000030: cb83 733f 8ea9 843f 75ff 1a3f 68d3 8e3f

static_variable_selection.single_variable_grns.AgeDist.resample_norm.norm.bias f4 [16]
-0.03363824 -0.19132604 0.52120584 -0.0076283505 0.021168832 -0.20710021 0.38707432 0.18821837
-0.09087974 -0.06656064 -0.012483138 -0.27385876 0.30487546 -0.179319 -0.19647393 -0.293378
00000000: 40c8 09bd f9ea 43be bf6d 053f 3ef7 f9bb
00000010: 426a ad3c 1412 54be 9b2e c63e 51bc 403e
00000020: 281f babd f250 88bd 1386 4cbc 3737 8cbe
00000030: a318 9c3e 669f 37be 7630 49be a435 96be

static_variable_selection.single_variable_grns.AgeDist.fc1.weight f4 [8, 8]
-0.70892507 -0.22157109 -0.8922379 -0.020525197 -0.086982325 0.10876832 0.37062347 0.26717812
0.4931434 0.66133386 0.13483983 -0.107409626 -0.12544739 -0.23809277 -1.255002 0.26504037
0.5817977 1.7610006 -0.53143597 0.23386115 1.2069731 0.94219846 -0.36324948 -0.2862031
0.17060104 -0.8434718 0.7888937 0.71960944 -0.23681785 -0.07022549 -0.81360376 -0.09728123
0.5881474 0.13373373 0.11633912 -0.08014354 -0.20222019 0.27972597 1.2204846 -0.9576264
0.1352597 -0.0060705096 0.5849522 0.7730057 -0.6373948 -0.38764006 -0.35637724 -0.002097434
-0.5466533 0.15775041 -0.50616014 0.52769536 -0.08556447 0.33552375 -0.29263958 -0.16304527
-0.42776182 -0.08385466 -0.321389 0.56781083 0.95187455 -0.31261593 0.14569108 -0.043637145
00000000: 1d7c 35bf 88e3 62be b469 64bf 7524 a8bc
00000010: ca23 b2bd edc1 de3d 5cc2 bd3e 92cb 883e
00000020: 4b7d fc3e 2d4d 293f 7413 0a3e 94f9 dbbd
00000030: 4875 00be 97ce 73be e8a3 a0bf 5fb3 873e
00000040: b2f0 143f 7868 e13f 300c 08bf 4c79 6f3e
00000050: 187e 9a3f eb33 713f d6fb b9be 3689 92be
00000060: 0ab2 2e3e c5ed 57bf f0f4 493f 5338 383f
00000070: 6180 72be 62d2 8fbd 5648 50bf 623b c7bd
00000080: d490 163f 7ff1 083e 3443 ee3d 4c22 a4bd
00000090: cf12 4fbe 3e38 8f3e d738 9c3f 0127 75bf
000000a0: 8581 0a3e 20eb c6bb 6dbf 153f b4e3 453f
000000b0: 4e2c 23bf c278 c6be 1477 b6be 1a75 09bb
000000c0: 78f1 0bbf 5389 213e b693 01bf 0b17 073f
000000d0: 6d3c afbd c5c9 ab3e dbd4 95be 57f5 26be
000000e0: 9903 dbbe febb abbd 198d a4be 0d5c 113f
000000f0: 0dae 733f 320f a0be 0b30 153e ddbc 32bd

static_variable_selection.single_variable_grns.AgeDist.fc1.bias f4 [8]
-0.1033751 -0.092671454 -0.16567393 0.37664557 -0.47648492 0.18660206 -0.29645017 -0.10324403
00000000: 53b6 d3bd 88ca bdbd 6da6 29be b0d7 c03e
00000010: d5f5 f3be 9c14 3f3e 51c8 97be 9b71 d3bd

static_variable_selection.single_variable_grns.AgeDist.fc2.weight f4 [8, 8]
0.2809138 0.69231755 0.6127668 -0.58716005 0.06973966 -0.75764424 -0.40179673 -0.7361497
0.64518255 -0.22749326 -0.08117172 -0.9471284 0.16290696 -0.11058146 0.16887264 -0.8266256
0.93074554 -0.30450672 0.45872194 -0.013002357 0.21470961 -0.68776774 0.32535753 0.9730119
-0.10811952 -0.6251521 0.6727814 0.29040053 -0.5409287 -0.3021212 -0.5167476 0.40988407
-0.18635118 -0.3243259 1.1738344 0.8845257 0.3142893 0.11248871 0.4319287 -0.67974645
0.049122192 0.15021682 0.5376922 -0.31130716 0.0075228754 0.04867427 0.32083562 -0.053635363
0.12176587 0.1542449 0.47701284 0.6086604 0.30782604 0.3653618 0.6624004 -0.26803634
0.09418227 0.006770632 -0.5236469 -0.05545447 -0.22541833 0.6855911 -0.32980025 -0.9655324
00000000: efd3 8f3e b93b 313f 49de 1c3f 1f50 16bf
00000010: abd3 8e3d f9f4 41bf 4db8 cdbe 4f74 3cbf
00000020: af2a 253f fef3 68be 5c3d a6bd 0277 72bf
00000030: 15d1 263e 8878 e2bd f3ec 2c3e bc9d 53bf
00000040: 5745 6e3f 4ee8 9bbe 9add ea3e d707 55bc
00000050: d6dc 5b3e 8c11 30bf 4395 a63e 4f17 793f
00000060: c46d ddbd f809 20bf 673b 2c3f 61af 943e
00000070: 4e7a 0abf a1af 9abe 9249 04bf 53dc d13e
00000080: d8d2 3ebe 0b0e a6be 3540 963f 4770 623f
00000090: 87ea a03e 7b60 e63d c225 dd3e dd03 2ebf
000000a0: 5a34 493d 70d2 193e 32a6 093f a763 9fbe
000000b0: 7482 f63b ac5e 473d 9144 a43e c1b0 5bbd
000000c0: 6260 f93d 60f2 1d3e 073b f43e 2bd1 1b3f
000000d0: 609b 9d3e b410 bb3e 1393 293f 0f3c 89be
000000e0: a2e2 c03d 2edc dd3b b90d 06bf 3a24 63bd
000000f0: 10d4 66be e682 2f3f 94db a8be 222d 77bf

static_variable_selection.single_variable_grns.AgeDist.fc2.bias f4 [8]
-0.3272541 0.0013126214 -0.06916115 -0.01835046 0.0034339924 -0.14316005 -0.030713229 0.14189143
00000000: d98d a7be 440c ac3a 5ca4 8dbd b453 96bc
00000010: d50c 613b 8c98 12be 4f9a fbbc fd4b 113e

static_variable_selection.single_variable_grns.AgeDist.gate_norm.glu.fc.weight f4 [32, 8]
-0.614715 -0.799928 -0.32065615 -0.39751184 -0.016018566 -0.07608575 0.39083338 0.20167328
0.20090424 0.48346812 0.009647473 -0.43226826 -0.32199857 0.31194195 -0.10135568 -0.115762286
-0.018493047 0.18123479 -0.25337565 0.5520101 -0.28770173 0.07189564 0.6155572 0.098731734
0.0762476 -0.081903465 0.052035626 0.65905416 -0.080348924 -0.27911973 -0.22553933 0.11487425
-0.3339215 -0.28956586 -0.48419145 -0.58227205 -0.04331527 0.10377165 0.009579875 0.4386713
0.12825586 -0.086828224 0.22836782 0.17793147 0.07304223 0.2901145 0.10197214 -0.6189698
-0.35090497 0.5378154 -0.43734026 -0.35801753 -0.026297009 -0.48692298 -0.2482349 0.19448283
-0.16612484 0.12482475 0.13418366 0.23658411 0.065778695 0.21866156 -0.6588401 0.05124915
0.18522006 -0.018194253 -0.2568611 -0.038230162 -0.14711103 -0.14783175 -0.2972387 -0.14127694
0.27457657 -0.011607058 0.4124112 0.8553398 -0.16860564 0.52632254 -0.4196823 -0.59527236
-0.43034503 0.32191515 -0.4751896 -0.14182124 -0.43394512 -0.34303263 -0.007907125 0.22078736
-0.11657382 -0.09090363 0.27083802 -0.33624837 -0.36602005 -0.1535209 -0.34405518 0.24120426
0.4625286 0.87273145 -0.30842033 -0.34670642 0.05127535 0.7072297 -0.081679516 -0.04109265
0.4542626 0.5423608 0.14924367 0.599898 0.1915459 0.42023522 -0.14733304 -0.8844959
-0.5272363 0.20500442 -0.15912813 -0.74610126 -0.6123556 -0.03621337 -0.28132263 0.6665572
-0.20777766 -0.39127454 0.5016657 -0.04173953 0.36990365 0.055576414 0.29534665 -0.5316825
-0.61167353 -0.4757736 -0.11070611 -0.5635747 -0.32846105 -0.742525 -0.06913835 0.25504375
-0.0009382514 0.071538314 0.42439497 0.6500092 -0.1877173 -0.14987627 -0.4001769 0.15207973
-0.027037803 -0.37060422 -0.5024088 -0.21366015 0.304945 -0.047124404 0.55594105 0.07579677
0.016824998 0.022141758 0.2377735 -0.11364817 0.21078318 -0.28926963 -0.2464499 -0.031953666
-0.09095182 -0.07186637 0.28881386 -0.22137128 0.6127007 0.22979948 0.42427325 -0.068442345
-0.474232 -0.24411722 -0.27004832 -0.8029664 -0.27288383 -0.22675501 -0.012043113 0.7100309
-0.070965424 0.55295664 0.12353635 -0.0924464 -0.6970988 -0.30219486 0.5587794 -0.10204957
-0.30807358 -0.039434265 -0.19553316 0.41787717 -0.49997655 -0.21805301 -0.3177174 0.09200104
-0.4367268 -0.30936652 -0.035938222 0.257067 0.4560897 0.1361523 -0.29569936 0.06468686
0.15955546 -0.096918724 -0.6060189 -0.3502226 -0.58462065 -0.09332131 -0.20002668 0.1001128
-0.50876683 0.1270383 -0.5858148 -0.0992081 -0.19778432 0.05789924 0.42050108 -0.45734
-0.2135726 0.22558945 -0.16721383 -0.3389898 -0.80814046 0.15357259 0.21051593 0.29414406
0.2806119 0.43702772 -0.05906642 0.22313777 0.12040419 0.5262056 -0.54021627 -0.3946545
0.0847844 0.6055788 0.35040703 -0.12503551 0.20895891 1.1823887 0.1913122 -0.65841126
0.36846828 0.075591154 -0.051379986 0.096097834 0.035397094 0.2272233 0.023309367 -0.74368036
-0.37264037 -0.070565976 -0.7260703 -0.3007255 -0.14688388 0.2236798 0.79099375 0.22791614
00000000: f65d 1dbf 15c8 4cbf 0b2d a4be ac86 cbbe
00000010: 5e39 83bc d8d2 9bbd 501b c83e 7183 4e3e
00000020: d7b9 4d3e 2289 f73e 6f10 1e3c 4452 ddbe
00000030: ffdc a4be dbb6 9f3e 9193 cfbd c714 edbd
00000040: bb7e 97bc 9d95 393e 74ba 81be 8950 0d3f
00000050: a44d 93be 053e 933d 2895 1d3f dd33 ca3d
00000060: b427 9c3d 01bd a7bd 4f23 553d c6b7 283f
00000070: fa8d a4bd c8e8 8ebe c8f3 66be 3143 eb3d
00000080: c2f7 aabe fa41 94be f1e7 f7be c80f 15bf
00000090: 5a6b 31bd 3b86 d43d e8f4 1c3c 8699 e03e
000000a0: 8155 033e ffd2 b1bd 41d9 693e ab33 363e
000000b0: 2a97 953d e389 943e c5d6 d03d ce74 1ebf
000000c0: d1a9 b3be 45ae 093f 10eb dfbe 134e b7be
000000d0: d36c d7bc f84d f9be 4a31 7ebe 8226 473e
000000e0: a11c 2abe 1ea4 ff3d 7167 093e 1b43 723e
000000f0: fbb6 863d d1e8 5f3e bfa9 28bf a1ea 513d
00000100: 54aa 3d3e 1d0c 95bc 4c83 83be 3b97 1cbd
00000110: 46a4 16be 3561 17be ac2f 98be e7aa 10be
00000120: 4d95 8c3e 882b 3ebc 9027 d33e 8df7 5a3f
00000130: f5a6 2cbe 13bd 063f 99e0 d6be c563 18bf
00000140: 2f56 dcbe 10d2 a43e 0d4c f3be 9639 11be
00000150: 0e2e debe f9a1 afbe e38c 01bc 1516 623e
00000160: 41be eebd af2b babd 48ab 8a3e bf28 acbe
00000170: fb66 bbbe 9534 1dbe 0028 b0be 40fe 763e
00000180: 8cd0 ec3e 546b 5f3f 45e9 9dbe 8183 b1be
00000190: 1a06 523d 010d 353f 9747 a7bd c450 28bd
000001a0: 1c95 e83e 28d8 0a3f 55d3 183e ea92 193f
000001b0: 9c24 443e 1229 d73e 79de 16be 536e 62bf
000001c0: f5f8 06bf aeec 513e 7cf2 22be 7e00 3fbf
000001d0: 56c3 1cbf 7854 14bd 8509 90be 7ea3 2a3f
000001e0: abc3 54be 2355 c8be 2a6d 003f 12f7 2abd
000001f0: 0364 bd3e 18a4 633d ad37 973e 581c 08bf
00000200: a396 1cbf 9998 f3be e3b9 e2bd 6e46 10bf
00000210: 0c2c a8be 1e16 3ebf 6898 8dbd 1895 823e
00000220: fcf4 75ba ae82 923d 4c4a d93e 0167 263f
00000230: f738 40be 2a79 19be fde3 ccbe caba 1b3e
00000240: 627e ddbc d6bf bdbe dd9d 00bf bac9 5abe
00000250: c021 9c3e 8505 41bd 2752 0e3f 563b 9b3d
00000260: 94d4 893c a262 b53c e57a 733e 5fc0 e8bd
00000270: 8cd7 573e 261b 94be 5d5d 7cbe d9e1 02bd
00000280: f344 babd ad2e 93bd 69df 933e 27af 62be
00000290: f4d9 1c3f 8e50 6b3e 583a d93e 802b 8cbd
000002a0: 89ce f2be ddf9 79be c643 8abe 358f 4dbf
000002b0: 6eb7 8bbe 7732 68be 7a50 45bc 96c4 353f
000002c0: 5256 91bd 918e 0d3f a000 fd3d 8a54 bdbd
000002d0: 1175 32bf 49b9 9abe 2b0c 0f3f 5dff d0bd
000002e0: d2bb 9dbe d385 21bd d839 48be fff3 d53e
000002f0: edfc ffbe 4a49 5fbe dbab a2be 0b6b bc3d
00000300: a89a dfbe 4a65 9ebe f533 13bd 499e 833e
00000310: 9784 e93e 826b 0b3e e865 97be 8b7a 843d
00000320: 8262 233e 537d c6bd 0e24 1bbf 6050 b3be
00000330: b3a9 15bf 3e1f bfbd cbd3 4cbe f107 cd3d
00000340: 8b3e 02bf 5416 023e f5f7 15bf 9e2d cbbd
00000350: f987 4abe c127 6d3d eb4b d73e 7828 eabe
00000360: c7b2 5abe ec00 673e 1a3a 2bbe 1290 adbe
00000370: 4be2 4ebf 2242 1d3e 7d91 573e 0d9a 963e
00000380: 5dac 8f3e 19c2 df3e a1ef 71bd 3a7e 643e
00000390: 7996 f63d 69b5 063f 9d4b 0abf 2810 cabe
000003a0: 72a3 ad3d 3607 1b3f 8d68 b33e 4f09 00be
000003b0: 53f9 553e 8358 973f 58e7 433e a48d 28bf
000003c0: e0a7 bc3e 89cf 9a3d d273 52bd f1ce c43d
000003d0: 8bfc 103d 3aad 683e 49f3 be3c d661 3ebf
000003e0: b8ca bebe e584 90bd bedf 39bf b1f8 99be
000003f0: ba68 16be 510c 653e 917e 4a3f d962 693e

static_variable_selection.single_variable_grns.AgeDist.gate_norm.glu.fc.bias f4 [32]
0.013886856 -0.03984411 0.48865104 0.014860897 -0.053026948 -0.32372105 0.26027644 0.2760286
-0.08577797 -0.33696938 0.2032332 0.050994154 0.26172432 -0.147562 0.02942479 -0.33729148
-0.15264519 -0.6596701 0.4990641 -0.1146667 0.047271393 -0.3609254 -0.029580073 -0.40422347
-0.4687556 -0.05736573 0.3263923 0.03841564 0.1611109 0.25383025 -0.013187129 0.1690024
00000000: b285 633c 9433 23bd 7830 fa3e 1f7b 733c
00000010: c932 59bd c4be a5be f442 853e 9f53 8d3e
00000020: 5cac afbd 4087 acbe 5d1c 503e 3fdf 503d
00000030: bb00 863e 7e1a 17be 420c f13c 78b1 acbe
00000040: 054f 1cbe 24e0 28bf 5485 ff3e 60d6 eabd
00000050: a69f 413d 37cb b8be e951 f2bc 61f6 cebe
00000060: bc00 f0be 54f8 6abd e41c a73e b859 1d3d
00000070: 41fa 243e 0af6 813e d40e 58bc f70e 2d3e

static_variable_selection.single_variable_grns.AgeDist.gate_norm.add_norm.norm.weight f4 [16]
1.2621902 0.13238542 1.4097059 0.83098054 1.593922 0.7797056 1.5428414 0.2531096
0.7068873 1.7468946 1.0977689 1.2433159 0.6989506 1.3715757 1.019192 1.0403395
00000000: 738f a13f 0b90 073e 3e71 b43f 24bb 543f
00000010: a305 cc3f c99a 473f d47b c53f 9597 813e
00000020: 91f6 343f 3e9a df3f b183 8c3f fa24 9f3f
00000030: 6dee 323f cb8f af3f e274 823f d829 853f

static_variable_selection.single_variable_grns.AgeDist.gate_norm.add_norm.norm.bias f4 [16]
0.32677525 -0.101183504 0.40562057 0.12778556 0.19858395 -0.42092627 0.16086659 0.03716227
-0.25822696 -0.19907181 0.037301365 -0.108515404 0.10784498 0.16703807 -0.26863578 -0.29486504
00000000: 164f a73e 4c39 cfbd 80ad cf3e 38da 023e
00000010: 9759 4b3e a683 d7be 36ba 243e 7737 183d
00000020: 5336 84be 7bd9 4bbe 51c9 183d 533d debd
00000030: d4dd dc3d 070c 2b3e a18a 89be 8df8 96be

static_variable_selection.single_variable_grns.HealthDisp.resample_norm.mask f4 [16]
0.15399413 0.21050245 0.5185001 -0.31522632 0.2368516 -0.2733217 0.29847482 -0.43232337
-0.03813586 -0.38093814 -0.44064865 0.09735258 -0.34697434 -0.15267389 0.08931446 0.02598782
00000000: a3b0 1d3e f48d 573e 6cbc 043f 5865 a1be
00000010: 3a89 723e d2f0 8bbe b1d1 983e 7d59 ddbe
00000020: 5934 1cbd 530a c3be b39c e1be ca60 c73d
00000030: 9fa6 b1be 8b56 1cbe 80ea b63d 69e4 d43c

static_variable_selection.single_variable_grns.HealthDisp.resample_norm.norm.weight f4 [16]
1.4852097 1.0191237 1.6674054 0.9551382 1.4433829 0.9828793 1.5575185 0.6822911
0.9733715 0.32151702 1.1929204 1.5132195 0.16109811 1.1194535 1.2377206 1.0095538
00000000: 5a1b be3f a572 823f 8a6d d53f f083 743f
00000010: c5c0 b83f fa9d 7b3f c45c c73f a1aa 2e3f
00000020: e02e 793f e19d a43e 9eb1 983f 2db1 c13f
00000030: e7f6 243e 414a 8f3f a16d 9e3f 0f39 813f

static_variable_selection.single_variable_grns.HealthDisp.resample_norm.norm.bias f4 [16]
0.1397224 -0.08380402 0.0728043 -0.23729414 0.2760498 -0.16300263 0.06383331 -0.1362384
-0.10660777 -0.24610196 -0.10614592 -0.06851632 0.25922143 -0.090324335 0.11689463 0.024565093
00000000: 6413 0f3e 71a1 abbd 6c1a 953d 3cfd 72be
00000010: 6656 8d3e 29ea 26be 0abb 823d 1482 0bbe
00000020: 2d55 dabd 2702 7cbe 0863 d9bd 4952 8cbd
00000030: acb8 843e f7fb b8bd 7466 ef3d bc3c c93c

static_variable_selection.single_variable_grns.HealthDisp.fc1.weight f4 [8, 8]
0.19248784 -0.18898933 -0.27819866 -1.7069689 0.5394743 0.2978843 0.43493533 -0.41681233
-0.47707734 0.1990318 -1.3720264 -0.24344513 -0.21554804 -0.29898974 -1.6089411 -0.5339378
0.015582463 0.4580848 0.82356846 0.37681416 0.3433799 -0.3785791 -0.22806858 0.80287445
-0.029099593 0.16857904 -1.7007002 0.9191196 -0.2443519 0.034677744 -0.990913 -1.2751744
0.007396734 -0.61045355 0.49183527 -0.47802585 -0.27786282 -0.43355924 -0.17934167 -0.21265292
-0.16444476 -0.36717343 -0.40762702 -0.4397595 -0.15548757 0.39832377 0.7216622 -0.5689241
0.6643092 0.38533634 -0.115114495 -0.49101457 -1.3618599 0.39268094 0.24539727 -0.39905787
-1.1253968 -0.7316704 0.13766949 -0.47146428 0.16275467 -0.04312077 -0.16402435 0.20487261
00000000: 881b 453e 6b86 41be 0e70 8ebe f57d dabf
00000010: fd1a 0a3f 4a84 983e d8af de3e 6d68 d5be
00000020: 7b43 f4be fece 4b3e 909e afbf ae49 79be
00000030: a0b8 5cbe 2f15 99be c8f1 cdbf 26b0 08bf
00000040: 964d 7f3c 178a ea3e 62d5 523f c9ed c03e
00000050: 7ecf af3e 1fd5 c1be cf8a 69be 2e89 4d3f
00000060: 4562 eebc fc9f 2c3e 8bb0 d9bf 6c4b 6b3f
00000070: 6237 7abe 400a 0e3d 79ac 7dbf ea38 a3bf
00000080: 4d60 f23b af46 1cbf d5d1 fb3e cebf f4be
00000090: 0944 8ebe 7afb ddbe 58a5 37be b0c1 59be
000000a0: 3564 28be 28fe bbbe 7db4 d0be 2828 e1be
000000b0: 2238 1fbe 18f1 cb3e dbbe 383f 03a5 11bf
000000c0: 2b10 2a3f ce4a c53e 26c1 ebbd 4366 fbbe
000000d0: 6d51 aebf 7a0d c93e 6c49 7b3e 5051 ccbe
000000e0: 010d 90bf c04e 3bbf 3bf9 0c3e c463 f1be
000000f0: 29a9 263e 689f 30bd 00f6 27be 20ca 513e

static_variable_selection.single_variable_grns.HealthDisp.fc1.bias f4 [8]
-0.15002142 0.082816236 -0.38364872 0.0591798 -0.21637467 -0.030255336 0.21636188 0.20676823
00000000: 379f 19be 8f9b a93d 9b6d c4be 8566 723d
00000010: 5291 5dbe 0ada f7bc f88d 5d3e 0dbb 533e

static_variable_selection.single_variable_grns.HealthDisp.fc2.weight f4 [8, 8]
0.2852696 -0.23960571 0.70358276 0.53292674 -0.17580752 0.2887386 0.44487926 0.81573427
-0.09947378 0.9166414 -0.2079909 0.54561883 0.40417925 0.038154677 0.4905695 -0.26294386
-0.9307912 -0.8383825 -0.49476355 -0.3014224 -0.57850826 0.08817941 0.25620845 0.06835161
0.49160573 -0.5156951 0.0773538 0.69218457 -0.011045039 0.15126763 -0.7525848 0.21835451
0.71345115 -0.46580824 0.032960713 0.22552612 0.10641041 0.088890955 -0.12043003 -0.46299917
-0.9268689 0.33305117 0.076673836 0.46960416 -0.3302727 -0.2823113 -0.21192452 -0.23362611
-0.66351914 -0.08246705 -0.5618563 0.38220352 0.7834371 0.17486833 0.21486153 0.66677475
0.866351 0.36618483 0.1349687 0.49884886 0.16218328 0.03863705 -0.32277367 -0.35596153
00000000: db0e 923e 335b 75be 001e 343f e36d 083f
00000010: e306 34be 8cd5 933e 37c7 e33e f6d3 503f
00000020: e9b8 cbbd 03a9 6a3f 91fb 54be adad 0b3f
00000030: 95f0 ce3e 1448 1c3d ed2b fb3e 94a0 86be
00000040: 5548 6ebf 3ca0 56bf a651 fdbe 0954 9abe
00000050: 1e19 14bf 6897 b43d c12d 833e eefb 8b3d
00000060: bfb3 fb3e 9804 04bf ab6b 9e3d 0233 313f
00000070: 40f6 34bc e7e5 1a3e 66a9 40bf 5398 5f3e
00000080: bca4 363f 6b7e eebe d001 073d 52f0 663e
00000090: b3ed d93d 760c b63d 05a4 f6bd 3a0e edbe
000000a0: 4847 6dbf af85 aa3e 2c07 9d3d f56f f03e
000000b0: 8119 a9be 1b8b 90be be02 59be af3b 6fbe
000000c0: 64dc 29bf 7ce4 a8bd d1d5 0fbf 2eb0 c33e
000000d0: 558f 483f af10 333e a904 5c3e c0b1 2a3f
000000e0: 2ec9 5d3f 947c bb3e 3c35 0a3e 1e69 ff3e
000000f0: 6013 263e e241 1e3d 9742 a5be 9740 b6be

static_variable_selection.single_variable_grns.HealthDisp.fc2.bias f4 [8]
-0.0016697999 -0.07587794 0.08726664 -0.16563608 0.063684836 -0.0194757 0.104472235 -0.12294016
00000000: 30dd daba e565 9bbd dab8 b23d 819c 29be
00000010: 326d 823d 818b 9fbc 8af5 d53d 0dc8 fbbd

static_variable_selection.single_variable_grns.HealthDisp.gate_norm.glu.fc.weight f4 [32, 8]
0.15972415 -0.080730885 -0.3893762 -0.27644157 -0.09638195 0.35477567 0.22051851 0.24548085
0.22125737 -0.21161665 -0.17015211 0.089295916 -0.18466218 0.0014050069 -0.15823895 0.029240595
-0.09174532 0.28011408 -0.05747833 -0.24506399 -0.34583244 0.47160506 0.11938345 -0.016640922
0.12937953 0.6307012 -0.24663085 -0.26874575 -0.07835489 -0.010392739 0.25964394 -0.23204851
-0.17482056 -0.3000755 0.23938967 0.23288599 0.26105216 -0.26830623 -0.20901404 -0.33939564
-0.30723614 -0.44341272 0.13426624 -0.008149804 0.54885393 -0.042381834 0.35533682 -0.24772814
0.118149 0.6654017 -0.29267156 0.1423436 -0.055479653 0.29446203 -0.1313297 0.34089327
0.24765012 0.04923111 -0.021215895 0.4365371 0.07394709 -0.14525501 0.07162587 -0.15119886
-0.053639777 -0.2187308 0.67983073 -0.15999752 -0.17176585 0.5315859 -0.10262113 -0.19944558
0.39327604 0.15674588 -0.065730676 -0.1542109 -0.23379977 0.13962875 -0.05640518 -0.5179525
0.31182045 -0.17059158 -0.18033455 -0.19100937 -0.23011263 0.036360115 -0.2731721 0.045259245
-0.08882242 0.26207924 -0.6438894 0.30436236 0.09050601 0.08678545 0.048685133 0.37732226
0.027474295 0.23253523 0.14077027 -0.3685655 0.05886294 0.71426284 0.26685154 -0.1252943
0.6363763 0.08320342 -0.30554193 0.42012492 0.39997438 -0.33506823 0.24716306 0.53015447
0.017339833 -0.17421807 0.16114555 -0.28998464 0.5926554 0.031605173 -0.3288219 -0.29967242
0.024509385 -0.3751176 0.33820888 -0.2003916 0.36697266 -0.47874212 0.43160933 -0.059660535
-0.021771163 1.2994133 0.13832976 -0.3561379 -0.14520885 0.41898042 0.319012 -0.33369544
0.061498493 0.22569083 -0.03972147 0.2786439 -0.284195 0.069579095 0.7043809 0.032994274
0.7044558 0.6812639 0.09533752 0.3258224 0.5754635 0.25288653 -0.019582456 0.56997865
-0.049378823 0.23020318 -0.0503102 0.18393615 -0.24807298 0.11519536 -0.37425697 -0.263698
0.24587835 -0.15684934 0.36151886 -0.051608693 -0.31404433 0.21848688 0.053763125 0.22983344
-0.17894949 0.5894084 -0.17265084 -0.10631004 0.24761358 0.37299109 0.3341301 -0.32402772
0.18420587 0.34699354 -0.093366906 -0.65758365 -0.321184 0.78414863 0.56746316 -0.041144796
0.41343328 1.0144103 -0.38121942 0.3041853 0.24480474 0.44856596 0.26345587 0.19018802
0.17890863 -0.12719578 0.12850471 -0.04331671 0.25334072 -0.7340165 -0.29069406 -0.2937085
0.2112238 0.6249501 0.1225786 -0.7778624 -0.25215247 0.05154335 -0.31970713 0.09483125
0.46876124 0.097937204 0.178078 -0.05571992 -0.3043816 -0.10723784 0.24506135 -0.23816954
-0.012335283 0.35558137 0.7994775 -0.7057501 0.010380407 0.3070841 -0.5601234 -0.3740247
-0.18964659 0.18530956 -0.5981025 -0.13385719 -0.001091038 -0.37936538 -0.051408187 -0.16229211
0.2834286 0.55198807 -0.59555876 -0.03249445 0.041238643 -0.31568712 0.28659078 0.7285857
0.9260097 0.13211267 0.2793398 -0.31799942 -0.26372483 -0.192786 0.003832825 -0.04504207
0.45038223 0.6139451 0.112632126 0.08332914 -0.17475817 0.37185124 -0.29746842 0.4916148
00000000: ba8e 233e 3c56 a5bd 515c c7be c089 8dbe
00000010: e663 c5bd 28a5 b53e 9bcf 613e 555f 7b3e
00000020: 4b91 623e 09b2 58be 5b3c 2ebe c7e0 b63d
00000030: 1518 3dbe 3528 b83a 6409 22be f989 ef3c
00000040: f8e4 bbbd 1d6b 8f3e 666e 6bbd 0ef2 7abe
00000050: f310 b1be 3876 f13e 4f7f f43d 8b52 88bc
00000060: 117c 043e a275 213f cc8c 7cbe 0b99 89be
00000070: 8778 a0bd 4f46 2abc 0df0 843e 209e 6dbe
00000080: 2904 33be 7fa3 99be 9122 753e aa79 6e3e
00000090: a1a8 853e 6f5f 89be c707 56be 44c5 adbe
000000a0: 0e4e 9dbe fe06 e3be 177d 093e c186 05bc
000000b0: b181 0c3f 9398 2dbd b5ee b53e 72ac 7dbe
000000c0: 1af8 f13d c457 2a3f 0cd9 95be 85c2 113e
000000d0: a23e 63bd bac3 963e 4b7b 06be 9089 ae3e
000000e0: fe97 7d3e 8fa6 493d f5cc adbc ca81 df3e
000000f0: 9271 973d bbbd 14be 96b0 923d e0d3 1abe
00000100: 62b5 5bbd f8fa 5fbe 6309 2e3f 64d6 23be
00000110: 63e3 2fbe 0316 083f 072b d2bd 763b 4cbe
00000120: 7a5b c93e fe81 203e ce9d 86bd 76e9 1dbe
00000130: 3569 6fbe d7fa 0e3e 1e09 67bd 8998 04bf
00000140: eea6 9f3e 8faf 2ebe 9fa9 38be f697 43be
00000150: a5a2 6bbe 58ee 143d 37dd 8bbe c261 393d
00000160: 87e8 b5bd 402f 863e f0d5 24bf 62d5 9b3e
00000170: 375b b93d 92bc b13d 106a 473d 6230 c13e
00000180: c611 e13c b71d 6e3e 1526 103e 9eb4 bcbe
00000190: 441a 713d eed9 363f c4a0 883e 264d 00be
000001a0: 8fe9 223f 8e66 aa3d fe6f 9cbe 9d1a d73e
000001b0: 71c9 cc3e 108e abbe 5018 7d3e 34b8 073f
000001c0: 440c 8e3c 3966 32be 5703 253e de78 94be
000001d0: 44b8 173f 6d74 013d 585b a8be aa6e 99be
000001e0: e8c7 c83c 6a0f c0be b729 ad3e 7533 4dbe
000001f0: d7e3 bb3e b01d f5be e6fb dc3e 9b5e 74bd
00000200: 7059 b2bc 2d53 a63f 51a6 0d3e b557 b6be
00000210: a1b1 14be 9a84 d63e 8a55 a33e 21da aabe
00000220: d8e5 7b3d 7f1b 673e fbb2 22bd 6aaa 8e3e
00000230: 0282 91be 7c7f 8e3d 4f52 343f 0125 073d
00000240: 3757 343f 5067 2e3f 5140 c33d 32d2 a63e
00000250: 9351 133f 587a 813e 636b a0bc 1fea 113f
00000260: 7341 4abd 62ba 6b3e 1112 4ebd c259 3c3e
00000270: d806 7ebe 8beb eb3d 9c9e bfbe 6d03 87be
00000280: 89c7 7b3e 1d9d 20be 0019 b93e a363 53bd
00000290: 6bca a0be 06bb 5f3e b936 5c3d 7559 6b3e
000002a0: 893e 37be 78e3 163f 62cb 30be 14b9 d9bd
000002b0: 6a8e 7d3e b0f8 be3e 1a13 ab3e f6e6 a5be
000002c0: 77a0 3c3e 23a9 b13e 2637 bfbd 6757 28bf
000002d0: 3b72 a4be f7bd 483f 4445 113f 7287 28bd
000002e0: 87ad d33e 32d8 813f 312f c3be 2dbe 9b3e
000002f0: 18ae 7a3e 70aa e53e b0e3 863e a6c0 423e
00000300: d333 373e 9c3f 02be bd96 033e dd6c 31bd
00000310: e0b5 813e 81e8 3bbf dad5 94be f660 96be
00000320: 0d4b 583e bbfc 1f3f 7d0a fb3d fe21 47bf
00000330: 211a 81be 1f1f 533d a7b0 a3be e336 c23d
00000340: 7901 f03e 4d93 c83d 145a 363e 923a 64bd
00000350: e8d7 9bbe 839f dbbd 5df1 7a3e b7e2 73be
00000360: ed19 4abc c30e b63e 8faa 4c3f 0aac 34bf
00000370: 9512 2a3c 213a 9d3e 3f64 0fbf 2a80 bfbe
00000380: b732 42be cac1 3d3e 3f1d 19bf dc11 09be
00000390: 2901 8fba 2e3c c2be 6491 52bd e72f 26be
000003a0: 8e1d 913e 174f 0d3f 8a76 18bf e718 05bd
000003b0: dae9 283d bea1 a1be 07bc 923e 9884 3a3f
000003c0: f90e 6d3f 8b48 073e a005 8f3e d2d0 a2be
000003d0: f106 87be b169 45be 2230 7b3b 097e 38bd
000003e0: 8098 e63e 822b 1d3f acab e63d 78a8 aa3d
000003f0: cef3 32be 4963 be3e c84d 98be efb4 fb3e

static_variable_selection.single_variable_grns.HealthDisp.gate_norm.glu.fc.bias f4 [32]
-0.08535351 -0.054193262 0.27591383 -0.15975645 0.1496051 -0.082404345 0.20832391 -0.29189253
0.012410822 -0.09560987 -0.1324954 -0.19398823 0.18260439 -0.064867064 0.23169613 -0.08488696
-0.4854883 -1.0066217 -0.75283307 -0.031601958 -0.20606525 -0.3920728 -0.37270248 -0.43810385
-0.29881483 -0.5686254 -1.056036 -0.38345012 -0.499814 -0.34757718 -0.50301903 -0.54263294
00000000: d2cd aebd c1f9 5dbd 9444 8d3e 3297 23be
00000010: 1432 193e 9cc3 a8bd dd52 553e f072 95be
00000020: c356 4b3c 1ccf c3bd e0ac 07be daa4 46be
00000030: a5fc 3a3e 06d9 84bd c041 6d3e 37d9 adbd
00000040: ec91 f8be fbd8 80bf abb9 40bf 0e71 01bd
00000050: c502 53be c4bd c8be dcd2 bebe 264f e0be
00000060: 42fe 98be 6f91 11bf 302c 87bf 9353 c4be
00000070: 9fe7 ffbe a3f5 b1be dbc5 00bf fee9 0abf

static_variable_selection.single_variable_grns.HealthDisp.gate_norm.add_norm.norm.weight f4 [16]
1.3048134 0.22529474 1.7471776 0.8724591 1.328328 0.80056924 1.5694396 0.13634434
0.8247468 0.1739507 1.1266377 1.4938496 0.92717373 1.2580194 1.047732 1.2282366
00000000: 2004 a73f aab3 663e 84a3 df3f 7b59 5f3f
00000010: a706 aa3f 1bf2 4c3f 66e3 c83f da9d 0b3e
00000020: 9b22 533f 2220 323e aa35 903f 7736 bf3f
00000030: 425b 6d3f c806 a13f 151c 863f db36 9d3f

static_variable_selection.single_variable_grns.HealthDisp.gate_norm.add_norm.norm.bias f4 [16]
0.26273274 0.08914968 0.1317429 -0.056352522 0.28972226 -0.21684326 0.04541497 -0.09786241
-0.066782095 -0.21267393 -0.16290966 -0.012271694 0.111007154 0.038558684 -0.0033447065 -0.055226475
00000000: e884 863e 1c94 b63d 9ce7 063e e7d1 66bd
00000010: 7a56 943e 290c 5ebe 0c05 3a3d 166c c8bd
00000020: 0dc5 88bd 32c7 59be cad1 26be 370f 49bc
00000030: b857 e33d b6ef 1d3d dd32 5bbb 2835 62bd

static_variable_selection.prescalers.AgeDist.weight f4 [8, 1]
0.17656139 -0.7207368 0.7090326 0.31574973 -0.72400767 -0.3507039 -0.5414957 0.023158614
00000000: 82cc 343e 3582 38bf 2983 353f f3a9 a13e
00000010: 9158 39bf 768f b3be 769f 0abf 22b7 bd3c

static_variable_selection.prescalers.AgeDist.bias f4 [8]
-0.112417996 0.28024378 0.7660094 0.41068524 -0.60824674 -0.48994744 -0.35518202 -0.13226818
00000000: 683b e6bd 1d7c 8f3e 3119 443f 5645 d23e
00000010: 0fb6 1bbf 64da fabe 6bda b5be 4f71 07be

static_variable_selection.prescalers.HealthDisp.weight f4 [8, 1]
0.89284694 -1.2848978 1.0952204 -1.1398095 0.53233176 -0.15574844 0.92761546 0.6611648
00000000: 9e91 643f 8877 a4bf 2f30 8c3f 47e5 91bf
00000010: e546 083f 857c 1fbe 3578 6d3f 1942 293f

static_variable_selection.prescalers.HealthDisp.bias f4 [8]
0.10041462 0.27706334 0.5167839 0.28968978 0.3834467 -0.5998924 0.4288939 0.09611137
00000000: 2ea6 cd3d 3fdb 8d3e f34b 043f 3852 943e
00000010: 2053 c43e 8c92 19bf fb97 db3e 0ad6 c43d

encoder_variable_selection.flattened_grn.resample_norm.mask f4 [7]
-0.27618924 -0.64937407 0.79897934 0.2953804 -2.0629132 0.08793497 0.0869895
00000000: ad68 8dbe 613d 26bf e989 4c3f 1a3c 973e
00000010: c506 04c0 4017 b43d 8d27 b23d

encoder_variable_selection.flattened_grn.resample_norm.norm.weight f4 [7]
1.530823 0.8730659 0.9636764 1.6644863 0.4631143 1.3844696 1.2597426
00000000: 02f2 c33f 3f81 5f3f 7fb3 763f e30d d53f
00000010: 511d ed3e 4d36 b13f 3f3f a13f

encoder_variable_selection.flattened_grn.resample_norm.norm.bias f4 [7]
0.04044779 -1.0393208 0.072187506 -1.0003175 -0.4163013 -0.46846157 0.87523824
00000000: 95ac 253d 7708 85bf 0bd7 933d 670a 80bf
00000010: 7225 d5be 32da efbe 9d0f 603f

encoder_variable_selection.flattened_grn.fc1.weight f4 [7, 56]
0.04265058 0.0941367 -0.02312459 -0.5971556 -0.27178964 0.41548714 0.28245136 0.18478253
-0.23170954 -0.11323125 0.18004242 -0.055896316 -0.2624146 0.39074785 0.11464288 0.24309914
-0.7027594 -0.016167074 -0.36154962 -0.34381858 0.577529 0.7876411 -0.3071501 0.39036527
0.2962552 -0.50060034 0.24340324 0.08208182 -0.29953235 -0.057764176 0.5943187 0.33846408
-0.73252064 0.7116098 0.3081816 0.5576793 -0.42325246 -0.871622 -0.4088831 -0.12817743
-0.1557875 0.32346666 -0.49808714 0.27212122 -0.22484593 0.24551876 0.31754398 0.28057024
0.05270353 -0.2811707 -0.028872529 0.39091206 -0.098408684 -0.1412364 -0.42135486 -0.2723243
0.4712096 0.50668514 0.46625155 0.56418854 -0.078210175 -0.23141626 -0.24460919 -0.58164066
0.6684103 -0.24424845 -0.11925411 0.36673582 0.37187904 -0.31940806 -0.5790805 0.051061757
-0.30494648 -0.038527627 -0.7023493 -0.20742889 0.46568036 0.43043503 0.27643225 -0.27252296
-0.10365918 0.25934377 -0.19088171 0.13048889 0.116179414 0.050684217 -0.22661354 0.071743265
-0.6084491 0.7260353 0.32906166 0.5782928 -0.534555 -0.5755179 -0.77710354 -0.08367834
0.020733355 0.27984354 0.17677729 0.12739444 0.03074896 -0.03710145 0.0042704307 -0.61968213
0.26204368 0.14733587 -0.00071484665 0.16358548 -0.076216996 0.16640922 0.23111647 0.3440097
0.16812904 0.22015767 -0.103038535 -0.31680733 -0.11540528 -0.05862635 -0.14346452 -0.37143257
-0.10894734 0.26874256 0.05773194 -0.38310608 -0.11137585 0.06263627 -0.19848457 -0.14542206
-0.16885264 -0.117260985 0.29703927 -0.28179717 0.36602345 0.19159414 -0.23651293 -0.23424849
-1.0345141 1.2526081 0.26141077 0.36494774 0.7516462 0.4978462 -0.7155518 -1.1556815
-0.021988587 -0.14538816 0.041509513 -0.34839696 0.6892109 -0.12139638 0.25740257 0.023073494
0.044846073 -0.012221374 -0.082840584 -0.47850534 0.058929857 -0.34169582 -0.14989077 0.3518
0.47233298 0.40506032 -0.3402648 -0.05929032 -0.3397944 0.50616133 0.47164273 0.3490907
0.1868222 0.30954796 0.51814675 0.27396268 -0.56338006 -0.4849371 0.21617697 -0.72772205
0.09376379 0.04909985 0.23272248 0.042188816 0.16698705 0.020576809 -0.25439242 0.19548167
-0.1657571 -0.14748526 -0.48313397 -0.5144811 0.20053695 0.4457702 0.16638093 -0.09808295
-0.024383944 -0.29151976 0.28783107 0.32091278 -0.13474226 0.36324537 0.06282307 0.009274964
0.18200111 -0.20797771 -0.46722877 -0.5372223 1.3196793 0.20573325 0.8194015 -0.0642944
-0.46141377 0.18227285 -0.39537656 -0.005948382 -0.31270465 -0.020308277 0.114167586 0.6165899
-0.18724968 -0.354808 0.08438695 -0.04802857 0.26452997 -0.25508127 -0.26066494 -0.036016755
0.053605285 -0.15471031 6.800753e-05 0.22130473 -0.0980666 -0.08640005 -0.445498 -0.35992488
-0.1577029 0.014119568 0.21669261 0.049476843 -0.007993468 0.06732113 -0.043029774 -0.27443525
0.13252723 0.040625945 -0.034858827 0.48995474 0.06137361 0.15596487 0.18350942 -0.050625853
-0.20370285 0.69688773 -0.08560975 0.11652263 0.35656822 0.18353833 -0.68250626 -0.4475623
00000000: 60b2 2e3d beca c03d c86f bdbc 30df 18bf
00000010: 0328 8bbe bbba d43e 779d 903e a237 3d3e
00000020: 4445 6dbe c9e5 e7bd 0a5d 383e 89f3 64bd
00000030: 355b 86be 1a10 c83e e3c9 ea3d fbee 783e
00000040: 0ae8 33bf d070 84bc 081d b9be fd08 b0be
00000050: f1d8 133f d9a2 493f c742 9dbe f5dd c73e
00000060: c3ae 973e 5827 00bf b33e 793e 831a a83d
00000070: 4e5c 99be 219a 6cbd 4525 183f 2a4b ad3e
00000080: 7986 3bbf 0f2c 363f fbc9 9d3e 12c4 0e3f
00000090: 8cb4 d8be 9f22 5fbf 2059 d1be f240 03be
000000a0: c286 1fbe 6c9d a53e 4705 ffbe 7953 8b3e
000000b0: 033e 66be 4569 7b3e 2095 a23e e7a6 8f3e
000000c0: a8df 573d 9bf5 8fbe 1586 ecbc a025 c83e
000000d0: 7e8a c9bd 46a0 10be d3bb d7be 176e 8bbe
000000e0: 6242 f13e 1eb6 013f 86b8 ee3e a96e 103f
000000f0: a82c a0bd 62f8 6cbe d57a 7abe 67e6 14bf
00000100: f01c 2b3f 441c 7abe 803b f4bd ccc4 bb3e
00000110: ee66 be3e 7489 a3be 9f3e 14bf 2226 513d
00000120: f221 9cbe 25cf 1dbd 2acd 33bf 3d68 54be
00000130: a86d ee3e fb61 dc3e 8788 8d3e 2188 8bbe
00000140: 444b d4bd b5c8 843e 7f76 43be e19e 053e
00000150: 79ef ed3d 419a 4f3d 610d 68be 22ee 923d
00000160: 52c3 1bbf 73dd 393f c57a a83e ff0a 143f
00000170: 99d8 08bf 2455 13bf 42f0 46bf 8d5f abbd
00000180: ffd8 a93c a747 8f3e 1b05 353e b073 023e
00000190: 3ee5 fb3c b1f7 17bd f8ee 8b3b 7da3 1ebf
000001a0: 972a 863e 37df 163e 8c64 3bba f482 273e
000001b0: a817 9cbd 2e67 2a3e cca9 6c3e 0a22 b03e
000001c0: 052a 2c3e 0371 613e de05 d3bd 9234 a2be
000001d0: 9a59 ecbd 2f22 70bd 5de8 12be 692c bebe
000001e0: c81f dfbd a098 893e 5478 6c3d 7b26 c4be
000001f0: 0619 e4bd 7247 803d 8a3f 4bbe 85e9 14be
00000200: b5e7 2cbe 8726 f0bd 8815 983e b847 90be
00000210: 6d67 bb3e 4131 443e 7230 72be d6de 6fbe
00000220: f56a 84bf 7655 a03f a2d7 853e 6eda ba3e
00000230: e36b 403f b2e5 fe3e 672e 37bf 5fed 93bf
00000240: 6921 b4bc a2e0 14be e105 2a3d 1661 b2be
00000250: 2070 303f aa9e f8bd 45ca 833e a004 bd3c
00000260: 84b0 373d 283c 48bc 53a8 a9bd a7fe f4be
00000270: 6f60 713d c1f2 aebe f77c 19be 211f b43e
00000280: a1d5 f13e 1164 cf3e 3037 aebe 68da 72bd
00000290: 88f9 adbe ca93 013f 287b f13e 04bc b23e
000002a0: 524e 3f3e 127d 9e3e 44a5 043f d644 8c3e
000002b0: ad39 10bf ad49 f8be 7f5d 5d3e fe4b 3abf
000002c0: 3b07 c03d ed1c 493d cd4e 6e3e 2ece 2c3d
000002d0: a7fe 2a3e b290 a83c b93f 82be 592c 483e
000002e0: 3bbc 29be 6006 17be 565d f7be 09b5 03bf
000002f0: 8f59 4d3e fe3b e43e c35f 2a3e b7df c8bd
00000300: d6c0 c7bc 1442 95be 985e 933e ae4e a43e
00000310: e0f9 09be 4cfb b93e 62a9 803d 05f6 173c
00000320: 805e 3a3e 1cf8 54be 9c38 efbe 6787 09bf
00000330: 40eb a83f bdab 523e 4cc4 513f c8ac 83bd
00000340: 6d3e ecbe bca5 3a3e cc6e cabe a5ea c2bb
00000350: d31a a0be 8b5d a6bc b2d0 e93d d6d8 1d3f
00000360: 61be 3fbe 65a9 b5be 11d3 ac3d 9bb9 44bd
00000370: 7970 873e 039a 82be e075 85be 4e86 13bd
00000380: 3791 5b3d 616c 1ebe 449f 8e38 b59d 623e
00000390: 24d7 c8bd 82f2 b0bd 5018 e4be 1348 b8be
000003a0: de7c 21be c355 673c abe4 5d3e 3ba8 4a3d
000003b0: 09f7 02bc a9df 893d fd3f 30bd c782 8cbe
000003c0: 38b5 073e 6467 263d 21c8 0ebd 59db fa3e
000003d0: e562 7b3d 41b5 1f3e e5e9 3b3e 0e5d 4fbd
000003e0: 7b97 50be 3c67 323f 2a54 afbd 6ba3 ee3d
000003f0: 1c90 b63e 79f1 3b3e bbb8 2ebf e326 e5be

encoder_variable_selection.flattened_grn.fc1.bias f4 [7]
-0.29677612 0.045199882 -0.049723305 -0.19073795 0.18628556 -0.07389477 -0.1740577
00000000: 0af3 97be 8323 393d aaaa 4bbd cf50 43be
00000010: a4c1 3e3e 2456 97bd 2f3c 32be

encoder_variable_selection.flattened_grn.context.weight f4 [7, 16]
-0.46852568 1.4687018 0.34266385 -0.14916505 -0.7485023 -0.42075008 0.6943086 0.42898032
0.10355871 -0.39440513 -0.54672813 0.09471274 0.20723586 -0.7673864 -0.11784418 -0.17068447
-0.040381897 -0.24252112 -0.34858528 0.13832901 -0.20858476 0.20806138 -1.6001732 -0.24374889
0.89493245 0.524433 -0.06950758 -0.53248274 0.0030685903 -0.15011434 1.4598948 -0.21531098
-0.2184584 -0.26803324 -0.75315946 0.10819429 -0.24797878 -0.3963534 -0.51209044 -0.008841227
-0.29253715 0.5892889 0.31989402 -0.043789156 -0.68555725 -0.27191013 0.28287262 0.04252008
-0.014525438 -0.32941225 -0.61278194 0.042531513 -0.20102596 0.3353293 0.59265774 0.5217002
0.16820085 -0.81705886 0.3752549 0.7407301 -0.14997756 -0.35580805 0.17401205 -0.84426594
0.08663534 -0.1261266 -0.10742538 0.012759902 0.057511367 -0.21034364 0.2845229 -0.18300617
-0.4373511 -0.40368405 -0.034897663 0.24337399 -0.16683559 0.21960935 -0.37287205 0.001655047
0.26549128 0.2983057 -0.4944048 -0.043816905 0.13385905 -0.1711407 -0.1327639 0.21367826
7.216318e-07 -0.10888476 0.13789076 0.46505454 -0.27955514 0.49939665 0.08524052 -0.10879955
-0.3415032 0.9713844 -0.08888527 -0.06345972 0.18318471 -0.22446655 -0.14479023 -0.24956125
0.5683237 -0.5800617 0.09531897 0.06313026 -0.08278835 -0.16403309 -0.1672765 0.54871255
00000000: 99e2 efbe 6cfe bb3f a371 af3e b9be 18be
00000010: d99d 3fbf 8e6c d7be 35be 313f 4fa3 db3e
00000020: 9716 d43d 78ef c9be 60f6 0bbf c1f8 c13d
00000030: a335 543e 6f73 44bf 4a58 f1bd e9c7 2ebe
00000040: 7d67 25bd 7557 78be c579 b2be 1fa6 0d3e
00000050: 3e97 55be 0b0e 553e 7ad2 ccbf 4f99 79be
00000060: 4b1a 653f 3e41 063f fd59 8ebd ca50 08bf
00000070: 671a 493b 93b7 19be d5dd ba3f 7b7a 5cbe
00000080: 8fb3 5fbe a73b 89be 0fcf 40bf f894 dd3d
00000090: 26ee 7dbe d5ee cabe 5c18 03bf cbda 10bc
000000a0: 6ec7 95be a3db 163f 26c9 a33e 425c 33bd
000000b0: ae80 2fbf ce37 8bbe aed4 903e 8929 2e3d
000000c0: 1afc 6dbc b9a8 a8be 47df 1cbf 8635 2e3d
000000d0: c0d9 4dbe 48b0 ab3e 6bb8 173f 258e 053f
000000e0: d83c 2c3e c52a 51bf 6921 c03e 7da0 3d3f
000000f0: b893 19be 792c b6be 3730 323e d021 58bf
00000100: de6d b13d 5527 01be d601 dcbd e80e 513c
00000110: 0a91 6b3d 5364 57be fcac 913e f865 3bbe
00000120: 7cec dfbe adaf cebe daf0 0ebd 0837 793e
00000130: f3d6 2abe 46e1 603e 16e9 bebe 29ee d83a
00000140: 79ee 873e 86bb 983e a022 fdbe 5b79 33bd
00000150: 5912 093e 823f 2fbe 43f3 07be 79ce 5a3e
00000160: 29b6 4135 f9fe debd 3c33 0d3e a11b ee3e
00000170: da21 8fbe ebb0 ff3e 9592 ae3d 4cd2 debd
00000180: 82d9 aebe a6ac 783f 7b09 b6bd 2bf7 81bd
00000190: c694 3b3e 8fda 65be e443 14be fc8c 7fbe
000001a0: a97d 113f ec7e 14bf 9836 c33d 704a 813d
000001b0: f08c a9bd 4af8 27be 884a 2bbe 6d78 0c3f

encoder_variable_selection.flattened_grn.fc2.weight f4 [7, 7]
-0.047414884 1.0432264 0.60426384 0.1525534 0.783919 -0.26913002 -0.3523039 0.41247922
0.06797042 0.1832933 0.1847894 -0.98016393 0.68679214 -1.4488778 -0.3616258 -0.21712822
0.55343735 0.00065466226 -0.4544842 0.73551214 0.027343197 0.2879389 0.06899686 -1.1468573
0.06743567 -0.270898 0.03328244 -0.48198625 0.47352186 -1.0821177 -0.54468024 0.55405354
-0.38130733 -0.06939951 0.8517763 -1.0444455 0.3977634 -0.13337131 -0.36687472 -0.6155976
1.131945 0.13201433 0.28461218 0.3777345 -0.22496541 0.09288558 0.015214116 -0.26065686
-0.523951
00000000: 1c36 42bd 7188 853f 09b1 1a3f f536 1c3e
00000010: eaae 483f 69cb 89be 2d61 b4be 7a30 d33e
00000020: 1334 8b3d 3db1 3b3e 6f39 3d3e 06ec 7abf
00000030: 9cd1 2f3f d474 b9bf 0427 b9be dc56 5ebe
00000040: 12ae 0d3f a49d 2b3a 27b2 e8be 864a 3c3f
00000050: d7fe df3c ba6c 933e 3a4e 8d3d 38cc 92bf
00000060: b61b 8a3d 25b3 8abe 2b53 083d e7c6 f6be
00000070: 7571 f23e d582 8abf 2a70 0bbf 74d6 0d3f
00000080: b73a c3be 5521 8ebd 030e 5a3f 64b0 85bf
00000090: a5a7 cb3e 7d92 08be 01d7 bbbe ce97 1dbf
000000a0: 93e3 903f c42e 073e b0b8 913e 6b66 c13e
000000b0: 555d 66be cc3a be3d a144 793c d174 85be
000000c0: a721 06bf

encoder_variable_selection.flattened_grn.fc2.bias f4 [7]
0.018979726 -0.19254737 0.07420723 -0.19256087 -0.21223019 -0.20401324 0.273002
00000000: 5f7b 9b3c 232b 45be f6f9 973d ad2e 45be
00000010: df52 59be d9e8 50be ebc6 8b3e

encoder_variable_selection.flattened_grn.gate_norm.glu.fc.weight f4 [14, 7]
0.08482766 -0.045244638 -0.320655 0.18094875 0.04467992 -0.38493195 0.5309913 0.36728102
0.25683004 0.31664652 -0.31875432 0.013976939 0.25349602 -0.03836296 0.12029927 -0.19490899
0.473182 0.09396082 0.07958374 -0.052188214 0.20078826 -0.9287873 0.79994744 0.4230033
0.69124776 0.8389178 0.4871076 -0.33268425 -0.043629155 0.04163309 0.13242236 0.67954284
0.34395343 -0.6900013 0.49856198 -0.60231555 -0.001975822 0.010333126 0.5152176 0.76495576
0.011707605 -0.7289599 0.4544612 -0.49919692 -0.23274964 -0.34567657 -0.18208528 -0.63264084
0.2730598 0.49715656 -0.31400865 0.04133787 -0.5083379 -0.05627636 -0.47613958 -0.048473462
-0.59683394 -0.32840067 0.01836962 0.23331594 0.29128498 0.21966925 -0.4589239 0.16458863
0.5058949 -0.17080615 -0.31029987 0.4773584 0.26053393 -0.53107697 0.6361967 -0.84083766
-0.13987345 -0.5915684 -0.22861692 -0.88144565 0.4110088 0.7943256 -0.13350973 -0.034094706
-0.5631184 -0.3857402 0.031471383 -0.29556638 0.36891255 0.2364732 0.03370166 -0.5857997
-0.45443785 0.13887948 0.38411042 0.68172604 -0.2938256 -0.43677595 -0.43272388 -0.2987339
-0.6639516 0.15182379
00000000: 20ba ad3d 7152 39bd e42c a4be a14a 393e
00000010: 4b02 373d cd15 c5be 0cef 073f 420c bc3e
00000020: 3a7f 833e 7e1f a23e c433 a3be 88ff 643c
00000030: 3bca 813e 7b22 1dbd 775f f63d 3996 47be
00000040: e944 f23e 886e c03d cdfc a23d 4fc3 55bd
00000050: 709b 4d3e 01c5 6dbf 5bc9 4c3f e393 d83e
00000060: 9df5 303f 51c3 563f 2b66 f93e 9755 aabe
00000070: 7cb4 32bd 7587 2a3d ba99 073e 85f6 2d3f
00000080: aa1a b03e eda3 30bf 8443 ff3e 5a31 1abf
00000090: cb7c 01bb 464c 293c 4de5 033f 24d4 433f
000000a0: 41d1 3f3c 1e9d 3abf 23af e83e bd96 ffbe
000000b0: ec55 6ebe 85fc b0be 9074 3abe c0f4 21bf
000000c0: 7ece 8b3e 4e8b fe3e bec5 a0be e651 293d
000000d0: 6f22 02bf 0a82 66bd 91c8 f3be 1c8c 46bd
000000e0: 1cca 18bf 2224 a8be e37b 963c 60ea 6e3e
000000f0: 4e23 953e faf0 603e 13f8 eabe ec89 283e
00000100: 5482 013f cfe7 2ebe a0df 9ebe 5268 f43e
00000110: b464 853e a9f4 07bf c9dd 223f 2341 57bf
00000120: fc3a 0fbe 0771 17bf 8e1a 6abe 6ca6 61bf
00000130: bf6f d23e ec58 4b3f c6b6 08be e4a6 0bbd
00000140: 8728 10bf bd7f c5be 23e8 003d 7a54 97be
00000150: 1be2 bc3e 0826 723e c00a 0a3d f8f6 15bf
00000160: 14ac e8be 6c36 0e3e 1faa c43e 9985 2e3f
00000170: 4f70 96be 19a1 dfbe fc8d ddbe a6f3 98be
00000180: bbf8 29bf b277 1b3e

encoder_variable_selection.flattened_grn.gate_norm.glu.fc.bias f4 [14]
0.21771072 -0.85214615 -0.0192355 -0.9653648 -0.41299874 0.2505562 0.70172346 -0.09808999
-0.15811095 -1.1597736 0.20885077 0.39924422 -0.94826055 0.45613465
00000000: 8fef 5e3e 4026 5abf c493 9dbc 2622 77bf
00000010: 9274 d3be e748 803e 26a4 333f 68e3 c8bd
00000020: d6e7 21be 7673 94bf fadc 553e bd69 cc3e
00000030: 34c1 72bf 7b8a e93e

encoder_variable_selection.flattened_grn.gate_norm.add_norm.norm.weight f4 [7]
0.48643917 0.13836928 0.66178787 0.646583 -0.08670909 1.6994454 0.7621867
00000000: 8e0e f93e adb0 0d3e ee6a 293f 7786 253f
00000010: 8994 b1bd 6d87 d93f ab1e 433f

encoder_variable_selection.flattened_grn.gate_norm.add_norm.norm.bias f4 [7]
0.11425599 -0.054996576 0.13522863 -0.060152113 0.012574686 -0.29348472 0.110389344
00000000: 0bff e93d 1744 61bd 6079 0a3e 1062 76bd
00000010: 0e06 4e3c a143 96be cf13 e23d

encoder_variable_selection.single_variable_grns.SinWeekly.resample_norm.mask f4 [16]
-0.107765 -0.78893137 -0.21346845 0.13274945 -0.7000708 0.028918395 -0.99311984 0.61396813
-1.2605662 -1.0809082 -0.79992515 -0.5118174 -0.40512246 -0.3924306 0.055221528 1.7079761
00000000: e5b3 dcbd 68f7 49bf 7997 5abe 79ef 073e
00000010: d737 33bf 45e6 ec3c 1a3d 7ebf 042d 1d3f
00000020: 3c5a a1bf 335b 8abf e5c7 4cbf 7706 03bf
00000030: 366c cfbe aaec c8be f82f 623d f69e da3f

encoder_variable_selection.single_variable_grns.SinWeekly.resample_norm.norm.weight f4 [16]
1.0805657 0.49600387 0.93531805 1.2612454 0.68546224 1.036277 -0.03162111 1.712615
0.6543456 0.56985 0.61254746 -0.08510373 0.6334309 0.8225758 0.79000723 2.5228267
00000000: fa4f 8a3f 38f4 fd3e 0171 6f3f 7d70 a13f
00000010: 747a 2f3f baa4 843f 2385 01bd f836 db3f
00000020: 3183 273f b1e1 113f e9cf 1c3f dd4a aebd
00000030: 8728 223f 5494 523f ea3d 4a3f fe75 2140

encoder_variable_selection.single_variable_grns.SinWeekly.resample_norm.norm.bias f4 [16]
-0.12391404 -0.08488067 0.26571983 0.08445796 0.24734291 -0.0035556299 -0.49600887 -0.1484209
-0.2172081 -0.2904162 -0.26803386 0.20783623 0.30384254 0.132271 0.39431736 0.41341203
00000000: a5c6 fdbd ebd5 adbd 6e0c 883e 4cf8 ac3d
00000010: 7647 7d3e 9205 69bb e0f4 fdbe a6fb 17be
00000020: cd6b 5ebe 6fb1 94be bc3b 89be 05d3 543e
00000030: 4091 9b3e 0d72 073e f7e3 c93e beaa d33e

encoder_variable_selection.single_variable_grns.SinWeekly.fc1.weight f4 [8, 8]
0.6345617 0.21403877 0.0026510202 0.068127625 -0.2415697 0.21134117 -0.60169417 -0.21770209
-0.043666307 -0.08935673 1.318787 0.35658264 -0.16820374 -0.6457871 0.35302004 -0.5113611
-0.15421702 -0.15175869 1.3717352 -0.48820928 0.5805495 -0.82437515 -0.32303017 -1.1362636
0.18228623 0.82944816 0.13584684 0.104920946 -0.5312103 -0.73173267 -0.4680795 -1.406316
1.1628327 -0.3626538 -0.36793563 -0.7067837 -0.7469548 0.3216291 -0.48138675 0.9828256
-0.52259207 -0.16363513 0.52760625 -0.16279206 0.7789458 -1.1780874 0.4618823 0.2541305
-0.38443413 1.4938502 0.36364985 0.58628446 -0.652776 -0.46442693 0.120555565 -1.0167636
-0.2138009 -0.38347867 0.22565645 -2.7203803 -0.08596945 0.117167585 1.6072096 0.8175915
00000000: a372 223f fb2c 5b3e bdbc 2d3b 7f86 8b3d
00000010: 0c5e 77be d269 583e a108 1abf 4ced 5ebe
00000020: 71db 32bd a900 b7bd 03ce a83f 0092 b63e
00000030: 9a3d 2cbe 4e52 25bf 0bbf b43e 90e8 02bf
00000040: 11eb 1dbe a166 1bbe 0595 af3f 91f6 f9be
00000050: e49e 143f 400a 53bf 3664 a5be 1671 91bf
00000060: 3ea9 3a3e b756 543f 6f1b 0b3e cbe0 d63d
00000070: 66fd 07bf d552 3bbf 1ea8 efbe 2a02 b4bf
00000080: b4d7 943f c2ad b9be 0f62 bcbe c7ef 34bf
00000090: 6e38 3fbf 92ac a43e 5378 f6be 759a 7b3f
000000a0: 98c8 05bf f88f 27be 3411 073f f6b2 26be
000000b0: fe68 473f 91cb 96bf d67b ec3e 651d 823e
000000c0: 8dd4 c4be 7c36 bf3f 5030 ba3e bd16 163f
000000d0: 541c 27bf 5ec9 edbe d6e5 f63d 4f25 82bf
000000e0: a0ee 5abe 5157 c4be 7c12 673e b61a 2ec0
000000f0: c010 b0bd 8ff5 ef3d 0bb9 cd3f ad4d 513f

encoder_variable_selection.single_variable_grns.SinWeekly.fc1.bias f4 [8]
-0.09231557 -0.107686415 -0.034953352 -0.20237923 -0.0992575 0.05611285 -0.12344827 -0.20727634
00000000: f20f bdbd b28a dcbd 3f2b 0fbd 803c 4fbe
00000010: 8447 cbbd 96d6 653d 72d2 fcbd 4040 54be

encoder_variable_selection.single_variable_grns.SinWeekly.fc2.weight f4 [8, 8]
-0.38980412 -0.38166142 -0.4453785 0.011547358 -0.56221074 -0.16814469 -0.48220646 0.94011813
0.09205663 -0.5824096 -0.058311492 -0.4830741 -0.8333994 -0.087720975 -0.5894504 -1.5443335
-0.26018426 -0.43012068 -0.07156751 -0.3020534 0.05299617 -0.26897812 -0.15484497 0.7896483
0.1526936 0.21717933 0.7867561 0.60239094 -0.013966599 -0.0054979785 0.30023852 0.2314134
0.07829717 -0.22486204 0.028439632 -0.43663976 -0.501206 0.23948924 -1.0121078 0.84895915
-0.32832357 0.21074106 -0.643347 0.6642081 -0.016621245 0.0975357 0.8096156 0.12160076
-0.35970697 -0.15375444 -0.29752856 -0.29514113 0.39275706 0.04151926 -1.1828846 -0.45024246
0.12775137 0.24991955 -0.42721236 0.33369854 -0.72869813 -0.076387554 -0.5396058 -0.9546044
00000000: 6894 c7be 2069 c3be a708 e4be 2131 3d3c
00000010: 0bed 0fbf 1f2e 2cbe c4e3 f6be 95ab 703f
00000020: 3088 bc3d cc18 15bf 08d8 6ebd 7d55 f7be
00000030: aa59 55bf 0ea7 b3bd 39e6 16bf b8ac c5bf
00000040: df36 85be c738 dcbe fd91 92bd bea6 9abe
00000050: 8312 593d 80b7 89be ae8f 1ebe 6426 4a3f
00000060: b65b 1c3e 4264 5e3e d968 493f 4b36 1a3f
00000070: 29d4 64bc 6328 b4bb ddb8 993e a2f7 6c3e
00000080: 445a a03d 3c42 66be 3bfa e83c 3f8f dfbe
00000090: 094f 00bf ab3c 753e c08c 81bf 6355 593f
000000a0: 071a a8be 81cc 573e 64b2 24bf 8b09 2a3f
000000b0: 4729 88bc ccc0 c73d f842 4f3f d209 f93d
000000c0: 832b b8be ce71 1dbe aa55 98be bd1c 97be
000000d0: 7417 c93e 1910 2a3d c368 97bf 2e86 e6be
000000e0: 41d1 023e e9ea 7f3e 94bb dabe 89da aa3e
000000f0: f68b 3abf 1471 9cbd 9b23 0abf f460 74bf

encoder_variable_selection.single_variable_grns.SinWeekly.fc2.bias f4 [8]
-0.011686222 -0.070653446 -0.09670648 -0.0749346 -0.124934226 -0.05476646 -0.13155438 0.05474907
00000000: 9177 3fbc c1b2 90bd 0c0e c6bd 5077 99bd
00000010: 84dd ffbd cc52 60bd 31b6 06be 9040 603d
