race-groups/results/White/checkpoints/best-epoch=0.ckpt (torch, 735597 bytes, 506 tensors)

prescalers.White.weight f4 [8, 1]
0.15549365 -0.6617839 0.17788248 0.36896032 -0.47956994 -0.12837279 -0.44998077 0.2010057
00000000: ba39 1f3e ab6a 29bf d326 363e 5ee8 bc3e
00000010: 318a f5be 2874 03be e163 e6be 70d4 4d3e

prescalers.White.bias f4 [8]
-0.17162889 0.5147905 0.8796168 0.28216615 -0.48860183 -0.77865195 -0.42118633 0.012411067
00000000: 7cbf 2fbe 4fc9 033f 912e 613f 1578 903e
00000010: 052a fabe bc55 47bf bca5 d7be ca57 4b3c

prescalers.SinWeekly.weight f4 [8, 1]
0.16618069 -1.0776109 0.98178595 -0.9257149 0.7829561 -0.22248065 0.70443636 0.41741163
00000000: 452b 2a3e 27ef 89bf 5356 7b3f a7fb 6cbf
00000010: d06f 483f f8d1 63be f155 343f fab6 d53e

prescalers.SinWeekly.bias f4 [8]
0.102461144 0.013145265 0.6595429 0.24248633 0.41560832 -0.62077326 0.74613005 0.39927727
00000000: 26d7 d13d 3d5f 573c ced7 283f 564e 783e
00000010: 9dca d43e ffea 1ebf 6102 3f3f 126e cc3e

prescalers.VaccinationFull.weight f4 [8, 1]
0.13465104 0.20194277 0.5120861 0.83437407 -0.17301244 -0.6359994 -0.27989647 -0.66423476
00000000: f6e1 093e 16ca 4e3e 1318 033f 8a99 553f
00000010: 2c2a 31be dbd0 22bf 974e 8fbe 4a0b 2abf

prescalers.VaccinationFull.bias f4 [8]
0.72230613 -0.5692877 -0.31162164 1.1397448 0.89710695 0.048238624 -0.40221334 -0.007283627
00000000: 0ee9 383f d7bc 11bf df8c 9fbe 28e3 913f
00000010: cda8 653f dd95 453d e8ee cdbe 7eab eebb

prescalers.Cases.weight f4 [8, 1]
0.5127635 -1.0492008 -0.9815353 0.5856692 1.2394764 -0.086679615 -0.59427327 0.25844443
00000000: 7844 033f 364c 86bf e645 7bbf 6bee 153f
00000010: 2aa7 9e3f 1585 b1bd 4b22 18bf d452 843e

prescalers.Cases.bias f4 [8]
-0.73463297 -0.069540665 0.559998 0.25223607 -0.00617937 -0.08977575 0.47377384 -0.8700289
00000000: e810 3cbf 566b 8ebd 075c 0f3f 1625 813e
00000010: 507c cabb 59dc b7bd 7c92 f23e 37ba 5ebf

static_variable_selection.single_variable_grns.White.resample_norm.mask f4 [16]
-0.06821402 -0.006533621 -0.30534956 0.17022005 0.13304637 -0.044553235 0.069239706 0.09486009
-0.19557482 0.11251198 -0.10665989 0.3272273 0.20916969 -0.06192021 -0.4499395 -0.22271308
00000000: cbb3 8bbd fc17 d6bb c756 9cbe 2a4e 2e3e
00000010: 4f3d 083e 747d 36bd 8ccd 8d3d 0246 c23d
00000020: c444 48be ae6c e63d 8070 dabd 568a a73e
00000030: 9430 563e 0ca0 7dbd 785e e6be e60e 64be

static_variable_selection.single_variable_grns.White.resample_norm.norm.weight f4 [16]
1.0450389 0.97453517 0.8208117 1.1998031 1.1824055 0.9138442 1.0832427 1.1424727
0.8274597 1.1491697 0.9254483 1.3325018 1.2765492 1.0044268 0.89872056 0.86394143
00000000: d6c3 853f 237b 793f b720 523f 2693 993f
00000010: 1059 973f b2f1 693f b2a7 8a3f 8c3c 923f
00000020: 66d4 533f fe17 933f 2eea 6c3f 6b8f aa3f
00000030: f765 a33f 0f91 803f 8d12 663f 442b 5d3f

static_variable_selection.single_variable_grns.White.resample_norm.norm.bias f4 [16]
0.06473915 -0.033076596 -0.15227579 0.17559098 0.18658218 0.10985176 0.02594392 0.054897837
-0.07405529 -0.08457352 0.03799053 -0.2793026 -0.12070472 -0.17807001 0.033162758 0.17764965
00000000: f695 843d 537b 07bd 2fee 1bbe 1fce 333e
00000010: 660f 3f3e f6f9 e03d 5888 d43c 8edc 603d
00000020: 4daa 97bd e234 adbd f59b 1b3d c000 8fbe
00000030: 0934 f7bd fc57 36be acd5 073d cae9 353e

static_variable_selection.single_variable_grns.White.fc1.weight f4 [8, 8]
0.26551238 -0.399039 -0.5597325 -0.556178 -0.1718133 -1.4317366 0.3234778 -0.5887063
-0.6491109 -0.8461344 -0.03695495 0.64557815 -0.29324335 -0.55111563 0.63767964 -0.046379067
0.31143534 0.27391326 0.46652892 -0.19243552 0.06509793 -0.14693056 0.25875673 -0.17968845
-0.6327849 -0.10096664 -0.016952619 -0.40589267 -0.20112243 0.16240434 -0.129993 0.631926
-0.25785217 0.33777738 -0.20373411 -0.09207922 -0.44983038 1.0335264 0.224089 0.14346328
0.33491194 -0.1443857 -0.2506747 0.058355488 0.38980958 -0.36173502 0.05712814 -0.16086096
-0.07010413 -0.6966686 -0.19088168 0.21725114 0.39328018 1.2872751 0.40570498 -0.12211325
-0.71908045 -0.5268371 -0.06505696 0.44062963 0.016299546 -0.48761812 0.31054008 0.07632781
00000000: 3df1 873e d74e ccbe a14a 0fbf ae61 0ebf
00000010: d3ef 2fbe 2543 b7bf e29e a53e 75b5 16bf
00000020: 222c 26bf 449c 58bf 135e 17bd 9c44 253f
00000030: fe23 96be ea15 0dbf f93e 233f faf7 3dbd
00000040: 7474 9f3e 5c3e 8c3e e1dc ee3e d10d 45be
00000050: 1052 853d f774 16be c37b 843e 4000 38be
00000060: 31fe 21bf 99c7 cebd 38e0 8abc 2ad1 cfbe
00000070: 0af3 4dbe 534d 263e e31c 05be e7c5 213f
00000080: 3305 84be 28f1 ac3e ad9f 50be 0894 bcbd
00000090: 2b50 e6be 984a 843f 9677 653e 0ae8 123e
000000a0: 9479 ab3e d8d9 13be 6f58 80be 2a06 6f3d
000000b0: 1f95 c73e 5535 b9be 32ff 693d bcb8 24be
000000c0: c192 8fbd e058 32bf 7d76 43be 1577 5e3e
000000d0: 055c c93e 6ec5 a43f 90b8 cf3e 8316 fabd
000000e0: a815 38bf ccde 06bf 953c 85bd 359a e13e
000000f0: a086 853c 15a9 f9be 1cff 9e3e c151 9c3d

static_variable_selection.single_variable_grns.White.fc1.bias f4 [8]
-0.018974165 0.16805273 -0.12184088 -0.013322472 -0.07734464 -0.028786931 0.07217376 0.034818627
00000000: b56f 9bbc 0416 2c3e b687 f9bd 7f46 5abc
00000010: de66 9ebd 92d2 ebbc d6cf 933d fa9d 0e3d

static_variable_selection.single_variable_grns.White.fc2.weight f4 [8, 8]
-0.058601916 0.6788643 0.11097188 -0.20986982 0.18407463 -0.3337052 0.70143706 0.77158725
-0.3372025 -0.49747795 0.21631624 -0.0080693625 0.23863669 -0.10682456 0.37557414 0.097160906
-0.19821389 0.46255174 -0.17618509 0.23223056 0.101025954 -0.38135824 -0.20766935 0.692747
0.625363 0.0046762237 0.48088297 -0.2576946 -0.07130806 -0.19584523 0.6296624 -0.68365526
0.11888708 -0.23143777 0.08876172 0.20639788 0.33014557 0.16575785 0.62235403 0.046521004
0.11670345 -0.18271023 -0.45656863 0.036198825 0.19963768 -0.061324153 -0.6756652 0.100462034
-0.5303442 0.24718459 -0.110610895 0.045896944 0.20904778 0.2544885 -0.35080838 -0.20658247
0.2838077 0.3974508 -0.6559627 -0.10639998 -0.0008656342 -0.07311751 0.2563778 -0.42814538
00000000: 9008 70bd 0dca 2d3f 3a45 e33d 1de8 56be
00000010: 0f7e 3c3e 68db aabe 6191 333f be86 453f
00000020: cea5 acbe 6eb5 febe 0182 5d3e 5c35 04bc
00000030: 2d5d 743e d6c6 dabd 414b c03e 4cfc c63d
00000040: 95f8 4abe 95d3 ec3e dd69 34be d9cd 6d3e
00000050: b2e6 ce3d 6341 c3be 46a7 54be de57 313f
00000060: ca17 203f 023b 993b 4b36 f63e 8cf0 83be
00000070: f609 92bd a78b 48be 8e31 213f 0804 2fbf
00000080: 127b f33d 06fe 6cbe b4c8 b53d f759 533e
00000090: d708 a93e 6dbc 293e 9852 1f3f cf8c 3e3d
000000a0: 3802 ef3d 6418 3bbe 5dc3 e9be 3845 143d
000000b0: d26d 4c3e 092f 7bbd 65f8 2cbf 0abf cd3d
000000c0: a3c4 07bf f51d 7d3e f787 e2bd 6ffe 3b3d
000000d0: 9f10 563e 514c 823e 289d b3be 5b8a 53be
000000e0: 3e4f 913e ac7e cb3e 2ced 27bf 3ce8 d9bd
000000f0: baeb 62ba a2be 95bd f343 833e df35 dbbe

static_variable_selection.single_variable_grns.White.fc2.bias f4 [8]
0.096740946 0.016641455 -0.10967165 -0.05804974 -0.08373434 -0.06807525 -0.05756176 0.054387733
00000000: 1e20 c63d a953 883c 889b e0bd 90c5 6dbd
00000010: e97c abbd 096b 8bbd e1c5 6bbd acc5 5e3d

static_variable_selection.single_variable_grns.White.gate_norm.glu.fc.weight f4 [32, 8]
-0.096573204 0.0008951026 -0.06338338 -0.32821044 -0.10392358 -0.20712636 -0.44993174 0.28780365
0.06928018 0.45380574 -0.14903946 0.26711267 -0.24024154 0.11731808 -0.13835964 -0.18717371
0.42821956 0.21983998 -0.2912902 -0.011140585 0.3407637 -0.17218539 -0.05401602 0.32805794
-0.49687788 0.28935114 -0.5444629 0.0010930671 0.10722982 -0.46273282 -0.08748041 0.09819713
-0.122402124 -0.2960098 0.27797562 -0.28491762 -0.026342623 -0.19632675 -0.117496185 -0.07110831
0.18477371 -0.03660862 -0.47764838 0.27935836 -0.17573795 -0.1377292 0.26303363 0.18657945
-0.21121973 -0.029630382 -0.014635524 0.073064595 -0.18213052 -0.092019275 0.07538664 0.28280872
0.37342092 0.088113725 0.11617857 -0.028060801 -0.364354 0.060903586 -0.03540435 0.04937787
-0.15066038 -0.41665754 0.3300178 -0.011566278 0.34454772 0.2541756 0.22525068 0.2371985
0.19930227 -0.05779723 0.00957338 0.036991492 0.1708725 -0.10164525 -0.24350381 -0.2260231
-0.3163405 0.0903526 0.31005436 -0.020543674 -0.20401567 -0.36248997 0.0046688947 0.1324607
-0.24338348 -0.034943562 0.2579741 -0.18749635 0.28149697 -0.120661594 -0.013799609 0.40946588
-0.16644922 0.36935878 0.21879794 0.15059206 0.3887444 0.026327392 0.25047007 0.06642392
-0.2669291 0.021306332 0.123673536 0.2675124 0.10860457 -0.069112346 0.16663243 0.17743196
-0.14038818 0.21648204 -0.13255946 -0.037122667 -0.22036901 0.1070005 0.32336268 0.118136
-0.20114478 0.03491104 -0.17352898 0.21429773 0.0088890195 0.35336298 0.122899234 -0.44278735
-0.015255799 -0.0051070587 0.100842275 0.5005834 0.40411392 -0.071003675 -0.13061617 -0.09094807
0.69637614 -0.21648958 -0.43633783 0.06293241 0.11906478 -0.17103925 -0.17117947 -0.20763823
0.020554755 -0.27968556 -0.105346814 0.07032113 -0.39333412 0.2366759 -0.088467576 0.20434724
-0.10937159 0.43818718 -0.5463522 0.16450715 -0.0057667727 0.023161434 -0.29614198 0.41755024
0.0684118 -0.51732683 0.178802 -0.26068747 -0.080401495 -0.008079677 -0.2705705 0.105523825
0.28601277 0.11508106 0.32585356 -0.16758221 0.4789343 -0.020681992 -0.24943359 0.5944373
0.33153534 0.44957566 -0.2669477 0.06540547 -0.074588485 -0.2899899 -0.13937442 -0.019181892
-0.08758746 0.42954016 0.09214717 0.08064223 0.14301015 0.24175867 -0.082277626 -0.31110984
0.018491033 0.11206572 0.04318674 -0.027592234 0.26318854 0.3448897 -0.24685661 0.45391503
0.07291909 0.19115956 0.41426882 -0.23265778 0.3847691 -0.121519625 -0.40276048 0.59539384
0.32087007 -0.16503255 0.32986712 0.13377248 -0.019669805 -0.15729381 -0.11501272 -0.09785516
0.1294999 0.32553533 0.24313071 0.43113506 0.055626426 0.2952403 0.020953385 0.036040805
0.022360926 0.07287942 0.6702573 -0.50227505 -0.016276801 0.23217976 -0.24596213 0.4749943
0.2571922 -0.14042039 -0.05654803 -0.38121763 -0.2103625 0.3179173 -0.17479251 0.17939012
0.5715185 0.30747116 -0.059383593 -0.1273872 0.4019981 -0.06545844 0.036271565 0.39661774
0.120875575 -0.21591313 -0.1464938 -0.3519379 0.2156207 -0.24295518 -0.26108184 0.43777397
00000000: 2cc8 c5bd 52a5 6a3a 25cf 81bd 330b a8be
00000010: e3d5 d4bd ef18 54be 745d e6be 005b 933e
00000020: c4e2 8d3d 3a59 e83e cd9d 18be fec2 883e
00000030: e101 76be 7644 f03d 26ae 0dbe 77aa 3fbe
00000040: 983f db3e bb1d 613e fd23 95be 0087 36bc
00000050: 9478 ae3e 5e51 30be e73f 5dbd 36f7 a73e
00000060: c766 febe d525 943e ec61 0bbf 3f45 8f3a
00000070: 4f9b db3d 51eb ecbe ee28 b3bd 941b c93d
00000080: f7ad fabd 998e 97be d252 8e3e b9e0 91be
00000090: 7ccc d7bc e109 49be d7a1 f0bd 3ca1 91bd
000000a0: 5235 3d3e ecf2 15bd 548e f4be 0f08 8f3e
000000b0: a6f4 33be e208 0dbe 58ac 863e af0e 3f3e
000000c0: fc49 58be 6abb f2bc d6c9 6fbc e4a2 953d
000000d0: 6c80 3abe 9a74 bcbd 5064 9a3d 4ecc 903e
000000e0: 0731 bf3e f874 b43d 08ef ed3d c4df e5bc
000000f0: 9c8c babe 0a76 793d 2704 11bd 7340 4a3d
00000100: b746 1abe 2354 d5be 18f8 a83e 7c80 3dbc
00000110: 8f68 b03e 4e23 823e 1da8 663e 2ae4 723e
00000120: e515 4c3e cabc 6cbd abd9 1c3c 6484 173d
00000130: 33f9 2e3e 632b d0bd 1059 79be 9972 67be
00000140: 62f7 a1be c90a b93d 72bf 9e3e 354b a8bc
00000150: 7ce9 50be 4998 b9be 87fd 983b c7a3 073e
00000160: 8539 79be fb20 0fbd 2e15 843e 0bff 3fbe
00000170: 5f20 903e 6d1d f7bd c117 62bc 83a5 d13e
00000180: aa71 2abe 981c bd3e 910c 603e ce34 1a3e
00000190: 8209 c73e 8bac d73c 9d3d 803e 4409 883d
000001a0: eeaa 88be 9e8a ae3c 8d48 fd3d 63f7 883e
000001b0: 136c de3d c68a 8dbd b1a1 2a3e b9b0 353e
000001c0: ebc1 0fbe 78ad 5d3e abbd 07be f00d 18bd
000001d0: 6aa8 61be 1423 db3d cb8f a53e 4af1 f13d
000001e0: e6f8 4dbe e1fe 0e3d 95b1 31be dd70 5b3e
000001f0: 40a3 113c feeb b43e 98b2 fb3d 06b5 e2be
00000200: 75f3 79bc 1d59 a7bb 6586 ce3d 3c26 003f
00000210: 05e8 ce3e 606a 91bd 3fc0 05be fb42 babd
00000220: b545 323f 72af 5dbe ac67 dfbe b5e2 803d
00000230: 3cd8 f33d ea24 2fbe ac49 2fbe 1e9f 54be
00000240: 7262 a83c f232 8fbe 12c0 d7bd 8604 903d
00000250: 1763 c9be 2b5b 723e 7d2e b5bd 6740 513e
00000260: 36fe dfbd 125a e03e bddd 0bbf 9074 283e
00000270: 32f7 bcbb 0cbd bd3c ec9f 97be 25c9 d53e
00000280: 7c1b 8c3d 886f 04bf df17 373e d478 85be
00000290: 8aa9 a4bd 9f60 04bc 3788 8abe e01c d83d
000002a0: 4470 923e 9eaf eb3d 47d6 a63e ac9a 2bbe
000002b0: e036 f53e 486d a9bc 856b 7fbe 0b2d 183f
000002c0: 00bf a93e c82e e63e 5ead 88be 4ef3 853d
000002d0: d9c1 98bd 8e79 94be 2bb8 0ebe 5823 9dbc
000002e0: 0e61 b3bd b0ec db3e a8b7 bc3d c127 a53d
000002f0: 4171 123e 968f 773e 2c81 a8bd ca49 9fbe
00000300: 827a 973c b682 e53d 94e4 303d 1c09 e2bc
00000310: a6c0 863e 6295 b03e fbc7 7cbe 8d67 e83e
00000320: 9b56 953d 55bf 433e 0b1b d43e d73d 6ebe
00000330: 7500 c53e 48df f8bd 9f36 cebe bb6b 183f
00000340: 1549 a43e 4bfe 28be 58e4 a83e a7fb 083e
00000350: 9222 a1bc a111 21be ca8b ebbd 4968 c8bd
00000360: 9f9b 043e 91ac a63e 42f7 783e bcbd dc3e
00000370: 89d8 633d bd29 973e 6fa6 ab3c 869f 133d
00000380: 432e b73c ce41 953d fb95 2b3f 1995 00bf
00000390: ed56 85bc 88c0 6d3e 7fdd 7bbe 7432 f33e
000003a0: b2ae 833e 5dca 0fbe e89e 67bd f52e c3be
000003b0: 4469 57be 0ec6 a23e cffc 32be 0bb2 373e
000003c0: 094f 123f dc6c 9d3e 363c 73bd ca71 02be
000003d0: b2d2 cd3e 130f 86bd 7e91 143d 7b11 cb3e
000003e0: 9d8d f73d 5518 5dbe 7902 16be 3431 b4be
000003f0: accb 5c3e 3ec9 78be 85ac 85be e923 e03e

static_variable_selection.single_variable_grns.White.gate_norm.glu.fc.bias f4 [32]
0.042526986 -0.013891562 -0.14765242 0.19497782 0.20732667 0.15019956 0.02805859 0.047553618
-0.052861646 -0.060808256 0.007521452 -0.25475335 -0.17676175 -0.19999102 0.06757304 0.17101532
-0.14764257 -0.16370857 0.05472017 -0.12370333 -0.18892035 -0.14030337 -0.25422364 -0.23724093
-0.13472915 -0.31354305 -0.2734008 -0.008073574 -0.15154651 -0.21629025 -0.24942297 -0.05047492
00000000: c730 2e3d 6f99 63bc 3232 17be 44a8 473e
00000010: 714d 543e eacd 193e 21db e53c 95c7 423d
00000020: 7485 58bd 1412 79bd 8376 f63b 086f 82be
00000030: 0801 35be 72ca 4cbe bc63 8a3d a41e 2f3e
00000040: 9d2f 17be 38a3 27be 4222 603d 2c58 fdbd
00000050: 5674 41be b0ab 0fbe 9a29 82be 49ef 72be
00000060: 70f6 09be b788 a0be 31fb 8bbe 0647 04bc
00000070: 022f 1bbe 317b 5dbe bc68 7fbe cabe 4ebd

static_variable_selection.single_variable_grns.White.gate_norm.add_norm.norm.weight f4 [16]
1.0339671 0.9494292 0.8457606 1.2362942 1.151412 0.8469442 1.0452869 1.0956151
0.7274002 1.078289 0.81885886 1.3027604 1.1896752 0.9796859 0.70082486 0.79766554
00000000: 0959 843f cb0d 733f c483 583f e33e 9e3f
00000010: 7861 933f 56d1 583f f6cb 853f 1e3d 8c3f
00000020: e636 3a3f 6005 8a3f bca0 513f dac0 a63f
00000030: 4747 983f b2cc 7a3f 4269 333f cf33 4c3f

static_variable_selection.single_variable_grns.White.gate_norm.add_norm.norm.bias f4 [16]
0.049573526 -0.010206209 -0.07780104 0.20643301 0.21529624 0.11547076 0.0037308123 0.05188663
-0.060499724 -0.08916749 0.01973819 -0.33915675 -0.12893155 -0.15371093 0.027502399 0.15693657
00000000: 9c0d 4b3d f137 27bc 2756 9fbd 2d63 533e
00000010: 9e76 5c3e ef7b ec3d a580 743b 1387 543d
00000020: 8fce 77bd 729d b6bd fcb1 a13c f4a5 adbe
00000030: a206 04be 6666 1dbe b64c e13c fbb3 203e

static_variable_selection.prescalers.White.weight f4 [8, 1]
0.15549365 -0.6617839 0.17788248 0.36896032 -0.47956994 -0.12837279 -0.44998077 0.2010057
00000000: ba39 1f3e ab6a 29bf d326 363e 5ee8 bc3e
00000010: 318a f5be 2874 03be e163 e6be 70d4 4d3e

static_variable_selection.prescalers.White.bias f4 [8]
-0.17162889 0.5147905 0.8796168 0.28216615 -0.48860183 -0.77865195 -0.42118633 0.012411067
00000000: 7cbf 2fbe 4fc9 033f 912e 613f 1578 903e
00000010: 052a fabe bc55 47bf bca5 d7be ca57 4b3c

encoder_variable_selection.flattened_grn.resample_norm.mask f4 [3]
-0.5188702 0.28291824 0.1362101
00000000: add4 04bf a9da 903e a97a 0b3e

encoder_variable_selection.flattened_grn.resample_norm.norm.weight f4 [3]
0.81007046 0.9987455 1.4529227
00000000: c760 4f3f c9ad 7f3f 5ff9 b93f

encoder_variable_selection.flattened_grn.resample_norm.norm.bias f4 [3]
0.23889683 0.053420205 -0.583619
00000000: 5fa1 743e 25cf 5a3d 0e68 15bf

encoder_variable_selection.flattened_grn.fc1.weight f4 [3, 24]
0.4967224 -0.2633573 0.2184095 -0.019158226 0.11559968 0.045521203 -0.1241404 -0.12842976
-0.42925596 0.12941283 0.15883417 -1.2018036 -0.085621886 0.0033242356 0.11947669 0.09312284
0.6186915 -0.7996536 0.17826974 0.06904513 0.19651194 -0.22718729 0.010394673 0.37071243
0.13857248 0.11190566 -0.31394914 -0.35574672 0.18816271 0.072675526 0.12303236 0.63901365
-0.36530027 0.13718583 -0.6856758 -0.49350348 0.028626174 0.12852909 0.5392024 0.44768804
0.026140789 0.08589645 -0.45792928 -0.25214246 -0.095486745 0.24627192 0.011924175 0.036507826
0.21484335 -0.40846315 -0.15919293 0.028238555 0.36238086 0.5831311 -0.14947347 0.31101155
-0.4632514 0.3709397 0.2344335 0.28004476 -0.15050548 -0.067021534 0.28589484 0.16694792
0.18297724 0.28316942 -0.0869914 -0.020872496 -0.14702785 -0.20153 -0.48988685 0.20841853
00000000: 6652 fe3e c5d6 86be bda6 5f3e b6f1 9cbc
00000010: 86bf ec3d 7174 3a3d 523d febd 1783 03be
00000020: 70c7 dbbe cc84 043e 6da5 223e b3d4 99bf
00000030: 875a afbd 6bdb 593b 32b0 f43d 30b7 be3d
00000040: 9162 1e3f 19b6 4cbf 588c 363e 8867 8d3d
00000050: 6d3a 493e c9a3 68be 6b4e 2a3c 05ce bd3e
00000060: f2e5 0d3e cb2e e53d f1bd a0be 6f24 b6be
00000070: baad 403e e8d6 943d 64f8 fb3d 6696 233f
00000080: a308 bbbe 717a 0c3e 7388 2fbf 7dac fcbe
00000090: 7081 ea3c 219d 033e 2b09 0a3f 5e37 e53e
000000a0: 3525 d63c 7aea af3d b575 eabe d118 81be
000000b0: 8e8e c3bd b52e 7c3e 9d5d 433c 3b89 153d
000000c0: e5ff 5b3e 1522 d1be 7903 23be 8b54 e73c
000000d0: fc89 b93e 1448 153f 930f 19be e83c 9f3e
000000e0: 4a2f edbe cfeb bd3e 560f 703e 0762 8f3e
000000f0: 1c1e 1abe 9642 89bd cf60 923e 65f4 2a3e
00000100: 635e 3b3e 95fb 903e 8c28 b2bd ccfc aabc
00000110: 788e 16be e15d 4ebe 73d2 fabe ab6b 553e

encoder_variable_selection.flattened_grn.fc1.bias f4 [3]
-0.08513907 -0.12439756 -0.27526402
00000000: 655d aebd 26c4 febd 68ef 8cbe

encoder_variable_selection.flattened_grn.context.weight f4 [3, 16]
-0.32677934 -0.18093759 -0.2638863 -0.13753918 0.19555266 -0.22250482 0.10440924 0.071185835
-0.22332098 0.25750926 0.021801656 0.21801491 0.3867194 -0.0041427338 -0.24836837 -0.2582661
0.30474353 -0.06872397 0.64751625 -0.51593083 -0.69271 0.6580095 0.06636419 -0.34562278
0.3585336 0.2694742 -0.2092354 0.25481504 0.442959 -0.06669652 -0.32211724 -0.26091883
0.41749603 -0.27135044 0.16563378 -0.41837382 -0.1527062 0.60852355 0.35750157 0.09300341
-0.5194123 0.25797623 -0.20351055 0.15831247 0.046818912 -0.10041437 -0.26885766 0.6745987
00000000: 9f4f a7be b447 39be 1b1c 87be 12d7 0cbe
00000010: f53e 483e 4ed8 63be 83d4 d53d e1c9 913d
00000020: 41ae 64be 41d8 833e 6399 b23c 4d3f 5f3e
00000030: 1600 c63e c5bf 87bb 4754 7ebe 743b 84be
00000040: 5807 9c3e 27bf 8cbd a0c3 253f 0b14 04bf
00000050: 7155 31bf 5073 283f f3e9 873d 78f5 b0be
00000060: b791 b73e 86f8 893e ce41 56be 1e77 823e
00000070: 86cb e23e 2f98 88bd 8dec a4be 2797 85be
00000080: 0ac2 d53e 72ee 8abe e79b 293e 1835 d6be
00000090: 045f 1cbe 33c8 1b3f 720a b73e 9278 be3d
000000a0: 34f8 04bf 7615 843e 1265 50be aa1c 223e
000000b0: 30c5 3f3d 0da6 cdbd b6a7 89be 80b2 2c3f

encoder_variable_selection.flattened_grn.fc2.weight f4 [3, 3]
-0.832865 -1.2412969 -0.28945774 0.00490688 -1.1824621 -0.2931429 -0.4194215 -0.84234804
-0.7957355
00000000: a436 55bf d1e2 9ebf ce33 94be e5c9 a03b
00000010: eb5a 97bf d416 96be 6abe d6be 1fa4 57bf
00000020: 52b5 4bbf

encoder_variable_selection.flattened_grn.fc2.bias f4 [3]
0.20358834 0.030046502 -0.08294052
00000000: 7679 503e 1524 f63c b8dc a9bd

encoder_variable_selection.flattened_grn.gate_norm.glu.fc.weight f4 [6, 3]
0.53143555 -0.19459021 0.72273564 -0.15218128 -0.27643225 0.61151814 -0.26118442 -0.43204126
-0.24009591 -0.39784092 -0.62896144 0.69906145 0.7326088 -0.21510477 -0.4818255 0.68655443
0.57818955 0.51300246
00000000: 290c 083f a842 47be 3405 393f 69d5 1bbe
00000010: 8788 8dbe 748c 1c3f f7b9 85be 8334 ddbe
00000020: b4db 75be ceb1 cbbe 9e03 21bf b1f5 323f
00000030: 408c 3b3f 6d44 5cbe d5b1 f6be 08c2 2f3f
00000040: 3b04 143f 2154 033f

encoder_variable_selection.flattened_grn.gate_norm.glu.fc.bias f4 [6]
0.17781702 -0.03728241 -0.5697416 -0.106664196 -0.008557716 0.46470663
00000000: aa15 363e 71b5 18bd 96da 11bf c272 dabd
00000010: aa35 0cbc 07ee ed3e

encoder_variable_selection.flattened_grn.gate_norm.add_norm.norm.weight f4 [3]
0.43398842 0.27749488 0.33765817
00000000: bb33 de3e cf13 8e3e 88e1 ac3e

encoder_variable_selection.flattened_grn.gate_norm.add_norm.norm.bias f4 [3]
0.060315974 -0.53068304 0.5544574
00000000: e20d 773d d8da 07bf ecf0 0d3f

encoder_variable_selection.single_variable_grns.SinWeekly.resample_norm.mask f4 [16]
-0.09586939 0.046841267 0.19617619 -0.028394656 -0.13769734 0.00710127 0.11967006 -0.40060598
-0.5097345 -0.07982411 -0.06470397 -0.15147482 -0.0670355 0.025931899 0.22838329 0.16598885
00000000: 2c57 c4bd a1dc 3f3d 69e2 483e e99b e8bc
00000010: 8800 0dbe c5b1 e83b 9415 f53d 3a1c cdbe
00000020: f67d 02bf d37a a3bd 8483 84bd 371c 1bbe
00000030: e949 89bd 226f d43c 4fdd 693e fbf8 293e

encoder_variable_selection.single_variable_grns.SinWeekly.resample_norm.norm.weight f4 [16]
0.9725857 0.8141003 1.1790582 0.99785113 0.96176815 1.0159093 1.3235335 0.7069043
0.45541206 1.011863 1.0263141 0.94300294 0.8690639 1.042529 1.276657 1.0777106
00000000: 60fb 783f e168 503f 61eb 963f 2c73 7f3f
00000010: 7036 763f 5109 823f 8c69 a93f aef7 343f
00000020: c52b e93e ba84 813f 435e 833f a468 713f
00000030: f97a 5e3f 9771 853f 7f69 a33f 6cf2 893f

encoder_variable_selection.single_variable_grns.SinWeekly.resample_norm.norm.bias f4 [16]
0.018625135 0.17428003 0.04031741 0.08363759 -0.082576625 0.038118318 -0.20144527 -0.055510815
-0.111590885 -0.09357718 0.059002798 0.18023331 -0.082244635 -0.0656675 0.025863783 0.054500412
00000000: bd93 983c 7776 323e de23 253d 2f4a ab3d
00000010: ef1d a9bd f421 1c3d ab47 4ebe 4f5f 63bd
00000020: c389 e4bd 64a5 bfbd ebac 713d 158f 383e
00000030: e06f a8bd af7c 86bd 49e0 d33c d33b 5f3d

encoder_variable_selection.single_variable_grns.SinWeekly.fc1.weight f4 [8, 8]
1.0512848 -1.4708297 -0.75028974 -1.5864122 -0.24924307 -0.13601847 0.33715704 0.5085099
-0.18615037 0.35561344 -0.31852692 -0.14550771 -0.29102674 0.8021505 -0.5701467 -0.49809745
-0.32826802 0.081784956 -0.7759721 0.35306135 -1.1556444 0.60594 0.5835017 -0.098678656
0.29531524 0.11968949 -0.35676363 0.2033803 0.35035583 0.086981 0.30994636 0.5993646
-0.5686904 -0.24601719 1.1400167 -0.16733655 0.15424758 0.7846085 0.5398945 -0.9845352
0.6258276 -0.32783273 -0.72400004 -0.0071200496 0.19008566 -0.3337568 -0.19177507 0.18679956
-1.0079826 -0.1223892 -1.5050688 0.5241355 -0.47502548 0.15932101 -0.91549796 -0.6060348
0.36113045 0.027041055 -0.76318944 0.24958596 0.7675044 0.46004516 -0.17592423 0.3632773
00000000: 8090 863f 2644 bcbf fd12 40bf 8e0f cbbf
00000010: 9339 7fbe 6d48 0bbe d99f ac3e b42d 023f
00000020: 349e 3ebe f712 b63e f615 a3be f9ff 14be
00000030: 7501 95be bc59 4d3f 22f5 11bf a106 ffbe
00000040: bf12 a8be df7e a73d 1ca6 46bf 75c4 b43e
00000050: 28ec 93bf e21e 1b3f 5e60 153f 0918 cabd
00000060: 8f33 973e c31f f53d b9a9 b6be ed42 503e
00000070: d761 b33e 1823 b23d 4ab1 9e3e f56f 193f
00000080: b295 11bf eeeb 7bbe 11ec 913f 465a 2bbe
00000090: 14f3 1d3e 1adc 483f 8736 0a3f 800a 7cbf
000000a0: 3d36 203f b1d9 a7be 1158 39bf 4e4f e9bb
000000b0: d1a5 423e 2ce2 aabe af60 44be 6248 3f3e
000000c0: 9305 81bf 30a7 fabd 18a6 c0bf be2d 063f
000000d0: 8a36 f3be 0c25 233e 135e 6abf 1925 1bbf
000000e0: 17e6 b83e 3485 dd3c 6260 43bf 7693 7f3e
000000f0: 2b7b 443f 0a8b eb3e 7b25 34be 7bff b93e

encoder_variable_selection.single_variable_grns.SinWeekly.fc1.bias f4 [8]
-0.09921183 0.017406473 -0.10590672 -0.04539637 -0.08142445 -0.016462432 -0.1861808 0.005807236
00000000: 922f cbbd 0598 8e3c 9fe5 d8bd 8bf1 39bd
00000010: ddc1 a6bd 39dc 86bc 2ea6 3ebe a04a be3b

encoder_variable_selection.single_variable_grns.SinWeekly.fc2.weight f4 [8, 8]
-1.0811368 0.120060675 -1.2483186 -0.65384585 -0.6166767 0.21524619 0.45409712 -0.2608876
-0.22399993 -0.2753431 0.3803419 0.12222586 -0.19513503 0.474045 0.67785 0.22025314
0.7146119 -0.40170968 0.016246064 -0.4602551 0.6285471 -0.10315677 0.5183911 0.4413801
0.16290694 1.0469146 0.5052636 0.021082979 0.03149263 -0.53236544 0.27920243 -0.4865128
-1.0166925 0.9243218 -0.5628132 0.093106225 -0.02808592 0.2505589 0.010133658 -0.36346182
0.45100093 -0.54852515 -0.53047115 0.08320786 -0.52891564 -0.032082554 -0.3556564 -0.394657
0.39153874 0.36360216 0.34021577 -0.010266108 0.559105 -0.25594825 0.60051197 0.2992892
0.73163474 0.06288613 0.49124852 0.5677591 0.6433317 -0.20513044 0.9078151 -0.5324943
00000000: b162 8abf 5fe2 f53d e7c8 9fbf 7162 27bf
00000010: 86de 1dbf 7f69 5c3e 6b7f e83e 0f93 85be
00000020: 3d60 65be c5f9 8cbe 2cbc c23e 8d51 fa3d
00000030: 7ad1 47be 07b6 f23e 9487 2d3f 0a8a 613e
00000040: cef0 363f e4ac cdbe 7716 853c 8ea6 ebbe
00000050: 76e8 203f db43 d3bd 47b5 043f 93fc e13e
00000060: 14d1 263e 4c01 863f f558 013f 36b6 ac3c
00000070: 6afe 003d 1a49 08bf 9ff3 8e3e 3518 f9be
00000080: fb22 82bf 5aa0 6c3f 8714 10bf 7aae be3d
00000090: 7114 e6bc 4249 803e a407 263c ab17 babe
000000a0: 98e9 e63e 256c 0cbf f5cc 07bf e268 aa3d
000000b0: 0467 07bf ff68 03bd 9818 b6be 7b10 cabe
000000c0: c477 c83e 102a ba3e c330 ae3e 2e33 28bc
000000d0: 8121 0f3f a60b 83be 27bb 193f 6f3c 993e
000000e0: 6a4c 3b3f 71ca 803d ed84 fb3e a958 113f
000000f0: 63b1 243f b70d 52be 9266 683f 8c51 08bf

encoder_variable_selection.single_variable_grns.SinWeekly.fc2.bias f4 [8]
-0.09164917 -0.13331056 0.029029462 -0.01658512 0.13391672 0.120285645 0.06558421 0.012316349
00000000: 8fb2 bbbd 9082 08be 32cf ed3c 85dd 87bc
00000010: 7721 093e 5258 f63d 0451 863d 83ca 493c

encoder_variable_selection.single_variable_grns.SinWeekly.gate_norm.glu.fc.weight f4 [32, 8]
0.19590199 0.104758136 0.04378792 -0.010705297 -0.23398712 -0.2736201 0.13625725 0.3612899
-0.16262911 0.035001367 -0.022716112 -0.10594804 0.02463049 0.144853 0.29713076 0.12802702
0.3189698 -0.20201398 -0.080710694 0.1380264 0.53445214 -0.02351038 -0.110559426 0.13622318
-0.34801266 -0.3703405 0.21086563 -0.19712768 0.040093552 0.312708 0.24263605 0.4703376
0.19302745 0.13539904 0.33385274 0.5074895 0.149282 -0.41171557 0.73819315 0.46965057
0.2022706 -0.28425962 0.06902507 -0.00826743 -0.13858461 -0.19774576 -0.27143785 0.08345444
0.443012 0.32033017 -0.8101268 0.10417325 0.42447022 -0.5271987 -0.409158 -0.5545838
-0.27363452 -0.035896737 0.12166751 -0.55441 -0.14244418 -0.079367355 0.15754324 -0.08053396
0.42953184 0.54931706 -0.15937838 0.8314138 0.22645937 -0.6952913 0.6720894 0.6761958
-0.018254882 -0.26525047 0.18341868 -0.016063355 -0.28892493 -0.10775324 0.18392506 0.14767458
-0.013126348 0.10246773 0.17887543 0.022454131 -0.043857023 0.16646922 0.30876082 0.403937
0.0886653 0.120505035 -0.23450826 0.22546245 -0.060773652 -0.5441444 0.36317956 0.36815807
0.46300885 0.46285087 -0.34881485 0.09553774 0.48152295 -0.41353118 -0.31816876 -0.6119384
0.19489071 -0.37846014 0.18127097 -0.15237722 0.034249466 0.36298177 -0.5466299 -0.45184055
-0.14695227 -0.19658256 0.1016196 -0.14709426 0.058425244 0.19963372 -0.58503485 -0.15951873
0.16336577 -0.48150268 -0.2953953 0.12897477 -0.1820136 -0.10510504 0.15293604 -0.1046573
0.3069388 0.05232335 0.2930467 0.2307226 0.073906735 -0.34440824 0.040588398 -0.28132996
0.22962973 -0.20849383 -0.09648595 -0.14209163 0.043530073 0.27887607 -0.5409081 -0.39085332
0.26033887 -0.24453098 -0.28257546 0.094872594 -0.045404766 -0.25823143 -0.17032224 0.14220782
-0.12264658 -0.25063565 0.6150374 0.0014101077 -0.36185527 0.17452565 0.4042189 0.42129382
0.53403986 0.367568 -0.5150803 0.094831206 0.27655673 -0.33344018 0.1915398 0.033850413
-0.006413836 0.05619839 0.09039226 0.28774464 0.009962767 -0.17148861 0.368211 -0.5520619
-0.35824227 -0.26438466 0.49235675 -0.34946743 -0.41913024 0.14153689 0.27697816 0.45881808
-0.06734179 0.3958486 -0.002397047 0.17899351 0.26485196 -0.10681309 -0.4279177 -0.40599963
0.08321055 0.21313427 -0.15137234 0.13386145 0.36520997 -0.17908184 0.07180317 0.14356685
0.011869142 -0.14087115 -0.06544658 0.35719988 0.12312926 -0.08149426 -0.28226286 0.14172557
0.17292848 0.1339757 -0.5592996 -0.13218527 0.24408679 0.1489425 -0.31380516 -0.51353395
0.3792529 0.20321137 -0.15158457 0.71521515 0.48051757 -0.2660479 0.32941267 0.08502396
-0.54348123 -0.37553796 0.47726133 -0.36177567 -0.26030508 0.29893428 0.20784388 0.5622433
-0.3726364 0.23656043 -0.26736006 0.20393209 0.25128958 -0.34419596 -0.023646753 0.19650522
0.03607067 0.2277789 -0.30384055 0.11224726 0.23957984 -0.39141536 -0.015432218 0.021094644
0.07356883 0.37075838 -0.15159336 0.038548764 0.0048295367 -0.12158541 -0.3518353 -0.5219377
00000000: 889a 483e 6f8b d63d f65a 333d 4565 2fbc
00000010: 529a 6fbe ef17 8cbe 0587 0b3e fdfa b83e
00000020: 3f88 26be 985d 0f3d 2417 babc 49fb d8bd
00000030: e2c5 c93c 5854 143e 8621 983e 8419 033e
00000040: 0250 a33e c1dc 4ebe a64b a5bd cb56 0d3e
00000050: dbd1 083f d798 c0bc fb6c e2bd 177e 0b3e
00000060: b72e b2be 459d bdbe 29ed 573e d7db 49be
00000070: 2339 243d 431b a03e 9675 783e 17d0 f03e
00000080: fda8 453e 0ca6 0a3e bfee aa3e d5ea 013f
00000090: 61dd 183e 62cc d2be 3afa 3c3f 0a76 f03e
000000a0: 0620 4f3e 7a8a 91be 045d 8d3d 1d74 07bc
000000b0: 20e9 0dbe dd7d 4abe e7f9 8abe 29ea aa3d
000000c0: 78d2 e23e 5102 a43e 7864 4fbf c958 d53d
000000d0: 2954 d93e 7ef6 06bf 287d d1be 34f9 0dbf
000000e0: d319 8cbe 7508 13bd d12c f93d d0ed 0dbf
000000f0: e3dc 11be 5a8b a2bd 0453 213e fdee a4bd
00000100: 99eb db3e 0ba0 0c3f 1634 23be 89d7 543f
00000110: f7e4 673e 9cfe 31bf 0d0e 2c3f 2b1b 2d3f
00000120: 438b 95bc e9ce 87be 1bd2 3b3e 4c97 83bc
00000130: f8ed 93be bbad dcbd da56 3c3e 0138 173e
00000140: e50f 57bc 9ada d13d 1f2b 373e baf1 b73c
00000150: 6ca3 33bd e876 2a3e e615 9e3e d5d0 ce3e
00000160: 2796 b53d 58cb f63d ef22 70be a1df 663e
00000170: cbed 78bd 0c4d 0bbf acf2 b93e 377f bc3e
00000180: 7f0f ed3e cafa ec3e dc97 b2be 4aa9 c33d
00000190: 2d8a f63e 5cba d3be 04e7 a2be ffa7 1cbf
000001a0: 6e91 473e 87c5 c1be 199f 393e c608 1cbe
000001b0: 2b49 0c3d bfd8 b93e f0ef 0bbf a557 e7be
000001c0: a87a 16be f04c 49be f01d d03d e19f 16be
000001d0: 4f4f 6f3d c86c 4c3e d8c4 15bf e158 23be
000001e0: 5b49 273e 8587 f6be 0e3e 97be f611 043e
000001f0: c661 3abe 5041 d7bd 449b 1c3e 9156 d6bd
00000200: 1527 9d3e 0251 563d 380a 963e 8c42 6c3e
00000210: 6a5c 973d 4756 b0be 0540 263d 7b0a 90be
00000220: 0e24 6b3e 687f 55be 6d9a c5bd 7880 11be
00000230: 974c 323d d8c8 8e3e f478 0abf ed1d c8be
00000240: 234b 853e 5466 7abe bbad 90be 904c c23d
00000250: 59fa 39bd e936 84be f468 2ebe ed9e 113e
00000260: 212e fbbd 5153 80be 1773 1d3f 5dd3 b83a
00000270: 1845 b9be dab6 323e c8f5 ce3e d3b3 d73e
00000280: d6b6 083f df31 bc3e 4ddc 03bf dd36 c23d
00000290: d898 8d3e acb8 aabe 0223 443e bba6 0a3d
000002a0: 282b d2bb 4830 663d 941f b93d 4453 933e
000002b0: e03a 233c b69a 2fbe 2786 bc3e ee53 0dbf
000002c0: 886b b7be 6d5d 87be 2f16 fc3e 65ed b2be
000002d0: 3d98 d6be 0cef 103e 15d0 8d3e 34ea ea3e
000002e0: 7eea 89bd abac ca3e c617 1dbb 134a 373e
000002f0: ad9a 873e d2c0 dabd 0718 dbbe 2fdf cfbe
00000300: 4b6a aa3d df3f 5a3e 5a01 1bbe fa12 093e
00000310: cdfc ba3e 3b61 37be 8a0d 933d 3003 133e
00000320: ca76 423c 8740 10be db08 86bd e7e2 b63e
00000330: 322b fc3d 76e6 a6bd c284 90be 8220 113e
00000340: 2a14 313e ed30 093e 422e 0fbf 935b 07be
00000350: e3f1 793e 6284 183e 12ab a0be f676 03bf
00000360: 702d c23e a416 503e fc38 1bbe 5718 373f
00000370: 6606 f63e 6e37 88be c7a8 a83e 0b21 ae3d
00000380: 9621 0bbf 8346 c0be 995b f43e a93a b9be
00000390: b546 85be ea0d 993e 07d5 543e 2def 0f3f
000003a0: 33ca bebe e63c 723e 6be3 88be 93d3 503e
000003b0: 07a9 803e 743a b0be d6b6 c1bc aa38 493e
000003c0: d7be 133d df3e 693e fd90 9bbe e4e1 e53d
000003d0: 6b54 753e 9867 c8be 6ad7 7cbc adce ac3c
000003e0: 41ab 963d 0bd4 bd3e 4a3b 1bbe 4fe5 1d3d
000003f0: 1741 9e3b c501 f9bd c223 b4be b69d 05bf

encoder_variable_selection.single_variable_grns.SinWeekly.gate_norm.glu.fc.bias f4 [32]
0.03568573 0.11437221 0.12144057 0.023423262 -0.1178529 -0.0014012569 -0.33111396 -0.10241521
-0.0020838247 -0.10302061 -0.059859633 0.12614194 -0.12584746 -0.07206944 0.03421888 0.028817844
0.06349005 -0.3328726 -0.16900499 -0.3488057 0.041903704 -0.35415226 -0.073309034 -0.085626796
0.4061722 -0.07612129 -0.39981127 -0.19377166 -0.034610417 -0.03132369 -0.003543613 -0.1650856
00000000: 332b 123d fa3b ea3d d5b5 f83d 24e2 bf3c
00000010: dc5c f1bd 61aa b7ba c587 a9be 11bf d1bd
00000020: c790 08bb 78fc d2bd 602f 75bd 5a2b 013e
00000030: 28de 00be 2499 93bd 1929 0c3d 6613 ec3c
00000040: 1207 823d 476e aabe a50f 2dbe a996 b2be
00000050: 38a3 2b3d 7253 b5be 0c23 96bd 1a5d afbd
00000060: cdf5 cf3e 7be5 9bbd 10b4 ccbe 146c 46be
00000070: a7c3 0dbd 454d 00bd f63b 68bb 330c 29be

encoder_variable_selection.single_variable_grns.SinWeekly.gate_norm.add_norm.norm.weight f4 [16]
0.88530177 0.58024514 1.2568076 0.97964454 0.9799217 0.9254015 1.3176633 0.43711168
1.1927725 0.91759676 1.0835707 1.0780123 0.8733531 1.1642798 1.2714168 1.0582345
00000000: 23a3 623f f28a 143f 12df a03f fcc9 7a3f
00000010: 26dc 7a3f 1de7 6c3f 31a9 a83f 1acd df3e
00000020: c5ac 983f 9fe7 6a3f 72b2 8a3f 4ffc 893f
00000030: 1294 5f3f 1f07 953f c9bd a23f 3a74 873f

encoder_variable_selection.single_variable_grns.SinWeekly.gate_norm.add_norm.norm.bias f4 [16]
0.02302717 0.21196406 0.086910024 0.227513 -0.0139564 0.009414719 -0.08522036 0.017725011
-0.019825138 -0.13203287 -0.05017655 0.11907638 -0.019915285 -0.07391954 0.0568043 0.045965817
00000000: 7aa3 bc3c 1b0d 593e e2fd b13d 2bf9 683e
00000010: 62a9 64bc 3240 1a3c 0388 aebd 0b34 913c
00000020: 5468 a2bc a033 07be ed85 4dbd 51de f33d
00000030: 6125 a3bc 2163 97bd a0ab 683d a746 3c3d

encoder_variable_selection.single_variable_grns.VaccinationFull.resample_norm.mask f4 [16]
-0.022068975 0.02333538 0.27661577 -0.3423535 0.22025502 -0.0022995616 -0.06609241 0.2638399
0.024661727 -0.43565145 -0.2175987 0.2726994 -0.19784865 0.33981532 -0.23596586 0.0070687532
00000000: ffc9 b4bc d729 bf3c 95a0 8d3e f548 afbe
00000010: 888a 613e 3eb4 16bb 755b 87bd 0616 873e
00000020: 6407 ca3c b50d dfbe 32d2 5ebe 419f 8b3e
00000030: d698 4abe 46fc ad3e 09a1 71be 00a1 e73b

encoder_variable_selection.single_variable_grns.VaccinationFull.resample_norm.norm.weight f4 [16]
0.9309872 0.77822083 1.3935734 0.7958934 1.258984 0.9748591 0.70380735 1.2242384
1.0385027 0.67414784 0.8200622 1.2799422 0.78372127 1.3415965 0.5199467 0.9211129
00000000: 2d55 6e3f 7b39 473f 9d60 b23f abbf 4b3f
00000010: 6326 a13f 5e90 793f b82c 343f d8b3 9c3f
00000020: a8ed 843f f494 2c3f 99ef 513f 25d5 a33f
00000030: f5a1 483f 6fb9 ab3f 3a1b 053f 0ece 6b3f

encoder_variable_selection.single_variable_grns.VaccinationFull.resample_norm.norm.bias f4 [16]
0.06586146 0.42777866 -0.25655156 -0.03823215 -0.038108595 0.05083883 -0.014415329 0.12755433
-0.032665018 -0.26425615 -0.060331944 -0.007517962 0.035950672 -0.27374613 0.33196652 0.11160024
00000000: 60e2 863d ce05 db3e ba5a 83be 5199 1cbd
00000010: c217 1cbd 613c 503d 462e 6cbc 9a9d 023e
00000020: c1cb 05bd 954c 87be a11e 77bd 3c59 f6bb
00000030: 0341 133d 7428 8cbe 84f7 a93e ab8e e43d

encoder_variable_selection.single_variable_grns.VaccinationFull.fc1.weight f4 [8, 8]
0.44413283 -0.24154541 -0.78990626 -0.24739112 0.66149884 0.22367215 -0.5595991 0.04823681
0.15874511 -0.16012636 -0.74989974 -0.88376665 -0.05452748 -0.21578546 0.6448937 -0.25184107
0.09087875 -0.53690183 -0.08028169 -0.2193257 -0.38063616 0.31326905 -0.20062314 -0.66343975
-0.08379168 -0.90411043 -0.33403304 0.40723607 -0.6945079 0.6626711 0.0651807 0.0051346025
0.22680643 0.52294016 0.19618955 0.34491462 0.05365336 0.4080525 0.5987659 0.85629046
-0.23276928 0.5353837 0.09834028 -0.1712357 -0.3280231 -0.8309956 -0.7365367 -1.7338051
-0.5682576 0.31768054 0.20257188 0.16055797 0.9963815 -0.15334201 0.19713776 0.14645094
0.2888221 0.29413092 -0.45061374 -0.1485635 -0.48614648 -1.3149849 -0.34082702 -1.6721402
00000000: 6165 e33e ae57 77be 4c37 4abf 1954 7dbe
00000010: fd57 293f 500a 653e e341 0fbf f693 453d
00000020: 148e 223e 2af8 23be 6ef9 3fbf 883e 62bf
00000030: 3558 5fbd ddf6 5cbe c117 253f 50f1 80be
00000040: a31e ba3d 6672 09bf ba6a a4bd eb96 60be
00000050: bee2 c2be cd64 a03e 2770 4dbe 30d7 29bf
00000060: f99a abbd c873 67bf 6106 abbe 3f81 d03e
00000070: 45cb 31bf d0a4 293f 757d 853d 2b40 a83b
00000080: f23f 683e 68df 053f eae5 483e a698 b03e
00000090: a0c3 5b3d 42ec d03e b948 193f da35 5b3f
000000a0: 125b 6ebe e80e 093f a166 c93d 6958 2fbe
000000b0: a5f2 a7be 21bc 54bf ab8d 3cbf 53ed ddbf
000000c0: 5479 11bf 06a7 a23e 016f 4f3e 4f69 243e
000000d0: dc12 7f3f b005 1dbe 7bde 493e 3cf7 153e
000000e0: 7ee0 933e 5498 963e d8b6 e6be 0821 18be
000000f0: 31e8 f8be 6d51 a8bf e180 aebe b108 d6bf

encoder_variable_selection.single_variable_grns.VaccinationFull.fc1.bias f4 [8]
0.09223976 0.006254846 0.024655838 0.077457696 0.035367202 -0.21670988 -0.08465257 -0.097284004
00000000: 33e8 bc3d 74f5 cc3b 0afb c93c 24a2 9e3d
00000010: 33dd 103d 32e9 5dbe 545e adbd d63c c7bd

encoder_variable_selection.single_variable_grns.VaccinationFull.fc2.weight f4 [8, 8]
-0.23194231 0.0662388 -0.112313494 -0.5347178 -0.83834165 0.23570186 -0.62020105 0.117052875
0.6586883 -0.41144732 -0.110288076 -0.45744112 -0.46882582 -0.45653325 0.09220763 -0.023622928
-1.9359143 0.020300323 0.108670264 0.3477435 -0.39633265 0.38348207 0.0781054 0.5228812
0.21596935 -0.40615907 -0.08741641 -0.23674148 0.4794396 -0.8169264 0.09152245 -0.099562585
-0.36613935 -0.1949042 0.3261893 -0.12207423 0.27007815 0.4624324 -0.976438 0.95311195
-0.48858932 0.23710187 0.34598252 0.32477978 0.11644283 -0.057926368 -0.30179358 -1.0073266
0.77128613 -0.15992513 -0.030316165 0.8638065 0.18333787 -0.5506357 -0.038790207 0.16600874
-0.2269941 0.039229278 0.07527178 0.3887957 -0.74956805 -0.5051021 0.12707451 -0.2863512
00000000: 4982 6dbe 35a8 873d 9e04 e6bd 44e3 08bf
00000010: 8f9d 56bf d45b 713e 7fc5 1ebf 6bb9 ef3d
00000020: cc9f 283f 39a9 d2be b7de e1bd b935 eabe
00000030: f009 f0be babe e9be 5bd7 bc3d df84 c1bc
00000040: 0acc f7bf dd4c a63c 848e de3d 700b b23e
00000050: 1dec cabe c357 c43e b9f5 9f3d 8bdb 053f
00000060: 1227 5d3e 15f4 cfbe 6007 b3bd 5c6c 72be
00000070: 1b79 f53e 1722 51bf 1f70 bb3d 78e7 cbbd
00000080: 9e76 bbbe f794 47be 4902 a73e 0e02 fabd
00000090: af47 8a3e f1c3 ec3e d7f7 79bf 25ff 733f
000000a0: 6128 fabe d5ca 723e 9f24 b13e 8949 a63e
000000b0: 9479 ee3d 3344 6dbd b084 9abe 14f0 80bf
000000c0: 0273 453f 6ac3 23be 9b59 f8bc 6c22 5d3f
000000d0: ecbc 3b3e 76f6 0cbf 7be2 1ebd 32fe 293e
000000e0: 2471 68be e1ae 203d 1728 9a3d 3b10 c73e
000000f0: b1e3 3fbf 5f4e 01bf d21f 023e a09c 92be

encoder_variable_selection.single_variable_grns.VaccinationFull.fc2.bias f4 [8]
-0.08197836 0.005932079 -0.19354656 -0.035684887 0.13308541 -0.11794533 0.21190694 0.13078754
00000000: 45e4 a7bd e361 c23b 1231 46be 512a 12bd
00000010: 8b47 083e 528d f1bd 22fe 583e 2bed 053e

encoder_variable_selection.single_variable_grns.VaccinationFull.gate_norm.glu.fc.weight f4 [32, 8]
-0.04338196 0.3944604 0.1682354 0.4784338 -0.40635458 0.2843671 0.04068566 -0.04796616
-0.12477552 0.1348492 -0.21584532 -0.182402 0.4581175 -0.26199934 0.22206305 -0.45375046
0.281479 -0.11603277 0.5895422 -0.08597332 0.06747353 0.14479297 -0.6368825 0.009367706
-0.9311779 0.25665304 -0.64166373 0.743245 -0.8310635 0.83263063 0.4288757 0.7888469
0.27373204 -0.032144208 0.2893118 -0.42768362 0.36819965 -0.26527175 -0.35839063 0.0018200786
0.23825158 0.2508323 0.26301232 -0.33419904 -0.09046332 0.22608784 -0.00458413 0.1666275
-0.24695863 0.3789203 -0.14562012 0.27078784 -0.26692042 0.32669318 0.43561158 0.18888852
-0.37711105 0.25044197 0.05541146 -0.32986262 0.3427138 -0.27714035 0.3733601 -0.35208312
-0.16448386 0.29603457 -0.20106022 -0.050683048 -0.32201615 0.16911758 0.08777474 0.28902158
0.27309477 -0.10055782 0.279105 -0.31144917 -0.27883413 -0.32738543 -0.5504392 -0.21701719
0.04057633 -0.2822234 0.15373255 -0.39478615 0.3139122 -0.06976515 -0.083292246 -0.1766694
-0.27098438 -0.24317655 -0.051635668 0.11872013 -0.079116434 0.073058926 -0.08442804 0.186432
-0.1578235 0.23807845 -0.17354986 -0.44172066 0.21343964 -0.22386335 -0.33278868 -0.3087757
0.24945319 -0.52845114 0.22410093 0.16963173 0.19336714 0.2508178 -0.029322652 -0.23244569
-0.35794497 0.2577971 -0.28770244 0.08824653 -0.10918082 0.035434134 0.08839701 0.11801752
-0.18631686 -0.08018215 0.07937016 0.10662959 0.21277604 -0.05825639 0.3139706 -0.031310312
0.096985534 -0.22567335 0.15282166 -0.13421394 0.115353905 0.17290238 -0.13871935 -0.12106055
0.2250605 -0.4602976 0.60120416 -0.20794874 0.5367704 0.08234138 -0.3673911 -0.40026835
-0.03665454 0.6406733 -0.21962243 0.37826622 -0.16551653 0.5255042 0.25004056 0.4908669
0.47819614 -0.08656557 0.4321474 -0.14979354 0.25523937 -0.16867943 -0.3781691 -0.37623295
-0.2602381 0.017392121 -0.09051522 0.55658376 -0.072733805 0.15640022 0.17896275 0.17876402
0.08077929 -0.1777089 0.5260522 0.01004251 -0.252372 0.28341913 -0.6187128 0.19056861
-0.020046812 0.40967607 -0.42741445 0.5125758 -0.40928635 0.06229729 -0.10381353 0.2870042
-0.17274722 0.32298887 0.31780335 0.03469054 -0.15915662 -0.32145151 -0.34111774 -0.045417637
0.05221034 0.011625542 -0.01941506 -0.119489424 -0.22824162 0.06485145 0.38917837 -0.056022458
0.2673802 -0.17057496 0.3236819 -0.18271077 0.19229554 -0.19349821 0.20045374 0.07731984
-0.056688186 -0.100197956 0.44800404 -0.22115465 0.25683975 -0.31490216 0.077870056 -0.29166934
0.0066931956 0.07472437 0.1525073 0.09736136 -0.097955845 0.4218144 -0.1231638 -0.13067052
0.34056965 0.18439946 -0.28766498 0.14739041 0.18074699 0.31097183 -0.41310003 0.06908742
-0.25438583 -0.4215652 -0.14251342 -0.17989303 0.09877785 0.052138492 -0.37298697 0.082809925
0.29833698 -0.11723502 -0.083146505 0.2256303 -0.24070798 -0.32062417 0.06590657 -0.51986617
-0.10063663 -0.07262412 0.93622524 0.123719186 0.116014585 -0.20458776 0.06979297 -0.59291565
00000000: 48b1 31bd b7f6 c93e e745 2c3e 46f5 f43e
00000010: b50d d0be 9198 913e 02a6 263d 2a78 44bd
00000020: 4f8a ffbd e915 0a3e 8e06 5dbe 97c7 3abe
00000030: 618e ea3e c724 86be 7f64 633e fb51 e8be
00000040: 041e 903e 97a2 edbd 3dec 163f c812 b0bd
00000050: 902f 8a3d 9c44 143e bb0a 23bf 027b 193c
00000060: ad61 6ebf 0768 833e 1344 24bf 4e45 3e3f
00000070: 94c0 54bf 4827 553f 9995 db3e dff1 493f
00000080: 9b26 8c3e a5a9 03bd ad20 943e 59f9 dabe
00000090: aa84 bc3e b3d1 87be fa7e b7be b48f ee3a
000000a0: 39f8 733e 176d 803e 8da9 863e 231c abbe
000000b0: d544 b9bd 9283 673e 7836 96bb 66a0 2a3e
000000c0: b9e2 7cbe d701 c23e 711d 15be b4a4 8a3e
000000d0: cba9 88be 5444 a73e 7b08 df3e fe6b 413e
000000e0: b314 c1be ee39 803e 21f7 623d c1e3 a8be
000000f0: 2f78 af3e 57e5 8dbe 0e29 bf3e 3d44 b4be
00000100: 756e 28be d891 973e bbe2 4dbe 0799 4fbd
00000110: 4ddf a4be 292d 2d3e 3ec3 b33d a3fa 933e
00000120: 14d3 8b3e 42f1 cdbd dae6 8e3e 4476 9fbe
00000130: 59c3 8ebe 109f a7be 95e9 0cbf c139 5ebe
00000140: 5e33 263d 967f 90be 116c 1d3e 6921 cabe
00000150: 1ab9 a03e 08e1 8ebd 2095 aabd d3e8 34be
00000160: 77be 8abe 4603 79be ec7f 53bd 8a23 f33d
00000170: cc07 a2bd eb9f 953d 9ce8 acbd 08e8 3e3e
00000180: 7c9c 21be d6ca 733e 0eb7 31be 3629 e2be
00000190: ec8f 5a3e 6f3c 65be 4763 aabe d917 9ebe
000001a0: a870 7f3e 9348 07bf b77a 653e f1b3 2d3e
000001b0: 0902 463e 316b 803e 0f36 f0bc 3e06 6ebe
000001c0: 9044 b7be fbfd 833e bc4d 93be 99ba b43d
000001d0: 329a dfbd 6223 113d 7e09 b53d 2bb3 f13d
000001e0: d9c9 3ebe 8a36 a4bd d38c a23d 9d60 da3d
000001f0: f6e1 593e 419e 6ebd c1c0 a03e 3e3f 00bd
00000200: 5aa0 c63d ea16 67be 487d 1c3e 616f 09be
00000210: ab3e ec3d 520d 313e 720c 0ebe 98ee f7bd
00000220: 4276 663e 21ac ebbe 84e8 193f 84f0 54be
00000230: c969 093f 99a2 a83d b01a bcbe f9ef ccbe
00000240: 1223 16bd 2a03 243f b4e4 60be 1cac c13e
00000250: 2a7d 29be 7187 063f 5105 803e e852 fb3e
00000260: 20d6 f43e 4a49 b1bd 6d42 dd3e 7a63 19be
00000270: bcae 823e 4dba 2cbe 619f c1be 9ba1 c0be
00000280: ee3d 85be ec79 8e3c 0b60 b9bd 467c 0e3f
00000290: 76f5 94bd 6127 203e 0342 373e ea0d 373e
000002a0: 9d6f a53d 52f9 35be 5bab 063f 5789 243c
000002b0: e736 81be 501c 913e f663 1ebf 6b24 433e
000002c0: 3639 a4bc 10c1 d13e 11d6 dabe 2b38 033f
000002d0: fb8d d1be 712b 7f3d 309c d4bd 37f2 923e
000002e0: a6e4 30be cc5e a53e 1fb7 a23e ab17 0e3d
000002f0: f4f9 22be 4b95 a4be fca6 aebe d807 3abd
00000300: 82da 553d 0f79 3e3c 550c 9fbc dfb6 f4bd
00000310: 2cb8 69be d6d0 843d 6342 c73e ce77 65bd
00000320: 0fe6 883e 34ab 2ebe a2b9 a53e 8818 3bbe
00000330: 1fe9 443e 6524 46be bf43 4d3e dd59 9e3d
00000340: df31 68bd 9634 cdbd c960 e53e 5d76 62be
00000350: 8080 833e db3a a1be 567a 9f3d af55 95be
00000360: 9852 db3b 1709 993d e02a 1c3e 6565 c73d
00000370: 139d c8bd 0ff8 d73e 4d3d fcbd 7ece 05be
00000380: 255f ae3e 36d3 3c3e d348 93be 83ed 163e
00000390: bd15 393e b337 9f3e d981 d3be b57d 8d3d
000003a0: dc3e 82be 65d7 d7be 0aef 11be e135 38be
000003b0: 0b4c ca3d 2c8f 553d 26f8 bebe 4098 a93d
000003c0: a0bf 983e ea18 f0bd b748 aabd a10b 673e
000003d0: 277c 76be da28 a4be 06fa 863d f315 05bf
000003e0: 941a cebd f4bb 94bd 75ac 6f3f 7c60 fd3d
000003f0: 0e99 ed3d 747f 51be 9eef 8e3d 52c9 17bf

encoder_variable_selection.single_variable_grns.VaccinationFull.gate_norm.glu.fc.bias f4 [32]
-0.008951942 0.54260665 -0.3954533 -0.5057178 -0.078706734 -0.030486746 0.14699137 0.130049
-0.01407274 -0.14061783 0.07964867 0.007048353 0.017333169 -0.2331674 0.28885415 0.0827785
-0.014385432 0.09780112 0.08948771 0.09508156 0.2295962 -0.5181921 0.17378972 -0.015912566
0.13745885 0.14778708 -0.09204263 -0.26354048 -0.08040969 -0.18896177 -0.08464382 -0.1695352
00000000: 2bab 12bc 45e8 0a3f db78 cabe b976 01bf
00000010: ff30 a1bd 57bf f9bc e884 163e 912b 053e
00000020: 5a91 66bc 1ffe 0fbe d81e a33d dff5 e63b
00000030: 4afe 8d3c 6fc3 6ebe b1e4 933e c687 a93d
00000040: e0b0 6bbc f44b c83d 5545 b73d 1fba c23d
00000050: 441b 6b3e 3da8 04bf eff5 313e 125b 82bc
00000060: 03c2 0c3e 7f55 173e d980 bcbd c7ee 86be
00000070: d6ad a4bd 327f 41be bd59 adbd a39a 2dbe

encoder_variable_selection.single_variable_grns.VaccinationFull.gate_norm.add_norm.norm.weight f4 [16]
0.7460052 0.85118264 1.1077939 1.0877717 0.83555996 0.8524497 0.78391004 0.992305
0.80682397 0.65345275 0.7750258 1.1228968 0.5727387 0.96675706 0.84494656 0.4910863
00000000: 32fa 3e3f 1be7 593f 31cc 8d3f 1a3c 8b3f
00000010: 42e7 553f 253a 5a3f 54ae 483f b307 7e3f
00000020: 048c 4e3f ae48 273f 1768 463f 15bb 8f3f
00000030: 019f 123f 647d 773f 6b4e 583f aa6f fb3e

encoder_variable_selection.single_variable_grns.VaccinationFull.gate_norm.add_norm.norm.bias f4 [16]
0.042691115 0.3337897 0.108545676 0.09816057 0.08116602 0.019647576 -0.11300789 -0.07201668
-0.19245736 -0.16067725 -0.008776354 0.08478167 0.052506056 -0.142739 0.1401907 0.11210768
00000000: e1dc 2e3d 7ce6 aa3e 324d de3d 6908 c93d
00000010: 5f3a a63d f4f3 a03c ae70 e7bd 7b7d 93bd
00000020: 8b13 45be 9488 24be b2ca 0fbc 03a2 ad3d
00000030: 9710 573d 2c2a 12be 278e 0f3e b698 e53d

encoder_variable_selection.single_variable_grns.Cases.resample_norm.mask f4 [16]
0.20146726 0.037049413 -0.7461566 -0.06862723 -0.056902833 0.34953898 0.0024870452 -0.6019696
-0.666196 0.4268051 0.17064662 0.08268667 -0.31754524 -0.19097123 0.19296062 0.118751004
00000000: 6f4d 4e3e 20c1 173d 1e04 3fbf 6f8c 8cbd
00000010: f212 69bd c6f6 b23e b2fd 223b ae1a 1abf
00000020: d28b 2abf 3386 da3e fdbd 2e3e a157 a93d
00000030: 4a95 a2be f68d 43be 7897 453e ba33 f33d

encoder_variable_selection.single_variable_grns.Cases.resample_norm.norm.weight f4 [16]
1.1573808 1.2699387 0.5239684 0.9226258 0.8631748 1.3260809 1.3303796 0.6799586
0.5440255 1.511314 1.1991408 1.1407933 0.670867 0.8251464 1.2493277 1.2479969
00000000: 0e25 943f 5a8d a23f cb22 063f 3431 6c3f
00000010: 06f9 5c3f 05bd a93f e149 aa3f c411 2e3f
00000020: 4145 0b3f bd72 c13f 727d 993f 8405 923f
00000030: f1bd 2b3f cb3c 533f f8e9 9f3f 5dbe 9f3f

encoder_variable_selection.single_variable_grns.Cases.resample_norm.norm.bias f4 [16]
0.106211156 0.09564128 -0.15937164 -0.13600516 -0.24933013 -0.071272485 -0.21660803 0.0399134
-0.07576602 0.043771885 -0.0068861046 0.06715841 0.028170856 0.12507619 0.033226795 0.19042926
00000000: 3c85 d93d 93df c33d 5232 23be f044 0bbe
00000010: 6650 7fbe 4ff7 91bd 7fce 5dbe 3c7c 233d
00000020: 372b 9bbd 264a 333d d5a4 e1bb 598a 893d
00000030: 91c6 e63c f913 003e d218 083d e3ff 423e

encoder_variable_selection.single_variable_grns.Cases.fc1.weight f4 [8, 8]
0.043193962 1.5168434 0.15374526 -0.21391676 -0.527816 0.4705966 -0.30468434 -0.5170333
0.5768959 0.58048236 -0.25853345 -1.6985061 -1.1341136 0.35193372 0.09582648 -0.08311892
1.1610173 0.22470318 0.052353 -0.18182334 -0.20218423 -0.052377727 -0.79603946 0.8902075
-0.5365402 -0.083357595 0.7878092 0.40594423 0.7630995 0.0958416 0.1705515 0.58847404
-0.104219966 -0.44452316 0.016441159 0.38497427 0.410635 0.5027079 -0.03860292 0.40400088
-0.12812403 0.20327964 0.19277701 -1.0732964 -0.729791 0.594123 0.057672147 0.68377984
0.1895523 0.45762688 0.17648774 0.52123356 -1.4305727 0.13743173 0.4915413 -0.34587714
-0.17135309 -0.4638663 -0.4437979 -0.6775392 -0.0950694 -0.30262446 -0.7361219 1.3804834
00000000: 27ec 303d ed27 c23f 666f 1d3e ff0c 5bbe
00000010: f31e 07bf 0af2 f03e 96ff 9bbe 4b5c 04bf
00000020: 73af 133f 7e9a 143f 7f5e 84be a668 d9bf
00000030: a22a 91bf a830 b43e ac40 c43d 413a aabd
00000040: 379c 943f 9718 663e 1970 563d e62f 3abe
00000050: 6209 4fbe 078a 56bd 3ec9 4bbf a4e4 633f
00000060: b35a 09bf 63b7 aabd ddad 493f ecd7 cf3e
00000070: 7d5a 433f 9a48 c43d 0da5 2e3e 3ca6 163f
00000080: 4771 d5bd 8a98 e3be 9caf 863c 591b c53e
00000090: c03e d23e 77b1 003f 181e 1ebd 34d9 ce3e
000000a0: f232 03be 8a28 503e 5667 453e c761 89bf
000000b0: 95d3 3abf 7218 183f a139 6c3d 320c 2f3f
000000c0: 001a 423e 124e ea3e 34b9 343e 906f 053f
000000d0: 021d b7bf e7ba 0c3e 4dab fb3e cf16 b1be
000000e0: 2f77 2fbe e27f edbe 7a39 e3be 3673 2dbf
000000f0: bfb3 c2bd 98f1 9abe 7c72 3cbf aeb3 b03f

encoder_variable_selection.single_variable_grns.Cases.fc1.bias f4 [8]
-0.24785377 -0.23110157 -0.15708062 -0.08502866 0.010462486 -0.10880395 -0.3582247 -0.004691131
00000000: 61cd 7dbe e4a5 6cbe bed9 20be 8223 aebd
00000010: d96a 2b3c 9bd4 debd 3a69 b7be 0fb8 99bb

encoder_variable_selection.single_variable_grns.Cases.fc2.weight f4 [8, 8]
-0.1809944 0.89339375 -0.18466984 -0.47959718 0.35937786 -0.08723141 0.86705005 -0.11809827
-0.26795545 0.029870147 -0.20225197 -0.5114211 0.30083197 0.1229909 0.08892923 -1.2676991
-0.08966502 -0.52193224 -0.99217784 0.24170436 0.37900355 -0.36515334 -0.61079276 0.6611651
-0.23291421 -0.56876874 -0.5294416 -0.9727852 0.51818776 -0.7646302 -0.4388693 -0.14513196
0.5341738 0.77524674 0.10579909 0.4049866 0.27886027 0.024452338 0.34145334 0.70154375
-0.03921758 -0.3470856 0.85912365 0.6789093 -0.42293108 -0.2220329 -0.26878884 0.36742648
-0.70638907 -0.49800184 -0.54269934 0.34797263 -0.051165063 -0.46139762 0.40608725 -0.3403225
0.50179684 0.7457364 -0.1534902 -0.23982507 0.023827467 0.09934787 0.034563083 -0.0422692
00000000: 9956 39be 74b5 643f 171a 3dbe c38d f5be
00000010: 6000 b83e 62a6 b2bd fef6 5d3f 81dd f1bd
00000020: 7531 89be 3db2 f43c 241b 4fbe 7eec 02bf
00000030: a606 9a3e a7e2 fb3d 8720 b63d f743 a2bf
00000040: 4ba2 b7bd 5a9d 05bf 5eff 7dbf 5981 773e
00000050: c10c c23e 61f5 babe ea5c 1cbf 1e42 293f
00000060: 1081 6ebe d49a 11bf 7c89 07bf 7308 79bf
00000070: f4a7 043f cebe 43bf 7ab3 e0be 799d 14be
00000080: 9dbf 083f 9276 463f 31ad d83d 675a cf3e
00000090: c6c6 8e3e 4550 c83c f9d2 ae3e 5f98 333f
000000a0: 9da2 20bd 34b5 b1be 87ef 5b3f 00cd 2d3f
000000b0: 6c8a d8be 985c 63be b19e 89be 531f bc3e
000000c0: ead5 34bf 19fa febe 58ee 0abf 7829 b23e
000000d0: 7592 51bd 4f3c ecbe abea cf3e c03e aebe
000000e0: c275 003f 95e8 3e3f 892c 1dbe b494 75be
000000f0: d231 c33c e576 cb3d 0592 0d3d 7822 2dbd

encoder_variable_selection.single_variable_grns.Cases.fc2.bias f4 [8]
-0.21662316 0.16196889 0.11810087 0.1645018 -0.062366627 0.26697892 0.06430993 0.007742579
00000000: 76d2 5dbe 2cdb 253e dede f13d 2973 283e
00000010: 2674 7fbd 76b1 883e edb4 833d 76b5 fd3b
