race-groups/results/White/checkpoints/latest-epoch=3.ckpt (torch, 735725 bytes, 506 tensors)

prescalers.White.weight f4 [8, 1]
0.1987634 -0.4369695 0.20733418 0.34920925 -0.6255173 -0.1402937 -0.4700184 0.2168629
00000000: a288 4b3e 77ba dfbe 694f 543e 8ecb b23e
00000010: e721 20bf 27a9 0fbe 40a6 f0be 4f11 5e3e

prescalers.White.bias f4 [8]
0.038377713 0.10864776 1.0128822 0.47940364 -0.62394524 -0.8200699 -0.50826806 0.158879
00000000: f331 1d3d b782 de3d 20a6 813f 6574 f53e
00000010: e0ba 1fbf 1af0 51bf db1d 02bf 2db1 223e

prescalers.SinWeekly.weight f4 [8, 1]
-0.043657027 -1.2374594 0.9878973 -1.1299645 0.6465474 -0.1981143 0.8197672 0.45248508
00000000: b6d1 32bd 1265 9ebf d6e6 7c3f ada2 90bf
00000010: 2184 253f 7ade 4abe 43dc 513f 20ac e73e

prescalers.SinWeekly.bias f4 [8]
0.14989895 -0.06165059 0.6713683 0.28545877 0.45771646 -0.5357355 0.91617984 0.4433538
00000000: 1c7f 193e 5485 7cbd cbde 2b3f a727 923e
00000010: d059 ea3e f625 09bf c38a 6a3f 45ff e23e

prescalers.VaccinationFull.weight f4 [8, 1]
-0.066600434 0.44868618 0.59040356 0.71054286 -0.401531 -0.7090672 -0.22590026 -0.6992075
00000000: cf65 88bd 32ba e53e b024 173f 23e6 353f
00000010: 7995 cdbe 6e85 35bf 6652 67be 43ff 32bf

prescalers.VaccinationFull.bias f4 [8]
0.7519829 -0.60974294 -0.22482252 1.0194348 0.8906535 0.06998254 -0.45219645 0.13405964
00000000: f481 403f 1d18 1cbf e037 66be d77c 823f
00000010: de01 643f 0253 8f3d 4b86 e7be ee46 093e

prescalers.Cases.weight f4 [8, 1]
0.45692632 -0.99024945 -0.903436 0.601869 1.3782703 -0.16486579 -0.5619175 0.30644977
00000000: 3ff2 e93e fd80 7dbf 9547 67bf 1614 1a3f
00000010: 296b b03f 94d2 28be d3d9 0fbf fce6 9c3e

prescalers.Cases.bias f4 [8]
-0.97198427 -0.1784469 0.76134235 0.398959 0.029287482 -0.1070974 0.5574091 -1.0068225
00000000: f6d3 78bf c9ba 36be 55e7 423f 5b44 cc3e
00000010: 4dec ef3c e255 dbbd 5db2 0e3f 8fdf 80bf

static_variable_selection.single_variable_grns.White.resample_norm.mask f4 [16]
-0.17559817 -0.4560877 -0.8551966 0.08539832 0.17562275 0.099114746 0.4437322 -0.28695825
-0.093376406 0.61016285 -0.030353487 0.21470064 0.16069023 -0.13603386 -1.1971402 -0.45874575
00000000: 02d0 33be 5484 e9be 2aee 5abf 50e5 ae3d
00000010: 73d6 333e acfc ca3d de30 e33e 31ec 92be
00000020: 213c bfbd a233 1c3f e0a7 f8bc 7cda 5b3e
00000030: fb8b 243e 764c 0bbe e43b 99bf b9e0 eabe

static_variable_selection.single_variable_grns.White.resample_norm.norm.weight f4 [16]
1.0944924 0.70133334 0.7109838 1.2601192 1.3695248 1.1716728 1.3300638 0.7650677
1.1049854 1.6620448 1.152528 1.519826 1.1918343 0.93213445 1.0078737 0.8659137
00000000: 5418 8c3f 958a 333f 0903 363f 964b a13f
00000010: 974c af3f 60f9 953f 883f aa3f 7adb 433f
00000020: 2970 8d3f e2bd d43f 0a86 933f a989 c23f
00000030: 078e 983f 5da0 6e3f 0102 813f 85ac 5d3f

static_variable_selection.single_variable_grns.White.resample_norm.norm.bias f4 [16]
0.22549532 -0.26888093 -0.27708748 0.22143401 0.49354696 0.31096524 0.1213922 0.047016293
-0.45933318 -0.110696666 -0.18792933 -0.5926266 -0.018794585 -0.2241465 -0.099350296 0.0496993
00000000: 3fe8 663e c3aa 89be 69de 8dbe 99bf 623e
00000010: 30b2 fc3e d636 9f3e 799c f83d 2894 403d
00000020: b82d ebbe efb4 e2bd 8c70 40be 60b6 17bf
00000030: 1af7 99bc a986 65be 2b78 cbbd 7e91 4b3d

static_variable_selection.single_variable_grns.White.fc1.weight f4 [8, 8]
0.18480419 -0.35841674 -0.730354 -0.71823364 0.030481735 -1.2468892 0.5429848 -0.5646094
-0.45815575 -0.9642752 -0.054000594 0.8582785 -0.636942 -0.5191379 0.32435635 -0.018300984
0.14491776 0.3993282 0.3172614 -0.54921746 0.48859453 0.0063546747 0.6873264 -0.30553633
-0.48687062 -0.21195039 0.058576837 -0.15111026 -0.5265217 0.07622584 -0.45744553 0.61660564
-0.21372804 0.3711613 0.12698525 0.19003043 -0.74293035 0.6901401 -0.12161513 0.1464631
0.15125792 0.008180786 -0.25020298 -0.11423466 0.6443583 -0.37972608 0.2859387 -0.27484626
-0.23071446 -0.5513545 -0.11203486 0.122871704 0.48832604 1.221581 0.47767568 -0.21081506
-0.5996356 -0.5854781 -0.044102423 0.58924675 -0.21307065 -0.50511175 0.09865776 0.0056705084
00000000: 4f3d 3d3e 6682 b7be 7bf8 3abf 29de 37bf
00000010: d5b4 f93c 119a 9fbf 0d01 0b3f 3e8a 10bf
00000020: 6493 eabe bdda 76bf ba2f 5dbd 24b8 5b3f
00000030: a20e 23bf 39e6 04bf 0912 a63e f2eb 95bc
00000040: 5265 143e bf74 cc3e 1670 a23e 8499 0cbf
00000050: 1029 fa3e e03a d03b 9ff4 2f3f 426f 9cbe
00000060: 1b47 f9be 8609 59be 44ee 6f3d a6bc 1abe
00000070: 20ca 06bf 4b1c 9c3d 4d36 eabe ded9 1d3f
00000080: 86db 5abe db08 be3e 6c08 023e 5697 423e
00000090: af30 3ebf 06ad 303f 5a11 f9bd 6cfa 153e
000000a0: 5be3 1a3e b408 063c 9b1a 80be ddf3 e9bd
000000b0: aaf4 243f 756b c2be 8f66 923e a6b8 8cbe
000000c0: 6940 6cbe 9225 0dbf 8872 e5bd 29a4 fb3d
000000d0: df05 fa3e c45c 9c3f e891 f43e e7df 57be
000000e0: b881 19bf e5e1 15bf bea4 34bd e0d8 163f
000000f0: 312f 5abe 014f 01bf 140d ca3d accf b93b

static_variable_selection.single_variable_grns.White.fc1.bias f4 [8]
-0.12230318 0.1506855 -0.21091679 0.030166715 0.10782351 0.03041359 0.20007668 0.05038771
00000000: 177a fabd 4d4d 1a3e 92fa 57be 3020 f73c
00000010: 93d2 dc3d ec25 f93c e7e0 4c3e 5863 4e3d

static_variable_selection.single_variable_grns.White.fc2.weight f4 [8, 8]
0.08178931 0.38056573 0.0061787544 -0.24493523 -0.096576475 -0.20085092 0.6760401 0.42559555
-0.22010553 -0.4667026 0.3165976 -0.10364585 -0.0064067934 -0.06611112 0.46757683 0.17935427
-0.24920273 0.56713915 -0.43114084 0.26232594 0.27253035 -0.4708171 -0.20638396 0.699735
0.26019135 0.13283938 0.48494083 -0.08508881 0.013268247 -0.20321847 0.64082164 -0.5235939
0.3591685 0.047692683 0.20010626 0.04459089 -0.11062371 0.03117224 0.56127185 0.21865638
-0.046809174 -0.50041217 -0.47257552 0.023105346 0.30420884 0.0059049777 -0.73381346 -0.15106927
-0.45636854 0.21561156 -0.0876007 0.010427181 0.18732408 0.12518576 -0.57381153 -0.060520213
0.120996214 0.58349264 -0.8715773 0.2982558 0.0741288 -0.20808987 0.30511677 -0.12124219
00000000: 2781 a73d 83d9 c23e 2677 ca3b 4dd0 7abe
00000010: e3c9 c5bd ddab 4dbe f710 2d3f a9e7 d93e
00000020: 5863 61be a5f3 eebe 1519 a23e 4744 d4bd
00000030: 14f0 d1bb 4465 87bd 3b66 ef3e a5a8 373e
00000040: 002f 7fbe 0830 113f 7ebe dcbe 964f 863e
00000050: 1989 8b3e f00e f1be 5156 53be d521 333f
00000060: cd37 853e 0c07 083e 2a4a f83e 0b43 aebd
00000070: 1063 593c 8118 50be e30c 243f 400a 06bf
00000080: efe4 b73e 6759 433d a8e8 4c3e f0a4 363d
00000090: af8e e2bd ed5c ff3c 83af 0f3f 75e7 5f3e
000000a0: faba 3fbd 031b 00bf 6bf5 f1be 6c47 bd3c
000000b0: 43c1 9b3e 8b7e c13b 33db 3bbf e7b1 1abe
000000c0: 23a9 e9be 47c9 5c3e ff67 b3bd c4d6 2a3c
000000d0: e2d1 3f3e b230 003e 50e5 12bf 0be4 77bd
000000e0: ddcc f73d c65f 153f b11f 5fbf fcb4 983e
000000f0: d7d0 973d 8315 55be 4438 9c3e d34d f8bd

static_variable_selection.single_variable_grns.White.fc2.bias f4 [8]
0.019330347 -0.05847856 -0.22346176 -0.0982907 -0.039065395 -0.15101328 0.11898626 -0.04278052
00000000: ad5a 9e3c 3787 6fbd 29d3 64be a24c c9bd
00000010: 0903 20bd 3aa3 1abe 11af f33d a03a 2fbd

static_variable_selection.single_variable_grns.White.gate_norm.glu.fc.weight f4 [32, 8]
-0.110582165 -0.19644755 0.24232943 -0.39822197 -0.25683737 -0.26855013 -0.19030054 0.20257406
0.07911718 0.39703664 0.038257506 0.57038116 -0.1284541 -0.06083938 -0.120535836 0.021118285
0.16457017 0.1732441 -0.33792627 0.0153520275 0.18885978 -0.69436795 0.10359074 0.43795022
-0.26179302 0.3478548 -0.7204539 -0.06789772 0.010038633 -0.2516331 -0.31468877 -0.14234772
0.035073165 -0.41061896 0.25941586 -0.27123094 0.08886928 -0.18897502 -0.23413819 0.1535503
0.019747391 0.25784674 -0.38541645 -0.04322044 -0.1791966 -0.22382933 0.3542035 0.21725477
-0.41499618 0.06891994 0.03007154 0.12676215 -0.11263633 -0.37124783 0.10691976 0.1851511
0.2054382 -0.16711295 0.31351525 -0.27420554 -0.4229964 0.5393207 0.23349786 0.065279186
-0.17039326 0.06645692 0.042047113 0.32231456 0.6141128 0.15618905 0.15083519 0.20481059
0.028673723 0.019844446 -0.38762152 0.314274 0.118647724 0.009781258 -0.4949801 -0.4285309
-0.3467425 0.20911454 0.22541523 -0.07404823 -0.25889635 -0.28103873 -0.3443293 0.10600675
0.25101352 -0.042765565 0.93050814 -0.45184347 0.013112155 0.5835881 0.37987313 0.6877588
-0.28505266 -0.031074556 0.06712541 0.12321653 0.19081868 -0.04970721 0.058683634 0.072354645
0.11662485 -0.4343884 0.2218927 0.05283899 -0.12232087 0.20688334 0.0666828 0.22343868
-0.05052395 0.21366937 -0.08723715 0.18979472 -0.021217423 -0.25578663 0.34337637 0.47168335
-0.2533702 0.07184094 -0.12988564 0.2551707 0.01620524 0.32716942 0.13396253 -0.24248303
0.30639085 0.061027937 0.29011995 0.16361555 0.5536965 0.04842524 0.40765598 0.7424504
0.4062744 -0.107465066 -0.70608777 0.17040677 0.16295664 -0.23353894 -0.13941048 -0.19980654
-0.13492438 0.29647714 -0.25696623 0.35649166 -0.23917395 0.49800923 -0.5213036 -0.12017732
-0.095510386 0.67341334 -0.99784964 0.67128646 -0.048483748 -0.07772288 0.049709316 0.18482627
0.50861686 -0.54491866 0.44200528 -0.46213922 0.03165595 0.30720982 -0.28153515 0.34814474
0.30422705 0.35970563 0.301256 0.20569383 0.6647763 -0.14856972 -0.5323881 0.830563
0.63235325 0.8158756 -0.20043963 0.18953206 0.40017068 -0.44662103 -0.3621017 0.7201784
-0.1811462 0.792098 -0.26630884 0.7706998 0.81214017 -0.26880857 -0.46502185 -0.14852002
-0.055831503 0.15473114 -0.052880857 0.04594081 0.4379458 0.28360432 -0.23968472 0.38351765
0.63638556 0.37612042 0.7802341 -0.34754717 0.66970414 -0.35097158 -0.13884783 1.4485387
0.6858763 -0.03637494 0.07563507 0.3340063 0.30925584 -0.34711355 0.025321726 0.21464707
-0.2632892 0.5741751 -0.52952844 1.0285338 0.4484436 -0.42973575 -0.33802965 -0.19772977
0.2643948 0.33264604 0.17719565 0.07379902 0.3923383 0.3291169 -0.7759924 0.45418614
0.41636112 0.1077327 0.18409325 -0.2072248 0.22236493 -0.05296043 -0.49428514 0.5928011
0.74524164 0.05649522 -0.13030761 -0.18338022 0.5524405 0.03711841 -0.011812748 0.5570927
0.31305507 -0.0008449549 -0.0470125 -0.39987588 0.70678866 -0.27911735 -0.37827274 0.7532423
00000000: e778 e2bd 8c29 49be 3525 783e c0e3 cbbe
00000010: 3080 83be 677f 89be 25de 42be 936f 4f3e
00000020: 3008 a23d 6348 cb3e e7b3 1c3d 8004 123f
00000030: 7989 03be b732 79bd 7edb f6bd 4100 ad3c
00000040: 1585 283e e766 313e ac04 adbe 1287 7b3c
00000050: 7564 413e 19c2 31bf 6227 d43d 033b e03e
00000060: bc09 86be 061a b23e ab6f 38bf f60d 8bbd
00000070: 1479 243c 0ed6 80be e31e a1be 9ac3 11be
00000080: e1a8 0f3d a63c d2be 28d2 843e c8de 8abe
00000090: 1901 b63d ab82 41be ecc1 6fbe 4a3c 1d3e
000000a0: 48c5 a13c 7d04 843e 4e55 c5be eb07 31bd
000000b0: 507f 37be 8433 65be 295a b53e 0978 5e3e
000000c0: 617a d4be e625 8d3d 9758 f63c f0cd 013e
000000d0: e0ad e6bd 3214 bebe bff8 da3d 4098 3d3e
000000e0: 645e 523e a81f 2bbe 1285 a03e ab64 8cbe
000000f0: fc92 d8be ec10 0a3f 101a 6f3e 18b1 853d
00000100: 927b 2ebe 911a 883d 9839 2c3d 6a06 a53e
00000110: 7f36 1d3f 06f0 1f3e 8a74 1a3e deb9 513e
00000120: 28e5 ea3c d290 a23c 5476 c6be 86e8 a03e
00000130: 94fd f23d 9241 203c 086e fdbe 6768 dbbe
00000140: 3c88 b1be 1f22 563e 40d3 663e 99a6 97bd
00000150: 108e 84be 4fe4 8fbe ee4b b0be 111a d93d
00000160: d884 803e f22a 2fbd c835 6e3f 0758 e7be
00000170: 5dd4 563c 0866 153f bb7e c23e f610 303f
00000180: 6cf2 91be 1190 febc 0c79 893d f358 fc3d
00000190: f965 433e ca99 4bbd 405e 703d ac2e 943d
000001a0: 02d9 ee3d 2868 debe d737 633e b26d 583d
000001b0: 5d83 fabd 3ad9 533e fe90 883d 1ccd 643e
000001c0: 34f2 4ebd 25cc 5a3e 64a9 b2bd 8c59 423e
000001d0: 29d0 adbc 77f6 82be 07cf af3e 7b80 f13e
000001e0: bdb9 81be 5821 933d be00 05be bca5 823e
000001f0: dac0 843c c082 a73e 792d 093e 794d 78be
00000200: 43df 9c3e 6ef8 793d 9a8a 943e d68a 273e
00000210: 0ebf 0d3f 8b59 463d 49b8 d03e 3b11 3e3f
00000220: 3303 d03e a516 dcbd 2bc2 34bf 1d7f 2e3e
00000230: 1bde 263e d524 6fbe 9fc1 0ebe 169a 4cbe
00000240: 9e29 0abe dacb 973e 1491 83be 1386 b63e
00000250: 04ea 74be 11fb fe3e 2774 05bf 871f f6bd
00000260: f39a c3bd d164 2c3f 1373 7fbf 6ed9 2b3f
00000270: e596 46bd 2c2d 9fbd ff9b 4b3d 1943 3d3e
00000280: b734 023f ca7f 0bbf 844e e23e 839d ecbe
00000290: aba9 013d 9b4a 9d3e 6025 90be 0740 b23e
000002a0: a6c3 9b3e 562b b83e 3a3e 9a3e 67a1 523e
000002b0: c82e 2a3f a922 18be 964a 08bf c79f 543f
000002c0: e7e1 213f 39dd 503f 0c40 4dbe b114 423e
000002d0: 2ce3 cc3e 83ab e4be 6565 b9be 9d5d 383f
000002e0: 647e 39be efc6 4a3f a259 88be 954c 453f
000002f0: 6be8 4f3f 47a1 89be 5817 eebe a215 18be
00000300: 93af 64bd d771 1e3e 9999 58bd 6e2c 3c3d
00000310: 6f3a e03e 9634 913e e96f 75be 6d5c c43e
00000320: 2aea 223f db92 c03e 6cbd 473f b4f1 b1be
00000330: bb71 2b3f 8cb2 b3be 202e 0ebe b769 b93f
00000340: 9795 2f3f e4fd 14bd 8fe6 9a3d e002 ab3e
00000350: c856 9e3e deb8 b1be 826f cf3c 71cc 5b3e
00000360: d8cd 86be 24fd 123f 2d8f 07bf ffa6 833f
00000370: 669a e53e 5306 dcbe 3912 adbe ac79 4abe
00000380: c15e 873e 9550 aa3e c772 353e f123 973d
00000390: 91e0 c83e 0382 a83e 70a7 46bf 168b e83e
000003a0: 492d d53e f6a2 dc3d f182 3c3e bd32 54be
000003b0: a2b3 633e 09ed 58bd f112 fdbe d0c1 173f
000003c0: 28c8 3e3f 8867 673d 5c6f 05be 06c8 3bbe
000003d0: be6c 0d3f 7909 183d 428a 41bc a19d 0e3f
000003e0: c148 a03e f77f 5dba 2e90 40bd 88bc ccbe
000003f0: 1af0 343f 78e8 8ebe f7ac c1be 7dd4 403f

static_variable_selection.single_variable_grns.White.gate_norm.glu.fc.bias f4 [32]
0.23679742 -0.2558812 -0.17555849 0.1711775 0.47469425 0.3380278 0.10392155 0.069556266
-0.35663563 -0.14071997 -0.13792343 -0.66050106 -0.026492234 -0.09514868 -0.018950457 0.04913136
-0.4806399 -0.23655613 -0.13051426 -0.19233908 0.0238283 -0.5086567 -1.0793976 -0.9365378
-0.27935642 -0.71308327 -0.9274331 -0.03494002 -1.0535107 -0.6918157 -0.8009121 -0.4678372
00000000: 067b 723e dc02 83be 9bc5 33be 2849 2f3e
00000010: 200b f33e fb11 ad3e d2d4 d43d 8473 8e3d
00000020: f298 b6be e518 10be cd3b 0dbe 9916 29bf
00000030: 3e06 d9bc 50dd c2bd fd3d 9bbc f73d 493d
00000040: 6f16 f6be c53b 72be 88a5 05be 89f4 44be
00000050: 9133 c33c 5337 02bf b329 8abf f1c0 6fbf
00000060: ce07 8fbe a08c 36bf 416c 6dbf 441d 0fbd
00000070: 70d9 86bf d51a 31bf 9308 4dbf 5c88 efbe

static_variable_selection.single_variable_grns.White.gate_norm.add_norm.norm.weight f4 [16]
0.9549888 0.6265794 0.2549639 1.2674851 1.4435959 1.1726993 1.2548378 0.7143346
0.778357 1.4519184 0.95592475 1.7254295 0.9942341 0.57806206 0.665789 0.35927212
00000000: 257a 743f 8267 203f a18a 823e f43c a23f
00000010: c0c7 b83f 031b 963f 869e a03f a2de 363f
00000020: 6842 473f 76d8 b93f 7cb7 743f e0da dc3f
00000030: 2086 7e3f e0fb 133f 2671 2a3f 84f2 b73e

static_variable_selection.single_variable_grns.White.gate_norm.add_norm.norm.bias f4 [16]
0.25698632 -0.13417014 -0.048640616 0.3487849 0.66648114 0.4538984 0.124257095 0.02649239
-0.49349737 -0.15433376 -0.19604447 -0.8255846 -0.08080372 -0.18010305 -0.10923456 0.05210838
00000000: b693 833e e663 09be 623b 47bd ef93 b23e
00000010: 829e 2a3f 5f65 e83e 817a fe3d 9206 d93c
00000020: b0ab fcbe ab09 1ebe e2bf 48be 8359 53bf
00000030: 6c7c a5bd ef6c 38be 5eb6 dfbd 996f 553d

static_variable_selection.prescalers.White.weight f4 [8, 1]
0.1987634 -0.4369695 0.20733418 0.34920925 -0.6255173 -0.1402937 -0.4700184 0.2168629
00000000: a288 4b3e 77ba dfbe 694f 543e 8ecb b23e
00000010: e721 20bf 27a9 0fbe 40a6 f0be 4f11 5e3e

static_variable_selection.prescalers.White.bias f4 [8]
0.038377713 0.10864776 1.0128822 0.47940364 -0.62394524 -0.8200699 -0.50826806 0.158879
00000000: f331 1d3d b782 de3d 20a6 813f 6574 f53e
00000010: e0ba 1fbf 1af0 51bf db1d 02bf 2db1 223e

encoder_variable_selection.flattened_grn.resample_norm.mask f4 [3]
-0.7106532 0.016296934 0.4785718
00000000: 5eed 35bf 2681 853c 5d07 f53e

encoder_variable_selection.flattened_grn.resample_norm.norm.weight f4 [3]
0.9864656 0.88664216 1.964541
00000000: 0289 7c3f fbfa 623f 1476 fb3f

encoder_variable_selection.flattened_grn.resample_norm.norm.bias f4 [3]
0.32982272 0.14183252 -0.80038655
00000000: 86de a83e 8b3c 113e 22e6 4cbf

encoder_variable_selection.flattened_grn.fc1.weight f4 [3, 24]
0.5057788 -0.2869163 0.266413 -0.06929772 0.16374148 0.0653721 -0.07720769 -0.09563496
-0.5483132 -0.006316266 -0.07945503 -1.4244415 0.0076310127 0.25863215 0.3680138 0.33691168
0.8050126 -0.88164186 0.052443393 0.16342856 0.29709274 -0.26185012 -0.095566615 0.6451854
0.041082382 0.4906385 -0.88498276 -0.030308643 -0.37309384 0.21932313 -0.61927253 -0.11795087
-0.4149528 0.17433442 -0.63130444 -0.50776094 -0.013646871 0.0887155 0.5351222 0.41212136
-0.31441537 0.7064918 -0.0356153 -1.3354502 -0.66321963 1.0575309 0.4170159 -0.26416546
0.17324391 -0.4186001 -0.11744329 0.04227831 0.39745498 0.60709345 -0.12562643 0.32182455
-0.60397106 0.19790815 -0.071009986 0.13489762 -0.112443164 0.23312849 0.41519153 0.46101746
-0.12735815 0.9404109 0.31612223 -1.0885996 -0.7452415 0.4706812 -0.11048104 -0.021566814
00000000: b87a 013f b1e6 92be 4967 883e f7eb 8dbd
00000010: d9ab 273e cfe1 853d 111f 9ebd 43dc c3bd
00000020: 415e 0cbf aef8 cebb 52b9 a2bd 1954 b6bf
00000030: 930d fa3b 6f6b 843e 4e6c bc3e b07f ac3e
00000040: 4e15 4e3f 48b3 61bf e2ce 563d d159 273e
00000050: 8a1c 983e 3811 86be 6eb8 c3bd df2a 253f
00000060: 0046 283d f834 fb3e 3b8e 62bf d549 f8bc
00000070: 2806 bfbe 3e96 603e a588 1ebf 3a90 f1bd
00000080: b274 d4be b984 323e 2b9d 21bf 9ffc 01bf
00000090: 2097 5fbc 79b0 b53d c5fd 083f 9201 d33e
000000a0: 0dfb a0be a6dc 343f 59e1 11bd 08f0 aabf
000000b0: c3c8 29bf 2c5d 873f 1c83 d53e b240 87be
000000c0: da66 313e c152 d6be 1c86 f0bd 052c 2d3d
000000d0: 387f cb3e 7a6a 1b3f 37a4 00be 30c6 a43e
000000e0: d99d 1abf 6fa8 4a3e af6d 91bd 9a22 0a3e
000000f0: 9a48 e6bd 3cb9 6e3e fc93 d43e 7b0a ec3e
00000100: 2d6a 02be c5be 703f c6da a13e 3b57 8bbf
00000110: 26c8 3ebf 20fd f03e e243 e2bd e3ac b0bc

encoder_variable_selection.flattened_grn.fc1.bias f4 [3]
-0.14591248 -0.16117254 -0.33019805
00000000: 156a 15be 6a0a 25be b80f a9be

encoder_variable_selection.flattened_grn.context.weight f4 [3, 16]
0.06624581 -0.01880461 -0.10246196 -0.03967489 0.106205724 0.35511497 0.14590634 0.02901191
-0.341989 0.024737608 -0.22272411 0.03951209 0.15013719 0.09442605 0.14317703 0.046269543
0.10224153 0.055232294 0.3099759 -0.33159924 -0.43298832 0.2687927 0.13317282 -0.04670768
0.43546537 0.09352549 0.022513961 0.21056518 0.18129544 -0.063627556 -0.037453506 -0.11677965
0.22782598 -0.11584473 0.001407512 -0.14738429 -0.10252524 0.09467251 0.11028329 0.037216857
-0.29432514 0.066424206 0.086850815 0.17803144 -0.30338943 -0.19223936 0.00032165766 0.38905162
00000000: e2ab 873d 200c 9abc 93d7 d1bd 2382 22bd
00000010: 6382 d93d a1d1 b53e 7968 153e 63aa ed3c
00000020: 2f19 afbe 86a6 ca3c ca11 64be 6ed7 213d
00000030: 90bd 193e 7262 c13d 009d 123e 2285 3d3d
00000040: 0264 d13d 423b 623d 29b5 9e3e 60c7 a9be
00000050: a5b0 ddbe 329f 893e 755e 083e 8d50 3fbd
00000060: 51f5 de3e 4b8a bf3d 336f b83c 669e 573e
00000070: 83a5 393e 2a4f 82bd d968 19bd 2b2a efbd
00000080: 374b 693e 0040 edbd 447c b83a e8eb 16be
00000090: c1f8 d1bd a9e3 c13d 35dc e13d b470 183d
000000a0: c9b1 96be 6a09 883d d7de b13d e04d 363e
000000b0: dc55 9bbe 65da 44be 29a4 a839 c631 c73e

encoder_variable_selection.flattened_grn.fc2.weight f4 [3, 3]
-0.86369956 -1.2735695 -0.35286567 -0.35352853 -0.98730767 -0.07826843 -0.51253253 -0.78573
-0.7428308
00000000: 6a1b 5dbf 5304 a3bf cfaa b4be b101 b5be
00000010: 32c0 7cbf 334b a0bd 5535 03bf 9a25 49bf
00000020: 292a 3ebf

encoder_variable_selection.flattened_grn.fc2.bias f4 [3]
0.27982697 -0.19178778 -0.07977335
00000000: 7b45 8f3e 0464 44be 3660 a3bd

encoder_variable_selection.flattened_grn.gate_norm.glu.fc.weight f4 [6, 3]
0.15912212 -0.15110362 0.68113786 -0.24414198 -0.4573308 0.25237668 -1.1326169 -0.9133021
-0.7943819 -0.32369697 -0.45828226 0.6971191 0.63223803 -0.50234145 -0.4845277 1.3863275
0.6644822 0.8400176
00000000: e9f0 223e e8ba 1abe 0d5f 2e3f 5b00 7abe
00000010: 4327 eabe 8437 813e 97f9 90bf 2bce 69bf
00000020: 9d5c 4bbf 9cbb a5be f9a3 eabe 6676 323f
00000030: 5ada 213f 7399 00bf 0414 f8be 2e73 b13f
00000040: 811b 2a3f 650b 573f

encoder_variable_selection.flattened_grn.gate_norm.glu.fc.bias f4 [6]
0.38840762 0.13275784 -0.56628263 -0.3100558 -0.5589323 -0.22709012
00000000: 5ddd c63e acf1 073e e6f7 10bf a2bf 9ebe
00000010: 3016 0fbf 508a 68be

encoder_variable_selection.flattened_grn.gate_norm.add_norm.norm.weight f4 [3]
0.4024256 0.32026818 0.18386716
00000000: ba0a ce3e 31fa a33e ac47 3c3e

encoder_variable_selection.flattened_grn.gate_norm.add_norm.norm.bias f4 [3]
0.035656277 -0.49173528 0.5619956
00000000: 510c 123d bac4 fbbe f2de 0f3f

encoder_variable_selection.single_variable_grns.SinWeekly.resample_norm.mask f4 [16]
-0.27834302 -0.03977635 0.31884447 -0.10000256 -0.06908315 -0.11197722 0.39326513 -0.8570238
-1.0006547 -0.22131968 -0.35963723 -0.4552037 0.25555548 0.09838787 0.48747241 0.090144865
00000000: fa82 8ebe 87ec 22bd 953f a33e 24ce ccbd
00000010: 777b 8dbd 5054 e5bd 0c5a c93e e965 5bbf
00000020: 7415 80bf a0a1 62be 5f22 b8be 7610 e9be
00000030: 2bd8 823e 947f c93d fc95 f93e df9d b83d

encoder_variable_selection.single_variable_grns.SinWeekly.resample_norm.norm.weight f4 [16]
0.91577655 0.39684176 1.2338911 1.0804231 1.1858093 1.0099294 1.7931825 0.5281985
0.09173808 0.93261135 1.118429 0.98306674 0.98876154 1.2927697 1.6742486 0.9267641
00000000: 5570 6a3f d82e cb3e 25f0 9d3f 4e4b 8a3f
00000010: 99c8 973f 5e45 813f 0187 e53f 0438 073f
00000020: 2de1 bb3d 9ebf 6e3f ae28 8f3f 43aa 7b3f
00000030: 7a1f 7d3f 7a79 a53f c74d d63f 6940 6d3f

encoder_variable_selection.single_variable_grns.SinWeekly.resample_norm.norm.bias f4 [16]
0.035582356 0.18038078 0.16130398 0.10703007 -0.040113397 -0.040768128 -0.24274148 -0.11225381
-0.0173639 -0.075819805 0.03681669 0.33069578 -0.12243405 -0.07192296 -0.12170894 0.0057479558
00000000: cebe 113d bdb5 383e df2c 253e 9532 db3d
00000010: f24d 24bd 7bfc 26bd 3991 78be 53e5 e5bd
00000020: bd3e 8ebc 6a47 9bbd 19cd 163d f550 a93e
00000030: b4be fabd 584c 93bd 8942 f9bd 5959 bc3b

encoder_variable_selection.single_variable_grns.SinWeekly.fc1.weight f4 [8, 8]
0.7108085 -1.6031218 -0.84204733 -2.085068 -0.311853 0.10301719 0.18429978 0.38670647
-0.018068345 0.32936847 -0.5316724 -0.22003587 -0.38802555 1.1357677 -2.283682 -0.9815045
-0.002188698 0.09225614 -0.7525002 0.36071917 -1.055971 0.58778185 0.6094901 0.032741114
0.082071275 0.037337977 -0.38570496 0.09077825 0.33619255 0.26422346 0.20050451 0.52458215
-0.5293893 -0.39534342 1.2292014 -0.35788265 0.27612498 0.72653604 0.61496997 -0.8793007
0.561505 -0.39157984 -0.6246157 -0.0675841 0.2631551 -0.3455172 -0.069652334 0.31880715
-0.9070721 -0.13432053 -1.7146279 0.46990442 -0.5461015 0.45761073 -2.1671693 -0.9508499
0.38013646 -0.089300014 -0.62833935 0.12798329 0.93512934 0.5392645 -0.09484726 0.507551
00000000: 8cf7 353f 1833 cdbf 6a90 57bf c171 05c0
00000010: 32ab 9fbe adfa d23d 15b9 3c3e 64fe c53e
00000020: 1104 94bc fca2 a83e af1b 08bf 1551 61be
00000030: 49ab c6be d660 913f d927 12c0 e143 7bbf
00000040: 4270 0fbb caf0 bc3d daa3 40bf 2fb0 b83e
00000050: 0f2a 87bf df78 163f 8b07 1c3f 8c1b 063d
00000060: fc14 a83d b5ef 183d 1f7b c5be f2e9 b93d
00000070: 6e21 ac3e 4c48 873e 0e51 4d3e 044b 063f
00000080: 0f86 07bf 746a cabe 7956 9d3f 653c b7be
00000090: 4160 8d3e 44fe 393f ac6e 1d3f da19 61bf
000000a0: cbbe 0f3f 277d c8be d1e6 1fbf 8869 8abd
000000b0: 44bc 863e a1e7 b0be e2a5 8ebd b13a a33e
000000c0: e135 68bf 528b 09be ed78 dbbf 5097 f03e
000000d0: 4fcd 0bbf f44b ea3e e7b2 0ac0 e66a 73bf
000000e0: 3fa1 c23e ede2 b6bd d9da 20bf 0d0e 033e
000000f0: a364 6f3f 3d0d 0a3f 483f c2bd ddee 013f

encoder_variable_selection.single_variable_grns.SinWeekly.fc1.bias f4 [8]
-0.4254472 -0.22809093 -0.10907443 -0.2340445 -0.058555864 -0.03967788 -0.400822 -0.111642
00000000: 37d4 d9be ab90 69be 6a62 dfbd 5da9 6fbe
00000010: 46d8 6fbd 4685 22bd 8b38 cdbe 90a4 e4bd

encoder_variable_selection.single_variable_grns.SinWeekly.fc2.weight f4 [8, 8]
-1.1166818 0.18207926 -1.2061622 -0.105774224 -0.377987 0.31814367 0.73490113 -0.05798329
-0.357437 -0.17416777 0.14791036 -0.013696798 -0.21193103 0.19260778 0.6447922 0.20485725
0.6896436 -0.23136322 0.22732368 -0.08242335 0.42774922 0.08375273 0.7422531 0.2755431
0.10450781 1.0285844 0.38663304 -0.083901465 0.16172084 -0.33006948 0.41918322 -0.17173128
-1.0952271 1.0280977 -0.56029403 0.13645984 0.06096331 -0.051229812 0.2176377 0.040195998
0.3473108 -0.6874013 -0.39944294 -0.005979719 -0.72093505 -0.040858284 -0.5367192 -0.19846343
0.51190966 0.23933552 0.35335866 0.05987944 0.5559286 0.036151037 0.6172389 0.124528326
0.82092 0.1046392 0.44471413 0.13202755 0.6535784 0.036295943 0.9523885 -0.24088934
00000000: 6eef 8ebf fc72 3a3e 8663 9abf 28a0 d8bd
00000010: 8387 c1be bae3 a23e 7b22 3c3f e37f 6dbd
00000020: fc01 b7be 0959 32be d075 173e 8968 60bc
00000030: 7304 59be f93a 453e 1a11 253f 19c6 513e
00000040: 7c8c 303f 7bea 6cbe 8ac7 683e 93cd a8bd
00000050: f201 db3e 8d86 ab3d 4d04 3e3f fc13 8d3e
00000060: 3108 d63d a7a8 833f c4f4 c53e 88d4 abbd
00000070: 269a 253e defe a8be 2f9f d63e 53da 2fbe
00000080: 6730 8cbf b598 833f 6e6f 0fbf 21bc 0b3e
00000090: aab4 793d 5ad6 51bd 6bdc 5e3e 8fa4 243d
000000a0: b9d2 b13e 88f9 2fbf c983 ccbe 85f1 c3bb
000000b0: 338f 38bf 045b 27bd 6e66 09bf ff39 4bbe
000000c0: 830c 033f 5f14 753e 6deb b43e 2544 753d
000000d0: 5651 0e3f 1c13 143d 5e03 1e3f b508 ff3d
000000e0: d027 523f 144d d63d 92b1 e33e 3b32 073e
000000f0: ea50 273f 0eab 143d bccf 733f b2ab 76be

encoder_variable_selection.single_variable_grns.SinWeekly.fc2.bias f4 [8]
-0.02657182 -0.34624708 0.15133238 0.115479715 0.14413182 0.10259662 0.2392894 0.14628115
00000000: 25ad d9bc 4c47 b1be e0f6 1a3e a180 ec3d
00000010: 4b97 133e 2d1e d23d 4808 753e baca 153e

encoder_variable_selection.single_variable_grns.SinWeekly.gate_norm.glu.fc.weight f4 [32, 8]
0.41184047 0.10022679 0.15662864 0.14592987 0.08873433 -0.34342542 -0.029181555 0.52245295
-0.027281115 0.094819285 -0.16078189 -0.08567999 0.1595169 0.19645728 0.250719 0.17825839
0.34429678 -0.10661423 -0.3239375 -0.042324547 0.2946812 -0.0052065733 -0.03875014 -0.0012920114
-0.38235915 -0.48663706 0.39395076 -0.38387775 -0.42131326 0.37572187 0.25038522 0.32110074
0.462759 0.23126939 0.28281283 0.47946787 0.21981807 -0.6640959 0.8384553 0.37599915
0.16780825 -0.089867786 -0.03209668 0.008545729 -0.33400676 -0.38770875 -0.061414093 -0.065554924
0.520546 0.5381859 -0.7637952 -0.023063429 0.41008994 -0.15489645 -0.70567477 -1.1033977
-0.23827437 0.093081415 -0.025048682 -0.37986612 0.1670039 -0.3230998 0.11308864 -0.086568765
0.60787266 0.7750828 0.53951925 1.1581532 0.70255226 -1.2919182 1.1203403 0.98735213
-0.08322755 -0.3883495 0.01847443 -0.14870512 -0.09446668 -0.043306746 -0.07586818 0.08215058
0.08862317 -0.028532876 0.15735511 0.120308325 -0.05836608 0.054205526 0.1072301 0.22124173
0.32605672 0.016535211 -0.04322711 0.22573628 -0.09603074 -0.6218735 0.16808127 0.1499431
0.7047007 0.7476361 -0.7137429 0.15106978 0.7780466 -0.4277173 -0.73013747 -0.74981
-0.014778638 -0.43385756 0.022103017 -0.370466 -0.18490264 0.37965053 -0.62643015 -0.32461593
0.057043098 -0.27978522 -0.023303445 -0.25763637 0.0888456 0.19594054 -0.35069853 -0.3681251
0.21582407 -0.32089964 -0.14855972 0.2630839 -0.03195157 -0.016449256 0.048122197 -0.0916009
0.6898067 0.22006063 0.27802092 0.4799741 0.031229548 -0.4440153 0.22822475 0.08518773
0.12678096 0.08344632 0.05542365 0.32182783 -0.17686155 -0.09546325 -0.29050308 -0.12110075
0.14506969 -0.040644605 -0.24789692 -0.15600653 0.20129426 -0.079774775 -0.3482969 -0.1010097
-0.8778961 -0.6748816 1.0933125 -0.2405367 -1.1481831 0.22254597 0.5795976 0.6151096
0.35051233 0.45987704 -0.37468603 0.28602222 0.40060034 -0.32443762 0.107889414 -0.060249228
0.07031265 0.0108239865 -0.05781714 0.7113712 0.12341157 -0.21566513 0.23655838 -0.40081322
-0.15448374 -0.25232184 0.37097552 -0.14323597 -0.22571658 0.115540996 0.35020396 0.6943832
-0.085635185 0.34954125 0.040642254 0.24143177 0.1080962 -0.36112297 -0.3999778 -0.33500782
0.40056685 0.31737897 -0.25921497 0.284281 0.5384354 -0.23379904 0.12952402 0.16086107
0.14875923 0.18204452 -0.28881815 0.60423136 0.3334584 -0.07989501 -0.06757395 0.03130998
0.4525341 0.17673281 -0.6556076 -0.14035437 0.34873885 0.30037397 -0.014497434 -0.18036374
0.48150343 0.30274373 -0.21346207 0.65521455 0.2281171 -0.7380907 0.3424606 0.19753872
-1.1757153 -0.80368423 0.87527084 -0.26375443 -1.026206 -0.06767815 0.15831868 0.60987407
-0.046108708 0.27708414 -0.38571647 0.2765574 0.32771796 -0.38989317 -0.0085318275 0.3732699
0.036027186 0.19945279 -0.45139903 -0.114535086 0.13968542 -0.11037359 0.2555251 0.08745157
-0.058015343 0.42494315 0.026422992 0.47552407 -0.07785209 -0.2362342 0.1054644 -0.2890848
00000000: c1dc d23e b443 cd3d 4263 203e a46e 153e
00000010: 58ba b53d 75d5 afbe 280e efbc 7abf 053f
00000020: a57c dfbc 9d30 c23d 02a4 24be fe78 afbd
00000030: 6658 233e 192c 493e 3e5e 803e 5e89 363e
00000040: ab47 b03e 9058 dabd 23db a5be 815c 2dbd
00000050: 74e0 963e e79b aabb 78b8 1ebd b558 a9ba
00000060: 94c4 c3be 7e28 f9be eab3 c93e a08b c4be
00000070: 5fb6 d7be 9e5e c03e 7e32 803e 5167 a43e
00000080: bfee ec3e e2d1 6c3e d8cc 903e d07c f53e
00000090: fd17 613e 3002 2abf 02a5 563f f682 c03e
000000a0: edd5 2b3e 9a0c b8bd cf77 03bd 6303 0c3c
000000b0: ef02 abbe c381 c6be 588d 7bbd a941 86bd
000000c0: 8142 053f 8dc6 093f 1588 43bf 84ef bcbc
000000d0: 4ff7 d13e 2d9d 1ebe 1aa7 34bf 233c 8dbf
000000e0: 32fe 73be 78a1 be3d e532 cdbc d07d c2be
000000f0: 1203 2b3e 566d a5be 049b e73d f74a b1bd
00000100: 8b9d 1b3f d46b 463f ef1d 0a3f 5d3e 943f
00000110: 77da 333f 935d a5bf 5067 8f3f 1cc3 7c3f
00000120: 3573 aabd bfd5 c6be b057 973c 2846 18be
00000130: bf77 c1bd 6a62 31bd c760 9bbd 903e a83d
00000140: 1180 b53d c7bd e9bc b321 213e 3664 f63d
00000150: 4511 6fbd 9d06 5e3d 749b db3d 318d 623e
00000160: e8f0 a63e da74 873c e90e 31bd 6927 673e
00000170: c4ab c4bd 1a33 1fbf 7f1d 2c3e af8a 193e
00000180: 4467 343f 1465 3f3f dbb7 36bf 09b2 1a3e
00000190: 102e 473f c3fd dabe 4aea 3abf 8cf3 3fbf
000001a0: 1a22 72bc 9422 debe 6311 b53c b8ad bdbe
000001b0: 1e57 3dbe 8e61 c23e ba5d 20bf 0f34 a6be
000001c0: 06a6 693d 0240 8fbe dee6 bebc eae8 83be
000001d0: aff4 b53d a3a4 483e c28e b3be e57a bcbe
000001e0: fc00 5d3e f54c a4be 0a20 18be efb2 863e
000001f0: a6df 02bd 97c0 86bc c81b 453d 4199 bbbd
00000200: 2c97 303f 9357 613e c258 8e3e 2abf f53e
00000210: 1cd5 ff3c f955 e3be c0b3 693e e876 ae3d
00000220: ded2 013e e7e5 aa3d e903 633d 9ec6 a43e
00000230: 321b 35be 3d82 c3bd d2bc 94be ac03 f8bd
00000240: 268d 143e f57a 26bd b1d8 7dbe 2dc0 1fbe
00000250: 1520 4e3e f560 a3bd f953 b2be 2cde cebd
00000260: ccbd 60bf 0ac5 2cbf aaf1 8b3f 414f 76be
00000270: aaf7 92bf 17e3 633e 8260 143f d377 1d3f
00000280: 5a76 b33e 0175 eb3e d9d6 bfbe 8171 923e
00000290: 7d1b cd3e b01c a6be 20f5 dc3d e5c7 76bd
000002a0: 1400 903d 1757 313c aad1 6cbd 6c1c 363f
000002b0: 35bf fc3d 52d7 5cbe 5c3c 723e 6437 cdbe
000002c0: fc30 1ebe 5430 81be 81f0 bd3e 73ac 12be
000002d0: 3f22 67be c2a0 ec3d ef4d b33e 19c3 313f
000002e0: 8061 afbd 12f7 b23e 7e78 263d e439 773e
000002f0: 8a61 dd3d 1ce5 b8be e4c9 ccbe 2586 abbe
00000300: 1917 cd3e 7f7f a23e d3b7 84be 478d 913e
00000310: e7d6 093f 0469 6fbe f2a1 043e c4b8 243e
00000320: 5754 183e e169 3a3e f9df 93be e8ae 1a3f
00000330: 0fbb aa3e ff9f a3bd 3664 8abd e53e 003d
00000340: 8db2 e73e 72f9 343e e6d5 27bf 0eb9 0fbe
00000350: e68d b23e 9eca 993e a586 6dbc 46b1 38be
00000360: 9e87 f63e 3a01 9b3e cd95 5abe 24bc 273f
00000370: 8797 693e 83f3 3cbf ff56 af3e 9747 4a3e
00000380: d77d 96bf 40be 4dbf c011 603f d20a 87be
00000390: b85a 83bf d89a 8abd 4b1e 223e b520 1c3f
000003a0: 7cdc 3cbd f9dd 8d3e a17c c5be ee98 8d3e
000003b0: a6ca a73e 14a0 c7be 14c9 0bbc 3b1d bf3e
000003c0: 3e91 133d 5a3d 4c3e c61d e7be 5f91 eabd
000003d0: b209 0f3e 8c0b e2bd 30d4 823e cf19 b33d
000003e0: 7fa1 6dbd 2692 d93e 0875 d83c e477 f33e
000003f0: eb70 9fbd 61e7 71be b8fd d73d ec02 94be

encoder_variable_selection.single_variable_grns.SinWeekly.gate_norm.glu.fc.bias f4 [32]
0.17261408 0.120507866 0.19869249 0.17084563 0.05212758 0.015703062 -0.45145184 -0.14497964
0.23716371 -0.052042637 -0.019839788 0.36805522 -0.21132167 -0.20360935 -0.09538881 0.027268134
-0.086415194 -1.4661984 -0.4520964 -0.7738036 0.084625356 -1.4029227 -0.19670382 -0.67043793
0.5369795 -0.76184815 -0.8307204 -0.2018621 -0.45494387 -0.0062737227 0.10033129 -1.3948046
00000000: bfc1 303e d4cc f63d 0b76 4b3e 28f2 2e3e
00000010: bb83 553d b5a3 803c b224 e7be 8b75 14be
00000020: 0bdb 723e a92a 55bd 0d87 a2bc bc71 bc3e
00000030: b564 58be f87e 50be 355b c3bd 6c61 df3c
00000040: 73fa b0bd 64ac bbbf 2e79 e7be fe17 46bf
00000050: 0f50 ad3d f992 b3bf ba6c 49be d2a1 2bbf
00000060: 7d77 093f 7b08 43bf 18aa 54bf f0b4 4ebe
00000070: 67ee e8be cd93 cdbb 7e7a cd3d f588 b2bf

encoder_variable_selection.single_variable_grns.SinWeekly.gate_norm.add_norm.norm.weight f4 [16]
0.54445416 0.010133543 1.2808613 0.8350549 0.9255889 0.732332 1.3414104 -0.004049308
1.6405525 0.7272057 1.1255745 1.1687698 0.73707616 1.3765424 1.5206116 0.70411724
00000000: 5961 0b3f 2907 263c 43f3 a33f 28c6 553f
00000010: 65f3 6c3f 1c7a 3b3f 56b3 ab3f 0fb0 84bb
00000020: a0fd d13f 272a 3a3f d312 903f 409a 953f
00000030: 06b1 3c3f 8b32 b03f 67a3 c23f 0741 343f

encoder_variable_selection.single_variable_grns.SinWeekly.gate_norm.add_norm.norm.bias f4 [16]
0.071351565 0.25718603 0.26871905 0.28295746 -0.020054225 -0.105998866 -0.050967373 -0.041286178
0.22610922 -0.16797777 -0.15796636 0.13697353 -0.0020927335 -0.1259611 -0.09825243 0.06953424
00000000: c520 923d e3ad 833e 8b95 893e cddf 903e
00000010: c248 a4bc ef15 d9bd 2ac3 50bd b21b 29bd
00000020: 2d89 673e 5d02 2cbe efc1 21be ca42 0c3e
00000030: 3e26 09bb f2fb 00be 9238 c9bd f867 8e3d

encoder_variable_selection.single_variable_grns.VaccinationFull.resample_norm.mask f4 [16]
-0.12115569 -0.25246656 0.5660735 -0.90532655 0.53163266 -0.13902393 -0.44685742 0.45408654
-0.05518247 -0.79635394 -0.58588403 0.5311386 -0.34904695 0.3736165 0.06746039 0.16720168
00000000: 7920 f8bd 4c43 81be 31ea 103f 7bc3 67bf
00000010: 1419 083f 4a5c 0ebe 7fca e4be 087e e83e
00000020: 0307 62bd dadd 4bbf 7ffc 15bf b3f8 073f
00000030: 48b6 b2be a94a bf3e ac28 8a3d eb36 2b3e

encoder_variable_selection.single_variable_grns.VaccinationFull.resample_norm.norm.weight f4 [16]
0.8660187 0.54802656 1.835367 0.43173617 1.584278 0.9240476 0.26622814 1.4848481
1.0609407 0.41136846 0.38533786 1.5738219 0.4665589 1.4550904 0.7341498 1.1287483
00000000: 67b3 5d3f 784b 0c3f 4eed ea3f 860c dd3e
00000010: 9fc9 ca3f 628e 6c3f 0e4f 883e 810f be3f
00000020: e8cc 873f e39e d23e 014b c53e ff72 c93f
00000030: cfe0 ee3e 6740 ba3f 3ef1 3b3f d37a 903f

encoder_variable_selection.single_variable_grns.VaccinationFull.resample_norm.norm.bias f4 [16]
0.16166478 0.56671405 -0.21363796 0.16937512 0.32335117 -0.05041449 -0.094388925 0.14153557
-0.1641667 -0.50188607 -0.07079791 -0.08238615 0.14675082 -0.5089068 0.32115653 0.07471791
00000000: 748b 253e 2c14 113f e9c3 5abe ac70 2d3e
00000010: 498e a53e 6d7f 4ebd fb4e c1bd b3ee 103e
00000020: 511b 28be 9b7b 00bf 7ffe 90bd 12ba a8bd
00000030: d945 163e b747 02bf a16e a43e b405 993d

encoder_variable_selection.single_variable_grns.VaccinationFull.fc1.weight f4 [8, 8]
0.5706675 -0.36130977 -0.7309602 -0.118935935 0.85803515 0.12480864 -0.66722935 -0.06218456
0.43771833 -0.63612944 -1.346232 -0.86145914 0.35874882 0.5007046 0.59892356 0.47914165
0.10105169 -0.5431098 -0.08809368 -0.2070913 -0.3661755 0.33373356 -0.203587 -0.63975143
-0.18128212 -0.97418916 -0.69290334 0.17782047 -0.6863595 1.1009233 0.21493822 0.44596812
0.19759475 0.5326037 0.12613209 0.36463082 -0.00934133 0.43470204 0.5419085 0.87700677
-0.36541232 1.1858629 0.20301814 -0.24119407 -0.74568564 -0.86037195 -0.68139553 -1.7578893
-0.595285 0.35995114 0.18029143 0.17747995 0.9075782 -0.19903605 0.17300458 0.105501436
0.32526293 0.15468076 -0.56156963 -0.17100805 -0.39960295 -1.2068506 -0.3086859 -1.5541462
00000000: 4417 123f 98fd b8be 3520 3bbf af94 f3bd
00000010: 31a8 5b3f ac9b ff3d 8bcf 2abf 3db5 7ebd
00000020: 9e1c e03e 61d9 22bf 5551 acbf 9688 5cbf
00000030: edad b73e 2d2e 003f 0e53 193f 0e52 f53e
00000040: 30f4 ce3d 3e09 0bbf 766a b4bd be0f 54be
00000050: 5b7b bbbe 20df aa3e 1c79 50be c0c6 23bf
00000060: 05a2 39be 7664 79bf 1d62 31bf 9216 363e
00000070: 42b5 2fbf 0eeb 8c3f c418 5c3e ef55 e43e
00000080: 4756 4a3e b758 083f c528 013e e4b0 ba3e
00000090: 610c 19bc 4491 de3e 84ba 0a3f 8483 603f
000000a0: 5317 bbbe 5bca 973f fde3 4f3e 94fb 76be
000000b0: 41e5 3ebf 5641 5cbf f06f 2ebf 8402 e1bf
000000c0: 9964 18bf 844b b83e 519e 383e 4ebd 353e
000000d0: 0b57 683f 1bd0 4bbe 1d28 313e 2311 d83d
000000e0: dd88 a63e a264 1e3e 07c3 0fbf bc1c 2fbe
000000f0: c298 ccbe 157a 9abf 140c 9ebe 43ee c6bf

encoder_variable_selection.single_variable_grns.VaccinationFull.fc1.bias f4 [8]
0.31029224 0.33474508 0.00981096 -0.012743368 -0.000265871 -0.46895432 -0.1310979 -0.10547371
00000000: a0de 9e3e b563 ab3e 26be 203c 8fc9 50bc
00000010: 9a64 8bb9 c81a f0be 873e 06be 9a02 d8bd

encoder_variable_selection.single_variable_grns.VaccinationFull.fc2.weight f4 [8, 8]
-0.25507805 0.1907749 -0.10624977 -0.3431441 -0.54157203 0.41345212 -0.33070686 0.18263108
0.75978416 -0.7480289 0.05949068 -0.7377719 -0.3514356 -0.6643574 -0.070301466 -0.11424885
-1.7358456 0.1661919 0.11543504 0.4760714 -0.09685139 0.47954574 0.14311805 0.5877752
0.21605389 -0.20174521 0.006044248 -0.15740445 0.4567643 -0.9840494 -0.13553199 -0.22112373
-0.37530267 -0.54653454 0.13189058 -0.23213182 0.2626265 0.35284275 -0.5841968 0.9610533
-0.30394703 0.712707 0.17786431 0.5444329 0.20478998 0.1655434 -0.43578267 -0.9944064
0.6370593 -0.46740702 -0.06435949 0.5782082 -0.007967679 -0.6999197 -0.06820486 0.098967895
-0.30419344 0.51495546 0.00014640595 0.623509 -0.4412716 -0.39731017 -0.053546842 -0.35521245
00000000: 9799 82be 7f5a 433e 7b99 d9bd 95b0 afbe
00000010: 77a4 0abf ffaf d33e 6952 a9be a403 3b3e
00000020: 3781 423f d27e 3fbf 80ac 733d 9fde 3cbf
00000030: 5eef b3be 5413 2abf 37fa 8fbd 4dfb e9bd
00000040: 3030 debf 362e 2a3e 3569 ec3d a1bf f33e
00000050: 065a c6bd 0587 f53e 8a8d 123e 6f78 163f
00000060: 3b3d 5d3e 4c96 4ebe d40e c63b a22e 21be
00000070: 03dd e93e a9ea 7bbf e6c8 0abe 426e 62be
00000080: ac27 c0be b0e9 0bbf 530e 073e f7b3 6dbe
00000090: fb76 863e cea7 b43e ec8d 15bf 9707 763f
000000a0: f29e 9bbe f773 363f 1022 363e f45f 0b3f
000000b0: 77b4 513e 3684 293e e81e dfbe 6b91 7ebf
000000c0: 5116 233f f94f efbe e9ce 83bd 7405 143f
000000d0: de8a 02bc f02d 33bf fdae 8bbd aeaf ca3d
000000e0: 3ebf 9bbe 1fd4 033f 8c84 1939 499e 1f3f
000000f0: 5aee e1be 3d6c cbbe ef53 5bbd 68de b5be

encoder_variable_selection.single_variable_grns.VaccinationFull.fc2.bias f4 [8]
-0.240494 0.27903146 -0.31605598 0.014024093 0.098891705 0.029265763 0.3517513 -0.012643767
00000000: 0f44 76be 36dd 8e3e 17d2 a1be 4fc5 653c
00000010: bc87 ca3d c1be ef3c bf18 b43e cd27 4fbc

encoder_variable_selection.single_variable_grns.VaccinationFull.gate_norm.glu.fc.weight f4 [32, 8]
-0.053532176 0.6558096 -0.08161156 0.5366329 -0.368537 0.34898558 0.026360707 0.18667929
0.018828345 1.1501245 -0.3645355 -0.10448566 0.42600873 -0.410561 0.60679156 -0.6238367
0.5890037 -0.58287776 0.62382394 -0.5945649 0.682641 -0.45666203 -0.79673696 -0.4601164
-1.4368234 0.8684088 -1.2328295 1.3300444 -1.0184023 1.0133574 1.2451751 1.0177423
0.39577836 0.35866165 0.44701844 -0.2905135 0.54458976 -0.8321552 -0.36817554 -0.6014701
0.11619975 -0.14406613 0.56207705 -0.2717567 -0.10895775 0.15664257 -0.31834236 -0.21955751
-0.4068495 -0.12457361 -0.17642893 0.3594875 -0.33651567 0.37256518 0.27144766 0.22670808
-0.45736155 0.6653388 -0.38414267 -0.08880688 0.3119424 -0.30243307 0.6330388 -0.3275181
-0.30480567 -0.10811977 -0.210459 0.14669399 -0.5106472 0.5741456 0.16623938 0.54528666
0.23470579 -0.19085619 0.33256188 -0.4407759 -0.21559398 -0.18959402 -0.556105 -0.06590181
0.22511478 -0.43965465 0.49146056 -0.7222656 0.47591507 -0.12436724 -0.38881552 -0.14160006
-0.050990745 -0.3361267 0.06964795 0.121221915 -0.04115785 0.0075780298 -0.1168835 0.09827893
0.15052739 0.16555598 -0.04414307 -0.51076984 0.22474773 -0.4166252 -0.022886874 -0.32515496
0.1951607 -0.969241 0.18938306 -0.12693876 0.2441203 0.082974076 -0.16718994 -0.32346836
-0.21890725 0.024770504 -0.11408273 0.08974935 -0.06217227 0.13914786 -0.050732996 0.11395993
-0.09056565 -0.2283248 0.082422115 -0.0039239316 0.32047257 -0.0764987 -0.036860768 -0.029980961
0.25247297 -0.7396215 0.51217276 -0.26087222 0.12391247 0.06286924 -0.030074025 -0.0747855
1.1580619 -0.5442415 0.5036359 -1.1906171 0.9493604 -0.074905574 -0.5427722 -0.6985413
-0.17337582 0.09106944 0.0864548 0.16876957 -1.087577 1.8354594 0.0507595 1.4878154
0.37214038 -0.0315676 0.5562807 -0.45998937 0.1644387 -0.124331884 -0.4201115 -0.3763704
-0.24656665 0.25525236 -0.45610932 0.33551717 -0.027495416 0.09538096 0.42834634 0.056039523
0.37044856 -0.94366425 0.82055 -0.18268596 -0.055896625 0.047437347 -0.63108724 -0.05824154
-0.10636276 0.2888678 -0.4088769 0.06772151 -0.23002614 -0.14540786 -0.0015774545 0.08281159
0.061758824 0.3923424 0.13269664 -0.09644824 0.35705125 -1.3939393 -0.23961215 -0.53466916
-0.5342683 0.07326181 -0.3213381 0.51084846 -0.50753725 0.25991488 0.6757219 0.27111635
0.1587149 0.008048519 0.28354046 -0.0051888195 0.9651647 -0.8966655 0.16475722 -0.40910208
0.31179997 -0.42213628 0.6186161 -0.7479855 0.8553204 -0.23829612 -0.19916224 -0.24423188
0.38172856 -0.4189687 0.33054543 0.13323873 -0.0550687 0.26656696 -0.37788287 0.20765097
0.13503832 0.42172772 -0.54826605 0.3703246 -0.092993505 0.24021436 -0.28287464 0.1811201
-0.2653672 -0.6513156 -0.16553424 -0.18360062 0.13135397 0.08890663 -0.21852022 -0.113771036
0.12584503 -0.17290045 0.007982029 0.60613316 -0.2777792 0.048896875 0.112536885 -0.35589668
0.00010297836 0.0461729 0.5082466 -0.32364234 0.79735076 -0.38320082 -0.23494793 -1.0302993
00000000: 8e44 5bbd 23e3 273f f623 a7bd c660 093f
00000010: e2b0 bcbe 3dae b23e 69f2 d73c db28 3f3e
00000020: e73d 9a3c 4837 933f 66a4 babe 94fc d5bd
00000030: d11d da3e 0d35 d2be b156 1b3f c3b3 1fbf
00000040: f2c8 163f 7a37 15bf edb2 1f3f 6835 18bf
00000050: 90c1 2e3f 9bcf e9be f4f6 4bbf 6094 ebbe
00000060: d4e9 b7bf 0a50 5e3f 5bcd 9dbf e53e aa3f
00000070: 025b 82bf b2b5 813f e661 9f3f 6145 823f
00000080: 76a3 ca3e 80a2 b73e 9adf e43e 2fbe 94be
00000090: 3c6a 0b3f 2008 55bf 8181 bcbe f2f9 19bf
000000a0: 22fa ed3d 1286 13be 48e4 0f3f b223 8bbe
000000b0: 3e25 dfbd e966 203e c5fd a2be afd3 60be
000000c0: 944e d0be 7320 ffbd c9a9 34be bf0e b83e
000000d0: c84b acbe ddc0 be3e 30fb 8a3e 2a26 683e
000000e0: 4b2b eabe a553 2a3f 59ae c4be 62e0 b5bd
000000f0: eab6 9f3e 82d8 9abe d50e 223f 74b0 a7be
00000100: 7d0f 9cbe e66d ddbd 9082 57be f336 163e
00000110: c6b9 02bf 35fb 123f a83a 2a3e e897 0b3f
00000120: b756 703e ce6f 43be 8d45 aa3e 61ad e1be
00000130: abc4 5cbe ef24 42be e65c 0ebf 87f7 86bd
00000140: 7d84 663e 6a1a e1be b8a0 fb3e 66e6 38bf
00000150: 24ab f33e 40b4 febd d412 c7be 9bff 10be
00000160: acdb 50bd cc18 acbe 96a3 8e3d 3243 f83d
00000170: 2295 28bd 1f51 f83b 9e60 efbd 7746 c93d
00000180: da23 1a3e 8287 293e 5dcf 34bd d0c1 02bf
00000190: 4524 663e e64f d5be 417d bbbc b67a a6be
000001a0: 35d8 473e 2e20 78bf a2ed 413e 3cfc 01be
000001b0: acfa 793e 50ee a93d d733 2bbe a59d a5be
000001c0: 3929 60be 83eb ca3c 35a4 e9bd 82ce b73d
000001d0: 5aa8 7ebd c77c 0e3e 67cd 4fbd d363 e93d
000001e0: 7c7a b9bd facd 69be edcc a83d 5394 80bb
000001f0: fb14 a43e 5aab 9cbd 51fb 16bd a29a f5bc
00000200: 2344 813e d657 3dbf c11d 033f 0b91 85be
00000210: d2c5 fd3d 97c1 803d cd5d f6bc 2429 99bd
00000220: 5f3b 943f 6953 0bbf 48ee 003f 2466 98bf
00000230: 4809 733f 1868 99bd 1ef3 0abf 9ad3 32bf
00000240: 6e89 31be 9d82 ba3d 370f b13d eed1 2c3e
00000250: b935 8bbf 55f0 ea3f 32e9 4f3d bc70 be3f
00000260: 2f89 be3e 074d 01bd 6968 0e3f ba83 ebbe
00000270: 9e62 283e b7a1 febd db18 d7be 9fb3 c0be
00000280: f87b 7cbe 70b0 823e 2987 e9be e8c8 ab3e
00000290: 113e e1bc 1857 c33d 3650 db3e b389 653d
000002a0: 6fab bd3e fb93 71bf 910f 523f 0712 3bbe
000002b0: dcf3 64bd aa4d 423d ef8e 21bf ae8e 6ebd
000002c0: b8d4 d9bd 7be6 933e 5058 d1be 93b1 8a3d
000002d0: f98b 6bbe cce5 14be 97c2 ceba 1f99 a93d
000002e0: d2f6 7c3d 1ae1 c83e a1e1 073e a886 c5bd
000002f0: 6ccf b63e 9a6c b2bf e35c 75be 14e0 08bf
00000300: cfc5 08bf 4a0a 963d 6d86 a4be f7c6 023f
00000310: f6ed 01bf 9013 853e 1cfc 2c3f c3cf 8a3e
00000320: 2986 223e efdd 033c 372c 913e f906 aabb
00000330: 0915 773f df8b 65bf 1eb6 283e d475 d1be
00000340: 3fa4 9f3e 3f22 d8be a05d 1e3f fa7b 3fbf
00000350: 47f6 5a3f e603 74be 30f1 4bbe ec17 7abe
00000360: ed71 c33e 1183 d6be 403d a93e bc6f 083e
00000370: b88f 61bd 777b 883e dd79 c1be 75a2 543e
00000380: 7c47 0a3e b2ec d73e 2a5b 0cbf 309b bd3e
00000390: 6173 bebd c1fa 753e f2d4 90be 8c77 393e
000003a0: 36de 87be 9fbc 26bf cf81 29be cd01 3cbe
000003b0: a881 063e ae14 b63d c4c3 5fbe ca00 e9bd
000003c0: 85dd 003e d10c 31be 0ec7 023c 8b2b 1b3f
000003d0: 1339 8ebe 1748 483d bd79 e63d 1738 b6be
000003e0: 16f6 d738 cb1f 3d3d 731c 023f 73b4 a5be
000003f0: 2e1f 4c3f e632 c4be 3196 70be d9e0 83bf

encoder_variable_selection.single_variable_grns.VaccinationFull.gate_norm.glu.fc.bias f4 [32]
0.09480694 1.3684039 -0.8686447 -0.7515536 0.051118188 -0.19428222 0.16639596 0.13398047
-0.0058100955 -0.29778048 0.14092372 -0.004908357 -0.051292073 -0.23685017 0.3021242 0.28679246
-0.38515937 0.22022937 -0.23137331 0.15382677 0.3573894 -1.133913 0.53787154 0.0150478445
0.3483453 0.18363464 -0.05317493 -1.2488927 -0.14376116 -0.2835977 -0.097428955 0.14169462
00000000: 242a c23d dc27 af3f 805f 5ebf d165 40bf
00000010: 4e61 513d ebf1 46be b463 2a3e 2d32 093e
00000020: 9d62 bebb af76 98be 4f4e 103e 48d6 a0bb
00000030: a317 52bd da88 72be 06b0 9a3e 76d6 923e
00000040: 9c33 c5be cf83 613e 20ed 6cbe c484 1d3e
00000050: befb b63e 1024 91bf f3b1 093f 3c8b 763c
00000060: 515a b23e b80a 3c3e f5cd 59bd b7db 9fbf
00000070: 2036 13be b833 91be d588 c7bd 6518 113e

encoder_variable_selection.single_variable_grns.VaccinationFull.gate_norm.add_norm.norm.weight f4 [16]
0.640167 1.2075952 1.0889311 1.4642807 0.8258273 0.5213634 0.70968926 1.3273022
0.8811695 0.19082305 0.796087 1.400488 0.13921218 0.8842874 0.7159908 0.5079817
00000000: fce1 233f 7b92 9a3f 1862 8b3f 8d6d bb3f
00000010: 6b69 533f 1278 053f 32ae 353f 0ae5 a93f
00000020: 5394 613f 1e67 433e 5ccc 4b3f 3143 b33f
00000030: a38d 0e3e a960 623f 2c4b 373f 170b 023f

encoder_variable_selection.single_variable_grns.VaccinationFull.gate_norm.add_norm.norm.bias f4 [16]
0.17528151 0.57848454 0.26030484 0.038698476 0.29011863 -0.13147353 -0.16004054 -0.12472528
-0.21411596 -0.35896555 0.06911217 0.0921699 0.15626884 -0.3932788 0.15903702 0.24699321
00000000: ff7c 333e 9017 143f ad46 853e 4b82 1e3d
00000010: 6e8a 943e ffa0 06be abe1 23be f86f ffbd
00000020: 3741 5bbe 55ca b7be ae8a 8d3d 93c3 bc3d
00000030: f004 203e d75b c9be 9ada 223e caeb 7c3e

encoder_variable_selection.single_variable_grns.Cases.resample_norm.mask f4 [16]
0.2629418 0.20470764 -1.3625228 -0.30170903 -0.3179354 0.58848435 -0.12808178 -1.2431532
-1.2533702 0.63074964 -0.0653184 -0.026019033 -0.41941306 -0.3902981 0.37074035 0.14333104
00000000: 4fa0 863e e19e 513e 2667 aebf 9b79 9abe
00000010: 6ec8 a2be e9a6 163f df27 03be a51f 9fbf
00000020: 6f6e a0bf cf78 213f a7c5 85bd de25 d5bc
00000030: 4fbd d6be 27d5 c7be aed1 bd3e 5fc5 123e

encoder_variable_selection.single_variable_grns.Cases.resample_norm.norm.weight f4 [16]
1.2964519 1.6224174 0.52424574 0.9227025 0.7116142 1.5778158 1.510578 0.65144444
0.53396064 1.8742958 1.0747524 1.1000733 0.64229774 0.72507924 1.5953454 1.4087627
00000000: 23f2 a53f 60ab cf3f f834 063f 3b36 6c3f
00000010: 592c 363f def5 c93f 9f5a c13f 10c5 263f
00000020: a5b1 083f ede8 ef3f 7d91 893f 34cf 8c3f
00000030: a06d 243f cb9e 393f 4734 cc3f 5652 b43f

encoder_variable_selection.single_variable_grns.Cases.resample_norm.norm.bias f4 [16]
0.26575607 0.24981737 -0.23927884 -0.25169683 -0.07271647 -0.17897505 -0.41350758 -0.04906226
-0.24057853 -0.10304728 0.24213448 0.096798405 0.17906603 -0.14150757 -0.02358978 0.39682052
00000000: 2e11 883e 20d0 7f3e 8305 75be 68de 80be
00000010: 5fec 94bd 3c45 37be 44b7 d3be 82f5 48bd
00000020: 385a 76be 740a d3bd 1af2 773e 3e3e c63d
00000030: 165d 373e 5ce7 10be 5b3f c1bc 0f2c cb3e

encoder_variable_selection.single_variable_grns.Cases.fc1.weight f4 [8, 8]
0.038580634 1.648938 0.18543537 -0.5948955 -0.65260905 0.33785933 -0.30079052 -0.48261493
0.60738146 0.79945374 -0.23339112 -2.756264 -1.3204957 0.26223803 0.0819724 0.0012224726
1.4482498 0.21302259 -0.053880986 -0.1677344 -0.16263922 0.017894816 -0.86579216 1.6814011
-0.4891675 0.011172312 0.82040614 0.31276098 0.68753076 0.26062867 0.22756927 0.70667773
-0.0016674002 -0.37020838 0.014520777 0.31248897 0.35884088 0.59495807 -0.024274467 0.5807196
-0.124748446 0.5011203 0.25198337 -2.2775006 -0.9780392 0.6149806 0.078579895 0.7423207
0.23832291 0.6361253 0.16769336 -0.067559645 -1.5685571 0.24823947 0.44799793 -0.251528
0.036607184 -0.47496256 -0.51153904 -0.6389132 -0.05769926 -0.23403154 -0.7603574 1.7882757
00000000: ba06 1e3d 6610 d33f c5e2 3d3e 124b 18bf
00000010: 6311 27bf e6fb ac3e 3701 9abe 4e19 f7be
00000020: 5a7d 1b3f 00a9 4c3f 15fe 6ebe a166 30c0
00000030: 0106 a9bf 1044 863e 25e1 a73d 603b a03a
00000040: 4060 b93f 9822 5a3e 4fb2 5cbd 91c2 2bbe
00000050: e58a 26be 2698 923c 8ea4 5dbf 2738 d73f
00000060: 2a74 fabe 130c 373c 2306 523f 3522 a03e
00000070: 0402 303f 1f71 853e eb07 693e d5e8 343f
00000080: ab8c daba f48b bdbe 8ee8 6d3c 8efe 9f3e
00000090: feb9 b73e 2c4f 183f 3fdb c6bc 0aaa 143f
000000a0: 1d7c ffbd 6c49 003f f703 813e 92c2 11c0
000000b0: c760 7abf 5e6f 1d3f 7fee a03d bb08 3e3f
000000c0: ec0a 743e 1cd9 223f cfb7 2b3e b65c 8abd
000000d0: 7bc6 c8bf 7d32 7e3e fc5f e53e 47c8 80be
000000e0: 6af1 153d 4b2e f3be 39f4 02bf d18f 23bf
000000f0: 0f56 6cbd f7a5 6fbe c8a6 42bf 38e6 e43f

encoder_variable_selection.single_variable_grns.Cases.fc1.bias f4 [8]
-0.32921773 -0.38115773 -0.49965596 -0.32806537 -0.28129473 -0.23702818 -0.5087617 -0.1818209
00000000: 3a8f a8be 1b27 c3be e8d2 ffbe 2ff8 a7be
00000010: dd05 90be 84b7 72be 353e 02bf 422f 3abe

encoder_variable_selection.single_variable_grns.Cases.fc2.weight f4 [8, 8]
-0.050884537 0.93784547 -0.060049623 -0.39222243 0.5114563 -0.07008497 0.9864432 -0.03719498
-0.21856315 0.2894675 -0.33950788 -0.26594794 0.3545492 0.26787308 0.09668298 -1.0871518
0.057745032 -0.66076344 -0.8942792 -0.0044235047 0.06966717 -0.30356783 -0.46351984 0.5713142
-0.18254367 -0.52294546 -0.48801652 -0.901887 0.21888097 -0.5357067 -0.4132463 -0.24873818
0.5793533 0.6860204 -0.055848308 0.27437794 0.28844354 -0.064300746 0.42001984 0.52549934
0.00983059 -0.5831614 0.98439866 0.38177875 -0.3473337 -0.3228578 -0.18291932 0.429435
-0.8515509 -0.54503703 -0.46973073 0.18368123 -0.2444032 -0.46740216 0.2092932 -0.33188722
0.39804274 0.88422596 -0.23180416 -0.15644008 0.19856218 0.078419924 -0.06414667 -0.021649608
00000000: 4e6c 50bd a416 703f 98f6 75bd 61d1 c8be
00000010: cdee 023f b588 8fbd 8b87 7c3f c359 18bd
00000020: 05cf 5fbe 1635 943e fad3 adbe 542a 88be
00000030: 7987 b53e a926 893e ba01 c63d ca27 8bbf
00000040: 0e86 6c3d cb27 29bf 7bef 64bf 0cf3 90bb
00000050: a9ad 8e3d 3e6d 9bbe 7952 edbe a641 123f
00000060: baec 3abe c1df 05bf 4ddd f9be 11e2 66bf
00000070: 5522 603e 1324 09bf 0595 d3be 39b5 7ebe
00000080: 7f50 143f 089f 2f3f 32c1 64bd 447b 8c3e
00000090: dfae 933e 1cb0 83bd d70c d73e 2087 063f
000000a0: 7c10 213c 114a 15bf 8d01 7c3f 8178 c33e
000000b0: b9d5 b1be 9e4d a5be 344f 3bbe e8de db3e
000000c0: 3dff 59bf 8c87 0bbf 8c80 f0be ef16 3c3e
000000d0: d544 7abe 564f efbe f550 563e 1fed a9be
000000e0: 42cc cb3e a25c 623f 125e 6dbe d431 20be
000000f0: e253 4b3e a09a a03d 545f 83bd 855a b1bc

encoder_variable_selection.single_variable_grns.Cases.fc2.bias f4 [8]
-0.18089609 0.21650045 0.06483114 0.013018627 0.051431958 0.23112465 -0.13238758 -0.025923379
00000000: d33c 39be 4bb2 5d3e 30c6 843d 144c 553c
00000010: 51aa 523d f1ab 6c3e 9c90 07be 445d d4bc
