TFT-pytorch-age-and-vaccination/results/age_groups_019/checkpoints/latest-epoch=9.ckpt (torch, 436013 bytes, 506 tensors)

prescalers.AGE019.weight f4 [8, 1]
000000 ae 49 0d 3e 60 de 3e bf fe 4a 2e 3e e6 d4 aa 3e
       0.13797638 -0.7455807 0.17020795 0.33365554
000010 96 9f 12 bf 28 b4 01 bd b7 7a 2e bf b3 b0 c1 3e
       -0.5727476 -0.03166595 -0.68156 0.37830123

prescalers.AGE019.bias f4 [8]
000000 49 be 82 be 4a c3 30 3f ec 79 17 3f e6 98 3d 3c
       -0.255358 0.6904799 0.59170413 0.011572098
000010 32 c5 ba be 5c 1c 11 bf af f1 10 bd 81 80 32 be
       -0.36478573 -0.566839 -0.035386737 -0.17431833

prescalers.SinWeekly.weight f4 [8, 1]
000000 ba 3b 59 3e 95 8c 6d bf f1 e7 84 3f 9a ea 5c bf
       0.2121419 -0.92792636 1.0383283 -0.86295474
000010 de 5f 4a 3f 29 f1 7f be 1c df 29 3f 89 9f dc 3e
       0.7905253 -0.24994339 0.6635606 0.43090466

prescalers.SinWeekly.bias f4 [8]
000000 b6 dc ac 3d 15 0d 59 bb 3f d4 19 3f 81 f4 85 3e
       0.08440535 -0.003311937 0.60089487 0.26163104
000010 31 33 0f 3f 68 ee 26 bf 44 70 2f 3f 9b 39 b9 3e
       0.55937487 -0.6520753 0.6853068 0.36176762

prescalers.VaccinationFull.weight f4 [8, 1]
000000 3a 30 82 3e a9 f0 a7 3d bb 83 d0 3e 58 8a 75 3f
       0.2542742 0.08200199 0.40725502 0.9591422
000010 51 7d a6 bd bf b8 f3 be d7 aa 9e be a0 3e 2c bf
       -0.08129371 -0.47601888 -0.30989715 -0.6728306

prescalers.VaccinationFull.bias f4 [8]
000000 ba 8e 19 3f 0d 14 fa be 1b 05 0d bf 74 69 6c 3f
       0.5998341 -0.48843423 -0.55085915 0.9234841
000010 cb 8d 56 3f 08 a5 c9 3d ae 78 9b be ba 24 85 bc
       0.8381011 0.0984593 -0.3036551 -0.016252864

prescalers.Cases.weight f4 [8, 1]
000000 ba e3 13 3f b7 ad 84 bf ca 77 76 bf bf c4 1a 3f
       0.5776936 -1.0365514 -0.96276534 0.6045646
000010 92 ef 95 3f d9 6f ab bc 2f 1a 32 bf 46 c5 bb 3e
       1.1713736 -0.020927357 -0.69571203 0.36673945

prescalers.Cases.bias f4 [8]
000000 64 ce 05 bf 82 34 e4 bc 20 be f0 3e b5 0c 82 3e
       -0.5226805 -0.027857069 0.47020054 0.2540032
000010 ff 19 9a 3d 2e af 20 bd 27 12 3a 3e 90 5b 5b bf
       0.075244896 -0.039229564 0.18170987 -0.8568659

static_variable_selection.single_variable_grns.AGE019.resample_norm.mask f4 [16]
000000 bf 45 5f bd 75 e4 ff bd 92 4f bc 3d 14 23 56 3d
       -0.054509874 -0.124947466 0.09194864 0.052279547
000010 ea ec a8 bd c1 40 a6 bd 8e 06 6d bc 8e 0a 03 bd
       -0.08248313 -0.081178196 -0.014466895 -0.031992488
000020 2d 50 66 bc de 46 64 b8 96 3a 5b bd b6 15 56 3d
       -0.014057201 -5.4425436e-05 -0.05352267 0.0522668
000030 69 27 64 bb 55 1f 17 3e f2 25 e8 bd 90 24 c5 bb
       -0.003481353 0.14758046 -0.113353625 -0.0060163215

static_variable_selection.single_variable_grns.AGE019.resample_norm.norm.weight f4 [16]
000000 47 83 79 3f ec 7a 5f 3f b9 7c 8b 3f 32 55 87 3f
       0.9746594 0.8729694 1.0897437 1.0572875
000010 7f f8 73 3f 82 e7 72 3f 4f 4c 82 3f 94 2f 76 3f
       0.9530105 0.948845 1.0179538 0.9616635
000020 8f 40 7f 3f b3 35 81 3f 2c c7 78 3f 85 bd 8c 3f
       0.99707884 1.0094513 0.9717891 1.0995337
000030 1c 25 81 3f b1 2d 91 3f 71 c6 72 3f 87 36 82 3f
       1.008945 1.1342069 0.9483405 1.017289

static_variable_selection.single_variable_grns.AGE019.resample_norm.norm.bias f4 [16]
000000 97 df 49 3d bb 4d 8a bd 46 5e ca 3c 36 b0 48 3d
       0.049285498 -0.06753107 0.024703156 0.048996173
000010 ab fe 26 bd 91 dd 43 bd 94 f3 d3 bd a7 c9 b4 bd
       -0.040770214 -0.047818724 -0.10349193 -0.08827525
000020 bd 2c 2a bd 1a 6d 7c 3c 6f 7e 73 3d 3f 4e 01 be
       -0.041546572 0.015406871 0.05944675 -0.12627505
000030 93 b0 22 bd fd b7 0f 3d 83 a9 bb 3d a5 cf 06 3e
       -0.039719176 0.035087574 0.09163191 0.13165148

static_variable_selection.single_variable_grns.AGE019.fc1.weight f4 [8, 8]
000000 0f 55 be 3e 00 f7 0a bf 14 41 f7 be 8d b9 ca be
       0.3717427 -0.5428314 -0.48291838 -0.3959469
000010 6a f7 a4 be 23 89 b9 bf 6d db 34 3e c2 d0 e5 be
       -0.32220012 -1.4494976 0.1766183 -0.44885832
000020 d7 05 22 bf 99 ec 48 bf 05 75 7d be 6f d3 01 3f
       -0.6329016 -0.7848602 -0.2475167 0.5071325
000030 f5 fb ef bd 03 6a c1 be 71 83 4f 3f 3e 9f 1c be
       -0.11717979 -0.37776193 0.8105994 -0.15295121
000040 d8 c9 81 3e d4 25 9a 3e 35 98 2a 3f 39 84 f4 bd
       0.25349307 0.30106986 0.666385 -0.11939282
000050 e2 52 f1 bc d0 15 8f be a4 b2 30 3e 46 87 71 be
       -0.029458467 -0.2794633 0.17255646 -0.23586759
000060 31 09 20 bf 77 ed bd bd 91 5a 99 bd cf fd ea be
       -0.62514025 -0.092738084 -0.07487977 -0.45896766
000070 63 d5 2a be 16 2f 4a 3e 5e ba b1 bd 72 3a 23 3f
       -0.16682963 0.19744524 -0.08678125 0.63761055
000080 de c7 9f be b9 87 b9 3e 3d f0 39 be 80 5d ad bd
       -0.31207174 0.3623636 -0.1815805 -0.08465099
000090 0c 4a e3 be 11 e3 7b 3f b8 0c 41 3e 34 48 08 3e
       -0.4439243 0.9839335 0.18852508 0.13308793
0000a0 81 cb 92 3e 11 23 d1 bd 73 d3 3f be ca 78 59 3d
       0.28670886 -0.102117665 -0.18733005 0.05309371
0000b0 d2 9d c2 3e 14 c7 da be 5c 2a 63 3d 65 91 3d be
       0.38011032 -0.4273001 0.05546032 -0.18512495
0000c0 ad 7b 61 bd 4d 0d 36 bf 82 20 7b be 09 55 72 3e
       -0.055049587 -0.71114045 -0.2452412 0.23665251
0000d0 92 b3 b2 3e d2 0e a9 3f 3f f6 bc 3e c1 ee e0 bd
       0.34902626 1.3207648 0.3690662 -0.10983039
0000e0 75 d1 31 bf 81 05 09 bf 26 fc 0f be 87 23 d2 3e
       -0.6946023 -0.53524023 -0.14061031 0.4104273
0000f0 20 7f 89 3d e4 8e d8 be 39 ed b5 3e 71 65 ad 3d
       0.067137 -0.42296517 0.3553255 0.08466614

static_variable_selection.single_variable_grns.AGE019.fc1.bias f4 [8]
000000 83 99 78 bd f3 ab 07 3d 3c b9 3d bb 4e 07 ee bc
       -0.060693275 0.033122968 -0.002894952 -0.029056218
000010 31 63 0a 3c 1f 9f ca 3c c3 2b 8f 3d 76 b0 e9 ba
       0.008446501 0.024734078 0.06990769 -0.0017829079

static_variable_selection.single_variable_grns.AGE019.fc2.weight f4 [8, 8]
000000 20 f8 ed bc b2 92 29 3f 04 fc 06 3e eb b7 aa be
       -0.02904898 0.66239464 0.13182074 -0.33343443
000010 4e f1 82 3e 84 3c c5 be fd d0 44 3f 3d f1 4f 3f
       0.25574726 -0.38522732 0.7688139 0.81227475
000020 52 c8 cc be db 45 f7 be 13 4d 59 3e 03 82 07 3d
       -0.39996582 -0.48295483 0.21220808 0.033082973
000030 7e 14 cb 3d 71 dc 1f be 24 7e a9 3e ef 10 f7 3d
       0.09916018 -0.15611435 0.3310405 0.12063777
000040 f7 60 46 be 10 ea b9 3e 45 48 72 bd b4 4c 15 3e
       -0.19372927 0.36311388 -0.059150953 0.14580041
000050 94 e3 41 3e ea 05 e8 be 6a 5d 98 be 37 d9 2b 3f
       0.1893447 -0.45317012 -0.2975877 0.6712832
000060 51 1e 54 3f 73 aa e8 bc 77 31 08 3f a9 fe ba be
       0.8285876 -0.028401589 0.5320048 -0.36522415
000070 35 57 5c bd e0 1e 34 be fd 2b 17 3f d9 2b 38 bf
       -0.053794105 -0.17589903 0.59051496 -0.71941906
000080 bf f4 ab 3e bd 75 b4 be 3e d0 19 3e 3b f6 51 3e
       0.33585164 -0.35246077 0.15020844 0.20504086
000090 7b d9 ba 3e 28 51 0f 3e 25 cf 0d 3f 6a bf 50 3d
       0.3649405 0.13995802 0.553942 0.050963797
0000a0 64 2e 6f 3e 02 e1 06 be 69 ef 01 bf 00 1a 03 3d
       0.2335754 -0.13171771 -0.50755936 0.032007217
0000b0 4f 7f a6 3e dc 42 c8 bd 50 af 29 bf cd 59 43 3e
       0.32519004 -0.097783774 -0.6628313 0.19077225
0000c0 f3 a2 44 bf d1 56 b0 3d 53 ec b2 3c 6f ab 6a bd
       -0.7681114 0.08610309 0.021841204 -0.057292398
0000d0 be ce b1 3e 0a f1 a7 3e 90 87 d4 be 26 06 db be
       0.34728044 0.32801086 -0.41509676 -0.42778128
0000e0 d5 d7 00 3e 84 0c c1 3e 49 e3 29 bf f8 29 5d be
       0.12582333 0.3770486 -0.66362435 -0.21598041
0000f0 a2 8d 32 3d bd e1 64 3c d8 2d 8a 3e 54 cb ee be
       0.043592103 0.013969836 0.269881 -0.46639502

static_variable_selection.single_variable_grns.AGE019.fc2.bias f4 [8]
000000 89 02 2d 3d 57 79 82 3d 3a 36 2b bc fa 5c 5d bc
       0.042238746 0.063708 -0.01044994 -0.013510937
000010 a0 cc 99 bb a5 59 be bd 69 5a 95 3c 18 30 30 3d
       -0.0046935827 -0.09294442 0.018231587 0.043014616

static_variable_selection.single_variable_grns.AGE019.gate_norm.glu.fc.weight f4 [32, 8]
000000 f6 ac 8b bd fd ea 84 3e 58 b4 1e be 8c 58 64 be
       -0.06820099 0.25960532 -0.15498483 -0.22299403
000010 e2 1e 9a 3d f2 88 70 be 70 35 bf be 76 2d 0b 3e
       0.07525422 -0.2348974 -0.37345457 0.1359156
000020 0e 4d 7e 3d 32 d9 a2 3d 2b 4e c3 3c 57 e4 7f 3e
       0.062085204 0.07951583 0.023840984 0.24989448
000030 80 b4 64 be 27 0e 96 3e 65 d4 a7 be 01 93 26 bd
       -0.2233448 0.29307672 -0.32779232 -0.040667538
000040 3a c3 9f 3e e2 21 03 3e 26 fb a9 be ab cb 00 bd
       0.31203634 0.12805894 -0.33199424 -0.031444233
000050 7e f0 1f 3e c2 a2 09 be 4d 49 e8 3c b7 df 33 3e
       0.15619084 -0.13440993 0.028355265 0.17565809
000060 90 ae 8e be 6f 0d 4d 3e 75 e1 e3 be 37 a0 8d be
       -0.27867556 0.20024656 -0.44507948 -0.27661297
000070 f4 cf a1 3d 7a c6 8d be ff 20 5b bd e7 7c 3f 3e
       0.07900992 -0.27690488 -0.053498264 0.1869999
000080 48 fe a9 bd 99 30 50 be 98 75 4f 3e c7 73 be be
       -0.083004534 -0.20331039 0.20259702 -0.37197706
000090 25 4f f5 3d bb 1f 71 be 66 3e 73 be 64 6c 03 3e
       0.11977986 -0.2354726 -0.23754272 0.12834316
0000a0 f5 a7 a8 3e fd b8 2d 3d d1 b9 c2 be 8e 2b 72 3d
       0.3294064 0.042412747 -0.38032392 0.05912357
0000b0 b9 8d c6 bb 01 08 8f be 2c 71 7a 3e 65 b4 65 3e
       -0.006059375 -0.27935794 0.24457234 0.22432096
0000c0 6f f3 13 be ab dd 97 3c 79 e7 0c 3e eb a7 c2 bd
       -0.14448331 0.018538317 0.13760175 -0.09504684
0000d0 1e 58 78 bb 92 2e 8f be 74 0e c6 3d 8e 38 9b 3e
       -0.0037894319 -0.27965218 0.096707255 0.30316585
0000e0 bf ee a1 3e 2c ae ab 3e 90 66 c6 bd 31 06 10 3c
       0.3162746 0.3353132 -0.09687531 0.008790539
0000f0 09 5d 53 bd 81 08 e8 bd e6 56 b6 3d 69 bf de 3d
       -0.051602397 -0.11329747 0.08903293 0.10876352
000100 95 5e 58 be a6 1f 72 be 67 f2 34 3e bd 39 89 3e
       -0.2112983 -0.23644885 0.17670594 0.26801863
000110 7b 30 e7 3e db 86 73 3e eb c8 3d 3e 2b da 49 3e
       0.45154175 0.23781912 0.18533675 0.1971213
000120 e1 b2 13 3e d3 83 28 3d b1 d4 0a be 7e e8 83 3e
       0.14423706 0.041141342 -0.13557698 0.25763315
000130 be 90 f3 3d 1b c1 82 bd f1 86 af bd e4 8d 75 be
       0.11892842 -0.06384488 -0.0857066 -0.23979908
000140 6c 86 5b be 4f 38 3f bd 8b 89 b5 3e fa 1e 52 bd
       -0.21437997 -0.04668456 0.354565 -0.051299073
000150 f5 ae b0 be 4f 7e ad be 78 c2 d4 3d bd 65 7b 3d
       -0.34508482 -0.33885428 0.103886545 0.061376322
000160 1d 52 17 be 6b e6 0f be e8 94 92 3e ab eb b6 be
       -0.14777417 -0.14052741 0.2862923 -0.35726675
000170 a3 7e 8b 3e a8 c5 cf bd 3a dd 7f be c2 3c dd 3e
       0.27245054 -0.10145122 -0.24986735 0.43210417
000180 eb 52 69 be 8a 07 ac 3e 65 54 58 3e 3e 0b cf 3d
       -0.22785537 0.33599502 0.21125944 0.10109566
000190 99 55 4d 3e 7f ff 96 3d 20 73 90 3e 44 bb ce 3d
       0.20052184 0.07372951 0.28212833 0.10094312
0001a0 dd 76 cb be 92 2a 8c 3c 48 53 24 bd bc f6 9e 3e
       -0.39739123 0.017110143 -0.040118486 0.31047618
0001b0 65 ad 97 bd b6 0f bd 3d 69 64 8c 3e 2b 44 58 bd
       -0.07406119 0.09231512 0.27420357 -0.052799385
0001c0 3e bd bc be 94 fc 99 3e b9 9c fa bc ba f6 3e 3d
       -0.3686313 0.30075514 -0.03059231 0.046622016
0001d0 81 08 8a be fe 54 01 3e 50 ae 70 3e cb e1 18 3d
       -0.26959613 0.12630078 0.23503995 0.037324708
0001e0 0e f0 73 be b2 08 44 3c c2 6e 5e be 7d e0 bf 3e
       -0.23822042 0.011964964 -0.21721938 0.37475958
0001f0 00 68 67 3d 69 bd 96 3e a8 ef 90 3d 5c e3 cd be
       0.056495667 0.29441383 0.07076961 -0.40212524
000200 91 5d b5 bd 43 9e 88 be 9a 3f a7 3e 08 4b 7a 3e
       -0.08855737 -0.26683244 0.32665712 0.24442685
000210 4f 8f de 3e 6a 25 b0 be 14 e1 63 be 99 0e 90 bd
       0.4346871 -0.34403545 -0.22253829 -0.07034034
000220 76 e5 e7 3e 8a 2f fe be 0c f3 88 be f4 3f 59 3d
       0.45292252 -0.49645644 -0.2674793 0.053039506
000230 8f f3 d8 3c f6 27 6d be 1e 9b 97 be 52 a4 83 be
       0.026483325 -0.23159775 -0.29610533 -0.25711304
000240 d3 8b 39 3e d3 3b 36 be 7d 5a 0a bd c8 f8 0d 3e
       0.18119745 -0.17796259 -0.033777703 0.13864434
000250 7f c8 66 be d0 83 5d 3e 11 5e 03 be 92 a1 b1 3e
       -0.2253742 0.21632314 -0.12828852 0.3469358
000260 46 20 04 3e 5b 74 d0 3e 5c 31 24 be f8 a9 11 be
       0.12902936 0.40713772 -0.16034454 -0.14224994
000270 ab 1c ab 3d 01 ea 8f 3d 0e 2c 91 be a6 a7 06 3f
       0.08355077 0.070270546 -0.28353924 0.5259956
000280 be f1 82 3d 1a e8 88 be 11 2d 39 bd 3a 6f d5 bd
       0.06393765 -0.2673958 -0.045208994 -0.104216054
000290 9f f0 9e bd d9 45 6e be 8c 15 38 bd 08 28 69 3b
       -0.077607386 -0.23268832 -0.044942424 0.003557684
0002a0 ed b2 71 3e c4 c0 49 bc 0c e8 9f 3e 1f c8 1c bd
       0.23603411 -0.012314025 0.31231725 -0.038276788
0002b0 1e 86 91 3e fe bc 06 3e ad 06 9c be 6e 4c 70 3e
       0.28422636 0.13158032 -0.30473843 0.23466656
0002c0 71 40 48 3e d9 d4 83 3e 98 69 9f be 05 87 02 bd
       0.19555832 0.25748327 -0.3113525 -0.031867046
0002d0 b6 83 a2 be c4 29 e6 bd bf 50 db bc 1d a0 4e be
       -0.31741112 -0.11238435 -0.026771901 -0.20178266
0002e0 bb b1 50 be b5 43 8a 3e 4d 11 9e 3e 94 91 b3 3d
       -0.20380299 0.2700478 0.30872574 0.08768001
0002f0 44 f4 0d 3d 17 cc ff 3d 99 a0 bc 3c 81 f9 b8 be
       0.034656778 0.12490099 0.023025798 -0.36127856
000300 c4 25 2f bd 16 8c 4a 3e d7 59 b1 3a df 8b 35 3b
       -0.042760625 0.19780001 0.0013530803 0.0027701778
000310 1e 33 9b 3e 83 20 34 3e be 25 22 be 01 05 b6 3e
       0.30312437 0.17590527 -0.1583471 0.35550693
000320 57 71 d5 3b e0 51 21 3c ac 52 df 3e 99 a2 a3 be
       0.0065137553 0.009846181 0.4361776 -0.3195999
000330 a3 e8 20 3f c0 19 99 be a7 06 1f be 7b b8 dc 3e
       0.62854975 -0.29902458 -0.15529881 0.43109497
000340 70 cf ab 3e a6 6f bc be 35 b6 74 3e d4 1e 94 3c
       0.335567 -0.3680393 0.23897631 0.018081106
000350 6a d0 20 be a3 cf 4e be 8e 1e 90 3d 06 b6 8b be
       -0.15704504 -0.20196395 0.07037078 -0.2728731
000360 19 e1 d3 bc 0a c1 74 3e 40 03 5f 3e c6 f3 96 3e
       -0.02586417 0.23901764 0.21778584 0.2948286
000370 04 d2 02 be 20 72 45 3e 6b 85 a3 3e 7c 65 b2 bd
       -0.12775427 0.19281816 0.31937727 -0.08710763
000380 13 96 81 bd e5 f7 fa b9 92 4b 01 3f a6 ad 04 bf
       -0.063274525 -0.00047868412 0.50505936 -0.51827466
000390 b5 19 ff 3d 36 30 2d 3e c3 8f d7 bd 1b a3 e2 3e
       0.12456075 0.16912922 -0.10525467 0.44265065
0003a0 f2 07 19 bd d1 9a a5 bd 9a 4d c7 be 1f 6b 62 be
       -0.037361093 -0.080861695 -0.38926393 -0.22111176
0003b0 69 5b 97 3b 68 f7 23 3e 01 e1 1a 3e ba 0c f0 bc
       0.0046190512 0.16012347 0.15124895 -0.029302943
0003c0 cf 17 9a 3e 05 d8 5a 3e 8c 34 c0 bd 0a ec 19 be
       0.3009629 0.21371467 -0.093850225 -0.15031448
0003d0 58 11 56 3e da fc 83 be 75 c5 73 3e 66 0c 3e 3e
       0.20905054 -0.25778848 0.23805793 0.18559417
0003e0 71 fd 5c 3d 82 9f 88 be b9 0f 0d be da f7 bf be
       0.053952638 -0.26684195 -0.13775529 -0.37493783
0003f0 11 65 ff 3d 98 e1 da be 16 79 2d be 4f 2c ce 3e
       0.12470449 -0.4275024 -0.16940722 0.4026818

static_variable_selection.single_variable_grns.AGE019.gate_norm.glu.fc.bias f4 [32]
000000 e8 26 7a 3d ee e3 7e bd 1c a9 19 3d 5c 24 20 3d
       0.06107226 -0.06222909 0.03751479 0.039097175
000010 52 5c 17 bd 0c e9 1f bd 04 4b b5 bd 3c fe a2 bd
       -0.036953278 -0.03904061 -0.08852199 -0.079586476
000020 7e 3e 0b bd 2e 13 79 3c 27 89 95 3d 76 80 f1 bd
       -0.033995144 0.015202327 0.0730155 -0.1179208
000030 e2 0c 5a bd 99 3e bf 3c 6c f6 b6 3d f5 4c 1a 3e
       -0.053234942 0.023345279 0.0893372 0.1506842
000040 8d 1b 4e be f5 57 ad bd a7 22 92 bd bb a4 69 be
       -0.20127697 -0.08464042 -0.07135516 -0.22816746
000050 0c ee 24 bd 65 2e b4 bc 60 20 64 bd ba 5c 3c bc
       -0.04026608 -0.021994779 -0.055694938 -0.011496717
000060 1f b8 96 bd ea 2c 4e be de 58 e3 bd b9 cd 4c 3d
       -0.07359337 -0.20134321 -0.111009344 0.05000088
000070 5e d5 4a be b6 4d 66 bc 6a b4 19 bc f8 3e 24 3c
       -0.19807956 -0.014056614 -0.009381393 0.010024779

static_variable_selection.single_variable_grns.AGE019.gate_norm.add_norm.norm.weight f4 [16]
000000 4b 93 71 3f 3e b9 64 3f 52 85 90 3f 56 02 8d 3f
       0.94365376 0.8934516 1.1290686 1.1016338
000010 a1 b8 7b 3f 73 85 71 3f 2e 44 82 3f b6 6c 6b 3f
       0.98328596 0.9434425 1.0177057 0.91962755
000020 3b e8 7e 3f 24 94 80 3f 74 5a 7a 3f 9c 60 91 3f
       0.99573106 1.0045209 0.9779427 1.1357608
000030 01 29 7f 3f df 1f 8f 3f bd 5f 6e 3f c5 ef 83 3f
       0.9967194 1.1181601 0.93114835 1.0307547

static_variable_selection.single_variable_grns.AGE019.gate_norm.add_norm.norm.bias f4 [16]
000000 00 32 24 3d ab e7 41 bd 49 17 93 3d ed e1 ca 3d
       0.040086746 -0.047340076 0.07182176 0.09906373
000010 4c 91 3a 3c 81 4a be bc 45 54 c1 bd 1e 17 b1 bd
       0.011387181 -0.023228886 -0.09439901 -0.086469874
000020 67 bc 67 bd 02 7c 9b ba 65 95 3c 3d a2 c1 2d be
       -0.05657616 -0.0011862519 0.04604091 -0.16968396
000030 68 b1 3a bd e2 40 2f 3d 50 b5 bf 3d 46 cd 0c 3e
       -0.045579344 0.042786486 0.093607545 0.1375018

static_variable_selection.prescalers.AGE019.weight f4 [8, 1]
000000 ae 49 0d 3e 60 de 3e bf fe 4a 2e 3e e6 d4 aa 3e
       0.13797638 -0.7455807 0.17020795 0.33365554
000010 96 9f 12 bf 28 b4 01 bd b7 7a 2e bf b3 b0 c1 3e
       -0.5727476 -0.03166595 -0.68156 0.37830123

static_variable_selection.prescalers.AGE019.bias f4 [8]
000000 49 be 82 be 4a c3 30 3f ec 79 17 3f e6 98 3d 3c
       -0.255358 0.6904799 0.59170413 0.011572098
000010 32 c5 ba be 5c 1c 11 bf af f1 10 bd 81 80 32 be
       -0.36478573 -0.566839 -0.035386737 -0.17431833

encoder_variable_selection.flattened_grn.resample_norm.mask f4 [3]
000000 44 61 33 be c8 b9 0a bd 93 53 83 3e
       -0.17517573 -0.03386858 0.256497

encoder_variable_selection.flattened_grn.resample_norm.norm.weight f4 [3]
000000 fe 35 65 3f b1 2e 6b 3f 8e c2 c8 3f
       0.8953551 0.9186812 1.5684373

encoder_variable_selection.flattened_grn.resample_norm.norm.bias f4 [3]
000000 47 47 51 3e 3f f5 f0 bd 16 dc 94 be
       0.20437346 -0.11765527 -0.29074162

encoder_variable_selection.flattened_grn.fc1.weight f4 [3, 24]
000000 f2 b1 ad 3e 0b e6 75 bd e3 e2 f4 3d 6c 0e 33 3e
       0.33924824 -0.06003384 0.11957338 0.1748597
000010 3a 07 53 3c ea 29 1a 3d 7a 84 39 be c5 97 45 be
       0.012880141 0.03763763 -0.18116942 -0.19296177
000020 18 34 af be 71 51 bb 3d 33 4f 05 3e c8 18 98 bf
       -0.34219432 0.09146393 0.13018493 -1.1882563
000030 61 a2 28 bd e0 68 67 bd 9e df 38 3d c7 b9 f2 3c
       -0.04117048 -0.0564965 0.045135133 0.029629601
000040 a1 20 01 3f bd 65 37 bf 0d da 8f 3e e9 7c 87 3c
       0.5044041 -0.71639615 0.28096047 0.016539054
000050 27 57 de 3d 3f da 89 be c7 cd d6 3d 8e e6 7b 3e
       0.10856467 -0.2692432 0.10488468 0.24599668
000060 cb 11 ed bd 42 e1 d8 3e 22 95 fb be 81 22 39 bd
       -0.11575659 0.42359358 -0.49137217 -0.04519892
000070 97 65 c5 3b 4c 6e 8b 3d b5 25 95 3c 1d 71 00 3f
       0.0060240733 0.06808147 0.018206457 0.501726
000080 69 02 2c be 87 28 97 3d 41 f4 38 bf cd c9 7c be
       -0.16797794 0.07380777 -0.722477 -0.24686356
000090 8b de d7 3d df fc 78 3d 64 25 58 3c 54 81 8c 3e
       0.105404936 0.06078803 0.013192508 0.2744242
0000a0 bd 39 99 3d 25 56 27 bb e9 11 05 bf fe 8f 21 be
       0.07481716 -0.0025533524 -0.51980454 -0.15777585
0000b0 b4 8f 42 bc 35 58 ef 3d 7d c7 5c bd 8a a6 72 3d
       -0.011875082 0.11686746 -0.053901184 0.059240855
0000c0 dc c8 46 3e c1 5f 94 be bc aa b9 bd 74 d2 31 3e
       0.1941256 -0.28979304 -0.09065768 0.17365438
0000d0 9e 70 d6 3e 72 e3 de 3e fe e1 43 bd 2a 14 de 3e
       0.41882795 0.43532902 -0.047822945 0.4337476
0000e0 53 ec a2 be ab 41 60 3e 25 7c 53 3e 40 72 c6 3e
       -0.31820926 0.2190005 0.20652826 0.3875904
0000f0 0a b3 d7 3c 9f a8 f1 bd ce 76 10 3e 39 77 c7 3d
       0.02633049 -0.1179974 0.1410782 0.09739537
000100 28 77 11 3e 42 36 af 3e 10 71 08 bd 00 ba 98 bd
       0.14205611 0.34221083 -0.03331095 -0.07457352
000110 1d 9c 52 be 86 6e 75 be 50 90 df be 29 69 b2 3d
       -0.20567365 -0.23967943 -0.4366479 0.08711464

encoder_variable_selection.flattened_grn.fc1.bias f4 [3]
000000 62 b7 07 bd 41 87 f1 bc 57 de cb bd
       -0.03313387 -0.02948344 -0.09954517

encoder_variable_selection.flattened_grn.context.weight f4 [3, 16]
000000 dc 02 a8 be c0 94 07 be 54 cc 8b be 32 79 fb bd
       -0.32814682 -0.13240337 -0.27304327 -0.122789755
000010 6d 82 bb 3e bc 39 a1 be 0a b0 cc 3c f4 fd 13 3e
       0.36622944 -0.3148936 0.024986286 0.14452344
000020 aa e3 61 be 40 24 79 3e cf c0 b3 bd 73 f2 5e 3e
       -0.22059503 0.24330235 -0.0877701 0.21772175
000030 e0 9a dd 3e 1b 10 08 3e f9 6a b8 be 27 a1 cb be
       0.43282223 0.13287394 -0.36019114 -0.39771387
000040 6d 52 be 3e a9 61 97 bc 8c 59 13 3f 4e a7 d8 be
       0.3717226 -0.018479185 0.5755851 -0.42315143
000050 81 11 bb be e8 2d 0c 3f 8b 74 36 bd de ad be be
       -0.36536792 0.5475755 -0.044544738 -0.37242025
000060 5a 46 0a 3e c4 4b da bb 61 c5 d8 be 36 d7 1c 3e
       0.135034 -0.006661864 -0.42338088 0.15316471
000070 f9 82 85 3e 3b 99 ee bc 32 3c da be 38 56 6a be
       0.26076487 -0.0291258 -0.4262405 -0.22884452
000080 20 44 20 3e 52 b3 88 3b a7 db 0c 3f f8 5a 78 be
       0.15650988 0.0041717673 0.5502266 -0.24253452
000090 05 d7 85 be d7 aa d5 3e dc a9 09 bc a3 1b 13 3e
       -0.2614061 0.41731903 -0.008402314 0.14366011
0000a0 d6 51 69 be a1 be ff 3e b7 da 2f bd 07 8d f0 3c
       -0.22785124 0.49950126 -0.042933192 0.029364122
0000b0 37 97 76 3e 71 5e c8 3d 9d 5a c8 bd ee a0 74 3e
       0.24081121 0.09783638 -0.09782908 0.23889515

encoder_variable_selection.flattened_grn.fc2.weight f4 [3, 3]
000000 f1 31 5a bf 31 c3 95 bf 71 d7 41 be a9 2f f4 39
       -0.85232455 -1.1700193 -0.1892984 0.00046574816
000010 71 2d 8c bf 2c 11 8a be 28 e5 d3 be 48 74 5c bf
       -1.0951368 -0.26966226 -0.4138577 -0.8611493
000020 e4 9f 42 bf
       -0.76025224

encoder_variable_selection.flattened_grn.fc2.bias f4 [3]
000000 b8 0f de 3d 1a 96 cf bb bd ab 0b be
       0.10842842 -0.006335032 -0.13639732

encoder_variable_selection.flattened_grn.gate_norm.glu.fc.weight f4 [6, 3]
000000 73 94 0d 3f 71 85 20 be 98 56 31 3f 6b 6b e2 bc
       0.5530464 -0.15675904 0.69272757 -0.027639112
000010 81 37 d0 be 3c 0d 32 3f 9c f1 5f be 07 e4 9c be
       -0.40667346 0.69551444 -0.2186951 -0.3064272
000020 6b f7 c7 3a 16 65 06 bf 6a d6 0a bf cd c1 31 3f
       0.0015256231 -0.52497995 -0.5423342 0.6943634
000030 0b 9d 4e 3f 33 88 71 bd ba ce e2 be cf 7f 5c 3f
       0.8070838 -0.05896778 -0.44298345 0.8613252
000040 a0 f5 28 3f 17 58 dd 3e
       0.65999794 0.4323127

encoder_variable_selection.flattened_grn.gate_norm.glu.fc.bias f4 [6]
000000 5c f9 e8 3d e7 74 d1 bd 54 f4 ba be 77 e5 dc bd
       0.113756865 -0.102273755 -0.36514533 -0.107859544
000010 9b 2c 86 3e 56 e4 b1 3e
       0.26205906 0.3474452

encoder_variable_selection.flattened_grn.gate_norm.add_norm.norm.weight f4 [3]
000000 a4 89 45 3f 42 9f 1e 3f 00 6f b2 3e
       0.7716315 0.6196176 0.3485031

encoder_variable_selection.flattened_grn.gate_norm.add_norm.norm.bias f4 [3]
000000 95 2d 10 bc cd 65 ca be c0 a2 23 3f
       -0.00879993 -0.39530793 0.6392021

encoder_variable_selection.single_variable_grns.SinWeekly.resample_norm.mask f4 [16]
000000 8a 92 6d be e9 22 78 bc b3 90 22 be db 4b 1e be
       -0.23200431 -0.015145042 -0.15875511 -0.15458624
000010 56 7c 34 bd d4 66 4a 3d 8e 41 97 3d ad 94 d2 be
       -0.04406389 0.04941447 0.073855504 -0.41129056
000020 2e 82 5d 3c ab a3 f4 bb d5 27 7c be 74 f0 81 3a
       0.013519807 -0.0074658 -0.2462457 0.000991358
000030 f8 f7 99 be 31 c2 20 3d fa 8e 87 3e a5 63 32 3e
       -0.30071998 0.039247695 0.2647627 0.17420824

encoder_variable_selection.single_variable_grns.SinWeekly.resample_norm.norm.weight f4 [16]
000000 e3 b4 4b 3f a7 fd 78 3f 77 5e 7f 3f 96 52 6e 3f
       0.79572886 0.9726204 0.99753517 0.93094766
000010 dc fc 7a 3f 5d c4 89 3f 24 60 90 3f c0 14 2b 3f
       0.9804208 1.076305 1.127934 0.66828537
000020 89 b6 7e 3f a3 93 75 3f 06 fd 4e 3f 33 e8 80 3f
       0.99497277 0.959284 0.80854833 1.0070862
000030 e0 f5 79 3f 3f db 85 3f d0 f2 a9 3f 84 e3 85 3f
       0.976408 1.0457534 1.3277225 1.0460057

encoder_variable_selection.single_variable_grns.SinWeekly.resample_norm.norm.bias f4 [16]
000000 46 c2 d1 3c ce 1f 90 3d 21 c9 50 be b4 1c 8b 3d
       0.025605332 0.07037316 -0.20389225 0.06792584
000010 d8 b8 49 bc 67 0d 03 3d d2 4d af bd 41 38 31 be
       -0.012312137 0.031995203 -0.08559765 -0.17306615
000020 8d 32 0e 3d b8 38 33 3a cd 84 de 3d eb 20 fb 3d
       0.034716178 0.000683676 0.108651735 0.12262138
000030 70 ae 0e be fc 72 30 bd 45 6a ba 3b ae d4 f8 3d
       -0.1393373 -0.043078408 0.005688938 0.121499404

encoder_variable_selection.single_variable_grns.SinWeekly.fc1.weight f4 [8, 8]
000000 80 c8 82 3f d4 68 ab bf 1c eb 39 bf 30 d4 ac bf
       1.0217438 -1.3391366 -0.72624373 -1.3502254
000010 36 bf 84 be a8 a3 41 be 0a 7d bf 3e 79 dc 0a 3f
       -0.25927132 -0.18910086 0.37400085 0.54242665
000020 f2 2e 7f 3c 30 1c 38 3e 42 d6 4d 3d ef dc 97 be
       0.0155751575 0.17979503 0.05025316 -0.29660746
000030 eb aa b1 3c f2 cc 35 3f ce 1b 33 be bb 06 62 bd
       0.021687945 0.71015847 -0.17491075 -0.0551822
000040 bb a4 ab bd 9d 4c a2 bd 39 8e a5 be 6b 53 7c 3e
       -0.08381029 -0.07924769 -0.3233507 0.24641196
000050 c1 49 45 bf 69 d5 c6 3e 33 24 80 3f e1 17 af 3e
       -0.77065665 0.38834694 1.0011047 0.34197906
000060 d6 ed ae 3e ed c3 95 3d 77 cd 91 be c8 88 23 3e
       0.3416583 0.073127605 -0.2847707 0.15970147
000070 30 3f c8 3e f5 df 48 3d 50 ad bc 3e 81 fa 28 3f
       0.39110708 0.049041707 0.36850977 0.6600724
000080 37 ec 23 bf 99 60 c7 bd a8 65 8d 3f 1f 09 28 3b
       -0.6403231 -0.097352214 1.1046648 0.0025640202
000090 5b ab ba 3d 03 ba 44 3f 5a 30 06 3f 8c f4 81 bf
       0.09114715 0.7684633 0.5241753 -1.0152755
0000a0 c7 2f fa 3e 91 d6 44 be ca 07 62 bf 4f 0a d9 3d
       0.48864576 -0.19222476 -0.88293135 0.10597669
0000b0 5a 04 07 3d d0 16 4a be b9 5a c8 be 44 f7 7e 3b
       0.032963134 -0.19735265 -0.39131716 0.0038904706
0000c0 5a 07 4f bf 63 f7 82 be f5 b0 63 bf 68 8d d6 3e
       -0.8087059 -0.25579366 -0.8894189 0.4190476
0000d0 da d3 b4 bc ab 89 8b bd eb f5 99 be 03 47 a3 3d
       -0.022073675 -0.068133675 -0.30070433 0.07972529
0000e0 34 6d ab 3e df f9 cd 3d 10 73 58 bf 7c 98 aa 3e
       0.33481753 0.10057425 -0.8455057 0.3331946
0000f0 d1 a5 36 3f c6 11 f3 3e 97 25 6d be 89 75 92 3e
       0.71346766 0.47474498 -0.2315887 0.28605297

encoder_variable_selection.single_variable_grns.SinWeekly.fc1.bias f4 [8]
000000 65 03 7e bc 36 37 f2 3c 51 39 4e 3d da 52 bf bb
       -0.015503739 0.029567342 0.05034763 -0.005838734
000010 21 9f 0c bd f0 93 ec bd 2e eb 90 bd 4b 18 39 bc
       -0.034331445 -0.11551654 -0.07076107 -0.011297296

encoder_variable_selection.single_variable_grns.SinWeekly.fc2.weight f4 [8, 8]
000000 6c ff 96 bf c4 ce 1d 3e b0 88 91 bf 00 d5 23 bf
       -1.1796699 0.15410906 -1.1369839 -0.6399689
000010 40 ba 42 bf d7 8f e0 3d a0 b7 e2 3e d8 bf d0 be
       -0.76065445 0.10964935 0.4428072 -0.40771365
000020 4b 63 a8 be 92 92 a3 be b8 8b d7 3e bd 2f 24 3e
       -0.32888255 -0.31947762 0.42098784 0.16033836
000030 2f 09 8d be 59 6b da 3e e1 aa 14 3f 8a 46 2c 3e
       -0.2754607 0.42660025 0.5807324 0.16823784
000040 d6 ea 3f 3f aa 0d ba be a8 d2 13 3d 5d 09 0a bf
       0.74967706 -0.3633855 0.03608957 -0.5392054
000050 e7 36 2b 3f bc bd 0b be 76 86 1e 3f 3c b2 27 3f
       0.6688065 -0.13646597 0.6192392 0.6550634
000060 eb f2 92 3c e1 11 5f 3f 1d d4 d0 3e af 64 52 3e
       0.017938098 0.87136656 0.4078683 0.2054622
000070 ec 9a d4 3c e5 d5 5c bf ed 01 3f 3c bf 11 37 bf
       0.025952779 -0.8626388 0.011658174 -0.71511453
000080 49 67 82 bf 88 9a 9c 3f d3 74 a4 be 9f 38 90 be
       -1.018777 1.2234659 -0.3212038 -0.28168198
000090 6c 36 8f be d2 4f 3b 3f c8 9e 64 3e 81 51 95 bd
       -0.27971208 0.7316867 0.22326195 -0.07290936
0000a0 75 08 13 3f bd df c5 be 49 9b 20 bf ae c3 64 bd
       0.5743478 -0.3864726 -0.62736946 -0.055850677
0000b0 bf ee f4 be 6e 45 8a 3e 08 56 8a be 3b 61 09 be
       -0.478384 0.27006096 -0.27018762 -0.13415997
0000c0 51 f4 bf 3d 2e b0 24 bd ea c9 ae 3d 68 07 7a 3d
       0.093727715 -0.04020708 0.08534606 0.06104222
0000d0 41 e2 d4 3e 90 eb ab be c7 78 1b 3e 5f 4e 8a 3e
       0.41578868 -0.33578157 0.15182792 0.27012917
0000e0 6e e5 11 3f 9c 84 eb bd b4 74 8a 3e a1 de 2d 3f
       0.56990707 -0.114999026 0.27042162 0.6791783
0000f0 9d 57 19 3f 28 77 bc be d0 e1 22 3f 67 f4 1f bf
       0.5989931 -0.3680966 0.6362581 -0.62482303

encoder_variable_selection.single_variable_grns.SinWeekly.fc2.bias f4 [8]
000000 05 9b 34 3b 2a d2 86 bd 53 5f 5e bd b0 73 c0 3d
       0.002755822 -0.06583054 -0.054290127 0.09397066
000010 89 68 1d be 1a 1b 99 bd b4 9a 8c 3d a6 f0 59 bd
       -0.15371908 -0.07475872 0.06865445 -0.053208016

encoder_variable_selection.single_variable_grns.SinWeekly.gate_norm.glu.fc.weight f4 [32, 8]
000000 44 aa 2d 3e b1 54 dc bb b9 da 48 be 67 35 1d be
       0.16959482 -0.006723963 -0.19614686 -0.15352403
000010 37 8a 7f bc 43 15 a2 be 0c f1 38 be 2c 2c 44 3e
       -0.015596918 -0.31656846 -0.18060702 0.19157475
000020 41 0c 67 bc b4 45 e0 3d b2 28 97 bd 40 f2 ae be
       -0.014102043 0.10950795 -0.07380809 -0.34169197
000030 ac 8b c9 3d e1 a2 20 3c f1 aa a1 3e 4d ea dc bd
       0.098410934 0.009804458 0.3157573 -0.10786877
000040 74 49 6d 3e ad 6b ef bd 64 76 dc 3e 33 54 3e be
       0.23172551 -0.116904594 0.43059075 -0.18586807
000050 16 a8 cc 3e 68 b4 d4 3d fa 05 46 be 1d 7f 85 3d
       0.3997199 0.10385972 -0.19338217 0.065183856
000060 fd 2f 19 3d f8 4f 23 be 2a 6e 1d 3c ca 33 d0 be
       0.03739928 -0.15948474 0.009608785 -0.40664512
000070 aa da 89 3e 7c 0e 7a 3e 6d f7 33 be f0 ba 44 3e
       0.2692464 0.24419588 -0.17574854 0.19211936
000080 fd 78 29 3e 03 71 51 bd bc 14 78 3e d1 1f 74 3e
       0.1655006 -0.051133167 0.2422666 0.23840262
000090 a7 81 dc 3d fe dc 30 bd 45 fb 70 3e ea d0 86 3d
       0.10766917 -0.043179505 0.23533352 0.06582816
0000a0 7f e3 0e 3e 8f c1 ab be f9 c5 15 3e 15 ab 2f 3e
       0.1395397 -0.3354611 0.14626302 0.17155106
0000b0 18 0e a1 be 63 aa f8 bd f4 56 ae bd 44 b7 80 3e
       -0.31456065 -0.12141874 -0.08512679 0.2513982
0000c0 7c 3a 4c be 5a 89 7d be 16 29 d4 be c2 b9 29 3e
       -0.19944185 -0.24759427 -0.41437596 0.16574767
0000d0 30 3b 88 be e2 13 79 bd 09 e2 54 3e d5 1c 4d 3e
       -0.26607656 -0.060809977 0.2078935 0.2003053
0000e0 15 db fb be c2 ec ec bd 26 74 fa 3e 1c aa b2 be
       -0.49190584 -0.115685955 0.4891674 -0.34895408
0000f0 99 6b 3b be c2 03 86 bd fc 20 3d 3d 06 cd be 3d
       -0.18302764 -0.065436855 0.046174034 0.09316449
000100 25 89 a1 3e a8 f3 78 3e b9 b4 8f be 3a e3 7d 3e
       0.31549945 0.24311697 -0.28067568 0.24793711
000110 55 c0 c3 3d 56 d2 d2 be 71 e1 37 3e 54 89 80 3e
       0.09558169 -0.411761 0.17957093 0.25104773
000120 04 f0 d0 bd a1 38 ad be 3e 0c 6a 3e 10 72 73 bc
       -0.10202029 -0.33832267 0.22856233 -0.014858738
000130 73 c9 83 be f7 2e 7b bd fa 49 da 3d d9 30 e8 3d
       -0.2573963 -0.061324086 0.10658641 0.11337442
000140 63 e1 18 3e 5e 1a 00 3e 37 92 30 be 40 79 0c be
       0.14929728 0.12510058 -0.17243277 -0.13718128
000150 38 96 f0 bc c8 b7 80 3e 7c 96 d5 3c 7d 1e 57 3e
       -0.029368505 0.25140214 0.026072733 0.21007724
000160 09 1b 3a 3d 94 6d 68 bc f3 8f 9c be 97 52 a0 bd
       0.04543594 -0.014186282 -0.30578575 -0.07828253
000170 ce 41 57 be a6 65 b6 be ba fd c4 3e f0 12 81 3e
       -0.21021196 -0.35624427 0.38474828 0.2520976
000180 3d a9 14 3f d0 82 12 3f bf 4d ad bd 26 3f ad be
       0.5807074 0.57230854 -0.084620945 -0.3383724
000190 c0 37 05 3f 79 9f 34 bf 85 08 8e be b5 82 ff be
       0.5203819 -0.70555836 -0.27740875 -0.4990441
0001a0 f1 72 96 3d b0 40 5c be 85 5a 93 3e 26 73 77 3e
       0.07346142 -0.21509051 0.28779998 0.2416502
0001b0 bb d5 30 3e 96 98 ba 3d 7f 02 36 be 43 45 90 be
       0.17269032 0.09111135 -0.1777439 -0.28177842
0001c0 a8 64 a8 be 45 71 c3 be 52 71 67 3e ec 89 1b 3e
       -0.32889295 -0.38172355 0.22601822 0.15189332
0001d0 92 a2 38 be 9d 85 d0 3e e7 8d 86 be a8 61 4c 3e
       -0.18030766 0.4072694 -0.26280138 0.19959128
0001e0 63 5c 7f 3e fe 92 a8 be cf 4d cb be 27 14 f7 3d
       0.24937586 -0.32924646 -0.397078 0.12064391
0001f0 d0 da 83 bd ea b4 ba be 41 9e 5f 3e 98 b8 fe 3c
       -0.064382195 -0.3646615 0.21837713 0.03109388
000200 2e 4d 5d 3e 0d 6f 75 3d db 40 1a 3e 52 f0 b4 3e
       0.21611473 0.05992036 0.15063803 0.353396
000210 78 2a 9a 3e eb 19 ab be 23 5c ab 3d 93 8f b7 be
       0.30110526 -0.3341821 0.08367183 -0.35851726
000220 a6 db 56 3e df 2c 8c be 92 a0 86 3d c7 05 92 be
       0.20982227 -0.27377984 0.06573595 -0.28520033
000230 e7 01 3c 3e eb 25 d1 3d 45 eb a7 be b8 5a da be
       0.183601 0.102123104 -0.32796684 -0.42647338
000240 c4 15 93 3e be c6 8a be 5c f6 11 bf 39 bd c9 bd
       0.28727543 -0.27104753 -0.5701654 -0.098505445
000250 a0 ca 17 bc 39 1e 9a be 9b 72 d4 bd 5c b7 0e 3c
       -0.009264618 -0.30101183 -0.10373422 0.0087107085
000260 c1 c8 22 3e 59 cb 4e bd f1 5f a0 3e 56 42 09 be
       0.15896894 -0.050486896 0.31323197 -0.13404211
000270 a3 25 bc 3c 2c 22 8c 3b 1b c0 bf bd 8b da 2e 3e
       0.022967165 0.0042765345 -0.09362813 0.17075555
000280 fd dc 7f 3e 88 59 5a 3e 53 96 20 be 39 49 f6 bc
       0.24986644 0.21323216 -0.15682344 -0.030064212
000290 44 8e d3 3d 73 17 20 be d7 51 3e 3e 75 42 73 3e
       0.103298694 -0.15633945 0.18585907 0.2375582
0002a0 7d 6b f8 bc 06 55 78 be da 37 c0 3e 42 d1 46 3e
       -0.030324692 -0.24251184 0.3754261 0.19415763
0002b0 4b 7f 96 be 19 67 62 bd 80 a2 d6 3e 8a 8e 57 be
       -0.29393992 -0.055274103 0.41920853 -0.21050468
0002c0 27 b0 ae 3e 19 df 9d 3e 20 ea a7 be 1d 34 d8 be
       0.3411877 0.30834273 -0.3279581 -0.4222726
0002d0 0f 43 02 3e 72 57 09 bf a2 4f 66 be c4 d2 8f bd
       0.12720893 -0.53649056 -0.22491315 -0.07022622
0002e0 20 c8 9f be 00 4f b4 3e e3 d7 1d 3e 04 f6 ac 3d
       -0.3120737 0.35216522 0.15414385 0.08445361
0002f0 08 49 4f 3e f2 8a e0 bd e9 76 1d bd 1b 23 b8 be
       0.20242703 -0.10964002 -0.03844348 -0.35964283
000300 23 31 10 be 6d 9d 06 be b5 3b 1b 3e cf ec 80 be
       -0.14081244 -0.1314599 0.15159495 -0.2518067
000310 39 e2 ad 3e 09 75 a3 bc 5a b3 78 3d 8a a0 11 be
       0.33961657 -0.019953268 0.060717918 -0.14221397
000320 b4 0e 1f be 9c f8 44 be 8b 7c 76 3d a9 b8 8f 3e
       -0.15532953 -0.19235462 0.060177367 0.28070572
000330 5c 47 f7 3d 4b aa e0 3c d0 75 84 be 73 c4 3c 3e
       0.120741576 0.027424952 -0.25871134 0.18434314
000340 b6 a7 a8 3d fc 1e 4a be 22 31 aa be bc 2e e8 be
       0.08235113 -0.19738382 -0.3324061 -0.45348155
000350 4c dd 34 3e ec a8 86 3e b1 1e cc be 0e ad 8b be
       0.17662543 0.26300752 -0.39867166 -0.27280468
000360 f0 99 a3 3e ce 95 6d be bc 33 87 3e 88 ff 5e 3e
       0.31953382 -0.23201677 0.26406658 0.21777165
000370 41 ec 98 3d 65 1b 3a 3e 5a 3c a3 3e fa 88 51 3d
       0.07466937 0.18174513 0.31881982 0.05115602
000380 9b 7d d7 be 77 be ca be 29 e1 d8 3e ad 3f 26 bd
       -0.42088017 -0.39598438 0.42359284 -0.04058807
000390 4d 0f 10 be c2 69 02 3f 99 3a 67 3e e6 f9 9a 3e
       -0.14068337 0.50942624 0.22580947 0.30268782
0003a0 f8 10 95 be c9 da 0a be 09 3a 8a be 1b 0c 44 3e
       -0.2911451 -0.13560022 -0.26997402 0.19145243
0003b0 5f 75 95 3e 92 10 2a be 13 d6 e2 bd c5 e0 04 3e
       0.2919111 -0.16607884 -0.11075988 0.12976368
0003c0 ba c7 f6 bd 8f 1b 97 3d 4c f5 a4 be 61 02 90 3d
       -0.120498136 0.07378303 -0.32218397 0.07031704
0003d0 bf 3d 0e be 58 ad 7d be a6 09 a9 bd 15 e7 92 3d
       -0.13890742 -0.24773157 -0.082537934 0.07172982
0003e0 a5 ae 7e bd 8a 15 bd 3e 90 55 aa be f6 df cd 3e
       -0.062178273 0.36930496 -0.33268404 0.4020993
0003f0 3f f0 fb 3b 82 05 16 be 06 69 cc bd 09 37 5f be
       0.0076885517 -0.14650539 -0.09980969 -0.21798338

encoder_variable_selection.single_variable_grns.SinWeekly.gate_norm.glu.fc.bias f4 [32]
000000 f9 4f c7 3d ab c1 98 3d 9a cd 86 be 32 ca af 3d
       0.097320504 0.07458814 -0.26328737 0.085834876
000010 58 28 9d bc b2 2a d0 3c ab 2c 95 bd 3a 64 85 be
       -0.019184276 0.025410984 -0.0728391 -0.2605303
000020 99 f7 85 3d 6c f1 99 3c 63 b9 da 3d cd f6 f7 3d
       0.06541366 0.018791877 0.10679891 0.121076204
000030 4c be 31 be 8f 66 ec 3a 19 0a 38 bb 4e 4d 03 3e
       -0.17357749 0.0018035936 -0.002808219 0.12822458
000040 57 3c ec bc d5 25 18 be 32 aa 53 b9 e2 d3 2a be
       -0.028837366 -0.14858182 -0.00020185931 -0.1668239
000050 d0 17 aa be 04 71 0a 3e 2b df 0e be 98 6a 0a 3e
       -0.33221292 0.13519675 -0.1395232 0.13517225
000060 5c b2 1f bd 38 0c 60 3c c6 4e f0 bd 92 8b e0 bc
       -0.038988456 0.013674788 -0.11733775 -0.027410302
000070 58 a9 5e 3d 64 a9 a2 bd d6 69 d0 3d 26 4c 68 bd
       0.054360718 -0.07942465 0.101764366 -0.056713246

encoder_variable_selection.single_variable_grns.SinWeekly.gate_norm.add_norm.norm.weight f4 [16]
000000 73 0b 32 3f 26 a3 70 3f 45 f6 8c 3f ba 44 62 3f
       0.6954872 0.93998945 1.1012655 0.8838612
000010 c7 36 78 3f 7d 00 80 3f f2 2b a1 3f cb f1 04 3f
       0.96958584 1.0000149 1.2591536 0.51931447
000020 16 77 7f 3f 2a 12 7b 3f c7 cc 55 3f cf 42 9d 3f
       0.99791086 0.9807459 0.8351559 1.2286013
000030 3a a4 80 3f 6a 0b 85 3f 99 71 99 3f 54 49 8b 3f
       1.0050118 1.0394108 1.1987792 1.0881753

encoder_variable_selection.single_variable_grns.SinWeekly.gate_norm.add_norm.norm.bias f4 [16]
000000 65 05 21 bd e4 9d a3 3d b8 9a 1d bd d0 b8 0d 3e
       -0.039311785 0.079890996 -0.03847763 0.13840032
000010 18 c5 67 3c 9c c1 8f 3c d2 df c1 bd 30 e8 00 be
       0.014146112 0.017548375 -0.094665185 -0.12588573
000020 7d a9 57 3d b6 6d 5e bd 83 8d 77 3c ae 35 9a 3d
       0.05265187 -0.054303847 0.015109423 0.0752977
000030 8c f6 95 bd ff 27 82 bc 19 03 84 3c de 85 b4 3d
       -0.07322416 -0.015888212 0.016114758 0.08814596

encoder_variable_selection.single_variable_grns.VaccinationFull.resample_norm.mask f4 [16]
000000 d9 be f5 bd 6a 3f 01 3d 21 f3 99 3d cc 1b 0e be
       -0.11999292 0.031554617 0.07517076 -0.13877791
000010 7d 99 63 3e 54 6d 25 be 26 59 d9 3d 0b a8 92 3e
       0.2222652 -0.16154987 0.10612707 0.28643832
000020 e4 03 05 3d 3d 08 09 be 14 5d c6 bc 0b cf c0 bb
       0.032474414 -0.13382049 -0.024214305 -0.0058840564
000030 06 80 2c be aa a5 b6 3e 30 68 95 bc d8 e3 86 bd
       -0.16845712 0.35673267 -0.018238157 -0.065864265

encoder_variable_selection.single_variable_grns.VaccinationFull.resample_norm.norm.weight f4 [16]
000000 54 f5 5b 3f 7b bd 63 3f bc 61 8c 3f c0 1a 72 3f
       0.85921216 0.88961 1.0967326 0.9457207
000010 2d 59 a4 3f 46 f6 62 3f d4 da 7b 3f 4c 72 9b 3f
       1.2839714 0.88657033 0.9838078 1.2144256
000020 4c 38 85 3f a6 c1 67 3f d4 04 7e 3f 36 0b 7d 3f
       1.0407805 0.9052986 0.9922612 0.9884523
000030 be 67 4e 3f 9f 10 a8 3f fe cb 62 3f 8a 33 57 3f
       0.8062705 1.3130072 0.8859252 0.8406302

encoder_variable_selection.single_variable_grns.VaccinationFull.resample_norm.norm.bias f4 [16]
000000 f5 8b f1 bd 9b ad 38 3e 53 8f 92 bd b1 c4 83 bd
       -0.11794273 0.18034975 -0.07156243 -0.06434
000010 f7 e3 30 be 50 d6 ad 3a 2f c3 03 be 63 71 36 3e
       -0.17274462 0.0013262723 -0.12867425 0.17816691
000020 0e 92 8b 3b 41 ec 9b bc 58 91 33 3d 7d b9 92 3c
       0.0042593544 -0.019033553 0.043839782 0.017910713
000030 ae 64 33 bd 41 22 18 be c8 c2 ae 3d b8 f9 22 3e
       -0.043797188 -0.14856817 0.08533245 0.15915573

encoder_variable_selection.single_variable_grns.VaccinationFull.fc1.weight f4 [8, 8]
000000 e4 42 b3 3e 14 13 d2 bd 26 4b 0e bf 71 d0 8f be
       0.3501197 -0.10257545 -0.5558342 -0.28088716
000010 6d a8 04 3f 88 4c ee 3d ab 9d 04 bf 00 e3 1a bb
       0.518195 0.11635691 -0.5180308 -0.0023633838
000020 10 4b 15 3e fb d9 1f be d9 41 43 bf 0a 96 74 bf
       0.14579415 -0.15610497 -0.7627235 -0.9554144
000030 7c dc 43 bd ba 03 3b be ad 67 13 3f b0 64 1b be
       -0.047817692 -0.1826314 0.5758007 -0.15175128
000040 79 f5 e1 3d a0 0c 0a bf 08 f5 94 bd 24 03 76 be
       0.11033148 -0.53925514 -0.072732985 -0.24024636
000050 98 69 c2 be ec 42 b8 3e 16 4e 4b be d8 fb 19 bf
       -0.37971187 0.35988557 -0.19854006 -0.6014991
000060 31 0a 45 be 01 3f 49 bf 00 19 1d be 65 4c b1 3e
       -0.19242169 -0.7861176 -0.15341568 0.34628597
000070 9d 8f 51 bf b1 3d 13 3f 88 82 0f 3e e7 8a 9c bc
       -0.8185976 0.5751601 0.14014637 -0.019109203
000080 21 d3 9e 3e d5 3b 09 3f 96 82 63 3e 81 a4 dd 3e
       0.31020454 0.5360692 0.22217783 0.4328957
000090 43 fb 52 3d fa 06 ad 3e 1f 84 09 3f 93 70 3b 3f
       0.051509153 0.33794385 0.53717226 0.7321865
0000a0 7d 42 d3 bd cd a6 b5 3e 3f 5c cd bd ab e9 69 bd
       -0.10315416 0.3547882 -0.1002736 -0.05710761
0000b0 46 4d 20 be 41 56 58 bf d9 09 53 bf aa 69 e5 bf
       -0.15654477 -0.84506613 -0.824369 -1.7922871
0000c0 0d 8e 07 bf 47 e9 9a 3e 87 58 77 3e c6 d1 61 3e
       -0.5295113 0.302561 0.24154864 0.22052678
0000d0 17 8d 80 3f 4d 3e 24 be 1c 94 2e 3e 98 6a 11 3e
       1.0043057 -0.16039391 0.17048687 0.14200819
0000e0 5c e5 b6 3e 2d fb 1f 3e 28 83 27 bf f2 ee c2 bd
       0.35721862 0.1562316 -0.65434504 -0.095182315
0000f0 95 47 b4 be 12 7b a4 bf d7 60 b0 be 56 4d d9 bf
       -0.35210863 -1.2850058 -0.34448883 -1.6976726

encoder_variable_selection.single_variable_grns.VaccinationFull.fc1.bias f4 [8]
000000 06 32 26 bd fb 0a 28 3c 95 62 65 3d 16 02 11 bd
       -0.04057505 0.010256524 0.05600222 -0.03540238
000010 23 4d 41 3d 6e 1c 57 bd 00 19 90 bd e0 37 99 3c
       0.047192704 -0.052517347 -0.07036018 0.018703401

encoder_variable_selection.single_variable_grns.VaccinationFull.fc2.weight f4 [8, 8]
000000 fc f7 0b be 2e c0 ee 3d d4 59 8c be 69 90 23 bf
       -0.13668817 0.11657749 -0.27412283 -0.6389223
000010 d0 c6 5c bf 36 21 56 3d ed 4c 33 bf 6a 17 33 bd
       -0.86240864 0.052277766 -0.70039254 -0.0437235
000020 e6 65 2f 3f 93 ac b0 be ed a7 80 be 73 e0 80 be
       0.6851486 -0.34506664 -0.25128117 -0.2517124
000030 d4 69 00 bf 5b 11 e6 be 18 6c 90 3e 2e 93 82 bc
       -0.5016148 -0.44935116 0.2820747 -0.015939321
000040 78 35 e1 bf bf af c1 3d a5 28 1d be 1b 9b 04 3f
       -1.7594442 0.09457349 -0.15347536 0.5179917
000050 04 b5 b6 be f7 a8 6c 3e 38 df ea 3d c0 69 ca 3e
       -0.3568498 0.2311133 0.11468357 0.39533806
000060 98 a7 6f 3e 21 e8 bd be 6a d6 9b bc 79 5f d2 be
       0.23403776 -0.37091163 -0.019023139 -0.41088465
000070 27 04 27 3f f9 7c 6b bf 62 fe f0 3c a2 88 52 be
       0.6524071 -0.9198757 0.029418174 -0.20559934
000080 82 68 c9 be 55 25 67 be d8 fa b7 3e 20 6c 69 be
       -0.39337546 -0.22572835 0.35933566 -0.22795153
000090 a9 cf a6 3e 85 d0 ca 3e 7f 98 9a bf 16 f7 62 3f
       0.32580307 0.39612213 -1.2077788 0.88658273
0000a0 c3 69 c2 be 91 02 8e 3e 74 87 24 3f 69 23 ab 3e
       -0.37971315 0.27736333 0.64269185 0.33425453
0000b0 48 c2 b6 3d ed b5 e8 bd 45 ca 4a be 01 d7 87 bf
       0.08923775 -0.113628246 -0.19803722 -1.0612489
0000c0 57 94 0c 3f 77 d4 40 3b 96 10 45 bd e3 94 2e 3f
       0.5491385 0.0029423514 -0.04811152 0.68195933
0000d0 c5 39 15 3e 8d 10 09 bf a6 7f 43 be c1 dd 0c 3e
       0.14572819 -0.5354088 -0.19091663 0.13756467
0000e0 7e dc 7d be 85 bd 58 3e 76 eb ac 3e 64 fa db 3e
       -0.24791142 0.21166046 0.33773392 0.4296447
0000f0 4f 65 15 bf 8d 43 23 bf 9f 6c 9c 3d f5 5f df be
       -0.5835771 -0.6377495 0.07637905 -0.43627897

encoder_variable_selection.single_variable_grns.VaccinationFull.fc2.bias f4 [8]
000000 87 61 85 bd 5e 67 49 bd 71 75 cd bd ce 96 0a bc
       -0.065127425 -0.049170844 -0.10032166 -0.008458806
000010 0c f9 8d 3d df 50 26 bc fb d9 00 bd 52 d6 15 3d
       0.069322675 -0.010151117 -0.031457882 0.036581345

encoder_variable_selection.single_variable_grns.VaccinationFull.gate_norm.glu.fc.weight f4 [32, 8]
000000 35 be a0 3d d5 38 88 3e b2 6c 85 3e 27 72 c1 3e
       0.07848779 0.2660586 0.2605949 0.37782404
000010 74 bb bf be 4b 82 da 3e e9 97 61 bd b6 4f b0 bc
       -0.37447703 0.4267753 -0.055076513 -0.021522384
000020 95 f8 e7 be cc dc 3c 3e 2c 59 93 be e9 24 2a 3b
       -0.4530684 0.18443602 -0.2877897 0.0025961942
000030 ba 51 b8 3e 81 01 91 be 10 2f 33 3e e3 4e eb be
       0.35999852 -0.2832146 0.17498422 -0.45958623
000040 50 15 a9 bc 1f cc 73 3e 2d 92 17 3e c1 16 da 3c
       -0.020640045 0.23808335 0.14801855 0.026622178
000050 e0 57 fe bd 18 4f fc 3e a5 fc 8d be 4e 24 cc 3e
       -0.124191046 0.49279094 -0.27731815 0.39871448
000060 1b 1e 5c be bc 99 21 be b3 cb 11 3e 50 16 c9 3e
       -0.2149586 -0.15781301 0.14237861 0.39274836
000070 62 20 e2 be 25 8d b3 3e d0 8a ae 3d cb d3 9c 3e
       -0.4416533 0.35068622 0.0852257 0.30630335
000080 5b 62 5d 3e be d4 20 be 52 b5 98 3e d0 b5 d3 be
       0.21619551 -0.15706155 0.29825836 -0.4134965
000090 25 43 88 3e bd f2 91 bd d4 5f bc be d3 d1 19 3d
       0.26613727 -0.07126377 -0.3679186 0.03755362
0000a0 d3 5d 89 3e 06 59 cc 3e 40 00 5b 3e 84 4c 38 be
       0.26829395 0.3991167 0.21386814 -0.17997938
0000b0 e8 02 64 be ab ca b2 3e 93 f4 27 bd 51 05 e3 3e
       -0.22266734 0.34920248 -0.04100473 0.44339994
0000c0 c4 64 88 bd 3a 37 58 3e 4f ba e3 3d 0b 10 e0 bd
       -0.066598445 0.21114817 0.1111952 -0.1094056
0000d0 f2 c5 98 3c 43 78 be bc 50 37 42 3e 3a 1e 3d 3d
       0.018649075 -0.023250705 0.18966413 0.046171404
0000e0 e5 a1 a9 be ba 8d 65 3e 8f 6d e6 3d 1e a0 eb be
       -0.33131328 0.22417346 0.112513654 -0.46020597
0000f0 23 f0 dc 3e dd d2 cc be 27 45 bc 3e 49 f3 f1 be
       0.4315196 -0.40004626 0.3677151 -0.47255924
000100 58 5b 0d bc 20 29 9b 3e 6a a8 b1 bd 15 e5 86 be
       -0.008627735 0.30304813 -0.086747006 -0.2634665
000110 0d 0d b9 be 4f 3f 79 3e ac 2f cc 3c 33 7a c4 3e
       -0.3614277 0.24340557 0.024925075 0.3837448
000120 af a1 28 3c 6c 73 b6 bd 9f 8c 8b 3e e9 c2 ca be
       0.010292455 -0.08908734 0.27255723 -0.3960183
000130 2f da 6a bd a3 13 c5 be 87 e2 0f bf 67 b2 8d be
       -0.057336982 -0.38491544 -0.5620503 -0.27675173
000140 d3 49 24 be 7a 8b 8c be 60 01 4d 3e dd 71 f4 be
       -0.16043787 -0.27450162 0.20020056 -0.4774312
000150 b4 4a 8a 3e 76 18 a0 bd 53 06 a4 3b fd 7a fb bd
       0.2701012 -0.078171656 0.0050056367 -0.122793175
000160 b2 eb 87 be 9e 23 7b be 07 f5 d5 bc 0d f8 ee 3d
       -0.2654701 -0.24525306 -0.026117815 0.11668406
000170 dd e2 5d 3c 5b 47 86 bd f6 77 5d be 05 3b ee 3d
       0.013542858 -0.06556579 -0.21627793 0.11632351
000180 35 22 5c be 21 a8 37 3e 19 3c 4f be 7e f5 e8 be
       -0.21497424 0.1793523 -0.20237769 -0.45499796
000190 b2 84 19 3e e5 62 81 be 86 22 87 be 21 eb 8b be
       0.14992025 -0.25270763 -0.26393527 -0.27327827
0001a0 8a 39 b6 3e 73 5f bb be f6 f2 7a 3d 77 0c a9 3e
       0.35590774 -0.3659626 0.06126686 0.33017322
0001b0 2d 4c 32 3e 8e b4 7f 3e c1 61 c5 ba f8 3c 28 be
       0.17411871 0.2497122 -0.001505904 -0.16429508
0001c0 43 b8 47 be e5 54 2b 3e 71 5c 31 be 59 c9 ed 3d
       -0.19503884 0.16731603 -0.1732042 0.1161067
0001d0 a3 45 74 be fe dd 17 3d 8a 3f 9a bd 3a 1e e3 3d
       -0.2385469 0.037076943 -0.0753165 0.1108975
0001e0 87 a9 9b be 2f a5 99 bd 09 b0 ac 3d 0d e4 f6 ba
       -0.30402777 -0.075022094 0.084320135 -0.0018836275
0001f0 97 cb 4d 3e 0b 63 f1 bd 3c bc ca 3e 0b 8d 8d bd
       0.20097195 -0.11786469 0.39596736 -0.069116674
000200 26 8f 48 3e 37 cd 6f be f3 b5 99 3e 10 dc c4 bd
       0.19585857 -0.23418127 0.3002163 -0.09612286
000210 7b 18 03 3e ad 68 c0 3d c0 fd 15 be 46 74 ec be
       0.12802307 0.09394965 -0.14647579 -0.4618246
000220 f3 43 cf bd 87 be 57 3b 6c 09 af 3e 88 e0 b0 3a
       -0.10120382 0.003291996 0.34186876 0.001349465
000230 e6 98 0b 3e 1b 97 85 3e cf 58 a1 bd a7 29 f4 bd
       0.13632545 0.26091847 -0.07878267 -0.11922007
000240 bc c2 e3 3e eb 94 ac 3e ef f2 0f bd 0f a7 9c 3e
       0.44484508 0.33707365 -0.03514379 0.30596206
000250 15 e6 cc 3c ac 63 aa 3e 6a 82 53 3d ba 3e a3 3e
       0.025012055 0.3327917 0.051638044 0.31883794
000260 e5 e6 a2 bd 7b e9 25 3e a9 43 85 3e bc 4f f2 3d
       -0.07954196 0.16202347 0.26028183 0.118316144
000270 a1 ea e0 3d b2 9e 8c be d5 5a 0f bd f6 17 86 be
       0.10982252 -0.27464825 -0.034998734 -0.26190156
000280 8e 2a 06 be fc 23 3b be 46 58 2e 3d 9d af dd 3e
       -0.13102171 -0.18275446 0.042564653 0.43298045
000290 26 0b e7 ba 35 98 80 3d 3c 88 e5 bc 77 83 11 3d
       -0.0017627224 0.06279031 -0.028019063 0.035525765
0002a0 c7 60 11 bd 16 8f e4 bd 45 b3 de 3e b1 28 33 bd
       -0.035492685 -0.11160104 0.43496147 -0.04373998
0002b0 cd cf e5 bd 60 26 8a 3c 62 d1 e9 be 5b f7 c8 bb
       -0.112212755 0.016864002 -0.4566756 -0.0061330027
0002c0 de e1 a5 3e 34 88 63 3e 02 68 35 be 42 08 38 3e
       0.32398885 0.22219926 -0.17715457 0.179719
0002d0 39 a9 e7 bd 7c dc 63 3e 79 57 f3 be af 38 80 3e
       -0.113115735 0.22252077 -0.47527674 0.25043246
0002e0 d9 5b b4 bc 4a 31 ec 3a 41 a5 10 3f 23 46 b7 bd
       -0.022016453 0.001802006 0.5650216 -0.089489244
0002f0 8e 72 23 bc 97 ed c2 be a2 e1 07 bf 50 05 3d be
       -0.009976042 -0.38071892 -0.53078663 -0.18459058
000300 10 52 26 38 67 03 06 3e b2 ad 11 3d a5 c3 b1 bd
       3.965391e-05 0.13087235 0.03556604 -0.08679894
000310 89 5d 8c be 10 d0 04 3e 9e c9 91 3e 00 5b 31 be
       -0.27415112 0.12969995 0.28474134 -0.1731987
000320 0f 60 9a 3e d4 0a e2 be 23 dd db 3e 53 94 23 be
       0.30151412 -0.44148886 0.4294215 -0.1597455
000330 b7 25 c2 3e 94 f4 e1 bd da 4c 3a be dd 00 ad 3d
       0.379194 -0.11032978 -0.18193379 0.0844743
000340 52 6c c3 bd c9 2c d6 bd e6 54 e7 3e 40 27 b7 be
       -0.09542145 -0.10457761 0.4518196 -0.35772133
000350 87 a7 42 3e a2 2d b5 be aa 43 96 bd 16 c2 30 be
       0.19009219 -0.35386378 -0.07337125 -0.17261538
000360 0b 41 1d 3e b2 cf 3a 3e a7 23 99 3e ce 68 92 3d
       0.15356843 0.18243292 0.29910013 0.07148896
000370 da 01 e4 bd 01 a1 59 3e 60 25 1d be 43 94 36 bd
       -0.11133166 0.21252824 -0.15346289 -0.044574987
000380 3f ab e5 3e 73 28 5c 3e e4 e5 5a be 9e ae 82 3e
       0.44857213 0.21499805 -0.21376759 0.25523847
000390 13 2e 4f 3e 1d cd 4f 3e 26 9d 93 be d2 f9 cc 3d
       0.2023242 0.20293088 -0.28830832 0.10008587
0003a0 c7 f7 19 be 50 63 b7 be 33 f8 74 be fb 52 4e be
       -0.15035926 -0.35817957 -0.23922805 -0.20148842
0003b0 cb e7 00 3e 62 b7 fb 3b ff 65 54 be f6 6e 08 3d
       0.12588422 0.007681773 -0.20742033 0.033308946
0003c0 71 84 e5 3e e0 d7 01 bd 52 f4 87 3d c1 53 24 3e
       0.44827607 -0.031700015 0.06638397 0.16047575
0003d0 b6 c8 35 bd 93 22 cd be c9 ab 87 3a 77 76 f8 be
       -0.044380866 -0.4006544 0.0010350879 -0.48527882
0003e0 b5 aa 9b be 18 36 c3 3e 5e 48 74 3e 12 50 bd 3e
       -0.30403677 0.38127208 0.23855731 0.3697515
0003f0 d5 43 5b be eb 93 99 be 93 30 f0 3e 15 e3 b8 be
       -0.21412595 -0.29995665 0.4691206 -0.3611075

encoder_variable_selection.single_variable_grns.VaccinationFull.gate_norm.glu.fc.bias f4 [32]
000000 d0 ba 22 be 8f 92 40 3e aa 40 61 bd 74 fc c8 bd
       -0.15891576 0.18805908 -0.05499331 -0.098137766
000010 ff 49 23 be 66 95 0e 3d fc c4 02 be 87 ba 31 3e
       -0.15946196 0.034810446 -0.12770456 0.17356311
000020 ed 25 6f 3c b9 35 88 3d 7d ac 80 3d e4 59 60 3d
       0.014596445 0.06650872 0.062828995 0.054773226
000030 dc 5e af bd 3e ff 19 be af 77 93 3d a5 ca 06 3e
       -0.08563015 -0.15038773 0.07200562 0.1316324
000040 f9 43 29 bd fe 4a b9 3d f4 09 02 be 5b c7 94 3e
       -0.04132459 0.09047507 -0.1269911 0.29058346
000050 f5 f6 4f 3e 76 06 d5 3c f4 5d 22 be dc 4f b4 3d
       0.2030905 0.026004057 -0.15856153 0.088042945
000060 91 f5 49 3d b9 ce 27 bd df df c4 bd c9 6b 5e be
       0.049306456 -0.04096863 -0.096130125 -0.21720804
000070 51 d8 1e bd dd 6f 9c bd 9f e5 5e bd 6a ae cb 3c
       -0.038780514 -0.07638524 -0.054418202 0.02486344

encoder_variable_selection.single_variable_grns.VaccinationFull.gate_norm.add_norm.norm.weight f4 [16]
000000 59 02 35 3f 80 f8 77 3f 6f 9d 80 3f 7b 52 57 3f
       0.7070671 0.96863556 1.0048045 0.8411023
000010 bd 4c 89 3f bd 3d 68 3f af 29 3d 3f 92 5b 1c 3f
       1.0726544 0.90719205 0.7389173 0.61077225
000020 88 af 72 3f 13 2f 59 3f fe 3a 74 3f 56 7b 4c 3f
       0.9479909 0.84837455 0.95402515 0.79875696
000030 bb 7b 4a 3f 2a b3 7b 3f 91 e4 60 3f 4b 84 37 3f
       0.7909505 0.9832026 0.87848765 0.7168624

encoder_variable_selection.single_variable_grns.VaccinationFull.gate_norm.add_norm.norm.bias f4 [16]
000000 c5 d4 c1 bd 88 1b 3d 3e 0a a9 74 bc 7c 23 c9 3d
       -0.09464411 0.18467534 -0.01493288 0.09821221
000010 0d 46 b4 bc e1 5a 63 bb f0 03 17 be fb bf 83 be
       -0.022006059 -0.003469162 -0.14747596 -0.25732407
000020 bd fb b9 bd 99 cc 14 bd 8d 1d ed 3c 8a 88 2f 3d
       -0.090812184 -0.036327932 0.028944755 0.042854823
000030 fd 36 6d bd c9 3a 9c bd 65 4f 40 3d 72 33 01 3e
       -0.05791377 -0.076284 0.046950717 0.12617281

encoder_variable_selection.single_variable_grns.Cases.resample_norm.mask f4 [16]
000000 34 e0 07 3e e2 93 a6 3d 4b 7f ea be 8f 02 5a 3d
       0.1326912 0.08133675 -0.45800242 0.053225096
000010 2d 72 f3 3c 0d 0a 24 3e b6 24 94 bd ee 6d d9 bd
       0.02971753 0.16019459 -0.072335646 -0.106166705
000020 8d 3b 22 bf 28 99 80 3e 80 8d 95 3e 48 9d 76 bd
       -0.6337212 0.2511685 0.29209518 -0.06020859
000030 8a 1f e0 be 0f a9 9b bd 6e ad ab 3e 48 fb 9d 3c
       -0.43774062 -0.07600605 0.33530754 0.01928486

encoder_variable_selection.single_variable_grns.Cases.resample_norm.norm.weight f4 [16]
000000 a9 ca 84 3f 6e 84 89 3f 85 55 0f 3f eb b9 80 3f
       1.0374347 1.0743539 0.5598987 1.0056738
000010 77 5e 75 3f c7 3a 93 3f 98 ca 8c 3f 5c 10 77 3f
       0.95847267 1.1502312 1.0999327 0.9650934
000020 62 13 e5 3e 35 a2 9d 3f af b4 a3 3f 5b 64 6c 3f
       0.4474135 1.2315127 1.2789515 0.9234063
000030 3e ce 05 3f d6 b4 66 3f 26 cd aa 3f 62 bd 8b 3f
       0.52267826 0.90119684 1.3343856 1.091717

encoder_variable_selection.single_variable_grns.Cases.resample_norm.norm.bias f4 [16]
000000 34 9b 2f 3e 80 1d 9a bc d3 ab 35 be 8f 38 24 be
       0.17149049 -0.018812895 -0.17741327 -0.160372
000010 32 f4 44 be e5 5e f7 bd 5f 70 2e be cf 7b 09 3d
       -0.19233778 -0.120786466 -0.17035054 0.03356534
000020 76 43 1a 3e 70 68 f5 3d 03 34 61 3d 9e 25 6b bd
       0.15064797 0.119828105 0.054981243 -0.05740892
000030 7b e6 87 bd 77 32 35 3e 0f 46 fa 3c dc 92 2d 3e
       -0.066357575 0.17695032 0.030550985 0.16950554
