race-groups/results/Asian/checkpoints/best-epoch=0.ckpt (torch, 735597 bytes, 506 tensors)

prescalers.Asian.weight f4 [8, 1]
000000 c4 80 09 3e 99 34 26 bf 9a 23 ee 3d df 8c 8a 3e
       0.13428026 -0.6492401 0.11627884 0.270606
000010 ac c5 99 be c4 f2 02 be 2d b3 fb be 54 5f ab 3e
       -0.30033624 -0.1278792 -0.49160138 0.33471167

prescalers.Asian.bias f4 [8]
000000 a3 6c c3 be 87 0f 67 3f 06 1a 4a 3f cc ac 64 bd
       -0.3816882 0.9025807 0.7894596 -0.055828854
000010 06 be cf be 5d 5a e3 be 50 5c 7f bc e3 01 b2 be
       -0.40574664 -0.4440488 -0.015585974 -0.34767064

prescalers.SinWeekly.weight f4 [8, 1]
000000 e5 fe 6b 3e 11 21 8d bf c3 62 84 3f c9 f8 41 bf
       0.23046453 -1.1025716 1.034264 -0.7577024
000010 06 e0 38 3f bf 04 3a be ac ec 38 3f 37 60 bd 3e
       0.7221683 -0.18165873 0.7223613 0.3698747

prescalers.SinWeekly.bias f4 [8]
000000 d2 c8 73 3d fa b5 c2 3c f5 86 24 3f d1 bd 82 3e
       0.05951769 0.023768414 0.6426843 0.25535443
000010 82 45 f6 3e 79 84 2b bf a7 67 3d 3f 95 91 a9 3e
       0.48099905 -0.6699901 0.73986286 0.33118883

prescalers.VaccinationFull.weight f4 [8, 1]
000000 06 ac 6c 3e c5 5f 4f bd af 01 11 3f a0 76 82 3f
       0.23112497 -0.050628442 0.56643194 1.0192451
000010 47 e8 0f be 11 37 22 bf 09 f4 e5 be 06 e9 3f bf
       -0.1405345 -0.63365275 -0.44912747 -0.7496494

prescalers.VaccinationFull.bias f4 [8]
000000 2b 8f 1b 3f 42 61 39 be f9 bd a5 be 5b f8 9c 3f
       0.6076533 -0.18103507 -0.323715 1.2263292
000010 48 ed 3b 3f 4b ec 0b be 0f f5 d4 be 7d 0c f8 bd
       0.7340894 -0.13664357 -0.41593215 -0.12111757

prescalers.Cases.weight f4 [8, 1]
000000 78 b8 1c 3f d2 dc 67 bf c4 69 5e bf e7 87 4b 3f
       0.61218977 -0.9057132 -0.86880136 0.79504246
000010 da b9 8e 3f 58 26 31 3e 6b 49 48 bf 71 17 43 3e
       1.1150467 0.17299783 -0.78237027 0.19051911

prescalers.Cases.bias f4 [8]
000000 06 1a 6e be 70 fd ef bc e7 16 04 3f dd e6 f9 3e
       -0.23252115 -0.029295653 0.51597446 0.48808947
000010 66 0a 86 bc 61 06 80 3c b2 bf b4 3d 13 9e 58 bf
       -0.01636238 0.015628042 0.088256255 -0.846162

static_variable_selection.single_variable_grns.Asian.resample_norm.mask f4 [16]
000000 56 96 01 3d 1c 06 42 be 1f 8c 6f 3e 08 8b 18 3d
       0.031637512 -0.18947643 0.23393296 0.037241966
000010 92 ac 0a 3e f2 b0 34 3a da 0b 6d be 4c 2a 88 be
       0.13542393 0.0006892822 -0.23149052 -0.2659477
000020 76 11 92 bd 02 f6 b4 bd fa fb eb bc 27 d4 e7 3d
       -0.07132237 -0.08835985 -0.028806675 0.11319762
000030 45 de a9 bc 19 a0 a9 bc 6f f4 a8 3c 68 94 33 3e
       -0.02073587 -0.020706223 0.020624368 0.17537081

static_variable_selection.single_variable_grns.Asian.resample_norm.norm.weight f4 [16]
000000 3d dd 8f 3f 6d f0 45 3f de 4e ad 3f db d7 86 3f
       1.1239392 0.77319986 1.3539693 1.0534624
000010 11 19 93 3f ee 07 8d 3f 4c 08 56 3f 7a 1d 4d 3f
       1.1492025 1.1018045 0.8360641 0.801231
000020 3f 22 7c 3f 1a 0c 81 3f 51 46 84 3f a3 da 95 3f
       0.98489755 1.0081818 1.0333959 1.1707348
000030 dc 84 7b 3f a3 53 82 3f 29 16 86 3f 4c e8 99 3f
       0.982496 1.0181774 1.0475513 1.2024016

static_variable_selection.single_variable_grns.Asian.resample_norm.norm.bias f4 [16]
000000 cf 6b 44 3d a6 b2 14 bd 9e 57 4a 3e 98 f3 16 bd
       0.047954377 -0.036303185 0.19759986 -0.036853403
000010 e0 23 f7 3d ad 24 c5 3d b8 b7 da bd a9 5d 08 be
       0.120673895 0.09626136 -0.10679573 -0.13316979
000020 4f ed 27 bd a6 09 88 bd 4f c9 3c bd e7 76 18 be
       -0.0409978 -0.06642465 -0.04609042 -0.14889108
000030 ed 64 02 3d 8d 69 27 bd 5f 22 96 bd 73 26 7e 3d
       0.03183453 -0.040872145 -0.073307745 0.062048387

static_variable_selection.single_variable_grns.Asian.fc1.weight f4 [8, 8]
000000 85 07 c5 3e 97 71 00 bf 67 1d ff be bc 79 de be
       0.384823 -0.50173324 -0.4982712 -0.4345225
000010 9e b2 9a be 4c 26 b4 bf 5f 6c 5e 3e 51 04 fd be
       -0.302144 -1.4074187 0.21721028 -0.49417356
000020 a0 a1 4a be 3a 12 90 bf 23 c7 5c be 33 78 2a 3f
       -0.19788218 -1.1255562 -0.2156034 0.6658966
000030 7a 04 69 be 36 40 bc be 8a c1 1a 3f 08 93 3c 3e
       -0.22755614 -0.3676774 0.6045157 0.18415463
000040 d3 b0 81 3e e6 50 9b 3e 76 bc 1c 3f bd a0 13 be
       0.2533022 0.30335158 0.6122507 -0.14416786
000050 dd 4d 86 3c 79 7b 60 be fd 58 67 3e fe f2 84 be
       0.01639455 -0.21922101 0.2259254 -0.25966638
000060 13 31 73 bf 0a eb 53 3e b6 2c cf bd 78 6d 0d bf
       -0.94996756 0.20695129 -0.1011595 -0.5524516
000070 a0 74 d1 bd 2c 17 4e 3e de 93 d9 3c f2 c6 c3 3e
       -0.102273226 0.20126027 0.026559766 0.3823772
000080 ee 33 18 bf 60 a3 ff 3e 5f af 52 3d d8 20 33 3d
       -0.5945424 0.49929333 0.05143678 0.043732494
000090 35 6a 14 bf 4b e7 36 3f cf ff ce 3d bd bb c0 3d
       -0.5797456 0.71446675 0.10107385 0.09410808
0000a0 6a 99 38 3c 4e 2d bf 3c 85 51 fa bd 0f 2b 89 3d
       0.0112670455 0.023337033 -0.1222258 0.06697666
0000b0 96 c6 b2 3e de 11 01 bf d6 e1 4b 3d 06 0b 8f be
       0.34917134 -0.5041789 0.04977592 -0.27938098
0000c0 3c 8d 02 3d 0d df 57 bf e2 03 31 be 07 c6 b9 3e
       0.031872973 -0.84324723 -0.17286637 0.36283895
0000d0 e2 48 85 3e ce 45 a4 3f bb c7 6a 3e 04 af b4 3c
       0.26032168 1.2833803 0.22927754 0.02205611
0000e0 1e ad ea be f8 11 30 bf 1e 35 dc bd 06 46 f0 3e
       -0.45835203 -0.6877742 -0.10752319 0.46928424
0000f0 5c da 4b 3c 7f ce e3 be aa 87 8d 3e 2a 68 51 3e
       0.012442198 -0.44493482 0.27642566 0.20449892

static_variable_selection.single_variable_grns.Asian.fc1.bias f4 [8]
000000 4a fb 1a be 10 39 1d bd 7c 75 ef bd 72 73 51 3d
       -0.15134922 -0.038384497 -0.1169233 0.051135488
000010 a0 59 8e 3e f5 b1 23 3e 74 72 8a 3d ea 1e 20 bd
       0.27802753 0.15985854 0.067601115 -0.039091982

static_variable_selection.single_variable_grns.Asian.fc2.weight f4 [8, 8]
000000 d3 85 58 3b 45 38 80 3f 3b 51 2d 3a 3e d7 d4 be
       0.003303875 1.0017172 0.00066115306 -0.41570467
000010 41 bb ab bc e0 b6 02 bf 98 e6 41 3f 39 9c 91 3f
       -0.020963313 -0.51060295 0.75742483 1.13758
000020 70 98 a9 be de aa 1c bf b6 54 f7 3e 3d 14 09 bd
       -0.33124113 -0.6119822 0.48306817 -0.033466566
000030 86 9f 3a 3e fa 42 38 3d 5c 80 c1 3d 2b ac 93 3d
       0.18224916 0.04498575 0.09448311 0.07210573
000040 44 e1 44 be 07 4a 71 3e e5 36 20 bd f2 79 0b 3c
       -0.19226557 0.23563395 -0.03911485 0.008512961
000050 a5 ac 9e 3e 78 9c d2 be a8 92 8c be 2b 66 11 3f
       0.30991092 -0.41135 -0.2745564 0.5679652
000060 6e a4 35 3f 5f b6 55 bc cf b8 a9 3e 62 5c ae be
       0.70954025 -0.013043969 0.3314881 -0.34054857
000070 93 12 d2 bd 73 3d 46 be 84 23 19 3f 16 3d 36 bf
       -0.10257449 -0.19359379 0.5981982 -0.7118696
000080 39 fe bd 3e 5f 7f 95 be 7e 49 a3 3e 88 68 0a 3e
       0.3710802 -0.2919874 0.31892008 0.13516438
000090 90 c3 bf 3e 2c 8f 88 3d aa 06 d6 3e b5 98 c2 3d
       0.3745389 0.06667933 0.4180196 0.09501783
0000a0 3e 52 9a 3e 19 94 1e be b8 3a b8 be a0 0f c0 bd
       0.3014087 -0.15486182 -0.359823 -0.0937798
0000b0 b6 b6 85 3e fe 7f 1e be 60 3d 31 bf a7 7e 24 3e
       0.2611596 -0.15478513 -0.69234276 0.16063939
0000c0 db 01 28 bf 0f 55 5d bc 74 db 0a 3e 37 21 da bd
       -0.6562783 -0.013509049 0.13560277 -0.106508665
0000d0 cb 98 68 3e c8 c4 27 3e 2a 62 1d bf 2c 26 ba be
       0.22714536 0.1638366 -0.6147791 -0.36357248
0000e0 8e fe 02 3d b0 62 2e 3e b8 d8 f6 be 4a 43 01 be
       0.031981044 0.17029834 -0.48212218 -0.12623325
0000f0 28 36 85 3e 5f 7b ad 3d 33 65 dc 3d 05 e0 11 bf
       0.2601788 0.08470797 0.1076149 -0.5698245

static_variable_selection.single_variable_grns.Asian.fc2.bias f4 [8]
000000 89 08 c6 3d 91 b8 1d 3e 5f 22 00 bd db 47 c3 3a
       0.09669597 0.15402438 -0.03128278 0.0014898734
000010 92 43 1b 3e b8 3b a9 3d 1c e6 42 3e e7 60 89 3d
       0.15162495 0.082633436 0.19033092 0.06707936

static_variable_selection.single_variable_grns.Asian.gate_norm.glu.fc.weight f4 [32, 8]
000000 58 b7 c1 3c e7 52 8c 3e 04 b8 df bd 7a 92 80 be
       0.023646995 0.27407 -0.1092377 -0.25111753
000010 01 8a 83 3c 0c 2c 00 bf 62 80 d0 be f2 b8 44 3e
       0.016057016 -0.5006721 -0.40722948 0.19211176
000020 33 5e 3f be ea a4 8e 3e 45 e1 9b be 39 d5 ba 3e
       -0.18688278 0.27860194 -0.30445305 0.364908
000030 62 02 ed 3c 69 b4 9f 3e fc 37 11 be b7 19 d4 bd
       0.0289318 0.3119233 -0.14181513 -0.10356467
000040 d2 62 1c 3e 1d 08 21 3e a7 41 ab be 8e e3 69 3c
       0.15272072 0.15725751 -0.33448526 0.014275445
000050 8e b9 16 3e 62 d4 ec bd 5d ee 96 3d 96 dd 51 3d
       0.14719221 -0.11563946 0.07369683 0.05123671
000060 ed 8e 5e be 96 07 d9 3d f9 3b cc be 96 0e 71 be
       -0.2173421 0.1059715 -0.39889506 -0.2354072
000070 23 8f 45 3e 6e 05 08 be 7a db 2a be a7 af ac 3e
       0.19292884 -0.13283321 -0.16685286 0.33727762
000080 58 51 a1 be da fb b2 bd 43 8d 4c 3e 2d 68 e9 bd
       -0.31507373 -0.08739443 0.19975762 -0.11396823
000090 dc a0 7f 3e 75 76 22 be a4 55 1c be d7 42 b1 3d
       0.24963707 -0.158655 -0.15267044 0.08655327
0000a0 40 37 0b 3f 8b 51 cd be d1 75 33 be 79 df 52 3c
       0.5438118 -0.40101275 -0.17525412 0.012870663
0000b0 e1 5b b0 be 69 7e 8d be 68 e5 01 be ff ba ee bc
       -0.34445098 -0.27635506 -0.12685168 -0.029141901
0000c0 78 ef d7 be 75 75 60 3e 48 9f f3 bd 62 31 55 3c
       -0.42174888 0.21919806 -0.11895615 0.013012262
0000d0 a9 7a 96 3e 47 52 63 be a4 4c 86 3e 39 81 79 3e
       0.29390457 -0.22199355 0.26230347 0.24365701
0000e0 84 d9 2b 3e 0d 20 ac 3e 9a 94 bc bd 16 4b 35 3e
       0.16782194 0.33618203 -0.09208031 0.17704424
0000f0 5c 04 2d be 59 be af bd de c8 c9 3d 90 bc 01 3d
       -0.16896194 -0.08581228 0.098527655 0.031673968
000100 1b ff 90 be 0d c7 23 be 22 5b 30 3e d3 bf 46 3e
       -0.2831963 -0.159939 0.17222264 0.19409113
000110 2f 7e 6b 3e c0 4b 3f 3e c4 27 4d 3e e5 f1 ff 3d
       0.22997354 0.1868124 0.200347 0.124973096
000120 c6 78 a4 3e c6 1f 30 be ba 9d 33 3c 07 33 09 bb
       0.32123393 -0.1719962 0.010962898 -0.0020934956
000130 d5 40 26 be d2 2d 11 be 72 65 b5 be 70 71 5d be
       -0.16235669 -0.14177635 -0.3542896 -0.21625304
000140 7b e1 90 be 4d 1c b2 3d e6 3e 34 3e a2 6e 58 bd
       -0.28297028 0.08696804 0.17602119 -0.052839883
000150 a1 2e 71 be d6 06 ca bd 11 40 e1 3d 15 e4 52 3e
       -0.23552944 -0.09864585 0.10998548 0.20594819
000160 05 63 f1 bd f4 3e 1a 3d 34 ce 76 3e 75 b4 cb be
       -0.117864646 0.037657693 0.24102098 -0.39786115
000170 eb de 61 3e 07 ab 91 bd be f2 5d 3d 9a 6e b5 3e
       0.22057693 -0.07112699 0.054186575 0.35435945
000180 d9 c2 19 bf 7c dd 2d 3f 8a 25 be 3d 87 14 6b 3e
       -0.6006294 0.67916083 0.09284504 0.2295705
000190 bd 02 8b 3e 2e bf 55 3e 7d cf 1b 3f 5c 1a 43 3d
       0.27150527 0.2087371 0.60863477 0.04763256
0001a0 b8 cf 9f be 51 6c 7f be 41 05 2c 3e d7 d0 75 3e
       -0.31213164 -0.24943663 0.16798879 0.24005447
0001b0 4f 1a be bd 28 bd a4 3c 7f b4 ff 3d 49 5f 01 3d
       -0.09282362 0.020109728 0.12485599 0.03158501
0001c0 a3 8b 9e be 46 a6 e9 3e 0b 58 49 be ee 4f 92 3d
       -0.3096591 0.4563467 -0.19662492 0.07144152
0001d0 5d 5c 87 bd 2f bb 43 3e 55 52 c9 3e d3 21 be 3c
       -0.06609414 0.19114374 0.39320627 0.023209488
0001e0 97 3d 6e 3d 98 66 e7 bd 7f bf a0 bd 0e 39 37 3e
       0.058164205 -0.11298865 -0.07849025 0.17892858
0001f0 d3 f1 3e 3c 9a e1 61 3e 80 9b ed bc 21 5b 9c be
       0.011654335 0.22058716 -0.029004812 -0.30538276
000200 48 fe af be 43 17 89 be 8a f0 21 3e 01 df 22 3e
       -0.3437369 -0.2677556 0.15814415 0.15905382
000210 bd 33 a7 3d 0d db 65 be 63 4d 30 3b fb 31 d8 bd
       0.08164165 -0.22446842 0.0026901595 -0.10556408
000220 26 49 11 3f c2 56 dd be f5 e3 d6 be c6 9e d1 3c
       0.5675224 -0.43230253 -0.41970792 0.025588404
000230 66 cc 97 bd 1c 1d d5 be be 98 0b be 42 3d 33 be
       -0.07412033 -0.4162377 -0.13632485 -0.17503837
000240 09 79 b2 bd c8 2c 0d 3e 9d 58 9f be 3e df ea 3d
       -0.08714492 0.13786614 -0.31122294 0.11468361
000250 52 93 08 be 63 d3 1a 3e 8f a1 7c 3e c3 30 2c 3f
       -0.13337448 0.151197 0.24671005 0.67261904
000260 46 c1 0a be 50 2d 9b 3e 8b 56 b4 be 78 c5 ec bd
       -0.1355029 0.30308008 -0.35222277 -0.11561102
000270 1f dd 2a be 5c eb d4 3d eb 7b 84 be ae ea c0 3e
       -0.16685914 0.10396454 -0.25875792 0.37679046
000280 87 08 99 bd ec 72 93 be a6 28 3b be 50 39 e4 3b
       -0.074723296 -0.28798616 -0.18277225 0.00696484
000290 c1 e7 7d bd 1e 23 bf bd 71 1b b2 bd bd 94 88 3e
       -0.061988596 -0.0933287 -0.0869664 0.26675978
0002a0 9f f9 1e 3f a4 e8 dc bd 8e b4 f2 3e 69 13 ed bd
       0.6209964 -0.1078656 0.47403377 -0.11575968
0002b0 69 50 5f 3d 0a 06 ac 3d 79 24 cd be ce 93 f2 3e
       0.054520044 0.08399589 -0.4006689 0.4737839
0002c0 02 9f dd 3e 57 e9 58 3c c2 fb d0 bd 58 f5 28 bd
       0.43285376 0.013239226 -0.10204269 -0.041249603
0002d0 6d 04 0b bf 13 e5 61 be 1c 51 44 be f2 8b 37 be
       -0.5430363 -0.22060041 -0.19171566 -0.17924479
0002e0 75 f4 de bd ee ea 97 3e 20 f9 0e 3e ac 5e 68 3e
       -0.1088647 0.29671425 0.13962221 0.22692364
0002f0 14 48 01 3e 3a 81 55 bd 93 32 47 3c 64 e2 92 be
       0.12625152 -0.052125193 0.012158054 -0.28688347
000300 eb 12 a5 3d 5a 25 01 3d ba 7a 8e bc 29 76 96 3d
       0.08060249 0.03152976 -0.017392505 0.07346756
000310 c0 b5 d3 bd 14 e2 f1 3d c6 c3 89 be c7 c2 bb 3e
       -0.103374004 0.11810699 -0.26907176 0.3667204
000320 e2 09 78 be c3 90 69 3e ec 7d f4 3d 31 65 28 be
       -0.2422252 0.22809128 0.1193808 -0.16444851
000330 41 05 34 3f 33 9b 40 3c 82 20 a8 3c 52 69 ac 3e
       0.70320517 0.011755752 0.020523313 0.33674103
000340 2f 46 50 3e c1 f7 15 be d4 0b 45 bd 21 f2 35 3e
       0.20339273 -0.14645292 -0.048106983 0.17768146
000350 ce 7d 85 be df ab 91 be 78 e8 21 3e 2a db 17 be
       -0.26072544 -0.2845144 0.15811336 -0.14829698
000360 c6 98 92 be 3f 34 a7 3e 21 e6 87 3e 5a c2 54 3e
       -0.28632182 0.32657048 0.26542762 0.20777264
000370 23 f9 16 be a2 5e 92 3d 1e a0 8d 3e a2 26 6a 3e
       -0.14743476 0.07146956 0.27661222 0.228663
000380 9b 04 17 3e 99 aa bd bd e5 18 09 3f 1b a9 06 bf
       0.1474785 -0.092610545 0.5355361 -0.52601784
000390 88 7c 9b be ba 22 97 3e ba ea a4 be 7e ff dc 3d
       -0.30368447 0.29518682 -0.32210332 0.10790919
0003a0 ef 84 af be 05 f8 09 bb 66 f3 1f bf 16 a1 69 be
       -0.34281108 -0.0021052372 -0.6248077 -0.22815356
0003b0 7a af f4 3d 0d 41 34 3e 82 fa 56 3e fe 29 75 3e
       0.11947532 0.1760294 0.20993999 0.239418
0003c0 6e 9b da 3e 7c f3 8e be 39 ae 43 bd f7 78 0f be
       0.42696708 -0.2792014 -0.047773574 -0.14010988
0003d0 da 41 b5 3d 5b 7c c1 be 1a a1 7c be bd ef 8a 3e
       0.08850451 -0.37790188 -0.2467083 0.2713603
0003e0 db b2 dc bd a9 69 59 be da 46 01 bf 8e 55 63 be
       -0.107763015 -0.21231712 -0.50498736 -0.22200605
0003f0 f4 eb 5d 3e fb 49 f0 be 44 da 85 bd f6 26 0b 3f
       0.2167204 -0.46931443 -0.065357715 0.54356325

static_variable_selection.single_variable_grns.Asian.gate_norm.glu.fc.bias f4 [32]
000000 fe 7d ee 3c 74 a5 91 bd c8 0b 37 3e 15 e5 87 bc
       0.029112812 -0.07111636 0.17875588 -0.016588727
000010 37 4f ee 3d 3e 99 3c 3e e7 35 13 be 3a ad d7 bd
       0.11636203 0.18417832 -0.14376031 -0.10531087
000020 d9 b6 2c bd f7 21 fa bd c9 36 85 bd 91 b2 ec bd
       -0.042166565 -0.122135095 -0.0650459 -0.11557496
000030 ab 5b 1d 3d 90 ba 90 bd fb 63 15 bd 5f f3 ac 3d
       0.0384175 -0.07066834 -0.036472302 0.08444857
000040 98 35 06 be 93 75 82 be 43 74 f6 be 5d e7 80 be
       -0.13106382 -0.25480327 -0.48135576 -0.25176516
000050 ef e3 a6 be e4 c9 fb bb 18 95 25 3e 00 c2 34 be
       -0.32595775 -0.0076839793 0.16170156 -0.1765213
000060 16 97 6a be d5 46 a1 bd ac 2c 93 be 2b c1 52 be
       -0.22909197 -0.07874838 -0.2874502 -0.205815
000070 55 00 91 3e 30 c6 8d be cd 9e 61 bd 94 61 d8 be
       0.28320566 -0.27690268 -0.055083085 -0.42261946

static_variable_selection.single_variable_grns.Asian.gate_norm.add_norm.norm.weight f4 [16]
000000 57 7b 81 3f 54 d2 54 3f 22 88 a9 3f e0 cf 80 3f
       1.0115765 0.83133435 1.324467 1.0063438
000010 04 6c 90 3f 45 9a 9c 3f 79 a1 52 3f f5 f0 3d 3f
       1.1282964 1.2234579 0.8227764 0.74195796
000020 bb ce 58 3f 16 e7 82 3f 94 ab 81 3f 0d c2 90 3f
       0.84690446 1.0226772 1.0130486 1.130922
000030 31 da 91 3f 09 50 77 3f 92 dd 82 3f b4 c4 91 3f
       1.1394712 0.966065 1.0223868 1.1388154

static_variable_selection.single_variable_grns.Asian.gate_norm.add_norm.norm.bias f4 [16]
000000 ce e4 c4 3d ae 63 8c bd 39 6f 5e 3e c2 de 4d 3b
       0.096139535 -0.0685495 0.21722116 0.0031413292
000010 91 78 30 3e 2a 15 59 3e c4 f6 d7 bd ed 36 e5 bd
       0.17233492 0.2119948 -0.10545114 -0.11192117
000020 e4 65 06 be ef 9d b0 bd de 8b e2 bd 37 f0 4b be
       -0.13124806 -0.086238734 -0.11061834 -0.19915853
000030 a3 c9 7c bd d0 ae 49 bd 54 ed d3 bd fc 63 0f 3e
       -0.061715733 -0.04923898 -0.10348001 0.14002985

static_variable_selection.prescalers.Asian.weight f4 [8, 1]
000000 c4 80 09 3e 99 34 26 bf 9a 23 ee 3d df 8c 8a 3e
       0.13428026 -0.6492401 0.11627884 0.270606
000010 ac c5 99 be c4 f2 02 be 2d b3 fb be 54 5f ab 3e
       -0.30033624 -0.1278792 -0.49160138 0.33471167

static_variable_selection.prescalers.Asian.bias f4 [8]
000000 a3 6c c3 be 87 0f 67 3f 06 1a 4a 3f cc ac 64 bd
       -0.3816882 0.9025807 0.7894596 -0.055828854
000010 06 be cf be 5d 5a e3 be 50 5c 7f bc e3 01 b2 be
       -0.40574664 -0.4440488 -0.015585974 -0.34767064

encoder_variable_selection.flattened_grn.resample_norm.mask f4 [3]
000000 54 32 1a bf 79 0a 9c 3e e1 5e 17 3e
       -0.60233045 0.3047674 0.14782287

encoder_variable_selection.flattened_grn.resample_norm.norm.weight f4 [3]
000000 99 95 29 3f e0 6e 45 3f 3a 1f 5f 3f
       0.6624389 0.77122307 0.8715702

encoder_variable_selection.flattened_grn.resample_norm.norm.bias f4 [3]
000000 19 1e 4a 3d bb d4 5c be 6e e6 9b 3d
       0.04934511 -0.21565525 0.0761231

encoder_variable_selection.flattened_grn.fc1.weight f4 [3, 24]
000000 b3 2e d5 3e 80 9f 62 be ad d0 f1 3d fc 96 0b bd
       0.4163719 -0.22131157 0.1180738 -0.034079537
000010 2f 04 83 ba d7 ff 3a 3e 26 00 72 be f8 26 5f be
       -0.0009995754 0.18261658 -0.23632869 -0.21792209
000020 4c 13 0f bf 26 8b 91 3e 38 de 8f 3e c9 44 b0 bf
       -0.5588882 0.28426474 0.28099227 -1.3770992
000030 d4 9f 56 be d5 9b 06 be 1a 8f 8b 3e 80 07 a9 bd
       -0.20959407 -0.13145383 0.27257615 -0.08253384
000040 1a 74 c0 3e ff 17 0c bf 6c d8 db 3e e2 7e 27 be
       0.37588578 -0.54724115 0.42938554 -0.16356996
000050 d3 0b 86 bd 52 33 0e bf c6 18 89 3e eb cb 7f 3e
       -0.06545224 -0.5554706 0.26776713 0.24980132
000060 99 ae dd 3d 83 dd 59 3e 90 75 82 be 6c 36 5e be
       0.108243175 0.21275906 -0.25480318 -0.21700448
000070 03 ca 70 3e 72 50 77 bd 1d 1a 5f 3e eb cb 39 3f
       0.23514561 -0.060379453 0.21787305 0.7257678
000080 9b 11 e3 3d 96 07 90 bc ee 47 e5 be c5 59 3e 3e
       0.11087342 -0.017581742 -0.4478144 0.18588932
000090 7e 1f 2b 3d f0 8e 99 be 32 80 e3 be e6 5d 20 be
       0.04177808 -0.29991865 -0.44433743 -0.1566082
0000a0 f4 2c e4 bd de 5a 2b 3e b6 18 a5 be f7 5d 91 be
       -0.11141387 0.16733882 -0.32245415 -0.28392002
0000b0 c1 7f 45 be 9f 81 72 3d d8 3b 04 3e 5d 43 1e be
       -0.19287015 0.059205648 0.12913454 -0.15455385
0000c0 9d f7 bb bd 52 b5 06 3e 73 da 7d bd e3 9d 2c 3f
       -0.09178088 0.13155106 -0.061975908 0.67428416
0000d0 d6 a9 d9 3e 07 74 89 bc cc e8 2b 3e de 73 06 3f
       0.42512387 -0.016778959 0.16788024 0.5252055
0000e0 20 78 e7 3e f9 e1 9c be ee 78 58 3e ea ec 99 3f
       0.45208836 -0.30641153 0.21139881 1.2025425
0000f0 fb 41 d0 3e 95 dd 22 bf e8 7d 21 bf fd 6a 04 bf
       0.4067534 -0.6361936 -0.6308274 -0.5172575
000100 97 55 77 3d ab da df 3e ac 11 a1 3d 87 7a 54 bc
       0.06038436 0.43721518 0.07864699 -0.012968666
000110 25 a8 9e be 29 00 40 3d b5 16 b5 be 0e 61 97 be
       -0.3098766 0.046875153 -0.35368887 -0.29566234

encoder_variable_selection.flattened_grn.fc1.bias f4 [3]
000000 6e e4 72 be d9 68 22 3d 7b d6 e5 3e
       -0.23719952 0.03965077 0.44890198

encoder_variable_selection.flattened_grn.context.weight f4 [3, 16]
000000 29 d3 f8 be f1 9d 9e bc 76 b3 1e bf 65 3f 6e bd
       -0.48598602 -0.019362422 -0.61992586 -0.058165926
000010 78 e7 dd 3e 2b 8a 15 bf 5e e0 e3 bc 0d e0 cb 3d
       0.4334066 -0.5841395 -0.027816948 0.09954844
000020 06 93 6e bd 8b df cf 3b 95 01 ba 3d a3 5e d4 3e
       -0.05824568 0.006343787 0.09082333 0.41478452
000030 ad 00 03 3f ae 7d e7 bd 27 33 f6 bd b2 ac fc be
       0.51172906 -0.113032684 -0.12021475 -0.49350506
000040 e8 4d c5 3e 07 7f 12 be 75 d1 fa 3e 35 bd 80 be
       0.38536 -0.1430627 0.48987928 -0.25144354
000050 73 76 32 be 94 13 0a 3f 0e eb 9c 3d 62 c0 ab bd
       -0.17427997 0.53936124 0.076620206 -0.083863035
000060 4a 7d 20 bd e2 af 93 bd 68 49 e2 be cd a5 78 3d
       -0.039181985 -0.07211281 -0.4419663 0.060704995
000070 d4 b2 63 3e 22 e1 bf bc d5 b4 b6 be 71 01 fa bc
       0.22236186 -0.023422781 -0.3568484 -0.030518265
000080 0a f3 03 3f 51 db 06 bf ae b5 60 3f 58 5e cc bd
       0.51542723 -0.526784 0.8777722 -0.09978932
000090 e6 04 a6 bd 0a 37 43 3f 3d 50 b7 3e 5c 7f ef 3e
       -0.08106403 0.7625586 0.35803404 0.46776855
0000a0 0f 10 54 bf 76 b6 27 3f 8e 25 08 bf 82 31 c9 be
       -0.82837003 0.6551279 -0.53182304 -0.39295584
0000b0 63 45 55 bd 1a c5 a9 3e b2 98 0e bf 0a 26 31 3f
       -0.052068125 0.3315819 -0.55701745 0.6919867

encoder_variable_selection.flattened_grn.fc2.weight f4 [3, 3]
000000 58 d6 a1 bf e2 52 41 bf af 7e 32 3e 02 c6 94 3e
       -1.2643538 -0.75517094 0.17431138 0.29057318
000010 7e f7 96 bf 9c a7 2a bf ac 95 37 be ec 67 90 bf
       -1.1794279 -0.66662 -0.17928189 -1.1281714
000020 1c 5b 9a bf
       -1.2059054

encoder_variable_selection.flattened_grn.fc2.bias f4 [3]
000000 2b 11 92 3e eb 1e 98 be b1 4d 2a be
       0.28528723 -0.2971109 -0.166312

encoder_variable_selection.flattened_grn.gate_norm.glu.fc.weight f4 [6, 3]
000000 8a 67 ee 3e 1d c2 da be 56 09 52 3f 06 8e 88 3e
       0.4656337 -0.42726222 0.82045496 0.26670855
000010 a8 bf 51 3f b9 bc 83 3f 65 6b ad be bc 82 05 bf
       0.8193307 1.0291969 -0.33870998 -0.5215261
000020 62 f0 1f be a3 b3 fd be 96 72 a6 be ed 69 05 3f
       -0.15619043 -0.49551114 -0.32509297 0.52114755
000030 40 df f6 3e a7 11 08 bf 6a 51 2e bf 7f c8 12 3f
       0.482172 -0.53151935 -0.6809298 0.5733718
000040 e1 18 82 be b5 b3 cb 3e
       -0.25409606 0.39785543

encoder_variable_selection.flattened_grn.gate_norm.glu.fc.bias f4 [6]
000000 45 84 68 3d 18 46 a7 be e7 41 55 3e aa da 73 be
       0.056766767 -0.32670665 0.20825921 -0.23813882
000010 ea 3c 7e 3e 5e f1 ed 3e
       0.24827924 0.4647321

encoder_variable_selection.flattened_grn.gate_norm.add_norm.norm.weight f4 [3]
000000 da 2f 1d 3f 0d e3 e8 bc bc d0 39 3e
       0.6140114 -0.028428579 0.18146032

encoder_variable_selection.flattened_grn.gate_norm.add_norm.norm.bias f4 [3]
000000 36 17 55 bd a6 79 05 bf 13 b8 b4 3e
       -0.05202409 -0.52138746 0.35296687

encoder_variable_selection.single_variable_grns.SinWeekly.resample_norm.mask f4 [16]
000000 e6 b5 70 3c ea d3 86 bd d0 41 3e 3e b2 02 ad 3d
       0.0146918055 -0.06583388 0.18579793 0.0844778
000010 91 dd 47 be c3 ac 62 bd ec 79 0b 3d 47 a0 fa be
       -0.19518115 -0.05534054 0.03405182 -0.48950407
000020 0e c9 19 be 57 1f c4 bd 69 93 7e be 53 ad e0 bd
       -0.15018103 -0.0957629 -0.2486092 -0.10970559
000030 e2 c1 75 be 98 fe de 3e 1f f0 8a 3d 77 6c da 3d
       -0.23999742 0.43553615 0.06784081 0.10665219

encoder_variable_selection.single_variable_grns.SinWeekly.resample_norm.norm.weight f4 [16]
000000 70 8a 80 3f 86 a9 69 3f 53 c9 b3 3f 3b a6 9c 3f
       1.0042248 0.912743 1.4045814 1.223823
000010 a1 7d 4a 3f 85 5a 75 3f ca f9 87 3f cc ea 11 3f
       0.79097944 0.95841247 1.0623105 0.56998897
000020 c2 0d 59 3f 5d 48 82 3f 35 e4 5d 3f d0 d3 73 3f
       0.8478662 1.0178334 0.8667634 0.95245075
000030 9c 7e 3f 3f d6 ad b3 3f ff bb 8b 3f ab 85 81 3f
       0.74802566 1.4037426 1.0916747 1.0118917

encoder_variable_selection.single_variable_grns.SinWeekly.resample_norm.norm.bias f4 [16]
000000 05 d9 a4 3d b6 b4 b5 bc 13 31 7a be 71 5c 00 3d
       0.08049206 -0.022180896 -0.24432783 0.03133816
000010 e2 e1 67 bd b8 cf 9a bd 5c c3 12 be 68 d8 46 be
       -0.056611903 -0.075591505 -0.14332336 -0.1941849
000020 b1 1a 60 bd 2b 07 8f bc 61 23 0c 3e e6 da 64 3e
       -0.054712955 -0.017459473 0.13685371 0.22349128
000030 51 ab 1e 3e 26 be 94 bd 48 b5 a0 3d 7b 6a cc 3d
       0.1549504 -0.072628304 0.07847077 0.09981247

encoder_variable_selection.single_variable_grns.SinWeekly.fc1.weight f4 [8, 8]
000000 32 1b 87 3f e6 47 b0 bf a7 f8 3c bf 41 46 ba bf
       1.0555174 -1.3771942 -0.73816913 -1.455269
000010 7d 3a 8a be b8 ff 2a be 75 59 bc 3e 4e b8 09 3f
       -0.26997748 -0.16699111 0.36787 0.5379685
000020 08 3d 4b 3d b5 e1 12 3e 76 af 3d 3e 98 e6 9d be
       0.04961875 0.14343913 0.18523964 -0.30839992
000030 d9 0d 4b 3e b5 28 25 3f aa dd 9d bb fd c3 0b 3e
       0.19829501 0.6451524 -0.004817684 0.13648982
000040 22 ad a4 3b d7 d8 20 be 59 66 97 be ca 33 2c 3e
       0.005025522 -0.15707718 -0.29570273 0.16816631
000050 bb b0 3f bf 91 15 ef 3e 32 39 79 3f 67 05 b8 3e
       -0.74879044 0.4669614 0.973529 0.35941622
000060 86 bd b7 3e f7 8e 9f 3c 6a 3f b4 be a4 7c 81 3d
       0.35886782 0.01947735 -0.3520463 0.063226014
000070 22 36 a5 3e 87 93 41 3e 1e 9d 8c 3e 21 fc 16 3f
       0.32267863 0.18903933 0.2746362 0.5897847
000080 fd b2 eb be fa 8c ad be 3d 0d 97 3f 52 75 8e be
       -0.46034995 -0.3389662 1.1800915 -0.27823883
000090 c7 3f 26 3e 30 a1 4c 3f cf 72 10 3f 63 35 73 bf
       0.16235267 0.7993345 0.56425184 -0.95003337
0000a0 2c 11 2c 3f 72 c3 a0 be 6a 7c 31 bf 46 f0 91 3c
       0.672137 -0.31399113 -0.69330466 0.017814767
0000b0 69 8d 60 3e e5 90 88 be 52 62 6a be 3e 31 29 3e
       0.21928944 -0.26673046 -0.22889069 0.1652269
0000c0 51 61 86 bf f5 25 90 bd 6b 10 c8 bf 15 a5 10 3f
       -1.0498449 -0.0703849 -1.563001 0.56501895
0000d0 b2 e1 35 bf 2e bf 23 3e 8f db 6b bf 55 d1 1d bf
       -0.7104751 0.15990898 -0.92131895 -0.6164754
0000e0 1b a2 de 3e 03 80 e7 3c b8 07 2c bf cc d8 8d 3e
       0.43483052 0.028259283 -0.6719928 0.27704465
0000f0 31 f0 60 3f 91 34 d2 3e 84 14 c3 bd ea 89 de 3e
       0.87866503 0.4105573 -0.095253974 0.43464595

encoder_variable_selection.single_variable_grns.SinWeekly.fc1.bias f4 [8]
000000 bb 71 03 bd 8d c3 64 3d 77 88 3b bd e1 d7 2a be
       -0.032090884 0.055850554 -0.04578444 -0.16683914
000010 59 82 cf bd c1 32 ab bd 35 5a 47 be 5f 82 28 3d
       -0.10132284 -0.0835929 -0.19468005 0.041139957

encoder_variable_selection.single_variable_grns.SinWeekly.fc2.weight f4 [8, 8]
000000 ba 45 91 bf b6 eb 83 3e a3 23 c2 be 90 a0 0b bf
       -1.1349404 0.2576577 -0.37917814 -0.54541874
000010 19 73 2a bf f6 e9 f5 3d d8 8a f4 3e 99 28 bf be
       -0.66581875 0.12007515 0.4776218 -0.3733566
000020 78 59 29 3e 79 a9 5a be 09 7a 92 3e 00 9f 97 3e
       0.16538036 -0.21353711 0.2860873 0.29613495
000030 7a 86 51 3d 24 10 c4 3e d5 1e 0f 3f 42 5b cc 3c
       0.051153637 0.38293564 0.5590642 0.024945859
000040 32 82 2c 3f 1a 81 db be 4e 4f f2 bb 05 4c 03 bf
       0.6738616 -0.42871934 -0.0073947078 -0.5128787
000050 48 fc 1f 3f 48 d7 8e bd dd f2 49 3f 38 87 e9 3e
       0.62494326 -0.069746554 0.78886205 0.45610976
000060 a9 f5 94 3e d4 5c 4f 3f 23 85 1d 3e 06 5f 46 3e
       0.29093674 0.8100102 0.15382819 0.19372186
000070 6b 36 a0 3d a6 9c 1b bf 12 05 35 3e e9 1b fe be
       0.078228794 -0.607859 0.17677715 -0.4963067
000080 67 86 97 bf 75 82 87 3f 5c d5 d2 bd f2 6e dd bc
       -1.1837891 1.0586687 -0.10294601 -0.027030442
000090 ea 54 70 be da 56 be 3e 3e 7b c2 bd 7a 5b 53 be
       -0.23469892 0.37175637 -0.09496163 -0.20640364
0000a0 86 b3 e7 3c ce 76 e0 be 10 db f2 bd 41 97 2e be
       0.028283846 -0.4384064 -0.11858189 -0.17049886
0000b0 01 37 4b bf 5e 8f 0b 3e 57 c4 b8 be e9 cd 9d bd
       -0.79380804 0.13628909 -0.36087295 -0.0770529
0000c0 55 05 ad 3e af 4d 21 3c 02 9b 39 be db 37 16 3c
       0.3379313 0.009845181 -0.18125537 0.00916859
0000d0 b1 2f 0d 3f fb 2c 31 be b6 ca de 3e d8 ba 7f 3e
       0.55150896 -0.17302315 0.4351403 0.24973619
0000e0 42 e2 03 3f 51 33 4d bd 6a a7 08 bc 97 f1 1e 3f
       0.5151712 -0.050097767 -0.008340696 0.62087387
0000f0 fd ec 0a 3f c0 a8 3f be 86 e9 6f 3f 1f 76 19 bf
       0.54267865 -0.18716717 0.93715703 -0.59945863

encoder_variable_selection.single_variable_grns.SinWeekly.fc2.bias f4 [8]
000000 a4 8b 56 bd 90 61 14 be 37 2f 8a 3d 7a 2a 0a 3e
       -0.052379265 -0.14490342 0.06747287 0.13492766
000010 97 69 3a bd 25 69 10 bd ae 49 cd 3c c8 33 56 bd
       -0.045510855 -0.035256524 0.025059547 -0.052295476

encoder_variable_selection.single_variable_grns.SinWeekly.gate_norm.glu.fc.weight f4 [32, 8]
000000 73 aa 26 3e 2a d7 15 bd 9a 8f 1c 3e 98 2c 0c bd
       0.16275959 -0.03658215 0.15289155 -0.034222215
000010 6f bc 22 be 1c 02 a8 be a3 ea 5f 3e 2c 23 a7 3e
       -0.15892194 -0.3281411 0.2186685 0.32644022
000020 69 62 27 be 57 f8 5c bd cd 45 17 3c 12 66 9c be
       -0.16346134 -0.053947773 0.00923295 -0.30546623
000030 f3 5a 60 3d b5 a8 52 3e 02 83 34 3e 87 4a 90 bd
       0.054774236 0.20572169 0.176281 -0.07045465
000040 af 76 2b 3f 09 50 fa 3e 97 61 c3 bd 23 37 15 be
       0.6697797 0.48889187 -0.09540098 -0.14571814
000050 11 3c 4d 3f ea 31 95 3c 75 94 cc be 17 f4 25 be
       0.8016978 0.018212277 -0.39957014 -0.16206394
000060 66 ea e0 3d c2 1d 81 bc 31 aa ef be 4b 3f da be
       0.10982208 -0.01576126 -0.46809533 -0.42626414
000070 e1 86 8f 3e bd c9 22 3e 47 6b d4 be 0a ac 05 3e
       0.28032592 0.1589727 -0.41488096 0.13053909
000080 ab 3b 52 3e 05 f5 47 3d 74 7f 11 3f 05 79 b3 3e
       0.20530574 0.048817653 0.56835103 0.35053268
000090 a6 f3 54 3e 75 b9 0e bf f6 b5 03 3f 9e 5a 2a 3e
       0.2079607 -0.55751735 0.51449525 0.1663613
0000a0 8b 14 e0 3d 7a e5 cd be f5 82 64 3e a4 63 e1 3d
       0.10941418 -0.4021414 0.22315581 0.11005333
0000b0 03 02 38 be 69 88 7a be 23 b6 86 be 49 ed 1b 3e
       -0.17969517 -0.24466099 -0.26310834 0.15227236
0000c0 cf 2c 01 be 42 01 ed be b4 c8 3f bf ba 25 24 be
       -0.1261475 -0.46290022 -0.74915624 -0.16030017
0000d0 2d 2d fd 3c a1 59 99 3d 8e be d7 be 2a 9c bb be
       0.03090533 0.074877985 -0.4213757 -0.3664258
0000e0 b0 55 6f be f4 ad 2e 3e c3 55 d9 3e 2d 12 e6 bc
       -0.23372531 0.17058545 0.42448243 -0.028084839
0000f0 d4 4d 5a bd de d3 78 be 26 98 b1 3d 41 a3 97 bc
       -0.05329688 -0.24299571 0.08671598 -0.018510463
000100 44 cb b3 3e 34 99 88 3e 6d cd 68 3d f0 29 e1 3e
       0.35116017 0.26679385 0.056836534 0.43977308
000110 60 7b 07 3e 94 90 9a be 69 83 b6 3e 59 3e 99 3e
       0.13230658 -0.3018843 0.35647133 0.2993038
000120 9b bc c7 bd fe 83 73 be 14 08 ee 3e bf 7f 2d 3e
       -0.097527705 -0.2378082 0.46490538 0.16943263
000130 39 82 9c be bd b4 78 be 78 54 93 3e 84 3f 2f 3e
       -0.30568102 -0.24287696 0.28775382 0.17114073
000140 29 4a 29 3e 5b c8 49 3e de e2 a5 bc 37 ca 81 bd
       0.16532196 0.19705336 -0.02024978 -0.063373975
000150 3a 00 1f be 2b 44 d1 3d 4f 66 ba 3e f0 c5 b3 3e
       -0.1552743 0.1021808 0.3640618 0.35111952
000160 ce 9c c3 3d a1 48 0f 3e e3 a0 bf 3c bc b6 38 be
       0.095513925 0.1399255 0.023392146 -0.18038458
000170 cd fb 1d be 0c cd cb be 09 42 cf 3e 3b 1c bd 3e
       -0.15428086 -0.39804876 0.40480068 0.369356
000180 d6 bc b2 3e a9 bc d6 3e 84 40 44 3e dd 2a 07 be
       0.34909695 0.4194081 0.19165236 -0.13199945
000190 25 83 a6 3e f7 6a fc be 38 76 6d 3d 6b 4d 39 be
       0.3252193 -0.49300358 0.05797407 -0.18095939
0001a0 07 eb 92 3e b7 2b 69 be 37 4e 86 be da 8b 80 be
       0.28694937 -0.22770582 -0.26231548 -0.25106698
0001b0 9a 3d 56 3e 03 9e bb 3e 07 73 25 bf 1e 8a ce be
       0.20921937 0.3664399 -0.6462864 -0.4033975
0001c0 21 e6 eb be 9a 69 1a be e6 6f 0f 3f fe 3e 5b 3e
       -0.46074012 -0.15079346 0.5603012 0.21410748
0001d0 28 6b 93 be ad 54 9b 3d be 51 13 3e 1f 5d c6 3e
       -0.2879269 0.0758451 0.14386651 0.3874292
0001e0 a2 4b 07 3e 0e 6c bb be f5 be ce be d2 2e 0b 3e
       0.13212445 -0.36605877 -0.40380064 0.1359208
0001f0 37 22 96 be 2e af 90 be 58 18 d4 3e 84 69 42 3d
       -0.2932298 -0.28258651 0.41424823 0.04746391
000200 33 f6 c1 3e 77 fc 7b 3b fa 88 6b 3e f7 72 18 3f
       0.37883148 0.0038450041 0.23001471 0.5955042
000210 05 03 14 3e f1 e7 be be fd 12 24 3e fc 9e 57 be
       0.14454277 -0.37286332 0.16022868 -0.21056741
000220 60 8f 16 3e 28 fe af be 60 45 5a be 14 20 27 3e
       0.1470313 -0.34373593 -0.21315527 0.1632083
000230 4d 5a 2c 3e 67 d3 72 3e 2d c8 ca be 46 71 09 bf
       0.16831322 0.23713456 -0.39605847 -0.53688467
000240 3b 95 40 be 9d 6f 35 bd a6 49 cf 3e 32 bb bd 3e
       -0.18806927 -0.044295896 0.40485877 0.3705688
000250 64 00 fa be 11 52 66 bf 5d 79 6c 3f dd 69 54 3f
       -0.48828423 -0.89968973 0.92372686 0.82974035
000260 f5 c8 2f 3e bb 03 cd b9 14 59 79 3e f6 10 96 3e
       0.17166503 -0.00039103426 0.24350387 0.29309815
000270 14 3a 60 be 30 e2 65 be 68 72 54 bc 64 01 0a 3e
       -0.21897155 -0.22449565 -0.01296673 0.13477093
000280 1f 33 10 3e 63 b2 bb 3d 25 e1 97 be b5 bb d7 bd
       0.14082001 0.09164884 -0.2966396 -0.10533849
000290 5a 11 78 3d 76 84 15 bd 4f 22 22 3e fb e1 19 3e
       0.060563423 -0.036503278 0.158334 0.15027611
0002a0 c9 c2 09 3e 3b 27 56 be 4f fe 65 bd 46 b1 85 3d
       0.13453211 -0.20913403 -0.05615073 0.06527953
0002b0 17 f3 ac bb 45 5d 29 be f0 a3 89 3d 27 37 1a bf
       -0.005278002 -0.16539486 0.06720722 -0.60240406
0002c0 09 87 17 3e 57 e3 51 3e e0 a0 4e 3c 5e 16 b0 be
       0.14797606 0.2049688 0.012611598 -0.34392065
0002d0 d5 3e 27 be 60 10 c5 be d3 7f 8a 3d 8f d6 e1 3e
       -0.16332562 -0.38489056 0.06762662 0.44109008
0002e0 a8 4d 9d be 89 ff f8 3d bb fc 19 3e c7 05 39 be
       -0.3072331 0.121581145 0.15037815 -0.1806861
0002f0 d3 7a 26 3e 3f bd b5 3d 8f da 58 bd f7 69 b2 be
       0.16257791 0.088739865 -0.05294281 -0.3484647
000300 aa 65 ff 3d 3f 1b 00 3c 1c 9b ae 3b 98 f6 1a bf
       0.12470563 0.007818996 0.005328549 -0.6053252
000310 cc 49 8a 3e fe a4 f4 bb 38 56 ca bb fc 41 28 be
       0.27009428 -0.0074659577 -0.006174829 -0.16431421
000320 a9 2a 6f be 38 db c8 be 8c 60 1d bd 08 98 db 3e
       -0.23356117 -0.3922975 -0.038422152 0.42889428
000330 d7 80 20 bd 37 6c 1e 3e 91 dc 5d be 57 4b 89 3e
       -0.03918537 0.15470968 -0.2166617 0.26815292
000340 44 ac 03 3e d0 00 e8 bd 2e 39 3b be 64 f3 43 be
       0.12858683 -0.1132828 -0.18283531 -0.19135815
000350 42 21 16 3e 06 ad aa 3e f3 dc 51 be 06 47 f8 bd
       0.14661124 0.3333513 -0.20494442 -0.12122922
000360 76 74 d3 3e f0 03 84 be 00 67 1c 3e f9 4b ba 3e
       0.4129979 -0.25784254 0.15273666 0.36386088
000370 a0 e2 1e 3e d7 a1 9a 3e c7 95 4a 3e e7 73 0c be
       0.15516138 0.302016 0.19783698 -0.13716088
000380 bf b4 c3 be ce 7e 88 be 21 14 ed 3c 44 ae 0c be
       -0.38223836 -0.26659244 0.028940262 -0.13738352
000390 d7 1b ae 3c 7b c1 e6 3d f1 1a 11 3d 7c 2e 86 3e
       0.02125351 0.11267372 0.035426084 0.2620734
0003a0 d8 0a e3 be 45 f0 88 be ba e7 7e be 2d 74 b9 3e
       -0.4434421 -0.2674581 -0.24893084 0.36221448
0003b0 b9 99 fa bd 00 43 aa bc 1b 82 b1 3d e3 f4 da 3e
       -0.122363515 -0.020783901 0.08667394 0.4276496
0003c0 12 33 a2 be 35 d9 f8 bd 4f 12 de 3d 3f 4c 7c 3e
       -0.3167959 -0.12150804 0.10843336 0.2463846
0003d0 26 2a 8a be 82 75 82 be 5d d0 f7 3d 04 7c 02 3e
       -0.26985282 -0.25480276 0.12100289 0.1274262
0003e0 40 83 e0 bd 15 9f 1d 3d 22 7b a6 be 2d d7 88 3e
       -0.10962534 0.03848179 -0.32515818 0.26726666
0003f0 fe b8 1a be 02 91 5e 3d a9 90 2b bd e4 8e 8d be
       -0.15109631 0.05433751 -0.041886006 -0.2764808

encoder_variable_selection.single_variable_grns.SinWeekly.gate_norm.glu.fc.bias f4 [32]
000000 7f c5 ce 3d 35 74 d2 3c 2b 95 be be aa 03 6b 3d
       0.10096263 0.025690177 -0.3722318 0.05737654
000010 48 e4 b9 bd 1d 16 d6 bd e3 1c 30 be b8 3d 7f be
       -0.09076744 -0.104534365 -0.1719852 -0.24925888
000020 55 ff ed bc a9 54 b5 bc 2e 6a a2 3d e7 8a 66 3e
       -0.029052416 -0.022135096 0.079304084 0.22513925
000030 9c 3a da 3d 2b 4a 5c bc 5c bd b1 3d 29 9c d2 3d
       0.1065571 -0.013445417 0.086786956 0.102836914
000040 23 9a 3e be fb 14 c4 be 2d 8f 44 3e a4 5b db 3c
       -0.18613486 -0.38297257 0.19195242 0.026777096
000050 e1 69 82 3e c7 1a 7a be 32 90 91 3e 45 e1 07 3d
       0.25471404 -0.24424277 0.28430325 0.03317382
000060 bb 86 ad 3c df 74 23 3e 67 26 a3 bc 85 12 a1 bd
       0.021182409 0.15962552 -0.019915773 -0.078648604
000070 de 0c 24 3e d3 76 b7 3e 1e 06 cf bd a5 a4 86 bd
       0.16020533 0.35832843 -0.10108589 -0.06574372

encoder_variable_selection.single_variable_grns.SinWeekly.gate_norm.add_norm.norm.weight f4 [16]
000000 20 bf 77 3f 72 5e 4c 3f ab fb a4 3f e3 b6 99 3f
       0.9677601 0.7983161 1.2889303 1.2008938
000010 4d 31 89 3e b5 07 5f 3f 31 4b a1 3f 24 8b cf 3e
       0.26795426 0.87121135 1.2601072 0.40535843
000020 8f 7e 2b 3f fe c9 6d 3f d6 71 6e 3f 55 92 97 3f
       0.6698999 0.9288634 0.9314245 1.1841532
000030 43 c9 3b 3f 76 52 f1 3f 8a 02 85 3f b7 c7 81 3f
       0.73353976 1.885329 1.03914 1.0139073

encoder_variable_selection.single_variable_grns.SinWeekly.gate_norm.add_norm.norm.bias f4 [16]
000000 ab ca f1 bb 3a db 1a ba f1 4e 8f 3d 18 a1 35 3e
       -0.007378896 -0.0005907301 0.06997479 0.17737234
000010 b6 52 ac bd b8 fd 97 bd 7f 3d 20 be b5 38 23 be
       -0.08414213 -0.0742144 -0.15648459 -0.15939601
000020 79 5e 73 bd 00 ff c9 bd fc 42 36 bc 23 15 af 3d
       -0.059416268 -0.098630905 -0.011124369 0.085489534
000030 44 ac fe 3d a7 97 4b bd 43 c1 e4 3d bb 45 d4 3d
       0.12435201 -0.049705174 0.11169674 0.103648625

encoder_variable_selection.single_variable_grns.VaccinationFull.resample_norm.mask f4 [16]
000000 da da 90 be ce 6c 97 3e 8c 4e 70 be e7 8f 53 be
       -0.2829197 0.295752 -0.23467463 -0.20660363
000010 64 f6 6b 3e cf a8 97 bd c1 08 34 3e 9f 2d d8 3e
       0.2304321 -0.074052446 0.17581464 0.42222306
000020 b0 4e bc 3d 18 dc 03 bf 61 ed 98 be c4 94 71 3e
       0.09194696 -0.5150771 -0.29868606 0.23591906
000030 72 b7 5f bd 52 ab 16 3f 48 80 e4 bb 0b 53 6c bd
       -0.054618306 0.58855164 -0.0069733 -0.057696383

encoder_variable_selection.single_variable_grns.VaccinationFull.resample_norm.norm.weight f4 [16]
000000 37 bb 1f 3f a8 81 6d 3f 4a 7d 4e 3f 55 c3 54 3f
       0.6239504 0.92775965 0.80659926 0.83110553
000010 a0 84 a0 3f 19 1e 66 3f a9 35 39 3f 46 21 8d 3f
       1.2540474 0.89889675 0.72347504 1.1025779
000020 79 bb 7c 3f e9 f7 36 3f 2b 20 53 3f a8 df 83 3f
       0.9872356 0.7147203 0.8247096 1.030263
000030 0f 79 6d 3f 34 45 c3 3f dd 3e df 3e 6d 69 31 3f
       0.92762846 1.5255494 0.43602648 0.6930149

encoder_variable_selection.single_variable_grns.VaccinationFull.resample_norm.norm.bias f4 [16]
000000 3c 50 77 be 7b e9 6f 3e 30 39 10 3e 7e 0f 10 3e
       -0.241517 0.2342891 0.14084315 0.1406841
000010 b2 64 f6 bc a3 02 50 3e 71 c0 de be 71 9d 15 3e
       -0.030077312 0.20313506 -0.43506196 0.1461084
000020 25 76 b0 bd 43 7f da be 80 cc 97 be 26 6d ae 3e
       -0.08616284 -0.42675218 -0.2964821 0.3406765
000030 98 16 20 bd 3b d2 cd be ad 55 bf 3e fe a9 6b 3e
       -0.039084047 -0.40199456 0.37370053 0.23014066

encoder_variable_selection.single_variable_grns.VaccinationFull.fc1.weight f4 [8, 8]
000000 b1 db af 3e b4 64 0f be f0 fc 22 bf 3c 78 97 be
       0.343473 -0.14003259 -0.636672 -0.2958392
000010 15 f8 09 3f 9b 70 38 3e 5c a0 fb be 7e b1 fa 3c
       0.5389417 0.18011706 -0.49145782 0.030602213
000020 60 49 87 3d f2 6f 1d be 0d 62 4f bf b6 8a 9e bf
       0.06605792 -0.15374735 -0.8100899 -1.2386081
000030 09 76 3b bd b7 51 71 bc e4 7c 8f 3f 75 bb 8a 3d
       -0.045766864 -0.014728955 1.1209989 0.06774036
000040 15 be 65 3e 60 9c 0d bf 0e 57 dd 3c 40 16 af bd
       0.22435792 -0.55316734 0.02701905 -0.08549166
000050 8c 1d b8 be c4 57 12 3e 56 e4 b4 be 38 42 51 bf
       -0.35960042 0.14291292 -0.35330456 -0.81741667
000060 f7 03 70 bd 61 e6 5a bf 62 51 85 be 11 ec e8 3e
       -0.05859753 -0.8550778 -0.26038653 0.45492604
000070 03 7a 2b bf 17 e6 14 3f 9b d9 11 3d e5 ef 65 bd
       -0.6698305 0.5816359 0.035607915 -0.056136984
000080 37 38 e2 3e 25 dd bc 3e a9 c5 57 bc 15 60 02 3f
       0.44183514 0.3688747 -0.013169684 0.5092786
000090 6e d4 8c 3e da 75 f9 3e 15 a0 03 3f 91 4e 56 3f
       0.2750582 0.48722726 0.5141614 0.8371363
0000a0 d6 c0 0d be 3d 21 e9 3e 7a 2e ae 3e 6e 0d 01 bd
       -0.13843092 0.4553317 0.34019834 -0.03150695
0000b0 34 98 e5 be 23 a8 81 bf 20 dc 62 bf c1 bc f9 bf
       -0.44842684 -1.0129436 -0.88617134 -1.9510728
0000c0 95 ce 2f bf 84 e6 b6 3e 20 04 7a 3e 17 74 8b 3d
       -0.68674594 0.35722744 0.24415636 0.06809252
0000d0 09 58 67 3f ef 70 ba bd 7e 02 8b 3e 6a 0f 56 3e
       0.90368706 -0.091035716 0.2715034 0.20904317
0000e0 db 32 13 3f 18 7b f7 bc 22 b7 56 bf 53 ec 08 3e
       0.57499474 -0.030210063 -0.8387319 0.133714
0000f0 56 73 19 be 4d cd 9a bf 98 4e 07 bf b3 04 d8 bf
       -0.14985403 -1.2093903 -0.528543 -1.6876434

encoder_variable_selection.single_variable_grns.VaccinationFull.fc1.bias f4 [8]
000000 35 9b bd bc c7 75 66 bc e3 17 d5 3d 2b 4c 02 3e
       -0.023145298 -0.014066166 0.10404947 0.12724368
000010 57 8f 86 3e ce 86 5d be f2 27 53 be 26 23 7b 3e
       0.26281235 -0.21633455 -0.20620707 0.24525127

encoder_variable_selection.single_variable_grns.VaccinationFull.fc2.weight f4 [8, 8]
000000 b4 8a d7 be e9 a6 8b 3e c2 95 b6 3a 1c ca d6 be
       -0.4209801 0.2727578 0.0013930129 -0.41951072
000010 ef dd 9e bf 4b c0 f4 3e c0 ca 72 bf b8 ed 74 3e
       -1.2411479 0.47802958 -0.9484062 0.23918808
000020 24 ae 2b 3f d6 9b 01 bd b1 e7 db be e6 ef 0b bf
       0.6706259 -0.031642757 -0.42950204 -0.5466293
000030 46 07 ec be c6 57 3b bf 63 50 67 3e 3f 6b a9 be
       -0.460993 -0.73180807 0.22589259 -0.33089635
000040 91 ac de bf 9a 86 c4 bd 9d 3f fe bd 7f 0f 19 3f
       -1.7396413 -0.09595986 -0.12414477 0.5978927
000050 ef 0f cd be 7d ce cc 3e bf 86 3b 3e a4 4a 17 3f
       -0.4005122 0.40001288 0.1831312 0.5909827
000060 12 0a a7 3e 32 ea 46 bf db ec c2 bb 20 c1 aa be
       0.3262487 -0.77701104 -0.0059486455 -0.33350468
000070 0d d9 46 3f 1d 0d 56 bf 85 9e b0 3c 79 98 2f bd
       0.77674943 -0.8361376 0.021559963 -0.04287002
000080 b7 85 9b be 64 7a 32 bf e4 e9 df 3e 78 67 ae bd
       -0.30375454 -0.69718003 0.43733132 -0.08515829
000090 f4 16 01 3f 70 b0 cf 3e ad 80 87 bf 4a 17 84 3f
       0.5042565 0.405643 -1.0586144 1.0319607
0000a0 9e fe f3 be 83 d4 0b 3f c2 90 63 3f f4 51 ed 3e
       -0.47655195 0.5462114 0.8889276 0.46351588
0000b0 d0 a2 69 bc 17 86 80 3e 51 89 97 be a9 c3 53 bf
       -0.014260009 0.25102302 -0.29596952 -0.8272043
0000c0 d5 6d 10 3f 87 f8 09 bf 17 ff f9 bc 34 0a 36 3f
       0.5641759 -0.5389485 -0.030517144 0.7110932
0000d0 cb 38 f7 3d aa 02 f9 be 9d 67 7b bd a6 88 98 3e
       0.12071379 -0.48634845 -0.06137811 0.29791754
0000e0 c8 9f 92 be da 7c 6e 3e 01 57 bc 3e 94 be 04 3f
       -0.28637528 0.23289815 0.3678513 0.518533
0000f0 a4 3e 1f bf 60 29 06 bf b8 b3 87 bb 96 1d a5 be
       -0.62204957 -0.52406883 -0.004141297 -0.32249135

encoder_variable_selection.single_variable_grns.VaccinationFull.fc2.bias f4 [8]
000000 3f e4 65 be b9 b9 85 be 14 62 a8 3c 83 10 05 3e
       -0.2245035 -0.26118258 0.02055458 0.1299458
000010 5b 9d 98 3e 88 19 9b bd 39 a1 b9 3d 31 ad 7a 3b
       0.29807553 -0.07573229 0.09063954 0.0038250203

encoder_variable_selection.single_variable_grns.VaccinationFull.gate_norm.glu.fc.weight f4 [32, 8]
000000 7d 1b b6 3c a4 83 71 3e cc 15 b0 3e fc 28 c2 3e
       0.022229904 0.23585373 0.3439163 0.37921894
000010 2c b2 8f be 53 7e 6b 3e 8a d3 1d bd 28 49 c7 bd
       -0.28065622 0.22997408 -0.038531817 -0.0973075
000020 f1 da fa be 45 25 3f 3e 41 a9 f8 be c4 0d 56 3e
       -0.48995164 0.18666561 -0.4856663 0.20903689
000030 5b 20 21 3e 4c 05 a7 bd 52 99 79 3e 8b 83 86 be
       0.15734999 -0.08155307 0.24374893 -0.26272234
000040 09 21 40 be fc 30 e9 3e fe db 93 3d ed 5d 3a 3e
       -0.18762602 0.45545185 0.072196946 0.18199892
000050 7a d6 87 be 94 10 82 3e b0 47 3d be a4 bb 46 3e
       -0.2653082 0.25403273 -0.18484378 0.19407517
000060 87 5b bb be 06 a0 8c bd bc 24 50 3e 78 92 5c 3e
       -0.36593267 -0.068664595 0.20326513 0.21540248
000070 25 b7 d8 be 7c 0c 25 3e bd 0d a4 3d 68 4d 5d 3e
       -0.42327228 0.16118044 0.08010433 0.2161156
000080 10 64 8b 3e fa 49 ca be e3 6c 0b 3f 47 ff e2 be
       0.2722478 -0.39509565 0.5446302 -0.44335386
000090 fa 35 fe 3e 62 74 19 be ea b6 8a bd 20 b6 10 be
       0.49650556 -0.14985803 -0.06773169 -0.14131975
0000a0 12 cd e9 3d 41 15 e6 3e 97 47 3b 3e dc 35 d1 be
       0.11416067 0.4493809 0.18289028 -0.40861404
0000b0 6f b3 11 3c ae 72 99 3e 6e 46 cc bd 7e ca 26 3e
       0.008892878 0.29970306 -0.09974371 0.16288182
0000c0 aa 73 bb 3d 2b e1 01 3d 57 ec 69 3e 2e 5b d0 be
       0.091529205 0.031708878 0.22844063 -0.40694565
0000d0 70 7d 21 3e 29 90 9a 3e 94 84 92 3d be 9f fe 3e
       0.15770507 0.3018811 0.071541935 0.4973125
0000e0 d9 6c 05 bf 6d 73 ae 3e 69 30 61 be ac 55 05 be
       -0.52119213 0.34072438 -0.21991123 -0.13020962
0000f0 51 6b ec 3e 5a 0b e3 be ff 40 11 3f 00 24 23 bf
       0.46175626 -0.44344598 0.567398 -0.63726807
000100 b3 34 44 be 66 0e f2 3e c9 6e a5 be 42 2b 07 be
       -0.19160728 0.4727661 -0.32311085 -0.13200095
000110 b7 56 95 be ef 05 d4 3e 68 e2 35 be 8c 27 09 3f
       -0.2916772 0.41410777 -0.17762148 0.5357597
000120 40 ee b9 3e 78 a0 ed 3d fb e9 30 3e 09 9c 96 be
       0.36314583 0.116028726 0.17276756 -0.2941592
000130 f4 5b 89 be 7c 07 b9 bd c1 69 23 bf 6a b1 72 bd
       -0.26827967 -0.09034631 -0.6383324 -0.059251226
000140 db 2f 30 3e 2b 95 c4 be 95 5b da 3e 88 c1 15 bf
       0.17205755 -0.38395056 0.42647997 -0.5849843
000150 8b b5 bb 3e 5d ac 79 bc 97 97 bd bc b4 6e a9 bd
       0.36661944 -0.0152388485 -0.023143573 -0.08273068
000160 97 24 2f bf f6 89 ce bd e8 1c 40 be f1 6d e9 3e
       -0.68415207 -0.10084908 -0.18761027 0.4559169
000170 e8 7f 41 be e9 37 f0 3d f8 42 ab bc ba c0 15 3e
       -0.18896449 0.11729414 -0.020905957 0.146243
000180 24 89 43 be 96 92 94 3e 5f 10 43 be f8 c8 c6 be
       -0.19095284 0.29018086 -0.19049214 -0.38825202
000190 af a2 33 be f1 3b 6d bd 6e ac be be c9 1b 98 bd
       -0.17542528 -0.057918493 -0.37240928 -0.074271746
0001a0 12 af 14 3f ef db de be 70 05 96 3e 51 00 29 be
       0.58079636 -0.4352717 0.29301023 -0.16504027
0001b0 2b f1 b2 3e bc 07 c1 3e e0 a8 70 be 0c 89 8b be
       0.34949622 0.37701213 -0.2350192 -0.27252996
0001c0 bd 2e a2 be 4e 8f f6 3d 88 f5 61 be ab c3 d5 3d
       -0.31676283 0.12039052 -0.22066319 0.10437711
0001d0 53 43 8a bc 26 8b bc be 76 5d 6f 3b d5 2d 6d be
       -0.016877806 -0.36824912 0.0036524213 -0.23162015
0001e0 88 77 d5 be 28 81 02 bd 58 83 d6 3d db 20 15 3c
       -0.41692758 -0.031861454 0.104742706 0.009102072
0001f0 22 2c 6a 3e 28 9d b2 be b3 62 c9 3e 01 dd 4d be
       0.22868398 -0.34885526 0.39333114 -0.20103838
000200 54 db 32 3e af 3c 39 be a6 8b 3a 3e fa a6 4c bd
       0.1746648 -0.18089555 0.18217334 -0.04996393
000210 94 c5 0b 3e 7e 46 61 3e 07 3c 7d bc f5 dc cb be
       0.13649589 0.21999547 -0.015456206 -0.39817014
000220 8d 38 24 be 86 b5 24 be e8 a6 97 3e ef e0 e9 3d
       -0.16037197 -0.1608487 0.29619527 0.11419856
000230 51 14 cc 3e 14 d2 09 3e 08 17 44 bc 5e 7e 99 bd
       0.3985925 0.13459045 -0.011968382 -0.07494806
000240 b7 98 ed 3d 48 8e ca 3e 5c 49 4f bd 49 39 0f 3f
       0.11601394 0.39561677 -0.05060707 0.55946785
000250 9d 92 ad 3d 97 53 80 3e 61 83 09 3e b9 90 16 3e
       0.0847523 0.25063774 0.13429023 0.14703645
000260 7a 92 79 bc 51 10 d8 3e 61 8a 2e 3e 68 88 bf 3e
       -0.015232677 0.42199948 0.17044975 0.37408757
000270 90 12 d2 bd 8b 42 e8 bc fb d8 2c be 9b c1 ef bd
       -0.10257447 -0.028352043 -0.16879646 -0.11706849
000280 1e c8 99 be 1c 3c b0 be 65 2f 4d 3e de 45 78 3e
       -0.3003549 -0.3442086 0.20037611 0.24245402
000290 39 fb 81 3e 7e 17 c6 be db a6 5a 3e fe 3b b1 be
       0.2538698 -0.38689798 0.21352713 -0.34616083
0002a0 7f f2 5c 3e 77 0b 0b be 73 68 02 3f f2 64 b0 bd
       0.2157688 -0.13578592 0.50940627 -0.08613004
0002b0 72 a1 c7 be 66 1a c4 3e 4f 09 24 bf 4d 04 84 3e
       -0.3899036 0.3830139 -0.64076704 0.2578453
0002c0 ef d8 fe 3c b2 56 97 3e 09 a4 e0 be f8 c3 01 3f
       0.031109301 0.2955833 -0.4387515 0.5068965
0002d0 a7 0d 9a be 6f a3 8b bb a7 54 75 be a5 b2 5c 3d
       -0.3008854 -0.004261426 -0.23958074 0.053881306
0002e0 6f 2d 1e bf 18 fe 10 3f 70 85 bd bd cf 79 ef 3e
       -0.61788076 0.56637716 -0.09253967 0.4677262
0002f0 81 f4 d2 be 79 58 7e be 9c dc 40 be 08 2d 14 bd
       -0.41202167 -0.24838437 -0.18834156 -0.036175758
000300 a8 db 50 3f 7d 1c a9 bd 5f 52 f2 3e c0 09 32 bf
       0.8158517 -0.08257387 0.4732847 -0.6954613
000310 d8 b6 f4 bd 27 f3 d2 3d 16 ba ba 3d 55 6b 86 be
       -0.11948937 0.10300284 0.09117524 -0.26253763
000320 54 fe 9c bd a7 f3 05 be ff e8 e0 3d e3 0d 66 3e
       -0.07665697 -0.13081227 0.109819405 0.22466235
000330 b2 81 d7 3e 8e c9 63 be 2d 36 12 3f 43 3a 57 be
       0.42091137 -0.22244856 0.57113916 -0.21018319
000340 b9 40 d1 bd dc 32 0c bd e6 dd 8b 3e e9 17 1e be
       -0.10217423 -0.03422819 0.27317733 -0.15438809
000350 58 06 8a 3e c4 8b ee be 14 6a 3a 3e 23 a9 52 bd
       0.26957965 -0.46591008 0.18204528 -0.051430833
000360 09 bc a0 3e 81 be cd 3d d5 c8 b1 3e b9 ff 39 be
       0.3139346 0.10046101 0.34723535 -0.18163957
000370 8b 8e 55 bd f3 08 02 bb 32 1d 85 bd a6 8a c8 be
       -0.052137893 -0.001984176 -0.06499709 -0.3916828
000380 47 8b d4 3e cc 1a ce 3e fb a9 9c be 78 4e 1c 3e
       0.4151251 0.4025482 -0.30598435 0.15264308
000390 e5 6a 32 be 4d 2c ad 3e 3d d9 17 bf 57 fa b6 3e
       -0.1742359 0.3382286 -0.59315854 0.3573787
0003a0 8b 3d 28 be 63 d1 8e be ac ff be bd 66 ab 20 be
       -0.16429727 -0.27894124 -0.09326109 -0.15690383
0003b0 33 b7 7a 3e 3d 56 50 be 4b 1d 36 be f3 7b ab bd
       0.24483947 -0.20345397 -0.17784612 -0.08373251
0003c0 80 8e 96 3e 09 e5 7e 3e a9 7c 5f be cf df b1 3e
       0.29405594 0.24892057 -0.21824898 0.34741065
0003d0 07 db 22 be c1 a2 d4 be 5f a7 53 3d 35 1a 02 bf
       -0.15903865 -0.4153042 0.05167329 -0.5082124
0003e0 a1 73 1e bf 4d d8 05 3f 0d 28 0a 3e 0c 36 cb 3e
       -0.61895186 0.52283174 0.1349184 0.39689672
0003f0 8a 10 95 be ba f8 a9 be 76 af 8d 3e 30 01 ec bd
       -0.2911418 -0.33197576 0.2767293 -0.11523664

encoder_variable_selection.single_variable_grns.VaccinationFull.gate_norm.glu.fc.bias f4 [32]
000000 37 95 70 be 47 d7 2d 3e ad fd 1c 3e f8 7f a0 3d
       -0.23494421 0.16976653 0.15331145 0.07836908
000010 12 21 e8 3d 30 49 19 3e b1 17 c7 be 0f 39 a0 3e
       0.11334433 0.14969325 -0.38885263 0.31293532
000020 c3 de 9a be 11 13 e8 be 58 c4 52 be bc f0 8e 3e
       -0.3024808 -0.45327047 -0.20582712 0.2791804
000030 95 b6 39 be 37 e9 9f be 03 98 9e 3e 21 09 32 3e
       -0.18136056 -0.31232616 0.3097535 0.17386295
000040 53 34 42 3e e1 b0 31 3e 63 7d 54 3d 9e 1e 24 be
       0.18965273 0.1735263 0.05187739 -0.16027305
000050 a6 a8 b5 3e 22 92 9a be 05 bc 13 3e a9 34 73 3e
       0.3548023 -0.30189615 0.14427193 0.23750557
000060 77 0f 44 bd 6f 95 00 3f 04 6d b5 3c b3 ea 7d bd
       -0.04786631 0.5022802 0.02214671 -0.061991405
000070 b3 c6 68 be 9b d6 0b 3e e9 9a c4 3d 7b df 49 3d
       -0.22732048 0.13656084 0.09599859 0.049285393

encoder_variable_selection.single_variable_grns.VaccinationFull.gate_norm.add_norm.norm.weight f4 [16]
000000 56 35 42 3f af 97 50 3f ee 85 39 3f 2a c8 37 3f
       0.75862634 0.8148145 0.72469985 0.717898
000010 43 c1 92 3f 69 bc 62 3f 70 f6 34 3f 03 49 49 3f
       1.1465229 0.8856874 0.70688534 0.7862703
000020 01 72 6c 3f 5d fc 5f 3f f0 53 7c 3f 3a 5f 91 3f
       0.92361456 0.8749445 0.9856558 1.1357186
000030 24 ca 44 3f d6 2c 82 3f d3 cd 48 3f 74 38 47 3f
       0.7687094 1.0169933 0.7843906 0.77820516

encoder_variable_selection.single_variable_grns.VaccinationFull.gate_norm.add_norm.norm.bias f4 [16]
000000 d6 d1 23 be 66 89 dc 3d 7f 4d 26 3e e9 ac 7a 3e
       -0.15998015 0.10768394 0.162405 0.24480022
000010 b0 f1 28 bd d9 fb 34 3d bf 5b 39 be 3c bc 6a be
       -0.041246116 0.044185493 -0.18101405 -0.22923368
000020 43 9c 04 be f2 54 2b be 7b 5d 07 be c1 69 0f 3e
       -0.12950234 -0.16731623 -0.13219254 0.14005186
000030 58 2c 9b 3c 21 98 37 bd a8 4c b7 3d 58 01 aa 3d
       0.018942043 -0.044822816 0.08950168 0.083010375

encoder_variable_selection.single_variable_grns.Cases.resample_norm.mask f4 [16]
000000 33 6c 1b 3d 20 47 e7 bd 20 8a c5 be 0c 4b 60 be
       0.037944984 -0.11292863 -0.38581944 -0.21903628
000010 7e 1e 2a be ce 1c 8a 3e 04 c9 8b bd 83 14 3e be
       -0.16613194 0.269751 -0.0682545 -0.18562512
000020 6e 2b 6e be 69 02 9d 3e 72 cd 6b 3e f9 a3 a5 3d
       -0.23258755 0.306659 0.2302759 0.08087916
000030 dd f8 bb be 14 41 be be 9c fe ce 3e 66 f2 ef bc
       -0.36713305 -0.37159026 0.40428627 -0.02929039

encoder_variable_selection.single_variable_grns.Cases.resample_norm.norm.weight f4 [16]
000000 a9 90 84 3f 8c ca 78 3f 77 f6 48 3f 52 21 5f 3f
       1.0356647 0.9718406 0.78501076 0.8716022
000010 1f 19 60 3f be f2 ab 3f 0c b0 92 3f 84 bf 80 3f
       0.8753833 1.3433454 1.1459975 1.0058446
000020 21 b9 6d 3f 44 4b ad 3f 8b 75 a2 3f cf 74 84 3f
       0.9286061 1.3538594 1.2692121 1.0348147
000030 3e 98 3c 3f 7a 01 40 3f 0f 48 b8 3f 34 41 90 3f
       0.73669803 0.75002253 1.439699 1.1269898

encoder_variable_selection.single_variable_grns.Cases.resample_norm.norm.bias f4 [16]
000000 92 0c 42 3e 20 fe 0e 3d 53 d2 cd bd 78 fc b2 bd
       0.18950108 0.03491032 -0.10049882 -0.08739561
000010 e1 b7 6b be 14 d7 f0 bd e2 ca 35 be 48 71 73 bd
       -0.23019363 -0.11759773 -0.17753175 -0.059434205
000020 5a 52 26 3e 9c 90 26 3e 09 9c b3 3b f7 71 a6 3d
       0.16242352 0.16266102 0.0054812473 0.08127206
000030 20 a3 ff b7 e8 bd ef bc e9 bf 77 3d f1 a8 0b 3e
       -3.047433e-05 -0.029265359 0.060485754 0.13638665
