age-groups/results/AGE517/checkpoints/latest-epoch=3.ckpt (torch, 735789 bytes, 506 tensors)

prescalers.AGE517.weight f4 [8, 1]
0	0xbd03ae37	-0.032148566
1	0xbf64aa41	-0.89322287
2	0xbde90e27	-0.113796525
3	0x3edcfb4f	0.43160483
4	0xbf4aca45	-0.7921489
5	0x3ed6e4c7	0.41971418
6	0xbf56958d	-0.83821946
7	0x3f203063	0.6257383

prescalers.AGE517.bias f4 [8]
0	0xbdc518dd	-0.09623883
1	0x3f425b30	0.7592039
2	0x3f3a6e4f	0.7282457
3	0xbd80701b	-0.062713824
4	0xbe6691a0	-0.22516489
5	0xbf130348	-0.5742688
6	0xbde415e5	-0.111369886
7	0xbea6e162	-0.32593828

prescalers.SinWeekly.weight f4 [8, 1]
0	0xbd03340e	-0.032032065
1	0xbfa85fe0	-1.3154259
2	0x3f941595	1.1569086
3	0xbf81cfe5	-1.0141569
4	0x3f36fd51	0.7148028
5	0xbe314337	-0.17310797
6	0x3f266c2c	0.6500881
7	0x3ee4df63	0.4470168

prescalers.SinWeekly.bias f4 [8]
0	0x3c5ef6a5	0.013608609
1	0xbd8e5d42	-0.06951381
2	0x3f357d6b	0.708945
3	0x3e8c4cd5	0.27402368
4	0x3f18e58e	0.5972527
5	0xbf0aa77d	-0.54161817
6	0x3f551e86	0.832497
7	0x3f0e829e	0.55668056

prescalers.VaccinationFull.weight f4 [8, 1]
0	0x3e6fdc98	0.23423994
1	0x3e46a1f2	0.19397715
2	0x3f38f842	0.7225381
3	0x3f3f41b2	0.7470962
4	0xbedb3565	-0.42814174
5	0xbf1de0f6	-0.6167139
6	0xbdc4d575	-0.09611026
7	0xbf4321c9	-0.7622343

prescalers.VaccinationFull.bias f4 [8]
0	0x3f48769c	0.78305984
1	0xbee51306	-0.44741076
2	0xbe592442	-0.21205238
3	0x3f9311a5	1.148976
4	0x3f34c191	0.7060786
5	0xba067a2e	-0.00051299005
6	0xbecfcf1f	-0.40587708
7	0x3df22412	0.11823286

prescalers.Cases.weight f4 [8, 1]
0	0x3ef3d713	0.47625026
1	0xbf91014d	-1.1328522
2	0xbf5562a8	-0.8335366
3	0x3f2a138c	0.66436076
4	0x3fb594c7	1.4186028
5	0xbcd7cf5c	-0.026343994
6	0xbf22b0d6	-0.6355108
7	0x3eb94f08	0.3619311

prescalers.Cases.bias f4 [8]
0	0xbf432301	-0.76225287
1	0xbe4d9dc6	-0.20079717
2	0x3f2e0b06	0.6798557
3	0x3ed33322	0.4124995
4	0xbc85c9f7	-0.016331656
5	0xbcef341e	-0.029199656
6	0x3e2efac9	0.17087854
7	0xbf6b04c8	-0.9180417

static_variable_selection.single_variable_grns.AGE517.resample_norm.mask f4 [16]
0	0xbe8b046e	-0.27151817
1	0xbe8b80d4	-0.27246726
2	0xbf13d0d4	-0.5774052
3	0x3e8c6a46	0.2742483
4	0x3e987641	0.2977772
5	0xbd094313	-0.033511233
6	0x3d1ebfca	0.038757123
7	0xbe3c48f1	-0.183872
8	0x3dffdb02	0.12492944
9	0x3d6e09df	0.058114883
10	0xbe5b9e55	-0.21447118
11	0x3db429d6	0.08797042
12	0xbd962971	-0.07332123
13	0x3ecf1bf3	0.4045101
14	0xbe38cbe2	-0.18046525
15	0xbf04c14d	-0.51857454

static_variable_selection.single_variable_grns.AGE517.resample_norm.norm.weight f4 [16]
0	0x3f689705	0.9085544
1	0x3f3e2c91	0.7428675
2	0x3f43b34b	0.76445454
3	0x3fb0a329	1.3799793
4	0x3fb0bd2c	1.3807731
5	0x3f62f7e0	0.8865948
6	0x3f8ddd69	1.1083194
7	0x3f21b857	0.63171905
8	0x3f856f80	1.0424652
9	0x3f79b89b	0.9754731
10	0x3f648028	0.8925805
11	0x3fa51c37	1.2899235
12	0x3f72da9c	0.9486482
13	0x3faf1958	1.3679609
14	0x3f8d4b5a	1.103862
15	0x3f5de0ed	0.86671335

static_variable_selection.single_variable_grns.AGE517.resample_norm.norm.bias f4 [16]
0	0x3e3ae968	0.182531
1	0xbe7defc4	-0.24798495
2	0xbe71d5f0	-0.23616767
3	0x3eb9e73d	0.36309233
4	0x3ecf0723	0.40435132
5	0xbd6bce40	-0.057569742
6	0x3ce5c290	0.028046876
7	0xbe5d0f17	-0.21587788
8	0x3d439e0a	0.04775814
9	0xbde6c681	-0.1126833
10	0x3e0396ec	0.12850541
11	0xbe5c6193	-0.21521597
12	0xbdb19f07	-0.0867291
13	0xbe3a706c	-0.18206948
14	0x3d8bbc36	0.06823008
15	0xbe18c161	-0.14917518

static_variable_selection.single_variable_grns.AGE517.fc1.weight f4 [8, 8]
0	0x3d2711ee	0.040788583
1	0xbc313931	-0.010816858
2	0xbed5df23	-0.41771802
3	0xbf1be4b4	-0.6089585
4	0xbe625954	-0.22104388
5	0xbfcb6e95	-1.5893122
6	0x3ec2a928	0.3801968
7	0xbf888fb5	-1.0668856
8	0xbeec9d48	-0.46213746
9	0xbf903344	-1.1265645
10	0xbe1e367d	-0.15450473
11	0x3f71af1e	0.9440783
12	0xbec08627	-0.3760235
13	0xbec9c051	-0.39404538
14	0x3ee40939	0.44538286
15	0x3f365c24	0.71234345
16	0xbd8f2e49	-0.0699125
17	0x3f5eeaba	0.87076914
18	0x3f23d297	0.6399321
19	0xbf13ef5b	-0.577871
20	0x3e76112d	0.2402999
21	0xbebf41d5	-0.37354913
22	0x3f191ced	0.5980976
23	0xbf9e10bb	-1.2348856
24	0xbe16a96c	-0.14713067
25	0xbf7ea61a	-0.994722
26	0xbd522d50	-0.051312745
27	0x3e11abeb	0.14225738
28	0xbef96344	-0.48708546
29	0x3eb7f057	0.35925552
30	0xbf0f82af	-0.5605878
31	0x4000212f	2.0020254
32	0xbef3ebe4	-0.47640908
33	0x3f3e6878	0.74378157
34	0xbe1446a3	-0.14480071
35	0xbec6b11e	-0.38807005
36	0xbe91b8b8	-0.28461242
37	0x3f61f003	0.88256854
38	0x3eff48e9	0.49860314
39	0xbf06c594	-0.5264523
40	0x3e6630c7	0.22479545
41	0xbec8ad7a	-0.39194852
42	0xbe2f9c00	-0.17149353
43	0x3e557f06	0.20849237
44	0x3e8f5a52	0.27998596
45	0xbeb9f095	-0.36316362
46	0xbdd4665a	-0.103710845
47	0x3cc32ba2	0.023824517
48	0xbed28bef	-0.41122386
49	0xbebb9d50	-0.36643457
50	0xbaf8aeac	-0.0018972955
51	0x3ef20cb5	0.4727532
52	0x3e1bd65f	0.15218495
53	0x3f888be4	1.0667691
54	0x3e47d6b9	0.19515504
55	0xbe8d7c6e	-0.27633995
56	0xbe7e646f	-0.24843
57	0xbf8cb85c	-1.0993762
58	0xbe05277a	-0.1300334
59	0x3f54ac2d	0.8307522
60	0xbe22ef22	-0.15911534
61	0xbea033b0	-0.31289434
62	0x3c4d100a	0.012516031
63	0x3f851264	1.0396237

static_variable_selection.single_variable_grns.AGE517.fc1.bias f4 [8]
0	0x3de4c003	0.11169436
1	0x3da7a63a	0.08186002
2	0x3df7a451	0.12091888
3	0xbe0f0786	-0.13967714
4	0x3e22cfd5	0.15899594
5	0xba9fb066	-0.0012183308
6	0x3eb57e35	0.3544785
7	0xbdcd478c	-0.10023412

static_variable_selection.single_variable_grns.AGE517.fc2.weight f4 [8, 8]
0	0x3ea2ff3d	0.31835356
1	0x3e9401fe	0.2890777
2	0x3f10bc17	0.56537
3	0xbf6375a4	-0.8885138
4	0x3ee78801	0.4522095
5	0xbeb79715	-0.35857454
6	0x3f1493e2	0.5803815
7	0x3ede74a7	0.43448374
8	0xbef0ff27	-0.47069666
9	0xbefe8aa0	-0.49715137
10	0x3e115c53	0.14195375
11	0x3d585719	0.052817438
12	0xbd79057d	-0.06079625
13	0x3cf0ae3e	0.02937996
14	0x3e65f407	0.2245637
15	0x3e3e52c3	0.18586259
16	0x3dd0a136	0.101869985
17	0xbe30c550	-0.17262769
18	0xbdacf9b8	-0.084460676
19	0x3e281809	0.16415419
20	0x3e731025	0.23736627
21	0x3cbe9b65	0.023267457
22	0xbf1d455e	-0.6143397
23	0x3e54b093	0.20770483
24	0x3f8f5c7a	1.1200097
25	0xbe95a2a4	-0.29225647
26	0x3f852508	1.0401926
27	0xbfa1a9e3	-1.262997
28	0x3eaeddd6	0.34153622
29	0x3dc0a699	0.09406776
30	0x3e5fcbf0	0.2185514
31	0xbfb5768a	-1.41768
32	0x3e7b8f25	0.24566324
33	0xbd636624	-0.05551733
34	0x3e0d6d1c	0.13811153
35	0x3e9f5010	0.3111577
36	0x3dced749	0.10099656
37	0x3d3b865d	0.045782436
38	0x3f00925b	0.5022332
39	0x3ea717fb	0.32635483
40	0x3d7582bd	0.059939135
41	0xbe34e8db	-0.17666952
42	0xbf09a402	-0.5376588
43	0xbe7c3276	-0.24628624
44	0x3e88edbc	0.26743877
45	0x3b09e517	0.002104109
46	0xbf2cf384	-0.67559075
47	0xbb2e0706	-0.002655448
48	0xbeee1761	-0.46502212
49	0xbdc26c15	-0.09493271
50	0x3e9abef8	0.30223823
51	0xbf3f910b	-0.74830693
52	0x3f23f732	0.64049065
53	0x3e937c53	0.2880579
54	0xbec9e891	-0.39435247
55	0xbf4ddff1	-0.8041983
56	0xbeafec31	-0.34359887
57	0x3f53d0f4	0.8274071
58	0xbf8d6416	-1.1046169
59	0x3f829a3a	1.0203316
60	0xbec3ccfa	-0.38242322
61	0x3e279940	0.16367054
62	0x3eb5358b	0.35392413
63	0x3efd4e4d	0.494738

static_variable_selection.single_variable_grns.AGE517.fc2.bias f4 [8]
0	0x3e1a31d8	0.15058076
1	0x3e259979	0.16171826
2	0x3e6400e5	0.22265966
3	0x3e73134c	0.2373783
4	0xbdc4db39	-0.09612126
5	0x3a5b4273	0.0008364089
6	0x3b1c0e8f	0.0023812389
7	0xbae9079a	-0.0017778755

static_variable_selection.single_variable_grns.AGE517.gate_norm.glu.fc.weight f4 [32, 8]
0	0x3b460b77	0.0030219236
1	0x3d323467	0.043507006
2	0xbe8691a2	-0.26282984
3	0xbe929994	-0.28632796
4	0x3f16c089	0.58887535
5	0xbe87c140	-0.26514626
6	0xbec4efb6	-0.38464135
7	0x3e4b2383	0.19837765
8	0xbe40c994	-0.18826896
9	0x3e48af6d	0.1959817
10	0x3e19f844	0.15036112
11	0x3e999253	0.2999445
12	0xbf095f23	-0.5366079
13	0xbd91e8da	-0.07124491
14	0xbeae77ca	-0.34075767
15	0x3d641ddf	0.05569255
16	0x3edfc106	0.43701953
17	0x3db3badb	0.08775874
18	0xbead73c1	-0.33877376
19	0xbdbc12d5	-0.091832794
20	0xbd024128	-0.03180042
21	0xbeda00b5	-0.42578664
22	0x3e64d358	0.22346246
23	0x3e253a2c	0.16135472
24	0xbf23155b	-0.6370446
25	0x3d82fe96	0.06396215
26	0xbd705e6a	-0.05868379
27	0xbee9035a	-0.4551037
28	0x3ba8d563	0.005152391
29	0xbd8bafa4	-0.0682061
30	0xbf22dd49	-0.63618904
31	0x3f3463d1	0.7046481
32	0xbe0d1258	-0.13776529
33	0x3dc06de4	0.0939596
34	0x3f086cfa	0.53291285
35	0xbe0f4b24	-0.13993508
36	0x3ebd3abb	0.3695887
37	0x3e6032aa	0.21894327
38	0xbecc0399	-0.39846495
39	0x3eb26e04	0.3484956
40	0x3ea24e82	0.31700522
41	0x3e0bad57	0.13640343
42	0xbd708567	-0.058720972
43	0x3e0149aa	0.12625757
44	0xbdf6d2b8	-0.1205191
45	0xbc1763fa	-0.009240145
46	0xbdd2e097	-0.10296743
47	0x3e979052	0.29602295
48	0xbeb81a01	-0.3595734
49	0x3e4153ee	0.18879673
50	0x3d5c349e	0.053761117
51	0xbebd25d5	-0.36942926
52	0xbd7418a8	-0.059593827
53	0x3dfbf98d	0.123034574
54	0x3e80f434	0.25186312
55	0x3edeeb9c	0.4353913
56	0x3eb5d052	0.35510498
57	0x3d4984ca	0.049198903
58	0xbe88a463	-0.26687917
59	0xbd7a3119	-0.06108198
60	0xbdccab15	-0.09993569
61	0xbe671872	-0.22567919
62	0x3e34e0d1	0.17663886
63	0xbe3c25cb	-0.18373792
64	0xbe8080a1	-0.25098136
65	0xbe08464e	-0.13308069
66	0x3e986782	0.2976647
67	0x3e9e20d2	0.30884415
68	0x3e2ca35b	0.1685919
69	0x3e394fb8	0.18096817
70	0x3ead2bbf	0.33822438
71	0x3e8075ca	0.25089866
72	0x3f000709	0.50010735
73	0xbe061c89	-0.13096823
74	0xbf18d330	-0.59697247
75	0x3f9a00de	1.2031515
76	0xbe24425a	-0.16040936
77	0xbc837ffb	-0.016052237
78	0x3eeddd5c	0.46457946
79	0xbf6ee185	-0.93312865
80	0xbee07da8	-0.43845868
81	0x3da41850	0.0801245
82	0x3ef7e81e	0.4841928
83	0xbf12fa1b	-0.5741288
84	0xbd9e0566	-0.077158734
85	0xbdbd2489	-0.09235484
86	0xbd91a476	-0.071114466
87	0x3e9da94c	0.30793226
88	0xbec9769e	-0.3934831
89	0x3d99c946	0.07509093
90	0x3ea6437d	0.32473364
91	0xbf489d57	-0.7836508
92	0xbb165694	-0.0022939788
93	0xbe90478d	-0.2817959
94	0xbf0ae8c7	-0.5426144
95	0x3f6abe11	0.9169627
96	0xbf1bd32f	-0.60869116
97	0x3e7b8ee7	0.24566232
98	0x3e2a5f0b	0.16637819
99	0x3e02aec2	0.12761977
100	0x3e0703a9	0.1318499
101	0x3e1b13c3	0.15144257
102	0x3e44c7e7	0.19216882
103	0xbc3265c5	-0.010888522
104	0xbe2e7dfe	-0.1704025
105	0x3d83ceb4	0.0643591
106	0xbe355888	-0.17709553
107	0x3ee9765c	0.45598114
108	0x3d2ac5dd	0.041692603
109	0xbe24a471	-0.16078354
110	0x3de0f181	0.10983563
111	0xbd2a4643	-0.041570913
112	0xbeb873e8	-0.3602593
113	0x3edec204	0.43507397
114	0x3dfb4353	0.122687005
115	0xbba54176	-0.005043204
116	0x3dfc6170	0.12323272
117	0x3e7dcf70	0.24786162
118	0xbe70fc56	-0.23533759
119	0x3e91ea6b	0.2849916
120	0xbcb38767	-0.02191515
121	0xbe147c2d	-0.14500494
122	0xbecf4454	-0.40481818
123	0x3ee0ceb5	0.43907705
124	0xbcb793eb	-0.0224094
125	0x3ebce6c5	0.36894813
126	0x3e515f29	0.20446457
127	0xbee8d2a6	-0.45473212
128	0xbe3c2af6	-0.18375763
129	0xbedf665d	-0.43632784
130	0x3e9290af	0.2862601
131	0x3e53f617	0.20699345
132	0x3e12d6f1	0.14339806
133	0xbe49aab6	-0.19694027
134	0xbee48795	-0.4463469
135	0xbd840119	-0.06445522
136	0x3edbae5e	0.4290647
137	0xbeb4e11e	-0.35328
138	0xbeef31cc	-0.4671768
139	0xbc88d34d	-0.016702319
140	0xbe4d81c6	-0.20069036
141	0xbea30d00	-0.31845856
142	0x3dd2168e	0.10258208
143	0xbe8cfdc4	-0.27537358
144	0xbd497cc1	-0.04919124
145	0xbeded4f4	-0.43521845
146	0xbe437caf	-0.19090532
147	0x3e04f9d6	0.1298593
148	0xbf58223d	-0.84427243
149	0x3f12076d	0.5704258
150	0xbec1f84d	-0.3788475
151	0x3ec0a57a	0.3762625
152	0xbecf431b	-0.40480885
153	0x3e67af64	0.226255
154	0x3ea9ab73	0.33138618
155	0xbeb07b46	-0.3446905
156	0xbecff8fd	-0.4061965
157	0x3d5717ea	0.05251304
158	0xbf058e6b	-0.5217044
159	0x3ecd6558	0.40116382
160	0xbe64969a	-0.22323075
161	0x3c91b1ce	0.01778498
162	0x3ed14217	0.40870735
163	0xbc9ecea6	-0.019385647
164	0xbe49f73b	-0.19723217
165	0x3e947c98	0.29001307
166	0xbeaeb486	-0.34122103
167	0x3f2a476b	0.66515225
168	0x3ed4cd08	0.41562676
169	0xbd9fcfde	-0.078033194
170	0x3d82e174	0.06390658
171	0xbdab6ce3	-0.08370378
172	0xbdd2b310	-0.1028806
173	0x3ed9118c	0.423962
174	0xbe0e6709	-0.13906492
175	0x3d96a8bc	0.07356402
176	0x3e92fbed	0.2870783
177	0xbc035393	-0.008015531
178	0xbe5ba781	-0.21450616
179	0x3e7f097a	0.24905959
180	0xbeaaa461	-0.33328536
181	0xbf1326b5	-0.5748094
182	0xbda99ecb	-0.082822405
183	0xbe9daec7	-0.30797407
184	0xbe40a5bc	-0.18813223
185	0x3efdaccc	0.49545896
186	0x3e7399a3	0.23789077
187	0xbd3affbf	-0.045654055
188	0x3d265fd2	0.040618725
189	0x3ee9a2cf	0.45632026
190	0x3d62423e	0.055238955
191	0xbf01dc95	-0.50727206
192	0x3f011dfc	0.5043638
193	0x3ec707b4	0.38873065
194	0xbeab3ec4	-0.33446324
195	0x3e937913	0.2880331
196	0x3e3b63be	0.18299767
197	0x3ecc2687	0.39873144
198	0x3e0f5a59	0.13999309
199	0x3e8c4b6b	0.2740129
200	0xbf2b4399	-0.6690002
201	0x3e0aa30b	0.13538758
202	0x3f86a5ae	1.0519311
203	0xbeafcc17	-0.34335396
204	0xbe82bb6d	-0.2553362
205	0x3dc35cbe	0.095391735
206	0xbefe32b0	-0.49648046
207	0x3efbb243	0.4915944
208	0x3e848496	0.25882405
209	0xbe65ded3	-0.22448282
210	0x3e694696	0.22780833
211	0x3ea0bfac	0.31396234
212	0xbdba32e2	-0.090917364
213	0xbdf4652c	-0.119333595
214	0x3eb91715	0.36150423
215	0xbec04235	-0.37550512
216	0x3e83e3f5	0.25759855
217	0x3e3d3534	0.18477327
218	0xbe5b0e3b	-0.21392147
219	0x3f41fe5a	0.75778735
220	0x3d3d0ced	0.046154905
221	0x3ee2fd17	0.44333717
222	0x3f01af82	0.5065843
223	0xbf36e307	-0.71440166
224	0xbd441297	-0.04786929
225	0xbd9255f5	-0.07145301
226	0x3e67d9af	0.22641633
227	0xbed47d7f	-0.41501996
228	0x3d49f299	0.049303625
229	0x3ebc070d	0.3672413
230	0x3df0bd56	0.11754863
231	0x3ea63a28	0.32466245
232	0x3d938a4a	0.07204111
233	0xbe7023f0	-0.23451209
234	0x3e1f8b5f	0.1558051
235	0xbeb7e22d	-0.35914746
236	0xbd5c3ba7	-0.053767826
237	0xbd7d38de	-0.06182181
238	0xbe6b094d	-0.22952767
239	0x3ef98264	0.48732293
240	0x3ee215ea	0.44157344
241	0x3dbcb994	0.09215084
242	0x3e3b8ded	0.18315859
243	0xbe9e1a68	-0.3087952
244	0x3df9a9f7	0.12190621
245	0xbedf97c4	-0.43670475
246	0x3e70bfdc	0.23510689
247	0x3dad0a90	0.0844928
248	0x3e8a9e3e	0.27073854
249	0xbf127bfb	-0.5722043
250	0xbe05f425	-0.13081415
251	0xbce39058	-0.02777879
252	0x3f23af93	0.6393978
253	0xbec651ed	-0.3873438
254	0x3e371bda	0.17881718
255	0x3f7cfce9	0.9882341

static_variable_selection.single_variable_grns.AGE517.gate_norm.glu.fc.bias f4 [32]
0	0x3da0a23d	0.078434445
1	0xbe592658	-0.21206033
2	0xbe373cd2	-0.17894295
3	0x3e7e06c4	0.24807268
4	0x3e94f406	0.29092425
5	0x3db817cb	0.08988913
6	0x3d44bab4	0.048029616
7	0xbdf52c10	-0.11971295
8	0x3cef0932	0.02917919
9	0xbe95fb4c	-0.29293287
10	0x3d7a7eb7	0.061156
11	0xbee3d470	-0.44498014
12	0xbd4c5354	-0.049884155
13	0xbebf8a9c	-0.37410438
14	0x3e50e230	0.20398784
15	0xbd68af06	-0.05680754
16	0xbc841161	-0.016121568
17	0x3b62d229	0.0034610128
18	0xbf28202c	-0.6567409
19	0xbd7ac4ac	-0.061222717
20	0xbe9092b0	-0.28236914
21	0xbf1b00bd	-0.60548
22	0xbdd85dcd	-0.10564766
23	0xbe00b4f4	-0.12569028
24	0xbe00d584	-0.1258145
25	0x3e9ab6bb	0.30217537
26	0x3e83e133	0.2575775
27	0x3ee9dc08	0.45675683
28	0xbdbf1dd7	-0.093318634
29	0x3dede59d	0.11616061
30	0xbf081637	-0.531589
31	0xbed70931	-0.419992

static_variable_selection.single_variable_grns.AGE517.gate_norm.add_norm.norm.weight f4 [16]
0	0x3f16c31c	0.58891463
1	0x3f21cf1f	0.63206667
2	0x3f032053	0.512212
3	0x3fcc8629	1.5978442
4	0x3fb71f50	1.4306431
5	0x3f353c76	0.7079538
6	0x3f8760db	1.0576433
7	0x3f058de1	0.52169615
8	0x3f4b7f7a	0.7949139
9	0x3f944816	1.1584499
10	0x3f711098	0.94165945
11	0x3fb0ce9d	1.3813053
12	0x3f0621d0	0.52395344
13	0x3fa4af79	1.286605
14	0x3e15d5c3	0.14632325
15	0x3ef4ce0b	0.47813448

static_variable_selection.single_variable_grns.AGE517.gate_norm.add_norm.norm.bias f4 [16]
0	0x3e2bd4de	0.16780421
1	0xbe6daf7e	-0.23211476
2	0xbe1cd245	-0.15314586
3	0x3f2fbdfa	0.68649256
4	0x3ec7d2bd	0.39027968
5	0xbc5bf13d	-0.013424215
6	0xbe0bf375	-0.1366709
7	0xbe9a087f	-0.30084607
8	0x3cef6e66	0.029227447
9	0xbdbb1189	-0.09134204
10	0xbda7ec1a	-0.0819933
11	0xbece81ac	-0.40333307
12	0xbdc8f417	-0.098121814
13	0xbb855d56	-0.0040699644
14	0xbe10055e	-0.14064547
15	0xbdd3e29f	-0.10345959

static_variable_selection.prescalers.AGE517.weight f4 [8, 1]
0	0xbd03ae37	-0.032148566
1	0xbf64aa41	-0.89322287
2	0xbde90e27	-0.113796525
3	0x3edcfb4f	0.43160483
4	0xbf4aca45	-0.7921489
5	0x3ed6e4c7	0.41971418
6	0xbf56958d	-0.83821946
7	0x3f203063	0.6257383

static_variable_selection.prescalers.AGE517.bias f4 [8]
0	0xbdc518dd	-0.09623883
1	0x3f425b30	0.7592039
2	0x3f3a6e4f	0.7282457
3	0xbd80701b	-0.062713824
4	0xbe6691a0	-0.22516489
5	0xbf130348	-0.5742688
6	0xbde415e5	-0.111369886
7	0xbea6e162	-0.32593828

encoder_variable_selection.flattened_grn.resample_norm.mask f4 [3]
0	0xbf8ea5b8	-1.1144323
1	0xbcb758c5	-0.022381196
2	0x3edd2d42	0.4319859

encoder_variable_selection.flattened_grn.resample_norm.norm.weight f4 [3]
0	0x3f723fdf	0.9462871
1	0x3f9065b0	1.1281033
2	0x4009256e	2.1429095

encoder_variable_selection.flattened_grn.resample_norm.norm.bias f4 [3]
0	0x3e929e5d	0.28636447
1	0xbd1c14a1	-0.03810561
2	0xbee2a32f	-0.44265124

encoder_variable_selection.flattened_grn.fc1.weight f4 [3, 24]
0	0x3f443bba	0.76653636
1	0xbeea1696	-0.45720357
2	0x3ea99353	0.33120212
3	0xbe887b92	-0.26656777
4	0x3e461bb7	0.1934651
5	0x3d8d7c1a	0.06908436
6	0xbd99394e	-0.07481633
7	0xbd9143fd	-0.07093046
8	0xbf1bc711	-0.60850626
9	0xbc27c617	-0.010240099
10	0xbdef0cf4	-0.116723925
11	0xbfae51f1	-1.3618757
12	0x3e2f7bc0	0.1713705
13	0x3e7ec0fb	0.24878304
14	0x3e2a6270	0.16639113
15	0x3e951b37	0.29122326
16	0x3f1ed2d7	0.62040466
17	0xbf4fc6a9	-0.81162506
18	0x3e2e0755	0.16994984
19	0x3da13880	0.07872105
20	0x3e5a921e	0.21344802
21	0xbcf8981c	-0.030345969
22	0x3cb687ed	0.022281611
23	0x3ea0abd3	0.3138109
24	0x3de7edaf	0.113246314
25	0x3ebc32e1	0.36757568
26	0xbf512344	-0.81694436
27	0xbe3e5976	-0.18588814
28	0xbee6ae33	-0.45054778
29	0x3edae929	0.42756012
30	0xbf05f6e0	-0.52329826
31	0xbe237dc1	-0.1596594
32	0xbf1bd0da	-0.6086556
33	0x3ed603cb	0.4179977
34	0xbeb80560	-0.359416
35	0xbf27fc65	-0.656195
36	0xbe81e8d9	-0.2537296
37	0xbe3c593c	-0.18393415
38	0x3ea3ed97	0.32017204
39	0x3d5d0bc1	0.053966288
40	0xbe07e6a9	-0.13271584
41	0x3eeaedf9	0.45884684
42	0xbe399c6a	-0.18126073
43	0xbf142e3e	-0.5788306
44	0xbeee04d5	-0.46488062
45	0xbe580bfe	-0.21098325
46	0x3ead7235	0.33876196
47	0x3d9072d5	0.070531525
48	0x3f1d7494	0.6150601
49	0xbf667a27	-0.9003014
50	0x3de94293	0.11389651
51	0xbf15d864	-0.5853331
52	0x3f1095be	0.5647849
53	0x3f0fa66c	0.56113315
54	0x3ca43697	0.020045562
55	0x3efea9b0	0.49738836
56	0xbee6299c	-0.4495362
57	0x3ef261ec	0.47340333
58	0x3ef624c4	0.48074925
59	0x3ea7394a	0.32660896
60	0xbe7921d0	-0.24329305
61	0xbe7fb80c	-0.24972552
62	0x3e8f8a6a	0.2803529
63	0xbce4f22d	-0.02794751
64	0x3ee59541	0.44840434
65	0x3e1c649b	0.15272753
66	0xbe8903e1	-0.26760772
67	0x3daf043d	0.0854573
68	0xbc07c2eb	-0.008286218
69	0xbd8a2c23	-0.067467
70	0xbf2077c8	-0.6268277
71	0x3ee61d53	0.44944248

encoder_variable_selection.flattened_grn.fc1.bias f4 [3]
0	0xbe22d2d3	-0.15900736
1	0xbed76f27	-0.4207699
2	0xbeaeb389	-0.3412135

encoder_variable_selection.flattened_grn.context.weight f4 [3, 16]
0	0xbd53f03c	-0.051742777
1	0x3d44d992	0.048059054
2	0xbe6c1b6f	-0.2305734
3	0xbe341a38	-0.17588127
4	0x3e38598d	0.18002911
5	0xbe92b5b6	-0.2865426
6	0x3dc3b4c7	0.09555965
7	0x3d54b4d6	0.05193027
8	0xbe5fac2b	-0.2184302
9	0x3d706bbd	0.058696497
10	0xbd6f8a7f	-0.05848169
11	0x3e6288b8	0.22122467
12	0x3ea1eb00	0.31624603
13	0xb9b5f31a	-0.00034704135
14	0xbb3ecabe	-0.0029112543
15	0xbda3e892	-0.08003344
16	0x3eb08af3	0.3448101
17	0x3e11a672	0.1422365
18	0x3f30eccb	0.6911132
19	0xbf1eaa33	-0.61978453
20	0xbf5cb264	-0.862097
21	0x3f7ae33c	0.9800298
22	0xbe72f4b8	-0.23726165
23	0xbf28f699	-0.6600128
24	0x3e10ffed	0.14160128
25	0xbe0257d6	-0.12728819
26	0xbf3cb5e1	-0.73715025
27	0x3ea43a84	0.32075894
28	0x3e36758f	0.17818283
29	0x3d122083	0.035675537
30	0xbf1a40b7	-0.60254997
31	0xbec5a99a	-0.38605958
32	0x3e1585cd	0.14601822
33	0xbe19c40d	-0.15016194
34	0x3f2d2cb8	0.6764636
35	0xbe8b7e8c	-0.27244985
36	0xbe8a0339	-0.26955584
37	0x3f25cb37	0.64763206
38	0xbe43213c	-0.19055647
39	0xbd4c1106	-0.049820922
40	0xbe76b4f5	-0.24092467
41	0xbce06038	-0.02738963
42	0x3d014cfb	0.031567555
43	0x3dc09197	0.09402769
44	0xbe3a15df	-0.18172406
45	0xbe1273af	-0.14301942
46	0xbd6617a0	-0.056174874
47	0x3ea98956	0.33112592

encoder_variable_selection.flattened_grn.fc2.weight f4 [3, 3]
0	0xbf18a549	-0.59627205
1	0xbf971d4b	-1.1805815
2	0xbe2df44c	-0.16987723
3	0xbe596bd8	-0.21232545
4	0xbf7565eb	-0.9585864
5	0xbec6d631	-0.3883529
6	0xbecd6e15	-0.40123048
7	0xbf612bf2	-0.8795768
8	0xbe4cb38e	-0.1999037

encoder_variable_selection.flattened_grn.fc2.bias f4 [3]
0	0x3da59f95	0.080870785
1	0xbe138f48	-0.14410126
2	0xbdd03f76	-0.10168354

encoder_variable_selection.flattened_grn.gate_norm.glu.fc.weight f4 [6, 3]
0	0x3e2550e9	0.16144146
1	0xbe10af8f	-0.1412947
2	0x3ef774c5	0.48331276
3	0xbe20ae89	-0.1569158
4	0xbeefd485	-0.46841827
5	0x3e60d5e8	0.21956599
6	0xbe447808	-0.19186413
7	0xbed5a998	-0.41730952
8	0xbe5d4a97	-0.21610485
9	0xbeaf508a	-0.34241134
10	0xbf380f7f	-0.71898645
11	0x3f3f782c	0.7479274
12	0x3f35d60c	0.71029735
13	0xbe48ae30	-0.19597697
14	0xbeb403a5	-0.3515903
15	0x3f357934	0.70888066
16	0x3f0a28ea	0.5396868
17	0x3f6e8028	0.931643

encoder_variable_selection.flattened_grn.gate_norm.glu.fc.bias f4 [6]
0	0x3e8e36e8	0.27776265
1	0x3de43349	0.11142594
2	0xbf1d2ce1	-0.61396605
3	0xbee5da7d	-0.44893256
4	0xbeb0ff69	-0.34569862
5	0x3f21c5d3	0.6319248

encoder_variable_selection.flattened_grn.gate_norm.add_norm.norm.weight f4 [3]
0	0x3e6240f6	0.22095093
1	0x3eaa5565	0.33268276
2	0x3eb00456	0.34378308

encoder_variable_selection.flattened_grn.gate_norm.add_norm.norm.bias f4 [3]
0	0x3e29cd53	0.16582231
1	0xbf1abc3a	-0.6044346
2	0x3f24bc17	0.643495

encoder_variable_selection.single_variable_grns.SinWeekly.resample_norm.mask f4 [16]
0	0xbeb48a9d	-0.35262004
1	0xbeb2c827	-0.3491833
2	0x3f2c6754	0.67345166
3	0x3f15efa2	0.58568776
4	0xbea14c0d	-0.31503335
5	0xbb6df795	-0.00363109
6	0xbedd9531	-0.43277887
7	0xbc684348	-0.014176197
8	0xbf388c12	-0.7208873
9	0xbd0385a1	-0.03210986
10	0xbe554208	-0.2082597
11	0xbe6db35c	-0.23212951
12	0xbe358a0b	-0.1772844
13	0xbe24e010	-0.16101098
14	0x3e034d0d	0.12822361
15	0x3ebe546e	0.3717379

encoder_variable_selection.single_variable_grns.SinWeekly.resample_norm.norm.weight f4 [16]
0	0x3fa93eb7	1.3222264
1	0x3ed7283c	0.42022884
2	0x40004300	2.0040894
3	0x3fc2b05d	1.5210072
4	0x3f78f751	0.97252375
5	0x3f83ffa4	1.031239
6	0x3f229934	0.6351502
7	0x3f8e82ee	1.1133707
8	0x3d4a93c4	0.049457327
9	0x3f61e305	0.8823703
10	0x3f9410a1	1.1567575
11	0x3f8ef247	1.1167687
12	0x3f3ebe94	0.7450955
13	0x3f721316	0.9456037
14	0x3fc3c45d	1.52943
15	0x3fa6822a	1.3008473

encoder_variable_selection.single_variable_grns.SinWeekly.resample_norm.norm.bias f4 [16]
0	0x3e1662ce	0.14686128
1	0x3dc3a457	0.0955283
2	0xbe72d2fe	-0.237133
3	0x3dcf4d70	0.10122192
4	0xbdb2241b	-0.08698293
5	0x3d96c216	0.07361238
6	0xbeab8fdd	-0.33508196
7	0xbb48be96	-0.0030631176
8	0x3e2b1406	0.16706857
9	0xbd3a30eb	-0.045456808
10	0x3c0d6a3b	0.008631284
11	0x3e234634	0.15944749
12	0xbe56c490	-0.2097342
13	0xbbef6289	-0.0073054475
14	0xbd86c8a4	-0.06581238
15	0x3d66fed0	0.056395352

encoder_variable_selection.single_variable_grns.SinWeekly.fc1.weight f4 [8, 8]
0	0x3f107bc6	0.56438863
1	0xbfc4f5e9	-1.5387546
2	0xbf3e5e16	-0.74362314
3	0xbfeebd6e	-1.8651559
4	0xbe92ef40	-0.28698158
5	0xbd727894	-0.059197024
6	0x3e989720	0.298028
7	0x3ef4396f	0.47700068
8	0x3e68b89c	0.22726673
9	0x3e99305f	0.29919717
10	0xbe562b0b	-0.20914857
11	0xbe5433de	-0.20722911
12	0xbe823e3a	-0.254381
13	0x3f553dd5	0.83297473
14	0xbf0c18d0	-0.5472536
15	0xbed63966	-0.41840667
16	0x3dfc9565	0.12333182
17	0xbc7c6028	-0.015403785
18	0xbf3a3c28	-0.7274804
19	0x3e651046	0.22369489
20	0xbf94e8be	-1.1633527
21	0x3f2df7df	0.67956346
22	0x3ee7e355	0.45290628
23	0xbd7e8f5c	-0.062148437
24	0x3e77539c	0.24152988
25	0x3b310400	0.002701044
26	0xbec0a44b	-0.37625346
27	0x3c52501e	0.012836484
28	0x3e890f18	0.26769328
29	0x3e7ec106	0.2487832
30	0x3e39be82	0.18139079
31	0x3efc29cf	0.49250647
32	0xbf422d00	-0.75849915
33	0xbecc4927	-0.3989956
34	0x3f9fb78e	1.2477891
35	0xbee570e5	-0.44812694
36	0x3e77d09a	0.24200669
37	0x3f3c3829	0.73523194
38	0x3f1d569b	0.61460274
39	0xbf64b736	-0.8934206
40	0x3f62052b	0.88289136
41	0xbeb40e0e	-0.35166973
42	0xbf22a6a5	-0.6353553
43	0x3c33b7dc	0.010969128
44	0x3e854d78	0.26035666
45	0xbea5adce	-0.32359165
46	0xbe19bea0	-0.15014124
47	0x3e8babf0	0.27279615
48	0xbf5af14b	-0.85524434
49	0xbd551a07	-0.052026775
50	0xbfd5cb29	-1.6702625
51	0x3f06ed2e	0.5270566
52	0xbf63ba76	-0.8895639
53	0x3ed24e9b	0.41075596
54	0xc0123742	-2.2846227
55	0xbfd66627	-1.6749924
56	0x3e77020f	0.24121879
57	0xbdbe7127	-0.09298926
58	0xbf1b4927	-0.60658497
59	0x3e075849	0.13217272
60	0x3f7b6123	0.98195094
61	0x3f038f6f	0.5139074
62	0xbdab014a	-0.08349855
63	0x3f056027	0.5209984

encoder_variable_selection.single_variable_grns.SinWeekly.fc1.bias f4 [8]
0	0xbe2e5eb6	-0.17028317
1	0xbcd84cb7	-0.026403768
2	0xbe34b312	-0.17646435
3	0xbe62e138	-0.22156227
4	0xbd34762e	-0.044058017
5	0xbce2470a	-0.027621765
6	0xbec8efd3	-0.3924547
7	0xbdd1ddc1	-0.10247374

encoder_variable_selection.single_variable_grns.SinWeekly.fc2.weight f4 [8, 8]
0	0xbf6d95e4	-0.9280684
1	0x3de46c60	0.111534834
2	0xbf8f5dd2	-1.1200507
3	0xbe909c8d	-0.2824444
4	0xbe97edf3	-0.29673728
5	0xbd93166f	-0.07182013
6	0x3f37301d	0.7155779
7	0xbdafd68d	-0.08585844
8	0x3ebbbf9a	0.36669618
9	0xbee58099	-0.44824675
10	0x3e57c96e	0.21072933
11	0x3e5a1562	0.2129722
12	0x3e2cb4a2	0.16865781
13	0x3d9edfc0	0.07757521
14	0x3f5218a6	0.8206886
15	0x3bb04ae6	0.0053800223
16	0x3efa1d9c	0.48850715
17	0xbea26621	-0.31718543
18	0xbc1f718c	-0.0097316615
19	0xbee561ac	-0.4480108
20	0x3ed821d3	0.42213306
21	0x3d0fd4b5	0.035114963
22	0x3f68e9b3	0.90981597
23	0x3ebaec71	0.36508515
24	0x3f1526d4	0.5826237
25	0x3f2cf8c0	0.6756706
26	0x3eddbcd6	0.43308133
27	0x3dec5da1	0.11541296
28	0x3e862794	0.2620207
29	0xbda9d30f	-0.08292209
30	0x3f256db3	0.6462051
31	0xbe81151c	-0.25211418
32	0xbf891fb7	-1.0712804
33	0x3f750e9d	0.95725423
34	0xbeac77fb	-0.33685288
35	0x3d911dc5	0.07085756
36	0xbe0b5be8	-0.13609278
37	0x3c07ee9a	0.008296633
38	0x3ecc60a3	0.39917478
39	0xbe3a99b9	-0.18222703
40	0x3e4227b8	0.18960464
41	0xbefe28e8	-0.49640584
42	0xbee1e33b	-0.44118676
43	0xbd11a212	-0.035554953
44	0xbf3b8546	-0.73250234
45	0x3d90fbe7	0.070792966
46	0xbf20c662	-0.6280271
47	0xbe92c3f0	-0.28665113
48	0x3eab1fba	0.33422643
49	0xbc908d1f	-0.017645417
50	0x3d5495f2	0.05190081
51	0xbcdbfe3c	-0.026854627
52	0x3f1b1901	0.6058503
53	0xbc9d9ce8	-0.019239858
54	0x3ec51705	0.38494125
55	0x3d81132f	0.06302487
56	0x3f3f3259	0.746862
57	0xbe09757e	-0.13423726
58	0x3e9b8c4e	0.3038048
59	0x3e88cc95	0.26718584
60	0x3f34905e	0.70532787
61	0x3d44e75a	0.048072197
62	0x3f8ab19b	1.0835451
63	0xbef4b292	-0.47792488

encoder_variable_selection.single_variable_grns.SinWeekly.fc2.bias f4 [8]
0	0xbe0e1352	-0.13874558
1	0xbdcb993d	-0.09941337
2	0x3d389d7c	0.045072064
3	0x3e85d2af	0.261373
4	0xbd54ad88	-0.051923305
5	0x3e3f2455	0.18666203
6	0x3e2e8f9a	0.17046967
7	0x3de2d3ea	0.11075576

encoder_variable_selection.single_variable_grns.SinWeekly.gate_norm.glu.fc.weight f4 [32, 8]
0	0x3eb412bb	0.3517054
1	0x3f170abe	0.59000766
2	0x3f2fd203	0.6867983
3	0x3eddf9d4	0.43354666
4	0x3ea54ad8	0.32283664
5	0xbf6c8b91	-0.9240046
6	0x3e3b5fb5	0.18298228
7	0x3f3b4997	0.73159164
8	0xbe4a2353	-0.19740038
9	0x3e085617	0.1331409
10	0xbe8aecbb	-0.27133736
11	0xbee1e6dd	-0.44121447
12	0x3bf73864	0.007544564
13	0x3e055ff6	0.13024887
14	0x3e747e3f	0.23876284
15	0x3e26166a	0.16219488
16	0x3ea651dd	0.32484332
17	0x3efa05d2	0.48832566
18	0xbd8076eb	-0.06272682
19	0x3f0f76bb	0.56040543
20	0x3e9286cb	0.28618464
21	0xbe9a4a39	-0.30134752
22	0xbee7d06f	-0.4527621
23	0x3da5978c	0.08085546
24	0x3eb68f66	0.3565628
25	0xbf20d9e2	-0.6283246
26	0xbf3b812b	-0.7324397
27	0xbf3f7767	-0.7479157
28	0x3ea8ce7d	0.32970038
29	0x3ec0152b	0.3751615
30	0xbef9fb76	-0.48824662
31	0xbed3d1a2	-0.41370875
32	0x3e6c1ba0	0.23057413
33	0x3e7ded4a	0.2479755
34	0x3f05e788	0.52306414
35	0x3ef068cf	0.46954963
36	0x3e399fb4	0.18127328
37	0xbecbef92	-0.39831215
38	0x3eb81c44	0.35959065
39	0x3ec71569	0.38883522
40	0x3e3392f2	0.17536524
41	0xbde74733	-0.11292877
42	0x3bce6e9b	0.0062998063
43	0x3dc584f3	0.09644499
44	0xbe72baac	-0.23704022
45	0xbe9a012c	-0.3007902
46	0xbdef5b9c	-0.11687395
47	0x3e5a77ba	0.21334735
48	0x3e3c1db4	0.18370706
49	0xbf1d4369	-0.61430985
50	0xbf76bdc1	-0.9638329
51	0xbf037e67	-0.5136475
52	0x3ea53bbb	0.32272133
53	0x3d2c29c2	0.04203201
54	0xbf102cc6	-0.5631832
55	0xbef5cf5f	-0.48009774
56	0x3de94b15	0.11391274
57	0xbea4311c	-0.32068717
58	0xbdc94ca2	-0.0982907
59	0xbecbc7af	-0.39800784
60	0xbe9ea234	-0.30983126
61	0xbd2abfac	-0.0416867
62	0xbb6248dd	-0.0034528293
63	0xbee756b3	-0.45183334
64	0x3f185ab7	0.5951342
65	0x3f19d23c	0.6008642
66	0x3ed3eea3	0.41393003
67	0x3f6ac663	0.91708964
68	0x3ed05238	0.40687728
69	0xbf754bea	-0.9581896
70	0x3eb85db6	0.36008996
71	0x3f015c91	0.5053187
72	0xbe3c10b9	-0.18365754
73	0xbf3f5b8d	-0.7474907
74	0xbc8e11d5	-0.017342487
75	0xbef8ead1	-0.4861665
76	0xbe563392	-0.2091811
77	0x3e41e3a2	0.18934491
78	0x3e07d7f4	0.13265973
79	0xbd06b477	-0.03288695
80	0x3d46cbf1	0.048534337
81	0x3e9d3be5	0.30709758
82	0x3e085ae5	0.13315924
83	0x3e8fc1b9	0.28077486
84	0x3e936b41	0.28792766
85	0xbd3956e6	-0.04524889
86	0x3e48e9ca	0.19620433
87	0x3ecfdac6	0.40596598
88	0x3da2e63f	0.07954072
89	0x3e94e1aa	0.29078418
90	0x3e5b6be6	0.21427879
91	0x3bb9d483	0.0056710853
92	0xbdd3d9f3	-0.10344305
93	0xbf00ed02	-0.50361645
94	0x3eaf52a2	0.3424273
95	0x3e6684d7	0.22511612
96	0x3f3fed57	0.74971527
97	0x3e569692	0.20955876
98	0xbe8647d7	-0.26226684
99	0xbf049eb2	-0.5180465
100	0x3f548299	0.83011776
101	0xbefd41e0	-0.4946432
102	0xbf1e7393	-0.618951
103	0xbf2b9232	-0.6701995
104	0x3f10598f	0.56386656
105	0xbe0fe9ae	-0.14053985
106	0xbebe00fb	-0.37110123
107	0xbeab42f9	-0.33449534
108	0x3ef9b8b4	0.4877373
109	0xbea1e5b7	-0.3162057
110	0xbf163bef	-0.586852
111	0xbf3ba7a5	-0.7330268
112	0xbebb7360	-0.36611462
113	0xbe80ecd1	-0.25180677
114	0x3f014dd2	0.5050937
115	0x3d244c5b	0.04011188
116	0xbeb8b701	-0.3607712
117	0x3f118e14	0.5685742
118	0x3d3c0b8f	0.04590946
119	0x3eadc488	0.33939004
120	0x3e37154e	0.17879221
121	0xbf290839	-0.6602817
122	0xbf14f4e5	-0.5818618
123	0xbeaeef29	-0.3416684
124	0xbd3c0354	-0.04590161
125	0x3e3aaafb	0.18229286
126	0xbe388e9b	-0.1802315
127	0xbec4fecb	-0.38475642
128	0x3f365a16	0.7123121
129	0x3e4ecd68	0.20195544
130	0xbd792d7a	-0.060834385
131	0x3ea75661	0.3268309
132	0x3f23f138	0.64039946
133	0xbe980935	-0.29694524
134	0xbf364f80	-0.7121506
135	0xbd689c3d	-0.056789625
136	0x3e8225c5	0.2541944
137	0xbef5da20	-0.4801798
138	0xbebe87d1	-0.37212995
139	0xbed81b65	-0.422084
140	0xbe440bd9	-0.19145145
141	0x3e66b065	0.22528227
142	0xbe772eea	-0.2413899
143	0xbe2f94fc	-0.17146677
144	0x3e2c8ab1	0.16849782
145	0xbe3df55e	-0.18550631
146	0xbe26f387	-0.16303836
147	0x3dce8ba1	0.10085226
148	0xbc3f8198	-0.011688612
149	0xbd636c2c	-0.055523083
150	0xbdd0cb88	-0.101950705
151	0x3f4d567c	0.8021009
152	0xbe358ce1	-0.17729522
153	0xbe0cdb78	-0.13755596
154	0xbd5034f1	-0.05083174
155	0xbe4130ee	-0.18866321
156	0xbeafaa84	-0.3430978
157	0x3f3b6f1a	0.732164
158	0x3db115b7	0.0864672
159	0x3deecd4e	0.116602525
160	0x3f41d556	0.7571615
161	0x3e2fcd6c	0.17168206
162	0xbe51d558	-0.2049154
163	0x3bc6cb6e	0.006066731
164	0x3f3456b9	0.7044483
165	0xbeb2f0f5	-0.3494946
166	0xbe61d03e	-0.22052094
167	0xbe64b8ea	-0.22336164
168	0xbd428dba	-0.047498442
169	0xbd1feaa3	-0.039042126
170	0x3dd1531a	0.102209285
171	0xbe3621a9	-0.17786278
172	0x3e165c9d	0.14683767
173	0xbf2832f6	-0.6570276
174	0x3c08459f	0.00831738
175	0xbec9b709	-0.39397457
176	0xbdf069c4	-0.11738923
177	0xbcc97ff9	-0.024597155
178	0x3d4ba020	0.049713254
179	0xbddedd82	-0.10882093
180	0xbea6e8ea	-0.32599574
181	0xbe7d578b	-0.24740426
182	0x3f238680	0.63877106
183	0x3e6915db	0.22762243
184	0xbf217a3d	-0.63077146
185	0x3e96fde3	0.29490575
186	0xbd03fee8	-0.03222552
187	0xbe0cf5ea	-0.13765684
188	0x3e024e72	0.12725237
189	0x3cd0a311	0.025468381
190	0x3e0c726c	0.13715523
191	0xbe382dfd	-0.17986293
192	0x3f1f50af	0.6223249
193	0x3e16815b	0.14697783
194	0x3c8ea8d0	0.01741448
195	0x3e06b938	0.13156593
196	0x3f39c3ef	0.72564596
197	0xbe66549b	-0.22493212
198	0xbeea32ba	-0.45741826
199	0xbdb8fe47	-0.090328746
200	0x3e6e5c13	0.23277311
201	0x3d415bcb	0.04720668
202	0x3e1f5293	0.15558843
203	0x3f12fae3	0.5741407
204	0x3ecd1cb7	0.4006097
205	0xbe8b63df	-0.27224633
206	0xbf2a5596	-0.66536844
207	0x3d96e729	0.07368309
208	0x3df6600a	0.12030037
209	0xbed74252	-0.42042786
210	0xbee6d7b3	-0.4508644
211	0xbf11e519	-0.569902
212	0x3ecf6d65	0.4051315
213	0x3ec89119	0.391732
214	0xbeed6bc9	-0.46371296
215	0xbee5fb2e	-0.44918197
216	0x3e9f9601	0.3116913
217	0x3e5764ed	0.21034594
218	0x3def0397	0.116706066
219	0x3d6506ce	0.055914693
220	0x3e04c99f	0.12967537
221	0xbe9208be	-0.28522295
222	0x3e28032f	0.16407464
223	0xbd4bc6eb	-0.04975025
224	0xbf82b6da	-1.0212052
225	0xbe51f393	-0.20503072
226	0x3ef5345b	0.47891507
227	0x3e13af55	0.14422353
228	0xbf3243a6	-0.69634473
229	0x3f0a699b	0.5406739
230	0x3f80ab9e	1.0052373
231	0x3f47c154	0.7802937
232	0xbf10a18c	-0.564965
233	0xbe14e3b8	-0.14539993
234	0x3d0cace5	0.034344573
235	0x3df2f602	0.118633285
236	0xbf2eeb9e	-0.68328273
237	0x3eb88e48	0.36046052
238	0x3e6dc118	0.2321819
239	0x3f3f05d0	0.74618244
240	0xbf125e76	-0.57175386
241	0xbe8a4b9e	-0.27010816
242	0xbdab5a0f	-0.08366787
243	0x3d9de9db	0.0771062
244	0xbf2e4e23	-0.6808798
245	0xbd22a238	-0.039705485
246	0x3e8266fb	0.25469193
247	0x3e992b95	0.29916063
248	0x3ed3ccf2	0.41367298
249	0x3ed2a1d3	0.41139087
250	0xbe39908f	-0.18121551
251	0xbd910b43	-0.07082226
252	0x3eda2fba	0.42614537
253	0xbde4642a	-0.11151917
254	0xbe677f54	-0.22607166
255	0xbe8faf55	-0.28063455

encoder_variable_selection.single_variable_grns.SinWeekly.gate_norm.glu.fc.bias f4 [32]
0	0x3e1cbf88	0.15307438
1	0x3ddc8c74	0.10768977
2	0xbe237aa1	-0.15964748
3	0x3e7b94a4	0.2456842
4	0xbdba427a	-0.09094711
5	0xbc1fe6de	-0.009759633
6	0xbef74d04	-0.48300946
7	0x3b826d1e	0.003980293
8	0x3e8c6e75	0.27428022
9	0xbe19a971	-0.15006043
10	0xbde915a0	-0.11381078
11	0x3e0c30ec	0.13690537
12	0xbee7f24e	-0.4530205
13	0xbe1f541d	-0.1555943
14	0x3d60d5e3	0.05489148
15	0x3ca2dddf	0.019881187
16	0x3f078606	0.5293888
17	0xbf33e2f5	-0.70268184
18	0x3f1cece4	0.61298966
19	0x3f247068	0.6423402
20	0x3e764992	0.24051502
21	0xbf9a59f7	-1.2058705
22	0x3eec0229	0.46095398
23	0xbe7f1523	-0.24910407
24	0x3ee0e02c	0.4392103
25	0xbdd3b105	-0.10336498
26	0xbe560919	-0.20901908
27	0xbf097f12	-0.5370952
28	0x3e0e88c5	0.13919361
29	0x3ed26a38	0.41096663
30	0xbd79e4ce	-0.06100922
31	0x3eb0ff4f	0.34569785

encoder_variable_selection.single_variable_grns.SinWeekly.gate_norm.add_norm.norm.weight f4 [16]
0	0x3fcb0df3	1.5863632
1	0x3dbe7363	0.09299352
2	0x3fd6d198	1.6782713
3	0x3fb8e902	1.4446108
4	0x3f470a0f	0.77749723
5	0x3f40216d	0.75051004
6	0x3f55e77e	0.83556354
7	0x3f5cd903	0.86268634
8	0x3f858cae	1.0433557
9	0x3f78707b	0.9704663
10	0x3f958b60	1.1683159
11	0x3fc493c8	1.5357599
12	0x3f4fcbe4	0.8117049
13	0x3f956523	1.167149
14	0x3f8d25ab	1.102712
15	0x3faee27b	1.3662866

encoder_variable_selection.single_variable_grns.SinWeekly.gate_norm.add_norm.norm.bias f4 [16]
0	0x3dbe7b42	0.09300853
1	0x3e1d466c	0.15358895
2	0xbdc59035	-0.09646646
3	0x3e3dc4d6	0.18532118
4	0xbd8962ff	-0.06708335
5	0x3ce983d3	0.028505241
6	0xbe828042	-0.25488478
7	0x3c796dd7	0.015223942
8	0x3d9b6a96	0.07588689
9	0xbdcef7f6	-0.101058885
10	0xbe12d000	-0.14337158
11	0xbc35c755	-0.011094888
12	0xbe247f2e	-0.1606414
13	0x3e0f84f1	0.14015557
14	0x3d8a0a64	0.06740263
15	0x3e39d1a0	0.18146372

encoder_variable_selection.single_variable_grns.VaccinationFull.resample_norm.mask f4 [16]
0	0xbd2dc033	-0.042419624
1	0x3df83615	0.1211969
2	0xbd8c679e	-0.06855701
3	0xbeafaa25	-0.34309497
4	0x3f3b1e1a	0.73092806
5	0xbe3346cc	-0.17507476
6	0x3ed89d03	0.4230729
7	0x3e801787	0.2501795
8	0x3e7b623c	0.24549192
9	0xbf2896f5	-0.6585534
10	0xbeff2312	-0.49831444
11	0x3f01e089	0.5073324
12	0xbf56975a	-0.83824694
13	0x3e336b3f	0.1752138
14	0x3f365170	0.71218014
15	0x3cf16e8f	0.029471664

encoder_variable_selection.single_variable_grns.VaccinationFull.resample_norm.norm.weight f4 [16]
0	0x3f7f8b9b	0.99822396
1	0x3f43030e	0.76176536
2	0x3f9b5155	1.2134196
3	0x3f826cd3	1.018946
4	0x3fd163e4	1.6358609
5	0x3f48db32	0.78459466
6	0x3f8cad95	1.0990473
7	0x3fa2c841	1.2717363
8	0x3fb5dd85	1.4208227
9	0x3f228b91	0.6349421
10	0x3f18bd0d	0.5966347
11	0x3fc1080f	1.5080584
12	0x3f255042	0.6457559
13	0x3fa13449	1.2594081
14	0x3fa0f5b9	1.2574989
15	0x3f88486e	1.0647104

encoder_variable_selection.single_variable_grns.VaccinationFull.resample_norm.norm.bias f4 [16]
0	0x3e5dfabd	0.2167768
1	0x3eabce14	0.33555663
2	0xbe24957d	-0.1607265
3	0xbeca0acd	-0.39461365
4	0xbdaa9f0f	-0.08331119
5	0x3e23bf46	0.15990934
6	0x3e32facf	0.17478488
7	0x3e8266dd	0.25469103
8	0x3dd4f47f	0.103981964
9	0xbea0bada	-0.31392556
10	0xbe2f671a	-0.17129174
11	0x3d96dba4	0.07366112
12	0x3cb62c6d	0.02223798
13	0xbe282fa3	-0.16424422
14	0x3df5e6ab	0.12006887
15	0x3dd1cbc2	0.10243942

encoder_variable_selection.single_variable_grns.VaccinationFull.fc1.weight f4 [8, 8]
0	0x3f0202ef	0.50785726
1	0xbe88714a	-0.26648933
2	0xbf222769	-0.63341385
3	0xbddff765	-0.10935859
4	0x3f583419	0.84454495
5	0x3cc398ce	0.023876574
6	0xbf35f567	-0.7107758
7	0xbdcbf729	-0.099592514
8	0x3d445d52	0.04794056
9	0xbed0fea8	-0.40819287
10	0xbf958448	-1.1680994
11	0xbf95c747	-1.170144
12	0x3e5fa45d	0.21840043
13	0x3ef3a566	0.47587126
14	0x3f296374	0.6616738
15	0x3eed8574	0.4639088
16	0x3e1d1bcc	0.15342635
17	0xbf29a28c	-0.6626365
18	0xbe922246	-0.28541774
19	0xbe3b280f	-0.18277
20	0xbe01cc3d	-0.12675567
21	0x3ec1b496	0.3783309
22	0xbe8133b3	-0.25234756
23	0xbf15d9a7	-0.58535236
24	0xbdcda6c3	-0.10041573
25	0xbf4c49f9	-0.79800373
26	0xbe989743	-0.29802904
27	0x3ed745ca	0.42045432
28	0xbf3a6696	-0.72812784
29	0x3f189757	0.59605926
30	0x3df2d2c6	0.11856608
31	0xbcd31e86	-0.02577139
32	0x3e56f510	0.20991921
33	0x3f280fd3	0.65649146
34	0x3e7fa384	0.2496472
35	0x3eca2940	0.39484596
36	0xbd792577	-0.060826745
37	0x3e91e351	0.2849374
38	0x3f050496	0.5196012
39	0x3f3330db	0.6999642
40	0xbe6eb75c	-0.23312134
41	0x3f3e4882	0.7432939
42	0x3ec55f0c	0.38549078
43	0xbe33c8d6	-0.17557082
44	0xbf6f526a	-0.9348513
45	0xbf780aa9	-0.96891266
46	0xbf34d5d8	-0.706388
47	0xbff3d084	-1.9048009
48	0xbf887f20	-1.0663795
49	0x3ef038a4	0.46918213
50	0x3e15d937	0.14633642
51	0xbef43e53	-0.477038
52	0x3f55a93d	0.8346136
53	0x3e5b6573	0.21425419
54	0x3f226f74	0.63451314
55	0x3f044fdb	0.5168435
56	0x3e98ccd4	0.2984377
57	0x3e187b66	0.14890823
58	0xbf2f2fc7	-0.6843228
59	0xbe3875bd	-0.18013664
60	0xbebb85f2	-0.3662563
61	0xbf8b8b58	-1.0901899
62	0xbe96f9ad	-0.29487363
63	0xbfbe2c1b	-1.485721

encoder_variable_selection.single_variable_grns.VaccinationFull.fc1.bias f4 [8]
0	0x3e7fd757	0.2498449
1	0x3df57f40	0.11987162
2	0x3e10d2bd	0.1414289
3	0x3d1413a4	0.036151543
4	0xbce46adf	-0.027882991
5	0xbec1dfc5	-0.37866035
6	0xbed63190	-0.41834688
7	0xbd7bdd10	-0.06149012

encoder_variable_selection.single_variable_grns.VaccinationFull.fc2.weight f4 [8, 8]
0	0xbe0835f3	-0.1330183
1	0x3bef34ad	0.0072999806
2	0xbcd338d1	-0.025783928
3	0xbecab7fd	-0.39593497
4	0xbedd6dab	-0.43247733
5	0x3e9a36ce	0.30119938
6	0xbf2d8c55	-0.67792255
7	0x3e247b99	0.16062774
8	0x3ec5e57d	0.38651648
9	0xbe9c5c02	-0.30538946
10	0xbe85e69c	-0.26152503
11	0xbf15b5e7	-0.58480686
12	0xbe980838	-0.2969377
13	0xbf21bc98	-0.63178396
14	0x3e9e95e7	0.3097374
15	0xbe248418	-0.16066015
16	0xbfe06b5e	-1.7532766
17	0x3f2d423b	0.67679185
18	0xbd6e999a	-0.058251955
19	0x3eb40080	0.3515663
20	0x3dcb7a04	0.09935382
21	0x3f04b9b6	0.5184587
22	0x3f43124c	0.76199794
23	0x3f018b6a	0.50603354
24	0x3e315df0	0.1732099
25	0xbef687a3	-0.48150358
26	0xbc0ed8aa	-0.008718649
27	0xbeba3088	-0.3636515
28	0x3e5620d8	0.20910966
29	0xbf58b36b	-0.8464877
30	0xbe0914e2	-0.13386872
31	0xbd973015	-0.07382218
32	0xbe06532e	-0.13117668
33	0xbf0dafe3	-0.55346507
34	0x3f18391e	0.59462154
35	0x3e3486da	0.17629567
36	0x3e35123a	0.17682734
37	0x3e2d1d54	0.16905719
38	0xbfa189eb	-1.2620214
39	0x3f4990dd	0.7873667
40	0xbed1e59e	-0.40995497
41	0x3f002224	0.50052094
42	0x3e94a303	0.29030618
43	0x3e82e09b	0.25561985
44	0x3e73a3c0	0.23792934
45	0x3df7646e	0.12079702
46	0xbde6b3c0	-0.11264753
47	0xbf67b087	-0.90503734
48	0x3f54acf9	0.83076435
49	0xbf229d4e	-0.6352128
50	0xbc6af90c	-0.014341604
51	0x3f18f657	0.59750885
52	0xbc89a6d8	-0.01680319
53	0xbf5ed002	-0.87036145
54	0xbef60b61	-0.48055556
55	0x3a352e51	0.0006911504
56	0xbea2492e	-0.31696457
57	0x3eee5393	0.46548137
58	0x3e93e7ca	0.2888778
59	0x3e710153	0.23535661
60	0xbed7fe20	-0.4218607
61	0xbf00ca30	-0.50308514
62	0x3e8653e2	0.26235873
63	0xbec8033d	-0.3906497

encoder_variable_selection.single_variable_grns.VaccinationFull.fc2.bias f4 [8]
0	0x3a973e25	0.0011538906
1	0xbe88bc0f	-0.26705977
2	0xbedc1fd5	-0.42993036
3	0x3c93cffb	0.018043509
4	0x3edce197	0.4314086
5	0xbdd421b1	-0.103579886
6	0x3ee0411e	0.4379968
7	0xbe0b92f3	-0.13630275

encoder_variable_selection.single_variable_grns.VaccinationFull.gate_norm.glu.fc.weight f4 [32, 8]
0	0x3d2553a5	0.040362973
1	0x3e546c3e	0.20744416
2	0x3f07b03c	0.5300329
3	0x3e790614	0.24318725
4	0xbe4f1ff8	-0.20227039
5	0x3e5ae1bf	0.21375178
6	0xbccd8d29	-0.025091724
7	0xbe197869	-0.14987339
8	0xbd65c9ce	-0.05610066
9	0xbda668b3	-0.081254385
10	0xbf4e67b3	-0.8062698
11	0xbe0a3d8a	-0.13500038
12	0x3eb3528c	0.35023916
13	0xbe995852	-0.29950196
14	0x3f2abb9c	0.6669252
15	0xbea5467b	-0.32280335
16	0x3e092973	0.13394718
17	0xbe1ee155	-0.15515645
18	0x3e34a463	0.17640834
19	0x3e6214af	0.22078203
20	0x3d23f620	0.040029645
21	0x3e5bfb53	0.21482591
22	0xbeb5979f	-0.3546724
23	0x3e811dad	0.25217953
24	0xbf33df5f	-0.7026271
25	0x3e44ab37	0.19205938
26	0x3e82a72c	0.25518167
27	0x3ebf8710	0.37407732
28	0xbf01ce74	-0.5070565
29	0x3f14dcbf	0.5814933
30	0xbe0f88e7	-0.14017068
31	0x3f23d02a	0.6398951
32	0x3f201b7a	0.62541926
33	0xbf1f660a	-0.62265074
34	0x3ef00434	0.46878207
35	0xbf083983	-0.53212756
36	0x3f4a14b2	0.7893783
37	0xbf51e198	-0.81984854
38	0xbecf6c63	-0.4051238
39	0xbf4ceda0	-0.80050087
40	0x3ea43261	0.32069686
41	0xbdbc51f2	-0.09195317
42	0x3f772ae7	0.9654984
43	0xbf09e225	-0.53860694
44	0x3e9001ab	0.28126273
45	0x3e1a4049	0.15063585
46	0xbf0009df	-0.5001506
47	0xbc1e46f6	-0.009660473
48	0xbe43638f	-0.19080947
49	0x3efe929a	0.49721223
50	0xbef69dd2	-0.48167282
51	0x3e7fe695	0.24990304
52	0xbeea327d	-0.45741645
53	0x3ee4fbd0	0.44723368
54	0x3f4defb9	0.8044391
55	0x3eedc70e	0.4644093
56	0xbe992822	-0.2991343
57	0x3cc19365	0.023629854
58	0xbd935cb6	-0.071954176
59	0xbdb329c2	-0.08748199
60	0x3f090384	0.5352099
61	0xbd42ff61	-0.04760683
62	0x3e2f8b94	0.17143089
63	0xbd3c2093	-0.045929503
64	0xbea5f675	-0.32414594
65	0x3ebd5488	0.36978555
66	0xbe7963ef	-0.24354528
67	0x3ec6bcb5	0.38815847
68	0xbe579b13	-0.2105525
69	0x3ec02a8a	0.37532455
70	0x3ea6b043	0.32556352
71	0xbd6afe66	-0.05737152
72	0x3ebf2c66	0.3733856
73	0xbedf6dad	-0.43638363
74	0x3f5e291e	0.8678149
75	0xbf426067	-0.7592835
76	0x3d92645c	0.07148048
77	0xbec00f9e	-0.37511915
78	0xbf7e063b	-0.99228257
79	0xbe80fefb	-0.25194535
80	0x3ee3c03a	0.44482595
81	0xbedd3db4	-0.43211138
82	0x3eaa89f1	0.33308366
83	0xbf1c5fa1	-0.6108342
84	0x3f24d22a	0.64383185
85	0xbe947910	-0.28998613
86	0xbea90cc8	-0.33017564
87	0xbef6aa79	-0.48176935
88	0xbed76c90	-0.42075014
89	0x3c64d1a1	0.013965995
90	0x3ee0cf2b	0.43908057
91	0x3e990153	0.29883823
92	0xbe5241cd	-0.20532914
93	0x3e8338ca	0.25629264
94	0xbec257e9	-0.37957695
95	0x3e4b97e6	0.19882163
96	0x3e7baaff	0.24576949
97	0x3e817427	0.2528393
98	0xbe3486fc	-0.17629617
99	0xbf16ffd1	-0.58984095
100	0x3ecd4d3d	0.4009799
101	0xbeac8083	-0.33691797
102	0x3d05eca0	0.032696366
103	0xbeb64acd	-0.35603943
104	0x3f3c18cb	0.7347533
105	0xbf30b17f	-0.6902084
106	0x3ed7755c	0.42081726
107	0xbf0644f4	-0.52448964
108	0x3f3c5288	0.7356343
109	0xbee19a8a	-0.44063216
110	0xbf1054bc	-0.56379294
111	0xbf2b27e8	-0.6685777
112	0xbf499d3e	-0.7875556
113	0x3ef7fc5d	0.48434725
114	0xbe0f1eb2	-0.13976553
115	0x3edd2858	0.43194842
116	0xbf23f5e7	-0.6404709
117	0x3f1c8e57	0.61154693
118	0x3e1fc0c6	0.15600881
119	0x3f26a984	0.6510241
120	0xbeab500e	-0.33459514
121	0x3cdd8bd6	0.027044218
122	0xbe3e9936	-0.18613133
123	0xbe0d6c56	-0.13810858
124	0xbcff0a1a	-0.031132746
125	0x3e0c45f9	0.13698567
126	0x3e55c7db	0.2087702
127	0x3dace4b2	0.08442058
128	0x3fd14c38	1.6351385
129	0xbffe903d	-1.9887768
130	0x3f08f165	0.5349334
131	0xbf5f836d	-0.87309915
132	0x3f395b36	0.724048
133	0xbf404b0c	-0.7511451
134	0xbec883dd	-0.39163104
135	0xbfc84dd3	-1.564875
136	0x3f0f5534	0.55989385
137	0xbf48e1ed	-0.78469735
138	0x3f5fd13f	0.8742866
139	0xbf642549	-0.8911939
140	0x3ef357f9	0.47528055
141	0xbc4cbd6b	-0.012496333
142	0xbf8a4d24	-1.0804791
143	0xbede3149	-0.43396977
144	0x3e5e4dee	0.21709415
145	0x3ebeb17b	0.37244782
146	0x3d798c9c	0.06092511
147	0x3e297490	0.16548371
148	0x3e2f813d	0.17139144
149	0x3e86437a	0.26223356
150	0x3c083051	0.008312301
151	0x3eae9f7e	0.34106058
152	0x3e8f5350	0.2799325
153	0xbed0d907	-0.4079058
154	0x3f01067c	0.5040052
155	0xbf299459	-0.66241986
156	0x3e6d3da1	0.23168041
157	0xbdfa8a78	-0.12233442
158	0xbf96a11f	-1.176792
159	0xbe2a0355	-0.16602834
160	0xbd13e9c5	-0.036111612
161	0xbe2f142a	-0.17097536
162	0xbef62c01	-0.48080447
163	0x3e57672b	0.21035449
164	0x3ddae34f	0.10687887
165	0xbe546c5a	-0.20744458
166	0x3f2a7db6	0.6659807
167	0xbe2f7ab6	-0.17136654
168	0xbdb2389f	-0.08702206
169	0xbdfa25ed	-0.12214265
170	0x3f8744b1	1.0567838
171	0xbe8d1ff3	-0.27563438
172	0xbe7135dd	-0.23555703
173	0x3dc6c4ef	0.09705531
174	0xbf4ffbec	-0.8124378
175	0xbdd0009c	-0.10156366
176	0x3ec36114	0.38160002
177	0xbce4947d	-0.027902836
178	0x3f145a6e	0.57950485
179	0xbeaaf30c	-0.33388555
180	0x3d43bcd9	0.04778752
181	0xbdd0e800	-0.102005005
182	0xbf8b9a77	-1.0906514
183	0xbe2afc19	-0.1669773
184	0xbc956bc7	-0.018239869
185	0x3e981f39	0.2971132
186	0x3e7ec27d	0.24878879
187	0x3e8d3c4b	0.27585062
188	0xbeee8f91	-0.46593907
189	0xbdb7bcf8	-0.0897159
190	0xbeb17a52	-0.34663635
191	0x3dfbd7eb	0.122970425
192	0x3dbfd00d	0.093658544
193	0x3d0dcffe	0.034622185
194	0x3b8286cd	0.0039833547
195	0xbdc3c9c6	-0.095599696
196	0xbea05cb2	-0.3132072
197	0xbd5073c8	-0.050891668
198	0x3e9bb7c8	0.3041365
199	0x3e0cb2a5	0.13740022
200	0x3f480ee8	0.78147745
201	0xbf8d73bf	-1.1050948
202	0x3eb54b02	0.3540879
203	0xbf052ebf	-0.52024454
204	0x3ec02e0e	0.37535137
205	0xbf102ba2	-0.5631658
206	0xbe9a3218	-0.30116343
207	0xbecfe8dd	-0.40607348
208	0xbd3c68e8	-0.045998484
209	0xbf072dd3	-0.528043
210	0x3f3745fe	0.71591175
211	0xbf3e289c	-0.74280715
212	0x3e47f2f9	0.1952628
213	0xbe3a2d16	-0.18181261
214	0xbf74369e	-0.9539584
215	0xbe132ed9	-0.1437334
216	0x3f94dc71	1.1629773
217	0xbf4d7b0a	-0.8026587
218	0x3e3d44fd	0.18483348
219	0xbeea25ee	-0.45732063
220	0x3f081a01	0.5316468
221	0xbf067ebb	-0.52537125
222	0xbc71ded4	-0.014762599
223	0xbf6c6f7d	-0.9235762
224	0x3e9f4fab	0.3111547
225	0x3eec28fe	0.46125025
226	0x3e208e3e	0.15679261
227	0x3e51f6a6	0.20504245
228	0x3dcf1b3f	0.10112619
229	0x3e9e163f	0.30876347
230	0xbf4bfa57	-0.79678863
231	0x3d7a4cc2	0.06110836
232	0xbcf9bf3f	-0.030486701
233	0xbdb92edf	-0.09042143
234	0xbe8fb114	-0.28064787
235	0xbe82f377	-0.25576374
236	0x3e77f6e2	0.24215272
237	0xbe95570e	-0.2916798
238	0x3d15096e	0.036385946
239	0xbdd376f3	-0.10325422
240	0x3e7ee355	0.24891408
241	0xbdd87f68	-0.10571176
242	0x3da8d9ca	0.08244665
243	0x3d05f8aa	0.032707848
244	0x3de06422	0.10956599
245	0xbcaf1763	-0.021373456
246	0xbe8909eb	-0.2676538
247	0xbe41e194	-0.18933707
248	0x3e3a280b	0.18179338
249	0x3e67e5f8	0.2264632
250	0x3f4a6ac2	0.7906915
251	0x3e1be7a6	0.15225086
252	0xbeb06559	-0.34452322
253	0xbe9feea2	-0.3123675
254	0x3d21de0e	0.03951841
255	0xbe648599	-0.22316588

encoder_variable_selection.single_variable_grns.VaccinationFull.gate_norm.glu.fc.bias f4 [32]
0	0x3cc8b9fc	0.024502747
1	0x3f8df4e3	1.1090358
2	0x3dcd4119	0.10022182
3	0xbf1358aa	-0.57557166
4	0xbe769537	-0.24080358
5	0xbe6d94cc	-0.23201293
6	0xbe6fdd42	-0.23424247
7	0x3db3f70f	0.08787357
8	0x3e81296e	0.2522692
9	0xbe464dd1	-0.19365622
10	0x3d746c37	0.059673514
11	0xbf3a89af	-0.7286634
12	0xbdb7ffef	-0.08984362
13	0x3e277817	0.16354404
14	0xbe9b4730	-0.3032775
15	0x3da36764	0.079787046
16	0x3e5c635d	0.21522279
17	0x3ca73b3c	0.020413987
18	0x3e02a215	0.12757142
19	0x3c98ed4b	0.018667838
20	0x3f4fdc57	0.81195587
21	0xbfa63782	-1.298569
22	0xbec60cf0	-0.38681746
23	0xbe65edfb	-0.22454064
24	0x3f1b99dc	0.60781646
25	0x3c8b454b	0.017000815
26	0xbe81496b	-0.25251326
27	0x3edc9164	0.43079674
28	0xbee41c01	-0.44552615
29	0x3f0168a4	0.50550294
30	0xbe018a1c	-0.12650341
31	0xbf663326	-0.89921796

encoder_variable_selection.single_variable_grns.VaccinationFull.gate_norm.add_norm.norm.weight f4 [16]
0	0x3eca0414	0.39456236
1	0x3f6212a2	0.8830968
2	0x3f398d87	0.7248158
3	0x3f6b494c	0.9190872
4	0x3f848f10	1.0356159
5	0x3f2b8a1c	0.67007613
6	0x3f4c19dc	0.7972696
7	0x3f00d6b8	0.50327635
8	0x3f6fa3de	0.93609416
9	0x3f240f77	0.640861
10	0x3f5af0f6	0.8552393
11	0x3fa2dea9	1.27242
12	0x3e920faf	0.2852759
13	0x3f9175ea	1.136411
14	0x3f919358	1.1373091
15	0x3f1a1a18	0.60196066

encoder_variable_selection.single_variable_grns.VaccinationFull.gate_norm.add_norm.norm.bias f4 [16]
0	0x3d341728	0.043967396
1	0x3dff3032	0.124603644
2	0x3cdf25ca	0.027239699
3	0xbcde5622	-0.02714068
4	0xbc044f2e	-0.0080755185
5	0x3d5fac0b	0.054607432
6	0xbe59c240	-0.21265507
7	0xbd98895c	-0.07448074
8	0xbe1e5193	-0.15460806
9	0xbdc006fc	-0.09376332
10	0xbb2aa177	-0.0026036182
11	0x3eb60879	0.3555334
12	0xbdc7818c	-0.09741506
13	0x3e1c12b9	0.15241517
14	0x3d9d771d	0.07688735
15	0x3e783dfc	0.24242395

encoder_variable_selection.single_variable_grns.Cases.resample_norm.mask f4 [16]
0	0x3e3a893f	0.18216418
1	0x3e9b44db	0.3032597
2	0xbfb54470	-1.416151
3	0xbefd53ac	-0.494779
4	0xbe2cb2d3	-0.16865091
5	0x3f1becbf	0.6090812
6	0xbdc79ab4	-0.09746304
7	0xbedc411f	-0.43018433
8	0xbf880f12	-1.0629599
9	0x3f235cee	0.63813674
10	0x3ee66a17	0.45002815
11	0xbe037af6	-0.12839875
12	0xbfb8315d	-1.4390064
13	0xbfa5f19d	-1.296436
14	0x3e5a63c3	0.21327119
15	0xbe2f8963	-0.17142253

encoder_variable_selection.single_variable_grns.Cases.resample_norm.norm.weight f4 [16]
0	0x3f9c7552	1.2223303
1	0x3fc913b6	1.570914
2	0x3f2965af	0.6617078
3	0x3f6890ae	0.90845764
4	0x3f7e2ef1	0.99290377
5	0x3fda2e9a	1.7045472
6	0x3fb6d293	1.4283012
7	0x3f9a59b2	1.2058623
8	0x3f2cbf15	0.6747907
9	0x3fe52967	1.790326
10	0x3fc41cfd	1.5321347
11	0x3f97db10	1.1863728
12	0xbe0d080b	-0.137726
13	0x3e53f557	0.20699058
14	0x3fc91c55	1.5711771
15	0x3f9788e4	1.1838651

encoder_variable_selection.single_variable_grns.Cases.resample_norm.norm.bias f4 [16]
0	0x3ec8e701	0.39238742
1	0x3e89631f	0.26833436
2	0xbebad88a	-0.3649333
3	0xbf14ed60	-0.58174706
4	0x3c4b95ce	0.012425853
5	0xbe1f02ce	-0.15528414
6	0xbe885886	-0.26630038
7	0xbe37e3aa	-0.1795794
8	0xbe1d3a61	-0.15354301
9	0x3d7dc293	0.06195314
10	0x3d0fe4cb	0.035130303
11	0xbe10931b	-0.14118616
12	0x3e4e5455	0.20149358
13	0xbdc92169	-0.098208256
14	0xbba3305c	-0.00498013
15	0x3ee285bb	0.44242653

encoder_variable_selection.single_variable_grns.Cases.fc1.weight f4 [8, 8]
0	0x3c15d1ea	0.009144286
1	0x3fc6b766	1.5524719
2	0x3e0e316a	0.13886037
3	0xbf2f807b	-0.6855542
4	0xbf1199fa	-0.56875575
5	0x3f1a875d	0.603628
6	0xbe7eff4c	-0.24902076
7	0xbef92ce4	-0.4866706
8	0x3f15314b	0.5827834
9	0x3f2ff350	0.6873064
10	0xbe97d19b	-0.29652104
11	0xc025e205	-2.5919201
12	0xbf9cb89b	-1.2243837
13	0x3d1375bd	0.036000956
14	0x3e1e3322	0.15449193
15	0xbb60ccc8	-0.0034301747
16	0x3f929e94	1.1454644
17	0x3d86377d	0.06553552
18	0xbd6d592b	-0.057946365
19	0x3ca2582e	0.019817438
20	0xbd381c0f	-0.044948634
21	0x3e9b78c8	0.30365586
22	0xbf5d09e2	-0.86343205
23	0x3f251142	0.6447946
24	0xbf064e18	-0.5246291
25	0xbbdeb3ad	-0.0067963214
26	0x3f5be214	0.8589184
27	0x3eb589fa	0.3545683
28	0x3f2f0094	0.6836026
29	0xbdd45380	-0.10367489
30	0x3ea6df65	0.32592312
31	0x3f275e98	0.65378714
32	0xbe708786	-0.23489198
33	0xbe05127d	-0.12995334
34	0x3e5b5fac	0.21423215
35	0x3cb8618e	0.022507455
36	0x3de79256	0.11307208
37	0x3e069756	0.13143668
38	0x3e6e4aa8	0.23270667
39	0x3e958d19	0.2920921
40	0xbe22c900	-0.15896988
41	0x3e4276ac	0.18990582
42	0x3e34018b	0.17578714
43	0xbfa441d6	-1.2832592
44	0xbf3bc5b9	-0.73348576
45	0x3f20f8d3	0.62879676
46	0x3dbc481e	0.09193443
47	0x3f3431db	0.70388573
48	0x3e7e22c6	0.24817953
49	0x3eb8c512	0.36087853
50	0x3d7123d0	0.058872044
51	0x3ed259f2	0.41084248
52	0xbfaa46d8	-1.330287
53	0x3f06a1ec	0.52590823
54	0x3ed7a8aa	0.42120868
55	0xbe6be0ce	-0.23034975
56	0x3e02e30d	0.12781925
57	0xbf1841ab	-0.594752
58	0xbf2469c1	-0.6422387
59	0xbf0eea31	-0.558261
60	0x3d30cdb5	0.043164928
61	0xbea5fa02	-0.32417303
62	0xbf56a40e	-0.8384408
63	0x3fc31ac9	1.5242549

encoder_variable_selection.single_variable_grns.Cases.fc1.bias f4 [8]
0	0xbeb4c2e3	-0.35304937
1	0xbecbb3c0	-0.39785576
2	0x3cc0ef43	0.023551589
3	0xbe7936c2	-0.24337295
4	0xbddb9324	-0.10721424
5	0xbe381260	-0.1797576
6	0xbf037545	-0.51350814
7	0xbd49b1df	-0.049241897

encoder_variable_selection.single_variable_grns.Cases.fc2.weight f4 [8, 8]
0	0xbd3e9b33	-0.04653473
1	0x3f79975f	0.974966
2	0x3db6773e	0.089094624
3	0xbdb6e465	-0.089302815
4	0x3ea6cc57	0.32577774
5	0xbe1ca4c5	-0.1529723
6	0x3f69b16a	0.9128634
7	0x3e91581e	0.2838754
8	0xbef95d9f	-0.4870424
9	0x3d90cfbb	0.070708714
10	0x3d5703fc	0.052494034
11	0xbed7bf33	-0.4213806
12	0xbadd449d	-0.001688141
13	0x3ddb6531	0.1071266
14	0xbe3036ce	-0.17208406
15	0xbf9274ef	-1.1441935
16	0x3d80e155	0.06292979
17	0xbf0e5b00	-0.55607605
18	0xbf5550fa	-0.83326685
19	0x3d72b197	0.059251394
20	0x3eabbf72	0.335445
21	0xbdacfadb	-0.084462844
22	0xbeb2f903	-0.34955606
23	0x3f5e64e9	0.86872727
24	0xbebee725	-0.37285724
25	0xbf318874	-0.69348836
26	0xbed450ed	-0.4146799
27	0xbf4aa35e	-0.7915553
28	0x3ece7403	0.40322885
29	0xbf3b18cc	-0.7308471
30	0xbf08ff26	-0.53514326
31	0xbdf49d00	-0.11944008
32	0x3f03ee51	0.51535517
33	0x3f433250	0.76248646
34	0x3d85f006	0.065399215
35	0x3e87834f	0.26467368
36	0x3e4b2e50	0.19841886
37	0xbdc2bb03	-0.09508326
38	0x3e8f7003	0.28015146
39	0x3f1689ca	0.58804
40	0x3ee772b9	0.45204714
41	0x3e41f2ea	0.1894032
42	0x3f4f36bb	0.8094289
43	0x3f127777	0.5721354
44	0xbdbb1c29	-0.091362305
45	0x3e07362b	0.13204257
46	0x3e512a20	0.20426226
47	0x3eb93813	0.36175594
48	0xbf548dfd	-0.83029157
49	0xbf66f1a6	-0.90212476
50	0xbed9aa28	-0.4251263
51	0x3ee8ecd1	0.45493177
52	0xbc0b2372	-0.008492338
53	0xbed147df	-0.40875146
54	0x3ea2ba94	0.31782973
55	0xbe94fb52	-0.29097992
56	0x3edc385d	0.43011752
57	0x3f48d5d2	0.78451264
58	0xbdb851bf	-0.08999967
59	0x3c0bd521	0.008534701
60	0x3c5ba5e5	0.013406252
61	0xbd308099	-0.04309139
62	0xbddab0f3	-0.10678282
63	0x3da63ed1	0.0811745
