TFT-pytorch_edited/results_train/checkpoints/latest-epoch=9.ckpt (torch, 612195 bytes, 815 tensors)

prescalers.AgeDist.weight f4 [8, 1]
0	0x3e994bc7	0.29940626
1	0xbf8a99e9	-1.082822
2	0x3f224702	0.633896
3	0x3ea0fb55	0.3144175
4	0xbf2428f2	-0.6412498
5	0xbe9fd96a	-0.3122056
6	0xbf69dfd8	-0.91357183
7	0x3f12ff85	0.5742114

prescalers.AgeDist.bias f4 [8]
0	0xbe3165e5	-0.17324026
1	0x3f2a0644	0.6641581
2	0x3f1aea9e	0.6051425
3	0x3dfaaa12	0.122394696
4	0xbebba4a5	-0.3664905
5	0xbee5105d	-0.44739047
6	0xbe09ef64	-0.13470227
7	0xbe651824	-0.2237249

prescalers.HealthDisp.weight f4 [8, 1]
0	0x3f1c7f51	0.6113177
1	0xbf908795	-1.1291376
2	0x3f453044	0.7702677
3	0xbf6c4cab	-0.92304486
4	0x3f716e2a	0.9430872
5	0x3d1a247a	0.037632443
6	0x3f3263d5	0.6968358
7	0x3ebd2c82	0.3694802

prescalers.HealthDisp.bias f4 [8]
0	0x3d33608a	0.04379324
1	0x3e6fd674	0.23421651
2	0x3f19323b	0.5984227
3	0x3ea25bcf	0.3171067
4	0x3ebc217b	0.36744294
5	0xbf1f7d49	-0.62300545
6	0x3f0d36a4	0.551615
7	0x3e42ec8d	0.1903555

prescalers.SinWeekly.weight f4 [8, 1]
0	0x3d4c88d0	0.049935162
1	0x3eafde0e	0.34349102
2	0x3e95dec2	0.29271513
3	0x3f7eb356	0.99492395
4	0xbe614b34	-0.22001344
5	0xbf171810	-0.5902109
6	0xbe483a98	-0.19553602
7	0xbf220a85	-0.632973

prescalers.SinWeekly.bias f4 [8]
0	0x3ebd6e8b	0.369984
1	0xbeccd6fe	-0.40007776
2	0xbeada67d	-0.33916083
3	0x3f59c282	0.8506242
4	0x3f65fc78	0.8983836
5	0x3da5b53a	0.08091207
6	0xbe800de7	-0.25010607
7	0xbe3a34ce	-0.18184206

prescalers.CosWeekly.weight f4 [8, 1]
0	0x3ec6fcc9	0.38864735
1	0xbf5e6656	-0.868749
2	0xbf706433	-0.9390289
3	0x3f800769	1.0002261
4	0x3f89021a	1.0703766
5	0x3c720042	0.014770569
6	0xbf5ded8a	-0.8669058
7	0xbd40f446	-0.047107957

prescalers.CosWeekly.bias f4 [8]
0	0xbe979776	-0.29607743
1	0xbec73eef	-0.38915202
2	0x3f125fe4	0.5717757
3	0x3eb8361e	0.35978788
4	0x3c4642a0	0.012100846
5	0x3e30e286	0.17273912
6	0x3e265471	0.1624315
7	0xbf415397	-0.7551817

prescalers.DiseaseSpread.weight f4 [8, 1]
0	0xbf1747f8	-0.5909419
1	0x3da9cddf	0.0829122
2	0xbf194edc	-0.59885955
3	0xbed4251a	-0.41434556
4	0x3ec75f80	0.38940048
5	0x3f212d34	0.629596
6	0x3c8b46a5	0.01700146
7	0xbea4e9ff	-0.32209775

prescalers.DiseaseSpread.bias f4 [8]
0	0x3f019586	0.5061878
1	0xbf0f0a32	-0.5587493
2	0xbd78397a	-0.06060169
3	0x3f7b3623	0.9812948
4	0xbde44810	-0.11146557
5	0xbdcc5ae2	-0.09978272
6	0x3e5cf581	0.21578027
7	0xbcac854a	-0.02105965

prescalers.Transmission.weight f4 [8, 1]
0	0x3f50dd06	0.81587255
1	0xbf85ee72	-1.0463393
2	0xbeb6df5a	-0.3571728
3	0xbead52de	-0.33852285
4	0xbed2ded5	-0.41185632
5	0xbe8fbc39	-0.2807329
6	0x3f3b83da	0.73248065
7	0x3f34fcd2	0.70698273

prescalers.Transmission.bias f4 [8]
0	0xbe41a69d	-0.18911214
1	0x3f6ebeb1	0.9325972
2	0xbf2b321d	-0.6687334
3	0xbf450702	-0.7696382
4	0x3ee62ed4	0.44957602
5	0x3d10bda1	0.035337094
6	0xbf86aa80	-1.0520782
7	0xbf554468	-0.83307505

prescalers.VaccinationFull.weight f4 [8, 1]
0	0xbf8d5a49	-1.1043178
1	0x3f83e219	1.0303375
2	0x3e5d9f9d	0.21642919
3	0x3f6ae49e	0.9175509
4	0xbf5238ab	-0.8211772
5	0xbf7c2de6	-0.98507535
6	0xbebe32dd	-0.3714818
7	0xbe1b7ece	-0.15185091

prescalers.VaccinationFull.bias f4 [8]
0	0xbe0e6076	-0.13903984
1	0xbf24af10	-0.64329624
2	0x3f2f3c98	0.68451834
3	0xbe810387	-0.25198004
4	0xbf0f09e7	-0.55874485
5	0x3e8c65d4	0.2742144
6	0xbea5bcfe	-0.32370752
7	0x3f29db8d	0.6635063

prescalers.SocialDist.weight f4 [8, 1]
0	0x3e6750d7	0.22589432
1	0xbd7b5ee7	-0.061369803
2	0x3e012852	0.12613037
3	0xbf00d94f	-0.50331587
4	0xbf12f4d6	-0.5740484
5	0xbf0147e5	-0.5050033
6	0xbf001906	-0.5003818
7	0x3d8f6183	0.07001021

prescalers.SocialDist.bias f4 [8]
0	0x3e86e0f1	0.26343492
1	0xbee0db5c	-0.43917358
2	0x3f54368b	0.82895726
3	0xbf0deb19	-0.55436856
4	0x3e89c319	0.2690666
5	0xbedc367c	-0.43010318
6	0xbf8d1307	-1.1021432
7	0xbf30c19e	-0.69045436

prescalers.Cases.weight f4 [8, 1]
0	0x3e590177	0.21191965
1	0x3f275677	0.6536631
2	0xbf1f87da	-0.6231667
3	0xbe9b9c0d	-0.30392495
4	0xbf846552	-1.034342
5	0x3f1ae5f6	0.6050714
6	0x3f584921	0.84486586
7	0x3ec23880	0.3793373

prescalers.Cases.bias f4 [8]
0	0xbeae5e1f	-0.34056184
1	0x3ef58c88	0.4795878
2	0x3f468c1c	0.7755754
3	0xbe8197ad	-0.25311032
4	0xbe906758	-0.28203845
5	0x3ebf3c69	0.37350777
6	0x3e3107c9	0.17288126
7	0xbc730dc0	-0.014834821

static_variable_selection.flattened_grn.resample_norm.mask f4 [2]
0	0x3d9cfdf9	0.07665629
1	0xbd9e9ec4	-0.07745126

static_variable_selection.flattened_grn.resample_norm.norm.weight f4 [2]
0	0x3f73efad	0.9528759
1	0x3f73f0bb	0.952892

static_variable_selection.flattened_grn.resample_norm.norm.bias f4 [2]
0	0x3da6a0e7	0.081361584
1	0xbda69d15	-0.0813543

static_variable_selection.flattened_grn.fc1.weight f4 [2, 16]
0	0x3e7d8ef1	0.24761559
1	0x3f01fa89	0.5077291
2	0xbe27fbbc	-0.16404623
3	0xbf3441b6	-0.70412767
4	0xbe544b19	-0.20731772
5	0xbeea31d9	-0.45741156
6	0xbe9505a3	-0.29105863
7	0x3f994836	1.1975162
8	0xbb9f2f10	-0.004857905
9	0xbc95e9fe	-0.018300053
10	0x3c33b153	0.01096757
11	0x3dda878d	0.106703855
12	0xbef6274e	-0.48076862
13	0x3e87049b	0.263707
14	0xbea54eb7	-0.32286617
15	0x3eda46c7	0.42632124
16	0xbf16255a	-0.58650744
17	0x3f4b0970	0.79311275
18	0xbeb0696a	-0.34455425
19	0xbe707c3e	-0.23484895
20	0x3e119424	0.14216667
21	0x3ec2580b	0.37957796
22	0xbc408c97	-0.011752269
23	0xbf06e430	-0.52691936
24	0xbdb69ed0	-0.0891701
25	0xbf54a2c8	-0.83060884
26	0x3e9001a9	0.28126267
27	0xbe88156c	-0.26578844
28	0x3e86b566	0.2631027
29	0xbcc33a7b	-0.023831597
30	0xbe9a0119	-0.30078962
31	0x3e949686	0.2902109

static_variable_selection.flattened_grn.fc1.bias f4 [2]
0	0x3d60aacd	0.05485039
1	0xbb3f140e	-0.002915624

static_variable_selection.flattened_grn.fc2.weight f4 [2, 2]
0	0xbf6f39d7	-0.9344763
1	0xbf9e5a0f	-1.2371234
2	0xbfbb1756	-1.4616497
3	0xbb699340	-0.0035640746

static_variable_selection.flattened_grn.fc2.bias f4 [2]
0	0x3cbaf82a	0.022823412
1	0xbd1c4b1c	-0.038157567

static_variable_selection.flattened_grn.gate_norm.glu.fc.weight f4 [4, 2]
0	0x3ebfaeba	0.37437993
1	0xbced8ae2	-0.028996889
2	0x3f717152	0.9431354
3	0xbf06f6cb	-0.52720326
4	0xbe697339	-0.2279786
5	0xbee8d810	-0.45477343
6	0xbf315a33	-0.6927826
7	0xbf233cbf	-0.63764566

static_variable_selection.flattened_grn.gate_norm.glu.fc.bias f4 [4]
0	0x3da94c20	0.08266473
1	0xbda0175b	-0.07816955
2	0xbd925cb9	-0.07146592
3	0x3d78dc59	0.060757015

static_variable_selection.flattened_grn.gate_norm.add_norm.norm.weight f4 [2]
0	0x3f145978	0.5794902
1	0x3f145977	0.5794901

static_variable_selection.flattened_grn.gate_norm.add_norm.norm.bias f4 [2]
0	0x3e716f40	0.23577595
1	0xbe716f42	-0.23577598

static_variable_selection.single_variable_grns.AgeDist.resample_norm.mask f4 [16]
0	0x3d325694	0.0435396
1	0x3e0c7acb	0.13718717
2	0x3df02506	0.11725812
3	0xbdcacdc5	-0.09902529
4	0xbdbe7827	-0.09300261
5	0xbd337e68	-0.043821722
6	0x3e612122	0.21985295
7	0xbe3b4980	-0.18289757
8	0xbddcebfe	-0.107871994
9	0x3e15ab1d	0.14616056
10	0xbe1ba9db	-0.15201513
11	0xbd5accf9	-0.053418133
12	0x3d12b658	0.035818428
13	0xbd66d00d	-0.056350756
14	0x3e6c0e09	0.23052229
15	0x3e04a731	0.12954403

static_variable_selection.single_variable_grns.AgeDist.resample_norm.norm.weight f4 [16]
0	0x3f90cfd3	1.1313423
1	0x3f8c3c69	1.0955936
2	0x3f904990	1.127245
3	0x3f61fe58	0.8827872
4	0x3f65c99d	0.8976076
5	0x3f734577	0.9502787
6	0x3f9ad78e	1.2097032
7	0x3f4a553d	0.79036313
8	0x3f5faa8e	0.8736962
9	0x3f921c93	1.141497
10	0x3f641f36	0.89110124
11	0x3f6b4c00	0.9191284
12	0x3f872822	1.0559123
13	0x3f673f66	0.90331113
14	0x3f8be28c	1.0928512
15	0x3f9a4fe5	1.2055632

static_variable_selection.single_variable_grns.AgeDist.resample_norm.norm.bias f4 [16]
0	0x3da5fbad	0.08104644
1	0xbbbac31e	-0.0056995293
2	0x3dadcf40	0.084867954
3	0xbe5f196d	-0.21787043
4	0xbe144bb6	-0.14482006
5	0xbdb5057f	-0.08838939
6	0x3e09df79	0.13464154
7	0x3ced3ff5	0.028961161
8	0x3da53b4f	0.08067953
9	0xbdc7f8b1	-0.09764231
10	0x3dd1fc56	0.102532074
11	0x3d6ec358	0.058291763
12	0xbddcf2ce	-0.10788499
13	0x3d9aa439	0.07550854
14	0xbdefd2cc	-0.11710128
15	0x3d8ad590	0.06779015

static_variable_selection.single_variable_grns.AgeDist.fc1.weight f4 [8, 8]
0	0xbf42a84c	-0.7603805
1	0xbe0771a5	-0.13226946
2	0xbf2c3db9	-0.6728168
3	0xbdaee06d	-0.085388996
4	0xbe19932a	-0.14997545
5	0x3c4e8998	0.012606047
6	0x3f0a42b8	0.54008055
7	0x3ee8cd2f	0.45469043
8	0x3ef7b7f8	0.48382545
9	0x3f226445	0.6343425
10	0x3b4d1012	0.0031290096
11	0xbe2ec6a8	-0.17067969
12	0x3d203d94	0.039121225
13	0xbe8db300	-0.2767563
14	0xbf978fa2	-1.1840708
15	0x3e6b6804	0.22988898
16	0x3eed6e49	0.46373203
17	0x3ff4bc68	1.9119997
18	0xbe11266e	-0.14174816
19	0x3ee26506	0.442177
20	0x3f2dec19	0.6793838
21	0x3f4aef04	0.7927096
22	0xbe804450	-0.25052118
23	0xbeb42477	-0.3518407
24	0x3eeaa292	0.45827156
25	0xbf6c9879	-0.92420155
26	0x3f05d991	0.52285105
27	0x3ee33d50	0.44382715
28	0x3be9ce27	0.007135171
29	0x3e689197	0.22711788
30	0xbf32dd01	-0.69868475
31	0xbde012f4	-0.10941115
32	0x3e82af58	0.25524402
33	0x3f016825	0.50549537
34	0x3ecd135e	0.40053838
35	0x3e118a89	0.14213003
36	0xbee4ffb6	-0.44726342
37	0xbdce1cb6	-0.1006407
38	0x3fc47370	1.5347729
39	0xbfa75073	-1.3071426
40	0x3e951480	0.29117203
41	0xbe69c5b5	-0.22829325
42	0x3ecff2cf	0.40614936
43	0x3f51b971	0.81923586
44	0xbf0d3d93	-0.5517208
45	0xbe98feba	-0.2988184
46	0xbf2a9441	-0.6663247
47	0x3d30c5a3	0.04315723
48	0xbf3d3d03	-0.7392122
49	0x3ee7fbde	0.45309347
50	0xbef0ede0	-0.47056484
51	0x3e2bf2b6	0.16791806
52	0x3de725f5	0.112865366
53	0x3e2c1a2e	0.16806862
54	0x3e82143d	0.25406066
55	0xbe971365	-0.29506984
56	0xbefb64d6	-0.4910037
57	0xbdafe64c	-0.085888475
58	0x39021f7e	0.00012409498
59	0x3eb73f91	0.35790685
60	0x3f459fec	0.77197146
61	0xbeee2e50	-0.4651971
62	0x3da27556	0.07932536
63	0x3e15009b	0.14551012

static_variable_selection.single_variable_grns.AgeDist.fc1.bias f4 [8]
0	0xbd3c76ce	-0.04601174
1	0xbdde1064	-0.1084297
2	0xbb61e480	-0.0034468472
3	0x3def6b49	0.11690385
4	0xbde1a420	-0.110176325
5	0x3c0795f9	0.008275502
6	0xbe1594cb	-0.14607541
7	0x3d0665bc	0.032811865

static_variable_selection.single_variable_grns.AgeDist.fc2.weight f4 [8, 8]
0	0x3f0a8070	0.5410223
1	0x3f367610	0.712739
2	0x3f862bc9	1.0482112
3	0xbf8a737a	-1.0816491
4	0x3ed0e246	0.40797633
5	0xbf427725	-0.7596305
6	0xbd4f699d	-0.05063783
7	0xbf29b66d	-0.66293985
8	0x3f73d683	0.95249194
9	0xbe4597ee	-0.19296238
10	0x3d6afa87	0.057367828
11	0xbf6cab77	-0.92449135
12	0x3e64b60e	0.22335073
13	0xbe068485	-0.1313649
14	0x3ef37bfa	0.47555524
15	0xbf868f80	-1.0512543
16	0x3f4df58e	0.8045281
17	0xbedde029	-0.43335083
18	0x3ef1582e	0.47137588
19	0xbe169b50	-0.14707685
20	0x3e19fa0b	0.1503679
21	0xbf3e330f	-0.7429666
22	0x3e88b948	0.26703858
23	0x3f81b466	1.0133178
24	0xbda701ef	-0.08154666
25	0xbf33906f	-0.70142263
26	0x3f7ba2f4	0.9829552
27	0xbe05f637	-0.13082205
28	0xbdb67830	-0.08909643
29	0xbe990828	-0.29889035
30	0xbe2d9968	-0.16953051
31	0x3ebb6418	0.36599803
32	0xbf0140ca	-0.50489485
33	0xbeb6133e	-0.35561556
34	0x3f875f98	1.0576048
35	0x3f4548cc	0.77064204
36	0x3ef7d634	0.48405612
37	0x3e44fe57	0.19237648
38	0x3ec564a3	0.38553342
39	0xbf88fa57	-1.0701398
40	0x3e7ef71c	0.24898952
41	0xbe0b928c	-0.13630122
42	0x3eb7e963	0.35920247
43	0xbf0d5c2d	-0.55218774
44	0xbe85d196	-0.26136464
45	0xbe00ba0e	-0.12570974
46	0x3f0f2d95	0.5592893
47	0x3d2dcb3e	0.042430155
48	0x3ed3f3a0	0.4139681
49	0x3e13b6e9	0.14425243
50	0x3f17a0c7	0.592297
51	0x3eeecbee	0.4663996
52	0x3e1add71	0.15123536
53	0x3e160a03	0.14652257
54	0x3f67a189	0.9048086
55	0x3e5a06eb	0.21291701
56	0xbcb32ce4	-0.021871991
57	0x3e4cda9f	0.20005272
58	0xbf0654d5	-0.52473193
59	0x3e91d512	0.28482872
60	0xbf34639c	-0.7046449
61	0x3f4a912d	0.7912777
62	0xbf59f097	-0.85132736
63	0xbf686377	-0.9077677

static_variable_selection.single_variable_grns.AgeDist.fc2.bias f4 [8]
0	0xbd26f0d7	-0.040757027
1	0xbd856ee1	-0.06515289
2	0x3d1548be	0.036446325
3	0x3c987856	0.018612068
4	0xbc8a8129	-0.016907291
5	0xbdf82c00	-0.12117767
6	0xbe020d5e	-0.12700412
7	0x3d83db53	0.06438317

static_variable_selection.single_variable_grns.AgeDist.gate_norm.glu.fc.weight f4 [32, 8]
0	0xbf22945d	-0.63507634
1	0xbeab0116	-0.33399266
2	0xbe9ab5e1	-0.30216888
3	0xbf1304e3	-0.5742933
4	0xbe4028eb	-0.18765609
5	0x3da9c5d1	0.082896836
6	0xbdff6b22	-0.12471606
7	0x3ee656b5	0.44988027
8	0x3ddfc68b	0.10926541
9	0x3ca53433	0.020166492
10	0x3cf6354f	0.030054716
11	0xbe5d73d4	-0.21626216
12	0xbdd842e7	-0.105596356
13	0x3e8b0824	0.27154648
14	0xbdae45c0	-0.085093975
15	0xbda49408	-0.08036047
16	0x3e2b8259	0.16748942
17	0x3e700cd1	0.23442389
18	0x3a53aa0a	0.0008074349
19	0x3ea12bba	0.31478673
20	0xbe5dc51d	-0.21657224
21	0x3d822c74	0.06356135
22	0x3e8033b9	0.2503946
23	0xbe717ba9	-0.23582329
24	0x3ec5d5a1	0.38639548
25	0x3e0a76b9	0.13521852
26	0xbdc95479	-0.09830565
27	0x3efb055d	0.4902753
28	0x3e585a93	0.21128301
29	0x3d43d65b	0.047811847
30	0x3e7a267a	0.2442874
31	0xbe39282f	-0.18081735
32	0xbe9ab3eb	-0.30215392
33	0xbe063b22	-0.13108495
34	0x3b3a0b5d	0.002838812
35	0xbe974527	-0.29544947
36	0xbde16dd3	-0.110072754
37	0xbdaa854c	-0.083262056
38	0x3e5dfa08	0.2167741
39	0x3ec7357e	0.38908
40	0xbe73bc66	-0.23802337
41	0x3d79e76e	0.061011724
42	0xbdb0af5a	-0.08627196
43	0xbe0c56c3	-0.13704972
44	0xbeaa2fc8	-0.3323958
45	0x3d871931	0.06596602
46	0x3de86197	0.11346739
47	0xbe89b1f6	-0.26893586
48	0xbd682f0e	-0.0566855
49	0x3dc9b8c2	0.09849693
50	0xbdd67003	-0.10470583
51	0x3e2f90f3	0.17145137
52	0xbd481242	-0.048845537
53	0xbe9c21de	-0.3049459
54	0xbe5dcec2	-0.21660903
55	0xbe33f970	-0.17575622
56	0x3e8fa3b3	0.2805458
57	0x3ed3929a	0.41322786
58	0x3eb3bd8c	0.3510555
59	0x3ebb3bfb	0.365692
60	0x3f14d96e	0.5814427
61	0x3ed96c3a	0.42465383
62	0x3dd70bfd	0.105003335
63	0xbec37088	-0.38171792
64	0x3e995e34	0.29954684
65	0xbdf08a71	-0.117451556
66	0x3cf211e9	0.029549556
67	0x3e23d0be	0.15997598
68	0x3cd0c166	0.025482845
69	0xbe10ff30	-0.14159846
70	0xbe2e8123	-0.17041449
71	0xbea4bad9	-0.32173803
72	0x3e80a2fb	0.25124344
73	0xbde1cd50	-0.110254884
74	0xbdb14481	-0.08655644
75	0x3eca8ce2	0.3956061
76	0xbc4eb966	-0.012617445
77	0x3e7806ac	0.24221295
78	0xbe423430	-0.1896522
79	0xbe1dfefe	-0.15429303
80	0xbe939eef	-0.28832194
81	0xbc34d51e	-0.011037139
82	0xbe8f4a0d	-0.27986184
83	0xbe81fd57	-0.25388595
84	0x3e1ed07a	0.15509215
85	0xbe849a1c	-0.25898826
86	0xbe26255c	-0.16225189
87	0x3ddead2d	0.108728744
88	0x3dccf79d	0.10008166
89	0xbe562c0a	-0.20915237
90	0x3ea47fa0	0.3212862
91	0xbdba7ae7	-0.09105473
92	0x3e109f9b	0.14123385
93	0x3e9d1bf7	0.30685398
94	0x3e20ad92	0.15691212
95	0xbe9c855a	-0.3057049
96	0x3e24a0ec	0.16077012
97	0x3e882314	0.26589262
98	0xbd2ad8db	-0.041710716
99	0xbea1652f	-0.3152251
100	0xbe9a7a42	-0.301714
101	0x3e359f40	0.1773653
102	0xbe5f2639	-0.21791925
103	0x3e435918	0.19076955
104	0xbb0d686d	-0.0021577135
105	0x3e41d4e2	0.18928865
106	0xbe835f99	-0.25658873
107	0x3df8a031	0.12139929
108	0xbd7d256e	-0.061803274
109	0xbea0925b	-0.3136166
110	0xbda9665d	-0.08271477
111	0xbe783be0	-0.2424159
112	0x3e85253d	0.26004973
113	0x3f0e7e62	0.55661595
114	0x3f0bb2de	0.54569805
115	0x3e9497b2	0.29021984
116	0xbeaedd02	-0.3415299
117	0x3f0db889	0.55359703
118	0x3f236a46	0.63834035
119	0xbd02ba2f	-0.03191584
120	0xbed459d1	-0.41474774
121	0xbf145fd1	-0.57958704
122	0xbcd78876	-0.026310187
123	0xbe3e47af	-0.18582033
124	0x3ea27ec1	0.3173733
125	0xbe28ed4d	-0.16496773
126	0xbc9441b6	-0.01809774
127	0x3e40f74f	0.1884434
128	0xbeb8b628	-0.36076474
129	0xbec57499	-0.3856552
130	0xbd8bd6b0	-0.06828058
131	0xbf04f5d2	-0.5193759
132	0x3eb1b742	0.34710127
133	0xbf184553	-0.5948078
134	0xbdd4c118	-0.10388392
135	0x3da69556	0.08133952
136	0x3eec86b6	0.46196526
137	0x3e8c808a	0.27441818
138	0x3ed0c8e6	0.40778273
139	0x3efe7cd4	0.4970461
140	0x3d325dd6	0.04354652
141	0x3e3addb4	0.18248636
142	0x3db111e4	0.086459905
143	0xbeb49c6d	-0.35275593
144	0x3e08bce1	0.13353302
145	0xbe486f66	-0.19573745
146	0xbe735a90	-0.23765016
147	0x3e0b8560	0.13625097
148	0x3f15996e	0.5843724
149	0xbbbbb31b	-0.005728138
150	0x3ebf744a	0.3739341
151	0xbdcd7948	-0.10032898
152	0x3edf915d	0.4366559
153	0x3ce266b9	0.027636873
154	0x3ec0f8d3	0.37689838
155	0xbd44f775	-0.048087556
156	0x3f136c01	0.57586676
157	0xbe4fe236	-0.20301136
158	0x3f0efb16	0.55851877
159	0xbcf4cbed	-0.029882396
160	0xbe158a6f	-0.1460359
161	0x3d77de8a	0.060514964
162	0x3e818872	0.25299412
163	0xbe863e7f	-0.26219556
164	0x3efc793b	0.49311242
165	0x3de8e9cb	0.113727175
166	0x3eccef15	0.40026155
167	0x3d692717	0.056922045
168	0xbe05a9fd	-0.13053127
169	0xbdda0344	-0.10645154
170	0x3e19c68f	0.1501715
171	0xbdd6205a	-0.10455389
172	0x3e107df6	0.1411055
173	0x3e704961	0.23465492
174	0xbcd2ad1b	-0.025717309
175	0x3f10e1c5	0.56594497
176	0xbcc1493e	-0.023594495
177	0x3e83e91f	0.25763795
178	0x3e9a710a	0.30164367
179	0xbd54760c	-0.05187039
180	0xbf19021b	-0.5976884
181	0xbe58dcb1	-0.21177937
182	0x3e45fcf2	0.19334772
183	0xbd3c1f87	-0.045928504
184	0x3e006034	0.12536699
185	0x3ee74f6e	0.45177788
186	0x3e27162c	0.16317052
187	0x3e88536b	0.26626143
188	0xbe1f4293	-0.1555274
189	0x3e532500	0.20619583
190	0x3e4f11c4	0.20221621
191	0xbe816581	-0.25272754
192	0xbe99e198	-0.30054927
193	0xbeb2ae8f	-0.34898803
194	0xbe91fb43	-0.2851201
195	0x3d943f32	0.07238616
196	0x3e1e2c86	0.15446672
197	0xbe0f0d73	-0.13969974
198	0xbe8325cf	-0.25614783
199	0x3e4b7476	0.19868645
200	0x3e3d4da7	0.18486653
201	0x3ec38db1	0.3819404
202	0xbe4cf603	-0.20015721
203	0x3e12bfd6	0.14330992
204	0xbedbab60	-0.42904186
205	0x3ecb8e47	0.39756986
206	0xbe17dd50	-0.14830518
207	0xbe5f17f2	-0.21786478
208	0xbdd1a631	-0.102367766
209	0xbe8e3b38	-0.27779555
210	0xbe78292c	-0.24234456
211	0x3d2c81d6	0.04211601
212	0x3dcf4f03	0.10122492
213	0xbec387ab	-0.38189444
214	0x3f268229	0.6504236
215	0xbef00d29	-0.4688504
216	0xbeb15781	-0.34637073
217	0xbe4a7f81	-0.19775201
218	0xbe79373b	-0.24337475
219	0x3e9b3d39	0.30320147
220	0xbe1c4ca4	-0.15263611
221	0xbe81f3c0	-0.2538128
222	0xbdc600f4	-0.096681505
223	0x3ec65363	0.38735494
224	0x3dc21943	0.094774745
225	0xbc7ea5f7	-0.015542499
226	0xbd8e06df	-0.06934904
227	0xbd583233	-0.05278225
228	0x3dd19d32	0.10235061
229	0x3dda3725	0.10655049
230	0xbf1f6178	-0.622581
231	0x3d68ae98	0.05680713
232	0xbeaa3952	-0.33246857
233	0xbe1a4650	-0.15065885
234	0x3e80d437	0.25161907
235	0xbf15d556	-0.5852865
236	0xbe415b2e	-0.18882439
237	0x3e81f6c7	0.2538359
238	0xbd809bb8	-0.06279701
239	0xbb776378	-0.0037748497
240	0xbe9e5347	-0.3092291
241	0xbee4c879	-0.44684198
242	0xbf059b46	-0.52190053
243	0xbf0a10e1	-0.53932005
244	0xbe8d7759	-0.27630118
245	0x3e631603	0.22176366
246	0xbdf9e9da	-0.12202807
247	0x3dba617a	0.091006234
248	0xbf05af0d	-0.5222023
249	0xbefc575e	-0.49285406
250	0xbe93dbd3	-0.2887865
251	0xbe7d9335	-0.24763186
252	0xbe98dc70	-0.2985568
253	0xbc155f33	-0.009116936
254	0xbe1d6ce8	-0.15373576
255	0x3f298edb	0.66233605

static_variable_selection.single_variable_grns.AgeDist.gate_norm.glu.fc.bias f4 [32]
0	0x3e475264	0.19465023
1	0x3dca2f2b	0.09872278
2	0x3da9ec3f	0.082970135
3	0xbca3f1b0	-0.020012707
4	0xbe2257df	-0.15853833
5	0xbdb3c116	-0.087770626
6	0x3d67ec88	0.05662206
7	0xbc8476ae	-0.016169872
8	0x3dec5fa4	0.115416795
9	0xbe50f988	-0.20407689
10	0x3dd913d0	0.10599482
11	0xbca38d4c	-0.019964837
12	0xbe323c84	-0.17405897
13	0xbd80b29b	-0.06284066
14	0xbe9b14aa	-0.30289203
15	0x3e71a673	0.23598652
16	0x3ecd1604	0.4005586
17	0x3d4da348	0.050204545
18	0xbe34d76a	-0.17660299
19	0x3ede6c5a	0.4344204
20	0x3d355048	0.044266015
21	0xbdd7b836	-0.10533182
22	0xbeb12763	-0.34600362
23	0xbe7165c8	-0.23573983
24	0xbd81a359	-0.06329984
25	0xbe235852	-0.1595166
26	0x3ebe6c01	0.37191775
27	0xbe21032b	-0.15723865
28	0xbe2a3e7f	-0.16625403
29	0xbe393f65	-0.1809059
30	0x3da088fb	0.07838627
31	0x3d6ea8f4	0.058266595

static_variable_selection.single_variable_grns.AgeDist.gate_norm.add_norm.norm.weight f4 [16]
0	0x3f9bd029	1.21729
1	0x3f80f9b7	1.0076207
2	0x3f9a4222	1.2051432
3	0x3f8e7225	1.1128584
4	0x3f847f09	1.0351268
5	0x3f7f7703	0.9979097
6	0x3f946b3b	1.1595224
7	0x3f9ed150	1.2407627
8	0x3f805bdd	1.0028034
9	0x3f9019ca	1.125787
10	0x3f8867df	1.0656699
11	0x3f835c92	1.0262625
12	0x3f8b83b4	1.0899568
13	0x3f548e9f	0.8303012
14	0x3fa63d57	1.298747
15	0x3f9919b8	1.1960974

static_variable_selection.single_variable_grns.AgeDist.gate_norm.add_norm.norm.bias f4 [16]
0	0x3b1bd019	0.002377516
1	0xbc90aedc	-0.017661504
2	0x3e28503c	0.16436857
3	0xbcad5072	-0.021156523
4	0xbdb4bc41	-0.08824969
5	0x3d18604e	0.03720122
6	0x3d82c386	0.063849494
7	0x3e2ed032	0.17071608
8	0xbd962211	-0.073307164
9	0xbd8931f4	-0.06698981
10	0xbd8adcc4	-0.06780389
11	0xbd9cb07a	-0.07650848
12	0xbd865525	-0.06559209
13	0x3dd88b23	0.10573413
14	0xbe330009	-0.17480482
15	0xbd92e425	-0.07172421

static_variable_selection.single_variable_grns.HealthDisp.resample_norm.mask f4 [16]
0	0x3e0d1f13	0.13781385
1	0x3e185551	0.14876296
2	0x3e9eeee6	0.3104164
3	0x3ccc4bdd	0.024938518
4	0xbdd1c16b	-0.1024197
5	0xbdc7f75f	-0.09763979
6	0x3dfcddeb	0.12347015
7	0xbddbcbdc	-0.107322425
8	0x3d41dee6	0.047331713
9	0x3dba06af	0.09083306
10	0xbd960b74	-0.07326403
11	0xbe305305	-0.1721917
12	0xbd8ca605	-0.06867603
13	0xbcbda71c	-0.023150973
14	0xbc10bb68	-0.008833744
15	0xbd8fa78f	-0.07014381

static_variable_selection.single_variable_grns.HealthDisp.resample_norm.norm.weight f4 [16]
0	0x3f8e6a06	1.1126106
1	0x3f8124e5	1.0089384
2	0x3f934fed	1.1508766
3	0x3f93ca42	1.1546099
4	0x3f7a2dfd	0.9772642
5	0x3f73719e	0.9509524
6	0x3f8a00c4	1.0781484
7	0x3f80c342	1.0059588
8	0x3f848d53	1.0355629
9	0x3f9f55bf	1.2448043
10	0x3f7a5e17	0.9779982
11	0x3f707573	0.93929213
12	0x3f62c67f	0.8858413
13	0x3f85d74e	1.0456331
14	0x3f81ba5e	1.0135
15	0x3f6cd78a	0.92516387

static_variable_selection.single_variable_grns.HealthDisp.resample_norm.norm.bias f4 [16]
0	0x3deb2a01	0.11482621
1	0xbbd187d7	-0.006394367
2	0x3daba748	0.08381516
3	0xbddf3fc8	-0.10900837
4	0xbc985461	-0.018594922
5	0xbd923cff	-0.0714054
6	0x3d8714fe	0.06595801
7	0xbd80c6b9	-0.06287903
8	0xbd3a82b0	-0.04553479
9	0xbbfbbaee	-0.007682196
10	0x3e09d7b2	0.13461187
11	0x3d13d971	0.03609604
12	0xbd71a069	-0.05899087
13	0xbca71a43	-0.020398265
14	0xbdd93527	-0.10605841
15	0x39b44d85	0.00034390032

static_variable_selection.single_variable_grns.HealthDisp.fc1.weight f4 [8, 8]
0	0x3dae810d	0.08520708
1	0x3c4c5258	0.012470804
2	0xbed84aa1	-0.42244437
3	0xbfc3b568	-1.5289736
4	0x3ef50369	0.47854164
5	0x3efbe210	0.4919591
6	0x3e9f0b44	0.31063282
7	0xbf0d87f1	-0.55285555
8	0xbf304139	-0.6884952
9	0x3ee4127e	0.44545358
10	0xbf97dab6	-1.186362
11	0xbc89da1d	-0.016827637
12	0xbf059ffb	-0.52197236
13	0xbecadeb8	-0.39623046
14	0xbfc5dd30	-1.5458126
15	0xbf1eee0e	-0.6208199
16	0x3c2ef54b	0.0106786
17	0x3f13f881	0.5780106
18	0x3f52bc37	0.82318443
19	0x3eff0a73	0.4981266
20	0x3eec346a	0.4613374
21	0xbee1e9f6	-0.4412381
22	0xbe5e071e	-0.21682402
23	0x3f3a87e6	0.72863615
24	0x3f540b62	0.8282987
25	0xbe78428a	-0.24244133
26	0xbf598962	-0.84975255
27	0x3f0707ec	0.5274646
28	0x3e733ac0	0.2375288
29	0x3d45b6b9	0.04826996
30	0xbec84b46	-0.3911993
31	0xbf176fcc	-0.59154963
32	0x3d86dfab	0.0658563
33	0xbf061029	-0.5236841
34	0x3f162503	0.58650225
35	0xbed29a03	-0.41133127
36	0xbe039197	-0.12848507
37	0xbf09d948	-0.5384717
38	0xbd5a03a0	-0.053226113
39	0xbdf34609	-0.118785925
40	0xbd8b2c65	-0.06795577
41	0xbef7a777	-0.48369953
42	0xbec4451a	-0.3833397
43	0xbf1599ba	-0.58437693
44	0xbdc96e3d	-0.098354794
45	0x3f0aaf4b	0.54173726
46	0x3f456ace	0.77116096
47	0xbf019289	-0.5061422
48	0x3f85d196	1.0454586
49	0xbe57efad	-0.21087523
50	0x3db34105	0.08752636
51	0xbf8b5e66	-1.0888183
52	0xbf8ecf7a	-1.1157067
53	0x3ed78b06	0.42098254
54	0x3ecc2956	0.39875287
55	0xbe47e9b6	-0.19522747
56	0xbf963e1a	-1.1737702
57	0xbf2804a2	-0.6563207
58	0x3dc1c845	0.094620265
59	0xbec95c76	-0.39328355
60	0x3dd8a992	0.10579218
61	0x3cce8817	0.025211377
62	0xbe474b2a	-0.19462267
63	0x3e4eff33	0.20214538

static_variable_selection.single_variable_grns.HealthDisp.fc1.bias f4 [8]
0	0xbea24365	-0.31692043
1	0x3e3b68d9	0.18301715
2	0xbea3d1f6	-0.31996125
3	0xbb8da60c	-0.004322773
4	0xbd95837e	-0.07300471
5	0xbe41b254	-0.18915683
6	0x3de1c29f	0.11023449
7	0x3e07f3d6	0.1327661

static_variable_selection.single_variable_grns.HealthDisp.fc2.weight f4 [8, 8]
0	0x3e83dc0f	0.2575383
1	0xbecc6d79	-0.3992727
2	0x3f365497	0.71222824
3	0x3ea24bb9	0.31698397
4	0xbecf1eb3	-0.4045311
5	0x3ea91455	0.33023325
6	0x3f27ef1e	0.6559924
7	0x3f4a63f2	0.79058754
8	0xbce383e1	-0.027772846
9	0x3ef6b141	0.4818211
10	0xbe3eac27	-0.18620358
11	0x3dab4e6b	0.083645664
12	0x3ed488ce	0.41510624
13	0x3e600dc7	0.21880256
14	0x3f16770c	0.587754
15	0xbd974f49	-0.07388169
16	0xbf92b018	-1.145999
17	0xbf2f6e18	-0.68527365
18	0xbf0ecde1	-0.55782896
19	0x3c1796ef	0.009252294
20	0xbefaf6e3	-0.49016485
21	0xbdff9681	-0.12479878
22	0x3eac205c	0.33618438
23	0x3e2abd05	0.16673668
24	0xbe1f0901	-0.15530778
25	0xbf77ec97	-0.9684538
26	0x3e2ad958	0.16684473
27	0x3ed6599a	0.41865236
28	0xbe942319	-0.28933027
29	0xbe499db6	-0.19689068
30	0xbf862dd8	-1.048274
31	0xbe0945c5	-0.13405521
32	0x3f884324	1.064549
33	0xbf1766ca	-0.5914122
34	0xbe1c9f2f	-0.15295099
35	0x3e0829bc	0.1329717
36	0x3e37ec22	0.17961171
37	0x3f2d793e	0.67763126
38	0x3c81c867	0.01584263
39	0xbe5f37ee	-0.21798679
40	0xbf7fa244	-0.9985697
41	0x3e8d3b80	0.27584457
42	0xbd587706	-0.052847885
43	0x3ef76f90	0.48327303
44	0xbe98d3ea	-0.29849178
45	0xbf0441c9	-0.5166288
46	0xbdc0401b	-0.09387227
47	0xbe8bd1bf	-0.2730846
48	0xbfa248c9	-1.2678462
49	0xbe012f74	-0.12615758
50	0xbf14f661	-0.58188444
51	0x3e10bada	0.14133778
52	0x3ebb16ff	0.36540982
53	0xbeaa4412	-0.3325506
54	0x3e8014b3	0.25015792
55	0x3ed09940	0.4074192
56	0x3f4413d6	0.7659277
57	0x3e52541c	0.20539898
58	0x3e73db8d	0.2381422
59	0x3e85a74e	0.26104206
60	0x3d8ab980	0.067736626
61	0x3dc74764	0.097304136
62	0xbee78cc4	-0.45224583
63	0xbf419c03	-0.7562868

static_variable_selection.single_variable_grns.HealthDisp.fc2.bias f4 [8]
0	0xbe3fdb44	-0.18735987
1	0xbd679552	-0.056538887
2	0x3e798656	0.24367651
3	0xbdf9c6fa	-0.12196155
4	0xbdb78d33	-0.089624785
5	0x3c937f12	0.018004928
6	0x3e366936	0.17813572
7	0xbddbdb90	-0.107352376

static_variable_selection.single_variable_grns.HealthDisp.gate_norm.glu.fc.weight f4 [32, 8]
0	0xbdf9f5dd	-0.12205098
1	0xbdd3bc16	-0.10338609
2	0xbe08285a	-0.13296643
3	0xbe8cba11	-0.27485707
4	0xbdfc8cf8	-0.12331575
5	0x3eb315be	0.34977525
6	0x3d836c55	0.06417147
7	0x3e5521cb	0.20813672
8	0xbb494ac7	-0.0030714737
9	0xbedcb894	-0.43109572
10	0xbd918e99	-0.071072765
11	0xbd9fbe35	-0.07799951
12	0xbdf3f7b4	-0.1191248
13	0x3d6bc1d9	0.057557914
14	0xbe67dafb	-0.22642128
15	0xbe5e0557	-0.21681724
16	0xbc4e95eb	-0.012608985
17	0xbe8106a2	-0.25200373
18	0xbd23e188	-0.040010005
19	0xbd05d04e	-0.032669358
20	0x3e173d9b	0.14769594
21	0xbcbd5984	-0.023113973
22	0xbe38ac3d	-0.18034454
23	0x3e92da0b	0.2868198
24	0x3e67171d	0.22567411
25	0x3d9b3e47	0.07580238
26	0xbe54a35d	-0.20765443
27	0xbea91212	-0.330216
28	0x3de1b98b	0.11021718
29	0x3c3fb38c	0.011700522
30	0xbd99ce01	-0.07509995
31	0xbe055e50	-0.13024259
32	0xbe942d1a	-0.2894066
33	0xbe94c87a	-0.290592
34	0x3e9b97d8	0.30389285
35	0x3ea48807	0.3213503
36	0x3cfb6753	0.030688917
37	0xbd5dc01c	-0.054138288
38	0x3db2172d	0.08695827
39	0xbebf2e84	-0.37340176
40	0xbe39e1ee	-0.18152592
41	0xbea1c510	-0.3159566
42	0x3e005d92	0.12535694
43	0xbeaff460	-0.3436613
44	0x3e888794	0.26665938
45	0x3ed9526c	0.42445695
46	0xbd6a9ddf	-0.057279464
47	0x3d540420	0.051761746
48	0x3d697e0c	0.057004973
49	0x3e840d32	0.25791317
50	0xbd024095	-0.03179987
51	0x3eae93b5	0.34097067
52	0x3d1b7560	0.037953734
53	0x3cd7a707	0.026324762
54	0x3e566b71	0.20939423
55	0x3da7d32d	0.081945755
56	0x3dd8e2e0	0.10590148
57	0x3dfc7125	0.12326268
58	0xbe097dd3	-0.13426904
59	0x3e8ffdbe	0.28123277
60	0x3d90e17f	0.0707426
61	0xbdd0daab	-0.101979576
62	0x3dd303d4	0.103034645
63	0xbe3c8576	-0.18410286
64	0xbdb5b383	-0.0887213
65	0xbf0278c1	-0.50965506
66	0x3e9a6757	0.30156967
67	0x3eaf2458	0.34207416
68	0xbf0abc5e	-0.54193676
69	0x3ea90839	0.33014086
70	0x3e6238ca	0.22091976
71	0xbe7d9222	-0.24762776
72	0x3f07575a	0.5286766
73	0x3e88c32f	0.26711413
74	0xbeafb728	-0.34319425
75	0xbee43fd9	-0.44579962
76	0x3ebfba2a	0.3744672
77	0xbf018645	-0.50595504
78	0xbf0519dc	-0.51992583
79	0xbd5a2440	-0.053257227
80	0x3e7adda2	0.24498609
81	0xbe0913aa	-0.13386407
82	0xbed24d00	-0.4107437
83	0xbe364d5a	-0.17802945
84	0x3df1c077	0.11804288
85	0xbe06518c	-0.13117045
86	0xbeb5c1de	-0.3549947
87	0xbdb67280	-0.08908558
88	0xbd866023	-0.065613054
89	0x3d2679d3	0.040643524
90	0xbdd30734	-0.10304108
91	0x3e77afc3	0.24188142
92	0x3eaad482	0.33365256
93	0xbd866dc7	-0.06563907
94	0x3e4d8096	0.20068583
95	0x3e5212d8	0.20515001
96	0xbe16857b	-0.14699356
97	0x3ec1883e	0.37799257
98	0xbe34440f	-0.17604087
99	0xbe76bc7c	-0.24095339
100	0x3e89492d	0.2681364
101	0x3e9bd3a8	0.30434918
102	0x3e14469b	0.14480059
103	0xbd44c046	-0.04803493
104	0x3ecc47fc	0.3989867
105	0x3e7e1964	0.24814373
106	0xbca24f1e	-0.019813117
107	0xbd5bbbea	-0.053646006
108	0x3e8e50fc	0.2779616
109	0xbe7122b4	-0.23548394
110	0xbe53f73d	-0.20699783
111	0x3ea35a3e	0.31904787
112	0x3d55fc36	0.05224248
113	0x3bf67b70	0.007522039
114	0xbcc437ac	-0.023952328
115	0xbb8c4584	-0.004280748
116	0x3e9e5fdb	0.30932507
117	0x3e681b1f	0.22666596
118	0xbe9d4053	-0.30713138
119	0xbe92d4f0	-0.28678083
120	0xbec1e45c	-0.37869537
121	0x3df59369	0.11991007
122	0xbdb02f24	-0.08602741
123	0xbe941af7	-0.28926823
124	0x3e280286	0.16407213
125	0xbe6ea815	-0.23306306
126	0x3e893d17	0.2680442
127	0xbd1c383e	-0.038139574
128	0xbe7e3025	-0.24823053
129	0x3eedc55f	0.46439645
130	0x3e49147c	0.1963672
131	0xbeeb61e5	-0.45973125
132	0xbeaba93d	-0.33527556
133	0x3f4417a8	0.76598597
134	0x3da66313	0.08124366
135	0xbdead0ee	-0.114656314
136	0xbeb1417c	-0.34620273
137	0xbe87737d	-0.26455298
138	0x3d4c54c7	0.049885537
139	0x3e077fbe	0.13232324
140	0xbe98d14e	-0.29847187
141	0x3e56722e	0.20941994
142	0x3ea9b97d	0.3314933
143	0x3e5cd9d1	0.21567465
144	0xbe07212e	-0.13196251
145	0x3ecfaafa	0.40560132
146	0x3ef71e4c	0.48265302
147	0x3d76a445	0.060215253
148	0x3e03f597	0.12886654
149	0x3e86f4a6	0.26358527
150	0xbd3f31e4	-0.04667844
151	0x3e11c81b	0.1423649
152	0x3e165a04	0.14682776
153	0x3e921d3b	0.28537926
154	0xbde2f0d4	-0.110810906
155	0xbe90c9fb	-0.282791
156	0xbe388340	-0.18018818
157	0xbe486c35	-0.19572528
158	0xbe818966	-0.2530014
159	0x3cb7d3d7	0.02243988
160	0x3e6db71c	0.23214382
161	0x3bd79e73	0.006580168
162	0x3c1acfe2	0.009448977
163	0xbeb9b3dd	-0.36270037
164	0xbd90aa32	-0.07063712
165	0xbd2e3a49	-0.042536054
166	0x3e00858d	0.12550946
167	0x3ea39970	0.31953
168	0xbb9c970d	-0.004778749
169	0x3ec7bfdb	0.39013562
170	0xbeb2b6d2	-0.34905106
171	0x3d51e873	0.05124707
172	0x3d8e9c69	0.069634266
173	0x3e6586c6	0.22414693
174	0x3e0efeb3	0.13964348
175	0xbe03143a	-0.12800685
176	0x3e2a6dc3	0.16643433
177	0x3e074a33	0.13211899
178	0xbe311ff0	-0.1729734
179	0xbe756309	-0.2396356
180	0xbec650bd	-0.38733473
181	0x3f043038	0.51636076
182	0x3ec20f11	0.3790212
183	0xbea638a8	-0.324651
184	0xbe11148b	-0.14167993
185	0x3ef0ea48	0.47053742
186	0x3b164421	0.0022928792
187	0x3d74c5bb	0.059758883
188	0x3d556cd4	0.05210574
189	0x3e860de2	0.26182467
190	0xbdbcb8c5	-0.092149295
191	0x3edb86c8	0.42876267
192	0x3dba59ae	0.09099136
193	0x3ee2772c	0.44231546
194	0xbe92ac77	-0.28647205
195	0xbda80d8f	-0.08205711
196	0x3effa23f	0.4992847
197	0xbee13ff4	-0.43994105
198	0xbe0be1b9	-0.13660325
199	0xbe11cb5e	-0.14237735
200	0x3dd3ee53	0.10348191
201	0x3de4445c	0.11145851
202	0xbe841ac1	-0.25801662
203	0xbf002769	-0.50060135
204	0x3d939f07	0.072080664
205	0xbe39f151	-0.18158461
206	0xbef87383	-0.48525628
207	0x3ed47758	0.41497302
208	0x3db31b08	0.0874539
209	0xbed0a996	-0.40754384
210	0x3e4e52a0	0.20148706
211	0x3eba902e	0.36438125
212	0xbe0e7bd5	-0.13914426
213	0xbdd7410b	-0.10510453
214	0xbd8c541a	-0.068519786
215	0xbe324f52	-0.17413071
216	0x3c8cf058	0.017204449
217	0x3e2b3d2e	0.16722557
218	0x3efad1ad	0.48988095
219	0xbe617113	-0.2201579
220	0x3dbd29d5	0.092364945
221	0x3e541ccb	0.20714109
222	0xbe517b4f	-0.20457195
223	0xbd00bf9d	-0.031432737
224	0x3e552dc3	0.20818238
225	0x3c2ead39	0.010661417
226	0xbe4dc9fb	-0.2009658
227	0x3e180000	0.1484375
228	0xbe990a36	-0.29890603
229	0xbe5064e1	-0.20350982
230	0x3c156fff	0.00912094
231	0xbe3e2f9b	-0.18572848
232	0x3e488db3	0.19585304
233	0x3e3a0eda	0.18169728
234	0xbdbdfdfc	-0.09276959
235	0xbd9d1c8f	-0.07671463
236	0xbc17986f	-0.009252652
237	0xbe31b4bb	-0.173541
238	0x3d42a1e4	0.047517672
239	0x3e6a7d80	0.22899437
240	0x3d92594c	0.07145938
241	0x3da64b7c	0.08119866
242	0x3e3da468	0.18519747
243	0xbef67830	-0.4813857
244	0xbe725c60	-0.23668051
245	0xbe49e28e	-0.1971533
246	0xbe9b4c55	-0.30331674
247	0x3e46da53	0.19419222
248	0x3e59af5c	0.212583
249	0x3e5ac392	0.21363667
250	0x3ea26073	0.3171421
251	0x3eb1880b	0.34674105
252	0xbe2555c4	-0.16145998
253	0x3ea35fd8	0.3190906
254	0xbea9d9c2	-0.3317395
255	0x3d866911	0.065630086

static_variable_selection.single_variable_grns.HealthDisp.gate_norm.glu.fc.bias f4 [32]
0	0x3c3852dd	0.011250225
1	0x3c606278	0.013695352
2	0x3d9871ae	0.07443558
3	0xbdfa7822	-0.12229945
4	0x3cea5066	0.02860279
5	0xbd41418b	-0.047181647
6	0x3df861b8	0.12128013
7	0xbda64f41	-0.08120585
8	0xbdef9991	-0.11699212
9	0x3c7b870d	0.015352023
10	0x3db50001	0.08837891
11	0x3cd16c61	0.025564374
12	0xbd1a1670	-0.037619054
13	0xbd02ddac	-0.031949684
14	0xbd978d88	-0.07400042
15	0xbb9e4168	-0.0048295744
16	0xbec248c9	-0.37946156
17	0xbe05c710	-0.13064218
18	0xbe2317ed	-0.15927096
19	0xbdad030e	-0.08447848
20	0xbcfa7226	-0.030572008
21	0x3ce600fd	0.028076643
22	0xbe30a449	-0.1725017
23	0xbe5ab417	-0.21357761
24	0xbdd4a727	-0.10383444
25	0xbc16afb2	-0.009197162
26	0x3ca605c7	0.020266427
27	0xbdd0811a	-0.10180874
28	0xbddaab0e	-0.10677157
29	0x3db4f565	0.08835868
30	0xbe99cbaf	-0.3003821
31	0x3d3741d0	0.044740498

static_variable_selection.single_variable_grns.HealthDisp.gate_norm.add_norm.norm.weight f4 [16]
0	0x3f802f20	1.0014381
1	0x3f85705d	1.0424916
2	0x3f97f5ef	1.1871928
3	0x3f87e7cb	1.0617613
4	0x3f83dfe1	1.0302697
5	0x3f71d38a	0.9446341
6	0x3f7ca51b	0.9868943
7	0x3f6a8a55	0.9161733
8	0x3f8a0d5e	1.0785329
9	0x3f8506e2	1.0392725
10	0x3f7ee719	0.9957138
11	0x3f7d177e	0.9886397
12	0x3f581c26	0.8441795
13	0x3f8cf81a	1.1013215
14	0x3f6b2d2e	0.91865814
15	0x3f59b8bd	0.85047513

static_variable_selection.single_variable_grns.HealthDisp.gate_norm.add_norm.norm.bias f4 [16]
0	0x3de6fcde	0.11278699
1	0xbcd3d707	-0.025859369
2	0x3d970537	0.073740415
3	0xbda3f8f9	-0.08006472
4	0x3c7f8220	0.015594989
5	0xbd36524f	-0.04451209
6	0x3d0b8eca	0.03407172
7	0xbcff8575	-0.031191567
8	0xbcaaea54	-0.02086369
9	0xbcd67e9c	-0.026183419
10	0x3da40c02	0.08010103
11	0xbaa64844	-0.0012686332
12	0xbd9b2f32	-0.07577361
13	0x3d218bd9	0.03944001
14	0xbd61f03c	-0.055160746
15	0xbc7ce22b	-0.015434782

static_variable_selection.prescalers.AgeDist.weight f4 [8, 1]
0	0x3e994bc7	0.29940626
1	0xbf8a99e9	-1.082822
2	0x3f224702	0.633896
3	0x3ea0fb55	0.3144175
4	0xbf2428f2	-0.6412498
5	0xbe9fd96a	-0.3122056
6	0xbf69dfd8	-0.91357183
7	0x3f12ff85	0.5742114

static_variable_selection.prescalers.AgeDist.bias f4 [8]
0	0xbe3165e5	-0.17324026
1	0x3f2a0644	0.6641581
2	0x3f1aea9e	0.6051425
3	0x3dfaaa12	0.122394696
4	0xbebba4a5	-0.3664905
5	0xbee5105d	-0.44739047
6	0xbe09ef64	-0.13470227
7	0xbe651824	-0.2237249

static_variable_selection.prescalers.HealthDisp.weight f4 [8, 1]
0	0x3f1c7f51	0.6113177
1	0xbf908795	-1.1291376
2	0x3f453044	0.7702677
3	0xbf6c4cab	-0.92304486
4	0x3f716e2a	0.9430872
5	0x3d1a247a	0.037632443
6	0x3f3263d5	0.6968358
7	0x3ebd2c82	0.3694802

static_variable_selection.prescalers.HealthDisp.bias f4 [8]
0	0x3d33608a	0.04379324
1	0x3e6fd674	0.23421651
2	0x3f19323b	0.5984227
3	0x3ea25bcf	0.3171067
4	0x3ebc217b	0.36744294
5	0xbf1f7d49	-0.62300545
6	0x3f0d36a4	0.551615
7	0x3e42ec8d	0.1903555

encoder_variable_selection.flattened_grn.resample_norm.mask f4 [7]
0	0xbe634895	-0.22195657
1	0xbe7902b6	-0.2431744
2	0x3daf7355	0.0856692
3	0x3dd556ac	0.10416922
4	0x3c8655fb	0.01639842
5	0x3e2d44ab	0.16920726
6	0xbc93b9d6	-0.01803295

encoder_variable_selection.flattened_grn.resample_norm.norm.weight f4 [7]
0	0x3f6701f1	0.9023734
1	0x3f4be40e	0.7964486
2	0x3f969da5	1.1766859
3	0x3f8ec510	1.1153889
4	0x3f848821	1.0354043
5	0x3fa3b296	1.2788875
6	0x3f899832	1.0749571

encoder_variable_selection.flattened_grn.resample_norm.norm.bias f4 [7]
0	0xbda0cfe5	-0.07852153
1	0xbe428efc	-0.18999857
2	0x3d19bac9	0.037531648
3	0xbeb7d80c	-0.35907018
4	0xbe52dcf5	-0.20592101
5	0xbe71a61d	-0.23598523
6	0x3eb12c38	0.3460405

encoder_variable_selection.flattened_grn.fc1.weight f4 [7, 56]
0	0x3f074391	0.52837473
1	0x3e3cacae	0.18425247
2	0x3dc68bf0	0.0969466
3	0xbcf3363d	-0.029688949
4	0xbe32923b	-0.17438595
5	0xbd9f19b7	-0.077685766
6	0xbe99face	-0.3007416
7	0xbe7d6ffc	-0.2474975
8	0xbe0f1788	-0.1397382
9	0xbea7c3fa	-0.32766706
10	0x3d1a445c	0.03766285
11	0x3e0b21d4	0.13587123
12	0xbd50d86e	-0.050987653
13	0x3e9094d8	0.2823856
14	0xbbc55255	-0.0060217776
15	0x3e2fa7e0	0.17153883
16	0xbe8c5450	-0.27408075
17	0xbe6136f1	-0.21993615
18	0xbb2bbe87	-0.0026206092
19	0x3d0fd2dd	0.035113204
20	0x3d95fcb7	0.07323592
21	0x3eaa6424	0.33279526
22	0xbe8a5345	-0.27016655
23	0x3e5371ee	0.2064893
24	0xbc92192c	-0.017834269
25	0xbd93dc4e	-0.07219754
26	0x3e13cc9e	0.14433524
27	0x3dd91c72	0.10601129
28	0x3e0e4bb6	0.13896069
29	0x3e71249e	0.23549125
30	0x3e250f80	0.16119194
31	0xbddbe6ec	-0.10737404
32	0x3e044da0	0.12920237
33	0xbe02451f	-0.1272168
34	0x3e009426	0.12556514
35	0xbea253f2	-0.3170467
36	0xbcbb28a6	-0.022846531
37	0xbc4a86c3	-0.012361231
38	0x3e324c1d	0.17411847
39	0xbea68277	-0.32521412
40	0xbb7b65be	-0.0038360204
41	0x3e226535	0.1585892
42	0xbe95b00d	-0.2923588
43	0x3e00bfa5	0.12573107
44	0xbe229531	-0.15877225
45	0x3dd34dd6	0.103175804
46	0x3e10d0ac	0.14142102
47	0x3bc567a8	0.0060243197
48	0x3d183c5e	0.037166946
49	0xbb6ff3dd	-0.003661386
50	0xbe389f01	-0.18029405
51	0x3e063617	0.13106571
52	0xbecc48c1	-0.39899257
53	0x3df78a92	0.12086977
54	0xbe06dcb4	-0.13170129
55	0x3c92cb25	0.017919132
56	0x3e66c1e0	0.22534895
57	0x3e7ccf10	0.24688363
58	0x3e83171d	0.25603572
59	0x3e5994a9	0.21248116
60	0xbc9913d4	-0.018686213
61	0x3e43590b	0.19076936
62	0xbd5869db	-0.052835327
63	0xbd8ea9e7	-0.06966
64	0x3ee301d1	0.44337323
65	0x3cf9a630	0.030474752
66	0x3e6f41fa	0.23365012
67	0x3d519811	0.051170412
68	0x3dc7cd27	0.097559266
69	0xbe244d4e	-0.16045114
70	0xbe8c6cf4	-0.27426875
71	0xbd304b5f	-0.04304063
72	0x3e98c2e8	0.29836202
73	0x3e3879d4	0.18015224
74	0xbc732877	-0.014841191
75	0x3e16d26a	0.14728704
76	0xbea29b60	-0.31759167
77	0xbe97aa12	-0.2962194
78	0xbdcc4c65	-0.099755086
79	0x3d8d915a	0.06912489
80	0x3e3a01c1	0.18164732
81	0xbe04e950	-0.12979627
82	0xbe5befa5	-0.21478136
83	0x3cabf78f	0.020992069
84	0xbeaf0735	-0.34185186
85	0xbe565a99	-0.20932998
86	0x3e05ff9c	0.13085788
87	0x3ef65e80	0.48118973
88	0xbe8c07b1	-0.27349618
89	0x3ee6409f	0.44971177
90	0x3cd847e3	0.026401466
91	0x3e987253	0.29774722
92	0xbe507392	-0.20356587
93	0xbe871d37	-0.26389477
94	0xbecb4d26	-0.39707297
95	0xbea78164	-0.32715905
96	0x3ec35be8	0.38156056
97	0x3df0e94c	0.11763248
98	0xbb3260a3	-0.0027218245
99	0xbeb05708	-0.344414
100	0xbe9ba51c	-0.30399406
101	0xbf114d51	-0.567586
102	0xbea22b88	-0.31673837
103	0x3e1aab58	0.15104425
104	0x3e208f81	0.15679742
105	0x3d6a435c	0.057193145
106	0x3db09c81	0.08623601
107	0x3e7f8f16	0.24956927
108	0xbd1e19a1	-0.03859866
109	0x3db10ab9	0.08644623
110	0x3e39250a	0.18080536
111	0x3e908f39	0.2823427
112	0x3e873bc2	0.2641278
113	0x3e1bdd4f	0.15221141
114	0xbe38d7fc	-0.18051142
115	0xbe7ead43	-0.24870782
116	0xbcb5d846	-0.022197854
117	0xbcd912ef	-0.026498286
118	0xbe6d645b	-0.23182814
119	0xbeb1fb18	-0.34761882
120	0x3cc05b6a	0.02348109
121	0xbd93cb6a	-0.072165325
122	0xbdf889ad	-0.121356346
123	0xbdbb4ffa	-0.09146114
124	0x3e596c7b	0.21232788
125	0x3cdc4084	0.026886232
126	0xbec1ef0c	-0.3787769
127	0xbe2f7e0e	-0.1713793
128	0xbd735f46	-0.05941703
129	0xbe0049f4	-0.12528211
130	0x3e6b988e	0.23007414
131	0xbe072e9a	-0.13201371
132	0x3eceb98a	0.4037593
133	0x3e6ee6bf	0.2333021
134	0xbe1b3916	-0.15158495
135	0xbea6f5a6	-0.3260929
136	0xbed6e037	-0.41967937
137	0x3f1e1e8a	0.6176535
138	0x3dbc7375	0.09201709
139	0x3dfd6890	0.12373459
140	0x3e4a9851	0.19784667
141	0x3b60cabd	0.003430053
142	0xbee09934	-0.43866885
143	0xbf209393	-0.6272518
144	0xbe0aa98d	-0.13541241
145	0xbd3f7395	-0.046741087
146	0x3e94b735	0.29046026
147	0xbe64d7b7	-0.22347914
148	0x3ee44cbd	0.44589797
149	0xbe80765c	-0.250903
150	0x3b3065a7	0.0026916058
151	0x3e8192ab	0.2530721
152	0x3d294688	0.04132703
153	0x3d7979f6	0.060907327
154	0x3db1e412	0.08686079
155	0xbeaddec7	-0.33959028
156	0x3eda7c00	0.4267273
157	0xbe4a56cf	-0.19759677
158	0xbd8fddbb	-0.070247136
159	0x3e509185	0.20368011
160	0x3e3dce16	0.18535647
161	0x3e6cb866	0.23117217
162	0x3c96975c	0.01838272
163	0x3ded2e26	0.11581068
164	0xbe20af61	-0.15691902
165	0x3eabf8c6	0.33588237
166	0x3e8f27ea	0.2796014
167	0x3e2a120d	0.16608448
168	0x3e58aede	0.21160457
169	0x3d19eecf	0.03758126
170	0x3e7ebf68	0.24877703
171	0x3e763af8	0.24045932
172	0xbecc9e3e	-0.3996448
173	0xbea1af4b	-0.3157905
174	0x3df6d541	0.12052394
175	0xbefe9978	-0.49726462
176	0x3df3cfd0	0.119048715
177	0xbce6d5ed	-0.02817818
178	0x3e33fc7c	0.17576784
179	0x3dff7a68	0.12474519
180	0x3e706b92	0.23478535
181	0x3bd85723	0.0066021844
182	0xbe936980	-0.28791428
183	0x3e0d0055	0.13769658
184	0x3e23beb4	0.15990716
185	0xbe415a67	-0.18882142
186	0xbdebc277	-0.115117006
187	0xbe78f751	-0.24313094
188	0xbe4abc10	-0.19798303
189	0x3c010e50	0.0078769475
190	0x3db6135b	0.088904105
191	0xbe0257e5	-0.12728842
192	0x3dc8ace3	0.097986005
193	0xbecd1aaa	-0.40059406
194	0x3e2eb268	0.17060244
195	0x3e4bd038	0.19903648
196	0xbe5eaced	-0.21745653
197	0x3e8484eb	0.25882658
198	0x3e3f7a3f	0.18698977
199	0x3de221bc	0.110415906
200	0xbdd36966	-0.103228375
201	0xbd92003b	-0.0712895
202	0x3dc4d842	0.096115604
203	0xbeb53984	-0.35395443
204	0xbcfe866c	-0.031069957
205	0xbbf0b1a1	-0.0073453938
206	0xbd0bbfd4	-0.03411849
207	0x3e29325f	0.16523121
208	0xbee11fcc	-0.43969572
209	0x3e1c7d8c	0.15282267
210	0xbe740b90	-0.23832536
211	0x3d70ec1d	0.058818925
212	0xbe0aad40	-0.13542652
213	0x3d8562b0	0.06512964
214	0x3e179a77	0.14805017
215	0x3e0eaa11	0.13932063
216	0xbdacd61f	-0.08439278
217	0xbdf4bec0	-0.11950445
218	0xbe0d1b3f	-0.13779925
219	0xbe944092	-0.28955513
220	0x3d2c1cd1	0.04201967
221	0xbc92dc3d	-0.017927283
222	0xbd151131	-0.036393348
223	0x3e57bd98	0.21068418
224	0xbdbb0fc3	-0.09133866
225	0xbda1acd0	-0.078942895
226	0x3dd96b3a	0.10616155
227	0x3e2cf558	0.16890466
228	0xbe946369	-0.28982094
229	0xbdc9d196	-0.098544285
230	0xbe96e5c0	-0.2947216
231	0xbead2390	-0.33816195
232	0xbd40462f	-0.046941932
233	0x3caf261e	0.02138048
234	0x3e11d15f	0.14240025
235	0x3c27c5a6	0.010239994
236	0x39bed947	0.00036401508
237	0xbd8aed61	-0.06783558
238	0xbd9e1b44	-0.07720044
239	0xbd83474d	-0.06410084
240	0x3d93ad6e	0.072108135
241	0x3e3c4cca	0.18388668
242	0x3e2dadc4	0.16960818
243	0x3ead501a	0.33850175
244	0xbdf42215	-0.11920563
245	0xbcd71f27	-0.026259972
246	0x3d23d8aa	0.04000155
247	0x3e62be86	0.22142991
248	0xbebde47f	-0.3708839
249	0x3f2e8c6f	0.68183035
250	0x3e0de4f4	0.1385687
251	0x3e8bc421	0.27298072
252	0x3e83f708	0.25774407
253	0x3eb83f9b	0.35986027
254	0xbeeb579a	-0.45965272
255	0xbeb3f919	-0.35150984

encoder_variable_selection.flattened_grn.fc1.bias f4 [7]
0	0xbd6d07b8	-0.05786869
1	0xbcda81d2	-0.026673231
2	0x3d936e7a	0.07198806
3	0xbdac8d9d	-0.08425448
4	0xbcf82d3e	-0.03029501
5	0xbd4f5957	-0.05062231
6	0x3b91dddd	0.004451497

encoder_variable_selection.flattened_grn.context.weight f4 [7, 16]
0	0x3e37a0b9	0.17932405
1	0x3ec662bb	0.387472
2	0xbe365ef8	-0.17809665
3	0xbead9b66	-0.33907622
4	0xbd61ea61	-0.05515516
5	0xbe99ee6e	-0.3006472
6	0xbd57ac71	-0.052654687
7	0xbdeab656	-0.11460559
8	0x3f5e3bbb	0.8680989
9	0xbec96fef	-0.3934321
10	0xbe83864f	-0.25688407
11	0xbe9fdfdd	-0.31225482
12	0x3eb79efb	0.3586348
13	0xbe3e25bd	-0.18569084
14	0x3f14ef6c	0.5817783
15	0x3eea4720	0.4575739
16	0xbe3cae95	-0.18425973
17	0x3cbbf3d0	0.022943407
18	0xbe4c8032	-0.19970778
19	0x3ed2039a	0.41018373
20	0xbc38c47a	-0.011277312
21	0xbf08ebff	-0.534851
22	0xbeefc5e3	-0.46830663
23	0xbe165e7a	-0.14684477
24	0x3e9fe715	0.3123099
25	0xbdee5fb5	-0.116393484
26	0xbe02c39d	-0.12769933
27	0xbe95f478	-0.29288077
28	0xbe9fdea5	-0.31224552
29	0xbebae825	-0.36505237
30	0x3e8c4ced	0.2740244
31	0xbe605069	-0.21905674
32	0xbf1c2762	-0.60997593
33	0xbde44a2a	-0.11146958
34	0xbea5723a	-0.3231371
35	0xbf04e371	-0.5190955
36	0xbe9a97fa	-0.30194074
37	0xbe0f0d35	-0.13969882
38	0xbea01059	-0.31262472
39	0xbe83cd57	-0.257426
40	0xbc1ca919	-0.0095618
41	0x3aeed5e0	0.0018221699
42	0xbe40b63a	-0.18819514
43	0xbf18d06d	-0.5969303
44	0x3d2da735	0.04239579
45	0xbe7b5444	-0.24543864
46	0x3ea2e085	0.3181192
47	0xbedea2e3	-0.43483648
48	0xbeddfe6f	-0.4335818
49	0xbd8a6f34	-0.067594916
50	0xbef095ff	-0.46989438
51	0x3e86eaa0	0.2635088
52	0xbe749e29	-0.23888458
53	0xbd5f2006	-0.0544739
54	0x3e9efee9	0.31053856
55	0x3d999085	0.07498268
56	0x3ee966a7	0.4558613
57	0xbf10c908	-0.5655675
58	0x3e7067ac	0.23477048
59	0x3e5f6a04	0.21817786
60	0xbe5e6b8b	-0.21720712
61	0xbda5d25b	-0.08096763
62	0x3ca836ee	0.020534005
63	0xbf0c07e3	-0.54699534
64	0x3e4dc0b3	0.2009304
65	0x3dbf516e	0.09341703
66	0xbe886619	-0.26640394
67	0x3e4bd7d1	0.19906546
68	0xbe121731	-0.1426666
69	0xbe18b9b4	-0.1491459
70	0x3e4e16e7	0.20125924
71	0xbe3c8ebd	-0.18413825
72	0xbe69b7c6	-0.2282401
73	0xbe9fec31	-0.31234887
74	0xbe824713	-0.2544485
75	0x3ea405cb	0.3203567
76	0xbda678da	-0.08128519
77	0x3e2056fe	0.15658185
78	0xbe48989a	-0.19589463
79	0xbe318050	-0.17334104
80	0x3ef69b00	0.4816513
81	0x3ea063e5	0.31326213
82	0x3c87b74f	0.0165669
83	0x3e19e3a1	0.1502824
84	0xbdb6bd91	-0.08922876
85	0xbea4e303	-0.32204446
86	0xbdef4fc5	-0.11685137
87	0x3eb63128	0.35584378
88	0xbe6bf99d	-0.23044439
89	0x3e24f0be	0.16107461
90	0xbee6eb8f	-0.45101592
91	0x3f29c423	0.66314906
92	0xbc3874d6	-0.011258325
93	0x3ee63754	0.44964087
94	0x3ec2f9da	0.38081247
95	0xbe9f009d	-0.31055155
96	0xbf073f55	-0.5283101
97	0x3e9e16d0	0.3087678
98	0xbde3ef3c	-0.11129615
99	0x3eb82f21	0.35973457
100	0xbeb48cd1	-0.35263684
101	0x3e23f764	0.16012341
102	0xbee73115	-0.45154634
103	0xbd8e65af	-0.06952988
104	0x3ec38367	0.3818619
105	0xbe05161d	-0.12996717
106	0x3e0bf7ae	0.13668701
107	0x3e9169a9	0.28400925
108	0x3df3441b	0.118782245
109	0x3cd017aa	0.025401909
110	0x3e5d06b7	0.21584593
111	0xbd29618a	-0.041352786

encoder_variable_selection.flattened_grn.fc2.weight f4 [7, 7]
0	0xbe081f4b	-0.13293187
1	0x3f610e20	0.8791218
2	0x3f018542	0.5059396
3	0x3e5216ce	0.20516512
4	0x3f6a3e31	0.91501147
5	0xbe345c5e	-0.1761336
6	0xbe7e96ca	-0.24862209
7	0x3ea9a3ef	0.33132884
8	0x3db6843b	0.0891194
9	0x3e74a317	0.23890339
10	0xbc84b1d2	-0.016198073
11	0xbfa980f0	-1.3242474
12	0x3eeb6106	0.4597246
13	0xbec24a06	-0.379471
14	0x3f1afcb7	0.6054186
15	0xbed1a695	-0.40947405
16	0x3f2cb9f9	0.6747127
17	0x3ea3c274	0.31984293
18	0xbf0d941e	-0.55304134
19	0x3ea5267f	0.32255933
20	0x3e15e29b	0.14637224
21	0xbc572936	-0.013132384
22	0xbef32499	-0.4748886
23	0xbf261cfd	-0.6488798
24	0xbc66b007	-0.014080054
25	0xbe9ff967	-0.31244966
26	0x3de0e1cb	0.109805666
27	0xbe8c2d6f	-0.27378413
28	0x3edf32f0	0.4359355
29	0xbeacd40b	-0.33755526
30	0xbecf1d87	-0.40452215
31	0x3ed664f2	0.4187389
32	0xbf08faf5	-0.5350793
33	0x3f141980	0.5785141
34	0x3f9b0624	1.2111249
35	0xbf2c4ad3	-0.6730167
36	0x3ef5a6ff	0.4797897
37	0xbed22d3d	-0.4105014
38	0xbea18bfd	-0.31552115
39	0xbf1a32f1	-0.6023398
40	0x3f46a3db	0.77593774
41	0x3f0fa574	0.56111836
42	0x3e10881a	0.14114419
43	0x3e46f4b4	0.19429284
44	0x3d9dda93	0.07707705
45	0x3e667cd1	0.22508551
46	0xbe0a92f1	-0.13532616
47	0x3cb3ca44	0.021947034
48	0x3c2094d6	0.00980111

encoder_variable_selection.flattened_grn.fc2.bias f4 [7]
0	0x3b9263d9	0.004467469
1	0xbd783157	-0.06059393
2	0x3d515329	0.0511047
3	0xbe263b81	-0.16233636
4	0x3d9a2183	0.07525923
5	0xbdc3a35c	-0.09552643
6	0xbe152483	-0.1456471

encoder_variable_selection.flattened_grn.gate_norm.glu.fc.weight f4 [14, 7]
0	0x3dbcda10	0.092212796
1	0x3d88dcc6	0.06682734
2	0xbd20054c	-0.03906755
3	0xbd940d3b	-0.07229086
4	0xbd0573b7	-0.032581057
5	0xbee82a9d	-0.4534501
6	0x3eaf40cc	0.34229124
7	0xbe87bdc0	-0.26511955
8	0x3e1ce5ed	0.15322085
9	0xbe0e29cd	-0.13883133
10	0x3d4a166f	0.0493378
11	0xbe817d40	-0.2529087
12	0xbe46e3c6	-0.19422826
13	0x3ea93964	0.33051598
14	0x3e6cf4eb	0.23140304
15	0xbcd782d7	-0.026307506
16	0x3e53bf52	0.20678452
17	0xbd89ebbe	-0.067344174
18	0x3e258b2b	0.1616637
19	0xbbf9c866	-0.0076227663
20	0x3f108442	0.5645181
21	0xbf3014e1	-0.6878186
22	0x3f4c6b5c	0.7985132
23	0x3f216586	0.6304554
24	0x3f046ec9	0.51731545
25	0x3ed49904	0.41522992
26	0x3d866f61	0.065642126
27	0x3ed5d873	0.417667
28	0xbe6cb5a2	-0.23116162
29	0xbed29bef	-0.41134593
30	0x3ded381c	0.11582968
31	0x3f00f49e	0.50373256
32	0x3e52abe3	0.20573382
33	0xbedd3dd9	-0.4321125
34	0xbe88a0d3	-0.266852
35	0xbe51c396	-0.20484766
36	0xbdf5923c	-0.119907826
37	0xbca7f064	-0.02050037
38	0x3f118fe2	0.5686017
39	0x3f0faf2f	0.56126684
40	0xbe1f4cf6	-0.15556702
41	0xbe93398c	-0.28754842
42	0x3eba1e12	0.36351067
43	0xbe8dd7a9	-0.27703598
44	0x3da41461	0.080116995
45	0xbe855b89	-0.26046398
46	0xbd778a68	-0.06043473
47	0xbe929557	-0.28629562
48	0x3e1acda7	0.15117513
49	0x3e44d52f	0.19221948
50	0xbec6e437	-0.3884599
51	0x3eff7a54	0.49898016
52	0x3e955567	0.2916672
53	0x3eb75c48	0.35812593
54	0xbf32601a	-0.6967789
55	0xbe8ce8fc	-0.27521503
56	0xbf046860	-0.51721764
57	0xbe5790d7	-0.21051346
58	0xbe05c1a9	-0.13062157
59	0x3e545b2c	0.20737904
60	0x3eaa45a1	0.33256248
61	0x3eb87c94	0.36032546
62	0xbc67b595	-0.014142414
63	0x3d8a0ffb	0.06741329
64	0x3e89dc39	0.2692583
65	0xbf164277	-0.5869517
66	0xbe5a4c23	-0.21318106
67	0x3ec39d19	0.38205793
68	0x3e1acdf0	0.15117621
69	0xbee30408	-0.44339013
70	0x3f284442	0.65729153
71	0xbef026fc	-0.46904743
72	0x3dc38704	0.095472366
73	0xbe3b2e66	-0.18279418
74	0xbcae6a40	-0.021290898
75	0xbf019e6e	-0.5063237
76	0xbda0b635	-0.07847253
77	0x3ea48b13	0.32137355
78	0x3da28abb	0.07936617
79	0xbee22fe6	-0.4417717
80	0xbec04898	-0.37555385
81	0x3eae5edc	0.34056747
82	0x3f2531fb	0.6452939
83	0x3e946c81	0.28989032
84	0x3ee083b8	0.43850493
85	0x3e8c9fb0	0.27465582
86	0xbdcd3a7c	-0.10020921
87	0xbf1f3e24	-0.62204194
88	0xbe413bc3	-0.18870454
89	0xbd82a998	-0.06380004
90	0xbe356080	-0.17712593
91	0x3e86d1cc	0.26331937
92	0xbd6eaa39	-0.058267806
93	0xbe86e20b	-0.26344332
94	0xbeb3c2e0	-0.35109615
95	0xbe57af10	-0.21062875
96	0xbef437fc	-0.47698963
97	0xbeaa8a53	-0.33308658

encoder_variable_selection.flattened_grn.gate_norm.glu.fc.bias f4 [14]
0	0xbdbb8d56	-0.09157817
1	0xbe9c0e56	-0.30479687
2	0x3d98496b	0.07435878
3	0xbeb0b992	-0.3451658
4	0xbe27ec6d	-0.16398783
5	0xbe6a5eed	-0.22887774
6	0x3e907db2	0.28220898
7	0xbec3e176	-0.3825795
8	0xbeeaf6a8	-0.4589131
9	0xbd90da0f	-0.070728414
10	0x3e77ee62	0.2421203
11	0x3dabf1e2	0.08395745
12	0x3ed98ad9	0.42488745
13	0x3e59eadd	0.21281

encoder_variable_selection.flattened_grn.gate_norm.add_norm.norm.weight f4 [7]
0	0x3f3c14c2	0.73469174
1	0x3f1c56c6	0.61069906
2	0x3f59a5ed	0.8501881
3	0x3f88b577	1.0680379
4	0x3f5dca56	0.86636865
5	0x3f91fce1	1.1405298
6	0x3f5ca693	0.8619167

encoder_variable_selection.flattened_grn.gate_norm.add_norm.norm.bias f4 [7]
0	0x3d99d730	0.07511747
1	0x3d38c01c	0.045105085
2	0xbb88c041	-0.004173309
3	0xbe4824c5	-0.19545276
4	0xbe00e3f0	-0.12586951
5	0xbdf017bb	-0.11723276
6	0x3d3c7386	0.04600861

encoder_variable_selection.single_variable_grns.SinWeekly.resample_norm.mask f4 [16]
0	0xbe2cba0c	-0.16867846
1	0x3f0d3463	0.5515806
2	0x3c40b1b0	0.011761114
3	0xbe334565	-0.1750694
4	0xbe049186	-0.12946138
5	0x3e1a70ce	0.15082094
6	0x3c9fd4b5	0.019510606
7	0x3b793464	0.0038025612
8	0xbd1dc385	-0.03851654
9	0x3c5bfbc9	0.0134267295
10	0xbebc944b	-0.3683189
11	0xbe60b06e	-0.21942303
12	0x3e4d9ad4	0.20078593
13	0xbea539c8	-0.32270646
14	0x3f1fab48	0.6237073
15	0xbe55dc0e	-0.20884725

encoder_variable_selection.single_variable_grns.SinWeekly.resample_norm.norm.weight f4 [16]
0	0x3f51b199	0.8191162
1	0x3fcbf740	1.593483
2	0x3f7e653e	0.99373233
3	0x3f584a16	0.84488046
4	0x3f6a1861	0.9144345
5	0x3f8891b4	1.0669465
6	0x3f77eae3	0.96842784
7	0x3f7f5c92	0.99750626
8	0x3f78e01f	0.9721698
9	0x3f83e046	1.0302818
10	0x3ee80ece	0.45323795
11	0x3f427460	0.75958824
12	0x3f98aafb	1.1927179
13	0x3f4a67d4	0.7906468
14	0x3fd118d8	1.6335707
15	0x3f51f896	0.8201994

encoder_variable_selection.single_variable_grns.SinWeekly.resample_norm.norm.bias f4 [16]
0	0xbe052fe6	-0.13006553
1	0xbe286f71	-0.16448762
2	0xbb635fca	-0.0034694546
3	0x3d94bec9	0.07262952
4	0x3dcaf022	0.09909083
5	0x3d6490bf	0.055802103
6	0x3dc21310	0.09476292
7	0x3d4efd7c	0.05053471
8	0xbd070806	-0.032966636
9	0xbd82335b	-0.063574515
10	0x3d717055	0.05894502
11	0xbd3336d0	-0.043753445
12	0x3b76c3ba	0.0037653283
13	0x3cb27065	0.02178211
14	0xbdc41752	-0.095747605
15	0xbd49a2a6	-0.04922738

encoder_variable_selection.single_variable_grns.SinWeekly.fc1.weight f4 [8, 8]
0	0x3f163c91	0.58686167
1	0x3e42f443	0.19038491
2	0xbd85a627	-0.06525832
3	0x3babc919	0.0052424786
4	0xbe2a47f2	-0.16629007
5	0x3ecbcbb6	0.39803857
6	0xbf0c316e	-0.54762924
7	0xbc98ec5e	-0.018667396
8	0xbd5dfc59	-0.054195736
9	0xbe83e7f5	-0.25762907
10	0x3f91a89d	1.1379582
11	0x3e9ffc8e	0.3124737
12	0xbce3ae0c	-0.027792953
13	0xbe9ce83e	-0.30645937
14	0x3eadf6fe	0.33977503
15	0xbe7c425c	-0.24634689
16	0xbe54e4a0	-0.20790339
17	0xbe9cc4d8	-0.3061893
18	0x3f9d295d	1.2278248
19	0xbf119f48	-0.5688367
20	0x3f2bb6e7	0.6707596
21	0xbf083042	-0.53198636
22	0xbe8def6b	-0.27721724
23	0xbf686f18	-0.90794516
24	0x3e76ee24	0.24114281
25	0x3ef5fc08	0.48043847
26	0xbe64c8a6	-0.22342166
27	0x3dba8eda	0.09109278
28	0xbe8a07e8	-0.26959157
29	0xbe89a3c0	-0.26882744
30	0xbf0b24f4	-0.5435326
31	0xbf84a87d	-1.0363919
32	0x3fb7dcbe	1.436424
33	0xbe919348	-0.2843268
34	0xbe8e7730	-0.27825308
35	0xbe93b0ee	-0.28845924
36	0xbf49fd84	-0.7890246
37	0xbc3007a7	-0.010744012
38	0xbf3de3dc	-0.7417581
39	0x3f31ceb5	0.69456035
40	0xbef70812	-0.48248345
41	0x3da31464	0.079628736
42	0x3f4c4e7d	0.79807264
43	0xbda2e61e	-0.079540476
44	0x3f2908d3	0.6602909
45	0xbfb2eebd	-1.3979107
46	0x3ed5fbda	0.4179371
47	0x3d9732d1	0.07382739
48	0xbe975f5c	-0.2956494
49	0x3f509d22	0.81489766
50	0xbe9a75c6	-0.3016798
51	0x3f0e92bb	0.5569264
52	0xbe685dc8	-0.22692025
53	0x3de8ff4f	0.11376821
54	0x3cf61b7c	0.030042402
55	0xbf1c56ca	-0.6106993
56	0x3eb180d0	0.3466859
57	0xbecb84d2	-0.3974977
58	0x3e4e2b51	0.20133711
59	0xbfb785b6	-1.433768
60	0xbcb74104	-0.022369869
61	0xbda986b6	-0.08277647
62	0x3f88dc6d	1.0692269
63	0x3f21aee2	0.63157475

encoder_variable_selection.single_variable_grns.SinWeekly.fc1.bias f4 [8]
0	0xbd53442a	-0.05157868
1	0xbce2bf3d	-0.02767908
2	0x3abba831	0.0014317093
3	0xbcdcf94c	-0.026974343
4	0xbd6aa2b2	-0.057284065
5	0x3a01c3c4	0.0004950131
6	0x3e18c9c0	0.14920712
7	0xbd45ce2e	-0.04829233
