TFT-pytorch-AgeGroups/results/AGE6574/checkpoints/latest-epoch=5.ckpt (torch, 735853 bytes, 506 tensors)

prescalers.AGE6574.weight f4 [8, 1]
0	0xbe991672	-0.29899937
1	0xbe9e9cf1	-0.30979112
2	0x3f057b48	0.5214124
3	0x3f0fba0a	0.5614325
4	0xbf307af0	-0.6893759
5	0xbef319d1	-0.47480634
6	0xbf1e603e	-0.61865604
7	0xbe5389d0	-0.2065804

prescalers.AGE6574.bias f4 [8]
0	0xbe6044da	-0.21901265
1	0x3e92605e	0.28589147
2	0x3f680d97	0.90645736
3	0x3ed7cd6c	0.42148912
4	0xbf186b0d	-0.59538347
5	0xbf34b6b3	-0.70591277
6	0xbf03a08a	-0.5141684
7	0xbe326442	-0.17421058

prescalers.SinWeekly.weight f4 [8, 1]
0	0x3c6549e2	0.013994666
1	0xbfb47505	-1.4098212
2	0x3f819c0c	1.0125747
3	0xbf6b0114	-0.9179852
4	0x3f06dbd5	0.5267919
5	0xbe83d950	-0.25751734
6	0x3f54ae8b	0.8307883
7	0x3eed66b8	0.4636743

prescalers.SinWeekly.bias f4 [8]
0	0x3e570e1c	0.21001476
1	0xbe0dd118	-0.13849294
2	0x3f52b342	0.82304776
3	0x3ef909a3	0.48640165
4	0x3f0571ba	0.5212666
5	0xbf2866b4	-0.6578171
6	0x3f51a550	0.8189287
7	0x3eeae045	0.4587423

prescalers.VaccinationFull.weight f4 [8, 1]
0	0x3e058857	0.13040291
1	0x3e145565	0.144857
2	0x3eff9ec4	0.49925816
3	0x3f6f9410	0.935853
4	0xbedb4403	-0.42825326
5	0xbebb535a	-0.3658703
6	0xbe97fba7	-0.29684183
7	0xbf40fb72	-0.75383675

prescalers.VaccinationFull.bias f4 [8]
0	0x3f1c2b3e	0.6100348
1	0xbe9f57e8	-0.31121755
2	0x3a893e2c	0.0010470799
3	0x3f9a4a8c	1.2054
4	0x3f52bf51	0.82323176
5	0xbbbaa099	-0.0056954143
6	0xbe83a96e	-0.25715202
7	0x3d4aff8c	0.049560115

prescalers.Cases.weight f4 [8, 1]
0	0x3ef30b2b	0.47469458
1	0xbf915a01	-1.1355592
2	0xbf6d8228	-0.9277673
3	0x3f51b872	0.81922066
4	0x3fc1d301	1.5142518
5	0x3d344436	0.044010364
6	0xbf2d9a3b	-0.6781346
7	0x3ed41081	0.4141884

prescalers.Cases.bias f4 [8]
0	0xbf4d120c	-0.8010566
1	0xbdcb8b83	-0.09938719
2	0x3f18ed0e	0.59736717
3	0x3efa6522	0.48905283
4	0x3d331751	0.043723408
5	0xbd107a39	-0.03527281
6	0x3e84908a	0.25891525
7	0xbf821edf	-1.0165671

static_variable_selection.single_variable_grns.AGE6574.resample_norm.mask f4 [16]
0	0xbdd775b7	-0.10520499
1	0xbf24bb54	-0.6434834
2	0xbeee3d9a	-0.46531373
3	0x3d3ff873	0.0468678
4	0x3e5a661f	0.21328019
5	0x3d19c117	0.03753766
6	0x3f9bfbdb	1.2186235
7	0xbec9bd75	-0.39402357
8	0x3ee067b5	0.43829122
9	0x3e9b642d	0.30349866
10	0x3e67367a	0.22579375
11	0x3e1a53d6	0.15071043
12	0x3e24f761	0.16109993
13	0x3d8487e8	0.064712346
14	0xbdad4cc4	-0.084619075
15	0xbf26440f	-0.649476

static_variable_selection.single_variable_grns.AGE6574.resample_norm.norm.weight f4 [16]
0	0x3f20610b	0.62648076
1	0x3f131036	0.5744661
2	0x3f8f7f3a	1.1210701
3	0x3fb33937	1.4001836
4	0x3fac49ff	1.3460082
5	0x3f8fdac7	1.123864
6	0x3ffa2a55	1.9544169
7	0x3f88691d	1.0657078
8	0x3fb3f6e4	1.405972
9	0x3fcc661e	1.5968664
10	0x3f9fc318	1.2481413
11	0x3fac1c98	1.3446226
12	0x3f5386df	0.8262767
13	0x3fa16126	1.2607772
14	0x3ed7bed3	0.42137775
15	0x3f409666	0.7522949

static_variable_selection.single_variable_grns.AGE6574.resample_norm.norm.bias f4 [16]
0	0x3dff6d5e	0.12472032
1	0xbd895f0e	-0.06707583
2	0x3d456915	0.048195917
3	0x3ea4ef85	0.3221399
4	0x3e3f0fe9	0.18658413
5	0x3dd2a042	0.10284473
6	0x3c394e6f	0.011310204
7	0x3e29bf2b	0.16576831
8	0xbdff1d40	-0.12456751
9	0xbe3258fb	-0.17416756
10	0x3c9f5b2d	0.019452656
11	0xbe850e9a	-0.25987703
12	0xbc994b61	-0.018712701
13	0xbe0a71db	-0.13519995
14	0xbda5850a	-0.08082016
15	0x3e11e936	0.14249119

static_variable_selection.single_variable_grns.AGE6574.fc1.weight f4 [8, 8]
0	0x3d8af659	0.06785268
1	0xbf2e8a10	-0.68179417
2	0xbe0d216a	-0.13782278
3	0x3ec2d93b	0.3805636
4	0xbfb2f9b2	-1.3982451
5	0xbfced1f6	-1.6157825
6	0xbf1ba2ef	-0.6079549
7	0xbe6d9bc6	-0.23203954
8	0xbf61fe7c	-0.8827894
9	0xbf5aacc0	-0.85419846
10	0x3e55e52a	0.208882
11	0x3fa5b9c0	1.2947311
12	0xbf8c05fd	-1.0939327
13	0xbf2ab630	-0.66684246
14	0x3d6c97ac	0.057761833
15	0xbe31534a	-0.17316929
16	0x3e92f59d	0.28703013
17	0x3c5771b6	0.013149669
18	0x3f47d7d7	0.7806372
19	0x3ec4d73e	0.38445467
20	0xbf23a499	-0.6392303
21	0xbe512f19	-0.20428123
22	0xbe9ec7f2	-0.3101192
23	0xbd163d19	-0.03667936
24	0xbf7fec7d	-0.9997023
25	0xbdb7cbee	-0.089744434
26	0x3d33d17b	0.043900948
27	0xbeac0124	-0.3359462
28	0xbe19a387	-0.15003787
29	0x3d626fcf	0.05528241
30	0xbdd65e35	-0.10467187
31	0xbe0c5e9e	-0.13707969
32	0xbed4ace0	-0.41538143
33	0x3f19b3bc	0.6003988
34	0xbeb54938	-0.35407424
35	0xbf0b0629	-0.54306275
36	0x3e856a52	0.26057678
37	0x3f731443	0.9495279
38	0x3f37a76a	0.7173983
39	0xbea50a20	-0.32234287
40	0x3d38fdf2	0.045164056
41	0xbda22d32	-0.079187766
42	0xbed1b844	-0.40960896
43	0xbdd0a75a	-0.1018817
44	0x3f4ca646	0.79941213
45	0xbebf01e8	-0.37306142
46	0x3e7ae82a	0.24502626
47	0xbeea4d75	-0.4576222
48	0xbe78030d	-0.24219914
49	0xbee05c58	-0.43820453
50	0xbe2b18cf	-0.16708682
51	0xbdab0ee9	-0.08352453
52	0x3f45554a	0.77083266
53	0x3f8b0ea7	1.0863847
54	0x3f374910	0.7159586
55	0xbe91321b	-0.2835854
56	0xbf33f137	-0.7028994
57	0xbeff335a	-0.49843866
58	0x3d3e6631	0.046484176
59	0x3f49acbf	0.78779215
60	0xbeb74096	-0.35791463
61	0xbf099b52	-0.53752625
62	0x3db92bd2	0.09041561
63	0x3ce97284	0.028496988

static_variable_selection.single_variable_grns.AGE6574.fc1.bias f4 [8]
0	0x3c80b62f	0.015711872
1	0x3e54a4da	0.20766011
2	0xbd93cb7c	-0.07216546
3	0xbce18ffc	-0.027534477
4	0xbc392896	-0.01130118
5	0xbde53aae	-0.11192833
6	0x3e7e8fd8	0.2485956
7	0x3e0ff402	0.14057925

static_variable_selection.single_variable_grns.AGE6574.fc2.weight f4 [8, 8]
0	0x3ed16e15	0.40904298
1	0x3f42316b	0.75856656
2	0x3ec07485	0.37588897
3	0xbdc2269a	-0.09480019
4	0x3e422f5c	0.18963379
5	0xbe43302b	-0.19061343
6	0x3f1066a8	0.5640664
7	0x3f421446	0.75812185
8	0xbf5896b9	-0.84604985
9	0xbf0c1692	-0.5472194
10	0xbe19306d	-0.14959879
11	0xbe5bcb6a	-0.21464315
12	0x3f1aa7f9	0.60412556
13	0x3e17f0d0	0.14837956
14	0x3f232897	0.6373381
15	0xbe293617	-0.1652454
16	0x3e7d91e3	0.24762683
17	0x3f0a68c2	0.540661
18	0x3df614dc	0.12015697
19	0x3dcaf870	0.09910667
20	0x3de36ae3	0.111043714
21	0xbe9145c6	-0.28373545
22	0xbe922349	-0.28542545
23	0x3f22bf8e	0.6357354
24	0x3f8f53c2	1.1197436
25	0xbde886c8	-0.113538325
26	0x3f372203	0.7153627
27	0xbcc7b921	-0.024380269
28	0xbdbf505e	-0.09341501
29	0xbc061161	-0.008182854
30	0x3f10ae84	0.5651629
31	0xbeeeda58	-0.46650958
32	0xbec298dd	-0.3800725
33	0xbf399672	-0.72495186
34	0xbe371020	-0.17877245
35	0x3ccf4f9c	0.025306515
36	0x3f4e003d	0.80469114
37	0x3ecae1fd	0.3962554
38	0x3f18640d	0.59527665
39	0xbec49661	-0.3839598
40	0x3e07bc34	0.13255388
41	0xbe7d9032	-0.24762037
42	0xbefed7df	-0.49774072
43	0xbdf3a9ae	-0.11897598
44	0x3e6469eb	0.2230603
45	0xbd88f5d0	-0.0668751
46	0xbedf1418	-0.43570018
47	0x3e0beb01	0.13663866
48	0xbf58f50f	-0.8474893
49	0xbdf07f25	-0.11743001
50	0xbd70812f	-0.05871695
51	0xbcc79221	-0.024361672
52	0x3ee6ed73	0.45103034
53	0x3e5e1ed7	0.21691452
54	0xbea3ba0a	-0.31977874
55	0xbece0210	-0.4023595
56	0xbdb924bc	-0.0904021
57	0x3eb82914	0.3596884
58	0xbf202191	-0.6255122
59	0xbe06e0ee	-0.13171741
60	0x3d23c308	0.03998092
61	0x3df60c19	0.12014026
62	0x3e9fcbc3	0.31210145
63	0xbef3bfe3	-0.47607335

static_variable_selection.single_variable_grns.AGE6574.fc2.bias f4 [8]
0	0x3e0bc3ac	0.13648862
1	0xbd3d663f	-0.046240088
2	0xbcea5e32	-0.028609369
3	0x3e7d2ebe	0.24724862
4	0xbd49527f	-0.04915094
5	0xbe3b6302	-0.18299487
6	0x3cff381f	0.03115469
7	0xbe9649b9	-0.2935312

static_variable_selection.single_variable_grns.AGE6574.gate_norm.glu.fc.weight f4 [32, 8]
0	0x3d202eb1	0.03910703
1	0x3f335f69	0.7006746
2	0xbe0f09c6	-0.13968572
3	0xbefa511b	-0.48890004
4	0x3f1d20d1	0.613782
5	0xbf09ab3e	-0.5377692
6	0xbe41952d	-0.18904562
7	0x3ec6c243	0.38820085
8	0x3ed0dce0	0.40793514
9	0xbe996c09	-0.29965237
10	0x3f34bb17	0.70597976
11	0x3f488202	0.78323376
12	0xbf4d1b4b	-0.8011977
13	0x3debb3be	0.115088925
14	0xbf20ad76	-0.6276468
15	0xbe11f6f1	-0.14254357
16	0x3dc11e5c	0.09429619
17	0x3d6a99bd	0.057275523
18	0xbc8f3fda	-0.017486501
19	0xbc458ef8	-0.012058012
20	0xbdaaa605	-0.08332447
21	0x3d2e0354	0.042483643
22	0xbe4f3e3f	-0.20238589
23	0xbecb310c	-0.39685857
24	0x3e0c5caa	0.13707224
25	0xbea38ded	-0.31944218
26	0xbdece2c1	-0.115666874
27	0xbd91ad6d	-0.071131565
28	0xbeba6d32	-0.36411434
29	0x3dfb7929	0.12278969
30	0xbedebbb7	-0.4350259
31	0xbe9e8a27	-0.30964777
32	0x3d3180fd	0.043335903
33	0xbf049dd9	-0.51803356
34	0x3ea8f1cd	0.3299698
35	0xbe57e3b0	-0.2108295
36	0x3ee41959	0.4455059
37	0xbdc0a37d	-0.09406183
38	0xbebc2e74	-0.3675419
39	0x3d868730	0.06568754
40	0x3d8c85b4	0.06861439
41	0x3da7ccb3	0.0819334
42	0xbea9477c	-0.3306235
43	0x3c6b951b	0.014378811
44	0x3e175e30	0.14782023
45	0xbe643378	-0.22285259
46	0x3e9e2c18	0.30893016
47	0x3e6bfb9f	0.23045205
48	0xbc1e8a3d	-0.009676513
49	0xbf2eb8d2	-0.68250763
50	0x3ecf7784	0.4052087
51	0x3ebd8f56	0.3702342
52	0xbed83741	-0.42229655
53	0x3d5b8d8e	0.053601794
54	0xbe66fd72	-0.22557619
55	0xbd84d0b7	-0.06485122
56	0x3e8f7af4	0.28023493
57	0x3ec47024	0.38366807
58	0xbe53d9e8	-0.20688593
59	0x3e82f43c	0.2557696
60	0xbe29bcc9	-0.16575922
61	0xbe035b34	-0.1282776
62	0x3e457383	0.19282345
63	0x3e02d28d	0.12775631
64	0xbfa53527	-1.2906846
65	0x3f5e91f4	0.86941457
66	0xbf53e2a6	-0.82767713
67	0xbf4f150f	-0.8089151
68	0x3f2bdc3d	0.6713293
69	0x3ea48f39	0.3214052
70	0x3f8f70ea	1.1206334
71	0x3f086880	0.53284454
72	0x3eaa64b2	0.3327995
73	0xbedf74cb	-0.43643793
74	0x3e5f6eaa	0.21819559
75	0x3dd98cc2	0.106225505
76	0xbe7d74f3	-0.24751644
77	0xbe7abbef	-0.24485753
78	0xbe6bf0ca	-0.23041072
79	0xbe3d6f5d	-0.18499513
80	0x3ebf0f26	0.37316245
81	0xbf22f41b	-0.63653725
82	0x3f06441f	0.52447695
83	0x3e94e67f	0.29082105
84	0xbf80413f	-1.0019912
85	0xbe6523d6	-0.22376952
86	0xbebc191b	-0.36737904
87	0xbf218ace	-0.63102424
88	0x3cbda09e	0.023147877
89	0xbd90b969	-0.07066614
90	0x3ee20ea3	0.44151792
91	0x3dfb3123	0.122652315
92	0x3e5c8861	0.215364
93	0xbd99ecd2	-0.07515873
94	0xbe913cf0	-0.28366804
95	0x3e98f98d	0.29877892
96	0xbd349e12	-0.04409606
97	0x3eb1ffef	0.34765574
98	0x3e3cfe81	0.1845646
99	0x3da3f867	0.08006363
100	0x3e820233	0.25392303
101	0xbe6f3c50	-0.23362851
102	0x3ef1fe02	0.47264105
103	0x3eebcae3	0.46053228
104	0x3dd2042e	0.102547035
105	0x3ddcd4bc	0.10782763
106	0x3e43beae	0.19115707
107	0x3c7a16ea	0.015264252
108	0x3dfa2843	0.122147106
109	0xbeed1d62	-0.4631148
110	0x3defcf05	0.11709408
111	0x3e81487f	0.25250623
112	0xbe08e5c4	-0.13368899
113	0x3ec29a2e	0.38008255
114	0x3cce48fe	0.02518129
115	0xbe569dd2	-0.20958641
116	0xbe80b776	-0.2513997
117	0x3e6362fc	0.22205728
118	0xbd013a90	-0.03154999
119	0x3cc45c63	0.023969835
120	0xbddf8e41	-0.10915805
121	0x3ecca8bd	0.39972487
122	0xbe8a5a59	-0.27022055
123	0x3d1023de	0.035190456
124	0x3ddd570e	0.1080762
125	0x3ef4201b	0.47680745
126	0xbc0969d0	-0.008387044
127	0xbed7a9fb	-0.42121872
128	0x3e2c24c6	0.16810903
129	0xbf475ba4	-0.7787421
130	0x3f316d03	0.69306964
131	0x3f476b5e	0.77898204
132	0xbdf643e5	-0.120246686
133	0x3d18a2a2	0.037264474
134	0xbfab428a	-1.3379681
135	0x3d99f8a6	0.07518129
136	0x3f1f6540	0.6226387
137	0xbf815c40	-1.0106277
138	0xbde1ac85	-0.110192336
139	0x3ec96eef	0.39342448
140	0xbf24c487	-0.64362377
141	0xbe8247d0	-0.25445414
142	0xbf089929	-0.53358704
143	0xbe8a7184	-0.2703973
144	0xbd9c7ff5	-0.07641593
145	0xbe1c4fcd	-0.15264817
146	0xbeafe8ff	-0.3435745
147	0xbeb37664	-0.35051262
148	0xbe12f36e	-0.14350674
149	0x3f197aaa	0.59952796
150	0xbceb4b28	-0.02872236
151	0x3f8c3294	1.0952935
152	0xbf2c67c0	-0.6734581
153	0x3f055524	0.5208304
154	0xbf010f36	-0.50413835
155	0xbf183822	-0.5946065
156	0x3e3140b2	0.17309836
157	0x3ed8e896	0.4236495
158	0xbe076e1f	-0.13225602
159	0x3f5febed	0.8746937
160	0x3d3a8d98	0.04554519
161	0xbf48e84e	-0.7847947
162	0x3e0956c0	0.13411999
163	0xbf058d4f	-0.52168745
164	0x3d63eca7	0.05564561
165	0x3e32e8b5	0.17471583
166	0xbed15840	-0.40887642
167	0x3edbc78b	0.42925677
168	0x3d064413	0.032779764
169	0x3f3b2dd8	0.73116827
170	0xbe27d6f6	-0.16390595
171	0xbf29dff3	-0.66357344
172	0x3f86115e	1.047405
173	0xbcdfd693	-0.027323997
174	0x3d3313c2	0.043720014
175	0x3fb6cb66	1.4280822
176	0xbf0cb068	-0.54956675
177	0x3f01b733	0.50670165
178	0xbec133a3	-0.37734708
179	0xbeb9efec	-0.36315858
180	0x3ddf597b	0.10905739
181	0x3eaf21d9	0.3420551
182	0x3d2192b8	0.039446563
183	0x3e5a3987	0.21311007
184	0x3e9465f1	0.28984025
185	0x3f2269d1	0.63442713
186	0x3e45e2f6	0.1932486
187	0xbc10d6bc	-0.008840259
188	0xbdc9b2d4	-0.09848562
189	0xbc8066d6	-0.015674036
190	0xbd91ae48	-0.0711332
191	0x3e42a4ed	0.19008227
192	0x3f704a85	0.9386371
193	0xbf2efce9	-0.6835466
194	0x3f4de33a	0.80424845
195	0x3ee67f8a	0.4501918
196	0xbf3f9048	-0.7482953
197	0x3ea9c72d	0.33159772
198	0xbf8bf983	-1.093552
199	0x3ea8e043	0.32983598
200	0x3ecdc04c	0.40185773
201	0xbf16596a	-0.58730185
202	0x3f7259b5	0.9466813
203	0xbe1cb391	-0.15302874
204	0xbe1ffd87	-0.15624057
205	0xbe44ba5b	-0.19211714
206	0xbf34192d	-0.70350915
207	0x3f094f8d	0.5363701
208	0x3f28815c	0.65822387
209	0xbf7091d3	-0.9397251
210	0x3ee3f71a	0.4452446
211	0x3e9a3b2e	0.30123276
212	0xbecbaae2	-0.3977881
213	0xbe55e14b	-0.20886724
214	0xbee56837	-0.44806072
215	0xbe62d9c6	-0.22153386
216	0x3d82a81f	0.06379723
217	0xbbddf4b4	-0.0067735557
218	0x3e8af924	0.27143204
219	0xbe8134a0	-0.25235462
220	0xbe84685b	-0.25860867
221	0x3f21686d	0.63049966
222	0xbed22a8e	-0.41048092
223	0x3e29953a	0.16560832
224	0xbe9c3fc9	-0.30517414
225	0x3f1e5d25	0.6186088
226	0x3de3f0d6	0.1112992
227	0xbf87cbc0	-1.0609055
228	0x3e26df3b	0.16296093
229	0x3eb93774	0.3617512
230	0x3ea790e2	0.32727724
231	0x3f6be2f4	0.9214318
232	0x3ed9cdb8	0.42539763
233	0x3e1d057d	0.15334125
234	0xbeaae183	-0.33375177
235	0xbf6fb5d7	-0.9363684
236	0xbdd373ac	-0.10324797
237	0x3e727d44	0.23680598
238	0xbef1f514	-0.47257292
239	0x3f80068d	1.0001999
240	0x3ea5bd91	0.3237119
241	0x3de14187	0.109988265
242	0xbec0d2a6	-0.37660712
243	0xbe896e4d	-0.26841965
244	0xbeb4ff92	-0.35351235
245	0x3d960bce	0.0732647
246	0x3d454edd	0.048170913
247	0x3e3fd15f	0.18732212
248	0xbe1cffb7	-0.15331922
249	0xbebc8423	-0.36819562
250	0xbd6ef7be	-0.058341734
251	0xbecef576	-0.40421647
252	0xbf0367c9	-0.5133024
253	0x3d3c99b3	0.046045016
254	0xbe839701	-0.25701144
255	0x3f35a10c	0.70948863

static_variable_selection.single_variable_grns.AGE6574.gate_norm.glu.fc.bias f4 [32]
0	0xbdfbc396	-0.122931644
1	0xbc3e2837	-0.011606268
2	0xbd02678f	-0.031837042
3	0x3dc96bb6	0.09834997
4	0x3e4317ad	0.19052
5	0x3eb7f767	0.3593094
6	0xbc3e91e1	-0.01163146
7	0x3dc222fe	0.094793305
8	0xbe484f54	-0.19561511
9	0xbc8e00b5	-0.017334322
10	0x3e1e633e	0.15467545
11	0xbdec8d97	-0.115504436
12	0xbe1a7467	-0.15083466
13	0xbe2c77a6	-0.16842517
14	0xbab3095d	-0.0013659407
15	0x3de8bbac	0.113639206
16	0xbeea13ff	-0.4571838
17	0xbef9a0bb	-0.4875544
18	0xbfbe2f82	-1.4858248
19	0xbf37e856	-0.7183889
20	0xbf721d75	-0.945762
21	0xbeb9859d	-0.3623475
22	0xbebf3381	-0.37343982
23	0xbf4cb91f	-0.7996997
24	0xbf29703d	-0.6618689
25	0xbfab6ba4	-1.3392224
26	0xbf4cf359	-0.8005882
27	0xbf15fb20	-0.5858631
28	0xbf68f315	-0.90995914
29	0xbfc24bf1	-1.5179425
30	0xbf61ba60	-0.8817501
31	0xbf2a736d	-0.66582376

static_variable_selection.single_variable_grns.AGE6574.gate_norm.add_norm.norm.weight f4 [16]
0	0x3e9a30d4	0.30115378
1	0x3f8a2cef	1.0794963
2	0x3fbbeabc	1.468101
3	0x3fc6fa14	1.5545068
4	0x3faca04d	1.348642
5	0x3f34132a	0.7034174
6	0x3fd784d6	1.6837413
7	0x3f66d986	0.90175664
8	0x3f95987e	1.1687162
9	0x3fae872d	1.3635002
10	0x3fa73c7d	1.3065335
11	0x3fcc3b30	1.5955563
12	0x3f352345	0.7075694
13	0x3f85bad9	1.0447646
14	0x3c9e23a5	0.019304106
15	0x3d8b2f72	0.06796159

static_variable_selection.single_variable_grns.AGE6574.gate_norm.add_norm.norm.bias f4 [16]
0	0x3c94d596	0.018168252
1	0x3e868c39	0.26278856
2	0x3ef97eb8	0.4872949
3	0x3f192380	0.59819794
4	0x3ea2136b	0.3165544
5	0x3e03f90d	0.12887974
6	0xbbefbc53	-0.007316151
7	0xbc4c650b	-0.012475262
8	0xbe4125a7	-0.1886202
9	0xbe39d65a	-0.18148175
10	0xbdf32290	-0.11871827
11	0xbf1f4c55	-0.6222585
12	0xbd232656	-0.039831482
13	0xbc01a36a	-0.007912496
14	0xbe3d064e	-0.18459436
15	0x3d90e410	0.070747495

static_variable_selection.prescalers.AGE6574.weight f4 [8, 1]
0	0xbe991672	-0.29899937
1	0xbe9e9cf1	-0.30979112
2	0x3f057b48	0.5214124
3	0x3f0fba0a	0.5614325
4	0xbf307af0	-0.6893759
5	0xbef319d1	-0.47480634
6	0xbf1e603e	-0.61865604
7	0xbe5389d0	-0.2065804

static_variable_selection.prescalers.AGE6574.bias f4 [8]
0	0xbe6044da	-0.21901265
1	0x3e92605e	0.28589147
2	0x3f680d97	0.90645736
3	0x3ed7cd6c	0.42148912
4	0xbf186b0d	-0.59538347
5	0xbf34b6b3	-0.70591277
6	0xbf03a08a	-0.5141684
7	0xbe326442	-0.17421058

encoder_variable_selection.flattened_grn.resample_norm.mask f4 [3]
0	0xbf44ea05	-0.76919585
1	0xbcd6e6a0	-0.026233017
2	0x3ee19e68	0.44066167

encoder_variable_selection.flattened_grn.resample_norm.norm.weight f4 [3]
0	0x3f8bfbdf	1.093624
1	0x3fbb6d47	1.4642724
2	0x3ff069a5	1.878224

encoder_variable_selection.flattened_grn.resample_norm.norm.bias f4 [3]
0	0x3e9ed576	0.31022233
1	0xbdbb0534	-0.09131852
2	0xbea33220	-0.3187418

encoder_variable_selection.flattened_grn.fc1.weight f4 [3, 24]
0	0x3f46b053	0.776128
1	0xbead4739	-0.338434
2	0x3eba7c9f	0.36423203
3	0xbe15106e	-0.14557049
4	0x3e739148	0.23785889
5	0xbbb0e704	-0.005398633
6	0x3a9eb241	0.0012107567
7	0xbc3b33b4	-0.011425901
8	0xbf2b4bda	-0.66912615
9	0x3d2471b8	0.040147513
10	0xbe891138	-0.2677095
11	0xbfbaf883	-1.460709
12	0x3ea35d89	0.319073
13	0x3eccded3	0.4001375
14	0x3e8d5a66	0.2760803
15	0x3ef4c155	0.4780375
16	0x3f1ff4b2	0.6248275
17	0xbf5e44ea	-0.86823905
18	0x3e1cf06d	0.1532609
19	0x3de67982	0.112536445
20	0x3e86bb31	0.2631469
21	0x3e0735b3	0.13204078
22	0xbb6bcf4a	-0.0035981708
23	0x3e92496c	0.2857164
24	0xbd9e55a2	-0.07731177
25	0x3f3ad7e5	0.7298568
26	0xbfbb5faf	-1.4638575
27	0x3df2f679	0.11863417
28	0xbfaeeaa8	-1.3665361
29	0x3ebde457	0.37088272
30	0xbfc8ff60	-1.5702934
31	0xbf3f87f5	-0.7481683
32	0xbf03efca	-0.51537764
33	0x3e1bed77	0.15227304
34	0xbf5d7712	-0.8650981
35	0xbf4a6787	-0.7906422
36	0x3db9f833	0.09080543
37	0x3f091dc3	0.5356104
38	0x3ec09a05	0.37617508
39	0x3f239f9d	0.63915426
40	0xbe2daa0c	-0.16959399
41	0x3e3bcdb9	0.18340196
42	0xbe8dba65	-0.2768127
43	0xbf0ae7e9	-0.54260117
44	0xbe5a6ed3	-0.21331339
45	0x3eafc68a	0.3433116
46	0x3e1aeb37	0.1512879
47	0xbe11bb7b	-0.14231674
48	0x3de2ff53	0.110838555
49	0xbf2cb936	-0.6747011
50	0xbe1aab92	-0.15104511
51	0xbee52287	-0.44752905
52	0x3ea0bd45	0.313944
53	0x3f298adc	0.6622751
54	0xbe0cdebb	-0.1375684
55	0x3eaadaee	0.33370155
56	0xbf1087c6	-0.56457174
57	0x3f57ca4b	0.8429305
58	0x3eeb9f20	0.4601984
59	0x3e911153	0.2833353
60	0xbee8f24a	-0.45497352
61	0xbe9a9d89	-0.30198315
62	0x3e33095d	0.1748404
63	0xbda24df2	-0.07925023
64	0x3ea20b18	0.3164909
65	0x3e81150c	0.2521137
66	0xbe1f5cee	-0.15562794
67	0xbc2a8d52	-0.01040967
68	0xbde646df	-0.11243986
69	0xbdc51d98	-0.09624785
70	0xbf0a17e3	-0.539427
71	0x3e5e883f	0.21731661

encoder_variable_selection.flattened_grn.fc1.bias f4 [3]
0	0xbda489e7	-0.08034115
1	0xbe1c9ca9	-0.15294136
2	0xbed7c4de	-0.42142385

encoder_variable_selection.flattened_grn.context.weight f4 [3, 16]
0	0x3d02c09b	0.031921964
1	0xbe05c34a	-0.13062778
2	0xbbb4136b	-0.005495479
3	0x3d80fe77	0.06298535
4	0x3d4c3aaa	0.049860634
5	0xbe2f86df	-0.17141293
6	0x3cca80bc	0.024719588
7	0xbb168768	-0.0022968892
8	0x3dbed3bd	0.093177296
9	0xbdce974d	-0.10087452
10	0xbe842f65	-0.2581741
11	0xbd14d6a3	-0.036337506
12	0x3e1198d7	0.1421846
13	0x3db4b861	0.0882423
14	0xbe80246a	-0.25027782
15	0xbe2989aa	-0.16556421
16	0x3d51b08f	0.05119377
17	0xbeb74741	-0.3579655
18	0x3e4ff433	0.20307998
19	0xbe1e4d32	-0.15459135
20	0xbf6fc88e	-0.936654
21	0x3f8376e2	1.0270655
22	0x3e975499	0.2955673
23	0xbf3a59ff	-0.72793573
24	0xbd9675fd	-0.07346723
25	0x3dbca171	0.0921048
26	0xbef1bace	-0.47212833
27	0xbec3f3a6	-0.38271827
28	0xbed253ed	-0.41079655
29	0x3e841432	0.25796658
30	0xbeddd99b	-0.43330082
31	0x3dfa5beb	0.12224563
32	0x3f2e5d05	0.68110687
33	0x3c3b1f5a	0.011421049
34	0x3f493c1f	0.7860736
35	0xbd10d23c	-0.035356745
36	0xbee902f5	-0.4551007
37	0x3f4b8c8a	0.7951132
38	0xbdcdf731	-0.10056914
39	0xbe0e0a21	-0.13871051
40	0x3d410920	0.047127843
41	0x3db6c276	0.08923809
42	0xbe36a25b	-0.17835371
43	0x3d6d4817	0.05793008
44	0xbe26cc1e	-0.16288802
45	0xbcd531d4	-0.026024736
46	0xbe2e3b82	-0.17014888
47	0x3f244634	0.6416962

encoder_variable_selection.flattened_grn.fc2.weight f4 [3, 3]
0	0xbf340464	-0.703192
1	0xbf52077d	-0.82042676
2	0x3e12cd5b	0.1433615
3	0xbea3d360	-0.31997204
4	0xbf8e881b	-1.1135286
5	0x3c7b122c	0.015324157
6	0xbea8ebe5	-0.32992473
7	0xbf1f7d4e	-0.62300575
8	0xbe63e3c5	-0.22254856

encoder_variable_selection.flattened_grn.fc2.bias f4 [3]
0	0xbd260062	-0.04052771
1	0xbd402489	-0.046909843
2	0xbe15f800	-0.14645386

encoder_variable_selection.flattened_grn.gate_norm.glu.fc.weight f4 [6, 3]
0	0x3d8f09a0	0.06984258
1	0x3d623c3b	0.05523322
2	0x3ed4d0ee	0.4156565
3	0xbe40c8fd	-0.18826671
4	0xbea3a9a1	-0.31965354
5	0x3e56424a	0.20923725
6	0xbe479727	-0.19491254
7	0xbed9da98	-0.42549586
8	0x3c63ba74	0.013899434
9	0xbe3c26c2	-0.1837416
10	0xbf07766f	-0.5291509
11	0x3f3aa915	0.7291425
12	0x3ee1434c	0.43996656
13	0xbef1436e	-0.47121757
14	0xbd7b8b98	-0.061412424
15	0x3fc5e209	1.5459605
16	0x3f063f07	0.5243992
17	0x3f43a910	0.76429844

encoder_variable_selection.flattened_grn.gate_norm.glu.fc.bias f4 [6]
0	0x3e522512	0.20521954
1	0xbd3d7a12	-0.046258993
2	0xbed9d4bc	-0.42545116
3	0xbf1ed33a	-0.62041056
4	0xbf542235	-0.82864696
5	0x3ec1884a	0.37799293

encoder_variable_selection.flattened_grn.gate_norm.add_norm.norm.weight f4 [3]
0	0xbc8f97f4	-0.017528512
1	0x3ee33f6d	0.44384328
2	0x3e9d192c	0.30683267

encoder_variable_selection.flattened_grn.gate_norm.add_norm.norm.bias f4 [3]
0	0x3e19d43a	0.15022364
1	0xbf16e8c2	-0.5894891
2	0x3f1d7d1f	0.61519045

encoder_variable_selection.single_variable_grns.SinWeekly.resample_norm.mask f4 [16]
0	0x3cec24c1	0.02882612
1	0xbea385a2	-0.3193789
2	0x3f12d7c6	0.57360494
3	0xbcfc9e91	-0.03083733
4	0xbf2c7de4	-0.67379594
5	0xbe40dcb3	-0.1883419
6	0xbe389aa2	-0.18027738
7	0xbf5ddb86	-0.8666309
8	0xbf3673d7	-0.7127051
9	0xbe26eb37	-0.16300665
10	0xbf1d2f56	-0.61400354
11	0x3cdbd882	0.026836637
12	0x3e89684b	0.26837382
13	0x3eb44f2c	0.35216653
14	0x3f235857	0.6380667
15	0x3e10176d	0.14071436

encoder_variable_selection.single_variable_grns.SinWeekly.resample_norm.norm.weight f4 [16]
0	0x3f681779	0.90660816
1	0x3f059432	0.52179253
2	0x40080589	2.1253378
3	0x3f6d1713	0.92613333
4	0x3ed124a2	0.4084826
5	0x3f6b8d1b	0.92012185
6	0x3f888311	1.0664998
7	0x3efa4863	0.48883352
8	0xbe762d22	-0.24040654
9	0x3f77e30d	0.96830827
10	0x3f8799c4	1.05938
11	0x3fd12d39	1.6341926
12	0x3f9c7049	1.2221767
13	0x3fc22b5c	1.5169482
14	0x3feb91f3	1.8403915
15	0x3f7e2d5f	0.9928798

encoder_variable_selection.single_variable_grns.SinWeekly.resample_norm.norm.bias f4 [16]
0	0x3e18d143	0.14923577
1	0xbccb67a6	-0.024829697
2	0xbeff2bf9	-0.49838236
3	0x3d45cbec	0.04829018
4	0xbe3f0ec5	-0.18657978
5	0x3c925f81	0.017867805
6	0x3d7ebae0	0.062189937
7	0xbe579f27	-0.21056806
8	0x3e08834a	0.13331333
9	0xbd8fadbb	-0.07015558
10	0x3dada3d4	0.08478513
11	0x3eb75eb6	0.35814446
12	0xbe7105db	-0.2353739
13	0xbde2a8c5	-0.110673465
14	0xbcd2dbe5	-0.02573962
15	0x3ddcf322	0.107885614

encoder_variable_selection.single_variable_grns.SinWeekly.fc1.weight f4 [8, 8]
0	0x3f2ec609	0.6827093
1	0xbff1b254	-1.8882546
2	0xbf3ffa55	-0.7499135
3	0xc02dd85d	-2.7163308
4	0xbe896f4a	-0.2684272
5	0x3d9ece47	0.07754188
6	0x3e993f39	0.29931048
7	0x3f014b7a	0.50505793
8	0xbeb2847d	-0.34866706
9	0x3eb7ad3f	0.35874364
10	0xbf52d2fa	-0.82353175
11	0xbe7f152e	-0.24910423
12	0xbf76c948	-0.9640088
13	0x3fa47911	1.2849447
14	0xbfe0b2bf	-1.7554549
15	0xbf8571b6	-1.0425327
16	0xbd8bc1d9	-0.06824083
17	0x3db1e8bb	0.08686968
18	0xbf32817d	-0.69728833
19	0x3e9fff4d	0.31249467
20	0xbf82a813	-1.0207542
21	0x3f0edd79	0.5580669
22	0x3f2a8edd	0.6662424
23	0x3e2f0f52	0.17095688
24	0x3e9c6e02	0.3055268
25	0x3e3e014e	0.18555185
26	0xbeeebc7b	-0.46628174
27	0x3e1b584c	0.15170401
28	0x3e857c0d	0.26071206
29	0x3e60832e	0.21925041
30	0x3e31dd6e	0.17369625
31	0x3f0fb3bf	0.56133646
32	0xbee3b11b	-0.44471058
33	0xbe460d1b	-0.19340937
34	0x3f98f49e	1.1949651
35	0xbdac3ab4	-0.08409634
36	0x3e764e56	0.2405332
37	0x3f368be4	0.71307206
38	0x3f1c1a9b	0.60978097
39	0xbf5e7b9c	-0.8690736
40	0x3ef20f56	0.47277325
41	0xbe8f0512	-0.27933556
42	0xbf340fbb	-0.703365
43	0x3d14899a	0.03626404
44	0x3e1392df	0.14411496
45	0xbe0b99dd	-0.13632913
46	0xbe76d2a7	-0.24103795
47	0x3e61b813	0.22042875
48	0xbf7f5209	-0.9973455
49	0xbd0c6371	-0.034274522
50	0xbff2a09c	-1.8955264
51	0x3f0424e4	0.5161879
52	0xbf791eea	-0.97312796
53	0x3ec9de2c	0.39427316
54	0xbfeec0e6	-1.8652618
55	0xbf5af020	-0.8552265
56	0x3e9b0866	0.30279845
57	0xbd913d75	-0.070918
58	0xbf25de82	-0.64792645
59	0x3dfe2e98	0.12411231
60	0x3f70a6f3	0.94004744
61	0x3f18ff58	0.59764624
62	0xbd6d0550	-0.057866395
63	0x3f0cc608	0.5498967

encoder_variable_selection.single_variable_grns.SinWeekly.fc1.bias f4 [8]
0	0xbec53949	-0.38520268
1	0xbeb54015	-0.35400453
2	0xbdd67cb3	-0.10473003
3	0xbe31fdf5	-0.17382033
4	0xbc2f0d40	-0.010684311
5	0xbe431139	-0.19049539
6	0xbebe1c1f	-0.3713083
7	0xbe390c3b	-0.18071072

encoder_variable_selection.single_variable_grns.SinWeekly.fc2.weight f4 [8, 8]
0	0xbf53e0ca	-0.82764876
1	0x3ec29359	0.38003042
2	0xbf870f4e	-1.0551546
3	0xbe27889d	-0.16360708
4	0xbe61479a	-0.2199997
5	0xbd6d5958	-0.057946533
6	0x3f17844d	0.5918625
7	0xbdb749dc	-0.089496344
8	0xbe01f399	-0.12690581
9	0xbe34694d	-0.17618294
10	0x3e816f16	0.25280064
11	0x3e462886	0.19351396
12	0xbdfda822	-0.123855844
13	0x3e9c14c6	0.304846
14	0x3f3c5e85	0.73581725
15	0x3e0308a1	0.1279626
16	0x3f2d80ff	0.6777496
17	0xbeb03326	-0.34414023
18	0xbd84d1b4	-0.0648531
19	0xbeac7d39	-0.33689287
20	0x3ed21826	0.4103405
21	0x3de4aee1	0.11166168
22	0x3f144219	0.57913357
23	0x3e29e65c	0.16591781
24	0x3f0478c9	0.51746804
25	0x3f4177e3	0.7557356
26	0x3e890aac	0.26765954
27	0xbc49b921	-0.012312205
28	0x3dac4d54	0.08413187
29	0xbf032f16	-0.5124372
30	0x3eb3ed8f	0.3514218
31	0xbe404f76	-0.18780312
32	0xbf918df8	-1.137145
33	0x3f8969b4	1.0735383
34	0xbf1464bb	-0.579662
35	0x3ba5a1de	0.0050546965
36	0x3e9a43b2	0.30129772
37	0x3de45a7c	0.11150071
38	0x3da8ec6a	0.082482174
39	0xbd7adaed	-0.06124394
40	0x3f5bb56e	0.85823715
41	0xbf3dd32f	-0.74150366
42	0xbea373b4	-0.31924212
43	0xbc93e53d	-0.018053645
44	0xbf1246cd	-0.57139283
45	0xbe07d49c	-0.13264698
46	0xbef13f84	-0.4711877
47	0xbe8d8c3d	-0.27646056
48	0x3ee6e168	0.45093846
49	0x3eb96d99	0.3621643
50	0x3de17614	0.1100885
51	0x3d99dac3	0.075124286
52	0x3e7b43f5	0.24537642
53	0x3e009206	0.12555704
54	0x3f2142a3	0.62992305
55	0x3e6a7ccd	0.2289917
56	0x3f524fd4	0.8215306
57	0x3cf9435e	0.030427631
58	0x3e5e3dff	0.21703337
59	0x3e5b39c8	0.2140876
60	0x3f0d4e39	0.55197483
61	0xbe1e856b	-0.15480582
62	0x3f8aae3b	1.0834421
63	0xbe8edd19	-0.2790306

encoder_variable_selection.single_variable_grns.SinWeekly.fc2.bias f4 [8]
0	0xbd86a245	-0.06573919
1	0xbd3c8b5f	-0.046031352
2	0x3db28b80	0.08718014
3	0x3efefce5	0.49802318
4	0x3d9d5285	0.07681755
5	0x3e2a66ab	0.16640727
6	0x3e897787	0.26849005
7	0x3eb796f5	0.3585736

encoder_variable_selection.single_variable_grns.SinWeekly.gate_norm.glu.fc.weight f4 [32, 8]
0	0x3ec9c023	0.394044
1	0x3e761dab	0.24034755
2	0x3e75ed39	0.24016275
3	0x3e9ee2b1	0.31032327
4	0x3eaa19aa	0.33222705
5	0xbf330314	-0.6992657
6	0x3e864a2d	0.26228467
7	0x3eff873a	0.49907857
8	0xbee361f0	-0.44410658
9	0xbe437c39	-0.19090356
10	0xbec4720c	-0.3836826
11	0xbf01a545	-0.50642806
12	0xbae07d17	-0.0017127123
13	0x3e9cb360	0.30605602
14	0x3ec76d04	0.3895036
15	0x3e7cad7c	0.24675554
16	0x3e9e9d55	0.3097941
17	0x3e85bc12	0.2612005
18	0xbe9eb83c	-0.30999935
19	0x3ebcdfe7	0.36889574
20	0x3eb1293e	0.34601778
21	0xbec078d9	-0.375922
22	0xbcde5c13	-0.027143514
23	0x3dc7b86e	0.09751974
24	0xbd1bcca0	-0.038036942
25	0xbeec8d07	-0.46201345
26	0xbe0e7820	-0.13913012
27	0xbf0d6a39	-0.5524021
28	0xbe238a16	-0.15970644
29	0x3e1d8bc9	0.15385355
30	0xbed2fffc	-0.41210926
31	0xbbe394f9	-0.006945249
32	0x3eefd27d	0.46840277
33	0x3f111c0e	0.56683433
34	0x3e42a87d	0.19009586
35	0x3f2a8982	0.6661607
36	0x3ec3bebc	0.38231456
37	0xbf01b75b	-0.50670403
38	0x3f588a9b	0.84586495
39	0x3f45db32	0.7728759
40	0x3e3f6773	0.18691806
41	0xbe1496ef	-0.14510702
42	0xbdc00fb8	-0.09377998
43	0xbdc0ee72	-0.0942048
44	0xbeacdb62	-0.33761126
45	0xbdf4494f	-0.11928045
46	0xbe94aaa3	-0.29036435
47	0x3d98e397	0.07465284
48	0x3f60dfd7	0.8784155
49	0x3ed4fb7f	0.41598126
50	0xbf94c9d5	-1.1624094
51	0xbf40d107	-0.7531895
52	0x3f6fe0bf	0.9370231
53	0xbf6e4867	-0.9307923
54	0xbf8adf04	-1.0849309
55	0xbf811c02	-1.0086672
56	0xbe45f717	-0.19332539
57	0xbe8de571	-0.27714112
58	0x3e09da4e	0.13462183
59	0xbf1c41dc	-0.61037993
60	0xbe769ac3	-0.24082474
61	0x3e0870a6	0.13324222
62	0xbe6e13b4	-0.23249704
63	0xbec82007	-0.39086935
64	0x3ede0247	0.43361112
65	0x3f1df233	0.6169769
66	0x3ef1d3ab	0.47231802
67	0x3f35fa0c	0.71084666
68	0x3f193f02	0.5986177
69	0xbf0180ca	-0.5058714
70	0x3f233dea	0.6376635
71	0x3f1d0eec	0.61350894
72	0xbe9441c1	-0.28956416
73	0xbe9d2457	-0.30691788
74	0x3e6c0199	0.23047484
75	0xbd4b550f	-0.049641665
76	0xbeaa7d3e	-0.33298677
77	0x3ebe1282	0.37123495
78	0xbcd20d27	-0.025641037
79	0xbdffcf09	-0.12490661
80	0xbe84f542	-0.25968367
81	0x3d4a20cf	0.049347695
82	0x3eee8c8b	0.465916
83	0x3f02c7eb	0.510863
84	0xbe7f26bc	-0.2491712
85	0x3dadf190	0.0849334
86	0x3ea2b1f1	0.31776384
87	0x3ec4a41a	0.3840645
88	0x3e84df99	0.2595184
89	0x3f0eaa69	0.55728775
90	0x3f16583f	0.587284
91	0x3f2de337	0.6792483
92	0x3eac542b	0.33657965
93	0xbf3b2eaa	-0.7311808
94	0x3f686bf8	0.9078975
95	0x3f362cb4	0.7116196
96	0x3ec840b9	0.3911188
97	0x3f12efe0	0.5739727
98	0xbe837b0a	-0.2567981
99	0xbe4140ad	-0.18872328
100	0x3f14ad80	0.5807724
101	0xbf2a6730	-0.665637
102	0xbeeb973b	-0.46013817
103	0xbece79c2	-0.4032727
104	0x3e838310	0.2568593
105	0x3e1c44f9	0.15260686
106	0xbebc9116	-0.36829442
107	0xbee7136f	-0.45132014
108	0x3e93c87e	0.288639
109	0xbea77184	-0.32703793
110	0xbee65bff	-0.44992062
111	0xbf037e2d	-0.51364404
112	0xbe71b363	-0.23603587
113	0xbf1b744e	-0.6072434
114	0x3ea62909	0.32453182
115	0xbe6a394f	-0.22873424
116	0xbe9ef377	-0.31045124
117	0x3eabb825	0.3353893
118	0xbe600d4e	-0.21880075
119	0xbd410392	-0.047122546
120	0x3da791b7	0.0818209
121	0xbeab1ac3	-0.33418855
122	0xbe2780ab	-0.16357677
123	0x3c10a53c	0.008828457
124	0xbcb8b89a	-0.022548962
125	0xbebb771f	-0.3661432
126	0x3e4440bd	0.1916532
127	0xbe134220	-0.14380693
128	0x3e939424	0.2882396
129	0x3f5a1845	0.8519328
130	0x3cd06621	0.025439324
131	0x3f264892	0.64954484
132	0x3f361217	0.7112135
133	0xbf26a7ae	-0.6509961
134	0x3e52e0f2	0.20593622
135	0xbe17a51f	-0.14809082
136	0x3f13183e	0.57458866
137	0x3bf0f877	0.007353838
138	0xbe20562f	-0.15657876
139	0xbed82079	-0.42212275
140	0x3de8c3ab	0.11365446
141	0x3d7b5b50	0.06136638
142	0xbde55aac	-0.11198935
143	0xbda5aaeb	-0.08089241
144	0xbd10db8a	-0.03536562
145	0xbd87d0da	-0.06631632
146	0xbdd584a7	-0.10425692
147	0x3cdb100b	0.026741048
148	0x3ca6452a	0.020296652
149	0xbdd64cb9	-0.104638524
150	0x3b8f730f	0.0043777297
151	0x3fbf97bb	1.496818
152	0x3edd39f9	0.43208292
153	0x3e96a970	0.29426146
154	0xbed21aaf	-0.41035983
155	0x3e1b3d55	0.15160115
156	0x3e6fc987	0.2341672
157	0x3db2d6ee	0.08732401
158	0xbe3aed98	-0.18254697
159	0x3db2572a	0.087080315
160	0x3f13b55c	0.5769861
161	0x3e805d54	0.25071204
162	0xbe6e1e70	-0.23253798
163	0x3e6d828f	0.23194335
164	0x3ef4f7d8	0.4784534
165	0xbefaefb6	-0.4901101
166	0x3dc4ae06	0.09603505
167	0x3d573646	0.052541994
168	0xbe239abf	-0.15977
169	0x3e64a5ea	0.22328916
170	0x3e7d140e	0.24714682
171	0xbdf4522c	-0.119297355
172	0x3e5f2f96	0.21795496
173	0xbf000045	-0.5000041
174	0x3ea3f47a	0.32022458
175	0xbeb6f4e2	-0.35733706
176	0xbfa93576	-1.321944
177	0xbf4da6a6	-0.8033241
178	0x3f3b956d	0.7327488
179	0xbecb991f	-0.3976526
180	0xbf84bc89	-1.0370036
181	0x3f6bf787	0.9217457
182	0x3e371421	0.17878772
183	0x3efecfaf	0.49767825
184	0x3dae1e26	0.08501844
185	0x3f336966	0.700827
186	0xbd8445b4	-0.06458607
187	0x3e867b9a	0.26266176
188	0x3ebc8e10	0.36827135
189	0xbf2ca3ca	-0.6743742
190	0x3ec2a4d4	0.3801638
191	0xbd523239	-0.051317427
192	0x3f0fdb4d	0.56194
193	0x3f0ba9a2	0.54555714
194	0xbea24fdf	-0.31701562
195	0x3ec5f075	0.38660017
196	0x3f5b2af9	0.85612446
197	0xbf23e90b	-0.6402747
198	0x3a9dae87	0.0012030163
199	0x3e665d43	0.22496514
200	0xbe97f68b	-0.29680285
201	0xbde72dc1	-0.11288024
202	0x3e8c75a3	0.274335
203	0x3f07150f	0.5276651
204	0xbdb4f2df	-0.088353865
205	0xbdb5dc91	-0.0887996
206	0x3ef0c79f	0.470273
207	0x3ed56f17	0.41686317
208	0x3e4dfcd4	0.20115978
209	0xbe77e18c	-0.24207133
210	0xbfa297d7	-1.2702588
211	0xbf39111f	-0.7229175
212	0x3eb742f2	0.35793263
213	0x3eeded28	0.46469998
214	0xbf89d147	-1.0766991
215	0xbf70d701	-0.9407807
216	0x3f1a6f55	0.6032613
217	0x3e7e22ba	0.24817935
218	0xbeb2f149	-0.3494971
219	0x3e2fb868	0.17160189
220	0x3f6c3351	0.922658
221	0xbf1045bb	-0.563564
222	0x3e4f2f25	0.20232828
223	0xbd2e7d0b	-0.04259972
224	0xbf8ccbfb	-1.099975
225	0xbf859b23	-1.0437969
226	0x3f5acf33	0.8547241
227	0xbd147fa2	-0.036254533
228	0xbf62690e	-0.8844155
229	0x3f78b556	0.97151697
230	0x3ef9f204	0.48817456
231	0x3f42d873	0.76111525
232	0xbf3442f5	-0.7041467
233	0xbf223ffc	-0.6337888
234	0x3e50ccbd	0.20390601
235	0xbebcbcbb	-0.3686274
236	0xbeef7120	-0.46765995
237	0x3f531c19	0.8246475
238	0x3ebbf442	0.3670979
239	0x3ef1aff1	0.47204545
240	0xbedcc8eb	-0.43122038
241	0xbe91c881	-0.28473285
242	0xbe885b08	-0.2663195
243	0x3c6f2889	0.014597067
244	0xbed89f08	-0.4230883
245	0x3ebaac37	0.36459514
246	0xbe2f159e	-0.1709809
247	0x3e2752b6	0.16340145
248	0x3e16d3f6	0.14729294
249	0x3ea7ca1c	0.32771385
250	0xbc73d28c	-0.014881741
251	0xbe7a1540	-0.24422169
252	0xbd209ea9	-0.03921381
253	0xbd5731a5	-0.05253758
254	0x3c648c08	0.013949402
255	0xbe93b7f0	-0.2885127

encoder_variable_selection.single_variable_grns.SinWeekly.gate_norm.glu.fc.bias f4 [32]
0	0x3e961c93	0.29318675
1	0xbd9a82cb	-0.07544478
2	0xbe4d1972	-0.20029238
3	0xbdbb30b8	-0.09140152
4	0xbc0c6e15	-0.0085711675
5	0xbcd279c9	-0.025692837
6	0xbed7fd57	-0.4218547
7	0xbecea605	-0.40361038
8	0x3e71951e	0.2359204
9	0x3d56d5d1	0.052450005
10	0xbd99345b	-0.07480689
11	0x3f073054	0.5280812
12	0xbe5a25d9	-0.213035
13	0xbe9265de	-0.28593343
14	0x3d5c67c4	0.053809896
15	0xbc601c36	-0.013678601
16	0xbe2bc057	-0.1677259
17	0xbd82f478	-0.06394285
18	0x3f4115a3	0.7542364
19	0x3c8af968	0.01696463
20	0x3e38252a	0.17982927
21	0xc0042ceb	-2.0652416
22	0xbed7f644	-0.42180073
23	0x3e8d58b0	0.27606726
24	0x3eaa8e43	0.33311662
25	0x3ec2565c	0.37956512
26	0xbf205b4e	-0.6263932
27	0x3f54cfd3	0.83129615
28	0xbf099b89	-0.5375295
29	0x3ea5907d	0.32336798
30	0x3e8e060c	0.27738988
31	0xbffc885f	-1.9729117

encoder_variable_selection.single_variable_grns.SinWeekly.gate_norm.add_norm.norm.weight f4 [16]
0	0x3f6fe75d	0.9371241
1	0x3e33b89b	0.1755089
2	0x3ff10826	1.8830612
3	0x3f5420e2	0.82862675
4	0x3f3a3070	0.7273016
5	0x3f3100f3	0.69142073
6	0x3fd81281	1.6880647
7	0x3f0a95eb	0.54135007
8	0x3f5c1fff	0.8598632
9	0x3f6f5154	0.9348347
10	0x3f8f30df	1.1186789
11	0x400c41fd	2.1915276
12	0x3f61ca10	0.8819895
13	0x3fc5fb34	1.5467286
14	0x3fb4bfdc	1.4121051
15	0x3f2ffad4	0.6874211

encoder_variable_selection.single_variable_grns.SinWeekly.gate_norm.add_norm.norm.bias f4 [16]
0	0x3dbb4793	0.09144511
1	0x3e1461e3	0.14490466
2	0xbe3d7c9c	-0.18504566
3	0x3e8630f6	0.2620923
4	0x3d23a7ee	0.039955072
5	0xbccc73cb	-0.024957558
6	0x3bf6c5ba	0.007530895
7	0xbd69f90a	-0.057122268
8	0x3d5ff36e	0.054675512
9	0xbe44bfca	-0.19213787
10	0xbea0df3b	-0.3142031
11	0x3e3024b0	0.17201495
12	0xbe6921c2	-0.22766784
13	0xbdd555b6	-0.10416739
14	0x3e6b080d	0.2295229
15	0x3e2217fa	0.15829459

encoder_variable_selection.single_variable_grns.VaccinationFull.resample_norm.mask f4 [16]
0	0xbe69361b	-0.22774546
1	0x3dc0bb08	0.094106734
2	0xbd3418cc	-0.04396896
3	0xbf07d2e4	-0.5305617
4	0x3e3cbaa3	0.18430571
5	0xbe291dd5	-0.16515286
6	0x3f9125be	1.1339643
7	0x3f3bf275	0.73416835
8	0xbe37b328	-0.17939436
9	0xbf6a80bb	-0.9160268
10	0xbf4c4cd1	-0.7980471
11	0xbf4cd987	-0.8001942
12	0xbfb57c5c	-1.4178576
13	0x3dda3610	0.10654843
14	0x3f8c524a	1.0962613
15	0xbe865a31	-0.26240686

encoder_variable_selection.single_variable_grns.VaccinationFull.resample_norm.norm.weight f4 [16]
0	0x3f3c52b5	0.735637
1	0x3f566166	0.8374237
2	0x3faf54bc	1.3697734
3	0x3f74428a	0.9541403
4	0x3fa2f4bf	1.273094
5	0x3f3c7dfc	0.73629737
6	0x3ff5fbcc	1.9217467
7	0x3fe72c62	1.806042
8	0x3fa94161	1.3223077
9	0x3f12b988	0.5731435
10	0x3efcfe8a	0.49412948
11	0xbbdd1538	-0.0067469142
12	0x3edc7d79	0.43064478
13	0x3f9648ff	1.1741027
14	0x4008d432	2.1379514
15	0x3f91896c	1.1370063

encoder_variable_selection.single_variable_grns.VaccinationFull.resample_norm.norm.bias f4 [16]
0	0x3ea0911f	0.3136072
1	0x3eaafdc3	0.3339673
2	0xbe9a700f	-0.3016362
3	0xbeee6aa9	-0.4656575
4	0x3e17c30e	0.14820501
5	0x3e10d8cc	0.14145201
6	0x3f215bff	0.63031
7	0x3ee87e08	0.45408654
8	0xbedd5929	-0.43232086
9	0xbe99aa45	-0.30012718
10	0xbe2e2f35	-0.17010196
11	0x3e723839	0.2365426
12	0x3e42fb69	0.19041218
13	0xbd7cadba	-0.061689116
14	0xbe81379b	-0.25237736
15	0xbdecef4c	-0.1156908

encoder_variable_selection.single_variable_grns.VaccinationFull.fc1.weight f4 [8, 8]
0	0x3f10b1cd	0.565213
1	0xbd9ecf17	-0.07754343
2	0xbf34e44b	-0.7066085
3	0xbd8d9dc6	-0.069148585
4	0x3fde3066	1.735852
5	0xbab18bb3	-0.0013545662
6	0xbf20511f	-0.6262378
7	0xbd583dbd	-0.052793253
8	0x3e922d80	0.2855034
9	0xbf0da73a	-0.5533329
10	0xbfaebc0d	-1.3651139
11	0xbf68e4b4	-0.90973973
12	0x3eead591	0.45866063
13	0x3f23e2ac	0.6401775
14	0x3f06301c	0.5241716
15	0x3f0a4bbe	0.54021823
16	0x3dcd53e7	0.10025769
17	0xbf2ba38e	-0.6704644
18	0xbe74dffb	-0.23913567
19	0xbe6ebe42	-0.23314765
20	0xbdec713e	-0.11545037
21	0x3ecad561	0.3961592
22	0xbe8a9b2d	-0.27071515
23	0xbf08d856	-0.534551
24	0xbdc4476c	-0.09583935
25	0xbf48edac	-0.7848766
26	0xbf04c58a	-0.5186392
27	0x3edd71e0	0.43250942
28	0xbe0487ce	-0.1294243
29	0x3f336a82	0.70084393
30	0x3d0352da	0.032061435
31	0x3dea210b	0.11432084
32	0x3e0a14a3	0.13484435
33	0x3f5c1ef8	0.85984755
34	0x3e9c444a	0.3052085
35	0x3ec63d73	0.38718757
36	0xbe3bb248	-0.18329728
37	0x3e6c8849	0.23098864
38	0x3f07fe40	0.5312233
39	0x3f192d53	0.59834784
40	0xbe90124b	-0.28138956
41	0x3edd6622	0.43241984
42	0x3e127828	0.14303648
43	0xbe831bb4	-0.25607073
44	0xbfb55877	-1.4167622
45	0xbf3e657c	-0.743736
46	0xbf2c2e6e	-0.67258346
47	0xbfe45d1d	-1.7840916
48	0xbefa1bcf	-0.4884934
49	0x3f0a7cb0	0.5409651
50	0x3d467630	0.048452556
51	0x3e6441d4	0.22290736
52	0x3f986b94	1.190783
53	0xbe39b905	-0.18136986
54	0x3e894310	0.26808977
55	0x3e42c6eb	0.19021194
56	0x3eb147c0	0.34625053
57	0x3e04776f	0.12936185
58	0xbeba55b7	-0.3639352
59	0xbdbaaa4b	-0.09114512
60	0xbf10d731	-0.56578356
61	0xbfa4e536	-1.288245
62	0xbea73a72	-0.32661778
63	0xbfde3a43	-1.736153

encoder_variable_selection.single_variable_grns.VaccinationFull.fc1.bias f4 [8]
0	0x3f0251ce	0.50906074
1	0x3ebdc210	0.3706212
2	0x3de1ab89	0.11019046
3	0x3eafb974	0.34321177
4	0xbe0a72fb	-0.13520424
5	0xbf182b2b	-0.5944087
6	0x3de8fa52	0.1137587
7	0xbe29ecb9	-0.16594209

encoder_variable_selection.single_variable_grns.VaccinationFull.fc2.weight f4 [8, 8]
0	0xbedd74ca	-0.43253165
1	0x3e95bc24	0.29245102
2	0xbc5aad81	-0.013347031
3	0xbf0c3b79	-0.5477825
4	0xbe0d1723	-0.13778357
5	0x3ef334d6	0.47501248
6	0xbf246af6	-0.6422571
7	0x3e9348df	0.28766534
8	0x3f303f8e	0.68846977
9	0xbf3304c3	-0.6992914
10	0xbda2b435	-0.07944528
11	0xbef056d1	-0.46941236
12	0xbe855f27	-0.26049158
13	0xbf547a92	-0.8299953
14	0xbd72d126	-0.05928149
15	0xbe96830f	-0.29396865
16	0xbfdbb744	-1.7165303
17	0x3edd6252	0.43239075
18	0x3bec32d0	0.0072082058
19	0x3f2f738d	0.6853569
20	0xbdb573ef	-0.08860003
21	0x3e991c7d	0.29904547
22	0x3ee40330	0.44533682
23	0x3ee635b7	0.44962856
24	0x3de51697	0.11185949
25	0xbb70bcd1	-0.0036733637
26	0x3d1eb834	0.03874989
27	0xbeced18d	-0.4039425
28	0xbab09d72	-0.0013474657
29	0xbf452308	-0.7700658
30	0xbe2b1de2	-0.16710618
31	0xbe678b71	-0.22611786
32	0xbeb3141b	-0.34976277
33	0xbedcbaf5	-0.43111387
34	0xbe2705f6	-0.16310868
35	0x3d37bbcc	0.04485683
36	0x3d1f6dbc	0.03892301
37	0x3eb3964b	0.35075602
38	0xbf61355e	-0.87972057
39	0x3f72e749	0.94884163
40	0xbe512779	-0.20425214
41	0x3e9f2f05	0.3109056
42	0xbd608971	-0.054818574
43	0x3efda81c	0.4954232
44	0x3e66f473	0.22554187
45	0x3b63ca22	0.0034757932
46	0xbde456c2	-0.1114936
47	0xbf912aab	-1.1341146
48	0x3f784223	0.96975917
49	0xbf3bc8ec	-0.7335346
50	0xbbadf9fb	-0.005309341
51	0x3ea31f82	0.31859976
52	0xbb8ada19	-0.004237425
53	0xbf1bfc3e	-0.60931766
54	0x3e7de23b	0.24793331
55	0x3dfcb269	0.123387165
56	0xbe46f008	-0.19427502
57	0x3f3ebff8	0.7451167
58	0x3bb1fa26	0.0054314313
59	0x3eb79399	0.35854796
60	0xbe81e87f	-0.25372693
61	0xbf3e6b25	-0.7438224
62	0x3d3f492f	0.046700653
63	0xbf5d0fab	-0.8635203

encoder_variable_selection.single_variable_grns.VaccinationFull.fc2.bias f4 [8]
0	0xbf05c8cd	-0.5225952
1	0x3e6ef0f1	0.233341
2	0xbef7434c	-0.4829353
3	0xbe448589	-0.19191565
4	0x3e0c9152	0.1372731
5	0x3e1bf700	0.15230942
6	0x3f40b9bf	0.75283426
7	0xbdf9ae28	-0.12191421

encoder_variable_selection.single_variable_grns.VaccinationFull.gate_norm.glu.fc.weight f4 [32, 8]
0	0xbef3f53b	-0.47648033
1	0x3ef7b53c	0.48380458
2	0xbdcc5b82	-0.09978391
3	0x3f44554b	0.76692647
4	0xbe998cbb	-0.2999018
5	0x3ee0b7e6	0.43890303
6	0x3df55241	0.11978579
7	0x3e99662c	0.29960763
8	0x3c390580	0.011292815
9	0xbf02582c	-0.5091579
10	0xbe96db09	-0.29463986
11	0xbe916033	-0.28393707
12	0x3eeaf6a1	0.45891288
13	0xbf200afa	-0.6251675
14	0x3f132bcf	0.5748872
15	0xbf1c2677	-0.6099619
16	0x3ead08c2	0.33795744
17	0x3e7ef636	0.2489861
18	0x3d09e871	0.03366894
19	0x3cb7e033	0.022445774
20	0x3eaa7bc6	0.33297557
21	0x3b80e607	0.0039336714
22	0x3c6f0cef	0.014590486
23	0xbdf78e12	-0.12087645
24	0xbf0b9313	-0.5452129
25	0x3ed788ed	0.42096654
26	0x3c987d71	0.018614503
27	0x3f2614ee	0.64875686
28	0xbf159951	-0.5843707
29	0x3f4ee264	0.80814195
30	0xbf0a7d17	-0.5409712
31	0x3f59bd4f	0.85054487
32	0x3ef2213b	0.47290978
33	0xbeced9f1	-0.4040065
34	0x3ef00949	0.46882084
35	0xbe80bb71	-0.25143006
36	0x3f0e8be4	0.55682206
37	0xbecbf4aa	-0.398351
38	0xbefeefa6	-0.49792212
39	0xbec7d077	-0.39026234
40	0xbea615f2	-0.32438618
41	0x3ed6adbf	0.41929433
42	0xba777f5b	-0.00094412797
43	0xbccd0847	-0.025028361
44	0xbdb0c092	-0.0863048
45	0x3e39a827	0.18130551
46	0x3dfbd40f	0.12296306
47	0x3d937f6a	0.07202037
48	0x3d373473	0.044727754
49	0x3ef913aa	0.48647815
50	0xbe2c57a1	-0.16830303
51	0x3b980b43	0.0046400144
52	0xbe9f8acd	-0.31160584
53	0x3eb016b5	0.34392324
54	0x3ddb5889	0.10710246
55	0x3e8f77e5	0.2802116
56	0xbf0059f8	-0.5013728
57	0x3eb42e0d	0.35191384
58	0xbdc219ba	-0.09477563
59	0xbcc3d60e	-0.02390578
60	0x3e00470c	0.12527102
61	0xbe3530b7	-0.17694364
62	0x3edd47ed	0.43218938
63	0xbef07d49	-0.46970585
64	0xbf19ca17	-0.6007399
65	0x3f20281d	0.6256121
66	0xbefb259f	-0.4905214
67	0x3f145f33	0.5795776
68	0xbf57fc1e	-0.84369075
69	0x3f34ddc5	0.70650893
70	0x3ed9a114	0.42505705
71	0x3f432cdf	0.7624034
72	0x3ed837b6	0.42230004
73	0xbf10aeba	-0.5651661
74	0x3e8b074b	0.27154002
75	0xbf1e7a1d	-0.6190508
76	0x3f005819	0.50134426
77	0xbf1d5d34	-0.6147034
78	0xbdb8c8c5	-0.09022669
79	0xbf46535a	-0.77470934
80	0x3ed029ed	0.40656987
81	0xbeeeab75	-0.46615186
82	0x3f160831	0.5860625
83	0xbe083677	-0.13302027
84	0x3e002322	0.12513402
85	0xbd2c1d43	-0.042020094
86	0xbee94728	-0.455621
87	0xbdd72898	-0.105057895
88	0xbf2eda61	-0.6830197
89	0xbda16212	-0.078800336
90	0xbf22b560	-0.63558006
91	0x3f2df0f7	0.6794581
92	0x3c81a7e7	0.015827132
93	0x3df68b7b	0.120383225
94	0x3f41af7e	0.75658405
95	0x3dd0dadb	0.10197993
96	0x3d73fdaa	0.059568085
97	0x3cf59d1d	0.029982144
98	0xbe53805c	-0.20654434
99	0xbf1f634c	-0.6226089
100	0x3e229e69	0.15880741
101	0xbecfb58b	-0.40568194
102	0xbe47a68c	-0.19497126
103	0xbe16cdc4	-0.14726931
104	0x3f5cddec	0.86276126
105	0xbf41fe70	-0.75778866
106	0x3ecb603a	0.39721853
107	0xbf1103fc	-0.56646705
108	0x3f04be28	0.51852655
109	0xbec08d02	-0.3760758
110	0xbe31e943	-0.17374139
111	0xbf05bac8	-0.5223813
112	0xbf337e0d	-0.70114213
113	0x3f3f354d	0.74690706
114	0xbf588d80	-0.8459091
115	0x3f088b3a	0.5333744
116	0xbf4f29e8	-0.8092332
117	0x3f0c59a9	0.5482431
118	0x3f1a0476	0.60163057
119	0x3f481711	0.78160197
120	0x3e137354	0.14399463
121	0x3cc5400a	0.024078388
122	0x3d07ea0e	0.033182196
123	0xbe84de78	-0.2595098
124	0x3e869555	0.26285806
125	0x3bc2c207	0.00594354
126	0x3dcc4c79	0.099755235
127	0x3c5ea460	0.013588995
128	0x3f9f722c	1.2456717
129	0xbec695cb	-0.38786158
130	0x3f8b2216	1.0869777
131	0xbe3232c7	-0.17402183
132	0x3eff2700	0.49834442
133	0x3cb0f4c9	0.021601098
134	0xbf0f0097	-0.55860275
135	0xbe3f0fb0	-0.18658328
136	0x3e7ca1b4	0.2467106
137	0xbeee4103	-0.46533975
138	0x3ec5d37b	0.3863791
139	0xbf4506ff	-0.769638
140	0x3fa5c678	1.2951193
141	0xbef00b6f	-0.46883723
142	0xbe192a58	-0.14957559
143	0xbf55b2cc	-0.8347595
144	0x3edd192a	0.4318326
145	0x3de53a32	0.111927405
146	0x3e8e4e0d	0.27793923
147	0x3f543bf4	0.8290398
148	0x3ecbb2d7	0.3978488
149	0x3e412269	0.18860783
150	0xbeb2ff45	-0.3496038
151	0xbd374803	-0.04474641
152	0x3f0bc163	0.5459196
153	0xbf57e712	-0.8433696
154	0x3f830e4d	1.0238739
155	0xbe32587b	-0.17416565
156	0x3ed844f2	0.422401
157	0xbea6e850	-0.32599115
158	0xbede9927	-0.4347622
159	0xbe72e09c	-0.23718494
160	0xbe5a2da5	-0.21306475
161	0x3e1d9bd5	0.15391476
162	0xbdea4b22	-0.11440112
163	0x3fa8ff83	1.3202976
164	0xbf0c39e0	-0.5477581
165	0x4013d7e5	2.3100522
166	0x3bbe6ffc	0.0058116894
167	0x4019a28e	2.4005466
168	0xbd8752e5	-0.06607608
169	0xbe57a877	-0.21060358
170	0x3f3bed51	0.7340899
171	0x3e8f4166	0.27979583
172	0x3e49ac01	0.1969452
173	0x3e0e2218	0.13880193
174	0xbf977e60	-1.1835442
175	0x3ec8e150	0.392344
176	0x3f1349e7	0.5753464
177	0xbd950ff0	-0.072784305
178	0xbc19d207	-0.009388453
179	0x3ddb9610	0.107219815
180	0x3e77f64a	0.24215046
181	0xbdb9140b	-0.09037026
182	0xbf629177	-0.8850321
183	0xbe910708	-0.28325677
184	0xbf517f3b	-0.81834763
185	0x3f044059	0.51660687
186	0xbd8a9b67	-0.06767922
187	0x3cdee5a7	0.027209116
188	0xbef556f7	-0.4791791
189	0xbede69b4	-0.4344002
190	0x3e93004d	0.28711167
191	0xbebbc674	-0.36674845
192	0xbe80eb46	-0.251795
193	0x3e644f7c	0.22295946
194	0xbf28b507	-0.65901226
195	0x3c5d2bc8	0.013499208
196	0xbd425869	-0.047447596
197	0x3db685e8	0.08912259
198	0x3fd1f965	1.6404234
199	0xbc43084c	-0.011903834
200	0x3da7c22b	0.081913315
201	0xbe88ada0	-0.26694965
202	0x3e11ec37	0.14250265
203	0xbf5417f3	-0.82849044
204	0x3f66326c	0.8992069
205	0xbfd3e01e	-1.655277
206	0xbd0bc889	-0.034126792
207	0xbf875981	-1.057419
208	0xbdc797c9	-0.097457476
209	0xbe77a802	-0.24185184
210	0x3f9b8630	1.2150326
211	0x3e1031aa	0.14081445
212	0x3ee87659	0.45402792
213	0x3ddf18ad	0.108933784
214	0xbf096d38	-0.5368228
215	0x3e457636	0.19283375
216	0x3e3a97e0	0.18221998
217	0x3cdd0423	0.026979512
218	0x3f885ea7	1.0653886
219	0xbd02b8c2	-0.03191448
220	0x3d4dffb9	0.050292704
221	0x3e8145a9	0.2524846
222	0xbf9fe814	-1.24927
223	0xbe26037e	-0.1621227
224	0x3e6c84a4	0.23097473
225	0x3b879347	0.00413743
226	0xbd97c135	-0.07409898
227	0x3f88168a	1.0631878
228	0x3e8196cc	0.2531036
229	0x3ea9cdd4	0.33164847
230	0xbf2d84b6	-0.67780626
231	0x3e8939e6	0.26801986
232	0x3ea1b091	0.31580022
233	0xbed5ba7c	-0.4174384
234	0x3e259cfa	0.16173163
235	0xbe819b15	-0.2531363
236	0x3eaff03c	0.34362972
237	0xbeaea346	-0.34108943
238	0xbeb690bf	-0.35657308
239	0xbedf84f2	-0.43656117
240	0x3ee84043	0.45361528
241	0xbecb6f19	-0.39733198
242	0x3ebf1ad1	0.37325147
243	0x3e1612d7	0.14655624
244	0x3e7353a2	0.23762372
245	0xbdee5edf	-0.11639189
246	0xbec13c55	-0.37741342
247	0xbe42043f	-0.18946932
248	0xbdb85190	-0.08999932
249	0x3e4301e2	0.19043687
250	0x3f22697b	0.634422
251	0x3fa6a3de	1.3018758
252	0xbe25ad23	-0.16179328
253	0x3cc26971	0.023731919
254	0xbeb4455a	-0.3520916
255	0x3e2e80e6	0.17041358

encoder_variable_selection.single_variable_grns.VaccinationFull.gate_norm.glu.fc.bias f4 [32]
0	0x3e389b58	0.18028009
1	0x3f9ff4b4	1.2496552
2	0xbc81b2b8	-0.01583229
3	0xbf9663a5	-1.1749159
4	0xbd7a1b41	-0.061061148
5	0x3dc62d79	0.09676642
6	0xbd4cbfc8	-0.049987584
7	0x3f02df3b	0.5112187
8	0x3cdb42c0	0.026765227
9	0x3e8cbf98	0.27489924
10	0x3db025a1	0.08600927
11	0x3e6e9840	0.23300266
12	0xbe90a9e0	-0.28254604
13	0x3dd913f8	0.10599512
14	0x3e2321bc	0.15930837
15	0xbea11f13	-0.3146902
16	0xbf0c4a1e	-0.54800594
17	0x3ecce090	0.40015078
18	0xbf8798e4	-1.0593534
19	0x3bb96713	0.0056580394
20	0xbdf287be	-0.11842297
21	0xbf823f71	-1.0175611
22	0xbe315453	-0.17317323
23	0x3f55f73a	0.8358036
24	0x3fbceec8	1.476037
25	0x3e018e05	0.12651832
26	0xbf01571b	-0.5052354
27	0xbf78a80f	-0.9713144
28	0xbf9ee287	-1.2412881
29	0xbe9ed343	-0.31020555
30	0xbf63c516	-0.88972604
31	0xbfaa00fa	-1.3281548

encoder_variable_selection.single_variable_grns.VaccinationFull.gate_norm.add_norm.norm.weight f4 [16]
0	0x3eed2b13	0.46321926
1	0x3f820fd8	1.0161085
2	0x3f8ab123	1.0835308
3	0x3f5cb49c	0.8621309
4	0x3f5d4bfa	0.86444056
5	0x3f15a163	0.5844938
6	0x3f328353	0.69731635
7	0x3f3dcdbb	0.74142045
8	0x3f811125	1.0083357
9	0x3f741574	0.95345235
10	0x3f30bb1b	0.690355
11	0x3f1c177c	0.60973334
12	0x3db79a96	0.08965032
13	0x3faf85ee	1.3712747
14	0x3fc75308	1.5572214
15	0x3ed5902f	0.41711566

encoder_variable_selection.single_variable_grns.VaccinationFull.gate_norm.add_norm.norm.bias f4 [16]
0	0x3e00fdb5	0.12596782
1	0x3e784fd0	0.24249196
2	0x3e613b01	0.21995164
3	0x3bf5ea2f	0.0075047235
4	0xbc92a256	-0.017899673
5	0xbd9c93b5	-0.076453604
6	0xbddacfb2	-0.10684146
7	0x3d6bf692	0.057608195
8	0xba29bc0b	-0.0006474859
9	0x3c4847c5	0.012224142
10	0xbd5ca408	-0.05386737
11	0x3e93b9f0	0.28852797
12	0xbe801da1	-0.25022605
13	0x3ea33c0b	0.31881747
14	0xbe0be8a8	-0.1366297
15	0x3d875b2a	0.06609185

encoder_variable_selection.single_variable_grns.Cases.resample_norm.mask f4 [16]
0	0x3ecfe7d2	0.40606552
1	0xbdf3d631	-0.11906088
2	0xc00364ef	-2.0530355
3	0xbe99ee84	-0.30064785
4	0xbea0fc38	-0.31442428
5	0x3ef85172	0.48499638
6	0xbe51f082	-0.20501903
7	0xbe7d6b1b	-0.24747889
8	0xbf54fe06	-0.8320011
9	0x3f50f939	0.81630284
10	0x3f1e07ba	0.6173054
11	0xbef01234	-0.46888888
12	0xbfc41fb6	-1.5322177
13	0xbfbc029c	-1.4688296
14	0x3e1df8a4	0.1542688
15	0x3e58a321	0.21155979

encoder_variable_selection.single_variable_grns.Cases.resample_norm.norm.weight f4 [16]
0	0x3fc66069	1.5498172
1	0x3fb1f165	1.3901793
2	0x3f1b75f6	0.6072687
3	0x3f8e5be1	1.1121789
4	0x3f67499f	0.9034671
5	0x3fd0599e	1.6277349
6	0x3fc854ca	1.5650876
7	0x3fb579e3	1.4177822
8	0x3f89890b	1.0744947
9	0x400372ad	2.0538743
10	0x3fd78605	1.6837775
11	0x3f522fcc	0.8210418
12	0xbdc03179	-0.09384436
13	0x3e0383e2	0.12843278
14	0x3fe7b8be	1.8103254
15	0x3fc3e28a	1.5303509

encoder_variable_selection.single_variable_grns.Cases.resample_norm.norm.bias f4 [16]
0	0x3e7316ba	0.23739138
1	0xbd7f9733	-0.062400054
2	0xbf10f222	-0.56619465
3	0xbeb1863d	-0.34672728
4	0x3da887c5	0.08229021
5	0xbe843d36	-0.2582795
6	0xbcf74f8d	-0.0301893
7	0xbefcebf0	-0.49398756
8	0xbf068a36	-0.52554643
9	0x3b509434	0.0031826617
10	0x3e6c8c07	0.23100291
11	0x3d80785f	0.06272959
12	0x3ec2d196	0.38050526
13	0x3e05fb40	0.13084126
14	0x3e226ae6	0.15861091
15	0x3ea54257	0.32277176

encoder_variable_selection.single_variable_grns.Cases.fc1.weight f4 [8, 8]
0	0x3d45e05e	0.048309676
1	0x3fbf20dc	1.4931903
2	0x3e23ac9a	0.15983811
3	0xbf87b5c2	-1.0602343
4	0xbf14d3e0	-0.58135796
5	0x3f0b47bf	0.5440635
6	0xbe911b92	-0.28341347
7	0xbee5b1e5	-0.44862285
8	0x3f027b7d	0.5096968
9	0x3f2e0dee	0.67990005
10	0xbe217fa2	-0.15771344
11	0xc0452f3e	-3.0810084
12	0xbfaa68ca	-1.3313229
13	0x3dd6abca	0.10481985
14	0x3e6246bd	0.22097297
15	0xbd9f9d5b	-0.07793685
16	0x3f83e0c8	1.0302973
17	0x3e0ad1f7	0.13556658
18	0x3c78ff1a	0.01519754
19	0xbcbfe888	-0.02342631
20	0xbdb8848d	-0.09009657
21	0x3e432fea	0.19061247
22	0xbf3f7937	-0.74794334
23	0x3f00e75a	0.50353014
24	0xbf17dadf	-0.59318346
25	0x3dce8702	0.100843444
26	0x3f722b79	0.94597584
27	0x3e64b4ec	0.22334641
28	0x3f19d7dd	0.60095006
29	0x3e49fb62	0.19724801
30	0x3ed8e762	0.4236403
31	0x3f300717	0.6876082
32	0xbe709895	-0.23495705
33	0xbe574eed	-0.21026202
34	0x3e55c4ef	0.20875905
35	0x3da9592c	0.08268961
36	0x3e3928e5	0.18082006
37	0x3eabfc53	0.33590946
38	0x3e2c52d7	0.16828476
39	0x3e95c035	0.29248205
40	0xbe3ce65f	-0.18447255
41	0x3e5a201a	0.21301308
42	0x3e81bad3	0.25337848
43	0xbfe7707d	-1.8081204
44	0xbf4ff0b4	-0.8122666
45	0x3ec8159e	0.39078993
46	0x3e02da98	0.127787
47	0x3f2ddfa5	0.6791938
48	0x3e9b8b78	0.30379844
49	0xbe543d74	-0.20726568
50	0xbd9c56cf	-0.07633745
51	0x3fa422e4	1.2823148
52	0xbf58661b	-0.845308
53	0x3ede268e	0.4338879
54	0x3e35690e	0.17715856
55	0xbe78c0f9	-0.24292363
56	0x3e76b618	0.24092901
57	0xbf217a64	-0.6307738
58	0xbf317f89	-0.6933523
59	0xbf04f6ca	-0.5193907
60	0x3dd77a63	0.1052139
61	0xbcd45cbe	-0.02592313
62	0xbf5adf4d	-0.8549698
63	0x3fdb4110	1.712923

encoder_variable_selection.single_variable_grns.Cases.fc1.bias f4 [8]
0	0xbee2fd46	-0.44333857
1	0xbebfd2b8	-0.37465453
2	0x3cd437e8	0.025905564
3	0xbecf58bb	-0.40497383
4	0xbe541734	-0.20711976
5	0xbe5675eb	-0.2094342
6	0xbee2d66c	-0.44304216
7	0xbda423c7	-0.080146365

encoder_variable_selection.single_variable_grns.Cases.fc2.weight f4 [8, 8]
0	0xbbe9312a	-0.0071164565
1	0x3f929d3b	1.1454233
2	0xbd896581	-0.067088135
3	0xbd328a2c	-0.043588802
4	0x3ea041a0	0.31300068
5	0xbd9c4e53	-0.07632127
6	0x3ef11221	0.47084144
7	0x3e096939	0.13419046
8	0xbead1f49	-0.3381293
9	0x3e04273d	0.12905593
10	0x3e1aab98	0.1510452
11	0xbd1c1635	-0.038107116
12	0x3d7fe365	0.06247272
13	0x3d9de032	0.077087775
14	0xbd9128f8	-0.07087892
15	0xbf7ae4bc	-0.9800527
16	0x3e4b7405	0.19868477
17	0xbf211a5d	-0.6293085
18	0xbf3cc90e	-0.73744285
19	0xbb3413c0	-0.0027477592
20	0x3e46a4af	0.1939876
21	0xbd6f9488	-0.05849126
22	0x3dce2c06	0.100669906
23	0x3f861657	1.0475568
24	0xbed93753	-0.42425022
25	0xbf4ace4a	-0.7922102
26	0xbec3ceba	-0.38243657
27	0xbf163579	-0.5867534
28	0x3ef177d4	0.47161734
29	0xbf3c2dc7	-0.7350735
30	0xbe7423a1	-0.23841716
31	0xbe20670a	-0.15664306
32	0x3f0df0ce	0.55445564
33	0x3f353112	0.70778
34	0x3dc77558	0.097391784
35	0x3d9495a0	0.07255101
36	0x3d845c39	0.064629026
37	0xbe3840de	-0.17993495
38	0x3db13be5	0.08654002
39	0x3f357a37	0.7088961
40	0x3eafc120	0.3432703
41	0x3e087c41	0.13328649
42	0x3f403594	0.75081754
43	0x3e11cb6d	0.14237757
44	0xbca6e09a	-0.02037077
45	0x3e24518c	0.16046733
46	0x3da38936	0.07985155
47	0x3ed7f63e	0.42180055
48	0xbf3bead6	-0.73405206
49	0xbf374204	-0.71585107
50	0xbecfe0e4	-0.40601265
51	0x3ed5ad09	0.41733578
52	0xbd84dc36	-0.064873144
53	0xbeae1528	-0.34000516
54	0x3eb22a9e	0.3479814
55	0xbe962496	-0.29324788
56	0x3ed71e38	0.42015243
57	0x3f63a3cb	0.88921803
58	0x3dbd816f	0.09253203
59	0xbd487434	-0.048938945
60	0x3db55cdf	0.088556044
61	0x3d2e79e9	0.04259673
62	0xbe7bf534	-0.24605256
63	0x3ea2e93d	0.31818572

encoder_variable_selection.single_variable_grns.Cases.fc2.bias f4 [8]
0	0x3bfc9627	0.0077083292
1	0x3e9d52ee	0.30727333
2	0xbd2a96e8	-0.04164782
3	0x3da4aa0b	0.080402456
4	0x3d38b27c	0.04509209
5	0xbd1e8eff	-0.03871059
6	0x3df942d8	0.121709526
7	0xbe0722f5	-0.13196929
