race-groups/results/AIAN/checkpoints/best-epoch=0.ckpt (torch, 735533 bytes, 506 tensors)

prescalers.AIAN.weight f4 [8, 1]
00000000: c19a 30be c6e0 28bf 26e4 153f eb8f 363f
00000010: 6662 8ebf 83ad 903e cf65 81bf dc53 133f
-0.17246534 -0.6596798 0.5855125 0.7131335 -1.1123779 0.2825738 -1.0109195 0.57549834

prescalers.AIAN.bias f4 [8]
00000000: 88ec 53be 196c 173f 50f8 013f c393 6d3d
00000010: c2e2 a1be 8a78 fbbe e94b 0dbe b8ac 06be
-0.20695698 0.5914932 0.5076952 0.058002245 -0.31618315 -0.49115402 -0.13798489 -0.13151824

prescalers.SinWeekly.weight f4 [8, 1]
00000000: f110 113d 6827 8dbf f385 833f cf86 71bf
00000010: ca53 3c3f 9b26 0bbe 264f 303f b8f5 053f
0.035416547 -1.1027651 1.0275253 -0.94346327 0.7356535 -0.13588946 0.6887077 0.5232806

prescalers.SinWeekly.bias f4 [8]
00000000: b0f9 1e3e 64a8 053d fb9f 2d3f 50d9 643e
00000010: 21cd 113f 5ec4 31bf 58a6 383f 4ee2 a33e
0.15524936 0.032631293 0.67822236 0.22348523 0.56953627 -0.6944026 0.7212882 0.32008594

prescalers.VaccinationFull.weight f4 [8, 1]
00000000: e7fa 903e 94b3 b5bd add2 193f 6074 3f3f
00000010: e752 b9be 1ef0 10bf 3e3b 7fbe 4ae7 1fbf
0.28316423 -0.088721424 0.6008709 0.7478695 -0.36196062 -0.5661639 -0.24924943 -0.62462294

prescalers.VaccinationFull.bias f4 [8]
00000000: 51ac 2b3f 3715 cfbe 63ed b3be ca23 833f
00000010: 1669 433f c4c5 86bd d733 97be 423c f5bc
0.6705981 -0.40445873 -0.3514205 1.0245297 0.76332223 -0.065806895 -0.29531738 -0.02993596

prescalers.Cases.weight f4 [8, 1]
00000000: 8443 243f 6d47 94bf d1ef 63bf ae1d 353f
00000010: 2db6 a63f 0660 d1bb 498a 2bbf e307 bf3e
0.6416552 -1.1584297 -0.89037806 0.7074841 1.3024346 -0.0063896207 -0.6700788 0.37310705

prescalers.Cases.bias f4 [8]
00000000: c510 1ebf e7f8 49bd 1f53 e13e 3afb b33e
00000010: 3bcd 7e3c c0b3 623a 4565 873e a747 64bf
-0.6174434 -0.049309637 0.4400873 0.35152608 0.01555186 0.00086480007 0.2644445 -0.8917183

static_variable_selection.single_variable_grns.AIAN.resample_norm.mask f4 [16]
00000000: 8476 47be 54fb 09be 9906 e1bc cbd5 8fbb
00000010: 1eaa d8bd 4f16 89bd 276a 8e3e 89df b3bd
00000020: 27e4 903d ebbc f73d 2103 a1bd 4e6c e83d
00000030: 46ee 4bbe 0297 3e3f 6614 00be eb58 7dbd
-0.19478804 -0.1347478 -0.027468966 -0.0043895 -0.10579322 -0.06693708 0.27815363 -0.0878287
0.070747666 0.1209658 -0.07861925 0.113487825 -0.19915113 0.7444917 -0.12507781 -0.061852377

static_variable_selection.single_variable_grns.AIAN.resample_norm.norm.weight f4 [16]
00000000: 89a8 543f f69e 673f 51d7 873f 4705 863f
00000010: 7bab 733f 5b83 753f 83f6 b53f 43e5 5d3f
00000020: c4d8 843f 33eb 8b3f 5e67 7b3f 5749 973f
00000030: 0c5b 593f 80ab ce3f f9ec 6c3f 9ae5 7e3f
0.83069664 0.9047693 1.0612584 1.047036 0.95183533 0.9590356 1.4215854 0.8667795
1.0378652 1.0931152 0.982046 1.1819257 0.8490455 1.6146088 0.9254909 0.99569094

static_variable_selection.single_variable_grns.AIAN.resample_norm.norm.bias f4 [16]
00000000: 89ca 0f3e b8ce 69bd 7d41 b43d d7f5 6f3d
00000010: c8b6 33bd 0fa7 83bc 7e68 3bbd 107e 53bd
00000020: d8d7 c83c e542 a43c 23c0 3938 3c3a 31be
00000030: a1ff fe3d 240d a6bd 6c3d 543d 015a b93d
0.14042105 -0.057081908 0.088015534 0.05858406 -0.043875486 -0.01607087 -0.04575395 -0.051633894
0.024516985 0.020051429 4.428638e-05 -0.17307371 0.12451101 -0.08107975 0.05181639 0.0905037

static_variable_selection.single_variable_grns.AIAN.fc1.weight f4 [8, 8]
00000000: ec35 e13e e98a 08bf 0a4f 27bf e67b 6dbf
00000010: 9a48 e13d 1e7c adbf fd5c 643f d999 02bf
00000020: b337 2ebf 4644 61bf 49be e6bd beec 493f
00000030: bb98 c7be 6269 dfbe 3f4c e73e 0482 9e3c
00000040: 9726 613e ad48 e23e 5ca1 173f 0883 3dbf
00000050: f65d b93e d0a2 a5be dc86 663f 6ea3 eabe
00000060: 7a0e 31bf 93f2 2fbe 7bdb ee3d 9efe 563e
00000070: 98b9 24bf 571b 0e3e e694 41bf ca70 573f
00000080: 70eb d9be e489 133f 96f9 2dbe 0320 35bf
00000090: 7555 41be 40e9 663f f24a 5b3f d587 07be
000000a0: 572a 9c3e b43c 6cbd 536c 67be 8dec 28be
000000b0: e68b 0c3f 34a9 e1be 03c7 913e efa9 8cbe
000000c0: 0b69 debd 63a7 18bf 6c57 80be 8f96 1dbe
000000d0: 9ec7 073f 08b9 a23f 62d4 523f 8ea1 89be
000000e0: 1730 2dbf 4b1e e0be 09ee 32be cd86 d23d
000000f0: 38d6 683e 6fb4 fabe df75 353f c21f 92bd
0.43986452 -0.5333696 -0.6535498 -0.9276718 0.11000176 -1.3553503 0.8920439 -0.51016
-0.6805374 -0.879948 -0.11266763 0.78876865 -0.38983712 -0.43635088 0.4517536 0.019349106
0.21987377 0.44196072 0.5923059 -0.7402806 0.362045 -0.3235078 0.9004953 -0.45827812
-0.69162714 -0.17182378 0.11662956 0.20995566 -0.64345694 0.13877617 -0.75617826 0.8415648
-0.42562437 0.5763228 -0.1698974 -0.7075197 -0.18880256 0.9019966 0.8566123 -0.1323541
0.30501053 -0.05767508 -0.22599916 -0.16496487 0.5490097 -0.44074404 0.28472146 -0.274734
-0.10859879 -0.5963041 -0.25066698 -0.15389465 0.53038967 1.2712717 0.8235532 -0.2688107
-0.67651504 -0.43773112 -0.17473616 0.102796175 0.22737968 -0.48965785 0.7088298 -0.071349636

static_variable_selection.single_variable_grns.AIAN.fc1.bias f4 [8]
00000000: 9c2f 1fbe 40b4 d03d 6e07 9e3c 0986 533d
00000010: c364 c13d 006d d43c 0433 de3d 13ea 193d
-0.15545505 0.1019063 0.019290652 0.051641498 0.09443047 0.025930882 0.10849574 0.037576746

static_variable_selection.single_variable_grns.AIAN.fc2.weight f4 [8, 8]
00000000: b8dd 3e3e f82e 013f bed4 8f3e 4e05 36bf
00000010: 5f16 0d3f 2646 873d f8a4 3a3f 9fb4 573f
00000020: 0c3f 86be 6c9d 19bf ea23 af3e 02a4 38be
00000030: 829c 993e b313 a93d 98ab 8e3e 6041 823d
00000040: 72d6 d2be 8a99 a83e ccea b9bd b286 8b3e
00000050: e8b7 10bd ef5e dbbe 4a2a b0be 0a45 193f
00000060: 4188 5e3f 7fee 74bd 49b4 0e3f af71 2bbf
00000070: 8ef7 383e 0f2f 653d 8b3e 263f 07d7 0abf
00000080: 2d76 b13e 73be 9dbe 448d 563e abf7 8a3d
00000090: 18da e73e 00fe 493e cba9 093f a2ca d7bd
000000a0: 52b8 b43e 0efe 85be 6e97 e2be ecc8 c5be
000000b0: 1533 0b3f aaa0 ee3d 2e4c 1abf e0bf 0e3e
000000c0: 49da 62bf 2036 e7bb 1b5d 8a3d 68bb d43c
000000d0: 251d 343e 2008 343e a3f6 04bf e966 92be
000000e0: 1a12 8cbe 5fae 223f e1ef 63bf af94 c13e
000000f0: 19e6 a4be aeed d5be 654c b13e 5503 ecbe
0.18639266 0.50462294 0.28091997 -0.71101844 0.5511226 0.06605177 0.7290797 0.8425998
-0.26219976 -0.6000583 0.34207088 -0.18031314 0.30002218 0.082557105 0.2786529 0.063601255
-0.41179234 0.3292964 -0.09077987 0.27251202 -0.035331637 -0.42845866 -0.34407264 0.5987097
0.86926657 -0.05979776 0.55743843 -0.6697034 0.18063185 0.05595308 0.64939183 -0.54234356
0.34660473 -0.30809364 0.20952326 0.0678552 0.4528358 0.197258 0.5377471 -0.10536696
0.35296875 -0.2617039 -0.44256157 -0.38629854 0.5437482 0.11651738 -0.6027249 0.13940382
-0.88614327 -0.0070560127 0.0675604 0.025968269 0.17589243 0.17581224 -0.5193884 -0.2859414
-0.2735756 0.6354732 -0.890379 0.3780875 -0.322068 -0.41782898 0.34628597 -0.46096292

static_variable_selection.single_variable_grns.AIAN.fc2.bias f4 [8]
00000000: 11f4 b83d ce35 003e e83c d33c 1999 88bd
00000010: 8e8a 823c 997d 0cbe 5b79 f23d 7053 57bd
0.09030927 0.12520525 0.025785878 -0.06669826 0.015935209 -0.13719787 0.11839553 -0.052569807

static_variable_selection.single_variable_grns.AIAN.gate_norm.glu.fc.weight f4 [32, 8]
00000000: c303 a1bd 40cc 433e e33c 4cbe 70e0 92bd
00000010: 7f85 873d 0b86 0abd 4f93 eebe 4319 a03d
00000020: db0b 81bd 94c5 023e c5a6 9dbd fa12 cc3e
00000030: 2bf2 b5bc e415 873e b0a9 a6be bc55 adbd
00000040: aac9 963e 6893 a93d 4c2b 06bf 3c42 613e
00000050: 4b87 323e f00d 4bbd a51f d8be a317 a73d
00000060: 71c1 bcbe 7d47 a7bd f1d7 a2be 7f70 a0be
00000070: 4b3d 75bd 6b45 d6be 8b1b 8ebe e64b 973e
00000080: ab1d 4abe 574a 9ebe e5e6 e03e eacd cebe
00000090: c5d1 1fba c5b4 f8be ddb8 b13d b8fe 803e
000000a0: 438d 8b3e 0145 903c 0ad8 a4be 1293 e43a
000000b0: 54d5 2a3e bcef 73be 9283 013e d6a1 653e
000000c0: 190c 8bbe 8e5a 4ebe a6b3 673e 9cb5 0bbe
000000d0: c7f4 88be 9007 39be d18f bf3e ae05 e33e
000000e0: 8e9d 9b3e aaed aa3e 6406 46bd 1162 cd3d
000000f0: 7cf7 883d f013 c93c 133f 1f3d 7453 c03c
00000100: 90ab 7cbe bf73 8fbe 34ea 213e 08f3 463e
00000110: 239a 993e fd35 7d3e 74a5 35bd 5c04 103e
00000120: 5969 183f 9c17 ad3e c4f2 d8be f069 de3e
00000130: 13fe db3e 404d 203e a995 9bbe 289b d9be
00000140: ead6 aabe 280a 01be ad50 c83e 4693 80bd
00000150: a40f 05be b397 efbd bfbf 463e 3d94 8a3c
00000160: 73ae 08be e40c 04be 095f bd3e 8098 06bf
00000170: 812c a3bb 0f03 bbbe 8f3c 063e 2e89 2a3f
00000180: 3f72 dfbd 3216 d13e 2d79 7e3e 00c4 833e
00000190: fe1a 523e e9ed 5f3e be5b a03e 779d ddbc
000001a0: 244f 86be 8aea ef3d 771f b63a 92e9 733e
000001b0: c411 1e3d 97a4 9bbd 5423 a43c 752a 123c
000001c0: 0f48 a1be e870 b73e d2a3 04be 6f2f d43d
000001d0: 3a89 73be 128e 3b3e c6ea 9a3e 7fe0 16bc
000001e0: 49fc 84be f454 183e eed4 59be d7c0 873e
000001f0: d729 103e 78f9 c13e 06af ad3e f9dc e9be
00000200: 94ce bcbd c2ac a1be 7e4b 903e 94b8 9b3e
00000210: b587 af3e 70dc d7be c9cc 7ebe 5055 5a3e
00000220: d017 ae3e 38ee 81be ad05 e8be 3412 2b3d
00000230: c6a6 b93c a7e0 7cbe 7c43 b1bd 56ed 96be
00000240: caf5 b73e fd32 b33c 438a 0cbe 11ab ce3e
00000250: 9a5e d0bc 62c7 e93e 4d97 83bd 6bef 323d
00000260: d61f 0abe 4bc9 773e c6d4 e8bc 2d1f edbe
00000270: a2aa 86be d539 0fbe 88a6 54be 3c3c 243f
00000280: 3cb0 dcbd 4aa0 0abf 507b 543e f18d c5be
00000290: 3b5a 0ebf f41b a8be 8c21 a73d 7a60 d03d
000002a0: bba3 7a3e f4a2 a3bd 9216 653e 851c dbbd
000002b0: 50ac 603d f2db 6a3d 2041 8fbe e51f c33e
000002c0: eeb2 ef3d 419e 053f 1141 cabe 8737 163d
000002d0: 9365 9bbe b086 3abe a421 a93c 1fc4 cebe
000002e0: 70e8 adbe ecc3 183e 202d b43e d8ce 01be
000002f0: 9b2f 61be 948c 1abe 2817 603e 8ba4 d3bd
00000300: 1bc4 8d3d a910 bc3d 7fc6 af3c 1f05 7a3d
00000310: 54f2 ee3e 230c 703e 195b 6dbe 4fb2 1b3f
00000320: 28ff 9cbe ded7 93bd 6cd6 3c3f b3d2 2cbf
00000330: 5106 92be 24db c8be 7ef0 363e 7df9 bd3e
00000340: db47 e83e ea02 0d3d 325a 733c cf30 093e
00000350: 6480 85bd c668 8e3d caa7 80bd a12b 8dbe
00000360: b28f 40bd eb61 283e d9f7 e43d d186 d33e
00000370: dbf6 2a3e 6ef1 0c3f 2b4e 41bd 68e2 d3be
00000380: dab4 e7bd 678e a43d 36f8 bc3e 2c23 abbe
00000390: 8729 29be aac5 193e 2183 af3d 8249 073f
000003a0: 95be 623e 175d 8abe 07c3 dabe babe 0ebe
000003b0: bb63 9b3e 9c87 9a3d 6891 b0bd 605d a93e
000003c0: a27b eb3e ef67 823d b495 5bbd 4483 1bbe
000003d0: 3d3d b63d 2424 c4be 628a 433e 8e3c d03e
000003e0: 2458 e4bc 8dda c6be 6088 d2bd 916f fdbe
000003f0: 5f7b 8738 4a7f c0be f25c 46be f4e2 db3e
-0.078620456 0.19120884 -0.19945101 -0.07171714 0.06617259 -0.03381924 -0.46596763 0.07817318
-0.063010894 0.12770683 -0.076978244 0.39858228 -0.022210201 0.2638389 -0.32551336 -0.08463618
0.29450732 0.08280069 -0.52409816 0.21997923 0.17434423 -0.04957384 -0.42211643 0.08158805
-0.36866334 -0.08167932 -0.31805375 -0.31335828 -0.059872907 -0.41849837 -0.2775539 0.29550093
-0.1973788 -0.30916092 0.4392616 -0.40391475 -0.0006096627 -0.48575416 0.08677838 0.25194335
0.27256212 0.017611029 -0.32196075 0.001743885 0.1668294 -0.2382192 0.12647846 0.22425017
-0.27157667 -0.20151731 0.22627124 -0.13643497 -0.2674925 -0.18069291 0.3741441 0.4434027
0.30393642 0.33384448 -0.04834594 0.1002847 0.06687829 0.02454564 0.03887851 0.023477294
-0.24674821 -0.28017995 0.15811998 0.19428647 0.3000041 0.24727626 -0.04434724 0.14064163
0.5953575 0.33807075 -0.42372715 0.434402 0.4296728 0.15654469 -0.3038762 -0.42501187
-0.3336709 -0.1260153 0.3912405 -0.0627809 -0.12994248 -0.11698856 0.19409083 0.016916389
-0.13347797 -0.12895542 0.3698657 -0.52576447 -0.0049796705 -0.3652577 0.13109039 0.6661557
-0.109104626 0.40837246 0.24850912 0.25735474 0.20518109 0.218681 0.31319994 -0.027052624
-0.26232255 0.11714657 0.0013894875 0.23819569 0.03859116 -0.075997524 0.020036377 0.008921255
-0.3150029 0.35828328 -0.12953117 0.1036061 -0.23782817 0.18315914 0.30257243 -0.0092087975
-0.25973728 0.14876157 -0.21272632 0.26514313 0.1407846 0.37885642 0.33922595 -0.456764
-0.09219089 -0.31577116 0.28182596 0.3041426 0.34283224 -0.42160368 -0.24882807 0.21321607
0.34002542 -0.2537706 -0.4531683 0.041765407 0.022662532 -0.24695073 -0.0865545 -0.29477948
0.3592971 0.021874899 -0.13724618 0.40364888 -0.025435735 0.4565993 -0.06425343 0.043685358
-0.13488707 0.24197881 -0.02842177 -0.46312848 -0.26302058 -0.13986905 -0.20766652 0.6415441
-0.107758015 -0.5415083 0.20750165 -0.38584855 -0.5560643 -0.32833827 0.081606954 0.101746514
0.2447652 -0.07990065 0.22371891 -0.10698799 0.05485183 0.057338662 -0.27979374 0.3811027
0.1170405 0.521946 -0.39502767 0.03667405 -0.30350932 -0.18215442 0.020645924 -0.40384004
-0.33966398 0.14918488 0.35190678 -0.12676561 -0.21990816 -0.15092689 0.21883833 -0.103341185
0.0692217 0.09182865 0.021456955 0.06104004 0.46669257 0.2344213 -0.23179282 0.6081895
-0.3066342 -0.07218908 0.7376468 -0.67509 -0.28520444 -0.3922969 0.17865178 0.37104407
0.4536732 0.034426607 0.014853047 0.13397525 -0.06518629 0.06953578 -0.06282003 -0.2757235
-0.04701204 0.16443603 0.11180086 0.41313794 0.1669573 0.5505589 -0.047193687 -0.41383672
-0.113137916 0.080349736 0.3690812 -0.33425272 -0.16519748 0.15016809 0.08569933 0.5284654
0.22143014 -0.27024147 -0.4272692 -0.13939944 0.30349526 0.07545397 -0.08621484 0.33079052
0.45992762 0.0636748 -0.053609565 -0.15186793 0.08898399 -0.38308823 0.19095758 0.406712
-0.02787406 -0.38838616 -0.10279918 -0.4949918 6.460281e-05 -0.37597114 -0.19371393 0.4294659

static_variable_selection.single_variable_grns.AIAN.gate_norm.glu.fc.bias f4 [32]
00000000: db98 0d3e 1854 9cbd f743 fe3d 8276 033d
00000010: 15c9 8dbc 58ac 383c 3090 6dbd 21f4 27bd
00000020: ccb6 163c 65a5 58bd 8daa 143d 9c79 59be
00000030: 4e33 003e 8880 d6bd 1def f13c 2f3b ab3d
00000040: b413 e4be 592d afbd 137f cabd 1180 9abe
00000050: 691e 5ebd 4801 26be b50d cc3d 0c68 0abe
00000060: cb43 c4be 785e be3b 89f9 1abe 964f 343e
00000070: 9c38 0cbe 6f03 dabe 8c2f 48be 9476 1cbd
0.13827841 -0.07633227 0.12415307 0.03209544 -0.017307797 0.011271559 -0.057998836 -0.041004304
0.009198856 -0.052892108 0.036295462 -0.21237797 0.12519571 -0.10473734 0.029532963 0.08360898
-0.44546282 -0.08553571 -0.09887519 -0.30175832 -0.05422822 -0.16211426 0.09963552 -0.13516253
-0.38332972 0.0058096014 -0.15134253 0.17608485 -0.1369347 -0.42580745 -0.19549388 -0.038199022

static_variable_selection.single_variable_grns.AIAN.gate_norm.add_norm.norm.weight f4 [16]
00000000: fc4c 2e3f eb03 6f3f d6c8 983f e1bc 8f3f
00000010: ddeb 773f c3f6 5a3f f26f af3f 4ae0 353f
00000020: 8823 5d3f cc49 8d3f dce4 723f 4fcf 9b3f
00000030: 9f88 363f ed47 ba3f 8b2b 3c3f a380 6a3f
0.6808622 0.93365353 1.193629 1.1229516 0.96844274 0.8553278 1.3706038 0.7104536
0.8638234 1.1038146 0.9488046 1.217264 0.7130222 1.45532 0.7350394 0.91602534

static_variable_selection.single_variable_grns.AIAN.gate_norm.add_norm.norm.bias f4 [16]
00000000: fc43 213e f3bb 9b3c 4062 8a3e 7281 413e
00000010: f85f e33c 2410 0f3d a485 51bd 1346 00bd
00000020: f505 333d 66ba 433c 4513 f1bc c489 74be
00000030: 534c ce3d f053 22bd 0b43 363d 3ffd 9d3d
0.1574859 0.01901052 0.27028084 0.18897036 0.027755722 0.034927502 -0.05115284 -0.031316828
0.043706853 0.011946296 -0.029428134 -0.23880678 0.100731514 -0.03963083 0.04449753 0.077143185

static_variable_selection.prescalers.AIAN.weight f4 [8, 1]
00000000: c19a 30be c6e0 28bf 26e4 153f eb8f 363f
00000010: 6662 8ebf 83ad 903e cf65 81bf dc53 133f
-0.17246534 -0.6596798 0.5855125 0.7131335 -1.1123779 0.2825738 -1.0109195 0.57549834

static_variable_selection.prescalers.AIAN.bias f4 [8]
00000000: 88ec 53be 196c 173f 50f8 013f c393 6d3d
00000010: c2e2 a1be 8a78 fbbe e94b 0dbe b8ac 06be
-0.20695698 0.5914932 0.5076952 0.058002245 -0.31618315 -0.49115402 -0.13798489 -0.13151824

encoder_variable_selection.flattened_grn.resample_norm.mask f4 [3]
00000000: d02b ddbe ba81 59bd ad46 ac3e
-0.4319749 -0.053102233 0.3364767

encoder_variable_selection.flattened_grn.resample_norm.norm.weight f4 [3]
00000000: 8d34 683f 0402 6e3f 93c9 c63f
0.90705186 0.92971826 1.5530266

encoder_variable_selection.flattened_grn.resample_norm.norm.bias f4 [3]
00000000: e6ac 893e 94cd ebbd 7de2 87be
0.26889724 -0.1151382 -0.26539984

encoder_variable_selection.flattened_grn.fc1.weight f4 [3, 24]
00000000: a811 193f e54c e8be f0e4 963e c408 68be
00000010: 0e5b 443e f9f3 473d e625 82bd 4a48 1bbd
00000020: 5a7f d1be 8d2a 313e 16eb 213e dc24 92bf
00000030: cc45 99bd 53d8 0ebd 2c07 20bc 9e77 15ba
00000040: 385d 093f 5bf2 4abf f5bb 853e 7268 193d
00000050: a444 383e f642 87be a486 9f3d 55ee 9a3e
00000060: e4f9 b53c c263 233e 9670 d6be c152 a3be
00000070: 7ab0 9e3d 67fa 313e f12d b23c 6611 0c3f
00000080: 4b56 c7be 6f41 6f3e 14f4 1dbf 9577 d7be
00000090: 95da 92bc 4768 1f3d d647 fb3d cc20 8c3e
000000a0: 9fcb 713d 8db1 433d 8317 f6be 4494 7dbe
000000b0: d468 7abd 5218 0a3e 966a 87bc e014 f83d
000000c0: 811b c03e 2ba7 1dbf 24ff 963a 0172 2cbe
000000d0: e88c 023f e3af dc3e 35af 1f3d 4e1d 043f
000000e0: 55b9 dabe 739f 9d3e d99e 7e3d e7c3 7a3e
000000f0: fe3b e43d 858a b13d a529 9b3e a746 a33e
00000100: 38ba 023d 9b05 ae3e 7c88 3a3d 61fd 61bd
00000110: 8ada 5abe 3d26 12be f786 c1be d1be 40be
0.59792566 -0.45371166 0.2947154 -0.22659594 0.1917536 0.048816655 -0.06354885 -0.037910737
-0.40917474 0.17301388 0.15812334 -1.1417499 -0.07484016 -0.03487427 -0.009767335 -0.0005701723
0.53657866 -0.79276055 0.26119962 0.037453122 0.17994934 -0.26418275 0.077893525 0.30259958
0.022213884 0.15956023 -0.4188277 -0.31899074 0.07748504 0.17380677 0.021750422 0.5471405
-0.38933024 0.23364805 -0.6170056 -0.4208342 -0.017926494 0.038917806 0.12269561 0.27368772
0.05903208 0.047776747 -0.48064813 -0.2476359 -0.06113513 0.1348584 -0.016530316 0.121133566
0.37520984 -0.61583203 0.001152013 -0.16840364 0.50996256 0.4310294 0.03898545 0.51607215
-0.42719522 0.30785713 0.062163208 0.24488793 0.11144255 0.08668999 0.3030521 0.3188984
0.031915873 0.33988652 0.045540318 -0.05517328 -0.21372429 -0.14272399 -0.37798283 -0.1882279

encoder_variable_selection.flattened_grn.fc1.bias f4 [3]
00000000: f796 d0bd c132 3dbe 4f8f 02be
-0.10185044 -0.18476392 -0.1274998

encoder_variable_selection.flattened_grn.context.weight f4 [3, 16]
00000000: 31ce 8abe 36bd 32be 90a3 77be 2121 15be
00000010: 6eff 5c3e 7be4 6bbe d26b c1bd ab88 8abc
00000020: 26ff 75be 9277 a43d ccfc 78bd f98b dd3d
00000030: 566d 263e 7152 b2bc 9aac 71be e481 92be
00000040: fe16 dd3e e771 eebd 4326 233f 94f9 0cbf
00000050: 08fb 12bf 8a35 3e3f 9fd6 70be f171 0abf
00000060: 8211 843d f5ac 0bbc 1003 d2be ee0b cf3d
00000070: 7ec6 1f3c 841c 23be 27e4 cdbe f8dd efbd
00000080: 4c82 9b3e a435 81bd d72d ec3e 2ccf 88be
00000090: 2335 97be 662a ea3e 45fa ec3c 0879 423e
000000a0: d2ba b9be 55b6 ab3e 7627 b0bc a845 c1ba
000000b0: 48b7 47bc 4e6e 0f3c ed95 7bbc bfd1 ec3e
-0.27110437 -0.1745499 -0.24183488 -0.14563419 0.21581814 -0.23036377 -0.09444393 -0.016910871
-0.24023113 0.08030619 -0.06078796 0.10817713 0.16252646 -0.021767827 -0.23600999 -0.28614724
0.43181604 -0.11642819 0.6373026 -0.55068326 -0.57414293 0.74300444 -0.23519371 -0.5408011
0.06448652 -0.008525123 -0.41017962 0.10109697 0.009751914 -0.15928847 -0.4021313 -0.11712259
0.30372846 -0.06309059 0.46128723 -0.2672056 -0.29532728 0.45735472 0.028927932 0.18991482
-0.36275345 0.33537546 -0.021503191 -0.0014745491 -0.012189694 0.008754326 -0.015355569 0.46253774

encoder_variable_selection.flattened_grn.fc2.weight f4 [3, 3]
00000000: 2a9d 48bf 1b12 a4bf 55fd 21be 2d07 50be
00000010: c2f9 85bf a3f6 e1bd a2da bcbe a7b7 6ebf
00000020: 0ed1 4ebf
-0.78364813 -1.2818025 -0.15819295 -0.20315237 -1.0466845 -0.1103337 -0.36885554 -0.9324898
-0.8078774

encoder_variable_selection.flattened_grn.fc2.bias f4 [3]
00000000: 679b 373e 0842 82bd f8fe 49bd
0.17930375 -0.06360251 -0.049315423

encoder_variable_selection.flattened_grn.gate_norm.glu.fc.weight f4 [6, 3]
00000000: a53d fe3e b080 01be 10c8 363f ce99 ddbd
00000010: f1c4 debe c82b 213f ec09 b6be 53cf 9bbe
00000020: 3523 1bbe fb1c cabe 5631 23bf 23fa 3a3f
00000030: fe80 7f3f 7930 9f3b 26ac d3be 5b29 653f
00000040: 699b cf3e 705c 133f
0.49656406 -0.12646747 0.7139902 -0.108203515 -0.4350963 0.6295743 -0.35554445 -0.30431613
-0.15150149 -0.39475235 -0.63747156 0.7303793 0.998062 0.0048580733 -0.41342276 0.8951623
0.40548256 0.57562923

encoder_variable_selection.flattened_grn.gate_norm.glu.fc.bias f4 [6]
00000000: 8cb5 213e d38e 9dbd 420b c7be aa0d 1abe
00000010: 6f92 e63d 5425 733e
0.15791911 -0.07693257 -0.38875777 -0.15044275 0.11258399 0.23744708

encoder_variable_selection.flattened_grn.gate_norm.add_norm.norm.weight f4 [3]
00000000: 5744 c23e 4334 de3e 900f 873e
0.37942764 0.43399248 0.2637906

encoder_variable_selection.flattened_grn.gate_norm.add_norm.norm.bias f4 [3]
00000000: 23b2 363e 0b31 f2be eff7 0a3f
0.17841391 -0.47303042 0.54284567

encoder_variable_selection.single_variable_grns.SinWeekly.resample_norm.mask f4 [16]
00000000: 49ea e2bd 21bf 7cbd fa63 083e 610a 6cbd
00000010: cb41 9fbe 2677 413d 753b a5bd c2f5 84be
00000020: 8fd6 a2be 4c74 563d 51d3 86be 4f4f 43bb
00000030: d7a8 6bbe 3bbc 803e b990 973e 01aa 883e
-0.110798426 -0.061705712 0.13319388 -0.057627086 -0.31104884 0.04723277 -0.08067981 -0.25968748
-0.3180432 0.052357003 -0.26333097 -0.002980191 -0.23013626 0.25143608 0.29602602 0.26692203

encoder_variable_selection.single_variable_grns.SinWeekly.resample_norm.norm.weight f4 [16]
00000000: 7862 823f 7bd8 553f 7a52 933f 1175 7b3f
00000010: 440f 4e3f 6d33 893f 46c0 793f d771 353f
00000020: ffd0 183f 9533 7e3f 95c7 573f 5ec4 893f
00000030: 820f 713f d6b7 983f c195 b93f 928d 9f3f
1.01863 0.8353345 1.1509545 0.98225504 0.80492043 1.0718819 0.9755901 0.7087683
0.596939 0.9929746 0.84288913 1.0763052 0.9416429 1.1931102 1.4498826 1.2465079

encoder_variable_selection.single_variable_grns.SinWeekly.resample_norm.norm.bias f4 [16]
00000000: 576c 303d 53c2 333c 17b2 20be e7de f7bc
00000010: ab43 5fbe 0632 a43d 8566 3bbe e8b2 22be
00000020: b843 3b3d 61b1 e83c 65bb 113e 3ff2 ff3d
00000030: 2428 94bd 8bd9 863d 31b3 233a 94aa 473d
0.04307207 0.0109716235 -0.15692936 -0.030257655 -0.21803157 0.08017354 -0.18300827 -0.1588856
0.04571888 0.028404893 0.14231642 0.12497377 -0.07234219 0.06584462 0.0006244658 0.04874666

encoder_variable_selection.single_variable_grns.SinWeekly.fc1.weight f4 [8, 8]
00000000: 60e2 823f a26c e4bf 6f03 2abf 1b01 ecbf
00000010: 1497 3abe 1de0 09be 1838 d23e 7033 1f3f
00000020: 15c8 91be d44b ed3e 7702 f6be e97b 46bd
00000030: 0c86 f8be 83ae 423f ab15 2ebf 4057 13bf
00000040: 3171 89be 039e 993d de6e 2ebf 620b ba3e
00000050: 2864 8fbf c6bf ed3e 4f2d 383f 48e1 173c
00000060: a07d ae3e f454 663d c221 a6be 2ee7 fd3d
00000070: daf8 ba3e e924 d73d 67ea a63e 26fa 1d3f
00000080: 5704 26bf fcd9 83be e4f7 943f 1cb2 1ebe
00000090: 126d 213e 531a 463f 0681 113f 530f 73bf
000000a0: 1a74 133f 4692 bcbe ae21 37bf 87a1 59bd
000000b0: 9efb 473e fccb 3ebe 866e 84be aa03 5c3e
000000c0: 4375 8ebf 9aa6 dfbd f402 bfbf ace9 093f
000000d0: ebe9 15bf 3b4d a13d 62e1 89bf c5cc 03bf
000000e0: 63df b13e 95d7 053d 70f3 45bf 6733 823e
000000f0: beb9 463f 3055 ec3e d8d7 3bbe 364e b73e
1.0225334 -1.7845652 -0.6641149 -1.8437837 -0.18221694 -0.13464399 0.4105842 0.6218786
-0.28472963 0.46346915 -0.48048756 -0.048458014 -0.4853977 0.76047534 -0.6800181 -0.5755501
-0.2684417 0.075008415 -0.6813792 0.3633681 -1.120244 0.46435374 0.71944135 0.00927002
0.3408022 0.05623336 -0.3244763 0.1239761 0.36517984 0.10505087 0.3260071 0.6170982
-0.6485037 -0.25752246 1.163815 -0.15497631 0.15764263 0.7738392 0.568375 -0.9494526
0.5759903 -0.36830348 -0.71535766 -0.05313256 0.19529578 -0.18632501 -0.25865573 0.21485773
-1.1129535 -0.109204486 -1.4922776 0.5387218 -0.58560055 0.07876059 -1.0771906 -0.5148433
0.34740743 0.0326763 -0.7732458 0.25429842 0.7762717 0.46158743 -0.18344057 0.35801858

encoder_variable_selection.single_variable_grns.SinWeekly.fc1.bias f4 [8]
00000000: ea55 9ebd 50cb 3c3d abec fb3b bbb3 87bd
00000010: 06be 54bd 8959 1fbe c6ad 27be 6dda 5bbc
-0.077312306 0.04609233 0.007688125 -0.06626078 -0.051939033 -0.15561499 -0.16374883 -0.013418776

encoder_variable_selection.single_variable_grns.SinWeekly.fc2.weight f4 [8, 8]
00000000: eb7c a1bf 607c 0e3e d9dc 97bf 7b87 25bf
00000010: ffe5 22bf 3403 3a3e b7e1 fe3e 3f96 9fbe
00000020: 8272 5fbe 51b3 6cbe 2dbf da3e 163b f73d
00000030: dd64 80be 67b4 ff3e 77c8 333f fe7d 773e
00000040: 4f99 1b3f d98c a6be 1427 943d d5f4 05bf
00000050: afda 1e3f 8d3d 01be 6d95 1d3f 2f64 0c3f
00000060: 6412 893e 88dc 8b3f d830 123f c93f 543e
00000070: 94ad 793d ed0d 27bf 3c82 cb3e 306a e6be
00000080: 6902 9dbf 2ff6 863f 5484 edbe 5255 eabd
00000090: 053c 54be d6d3 053f ec9b b23d 3714 1fbe
000000a0: d388 e73e 2fb8 ffbe 24b4 07bf ad3e a63d
000000b0: 288f 09bf 8215 343d 7c33 b4be 5977 80be
000000c0: af72 f33e a541 a63e a474 2b3e 9f23 903d
000000d0: bd2d 0a3f 92ba adbe bda8 f73e 8f86 923e
000000e0: 9f60 4c3f 39c5 033e 82fe ca3e c907 1c3f
000000f0: 418e 2a3f ed6e 89be e0d0 693f b9c6 16bf
-1.2616247 0.13914633 -1.1864272 -0.6465985 -0.63632196 0.18165284 0.49781582 -0.31169316
-0.21821025 -0.23115279 0.4272398 0.120718166 -0.25076953 0.49942324 0.7022776 0.24169156
0.60780805 -0.32529333 0.07234016 -0.5232671 0.62052435 -0.12621136 0.6155613 0.5484037
0.26771843 1.0926676 0.5710578 0.20727457 0.060956553 -0.65255624 0.39747798 -0.4500289
-1.226636 1.0543879 -0.4639002 -0.11442055 -0.2072602 0.5227636 0.08721146 -0.15535055
0.45221576 -0.49945208 -0.5300925 0.08117423 -0.53734064 0.043965824 -0.3519553 -0.25091055
0.47548434 0.32471958 0.16743714 0.07038044 0.5397604 -0.33931404 0.48370925 0.28618285
0.7983493 0.12868203 0.396473 0.6094938 0.6662331 -0.26842442 0.9133434 -0.58896977

encoder_variable_selection.single_variable_grns.SinWeekly.fc2.bias f4 [8]
00000000: 5a58 4dbd 6ad5 b1bd 5681 25bc 3bb1 2c3e
00000010: 2637 84bc 7d23 c43d 85eb e83d dd06 4dbd
-0.050133087 -0.086832836 -0.010101637 0.16864483 -0.016139578 0.09577081 0.11373047 -0.050055373

encoder_variable_selection.single_variable_grns.SinWeekly.gate_norm.glu.fc.weight f4 [32, 8]
00000000: ca23 863e b61d 313e 0556 07be 9aa1 f43d
00000010: 4445 ebbc 6efc a5be 35cb d5bd 5210 753e
00000020: cd1e 27be 763a 363e 3bab b2bd 5edc 65be
00000030: 0249 1fbd 47bb 463c 0ed8 2d3e 4d61 5dbd
00000040: f416 063f 6ae6 9fbc c999 9c3d 5bdd 5d3e
00000050: 62a9 123f 0259 35be 7a14 80be e43e aabd
00000060: 7b68 1c3e d908 0dbe 5754 13be 6a5e 8abe
00000070: 1157 993e b941 853c 3eeb b5be bae7 443e
00000080: 1bf9 9e3e 0a37 8c3e 6850 cf3e 5724 123f
00000090: 5917 ab3e db9d fcbe 32d6 363f fa23 df3e
000000a0: 69df 373e 1502 a2be 596e aa3d d63c 5d3c
000000b0: 59a7 47be 932b 54be 05a7 8fbe d17d d63d
000000c0: 9dc1 b2bd 769f 89be 2c9c 0cbf 2fbc 58be
000000d0: cc99 c5bd 3fdc 13be fad9 69be ecfa ccbe
000000e0: f0cd cbbe 239f 3fbe 89aa 923e d23c 1dbf
000000f0: fcb1 4fbe 50be 673e 9116 8dbe 8595 d1be
00000100: 1f93 d73e 9bb0 0a3f d6ba 9cbe 0ef0 303f
00000110: dd94 803e ff23 01bf 8d24 343e 537d 453e
00000120: f988 12be f15e e0be 8786 813e b333 8abe
00000130: 03b4 a4be 0f66 4d3e 8cf0 36bb 34f1 233e
00000140: 5193 b03d c9fa 913d 8088 2f3d 854f dd3d
00000150: de2a e23c 45de 7c3e 96ea 8d3e cc66 b93e
00000160: 87f9 133e ce3e 373e 37db 0bbe 6fa0 483e
00000170: b120 053e eb34 14bf acfa e93e 79e8 c73e
00000180: beae ee3e 9996 e93e 8c43 4dbe e3cd f4bc
00000190: 5cf3 cb3e 30ae dcbe 32c1 9abe bf93 c3be
000001a0: f660 ee3e b66b 253c e735 d9be 88d9 86bd
000001b0: f2ba d23e f6f4 aabe 7b43 60bf 7fe3 41bf
000001c0: 4ddc abbe 333c 9ebe c112 ae3e 730c 69be
000001d0: ef25 25be 1c11 7c3e c915 99be 8200 2d3e
000001e0: 1edf 333e 0898 d4be c2ff fcbe 510a bdbd
000001f0: ffcd 26be c84a aabe 50dd 843e 5aa5 2f3d
00000200: 3b72 0c3e f308 943c 0651 7c3e e0b7 e33e
00000210: 99cf b23e abf0 c6be fc4f 823e 54f5 7bbe
00000220: ef17 6a3e a3bf dcbd 0477 c8bd 9a6b 1bbe
00000230: c5a0 e93d b28b 843e 283d f9be 4996 e9be
00000240: 7197 95bd 5894 00bf 34df b2bb e0f1 173e
00000250: a077 99be 33f1 32be d4e9 9b3e fef3 f23e
00000260: 6dbf 9c3e 2483 083e 8f4d de3d 7c87 f9bd
00000270: a155 ddbd 56f6 a5bd cba2 6bbe 03c2 debc
00000280: c519 cc3e e4ef d93e d4d2 07bf f9f3 9a3d
00000290: 342a 953e 935c 9bbe bff4 cd3d 41d9 033e
000002a0: 1c29 fc3c f1f2 833d 1ae4 023e f803 203e
000002b0: 8dcf 8b3d 3525 91be e61b 6a3e b382 00bf
000002c0: 07b0 523e 1f31 733e 9b0b 0fbd b453 92bc
000002d0: 80b5 c83d 32a3 7bbe fe75 533c 967e 7e3e
000002e0: d4c3 853d 4b8e 2a3f 52b4 9e3d 0e8c ed3e
000002f0: 0e55 d53e 629d f3be f08d ddbc 23e7 76bd
00000300: 4c12 8e3e 8b13 7f3e a91e e2be af5f 083e
00000310: d228 de3e c444 53be 29a5 c3be 7ca6 40be
00000320: 2782 35be 8d87 f6bd 618e b53d 0308 093f
00000330: 384b 973d e29f 34bc 886f d0bc 4a28 c33e
00000340: 558a 3b3d 2892 d4bd d060 13bf a411 aa3d
00000350: be35 8b3e 1c0d 343e 8c96 a0be 37f9 98be
00000360: 1508 9b3e 6e4e 523e f287 69bc 8a98 dc3e
00000370: d790 eb3e c257 61be d623 223e 7eb8 ccbc
00000380: 40df d2be dc3c 44be 4130 0a3f 1b5a c5bd
00000390: 61b7 c9bd 4bc9 4f3e f2b1 293f 3f69 103f
000003a0: 88d3 48be 283b 3ebe bd24 c83c 75cd 4abe
000003b0: ae32 0cbe 5ffd ce3e 10e2 993e ec99 ee3e
000003c0: 4842 78be 3bd8 5fbd 904c aabd 849b 1fbd
000003d0: 00b1 8bbe 23fe 63bd 4d82 8a3d a2bb f73d
000003e0: 64ec bf3d 997b a73d 9be5 54be d8cc cfbd
000003f0: d473 2fbe b75d cebd 8bd4 7ebd e609 c6be
0.2619918 0.1729649 -0.13216408 0.119448856 -0.028719552 -0.3241915 -0.10439149 0.23932007
-0.16320343 0.17795739 -0.08724066 -0.22447345 -0.038887985 0.012129611 0.1697695 -0.05404787
0.52378774 -0.01951905 0.0764652 0.21666472 0.5728971 -0.17709735 -0.25015622 -0.08312777
0.15274231 -0.13772906 -0.14387642 -0.27025157 0.2994924 0.01626669 -0.35531038 0.19229022
0.31049427 0.2738574 0.40491033 0.570867 0.3341625 -0.49339184 0.71420586 0.43582135
0.17956318 -0.31642213 0.083218284 0.013503274 -0.19497432 -0.20719747 -0.28057113 0.10473216
-0.08728335 -0.26879472 -0.549258 -0.21165536 -0.09648475 -0.14439486 -0.22837058 -0.40035188
-0.39805555 -0.1871305 0.28645733 -0.6142093 -0.2028274 0.22631192 -0.2755628 -0.40934387
0.42104432 0.5417573 -0.30611295 0.69116294 0.25113574 -0.5044555 0.17592068 0.19286089
-0.14310063 -0.43822435 0.2529795 -0.26992568 -0.32168588 0.20058464 -0.0027914373 0.1600998
0.086218484 0.071279116 0.042854786 0.10806183 0.027608331 0.24694164 0.27718037 0.3621124
0.14450656 0.17895052 -0.13657843 0.1959245 0.13000752 -0.57893246 0.4569906 0.3904455
0.46617693 0.4562271 -0.20045298 -0.02988333 0.39834106 -0.43101645 -0.3022552 -0.3819866
0.4655835 0.010096481 -0.42423937 -0.065844595 0.41158253 -0.33390015 -0.8760297 -0.75737756
-0.33566514 -0.30905303 0.33998683 -0.22758655 -0.16127752 0.24615902 -0.29899433 0.16894725
0.17565581 -0.4152224 -0.49413878 -0.09230483 -0.16289519 -0.3326018 0.25950098 0.0428823
0.1371545 0.018070674 0.24640283 0.44476223 0.3492401 -0.3885549 0.25451648 -0.24605304
0.22860692 -0.10778739 -0.097883254 -0.15177765 0.114076175 0.2588783 -0.4867947 -0.4562247
-0.07304276 -0.50226355 -0.005458737 0.14838362 -0.2997408 -0.17474823 0.30451834 0.47451776
0.30614796 0.13331276 0.10854637 -0.12184045 -0.10807348 -0.081036255 -0.2301132 -0.027192121
0.3986341 0.42565835 -0.53056073 0.07566065 0.2913376 -0.30344066 0.10056447 0.12875845
0.030781321 0.06442822 0.12782326 0.15626514 0.068266965 -0.283487 0.22862205 -0.5019943
0.20574962 0.23749207 -0.034923177 -0.017862178 0.098002434 -0.24573973 0.0129065495 0.24852976
0.06531492 0.6662337 0.07749237 0.46395916 0.41666454 -0.4758101 -0.02704522 -0.060279023
0.27748334 0.24909799 -0.44164017 0.1331775 0.43390518 -0.20631701 -0.38211945 -0.18813509
-0.1772543 -0.12037573 0.08865047 0.5352785 0.07387394 -0.011024447 -0.025443807 0.38116676
0.04578622 -0.103794396 -0.575696 0.08304146 0.2718944 0.17583126 -0.31364858 -0.29877636
0.30279604 0.20537731 -0.014253603 0.43085128 0.46008942 -0.22006133 0.15833983 -0.024990316
-0.4118595 -0.19163841 0.5397988 -0.09636327 -0.0984943 0.20291631 0.6628715 0.5641059
-0.19611943 -0.18577254 0.02443158 -0.19804938 -0.13691208 0.40427682 0.30055285 0.46601808
-0.24244034 -0.054649573 -0.083153844 -0.03896667 -0.27283478 -0.055662286 0.06763134 0.12096335
0.0937126 0.08177871 -0.20790713 -0.10146493 -0.17134029 -0.100764684 -0.062214416 -0.38679427

encoder_variable_selection.single_variable_grns.SinWeekly.gate_norm.glu.fc.bias f4 [32]
00000000: 230b d83d 9d79 e8bc 0f54 67be e7e2 0f3c
00000010: e340 3ebe fec0 5b3c acf2 0bbe f4cb 49be
00000020: 197e d93d ae67 263d 5c87 ce3d aeba 893d
00000030: e35a f9bc 897e 95bc d714 f53c 60df 023d
00000040: 5d0b 5d3c 49ea ecbe b166 233e 2f1d 86be
00000050: 6c54 833e 1b34 a8be 68c1 513c f7fb 453e
00000060: 13ac d53e 2825 5f3e e01b 95be c5c9 70be
00000070: c576 42bd d17c 8c3e 86eb 143e a057 30be
0.10548999 -0.028378302 -0.2259066 0.008782125 -0.1857944 0.013412712 -0.1366679 -0.19706708
0.10619754 0.04062622 0.100844115 0.067250594 -0.030438846 -0.018248813 0.029917164 0.03195131
0.013491479 -0.46272495 0.15957142 -0.2619414 0.25650346 -0.32852253 0.012802459 0.19334398
0.41732845 0.21791518 -0.2912283 -0.23514469 -0.04747655 0.27438977 0.1454297 -0.17220926

encoder_variable_selection.single_variable_grns.SinWeekly.gate_norm.add_norm.norm.weight f4 [16]
00000000: b957 703f e542 1f3f cc31 b73f 08be 813f
00000010: 0318 7b3f 7e76 773f 5462 9c3f be97 743f
00000020: 330b 883f e976 973f 02c6 773f 2256 c33f
00000030: 0c5a 683f 20ba db3f 84ed 9e3f 0835 8b3f
0.93883854 0.6221145 1.4312072 1.0136118 0.98083514 0.9666518 1.2217507 0.9554404
1.0628418 1.1833163 0.9678651 1.5260661 0.907624 1.7166176 1.2416234 1.0875559

encoder_variable_selection.single_variable_grns.SinWeekly.gate_norm.add_norm.norm.bias f4 [16]
00000000: f809 06bd 708b 0c3e 0459 1a3d f27d 073e
00000010: 89e9 03be 0c7d 883d f1b1 e4bd eb21 9abd
00000020: 0283 dc3d 1d3f 31bd 9232 6dbd 0b5e df3d
00000030: bba4 a8bd 2576 32bd 1472 8c3d da95 ba3c
-0.03272435 0.13725066 0.03768255 0.13231638 -0.12882055 0.06664476 -0.11166752 -0.075260006
0.10767175 -0.04327308 -0.057909556 0.10906609 -0.08234545 -0.043569703 0.06857696 0.022776533

encoder_variable_selection.single_variable_grns.VaccinationFull.resample_norm.mask f4 [16]
00000000: 6d50 8c3c 376d e43d 953b 2abd 1f95 7abe
00000010: 7d72 8c3e ca89 90bd 698b 9b3e 8044 8f3e
00000020: bafb ea3d 8828 91be ef48 33be 4d8f 043e
00000030: 9ac9 d1bd e3dd 353e 2faf 80bd fba5 17be
0.017128194 0.111536436 -0.041560728 -0.24470948 0.27431098 -0.07057531 0.303798 0.2798195
0.11473794 -0.28351235 -0.1750829 0.1294529 -0.102435306 0.17760424 -0.062834136 -0.1480941

encoder_variable_selection.single_variable_grns.VaccinationFull.resample_norm.norm.weight f4 [16]
00000000: 94cd 7c3f 1a27 413f 6a41 883f 1841 683f
00000010: fbb1 a73f 0c93 693f 0617 983f eda6 9f3f
00000020: dea4 973f 1094 5b3f 04df 5f3f 7664 863f
00000030: 64bb 793f ebbc 943f 1ac9 143f 05a2 2c3f
0.9875119 0.7545029 1.0644963 0.90724325 1.310119 0.9124 1.1882026 1.2472817
1.1847188 0.857728 0.8744967 1.0499408 0.9755156 1.1620153 0.58119357 0.6743472

encoder_variable_selection.single_variable_grns.VaccinationFull.resample_norm.norm.bias f4 [16]
00000000: 5a3b 353d 65b5 7c3e 1de7 16be 949b 8dbd
00000010: d239 0bbe 5210 f33d 880e e9bd 4f74 663e
00000020: b8a2 813d 003c 44be 594b b3bd 4bf5 b63d
00000030: f749 b7bd 4315 d2bd e1a7 573e 0b57 203d
0.044246055 0.24678572 -0.147366 -0.0691444 -0.13596275 0.11868347 -0.11379725 0.22505306
0.06329864 -0.19163513 -0.08754606 0.08933505 -0.089496545 -0.102579616 0.21060134 0.03914551

encoder_variable_selection.single_variable_grns.VaccinationFull.fc1.weight f4 [8, 8]
00000000: 975f af3e 7799 70bd ca64 16bf 0dae 92be
00000010: 4b84 f73e e5b8 a43d 9b92 01bf f4d0 4ebd
00000020: f0bd 053e 3d2c f8bd d7e3 45bf c124 73bf
00000030: 6704 46bd 6d8c 22be 532e 2e3f f1a9 17be
00000040: 4084 d63d b486 0cbf fbcb 0dbe 4192 5abe
00000050: d810 a8be 9fb7 a83e d34f 69be 6f02 27bf
00000060: bcf0 d0bd 04fd 6abf b827 e1be c811 bb3e
00000070: 96fb 13bf dea9 3e3f 48cb ec3d 657b bb3d
00000080: 91ae 813e 5dcc 0c3f 500c 623e e15a d53e
00000090: cd02 1d3d e664 a83e d41c fd3e 8593 3c3f
000000a0: 7ac9 07be f671 c23e f25b 2d3e d509 9ebd
000000b0: f2a2 aebe 682d 69bf 2034 4fbf e790 ebbf
000000c0: 78bb 0cbf 2e1f 963e 5a7c 4e3e 1f7d 1c3e
000000d0: 6039 7d3f 0129 1dbe bd1e 883e 6e20 173e
000000e0: 8b2a a83e 3ac0 443e 41b4 1dbf 7248 febd
000000f0: eb3d c7be 9ac7 99bf 5bd2 b3be 9373 cdbf
0.34252617 -0.058740105 -0.5874754 -0.28648415 0.4834312 0.08043078 -0.5061433 -0.050492242
0.13060737 -0.12117813 -0.7730078 -0.94977957 -0.048344042 -0.1587388 0.68039435 -0.14810921
0.104744434 -0.5489304 -0.13847344 -0.21344854 -0.3282535 0.32952592 -0.22784357 -0.6523809
-0.102021664 -0.9179232 -0.43975616 0.36537004 -0.57805765 0.74477947 0.1156221 0.09154395
0.25328496 0.54999334 0.2207501 0.41670898 0.03833275 0.3288948 0.49436057 0.73662597
-0.13260451 0.3797757 0.16929606 -0.07716719 -0.34108692 -0.9108491 -0.8093891 -1.8403596
-0.54973555 0.29320663 0.20164624 0.15282105 0.9891567 -0.15347673 0.2658595 0.14758465
0.32844958 0.19213954 -0.6160317 -0.124161616 -0.38914427 -1.2014039 -0.35121426 -1.6050895

encoder_variable_selection.single_variable_grns.VaccinationFull.fc1.bias f4 [8]
00000000: d435 a7bd 9180 d43b fa65 883d 4241 163e
00000010: f401 803c 037f 04be a964 b5bd e3f9 7fbc
-0.08164564 0.006485053 0.066600755 0.14673331 0.015625931 -0.12939076 -0.0885709 -0.0156235425

encoder_variable_selection.single_variable_grns.VaccinationFull.fc2.weight f4 [8, 8]
00000000: 3806 94be 59f5 243b 2357 aebd 4829 14bf
00000010: 8dbc 78bf 8f87 e93e 2746 53bf b295 a53e
00000020: 618b 2c3f 51cf 6dbe c534 6bbe 23e5 c9be
00000030: 7603 adbe bbad 02bf 2f0c 593e 6b70 abbd
00000040: 8660 d3bf bd9e 08be 1136 57bd 5b1a 223f
00000050: 4c93 e1be d817 dc3e 1d89 673e f723 1a3f
00000060: bab1 813e 3134 14bf 07ca a43c cd58 a0be
00000070: 6d08 0d3f fa8e 4bbf c8f9 1bbc 7235 3dbd
00000080: 3c76 cfbe 858e a1be 8552 8f3e 27b6 4cbe
00000090: 973a 583e a9d5 d83e 3fa7 84bf 3afc 653f
000000a0: cbdb d5be 8899 c23d 49f3 393f 0347 c13e
000000b0: 058f 29b9 e437 fb3d d8d9 8ebe 5486 53bf
000000c0: b5c9 503f 29cf 84be 9697 0bbe b6cf 4a3f
000000d0: 55a3 0a3e 3813 23bf 8759 503c 77d7 b53d
000000e0: a00a 5bbe ad0e c33d 412d c43e 64f2 d53e
000000f0: b456 03bf 2aa3 10bf f560 843b 6e48 b9be
-0.28910995 0.0025170653 -0.08512714 -0.5787549 -0.97162706 0.45611235 -0.8252892 0.3234077
0.67400175 -0.23223616 -0.22969349 -0.3943263 -0.33791703 -0.5104634 0.21196054 -0.083710514
-1.6513832 -0.13341804 -0.052541796 0.63321465 -0.4405769 0.4298694 0.22610898 0.6021113
0.25330907 -0.5789214 0.020115865 -0.3131775 0.5509098 -0.7951504 -0.009520002 -0.046193548
-0.40519893 -0.31554046 0.27992645 -0.1999136 0.211161 0.4235051 -1.036354 0.8983799
-0.4176925 0.0950194 0.7263685 0.3774949 -0.00016170375 0.1226652 -0.27900577 -0.82626843
0.8155778 -0.259393 -0.13632044 0.7922319 0.13538869 -0.637012 0.0127166575 0.08878987
-0.21390772 0.095242836 0.38315776 0.41786492 -0.51304173 -0.5649897 0.0040398785 -0.36188072

encoder_variable_selection.single_variable_grns.VaccinationFull.fc2.bias f4 [8]
00000000: 4038 54bd 2911 b0bd 0d83 f93d 3ea1 243d
00000010: 81e7 a73d 4ac2 913d bcc7 3c3e d6e7 c43d
-0.051811457 -0.08597023 0.12183199 0.040192835 0.08198453 0.07117136 0.18435568 0.09614532

encoder_variable_selection.single_variable_grns.VaccinationFull.gate_norm.glu.fc.weight f4 [32, 8]
00000000: d0f3 3b3e fa0c 95bd 41bd 123f 4026 303d
00000010: d37b 23be 9516 a63d 50f2 19be 4e19 abbe
00000020: d19a f6be 1d77 803e 1239 0cbf b701 c43d
00000030: f5a6 363e b112 babd 2cc1 643e e959 87be
00000040: d0dc 08be cdc6 813e 258b 073e c9e7 653e
00000050: e194 3fbe 4457 943e 51a2 d6be 4c3c cf3e
00000060: 8801 64bf d19c 9f3e e3e7 b8be 2d1b 623f
00000070: 6cb8 2dbf bdbf 4b3f 81c0 ce3e 7e0f 2d3f
00000080: 9bd5 c73e 5b5a 71be 5c19 ac3e 282d 0fbf
00000090: 8029 d93e eff1 c5bd 39a7 cebe 21ac 4fbd
000000a0: 312f 6f3e cd7b a33e f493 4b3e 3ff2 84be
000000b0: 8130 35be e1d5 8a3e b7d3 b13a 1c42 ff3d
000000c0: 43aa 1b3d 636d ec3d ce63 cf3d 3cc1 78be
000000d0: e36c ed3d 30d8 4abd 847f 1b3e 7e67 69bd
000000e0: 5ff3 b0be 5205 813e 706d 03be 1814 e7bd
000000f0: ad0a b03e bf4e e5bd b7e6 c73e e4db afbe
00000100: f5e0 8cbe 3eae c43e 2dfc 7ebe 49e1 26bd
00000110: 1d6d e7be bd1b aa3e a28b 4f3e 41f1 ce3e
00000120: ed22 403e f35e a5bd de2a 833e 4e42 81be
00000130: 789c 08be 3697 81be 663d 00bf 91ac b3be
00000140: ad28 8f3d 6b61 9abe 539d 963e c5aa 06bf
00000150: 6f42 a13e a79d 1bbe bd39 20be 0dbf 5ebd
00000160: e23d 87be b74f bfbe bde8 84bc 1082 cd3d
00000170: c80f be3d 4869 403d 8026 20be 10cc 653e
00000180: d5d0 2cbe 7b7b 913e f8ab 6abe 7d1b bebe
00000190: ffb9 b0bc e6af 05be b395 a0be 47dd 1bbe
000001a0: e238 073f 3679 eebe 4f27 203e c0fe f93d
000001b0: 6ace ad3e 2527 c23d 38bd 3fbe 190a c8be
000001c0: 02f3 debe 1dd2 f33e 0340 a8be 2d17 8b3e
000001d0: 6d7d ccbe e787 893e 0b24 2e3e 0a66 963e
000001e0: 02ea 3abe 3f43 c8bc 2fb7 5f3e c254 24be
000001f0: 3537 603e f52a 10be e01d 863e 6804 2cbe
00000200: bd37 913e f49c 09bf 5fd2 d43e 2260 09bd
00000210: 4937 853d 4456 af3e 6f4c dcbe 2a1a eabe
00000220: b0f5 62bd cbb7 03be b9b2 9d3e 6bb1 233d
00000230: 02ae 2ebd 4961 2e3e 7c89 57be 6265 163e
00000240: 1fa0 fa3e 7465 0c3e 130c f33e 0205 1c3e
00000250: 137f 123f 44bc 993d 9895 babd 81fd 56bd
00000260: 601e 843e f61a 8cbc 0a99 733e 20de 223d
00000270: c014 e5bc da09 35be 5c21 ecbe ee08 41be
00000280: 73f3 88be 3161 6d3d ae94 783c d793 013f
00000290: fb6c 20bd b80b 373e 5379 913e 3e79 7c3e
000002a0: 45ac 893d 684d a63c 8197 bc3e f162 7d3e
000002b0: b978 92be 728d cb3e 6d7d 2bbf e326 993d
000002c0: b25d 9c3e a71c ab3e e8ce 1ebe 9251 f83d
000002d0: 2f96 8ebd 4e0c c63e 0c1c 19bf 6acb 563e
000002e0: 328b 87be 747d 1a3e 921d 603e db5a 8f3e
000002f0: cbf7 7abe ccc3 36be 8863 d1be fe46 b73c
00000300: c6f6 793d b88a a43d 596b d63c 4e14 95bd
00000310: 088e 9dbe 03ac 653d 11d2 d53e 5d87 9cbd
00000320: a9eb 693e 77d0 75be 7bec a13e 190b b7bd
00000330: d4f3 623e c8e3 1f3d 4f41 dfbd 771e 3c3e
00000340: 5d94 d4bb 0434 a9bd 7fda aa3e 445f 60be
00000350: 99fe 253e 4b01 bfbe d14a 11bd a74a 36be
00000360: c6c8 803e f8ba 963e c3cd 883e 902c ae3c
00000370: 7eef 52be dafb 353e e00c 42be 36d5 ebbe
00000380: bd2e d13e 138b ac3e 5949 73be 754a 9d3e
00000390: 12fd c33d d48b 983e 692c 0abf a796 ab3d
000003a0: 4e7b 55bd 1de3 d3be 485c 0fbe aea8 a9be
000003b0: 890c 8a3e f9f6 55be 5b94 49be 5826 34be
000003c0: 694d fc3e 6980 3abe d606 0b3d cf4f 583d
000003d0: 7779 78bc 70a6 00bf dbd1 cbbd 1ad9 fabe
000003e0: 04e6 aabe 384a b73e 7d8e 4d3e c56c 853e
000003f0: 5d7a 82be b115 7ebe e8b7 163f d2a3 46be
0.18354726 -0.07277866 0.5732003 0.043005228 -0.15965204 0.08109776 -0.15033841 -0.33417743
-0.4816499 0.25090876 -0.5477458 0.095706396 0.17837127 -0.09085596 0.22339314 -0.26435784
-0.13365483 0.25346985 0.13236673 0.224517 -0.18709137 0.28972828 -0.41920713 0.4047569
-0.89064837 0.3117433 -0.36114416 0.88322717 -0.6785953 0.79589444 0.40381244 0.67601764
0.39030156 -0.23569624 0.33613098 -0.5592828 0.42414474 -0.09665286 -0.40361956 -0.050701264
0.23357846 0.3193039 0.19880658 -0.2596607 -0.17694284 0.27116302 0.0013567124 0.12463781
0.03800417 0.11544301 0.10126458 -0.24292463 0.11593034 -0.04952258 0.15185362 -0.056983463
-0.34560677 0.25199372 -0.12834716 -0.112831295 0.34383145 -0.1119666 0.3904321 -0.3434745
-0.2751538 0.38414186 -0.24900885 -0.040742192 -0.45200434 0.33224288 0.2026811 0.40418437
0.18763323 -0.08074751 0.25618643 -0.252459 -0.13340938 -0.25310677 -0.50093687 -0.35092595
0.0699018 -0.3015245 0.29416904 -0.52604324 0.31495997 -0.15196858 -0.15647025 -0.05438142
-0.264144 -0.37365505 -0.01622426 0.10034573 0.09280354 0.046975404 -0.15639687 0.22441125
-0.16876538 0.2841452 -0.22917163 -0.37130347 -0.021573065 -0.13055381 -0.3136421 -0.1522113
0.5282117 -0.46576852 0.15639995 0.12206793 0.33946544 0.094801225 -0.18724525 -0.39070204
-0.43544775 0.4762124 -0.32861337 0.2716612 -0.39939442 0.26861498 0.17005937 0.29374725
-0.1825333 -0.024446128 0.21847223 -0.16047958 0.2189606 -0.14078887 0.26194668 -0.16798556
0.28362837 -0.53755116 0.4156675 -0.033538945 0.065046854 0.34245503 -0.43027064 -0.45723087
-0.055410087 -0.1286308 0.30800417 0.03996412 -0.042646416 0.17029299 -0.2104854 0.14687112
0.48950288 0.13710576 0.4747015 0.15236285 0.5722515 0.07506612 -0.09110564 -0.052487854
0.25804424 -0.0171027 0.23788849 0.039762616 -0.027963996 -0.1767954 -0.461192 -0.18851063
-0.26748237 0.057954017 0.015172167 0.5061621 -0.039166432 0.17875564 0.28412876 0.24655625
0.06722311 0.020300582 0.36834338 0.24744774 -0.2860773 0.39756352 -0.6698826 0.0747812
0.30540234 0.33420298 -0.15508616 0.12124933 -0.06962239 0.38681263 -0.5980842 0.20976034
-0.26473385 0.15086919 0.2188628 0.27999005 -0.24508588 -0.17848128 -0.4089625 0.022372719
0.061026357 0.08034271 0.026174234 -0.072792634 -0.30772424 0.056072246 0.4176183 -0.07643006
0.22843803 -0.24005304 0.31625733 -0.089376636 0.22163326 0.03903559 -0.109011285 0.18370996
-0.006487413 -0.08261874 0.33369824 -0.21911341 0.16210403 -0.37305674 -0.03547174 -0.17801915
0.25153178 0.2943952 0.26719484 0.021261483 -0.20599172 0.17771855 -0.18950224 -0.46061105
0.4085597 0.33699855 -0.23758449 0.3072087 0.09569754 0.2979418 -0.53974015 0.08378344
-0.052119546 -0.4138421 -0.14000046 -0.33136505 0.2696269 -0.20894994 -0.196855 -0.17592752
0.4927781 -0.18213047 0.033942066 0.052810486 -0.015165678 -0.50253963 -0.09952136 -0.4899376
-0.33378613 0.35798812 0.20073886 0.26059547 -0.2548398 -0.24812962 0.5887437 -0.1939843

encoder_variable_selection.single_variable_grns.VaccinationFull.gate_norm.glu.fc.bias f4 [32]
00000000: 9b35 e83d 4fd6 473e 2c91 50be 0a40 65be
00000010: f0a1 2abe 0eec b33d 981f 3abe d50f 333e
00000020: d12c 0f3e d338 6ebe 1f90 16bc 4f40 943d
00000030: 6de8 a4bd 4f2c a7bc 141f c63d 96f7 a3bc
00000040: 13db 82be 6b36 c93d bc9b a93e 6eb5 373d
00000050: ae52 ce3e f423 28bf 0246 bebe bc49 14be
00000060: 237b a73e 4965 8dbe 34e4 afbd 5b03 b7be
00000070: d9a0 f7be 4352 613d 1064 09be af99 d63d
0.113383494 0.19515346 -0.20367879 -0.2238771 -0.16663337 0.08785258 -0.18176115 0.17486508
0.1398194 -0.23263864 -0.009189635 0.072388284 -0.08052144 -0.02040687 0.096738964 -0.02001552
-0.25557765 0.098248325 0.33126628 0.04485076 0.40297455 -0.6567986 -0.37162787 -0.14481252
0.32711133 -0.27616337 -0.08588448 -0.35744748 -0.48364905 0.05501009 -0.13417077 0.104785316

encoder_variable_selection.single_variable_grns.VaccinationFull.gate_norm.add_norm.norm.weight f4 [16]
00000000: cdb5 193f 7c0e 553f d013 393f a360 553f
00000010: e340 803f abcb 4e3f 28f3 543f db82 523f
00000020: 7c36 743f bb3a 3b3f 82d4 673f 4c6e 553f
00000030: 7dc6 333f 9248 8a3f acd6 403f ee2f 433e
0.6004303 0.83225226 0.72295856 0.8335058 1.0019802 0.8077952 0.83183527 0.8223092
0.95395637 0.7313649 0.90558636 0.83371425 0.70224744 1.0803397 0.75327563 0.19061252

encoder_variable_selection.single_variable_grns.VaccinationFull.gate_norm.add_norm.norm.bias f4 [16]
00000000: 9c70 0f3d c357 3c3e 1fda 253e 945c 273e
00000010: 6938 afbc 3df9 933d f53f c5bd 80e4 7abd
00000020: 58b9 9cbd effa abbd a324 eabc 43f7 163e
00000030: 85ca 83bd 0073 633d 9df2 923d 86d6 c53c
0.035019502 0.18392853 0.16196488 0.1634391 -0.021389203 0.07225273 -0.096313395 -0.06125307
-0.07652539 -0.08397471 -0.028581923 0.1474276 -0.06435112 0.055529594 0.07175181 0.024150144

encoder_variable_selection.single_variable_grns.Cases.resample_norm.mask f4 [16]
00000000: d613 473e 1502 a13d d21c 31bf ad82 9d3c
00000010: f52a 073d 7d12 873e a6ac eabe 46b4 0fbd
00000020: f25d 94be 3a88 dc3e ba7c e33e 287b 9d3d
00000030: 7eed 13bf 934f edbe 8258 cc3d 3f9b 60bc
0.1944116 0.07861725 -0.691846 0.01922735 0.03299995 0.26381293 -0.45834845 -0.03508403
-0.28977925 0.43072683 0.44431096 0.07689506 -0.5778426 -0.46349773 0.09977819 -0.013708889

encoder_variable_selection.single_variable_grns.Cases.resample_norm.norm.weight f4 [16]
00000000: 373c 9a3f c7a2 9e3f 48c5 cc3e bf4f 7c3f
00000010: a56c 813f ca6c a83f bb96 6d3f 9618 883f
00000020: aa49 563f 5811 b63f ff47 b83f 1d26 933f
00000030: ec9b e53e 3abe 1a3f f97f 9b3f 637f 903f
1.2049626 1.2393426 0.39994264 0.9855918 1.0111281 1.31582 0.9280812 1.0632503
0.8370615 1.4224043 1.4396971 1.1496006 0.4484552 0.6044651 1.2148429 1.1288875

encoder_variable_selection.single_variable_grns.Cases.resample_norm.norm.bias f4 [16]
00000000: 410d 683e a61f babc ada4 9ebe 8fc6 55be
00000010: cc2e 09be dbf1 debc 550a 73be 8bd3 d93c
00000020: 7899 883d b098 203e 6772 08bd 2b7a cb3d
00000030: 66b3 0ebd 494d 073e 536c 3e3d 38c0 713d
0.22661306 -0.02272017 -0.30985013 -0.20876525 -0.13396758 -0.027214935 -0.2373441 0.02659013
0.06669897 0.15683246 -0.033312228 0.09935411 -0.034839056 0.13213076 0.046490025 0.059021205

encoder_variable_selection.single_variable_grns.Cases.fc1.weight f4 [8, 8]
00000000: d8bb c33b 2729 b53f 69db 1e3e c860 c4be
00000010: 3ea4 f2be 70c1 dd3e d117 89be ceed 0abf
00000020: c114 0e3f 4f84 e13e 398e 8cbe cb98 debf
00000030: a06a 87bf ea60 893e 82bf fe3d 22cb cfbd
00000040: 0567 963f 25c6 d53d 3a46 22bd 340f 49bd
00000050: 3c55 adbd a2ac f6bb f4d7 61bf bb4d 2f3f
00000060: 9282 06bf 98c9 26be dc4f 3d3f fd39 fb3e
00000070: e182 563f ee4e 553d 4e75 063e 5663 133f
00000080: 7e6c cebd a98e c4be 4373 1c3d 824b 9b3e
00000090: 49f4 b43e 9a4f 893e 4242 873c cf71 c73e
000000a0: 66a5 02be 300e 293d da37 1d3e 61ee 65bf
000000b0: 929b 1bbf cc9c 133f a218 283d bfdd 283f
000000c0: 3dc3 463e 06b0 c33d 64d2 b73d a821 873f
000000d0: 494f 90bf 1fed f13c c665 d23e f83c cabe
000000e0: 4ece 28bd 83ff 07bf da43 0bbf 7b51 25bf
000000f0: 252c e5bc 4648 ccbe 034b 52bf df25 be3f
0.0059733205 1.4153184 0.15513386 -0.38355088 -0.47390932 0.43311644 -0.26775983 -0.5426911
0.5550042 0.44046256 -0.27452257 -1.7390379 -1.0579414 0.26831752 0.12438871 -0.101461664
1.1750189 0.10438184 -0.039617755 -0.049086764 -0.08463523 -0.0075279037 -0.88220143 0.6847798
-0.52542984 -0.1628784 0.7394998 0.4906768 0.83793455 0.052077226 0.13130686 0.5757345
-0.10079287 -0.3839009 0.03819586 0.30331045 0.35342625 0.26818544 0.016511086 0.38954017
-0.12758407 0.041273296 0.15353337 -0.8981686 -0.60784256 0.5766113 0.041039117 0.6596336
0.19410415 0.09555058 0.08975676 1.0557146 -1.1274196 0.029532013 0.41093272 -0.3949964
-0.041212372 -0.53124255 -0.5440041 -0.64577454 -0.027975151 -0.3989889 -0.8214571 1.4855307

encoder_variable_selection.single_variable_grns.Cases.fc1.bias f4 [8]
00000000: 0c6a 79be aaff 65be 6388 e63c 773f 1ebd
00000010: 2049 90bc 9567 a9bd a06f 7ebe d95b a2ba
-0.2435686 -0.2246081 0.028141206 -0.038634744 -0.017612994 -0.0827171 -0.24847269 -0.0012386992

encoder_variable_selection.single_variable_grns.Cases.fc2.weight f4 [8, 8]
00000000: ab16 05be ca37 403f 6cca 78be 7f3c ddbe
00000010: cde6 8b3e b479 42be d230 683f 9895 56be
00000020: ca55 8abe fffb 133e 7a2c 05be c965 2fbf
00000030: 4e43 3b3e 7ca7 753e deac 643d 2b43 b2bf
00000040: 8973 fbbb e2f6 97be fb34 70bf aa49 3b3e
00000050: a353 f73e 70c2 11be 944d 04bf 4dcd 543f
00000060: c93d 5bbe cf3d 0dbf 6d8a dbbe 4cfe 6bbf
00000070: 4f14 283f 39a6 48bf 7e00 debe 10c9 abbc
00000080: ba95 0e3f e5af 363f ac5d 3a3e db7e cc3e
00000090: 7de5 6c3e 0521 f6bc 53a4 ae3e 107b 283f
000000a0: f4a3 423e 3cf1 d2bc 8640 843f 49a4 3e3f
000000b0: 76b3 94be 7e8f 273c d6dc 71bd 7e1b 083f
000000c0: e2b3 50bf c4a4 58bf 33bb f5be 5d61 da3e
000000d0: ec8a 243c 4eeb 18bf 80cb b93e 0615 86be
000000e0: 7ee3 d53e bcc3 343f 9cc1 6ebd a50a 98be
000000f0: aa89 30bd bc49 e73d da24 58bd 76b3 48bd
-0.12996928 0.7508513 -0.24295968 -0.43210217 0.27324525 -0.18991739 0.90699494 -0.20955503
-0.27018577 0.14451598 -0.13005248 -0.68514687 0.18287393 0.23989671 0.05582892 -1.3926748
-0.007673685 -0.29680544 -0.9383084 0.1828982 0.48305997 -0.14234328 -0.51680875 0.83125764
-0.21410288 -0.5517244 -0.42879048 -0.921849 0.6565599 -0.78378636 -0.4335975 -0.020969898
0.55697215 0.71362144 0.18199795 0.39940533 0.23134418 -0.030045042 0.34109744 0.6581278
0.19007856 -0.025749795 1.0332191 0.7446943 -0.29043168 0.010227082 -0.059048496 0.5316695
-0.8152448 -0.8462641 -0.47994384 0.42652407 0.010042887 -0.59734046 0.3628807 -0.26187915
0.41775125 0.70611167 -0.05829011 -0.2969562 -0.043100037 0.112933606 -0.05276952 -0.048999272

encoder_variable_selection.single_variable_grns.Cases.fc2.bias f4 [8]
00000000: 53bc 0dbe 4e84 8d3c 9df1 903c 941d 543e
00000010: 296b 98bd c57d cd3d b9fa ea3c 41fb 91bd
-0.13841371 0.017275002 0.017693335 0.20714408 -0.07442314 0.10033754 0.028684007 -0.07128001
