race-groups/results/AIAN/checkpoints/latest-epoch=3.ckpt (torch, 735725 bytes, 506 tensors)

prescalers.AIAN.weight f4 [8, 1]
-0.7310925 -0.7657147 1.0727427 1.1506668 -1.6936176 0.51743853 -1.4392229 0.9809101
00000000: e128 3bbf e105 44bf a24f 893f 0d49 933f
00000010: 76c8 d8bf da76 043f 7538 b8bf ed1c 7b3f

prescalers.AIAN.bias f4 [8]
-0.15450159 0.15206525 0.36477143 0.049529776 -0.24954076 -0.25014982 -0.090808176 -0.1621963
00000000: aa35 1ebe feb6 1b3e 52c3 ba3e bcdf 4a3d
00000010: 9d87 7fbe a313 80be a3f9 b9bd c916 26be

prescalers.SinWeekly.weight f4 [8, 1]
-0.0153744845 -1.2979769 1.0416859 -1.0160149 0.65844506 -0.18054588 0.75661665 0.55016214
00000000: 43e5 7bbc 1b24 a6bf f755 853f c70c 82bf
00000010: db8f 283f 05e1 38be a1b1 413f 6dd7 0c3f

prescalers.SinWeekly.bias f4 [8]
0.2139626 -0.062952824 0.7454019 0.34819105 0.611468 -0.64288896 0.8496149 0.3505507
00000000: 0319 5b3e 69ed 80bd a9d2 3e3f 1946 b23e
00000010: 2b89 1c3f 5f94 24bf 5d80 593f 627b b33e

prescalers.VaccinationFull.weight f4 [8, 1]
0.068846986 0.00013991486 0.90731585 0.82231814 -0.39721668 -0.5558027 -0.31556797 -0.6960033
00000000: a6ff 8c3d 1cb6 1239 da45 683f 7183 523f
00000010: fc5f cbbe 1649 0ebf 2092 a1be 462d 32bf

prescalers.VaccinationFull.bias f4 [8]
0.64018303 -0.21813835 -0.34544358 1.0902156 0.7499879 0.02406198 -0.18420208 0.15548317
00000000: 09e3 233f a95f 5fbe fbdd b0be 2f8c 8b3f
00000010: 35ff 3f3f a11d c53c 789f 3cbe fb36 1f3e

prescalers.Cases.weight f4 [8, 1]
0.60480523 -1.22454 -0.7745982 0.7522424 1.3909879 0.09173076 -0.6893554 0.38620478
00000000: 84d4 1a3f babd 9cbf 114c 46bf f592 403f
00000010: e40b b23f 56dd bb3d 9879 30bf a2bc c53e

prescalers.Cases.bias f4 [8]
-0.78978574 -0.12267374 0.52078813 0.4628857 0.03263204 0.02444201 0.21897733 -0.9363314
00000000: 662f 4abf 5f3c fbbd 5f52 053f 5bff ec3e
00000010: 2da9 053d 9c3a c83c 983b 603e 6ab3 6fbf

static_variable_selection.single_variable_grns.AIAN.resample_norm.mask f4 [16]
-0.55226696 -0.56651497 -0.38107866 -0.5273427 -0.18539797 0.070972286 0.6881362 -0.26678032
0.44630137 -0.058612753 -0.20372494 -0.018939016 -0.44991264 1.3217272 -0.19663893 -0.12016317
00000000: 5e61 0dbf 2007 11bf be1c c3be eeff 06bf
00000010: f7d8 3dbe eb59 913d b229 303f 6e97 88be
00000020: 9d81 e43e ed13 70bd 459d 50be ff25 9bbc
00000030: f35a e6be 5b2e a93f b75b 49be 1c18 f6bd

static_variable_selection.single_variable_grns.AIAN.resample_norm.norm.weight f4 [16]
0.60062516 0.7364048 0.96452254 0.92795306 1.0461911 1.2202563 1.8575385 0.6846582
1.3690076 0.96966875 1.1071616 1.1690143 0.7107544 2.073658 1.0126635 1.0540069
00000000: 92c2 193f 0685 3c3f f3ea 763f 558e 6d3f
00000010: 97e9 853f 5c31 9c3f d2c3 ed3f c345 2f3f
00000020: a43b af3f 363c 783f 79b7 8d3f 43a2 953f
00000030: 00f4 353f d0b6 0440 f59e 813f b3e9 863f

static_variable_selection.single_variable_grns.AIAN.resample_norm.norm.bias f4 [16]
0.1644486 -0.1183316 -0.03434913 -0.033953078 -0.011631554 0.00036969848 -0.027557166 -0.062194508
-0.10900542 0.24307412 -0.09116342 -0.12056499 0.23764305 -0.014909237 -0.064286835 0.074046016
00000000: 3765 283e d757 f2bd acb1 0cbd 6212 0bbd
00000010: 4692 3ebc 17d4 c139 91bf e1bc abbf 7ebd
00000020: 3c3e dfbd 6ce8 783e e3b3 babd c7ea f6bd
00000030: b358 733e df45 74bc d1a8 83bd 70a5 973d

static_variable_selection.single_variable_grns.AIAN.fc1.weight f4 [8, 8]
0.33027312 -0.40885743 -0.5397712 -1.1931854 0.12966295 -1.4667293 1.2574185 -0.63013273
-0.7148895 -0.97640574 -0.08628026 1.2396717 -0.60950583 -0.3778844 -0.0821332 0.17954154
0.14167897 0.5797885 0.67130107 -1.0559713 0.41383314 -0.4395438 1.1802177 -0.5795555
-0.7303928 -0.24135228 0.15042199 0.6342536 -0.8667454 0.17483886 -1.276264 0.9748167
-0.4355545 0.6367958 -0.15256557 -1.0600414 -0.038848303 0.86219555 1.3291678 -0.2226748
0.30240926 -0.0040395283 -0.21682416 -0.4723804 0.6887303 -0.4712488 0.712165 -0.36346626
-0.22065784 -0.50678736 -0.16475697 -0.23048596 0.525336 1.1870226 1.0390093 -0.35818186
-0.70122087 -0.4221627 -0.12935185 0.065412566 0.18662253 -0.51789016 0.6828295 -0.05526324
00000000: 8f19 a93e c355 d1be 722e 0abf 4dba 98bf
00000010: 5dc6 043e c9bd bbbf 17f3 a03f 6150 21bf
00000020: 0003 37bf baf5 79bf b4b3 b0bd 90ad 9e3f
00000030: 9308 1cbf 107a c1be 7335 a8bd bdd9 373e
00000040: 4b14 113e 056d 143f 63da 2b3f 112a 87bf
00000050: f0e1 d33e e30b e1be 6011 973f c05d 14bf
00000060: 06fb 3abf 0d25 77be 3908 1a3e 725e 223f
00000070: 07e3 5dbf f508 333e 9e5c a3bf 968d 793f
00000080: 0001 dfbe 0d05 233f 263a 1cbe 70af 87bf
00000090: 661f 1fbd d9b8 5c3f 2c22 aa3f dd04 64be
000000a0: 63d5 9a3e 055e 84bb 2707 5ebe d8db f1be
000000b0: a150 303f 8647 f1be 7250 363f 4018 babe
000000c0: 21f4 61be d1bc 01bf 0db6 28be 8304 6cbe
000000d0: 6c7c 063f 5bf0 973f 42fe 843f 9d63 b7be
000000e0: 3683 33bf b625 d8be d074 04be 06f7 853d
000000f0: fa19 3f3e 7394 04bf eacd 2e3f b55b 62bd

static_variable_selection.single_variable_grns.AIAN.fc1.bias f4 [8]
-0.041530002 0.07180216 0.13133326 0.039033066 0.12744482 0.051376972 0.19132178 0.072699666
00000000: 5d1b 2abd 030d 933d 3a7c 063e 23e1 1f3d
00000010: e580 023e a970 523d dbe9 433e 90e3 943d

static_variable_selection.single_variable_grns.AIAN.fc2.weight f4 [8, 8]
0.18337217 0.42809093 0.34394997 -0.8795716 0.44039154 -0.01316094 0.7680164 0.8147254
-0.33332396 -0.6117237 0.2925927 -0.48286206 0.26248166 0.08821685 0.3796431 0.09533689
-0.47307506 0.50435114 -0.06337432 0.72306985 -0.29212528 -0.59664494 -0.5519494 0.44036877
1.0303708 -0.05824851 0.82994145 -0.7742512 0.24128856 0.09726017 0.53837985 -0.34359807
0.36168927 -0.37444332 0.40048048 -0.081221156 0.44531035 0.22502102 0.498161 -0.0910245
0.5026079 -0.21182607 -0.4078587 -0.679489 0.6564235 0.24442782 -0.49231437 0.2452476
-0.5534972 -0.30444264 0.14827347 -0.22068697 0.54621357 0.5369924 -0.3688879 -0.0936336
-0.45914733 0.64297944 -1.151121 0.603212 -0.5278072 -0.5094179 0.4034883 -0.57981473
00000000: eac5 3b3e bc2e db3e 361a b03e 9b2b 61bf
00000010: 007b e13e fca0 57bc b99c 443f d891 503f
00000020: 70a9 aabe ed99 1cbf b6ce 953e b239 f7be
00000030: ff63 863e 09ab b43d 9560 c23e fd3f c33d
00000040: e536 f2be 281d 013f 65ca 81bd 1b1b 393f
00000050: 7291 95be b9bd 18bf 8e4c 0dbf 0478 e13e
00000060: 31e3 833f fd95 6ebd 0b77 543f 5435 46bf
00000070: 5914 773e 5730 c73d 43d3 093f 16ec afbe
00000080: 562f b93e 09b7 bfbe c70b cd3e 4757 a6bd
00000090: b8ff e33e e96b 663e f50e ff3e 0e6b babd
000000a0: e9aa 003f efe8 58be dbd2 d0be fef2 2dbf
000000b0: 5f0b 283f 494b 7a3e a110 fcbe 3022 7b3e
000000c0: feb1 0dbf e8df 9bbe 00d5 173e c4fb 61be
000000d0: a7d4 0b3f 5578 093f e0de bcbe f9c2 bfbd
000000e0: 5c15 ebbe 4d9a 243f ef57 93bf 1a6c 1a3f
000000f0: 5f1e 07bf 3669 02bf 0596 ce3e bd6e 14bf

static_variable_selection.single_variable_grns.AIAN.fc2.bias f4 [8]
0.044671737 0.0030693633 0.20201571 0.093915194 0.07311463 -0.22008856 0.08325968 -0.20911409
00000000: b6f9 363d 5f27 493b 35dd 4e3e 9c56 c03d
00000010: 20bd 953d e55e 61be 0d84 aa3d 0122 56be

static_variable_selection.single_variable_grns.AIAN.gate_norm.glu.fc.weight f4 [32, 8]
-0.00032808454 0.37105924 -0.45112646 0.14745596 0.09039409 -0.040687893 -0.64147234 -0.34656343
-0.25851485 0.05532174 0.045692917 0.10216755 -0.27208495 0.19206451 0.09021967 -0.002045912
0.15896124 0.136439 -0.5151591 0.3154471 0.0064399913 0.14116381 -0.32358444 -0.061093483
-0.35476002 -0.21780984 -0.23448685 -0.3338489 -0.023037035 -0.29347348 -0.22904547 0.3028657
-0.040957656 -0.14370425 0.4327907 -0.26099247 0.19789979 -0.5866062 -0.019266747 0.07921412
0.28697744 0.2694269 -0.61222553 0.4122075 0.4999806 0.13831943 0.24983485 -0.48044235
-0.4109875 -0.20526607 0.42179266 -0.21770245 -0.3039908 -0.28080052 -0.0039907866 0.4141976
0.40034768 0.15399921 -0.26253456 0.18279205 -0.15460107 0.22607546 -0.09284168 -0.1318501
0.076397486 -0.24524453 -0.14786224 0.54481393 0.16964619 0.5108353 0.22766304 0.30621895
0.854489 0.59751564 -0.7313884 0.7122076 0.6918207 0.5657961 0.05233598 -0.6472353
-0.11419089 -0.22117852 0.36905354 -0.28065547 -0.21226972 0.031653214 0.052890334 -0.34221226
-0.2512487 -0.021182261 0.40207344 -0.41225055 0.16802214 -0.66769075 0.12817094 0.6758662
0.081962995 0.5454789 -0.1999369 0.63193554 0.5194846 0.52989066 0.30881712 -0.52017224
-0.11416114 -0.12486084 -0.40196282 0.26533416 0.05711648 0.026969016 0.22109713 -0.044723812
-0.25491348 0.18912758 -0.15364777 0.10773991 -0.30770522 0.023143712 -0.0119628 -0.035859015
-0.39615494 0.04793733 -0.14259869 0.24053192 -0.013620319 0.3131281 -0.06908598 -0.34536886
-0.10340563 -0.43587202 0.40278095 0.2191807 0.20747648 -0.50478524 -0.2682064 0.93152964
0.2819026 -0.21070282 -0.48386452 -0.24963178 -0.07380753 0.060662456 0.037317276 0.08409991
0.54451936 0.20916057 -0.22587354 0.9255772 0.1595448 0.53853935 -0.38833952 -0.22623847
-0.17585924 -0.051355734 0.32847127 -0.48389268 -0.5645898 -0.25828698 -0.24801075 0.70061743
-0.1829778 -0.61716974 0.015338407 -0.030109007 -0.35408017 -0.1889395 0.1697625 0.23642106
0.14688872 -0.11161275 0.55497545 -0.32056183 -0.30866978 -0.15167241 -0.28508085 1.2196741
0.23598598 0.7242277 -0.6977159 0.25694835 -0.30951017 0.13189684 -0.06728432 -0.5864863
-0.22585624 0.12626919 0.4443084 0.015318031 -0.055012837 -0.46059233 -0.110696085 -0.09504256
0.14385012 0.124250494 -0.4127705 0.14825064 0.56089085 0.4977212 -0.20134911 0.82762456
-0.12827791 0.13771458 0.73792976 -0.43327546 -0.23818007 -0.37575498 -0.16044478 0.3261208
0.87503976 0.55043846 -0.28349388 0.7147935 0.8612716 0.20153216 -0.35435963 -0.1386842
0.57410264 0.4980903 -0.37341285 0.8102221 0.3869033 0.7297901 -0.47475693 -0.34590554
-0.25147027 0.18900196 0.32495078 -0.2819921 -0.12682526 -0.0022982853 -0.0560568 0.7566337
0.5848896 -0.19793786 -0.8925542 -0.2070496 0.34454164 0.58582026 -0.29183596 0.48369095
0.4840826 0.27543142 -0.25361395 -0.18303229 0.298213 0.05671958 0.19773948 0.40017784
0.032539655 -0.64691967 0.22611617 -0.67754513 -0.33595058 -0.38526186 -0.07986646 0.60189605
00000000: c302 acb9 7afb bd3e 0cfa e6be b2fe 163e
00000010: 8920 b93d 59a8 26bd 8837 24bf c370 b1be
00000020: 0f5c 84be 0d99 623d 7f28 3b3d 383d d13d
00000030: b84e 8bbe 8fac 443e 17c5 b83d b514 06bb
00000040: bcc6 223e aab6 0b3e 77e1 03bf 4882 a13e
00000050: 9006 d33b 3f8d 103e dcac a5be 293d 7abd
00000060: 1ba3 b5be 8b09 5fbe 521d 70be 3eee aabe
00000070: 2ab8 bcbc 2842 96be e58a 6abe 3711 9b3e
00000080: 37c3 27bd 3527 13be be96 dd3e cea0 85be
00000090: 3ea6 4a3e d32b 16bf 4cd5 9dbc 033b a23d
000000a0: b5ee 923e 53f2 893e d0ba 1cbf dd0c d33e
000000b0: 75fd ff3e 9ca3 0d3e b5d4 7f3e 8afc f5be
000000c0: f46c d2be 4531 52be 35f5 d73e 64ed 5ebe
000000d0: afa4 9bbe 16c5 8fbe 25c5 82bb b511 d43e
000000e0: 5ffa cc3e f8b1 1d3e ee6a 86be d72d 3b3e
000000f0: be4f 1ebe 5380 673e c723 bebd b603 07be
00000100: 4976 9c3d 6221 7bbe 3369 17be ed78 0b3f
00000110: bbb7 2d3e 1ac6 023f 8020 693e bbc8 9c3e
00000120: cbbf 5a3f c9f6 183f 453c 3bbf 3d53 363f
00000130: 291b 313f 03d8 103f 415e 563d 36b1 25bf
00000140: eadc e9bd 9f7c 62be 96f4 bc3e 13b2 8fbe
00000150: 3c5d 59be cda6 013d 89a3 583d 7236 afbe
00000160: aba3 80be 6c86 adbc 92dc cd3e 8112 d3be
00000170: ff0d 2c3e c8ed 2abf 3e3f 033e 9105 2d3f
00000180: 37dc a73d 81a4 0b3f 42bc 4cbe 87c6 213f
00000190: f1fc 043f eaa6 073f 471d 9e3e 022a 05bf
000001a0: 51cd e9bd 0ab7 ffbd 12ce cdbe e1d9 873e
000001b0: f8f2 693d 20ee dc3c 4967 623e 5130 37bd
000001c0: 0584 82be a9aa 413e d755 1dbe bea6 dc3d
000001d0: 8a8b 9dbe e297 bd3c 9fff 43bc e7e0 12bd
000001e0: d2d4 cabe ef59 443d 6405 12be 004e 763e
000001f0: c227 5fbc 5452 a03e f37c 8dbd 30d4 b0be
00000200: 55c6 d3bd 9e2a dfbe 4e39 ce3e e870 603e
00000210: b774 543e 9b39 01bf 5952 89be ba78 6e3f
00000220: 8a55 903e 7bc2 57be 17bd f7be 799f 7fbe
00000230: 6728 97bd 3279 783d 00da 183d 933c ac3d
00000240: 9f65 0b3f 302e 563e 654b 67be a1f2 6c3f
00000250: b65f 233e b7dd 093f 70d4 c6be 0fab 67be
00000260: 7214 34be 645a 52bd 632d a83e c8c0 f7be
00000270: f588 10bf 313e 84be 88f6 7dbe aa5b 333f
00000280: 885e 3bbe d6fe 1dbf f14d 7b3c 2aa7 f6bc
00000290: ff49 b5be 5b79 41be 39d6 2d3e 5d18 723e
000002a0: ff69 163e 3a95 e4bd df12 0e3f ae20 a4be
000002b0: f709 9ebe 0350 1bbe 1ef6 91be 481e 9c3f
000002c0: 4fa6 713e fd66 393f 829d 32bf bc8e 833e
000002d0: 1e78 9ebe f70f 073e 5dcc 89bd f723 16bf
000002e0: dc46 67be b64c 013e 647c e33e 7bf8 7a3c
000002f0: 2455 61bd c2d2 ebbe a1b4 e2bd aca5 c2bd
00000300: 724d 133e 0b77 fe3d a856 d3be 04cf 173e
00000310: 8b96 0f3f 50d5 fe3e 762e 4ebe 34df 533f
00000320: 495b 03be 0d05 0d3e f7e8 3c3f 48d6 ddbe
00000330: 7ae5 73be f562 c0be a34b 24be 4ef9 a63e
00000340: 9b02 603f 89e9 0c3f 1c26 91be b5fc 363f
00000350: 4c7c 5c3f 725e 4e3e a06e b5be 3b03 0ebe
00000360: 64f8 123f b105 ff3e f82f bfbe b76a 4f3f
00000370: 3018 c63e 86d3 3a3f 5713 f3be 881a b1be
00000380: b6c0 80be bb89 413e f35f a63e 4561 90be
00000390: 7bde 01be d49e 16bb d19b 65bd bfb2 413f
000003a0: 53bb 153f 39b0 4abe 6f7e 64bf cf04 54be
000003b0: c367 b03e 51f8 153f 866b 95be 57a6 f73e
000003c0: add9 f73e 5905 8d3e b0d9 81be d16c 3bbe
000003d0: 60af 983e ca52 683d 387c 4a3e 1ce4 cc3e
000003e0: 4d48 053d 879c 25bf ff8a 673e 9973 2dbf
000003f0: b701 acbe 0b41 c5be 0791 a3bd dc15 1a3f

static_variable_selection.single_variable_grns.AIAN.gate_norm.glu.fc.bias f4 [32]
0.18392965 -0.12024825 0.11117778 0.04816812 0.09505013 0.049763758 -0.050259996 -0.18479379
0.07534499 -0.014490252 -0.092529066 -0.15483998 0.04985502 0.15328501 -0.12977818 0.05005141
-0.88303727 -0.7047089 -0.27521992 -0.20003247 -0.098735444 -0.7721718 -0.14294517 -0.27826378
-0.53040504 -0.10968874 -0.2754667 -0.37368447 -0.21693061 -1.1559252 -0.94805366 -0.35722885
00000000: 0e58 3c3e b744 f6bd 2db1 e33d ef4b 453d
00000010: a4a9 c23d 15d5 4b3d 6ddd 4dbd 953a 3dbe
00000020: 794e 9a3d 8668 6dbc e17f bdbd 5f8e 1ebe
00000030: c734 4c3d bff6 1c3e 92e4 04be b502 4d3d
00000040: bb0e 62bf cd67 34bf a0e9 8cbe 50d5 4cbe
00000050: cf35 cabd 0dad 45bf 3860 12be 9778 8ebe
00000060: a0c8 07bf 7da4 e0bd f909 8dbe 9253 bfbe
00000070: 0f23 5ebe 5bf5 93bf a5b3 72bf b3e6 b6be

static_variable_selection.single_variable_grns.AIAN.gate_norm.add_norm.norm.weight f4 [16]
0.06430314 0.4695734 1.2417582 1.0344417 1.0547248 1.1193675 1.5134758 0.50079477
1.1441054 1.2077847 1.2013685 1.3743886 0.6555354 1.822536 0.6968627 0.8796842
00000000: 5db1 833d ed6b f03e eff1 9e3f 9668 843f
00000010: 3901 873f 6f47 8f3f 93b9 c13f 1634 003f
00000020: 0c72 923f b098 9a3f 71c6 993f f7eb af3f
00000030: 2bd1 273f dc48 e93f 9865 323f fc32 613f

static_variable_selection.single_variable_grns.AIAN.gate_norm.add_norm.norm.bias f4 [16]
0.08103412 -0.01681061 0.3356656 0.32063377 0.007049968 -0.16174072 -0.092949994 0.044039916
0.055258732 0.15064919 0.018363258 -0.12910016 0.09561637 0.11596437 0.14089036 0.13477704
00000000: 37f5 a53d 68b6 89bc 5ddc ab3e 1c2a a43e
00000010: 6b03 e73b 5c9f 25be 915c bebd 3363 343d
00000020: fb56 623d c843 1a3e 8b6e 963c d532 04be
00000030: 84d2 c33d ba7e ed3d 9045 103e fe02 0a3e

static_variable_selection.prescalers.AIAN.weight f4 [8, 1]
-0.7310925 -0.7657147 1.0727427 1.1506668 -1.6936176 0.51743853 -1.4392229 0.9809101
00000000: e128 3bbf e105 44bf a24f 893f 0d49 933f
00000010: 76c8 d8bf da76 043f 7538 b8bf ed1c 7b3f

static_variable_selection.prescalers.AIAN.bias f4 [8]
-0.15450159 0.15206525 0.36477143 0.049529776 -0.24954076 -0.25014982 -0.090808176 -0.1621963
00000000: aa35 1ebe feb6 1b3e 52c3 ba3e bcdf 4a3d
00000010: 9d87 7fbe a313 80be a3f9 b9bd c916 26be

encoder_variable_selection.flattened_grn.resample_norm.mask f4 [3]
-0.6447189 -0.014805394 0.39576855
00000000: 4c0c 25bf 5392 72bc 2da2 ca3e

encoder_variable_selection.flattened_grn.resample_norm.norm.weight f4 [3]
0.9848923 1.1964713 1.9634537
00000000: e721 7c3f f925 993f 7352 fb3f

encoder_variable_selection.flattened_grn.resample_norm.norm.bias f4 [3]
0.2102576 0.10888756 -0.41135636
00000000: c54d 573e 7100 df3d 4d9d d2be

encoder_variable_selection.flattened_grn.fc1.weight f4 [3, 24]
0.65653914 -0.6636213 0.4567735 -0.4384483 0.33576238 0.065079935 0.049328193 0.11011276
-0.53585124 0.24288711 0.032722417 -1.2803414 0.057726882 0.10992673 0.112493664 0.14716972
0.534773 -0.79131454 0.24794982 0.049126025 0.18829228 -0.19070563 0.08443671 0.269979
0.12908556 0.64331573 -1.101881 0.105620466 -0.62284356 0.19140482 -0.5756452 -0.16140406
-0.418294 0.21639991 -1.0672731 -0.75767744 0.20522343 0.6428662 0.4922173 0.82376665
0.21707271 -0.094270185 -0.6390059 -0.10455997 0.087607116 0.26974282 -0.1655959 0.21470484
0.3609033 -0.26220176 -0.22658317 0.24013656 0.29473293 0.50632197 -0.15280111 0.2579115
-0.61773306 0.39824307 -0.25004444 -0.11334947 0.2210321 0.5125116 0.59609383 0.7283025
-0.23494823 0.7496067 0.4217683 -0.2670528 -0.648075 -0.9776268 0.06019479 -0.3127831
00000000: f312 283f 16e3 29bf 37de e93e 4c7c e0be
00000010: 0ce9 ab3e a148 853d 5c0c 4a3d cc82 e13d
00000020: 8c2d 09bf 66b7 783e f107 063d 3ae2 a3bf
00000030: 0673 6c3d 4421 e13d 1463 e63d a9b3 163e
00000040: e2e6 083f 9793 4abf 8fe6 7d3e 5f38 493d
00000050: b1cf 403e 5648 43be 27ed ac3d b03a 8a3e
00000060: 012f 043e 57b0 243f 700a 8dbf 8b4f d83d
00000070: ad72 1fbf a0ff 433e 7c5d 13bf 1b47 25be
00000080: a22a d6be f097 5d3e 689c 88bf 26f7 41bf
00000090: 1726 523e e192 243f e803 fc3e 5fe2 523f
000000a0: 4f48 5e3e ba10 c1bd e495 23bf 8a23 d6bd
000000b0: 5c6b b33d bb1b 8a3e f991 29be 96db 5b3e
000000c0: 51c8 b83e 4f3f 86be 6b05 68be 5ce6 753e
000000d0: 3ce7 963e 519e 013f e577 1cbe fa0c 843e
000000e0: c123 1ebf 84e6 cb3e d305 80be c423 e8bd
000000f0: 3d56 623e f633 033f 9b99 183f 0872 3a3f
00000100: 4596 70be 3ae6 3f3f 04f2 d73e 25bb 88be
00000110: 3ee8 25bf c045 7abf d08e 763d 1b25 a0be

encoder_variable_selection.flattened_grn.fc1.bias f4 [3]
-0.15290418 -0.120731376 -0.1674687
00000000: ea92 1cbe 0342 f7bd ea7c 2bbe

encoder_variable_selection.flattened_grn.context.weight f4 [3, 16]
0.009129549 0.13759701 -0.32336977 -0.0784781 0.06105841 -0.1821607 0.108849555 0.09480918
0.09559121 -0.26613495 0.05666607 0.08723348 0.09359161 0.088668875 0.07158124 -0.023638166
0.16250892 0.01967302 0.3580085 -0.36762345 -0.6753296 0.6448031 -0.13205609 -0.1357613
0.019623969 -0.10319128 -0.03671079 -0.036540832 0.0064199725 0.037104864 0.045453932 -0.1745468
0.41332647 -0.003253716 0.5820077 -0.1895617 -0.42404282 0.45378587 -0.19043307 -0.04014409
0.11179128 0.43382025 -0.05800618 -0.073057644 0.047578163 0.23450255 0.15539262 0.37110597
00000000: 1b94 153c 3be6 0c3e b990 a5be 20b9 a0bd
00000010: 6218 7a3d 5688 3abe 84ec de3d 512b c23d
00000020: 53c5 c33d d742 88be ae1a 683d 77a7 b23d
00000030: f5ac bf3d 0798 b53d 2f99 923d d4a4 c1bc
00000040: bd68 263e 5029 a13c e44c b73e 2439 bcbe
00000050: 67e2 2cbf d111 253f b639 07be 0305 0bbe
00000060: 72c2 a03c f355 d3bd 0e5e 16bd d7ab 15bd
00000070: a25e d23b 45fb 173d e72d 3a3d 65bc 32be
00000080: 879f d33e 4c3c 55bb 75fe 143f 761c 42be
00000090: 241c d9be 9f56 e83e e300 43be 216e 24bd
000000a0: d4f2 e43d b01d de3e e397 6dbd 3f9f 95bd
000000b0: 52e1 423d 7021 703e 3e1f 1f3e 9a01 be3e

encoder_variable_selection.flattened_grn.fc2.weight f4 [3, 3]
-0.61646736 -1.3388333 -0.16230635 -0.24507758 -0.9556972 -0.07587132 -0.27748156 -0.6802378
-0.6550299
00000000: ced0 1dbf e45e abbf a333 26be 9ef5 7abe
00000010: 92a8 74bf 6c62 9bbd 1012 8ebe 1124 2ebf
00000020: 0ab0 27bf

encoder_variable_selection.flattened_grn.fc2.bias f4 [3]
0.21209416 -0.21965574 -0.11473103
00000000: 362f 593e 6fed 60be 1af8 eabd

encoder_variable_selection.flattened_grn.gate_norm.glu.fc.weight f4 [6, 3]
0.23453808 0.078033894 0.6510448 -0.04731194 -0.50199664 0.06152028 -0.30048472 -0.6369031
-0.15713598 -0.37684396 -0.5582384 0.62997806 0.6675737 -0.09063291 -0.34459847 1.0814036
0.30096102 0.67655796
00000000: c02a 703e 3cd0 9f3d dfaa 263f 2aca 41bd
00000010: da82 00bf b0fc 7b3d 22d9 99be 150c 23bf
00000020: 41e8 20be b1f1 c0be b6e8 0ebf 3e46 213f
00000030: 1ce6 2a3f bf9d b9bd 366f b0be 6f6b 8a3f
00000040: 9017 9a3e e732 2d3f

encoder_variable_selection.flattened_grn.gate_norm.glu.fc.bias f4 [6]
0.15981014 0.13305202 -0.4275539 -0.4092339 -0.58674276 0.3467218
00000000: 45a5 233e ca3e 083e 58e8 dabe 1b87 d1be
00000010: c634 16bf 8585 b13e

encoder_variable_selection.flattened_grn.gate_norm.add_norm.norm.weight f4 [3]
0.12844245 0.18468872 0.39839733
00000000: 6b86 033e 0a1f 3d3e bcfa cb3e

encoder_variable_selection.flattened_grn.gate_norm.add_norm.norm.bias f4 [3]
0.14937414 -0.4918459 0.6006076
00000000: 89f5 183e 3ad3 fbbe 6bc1 193f

encoder_variable_selection.single_variable_grns.SinWeekly.resample_norm.mask f4 [16]
0.026500642 -0.17755707 0.45368436 -0.14049001 -0.37965864 -0.03462941 -0.3839859 -0.495454
-0.6003319 -0.07730263 -0.47868034 -0.07292968 -0.26987478 0.4739254 0.62411416 0.20561768
00000000: e017 d93c 85d1 35be 5149 e83e 9ddc 0fbe
00000010: 9e62 c2be 91d7 0dbd cd99 c4be 26ac fdbe
00000020: 5aaf 19bf d750 9ebd 9715 f5be 285c 95bd
00000030: 072d 8abe 5aa6 f23e f2c5 1f3f 718d 523e

encoder_variable_selection.single_variable_grns.SinWeekly.resample_norm.norm.weight f4 [16]
0.8703969 0.51201797 1.6667583 0.8377047 0.8486406 1.0595948 0.7922141 0.6176793
0.2112479 0.95507395 0.9772551 1.3293148 1.0371517 1.5336987 1.9093026 1.1228106
00000000: 55d2 5e3f 9c13 033f 5658 d53f d173 563f
00000010: 8340 593f cda0 873f 8bce 4a3f 3b20 1e3f
00000020: 5f51 583e ba7f 743f 642d 7a3f fd26 aa3f
00000030: 63c1 843f 3d50 c43f 0764 f43f 42b8 8f3f

encoder_variable_selection.single_variable_grns.SinWeekly.resample_norm.norm.bias f4 [16]
0.14662641 0.10419642 -0.28266042 -0.06309821 -0.07254062 0.099974886 -0.37335515 -0.32100186
0.23357183 -0.08084379 0.10362917 0.22324696 -0.19670749 0.14171407 -0.029207235 0.09668094
00000000: 3c25 163e ef64 d53d deb8 90be a239 81bd
00000010: 2d90 94bd a2bf cc3d 6828 bfbe 5b5a a4be
00000020: 742d 6f3e 6e91 a5bd 883b d43d da9a 643e
00000030: b06d 49be 7e1d 113e 0344 efbc a800 c63d

encoder_variable_selection.single_variable_grns.SinWeekly.fc1.weight f4 [8, 8]
0.6696926 -1.911256 -0.78262526 -2.387633 -0.30509186 0.13377486 0.24717021 0.5299118
-0.36340863 0.37962347 -0.632329 -0.17415959 -0.75176966 1.037526 -1.8661551 -0.57018936
-0.14778294 0.10095967 -0.6592665 0.38445172 -0.97844166 0.44762325 0.85377175 0.04720147
0.16535282 0.07950657 -0.48132578 0.08504047 0.19827169 0.3128931 0.12978412 0.46357426
-0.5566259 -0.27446088 1.193861 -0.17604928 0.22826432 0.6997165 0.6200292 -0.8986995
0.5121747 -0.34756273 -0.6987373 -0.03480316 0.14089999 -0.1401521 -0.28165662 0.23056714
-1.1484854 -0.10835347 -1.7318764 0.49434224 -0.91806626 0.3040115 -2.12729 -0.6029693
0.28623113 -0.08217941 -0.5999282 0.1578623 0.95764416 0.49172804 -0.047414374 0.54689586
00000000: f970 2b3f 09a4 f4bf 215a 48bf fbce 18c0
00000010: 0035 9cbe 47fc 083e 301a 7d3e 4da8 073f
00000020: b210 babe 025e c23e 50e0 21bf e456 32be
00000030: fa73 40bf a7cd 843f 2cde eebf eef7 11bf
00000040: 6954 17be f2c3 ce3d b0c5 28bf dbd6 c43e
00000050: 277b 7abf e02e e53e c990 5a3f 5456 413d
00000060: 4052 293e 57d4 a23d 5570 f6be b329 ae3d
00000070: bc07 4b3e 8633 a03e 21e6 043e 9b59 ed3e
00000080: 097f 0ebf 2386 8cbe 70d0 983f 4346 34be
00000090: 1fbe 693e 9f20 333f 3cba 1e3f 2c11 66bf
000000a0: e21d 033f bef3 b1be 73e0 32bf c28d 0ebd
000000b0: 1648 103e 0884 0fbe 4c35 90be cb19 6c3e
000000c0: 9201 93bf 6de8 ddbd 20ae ddbf 6d1a fd3e
000000d0: 6406 6bbf 65a7 9b3e 8525 08c0 325c 1abf
000000e0: e38c 923e ae4d a8bd e594 19bf a8a6 213e
000000f0: 2b28 753f c7c3 fb3e 9335 42bd 5e01 0c3f

encoder_variable_selection.single_variable_grns.SinWeekly.fc1.bias f4 [8]
-0.38712782 -0.20250636 0.031775292 -0.25173822 0.025869625 -0.20736344 -0.35006726 -0.061304487
00000000: 9e35 c6be d45d 4fbe cf26 023d d5e3 80be
00000010: 89ec d33c 1557 54be 043c b3be 6a1a 7bbd

encoder_variable_selection.single_variable_grns.SinWeekly.fc2.weight f4 [8, 8]
-1.1281991 0.23611397 -1.2810524 -0.45657593 -0.21139234 0.021795556 0.68548566 0.035254072
-0.43008322 -0.30888668 0.25333363 0.11941885 -0.2092084 0.49371573 0.531135 0.20946057
0.5551486 -0.30575058 0.009549653 -0.26481226 0.5881963 -0.06202304 0.7452152 0.30889922
0.4765556 0.9173727 0.322272 0.084796324 0.22947618 -0.5208706 0.33004335 -0.1482445
-1.1115093 1.1303254 -0.6345972 0.120273344 0.20650253 0.3342115 0.24771988 -0.17213348
0.8283548 -0.48554307 -0.3505115 -0.12727131 -0.52131534 -0.04399494 -0.34689173 -0.18425234
0.4847919 0.36276317 0.15150946 0.063913494 0.4326456 -0.023602875 0.617747 0.17903292
0.7174988 0.15013492 0.35089147 0.038080487 0.5654861 -0.10059948 1.0337785 -0.35881278
00000000: d468 90bf dcc7 713e 86f9 a3bf 52c4 e9be
00000010: 3c77 58be 988c b23c fd7b 2f3f 9366 103d
00000020: de33 dcbe 6526 9ebe f2b4 813e df91 f43d
00000030: ba3a 56be 4fc8 fc3e 77f8 073f d57c 563e
00000040: 381e 0e3f 578b 9cbe 2676 1c3c 7995 87be
00000050: 0894 163f df0b 7ebd 6cc6 3e3f 0a28 9e3e
00000060: 18ff f33e f0d8 6a3f d600 a53e b2a9 ad3d
00000070: cefb 6a3e c757 05bf 71fb a83e 68cd 17be
00000080: f045 8ebf 81ae 903f f674 22bf df51 f63d
00000090: 6675 533e c51d ab3e 48aa 7d3e c243 30be
000000a0: 0f0f 543f 1a99 f8be 3e76 b3be 6953 02be
000000b0: ec74 05bf 0a34 34bd cb9b b1be a5ac 3cbe
000000c0: a536 f83e 18bc b93e 4c25 1b3e 14e5 823d
000000d0: b983 dd3e d15a c1bc ab24 1e3f 6854 373e
000000e0: 00ae 373f f8bc 193e 0ca8 b33e 49fa 1b3d
000000f0: b2c3 103f 1a07 cebd db52 843f 4fb6 b7be

encoder_variable_selection.single_variable_grns.SinWeekly.fc2.bias f4 [8]
-0.06824719 -0.23459715 0.1795243 0.22280964 0.00032603607 0.19929805 0.20290498 0.13476059
00000000: 2fc5 8bbd 3c3a 70be 38d5 373e 3628 643e
00000010: d2ef aa39 ca14 4c3e 53c6 4f3e aefe 093e

encoder_variable_selection.single_variable_grns.SinWeekly.gate_norm.glu.fc.weight f4 [32, 8]
0.2710977 0.09928452 -0.07129024 -0.068994574 0.04999696 -0.34637955 -0.22908583 0.31768692
-0.2137214 0.07390763 -0.03964234 -0.2655752 -0.043717753 -0.18628392 0.26759654 0.100941405
0.56229633 0.51964813 -0.24098997 0.4118877 0.6461985 -0.46347034 -0.20384711 -0.35927194
-0.041853372 -0.15967044 -0.18672207 -0.41397658 0.044584677 0.13660522 -0.3064684 0.11725225
0.5174498 0.37191433 0.28062844 0.60419905 0.5293188 -0.52361846 0.74281776 0.5470387
0.23615739 -0.030380245 -0.051902123 0.14639774 -0.33589923 -0.044213645 -0.17239937 0.17965226
-0.3274101 -0.25656825 -0.8777932 -0.27929625 -0.4107922 0.30577996 -0.63347644 -0.7065958
-0.4664841 -0.44022995 -0.3287747 -0.7705034 -0.31464136 0.5324606 -0.5036332 -0.6302008
0.5491176 0.42985922 -0.20915091 0.61778945 0.3869212 -0.69662964 0.1357702 0.04227657
-0.22981651 -0.36991966 0.33367306 -0.16178 -0.28079554 0.27458122 0.068742946 0.17331955
0.07035921 -0.0046177343 0.18034008 0.16960017 0.15004525 0.00074411934 0.37484965 0.40531003
0.32835507 0.24443625 0.5789634 0.509242 0.36116806 -0.57792497 0.63900054 0.6586213
0.5378165 0.54779494 -0.33981398 -0.08787859 0.67646664 -0.39566234 -0.46737182 -0.37245595
0.44599244 0.45656455 -0.6906672 -0.46094474 0.3959115 -0.6726398 -0.97957546 -0.7215544
-0.43777105 -0.57352775 0.35009694 -0.4069478 -0.33907083 0.32240528 -0.17313275 0.097588494
0.15378127 -0.38027537 -0.26780015 -0.055628467 -0.10844828 -0.38517824 0.20388605 0.059435446
0.356761 0.35701954 0.09486014 0.38127 0.49815843 -0.5121885 0.10414361 -0.07354465
0.17752388 0.1701937 0.34148848 0.05036189 0.01908455 0.2391164 -0.21315747 -0.20496228
-0.14834829 -0.19683178 0.20353504 0.12677002 -0.44386166 -0.11137132 0.9564986 0.92771417
0.076758124 0.19487418 -0.12104449 -0.28297788 -0.2471841 0.051136672 -0.34848177 -0.00298176
0.54431856 0.657605 -0.36429116 0.19025901 0.5146834 -0.47326982 -0.029272245 -0.0437831
-0.2353892 -0.092095405 0.0819393 -0.10093103 0.32996634 -0.41742128 0.040291373 -0.27846152
0.34578764 0.21326159 -0.0012196959 0.2540868 0.34779248 -0.7564532 0.13770446 0.2739686
0.69698364 0.76278675 -0.102709725 0.68022156 0.7911879 -1.198764 0.09680436 0.10969243
0.8138977 0.5871693 -0.3038789 0.46166423 0.85969293 -0.6200717 -0.22223541 0.14962621
-0.14185062 0.016032267 0.25978968 0.8344652 0.06499675 0.17130347 0.19660309 0.3449486
0.3599642 0.13376059 -0.38494143 0.23541477 0.57235974 -0.1278877 -0.14904249 -0.19940048
0.41729006 0.20276077 -0.19918348 0.18111217 0.44953674 -0.34545806 0.018336736 -0.083718345
-0.66948104 -0.566625 0.75278026 -0.36180145 -0.10094076 0.3267375 0.6010064 0.6174895
-0.28171185 -0.55252236 0.29643333 -0.013483459 -0.26183835 0.34755462 0.32450968 0.46085674
-0.6898446 -0.22216348 0.10023373 -0.05035698 -0.36431426 0.1406087 -0.08814573 0.2225073
0.021348804 0.29983303 0.0064575835 0.09592702 0.10841196 0.09791011 0.13773908 -0.21412206
00000000: 51cd 8a3e af55 cb3d 9e00 92bd 074d 8dbd
00000010: 9dc9 4c3d a958 b1be 7a95 6abe dca7 a23e
00000020: c8d9 5abe e25c 973d 0260 22bd 79f9 87be
00000030: 6311 33bd 36c1 3ebe 6a02 893e 5eba ce3d
00000040: a7f2 0f3f a907 053f 13c6 76be f2e2 d23e
00000050: 446d 253f fc4b edbe 4cbd 50be 7ef2 b7be
00000060: 716e 2bbd a680 23be 1234 3fbe bdf4 d3be
00000070: 6c9e 363d 3de2 0b3e 6de9 9cbe f321 f03d
00000080: 9777 043f 8e6b be3e 88ae 8f3e caac 1a3f
00000090: 7081 073f dc0b 06bf 4e29 3e3f ba0a 0c3f
000000a0: 3ed3 713e fedf f8bc 5297 54bd 4ae9 153e
000000b0: fcfa abbe 5e19 35bd 7689 30be c3f6 373e
000000c0: 4ca2 a7be ea5c 83be 0eb7 60bf ebff 8ebe
000000d0: 5b53 d2be 318f 9c3e 832b 22bf 76e3 34bf
000000e0: 01d7 eebe d265 e1be 2855 a8be b63f 45bf
000000f0: ac18 a1be 564f 083f 1bee 00bf d754 21bf
00000100: f992 0c3f 8216 dc3e a82b 56be 7327 1e3f
00000110: 891a c63e 5256 32bf 5807 0b3e 322a 2d3d
00000120: 0555 6bbe 1c66 bdbe 32d7 aa3e a8a9 25be
00000130: 6fc4 8fbe e995 8c3e 1ac9 8c3d ae7a 313e
00000140: 7d18 903d 5d50 97bb 12ab 383e abab 2d3e
00000150: 76a5 193e 0111 433a 4bec bf3e cc84 cf3e
00000160: 281e a83e 7f4d 7a3e f236 143f af5d 023f
00000170: 05eb b83e e4f2 13bf 8a95 233f 689b 283f
00000180: 58ae 093f 4a3c 0c3f 19fc adbe b1f9 b3bd
00000190: eb2c 2d3f 4194 cabe 5c4b efbe 8cb2 bebe
000001a0: 1f59 e43e d4c2 e93e 91cf 30bf f300 ecbe
000001b0: eab4 ca3e 1f32 2cbf 75c5 7abf cab7 38bf
000001c0: 8723 e0be b7d2 12bf e83f b33e 765b d0be
000001d0: b19a adbe 4e12 a53e b649 31be 7adc c73d
000001e0: d678 1d3e 74b3 c2be 1a1d 89be adda 63bd
000001f0: 221a debd 1536 c5be 81c7 503e 9572 733d
00000200: 61a9 b63e 44cb b63e 0846 c23d d235 c33e
00000210: 9f0e ff3e c91e 03bf 3f49 d53d 949e 96bd
00000220: d2c8 353e 4247 2e3e 94d7 ae3e 4548 4e3d
00000230: 3457 9c3c eeda 743e f445 5abe a2e1 51be
00000240: 9de8 17be 458e 49be 7d6b 503e 00d0 013e
00000250: d641 e3be a616 e4bd 18dd 743f ad7e 6d3f
00000260: 5d33 9d3d 198d 473e 2ce6 f7bd 7ae2 90be
00000270: d41d 7dbe b074 513d 346c b2be a269 43bb
00000280: 7658 0b3f cd58 283f 5f84 babe 42d3 423e
00000290: 4bc2 033f 6c50 f2be 59cc efbc e855 33bd
000002a0: de09 71be 849c bcbd cbcf a73d eeb4 cebd
000002b0: 59f1 a83e 3eb8 d5be 9108 253d 8292 8ebe
000002c0: 140b b13e 3f61 5a3e 34de 9fba aa17 823e
000002d0: db11 b23e eba6 41bf 6602 0d3e 9d45 8c3e
000002e0: 856d 323f fe45 433f 7a59 d2bd 0023 2e3f
000002f0: 4a8b 4a3f 1971 99bf 5d41 c63d 6da6 e03d
00000300: 9a5b 503f ba50 163f 0496 9bbe 415f ec3e
00000310: d614 5c3f 05bd 1ebf ae91 63be 9d37 193e
00000320: 4a41 11be 1a56 833c 2703 853e 839f 553f
00000330: 041d 853d 2d6a 2f3e 5252 493e 1a9d b03e
00000340: 3a4d b83e 89f8 083e 0b17 c5be 9210 713e
00000350: 2b86 123f fef4 02be 989e 18be a42f 4cbe
00000360: 0ba7 d53e 85a0 4f3e c1f6 4bbe 7875 393e
00000370: ae29 e63e e1df b0be ec36 963c 8674 abbd
00000380: 1c63 2bbf 560e 11bf 35b6 403f 0a3e b9be
00000390: 07ba cebd 234a a73e 8edb 193f cb13 1e3f
000003a0: 893c 90be 1b72 0dbf 1cc6 973e bae9 5cbc
000003b0: ad0f 86be aef2 b13e 2226 a63e 6af5 eb3e
000003c0: a899 30bf d37e 63be 5847 cd3d 1f43 4ebd
000003d0: 6687 babe bafb 0f3e c085 b4bd f4d8 633e
000003e0: b0e3 ae3c b783 993e 239a d33b 6375 c43d
000003f0: 1707 de3d 1985 c83d 790b 0d3e d042 5bbe

encoder_variable_selection.single_variable_grns.SinWeekly.gate_norm.glu.fc.bias f4 [32]
0.19762339 -0.01490568 -0.36405975 -0.022657054 0.07892617 0.022857992 -0.29846692 -0.5507522
0.27984446 -0.10626892 0.11926716 0.19396739 -0.16120051 -0.14863567 0.16887379 0.011916313
-0.40854672 -1.1818589 0.33172023 -0.8793322 0.49488315 -1.5114521 -0.37067062 0.38449082
0.28581196 0.11241577 -0.07799717 -0.116717376 -0.36188793 0.4450725 0.22463481 -1.2378803
00000000: c95d 4a3e f436 74bc 0a66 babe 499b b9bc
00000010: 0ba4 a13d af40 bb3c a8d0 98be 19fe 0cbf
00000020: c647 8f3e 85a3 d9bd 5742 f43d 639f 463e
00000030: bf11 25be f333 18be 40ed 2c3e a43c 433c
00000040: 092d d1be 2747 97bf 3cd7 a93e ea1b 61bf
00000050: 5361 fd3e 4377 c1bf 8ac8 bdbe fbdb c43e
00000060: f255 923e 3d3a e63d fbbc 9fbd 8509 efbd
00000070: 6049 b9be 8be0 e33e ab06 663e dd72 9ebf

encoder_variable_selection.single_variable_grns.SinWeekly.gate_norm.add_norm.norm.weight f4 [16]
0.56547874 0.053671815 1.670105 0.7196836 0.92012775 0.758167 1.2196318 1.0081236
0.9557702 1.0258862 1.0580622 1.9717852 0.85327536 1.9717089 1.3437442 0.78827375
00000000: 37c3 103f fad6 5b3d 00c6 d53f 2f3d 383f
00000010: 7e8d 6b3f 3c17 423f e51c 9c3f 320a 813f
00000020: 5bad 743f 3d50 833f 956e 873f 7563 fc3f
00000030: 4170 5a3f f560 fc3f cfff ab3f 4fcc 493f

encoder_variable_selection.single_variable_grns.SinWeekly.gate_norm.add_norm.norm.bias f4 [16]
0.0669015 0.31458473 0.038059216 0.17691256 -0.080223285 0.052581467 -0.2943566 -0.071347766
0.15058802 -0.12872407 -0.2217418 0.07138649 -0.26092017 -0.050264392 0.12876019 0.10872935
00000000: a703 893d 4011 a13e fbe3 1b3d 9128 353e
00000010: 1b4c a4bd aa5f 573d e9b5 96be c71e 92bd
00000020: bf33 1a3e 3ed0 03be 4810 63be 1433 923d
00000030: 5497 85be 09e2 4dbd b6d9 033e 7ead de3d

encoder_variable_selection.single_variable_grns.VaccinationFull.resample_norm.mask f4 [16]
-0.091969945 -0.11901971 -0.05529911 -0.52093804 0.6623446 -0.27501088 0.220732 0.62463677
0.15662092 -0.63313365 -0.48903555 0.27565053 -0.31838796 -0.10030405 0.69804233 -0.37891462
00000000: bd5a bcbd 9bc0 f3bd 5281 62bd 325c 05bf
00000010: 6a8f 293f 3ace 8cbe 9207 623e 32e8 1f3f
00000020: 3c61 203e 0c15 22bf de62 fabe 1122 8d3e
00000030: bf03 a3be 366c cdbd e7b2 323f 1901 c2be

encoder_variable_selection.single_variable_grns.VaccinationFull.resample_norm.norm.weight f4 [16]
0.92626446 0.0063468176 1.1785758 0.72714233 1.7922989 0.8406503 1.1902041 1.7167053
1.3349588 0.627057 0.5837124 1.0739708 0.78183925 1.1310582 1.6418238 0.52674663
00000000: ab1f 6d3f f7f8 cf3b 92db 963f 0026 3a3f
00000010: 0d6a e53f dc34 573f 9c58 983f 00bd db3f
00000020: eedf aa3f cf86 203f 2d6e 153f e077 893f
00000030: 9e26 483f 84c6 903f 4827 d23f ded8 063f

encoder_variable_selection.single_variable_grns.VaccinationFull.resample_norm.norm.bias f4 [16]
0.2518953 0.33025694 -0.17857061 0.036438458 -0.04497937 -0.07040958 -0.087896116 0.34517983
0.081577234 -0.3026835 -0.1279597 0.13791591 0.056838892 -0.14041848 0.042376395 -0.14457318
00000000: 6cf8 803e 7017 a93e 37db 36be 7e40 153d
00000010: 4a3c 38bd e632 90bd e102 b4bd 69bb b03e
00000020: f711 a73d 55f9 9abe de07 03be d439 0d3e
00000030: e6cf 683d ddc9 0fbe df92 2d3d fe0a 14be

encoder_variable_selection.single_variable_grns.VaccinationFull.fc1.weight f4 [8, 8]
0.5240851 -0.15355164 -0.6046465 -0.116288744 0.8746915 -0.042024784 -0.6958923 -0.15663618
0.228419 -0.28065726 -1.1102525 -0.9906447 0.21289855 0.27759486 0.76734626 0.28310475
0.15620524 -0.61040765 -0.17915328 -0.20757307 -0.26637265 0.35458937 -0.2705777 -0.5905227
-0.18469504 -0.7886537 -0.8649986 0.19588935 -0.45423383 1.0919985 0.26182842 0.4870895
0.19673198 0.60828966 0.30699766 0.43584114 -0.14798026 0.22835782 0.4387283 0.61534315
-0.2792576 0.42368153 0.36382717 -0.17673883 -1.1117043 -0.9051891 -0.68602854 -1.8649678
-0.63847923 0.37663773 0.33739138 0.100063175 0.79361534 -0.24378298 0.29410848 0.0385675
0.3218232 0.12799586 -0.6829007 -0.16929358 -0.31691882 -1.063583 -0.25062194 -1.4591132
00000000: 712a 063f a43c 1dbe 1dca 1abf cb28 eebd
00000010: c8eb 5f3f 2e22 2cbd ff25 32bf 3c65 20be
00000020: ace6 693e 4fb2 8fbe c11c 8ebf e49a 7dbf
00000030: 1402 5a3e ea20 8e3e ce70 443f 1bf3 903e
00000040: 44f4 1f3e ad43 1cbf f573 37be 098e 54be
00000050: ff61 88be bd8c b53e 2989 8abe 7f2c 17bf
00000060: b220 3dbe 35e5 49bf 8c70 5dbf 3897 483e
00000070: 5691 e8be 9bc6 8b3f 600e 863e cc63 f93e
00000080: 1c74 493e dfb8 1b3f cc2e 9d3e 9226 df3e
00000090: 2388 17be a2d6 693e ffa0 e03e 2187 1d3f
000000a0: dafa 8ebe c9ec d83e 8e47 ba3e 06fb 34be
000000b0: 544c 8ebf 79ba 67bf 919f 2fbf 44b7 eebf
000000c0: 6073 23bf a9d6 c03e 90be ac3e eced cc3d
000000d0: 602a 4b3f 3fa2 79be 6395 963e f4f8 1d3d
000000e0: 03c6 a43e 5911 033e 95d2 2ebf 4c5b 2dbe
000000f0: 2f43 a2be 7d23 88bf 8551 80be 39c4 babf

encoder_variable_selection.single_variable_grns.VaccinationFull.fc1.bias f4 [8]
0.21118988 0.19058613 0.0919976 0.12909621 -0.04709972 -0.43956435 -0.2555442 -0.033319194
00000000: 2942 583e 0329 433e 3d69 bc3d cc31 043e
00000010: a3eb 40bd 940e e1be b0d6 82be b579 08bd

encoder_variable_selection.single_variable_grns.VaccinationFull.fc2.weight f4 [8, 8]
-0.09887865 0.124524504 -0.008115554 -0.30551603 -0.43235654 0.4827122 -0.39522862 0.24258873
0.42828244 -0.34764245 -0.06648117 -0.4343529 -0.4683569 -0.6470435 0.14420298 -0.11383373
-1.628772 0.25608277 0.047834203 0.62418026 -0.030402485 0.5619389 0.105021335 0.5678885
0.098472714 -0.6647423 0.026987538 -0.30898756 0.046810526 -0.94783235 0.025100373 -0.06815178
-0.24458425 -0.52182037 0.1666563 -0.18313049 0.10313392 0.09993476 -0.49819767 0.73573613
-0.41767466 0.45186493 0.20182943 0.47823694 0.12687817 0.2165322 -0.3610583 -0.78989995
1.046646 -0.54939497 -0.06609707 0.715247 -0.06920522 -0.8302974 -0.06654602 0.07518313
-0.25479472 0.5549029 0.07121003 0.5427651 -0.29953527 -0.3519058 -0.16027851 -0.29365116
00000000: e480 cabd b406 ff3d 1af7 04bc 996c 9cbe
00000010: d65d ddbe 0e26 f73e 685b cabe 2e69 783e
00000020: d647 db3e 31fe b1be 4827 88bd 8163 debe
00000030: 7acc efbe a5a4 25bf f2a9 133e a921 e9bd
00000040: 9a7b d0bf 481d 833e cced 433d 47ca 1f3f
00000050: a20e f9bc 3adb 0f3f 6d15 d73d 2461 113f
00000060: 10ac c93d 8d2c 2abf f814 dd3c 9e33 9ebe
00000070: 65bc 3f3d 24a5 72bf 4c9f cd3c 2993 8bbd
00000080: 4b74 7abe 0596 05bf f3a7 2a3e 8f86 3bbe
00000090: e037 d33d 98aa cc3d c413 ffbe 3459 3c3f
000000a0: 74d9 d5be d75a e73e 60ac 4e3e 79db f43e
000000b0: 5aec 013e 9eba 5d3e a2dc b8be e236 4abf
000000c0: 7ff8 853f 26a5 0cbf e75d 87bd 6d1a 373f
000000d0: 77bb 8dbd 5f8e 54bf 4849 88bd 9df9 993d
000000e0: 7474 82be 1e0e 0e3f 90d6 913d a7f2 0a3f
000000f0: b05c 99be ff2c b4be 0d20 24be 7259 96be

encoder_variable_selection.single_variable_grns.VaccinationFull.fc2.bias f4 [8]
-0.08966677 -0.12414764 -0.13552062 0.0904504 0.2033887 -0.03378268 0.55343384 0.009703335
00000000: 36a3 b7bd 1e41 febd ebc5 0abe 0f3e b93d
00000010: 2145 503e b55f 0abd d7ad 0d3f bdfa 1e3c

encoder_variable_selection.single_variable_grns.VaccinationFull.gate_norm.glu.fc.weight f4 [32, 8]
0.39951017 0.08608193 0.22279085 0.23381402 0.2042885 -0.17436506 0.41789854 -0.49903968
-0.52521574 0.5403887 -0.89276385 0.48162594 0.274242 -0.08980604 0.46060246 -0.13185006
0.19924879 -0.2253704 0.57318413 -0.37128973 -0.011734106 0.12613393 -1.114941 0.2642073
-0.92504996 0.70093703 -0.43688825 1.1379318 -0.9202408 0.841412 0.9546433 0.6748742
0.7008883 -0.13395391 0.5117173 -0.25327536 0.5072314 -0.301863 -0.5179304 -0.6737388
0.4808642 -0.44967413 0.74349517 -0.7606335 0.23798184 -0.059183866 -0.7231184 -0.22145206
-0.2028031 0.32571405 -0.029464178 -0.11451445 -0.082752965 0.42002052 0.46661472 0.41145074
-0.18588997 0.4481243 -0.32928523 0.42136085 0.2599263 -0.02146663 0.5442321 -0.35070774
-0.33310968 0.29302657 -0.20269643 -3.1331478e-05 -0.61815715 0.38133022 0.1471186 0.1372606
0.46285197 -0.49727508 0.66035634 -0.76870215 0.26597795 -0.37907746 -0.83633095 -0.5031079
0.042991154 -0.2581895 0.15583327 -0.58000356 0.39257455 -0.37299177 -0.2164115 0.09930391
-0.18186611 -0.37106442 -0.048030335 -0.007306315 -0.051170524 0.11065818 0.049127404 -0.044703014
0.09005173 0.25141245 -0.1725365 -0.48608854 0.282789 -0.21368058 -0.1322865 -0.065546
0.353322 -0.46980467 0.11143294 -0.16615859 0.36102307 0.0466222 -0.18697771 -0.18484797
-0.9478962 0.53033406 -0.28016302 0.41606405 -0.52499413 1.0106128 -0.015035454 0.8990998
0.030172674 0.011027421 0.19639184 -0.45855764 0.2798331 0.0077054533 0.0053171827 0.028918667
1.655811 -1.1454026 0.3382309 -0.68180555 0.76986355 -0.05540467 -0.5178247 -1.3497462
0.09258747 -0.33155352 0.62346 -0.32653898 -0.19653176 0.43975404 -0.42794415 0.14188577
0.8573344 -0.2130808 0.61140335 -0.19978146 0.9428156 -0.47086468 -0.38355294 -0.6774646
0.22366714 -0.33165994 0.44198823 -0.301864 0.33045378 -0.030661259 -0.87883645 -0.32699582
-0.15041608 0.0671474 -0.052828863 0.1861062 -0.058020093 0.05780723 0.08889515 0.11540514
0.17655285 -0.34079647 0.5735548 -0.3121007 -0.113411486 0.3443673 -0.8143749 0.030797254
0.3239309 0.19227275 -0.14266272 0.7017141 0.068111934 0.09913229 -0.8049949 0.08394824
-0.0033603073 0.11791706 0.24104434 0.48749903 0.39648297 -0.4938694 -0.48004603 -0.26657963
-0.008473834 0.1320128 0.001726778 -0.04179322 -0.2775841 0.18577059 0.10952358 -0.0021645438
0.59311986 -0.3897432 0.16262585 -0.15757701 1.0672331 -0.8246077 -0.005345683 -1.1343418
0.1507366 -0.5160437 0.38602215 -0.8692487 0.5543465 -0.43376505 -0.3392855 -0.20338425
0.1745485 0.54763514 0.22324368 0.5023604 -0.37277505 0.3870154 -0.33392105 -0.26254857
0.4021507 0.35395393 0.28688502 0.072952636 0.23529963 0.26830655 -0.8756472 0.30807334
0.19867305 -0.45923924 0.01784743 -0.3363661 0.3445333 -0.108192995 -0.1945388 -0.29280558
0.40609625 -0.45233685 0.009234846 -0.37807006 0.18801545 -0.61146426 0.13030204 -0.7345812
0.15595227 0.042070944 0.41752118 -0.08358371 -0.01283267 -0.18133245 -0.39123854 0.06605506
00000000: 998c cc3e b94b b03d 4923 643e f16c 6f3e
00000010: 0131 513e c18c 32be ccf6 d53e 2182 ffbe
00000020: 8a74 06bf ea56 0a3f 2c8c 64bf ad97 f63e
00000030: 7369 8c3e 3bec b7bd 16d4 eb3e b403 07be
00000040: e007 4c3e 80c7 66be 32bc 123f b019 bebe
00000050: 6840 40bc 4129 013e 63b6 8ebf 2e46 873e
00000060: 13d0 6cbf 9c70 333f d1af dfbe c0a7 913f
00000070: e794 6bbf c766 573f 8163 743f 8ec4 2c3f
00000080: 6a6d 333f 372b 09be e8ff 023f 4fad 81be
00000090: ebd9 013f ca8d 9abe 1697 04bf 257a 2cbf
000000a0: d533 f63e b03b e6be b355 3e3f e1b8 42bf
000000b0: 83b1 733e c86a 72bd 4a1e 39bf 54c4 62be
000000c0: 9eab 4fbe fec3 a63e dc5e f1bc 8d86 eabd
000000d0: 637a a9bd ee0c d73e 20e8 ee3e aca9 d23e
000000e0: f159 3ebe 8c70 e53e 1398 a8be 9cbc d73e
000000f0: 0f15 853e c9da afbc cb52 0b3f f78f b3be
00000100: 5a8d aabe 9407 963e a78f 4fbe eb69 03b8
00000110: 8c3f 1ebf b73d c33e 42a6 163e 0b8e 0c3e
00000120: effa ec3e d79a febe 1d0d 293f aac9 44bf
00000130: 432e 883e 7116 c2be c919 56bf aecb 00bf
00000140: 7e17 303d 6a31 84be c292 1f3e 1d7b 14bf
00000150: 88ff c83e c7f8 bebe fa9a 5dbe d95f cb3d
00000160: 1c3b 3abe 28fc bdbe 75bb 44bd d069 efbb
00000170: 2f98 51bd c2a0 e23d d139 493d 821a 37bd
00000180: 0b6d b83d 22b9 803e 69ad 30be 99e0 f8be
00000190: b8c9 903e 15cf 5abe 1d76 07be fb3c 86bd
000001a0: 9fe6 b43e 3d8a f0be f436 e43d 7a25 2abe
000001b0: 04d8 b83e ecf6 3e3d 1677 3fbe c948 3dbe
000001c0: 53a9 72bf f9c3 073f 8771 8fbe 5906 d53e
000001d0: 0466 06bf c35b 813f 4457 76bc 682b 663f
000001e0: af2c f73c 5bac 343c f11a 493e 11c8 eabe
000001f0: 4946 8f3e 077e fc3b c33b ae3b d7e6 ec3c
00000200: 9df1 d33f 8d9c 92bf 9a2c ad3e cf8a 2ebf
00000210: c715 453f 02f0 62bd 2990 04bf 7cc4 acbf
00000220: 809e bd3d 62c1 a9be 139b 1f3f 1e30 a7be
00000230: 9f3f 49be 7127 e13e 7f1b dbbe 814a 113e
00000240: 447a 5b3f da31 5abe ee84 1c3f 8393 4cbe
00000250: 5d5c 713f 2d15 f1be 0d61 c4be 526e 2dbf
00000260: 0009 653e 55cf a9be 484c e23e eb8d 9abe
00000270: 3d31 a93e 522d fbbc 6dfb 60bf ff6b a7be
00000280: ac06 1abe 9384 893d 1463 58bd a092 3e3e
00000290: 7aa6 6dbd 46c7 6c3d a90e b63d 8859 ec3d
000002a0: 45ca 343e e07c aebe 7dd4 123f aacb 9fbe
000002b0: 4844 e8bd e950 b03e e07a 50bf 864a fc3c
000002c0: 45da a53e 26e3 443e 2d16 12be 89a3 333f
000002d0: 457e 8b3d df05 cb3d 2514 4ebf 0eed ab3d
000002e0: 9a38 5cbb 807e f13d 54d4 763e 7999 f93e
000002f0: d1ff ca3e 73dc fcbe 98c8 f5be 207d 88be
00000300: d6d5 0abc 5d2e 073e 0e55 e23a 5e2f 2bbd
00000310: 811f 8ebe a53a 3e3e e64d e03d 05db 0dbb
00000320: b4d6 173f 6c8c c7be 6487 263e de5b 21be
00000330: 189b 883f 7d19 53bf d72a afbb 1d32 91bf
00000340: b25a 1a3e 711b 04bf b2a4 c53e 1587 5ebf
00000350: a7e9 0d3f 7416 debe d4b6 adbe f643 50be
00000360: d8bc 323e d131 0c3f fe99 643e b19a 003f
00000370: 5fdc bebe e226 c63e b3f7 aabe c46c 86be
00000380: b2e6 cd3e 7339 b53e 98e2 923e 3168 953d
00000390: 63f2 703e 7a5f 893e 6a2a 60bf cabb 9d3e
000003a0: f370 4b3e 6821 ebbe c634 923c 2d38 acbe
000003b0: ab66 b03e 4a94 ddbd 2e35 47be 9dea 95be
000003c0: d9eb cf3e b298 e7be c04d 173c 6692 c1be
000003d0: 1f87 403e ec88 1cbf e66d 053e 830d 3cbf
000003e0: f4b1 1f3e 9552 2c3d 56c5 d53e f02d abbd
000003f0: 1e40 52bc 37af 39be 6b50 c8be e047 873d

encoder_variable_selection.single_variable_grns.VaccinationFull.gate_norm.glu.fc.bias f4 [32]
0.8301334 0.29644045 -0.27778253 -0.39169544 -0.42095777 -0.174192 -0.08003031 0.25031176
0.34091637 -0.029916972 0.2644345 0.2668859 0.09473013 0.23541726 -0.87448424 0.06392177
0.15652326 -0.5158001 0.13180554 -0.24295908 0.6979185 -1.3138237 -0.74616647 -0.32288188
0.5103181 0.042099312 -0.16001435 -1.4162289 -1.1804004 0.070778206 0.076402 -0.5446001
00000000: 9f83 543f 0bc7 973e 8339 8ebe 4e8c c8be
00000010: c787 d7be 635f 32be eee6 a3bd dd28 803e
00000020: 978c ae3e 7014 f5bc f563 873e 45a5 883e
00000030: df01 c23d 3911 713e 33de 5fbf 6be9 823d
00000040: a247 203e 7a0b 04bf 08f8 063e 44ca 78be
00000050: c9aa 323f 602b a8bf c404 3fbf c650 a5be
00000060: 35a4 023f 5470 2c3d cdda 23be fd46 b5bf
00000070: 5c17 97bf 2af4 903d a778 9c3d ea6a 0bbf

encoder_variable_selection.single_variable_grns.VaccinationFull.gate_norm.add_norm.norm.weight f4 [16]
0.5508745 1.0491714 0.71805197 0.99233603 1.0656861 0.87198555 0.95099914 1.2229931
0.9209343 0.7116006 0.43461093 0.7458047 -0.05463874 0.8003261 1.2895076 0.046144985
00000000: 1c06 0d3f 404b 863f 41d2 373f bc09 7e3f
00000010: 6768 883f 723a 5f3f ae74 733f 0a8b 9c3f
00000020: 5ac2 6b3f 752b 363f 5385 de3e 0fed 3e3f
00000030: dfcc 5fbd 2ce2 4c3f 960e a53f 8602 3d3d

encoder_variable_selection.single_variable_grns.VaccinationFull.gate_norm.add_norm.norm.bias f4 [16]
0.18065387 0.3004649 0.23485841 0.1609376 0.08269506 0.017771773 -0.24163987 -0.062801756
-0.07327158 -0.1051647 -0.11797256 0.19885366 -0.20280716 -0.003380765 0.028924426 0.12214251
00000000: 54fd 383e 89d6 993e b97e 703e d4cc 243e
00000010: 075c a93d 1c96 913c 7170 77be 359e 80bd
00000020: 690f 96bd 9760 d7bd 999b f1bd 4ba0 4b3e
00000030: aeac 4fbe d38f 5dbb ebf2 ec3c da25 fa3d

encoder_variable_selection.single_variable_grns.Cases.resample_norm.mask f4 [16]
0.47532627 0.18048884 -1.8917428 -0.023505237 -0.22475685 0.4098898 -0.63167214 -0.13526821
-0.5427998 0.5945032 0.69336206 0.053227164 -1.5176383 -1.3659737 0.2263823 -0.05667119
00000000: f75d f33e 11d2 383e a124 f2bf 0e8e c0bc
00000010: a926 66be 13dd d13e 44b5 21bf c083 0abe
00000020: edf4 0abf 5d31 183f 2d80 313f ba04 5a3d
00000030: f941 c2bf 3ad8 aebf c3d0 673e 0d20 68bd

encoder_variable_selection.single_variable_grns.Cases.resample_norm.norm.weight f4 [16]
1.5464429 1.5282196 0.4641245 1.2617507 1.0154347 1.5471574 1.1198249 1.3173676
1.1731889 1.8030461 1.7455927 1.2684627 -0.056294564 0.23829429 1.6493046 1.2786785
00000000: d7f1 c53f b39c c33f baa1 ed3e 0c81 a13f
00000010: c4f9 813f 4109 c63f 6c56 8f3f 809f a83f
00000020: 0e2b 963f 37ca e63f 956f df3f fc5c a23f
00000030: 2195 66bd 6b03 743e 6a1c d33f bdab a33f

encoder_variable_selection.single_variable_grns.Cases.resample_norm.norm.bias f4 [16]
0.28096023 0.13200402 -0.54307556 -0.32440177 -0.053536214 -0.14392698 -0.16110633 0.05256046
-0.13128646 0.03891891 -0.073631644 0.098075956 0.0719667 -0.027313804 0.021347614 0.3062547
00000000: 05da 8f3e 102c 073e 0007 0bbf fd17 a6be
00000010: ca48 5bbd 9861 13be 0ff9 24be a349 573d
00000020: f56f 06be 6f69 1f3d 30cc 96bd 0cdc c83d
00000030: 4763 933d 33c1 dfbc 31e1 ae3c 6bcd 9c3e

encoder_variable_selection.single_variable_grns.Cases.fc1.weight f4 [8, 8]
-0.01563341 1.5578989 0.19277656 -0.85286343 -0.60415524 0.5531927 -0.21425004 -0.5119635
0.5195515 0.62910324 -0.21423613 -2.648431 -1.2324182 0.090661675 0.20332807 -0.070736
1.1044412 0.09817396 -0.013841015 -0.007872997 -0.07108249 0.14651498 -0.8232011 0.5653265
-0.6027487 0.0074812295 0.8903629 0.34116423 0.67710537 0.009221172 0.34525278 0.68498725
-0.31523764 -0.12614712 0.28550908 0.052690946 0.0964382 0.00034719947 0.26728478 0.2954415
-0.15794817 0.16145599 0.19709952 -1.4616338 -0.7223079 0.49112803 0.09406363 0.68209326
0.28202266 -0.14228994 -0.048934273 1.2691342 -0.9025374 0.53000045 0.23076084 -0.3168067
0.13503774 -0.604543 -0.6522473 -0.560809 0.058474496 -0.18364628 -0.85655665 1.577599
00000000: a311 80bc 3b69 c73f 3867 453e 4255 5abf
00000010: eba9 1abf 099e 0d3f 5d64 5bbe 0a10 03bf
00000020: 5401 053f e90c 213f b760 5bbe e57f 29c0
00000030: e1bf 9dbf d4ac b93d 3c35 503e 09de 90bd
00000040: 545e 8d3f 6e0f c93d 6dc5 62bc befd 00bc
00000050: b293 91bd 0608 163e 4fbd 52bf 3db9 103f
00000060: bd4d 1abf 1a25 f53b d3ee 633f 14ad ae3e
00000070: c756 2d3f 6614 173c f9c4 b03e 535b 2f3f
00000080: d466 a1be b62c 01be 3f2e 923e 76d2 573d
00000090: 6481 c53d 5308 b639 8dd9 883e 1c44 973e
000000a0: 2abd 21be b854 253e 75d4 493e d116 bbbf
000000b0: 2ce9 38bf 2275 fb3e 6fa4 c03d aa9d 2e3f
000000c0: 4665 903e 74b4 11be 4e6f 48bd fd72 a23f
000000d0: b10c 67bf 1cae 073f 924c 6c3e 7d34 a2be
000000e0: 5547 0a3e 54c3 1abf aef9 26bf 2e91 0fbf
000000f0: f482 6f3d c50d 3cbe 4c47 5bbf c4ee c93f

encoder_variable_selection.single_variable_grns.Cases.fc1.bias f4 [8]
-0.3383872 -0.3299681 0.028550716 -0.26339316 -0.1183931 -0.16431364 -0.29981375 -0.050432365
00000000: 1641 adbe 94f1 a8be 31e3 e93c 78db 86be
00000010: 1578 f2bd d641 28be 3081 99be 2b92 4ebd

encoder_variable_selection.single_variable_grns.Cases.fc2.weight f4 [8, 8]
-0.15734306 0.8748453 -0.23315899 -0.13838433 0.14747314 -0.23842604 0.6193084 -0.17619346
-0.354615 0.027313752 0.092165865 -0.3160357 0.23864347 0.08586744 -0.17382903 -1.1009544
0.061589003 -0.44310725 -0.7858776 -0.003034906 0.46179688 -0.06426592 -0.18455498 0.9886892
-0.38486254 -0.87299764 -0.4303088 -0.7302453 0.42769304 -0.910339 -0.42372504 -0.11316515
0.65242314 0.674263 0.1511838 0.32178587 0.33077207 -0.16221406 0.31016353 0.66677535
0.33915204 0.092448406 0.80344045 0.4588245 -0.17788921 0.12799118 0.20417117 0.3328719
-0.81674975 -0.8427818 -0.40977994 0.5215017 -0.11536898 -0.4432935 0.4132863 -0.25937295
0.35841084 0.7278229 0.122841254 -0.14500453 0.11621561 -0.024177797 -0.30517346 0.2014261
00000000: 8a1e 21be ddf5 5f3f 3bc1 6ebe 9fb4 0dbe
00000010: 3303 173e f525 74be ff8a 1e3f 0f6c 34be
00000020: 1990 b5be 17c1 df3c 75c1 bc3d 6ecf a1be
00000030: f45e 743e 45db af3d 3d00 32be 13ec 8cbf
00000040: c044 7c3d f4de e2be 462f 49bf 46e5 46bb
00000050: a470 ec3e da9d 83bd fbfb 3cbe bc1a 7d3f
00000060: b40c c5be c67c 5fbf 6f51 dcbe 5bf1 3abf
00000070: 95fa da3e fa0b 69bf 7df2 d8be 21c3 e7bd
00000080: 3405 273f 809c 2c3f edcf 1a3e 1ec1 a43e
00000090: f55a a93e 711b 26be c1cd 9e3e cab1 2a3f
000000a0: 56a5 ad3e 9755 bd3d 46ae 4d3f 0beb ea3e
000000b0: 9728 36be 1f10 033e 3f12 513e 306e aa3e
000000c0: 8316 51bf 8cc0 57bf adce d1be 2381 053f
000000d0: 9246 ecbd 5ef7 e2be 439a d33e 88cc 84be
000000e0: a081 b73e 9a52 3a3f 3294 fb3d 117c 14be
000000f0: 7302 ee3d 8410 c6bc b23f 9cbe a542 4e3e

encoder_variable_selection.single_variable_grns.Cases.fc2.bias f4 [8]
-0.00450205 0.24702892 -0.08230444 0.2451165 0.03052803 -0.012030036 0.07097117 -0.1104813
00000000: ef85 93bb 26f5 7c3e 3b8f a8bd d2ff 7a3e
00000010: eb15 fa3c a119 45bc 5559 913d 0544 e2bd
