Age-groups/results/AGE1829/checkpoints/latest-epoch=5.ckpt (torch, 735853 bytes, 506 tensors)

prescalers.AGE1829.weight f4 [8, 1]
0.021604571 -0.8913995 0.80193764 0.24423642 -0.060166102 0.0565472 -0.8328622 0.70272696
00000000: 12fc b03c c232 64bf c94b 4d3f 1d19 7a3e
00000010: bb70 76bd 099e 673d 7536 55bf eae5 333f

prescalers.AGE1829.bias f4 [8]
0.14592719 0.85153574 0.5176083 -0.2823922 0.28362736 -0.7340086 0.3632462 -0.38651252
00000000: f06d 153e 3ffe 593f fa81 043f b695 90be
00000010: 9b37 913e fde7 3bbf 68fb b93e f8e4 c5be

prescalers.SinWeekly.weight f4 [8, 1]
0.019469954 -1.5469078 1.11107 -0.9627175 0.62881106 -0.09397088 0.7032357 0.39080393
00000000: 747f 9f3c 1301 c6bf 8b37 8e3f a774 76bf
00000010: c3f9 203f ce73 c0bd 4107 343f 7417 c83e

prescalers.SinWeekly.bias f4 [8]
-0.032390576 0.07734263 0.63927495 0.48655298 0.61791396 -0.5006607 0.8889358 0.43692273
00000000: fbab 04bd d065 9e3d 86a7 233f 791d f93e
00000010: 9c2f 1e3f 4d2b 00bf 4c91 633f 56b4 df3e

prescalers.VaccinationFull.weight f4 [8, 1]
-0.014455641 0.20678322 0.9991428 0.8658496 -0.20542876 -0.36814535 -0.78540814 -0.6645895
00000000: 5ad7 6cbc fbbe 533e d3c7 7f3f 52a8 5d3f
00000010: eb5b 52be 8c7d bcbe 8210 49bf 8a22 2abf

prescalers.VaccinationFull.bias f4 [8]
0.71872485 -0.37843016 -0.20810083 1.1401759 0.6386142 0.16073775 -0.4768211 0.058947217
00000000: 5afe 373f 99c1 c1be 6218 55be 49f1 913f
00000010: 387c 233f 7098 243e e521 f4be a372 713d

prescalers.Cases.weight f4 [8, 1]
0.31621444 -1.1662477 -0.75997823 0.83370036 1.4272281 0.028642055 -0.65221417 0.41954517
00000000: dce6 a13e 9b47 95bf ef8d 42bf 636d 553f
00000010: 69af b63f bea2 ea3c 82f7 26bf a0ce d63e

prescalers.Cases.bias f4 [8]
-0.5327351 -0.39083603 0.5449164 0.50308675 -0.0629126 0.0058243275 0.4471738 -0.9934189
00000000: 5461 08bf a91b c8be a47f 0b3f 4bca 003f
00000010: 52d8 80bd 00da be3b f7f3 e43e b350 7ebf

static_variable_selection.single_variable_grns.AGE1829.resample_norm.mask f4 [16]
0.1465215 0.94955164 0.23753946 0.022099026 -0.061655756 0.37159714 -0.55194336 0.12181589
-0.22716571 -0.35426828 -0.5963511 0.7155817 -0.554478 0.2071154 -0.120320074 0.1520028
00000000: bb09 163e d115 733f 8b3d 733e 0409 b53c
00000010: bf8a 7cbd fb41 be3e 294c 0dbf 9c7a f93d
00000020: 219e 68be a762 b5be 77aa 18bf 5d30 373f
00000030: 45f2 0dbf 0f16 543e 5f6a f6bd 9fa6 1b3e

static_variable_selection.single_variable_grns.AGE1829.resample_norm.norm.weight f4 [16]
1.4273142 1.6814915 1.4220104 1.1935526 1.4040413 1.5502291 0.47760916 0.52417725
0.6711064 0.91543233 0.7855363 2.0005605 0.99628615 1.2535031 1.227474 1.2643683
00000000: 3bb2 b63f 1d3b d73f 7004 b63f 55c6 983f
00000010: a0b7 b33f e86d c63f 3089 f43e 7b30 063f
00000020: a1cd 2b3f c659 6a3f e818 493f 2f09 0040
00000030: 9c0c 7f3f ca72 a03f de1d 9d3f d2d6 a13f

static_variable_selection.single_variable_grns.AGE1829.resample_norm.norm.bias f4 [16]
-0.19557919 0.32478616 0.0150974635 0.3020021 0.41873735 0.38395664 -0.13670821 -0.32251203
-0.11918248 -0.116143756 0.20073962 -1.0750309 0.01576253 0.08263044 -0.045426667 -0.022143664
00000000: e945 48be 5f4a a63e 5a5b 773c 05a0 9a3e
00000010: be64 d63e f795 c43e 3dfd 0bbe 4c20 a5be
00000020: f215 f4bd c7dc edbd b08e 4d3e 9d9a 89bf
00000030: 6c20 813c 263a a93d 5011 3abd a166 b5bc

static_variable_selection.single_variable_grns.AGE1829.fc1.weight f4 [8, 8]
0.0142047815 -0.06648635 -0.632816 -0.15544185 -0.21111283 -1.4052678 0.6535985 -0.9776132
-0.43851206 -1.4251205 -0.19320817 0.6866802 -0.27948162 -0.27927184 0.4753047 0.4131206
0.10572709 0.87611175 0.5445917 -0.36916548 0.21537577 -0.32779685 0.67268735 -0.9060429
-0.23767418 -0.96863973 0.08346346 -0.2824408 -0.3449882 0.18964557 -0.5213332 1.5215386
-1.0688096 1.2635113 0.023223843 -0.10752949 -0.65250856 0.64164454 0.5114712 -0.7532525
0.565841 -0.91275245 -0.11514579 0.11494864 0.33420995 -0.31293014 -0.41372123 0.5543842
-0.043434914 -0.76435465 -0.030796422 0.58002764 0.17611228 1.1719247 0.045884207 0.11159315
-0.265409 -1.1974338 -0.1775441 0.25279653 0.12890598 -0.28108928 0.27963173 0.3987679
00000000: 2cbb 683c ff29 88bd 3b00 22bf 262c 1fbe
00000010: f62d 58be d1df b3bf 3b52 273f dc44 7abf
00000020: a784 e0be 596a b6bf 5dd8 45be 46ca 2f3f
00000030: 3718 8fbe b8fc 8ebe 235b f33e 8b84 d33e
00000040: 7287 d83d dc48 603f 5d6a 0b3f 4203 bdbe
00000050: 778b 5c3e fdd4 a7be 3d35 2c3f 6df2 67bf
00000060: dc60 73be c6f8 77bf e4ee aa3d 159c 90be
00000070: 4ba2 b0be 7332 423e 1876 05bf c7c1 c23f
00000080: c1ce 88bf bdba a13f ee3f be3c 6c38 dcbd
00000090: cd0a 27bf d142 243f c7ef 023f 28d5 40bf
000000a0: f5da 103f 25aa 69bf 8ed1 ebbd 316a eb3d
000000b0: 911d ab3e 6138 a0be 45d3 d3be 1fec 0d3f
000000c0: cfe8 31bd bfac 43bf c748 fcbc b17c 143f
000000d0: c756 343e a101 963f 14f1 3b3d f38a e43d
000000e0: b0e3 87be 8345 99bf 1fce 35be 8c6e 813e
000000f0: eeff 033e efea 8fbe e42b 8f3e 4e2b cc3e

static_variable_selection.single_variable_grns.AGE1829.fc1.bias f4 [8]
-0.02638125 -0.07531043 0.08599445 -0.07170992 0.42257324 -0.13158816 0.22548877 -0.19371471
00000000: 7e1d d8bc 5b3c 9abd dc1d b03d a7dc 92bd
00000010: 855b d83e 0cbf 06be 87e6 663e 265d 46be

static_variable_selection.single_variable_grns.AGE1829.fc2.weight f4 [8, 8]
0.2208609 0.25580922 0.5255116 -0.6670379 0.6018861 -0.16551143 0.51912 0.44641414
-0.40174046 -0.17878415 0.3633723 -0.021763217 0.41605937 0.027784843 0.42566884 0.021305999
-0.041610457 0.1446775 -0.26432997 0.229725 0.28575134 -0.25162283 -0.17064062 0.3243669
0.89765614 0.30336154 0.1998315 -0.8711869 0.49601924 -0.092778966 0.7654744 -0.45922413
0.2580339 -0.42314026 0.31086197 0.18315092 0.17155626 -0.0900899 0.4750502 0.03692439
0.3451595 -0.030441785 -0.35401118 -0.40929633 1.138464 -0.15991944 -0.50278765 0.062065914
-0.2844567 -0.46910203 0.15320098 -0.4096488 0.66856384 -0.15414463 -0.57982814 -0.5706871
-0.3402763 0.48793206 -0.97402966 0.4792325 -0.59120584 0.65107733 0.6533006 0.18481906
00000000: 5c29 623e 6df9 823e ee87 063f ffc2 2abf
00000010: 3515 1a3f d47b 29be 0ce5 043f 6590 e43e
00000020: edb0 cdbe 3113 37be ef0b ba3e c648 b2bc
00000030: bc05 d53e 0a9d e33c 44f1 d93e eb89 ae3c
00000040: ba6f 2abd 5726 143e 4256 87be 083d 6b3e
00000050: 004e 923e b5d4 80be 6abc 2ebe 6b13 a63e
00000060: cbcc 653f 3452 9b3e a1a0 4c3e 1b06 5fbf
00000070: 3cf6 fd3e e602 bebd 21f6 433f 6d1f ebbe
00000080: 051d 843e d7a5 d8be 4d29 9f3e ea8b 3b3e
00000090: 72ac 2f3e 0e81 b8bd c839 f33e 073e 173d
000000a0: bfb8 b03e 0d61 f9bc f440 b5be 4a8f d1be
000000b0: 30b9 913f ecc1 23be b1b6 00bf d438 7e3d
000000c0: 4fa4 91be 242e f0be b8e0 1c3e 7dbd d1be
000000d0: 0027 2b3f 17d8 1dbe 9e6f 14bf 8d18 12bf
000000e0: b238 aebe 3bd2 f93e 025a 79bf f65d f53e
000000f0: 4459 17bf 01ad 263f b53e 273f 3541 3d3e

static_variable_selection.single_variable_grns.AGE1829.fc2.bias f4 [8]
0.18599929 0.09670275 -0.10713345 -0.123866014 -0.18076521 -0.12604891 0.3302561 -0.2864329
00000000: 9976 3e3e 170c c63d c868 dbbd 77ad fdbd
00000010: 841a 39be f712 01be 5417 a93e 55a7 92be

static_variable_selection.single_variable_grns.AGE1829.gate_norm.glu.fc.weight f4 [32, 8]
-0.4461544 0.018120714 -0.43585658 -0.3978965 -0.26625377 -0.4521365 -0.31877092 0.34319413
0.7825288 0.2942342 0.039214086 0.9704027 -0.40847862 0.79101217 0.32835785 -0.27754802
0.4006309 0.18977544 -0.2057315 -0.17922512 0.6411791 -0.0018112509 -0.36205375 0.72464025
-0.2649874 -0.40125358 -0.15533589 -0.16487537 -0.04036952 -0.47724208 -0.35790163 -0.36276272
-0.25842136 0.093374565 -0.10243202 -0.77582747 0.33643118 -0.62231594 0.22209612 -0.24455316
0.07147739 0.026561348 -0.35176054 0.17889912 -0.36818177 -0.086756565 0.4478741 -0.4354554
-0.14035602 0.22508222 -0.019689485 -0.34246123 0.22992639 -0.02670988 -0.18862954 0.45384514
1.09703 0.8653069 -0.05592611 0.69131696 0.156641 0.7554409 0.35018826 -0.079043195
-0.062457435 0.27173123 0.3107717 -0.24240363 0.24740387 0.34313285 0.07929956 0.7324125
0.077133596 -0.27595285 0.38103786 -0.23850499 -0.15393367 -0.08218252 -0.4406636 -0.086155444
-0.19054139 0.24057578 0.19518323 -0.4132977 0.021506052 -0.3241435 0.05574773 -0.069236666
-0.106625065 -0.3016646 -0.11850198 0.05156481 -0.040072154 -0.53695655 -0.5806005 0.90537876
-0.16866118 0.5135951 -0.092012525 0.10879835 0.27519715 -0.058142353 0.6207477 0.09969563
-0.46324384 -0.102308534 0.39452246 0.38949353 -0.17169853 0.030812513 -0.06264259 0.5994027
-1.0423216 -0.44056547 0.17352423 -0.5027542 0.15569735 -1.0086285 -0.40479374 0.7855178
-0.49301353 -0.108498685 -0.23291789 -0.011446199 -0.046354968 -0.3155042 -0.15633288 -0.42494965
0.19328976 0.14027536 -0.27343532 0.87508446 0.5053795 0.07672004 -0.021821182 -0.22638083
-0.22173187 -0.26464 -0.901372 -0.454634 0.12046655 -0.82762885 -0.20389722 -0.009501581
0.27283734 -0.02516939 0.0035738256 0.00096110016 0.23444384 0.24470235 -0.80982494 1.2700351
0.23944399 0.077930644 0.35364577 -0.47368887 0.31194824 -0.12808849 -1.0449741 0.82637984
-0.44591153 -0.13550615 -0.071332775 -0.8422898 0.14647757 -0.7210256 -0.041004054 0.45397857
0.2971275 0.100658976 -0.31417114 -0.11133415 0.20625527 -0.041929223 -0.40821955 0.7107891
-0.19376136 -0.34478945 -0.31818226 -0.039365172 -0.5528288 -0.6460371 -0.44086587 0.4097226
0.282987 0.46242282 -0.24547735 0.2585088 -0.008507844 0.46174368 0.088047944 -0.054008525
0.10158808 0.5768648 -0.40498865 0.10826561 0.13111839 0.36726373 -0.32747468 0.98430306
0.09544888 0.00026062343 0.0041550323 0.23397887 0.60746187 -0.2831235 0.019393362 1.031196
0.30855444 0.12431112 -0.14339465 0.4422444 -0.52065825 -0.1384782 -0.1682312 0.11567635
0.6025287 0.42813164 0.87145394 1.054859 0.394992 1.4658992 0.71292436 -0.437382
-0.7810472 -0.2871867 0.7873156 -0.7035191 0.5033999 -0.12837066 -0.54396456 0.7590397
-0.4948691 0.026437774 -0.45722723 -0.61452526 0.24162462 -0.14306371 0.014790248 0.3782589
0.075831994 -0.20086835 0.10562931 -0.21611953 0.17411378 -1.1303635 -0.44107234 0.7911707
0.2608023 -0.05864576 -0.018257834 -0.097216904 -0.24367346 -0.19005212 -1.394074 1.2218776
00000000: 596e e4be e471 943c 9828 dfbe 17b9 cbbe
00000010: 6a52 88be 6f7e e7be f135 a3be 24b7 af3e
00000020: cf53 483f dda5 963e f39e 203d 506c 783f
00000030: 1c24 d1be c67f 4a3f 851e a83e c61a 8ebe
00000040: 7e1f cd3e 7e54 423e 47ab 52be ca86 37be
00000050: 5024 243f 7f67 edba 1c5f b9be 0682 393f
00000060: 6eac 87be 1c71 cdbe 5f10 1fbe 17d5 28be
00000070: 835a 25bd 1359 f4be e23e b7be 09bc b9be
00000080: ce4f 84be 2a3b bf3d e1c7 d1bd a19c 46bf
00000090: b540 ac3e 1950 1fbf 2a6d 633e 256c 7abe
000000a0: bd62 923d 2f97 d93c f519 b4be 5531 373e
000000b0: 5282 bcbe 6dad b1bd c14f e53e 03f4 debe
000000c0: 7db9 0fbe f47b 663e d84b a1bc 1457 afbe
000000d0: d371 6b3e aece dabc 1a28 41be 645e e83e
000000e0: 7b6b 8c3f c184 5d3f c712 65bd 26fa 303f
000000f0: 8066 203e 9364 413f e04b b33e 66e1 a1bd
00000100: 5ed3 7fbd 5b20 8b3e 781d 9f3e a838 78be
00000110: 7157 7d3e 1caf af3e cf67 a23d 637f 3b3f
00000120: 38f8 9d3d b149 8dbe 6517 c33e a73a 74be
00000130: caa0 1dbe 4f4f a8bd a99e e1be 4472 b0bd
00000140: 481d 43be 7f59 763e 1dde 473e c29b d3be
00000150: 762d b03c 23f6 a5be bb57 643d f4cb 8dbd
00000160: 3e5e dabd c873 9abe 2bb1 f2bd 9f35 533d
00000170: b322 24bd fc75 09bf 3ca2 14bf e7c6 673f
00000180: 84b5 2cbe f87a 033f 1071 bcbd abd1 de3d
00000190: a4e6 8c3e ad26 6ebd 52e9 1e3f 392d cc3d
000001a0: 4c2e edbe 2387 d1bd d9fe c93e b26b c73e
000001b0: bdd1 2fbe 866a fc3c c24a 80bd 7572 193f
000001c0: cb6a 85bf cc91 e1be 56b0 313e 80b4 00bf
000001d0: 206f 1f3e bd1a 81bf 2041 cfbe b217 493f
000001e0: 456c fcbe 8f34 debd 0782 6ebe d788 3bbc
000001f0: b5de 3dbd c489 a1be ba15 20be 0093 d9be
00000200: c0ed 453e 58a4 0f3e b7ff 8bbe 8905 603f
00000210: 8d60 013f 651f 9d3d 56c2 b2bc 60d0 67be
00000220: ae0d 63be e57e 87be 51c0 66bf cac5 e8be
00000230: 2bb7 f63d 7cdf 53bf 6fca 50be 85ac 1bbc
00000240: 56b1 8b3e 0930 cebc d836 6a3b 57f2 7b3a
00000250: 0c12 703e 4193 7a3e b050 4fbf 8390 a23f
00000260: ce30 753e 1a9a 9f3d 0f11 b53e 5987 f2be
00000270: aeb7 9f3e a129 03be b6c1 85bf a18d 533f
00000280: 844e e4be 20c2 0abe eb16 92bd 4ea0 57bf
00000290: 37fe 153e 2295 38bf def3 27bd e16f e83e
000002a0: 1821 983e 4b26 ce3d 0adb a0be 2903 e4bd
000002b0: 9534 533e fabd 2bbd 2702 d1be 46f6 353f
000002c0: 6169 46be 3e88 b0be c9e8 a2be 603d 21bd
000002d0: 3086 0dbf b062 25bf 2cb9 e1be 29c7 d13e
000002e0: ace3 903e afc2 ec3e 6a5e 7bbe 445b 843e
000002f0: 7c64 0bbc ab69 ec3e 7b52 b43d 0b38 5dbd
00000300: 690d d03d 69ad 133f ac5a cfbe 5cba dd3d
00000310: e643 063e fe09 bc3e c3aa a7be 49fb 7b3f
00000320: b47a c33d 49a4 8839 f026 883b 2898 6f3e
00000330: 9f82 1b3f 90f5 90be d4de 9e3c 3bfe 833f
00000340: d9fa 9d3e d496 fe3d 0cd6 12be dc6d e23e
00000350: dc49 05bf 3bcd 0dbe cd44 2cbe b9e7 ec3d
00000360: 523f 1a3f 1234 db3e 9b17 5f3f 9f05 873f
00000370: 643c ca3e 96a2 bb3f 3682 363f 89f0 dfbe
00000380: b6f2 47bf 230a 93be 848d 493f d419 34bf
00000390: d1de 003f 9973 03be 4341 0bbf 6d50 423f
000003a0: 7c5f fdbe 0894 d83c b019 eabe 8751 1dbf
000003b0: 726c 773e 4b7f 12be cc52 723c 27ab c13e
000003c0: ce4d 9b3d 6fb0 4dbe 2e54 d83d 704e 5dbe
000003d0: e24a 323e c0af 90bf 3cd4 e1be 2a8a 4a3f
000003e0: e187 853e 8936 70bd 7491 95bc a819 c7bd
000003f0: 8985 79be 069d 42be 0471 b2bf 7c66 9c3f

static_variable_selection.single_variable_grns.AGE1829.gate_norm.glu.fc.bias f4 [32]
-0.2267436 -0.14062561 0.35977933 0.119769275 0.4212406 0.05803735 0.016385226 -0.17295143
-0.013099141 -0.024995329 0.016988093 -0.9344727 0.08523487 0.06622004 0.2585278 -0.34851763
-0.18482119 0.0669219 -0.91264826 -0.9894694 0.2213484 -0.63643277 -0.5386043 -0.25065383
-0.8206827 -0.55209786 -0.68547225 0.2376386 -0.29822114 -0.3847675 -0.40403122 -0.6880508
00000000: 792f 68be 2900 10be ff34 b83e 9849 f53d
00000010: d9ac d73e 93b8 6d3d 4f3a 863c 2e1a 31be
00000020: c89d 56bc 01c3 ccbc 9d2a 8b3c 9a39 6fbf
00000030: 9f8f ae3d 5f9e 873d c15d 843e e770 b2be
00000040: c441 3dbe 590e 893d 51a3 69bf de4d 7dbf
00000050: 28a9 623e 42ed 22bf f9e1 09bf b355 80be
00000060: 4318 52bf 4956 0dbf 1c7b 2fbf 8857 733e
00000070: 71b0 98be 3f00 c5be 2edd cebe 1924 30bf

static_variable_selection.single_variable_grns.AGE1829.gate_norm.add_norm.norm.weight f4 [16]
1.1416693 1.5161638 1.1853896 1.0772375 1.5176485 1.4207252 -0.15054739 0.72647333
0.34214512 0.25328013 0.6091736 2.1216137 0.45219663 1.1965028 1.0529852 0.92798716
00000000: 3822 923f a811 c23f d9ba 973f ebe2 893f
00000010: 4e42 c23f 53da b53f 1829 1abe 28fa 393f
00000020: a52d af3e efad 813e cdf2 1b3f 85c8 0740
00000030: 5186 e73e 0127 993f 38c8 863f 9190 6d3f

static_variable_selection.single_variable_grns.AGE1829.gate_norm.add_norm.norm.bias f4 [16]
-0.3031591 0.23542586 0.20461361 0.39988163 0.46544862 0.2928527 -0.059822634 -0.016952813
-0.013582133 -0.09766275 -0.12790331 -1.3041611 0.017181126 0.06471541 0.2069713 -0.038771864
00000000: ab37 9bbe 7a13 713e 3b86 513e 49bd cc3e
00000010: 484f ee3e caf0 953e 9408 75bd a0e0 8abc
00000020: 9887 5ebc 6803 c8bd 16f9 02be c0ee a6bf
00000030: 6fbf 8c3c 8389 843d 49f0 533e 3fcf 1ebd

static_variable_selection.prescalers.AGE1829.weight f4 [8, 1]
0.021604571 -0.8913995 0.80193764 0.24423642 -0.060166102 0.0565472 -0.8328622 0.70272696
00000000: 12fc b03c c232 64bf c94b 4d3f 1d19 7a3e
00000010: bb70 76bd 099e 673d 7536 55bf eae5 333f

static_variable_selection.prescalers.AGE1829.bias f4 [8]
0.14592719 0.85153574 0.5176083 -0.2823922 0.28362736 -0.7340086 0.3632462 -0.38651252
00000000: f06d 153e 3ffe 593f fa81 043f b695 90be
00000010: 9b37 913e fde7 3bbf 68fb b93e f8e4 c5be

encoder_variable_selection.flattened_grn.resample_norm.mask f4 [3]
-1.0823054 0.009308253 0.38685226
00000000: fc88 8abf a581 183c 8011 c63e

encoder_variable_selection.flattened_grn.resample_norm.norm.weight f4 [3]
1.0503901 1.2759339 2.3069715
00000000: 2f73 863f cd51 a33f 6ca5 1340

encoder_variable_selection.flattened_grn.resample_norm.norm.bias f4 [3]
0.34681174 0.06290778 -0.6085379
00000000: 4f91 b13e cbd5 803d 24c9 1bbf

encoder_variable_selection.flattened_grn.fc1.weight f4 [3, 24]
1.4793118 -0.5918178 0.38447556 -0.46865985 0.22037588 0.13037564 -0.07022276 -0.061143517
-0.6474893 -0.053655278 -0.21145298 -1.5770109 -0.018295517 0.30502716 0.59513146 0.40039146
0.46598858 -0.65124035 0.36116412 -0.07840267 0.052642006 0.05575335 0.19349417 0.12977096
0.1511388 0.6866317 -1.2277749 0.120718 -1.0913976 0.28634697 -1.1764488 -0.78057486
-0.35549042 0.111472845 -0.8675219 -0.39582068 0.06181 0.3098183 0.39584154 0.66136247
0.43823323 -0.1486105 -0.7731723 -0.02111265 0.16815129 0.032442745 -0.30872747 0.5391424
1.2881814 -0.85734636 0.034422576 -0.620525 0.49201825 0.6548307 -0.052413613 0.44578102
-0.5997417 0.36039644 0.34505162 0.20064524 -0.21763274 -0.19094317 0.31437334 0.10484643
0.1991082 0.33939523 -0.066681325 -0.08916942 -0.19067793 -0.31374717 -0.47347817 0.13730668
00000000: 175a bd3f 5f81 17bf fbd9 c43e 2ff4 efbe
00000010: 37aa 613e 3181 053e f3d0 8fbd a071 7abd
00000020: dcc1 25bf a3c5 5bbd 2187 58be 7edb c9bf
00000030: 7be0 95bc 852c 9c3e 895a 183f 1c00 cd3e
00000040: 0e96 ee3e b0b7 26bf 81ea b83e 9491 a0bd
00000050: 259f 573d a05d 643d 5623 463e aee2 043e
00000060: 21c4 1a3e 18c7 2f3f ba27 9dbf 003b f73d
00000070: ebb2 8bbf 129c 923e e095 96bf c1d3 47bf
00000080: d702 b6be e04b e43d ea15 5ebf 02a9 cabe
00000090: 7c2c 7d3d 81a0 9e3e beab ca3e 0d4f 293f
000000a0: 1b60 e03e 5a2d 18be 9fee 45bf 70f4 acbc
000000b0: da2f 2c3e afe2 043d 8711 9ebe 3c05 0a3f
000000c0: 21e3 a43f 0d7b 5bbf b0fe 0c3d bada 1ebf
000000d0: d1e9 fb3e fca2 273f a8af 56bd 693d e43e
000000e0: ac88 19bf e285 b83e 9baa b03e f275 4d3e
000000f0: 1edb 5ebe 9b86 43be 8bf5 a03e bab9 d63d
00000100: 05e3 4b3e 36c5 ad3e 3890 88bd 759e b6bd
00000110: 1341 43be 78a3 a0be bb6b f2be 1f9a 0c3e

encoder_variable_selection.flattened_grn.fc1.bias f4 [3]
-0.22410847 -0.1345699 -0.43829933
00000000: b17c 65be b1cc 09be c568 e0be

encoder_variable_selection.flattened_grn.context.weight f4 [3, 16]
-0.04874353 0.057762694 -0.106580384 -0.068169616 -0.036153264 -0.2880112 -0.051234003 0.34705988
-0.07645081 -0.0021347934 0.052275714 -0.08018244 -0.045873426 -0.022738837 -0.26929045 -0.00959801
0.1854862 0.028821915 0.6559886 -0.2559471 -0.05951268 0.37128958 0.01658475 0.07514004
0.03205452 0.01106511 -0.026264459 0.030384561 0.01228248 -0.056472704 -0.19058013 -0.01963685
0.6571841 0.0029179135 0.891267 -0.3918461 -0.623612 0.626537 0.059323616 0.55171156
-0.16556562 0.19520928 -0.18556091 0.21420982 -0.16800712 -0.17634992 -0.36880955 0.29102063
00000000: 4ca7 47bd 9398 6c3d d146 dabd 839c 8bbd
00000010: 7215 14bd 3476 93be bfda 51bd d5b1 b13e
00000020: 3e92 9cbd e4e7 0bbb 0f1f 563d b136 a4bd
00000030: c6e5 3bbd cc46 babc 70e0 89be f940 1dbc
00000040: 18f0 3d3e f01b ec3c deee 273f 800b 83be
00000050: 91c3 73bd ab19 be3e bedc 873c 05e3 993d
00000060: 9a4b 033d 6f4a 353c 9028 d7bc 0be9 f83c
00000070: 743c 493c ec4f 67bd 7027 43be 76dd a0bc
00000080: 383d 283f 773a 3f3b 132a 643f 0da0 c8be
00000090: 09a5 1fbf bb64 203f 52fd 723d f83c 0d3f
000000a0: 098a 29be f1e4 473e ae03 3ebe d259 5b3e
000000b0: 0f0a 2cbe 1395 34be 9bd4 bcbe a800 953e

encoder_variable_selection.flattened_grn.fc2.weight f4 [3, 3]
-0.31889644 -1.1834295 0.094644755 -0.31905824 -0.59166276 -0.1789444 -0.335153 -0.41431135
-0.39886472
00000000: 6546 a3be 9e7a 97bf 1cd5 c13d 9a5b a3be
00000010: 3677 17bf 333d 37be 2d99 abbe 9e20 d4be
00000020: ff37 ccbe

encoder_variable_selection.flattened_grn.fc2.bias f4 [3]
-0.052771777 -0.20512716 -0.035343617
00000000: 3827 58bd db0c 52be 78c4 10bd

encoder_variable_selection.flattened_grn.gate_norm.glu.fc.weight f4 [6, 3]
0.16580836 0.061628647 0.4610809 -0.026870504 -0.4259503 -0.050232872 -0.1674804 -0.2972479
0.21665755 -0.34677497 -0.47714362 0.6122573 0.6412608 -0.12259078 -0.20629562 1.1073287
-0.020221233 0.09717396
00000000: abc9 293e 526e 7c3d cc12 ec3e 881f dcbc
00000010: 2816 dabe fcc0 4dbd fb7f 2bbe e030 98be
00000020: 7adb 5d3e 7d8c b1be 2b4c f4be e5bc 1c3f
00000030: ab29 243f e010 fbbd 293f 53be f2bc 8d3f
00000040: 00a7 a5bc 2403 c73d

encoder_variable_selection.flattened_grn.gate_norm.glu.fc.bias f4 [6]
0.25606173 0.10772326 -0.38793275 -0.50330085 -0.48323005 0.14489275
00000000: 861a 833e 039e dc3d 1f9f c6be 53d8 00bf
00000010: ee69 f7be c45e 143e

encoder_variable_selection.flattened_grn.gate_norm.add_norm.norm.weight f4 [3]
0.044473484 0.29504296 0.3697996
00000000: d429 363d df0f 973e 6056 bd3e

encoder_variable_selection.flattened_grn.gate_norm.add_norm.norm.bias f4 [3]
0.21759957 -0.522671 0.5875226
00000000: 6cd2 5e3e c4cd 05bf e267 163f

encoder_variable_selection.single_variable_grns.SinWeekly.resample_norm.mask f4 [16]
-0.6928584 -0.4434051 0.9731314 0.26179063 0.0737667 -0.26213494 0.21565317 -0.32414508
-0.56150484 -0.06687297 -0.59692335 -0.43470868 0.11388662 -0.09776809 0.019317336 0.19138117
00000000: 2b5f 31bf fe05 e3be 241f 793f 6c09 863e
00000010: ff12 973d 8d36 86be 2fd4 5c3e 58f6 a5be
00000020: c8be 0fbf b2f4 88bd f8cf 18bf 2392 debe
00000030: 633d e93d a33a c8bd 643f 9e3c 6df9 433e

encoder_variable_selection.single_variable_grns.SinWeekly.resample_norm.norm.weight f4 [16]
2.1723857 0.27360645 2.269133 1.4527187 1.4850476 0.7537187 1.10045 0.9148252
0.08239886 0.9814961 0.98747396 1.1288856 0.91167307 1.0859979 1.5491073 0.8276119
00000000: 5e08 0b40 2516 8c3e 7a39 1140 b0f2 b93f
00000010: 0a16 be3f b5f3 403f 8cdb 8c3f fc31 6a3f
00000020: bcc0 a83d 5443 7b3f 18cb 7c3f 537f 903f
00000030: 6863 693f fb01 8b3f 2649 c63f 60de 533f

encoder_variable_selection.single_variable_grns.SinWeekly.resample_norm.norm.bias f4 [16]
0.11624716 0.13701414 -0.3822939 0.23537986 -0.044731546 0.035298083 -0.31217563 -0.05891818
0.05220434 -0.13369171 0.058638122 0.19798733 -0.20255977 0.035215598 0.06357947 0.05903219
00000000: fe12 ee3d 6f4d 0c3e 07bc c3be 6b07 713e
00000010: 6d38 37bd b994 103d 7cd5 9fbe 3154 71bd
00000020: 38d4 553d 7be6 08be 872e 703d 31bd 4a3e
00000030: d46b 4fbe 3b3e 103d f435 823d bdcb 713d

encoder_variable_selection.single_variable_grns.SinWeekly.fc1.weight f4 [8, 8]
0.28778744 -1.7100197 -0.7569587 -2.2953148 -0.2962886 0.07592064 0.2522631 0.44936156
0.40547666 0.21416628 -0.029040018 -0.3040831 -0.077174746 0.8765049 -0.31641513 -0.21751182
-0.021879962 -0.14011028 -0.28540203 0.15646662 -0.6654927 0.49639904 0.9940075 0.4121101
-0.08957609 0.0065313154 -0.3530532 0.041100208 0.2907783 0.27014115 0.19369158 0.46371248
-0.870701 -0.0037586228 1.1406994 0.053049665 0.1776581 0.7033411 0.6170674 -0.8929045
0.6987547 -0.17429668 -1.4074869 0.01682398 -0.7968865 0.35380447 -2.3939378 -1.0090545
-0.8201222 -0.03333639 -1.6953658 0.52180195 -1.0525397 0.47518817 -2.373475 -1.0927505
0.71551126 -0.026164502 -0.55888945 0.20098455 1.0733845 0.4804344 0.028847745 0.6824326
00000000: e058 933e ede1 dabf 0cc8 41bf 70e6 12c0
00000010: 24b3 97be 487c 9b3d a128 813e b812 e63e
00000020: a39a cf3e 684e 5b3e 55e5 edbc c8b0 9bbe
00000030: cb0d 9ebd a062 603f 2a01 a2be 6bbb 5ebe
00000040: 9b3d b3bc 1279 0fbe 3720 92be c938 203e
00000050: bb5d 2abf 0428 fe3e 4777 7e3f 1800 d33e
00000060: ab73 b7bd a504 d63b 64c3 b4be b158 283d
00000070: e5e0 943e f14f 8a3e 1657 463e b96b ed3e
00000080: 43e6 5ebf 3a53 76bb 7002 923f 9b4a 593d
00000090: 01ec 353e 2a0e 343f 21f8 1d3f 6495 64bf
000000a0: 97e1 323f d47a 32be 8828 b4bf 71d2 893c
000000b0: c100 4cbf dc25 b53e 4736 19c0 b328 81bf
000000c0: 87f3 51bf bd8b 08bd bf01 d9bf d094 053f
000000d0: 9fb9 86bf dd4b f33e 04e7 17c0 40df 8bbf
000000e0: bf2b 373f f056 d6bc 6113 0fbf e5ce 4d3e
000000f0: aa64 893f 7ffb f53e 1b52 ec3c e7b3 2e3f

encoder_variable_selection.single_variable_grns.SinWeekly.fc1.bias f4 [8]
-0.31523526 -0.13919027 -0.0726204 -0.22421703 0.054296188 -0.5045667 -0.42916042 -0.056699425
00000000: 8466 a1be e587 0ebe 01ba 94bd 2699 65be
00000010: ae65 5e3d 492b 01bf eaba dbbe a83d 68bd

encoder_variable_selection.single_variable_grns.SinWeekly.fc2.weight f4 [8, 8]
-0.7876736 0.10265295 -0.41997147 0.036871247 0.08464883 0.08194839 0.33317426 0.10981659
0.20415618 -0.13286485 -0.056186248 -0.006492932 0.124220796 0.34716648 0.5260324 0.116376065
0.50123894 -0.41788435 0.14588176 -0.033353757 0.4488592 -0.11784616 0.88735193 0.2901452
-0.5037742 0.7367395 0.045835327 -0.010648755 -0.2585363 -0.8286762 -0.30860877 0.061081465
-0.86805946 0.8576447 -0.1869209 -0.12604263 0.21318114 0.6821233 0.32927713 -0.15202646
0.92875963 -0.43613163 -0.52201897 -0.066478826 -0.5466128 0.16101998 -0.16344808 -0.039007377
0.0497069 0.10819971 -0.355478 -0.11480369 0.17027667 -0.50375235 -0.44752675 -0.1920188
0.7186034 -0.123186156 0.05202523 0.06793639 0.44027016 -0.14670497 1.1354675 0.03610925
00000000: faa4 49bf b63b d23d 8006 d7be 4e06 173d
00000010: 5e5c ad3d 8fd4 a73d d195 aa3e 85e7 e03d
00000020: 510e 513e b90d 08be 8d23 66bd a9c2 d4bb
00000030: 7967 fe3d cebf b13e 0faa 063f 9356 ee3d
00000040: 3251 003f f0f4 d5be 0762 153e f39d 08bd
00000050: e0d0 e53e 5459 f1bd 7f29 633f e98d 943e
00000060: 59f7 00bf f69a 3c3f d3bd 3b3d 1e78 2ebc
00000070: df5e 84be 2024 54bf f801 9ebe 8f30 7a3d
00000080: 2539 5ebf 9a8e 5b3f 3168 3fbe 5211 01be
00000090: 284c 5a3e a29f 2e3f 0397 a83e d3ac 1bbe
000000a0: 31c3 6d3f a54c dfbe 09a3 05bf 0d26 88bd
000000b0: d1ee 0bbf 6ce2 243e ef5e 27be 33c6 1fbd
000000c0: 7699 4b3d cf97 dd3d 3601 b6be 321e ebbd
000000d0: 025d 2e3e eaf5 00bf 3a22 e5be 94a0 44be
000000e0: 64f6 373f 0649 fcbd 6818 553d 3c22 8b3d
000000f0: 176b e13e d439 16be 0057 913f 4be7 133d

encoder_variable_selection.single_variable_grns.SinWeekly.fc2.bias f4 [8]
-0.12068854 -0.104619086 0.3118327 -0.07938988 0.121395186 0.11696755 -0.15760952 0.27390227
00000000: 8e2b f7bd 8842 d6bd 89a8 9f3e 2997 a2bd
00000010: 0a9e f83d af8c ef3d 6464 21be eb3c 8c3e

encoder_variable_selection.single_variable_grns.SinWeekly.gate_norm.glu.fc.weight f4 [32, 8]
0.12769607 0.5025926 0.45603195 -0.60586584 0.32232422 0.081621915 -0.21478513 0.3987755
-0.47093284 0.10699717 -0.11368372 -0.092091255 -0.50512797 -0.031989194 0.3642573 0.08980262
0.5689038 0.067821674 0.15699211 -0.30489156 0.4113342 -0.35099328 -0.76519305 0.123165354
0.5399801 0.6583155 0.17128685 -0.90417266 0.3366299 -0.39078397 -0.69464946 0.54573613
0.07898955 0.020362288 -0.14361961 0.3783761 -0.1220532 -0.029407471 0.20688419 0.3921772
0.07705548 -0.1837705 -0.33318484 0.1963518 -0.23281652 -0.012050771 -0.11907771 0.30435017
-0.42264047 -1.0594407 -0.83721554 0.9090498 -1.2761776 0.29338908 1.3477688 -0.8580031
0.05285293 0.1206392 -0.13262512 -0.09057223 -0.26353294 -0.6723673 0.1382673 0.098050736
0.28722093 0.21324474 -0.11900995 0.1847394 0.36338902 -0.18225189 0.18142562 0.069168545
-0.108130656 -0.15968317 0.31143823 -0.24065883 -0.066341154 -0.11240539 0.008949653 0.018147482
0.025617737 0.17258611 0.28945652 -0.47928956 0.048065323 0.20249234 -0.13844678 0.28368497
-0.074292675 -0.20015873 -0.06745599 -0.17328556 0.0996515 0.08052656 0.3070351 0.047975328
0.5228761 0.27230507 -0.6635851 0.30319545 0.47943443 -0.62522084 -0.3761179 -0.47908932
0.64171183 -0.1612583 -0.48784658 0.56724334 0.4565074 -0.7925628 -0.22797716 -0.78529286
-0.23506929 -0.19022498 0.7862251 -0.16280329 -0.33923542 0.26319122 0.16252007 0.623763
0.109927446 -0.48746356 -0.52506393 0.3935116 -0.1195495 -0.24753016 0.40069157 -0.32929295
0.37502918 0.19156355 0.14371191 0.08574936 0.113797024 -0.5221211 -0.018007867 0.13389194
-0.08682521 -0.8895201 -0.28477234 0.8399733 -0.18893258 -0.2864904 0.09744895 -0.15724804
0.16430914 -0.21343455 0.3796985 0.08624935 -0.027370634 0.0065262415 -0.11521951 0.73341745
0.35036108 1.4722122 0.15058646 -0.7498622 0.42487627 -0.3623983 -0.5868154 0.12316161
-0.25317302 0.5011474 -0.2714205 -0.157532 0.46722654 0.29256666 -0.38175508 -0.26593906
-0.088029824 0.4629064 0.110702164 -0.008340901 0.23193282 -0.4120002 -0.3518399 -0.46722752
0.651828 0.34657133 -0.07594103 -0.200023 0.46356452 -1.0762771 -0.3783407 -0.06830591
-0.52242416 0.59013677 0.025375785 0.23972994 0.7673128 0.37302366 -0.056083392 -0.32777196
0.028744822 0.4050203 -0.44413176 -0.41783735 0.73018146 -0.049238026 -0.47307625 -0.6270949
-0.08216055 0.0045529203 -0.3647797 0.21193135 0.28121468 -0.01684484 -0.5762277 -0.16435988
0.4397895 0.11421607 -0.8068868 0.039689377 0.16708118 -0.044940565 -0.33364147 -0.34824216
-0.1868135 0.23487875 -0.012268952 -0.27737626 0.3836428 0.26994497 0.036672432 -0.13119796
-0.95425 -0.21170472 0.89114934 -0.15129602 -0.6212524 0.93475163 0.59793234 0.6292102
-0.53955513 -0.27910027 -0.059450317 0.04204648 -0.5342871 0.5961829 0.7342925 0.4957224
-0.52055705 -0.43106502 0.11195948 0.058377046 -0.54225826 0.53431976 0.20330153 0.35172033
0.2030788 -0.13138857 -0.68995976 0.4739404 0.11364152 -0.41515332 -0.019291209 -0.7786911
00000000: c2c2 023e e9a9 003f 057d e93e 061a 1bbf
00000010: ae07 a53e 6429 a73d a2f0 5bbe 4d2c cc3e
00000020: 1c1e f1be 5521 db3d 03d3 e8bd 579a bcbd
00000030: 1150 01bf 1a07 03bd ef7f ba3e 70ea b73d
00000040: aea3 113f 17e6 8a3d 8ac2 203e bf1a 9cbe
00000050: 659a d23e 64b5 b3be b1e3 43bf 1e3e fc3d
00000060: 233c 0a3f 5d87 283f d265 2f3e dc77 67bf
00000070: c15a ac3e d614 c8be 8cd4 31bf 5db5 0b3f
00000080: 46c5 a13d d0ce a63c 0511 13be 83ba c13e
00000090: 07f7 f9bd f0e7 f0bc 73d9 533e 73cb c83e
000000a0: 43cf 9d3d 552e 3cbe 3497 aabe 7210 493e
000000b0: 7467 6ebe 9970 45bc 04df f3bd c9d3 9b3e
000000c0: 5564 d8be c19b 87bf c253 56bf 7db7 683f
000000d0: ca59 a3bf 1837 963e b083 ac3f 17a6 5bbf
000000e0: 507c 583d af11 f73d e1ce 07be ef7d b9bd
000000f0: caed 86be 4320 2cbf f195 0d3e d3ce c83d
00000100: 9f0e 933e d45c 5a3e 7dbb f3bd 532c 3d3e
00000110: 200e ba3e 3da0 3abe a3c7 393e 3da8 8d3d
00000120: 9b73 ddbd fc83 23be d574 9f3e 456f 76be
00000130: dfdd 87bd cc34 e6bd 91a1 123c 07aa 943c
00000140: 4adc d13c 6aba 303e a533 943e 7165 f5be
00000150: 25e0 443d 275a 4f3e fec4 0dbe 283f 913e
00000160: c226 98bd 69f6 4cbe 5e26 8abd c571 31be
00000170: 1616 cc3d 1ceb a43d b433 9d3e c781 443d
00000180: 35db 053f 926b 8b3e b7e0 29bf 6f3c 9b3e
00000190: 6e78 f53e 790e 20bf 8692 c0be 324b f5be
000001a0: 3a47 243f e520 25be 07c7 f9be dc36 113f
000001b0: 57bb e93e 65e5 4abf d872 69be f408 49bf
000001c0: 01b6 70be 56ca 42be 0c46 493f e8b5 26be
000001d0: 44b0 adbe 00c1 863e a96b 263e efae 1f3f
000001e0: a421 e13d d394 f9be 976a 06bf 5a7a c93e
000001f0: 5ed6 f4bd 8c78 7dbe 7227 cd3e 1699 a8be
00000200: d303 c03e 3c29 443e 3729 133e 5c9d af3d
00000210: 6a0e e93d baa9 05bf 3c85 93bc f81a 093e
00000220: 6ad1 b1bd 97b7 63bf aecd 91be 7d08 573f
00000230: 8b77 41be dfae 92be 5193 c73d a105 21be
00000240: a840 283e 968e 5abe d767 c23e 80a3 b03d
00000250: 6138 e0bc 15da d53b 35f8 ebbd 3fc1 3b3f
00000260: 8762 b33e 7371 bc3f 5633 1a3e f8f6 3fbf
00000270: 6289 d93e 458c b9be 8939 16bf 273c fc3d
00000280: e59f 81be 324b 003f a1f7 8abe 1250 21be
00000290: 5138 ef3e 4ccb 953e 6775 c3be 2a29 88be
000002a0: fb48 b4bd 1102 ed3e d1b7 e23d 46a8 08bc
000002b0: cc7f 6d3e b1f1 d2be 5c24 b4be 7238 efbe
000002c0: 33de 263f cc71 b13e f986 9bbd d4d2 4cbe
000002d0: 5458 ed3e 73c3 89bf dfb5 c1be f8e3 8bbd
000002e0: 97bd 05bf 3413 173f e1e0 cf3c c47b 753e
000002f0: 9d6e 443f f5fc be3e b3b7 65bd bad1 a7be
00000300: 437a eb3c d25e cf3e 3d65 e3be c7ee d5be
00000310: 2ced 3a3f d0ad 49bd 0d37 f2be 4b89 20bf
00000320: ca43 a8bd aa30 953b 68c4 babe 8804 593e
00000330: 5ffb 8f3e 31fe 89bc a983 13bf f54d 28be
00000340: 172c e13e 1dea e93d 2290 4ebf 5491 223d
00000350: 5417 2b3e 9913 38bd 0ed3 aabe cc4c b2be
00000360: 0a4c 3fbe 0e84 703e b703 49bc 4304 8ebe
00000370: d46c c43e 3a36 8a3e d535 163d c258 06be
00000380: ba49 74bf 1fc9 58be 5d22 643f 58ed 1abe
00000390: 660a 1fbf e24b 6f3f 1812 193f eb13 213f
000003a0: 4920 0abf 3be6 8ebe 2d82 73bd ee38 2c3d
000003b0: 0ac7 08bf 719f 183f 98fa 3b3f 54cf fd3e
000003c0: 3a43 05bf 8eb4 dcbe 034b e53d c51c 6f3d
000003d0: 70d1 0abf 2ec9 083f 472e 503e b014 b43e
000003e0: e4f3 4f3e ba8a 06be 34a1 30bf 51a8 f23e
000003f0: e3bc e83d fa8e d4be 9908 9ebc 4d58 47bf

encoder_variable_selection.single_variable_grns.SinWeekly.gate_norm.glu.fc.bias f4 [32]
-0.21976772 0.07528896 -0.2553274 0.26573527 -0.06527663 -0.09518347 -0.6479087 -0.023459572
0.0035304788 -0.1677831 0.023098893 0.16251855 -0.31638622 0.011321784 0.14830671 0.0761725
0.44813487 0.020298779 0.55858713 -1.1027992 -1.9330326 -1.3166388 1.0382415 -1.1746205
-0.6597118 -1.2106777 -0.3099691 -1.5858395 -0.027193645 0.43315092 -0.0130072 0.2740349
00000000: ca0a 61be 1931 9a3d 46ba 82be 740e 883e
00000010: c1af 85bd 8def c2bd 58dd 25bf 4a2e c0bc
00000020: 9b5f 673b 55cf 2bbe e439 bd3c 436b 263e
00000030: 60fd a1be 017f 393c b7dd 173e 5400 9c3d
00000040: ef71 e53e a049 a63c 91ff 0e3f 8628 8dbf
00000050: 9d6d f7bf 9f87 a8bf 19e5 843f f759 96bf
00000060: dfe2 28bf 7df7 9abf 45b4 9ebe cafc cabf
00000070: 35c5 debc f5c5 dd3e 271c 55bc 4d4e 8c3e

encoder_variable_selection.single_variable_grns.SinWeekly.gate_norm.add_norm.norm.weight f4 [16]
2.1178803 0.11860184 1.5600433 1.0663383 1.1833787 0.47586855 1.5558091 0.3665854
0.22770205 0.7062859 1.1019899 1.4652691 0.67694515 1.3073018 0.8490676 1.0534632
00000000: 5a8b 0740 86e5 f23d 80af c73f c67d 883f
00000010: f478 973f 0ba5 f33e c124 c73f 15b1 bb3e
00000020: ba2a 693e 27cf 343f 010e 8d3f f08d bb3f
00000030: 474c 2d3f aa55 a73f 7f5c 593f e2d7 863f

encoder_variable_selection.single_variable_grns.SinWeekly.gate_norm.add_norm.norm.bias f4 [16]
0.23688088 0.25353456 -0.1974452 0.12654749 0.12965475 0.11306208 -0.32001972 -0.103810705
0.26104307 -0.20386584 -0.233586 -0.08184236 -0.19483231 0.1921671 0.18032369 0.076228835
00000000: e790 723e 48cf 813e 132f 4abe aa95 013e
00000010: 37c4 043e 188d e73d a0d9 a3be b59a d4bd
00000020: 70a7 853e 35c2 50be 2b31 6fbe f89c a7bd
00000030: 1f82 47be 74c7 443e c6a6 383e dd1d 9c3d

encoder_variable_selection.single_variable_grns.VaccinationFull.resample_norm.mask f4 [16]
0.05324645 -0.3065331 -0.040854353 -0.6081003 1.1432562 -0.059709482 -0.438422 0.5536497
-0.3423475 -0.60207033 -0.7658003 0.061967883 -0.56565195 0.90269643 0.25847247 -0.16923606
00000000: f318 5a3d e8f1 9cbe e556 27bd 76ac 1bbf
00000010: 3856 923f ee91 74bd d978 e0be fdbb 0d3f
00000020: 2c48 afbe 4821 1abf 7d0b 44bf 09d2 7d3d
00000030: 91ce 10bf 1d17 673f 8156 843e 384c 2dbe

encoder_variable_selection.single_variable_grns.VaccinationFull.resample_norm.norm.weight f4 [16]
1.079733 -0.1498847 1.2340282 0.6400232 2.3999882 0.9769084 0.5100751 1.6541804
0.8006029 0.62685806 0.3734193 1.0229795 0.8735751 1.8121293 1.3603411 1.0680016
00000000: b134 8a3f 607b 19be a3f4 9d3f 8fd8 233f
00000010: 6899 1940 ab16 7a3f 4894 023f 2fbc d33f
00000020: 50f4 4c3f c579 203f d130 bf3e fef0 823f
00000030: 9ea2 5f3f daf3 e73f a81f ae3f 47b4 883f

encoder_variable_selection.single_variable_grns.VaccinationFull.resample_norm.norm.bias f4 [16]
0.23796676 0.40606865 -0.4016468 0.07473154 0.20370165 0.14693432 0.12131073 0.42042676
-0.05683728 -0.35215092 -0.22286485 -0.13107246 -0.20667167 -0.27559754 0.0049248887 -0.060923044
00000000: 8fad 733e 3be8 cf3e a6a4 cdbe da0c 993d
00000010: 2a97 503e f375 163e c371 f83d 2d42 d73e
00000020: 35ce 68bd 204d b4be af36 64be dc37 06be
00000030: bda1 53be 1f1b 8dbe f660 a13b 718a 79bd

encoder_variable_selection.single_variable_grns.VaccinationFull.fc1.weight f4 [8, 8]
0.45110103 -0.0018545918 -0.7249835 -0.18251969 0.76463157 0.056729425 -0.6044579 -0.079211086
-0.02251389 -0.30141953 -1.1657287 -1.821145 -0.019268166 0.33013713 4.676363 0.57488716
0.0831988 -0.58105844 -0.20378794 -0.22129658 -0.34160027 0.45487502 -0.255609 -0.6092512
-0.112733826 -0.69497734 -0.38095126 0.48246646 -0.66901135 0.5484272 -0.025163835 -0.119892746
-0.025777673 0.69550246 -0.034680303 -0.01214719 -0.15373713 0.5412855 0.8875083 1.0108854
-0.28921756 0.62373656 0.34815657 -0.18327186 -0.67696 -0.9420221 -0.7844422 -1.8090053
-0.56109595 0.17846565 0.18937564 0.15695333 0.9823286 -0.104283094 0.18924227 0.12499687
0.2728931 -0.103643306 -0.81988055 -0.29357088 -0.26620802 -0.9037074 -0.0827071 -1.3089609
00000000: b7f6 e63e c615 f3ba 8598 39bf 71e6 3abe
00000010: e5be 433f 1d5d 683d c1bd 1abf 6c39 a2bd
00000020: 0d6f b8bc a953 9abe 9936 95bf 481b e9bf
00000030: 46d8 9dbc bc07 a93e c4a4 9540 ce2b 133f
00000040: 2264 aa3d 3fc0 14bf c9ad 50be 929b 62be
00000050: 3be6 aebe 61e5 e83e 2fdf 82be e3f7 1bbf
00000060: fee0 e6bd 09ea 31bf 0b0c c3be d805 f73e
00000070: 5444 2bbf ba65 0c3f 6324 cebc 548a f5bd
00000080: b32b d3bc 730c 323f ef0c 0ebd 0205 47bc
00000090: 446d 1dbe b091 0a3f be33 633f b164 813f
000000a0: 5314 94be 33ad 1f3f 9441 b23e 9eab 3bbe
000000b0: 404d 2dbf 5c28 71bf 34d1 48bf 7c8d e7bf
000000c0: fca3 0fbf b3bf 363e b0eb 413e 60b8 203e
000000d0: e379 7b3f 6092 d5bd bac8 413e 5cfe ff3d
000000e0: a5b8 8b3e f142 d4bd b1e3 51bf ec4e 96be
000000f0: 6b4c 88be 5e59 67bf 5762 a9bd 088c a7bf

encoder_variable_selection.single_variable_grns.VaccinationFull.fc1.bias f4 [8]
0.30067787 -0.027616126 0.039190196 0.1938639 -0.21047631 -0.5440415 -0.11716894 0.004063225
00000000: 73f2 993e 373b e2bc e685 203d 4284 463e
00000010: 1a87 57be 4e46 0bbf 45f6 efbd cd24 853b

encoder_variable_selection.single_variable_grns.VaccinationFull.fc2.weight f4 [8, 8]
-0.04732527 -0.033440717 0.022400042 -0.43554288 -0.7443105 0.43427306 -0.23093335 -0.19142546
0.51359636 -1.1687773 0.02777416 -0.25774464 -0.6323008 -0.6764224 -0.07730856 -0.07486639
-1.1901059 -0.30436575 -0.037697162 0.8141272 -0.42743078 0.3464455 0.12866095 0.15400615
0.039250705 -1.3169096 0.010482104 -0.29171893 0.3002971 -0.9357848 -0.122495525 0.20744985
-0.11656905 -0.06800417 0.18899834 0.122096725 0.034484547 0.50009423 -0.29818323 0.3860927
-0.42756397 0.7347657 0.17527431 0.2578578 0.38433444 -0.01915476 -0.33756536 -0.4601573
0.54143524 -1.0123601 0.042080887 0.39128342 -0.20668745 -0.60011667 0.016259197 0.10006581
-0.4302918 0.1509699 -0.12015573 0.23972017 -0.56351614 -0.5321626 -0.072788134 0.078038424
00000000: 24d8 41bd 22f9 08bd 4b80 b73c 7aff debe
00000010: 228b 3ebf 0a59 de3e cb79 6cbe 0905 44be
00000020: 0d7b 033f 7f9a 95bf a386 e33c 1bf7 83be
00000030: 77de 21bf 052a 2dbf f353 9ebd 8d53 99bd
00000040: 6455 98bf d4d5 9bbe 5768 1abd a46a 503f
00000050: 35d8 dabe 4e61 b13e b2bf 033e cab3 1d3e
00000060: 59c5 203d 7e90 a8bf 21bd 2b3c 2f5c 95be
00000070: 8bc0 993e 988f 6fbf efde fabd bc6d 543e
00000080: c1bb eebd c545 8bbd c888 413e d90d fa3d
00000090: ab3f 0d3d 2d06 003f 79ab 98be f1ad c53e
000000a0: aae9 dabe 9b19 3c3f 1c7b 333e f005 843e
000000b0: 7cc7 c43e 71ea 9cbc 5ed5 acbe bd99 ebbe
000000c0: 809b 0a3f 0495 81bf 025d 2c3d 4d56 c83e
000000d0: e0a5 53be 3fa1 19bf 0232 853c 4eef cc3d
000000e0: 354f dcbe da97 1a3e 3514 f6bd 3479 753e
000000f0: 9842 10bf cf3b 08bf f211 95bd 9cd2 9f3d

encoder_variable_selection.single_variable_grns.VaccinationFull.fc2.bias f4 [8]
-0.21918379 0.39736584 0.12111759 0.17233464 0.2009687 -0.11899191 0.7842072 0.20003378
00000000: b771 60be 8973 cb3e 800c f83d 7e78 303e
00000010: bdca 4d3e 08b2 f3bd cec1 483f a8d5 4c3e

encoder_variable_selection.single_variable_grns.VaccinationFull.gate_norm.glu.fc.weight f4 [32, 8]
0.23249447 0.41694298 0.06117316 0.55288815 -0.22136955 0.16437794 0.61535794 -0.2080743
-0.13306972 -0.42572305 -0.463569 -0.7693224 0.12804803 0.25295368 0.10672418 -0.12810026
0.24186786 -0.022378108 0.06371531 -0.0026486912 -0.038642578 0.35861683 -0.36439642 0.31767732
-1.2501215 0.9604355 -0.88348454 1.3974528 -1.0565523 0.8827547 0.50192606 1.1766181
1.159095 -0.32549256 0.97087705 -1.1523806 1.0314763 -0.83922786 -0.5246413 -0.6836731
-0.20627238 0.67621887 0.26447532 0.269474 -0.015957613 0.18144056 -0.04189963 0.20654197
-0.2908958 0.6359468 -0.3131607 0.5151004 -0.41524398 0.62259173 0.47843248 0.49407372
-0.36936104 0.35976157 0.052642494 -0.107883856 0.15705983 -0.29511955 0.5135969 -0.15488097
-0.4458589 -0.2430128 -0.5119745 -0.55162394 -0.5380849 0.91808265 0.036937997 0.28961357
0.18377595 0.1298478 -0.07446244 0.08963469 -0.5991713 0.18359078 -0.39465725 0.13872662
0.29038033 -0.014656964 0.04670239 -0.323125 0.34472957 -0.08437977 -0.025003845 -0.07497377
-0.23324455 -1.1793791 -0.28493446 0.14959817 -0.19886288 0.51037437 -1.0026975 0.12597671
-0.14928703 0.049047776 0.040895153 -0.35006058 0.1600019 -0.28789932 -0.32735112 -0.29094294
0.20662658 -1.1552522 0.30584392 -0.25972176 0.28651553 0.10336834 -1.0274025 -0.5923035
-0.11638532 -0.4177228 0.00954742 -1.0094792 0.14385669 0.45352668 -0.41036916 0.12590198
0.13482143 -0.34636843 0.18348314 -0.53328574 -0.05901908 0.16624735 -0.09134884 0.11961493
0.31900656 -0.96694285 0.05943183 -0.34006885 0.049203087 0.25168708 -1.0055205 -0.053179163
-0.062287573 -0.032314274 0.0011516525 0.28451934 -0.11650795 0.7392835 -0.19613245 0.3752366
0.3077307 0.6009157 0.23826274 0.22646552 -0.046128154 0.38927406 0.027301472 0.10557342
0.5446351 -0.25973266 0.9405936 -0.3580269 0.6395029 -0.45975128 -0.41425517 -0.8769134
-0.17892116 0.40769958 0.03052071 0.18418545 -0.031238372 0.0032579454 0.38006616 0.037771624
-0.26719195 -0.09387293 0.18945453 0.19727805 -0.12590508 0.64916795 -0.9479211 0.4044724
0.53939015 -0.75165457 -0.03215903 -0.7275689 -0.04164825 0.30251628 -0.6244101 -0.14089258
-0.35066485 0.38519707 0.4753769 0.38694394 -0.082303256 -0.20423906 -0.2417526 0.24839011
-0.3240254 0.20547712 -0.535188 0.45435777 -0.6317453 0.3562989 0.6692718 0.3729895
-0.021830805 0.5444535 0.1802205 0.8097934 -0.08403063 -0.27710748 0.39238834 0.5621097
0.19929628 -0.2549642 0.67520314 -0.64737594 1.1486791 -0.38529918 -0.07285624 -0.663281
1.8999294 -0.5067624 1.536393 -1.2939824 0.72990495 -0.35218805 -0.35518894 -1.097781
0.48955694 -0.053012848 -0.2888658 0.4325105 0.17749634 0.17627619 -0.62129 0.3357657
0.098022684 -1.125818 0.042292513 -0.004715979 0.041511603 0.078258485 -1.0454599 -0.041633155
0.061860833 0.50091124 -0.039862648 1.6305776 -0.14531803 -0.54350215 -0.056117017 -0.160421
-0.43202746 -0.10206813 0.36512393 0.45671105 -0.49723852 0.15651965 -0.38214466 -0.050081905
00000000: 0813 6e3e 8d79 d53e b590 7a3d 148a 0d3f
00000010: b3ae 62be b152 283e 1988 1d3f 6e11 55be
00000020: 6e43 08be 5ff8 d9be ea58 edbe 50f2 44bf
00000030: 061f 033e 2583 813e 3592 da3d b72c 03be
00000040: 35ac 773e 4b52 b7bc 2c7d 823d aa95 2dbb
00000050: ae47 1ebd a09c b73e 2b92 babe 9aa6 a23e
00000060: fb03 a0bf 1adf 753f 0b2c 62bf bcdf b23f
00000070: 1b3d 87bf 36fc 613f 3a7e 003f 6c9b 963f
00000080: 3a5d 943f f6a6 a6be 668b 783f 3581 93bf
00000090: 6a07 843f a3d7 56bf e44e 06bf 3305 2fbf
000000a0: 1139 53be ae1c 2d3f 4f69 873e 7ff8 893e
000000b0: 8ab9 82bc 8ecb 393e f29e 2bbd bd7f 533e
000000c0: 4bf0 94be 69cd 223f 9956 a0be 9fdd 033f
000000d0: dc9a d4be 2c62 1f3f 1af5 f43e 3bf7 fc3e
000000e0: e41c bdbe ab32 b83e a89f 573d 36f2 dcbd
000000f0: 4bd4 203e e919 97be 167b 033f 1e99 1ebe
00000100: 9e47 e4be 59d8 78be c310 03bf 3a37 0dbf
00000110: efbf 09bf 7707 6b3f 4c4c 173d 3b48 943e
00000120: c32f 3c3e d2f6 043e c47f 98bd 6492 b73d
00000130: 4a63 19bf 39ff 3b3e 8410 cabe 5a0e 0e3e
00000140: bbac 943e c323 70bc 014b 3f3d a470 a5be
00000150: 6580 b03e 4dcf acbd ddd4 ccbc d98b 99bd
00000160: a9d7 6ebe e5f5 96bf eee2 91be 4330 193e
00000170: b6a2 4bbe e5a7 023f 6458 80bf 0a00 013e
00000180: b3de 18be 52e6 483d ad81 273d 243b b3be
00000190: 8ad7 233e 8a67 93be 919a a7be 79f6 94be
000001a0: eb95 533e 4edf 93bf 9397 9c3e 40fa 84be
000001b0: 2ab2 923e c8b2 d33d ed81 83bf 34a1 17bf
000001c0: 6d5b eebd c3df d5be c86c 1c3c 9d36 81bf
000001d0: 2b4f 133e a634 e83e e81b d2be 73ec 003e
000001e0: a10e 0a3e 3457 b1be 01e3 3b3e 6a85 08bf
000001f0: febd 71bd bf3c 2a3e 1a15 bbbd acf8 f43d
00000200: d454 a33e 9189 77bf ca6e 733d 811d aebe
00000210: 2d89 493d 21dd 803e e5b4 80bf 65d2 59bd
00000220: 4121 7fbd f95b 04bd 0cf3 963a 85ac 913e
00000230: b89b eebd af41 3d3f f2d6 48be 031f c03e
00000240: e18e 9d3e 9cd5 193f 26fb 733e 94e6 673e
00000250: e0f0 3cbd ee4e c73e 56a7 df3c e136 d83d
00000260: 356d 0b3f aefb 84be beca 703f 4d4f b7be
00000270: 76b6 233f 8564 ebbe 4119 d4be 667d 60bf
00000280: 1c37 37be 00be d03e 9106 fa3c 1c9b 3c3e
00000290: 9de7 ffbc 4183 553b 0898 c23e 6bb6 1a3d
000002a0: 62cd 88be 7340 c0bd 5e00 423e 4203 4a3e
000002b0: 43ed 00be df2f 263f f5aa 72bf 0217 cf3e
000002c0: 7915 0a3f 6f6c 40bf 30b9 03bd f541 3abf
000002d0: 5b97 2abd 6ae3 9a3e 57d9 1fbf 2546 10be
000002e0: 588a b3be 8d38 c53e 9a64 f33e 841d c63e
000002f0: 9c8e a8bd 0b24 51be fe8d 77be fa59 7e3e
00000300: a8e6 a5be 9868 523e 1502 09bf 95a1 e83e
00000310: 0fba 21bf cf6c b63e 6655 2b3f 7bf8 be3e
00000320: 84d6 b2bc 4e61 0b3f b98b 383e 9f4e 4f3f
00000330: 4018 acbd 08e1 8dbe 20e7 c83e 6ce6 0f3f
00000340: 5314 4c3e ab8a 82be 1dda 2c3f 6eba 25bf
00000350: eb07 933f ef45 c5be a735 95bd c9cc 29bf
00000360: e330 f33f 2ebb 01bf 87a8 c43f 37a1 a5bf
00000370: 0ddb 3a3f fe51 b4be 53db b5be 1684 8cbf
00000380: 35a7 fa3e 0024 59bd 38e6 93be 0472 dd3e
00000390: 9ac1 353e bf81 343e dd0c 1fbf 7be9 ab3e
000003a0: 1ec0 c83d ce1a 90bf ea3a 2d3d 8088 9abb
000003b0: 1208 2a3d fc45 a03d a1d1 85bf 8787 2abd
000003c0: c961 7d3d b83b 003f 0447 23bd c4b6 d03f
000003d0: 40ce 14be f522 0bbf f5da 65bd 6745 24be
000003e0: b432 ddbe 1909 d1bd 86f1 ba3e 08d6 e93e
000003f0: 0c96 febe b046 203e 77a8 c3be af22 4dbd

encoder_variable_selection.single_variable_grns.VaccinationFull.gate_norm.glu.fc.bias f4 [32]
0.47001627 0.403683 -0.22980249 -0.5111858 -0.27513462 -0.023051659 -0.064982064 0.21624826
0.055616267 -0.22399193 0.3873561 -1.2992387 -0.25946248 -0.51415104 -0.243425 -0.10090092
-1.0105667 -0.2599126 -0.23013172 0.41805974 0.805426 -2.2012384 -0.23892692 -0.45104393
0.31259695 -0.3427861 0.282963 0.28011215 -0.711955 -1.5415132 -0.28272134 -1.0060707
00000000: f9a5 f03e 8aaf ce3e 5851 6bbe 13dd 02bf
00000010: 72de 8cbe d5d6 bcbc 5115 85bd 2f70 5d3e
00000020: e2cd 633d 245e 65be 8a53 c63e 744d a6bf
00000030: 44d8 84be 679f 03bf 6744 79be 24a5 cebd
00000040: 405a 81bf 4413 85be a6a7 6bbe ed0b d63e
00000050: 6630 4e3f 17e1 0cc0 42a9 74be 3bef e6be
00000060: b50c a03e a981 afbe 87e0 903e dc6a 8f3e
00000070: af42 36bf 4e50 c5bf dac0 90be edc6 80bf

encoder_variable_selection.single_variable_grns.VaccinationFull.gate_norm.add_norm.norm.weight f4 [16]
0.5087451 0.44925225 0.8377962 1.4004663 0.93025774 0.7402876 0.6318644 0.9387118
0.7068678 -0.13745935 0.54872197 1.2260548 -0.30576846 1.5099335 1.1515424 0.2279651
00000000: 1e3d 023f 6404 e63e d079 563f 7b42 b33f
00000010: 5f25 6e3f 7d83 3d3f dec1 213f 6b4f 703f
00000020: 4af5 343f 25c2 0cbe 0b79 0c3f 5def 9c3f
00000030: af8d 9cbe 8045 c13f be65 933f af6f 693e

encoder_variable_selection.single_variable_grns.VaccinationFull.gate_norm.add_norm.norm.bias f4 [16]
0.16635537 0.3322847 -0.026037283 0.060823802 0.17243823 0.13697767 -0.15222006 -0.025870454
0.09667807 -0.19149818 -0.2148609 0.39641288 -0.23658171 0.11182383 -0.039592236 -0.028934317
00000000: 1059 2a3e 3821 aa3e 244c d5bc 6122 793d
00000010: a693 303e e043 0c3e 93df 1bbe 46ee d3bc
00000020: 27ff c53d 1918 44be 7f04 5cbe a1f6 ca3e
00000030: 7a42 72be e403 e53d 782b 22bd a907 edbc

encoder_variable_selection.single_variable_grns.Cases.resample_norm.mask f4 [16]
-0.27196902 0.39166772 -1.7578095 0.028448308 -0.4490621 0.44926915 -0.1374761 -0.40503755
-0.31533867 0.6533549 0.6112813 0.09212455 -1.3901798 -0.9285134 0.16749488 0.15739799
00000000: 863f 8bbe ac88 c83e e7ff e0bf 6d0c e93c
00000010: 78eb e5be 9b06 e63e 89c6 0cbe 1561 cfbe
00000020: 1274 a1be 4442 273f ee7c 1c3f ccab bc3d
00000030: 69f1 b1bf 0eb3 6dbf c783 2b3e f02c 213e

encoder_variable_selection.single_variable_grns.Cases.resample_norm.norm.weight f4 [16]
0.90119916 1.8416226 0.8926191 1.4461156 0.7862161 1.5968246 1.6574236 1.3656675
1.2829355 1.8355279 1.7187579 1.3629901 -0.01878385 0.3954713 1.8050029 1.5410944
00000000: fdb4 663f 4aba eb3f af82 643f 511a b93f
00000010: 7545 493f c064 cc3f 7526 d43f 31ce ae3f
00000020: 3b37 a43f 94f2 ea3f 4200 dc3f 7676 ae3f
00000030: 97e0 99bc 377b ca3e 560a e73f 9542 c53f

encoder_variable_selection.single_variable_grns.Cases.resample_norm.norm.bias f4 [16]
0.2954126 0.053084053 -0.67107207 -0.596706 0.008001264 -0.28176132 -0.15539326 -0.117259584
0.1506398 0.0075723375 0.2147288 -0.055744886 0.44410825 -0.11080023 0.13272479 0.429059
00000000: 5240 973e aa6e 593d 61cb 2bbf b9c1 18bf
00000010: bc17 033c 0543 90be 691f 1fbe cb25 f0bd
00000020: 5241 1a3e 5f21 f83b dee1 5b3e c054 64bd
00000030: 2862 e33e 3beb e2bd 02e9 073e 9fad db3e

encoder_variable_selection.single_variable_grns.Cases.fc1.weight f4 [8, 8]
-0.050148573 1.7063379 0.15176386 -1.1475737 -0.58585125 0.4393558 -0.27245986 -0.44322774
0.44007564 0.9204577 -0.19433643 -3.2506742 -1.2973615 0.21011283 0.19728349 -0.04711928
1.1696208 0.16211061 -0.049905304 -0.08823267 -0.11957234 0.29821107 -0.78987896 0.8971333
-0.59349126 -0.004739253 0.8681734 0.3558335 0.6879883 0.09329521 0.3530261 0.68854576
-0.22774033 -0.11628214 0.20302384 0.03787904 0.12558818 0.2847348 0.17376968 0.33680797
-0.14259188 0.2874808 0.14087594 -2.0939736 -0.7148258 0.2676434 0.024130508 0.8049552
0.3532408 -0.10034798 -0.16827066 1.1975571 -0.8993683 0.1304632 0.13711964 -0.1841002
0.12817101 -0.6527617 -0.67773664 -0.48457408 0.11348607 -0.22210863 -0.8631614 1.4693553
00000000: 9768 4dbd 4869 da3f fc67 1b3e b2e3 92bf
00000010: 59fa 15bf 3ef3 e03e dc7f 8bbe bfee e2be
00000020: 9851 e13e 1ea3 6b3f 2100 47be 0c0b 50c0
00000030: f10f a6bf d127 573e af04 4a3e 2500 41bd
00000040: 22b6 953f 5300 263e 8169 4cbd 55b3 b4bd
00000050: 58e2 f4bd 1faf 983e 8235 4abf 87aa 653f
00000060: 0bef 17bf bc4b 9bbb 9d40 5e3f cf2f b63e
00000070: 0020 303f 8f11 bf3d d6bf b43e 8944 303f
00000080: c334 69be 5525 eebd 7be5 4f3e 0d27 1b3d
00000090: 309a 003e c2c8 913e aef0 313e 1872 ac3e
000000a0: 9b03 12be af30 933e c841 103e aa03 06c0
000000b0: d3fe 36bf 8e08 893e 58ad c53c 8b11 4e3f
000000c0: fadb b43e 3e83 cdbd 254f 2cbe 8d49 993f
000000d0: 003d 66bf 2598 053e 1769 0c3e c384 3cbe
000000e0: 433f 033e 641b 27bf 2680 2dbf 181a f8be
000000f0: 626b e83d 7270 63be 25f8 5cbf d613 bc3f

encoder_variable_selection.single_variable_grns.Cases.fc1.bias f4 [8]
-0.43941543 -0.39778644 -0.22435452 -0.3043838 -0.13962297 -0.33562258 -0.44204205 0.006899644
00000000: 0ffb e0be aaaa cbbe 31bd 65be 32d8 9bbe
00000010: 53f9 0ebe b9d6 abbe 5653 e2be 6916 e23b

encoder_variable_selection.single_variable_grns.Cases.fc2.weight f4 [8, 8]
-0.31961787 0.6937266 -0.47105905 -0.23555322 0.16941082 -0.31610966 0.20773827 -0.3716096
-0.39035028 0.03872339 0.058852736 -0.15246074 0.041797474 0.06456739 -0.17504534 -0.870948
0.019814398 -0.6362878 -0.70854443 -0.06885639 0.3614137 -0.160398 -0.2042536 0.8856456
-0.45150074 -0.9335652 -0.25023034 -0.7509131 0.21301413 -0.9659403 -0.40489212 -0.09496424
0.4782106 0.68928415 -0.08175454 0.441722 0.20687981 -0.29456943 0.077689216 0.611131
0.14401342 -0.07415807 0.81973696 0.4536093 -0.06704628 0.049506303 0.20676006 0.2823729
-0.7849993 -0.8132088 -0.3917496 0.46094328 -0.065663286 -0.5203074 0.32707864 -0.35035193
0.4858157 0.88810754 0.006767712 0.012324561 0.15365416 0.19412477 -0.14810255 0.2714024
00000000: f4a4 a3be 1198 313f a72e f1be dd34 71be
00000010: 087a 2d3e 20d9 a1be 57b9 543e 9d43 bebe
00000020: fedb c7be 6b9c 1e3d 910f 713d ab1e 1cbe
00000030: d433 2b3d e83b 843d 163f 33be 73f6 5ebf
00000040: ce51 a23c c2e3 22bf 2b63 35bf 9404 8dbd
00000050: 370b b93e 603f 24be db27 51be acb9 623f
00000060: 1b2b e7be 21fe 6ebf 311e 80be d73b 40bf
00000070: 6020 5a3e dd47 77bf 054e cfbe 9d7c c2bd
00000080: 05d8 f43e ed74 303f ed6e a7bd 6329 e23e
00000090: 4dd8 533e ced1 96be 861b 9f3d 1573 1c3f
000000a0: 4178 133e 30e0 97bd 48da 513f 7a3f e83e
000000b0: 8f4f 89bd 1fc7 4a3d e9b8 533e 2e93 903e
000000c0: b7f5 48bf 742e 50bf 6793 c8be c200 ec3e
000000d0: 797a 86bd de32 05bf da76 a73e 5461 b3be
000000e0: d6bc f83e 045b 633f afc3 dd3b f5ec 493c
000000f0: 8457 1d3e a5c8 463e 32a8 17be 41f5 8a3e

encoder_variable_selection.single_variable_grns.Cases.fc2.bias f4 [8]
0.0050032036 0.25631064 -0.10474779 0.2842325 0.2243943 0.009713401 0.17427312 -0.09149264
00000000: eaf1 a33b 263b 833e 0286 d6bd ec86 913e
00000010: 9fc7 653e f524 1f3c a774 323e 7e60 bbbd
