TFT-pytorch-AgeGroups/results/UNDER5/checkpoints/best-epoch=2.ckpt (torch, 735789 bytes, 506 tensors)

prescalers.UNDER5.weight f4 [8, 1]
00000000: b45b bcbd aa88 33bf c609 f73d 4f6a bf3e
00000010: 8631 7f3b 53ae 10bd 82aa 48bf 6663 cf3e
-0.091971785 -0.7013041 0.12062411 0.37385795 0.003893943 -0.0353225 -0.78385174 0.40505522

prescalers.UNDER5.bias f4 [8]
00000000: 7717 b4bc f28f 5f3f f273 083f 0780 84be
00000010: a378 a13d b824 4dbf 3c21 643e 7f03 bfbe
-0.021983845 0.8732902 0.5330192 -0.25878927 0.07884338 -0.80134153 0.22278303 -0.37307355

prescalers.SinWeekly.weight f4 [8, 1]
00000000: a437 113d dbb1 90bf 07b9 723f 378f 84bf
00000010: 3d2e 283f 9b60 5dbe 9ace 483f 0a78 db3e
0.035453454 -1.1304277 0.9481358 -1.0356206 0.65695554 -0.21618883 0.7844025 0.4286502

prescalers.SinWeekly.bias f4 [8]
00000000: 0e84 d73d 4882 47bd 75e0 413f 6809 ae3e
00000010: ed73 063f 9fb7 17bf 3308 483f 944c d73e
0.10523234 -0.04870823 0.7573312 0.3399155 0.5252064 -0.5926456 0.7813751 0.42050612

prescalers.VaccinationFull.weight f4 [8, 1]
00000000: 73b1 763e f9b8 003e 8f7d 0c3f 0645 693f
00000010: 7895 9abe c0ac e5be c80b 80be 6976 3ebf
0.24091129 0.12570561 0.5487909 0.91120946 -0.3019216 -0.4485836 -0.25008988 -0.7439943

prescalers.VaccinationFull.bias f4 [8]
00000000: 839c 303f 1f56 d3be 915a 89be 40ff 8a3f
00000010: 18ea 443f 9f55 2abb 3130 c5be f135 3d3c
0.6898882 -0.41276643 -0.2682691 1.0859146 0.769197 -0.0025990976 -0.3851333 0.011548505

prescalers.Cases.weight f4 [8, 1]
00000000: 1d52 e23e c516 9cbf d19b 53bf 0538 503f
00000010: b472 b03f 3a4f 19bd 5a52 29bf 9060 d83e
0.44203272 -1.2194449 -0.8265963 0.8133548 1.3785005 -0.037429072 -0.66141284 0.4226117

prescalers.Cases.bias f4 [8]
00000000: 1076 08bf 0ce1 a6bd 3271 053f d935 dc3e
00000010: 2bc0 1abd 994f e13d a15b ba3e 61f9 70bf
-0.5330515 -0.08148393 0.5212585 0.43009833 -0.037780922 0.1100151 0.36398032 -0.9413052

static_variable_selection.single_variable_grns.UNDER5.resample_norm.mask f4 [16]
00000000: e5ff 30be a9f8 863e c302 6c3e d020 213e
00000010: 2685 ddbd 6a9e 50be f39b 633d d635 3fbf
00000020: c4a3 b6be 7ac9 a8be 2c5e 4ebe 484c f13e
00000030: 9efa a8be 18b4 913e 7f07 42be df9b 653d
-0.17285116 0.26361588 0.23047929 0.15735173 -0.10816412 -0.2037293 0.055568647 -0.7469152
-0.35671818 -0.32966214 -0.20153111 0.4712851 -0.33003706 0.28457713 -0.18948172 0.056056853

static_variable_selection.single_variable_grns.UNDER5.resample_norm.norm.weight f4 [16]
00000000: 53e9 453f 9ae0 913f 1dbf a93f a13d a63f
00000010: e70b 8a3f f1d2 7e3f 5626 993f 1c1a fb3e
00000020: 214c 0f3f 172b 423f 02e2 833f 76b3 cf3f
00000030: 315b 643f 9f6c a63f 1d28 733f e965 923f
0.7730915 1.1396668 1.3261448 1.2987558 1.0784882 0.9954062 1.1964824 0.49043357
0.5597554 0.75847 1.0303347 1.6226642 0.8920165 1.3001899 0.94983083 1.143735

static_variable_selection.single_variable_grns.UNDER5.resample_norm.norm.bias f4 [16]
00000000: 134a 083e 099e 79bc 04b0 053e 99a0 843e
00000010: c7bf be3d f957 e5bd 1317 57be d39a b43a
00000020: 4cbe 7b3c 4b63 213e c878 af3d acd6 19bf
00000030: 4697 5a3e eb2d c93d 011a fb3c fa90 6bbd
0.13309507 -0.015235432 0.13055426 0.25903776 0.093139224 -0.1119842 -0.21004896 0.0013779051
0.0153651945 0.15760534 0.08567959 -0.6009319 0.21346769 0.09823211 0.030652048 -0.057511307

static_variable_selection.single_variable_grns.UNDER5.fc1.weight f4 [8, 8]
00000000: 2469 8e3e b69f edbe 2e36 edbe 92cc 05bf
00000010: 0187 0cbe c824 bcbf 52bb 613e 5b80 fabe
00000020: cf38 fdbe 4aa7 64bf 4c29 acbe b517 e33e
00000030: fe19 85be 0117 8ebe 3ce4 4e3f f9e5 95bd
00000040: f912 b7bc e9d9 043f 9fd6 403f 0835 f2bd
00000050: ac5f 8c3d 0198 c6be b58c 563e beee d3be
00000060: 4c4c a9be 2fee 91be 8a50 15be f017 c4be
00000070: eaab 58be c892 943e fcae 22be 76ea 433f
00000080: 6ce2 10bf c7b0 e93e 5187 013e 17d2 f53d
00000090: 4389 15bf fe8c 293f d79e 73bc 9d1a 063e
000000a0: f00a ee3e 0bd3 aebe 5704 7dbe c5be 253e
000000b0: 8e4a ad3e 1a1f abbe 18f8 fabc 37e1 78bd
000000c0: b5f8 a4be e5be 29bf 047d aabd 45c2 a43e
000000d0: 34d3 5d3e a138 943f 4b73 853e f74c e8bd
000000e0: e669 26bf 409f c1be 0ad0 86be 6420 7d3e
000000f0: 5f00 833b bbc8 9dbe 2273 093f f36d 12be
0.2781459 -0.46410912 -0.46330398 -0.52265275 -0.13723375 -1.4698725 0.22044113 -0.48926052
-0.49457404 -0.8931776 -0.33625257 0.44354025 -0.25996393 -0.27751926 0.8081701 -0.073192544
-0.022347914 0.51895005 0.75327486 -0.11826521 0.068541855 -0.38787845 0.20952113 -0.41393083
-0.33066022 -0.28502032 -0.14581504 -0.38299513 -0.2115933 0.29018235 -0.15887064 0.76529634
-0.5659549 0.45642683 0.12649275 0.12002962 -0.5841257 0.6623076 -0.014869413 0.1309609
0.4649272 -0.34145388 -0.24708687 0.16186054 0.33845943 -0.33422166 -0.030635878 -0.060761657
-0.32220998 -0.66306907 -0.08324626 0.32179466 0.21662599 1.1579782 0.26064524 -0.11342805
-0.6500534 -0.3781681 -0.26330596 0.24719387 0.003997847 -0.30817208 0.53691304 -0.14299755

static_variable_selection.single_variable_grns.UNDER5.fc1.bias f4 [8]
00000000: b890 96bc 3f86 fdbd 3eab 4d3e be21 57be
00000010: a49a a33e b86a 06be 9752 733e 5b13 e2bd
-0.018379554 -0.12379121 0.20084855 -0.21008965 0.3195392 -0.13126647 0.23761974 -0.11038848

static_variable_selection.single_variable_grns.UNDER5.fc2.weight f4 [8, 8]
00000000: 2fc0 6fbe 6d70 483f 0929 093e dc9b 5ebe
00000010: daca 773e 4b1f f3be 4a80 2a3f 2eb4 533f
00000020: 1346 77be 3389 bbbe 35e5 cf3e 910e 41bd
00000030: 6322 3d3e 9c88 13bd ddb0 533d c414 923e
00000040: 1998 983e 6bf9 803d 1ab5 863d 21b4 033e
00000050: 9f13 873e 7fe1 ccbe b839 a6be fdb9 5f3e
00000060: e043 423f b0ab 623d fd88 263f bae7 afbe
00000070: 6129 573d 95ad cdbd e86a ab3e 0c8b 23bf
00000080: d97d 833d 98e9 8abe 0715 333e 406d 423e
00000090: 3ed5 513d 3476 573e 3f77 e63e b229 0ebb
000000a0: 28f0 983e 6e89 a6be 68e9 c0be a7c4 27bd
000000b0: b84a 7b3e 1ae3 c13d 3fd2 40bf 23e0 e93d
000000c0: b525 dfbe 9ace 6c3e 3965 d53c 0bcb 5bbe
000000d0: d5dc 793e 3a36 ec3d b008 e4be 0c2a b6be
000000e0: f7f8 c13d b203 933e 9508 38bf 45c7 ce3c
000000f0: 4158 ea3b 2c1d 843d d2d7 c53e b014 c7be
-0.23413156 0.7829655 0.1339456 -0.21739143 0.24198475 -0.47484812 0.66602004 0.8269681
-0.24147825 -0.36628112 0.4060456 -0.047133032 0.18470149 -0.036018953 0.05168234 0.28531468
0.2980354 0.06297573 0.06577511 0.12861682 0.26382157 -0.4001579 -0.3246591 0.21848293
0.7588482 0.055339515 0.6505278 -0.3435648 0.052529696 -0.10042874 0.3348 -0.63884044
0.06420488 -0.27131343 0.1748849 0.18986988 0.051228754 0.21041185 0.45012853 -0.0021692333
0.29870725 -0.32526726 -0.37678075 -0.040959027 0.24540222 0.09467144 -0.7532081 0.11419704
-0.43583456 0.23125687 0.026049243 -0.21464173 0.24400647 0.115337804 -0.44537878 -0.35578954
0.094713144 0.28713757 -0.71888095 0.025241503 0.007151634 0.064508766 0.3864122 -0.3888297

static_variable_selection.single_variable_grns.UNDER5.fc2.bias f4 [8]
00000000: b02d 1c3d 5488 af3e 6e48 b93d 8966 a43e
00000010: 40da 6e3d ffb2 7d3c fb32 833d 9671 0fbe
0.03812951 0.34283698 0.09047018 0.32109478 0.05831361 0.0154845705 0.06406208 -0.14008173

static_variable_selection.single_variable_grns.UNDER5.gate_norm.glu.fc.weight f4 [32, 8]
00000000: d0ce a53c a2db 953e e989 05be 08c0 7abe
00000010: 25e8 b93e 87dd ecbd 225d dcbe 86e7 033e
00000020: cdfb 67bd ed22 2d3e ded7 26be 9405 f73d
00000030: bd01 7dbe a140 ab3d c025 41be e84f 023d
00000040: d957 8f3d 46e0 be3e d971 8cbe 715e ea3d
00000050: 30aa 153e 1bfc 4dbe ee13 2a3e 55dc 303e
00000060: 251d 8fbe df00 bd3e adf4 91be caa1 8cbe
00000070: 422b e03c 9601 9abe 0cf0 e33b 0745 6dbd
00000080: aefb 2dbd 02cd 6bbe 4ae7 053f 96e9 b3bd
00000090: 3e76 7d3d 8e94 11bf 37f3 87bc 37ef 70be
000000a0: 6c54 0f3f 73aa 843e 34c3 edbd 962a 203e
000000b0: a149 f7bd ff22 95be e556 183e 386d 18be
000000c0: 85a9 19be bb55 a3be d510 e3bc cdfd 34bd
000000d0: aae9 91bd e556 28bd 3d8e 85bc 96bd e33e
000000e0: 9bd6 e33e 4674 8a3e f34c 60bd 4c37 35be
000000f0: 65db 593e 4f44 12be 9771 cc3a d8e2 b43d
00000100: 7596 36be 6d3d 9abe 5d34 b13d 3643 573e
00000110: 667d b43e 1a77 f7bd f9e3 df3d cd5a 373e
00000120: ad69 d93b 77ee dcbd 28ea 5fbd 2367 9fbb
00000130: 1579 0d3d 2338 003e 267b c8be 703b 8dbe
00000140: de25 55be 1ca2 8abe e425 ee3e 5e0a 60be
00000150: d909 fcbd 2c27 5bbe 12c8 dbbc 58d4 3d3e
00000160: 0e40 623e 6baa 46be c7bc a33c 512d febe
00000170: 0a26 973d 46a0 a6bd f64e b1bd dfdf 273f
00000180: f6e9 79be cf0f b03e 41dc 05bd 75a2 943e
00000190: 9453 6e3e cb0c a4bd 6381 8e3d f58a 5b3e
000001a0: 289f 0ebe 7d4d bc3d cb26 103e b551 ab3e
000001b0: 5358 f13d 79d9 d9be 1ca8 a63d 6b36 c23d
000001c0: 3c67 e6be 68a1 a23e 9859 8ebe c984 243e
000001d0: 94ea 95bd 03f1 223e 9bee b63e 4282 a33d
000001e0: 11f2 edbc 8d81 fe3d c0be 08bf 2ed4 da3e
000001f0: fa89 9d3e 99dc 713e c9fc 523d 3c2e 56be
00000200: aa32 963d 21b8 01bf 718c c2be d2a1 aa3c
00000210: 9043 15bd 2588 e0be 702d d8be 29d4 b33e
00000220: 0e83 283f df3e 2bbf ec26 6bbe 740a 2fbc
00000230: a34a d6be 94bc 7ebf 2413 f1be e4ba 6c3e
00000240: a013 953e 92fa 6bbe be5a aabe a2a0 febd
00000250: 0e78 b7bd f9f0 7b3d d149 e5be b169 053f
00000260: ee2d 993e b8c2 4bbe 129f f5bd 9ad4 1ebf
00000270: 6257 06be 891c 27bf bdc5 5abf f281 7c3f
00000280: f37c 0c3b 3f70 c7be cc38 4bbe 796a 86bd
00000290: a22a c8bd ccc3 21bf e877 60be 40bf bf3e
000002a0: e57d 6abd 5ee6 f3be 6a67 e0bd abdf 18bf
000002b0: 38c9 c9be f480 e43d 7e72 2bbe 6c2f 4f3f
000002c0: 575f 873e 2192 e63e 264d 8dbe a6c4 ea3c
000002d0: 1e2d 97be 7bc5 c5be 4c88 e5bc 7d39 92be
000002e0: 3852 37be dc61 813e 8a9c 913e dc38 2b3e
000002f0: 00e9 7dbe 4b9f 45bc f6aa 9c3e 1cbf c5bd
00000300: 44ec aa3d ac6c 29be 355c 4dbe 1622 c0be
00000310: b5a5 6abd f1d0 3ebe ce0b 0dbf c2a2 1b3f
00000320: ca32 01be 04f6 75be f80d 0a3e 4c10 f5be
00000330: e1bb 903e 6a31 4bbe c447 2dbf a6ae d83e
00000340: 75e6 76be a601 a3be c6dc 273e cd9c 84be
00000350: d57a efbe 1447 36bd e054 403e b4f7 65be
00000360: 2378 bebe 4289 3f3e 9bfe cd3e 7c38 013f
00000370: 4a16 b83d 1855 413e ed75 ccbd 0849 8dbe
00000380: ae21 eb3d e4e4 ea3d fefc 78be bd13 a2be
00000390: 51ce 753d 730f 42be 6f00 c6bd 678c 3a3f
000003a0: 4c97 0dbe ed09 29bf 522c e5be cbba 07bf
000003b0: c7b8 fdbe c132 e9be 299e 67be 8884 293f
000003c0: 0579 1b3f 2e13 aebe d2ee b8be 5d46 39bf
000003d0: c184 013e fd6b 17bf 7b17 e0bd 7053 253f
000003e0: d226 423e 34a5 04bf fe23 12bd eeab 4fbf
000003f0: 7987 41be 5bcd e7be 1072 98be 71ab 1a3f
0.020240217 0.2926913 -0.1304089 -0.24487317 0.36309925 -0.115656905 -0.43039805 0.12881288
-0.05663662 0.16907854 -0.16293284 0.12061611 -0.24707694 0.08361936 -0.18862057 0.031814486
0.069991775 0.37280482 -0.2743061 0.114437945 0.14615703 -0.20115702 0.16609165 0.1727155
-0.27951923 0.36914727 -0.28506985 -0.27467185 0.027364377 -0.30079335 0.006956106 -0.057927158
-0.04247635 -0.23027423 0.52306044 -0.08784787 0.061880343 -0.568673 -0.016595466 -0.23528753
0.5598819 0.25911292 -0.11609498 0.15641245 -0.120745905 -0.29128262 0.14876898 -0.14885414
-0.15006073 -0.31901345 -0.027717987 -0.044187356 -0.07124646 -0.041098494 -0.016303176 0.4448058
0.44499668 0.27041835 -0.054760884 -0.17696875 0.21275099 -0.1428387 0.0015597817 0.088323295
-0.17830832 -0.3012499 0.08652566 0.21021733 0.3525192 -0.12083264 0.10932154 0.17905731
0.006634912 -0.10787671 -0.05466667 -0.00486459 0.0345393 0.12521414 -0.39156455 -0.2758441
-0.20815226 -0.27076805 0.46513283 -0.21878955 -0.12306566 -0.21401662 -0.0268288 0.18538034
0.22094747 -0.19400947 0.019987477 -0.4964395 0.07380302 -0.081360385 -0.08657639 0.65575975
-0.24405655 0.3438706 -0.032680754 0.29030195 0.2327407 -0.080102526 0.06958272 0.21439727
-0.13927901 0.09194467 0.14077298 0.33460775 0.11784425 -0.4254873 0.08137533 0.09483036
-0.45000637 0.31763768 -0.2780273 0.16066279 -0.07320133 0.15912251 0.35728917 0.07983829
-0.02904609 0.124270536 -0.5341606 0.42740005 0.3076933 0.23619308 0.051510606 -0.20916075
0.07333882 -0.50671583 -0.37997773 0.020829115 -0.036441386 -0.4385387 -0.42222166 0.35122803
0.65824974 -0.6689281 -0.22964066 -0.010683645 -0.41853818 -0.995065 -0.47084916 0.23118168
0.29116535 -0.23044804 -0.33272356 -0.12432982 -0.089584455 0.061509106 -0.4478288 0.521144
0.29917854 -0.19898498 -0.11993231 -0.62043154 -0.13119271 -0.65277916 -0.85457975 0.9863578
0.002143678 -0.38952824 -0.19845885 -0.06563277 -0.097737566 -0.6318939 -0.2192074 0.374506
-0.05724897 -0.47636694 -0.10957225 -0.5971629 -0.3941133 0.11157408 -0.16742894 0.80931735
0.26439926 0.45033363 -0.27597922 0.028658222 -0.2952661 -0.38627228 -0.028019093 -0.28559485
-0.17902458 0.25269973 0.28439742 0.16720909 -0.24795914 -0.012061904 0.30599183 -0.09655592
0.08345845 -0.16545361 -0.20054705 -0.37526006 -0.057286937 -0.18634392 -0.5509614 0.60795224
-0.1261703 -0.24019629 0.13481891 -0.47863996 0.2826834 -0.19843069 -0.6768763 0.42320746
-0.2411135 -0.31837195 0.16392812 -0.2590088 -0.467734 -0.04450138 0.18782377 -0.22457772
-0.37201032 0.18704703 0.4023331 0.50476813 0.08988626 0.18880117 -0.0998343 -0.2759478
0.11481033 0.11469439 -0.24315259 -0.31655684 0.06001121 -0.18951206 -0.096680515 0.72870487
-0.13827246 -0.6603077 -0.44760376 -0.530194 -0.49555036 -0.45546535 -0.22618927 0.6621785
0.60731536 -0.33999008 -0.36119705 -0.7237299 0.12648298 -0.5914915 -0.109419785 0.6458044
0.18960121 -0.5181458 -0.035678856 -0.8112172 -0.18899335 -0.4527386 -0.29774523 0.6041785

static_variable_selection.single_variable_grns.UNDER5.gate_norm.glu.fc.bias f4 [32]
00000000: 7e2b 1d3e fead 0fbe 83f1 3b3e 85c7 453e
00000010: 09d9 0a3e 0801 62be d9d7 58be 6b21 bc3c
00000020: f685 533c 8f81 2c3e 7ed4 ce3d 9281 12bf
00000030: 0a3e 013e dc8d a5bc e84c dd3c 0f93 38be
00000040: fc97 09bf 6e3b 4abf c4ec bbbe 87ba 10bf
00000050: 49ab babe 6e45 96be 2254 9c3c 2f5a c4be
00000060: 8295 12bf d6ae bdbe 921d e8bd ba98 d73e
00000070: e217 45be c25b 39bf 66a1 ddbe 83f9 41be
0.15348622 -0.14031217 0.18353848 0.19314392 0.13559355 -0.22070706 -0.2117609 0.022965154
0.012910357 0.16846298 0.100991234 -0.5722896 0.12621322 -0.020209245 0.02701421 -0.18024848
-0.53747535 -0.7899693 -0.36704075 -0.5653462 -0.36458805 -0.29349846 0.019083086 -0.38350055
-0.5725938 -0.37047452 -0.11333765 0.4210871 -0.19247392 -0.72405636 -0.432872 -0.18942837

static_variable_selection.single_variable_grns.UNDER5.gate_norm.add_norm.norm.weight f4 [16]
00000000: 30e7 033f cd14 653f 9394 963f 14ea a43f
00000010: 45ce 893f 87d4 693f 2b64 883f 2add 193e
00000020: 8c9d 023e fc2b 8b3e efb4 753f d446 d63f
00000030: a05f 2b3f 13b7 9b3f 3585 cb3e 4e6c 873f
0.5152464 0.89484864 1.1764091 1.2883935 1.0766073 0.91339916 1.0655569 0.15025774
0.12755412 0.27181995 0.9597921 1.6740365 0.6694279 1.2165245 0.39750066 1.0579927

static_variable_selection.single_variable_grns.UNDER5.gate_norm.add_norm.norm.bias f4 [16]
00000000: 64ac 4e3d 1a26 263b b59a 263e 86f8 a63e
00000010: c5b4 223e b362 d5bd f1ae 6abe 4019 c7bd
00000020: 38df 3abd 93a1 dc3d 3e4b 32bd d112 35bf
00000030: d475 2f3e ec0b ae3d 7ba7 b2bd a898 c5bd
0.050457373 0.00253523 0.16269954 0.32611483 0.1588927 -0.10419216 -0.22918297 -0.09721613
-0.045623034 0.10773005 -0.043528788 -0.70731837 0.17134792 0.08498368 -0.087233506 -0.096482575

static_variable_selection.prescalers.UNDER5.weight f4 [8, 1]
00000000: b45b bcbd aa88 33bf c609 f73d 4f6a bf3e
00000010: 8631 7f3b 53ae 10bd 82aa 48bf 6663 cf3e
-0.091971785 -0.7013041 0.12062411 0.37385795 0.003893943 -0.0353225 -0.78385174 0.40505522

static_variable_selection.prescalers.UNDER5.bias f4 [8]
00000000: 7717 b4bc f28f 5f3f f273 083f 0780 84be
00000010: a378 a13d b824 4dbf 3c21 643e 7f03 bfbe
-0.021983845 0.8732902 0.5330192 -0.25878927 0.07884338 -0.80134153 0.22278303 -0.37307355

encoder_variable_selection.flattened_grn.resample_norm.mask f4 [3]
00000000: 23b9 4dbf 6cf0 61bd 0b99 dc3e
-0.8036062 -0.055160925 0.43085513

encoder_variable_selection.flattened_grn.resample_norm.norm.weight f4 [3]
00000000: 90c3 743f 3600 953f e39e f23f
0.95610905 1.1640689 1.8954738

encoder_variable_selection.flattened_grn.resample_norm.norm.bias f4 [3]
00000000: 8324 803e b783 a2bc 1d45 babe
0.25027856 -0.019838197 -0.36380854

encoder_variable_selection.flattened_grn.fc1.weight f4 [3, 24]
00000000: 146c 523f b422 e0be d5a9 b83e c288 5fbe
00000010: 7589 863e 3d03 32bc 7079 42bb fadc d33a
00000020: 38e2 0abf 4246 663d 1001 7e3d 49fd a9bf
00000030: 84f8 6b3d 5c67 133e 3ccb 1c3e 0ebf 463e
00000040: 948b 0f3f 0260 4cbf dc2c 663e 3127 513d
00000050: 1bb8 493e 4dfb e5bd 36ba 833d 40b2 a43e
00000060: 6d71 a53c cd5d 123f c6b4 74bf 41a6 d4ba
00000070: 6df4 ebbe 14c7 803e b1af 07bf 87cf 64bc
00000080: 871f bfbe cefe 3c3e 0ea2 17bf e5ff d6be
00000090: b076 d4bb edfd 3a3d 334e cf3d be19 a03e
000000a0: cce8 723e 3740 ddbc b5d9 1fbf 2f73 30be
000000b0: 3e95 d53c aaf0 b73e 01f8 14be 8970 a53e
000000c0: a3a3 493e 34c8 f0be 1b79 44be e3be 87bd
000000d0: 68dd a93e 4b5f 253f 4789 2cbe cd92 a03e
000000e0: 66f4 03bf 295b c83e a187 643e e1a9 6e3e
000000f0: e963 ebbc 9fd3 99bc 8d3c b93e d155 473e
00000100: 6b6b 2c3e 667a 953e 02fc 73bd 24e0 42bd
00000110: 8d4e 20be 923c 3b3d 23d7 ebbe b949 aa3d
0.82196164 -0.43776476 0.36067072 -0.21829513 0.26276746 -0.01086503 -0.0029674433 0.0016163879
-0.5425143 0.056219347 0.062012732 -1.3280421 0.05761005 0.14394897 0.15311903 0.19408819
0.56072354 -0.79833996 0.2247805 0.051062766 0.19699137 -0.112295724 0.06432001 0.32167244
0.020195687 0.5717438 -0.9558834 -0.0016223864 -0.4608492 0.25151885 -0.5300246 -0.013965494
-0.3732874 0.18456575 -0.5923165 -0.41992107 -0.006483875 0.04565232 0.10122337 0.3126964
0.23721617 -0.02700816 -0.6244157 -0.17231439 0.02607214 0.359258 -0.14547731 0.3231242
0.19691329 -0.47027743 -0.19186823 -0.066282056 0.33176732 0.6459853 -0.16849242 0.31362
-0.515448 0.3913205 0.22317363 0.23306991 -0.028734164 -0.018777667 0.3617901 0.1946633
0.16837852 0.29194945 -0.059566505 -0.04757704 -0.15654965 0.04571206 -0.46062574 0.08314843

encoder_variable_selection.flattened_grn.fc1.bias f4 [3]
00000000: a456 d1bd cca8 35be 26a4 b6be
-0.102216035 -0.17740172 -0.3567211

encoder_variable_selection.flattened_grn.context.weight f4 [3, 16]
00000000: 104c 04be e503 42be ea46 eebd 3d3f 2cbd
00000010: 1e6a 433d 9471 5ebe a8d6 c7bd b0d1 0dbd
00000020: 7744 9c3d 045c 5cbd 7ce7 d03d 3788 97bd
00000030: 6349 97bd 1977 9c3d 5354 a2be 96b8 aebd
00000040: 0c1a fb3e 175e 05bf 0396 583f a658 0abf
00000050: 92b0 28bf b144 5a3f ea86 c8be aeef 29bf
00000060: 7d26 413e 308d bebe 8f2f bfbe c660 8d3e
00000070: 8efc b0bd 7c24 bdbe 357c 2fbf 265e edbd
00000080: 65d9 253e 8a34 6fbd c500 4d3f 14be 04bf
00000090: 0e94 c2be 31a2 213f ac7c 9bbb ea2e 1f3e
000000a0: 87c5 a6bd 34cb a73e 784f 4fbb 15d8 e13c
000000b0: 96de ca3d 6218 ccbd 1716 87be ed77 5b3e
-0.1291964 -0.18946798 -0.116346195 -0.042052496 0.047708623 -0.21723014 -0.09757739 -0.0346238
0.07630246 -0.05379869 0.10200402 -0.07399028 -0.07387044 0.076399036 -0.3170496 -0.08531301
0.4904331 -0.52096695 0.846039 -0.54041517 -0.65894425 0.85261065 -0.3916543 -0.6638135
0.18862338 -0.37217093 -0.37340972 0.27612895 -0.08641921 -0.36941898 -0.685489 -0.11590223
0.1619621 -0.058399715 0.800793 -0.51852536 -0.38003582 0.6313811 -0.0047450867 0.1554524
-0.08143144 0.3277222 -0.003163306 0.027568856 0.09905736 -0.09965588 -0.2638404 0.21432467

encoder_variable_selection.flattened_grn.fc2.weight f4 [3, 3]
00000000: 4dcf 3cbf 85f4 9abf 40b4 5dbd 7189 cfbe
00000010: a9a9 85bf 7966 aabd 6a77 b7be a513 57bf
00000020: af82 bebe
-0.73753816 -1.2105871 -0.054126978 -0.40534547 -1.0442401 -0.08320326 -0.35833293 -0.8401435
-0.3720908

encoder_variable_selection.flattened_grn.fc2.bias f4 [3]
00000000: 22b3 123e 6356 bfbd 51a9 fdbd
0.14326146 -0.09342649 -0.1238581

encoder_variable_selection.flattened_grn.gate_norm.glu.fc.weight f4 [6, 3]
00000000: 47bf 303e 34d2 48bd cb1f 033f d319 bcbd
00000010: 2db4 e9be 9e9f c83e b38d 69be 3fc8 16bf
00000020: 136b 1c3e 7e16 c2be ceaf 08bf f0f7 0e3f
00000030: 3e6a 653f 40c7 23be ea40 7fbe b881 893f
00000040: d712 133f f115 143f
0.17260467 -0.04902859 0.5122039 -0.09184613 -0.45645276 0.39184278 -0.2280796 -0.588993
0.1527522 -0.37907785 -0.53393257 0.5584707 0.8961524 -0.15993977 -0.24927106 1.0742712
0.5745062 0.5784598

encoder_variable_selection.flattened_grn.gate_norm.glu.fc.bias f4 [6]
00000000: 833b 353e b577 183d 4ec7 d7be f3ac cfbe
00000010: 2d51 93be 0f98 b43e
0.17698483 0.037223537 -0.42144245 -0.40561637 -0.2877287 0.35272262

encoder_variable_selection.flattened_grn.gate_norm.add_norm.norm.weight f4 [3]
00000000: f051 1e3e 026b cd3e 54d5 d73e
0.15460944 0.40120703 0.42154944

encoder_variable_selection.flattened_grn.gate_norm.add_norm.norm.bias f4 [3]
00000000: aa43 5f3e bb11 03bf a6c2 163f
0.21803156 -0.5119893 0.5889076

encoder_variable_selection.single_variable_grns.SinWeekly.resample_norm.mask f4 [16]
00000000: 32b8 a6be cb58 073e c2de d73e 7076 9b3d
00000010: 1660 ccbe 2d75 b7bd b829 123e 39ed f7be
00000020: 861b f1be d4c9 32be 8a46 01bd 40cb 9fbe
00000030: 2a24 4bbd 4ec0 053e 69a0 ec3e 986a 3c3e
-0.32562405 0.13217466 0.42162138 0.075909495 -0.39917058 -0.089578964 0.14273727 -0.48423174
-0.4709131 -0.17459804 -0.031561412 -0.31209755 -0.049595036 0.1306164 0.46216133 0.18400037

encoder_variable_selection.single_variable_grns.SinWeekly.resample_norm.norm.weight f4 [16]
00000000: 3b1b a33f ba3f 033f 386a c93f 5087 9c3f
00000010: 3e2e 523f 0924 823f 43fb 923f 3295 233f
00000020: 7310 673e 809a 193f bee3 a43f 015f 8c3f
00000030: a58b 7a3f 0daa 9f3f 595b ea3f ac80 4e3f
1.2742685 0.51269114 1.573554 1.2228794 0.8210181 1.0167247 1.1482929 0.6389953
0.22564869 0.60001373 1.2882001 1.0966493 0.9786933 1.247377 1.8309127 0.8066509

encoder_variable_selection.single_variable_grns.SinWeekly.resample_norm.norm.bias f4 [16]
00000000: 3c22 103d 272d 3b3e 8b14 e4bd bbe1 2c3e
00000010: 0904 3abe 444f ccbb b47a cabd 5ab9 20be
00000020: 720f cd3d c91a 253d 76a9 9cbb da6b b33d
00000030: 945d 82be 0cdb debd 250b 77bd b589 2e3e
0.0351889 0.18278943 -0.11136731 0.16882984 -0.18165602 -0.006235035 -0.09886685 -0.15695706
0.100127116 0.040308747 -0.0047809435 0.087608054 -0.2546202 -0.108816236 -0.060313363 0.17044719

encoder_variable_selection.single_variable_grns.SinWeekly.fc1.weight f4 [8, 8]
00000000: 5b60 6e3f 9f24 dabf b3ae 44bf 4da1 03c0
00000010: 4505 84be 9e2e adbc 6523 9a3e 7429 043f
00000020: e3ec b83d 5700 9b3e 27c4 c2be abed 52be
00000030: aaed aabe 93a0 6a3f 5521 4abf 73a9 0ebf
00000040: c50e 47be 62a0 663d edbc 0cbf 7c4d af3e
00000050: 1dbf 76bf e4a9 ef3e c983 4f3f b89d 093e
00000060: e11e 613e d734 9a3d f01a d8be 6d37 b43d
00000070: 0b18 893e 617e 3a3e d2fd 563e 4c99 003f
00000080: d447 13bf 3092 50bd bc16 8f3f 4caf 0a3d
00000090: 4347 0d3e 15b0 323f 9021 103f abb2 73bf
000000a0: 0f50 343f 8f53 dbbe d9d8 2ebf 136a dcbd
000000b0: d984 4d3e 0d58 4abe 666a 59be e217 673e
000000c0: 3dd1 81bf 9238 92bd 21b9 f2bf f9c5 073f
000000d0: 06be 4ebf 74af c13e 5045 e5bf c6f7 6ebf
000000e0: 66ff d13e c6cf 85bd 9496 1cbf baf1 2c3e
000000f0: 572e 713f 54c6 ec3e 1501 a7bc d02e 153f
0.93115777 -1.7042426 -0.7682907 -2.05672 -0.2578527 -0.021140393 0.3010513 0.5162575
0.090295576 0.30273697 -0.38040277 -0.20598476 -0.33384448 0.91651267 -0.7895711 -0.5572731
-0.19439228 0.056305297 -0.5497578 0.34238803 -0.96385366 0.46809304 0.81060463 0.13439071
0.21984436 0.0752961 -0.42208052 0.08799634 0.26776156 0.18212272 0.20995262 0.5023391
-0.57531476 -0.050920665 1.1178813 0.033858582 0.13796715 0.6979993 0.5630121 -0.951945
0.7043466 -0.42837188 -0.68299633 -0.107624196 0.20070209 -0.19760151 -0.21231994 0.22567704
-1.014198 -0.07139696 -1.8962747 0.5303646 -0.807587 0.37829173 -1.7911777 -0.9334682
0.41015166 -0.0653377 -0.61167264 0.16889086 0.94211334 0.46245062 -0.020386258 0.58274555

encoder_variable_selection.single_variable_grns.SinWeekly.fc1.bias f4 [8]
00000000: 8f43 71be 34de 83bd b3be 873c 5ad3 07be
00000010: 0622 563d 4859 36be f328 a7be dea9 44bd
-0.23560928 -0.06438866 0.016570425 -0.13264218 0.05227854 -0.17807496 -0.3264843 -0.04801356

encoder_variable_selection.single_variable_grns.SinWeekly.fc2.weight f4 [8, 8]
00000000: 84f0 6cbf f13d 283e b2a2 a2bf fcb1 7ebe
00000010: 7451 b2be 46b6 3d3e 66c3 323f a086 f1bd
00000020: bafd 293e d159 a7be ea3c fe3d a2f5 d03d
00000030: b6db 4d3c 8fbb 063f 56dd 263f d04f 783e
00000040: e04d 263f 07e2 85be e93b 793d 0b93 85be
00000050: 1096 df3e 17eb fbbc 587f 6e3f cbc4 f83e
00000060: 6489 023f 9789 5a3f 4759 da3e c597 453e
00000070: 490b 313e 3a3b 1cbf b67d 043f 68e8 a2be
00000080: 937b 8cbf cfad 753f 960a f1be efa0 3d3e
00000090: d812 aa3c 10a7 cf3e 1a23 8b3e a51a 3ebe
000000a0: 0f84 273f da96 99be b018 babe 473d a23c
000000b0: 27ed 10bf a1b1 4b3e 5cfc 98be 9976 b5be
000000c0: feb7 f83e 006a 5dbd f10f 693c 021b 9dbc
000000d0: 84a7 ec3e ee93 babe 3774 30bd 38c2 fc3d
000000e0: 79d4 563f 21ea 2e3c 559e 993e 2c6e bd3d
000000f0: 31bc 063f 4bd8 3fbe 348a 9c3f 8827 6ebe
-0.925545 0.16429879 -1.2705901 -0.24872583 -0.3482777 0.18526563 0.69829404 -0.11793256
0.16600695 -0.32685712 0.12413962 0.10203101 0.01256459 0.5262994 0.6518148 0.24249196
0.6496258 -0.26149008 0.06084815 -0.26088747 0.43669176 -0.030751748 0.9316306 0.4858764
0.5099089 0.85366195 0.42646238 0.19296177 0.17289461 -0.6102787 0.5175432 -0.31817937
-1.0975212 0.95968336 -0.4707839 0.18518423 0.020760939 0.40557146 0.27175218 -0.18564852
0.6543588 -0.29997903 -0.3634696 0.01980461 -0.56611866 0.19891979 -0.29880035 -0.35442045
0.48577875 -0.054056168 0.014224992 -0.019177917 0.46221554 -0.36440986 -0.04307958 0.12341732
0.8391796 0.010675938 0.3000361 0.09249529 0.5263091 -0.18734853 1.2229676 -0.23257267

encoder_variable_selection.single_variable_grns.SinWeekly.fc2.bias f4 [8]
00000000: e471 f8bd 8420 2abe 72d7 c23d 9c37 483e
00000010: 159c 2e3c ec77 9dbb e1aa fa3d 6e42 8e3d
-0.12131098 -0.16613966 0.09513749 0.19552463 0.01065733 -0.0048055556 0.12239624 0.06946264

encoder_variable_selection.single_variable_grns.SinWeekly.gate_norm.glu.fc.weight f4 [32, 8]
00000000: 90b8 933e 32df c43e 2f48 333e 028c 973e
00000010: 580a 3d3e 2b5e cfbe 9f06 b7be ed92 373f
00000020: a917 d6be 6063 1d3e e8d9 04be 63ef 4dbe
00000030: 4ab0 95be 1402 ef3d 569a 6a3e 4a41 4bbb
00000040: 27f7 c43e fa17 623e 1387 e83b 1094 a73e
00000050: 8e53 9a3e 130c 7bbe 5bc4 89be 6e01 473e
00000060: 5c1c b23e eab8 293e 14fa 3f3e e51f 613e
00000070: b704 ad3e 399f 44be 0b4d a3be 4917 ac3e
00000080: e7ac 243e e361 cf3d eb0c 853e 3010 be3e
00000090: 9142 6e3e e144 94bd b884 b03e cc3d 093e
000000a0: 9294 f43d 3245 56be b66e 33be 5d56 d6bd
000000b0: 40de febd 07b8 f6bd ad13 74bd 450b e43c
000000c0: addf a6be 74af 4bbf 8659 8abf 6003 5fbf
000000d0: 979b b3be 7246 8c3e b3bd dc3e 1e82 50bf
000000e0: 78b6 47be 23f8 aabe c3f1 c7bb fb07 cbbe
000000f0: 3b3c a0bd 694b 50be a17f 9a3d f98b a8bd
00000100: 1310 fc3e 83d4 053f df7c 673e 1cbf 513f
00000110: f664 e13e 28ec 2ebf bb19 66bc 861c b13e
00000120: 6de1 c23d 2672 edbe 676f 723d e6bd 5dbe
00000130: 680a 88bd 70db 443d dfe7 c4bd 6f9e 23bd
00000140: 5201 ba3d 6115 9b3e b955 183f a1cc b33e
00000150: 0521 fcbd 4982 163e 7104 0c3e 603f 143f
00000160: bbeb 04be 4fca 59bd a569 cc3d f81b 313e
00000170: 4d77 21be c1f8 893c 8c8b af3e 69ca aa3e
00000180: 50a5 413f 0918 aa3e 2c6e 49bf 779e 14bf
00000190: 9870 283f f05b 48bf ba14 22bf 8ef9 41bf
000001a0: ce6b d13e b67a 11be fbd3 94be d925 9dbe
000001b0: 1ecb 013f 35c9 a9be c155 08bf b1e7 1cbf
000001c0: 7c75 96be 5024 adbe fb02 a43e 5612 cabd
000001d0: cce0 c4be 4664 e13e 7289 063e 0722 aa3e
000001e0: 84f6 0b3e 1848 c0be 39f1 e7be 7f25 dd3c
000001f0: ec97 59bd 48da 78be e1e3 593e 9fac 5ebe
00000200: 7059 313f 0f95 0d3f 7584 833e f529 0f3f
00000210: 729b 2a3f 6ce2 5ebf 6e08 2bbf 9f35 263e
00000220: c1e1 7ebd 62e4 abbe 52fe 24be 2c3e c6be
00000230: 00cc 1ebe b740 203f dd1c 31be a2ff 80be
00000240: 9bf7 703c 50e7 86be aa3a 643d d1aa 213e
00000250: 9f4d 07be 5b1f 02bf 367b 65be a3d7 013f
00000260: f3cc e63e 128a b13e 1558 913e 6d59 d03e
00000270: de01 813e 0ac2 d5be 7798 babe 9bf2 9d3d
00000280: 78b0 4b3e 31f2 e53d 4269 aabe 6936 94bd
00000290: b25f 2e3e a00e 49bd 66c7 b43e 28fc 823d
000002a0: 6cba d13d cf16 5b3e 2286 993d 549c c0bd
000002b0: b5ee c53d a5bd 39be aa47 9dbd 529e f9be
000002c0: b1c2 b33e ad50 393e 66e7 92bd e733 4d3e
000002d0: fbff 743e ae16 0dbf 40aa 7cbe 20bc d23d
000002e0: 3695 50be e8b6 013f a428 db3d 683a 9bbe
000002f0: 7ee7 763e d0bb 0abc 8c20 68be 66e8 f8be
00000300: d9cf bc3d 7e7f 7f3e f16c 813e a1ba 3a3e
00000310: 48e5 e43e 2b93 8bbe 2938 7dbe 4e14 9e3e
00000320: 768e 94bb 5acb 0bbe d331 823c d922 cd3e
00000330: 1375 c33e 7616 e2bd 91de d5be c56c 72be
00000340: 8b92 333e 6f5d 96be b77c 5dbf 8431 d0be
00000350: f718 9f3e 4617 9a3e 5ab3 12bf a600 ddbe
00000360: 17a0 8abc 9688 a7be e1fd 333f 265e da3e
00000370: 575f c4bc 1b9f fb3e 4897 f63e 9f79 bb3e
00000380: f37a 68bf 2dbd a6be ece8 333f 8f8f 223e
00000390: 7c86 12bf 2535 483f 708e 593f f240 4f3f
000003a0: 5a1f 97be d449 cdbd fa38 413e 429e fdbd
000003b0: 6d0b 62be 4fea bc3e 3412 db3e 3ae3 0d3f
000003c0: 7607 76be 1592 21be fd6e 2fbe 742f c6bd
000003d0: e21d e7be 1928 273b 0f51 dcbd 6cd5 043f
000003e0: f8b4 873c 096f 9d3e aeb2 94be 97eb 3e3e
000003f0: 9503 153d 470b 8abe 48eb ecbd 53d3 b1be
0.28851748 0.38451535 0.17508005 0.29599005 0.18460977 -0.40501532 -0.3574724 0.71708566
-0.41814926 0.1536994 -0.1297375 -0.2011085 -0.2923606 0.11670318 0.22910437 -0.0031014257
0.38469812 0.22079459 0.00709618 0.3273015 0.30141872 -0.24516325 -0.2690762 0.19434139
0.3478726 0.16574445 0.18747741 0.21984823 0.3379266 -0.19201364 -0.31894717 0.33611515
0.16081582 0.10126092 0.25986418 0.37121725 0.2326758 -0.072397 0.34476256 0.1340248
0.119424 -0.20924833 -0.17522702 -0.10465691 -0.124447346 -0.12046819 -0.059589077 0.027837405
-0.32592526 -0.79564595 -1.080857 -0.87114525 -0.35079643 0.27397496 0.4311348 -0.81448543
-0.195032 -0.33392438 -0.0061018183 -0.39654526 -0.07823988 -0.20341267 0.075438745 -0.08229823
0.49231014 0.5227739 0.22606228 0.81932235 0.4402234 -0.68329096 -0.014044221 0.34592074
0.09515653 -0.4637615 0.059188273 -0.21654472 -0.0664261 0.048060834 -0.096145384 -0.039946016
0.09082283 0.30289748 0.595058 0.35117057 -0.123109855 0.14698137 0.1367357 0.579092
-0.12980549 -0.053171452 0.099810876 0.17295825 -0.15768166 0.016842248 0.34286153 0.33357552
0.7564287 0.33221462 -0.78683734 -0.580543 0.65796804 -0.78265285 -0.63312876 -0.75771415
0.4090256 -0.14206967 -0.29067978 -0.30692938 0.5070056 -0.3316132 -0.5325585 -0.61291033
-0.29386508 -0.33816767 0.32033524 -0.098667786 -0.38452756 0.44021815 0.13138369 0.33229086
0.13668257 -0.37555003 -0.45301226 0.026995419 -0.0531234 -0.24302018 0.21278335 -0.21745537
0.69277096 0.5530557 0.25686994 0.55923396 0.6664344 -0.8706424 -0.6680974 0.16231392
-0.062227014 -0.3357268 -0.1611264 -0.38719308 -0.15507507 0.62598747 -0.17296167 -0.25195032
0.014707471 -0.26348352 0.05572001 0.15787818 -0.13213204 -0.50829095 -0.22410282 0.5071966
0.4507824 0.34675652 0.28387514 0.40693226 0.25196737 -0.41749603 -0.36444446 0.07712289
0.19891536 0.11227835 -0.3328343 -0.072369404 0.17028692 -0.049086213 0.3530838 0.06395751
0.10240635 0.2139542 0.07496287 -0.09404817 0.096646704 -0.1813875 -0.076796845 -0.487536
0.35109475 0.18097182 -0.07173042 0.2003933 0.23925774 -0.5511273 -0.2467432 0.10289788
-0.2036942 0.5066972 0.10701111 -0.30317998 0.24111745 -0.00846763 -0.22668666 -0.48614806
0.09219331 0.24950978 0.25278428 0.18235256 0.44706178 -0.27260718 -0.24728455 0.30874866
-0.004533584 -0.13651791 0.015892899 0.4006565 0.38175258 -0.1103944 -0.41771367 -0.23674305
0.1753637 -0.2936816 -0.86518425 -0.40662777 0.31073734 0.3009588 -0.5730492 -0.43164557
-0.01692204 -0.32721394 0.70309263 0.42649955 -0.023971243 0.49144825 0.48162293 0.36616227
-0.90812606 -0.32566205 0.70277286 0.15875076 -0.57236457 0.7820609 0.8498297 0.80958474
-0.29516107 -0.10023847 0.18869391 -0.12383701 -0.22074671 0.36897513 0.42787325 0.55424845
-0.24026284 -0.15778382 -0.17132182 -0.0967702 -0.45139986 0.0025506078 -0.10757648 0.51888156
0.016565785 0.30748776 -0.29042572 0.18644558 0.03638037 -0.2696173 -0.11568314 -0.3473154

encoder_variable_selection.single_variable_grns.SinWeekly.gate_norm.glu.fc.bias f4 [32]
00000000: d8e2 433e 7a15 1e3e ff1a 653d 7fd2 933e
00000010: 5612 3ebe 7bdc 56bd 652a 38be 7b34 8dbe
00000020: 6e7a 653e 4776 713d a7e0 03be fb7f 203e
00000030: 0fe1 89be 8c1d 34be 80c7 053d 2004 293e
00000040: 68bd b33e 80a5 07be 8d09 2d3f 22ca 09bf
00000050: b089 4abd dcc3 75bf 3497 133f 6bac 53be
00000060: ad3a 293e 4d81 05bf 2a11 78be 3993 83be
00000070: d0d0 9fbe 6a94 913e b279 863e 85cb 93be
0.19129503 0.1543788 0.05593395 0.28871533 -0.18561682 -0.05245636 -0.17984922 -0.27579102
0.22409984 0.05895069 -0.12878667 0.1567382 -0.2692952 -0.17589396 0.03266096 0.1650548
0.35105443 -0.13246727 0.675927 -0.53824055 -0.049447715 -0.9600198 0.5765259 -0.20671241
0.1652629 -0.5215042 -0.24225298 -0.2569826 -0.31214 0.28433543 0.2626472 -0.2886621

encoder_variable_selection.single_variable_grns.SinWeekly.gate_norm.add_norm.norm.weight f4 [16]
00000000: 9bca b33f 2110 bb3d f063 d23f 4097 9b3f
00000010: c359 013f 7b4c 683f ddbd d53f b961 013e
00000020: 2838 573f e6bd 303f d983 ca3f 9e20 963f
00000030: 5194 403f 547c bd3f 470c af3f b3aa 623f
1.4046205 0.09133936 1.6436749 1.2155533 0.5052759 0.907417 1.6698567 0.12634934
0.8407006 0.6903976 1.5821487 1.1728704 0.7522631 1.4803567 1.3675622 0.88541716

encoder_variable_selection.single_variable_grns.SinWeekly.gate_norm.add_norm.norm.bias f4 [16]
00000000: 88fb 453d 6b3e c33d d16f 053d 8989 213e
00000010: 2970 8fbc 66ea 613d 97c0 31be 968b d0bc
00000020: f404 2b3e b8da d5bd 4428 e6bd cc12 1bbe
00000030: d3df 24be c83a a93d 02b2 f63d b11c a53d
0.048335582 0.0953339 0.03257734 0.15775122 -0.017509537 0.05515518 -0.17358623 -0.025457185
0.16701108 -0.10442108 -0.11238149 -0.15143889 -0.16101007 0.08263165 0.12045671 0.08062113

encoder_variable_selection.single_variable_grns.VaccinationFull.resample_norm.mask f4 [16]
00000000: 28e3 b13d e4c7 0abe 8d13 2dbd 511e e5be
00000010: fba3 463e 618d 00be 5bc0 a03e f05b 323f
00000020: 1156 8cbd 39c7 10bf bf47 ddbe 91e5 583e
00000030: 2df9 15bf 7e6b b73e 54b4 033f 8fd6 20bd
0.08685905 -0.13552815 -0.042254973 -0.44749692 0.19398491 -0.12553932 0.31396756 0.69671535
-0.06852353 -0.5655399 -0.432188 0.21181323 -0.5858334 0.35824198 0.51447034 -0.03926712

encoder_variable_selection.single_variable_grns.VaccinationFull.resample_norm.norm.weight f4 [16]
00000000: 0bda 843f 48be d03e 88c5 953f 18e7 503f
00000010: cbf4 a83f bd98 553f ff16 623f e590 cb3f
00000020: 7aec 873f 367e 363f c03e 1c3f cd4b 9a3f
00000030: bc8e 3b3f 54fb a63f 1c86 983f b8c8 7d3f
1.0379041 0.40770173 1.1700907 0.8160262 1.3199705 0.83436185 0.8831634 1.5903593
1.0619042 0.7128633 0.6103325 1.2054383 0.7326467 1.3045449 1.1915927 0.991344

encoder_variable_selection.single_variable_grns.VaccinationFull.resample_norm.norm.bias f4 [16]
00000000: 4693 393e 06df 2a3e 9ee8 2cbe 141c 64bd
00000010: e72f 17be 20ad 223e 912c 8cbd 9e81 e83e
00000020: 7abb 28be d60c d1bd d64a 973d fe56 10be
00000030: af70 0bbd 1e16 59be b6db c33d 2101 afbd
0.18122587 0.16686639 -0.16885611 -0.05569084 -0.14764367 0.15886354 -0.06844438 0.4541139
-0.16477767 -0.102075264 0.07387321 -0.14095685 -0.03404301 -0.21199843 0.09563391 -0.08545137

encoder_variable_selection.single_variable_grns.VaccinationFull.fc1.weight f4 [8, 8]
00000000: fcac e43e 7731 81be 74f2 4abf 5db2 47be
00000010: de06 653f a10a d33d d4e7 1dbf 3199 56bc
00000020: d975 ad3d 2094 b0be 6ba9 8abf 2413 a2bf
00000030: 6e0c 133e 584c c83e 1a78 523f 0569 ce3e
00000040: 8237 ea3d f4a6 19bf 2274 31be 9282 66be
00000050: 9629 9fbe f0a2 c13e b242 83be c686 16bf
00000060: 9848 0cbe c464 79bf 34d5 18bf 81d7 9b3e
00000070: 102f 13bf 62fa 6a3f 43de 0b3e 738e 913e
00000080: e5e7 6e3e 4a67 223f f8e3 993e d570 e33e
00000090: 2bc8 2abd edc0 663e 005a e73e 76fa 223f
000000a0: a13f 80be de9a 283f 7033 be3e 3b9f 2ebe
000000b0: 9105 42bf 5f5e 6bbf 4135 37bf c817 edbf
000000c0: 480e 23bf 5383 d53e df20 c63e 9985 a53d
000000d0: 1d8a 493f 0716 9fbe 5551 aa3e 8169 8bbb
000000e0: 97ba 8f3e 7c43 3d3e b11b 14bf 92ae 2cbe
000000f0: 0051 cbbe 8858 92bf 9770 8dbe a134 c9bf
0.44663227 -0.2523305 -0.79276204 -0.19501634 0.89463603 0.10304762 -0.61681867 -0.013098047
0.08469743 -0.3448801 -1.0832952 -1.2662091 0.1436021 0.39120746 0.8221451 0.403145
0.114363685 -0.60020375 -0.17329457 -0.22510746 -0.31086415 0.37819624 -0.25636822 -0.587994
-0.13699567 -0.9741938 -0.5970032 0.30437854 -0.57493687 0.91788304 0.13659005 0.28428993
0.23330648 0.63438857 0.3005674 0.44422022 -0.0416948 0.22534533 0.45185852 0.63663423
-0.25048545 0.6586131 0.3714862 -0.17052929 -0.75789744 -0.91940874 -0.71565634 -1.8522882
-0.63693666 0.41701755 0.38696954 0.08082122 0.7872637 -0.31071493 0.33265176 -0.0042545204
0.28072044 0.18482774 -0.57854754 -0.16863468 -0.39710236 -1.1433268 -0.27624962 -1.5719186

encoder_variable_selection.single_variable_grns.VaccinationFull.fc1.bias f4 [8]
00000000: 15db 5c3e f686 f03d 3688 9d3d afda 193e
00000010: 797a 1cbd 9d85 cbbe 7077 84be 9128 4dbd
0.21567948 0.11744492 0.07691996 0.15024827 -0.038202737 -0.39750376 -0.25872374 -0.050087515

encoder_variable_selection.single_variable_grns.VaccinationFull.fc2.weight f4 [8, 8]
00000000: 24cf 10be 8103 97bd 2b66 d93d a90f edbe
00000010: 2196 d9be 2d66 ae3e d069 cebe 818b 5d3e
00000020: f443 393f 0ec8 31bf 8070 09bd 944a 12bf
00000030: d166 8bbd 0a7c 23bf b5e2 293e 7d1f d5bd
00000040: 9df5 d9bf 48be 803d 1d42 cc3c 8a35 db3e
00000050: a2b4 733d e750 143f 6f56 513e 4fdb 293f
00000060: 009f 6b3e 96d8 5bbf f963 113d c6e2 aabe
00000070: 1842 493e 77f7 56bf 24bd febd dd81 40bc
00000080: 1a0d c8be 473f acbe a17c 813e c68d 6cbd
00000090: 725f bb3d c2e9 973e 25aa 25bf c590 503f
000000a0: c2e0 61be 8438 b63e 4e17 7f3e b489 063f
000000b0: 15ac b83d e5b0 2bbb abfe e6be d8ad 70bf
000000c0: 7731 853f 201c 05bf 68c3 67bd 6c53 3c3f
000000d0: e4db c8bc e9fe 2cbf d7e3 d8bc f8c5 063e
000000e0: 2dcb 99be 174c 093f c74b cebc 73dc b13e
000000f0: 1889 c1be 3502 e8be 8755 00be c02a ccbe
-0.14141518 -0.07373715 0.1061519 -0.4630101 -0.42497352 0.3406233 -0.40315104 0.21635248
0.72369313 -0.69445884 -0.033554554 -0.5714505 -0.0680672 -0.63861144 0.16590388 -0.104063965
-1.702808 0.06286293 0.024933869 0.42814285 0.059498437 0.5793595 0.20443128 0.66350263
0.23009872 -0.8587736 0.035495732 -0.3337614 0.19654119 -0.8397135 -0.124384195 -0.011749712
-0.39072496 -0.33642027 0.25290397 -0.057752393 0.09149064 0.2967053 -0.64712745 0.814709
-0.22058395 0.35589993 0.24911234 0.5255387 0.09017197 -0.0026197967 -0.4511617 -0.94015265
1.040572 -0.5199604 -0.05658284 0.7356479 -0.024518915 -0.6757646 -0.02647583 0.13161457
-0.30037823 0.5363173 -0.025182618 0.34738502 -0.37799907 -0.45314184 -0.12532626 -0.39876366

encoder_variable_selection.single_variable_grns.VaccinationFull.fc2.bias f4 [8]
00000000: 2b08 0a3d 5427 163e 1329 4bbd 13cc cc3d
00000010: 4d5f cf3d 1c5a 303e 2e02 073f cb34 67bd
0.033699196 0.1466344 -0.04959972 0.099998616 0.10125599 0.17221874 0.527377 -0.05644683

encoder_variable_selection.single_variable_grns.VaccinationFull.gate_norm.glu.fc.weight f4 [32, 8]
00000000: a6a8 c0bb 4d3a ed3e f504 7bbd 56f0 df3e
00000010: ad81 22be e932 733e f211 4b3f 1069 4fbe
00000020: 8aac 16bf 3a60 c43e 65be e0be 5e1b b23d
00000030: 8190 fc3d 4968 57be fa0f b23e e6a6 7a3d
00000040: 2255 3f3e fca7 d6bc 06a3 a63e 1ea9 90be
00000050: 446f 0c3d 7512 b23e 54e6 bbbe f91b 713e
00000060: 16bb 66bf 5b44 1e3f e26a 40bf 7413 983f
00000070: 6f12 3dbf 344c 3f3f 86c3 2f3f 1c68 563f
00000080: 4a3d e63e cd12 66be 5257 043f 1203 0bbf
00000090: 3465 043f 50c6 79be 7a55 dcbe 05b5 7abe
000000a0: 841d 17be d3c7 c73e b2db e3bb f968 8ebe
000000b0: b63a 09bf ce46 013f b484 92be 2f16 0a3f
000000c0: a0e8 95bd 5d2d b73d 557f 8abd 6afc 6cbd
000000d0: b849 ee3c a87c 0bbe 9cc0 fd3d 9f78 7e3d
000000e0: 5664 e6be 30ab e13e 6245 78be 24f2 693e
000000f0: 0164 8a3e f216 08be c4e4 2d3f 7c83 c5be
00000100: 2b4d 0dbf 5a87 c13e c1ac d4be 4e2c 973d
00000110: 1c22 50bf 8ff3 353f 42c1 903e 2f08 353f
00000120: 6f45 d33e dfa9 8e3d 2695 8a3e 7d90 9fbe
00000130: 8870 7e3c 067a b2be 169f b4be 92ab dabe
00000140: b962 063e 0d7f 7cbd 60b6 463e 9cbb e6be
00000150: 69e6 ba3e 134e 31bd e731 9e3d c45a 97bc
00000160: 50fc debe c01d 01bf a853 0a3e a47a 42be
00000170: f225 c8be 5517 b33e ae2c 57bf 2abe 973e
00000180: 5647 4d3e 8e3d 0d3e 582b 9cbd 4487 16bf
00000190: 0df7 a03e a2e5 e0be 3a15 5dbe d85f 17be
000001a0: fabb b93e f871 37bf c32a bb3e 6683 50be
000001b0: 266e 863e d129 8e3d ed5b 11bf 1448 b2be
000001c0: 2e5a 44bf 0fb2 123f 39b6 1ebf e167 113f
000001d0: 325c dabe 4da8 f93e 497d 733d 3dee 1b3f
000001e0: f321 84be adad 95be 1017 ec3c b5b5 cfbe
000001f0: f95e 443d e1b2 003e 117b f03c 6db7 6e3e
00000200: 19cf 8c3d 8b4f b3be ad9c cb3e ed0a 85bd
00000210: d464 19be f64f 803d ae18 fcbe c10a e3be
00000220: 8580 f3bd 3bb6 babe 4ac4 e03e cd19 7cbd
00000230: 5527 53bd 6de6 cd3e ea2d c9be bd63 a0bd
00000240: 0ac7 593e 8339 153f 727a 1fbe 6ce7 3f3f
00000250: 14d8 653e 42c6 a13e 6661 9d3d 3428 0d3d
00000260: b1e1 253e bb81 b3be 87d2 163f 02e7 19bf
00000270: dcc7 103e 3933 2cbe 26cc 1bbf 4403 10be
00000280: fa9d b1be d38e 6c3d 9069 90be 9bd4 a23e
00000290: 988f 66be f128 6d3e 821e 4d3e b43e 773e
000002a0: 1fc5 333f afee 0bbf f685 da3f a31e b5be
000002b0: 409d ea3e 0ec7 c4be e5d4 4cbf 66e7 0ebf
000002c0: 036e 2d3e fe59 be3d bd88 44bd 0ccd 86be
000002d0: 6add ffbd aa3b b73e bf02 32bf 4b4e ad3e
000002e0: 0a6f 6b3e 77ba 523e f4cb 003f 13a6 333e
000002f0: 1f2a bfbc c766 03bf f208 b4be 1600 d6be
00000300: 7c94 e83d c7e3 cf3e 7948 19be 7102 513e
00000310: 9ed5 14be 8b6a e7bb a614 133f afcb 7abd
00000320: 16f0 1b3f a7ec 04bf 8aa8 253f e1d9 efbe
00000330: 97be 9e3e 23f2 f2be c397 88be d2a7 b3be
00000340: 5a3b 41bd 3eb2 fcbe 771d 393f 3c07 67bf
00000350: d50c b03e 8268 55be 67d7 fabd ae55 493d
00000360: e892 253f b99a 4abf d960 403f 42fc 06bf
00000370: affe 223f ecd1 93be 09a5 dcbe 9f35 10bf
00000380: 4e29 163e 5561 953e e021 d33d ce03 bc3d
00000390: 03ae 933c c539 bf3e ecc2 15bf 0ed6 df3e
000003a0: c722 9abd 33f7 96be dad7 d93c 489a 21be
000003b0: 171e a13d 62de a1bd cd04 bfbe ae14 ad3c
000003c0: 8e3f 383e d9f8 9dbe b086 583e 4335 69be
000003d0: fa61 ce3d 20ac 66be 8ded 47be ac70 90be
000003e0: 5327 26be 48d8 7f3e d011 ea3e 6f7d 2e3f
000003f0: f746 87be 1fab 53be c760 04be 292c 5cbe
-0.0058794795 0.46333542 -0.061284024 0.4373805 -0.1586978 0.2374989 0.7932426 -0.20254922
-0.58857024 0.38354665 -0.4389526 0.08696626 0.123322494 -0.21035875 0.34777814 0.061194323
0.1868482 -0.026203148 0.32546252 -0.28254026 0.0342858 0.34779707 -0.36699164 0.23545827
-0.9012922 0.6182305 -0.7516309 1.1880937 -0.7385625 0.7472565 0.6865772 0.8375261
0.44968635 -0.2246811 0.5169574 -0.5430156 0.51716924 -0.24392056 -0.43033963 -0.24483116
-0.14757353 0.3901964 -0.00695368 -0.27814463 -0.5360521 0.50498664 -0.2861687 0.539401
-0.0731976 0.08944199 -0.06762568 -0.05785791 0.029087886 -0.13621771 0.12390253 0.062126752
-0.44998425 0.44075918 -0.24245217 0.22846276 0.27029422 -0.13290003 0.67927194 -0.38576877
-0.55195874 0.37798578 -0.4153805 0.07381497 -0.81302047 0.71074766 0.28272444 0.7071561
0.4126391 0.06965994 0.27066916 -0.31164923 0.015529759 -0.34858721 -0.35277623 -0.42709023
0.13123597 -0.061644603 0.19405508 -0.4506501 0.36503914 -0.043287348 0.07724362 -0.018475898
-0.43551874 -0.5043602 0.13508475 -0.18992096 -0.3909145 0.34978738 -0.8405255 0.2963727
0.20046744 0.13793012 -0.07625455 -0.5880015 0.31438485 -0.43925196 -0.21590129 -0.14782655
0.36276227 -0.7165828 0.36556062 -0.20362625 0.26255912 0.069415696 -0.5678089 -0.34820616
-0.76700103 0.57302946 -0.619968 0.5679913 -0.42648464 0.48761216 0.059445653 0.609104
-0.2580715 -0.29234067 0.02881959 -0.4056832 0.047942135 0.12568237 0.029355558 0.23312159
0.06875438 -0.35021624 0.39767972 -0.064962246 -0.14979869 0.06265251 -0.4923758 -0.44344142
-0.118897475 -0.36467156 0.43899757 -0.061548043 -0.05155118 0.40214863 -0.39292842 -0.078315236
0.21267334 0.5829088 -0.15574053 0.74962497 0.22445709 0.3159657 0.07684593 0.03446217
0.16199376 -0.35059914 0.5891499 -0.60118115 0.1413874 -0.16816415 -0.6085838 -0.14063746
-0.3469084 0.057753395 -0.28205538 0.3180283 -0.22515714 0.23160149 0.20031169 0.24145013
0.7022266 -0.5466108 1.7072132 -0.35374936 0.45823097 -0.38433117 -0.8001235 -0.55821836
0.16936497 0.092945084 -0.047981966 -0.26328313 -0.12493403 0.35787708 -0.6953544 0.33848795
0.22991577 0.20578943 0.5031121 0.17543821 -0.023335515 -0.513287 -0.35163075 -0.4179694
0.11356446 0.40603468 -0.14969052 0.20411088 -0.14534613 -0.0070622615 0.5745338 -0.061229404
0.6091322 -0.519236 0.64710295 -0.46845916 0.31004784 -0.4745036 -0.26678285 -0.35088974
-0.047175743 -0.49354738 0.72310585 -0.90245414 0.3438479 -0.20840648 -0.12248116 0.049153976
0.64677286 -0.7914234 0.7514778 -0.52728665 0.63669866 -0.28871095 -0.43094662 -0.5633182
0.14664194 0.2917582 0.103091955 0.09180413 0.018027311 0.37348762 -0.5850055 0.43717998
-0.075261645 -0.29485473 0.026592184 -0.1578151 0.07867067 -0.07903744 -0.3730835 0.021128025
0.17992994 -0.30853918 0.21145129 -0.22774224 0.10077281 -0.22526598 -0.19524212 -0.28210962
-0.16225938 0.24984848 0.45716715 0.68160146 -0.2642133 -0.20670746 -0.12927543 -0.21501221

encoder_variable_selection.single_variable_grns.VaccinationFull.gate_norm.glu.fc.bias f4 [32]
00000000: 98be 1d3e ab37 13bc 0b90 f4bd 318e 05bf
00000010: 8245 87be 6a90 24bf fdca 82bc f0dd 5b3e
00000020: 46b1 b6ba 8f30 173e ada0 c73e ed71 2cbf
00000030: e018 90bd d71a 91bd 6733 90be 1c23 44be
00000040: f353 debe dc12 00bf a5eb a63d 06bc 32be
00000050: 6f22 643e b243 41be c7da 5abf ff53 a3bd
00000060: 8120 403f 41a7 84bd 4ee9 7cbe 0c12 8fbd
00000070: f981 3cbf 6a8d 8bbe 6d6b a5be 6bd1 2bbf
0.15404737 -0.00898544 -0.119415365 -0.5217009 -0.26420218 -0.6428286 -0.015965933 0.21471381
-0.001393833 0.14764617 0.38989773 -0.67361337 -0.070359945 -0.070851974 -0.28164217 -0.19154018
-0.43423423 -0.5002878 0.081504144 -0.17454538 0.2227876 -0.1887348 -0.8549008 -0.07975005
0.750496 -0.06477214 -0.24698374 -0.06985864 -0.7363582 -0.27256328 -0.32308522 -0.6711642

encoder_variable_selection.single_variable_grns.VaccinationFull.gate_norm.add_norm.norm.weight f4 [16]
00000000: fdad 113f ecd0 9e3e 0b1e 4f3f e3b8 833f
00000010: 009d 6d3f 44b8 5b3f e226 983e 7a8b 5b3f
00000020: 35a7 833f 15b0 253f ba2d 253f 766d 883f
00000030: 2da7 093e 8867 663f 2797 993f e5ae a63e
0.5690611 0.3101877 0.80905217 1.0290798 0.9281769 0.8582804 0.29717165 0.857597
1.0285403 0.64721805 0.645229 1.0658405 0.13442679 0.90001726 1.1999253 0.3255531

encoder_variable_selection.single_variable_grns.VaccinationFull.gate_norm.add_norm.norm.bias f4 [16]
00000000: 13f5 413d 821a 0f3e 06c2 8e3e 9838 383e
00000010: 91db 4a3d fb29 883d a8f1 acbe b264 623d
00000020: 3d8f 0a3e d7c4 60bd 2b4d 7b3c b35d a43d
00000030: 1111 61be 4d43 ed3d d16f b8bc 06bb e73c
0.04735286 0.13974956 0.27882403 0.17990339 0.0495258 0.06648632 -0.3377812 0.05527181
0.13531204 -0.05487522 0.0153382225 0.08025684 -0.21979167 0.11585102 -0.022514256 0.028287422

encoder_variable_selection.single_variable_grns.Cases.resample_norm.mask f4 [16]
00000000: 75e8 f23d 6697 15bd 2054 bbbf 7264 92bd
00000010: 8398 193e e6fb 6a3e bc55 2cbf 3777 b43c
00000020: a3ed 99be bc5c 123f 504d 153f 7b28 813e
00000030: a8ae 67bf 3638 20bf ae5b 3a3e 49d3 113e
0.11860744 -0.036521338 -1.4635048 -0.07148065 0.14999585 0.22947654 -0.6731832 0.022029502
-0.30064115 0.5717275 0.58321095 0.25226197 -0.9050088 -0.6258577 0.18199036 0.14240755

encoder_variable_selection.single_variable_grns.Cases.resample_norm.norm.weight f4 [16]
00000000: 5a08 9c3f 9fff a83f 1e6f af3d cc32 8c3f
00000010: 84f2 993f f801 ac3f d524 893f 6aa0 ae3f
00000020: 10ca 863f 5adb d53f e24e cf3f 7c48 ad3f
00000030: 0024 1f3e a0e4 003f 0f64 c93f 9a4d b13f
1.2190049 1.3203009 0.08566116 1.0953002 1.2027135 1.3438101 1.0714365 1.3642704
1.0530415 1.6707566 1.6195948 1.3537745 0.15541077 0.50348854 1.573366 1.3851807

encoder_variable_selection.single_variable_grns.Cases.resample_norm.norm.bias f4 [16]
00000000: b0bd 093e 6af0 153e ae15 5fbe 0aae e4be
00000010: 9625 5b3c 09c9 6dbe fdee bebe 500b 58be
00000020: 5cf6 aebd 28da 54bc ed82 a03e b526 75bd
00000030: 7ab6 5a3e 5bed 2f3e 979a 34bd e057 963e
0.13451266 0.14642492 -0.21785614 -0.4466403 0.01337566 -0.2322122 -0.3729171 -0.21098065
-0.08543083 -0.012991466 0.31349888 -0.059851367 0.21358672 0.17180388 -0.04409274 0.29363918

encoder_variable_selection.single_variable_grns.Cases.fc1.weight f4 [8, 8]
00000000: bdf8 26bc 4928 bf3f eafc 1d3e d5d6 44bf
00000010: 7206 04bf 028b e43e c47d 87be 1515 ffbe
00000020: dca4 163f 27d7 123f 5a16 9abe 84be 2ec0
00000030: 8d1a 91bf 85d2 3f3e defc cd3d 0734 2b3c
00000040: 43f5 963f 75d4 9b3d 25cc 85bd 22ed 96b9
00000050: 0798 54bd 63d6 993d 3278 5bbf 57e0 3a3f
00000060: f3fa 0cbf daf4 c2bd 3e60 4b3f 973d de3e
00000070: 375e 473f ed26 5d3e d76d 7e3e a649 1f3f
00000080: d72e 88be c628 cebd c79c 893e da27 0c3d
00000090: 26e6 963d ff2c ca3e 90cc 6a3e 8e9f 593e
000000a0: a064 20be a49c 4d3e 792f 403e dcd5 e8bf
000000b0: 1011 3bbf 23a6 133f 48de ac3d 40f2 373f
000000c0: 1e7b 863e 3994 e0bc 65bd 22bd db66 943f
000000d0: 0ad3 81bf 1144 02be 8896 963e eb9c 95be
000000e0: 2fb0 123e f86a 16bf 82ce 26bf bd95 17bf
000000f0: 10e4 2d3d 1540 b5be fc5c 5fbf 2139 d43f
-0.01019114 1.4934169 0.1542851 -0.7689031 -0.51572335 0.44637305 -0.2646314 -0.49820772
0.58845305 0.57359546 -0.30095178 -2.7303782 -1.1336228 0.1873265 0.10057996 0.010449416
1.1793598 0.07608882 -0.06533078 -0.00028786907 -0.051902797 0.07511594 -0.8573028 0.72998565
-0.5507042 -0.09519358 0.7944373 0.43406364 0.77878135 0.2159688 0.24846588 0.62221754
-0.26598236 -0.10066371 0.26877424 0.034217693 0.07368116 0.39487454 0.22929597 0.21252272
-0.15663385 0.20079285 0.1876811 -1.8190265 -0.7307291 0.5767538 0.08440834 0.7185402
0.26265806 -0.027414428 -0.039731402 1.1593889 -1.0142529 -0.12721278 0.2941172 -0.2922128
0.14325021 -0.5875697 -0.65158856 -0.5921286 0.042453825 -0.35400453 -0.8725126 1.6579934

encoder_variable_selection.single_variable_grns.Cases.fc1.bias f4 [8]
00000000: 94b4 abbe 0d48 d2be adb6 f33c 6528 16be
00000010: 071f 363d 32f4 5abe b7b1 a9be b3a2 a0bd
-0.33536208 -0.41070595 0.029750193 -0.14663847 0.044463184 -0.21382216 -0.33143398 -0.078435324

encoder_variable_selection.single_variable_grns.Cases.fc2.weight f4 [8, 8]
00000000: c58b a8be 2149 283f e3e1 d1be 283a bdbe
00000010: a3dc 303e b457 9abe afa2 1d3f 47c0 e3be
00000020: 476f c5be 48ea e73d 32df 42bd d4dc 08bf
00000030: 59c9 3f3e 03f8 363e f59b 5dbe db29 a3bf
00000040: 6869 553d 2d7a 16bf 1bd8 5bbf 77f1 403e
00000050: b321 fd3e 90fa 89be 01dc b3be 9c66 753f
00000060: 45b7 adbe 28f2 5cbf fe1b cbbe 051f 61bf
00000070: 85b6 f73e ba85 73bf 00d5 f3be 824c 67bd
00000080: bc64 0e3f c7b4 473f bcfb d83d 0d19 c93e
00000090: 4252 b33e f21e 9abd e6d9 983e 1731 153f
000000a0: fdcc 8d3e 0822 11bd 624f 6c3f 8401 2d3f
000000b0: 6f00 4abe 3d81 f93c 1261 653e ec47 eb3e
000000c0: d5e6 3bbf ab9b 42bf b39b f3be 9ee1 a83e
000000d0: 7226 57be 6d57 c5be 8bd3 e83e c0d2 7abe
000000e0: ed11 cc3e c2bc 4f3f a659 863d 6277 f5bc
000000f0: f88c 583e 189b 143e ec34 00be 617e 243e
-0.32919136 0.65736586 -0.4099265 -0.36958432 0.17271666 -0.30145037 0.6157636 -0.44482633
-0.3856146 0.113239825 -0.047576137 -0.53461957 0.18729152 0.17868046 -0.21641524 -1.2747148
0.052102476 -0.58780175 -0.85876626 0.18842112 0.49439773 -0.26948977 -0.35128787 0.95859694
-0.33928886 -0.86307 -0.39669794 -0.8793796 0.4838144 -0.95125926 -0.47623444 -0.056469448
0.5562246 0.7801022 0.105948895 0.39276925 0.35023695 -0.075254336 0.29853743 0.5827803
0.27695456 -0.035432845 0.9230863 0.6758044 -0.19726728 0.030457133 0.2240031 0.4595331
-0.73399097 -0.7601878 -0.47579727 0.32984632 -0.2101076 -0.38543263 0.45473894 -0.24494457
0.39857426 0.81147397 0.06560068 -0.029964153 0.21147525 0.14512289 -0.12520188 0.16063835

encoder_variable_selection.single_variable_grns.Cases.fc2.bias f4 [8]
00000000: bd46 99bc 9f54 a93d f483 8d3d 46b3 513e
00000010: 2e3a b0bc d0b1 b33d e7ce 2abd fdb6 d3bd
-0.018710488 0.08268093 0.06909934 0.20478544 -0.021512117 0.087741494 -0.041701224 -0.103376366
