All Experiments/3. Health Features/Results/Poor_or_fair_health/Checkpoints/latest-epoch=3.ckpt (torch, 703799 bytes, 506 tensors)

state_dict f4 [8, 1]
00000000: 79e8 1f3e 2794 19bf 1ead 3e3f bab1 8e3f
00000010: ce7a b8bf e34b 52bf d031 8dbf 04a3 323f
0.15616025 -0.5999169 0.74482906 1.1147988 -1.4412477 -0.82147044 -1.1030827 0.6977999

state_dict f4 [8]
00000000: dd6e 92be ea36 043f bf49 ed3e 4cb1 b9bd
00000010: 90a9 acbd 9b25 e1be 80d0 353d 82ff 1cbe
-0.28600207 0.5164629 0.46345326 -0.0906702 -0.08430779 -0.43974003 0.044388294 -0.15331843

prescalers.SinWeekly.weight f4 [8, 1]
00000000: 84eb bb3d 0e6d a8bf 39c2 613f c6f9 81bf
00000010: 2965 383f 2404 a3be 6065 353f d88f f33e
0.091757804 -1.3158281 0.88186985 -1.015435 0.7202936 -0.31839097 0.7085781 0.47570682

prescalers.SinWeekly.bias f4 [8]
00000000: 1b36 063e b691 10be b432 403f 3dec a73d
00000010: 20f5 363f 1370 39bf c856 5e3f fe5e b63e
0.13106577 -0.14118084 0.75077367 0.08199356 0.7146778 -0.72436637 0.8685117 0.35619348

prescalers.VaccinationFull.weight f4 [8, 1]
00000000: 6527 08be a835 f13e 843a 5f3f 34a1 453f
00000010: 609a 13be e583 44bf b3e5 2abf 5e47 16bf
-0.13296278 0.4711125 0.8719866 0.771991 -0.14414358 -0.76763755 -0.66756743 -0.5870265

prescalers.VaccinationFull.bias f4 [8]
00000000: 43b0 a43e e573 24bf b6f5 58be 6350 6a3f
00000010: e04c 363f ef9a a53e 99bb 443d 6918 ae3e
0.32165727 -0.6423934 -0.21187481 0.9152891 0.7121105 0.32344767 0.04803047 0.34002998

prescalers.Cases.weight f4 [8, 1]
00000000: d5c6 273f b7b7 85bf e501 70bf 0920 3f3f
00000010: 2044 ad3f 55ea 973d 8a5d 35bf bb34 d73e
0.6553777 -1.044669 -0.9375289 0.74658257 1.3536415 0.07417742 -0.70845854 0.42032418

prescalers.Cases.bias f4 [8]
00000000: 6d7a 41bf ca59 7bbe ad62 043f 422e cb3e
00000010: 789e 5b3e c848 10bd 2ab6 b03e aedd 5fbf
-0.7557743 -0.2454597 0.5171307 0.3968373 0.2144717 -0.03522566 0.3451398 -0.8744763

prescalers.Cases.bias f4 [16]
00000000: 1277 cfbe 32ea f5be 08c5 d3bd 145f 0d3d
00000010: 07eb 49be e9cd adbd 4a20 1d3f 6381 94be
00000020: 6c85 51be 1000 f73e b486 0cbf cbc9 c93e
00000030: afa7 31bf c5f6 e03e e0b0 92be 8cb0 343d
-0.4052053 -0.4803024 -0.10340315 0.0345145 -0.19718562 -0.0848654 0.61377394 -0.29004964
-0.20461053 0.48242235 -0.5489304 0.39411768 -0.6939649 0.4393827 -0.2865057 0.04411368

prescalers.Cases.bias f4 [16]
00000000: c5e8 6a3f 549f 3f3f a755 973f 4116 a23f
00000010: 631f 823f d4d6 8d3f 9c82 e13f bf03 7a3f
00000020: 2e2b 693f 9431 ad3f c92c 293f e2cf b83f
00000030: a55a 0a3f 1fc9 ba3f a482 483f 6b59 a03f
0.9176143 0.7485249 1.1823014 1.2663041 1.0165828 1.1081185 1.7617984 0.97661966
0.9108151 1.3530755 0.6608396 1.4438441 0.5404456 1.4592627 0.7832434 1.2527288

prescalers.Cases.bias f4 [16]
00000000: 27b9 f0ba e704 e8bd e924 6f3e 2c04 433e
00000010: 5d94 213d 3668 0c3e 4026 58be 5bc8 02be
00000020: 80fd a7bd e107 253e c3b0 cd3d 6754 d6be
00000030: 8a28 933e e491 903d 8a9a 88bc 98c0 07bd
-0.0018365727 -0.1132906 0.23353924 0.1904456 0.03944813 0.13711628 -0.21108341 -0.12771742
-0.08202648 0.16116287 0.1004348 -0.4186127 0.28741866 0.070590764 -0.016675252 -0.033142656

prescalers.Cases.bias f4 [8, 8]
00000000: 08cd 1a3f 4def 61bf 3fc5 14bf 3964 563e
00000010: 7ee9 2abf d8f1 aabf f26e ccbe 6b13 bdbb
00000020: 8a59 41bf 9f7e 18bf cb44 14be 638c 893e
00000030: 55ef 10be f5b7 f8be 5ed9 663f 20e4 c5be
00000040: ee1f c13e 7637 1c3e 5e15 193f 8ad4 213d
00000050: c58d e4bc 1d5e 76be 84b1 0a3e 4d85 a6bd
00000060: 2982 00bf 317a 8dbe b1cc 8f3b 0985 fbbd
00000070: 45d1 0dbf 91cd fe3d 842a 00bf 82cc 5e3f
00000080: a430 cebe 1036 043f 57ca a9bd 48d0 00be
00000090: 7b48 67be a6d6 593f b8e1 9d3e 95a8 b13d
000000a0: b3e1 b33d bc0f cfbc e11d 1fbe d927 51bc
000000b0: b30d 083f adf9 d8be 105e 203e fde3 8abe
000000c0: c438 09bf 690b 48be d801 f53c 89ad 70be
000000d0: a9c0 813f 770a 863f e0b0 6f3f b7e2 1ebf
000000e0: 35c3 01bf e28b 11bf 4007 2bbe 88dc f63e
000000f0: 3bec a23c 62f5 e9be f50f a63e 05de 303e
0.604691 -0.8825577 -0.58113474 0.2093667 -0.6676253 -1.3355055 -0.39928395 -0.005770137
-0.7552725 -0.5956821 -0.14479367 0.2686492 -0.14153798 -0.48577848 0.90175426 -0.38650608
0.37719673 0.15255532 0.5979823 0.039509334 -0.027899632 -0.24059339 0.1354428 -0.08130894
-0.5019861 -0.27632287 0.004388415 -0.12281234 -0.55397445 0.124415524 -0.50064874 0.87030804
-0.40271485 0.5164499 -0.082905464 -0.12579453 -0.22586243 0.8509315 0.30836272 0.086747326
0.08783283 -0.025276057 -0.15538742 -0.012765848 0.53145903 -0.42377988 0.15660882 -0.27127066
-0.5360224 -0.19535603 0.029908106 -0.23503698 1.013692 1.0471944 0.93629265 -0.6206469
-0.5068849 -0.5685407 -0.16701984 0.48215127 0.019888034 -0.45695025 0.3243405 0.17272194

prescalers.Cases.bias f4 [8]
00000000: 4ca2 9dbe 7fcb 453e 0df2 c8bd 5287 debd
00000010: 81da ad3d 7a3c d63d d832 f33e 548e 8abd
-0.30787885 0.19315909 -0.098117925 -0.10865654 0.08488942 0.10460754 0.47499728 -0.06765428

prescalers.Cases.bias f4 [8, 8]
00000000: 3344 a2be 180f ac3e 328e ad3e b271 09bf
00000010: c9f1 ac3e dec1 89bd 35d0 293f 66e3 f33e
00000020: 8b77 d9be 5552 bebd 2948 a73e bf57 293d
00000030: 922b f33d eff8 59bd d373 ff3e 7330 e9bd
00000040: 29cf ee3e eb32 4fbe 5326 803e a613 b43e
00000050: ec47 92bd 8e5d 06bf 1482 2fbf 66e7 c63e
00000060: 4f45 893f 0d07 2fbd 5e94 9a3e 35a8 febd
00000070: eae3 57bd ce7b 943c f399 3e3f 7ddb 9abe
00000080: 0807 a83e 09c9 8bbe 838e 983e d02d 893e
00000090: a508 893e e9d0 32bb 54d1 0d3f a17d 863d
000000a0: bb22 293f 1328 2fbe 9290 e7be bb5e d63d
000000b0: 39f6 ca3d 682d 51be 89c9 6dbf f021 ec3e
000000c0: 796a cfbd 817a 6b3d 6d07 993d 2f88 3b3e
000000d0: 9125 66bc 5530 1b3e 8178 26bf f586 d1bd
000000e0: 7b62 a6be c512 103e 9d41 07bf a9bc a8be
000000f0: b9df 253e e0fc 0b3c 82a6 293e 1de0 d7be
-0.31692657 0.33605266 0.3389755 -0.5368911 0.33778217 -0.0672643 0.66333324 0.4763443
-0.42474017 -0.09293047 0.3267224 0.041343447 0.11873545 -0.053215917 0.49893054 -0.11386194
0.46642426 -0.20234267 0.2502924 0.3517124 -0.07142624 -0.52486503 -0.6855786 0.38848418
1.0724276 -0.042731334 0.3019132 -0.12434427 -0.05270759 0.01812544 0.7445366 -0.3024558
0.32817864 -0.27301815 0.29796228 0.26792765 0.26764408 -0.0027285165 0.55397534 0.065669306
0.6606862 -0.17105131 -0.45227486 0.10467287 0.099102445 -0.20427477 -0.92885643 0.46119642
-0.1012773 0.057489876 0.074721195 0.18313669 -0.0140470425 0.15155156 -0.65027624 -0.10230819
-0.3249701 0.1406966 -0.5283449 -0.32956436 0.16198625 0.008544177 0.16567424 -0.42163172

prescalers.Cases.bias f4 [8]
00000000: 2e8e 863e 1b32 493e 36a6 0dbe aec8 17be
00000010: 75f7 9b3d 5bff aebe 6426 fd3a 3d89 b8bd
0.2628035 0.1964802 -0.13832936 -0.14822647 0.07615558 -0.34179196 0.001931381 -0.09010551

prescalers.Cases.bias f4 [32, 8]
00000000: d584 4ebe 9e92 e83e adb3 09bf 5c3c 0ebe
00000010: daff ae3e 5d97 1cbf 43dd f7be d92b 733e
00000020: 97a2 143d bea3 9f3d f952 c5bd ec3b 513e
00000030: 44e1 103c 4239 cd3d 994b 39bf fbeb 0b3d
00000040: dd9b 953d a826 5e3d 119a 67be 7fe1 6cbd
00000050: 8afe bb3d 57a9 14be f8af 913c a21b d6bc
00000060: 291d 04be 9811 3bbc 172d 1fbe a060 1bbf
00000070: 38fb 023d b947 8cbe 0099 62be f52b 723c
00000080: 11a4 8e3d 3e24 99be 86a2 893e ecb8 a43d
00000090: 32d0 183f e913 16bd af1a 93bd a47b dd3e
000000a0: 2c41 e83e e8e7 763d 132c 3f3e 4cbe 993e
000000b0: c8d9 503d 3d86 89be 6883 c73d 3d9a 8c3e
000000c0: a176 e1be e909 0dbf e880 d53e 7ae4 303e
000000d0: 31b0 75be 031f bc3e a0b4 053e 5d9f 773d
000000e0: e5d9 efbd f547 cd3c fccf 193f daf4 d13e
000000f0: ad21 843e a129 2a3e e302 553d 515b a4bd
00000100: 2b7b 4dbe 5dab f3be 1fa8 863e 0b44 0b3d
00000110: f914 5a3d 3e60 283f 0687 b33e 795f 2e3e
00000120: f920 053f 73b8 0b3f 9b66 fdbe 06d2 a23e
00000130: a9de be3e 8375 07bf 45c3 80be 3bed 43bc
00000140: 77dd e7be 45f4 a5bd 6f81 df3e e881 04bd
00000150: 6a5a 1cbf 63e1 8a3e 9312 a83e d075 02be
00000160: 74b8 d43e d19c 923e 82f3 8cbe b264 6abf
00000170: b461 a0bd a2b5 3bbf bd86 9abe 53c2 7e3f
00000180: 39e9 36bf cac0 83bd 6894 d63e 3169 e23e
00000190: 75f8 d23e 6962 f83e e9a5 fd3e 584b a6be
000001a0: 0ba9 47be e86e 263d c575 59be 65d4 893e
000001b0: 5d0d 8abe dee7 c7bd f44b d63d f7b6 323e
000001c0: c5cd 4abe f1fc 853e 73f7 7b3e b342 3c3e
000001d0: f166 d9be 387b fc3d 08d8 c43e b31d 2b3d
000001e0: 5690 84be 16c8 af3d 3fce 62bd bc58 013f
000001f0: 0135 2f3e d2a6 b23e c9e6 b9bd 8bd9 90be
00000200: 2e24 3bbe 82a5 fbbd b228 7c3c cf73 c93e
00000210: 75e6 063f 2594 edbe 2b23 15bf df04 ea3d
00000220: 1bf1 ea3e 0fd4 c1be e3a7 b2be 79bb e23b
00000230: e920 883e 18f4 89be 410d e8be 374f 79bd
00000240: fea5 e33e bddb 153e 7699 55be 5be4 c1be
00000250: 073b 5fbd e66d 8d3e 59fb 06bf 987c 7a3f
00000260: 91dd 063e 9ebf 2b3e 10a1 2dbf 838d 1c3b
00000270: bd08 babd a077 813d 202e 4cbf 30d7 013f
00000280: 15ab c2bd 41cb 57bf c090 fa3e 9bf7 3dbf
00000290: f045 8fbe eae6 ae3d 91e7 b8be 6ec9 c43e
000002a0: aaf2 a03e 5194 d639 6bf9 f43e 2f93 a4be
000002b0: 76f4 aa3e 467a 4d3d eb05 1ebf 615d f33e
000002c0: 30eb 833e 8a6f 0e3f 72d6 27bf dda2 36be
000002d0: 85f0 89be 2afd 1fbf e044 13be f187 f3bd
000002e0: 5345 0dbf 30a0 843d 679d 0b3f 40a5 b0bd
000002f0: 446d 06be 37f7 eb3e bf0c 193e f6f4 a9be
00000300: 5ea9 fc3d eed3 0e3f 4823 1ebd b56e 163e
00000310: 8220 e03e 3d13 63bd 1a11 bebe ab41 123f
00000320: 7fa8 3cbe c266 313e 1ff5 76be 1db1 02be
00000330: 15b2 9d3e ece1 2bbf 4fb4 5ebe 300a ec3e
00000340: 9b22 1d3f 71c3 763c bd1b 43bd d618 c5be
00000350: 9cb1 5abe cea4 10bf 5487 84be e117 413d
00000360: 16ef 50bf 5aa3 aabe 5ff0 423f 4400 2d3f
00000370: fba2 35bf 342b 163f ce88 ad3e 4b35 a2be
00000380: 3511 4cbf 7d15 99be 9ee9 a73e 819f bfbe
00000390: 5272 62be 32e0 3b3f 356e c5bc d669 773e
000003a0: 39c8 33be 8047 ddbe c264 0fbf cd8b e5be
000003b0: 8fee 96be bb60 273f c04c 3fbe fc30 eb3e
000003c0: d833 143e 6366 2abe f27d 94be 2ac6 a23d
000003d0: 89e9 b43e 970b 663d ed3a 4cbe 77c0 2d3f
000003e0: c83b 2bbc dd36 d3be 4687 4c3c 72c3 1cbf
000003f0: 6a37 5bbf 2f98 22be 2a20 9ebe 8db2 0c3f
-0.20167859 0.4542436 -0.5378979 -0.13890213 0.34179574 -0.6116846 -0.48410997 0.23747195
0.03628787 0.07794903 -0.096349664 0.20433015 0.00884277 0.10020687 -0.7238098 0.034160595
0.07305119 0.054236084 -0.22617365 -0.057832237 0.09179409 -0.14517723 0.017784104 -0.026136223
-0.12901749 -0.011417769 -0.15544544 -0.60694313 0.031977862 -0.2739847 -0.22128677 0.014780988
0.06964887 -0.29910463 0.26881808 0.080430835 0.5969268 -0.03664008 -0.07182824 0.43258393
0.45362222 0.060279757 0.18669157 0.30027997 0.050988942 -0.26860228 0.09741861 0.27461424
-0.4403582 -0.55093247 0.4169991 0.17274657 -0.23992993 0.3674241 0.13057184 0.060454715
-0.11711482 0.025058726 0.60082984 0.4100712 0.25806943 0.16617443 0.052004706 -0.0802523
-0.20066516 -0.47591677 0.2630014 0.034000438 0.053242657 0.65771854 0.35063952 0.17028607
0.5200344 0.5457832 -0.49492344 0.3180086 0.3727925 -0.52913684 -0.2514898 -0.011958416
-0.45286152 -0.08103231 0.43653437 -0.03235045 -0.6107546 0.2712508 0.3282667 -0.12740254
0.41546977 0.28635266 -0.27529532 -0.915599 -0.078311354 -0.73324025 -0.30180922 0.99515265
-0.7144962 -0.06433256 0.419101 0.4422088 0.41205183 0.4851258 0.49540642 -0.32479358
-0.19498079 0.040633112 -0.21236332 0.26919857 -0.2696332 -0.09761022 0.10463706 0.17452608
-0.19805057 0.2616954 0.24606113 0.18384819 -0.4246135 0.123281896 0.3844607 0.04177637
-0.2589137 0.08583085 -0.055372473 0.5052602 0.17110063 0.348929 -0.09077222 -0.28290972
-0.1827552 -0.122874275 0.015390562 0.39346167 0.526954 -0.46402088 -0.5825679 0.1142671
0.45887074 -0.378571 -0.34893712 0.006919321 0.26587608 -0.2694404 -0.45322612 -0.06086656
0.4446258 0.14634605 -0.20859322 -0.37869534 -0.054499652 0.27622908 -0.52727276 0.97846365
0.13170458 0.16772315 -0.67823887 0.0023888058 -0.09083698 0.06321645 -0.7975788 0.50718975
-0.095052876 -0.84294516 0.4893856 -0.7420594 -0.27983046 0.08540137 -0.3611417 0.3843493
0.31435138 0.00040927765 0.4784654 -0.32143542 0.33389634 0.050165437 -0.6172778 0.4753218
0.2576537 0.55638945 -0.6556159 -0.17835565 -0.26941314 -0.6249567 -0.14381742 -0.11891163
-0.55183905 0.06475866 0.5453705 -0.08625269 -0.13127619 0.46087047 0.14946268 -0.33194703
0.12336992 0.5579213 -0.038607866 0.14690669 0.43774801 -0.05543827 -0.37122422 0.5713145
-0.18423651 0.17324355 -0.24116944 -0.12762876 0.30799928 -0.67141604 -0.2174847 0.46101522
0.6138093 0.015061245 -0.047633875 -0.3849551 -0.21356815 -0.5650147 -0.25884497 0.047141913
-0.81614816 -0.33327752 0.7614803 0.6757853 -0.70951813 0.5865967 0.33893436 -0.31681284
-0.79713756 -0.29899207 0.32795423 -0.3742638 -0.22113922 0.7338897 -0.024100402 0.24161467
-0.17556848 -0.43218613 -0.5601312 -0.44833222 -0.2947888 0.65381974 -0.18681622 0.4593581
0.14472902 -0.1664062 -0.2900234 0.07947953 0.35334423 0.056163397 -0.19944353 0.67871803
-0.010451265 -0.41252795 0.012483424 -0.61235726 -0.8563143 -0.15878366 -0.30883914 0.54959947

prescalers.Cases.bias f4 [32]
00000000: 3dba 183d c603 7abc b9a9 1a3d b4bd 673e
00000010: beb8 debd d13b 803c 6da1 aabe 845b a9bd
00000020: 500f d7bd 8508 8a3e 3426 4e3c 3e37 95be
00000030: 70cd 883e 2dbc 4d3d 91d8 fc3d 3d8a 9cbd
00000040: 0e58 08be 3497 00bf 11ee 16bf fb99 5dbe
00000050: 14d5 5abf 9301 a7be 8b31 913d 47c9 ffbe
00000060: 73a8 9bbe 4de1 bb3d d801 49be 1713 1bbe
00000070: 65f1 65bd 7124 4bbf 7133 01bf def4 fdbe
0.037286986 -0.015259689 0.037759516 0.2263096 -0.108750805 0.015653523 -0.33326283 -0.08269408
-0.105009675 0.26959625 0.0125823505 -0.2914371 0.26719236 0.050228287 0.12345994 -0.07643554
-0.1331484 -0.5023072 -0.5895701 -0.2164077 -0.8548138 -0.3261839 0.07089528 -0.4995825
-0.30401954 0.09173832 -0.1962961 -0.15144001 -0.056138415 -0.7935248 -0.5046912 -0.4960088

prescalers.Cases.bias f4 [16]
00000000: dca6 3c3f aa1d 8a3e 82b4 963f a95d 963f
00000010: ee9c 7a3f ffc3 683f 18f2 b63f 23bd d43e
00000020: 0004 803f 81ae 983f d75f 413f ca54 bc3f
00000030: a545 3f3f 59a1 853f f701 a83e 5538 813f
0.7369211 0.26975757 1.1773837 1.1747333 0.97895706 0.90924066 1.4292631 0.4155055
1.0001221 1.1928254 0.75536865 1.4713376 0.74715644 1.0439864 0.32814 1.0095316

prescalers.Cases.bias f4 [16]
00000000: 8e69 df3d a496 4abd f294 963e 8224 703e
00000010: d168 6d3d 6750 0e3e ebe5 52be 80f3 7a3d
00000020: dc4f 8fbe ded5 303e b736 a93d 2318 cdbe
00000030: 7a2f 273e 7745 5f3d 7ff1 f3bd 9f6f a53b
0.10908805 -0.04946007 0.2941051 0.23451427 0.05796129 0.13897859 -0.20595519 0.061267376
-0.27990615 0.17269084 0.08262389 -0.40057477 0.16326705 0.054509606 -0.11911296 0.0050487067

prescalers.Cases.bias f4 [8, 1]
00000000: 79e8 1f3e 2794 19bf 1ead 3e3f bab1 8e3f
00000010: ce7a b8bf e34b 52bf d031 8dbf 04a3 323f
0.15616025 -0.5999169 0.74482906 1.1147988 -1.4412477 -0.82147044 -1.1030827 0.6977999

prescalers.Cases.bias f4 [8]
00000000: dd6e 92be ea36 043f bf49 ed3e 4cb1 b9bd
00000010: 90a9 acbd 9b25 e1be 80d0 353d 82ff 1cbe
-0.28600207 0.5164629 0.46345326 -0.0906702 -0.08430779 -0.43974003 0.044388294 -0.15331843

encoder_variable_selection.flattened_grn.resample_norm.mask f4 [3]
00000000: 187b 4abf 993b 03be f634 053f
-0.79094076 -0.12815703 0.52033937

encoder_variable_selection.flattened_grn.resample_norm.norm.weight f4 [3]
00000000: 30b7 933f 817c 993f e048 f83f
1.1540279 1.199112 1.939724

encoder_variable_selection.flattened_grn.resample_norm.norm.bias f4 [3]
00000000: aeab 0b3e ed4c 743d 578b dfbe
0.1363971 0.059643675 -0.43660995

encoder_variable_selection.flattened_grn.fc1.weight f4 [3, 24]
00000000: 8200 0f3f 65ff 85be 47fd 873e 92db e3bc
00000010: b75a e53d 6f7e 963c 1238 bebd 9f71 51bd
00000020: adc8 e3be 85dc 71bd aafa 08be c5f5 a7bf
00000030: 0543 7bbc f114 313e 6c89 843e 5829 423e
00000040: cf11 e53e ce43 30bf 13a8 bd3e 7e89 ecbc
00000050: a4ad 8f3d 82f3 02bf 6627 383e 2574 483e
00000060: beb6 0fbe 158c 253f 221e 2abf d856 303e
00000070: 297e 32be c5c8 6b3e 55f0 20be 802b 983e
00000080: ffbc acbe 91e3 803c 3286 72bf b0ed 2abf
00000090: 2b07 a83d 9d3f a73e cecd c13e 7821 0a3f
000000a0: 8f7c 8c3e bd09 b2bd 59ae 28bf cefb d8bd
000000b0: 7104 a63d d273 8c3e 8052 51be 3334 a33e
000000c0: ba85 5bbd 4e7d 0dbf d747 97be e2ae 22be
000000d0: 402b f43d 65ae 683f 9fe1 abbe a4db 8e3e
000000e0: 4ae2 42bf f8ec bc3e f0dc 123d fc38 7dbe
000000f0: 5b71 dabe eef3 b43d 5f24 f63e 12b2 973e
00000100: a0fb 6e3e 7923 fc3e 6cd0 a33c e6b9 95be
00000110: af87 b0be ebd1 1ebf e248 d4be 1aaf 4a3e
0.5586015 -0.26171413 0.26560423 -0.02781466 0.11198943 0.018370835 -0.09288038 -0.05113375
-0.4448904 -0.059048194 -0.13376871 -1.3121878 -0.015335803 0.17293145 0.25886095 0.18961084
0.4474015 -0.6885346 0.37042293 -0.028874155 0.07015541 -0.51152813 0.1798378 0.19575556
-0.14034554 0.64666873 -0.6645223 0.17220628 -0.17430939 0.23025806 -0.1571668 0.29720688
-0.33737943 0.015733512 -0.94736016 -0.6676893 0.08204492 0.3266572 0.3785233 0.5395732
0.2743878 -0.08693264 -0.65891033 -0.10594903 0.08106316 0.27432114 -0.20441628 0.31875762
-0.05359433 -0.55269325 -0.29546997 -0.15887025 0.11922312 0.90891105 -0.33570573 0.27901947
-0.7612654 0.36899543 0.035855234 -0.24728769 -0.42664608 0.088355884 0.48074624 0.29628044
0.23338175 0.49245813 0.019996844 -0.29243392 -0.34478518 -0.6203906 -0.41461855 0.19793358

encoder_variable_selection.flattened_grn.fc1.bias f4 [3]
00000000: 0db0 e7bd f894 18be 4137 2bbf
-0.11312876 -0.14900577 -0.66881186

encoder_variable_selection.flattened_grn.context.weight f4 [3, 16]
00000000: 2388 2fbe 3d87 23bd 5cc8 54be 945d a6bc
00000010: c409 973e 6d91 75be 9132 77be de8f 9a3d
00000020: 94e6 38bd a1a5 2e3e 63cd 513b c39b 39bc
00000030: 491e bf3c 1ad4 513d cda3 d03c 964c 39be
00000040: c4b0 053e 7e01 3bbb 0af0 0d3f 5b13 c1be
00000050: 3a82 80be 1458 2f3f ae14 c33c bad6 b8be
00000060: 9b11 01b8 6a3d 56be ea40 d5bc b740 a5bc
00000070: f9b3 9c3c fcc0 c53c 5a98 983c 2ef9 0d3e
00000080: 52ff e83e 974d a83d ae86 763f 49c4 1dbf
00000090: ba83 10bf f365 823f e255 313e 40a1 ebbe
000000a0: 8291 20bc 9b95 35be 7d2a dabe 8709 8fbe
000000b0: 8393 a13e fc91 263e da3e 69be 550c 2d3f
-0.17141776 -0.039923895 -0.20779556 -0.020308293 0.29499638 -0.23981257 -0.24140383 0.07546972
-0.04514177 0.1705537 0.003201329 -0.01132864 0.02332987 0.051227666 0.025468731 -0.18095621
0.13055712 -0.0028534825 0.55444396 -0.3771008 -0.25099355 0.6849377 0.023813572 -0.36101323
-3.0772393e-05 -0.20921865 -0.02603193 -0.02017246 0.019128786 0.024139874 0.018627334 0.13864586
0.45507294 0.08217924 0.96299255 -0.6162763 -0.56451 1.0187362 0.17317918 -0.4602146
-0.009800317 -0.17732851 -0.4261054 -0.27936956 0.31557855 0.16266626 -0.22777882 0.6759694

encoder_variable_selection.flattened_grn.fc2.weight f4 [3, 3]
00000000: 6805 11bf 3f20 8cbf bbd2 02bd db4e fcbc
00000010: 6778 5abf 4714 07be 2f2b c5bd df2e b5be
00000020: 0d0e dfbe
-0.56648874 -1.0947341 -0.03193925 -0.03079932 -0.8533997 -0.13191329 -0.09627377 -0.35387322
-0.43565407

encoder_variable_selection.flattened_grn.fc2.bias f4 [3]
00000000: a7d1 033c 3c23 7fbd 47fb 9fbe
0.0080455905 -0.06228946 -0.31246397

encoder_variable_selection.flattened_grn.gate_norm.glu.fc.weight f4 [6, 3]
00000000: d4ed 8c3e 939c abbc 10a7 093f 6561 13be
00000010: 97cd 88be 45dd c73e 5d05 843d ada3 88be
00000020: 839e 423e 5744 82be 790e 2fbf 3e24 0b3f
00000030: 9b65 053f 1e45 60be 0140 c0be 8b8c 003f
00000040: 364e a13e 3ad6 0c3d
0.27525198 -0.020948684 0.5377054 -0.14392622 -0.26719353 0.39036003 0.064463355 -0.26687375
0.1900578 -0.25442764 -0.6838146 0.54352176 0.5210816 -0.21901366 -0.3754883 0.5021445
0.31504983 0.03438399

encoder_variable_selection.flattened_grn.gate_norm.glu.fc.bias f4 [6]
00000000: 8775 3d3d e315 b03d 4538 a9be 4d13 14bf
00000010: 010c 07bf e5c9 673e
0.04625466 0.085979246 -0.33050743 -0.5784195 -0.5275269 0.2263561

encoder_variable_selection.flattened_grn.gate_norm.add_norm.norm.weight f4 [3]
00000000: de34 ae3d 4aee c13e c673 0b3e
0.08506177 0.37877113 0.13618383

encoder_variable_selection.flattened_grn.gate_norm.add_norm.norm.bias f4 [3]
00000000: 58fe 3e3e 461b 04bf 566c 043f
0.18651712 -0.51604116 0.5172781

encoder_variable_selection.single_variable_grns.SinWeekly.resample_norm.mask f4 [16]
00000000: 24ea fe3d 054c 0cbe 1a45 92bc 5dad 833d
00000010: ae3a a83e c1ae 58be 2eda b33e d5d0 69bf
00000020: 33b6 66bf 611e 7dbe 9ec7 19bf 387e c0bd
00000030: 058c bb3e 1dde 973e 5bc2 4a3d 09b7 c33d
0.124470025 -0.13700874 -0.017855216 0.06429551 0.3285727 -0.21160413 0.35127395 -0.9133428
-0.90121764 -0.2471862 -0.60070217 -0.09399074 0.36630264 0.29661646 0.049501758 0.095563956

encoder_variable_selection.single_variable_grns.SinWeekly.resample_norm.norm.weight f4 [16]
00000000: 228a 133f f6db c13e 3bce b93f c24d ab3f
00000010: a744 b23f 9692 633f abbd d63f abc0 563e
00000020: 87bc 113d 4493 6e3f ab33 513f e732 a33f
00000030: 690d 803f 33fa bb3f ed2a b93f 2898 763f
0.5763265 0.3786313 1.4516062 1.3383105 1.3927201 0.8889555 1.6776632 0.20971934
0.035580184 0.9319346 0.81719464 1.2749909 1.0004092 1.468573 1.4466225 0.9632592

encoder_variable_selection.single_variable_grns.SinWeekly.resample_norm.norm.bias f4 [16]
00000000: f39c c63d 774c c9bd aac6 68bd 36a4 703d
00000010: 0410 1c3e ddd9 fdbd 0bcb 81be dd1d 6ebd
00000020: abd2 0d3d dee4 40be d522 de3c bf20 8b3e
00000030: 9281 393e 789c 28be 1f62 61bd 0287 123e
0.096979044 -0.09829038 -0.056830086 0.058750354 0.15240484 -0.1239507 -0.25350222 -0.05813395
0.034624737 -0.18837306 0.027116219 0.2717342 0.18115833 -0.16465938 -0.055025216 0.14309314

encoder_variable_selection.single_variable_grns.SinWeekly.fc1.weight f4 [8, 8]
00000000: 94bb 5c3f a428 d5bf 89db 4dbf 3d44 eebf
00000010: 7a4a b0be 38cb 8dba 7023 893e 26d2 013f
00000020: 870d 353c fc07 c63e 6e05 2dbf 9d49 e7bd
00000030: 97a7 20bf 6f5c 753f 0c60 bdbf d902 17bf
00000040: f92d b2be b6b6 563e d159 a2bf 3018 fd3e
00000050: 4f5d d4bf 073a 473f 539a c3be a24d f2be
00000060: f486 713e a65e 8a3c 4399 b5be 42bc fe3d
00000070: ade0 a93e 446b 753e 8431 673e b80c 143f
00000080: d97d 25bf 6bf8 f3bc ff8e 813f 168a b33d
00000090: 15f5 9c3c 3ef7 4b3f a1d5 db3e 808d 8cbf
000000a0: cff6 343f c7f1 8dbe e366 20bf 8eef fa3c
000000b0: 69ec 7d3e 004c 9ebe 059d 21be 27ce 8f3e
000000c0: 4f7b 51bf 9223 5cbe 4e7e b5bf 95eb e83e
000000d0: e9af fbbe 380a 493e 73e6 b5bf c1cd 30be
000000e0: b549 993e 0f49 49bd 696b 31bf e14b 183e
000000f0: 9e47 493f ca05 2e3f a86e 51be 64fd ce3e
0.8622372 -1.6653028 -0.8041311 -1.8614575 -0.3443182 -0.001081801 0.2678485 0.50711286
0.011050588 0.38677967 -0.6758641 -0.112933375 -0.6275572 0.9584417 -1.4794936 -0.5898872
-0.348007 0.20968136 -1.268366 0.49432516 -1.6590976 0.7782292 -0.38203678 -0.47324854
0.23586637 0.016890835 -0.35468492 0.12438251 0.33179227 0.239667 0.22577482 0.5783191
-0.64645153 -0.02978154 1.0121764 0.08766572 0.019159833 0.79674137 0.42936423 -1.0980682
0.706891 -0.27723524 -0.6265699 0.030631807 0.24797215 -0.30917358 -0.15782554 0.2808697
-0.8182878 -0.21497944 -1.417917 0.45492235 -0.49157646 0.19632804 -1.4210953 -0.17265989
0.29939047 -0.04914194 -0.6930452 0.14872696 0.78624904 0.67977583 -0.20452368 0.40427697

encoder_variable_selection.single_variable_grns.SinWeekly.fc1.bias f4 [8]
00000000: 7fd0 a3be c2ce 74bd 5b70 2fbe 473d 64be
00000010: a863 17bd 617d 86bd 1519 64be 2c9b 48be
-0.31995007 -0.059767492 -0.17132704 -0.22289 -0.036960274 -0.06566883 -0.22275193 -0.19590443

encoder_variable_selection.single_variable_grns.SinWeekly.fc2.weight f4 [8, 8]
00000000: 6e7d 83bf 7e78 a0bd dd6d b2bf be12 babb
00000010: bd78 80be 4a70 9dbc 0553 863e 1039 cabe
00000020: 218a 46be 636b 38be 5370 f83e ffb4 75bd
00000030: 09e0 e8bd 9ffa f53c c53c 303f 85a7 f93e
00000040: 3fca 353f 22e7 f3be 7639 14bd f96c dabc
00000050: 98cd fa3e 3171 83bd 310c e33e 31b0 c33e
00000060: 2526 243f bf2f 543f ae0e 0e3f 3e1c 833c
00000070: 892c d6bc 6771 76be 80fa f93d 86e4 d9be
00000080: d67c 89bf 879c 333f 5d96 1abf 7d50 94bd
00000090: 9fc3 203e 867c b23c 7e5a 35be 33d6 0dbf
000000a0: fc90 333e 8eb7 0fbf 0c56 26bf 0e86 383e
000000b0: ec4e fcbe da52 e5bc 2309 aabe e647 c4be
000000c0: b652 17bf cbfc 98be 1a43 e9be 88ac a03b
000000d0: 9218 1a3f e08a 6ebe d2fe 6cbe 8aac 0d3e
000000e0: 975d 543f 382b fdbc 9185 103f be76 b13d
000000f0: 4406 c63e 8914 99bc b18b 273f 19f2 babe
-1.0272653 -0.07835482 -1.3939778 -0.005678504 -0.25092116 -0.019218583 0.26235214 -0.3949666
-0.1938863 -0.18009715 0.48523197 -0.059987064 -0.11370856 0.030026732 0.68842727 0.4876062
0.7101173 -0.47637278 -0.03618761 -0.02666329 0.4898498 -0.06418074 0.4434524 0.3822036
0.64120704 0.82885355 0.5549115 0.016004678 -0.026144283 -0.24066697 0.12205982 -0.42557162
-1.0741222 0.70160717 -0.60385686 -0.072419144 0.15699624 0.021787893 -0.17710301 -0.5540497
0.17535776 -0.5613946 -0.6497505 0.18019888 -0.49278963 -0.027993608 -0.33210096 -0.38336104
-0.5911058 -0.29880366 -0.45559007 0.00490338 0.6019374 -0.23295164 -0.23144081 0.1383535
0.82955307 -0.030904397 0.56453806 0.086652264 0.38676655 -0.01868655 0.6544753 -0.3651283

encoder_variable_selection.single_variable_grns.SinWeekly.fc2.bias f4 [8]
00000000: 5f68 f2bd ab06 d9bd 35e4 023e adf2 783e
00000010: 8630 ba3e 1b15 a03d ded4 61be abc0 793e
-0.118363135 -0.10596975 0.12782367 0.24311323 0.36365145 0.078165255 -0.22053859 0.24389903

encoder_variable_selection.single_variable_grns.SinWeekly.gate_norm.glu.fc.weight f4 [32, 8]
00000000: 7e94 debc 43c9 333b 42dd 513d 7547 a4be
00000010: 71bf 993d 5fe7 e1bd a48b 4dbd 0344 fd3d
00000020: f3dd ea3e 7be9 e0bd f207 a7be b739 43bf
00000030: 240c dc3e 6662 3b3e 3559 4b3f 787c 0dbf
00000040: ff22 08be e760 b13e ea51 c6be 8589 c23e
00000050: c959 ae3e 2afb d1be 6083 14bf f1dd 113f
00000060: 7893 853e d2de 633d abdb 89be d97c 513e
00000070: 513c 813e 5000 2bbd 3e02 d2be 76d2 e83e
00000080: 710b f13d f7be ed3d 0fad 8bbc a13c 8e3d
00000090: e7ef c23d f158 20be 12cd b13e 4151 22bd
000000a0: ffdb a03e ce53 83be 1a5c 5f3d 4527 1bbe
000000b0: 9308 90be 972c 00be 88c3 e13d 9c48 ca3c
000000c0: b683 d73e 7b3b de3e 1380 4cbf 981d eebc
000000d0: 0c6b 2d3f 0bc8 f2be 5110 d93e 4b2b bcbe
000000e0: c2cb 88be 661b 963d e345 d33d 9839 c1be
000000f0: 71b0 b4bd 8b05 34bc 138b e7bd 3d72 a4bc
00000100: 4951 f8be 6afe 203f bd8e 91be 3613 793f
00000110: ba37 d53d fc92 50bf 62df 5abf aa92 373f
00000120: bad5 4fbd 66ea 9cbd 88a2 ed3c 0006 20be
00000130: d775 b23c 9c74 613d 9b2f 243b 51b5 a83d
00000140: d9c7 07bd bbc4 f83d 19a5 623d 3658 04bd
00000150: 5c8a f23d 8e15 e33d 7134 12bd 2f50 073d
00000160: 2aaf 90be e16d 013f aa43 a5be d585 0d3f
00000170: 1501 ae3d 1af6 5bbf eefe 00bf 6627 103f
00000180: 48e8 df3e df93 c53e 0ef6 9cbe d17c 9cbe
00000190: 1a35 f73e f36d 6bbe 62db 753e 2530 dabe
000001a0: 507f e73e 5124 0abf b6b1 073f e25a e4be
000001b0: d5c7 d9bd eae3 a73e 010f bd3e 1296 e0be
000001c0: 0256 78bf 9580 45bf 9f30 7b3f a477 b23e
000001d0: 9cbc 70bf 30b6 183f 0d67 1ebf 1fc2 6e3f
000001e0: b447 d6bc d4f4 fdbe 1fc0 033e 2b5e 203d
000001f0: 845a b3be 11d0 53be bf9b c83e 4535 89be
00000200: 4a8b da3d 3307 2b3e 306c 87bb 8e6f 9c3e
00000210: 68f7 11be 0bce 18bf 6037 d73d 5b88 b0be
00000220: 233f 753e c961 5cbf 86b8 c53e 5307 95be
00000230: be59 a6be 09e4 963f d62d efbc d5a9 95be
00000240: 2a81 1f3e a9d5 f1bd bcec 2fbe 5ab0 123d
00000250: a6e0 d73e f3a4 4ebe 38f5 1dbd d220 313e
00000260: b147 083f 05f1 bf3e 1ffe 93bd ed19 12be
00000270: 1714 ed3c 77d5 c4be 8bad 1abd 1be0 993e
00000280: a936 fbbd 9310 b33e 43bd 36bd 4020 083d
00000290: b4a7 7ebe f60c cbbe 08be 8d3e 52d9 313d
000002a0: bffd 0cbe 0ff4 283e f75d 853d 7681 e63e
000002b0: a8d9 7f3e 6594 3fbf bf57 b03e 9873 91be
000002c0: 4afc 5ebe 2ed3 c4be f55f 003f 160c 17bd
000002d0: af35 19bf a278 5b3e fb86 90be e11d a13e
000002e0: 949c 59be 80dd 203f 774b 103c 1c93 c4be
000002f0: d390 6e3e 1e23 46be d95c 363e 86f7 81be
00000300: bd77 edbd eabf 5b3e 2371 1abe b4b5 373e
00000310: 7309 9f3e 3755 2ebe bb7d 8bbd 5627 ba3e
00000320: d0f1 2cbe 5b56 f03d 85ce d6bd ff5b 583e
00000330: dc0a 083e bbd3 3839 a7aa bebd 9ac8 d8bd
00000340: 8d42 1fbd 96c2 e83d 92ad 06bd 0c1c 873b
00000350: 35e6 1abd e952 89be a277 b9bd 0f2f b7be
00000360: f862 2bbd c528 143f 98ef c3be 5dfc 903e
00000370: 150d 593e 9a58 28bf af3d 873c 95de 1e3e
00000380: 1e84 27bf 7bd7 b1be 8436 7f3e 9a21 0a3f
00000390: 1e69 b1bd 4123 02be a378 14bf ddc2 033f
000003a0: cd72 d7be ec87 993e a69e 03bf 292c f63e
000003b0: b232 d33e c319 c6be 71a4 a9be 7b41 9e3e
000003c0: 92a9 34bf b9b4 b0be 4893 2b3f 802f ecbd
000003d0: ff0e 30bf 4610 c93e 75f0 d4be ddb4 f93e
000003e0: 69fe 82bd f04e db3e 05bc 03be c784 8a3e
000003f0: c9b0 adbd 86e4 09bf aee5 e2be 7abe a9be
-0.027170416 0.0027433194 0.0512364 -0.32085767 0.07507218 -0.11030459 -0.050182 0.12366488
0.4587246 -0.10982033 -0.3262325 -0.7625994 0.42978013 0.18299255 0.79432994 -0.5526805
-0.132946 0.34644243 -0.3873437 0.37995544 0.34052876 -0.41011935 -0.5801296 0.5697928
0.26089072 0.05563242 -0.26925406 0.20457782 0.2524133 -0.041748345 -0.41017336 0.4547307
0.117697604 0.11608689 -0.017050294 0.06945158 0.09518414 -0.15658928 0.3472677 -0.03962827
0.31417844 -0.25649875 0.054531194 -0.15151699 -0.28131542 -0.1251701 0.11023623 0.024692826
0.42092675 0.43404755 -0.79882926 -0.029066846 0.67741466 -0.47418246 0.4239526 -0.3675178
-0.26717955 0.073294446 0.10316064 -0.37739253 -0.08822716 -0.01098765 -0.11305823 -0.020074004
-0.48499516 0.62888205 -0.28429213 0.9729494 0.104110196 -0.8147428 -0.85497105 0.71708167
-0.050740935 -0.076618955 0.029008165 -0.15627289 0.021784706 0.055042848 0.002505279 0.08237708
-0.033149574 0.12146898 0.05533323 -0.032310687 0.11842796 0.110880956 -0.035694543 0.033035453
-0.2825864 0.50558287 -0.32278186 0.55282336 0.084963 -0.85922396 -0.5038899 0.5631012
0.43731904 0.3858938 -0.30656475 -0.30563977 0.482827 -0.22991161 0.24009469 -0.42614856
0.4521432 -0.53961664 0.5300554 -0.44600588 -0.10633818 0.32791072 0.3692551 -0.43864495
-0.9700624 -0.77149326 0.98121065 0.34856904 -0.94037795 0.59652996 -0.61875993 0.93264955
-0.026157238 -0.49600852 0.12866257 0.039152306 -0.35029995 -0.2068484 0.39181325 -0.26798454
0.106710985 0.16701965 -0.00413277 0.3055386 -0.14254534 -0.59689397 0.10508609 -0.3447903
0.23949866 -0.8608671 0.38617343 -0.2910715 -0.32490343 1.1788341 -0.029196661 -0.29231134
0.15576616 -0.118083306 -0.17180151 0.035812713 0.4216358 -0.2018011 -0.038563937 0.17297676
0.5323439 0.3748857 -0.07226204 -0.14267702 0.028940244 -0.3844411 -0.03776316 0.3005379
-0.12266285 0.34973583 -0.044614088 0.03323388 -0.24868661 -0.39658326 0.27684045 0.043420143
-0.13768671 0.16499351 0.06512063 0.45020646 0.24985373 -0.7483581 0.34441945 -0.28408504
-0.21775928 -0.38442367 0.5014642 -0.03687676 -0.5984754 0.21432737 -0.28227982 0.31468108
-0.21251136 0.6283798 0.008807055 -0.38393486 0.23297434 -0.19349334 0.17808856 -0.25384158
-0.11595104 0.21459928 -0.1508222 0.17940408 0.31061897 -0.17024694 -0.068110906 0.36358136
-0.16889119 0.11735221 -0.10488609 0.21128844 0.13285393 0.00017626483 -0.09309893 -0.10585137
-0.038881827 0.11365239 -0.032880373 0.0041232165 -0.0378172 -0.26821068 -0.09056021 -0.3577809
-0.04184243 0.5787471 -0.38268733 0.28317538 0.21196397 -0.65760195 0.016508905 0.15514596
-0.6543597 -0.3473471 0.2492314 0.5395752 -0.08662628 -0.12708761 -0.5799658 0.5146921
-0.42079774 0.29986513 -0.51413953 0.48080567 0.41249615 -0.3869153 -0.3313327 0.30909333
-0.70571244 -0.3451288 0.6702161 -0.115324974 -0.6877288 0.39270228 -0.41589704 0.487708
-0.06396181 0.42833662 -0.12864693 0.27054426 -0.08480985 -0.53864324 -0.44315857 -0.33153135

encoder_variable_selection.single_variable_grns.SinWeekly.gate_norm.glu.fc.bias f4 [32]
00000000: 8e60 da3d 5b6f b03e fbba a53d 65a7 4d3e
00000010: 8993 843e eeb1 49be 68e8 0dbf c396 77bd
00000020: 189d 363e 5e6c d0bd a0a3 4e3d 1944 b43e
00000030: 3d21 e43c 499c 07bf 6051 7c3e 3cca b73d
00000040: 6e47 91bf d253 863f cdb1 a23e d090 0dbf
00000050: 5b2a 62bf c437 06bf 38e0 aabe 6ca9 b0be
00000060: 53f4 ff3e 02d7 fabe f851 f3bf c7e4 9abe
00000070: 5120 d5be 8bba a6bc 4029 6d3d 73a8 26bf
0.106629476 0.34459957 0.08092304 0.20083387 0.2589381 -0.19696781 -0.5543275 -0.060446512
0.17833364 -0.101769194 0.050449014 0.35208204 0.02784788 -0.5297285 0.24640417 0.0897412
-1.1349924 1.049433 0.31776276 -0.5529909 -0.8834588 -0.5242884 -0.3337419 -0.3450426
0.49991092 -0.48992163 -1.900939 -0.30252668 -0.41626218 -0.020352622 0.057900667 -0.65100783

encoder_variable_selection.single_variable_grns.SinWeekly.gate_norm.add_norm.norm.weight f4 [16]
00000000: f5fe ed3c 8b76 ca3f 45a7 dc3f 6913 a93f
00000010: 8d5e ad3f 6ef8 d73e 1063 d23f e8c5 b33e
00000020: 8145 8f3f ff01 173f 72bf 473f a6a8 d73f
00000030: 8143 223f 66ae ac3f e037 933f 1707 613f
0.029052237 1.5817426 1.7238547 1.3209049 1.354448 0.42181724 1.6436481 0.35111928
1.1193086 0.5898742 0.780265 1.6848342 0.6338425 1.3490722 1.1501427 0.87901443

encoder_variable_selection.single_variable_grns.SinWeekly.gate_norm.add_norm.norm.bias f4 [16]
00000000: 0e7f e8bc b0f7 f83d 7588 a73c 352e 493e
00000010: ce71 f73d 1147 e238 399f 5dbe e270 08be
00000020: 4aaa b73c 838d 37be 5b46 81be 41cd e93d
00000030: c990 5b3d 0169 093e db62 1b3e 1796 263e
-0.028380897 0.12156618 0.02045081 0.19646533 0.120822534 0.00010789757 -0.2164277 -0.13324311
0.022420067 -0.17925076 -0.2524899 0.11416102 0.053604875 0.13418962 0.15174429 0.16268192

encoder_variable_selection.single_variable_grns.VaccinationFull.resample_norm.mask f4 [16]
00000000: f681 34bf 6a1f ccbe 73bd 073e da6f 62bf
00000010: bbfe 823f 85c6 17be a020 7abf f90f f23e
00000020: 83bf c0be 1b97 42bf 06c7 a5be 792e 0b3f
00000030: a2d8 88be e340 f23e 6d7f 943e fc5a ae3c
-0.70510805 -0.39867717 0.13255863 -0.8845192 1.0233988 -0.14821823 -0.9770603 0.4727781
-0.37646112 -0.7601182 -0.32378405 0.54367787 -0.26727778 0.4731513 0.29003468 0.02128362

encoder_variable_selection.single_variable_grns.VaccinationFull.resample_norm.norm.weight f4 [16]
00000000: 59f7 183e aa61 6b3f 6bf2 ae3f 3d5e 233f
00000010: a837 0f40 b4e5 6c3f 2fe7 773c c7c0 e23f
00000020: c844 8e3f 2e53 d63e 3ae5 333f 699f c53f
00000030: 58e2 9d3e f6e8 b33f 8e04 973f da69 833f
0.14938106 0.919459 1.366773 0.6381567 2.237772 0.92538 0.015130802 1.7715081
1.111474 0.41860336 0.70271647 1.5439273 0.3083675 1.4055469 1.1798265 1.0266678

encoder_variable_selection.single_variable_grns.VaccinationFull.resample_norm.norm.bias f4 [16]
00000000: e90b e8bd 4b9c cc3d 67d9 b03e c92d 07be
00000010: 84c5 273e 32a8 a9bd 5815 8bbe a7da da3d
00000020: 892c c83d b835 5bbd 4a27 e7bd a44b 0fbe
00000030: 722c 913e 41c3 363d 7b13 c93c 63c6 a93c
-0.11330397 0.09990748 0.34540865 -0.1320106 0.1638394 -0.08284034 -0.2716472 0.10686236
0.097741194 -0.053518027 -0.11286791 -0.13993698 0.28354222 0.044619802 0.024545422 0.020724481

encoder_variable_selection.single_variable_grns.VaccinationFull.fc1.weight f4 [8, 8]
00000000: aa31 cc3e 8fce 01bf 8949 51bf 73f1 d4bd
00000010: cdad 603f 6a54 553e e094 10bf b874 23bd
00000020: 4958 92be 9f1c ec3c 1aed 20bf 2892 cabf
00000030: 99cf 94be b3b2 75be 5fdc 4c3f 47a7 49be
00000040: 5468 0d3e 0c40 20bf c373 80bc e647 c0bd
00000050: 43ad 9dbe d6d0 8c3e 0227 89be aef0 28bf
00000060: f256 adbe ca34 6bbf 2b4e 00bf d3cf b33d
00000070: 6802 43bf 2ced 803f b20c 253f f1de e03e
00000080: 7367 063e 1e39 0e3f 330d 91bd c604 5b3e
00000090: 14f7 22bd b395 213f 162a 4a3f 9d4b 803f
000000a0: 82ee 91be da2a bf3f ed27 643e 6389 98be
000000b0: 50a1 3dbf e76d 5dbf 22b3 51bf 98ab ddbf
000000c0: f268 3abf e53f b53e 75df 9e3d 3674 083e
000000d0: 6ee8 753f 679b 6fbd 845e 8a3e c056 573e
000000e0: 84e3 bf3e cf8d 893e fbd4 2cbf c61d 64be
000000f0: ab94 ecbe 150a 92bf 9c08 86be e9ae bdbf
0.3988164 -0.5070581 -0.8175283 -0.10397615 0.877652 0.20832983 -0.56477165 -0.039906234
-0.2858298 0.028822241 -0.6286179 -1.5825853 -0.29064634 -0.2399395 0.8002376 -0.19692717
0.1380933 -0.6259773 -0.0156802 -0.093887135 -0.3079625 0.2750308 -0.26787573 -0.6599225
-0.33855397 -0.91877425 -0.50119275 0.08779874 -0.76175547 1.0072379 0.64472497 0.4392009
0.131254 0.55555904 -0.07082596 0.2138854 -0.039786413 0.6311905 0.7897047 1.0023075
-0.2850228 1.4934952 0.22280855 -0.29792318 -0.7407427 -0.8649582 -0.8191396 -1.7317991
-0.72816384 0.3540031 0.07757465 0.13325581 0.96057785 -0.058497813 0.27025235 0.21029186
0.37478268 0.26866004 -0.6751248 -0.22276983 -0.46207175 -1.1409327 -0.26178443 -1.4819003

encoder_variable_selection.single_variable_grns.VaccinationFull.fc1.bias f4 [8]
00000000: 47ea c53e b286 97be 8c4d f83d 0ccc 5fbd
00000010: bc70 a0bd 2052 17bf 2e97 59bd 8c54 40be
0.38655302 -0.29594952 0.12124166 -0.054637954 -0.078340024 -0.5910969 -0.05312269 -0.18782252

encoder_variable_selection.single_variable_grns.VaccinationFull.fc2.weight f4 [8, 8]
00000000: 0a5e 8abe 1cc8 9e3d bc79 b0bd 1fb5 24bf
00000010: 7606 71bf a89d cd3e 8707 f1be a2c8 fa3d
00000020: 2653 343f cc00 4dbf 7d18 78bc 79ef 20bf
00000030: 874e 1abf b718 47bf 92eb 843e 1bdb 07be
00000040: f404 c3bf f79f 2c3e be80 31be ddf5 253f
00000050: 9441 8dbe 68b7 173f 5bde 503e 9ca3 123f
00000060: d2d6 933e c752 c5be 5e15 f3bb 6a73 b5bd
00000070: 6a3f 473f ed4a 88bf 5992 acbe d225 17be
00000080: 231c 7bbe f556 acbe 0a81 97bc 30df 4fbe
00000090: 2d96 bf3e f732 f53e 6556 f4be fe2e 4d3f
000000a0: 1c29 b8be e0bd a83e 9148 223d 6535 113f
000000b0: 9846 983e 74c2 a23e 131e 19be a816 36bf
000000c0: 1a0c 0b3f 9c66 62be 8459 36be 8ce3 2f3f
000000d0: c473 c93d a2e6 2dbf 575c ffbd d6d0 843e
000000e0: 5ded 46be 33a7 563e 7ea1 94bd bbf2 0d3f
000000f0: 5816 e6be 71d6 04bf 38d1 e6bd 75a2 65be
-0.2702487 0.077530116 -0.08616969 -0.6433887 -0.94150484 0.40159345 -0.47076055 0.12245299
0.70439374 -0.8007934 -0.015142557 -0.62865406 -0.60276073 -0.77772087 0.25960976 -0.13267176
-1.5235887 0.16857897 -0.17334267 0.6482828 -0.27589095 0.5926423 0.20397322 0.572809
0.28874832 -0.38539717 -0.0074183187 -0.08859904 0.7783114 -1.0647866 -0.33705404 -0.14760521
-0.24522452 -0.33660093 -0.018494148 -0.20299983 0.37419263 0.47890446 -0.47722164 0.8014983
-0.35968864 0.32957363 0.039619986 0.567221 0.2974136 0.3178898 -0.14952879 -0.7112832
0.5431534 -0.22109455 -0.17807585 0.68706584 0.09836534 -0.6793004 -0.12468784 0.2594058
-0.19426484 0.20962219 -0.07257365 0.554485 -0.44938922 -0.5188971 -0.11270374 -0.22425254

encoder_variable_selection.single_variable_grns.VaccinationFull.fc2.bias f4 [8]
00000000: d828 23be 229f de3e 0f9c b1be 3a4b 0f3e
00000010: d24d da3d 1393 24bd 4e1c b23e 9d00 e13d
-0.1593355 0.43480784 -0.34689376 0.1399354 0.10659374 -0.040179323 0.3478722 0.10986445

encoder_variable_selection.single_variable_grns.VaccinationFull.gate_norm.glu.fc.weight f4 [32, 8]
00000000: 3606 05be ee56 0a3f 2312 0b3e ef81 083f
00000010: b608 fbbe 7553 fc3e 9226 60bc 63db 223e
00000020: 81bc a6be 5176 10be f0ea a9be 0675 773e
00000030: f834 36be 78a4 443e b12f 733d 33e7 20bd
00000040: f33c 5e3e b564 88be a259 a53e ce9b cbbe
00000050: 838e 253e bbb6 e73d 4dfd dabe f831 85bd
00000060: 8956 5bbf f7c0 503e caeb 14bf 3ec5 953f
00000070: 6a1d 8dbf c2ab e23e 3d0c 813f b144 773f
00000080: 2bb0 883f 0175 63be 57eb 223f c685 4bbf
00000090: fd4c 6a3f b120 45bf d99f 4bbf 6ba7 0bbf
000000a0: ef5b 193e 9cfa 75be 9313 da3e 6208 bdbe
000000b0: 9f29 bfbd 84d5 303e 95e9 a7bd 3d90 d33d
000000c0: 5597 0cbf cd76 9f3d f868 59bc 1efd e03e
000000d0: b1d5 9cbe b758 c73e 87e3 053f 9581 003f
000000e0: ddc9 71be 643b 0f3f 46bf 3cbe da77 8f3d
000000f0: eede 153e 16a8 82be 1855 8b3e 5221 47be
00000100: 02d2 433e fac2 023e bd07 063e 32bb 57be
00000110: 7e55 05be 4289 3abc 3f62 83be 9e8b 413d
00000120: 184a ec3d 1d16 1fbe 9bee 863e 5417 cdbe
00000130: 97b0 013e f727 d8be ff41 c3be 3448 c4be
00000140: ece3 43bd 7b50 47be fd99 aa3e 882c 7bbe
00000150: 195d 643e b550 c53d c43f b5be 457a 08bd
00000160: 26d9 febe efb5 a7bf 44b2 153f 04b9 683e
00000170: 81f4 78bd 0d3c 0f3f b402 bcbe b8d2 5d3e
00000180: a2ea d6bd 8ccf a23e d9f3 01be f4e0 6fbe
00000190: 3a4a cd3e 8cd6 acbe da4c 57be 9af9 5dbe
000001a0: fe76 143e 9d32 bfbf 9bdd 313f 2773 d63a
000001b0: 1250 aa3d 2349 243e bb3a 03be 39c8 d4be
000001c0: 7f07 01bf 5f23 ae3e e2cb 79be 205a a53e
000001d0: 2bce 24bf fdcf 1a3f fdf5 c93e 1eb1 bd3e
000001e0: 46ba e7be 2e2a 3fbd c5cf 6fbd 47dd d7bc
000001f0: 9e6b 2cbd c757 313e fe13 db3e 7d84 6a3e
00000200: e43e af3e e033 97be 85d3 0a3f a2b6 ffbe
00000210: 6579 c83e 5d60 a6bd 887e bebe 9e8e b4be
00000220: 9547 49bd be2b 99be fc4e 333f c89f febd
00000230: 83f5 0c3e 2d7f 783e 7b36 2abf 04c7 ff3d
00000240: 9755 2fbe 5379 033f 930c d2be a1ef 0440
00000250: c215 1ebf 0afd 303f 002b 523f b242 823f
00000260: 174b 973f 3fe1 f23d 12b8 d53d 9c5b f2be
00000270: bc56 933e 2e64 bbbe 14c8 1dbf f2c4 30bf
00000280: 04e5 5fbe 3c2e a53d 25aa 8abe b50b 893e
00000290: 68b4 8ebd 4850 b1bb d76f 213e 7aa9 983e
000002a0: 583d 963d 9274 61bf ebfc 0a3f ff7a 3ebe
000002b0: 61d9 0bbe 57dc 923e d420 82be e6a4 593e
000002c0: a5d2 943e 87cc 9b3f 784a b0be b98f 3a3e
000002d0: d409 2a3d 69a0 eabd 85f4 4c3e c9f5 7bbe
000002e0: 1c9a ab3d 0ebd e33e 3796 973e 9ebe 34be
000002f0: 49c7 30be c4ff 00bf 3985 cebe 4e65 64be
00000300: 8ab5 4a3e a7ff 15bf d75b c53e 473a 80bd
00000310: 4a30 d23c 3de9 8b3e f176 09be 5e4f 2dbe
00000320: 688b 073e 27db 97be c668 0a3f b51f 81be
00000330: 8aec c83e 39ba 2fbe 6cf3 9ebe 0e79 88bd
00000340: 6e5c 703e 7483 22bd adb6 523e 2776 0ebf
00000350: aec7 af3e 00ca 60bf 41bb e43d 9383 3abf
00000360: 83f5 a23f 5148 02be eec5 203e 8d86 94bf
00000370: 7e31 c83f 2031 3cbf 50ee 37bf 2e8b febf
00000380: c409 943e dfec 0a3e bea5 cfbe 831b ca3e
00000390: ce80 803c a14d cb3e 1006 4ebe db51 a03d
000003a0: e8d0 b9bd a7c3 9ebf 7569 2c3f 77ec 48be
000003b0: f447 0ebd c855 753e 02a6 93be d385 573e
000003c0: a1a4 173f a247 a1be 53c0 9d3d 1b21 94bc
000003d0: 2fa7 1c3d 89a5 18bf f600 11be 2f36 a0be
000003e0: 1882 c9be 394b 243f fc84 17bd 3859 943e
000003f0: ed31 94be e61e fcbe 3e3b 2d3f 91cb 2cbd
-0.1299065 0.54038894 0.13581137 0.5332326 -0.49030083 0.49282423 -0.013681071 0.15904002
-0.32565692 -0.14107634 -0.33187056 0.24165735 -0.17793643 0.19203365 0.059371654 -0.03928299
0.21702938 -0.26639333 0.32294947 -0.39767307 0.16167645 0.1131415 -0.42771378 -0.065036714
-0.8567892 0.2038611 -0.58172286 1.1700819 -1.1024601 0.44271666 1.008186 0.9658919
1.0678762 -0.22212602 0.6364035 -0.79501 0.91523725 -0.7700301 -0.79540783 -0.54552335
0.14976476 -0.24021381 0.4259306 -0.36920458 -0.093341105 0.1726895 -0.08198849 0.10330246
-0.54918414 0.07786331 -0.013269655 0.43943113 -0.30631784 0.38934872 0.52300304 0.50197726
-0.23612161 0.5595 -0.1843234 0.07005282 0.14635822 -0.25518864 0.2721336 -0.19446304
0.1912308 0.1276969 0.1308889 -0.21067503 -0.13020894 -0.011385264 -0.25660893 0.04725229
0.1153757 -0.1553578 0.26353917 -0.4005686 0.1266502 -0.4221799 -0.3813629 -0.38336337
-0.047824785 -0.19464295 0.3332061 -0.24528706 0.22301139 0.09634534 -0.35400212 -0.03331973
-0.49775046 -1.3102397 0.58475137 0.22726828 -0.060780052 0.55951005 -0.36720812 0.21662414
-0.104939714 0.3179897 -0.12690677 -0.23425657 0.40095693 -0.33757436 -0.2102541 -0.21677247
0.14498517 -1.4937321 0.6947877 0.0016361222 0.083160535 0.16043524 -0.12815373 -0.41559008
-0.50402063 0.3401136 -0.24394181 0.32295322 -0.6437709 0.60473615 0.39445487 0.37049192
-0.45259303 -0.046671085 -0.058547754 -0.02635063 -0.04209482 0.1731864 0.4278869 0.22902103
0.3422767 -0.29531765 0.54229003 -0.49944025 0.39155117 -0.081238486 -0.3720591 -0.35265058
-0.04914053 -0.29916185 0.70042396 -0.124328196 0.1376553 0.24267264 -0.6648938 0.12489131
-0.17122494 0.51357 -0.41025218 2.0771258 -0.6175195 0.69136107 0.8209686 1.0176604
1.1819791 0.118593685 0.10435499 -0.47335517 0.2877711 -0.3659987 -0.6163342 -0.69050515
-0.21864706 0.08065459 -0.27082935 0.26766744 -0.069680035 -0.0054111816 0.1576532 0.298168
0.07335919 -0.880685 0.5429217 -0.18601607 -0.13657142 0.2868373 -0.2541567 0.2125431
0.2906696 1.2171792 -0.34431815 0.18218888 0.04151328 -0.11456377 0.20015152 -0.24605478
0.083790034 0.44480175 0.29606792 -0.1765084 -0.17263521 -0.5039027 -0.40336016 -0.2230427
0.19795814 -0.5859322 0.3854663 -0.062611155 0.025657792 0.27326384 -0.13424279 -0.16924807
0.13236773 -0.29659387 0.5406612 -0.25219503 0.39242965 -0.17160882 -0.3104509 -0.06663714
0.23472759 -0.039676145 0.20577498 -0.55649036 0.3433203 -0.8780823 0.11168528 -0.72857016
1.2731174 -0.12722899 0.15700504 -1.1603562 1.5640104 -0.7351246 -0.7184801 -1.9886224
0.289137 0.13566922 -0.4055614 0.39474115 0.015686419 0.39707664 -0.201195 0.07828113
-0.09073049 -1.2403458 0.67348415 -0.19621454 -0.03473659 0.23958504 -0.2883759 0.21047144
0.5923558 -0.31499964 0.077026986 -0.018082192 0.038245376 -0.59627587 -0.14160523 -0.3129134
-0.39357066 0.6417728 -0.03699206 0.28974319 -0.2894434 -0.49242324 0.6766852 -0.042186324

encoder_variable_selection.single_variable_grns.VaccinationFull.gate_norm.glu.fc.bias f4 [32]
00000000: 1923 163c e3c1 b5bd 47f7 0abf 722a 32bf
00000010: 9058 09bf 1bf9 87be a682 58be 63e2 873d
00000020: 9759 9b3d 8068 e03e 4a81 a93e bdb7 70bf
00000030: d151 423e b30a 6fbe 4359 9ebe 76ff 723d
00000040: b65a 94be 6842 72be 5e9d e93d ee3e 2c3f
00000050: 7027 163f c04e a4bf fde8 433f c11b 8cbe
00000060: e259 1cbf 2700 a83d 316b 333e 57a2 1f3f
00000070: f8b3 36bd 1c7b 92bf 25b8 80bd b388 983e
0.009163641 -0.088748716 -0.54283565 -0.69596016 -0.5365076 -0.2655724 -0.21143588 0.06634977
0.07585447 0.43829727 0.33106452 -0.9403036 0.18976523 -0.23343925 -0.30927476 0.059325658
-0.28975457 -0.23658144 0.114069685 0.67283523 0.58653927 -1.2836533 0.76527387 -0.27364925
-0.6107465 0.08203154 0.17521359 0.62357086 -0.044605225 -1.144382 -0.06285123 0.29791793

encoder_variable_selection.single_variable_grns.VaccinationFull.gate_norm.add_norm.norm.weight f4 [16]
00000000: 4ffe 453f 1cb5 0a3f e29e c83f d228 9c3f
00000010: c03c 903f e1b5 1d3f 0b18 3e3f 9903 d63f
00000020: 2e88 4a3f da05 113f ce8c f13e 28e3 8a3f
00000030: afb0 833e 6220 943f c469 953f c457 c43e
0.7734117 0.541826 1.5673487 1.2199957 1.126854 0.6160565 0.74255437 1.6719848
0.79114044 0.56649554 0.47177738 1.0850573 0.25720736 1.1572382 1.1672902 0.3834821

encoder_variable_selection.single_variable_grns.VaccinationFull.gate_norm.add_norm.norm.bias f4 [16]
00000000: 17ac 9abd 3536 983c 1aea ae3e 5b4f c33d
00000010: 40d7 0dbd d46c 45bc c3a8 823d b06d 13be
00000020: b739 f83c c542 86bd fa21 2ebe 175e 623e
00000030: 3ca1 423d 2faa 303e 68fe 05be ef70 673d
-0.07552355 0.018580535 0.3416298 0.0953662 -0.034629107 -0.012049872 0.06379845 -0.14397311
0.030300958 -0.06555704 -0.17005149 0.22106205 0.047517046 0.1725242 -0.1308533 0.056504186

encoder_variable_selection.single_variable_grns.Cases.resample_norm.mask f4 [16]
00000000: ff2d ad3e ba82 7d3e cc6e d8bf def0 9ebe
00000010: e8af 1bbf 89ea 043f f7f5 3c3e 98f0 28bf
00000020: 24f5 c8bf 36c9 0d3f 0a88 ef3e e5ee 46be
00000030: 24da 2abf 42d9 1dbf 6e8a e43e d299 073d
0.33824155 0.247569 -1.6908813 -0.31043142 -0.60815287 0.5192037 0.18453203 -0.65992117
-1.5699811 0.5538515 0.46783477 -0.19427069 -0.66739106 -0.61659634 0.44636863 0.03310568

encoder_variable_selection.single_variable_grns.Cases.resample_norm.norm.weight f4 [16]
00000000: 28dd a43f 2f37 c83f 772c 9d3e 2c93 823f
00000010: 59f5 283f 1e7d c83f 2153 c83f 7edb 703f
00000020: fa22 2e3f c73f eb3f 3e3a c23f 2ddc 8c3f
00000030: 93d3 163f c2d6 1b3f deb3 dc3f 0a5a 9c3f
1.2879992 1.5641841 0.30697986 1.0201163 0.6599937 1.5663183 1.5650369 0.9408492
0.6802212 1.8378838 1.5174024 1.1004692 0.58916587 0.6087457 1.7242391 1.2214978

encoder_variable_selection.single_variable_grns.Cases.resample_norm.norm.bias f4 [16]
00000000: d5fd 813e d72b a13e a519 74be 3884 79be
00000010: 211f d43d 731c 34be 9baf 67be cacb c4bd
00000020: e2b0 a53d d185 ccbd cda2 1b3c eca7 c43c
00000030: 25fc 87bd 3583 59bc fbc8 62bd 1cbc e13e
0.2538897 0.3147876 -0.23837908 -0.24366844 0.103575 -0.17588978 -0.22625582 -0.09609182
0.08090378 -0.09986461 0.009499264 0.024005853 -0.0663989 -0.013275911 -0.05536745 0.4408883

encoder_variable_selection.single_variable_grns.Cases.fc1.weight f4 [8, 8]
00000000: c1b2 1dbd e22a d33f 9675 733e 1ae5 23bf
00000010: 96ec 27bf cecc f23e fcdb 7cbe 099a 07bf
00000020: cc72 053f dbc5 453f a8af 39be 7571 2ac0
00000030: e4df a7bf c6e3 3fbd 4fd4 133e 10fc 77bd
00000040: 72e6 9d3f 69d6 913d 336b aebd e975 4ebc
00000050: 48fe 3cbd 6c37 0b3e 4c8d 60bf ac74 3b3f
00000060: 751a 1ebf e370 6c3d ccf2 5e3f 2d7e 803e
00000070: bcd8 203f 4e35 64be f54f 883e b7ed 323f
00000080: be24 88be 272c 22be 8614 543e 2c77 7d3d
00000090: b494 083e 1513 b8bd ea2b 2c3e ddb6 9a3e
000000a0: 1c09 3ebe c407 8b3e 88d7 813e 58ae bfbf
000000b0: a476 4fbf ddb4 e33e 23e7 bc3d b111 2c3f
000000c0: 9070 4d3e 9b6e ec3e 810d 313e 9d6c ff3d
000000d0: f6af b8bf 7184 4a3e c206 ed3e ffa8 9abe
000000e0: 93ff 82be 8d4a d9be 869c d1be 3184 33bf
000000f0: 13c5 07be dd58 81be d1e6 2abf c0cf bf3f
-0.03850055 1.6497462 0.23775324 -0.64021456 -0.65595376 0.4742188 -0.24693292 -0.52969414
0.5212829 0.7725503 -0.18133414 -2.6631749 -1.3115201 -0.04684808 0.14436458 -0.06054312
1.2335951 0.071209736 -0.085165404 -0.012601354 -0.04614094 0.1359536 -0.877156 0.732249
-0.6175912 0.057724845 0.8708923 0.25096264 0.6283071 -0.22285959 0.26623502 0.69893974
-0.26590532 -0.15837155 0.20710954 0.06188123 0.13337976 -0.089880146 0.16813627 0.3021764
-0.18558162 0.27154362 0.2535975 -1.497508 -0.81040406 0.44473925 0.09223773 0.67214495
0.2006247 0.46178135 0.17290308 0.12471888 -1.4428699 0.19777085 0.46294218 -0.3020706
-0.25585613 -0.4243969 -0.4093973 -0.70123583 -0.13258772 -0.2526311 -0.6675845 1.4985275

encoder_variable_selection.single_variable_grns.Cases.fc1.bias f4 [8]
00000000: 6f25 a5be 3b35 b7be 788b c7bd 2eaf dfbe
00000010: 2991 8bbe 620a 34be 3743 eebe 3a73 bdbd
-0.32255122 -0.357828 -0.097433984 -0.4368834 -0.27259186 -0.17582086 -0.46535656 -0.09250493

encoder_variable_selection.single_variable_grns.Cases.fc2.weight f4 [8, 8]
00000000: 29ba dcbd 1506 793f 2a28 8c3e dce3 82be
00000010: 8b65 d93e ed24 54be e793 563f a1b1 343e
00000020: 9eb8 5abe e405 283e 4e1b abbe 746b 41be
00000030: c647 afbd d246 5c3e 0318 963d 0ca0 88bf
00000040: 75fe 2bbe 9b09 05bf 6b90 61bf 8f47 293e
00000050: 8299 d63e 267f 8cbe ee0d 22bf fbfc 553f
00000060: d8bd d2be a570 2ebf 30c7 d3be 861d 3ebf
00000070: 0462 ba3e 6351 3abf 6d31 14bf 1319 36be
00000080: 20cb eb3e b040 353f fda1 0f3e 88db 473e
00000090: 8034 663e 9027 c7bd 84ad 773e a33b fe3e
000000a0: 1085 ba3e b8d1 923d 2945 643f d493 883e
000000b0: 1ab3 8fbd 4832 c13d cbdf 1f3e 3647 403d
000000c0: d669 48bf 8351 0cbf 9163 cebe d66b ca3e
000000d0: 49c9 193d 8c81 cebe cd1c 973e 858a d23d
000000e0: c7c8 2f3f 1f87 603f 2da7 f13d 25a4 293b
000000f0: 6774 9a3d 76ff 993d 3f42 1e3e f0fb 2d3e
-0.10777695 0.97274905 0.27374393 -0.25564468 0.42460284 -0.20717211 0.8381943 0.17645885
-0.21359488 0.16408497 -0.3341927 -0.18888646 -0.085586116 0.21511391 0.073287986 -1.0673842
-0.16796286 -0.5196778 -0.8811099 0.16531204 0.41913992 -0.27440757 -0.63302505 0.8358914
-0.41160464 -0.6814063 -0.41362906 -0.742638 0.36402905 -0.72780436 -0.5788792 -0.17783003
0.4605341 0.7080183 0.14026637 0.19517338 0.22480965 -0.09724343 0.24187285 0.49654874
0.36429644 0.07168907 0.8916803 0.26675284 -0.07016583 0.094334185 0.15612714 0.046942912
-0.7828649 -0.54811877 -0.40310338 0.39535397 0.037545476 -0.4033321 0.2951416 0.10280327
0.68665737 0.8770618 0.117994644 0.0025885191 0.07541733 0.075194284 0.15454958 0.16990638

encoder_variable_selection.single_variable_grns.Cases.fc2.bias f4 [8]
00000000: 1aaf 11be aecf c33c e1e0 8a3d 801f 373e
00000010: 74ef c5bd f27f 313d 5fcd 0a3d 6128 8a3d
-0.14226952 0.02390274 0.067811735 0.1788311 -0.09664813 0.04333491 0.033887263 0.06745983
