TFT-pytorch-age-and-vaccination/results/age_groups_6579/checkpoints/best-epoch=1.ckpt (torch, 436013 bytes, 506 tensors)

prescalers.AGE6579.weight f4 [8, 1]
00000000: f362 27bd 60c6 19bf bc42 df3e 1738 b13e
00000010: af68 1dbf 4094 08be 5056 25bf c473 803e
-0.04086585 -0.6006832 0.43605602 0.34613106 -0.6148786 -0.13337803 -0.6458483 0.25088322

prescalers.AGE6579.bias f4 [8]
00000000: 3e0f 6bbe a4a1 293f 2eb7 2c3f 0824 c53d
00000010: 5db5 cabe 328e 1cbf a796 e8bd 5313 6abe
-0.22955033 0.6626227 0.6746701 0.09626013 -0.39591494 -0.6115447 -0.1135686 -0.22858934

prescalers.SinWeekly.weight f4 [8, 1]
00000000: b3f3 953e c94a 59bf 9a59 693f 2109 41bf
00000010: 5fca 533f 441b 65be 1b1b 103f dc38 d63e
0.2928749 -0.8487974 0.91152346 -0.75404555 0.8273067 -0.22373682 0.5629136 0.41840255

prescalers.SinWeekly.bias f4 [8]
00000000: ebce 3d3d 4ff9 dc3d c834 393f 9e54 583e
00000010: f7b5 033f e514 40bf b094 393f 6b3f b23e
0.04633991 0.10789739 0.7234616 0.21126029 0.5144953 -0.7503188 0.72492504 0.3481401

prescalers.VaccinationFull.weight f4 [8, 1]
00000000: 87e4 3b3e facc b53d eace e13e 1561 563f
00000010: 280f 29be a503 07bf 1c99 84be 2e5f 18bf
0.18348895 0.08876987 0.44103175 0.83741885 -0.16509688 -0.52739936 -0.25898063 -0.5952023

prescalers.VaccinationFull.bias f4 [8]
00000000: 098d 053f cbc5 04bf a29a 0ebf 31e8 6e3f
00000010: c05f 5c3f b362 8e3d ce5a 5dbe 3329 07be
0.5216833 -0.5186431 -0.557047 0.93323046 0.860836 0.06952419 -0.2161667 -0.1319931

prescalers.Cases.weight f4 [8, 1]
00000000: 0d48 1d3f b185 86bf ab4b 70bf c6f3 293f
00000010: 9ce3 933f 43c6 0abe 63ad 33bf 775d b73e
0.61438066 -1.0509549 -0.9386546 0.66387594 1.1553836 -0.13552193 -0.7018644 0.35813496

prescalers.Cases.bias f4 [8]
00000000: 7495 eebe 1182 0ebd c90d ca3e 93fc b33e
00000010: 8590 0c3d 29e2 b13c 782c 583e f7dc 56bf
-0.465984 -0.03479201 0.39463642 0.35153636 0.034317512 0.021714287 0.21110713 -0.83930916

static_variable_selection.single_variable_grns.AGE6579.resample_norm.mask f4 [16]
00000000: dcae 85bd d336 8ebd f907 1abd 36da 7f3c
00000010: 75c6 2cbc 52fd f1ba 9d24 3a3d 6302 033c
00000020: 708a c73d afae 71ba c7ed 04bd 7b3c 0d3d
00000030: 220e f43c 4f89 fc3d 0f11 06bd 7ffb 40bd
-0.065274924 -0.06944051 -0.03760526 0.01561599 -0.010545363 -0.0018462336 0.045445073 0.0079961745
0.09743202 -0.00092194503 -0.032453325 0.034481507 0.029791895 0.12330877 -0.032731112 -0.047114845

static_variable_selection.single_variable_grns.AGE6579.resample_norm.norm.weight f4 [16]
00000000: ed79 693f 8f0c 703f b6a5 773f f458 823f
00000010: 8147 803f 64e5 813f 46b8 883f f96c 823f
00000020: b556 863f 4f6d 803f 7afe 7b3f b01f 853f
00000030: 0259 843f db2a 8f3f 523c 793f d70b 763f
0.9120167 0.9376916 0.9673723 1.0183396 1.0021821 1.014813 1.0681236 1.0189506
1.0495211 1.0033358 0.98435175 1.0400295 1.0339663 1.1184953 0.97357666 0.96111816

static_variable_selection.single_variable_grns.AGE6579.resample_norm.norm.bias f4 [16]
00000000: db79 523d 3582 03bd 3396 fcbc 62e2 093d
00000010: d56b 49bc 8ba3 66bc 5eab f0bc 2e5b 16bc
00000020: 9f9d 943b 1954 efbb 232f b23c f52f 7cbd
00000030: 89ce 2abd 97db 56bb 5a6f 0d3d fe8f 8a3d
0.05138574 -0.032106597 -0.03083334 0.03366316 -0.012293776 -0.014077078 -0.02937859 -0.009177012
0.0045353915 -0.0073037264 0.021750992 -0.061569173 -0.041700874 -0.0032784694 0.03453002 0.067657456

static_variable_selection.single_variable_grns.AGE6579.fc1.weight f4 [8, 8]
00000000: c908 a03e 0d77 f2be 8b2e dfbe 9bb7 ccbe
00000010: 4544 b8be c0a2 c0bf a597 2f3e ba9f 02bf
00000020: 758a 18bf 36b0 5fbf 58e2 7ebe 8a18 0e3f
00000030: e272 0ebe 55de bdbe d5c7 433f d1a8 85bd
00000040: f552 753e dc9e 923e 17da 333f 671d dfbd
00000050: 0c7b 5dbd 90cf 9bbe 204d 203e a47e 58be
00000060: 7801 1ebf cbcf eebd 2203 94bd c6cf d5be
00000070: 9b61 3ebe 1d76 4c3e 6bcb 04be 4072 2a3f
00000080: 2abf b0be 2696 d73e aae9 6dbe 6da9 74be
00000090: 7c45 99be e308 823f 2769 bc3e db1e 323d
000000a0: aff0 943e 382a bdbd 7a5e 54be cafc 18bd
000000b0: 530d de3e 825a d5be 2923 0b3e b0d4 43be
000000c0: 2826 59bd 4656 32bf b55c 84be 0ad2 3d3e
000000d0: 7f05 c33e 5552 aa3f 24a4 d93e 18e1 12be
000000e0: c61a 35bf d46b 09bf 748b 05be b997 de3e
000000f0: c914 5f3d 7d82 dabe bfa1 a63e 3fc0 a23d
0.31256703 -0.47356454 -0.43590197 -0.3998383 -0.35989586 -1.5049667 0.17147692 -0.51024973
-0.5958627 -0.8737825 -0.24891031 0.55506194 -0.13911012 -0.37083688 0.76476794 -0.0652634
0.23957427 0.28636825 0.70254654 -0.1089428 -0.054072425 -0.30431795 0.15654421 -0.2114206
-0.6172099 -0.11660727 -0.0722716 -0.4176008 -0.18591921 0.19966932 -0.12968223 0.6658058
-0.34520847 0.42106742 -0.23233667 -0.23892756 -0.29935825 1.0158962 0.36798975 0.043486457
0.29089877 -0.09236568 -0.20739165 -0.037350453 0.4336954 -0.41670614 0.13587631 -0.19124103
-0.053014904 -0.6966289 -0.2585198 0.18537155 0.3809013 1.3306376 0.42508042 -0.14343679
-0.7074398 -0.5368016 -0.13041478 0.4347513 0.05446318 -0.4267768 0.32545277 0.07946824

static_variable_selection.single_variable_grns.AGE6579.fc1.bias f4 [8]
00000000: 8a02 10bc 2340 f93c 16b1 3e3b 8c63 e8bc
00000010: 4cc1 4abc f4b2 a13c 7398 6d3d 4d70 95ba
-0.008789668 0.03042609 0.002909725 -0.02836778 -0.012375187 0.019738652 0.058006715 -0.0011401266

static_variable_selection.single_variable_grns.AGE6579.fc2.weight f4 [8, 8]
00000000: e5e7 21bd 85bb 343f 8357 fe3d e537 b9be
00000010: 5291 803e 121e d9be 1203 493f abbd 5f3f
00000020: d26d 00bf 7be2 05bf 089e 4a3e 08ee 1fbd
00000030: 9650 793e bded 0f3d 4a22 c43e c055 2f3d
00000040: 14f5 6bbe 6d6d d43e 70fd acbd d5b6 5e3e
00000050: 15fc 2f3e 7405 03bf 8008 93be 1c8a 3e3f
00000060: 1980 633f 3ca8 d9bc 0321 093f 78c6 c5be
00000070: 9532 7abd aeda 3dbe 70d4 153f 4762 3dbf
00000080: 6543 913e 793a bcbe b29d 283e 8be9 2b3e
00000090: 7010 013f cc25 903e a0ff 103f 2d55 a7bc
000000a0: f685 873e 28de 2dbe 6886 f5be 28a5 c83c
000000b0: dae8 b53e 4d17 7bbd 5a1a 2fbf a44a 183e
000000c0: 1384 52bf 75b1 0c3e 5ea0 29bd b8cf 0cbc
000000d0: 67ea b43e 331f bc3e 3881 babe fe96 c5be
000000e0: 3f52 4e3d cbf2 b13e 8754 28bf 66a4 8cbe
000000f0: 08d3 143e 2baf 043e 90b9 913e 6fba 0ebf
-0.039527792 0.7059863 0.12419035 -0.36175457 0.2511087 -0.42405754 0.7852031 0.87398785
-0.5016757 -0.52298707 0.19786847 -0.039045364 0.24347147 0.035138834 0.3830741 0.042806387
-0.23042709 0.41489735 -0.08446777 0.21749432 0.17186005 -0.51180196 -0.28717422 0.7442949
0.88867337 -0.026569478 0.53565997 -0.38627982 -0.061083395 -0.18540451 0.5852728 -0.73978084
0.2837173 -0.3676336 0.16466406 0.16788308 0.50415707 0.28153837 0.5664005 -0.020426357
0.26469392 -0.16979277 -0.47954106 0.024492815 0.35529214 -0.06130152 -0.68399584 0.14872223
-0.8223278 0.1373957 -0.041412704 -0.008594446 0.35335085 0.36742553 -0.3642671 -0.3859176
0.050371405 0.3475555 -0.6575398 -0.27469176 0.14533627 0.12957446 0.28461885 -0.55753225

static_variable_selection.single_variable_grns.AGE6579.fc2.bias f4 [8]
00000000: 45ed cc3c 9ebb 893c c484 babc 5a66 19bc
00000010: a386 1cbc 2da7 91bd 6ce7 f5bc e738 1c3d
0.025015483 0.016813096 -0.022768386 -0.009362781 -0.009553584 -0.071119644 -0.030017577 0.038140204

static_variable_selection.single_variable_grns.AGE6579.gate_norm.glu.fc.weight f4 [32, 8]
00000000: d397 7ebd deff d23e 5c43 a9be ebc6 3abe
00000010: 6018 303e c247 76be 29ac 85be 8753 0c3e
00000020: 964e 8c3b ae0c 083e 0820 013d a64e 9a3e
00000030: d00e 36be 0d6d 9a3e 1997 94be 2082 c0bd
00000040: 223c a93e b25f 1e3e 2ef1 52be 9f6d 93bd
00000050: fcee 643e 4924 9abe 3f4c 2a3d c536 6b3e
00000060: 1aac 99be dc7b db3d 0aa7 aebe 5cbd b1be
00000070: 1fef 073c f16e a5be 6b2f 2bbe c2bd 483e
00000080: 6e2c 79bd 8053 87be 60d1 9a3e 405d c9be
00000090: c7be 2a3d 3ea6 81be 6330 9abe 1e8c 5b3d
000000a0: bdf0 c33e 9285 f6bd c230 c3be ace8 b13d
000000b0: e78c 19be da19 7abe 3c5e 093e 8e93 4e3e
000000c0: a7bc 49be 110c 623d e51c 85bb bc75 013d
000000d0: dce9 55bd cb24 67be 0e19 473e fe37 8a3e
000000e0: 76ac 983e 19a9 b43e 5a76 97bd a78b 1e3d
000000f0: 6718 1ebe 9d07 aabd cde3 f43d 8ede 463c
00000100: 257d 91be 8eca 5cbe e9b6 263e 710f a43e
00000110: 93ce e13e 587e 683e 7aa4 b43e 3f9e 173e
00000120: 21bd 653e 868f 69bd 62df 513d 5c96 203e
00000130: b708 bf3d 79c2 fdbb 9b76 32be 3132 5dbe
00000140: d570 61be a5bb a9bc 5837 ce3e cf3b ffbd
00000150: 5555 b1be 5d1c 99be 1194 b73d 8522 e63d
00000160: 0b42 30be 9388 9ebd d1e4 963e b165 b6be
00000170: cfb8 863e 5148 56bd f36e 37be e9d1 e33e
00000180: bb06 66be f154 d43e 27ef 8f3e 9eab e13d
00000190: 270e 8e3e 4ec2 6d3d 820d b53e 6c7b eb3d
000001a0: f4f8 b9be 0da8 b4bd 5982 233c 5af3 8c3e
000001b0: 09e4 a9bd 9812 a03d 6ee0 633e b581 f73c
000001c0: 5d36 aebe 4c0a 9f3e cb3f 33be 9a4b 953d
000001d0: 6e74 2ebe a638 dd3d b2f0 5c3e b2f7 8b3d
000001e0: 8c3f 63be eb63 993b 9d4f a0be ca4c b73e
000001f0: d410 223e 1d04 b03e 8e49 f83c 6c75 d4be
00000200: 7c93 38be 2f45 c9be a278 b03e 7f11 863e
00000210: 2b8e 8c3e 737d 5abe 2076 90be 9ddd 1abe
00000220: 224d d23e 841f b5be 75e1 a0be 1b64 ef3d
00000230: 28b1 0b3d 65f1 79be 26f3 82be 7b0b aabe
00000240: c38c ed3d 0d18 12be ba33 41be f42f 5e3e
00000250: deb8 88be 58cd b43e fe14 f6bd f02b 8e3e
00000260: eb2b b6bc 8002 bc3e 6865 86be c669 d1bd
00000270: 1428 abbd 1508 3b3e 849b 9cbe 5a5c ad3e
00000280: f8b3 aebb f20b 6cbe 1143 cbbd 2c3b e5bc
00000290: 6e4b efbd b26e 32be 39fa cfbd 6672 323c
000002a0: 42b6 323e a4cc 6b3d ccc6 943e c6a9 89bd
000002b0: f6ee 9a3e 6819 0e3e 9e86 99be 2b47 5f3e
000002c0: fecd 783e f60b 073e d37e 3dbe eae4 1dbe
000002d0: f501 d7be f598 f5bd 39bb 73be 00d9 5cbe
000002e0: 6f5d 5bbe 08c6 613e 40ed 923e 0dcd b93d
000002f0: 08f3 6c3d 427e 043e 4eb5 59bc 2afc adbe
00000300: fe3d 81bd 0528 823e fbe5 ecbc 26bd 9e3d
00000310: 6cd3 803e dc15 7c3e a8aa 0bbd 266a 953e
00000320: bae6 a5bc 2408 4d3d f859 b43e 5f03 a3be
00000330: d679 043f 4e78 a2be 81c5 e9bd c9ed e03e
00000340: 24be 9c3e 8294 acbe 0603 803e 369f 04bd
00000350: 1118 a8be a9c2 06be 67c8 0e3c 988d 9cbe
00000360: 5e31 8dbd 73ae 153e 06dc 513e 3866 ac3e
00000370: f617 25be 04f8 693e a1fb 1f3e 59cb aabd
00000380: 21d8 71be 1ff9 fc3c 0b5c d83e 1c59 d1be
00000390: d39e babd 5994 6a3e 2f72 94bd bda4 833e
000003a0: 3ddb c8bc 23e4 2cbe 7d49 a7be f243 87be
000003b0: 4ca9 1fbd 9000 333e 8b6b 053e 8f72 4f3d
000003c0: 4f8b 973e 4a44 3e3e e23c 63be ffef b0bd
000003d0: a782 993e 46df 39be 9647 4f3e b12f 4a3e
000003e0: 9a61 51bc f2bf 4bbe 252d 99be f1d5 a2be
000003f0: 7e1d 1b3e 2441 b2be 4754 32be 750a b53e
-0.06215651 0.41210836 -0.33059204 -0.18239944 0.17196798 -0.24050811 -0.2610791 0.13703738
0.004281829 0.13286087 0.031524688 0.3013813 -0.17779088 0.30161324 -0.29021528 -0.093998194
0.3305369 0.15466192 -0.20599815 -0.07198643 0.2235679 -0.30105808 0.04157662 0.22970112
-0.30014116 0.10716984 -0.34111816 -0.34714782 0.008296757 -0.32311204 -0.16717307 0.19603637
-0.060833387 -0.26430893 0.30237865 -0.39328957 0.041685846 -0.25322145 -0.3011504 0.053600423
0.38269606 -0.12037195 -0.38123137 0.08686957 -0.14995156 -0.24423924 0.13414854 0.20173475
-0.19700871 0.05518729 -0.0040622824 0.03160642 -0.05222498 -0.22572629 0.19443151 0.26995844
0.29819077 0.3528526 -0.07395621 0.0387074 -0.15438996 -0.08302233 0.11957512 0.012138022
-0.2841579 -0.21561643 0.16280712 0.3204303 0.44102916 0.22704446 0.35281736 0.1480646
0.22435428 -0.05702164 0.051238425 0.15682358 0.09327834 -0.00774413 -0.17428057 -0.21601178
-0.22015698 -0.020719359 0.402766 -0.124625795 -0.34635416 -0.29904452 0.08963788 0.11237053
-0.17212693 -0.07740893 0.29471448 -0.3562446 0.26312873 -0.05231506 -0.17913418 0.44496086
-0.22463505 0.41471055 0.28112146 0.110190615 0.27745172 0.05804663 0.35361868 0.1149815
-0.3632275 -0.08821116 0.009979808 0.27529413 -0.082954474 0.078160465 0.22253582 0.030213216
-0.3402585 0.31062543 -0.17504804 0.072898105 -0.17036602 0.108018205 0.21576193 0.068343535
-0.2219221 0.0046811006 -0.3131074 0.35800773 0.15826732 0.34378138 0.030308511 -0.41495836
-0.18025011 -0.39310595 0.34467036 0.26185223 0.27452216 -0.21336918 -0.28215122 -0.15123601
0.41074473 -0.35375607 -0.3142201 0.116890155 0.034104496 -0.24408491 -0.25576133 -0.33211884
0.11599114 -0.14266987 -0.18867388 0.2169798 -0.26703542 0.35312915 -0.12015723 0.27767897
-0.022237739 0.36720657 -0.26249242 -0.10225253 -0.08357254 0.18264802 -0.305874 0.3385952
-0.0053315125 -0.23051432 -0.09924901 -0.027982317 -0.11684309 -0.1742504 -0.10155148 0.0108915325
0.17452338 0.057568207 0.2905792 -0.06721835 0.30260438 0.13876879 -0.29985517 0.21804492
0.2429733 0.13188156 -0.18505411 -0.15419355 -0.4199368 -0.11992065 -0.23801889 -0.21567154
-0.21422361 0.22048199 0.28696632 0.090723135 0.05784896 0.12938789 -0.013287855 -0.33981448
-0.06310652 0.25421157 -0.028918257 0.07750921 0.25161302 0.24617714 -0.034098297 0.29182547
-0.02025162 0.05005659 0.3522489 -0.3183851 0.51748407 -0.3173241 -0.11414624 0.43931416
0.30613816 -0.33707052 0.25002307 -0.032378398 -0.3283086 -0.13160194 0.008714772 -0.30576777
-0.06894182 0.14617328 0.20494089 0.33671737 -0.16122422 0.22848517 0.15623333 -0.08339567
-0.23617603 0.030880509 0.42257723 -0.40888298 -0.091123246 0.22908153 -0.07248341 0.25711623
-0.024518603 -0.16883902 -0.32673255 -0.26419026 -0.038979813 0.17480683 0.13029306 0.05064636
0.29598472 0.18580738 -0.22191194 -0.086395256 0.29982492 -0.18151578 0.20242152 0.19744755
-0.012779618 -0.1989744 -0.29917255 -0.3180385 0.15147969 -0.34815323 -0.17414962 0.3535954

static_variable_selection.single_variable_grns.AGE6579.gate_norm.glu.fc.bias f4 [32]
00000000: 4945 473d f015 07bd 9832 06bd 1082 e23c
00000010: 9b1a 18bc f3c9 e1bb 9650 9ebc 2bbb 48bb
00000020: 55e7 a13b 7668 0c3c 887c 083d 273d 71bd
00000030: e785 3bbd af1c 00bc 220e 093d e895 9b3d
00000040: 5e29 a3bd 3ac6 56bd 4081 353a 569e a7bd
00000050: 02d3 673c 0ab6 983c e924 8dbd 1949 2ebb
00000060: 1e2b f03c 65f4 29be 0961 2dbd 8eb5 1d3d
00000070: 6545 96bb 8838 fbbc 04b7 4cbc 533b 033d
0.04865006 -0.032979906 -0.032763094 0.02764991 -0.009283687 -0.0068905293 -0.019325536 -0.003062914
0.004940907 0.008569827 0.033321887 -0.05889621 -0.045781996 -0.007819339 0.033460744 0.07596952
-0.079668745 -0.052435137 0.0006923862 -0.08184497 0.014149429 0.01864149 -0.06891806 -0.0026593863
0.029317435 -0.16597135 -0.042328868 0.038503222 -0.004585909 -0.030666605 -0.012494806 0.032038998

static_variable_selection.single_variable_grns.AGE6579.gate_norm.add_norm.norm.weight f4 [16]
00000000: 0212 6b3f fa48 723f e3ee 7b3f 51b6 823f
00000010: 94cd 803f cc8e 823f a4ed 863f 4e76 803f
00000020: 53cc 893f 0004 7e3f c09a 7d3f c784 863f
00000030: f0be 843f 02d6 8d3f a11d 763f bd7f 753f
0.9182435 0.94642603 0.9841139 1.0211889 1.0062737 1.0199828 1.0541272 1.0036104
1.076548 0.99224854 0.99064255 1.050927 1.037077 1.1080935 0.9613896 0.9589804

static_variable_selection.single_variable_grns.AGE6579.gate_norm.add_norm.norm.bias f4 [16]
00000000: 126f 213d e073 e5bc 33a5 6bbc da3a 213d
00000010: d119 16bc 3e54 83bc 3910 2dbd 8e5b 62bc
00000020: 71e2 e03a 9754 72bc cbfa 993c 4ee8 98bd
00000030: 31dd 34bd d507 1fbc 9539 0b3d 83ec 7e3d
0.039412566 -0.028009355 -0.014382648 0.039362766 -0.009161429 -0.01603138 -0.0422518 -0.013815774
0.0017157329 -0.014790676 0.018796345 -0.074661836 -0.044156257 -0.009706457 0.03399046 0.062237274

static_variable_selection.prescalers.AGE6579.weight f4 [8, 1]
00000000: f362 27bd 60c6 19bf bc42 df3e 1738 b13e
00000010: af68 1dbf 4094 08be 5056 25bf c473 803e
-0.04086585 -0.6006832 0.43605602 0.34613106 -0.6148786 -0.13337803 -0.6458483 0.25088322

static_variable_selection.prescalers.AGE6579.bias f4 [8]
00000000: 3e0f 6bbe a4a1 293f 2eb7 2c3f 0824 c53d
00000010: 5db5 cabe 328e 1cbf a796 e8bd 5313 6abe
-0.22955033 0.6626227 0.6746701 0.09626013 -0.39591494 -0.6115447 -0.1135686 -0.22858934

encoder_variable_selection.flattened_grn.resample_norm.mask f4 [3]
00000000: a785 e5bd 8d62 dfbc 67d1 4a3e
-0.11207133 -0.027268672 0.19806443

encoder_variable_selection.flattened_grn.resample_norm.norm.weight f4 [3]
00000000: d47a 7d3f 672d 723f 545a 973f
0.99015546 0.9460053 1.1824441

encoder_variable_selection.flattened_grn.resample_norm.norm.bias f4 [3]
00000000: 9f7c be3d 3af0 51bd 37ee 25be
0.09301113 -0.05125449 -0.16204153

encoder_variable_selection.flattened_grn.fc1.weight f4 [3, 24]
00000000: a26a cc3e c9ab 11be 8aef 3f3e 7a0f d43d
00000010: 5730 a03d 49cb 153b 5fc6 febd ab03 04be
00000020: 2561 86be fe83 b73d a1ac 273e eb5a 81bf
00000030: 02b8 1dbd 9388 1bbe 5e3e 01be fdaf 12be
00000040: 0a2a 103f 7948 3fbf 95c0 783e 8044 413d
00000050: 7caf 0b3e 6e39 9ebe d57b 8e3d 68a8 9d3e
00000060: e0cd fc3c 0ace 773e 9511 b6be ab2d 53be
00000070: 5635 0e3e bb5b 173d 3440 ea3d c53d 1f3f
00000080: ba2b 23be 0151 bc3d c961 32bf 5af7 3abe
00000090: 2d1d b43d 2452 773c 2ff1 7cbd b04e 3f3e
000000a0: 8762 763d bf18 273d 7201 fcbe f61a 47be
000000b0: 7090 68bd 8717 093e 44b5 c0bc c266 083d
000000c0: 2c83 253e 4fd2 81be c0d5 14be 0f57 5a3e
000000d0: 5769 bc3e c663 e43e e149 a8bd b3ce c63e
000000e0: 00a6 99be 7288 6a3e ea36 873e 3588 d33e
000000f0: 2505 853c e4b7 36be 1af8 df3d fba3 4a3d
00000100: 7dfe 423e 7a01 9c3e f8a1 94bd 50bc 3fbd
00000110: 47c2 2ebe 912e 88be 5990 f4be 44e1 0c3e
0.39925104 -0.14225687 0.1874372 0.103545144 0.0782172 0.0022856763 -0.1244018 -0.12892024
-0.2624599 0.089607224 0.16374446 -1.0105871 -0.03850556 -0.15188818 -0.12621447 -0.14324947
0.56314147 -0.7471996 0.24292214 0.047184467 0.1364116 -0.3090319 0.06957213 0.30792546
0.030859888 0.24199691 -0.3556029 -0.2062289 0.13887534 0.036952715 0.11438027 0.6220363
-0.15934649 0.09195138 -0.6968046 -0.1825842 0.08794627 0.015095267 -0.061753448 0.1868236
0.060152557 0.040795084 -0.49219853 -0.19443879 -0.05677837 0.13387881 -0.023523934 0.033301122
0.1616332 -0.25355765 -0.14534664 0.21322273 0.36799118 0.4460737 -0.08217216 0.38829574
-0.3000946 0.22903612 0.26409084 0.41314855 0.016237805 -0.17843586 0.109359935 0.04947279
0.19042392 0.30469877 -0.072574556 -0.04681045 -0.17066298 -0.26598027 -0.4776638 0.13757807

encoder_variable_selection.flattened_grn.fc1.bias f4 [3]
00000000: 53fb 64bc 0922 25bd 9998 c6bd
-0.013975936 -0.04031566 -0.096970744

encoder_variable_selection.flattened_grn.context.weight f4 [3, 16]
00000000: 63a8 9ebe 53af 88be 157e 95be cceb e9bd
00000010: 2e08 d03e d570 aabe 8c44 b23d f217 503e
00000020: 0494 88be 0430 583e 3f7e 01be bd52 703e
00000030: 4f22 e43e 47b8 f33d 458b b3be 26a9 b0be
00000040: 1953 dc3e 3ac3 2fbe 7fb6 093f b516 e2be
00000050: c332 b2be eee1 103f 526a 5abc 9086 9abe
00000060: 85e3 d23d c6b8 38bb 556d eebe e162 323e
00000070: 21ef 8c3e 1b8a 3bbd 4672 d9be a702 1bbe
00000080: 760f 8f3e 2cb0 1cbe 0646 e83e 4b67 77be
00000090: 27e0 61be a799 d03e 6024 9d3d 292d 5f3e
000000a0: 9e78 94be 9258 f83e d0f9 c1bd 640f 5f3d
000000b0: 34cd 3e3e 4b9b a33d 0a0c 00be e190 cc3e
-0.30987844 -0.26696262 -0.29197755 -0.11421928 0.4063124 -0.3328921 0.087044805 0.20321634
-0.26675427 0.21112067 -0.12645815 0.23469062 0.44557425 0.119003825 -0.35067192 -0.3450405
0.43032148 -0.17164317 0.5379409 -0.4415795 -0.34804353 0.5659474 -0.013331013 -0.30180788
0.10297302 -0.0028186305 -0.4656779 0.17420532 0.2752619 -0.045786005 -0.42469996 -0.1513773
0.27941483 -0.15301579 0.45365924 -0.24160497 -0.22058164 0.40742227 0.076729536 0.21794571
-0.28998274 0.48505074 -0.09471476 0.054458037 0.18632966 0.07988604 -0.12504593 0.39954284

encoder_variable_selection.flattened_grn.fc2.weight f4 [3, 3]
00000000: 8dbf 7dbf 4360 92bf 4ae9 17be bdbc eebd
00000010: 8611 8ebf 380e 82be 04ad a3be 9206 77bf
00000020: cd33 64bf
-0.9912041 -1.1435627 -0.14835086 -0.11657093 -1.1099098 -0.25401473 -0.31967938 -0.964944
-0.8914154

encoder_variable_selection.flattened_grn.fc2.bias f4 [3]
00000000: 2c57 5d3d 9c66 73bc 455c a9bc
0.05403821 -0.014856007 -0.02067388

encoder_variable_selection.flattened_grn.gate_norm.glu.fc.weight f4 [6, 3]
00000000: 60a5 373f 584a 87be 8056 413f 88e8 31be
00000010: 595f cbbe 4d42 2a3f 7778 09be 9d30 f5bd
00000020: d3db a9bd 33f3 ddbe 0b1f 11bf a1ef 413f
00000030: 1149 4c3f 4a2a 0dbc e6a0 fdbe 182d 453f
00000040: 0bc4 c53e f294 fc3e
0.7173672 -0.26423907 0.75522614 -0.1737386 -0.39721182 0.66507417 -0.1342486 -0.11972163
-0.08293881 -0.4334961 -0.5668799 0.7575627 0.7979899 -0.0086160395 -0.49536818 0.7702193
0.3862613 0.49332386

encoder_variable_selection.flattened_grn.gate_norm.glu.fc.bias f4 [6]
00000000: 1d94 f43c 4611 afbd 997b 4fbe 2051 88bc
00000010: 3994 093e 79c2 143e
0.029855782 -0.085482165 -0.20261993 -0.016640246 0.13435449 0.1452731

encoder_variable_selection.flattened_grn.gate_norm.add_norm.norm.weight f4 [3]
00000000: 317c 6e3f 7d1d 503f ccc9 003f
0.9315825 0.81294996 0.5030792

encoder_variable_selection.flattened_grn.gate_norm.add_norm.norm.bias f4 [3]
00000000: 19c9 72bb a3cb 29be cdce f43e
-0.0037046133 -0.16581587 0.47814026

encoder_variable_selection.single_variable_grns.SinWeekly.resample_norm.mask f4 [16]
00000000: 3acb f3bd 1d9b bc3c baa2 d4bd 81e5 d6bb
00000010: 32db a33c 4408 913d 29a1 0dbe f3b7 3dbe
00000020: d55c c6bc a711 63bc 2de8 13bd dfb5 d5bc
00000030: 60ed 0dbe 4825 54bb d381 b73d fb09 7b3d
-0.11903997 0.023023183 -0.103826 -0.0065581207 0.020001981 0.07081655 -0.13831009 -0.18527202
-0.024214188 -0.013859189 -0.036110092 -0.0260877 -0.13860083 -0.0032370854 0.08960309 0.061288815

encoder_variable_selection.single_variable_grns.SinWeekly.resample_norm.norm.weight f4 [16]
00000000: 4807 643f a4ad 763f 44a0 763f baac 763f
00000010: d342 803f 5485 893f d475 813f 6388 563f
00000020: 304b 7e3f 0a1a 7c3f 4263 7a3f 46a7 793f
00000030: edd4 823f e84c 7d3f 45ab 8b3f f960 863f
0.8907361 0.96358705 0.96338296 0.9635731 1.0020393 1.0743814 1.0114083 0.8380186
0.9933348 0.9847723 0.97807705 0.97520864 1.022123 0.98945475 1.0911642 1.0498344

encoder_variable_selection.single_variable_grns.SinWeekly.resample_norm.norm.bias f4 [16]
00000000: 9b58 01bd 6ce9 313d 33e7 f1bd cadf a23d
00000010: 2f14 253d f6ba d63d baed 1bbe 86ec ffbc
00000020: 386e 5d3c 2334 d4bc da7f 27bc 1d88 203d
00000030: 318e c2bd d50d 3a3c 0b78 213d 8b1b 0b3d
-0.03157864 0.0434355 -0.11811676 0.079528406 0.04030245 0.10484879 -0.15227404 -0.031240713
0.013515048 -0.025903767 -0.010223353 0.039192308 -0.09499777 0.011355837 0.039421123 0.033961814

encoder_variable_selection.single_variable_grns.SinWeekly.fc1.weight f4 [8, 8]
00000000: cc57 5d3f ae85 89bf 4cf1 53bf dc8b 84bf
00000010: e3c4 b9be de63 4cbe 0fb2 a23e f75a ea3e
00000020: a89e 25be 0e97 b63e 812f f9bd 31c5 04be
00000030: a6d8 23be 5f37 333f b8cb 95be fbf4 60be
00000040: a847 e3bd cf30 16bd 19af b4be e146 933e
00000050: e398 4fbf c1be cf3e 835b 773f 617f 973e
00000060: 8c96 9f3e fa47 133e 506f 99be 621b 773e
00000070: eff3 c03e e2e4 d83c 7416 be3e ebf6 263f
00000080: edd6 20bf dd55 7ebd b482 923f c53b 693d
00000090: 86a6 ff3d 6187 343f a4c4 123f 1237 7abf
000000a0: a124 db3e 3e1e 06be 4a99 6cbf a19c 283e
000000b0: 016a 263c fa55 82be a8e8 b2be c75c 513c
000000c0: 0b6d 4abf 9a36 73be 0414 51bf ef75 e73e
000000d0: aa9f 663d 7ad5 1cbe ffee 3cbe 1e81 353e
000000e0: 22ec d13e 0cea 983b 04bc 45bf 458a 6e3e
000000f0: 32f2 473f de93 043f c30c 57be 638d ac3e
0.8646209 -1.0743921 -0.82790065 -1.0355182 -0.36283025 -0.19959971 0.31776473 0.45772526
-0.16173804 0.3566212 -0.12167264 -0.12965848 -0.16000614 0.70006365 -0.29256988 -0.21968453
-0.11097652 -0.03666764 -0.3528984 0.28765014 -0.8109266 0.4057522 0.9662401 0.2958937
0.31169546 0.14382926 -0.29967737 0.2413154 0.37686107 0.026476327 0.37126505 0.65220517
-0.6282795 -0.062093604 1.1446137 0.056941766 0.12482934 0.7051907 0.573313 -0.9774028
0.42801383 -0.13097474 -0.924214 0.16465999 0.010157109 -0.2545622 -0.34943128 0.0127784675
-0.79072636 -0.23751298 -0.81671166 0.45207164 0.05630461 -0.1531581 -0.18450545 0.17725036
0.41000468 0.0046665724 -0.77240014 0.23294933 0.78103936 0.5178813 -0.21000962 0.3370162

encoder_variable_selection.single_variable_grns.SinWeekly.fc1.bias f4 [8]
00000000: e99b 473d ecd7 b93d 870f 153d b52e a13c
00000010: 804a 093d 66cf 49bd 5bc2 3f3b 87ee 85bd
0.048732672 0.09074387 0.03639176 0.019675592 0.033518314 -0.049270056 0.0029260132 -0.06539636

encoder_variable_selection.single_variable_grns.SinWeekly.fc2.weight f4 [8, 8]
00000000: e4af 87bf 3273 363e 8620 92bf 463a 2bbf
00000010: edb4 44bf dbcc 3a3e f575 073f 9b6f adbe
00000020: b2e2 aabe 1065 8fbe bba5 003f 80db 003e
00000030: a1cf acbe fb02 0a3f 1b20 353f 9404 873e
00000040: 60a7 293f 2065 e4be 7ca6 8fbd a82e 02bf
00000050: 7def 343f 145f 91be 5862 ed3e e7dd 0d3f
00000060: 8e74 6b3d d720 663f 859d eb3e 8b79 353e
00000070: 61b0 1d3d 5fdf 41bf ee9b e83d 4734 2cbf
00000080: a6dd 87bf 8fd2 923f 2b24 b3be ffc4 4fbe
00000090: 4bc4 a5be af71 263f e742 433e d542 21be
000000a0: 392c b13e 4c01 f7be 9894 19bf 8f53 c1bc
000000b0: c0e4 14bf b6d9 323e 0f94 b6be 6b8b 4cbe
000000c0: c979 bb3d 64c0 bf3c e7b6 323d 39eb 043c
000000d0: 65f9 e83e 724c c3be 8aed af3d 58a5 943e
000000e0: fb36 b63e b6f6 44be 3a10 923e 08eb 3d3f
000000f0: c035 0e3f cd68 05bf 3e3c fe3e c818 43bf
-1.0600553 0.17817381 -1.1416175 -0.66885793 -0.7683857 0.18242209 0.52914363 -0.3387421
-0.3337608 -0.28006792 0.50252885 0.12583733 -0.33752158 0.539108 0.70752114 0.2637068
0.6627102 -0.44608402 -0.07014176 -0.5085244 0.7067793 -0.2839285 0.46364093 0.5541672
0.057484202 0.8989386 0.46018615 0.17722146 0.038498286 -0.7573146 0.11357866 -0.6726727
-1.0614517 1.1470507 -0.3498853 -0.20289992 -0.32376322 0.6501722 0.1906849 -0.1574815
0.34604052 -0.48243177 -0.5999236 -0.023599414 -0.58161545 0.17465863 -0.35659835 -0.19975059
0.09154088 0.023407169 0.04363146 0.008112722 0.45502773 -0.3814426 0.08590229 0.29032397
0.35588822 -0.19234738 0.28528005 0.74186754 0.55550766 -0.5211304 0.49655336 -0.7620969

encoder_variable_selection.single_variable_grns.SinWeekly.fc2.bias f4 [8]
00000000: 0f53 0fbc dcc4 86bd c36f cdbb ae0d ca3d
00000010: b80a 54bd c711 893b 9306 03bc 1fe3 913c
-0.00874783 -0.06580517 -0.0062694266 0.098658904 -0.051768035 0.0041830274 -0.007997173 0.017808495

encoder_variable_selection.single_variable_grns.SinWeekly.gate_norm.glu.fc.weight f4 [32, 8]
00000000: f798 563e f137 533d 45f3 2dbe a24a 0abe
00000010: 1500 85bd b6c3 aabe 47be 34be b42d 483e
00000020: 0114 39be 1590 d43c 8752 aabd e927 68be
00000030: edb9 983d fe68 333e fd64 b63e d87c 1bbd
00000040: 0fd5 783e c412 87be af39 2e3e 3f11 24bd
00000050: 03e2 c33e a237 4e3e 6a5e 60be fc05 d73d
00000060: a227 87bd 6776 a9be 264d b4bd 265b 8ebe
00000070: 6a6e 7a3e 3599 a73e 3553 6abe e802 6d3e
00000080: 5b6c bd3e 61d4 12bc a0ff f93d 2689 9e3e
00000090: 41d1 5b3e 789c 37be c870 933e 4eb2 0b3e
000000a0: 9835 083e b836 c3be 0cf7 703e a9a5 383e
000000b0: e032 a6be df34 45be 95c0 cdbd ae32 783e
000000c0: 70c9 bbbd 16fb c9bb 88fa ddbe e821 97bd
000000d0: 0b89 47bd ce3b bfbe 8991 233d 1a83 91bd
000000e0: 3a9b cabe f912 343d 5153 ac3e e633 d5be
000000f0: 5f18 66be cb91 87bd 3043 85bd 1c4f 9d3d
00000100: 8219 643e bef1 803e cc86 5ebe cad0 cd3e
00000110: 565d b43c 9511 c1be 4499 6e3e 9f9c 993e
00000120: 1959 5bbd afff bbbe 6cd0 643e 5503 2ebe
00000130: d4c8 89be 4fb6 03be 060f 26bb 70b1 553d
00000140: 7fc1 373e 5d00 303e 2753 04be c97f 3cbe
00000150: 7e1d 61bd 7c0c 1c3e d053 4b3d 2fe8 653e
00000160: 132b ea3c 1e77 413d 902a bebe 0d75 98bd
00000170: e2bc 43be 0b39 babe 8336 993e fdf0 783e
00000180: a421 ed3e 4d9e e13e 442f c73d 6ccc f2bd
00000190: 648b ce3e 845d e4be 5358 cfbc 1b21 c2be
000001a0: 23a7 393e 3f0f e0bd 190d a03e 7f06 0c3e
000001b0: 772e 833e 0e16 5fbd dae7 90be 4311 b4be
000001c0: 2bf9 bebe c7ce 86be 4e51 a63e 7dbf af3b
000001d0: 261c 4dbd 93ee ac3e 944e 79be d071 e73d
000001e0: b5bb 243e cfa5 ebbe 5308 a5be 375c 753e
000001f0: 4b24 1ebe d62e 87be f059 bf3e 3375 7f3d
00000200: 8e93 253e 726a d33b 0cd9 313e b4e9 ba3e
00000210: e25d 6b3e 5bff a3be 83fd 4e3e 6c83 bcbe
00000220: 519c 303e a51c acbe 54ac 5ebd ede6 c3bd
00000230: 1b32 9d3d 24e4 8a3e 8e53 84be 63dd acbe
00000240: afe1 883e 5a00 66be e709 b2be c231 9ebd
00000250: ed70 a9bd 52cc aebe 9b7d 0fbd 56a6 923d
00000260: 2031 743e 5324 9c3c 9ce4 823e 02bc f0bd
00000270: 5ec3 45be 43c1 843d 740a 02bd 2e0f 2b3e
00000280: a105 2d3e c9b8 8d3e 28f7 1fbe 38ad 7f3b
00000290: 5b40 503c 0426 39be f58f 953e 4a86 9f3e
000002a0: 8ee4 a6bc 51af a3be 6198 de3e 98f9 393e
000002b0: 48c5 8bbe 2217 bdbd 74c5 ce3e 9948 88be
000002c0: 9383 d43c ed0c 02bd 0502 a9bd 8e72 b0be
000002d0: df97 23be 4084 70be 246c 423d a3d9 2e3e
000002e0: 5847 6ebe 801b a43e a8a2 2c3e ba97 65bd
000002f0: ada4 773e 9d33 b9bd 8d50 f8bd 63d5 a3be
00000300: 7e15 04bd 5093 ae3c 393d 463d 487e 80be
00000310: 96ae e23e 1d52 06be 527e 47bd b1d6 17be
00000320: cd32 c5bd d43f 75be 2fda 6dbd b3ba aa3e
00000330: 0ed7 0b3e 83b8 a83d b70a 98be a036 383e
00000340: d51a 8bbd dfab 75be 7571 86be 590d 91be
00000350: 0907 4bbb 8661 9e3e f5b7 63be 17c9 42be
00000360: 67a2 9d3e 4f61 e8bd a6b5 133e ce92 743e
00000370: 6a29 4b3e f6a6 403e 1604 8b3e 6f76 99bb
00000380: 297f d7be ea94 adbe 3e7a 153e f1d3 cabd
00000390: 5f8a f8bc 49ed 823e a504 3f3d 9f82 7c3e
000003a0: 7833 a7be 112f cc3c 9d43 b8be 17cc 2b3e
000003b0: feac 913e 97e8 23be 376c cdbd 2ff0 1a3e
000003c0: e7f5 06be 4cc7 673e 3ed9 a2be fb1b 483d
000003d0: 9b70 babc b0e6 bbbe 8244 6dbd 6a96 26bd
000003e0: 7ebb 9c3c 42ce b53e a2ff 17be b397 803e
000003f0: f62f e1bd 4da2 6abe 3dce 63bd 2f9b 5dbe
0.20956789 0.05156702 -0.16987331 -0.13505033 -0.06494156 -0.3335244 -0.1765071 0.19548684
-0.18074037 0.02594761 -0.08316522 -0.22671475 0.074573375 0.1752052 0.35623923 -0.037960857
0.24300025 -0.26381505 0.17014192 -0.04005551 0.3825837 0.2013841 -0.21911016 0.10499188
-0.06599356 -0.33098146 -0.088037774 -0.27803916 0.24456182 0.32734075 -0.22883303 0.2314564
0.3699673 -0.008961768 0.1220696 0.3096401 0.21466543 -0.17930782 0.28796983 0.13642237
0.13301694 -0.38127685 0.23531741 0.18031944 -0.3246069 -0.1925845 -0.10046498 0.24238083
-0.091692805 -0.006163965 -0.43355203 -0.07379514 -0.04871468 -0.37350315 0.039933715 -0.07105084
-0.39571553 0.043963406 0.33657315 -0.41641158 -0.22470234 -0.06619605 -0.065069556 0.076811045
0.22275355 0.25184435 -0.21731108 0.40198356 0.022017162 -0.37708727 0.23300654 0.30002305
-0.053551767 -0.3671851 0.22345132 -0.16993459 -0.26911032 -0.12862514 -0.0025338545 0.05217117
0.17944907 0.17187639 -0.12922345 -0.18408121 -0.054959767 0.15239137 0.049640477 0.22451852
0.028584993 0.04723274 -0.37141848 -0.07444201 -0.19115022 -0.36371645 0.29924402 0.2431068
0.46314728 0.44066086 0.09725812 -0.11855397 0.40340722 -0.44602597 -0.025310671 -0.37915882
0.18130164 -0.10940408 0.31259993 0.13674353 0.25621387 -0.054464392 -0.2830189 -0.3516942
-0.37299475 -0.26329634 0.32483906 0.0053634034 -0.050075673 0.33775768 -0.24346381 0.11301005
0.1608723 -0.4602494 -0.32232913 0.23960958 -0.15443532 -0.2640292 0.37373304 0.06236763
0.16169569 0.0064518983 0.17367953 0.36506426 0.22985032 -0.32030758 0.20213895 -0.36819017
0.1724713 -0.33615604 -0.054363564 -0.0956553 0.076755725 0.27127182 -0.25844997 -0.33762655
0.26734683 -0.22461072 -0.3477318 -0.07724334 -0.08273492 -0.3414026 -0.035031896 0.07160632
0.23846865 0.01906029 0.2556504 -0.1175461 -0.19312808 0.06482174 -0.03174825 0.1670501
0.16896679 0.27680042 -0.15621626 0.0039013159 0.012710656 -0.18080908 0.29211393 0.31157142
-0.020372655 -0.31969693 0.4347563 0.18161619 -0.2729895 -0.09232928 0.4038502 -0.26617888
0.025941646 -0.03175061 -0.08252338 -0.34462398 -0.15975903 -0.2348795 0.047466412 0.1707521
-0.23269403 0.3205223 0.16858923 -0.0560529 0.24183913 -0.090430476 -0.12124739 -0.3199874
-0.03224706 0.021310478 0.04839823 -0.25096345 0.44273823 -0.13117261 -0.048704453 -0.14827992
-0.0962883 -0.2395013 -0.058069404 0.33345565 0.13656256 0.08238318 -0.29695675 0.17989588
-0.06792227 -0.23991345 -0.26258436 -0.28330496 -0.0030979535 0.3093378 -0.22238143 -0.19022022
0.30787966 -0.11346685 0.14424762 0.23884127 0.19840017 0.1881369 0.27151555 -0.004683308
-0.42089203 -0.33902675 0.14597413 -0.09903706 -0.030339418 0.2557166 0.04663529 0.24659203
-0.32656455 0.024924787 -0.35989085 0.16777073 0.28452295 -0.16006695 -0.10030406 0.15130685
-0.13179742 0.2263462 -0.31806368 0.04885481 -0.022758773 -0.36699438 -0.057926662 -0.04067079
0.019132372 0.35508925 -0.1484361 0.25115737 -0.10995476 -0.22913475 -0.055616606 -0.21641229

encoder_variable_selection.single_variable_grns.SinWeekly.gate_norm.glu.fc.bias f4 [32]
00000000: 00e4 b93c 8b6f 3e3d 14fb 0ebe 4039 983d
00000010: f106 a33d 909e bd3d 8c29 16be 2a2a aebd
00000020: 7f60 4b3c f72d b4bc 1bd3 babc d2eb 3d3d
00000030: 9b08 debd e1d4 f63c 12a4 0e3d c49c 003d
00000040: ddea b3bc 733d 13bd 27a6 46bd 1051 62bd
00000050: 85c4 433b a525 823d 7876 bebd e3dd 763d
00000060: 7d07 74bd fefc 67bc e97c 3dbd a6b0 c43b
00000070: bbaa dd3d 38c1 55bc f9bd 0b3c 1fbf 63bb
0.022691727 0.046493094 -0.13962966 0.074327946 0.07960308 0.09258759 -0.14664286 -0.08504136
0.012413143 -0.021994574 -0.022805741 0.046367474 -0.10841485 0.030130805 0.03482444 0.031399503
-0.021962577 -0.035947274 -0.0484983 -0.05525309 0.0029871773 0.063548364 -0.0929994 0.0602702
-0.059577454 -0.014159439 -0.0462617 0.0060025034 0.1082358 -0.013046555 0.00852918 -0.0034751368

encoder_variable_selection.single_variable_grns.SinWeekly.gate_norm.add_norm.norm.weight f4 [16]
00000000: 65e9 703f e558 6f3f 8b41 813f 780b 6f3f
00000010: 9cd9 7b3f 164c 823f 231a 863f 6172 4c3f
00000020: 33f6 6a3f 0c9d 7f3f d721 773f 41c4 6f3f
00000030: 838f 823f 4732 6f3f 22d3 863f 5ac6 853f
0.9410613 0.9349502 1.0098127 0.93376875 0.9837892 1.017947 1.0476726 0.7986203
0.9178192 0.9984901 0.9653601 0.93658835 1.0200046 0.9343609 1.0533183 1.0451157

encoder_variable_selection.single_variable_grns.SinWeekly.gate_norm.add_norm.norm.bias f4 [16]
00000000: 2235 6bbd 7509 443d cbf2 dfba f1c5 c63d
00000010: c94f c5b9 5fe4 403d 626c b6bd 6c4c a1ba
00000020: a469 1e3d ac1d 57bd defb 8abc 1066 503d
00000030: d863 24bd 19e8 a93c eb1d be3b 0b06 293c
-0.05742372 0.04786058 -0.0017085908 0.09705723 -0.00037634213 0.04709279 -0.08907391 -0.0012306101
0.038674966 -0.05251853 -0.016965803 0.050878584 -0.04013428 0.020740556 0.0058019063 0.010316382

encoder_variable_selection.single_variable_grns.VaccinationFull.resample_norm.mask f4 [16]
00000000: a4d1 cdbd 5bfd 19bd 97f7 7e3d d3f8 1abd
00000010: 7b4c 333e 3ce7 36bd e327 3cbc fa2c 5a3e
00000020: af4e d53c d245 5abd d1e9 78ba 1adf 4dbd
00000030: 4f20 5ebd 3a4e 033e af82 77bd 8f00 85bd
-0.100497514 -0.037595134 0.06224784 -0.037834954 0.17509644 -0.044654116 -0.011484119 0.2130622
0.026038496 -0.053289242 -0.00094952906 -0.050261594 -0.05423003 0.1282281 -0.060427364 -0.06494247

encoder_variable_selection.single_variable_grns.VaccinationFull.resample_norm.norm.weight f4 [16]
00000000: 4b46 643f 2634 693f 08c8 893f 2239 793f
00000010: cf95 993f 84f9 753f 9a4b 723f 956c 983f
00000020: 6d74 833f 57ab 733f f6a2 803f 4714 743f
00000030: b036 703f 9cad 8e3f d3a6 693f 8426 653f
0.8916976 0.910952 1.076417 0.973528 1.1998843 0.96083856 0.9464661 1.1908137
1.0269905 0.9518332 1.0049732 0.9534344 0.93833447 1.1146731 0.9127018 0.89511895

encoder_variable_selection.single_variable_grns.VaccinationFull.resample_norm.norm.bias f4 [16]
00000000: c525 d4bd fc0e d83d 62c9 92bd 98b5 fabc
00000010: 099d 27be 12ae 2b3d a55a 9239 7bd7 073e
00000020: da9d 593c eca6 8dbc ffdb 353b bcb9 a7bc
00000030: 54dc 38bc 4225 d4bc 7c2a 243c 4b2d a33d
-0.103587665 0.10549733 -0.07167317 -0.030604169 -0.16368498 0.041914053 0.00027914825 0.13265793
0.013282264 -0.017291509 0.0027749536 -0.020474307 -0.011282999 -0.025896672 0.010019895 0.07967623

encoder_variable_selection.single_variable_grns.VaccinationFull.fc1.weight f4 [8, 8]
00000000: d722 ba3e bc7d 0abe 27aa 21bf c8ac 8fbe
00000010: 6f64 0e3f 3b93 443e 1908 03bf 1ecc 233d
00000020: 05df c73d fa3d c8bd 8b6a 31bf 020b 70bf
00000030: 2d14 dbbd f700 85be b69a 243f c34f 86be
00000040: b015 3b3d 7626 f3be ed98 9bbc af38 9cbe
00000050: 75d5 e1be c983 b33e ccc6 e9bd 1533 14bf
00000060: 0551 08be 6439 57bf f308 3ebe 8c96 cc3e
00000070: ec5c 44bf f00f 103f f9a4 893d f8ce 6bbd
00000080: 618b a93e 3d66 063f 62cb 4c3e 255a e73e
00000090: 2cd3 8b3d f9bb b33e 48d6 033f 9332 3e3f
000000a0: 89eb b5bd f7c0 783e 5328 9ebe a164 afbd
000000b0: 6c3a 74bd 1f80 36bf e223 4ebf 0844 d9bf
000000c0: 2e8c 05bf 5222 943e 61f1 4f3e 8e56 6c3e
000000d0: 3217 833f 9b34 fdbd ad5c 163e 51ab 1a3e
000000e0: 3696 003f 4620 d33c 94a3 3fbf f8fc ea3c
000000f0: a15f 6bbe 8636 a2bf 2435 fbbe 18c7 dcbf
0.36354706 -0.13524526 -0.63150257 -0.2806151 0.55622 0.19196789 -0.5118423 0.039989583
0.097593345 -0.09777446 -0.69303197 -0.93766797 -0.106972076 -0.259773 0.6429857 -0.26232728
0.04567498 -0.4749028 -0.01899382 -0.30511996 -0.44108167 0.35061482 -0.114148706 -0.57890445
-0.13312156 -0.84071946 -0.18558101 0.39958608 -0.7670429 0.5627432 0.06720919 -0.057570428
0.3311415 0.52499753 0.1999946 0.45185962 0.06827387 0.3510435 0.5149884 0.7429592
-0.088828154 0.2429236 -0.3089014 -0.08564115 -0.059626028 -0.7128925 -0.805235 -1.6973886
-0.5216702 0.28932434 0.20306922 0.23079893 1.0241454 -0.12363549 0.1468379 0.15104415
0.50229204 0.025772225 -0.74858975 0.028685078 -0.22985698 -1.2672889 -0.4906398 -1.7248259

encoder_variable_selection.single_variable_grns.VaccinationFull.fc1.bias f4 [8]
00000000: 9155 77bc 5d53 41bd 844c 01bc 67e2 a23c
00000010: 32f0 833d 3d32 ec3c e255 5abd 26d5 1c3e
-0.015096084 -0.047198642 -0.007891778 0.019883348 0.06442298 0.02883255 -0.05330456 0.15315685

encoder_variable_selection.single_variable_grns.VaccinationFull.fc2.weight f4 [8, 8]
00000000: 15c7 35be 2ab9 9a3c a2c4 99be 59ef 2dbf
00000010: db49 72bf 14cb b23d 2a41 3bbf e906 59bc
00000020: cb45 493f cdc1 6abe 8d69 b4be d3d3 81be
00000030: bc90 c9be 6c75 debe db5e cd3e 7a22 03bb
00000040: 8ae4 ddbf 00f9 09be 0390 40be f948 1a3f
00000050: ac92 d2be 9a5e b13e 82b0 243e 62fb 073f
00000060: 62d4 573e d18f d7be 1acc 813d 67b4 d0be
00000070: 60fc 2e3f 9e10 48bf 5f5b 603d d60d 87bd
00000080: 4cd3 c0be 91e6 abbe fa37 913e 9c0f 6ebe
00000090: 0973 b53e ec95 ba3e e5fe 9cbf dd48 623f
000000a0: b204 d4be 6d31 b63e cab4 4b3f d58e 7f3e
000000b0: e682 d73d 0c0c d8bd 5f76 61be 3dc3 8abf
000000c0: d2f6 173f ea62 c9bd 3f45 babd 250b 533f
000000d0: 3470 063e 012d d1be 4020 c8bd 36ed 903e
000000e0: 59ab 97be 7bec 8b3e c19e d83e 9462 bc3e
000000f0: 771b 1fbf f97d 23bf a24e 4e3d 6b1e ebbe
-0.17751725 0.018887121 -0.3003283 -0.6794334 -0.94643945 0.0873014 -0.7314631 -0.013246276
0.7862212 -0.22925492 -0.3523678 -0.25356922 -0.39368236 -0.4344896 0.4011143 -0.0020009563
-1.733537 -0.13473892 -0.18804936 0.602676 -0.41127527 0.34642488 0.16082957 0.53117955
0.21077111 -0.4210191 0.063377574 -0.40762636 0.68353844 -0.78150356 0.05477464 -0.06594436
-0.37661207 -0.33574346 0.2836302 -0.23248142 0.35439327 0.36442506 -1.2265288 0.8839243
-0.41409832 0.35584584 0.7957274 0.2495683 0.10523014 -0.10549173 -0.22017811 -1.0840832
0.5936099 -0.098333195 -0.09095239 0.8243888 0.1312874 -0.40854648 -0.09771776 0.28305978
-0.29622915 0.27328858 0.4230862 0.3679396 -0.62151283 -0.63864094 0.05036796 -0.45921645

encoder_variable_selection.single_variable_grns.VaccinationFull.fc2.bias f4 [8]
00000000: d579 84bd f961 4fbc b23e b8b9 f224 193b
00000010: 99cd a83d b4b9 1fbd 16c6 4e3d 3d27 cabc
-0.0646855 -0.012657636 -0.00035141926 0.0023367968 0.0824234 -0.03899546 0.05048188 -0.024676913

encoder_variable_selection.single_variable_grns.VaccinationFull.gate_norm.glu.fc.weight f4 [32, 8]
00000000: 6ccb 8b3d af1d 643e 31c0 d43e 4432 413e
00000010: b73d a1be 42ff 9f3e 3a86 e5bd 9025 46be
00000020: dece e4be 25b7 413e 10ce c2be 91f6 df3d
00000030: e08d 953e 70d4 73be 3772 5d3e 7880 99be
00000040: 533f b0bd 26f4 953e 28a4 0e3e c3db 0a3e
00000050: cc3a 77be eb1a f43e f71a 80be 5ae0 093f
00000060: ef3c 7abe 517c 7ebe 1951 0d3e 185a bb3e
00000070: a6ae cbbe 0eaf aa3e 704a 7a3d 70d5 873e
00000080: c499 6b3e 3c63 92bd e374 693e de4f a3be
00000090: 1320 7e3e 062b ecbc 58ef c2be a756 5d3e
000000a0: dd3e 883e 99f0 a83e 7460 8b3e bb61 9fbe
000000b0: c2c3 cfbd ecf7 713e 6600 a6bd a81c 9a3e
000000c0: ae29 2ebe f202 a93e e80c 903b 319a 163c
000000d0: dbd1 9dbd 1249 f03d 9fb0 b43e 49ac 8c3d
000000e0: bd85 98be 6ace 393e 2b5f 0b3e aafe 07bf
000000f0: e12e e13e 3a97 febe c171 c23e f811 19bf
00000100: ede0 ed3b 41f7 893e a063 8abd 0171 b5be
00000110: f71e a0be ff8e 153e 4212 993c ce17 a23e
00000120: af66 923d 8c1c a43d ece4 f93d fef2 7dbe
00000130: 775d 54be 62c8 a3be c247 9cbe 73d4 94be
00000140: 50f6 09be f029 00be c174 c53d 21f4 b3be
00000150: 94c5 503e fdef 8d3d e4da e83d 867d 52bc
00000160: 8ae9 52be bfff a9be 3ba2 d73c 1e1a 623d
00000170: 9ae6 7f3c 4e4b 433b 922e 90be d1fb 773e
00000180: e72f 82be 708b 823e cb6b 93be fca6 a6be
00000190: 1f1d 8d3b 6408 13be 3a2f 84be d410 4fbe
000001a0: 091a c43e 0a12 b8be cd71 f23d 148f 963e
000001b0: 1972 863e 9b74 953e 783a a93d 6138 a5be
000001c0: 620b 51be 4e5c 2c3d 3918 f0bd 918a 8d3c
000001d0: 1367 40be df0b 2cbd 3c28 5fbe 9f22 883d
000001e0: cfe6 b3be 8a11 b0bd 165a f33d fd44 03bb
000001f0: bcfe 733e 7980 1cbe 7a1a bf3e 5c33 0cbe
00000200: df1c ed3d 9869 fcbd d744 473e bc1b 8a3d
00000210: bc03 8d3d da8b 7b3e 41f3 a4bd 4abc c4be
00000220: 9e0a 23be 6932 c5bc a004 8f3e 5c87 cd3d
00000230: 2798 f63d 5554 5c3e fee5 b9bc 3605 b7bd
00000240: 1284 6b3e 0daa c03e 9ccc 8cbd 471e a33e
00000250: 8705 c33d 10e6 8e3e fb23 f73d 0c89 463e
00000260: 9f43 1c3d 4586 133e 82d6 813e c86a 053e
00000270: 7531 e73d d665 69be fd55 22be ed2f 5fbe
00000280: 8d8c d5bd 8e80 3ebe 28b3 a33d 3718 053f
00000290: 41f6 683c 4bc9 5c3d 22ed 80bd 0557 d33d
000002a0: e494 1f3c 4bff 86bd 93ad bd3e cff7 06bd
000002b0: 3ef1 82be 8c0b 473e 66fb d3be 0fc7 2b3e
000002c0: d53e 1e3e 5c11 aa3e 2a3f abbe f20d c53e
000002d0: 5bbf 8ebe 2102 103e 717f a3be 43f1 ac3e
000002e0: 3189 81be 6487 153e 49e9 df3e 7dfa dc3b
000002f0: cf00 a2bd f735 ccbe dacf a0be 3947 30be
00000300: f78b 493d a6a9 3c3d 047e 5c3d c189 29be
00000310: 9ada 73be 1edc 133e 4a9d 7b3e e714 4abe
00000320: d3bb 663e 30bb 6cbe d312 be3e 386d 8dbc
00000330: 6414 9e3e 5e26 1abd 9ba1 313d d0a0 183e
00000340: 3d8d 4cbe 1631 c33c d25f a13e e33a 50be
00000350: 7b47 c13d 5da9 d3be 26f3 003e 5498 80bd
00000360: 1c87 37bc cad4 5f3e acba 8b3e 58aa 9e3d
00000370: a95e 05be e6cb 493e 44f2 c0bd 5003 5fbe
00000380: 03ed d43e e35b 6c3e caed 92be 65af 813e
00000390: 5f3b 3c3e c4b9 653e 0784 bebe 3ea2 d53d
000003a0: 9ba7 74be 5275 c9be 70b4 70be 6c2d a4be
000003b0: 06e1 483e 5620 0bbe ba66 69be f0d1 6fbc
000003c0: 4f86 b03e 31a1 853b 8dce 8abd 7d24 873e
000003d0: 569e 27be bf79 cbbe 7ef3 113e 847e debe
000003e0: bd57 babe ff5c a63e a67a aa3e c60e 813e
000003f0: 5809 d8bd 04a6 d3be 1d80 e53e e121 fabe
0.06825909 0.22276948 0.4155288 0.18866831 -0.31492397 0.31249434 -0.11207242 -0.19350266
-0.44689077 0.1891752 -0.38047838 0.10935701 0.29209805 -0.23811507 0.21625601 -0.29980826
-0.08605828 0.29287833 0.13929808 0.13560395 -0.24143523 0.47676787 -0.25020573 0.5385796
-0.24437307 -0.2485211 0.13800468 0.36592174 -0.39781684 0.3333668 0.061106145 0.26530027
0.23007876 -0.07147834 0.22798495 -0.3189687 0.24816923 -0.028829109 -0.3807323 0.21615086
0.2661046 0.3299606 0.27222025 -0.3112925 -0.1014476 0.23629731 -0.08105545 0.30099988
-0.17008087 0.3301006 0.00439607 0.0091920355 -0.077060424 0.11732687 0.35291 0.06868798
-0.29789534 0.18145147 0.13610522 -0.5312296 0.43981078 -0.49724752 0.37977412 -0.59793043
0.0072594793 0.26946452 -0.06757283 -0.35437778 -0.31273624 0.1460533 0.018685464 0.31658787
0.071484916 0.080132574 0.122018665 -0.24799725 -0.20738779 -0.31988817 -0.30523497 -0.29068336
-0.13472867 -0.12515998 0.0964141 -0.35147193 0.2038787 0.0693054 0.11369875 -0.01284731
-0.205969 -0.3320293 0.026322475 0.05520069 0.015618945 0.0029799524 -0.2816053 0.24217154
-0.25427172 0.25497007 -0.28793177 -0.32549274 0.00430645 -0.1435867 -0.2581728 -0.20221263
0.38301113 -0.35951263 0.11838112 0.29406035 0.26258925 0.29190525 0.08263105 -0.32269576
-0.20414498 0.042080216 -0.1172337 0.017277988 -0.1878932 -0.04200351 -0.21792692 0.066472284
-0.3513703 -0.08597095 0.11882417 -0.0020030134 0.23827642 -0.15283383 0.37324888 -0.13691467
0.11577772 -0.12324828 0.19459854 0.06743571 0.06885478 0.24565068 -0.080542095 -0.38424903
-0.15922019 -0.024071889 0.27933216 0.100355834 0.120407395 0.21516545 -0.022692677 -0.08936541
0.229996 0.37629738 -0.06874964 0.31859037 0.09522539 0.279099 0.120674096 0.19388217
0.038150426 0.14406689 0.2535897 0.13029015 0.1128873 -0.22792754 -0.15853114 -0.21795626
-0.104271986 -0.18603727 0.07993156 0.51990074 0.014218868 0.053902905 -0.062952295 0.10319332
0.009740088 -0.06591662 0.3704649 -0.032951172 -0.25574678 0.19437999 -0.4140274 0.16775154
0.15453656 0.3321637 -0.33446628 0.38487202 -0.27880368 0.14063312 -0.31933168 0.33777818
-0.2529998 0.14602429 0.4373267 0.0067437277 -0.079103105 -0.39884922 -0.31408578 -0.1721467
0.049205747 0.046060227 0.053831115 -0.16556455 -0.23813859 0.14439437 0.2457172 -0.19734536
0.22532587 -0.23118281 0.37123737 -0.017263994 0.30874932 -0.037634246 0.04336701 0.14905095
-0.19975753 0.023827117 0.31518418 -0.20334964 0.09437462 -0.4134015 0.12592754 -0.06279054
-0.011201646 0.21858516 0.27290857 0.07747334 -0.13024391 0.19706687 -0.094212085 -0.21778607
0.41587076 0.23081927 -0.28697044 0.25329128 0.18382023 0.22434145 -0.37210104 0.10431336
-0.23892061 -0.3934732 -0.23506331 -0.32065904 0.1961709 -0.13586554 -0.22793093 -0.014637455
0.3447747 0.0040780534 -0.06777678 0.26395026 -0.16368994 -0.39741322 0.14253041 -0.434559
-0.36395064 0.32492825 0.33296698 0.25206584 -0.10548657 -0.41337597 0.44824305 -0.48853973

encoder_variable_selection.single_variable_grns.VaccinationFull.gate_norm.glu.fc.bias f4 [32]
00000000: fb2d afbd d8f8 ae3d 1d06 48bd 865a 5fbd
00000010: 2771 0dbe bc68 863d 8791 8e3c 912e 0a3e
00000020: cfef 153c a6da f93c 114f ba3c 7209 d63b
00000030: d320 40bd d55f fabc 7b73 573b cf25 ac3d
00000040: 43eb d23b 8962 ca3d 9388 bb3d c813 e93d
00000050: 2641 103e a657 8bbd 6369 e23c d425 043e
00000060: 2fcc 133c 7869 babc e029 ecbc aef0 0abd
00000070: bd25 2abd 0af7 c6bb dbe1 84bc f7ab d83d
-0.08553692 0.08543557 -0.048833955 -0.05452969 -0.13812695 0.06562945 0.017403377 0.13494326
0.009151413 0.030499768 0.02274278 0.0065318877 -0.046906304 -0.030563274 0.0032875228 0.08405649
0.006436737 0.09882075 0.09156909 0.11380726 0.14087352 -0.06803827 0.027638143 0.12905055
0.009020849 -0.02275537 -0.028828561 -0.033920936 -0.041539896 -0.00607193 -0.016220978 0.10579675

encoder_variable_selection.single_variable_grns.VaccinationFull.gate_norm.add_norm.norm.weight f4 [16]
00000000: 656b 4c3f f6e4 703f cbbe 823f 2a53 683f
00000010: a824 853f efea 753f 5445 5e3f 9792 583f
00000020: 524d 723f 5d04 663f ced5 6e3f 89a1 5e3f
00000030: 56ff 723f 3079 773f e855 6a3f 94ef 523f
0.7985137 0.94099367 1.0214475 0.907519 1.0401812 0.96061605 0.86824536 0.8459868
0.9464923 0.8985041 0.9329499 0.86965233 0.9492086 0.9666929 0.9153733 0.8239682

encoder_variable_selection.single_variable_grns.VaccinationFull.gate_norm.add_norm.norm.bias f4 [16]
00000000: 7738 debd f61e ae3d 24e7 053c ceba 933d
00000010: 34b0 b2bc a6cf 3e3d dc54 92bd 0dc7 d1bd
00000020: a5f8 7fbd bd3d 66bd 360d a6bc 5b7c c4bb
00000030: 9de5 8b3a 8486 9f3c 0e01 8bbb 1b9c 343d
-0.108506136 0.08501999 0.008172784 0.072133645 -0.021812536 0.046584748 -0.07145092 -0.10243044
-0.062492985 -0.056211222 -0.020269971 -0.0059962696 0.0010673288 0.019473322 -0.004242069 0.044094186

encoder_variable_selection.single_variable_grns.Cases.resample_norm.mask f4 [16]
00000000: 2e4a 2dbd ef8a a13d c153 99be b18f ea3d
00000010: bd40 3b3c bff7 2a3d dc39 f33c 3a86 493d
00000020: b3ea 8ebe 5ee6 5b3e 179e 123e d822 95bd
00000030: 28dd 38be 66a5 0dbc 7301 8b3e fdee 98bc
-0.04230707 0.078878276 -0.29946712 0.11453188 0.011429009 0.041740175 0.029690675 0.049200274
-0.27913436 0.21474597 0.14318119 -0.072820365 -0.18053114 -0.008645391 0.27149543 -0.018668646

encoder_variable_selection.single_variable_grns.Cases.resample_norm.norm.weight f4 [16]
00000000: ac35 5e3f 43cd 853f c617 2e3f c06b 883f
00000010: 0621 723f a63c 833f b73d 883f 37fd 803f
00000020: fb58 303f 09d7 953f bc5b 913f 5f09 6a3f
00000030: 9332 4d3f a8f8 743f 4f62 9e3f dc20 7c3f
0.86800647 1.0453266 0.68005025 1.0657883 0.9458164 1.0252883 1.0643834 1.0077275
0.68885773 1.1706249 1.135612 0.9142055 0.80155295 0.9569192 1.2373751 0.9848764

encoder_variable_selection.single_variable_grns.Cases.resample_norm.norm.bias f4 [16]
00000000: 2d92 093e f4b4 d8bc b4c8 46bd 07e0 11be
00000010: 73bc 82be 3cd3 bebd 6203 2ebe 1fba 5c3d
00000020: 0df5 db3d 2a9b 4b3e 3106 cd3c 6ba3 c0bd
00000030: e7e7 a03c 5457 f63d 50b6 0abd d047 083e
0.13434668 -0.026453473 -0.04853125 -0.14245616 -0.255344 -0.093176335 -0.16993478 0.053888436
0.10740099 0.19883409 0.025027366 -0.094061695 0.01964183 0.12028375 -0.033865273 0.13308644

encoder_variable_selection.single_variable_grns.Cases.fc1.weight f4 [8, 8]
00000000: b765 8a3c ac7f ab3f 8825 f83d c8be 8f3e
00000010: 9aa6 cfbe 49f5 f43e 670e a1be 6b09 0fbf
00000020: b43b 053f 5f22 bc3e 3e0e 86be 94db 6abf
00000030: 31ae 80bf d2bc b73e 2062 fe3d bfcb 26be
00000040: 091b 983f 83bc 003e 1e52 64bc 1c9f b9bd
00000050: 388f e1bd 56bf 2cbe ecb2 5ebf f87a 2b3f
00000060: 09b9 0ebf 336f 1abe 9658 3c3f 7cc8 e93e
00000070: 2096 543f 6e37 31bc fd85 e83d 18a3 073f
00000080: 4cd0 70bc ea02 19bf 68c3 12be 4ed4 053f
00000090: b11e 103f 7fc8 133e 4ca1 25be ab62 c13e
000000a0: bd2a 9dbd 3832 acbd 413e a93d ab7c 03bf
000000b0: 9794 fabe bdb1 163f 29ee 23bd e5e4 283f
000000c0: 5db1 0b3d 997b ae3e f786 973e 7952 6a3f
000000d0: 8f20 b3bf f952 433e 4ff4 1d3f 7c59 00bf
000000e0: 135b 96be 8ddf e2be c91b c6be 68ff 35bf
000000f0: bb2c 01be 41b1 c6be 9175 31bf 91ab a33f
0.016894205 1.3398337 0.121165335 0.28075242 -0.40556794 0.47843388 -0.314563 -0.55873746
0.52044225 0.36744973 -0.2618274 -0.917413 -1.0053159 0.35886246 0.124210596 -0.1628866
1.188325 0.12571912 -0.013935594 -0.09063551 -0.11013645 -0.16869864 -0.86991763 0.6698451
-0.5575109 -0.15081482 0.7357267 0.4566077 0.8304157 -0.010816438 0.11353681 0.52983236
-0.014698099 -0.5977007 -0.14332354 0.52277076 0.5629683 0.14431952 -0.16174811 0.3777059
-0.07674167 -0.08408016 0.08263827 -0.51362103 -0.4894149 0.5886496 -0.04002205 0.65974265
0.034104694 0.34078673 0.29595158 0.91532093 -1.3994311 0.1907462 0.6170091 -0.5013654
-0.2936636 -0.4431118 -0.38693073 -0.71092844 -0.1261472 -0.3880711 -0.6932002 1.2786733

encoder_variable_selection.single_variable_grns.Cases.fc1.bias f4 [8]
00000000: a695 2fbe bcd8 d7bd 2cc6 df3c b7a4 133c
00000010: b318 0d3e 2ce3 0abd e8ad 2ebe 3c23 8f3d
-0.1714693 -0.10539386 0.027316175 0.009011439 0.13778953 -0.033908054 -0.17058527 0.06989142

encoder_variable_selection.single_variable_grns.Cases.fc2.weight f4 [8, 8]
00000000: bc51 6f3d a717 723f 01d0 33be cb24 1cbf
00000010: 90c3 323e 8310 7dbc 3c20 8b3f 5ead fcbd
00000020: db43 7ebe cec5 53bb 5e83 1bbe c248 32bf
00000030: 6250 3b3e ee93 443e e62c c73d 4c74 acbf
00000040: c270 4bbe def3 cbbe 7f66 82bf 4724 b53e
00000050: 3503 213f 6967 a7be 5c9c 37bf f6cd 4c3f
00000060: 0ff1 b0be f63c 02bf ecdf b5be 4801 67bf
00000070: 5cb2 3b3f 2cbe 4dbf d8f7 06bf 219e adbd
00000080: 3f95 d23e ea5e 263f 5ad8 1a3e cd79 be3e
00000090: b357 233e 94c2 18bd 6329 5a3e b58d 303f
000000a0: 3b81 c93d aa1a acbd 5e2f 883f 9676 493f
000000b0: fea4 9cbe 9500 6fbd ea96 33be 8fb4 e23e
000000c0: 1694 07bf 889e c0be cced 0dbf 50e5 af3e
000000d0: 8dcc eabc 903d b5be efb0 173f f843 7abe
000000e0: 3ec6 163f 7803 243f bd1d f2bd 54e8 94be
000000f0: 0928 64bd 3937 a43d f68a f93d 6b2d b5bd
0.058427557 0.9456734 -0.17559816 -0.6099364 0.17457414 -0.015445831 1.0869212 -0.12337755
-0.24830572 -0.0032313946 -0.15186831 -0.6964227 0.18292382 0.19197056 0.097253606 -1.3472991
-0.19867232 -0.39834493 -1.0187529 0.3537924 0.6289552 -0.32696083 -0.7172296 0.8000177
-0.34558913 -0.5087427 -0.355224 -0.9023633 0.7331903 -0.80368304 -0.5272193 -0.08477426
0.4112949 0.6498858 0.15121594 0.37202302 0.15951423 -0.03729494 0.2130485 0.6896623
0.09839102 -0.08403523 1.0639455 0.7869657 -0.3059463 -0.058350164 -0.17538038 0.4427838
-0.52960336 -0.3762095 -0.55440974 0.3435464 -0.02866199 -0.3539853 0.59254354 -0.2443999
0.58896244 0.6406779 -0.118220784 -0.29083502 -0.055702243 0.080183454 0.12184708 -0.088465534

encoder_variable_selection.single_variable_grns.Cases.fc2.bias f4 [8]
00000000: 8927 53be 665b 6abb ae24 7b3d 800a 393e
00000010: e390 dfbd 7a69 0c3e f83a f03d 5a01 073c
-0.2062055 -0.0035760044 0.061314277 0.18070412 -0.10916307 0.13712111 0.117299974 0.008240068
