TFT-pytorch-age-and-vaccination/results/age_groups_6579/checkpoints/latest-epoch=4.ckpt (torch, 436013 bytes, 506 tensors)

prescalers.AGE6579.weight f4 [8, 1]
-0.090460144 -0.558767 0.5104299 0.36416978 -0.6810937 -0.1762578 -0.7227496 0.23560469
00000000: 2b43 b9bd 5b0b 0fbf 89ab 023f 7674 ba3e
00000010: 285c 2ebf ed7c 34be 1e06 39bf 5b42 713e

prescalers.AGE6579.bias f4 [8]
-0.2136315 0.600424 0.6344885 0.100905284 -0.37397078 -0.60765755 -0.099723436 -0.19235666
00000000: 37c2 5abe 63b5 193f d76d 223f 6ea7 ce3d
00000010: 1979 bfbe 728f 1bbf cd3b ccbd 25f9 44be

prescalers.SinWeekly.weight f4 [8, 1]
0.27963835 -0.88555783 0.9065702 -0.8047087 0.82394475 -0.28481704 0.59970325 0.44302365
00000000: c22c 8f3e ebb3 62bf fc14 683f 6401 4ebf
00000010: 0bee 523f 8ad3 91be 2786 193f ffd3 e23e

prescalers.SinWeekly.bias f4 [8]
0.04697624 0.04032519 0.68239915 0.24085286 0.53928196 -0.70146585 0.7166723 0.33890963
00000000: 286a 403d 072c 253d b6b1 2e3f 22a2 763e
00000010: 620e 0a3f 4493 33bf d677 373f 9085 ad3e

prescalers.VaccinationFull.weight f4 [8, 1]
0.20182115 0.06475497 0.33594444 0.9197508 -0.0754046 -0.50283045 -0.26844302 -0.6274805
00000000: 34aa 4e3e 419e 843d e900 ac3e ca74 6b3f
00000010: ba6d 9abd 7fb9 00bf 5d71 89be 90a2 20bf

prescalers.VaccinationFull.bias f4 [8]
0.55939865 -0.51777315 -0.5925238 0.9323413 0.8397307 0.044038527 -0.24066101 -0.10260994
00000000: c034 0f3f c88c 04bf a4af 17bf ebad 6e3f
00000010: 97f8 563f be61 343d d76f 76be 2925 d2bd

prescalers.Cases.weight f4 [8, 1]
0.5838364 -1.0240401 -0.99557453 0.6151907 1.1469831 -0.072105184 -0.7240064 0.38623545
00000000: 4d76 153f bf13 83bf f9dd 7ebf 237d 1d3f
00000010: 58d0 923f e2ab 93bd 7c58 39bf a7c0 c53e

prescalers.Cases.bias f4 [8]
-0.4600523 -0.03235654 0.41534334 0.3368439 0.06923766 -0.010688555 0.13549581 -0.835698
00000000: fa8b ebbe 4b88 04bd e2a7 d43e ce76 ac3e
00000010: 79cc 8d3d 0d1f 2fbc 6abf 0a3e 4ef0 55bf

static_variable_selection.single_variable_grns.AGE6579.resample_norm.mask f4 [16]
-0.09800105 -0.087273315 -0.051034313 -0.031976502 -0.018426958 0.015677566 0.09694646 -0.0021065818
0.17897436 0.019739209 -0.052418437 0.023378456 0.07297352 0.23421247 -0.033410512 -0.06478063
00000000: c6b4 c8bd 5abc b2bd 5b09 51bd cbf9 02bd
00000010: 22f4 96bc 3d6e 803c de8b c63d 940e 0abb
00000020: 0e45 373e 1fb4 a13c b7b4 56bd 2d84 bf3c
00000030: 2473 953d 65d5 6f3e 76d9 08bd b5ab 84bd

static_variable_selection.single_variable_grns.AGE6579.resample_norm.norm.weight f4 [16]
0.87067205 0.92362213 0.965985 0.9807522 1.0081292 1.0512664 1.1202034 1.014249
1.0777699 1.0191247 0.97524756 1.0330694 1.0753399 1.2252074 0.9611747 0.9521164
00000000: 5de4 5e3f 8072 6c3f cb4a 773f 9412 7b3f
00000010: 610a 813f e68f 863f d362 8f3f e9d2 813f
00000020: 5df4 893f ae72 823f d3a9 793f 9e3b 843f
00000030: bda4 893f 99d3 9c3f 8c0f 763f e6bd 733f

static_variable_selection.single_variable_grns.AGE6579.resample_norm.norm.bias f4 [16]
0.07481781 -0.03378894 -0.04196216 -0.0008442917 -0.026874484 -0.033183053 -0.03810246 -0.01943481
0.031813264 -0.012348636 0.02830619 -0.05378319 -0.073294766 0.016990338 0.055576462 0.095723026
00000000: 143a 993d 4666 0abd 84e0 2bbd 7553 5dba
00000010: e127 dcbc f4ea 07bd 5311 1cbd c035 9fbc
00000020: a04e 023d ef51 4abc 62e2 e73c c34b 5cbd
00000030: 911b 96bd 522f 8b3c 25a4 633d 6f0a c43d

static_variable_selection.single_variable_grns.AGE6579.fc1.weight f4 [8, 8]
0.29008648 -0.50571734 -0.38991937 -0.29298112 -0.449086 -1.5218297 0.0712102 -0.47344744
-0.60830736 -0.85222864 -0.23349732 0.5462641 -0.14813857 -0.3907878 0.7736592 -0.08518282
0.26842955 0.23724574 0.684148 -0.07146904 -0.07222275 -0.2666935 0.112179756 -0.16330062
-0.6205484 -0.14360197 -0.046289578 -0.35334086 -0.23890416 0.19344787 -0.19021247 0.6948554
-0.37486047 0.45765308 -0.21631278 -0.28740737 -0.26762998 0.98792464 0.4180412 0.00802974
0.28280172 -0.095387824 -0.20284235 -0.02932524 0.42842427 -0.41715416 0.1308804 -0.18845496
-0.072211966 -0.6834143 -0.23994365 0.1763873 0.37393716 1.3135397 0.43339032 -0.15631515
-0.71753705 -0.5429583 -0.101725586 0.48812994 -0.00032415992 -0.4438267 0.27505952 0.08881462
00000000: 3786 943e b176 01bf 83a3 c7be 9f01 96be
00000010: 9aee e5be 51cb c2bf a7d6 913d b467 f2be
00000020: 08ba 1bbf a82b 5abf ec19 6fbe f7d7 0b3f
00000030: a3b1 17be 5715 c8be 880e 463f 5574 aebd
00000040: 996f 893e 8cf0 723e 5324 2f3f 5c5e 92bd
00000050: 85e9 93bd 0d8c 88be 80be e53d 4738 27be
00000060: 43dc 1ebf 650c 13be 249a 3dbd 18e9 b4be
00000070: 4ba3 74be 3317 463e 0fc7 42be 0be2 313f
00000080: b6ed bfbe 8151 ea3e 1981 5dbe 0f27 93be
00000090: cc06 89be a1e8 7c3f 7f09 d63e 2c8f 033c
000000a0: 63cb 903e b15a c3bd e8b5 4fbe 7c3b f0bc
000000b0: 6d5a db3e 3b95 d5be 8305 063e 56fa 40be
000000c0: dee3 93bd 3df4 2ebf cab3 75be df9e 343e
000000d0: b174 bf3e 1222 a83f 56e5 dd3e 1411 20be
000000e0: 82b0 37bf 51ff 0abf 8155 d0bd 2bec f93e
000000f0: 02f4 a9b9 413d e3be 9ad4 8c3e 71e4 b53d

static_variable_selection.single_variable_grns.AGE6579.fc1.bias f4 [8]
-0.005283422 0.05102997 -0.039228823 -0.034074303 0.01784781 0.019434556 0.07600391 0.008736258
00000000: 8e20 adbb cd04 513d 67ae 20bd 7f91 0bbd
00000010: 9235 923c 3835 9f3c f0a7 9b3d 8622 0f3c

static_variable_selection.single_variable_grns.AGE6579.fc2.weight f4 [8, 8]
-0.010599207 0.6766049 0.14588088 -0.38156134 0.24554141 -0.4187628 0.7569894 0.84366536
-0.54486555 -0.5295875 0.17622843 -0.07651036 0.2881898 0.08479978 0.4034328 -0.025200825
-0.242929 0.4094417 -0.08761389 0.20324394 0.17671794 -0.47895962 -0.2773842 0.7164075
0.86556053 -0.011833355 0.5223171 -0.3720481 0.01625703 -0.12957244 0.6003362 -0.72685325
0.29840007 -0.3684672 0.18207492 0.15336716 0.52032983 0.29247642 0.551267 -0.010759767
0.27337927 -0.17728396 -0.46287057 0.009409415 0.3920929 -0.029169014 -0.69793075 0.14667399
-0.85550505 0.09506182 -0.045169324 -0.084982894 0.40469384 0.4372238 -0.36026046 -0.48907432
0.054145865 0.29418075 -0.630261 -0.35112008 0.1513462 0.16484864 0.25934455 -0.6394471
00000000: 4ca8 2dbc fb35 2d3f cc61 153e 025c c3be
00000010: 356f 7b3e 1468 d6be 0fca 413f 74fa 573f
00000020: 4f7c 0bbf 0c93 07bf 3a75 343e 77b1 9cbd
00000030: 9d8d 933e 82ab ad3d be8e ce3e f671 cebc
00000040: 61c2 78be 58a2 d13e e96e b3bd 2e1f 503e
00000050: 8cf5 343e 323a f5be 4d05 8ebe 7b66 373f
00000060: 6095 5d3f b0e0 41bc 93b6 053f 177d bebe
00000070: 772d 853c a3ae 04be a2af 193f 0e13 3abf
00000080: e5c7 983e bca7 bcbe d971 3a3e 480c 1d3e
00000090: 5634 053f 78bf 953e d61f 0d3f bc49 30bc
000000a0: 5ef8 8b3e ed89 35be 5ffd ecbe f229 1a3c
000000b0: 67c0 c83e dbf3 eebc 97ab 32bf b531 163e
000000c0: 6102 5bbf c5af c23d 7803 39bd 830b aebd
000000d0: 0834 cf3e ccdb df3e 0f74 b8be f367 fabe
000000e0: 0ec8 5d3d dc9e 963e c958 21bf 03c6 b3be
000000f0: 80fa 1a3e 15ce 283e cfc8 843e ceb2 23bf

static_variable_selection.single_variable_grns.AGE6579.fc2.bias f4 [8]
0.051503275 -0.00036467778 -0.031482033 -0.019346135 0.00803424 -0.052948263 -0.029260935 0.06636448
00000000: 19f5 523d 3932 bfb9 4ef3 00bd c97b 9ebc
00000010: 0ca2 033c 47e0 58bd a1b4 efbc 1aea 873d

static_variable_selection.single_variable_grns.AGE6579.gate_norm.glu.fc.weight f4 [32, 8]
-0.086662345 0.41647115 -0.33882537 -0.1725224 0.15472405 -0.19676194 -0.22976986 0.12604225
0.05245735 0.10858168 0.06711835 0.28793758 -0.17576058 0.29463086 -0.3437806 -0.13905747
0.30758008 0.13751799 -0.18354696 -0.07589931 0.20517792 -0.26377866 0.020145096 0.2131116
-0.281523 0.07243333 -0.27472952 -0.35480773 -0.014872344 -0.33321863 -0.17343119 0.21477595
-0.059610564 -0.32076406 0.3384746 -0.39019516 -0.001869745 -0.2643757 -0.35273808 0.038900685
0.3828791 -0.17754598 -0.31210235 0.06458569 -0.13223983 -0.26134464 0.07208215 0.19661246
-0.21013662 0.073945776 -0.044395722 0.044862155 -0.04874914 -0.21909204 0.1970351 0.273364
0.25666976 0.41183063 -0.15668136 0.026926545 -0.10712258 -0.07497762 0.19019338 0.06777803
-0.30133155 -0.20703678 0.10882921 0.32510713 0.45679435 0.28340495 0.39109743 0.15731609
0.22368614 -0.06548537 0.086821325 0.13783762 0.0680688 -0.05013051 -0.137075 -0.23586552
-0.21321125 0.013275006 0.35233584 -0.08798273 -0.3429093 -0.30516976 0.10152327 0.15192153
-0.16308235 -0.03500257 0.27014086 -0.3512413 0.26419997 -0.102940895 -0.16112468 0.41806325
-0.1892559 0.45199245 0.26770127 0.06517164 0.30028108 0.027244722 0.36865 0.13711965
-0.36604038 -0.103127696 -0.0037973002 0.26255175 -0.12157917 0.0846531 0.24648094 0.011002804
-0.31730208 0.3376664 -0.18828766 0.11206317 -0.14155689 0.121055424 0.26060736 0.057428524
-0.24102406 -0.01133729 -0.3169258 0.4182628 0.184861 0.3771316 -0.009581219 -0.42425045
-0.12549694 -0.3796675 0.37513807 0.21705791 0.29121247 -0.27188691 -0.32695568 -0.14730886
0.45948166 -0.35551846 -0.25515226 0.078861766 0.027433144 -0.27067995 -0.30332223 -0.3496249
0.13820827 -0.10636681 -0.18443613 0.19519362 -0.24486509 0.29451278 -0.12002666 0.30249152
0.08765131 0.37263328 -0.22442028 -0.12711374 -0.07889457 0.17798209 -0.3225228 0.3298057
0.03350633 -0.29275405 -0.0591143 -0.056060307 -0.17601354 -0.18405709 -0.17542888 -0.0400307
0.19135126 0.11451357 0.24835092 -0.07583697 0.28756857 0.11296119 -0.25817868 0.24320969
0.32082286 0.07323862 -0.07445893 -0.22764967 -0.4220763 -0.13913141 -0.30422613 -0.22109613
-0.12927131 0.12010888 0.42121768 0.044114195 0.0033759193 0.09948347 -0.12596878 -0.3956508
-0.04681952 0.22894032 -0.033735797 0.08220098 0.19790532 0.26901188 -0.06329395 0.27793935
0.04688154 -0.04514591 0.4604138 -0.369423 0.45462996 -0.29930294 -0.1881767 0.36116204
0.33069885 -0.35105416 0.2818011 -0.07667854 -0.3422563 -0.16890241 -0.023716563 -0.2717487
-0.052789804 0.15622866 0.22889599 0.3066875 -0.1329078 0.2488489 0.18740802 -0.044354845
-0.24719223 0.044670705 0.42692828 -0.3904489 -0.08962899 0.20462076 -0.07999272 0.28871322
-0.019756762 -0.12742789 -0.36313587 -0.2741417 -0.053876873 0.13958676 0.23454231 0.08885845
0.3113821 0.25324818 -0.26686794 -0.08506063 0.3356894 -0.20274147 0.24892473 0.20948689
-0.0405326 -0.18480082 -0.34158385 -0.2588579 0.19323061 -0.30657256 -0.17604427 0.33423302
00000000: 077c b1bd b53b d53e 857a adbe b6a9 30be
00000010: fb6f 1e3e f67b 49be ca48 6bbe 3811 013e
00000020: 85dd 563d 1260 de3d 5875 893d 8e6c 933e
00000030: 95fa 33be dbd9 963e 0304 b0be 1565 0ebe
00000040: 237b 9d3e 84d1 0c3e bcf3 3bbe 1971 9bbd
00000050: 291a 523e ff0d 87be 5407 a53c ed39 5a3e
00000060: c823 90be ed57 943d 59a9 8cbe 5ca9 b5be
00000070: 22ab 73bc a29b aabe f297 31be 3aee 5b3e
00000080: 352a 74bd 303b a4be 8b4c ad3e a9c7 c7be
00000090: 3b12 f5ba 405c 87be 169a b4be 5356 1f3d
000000a0: bb08 c43e 9dce 35be e1cb 9fbe 8145 843d
000000b0: e169 07be f7ce 85be ce9f 933d c754 493e
000000c0: 0e2e 57be e270 973d 4ad8 35bd 61c1 373d
000000d0: 2ead 47bd aa59 60be 92c3 493e 5ef6 8b3e
000000e0: 386a 833e 77db d23e 1471 20be 0f95 dc3c
000000f0: 1563 dbbd de8d 99bd 0ec2 423e 35cf 8a3d
00000100: 2148 9abe 7301 54be d9e1 de3d 7174 a63e
00000110: f3e0 e93e 741a 913e ec3d c83e 7817 213e
00000120: fb0d 653e 321d 86bd 61cf b13d 4e25 0d3e
00000130: a867 8b3d a655 4dbd 645d 0cbe bb86 71be
00000140: 0d54 5abe 697f 593c 5d65 b43e 4a30 b4bd
00000150: cf91 afbe 363f 9cbe 6feb cf3d 5191 1b3e
00000160: 0fff 26be db5e 0fbd e74f 8a3e e6d5 b3be
00000170: 3845 873e add2 d2bd defd 24be 630c d63e
00000180: 4ccc 41be 8e6b e73e 2410 893e b578 853d
00000190: 71be 993e 5330 df3c b1bf bc3e 1869 0c3e
000001a0: a569 bbbe 9d34 d3bd 20dc 78bb 2f6d 863e
000001b0: 80fe f8bd 9b5e ad3d 8065 7c3e 1b45 343c
000001c0: 6b75 a2be 9ce2 ac3e 7bce 40be 6081 e53d
000001d0: 4af4 10be e8eb f73d 546e 853e 2c3a 6b3d
000001e0: 03cf 76be 0ac0 39bc 1944 a2be 8b26 d63e
000001f0: 344c 3d3e 6517 c13e 8cfa 1cbc 5b37 d9be
00000200: 4582 00be c763 c2be 1912 c03e 6e44 5e3e
00000210: cd19 953e c334 8bbe bc66 a7be 22d8 16be
00000220: 2e41 eb3e 8406 b6be 51a3 82be 4782 a13d
00000230: 79bb e03c 9096 8abe 0d4d 9bbe 0902 b3be
00000240: 7886 0d3e d8d6 d9bd d3dc 3cbe d6e0 473e
00000250: eabd 7abe 61ca 963e 8ad0 f5bd 2be0 9a3e
00000260: 8882 b33d cac9 be3e 6ece 65be 1b2a 02be
00000270: 7a93 a1bd f040 363e b521 a5be 4bdc a83e
00000280: ef3d 093d dce3 95be d621 72bd 7e9f 65bd
00000290: e53c 34be 7679 3cbe a1a3 33be 3bf7 23bd
000002a0: 96f1 433e 1786 ea3d b44f 7e3e 6a50 9bbd
000002b0: 303c 933e 3258 e73d ff2f 84be f60b 793e
000002c0: e542 a43e 21fe 953d ec7d 98bd ff1c 69be
000002d0: 631a d8be 7778 0ebe 87c3 9bbe 0667 62be
000002e0: b35f 04be a5fb f53d d8a9 d73e 16b1 343d
000002f0: 873e 5d3b fdbd cb3d f6fd 00be be92 cabe
00000300: d3c5 3fbd 556f 6a3e 8c2e 0abd fd58 a83d
00000310: b1a7 4a3e edbb 893e 42a0 81bd 114e 8e3e
00000320: dc06 403d ebea 38bd 5cbb eb3e 0325 bdbe
00000330: 42c5 e83e 3c3e 99be 65b1 40be 3bea b83e
00000340: 5c51 a93e 5fbd b3be 3c48 903e a309 9dbd
00000350: 383c afbe c1f4 2cbe 3d49 c2bc a522 8bbe
00000360: 1f3a 58bd 68fa 1f3e b663 6a3e 2506 9d3e
00000370: fb18 08be 3fd2 7e3e e3e7 3f3e 6dad 35bd
00000380: f61f 7dbe a1f8 363d 5896 da3e ebe8 c7be
00000390: 678f b7bd 1b88 513e 39d3 a3bd 38d2 933e
000003a0: efd8 a1bc 757c 02be f2ec b9be 4d5c 8cbe
000003b0: ffad 5cbd d5ef 0e3e dc2b 703e 6bfb b53d
000003c0: 7a6d 9f3e bfa9 813e eaa2 88be 4534 aebd
000003d0: 7bdf ab3e 769b 4fbe 20e6 7e3e bb83 563e
000003e0: 8305 26bd 6d3c 3dbe 14e4 aebe 0689 84be
000003f0: 3fde 453e 14f7 9cbe f344 34be 9720 ab3e

static_variable_selection.single_variable_grns.AGE6579.gate_norm.glu.fc.bias f4 [32]
0.06999567 -0.02571174 -0.04253434 -0.009707678 -0.021034304 -0.02122492 -0.025724677 -0.015647154
0.036451686 0.0019038266 0.039365966 -0.05107386 -0.07744221 0.011283422 0.06253913 0.10094959
-0.13078083 -0.069388166 -0.027041238 -0.12641269 0.023547962 -0.011327897 -0.1023253 -0.025773954
0.04941295 -0.18165506 -0.09276103 0.0020103012 -0.008107303 -0.04329115 -0.024014968 0.06068994
00000000: e459 8f3d 6da1 d2bc 7d38 2ebd f40c 1fbc
00000010: 2250 acbc e2df adbc 8fbc d2bc 762e 80bc
00000020: 5d4e 153d d289 f93a 353e 213d d332 51bd
00000030: 059a 9ebd 1ade 383c 8414 803d a9be ce3d
00000040: 69eb 05be 621b 8ebd 9685 ddbc 5472 01be
00000050: a8e7 c03c a598 39bc ed8f d1bd e623 d3bc
00000060: 3c65 4a3d c903 3abe 7ff9 bdbd 42bf 033b
00000070: 7ed4 04bc 1052 31bd 0abb c4bc 0496 783d

static_variable_selection.single_variable_grns.AGE6579.gate_norm.add_norm.norm.weight f4 [16]
0.86636907 0.9434232 0.98398626 0.98816156 1.0234905 1.0522746 1.1023773 0.9882492
1.1112943 1.0075237 0.97637033 1.0378911 1.0772197 1.1913571 0.94020873 0.95626706
00000000: 5dca 5d3f 2f84 713f 86e6 7b3f 28f8 7c3f
00000010: bd01 833f efb0 863f b31a 8d3f e6fd 7c3f
00000020: e43e 8e3f 89f6 803f 68f3 793f 9ed9 843f
00000030: 56e2 893f 647e 983f 85b1 703f ebcd 743f

static_variable_selection.single_variable_grns.AGE6579.gate_norm.add_norm.norm.bias f4 [16]
0.060515106 -0.02039185 -0.01919855 0.0100189075 -0.015764555 -0.030422604 -0.050354533 -0.027743336
0.026619097 -0.019008592 0.024536736 -0.06812459 -0.07458496 0.010892522 0.057479523 0.09267761
00000000: b0de 773d cf0c a7bc 4746 9dbc 5826 243c
00000010: ab24 81bc d338 f9bc 8e40 4ebd fe45 e3bc
00000020: 4b10 da3c e8b7 9bbc 4401 c93c e884 8bbd
00000030: 00c0 98bd 8c76 323c a66f 6b3d c2cd bd3d

static_variable_selection.prescalers.AGE6579.weight f4 [8, 1]
-0.090460144 -0.558767 0.5104299 0.36416978 -0.6810937 -0.1762578 -0.7227496 0.23560469
00000000: 2b43 b9bd 5b0b 0fbf 89ab 023f 7674 ba3e
00000010: 285c 2ebf ed7c 34be 1e06 39bf 5b42 713e

static_variable_selection.prescalers.AGE6579.bias f4 [8]
-0.2136315 0.600424 0.6344885 0.100905284 -0.37397078 -0.60765755 -0.099723436 -0.19235666
00000000: 37c2 5abe 63b5 193f d76d 223f 6ea7 ce3d
00000010: 1979 bfbe 728f 1bbf cd3b ccbd 25f9 44be

encoder_variable_selection.flattened_grn.resample_norm.mask f4 [3]
-0.15709066 -0.039766904 0.24580446
00000000: 60dc 20be 9fe2 22bd 2ab4 7b3e

encoder_variable_selection.flattened_grn.resample_norm.norm.weight f4 [3]
0.94024926 0.95131207 1.3638523
00000000: 2db4 703f 3089 733f b692 ae3f

encoder_variable_selection.flattened_grn.resample_norm.norm.bias f4 [3]
0.14489622 -0.06827208 -0.25122586
00000000: ad5f 143e 3bd2 8bbd ada0 80be

encoder_variable_selection.flattened_grn.fc1.weight f4 [3, 24]
0.36584783 -0.09850287 0.1561349 0.14372624 0.043609086 0.02350732 -0.15337175 -0.1623164
-0.30863208 0.09277628 0.1459375 -1.1252365 -0.042942487 -0.08678166 0.013730107 -0.03169547
0.5171649 -0.7139396 0.28280577 0.019300189 0.10349523 -0.27363256 0.10763555 0.28516394
0.010377993 0.26826078 -0.37979054 -0.1849127 0.11272013 0.056730088 0.09021908 0.5958475
-0.18701299 0.10445519 -0.689385 -0.24321547 0.075505294 0.022586493 0.038554806 0.21316727
0.070248276 0.040300895 -0.49827883 -0.19681011 -0.055585757 0.13873237 -0.028194714 0.05879427
0.15281864 -0.24167806 -0.15767384 0.2223938 0.35506156 0.45862752 -0.09591274 0.3740335
-0.32360008 0.23212911 0.2471505 0.3809218 0.011707509 -0.141477 0.1436585 0.087656595
0.15753488 0.33397827 -0.039642885 -0.07233998 -0.19995894 -0.24089836 -0.44487086 0.11903076
00000000: 6850 bb3e dfbb c9bd d4e1 1f3e f92c 133e
00000010: 719f 323d 6c92 c03c 7c0d 1dbe 4536 26be
00000020: 0605 9ebe 7e01 be3d a470 153e c007 90bf
00000030: 76e4 2fbd 95ba b1bd 3ef4 603c 1cd3 01bd
00000040: eb64 043f bfc4 36bf ebcb 903e 6e1b 9e3c
00000050: 4ff5 d33d 9119 8cbe 0770 dc3d 0201 923e
00000060: 7508 2a3c 7a59 893e e873 c2be c159 3dbe
00000070: d0d9 e63d cf5d 683d c8c4 b83d 7689 183f
00000080: 5580 3fbe 9aec d53d 897b 30bf 7a0d 79be
00000090: 85a2 9a3d 4f07 b93c a5eb 1d3d 8548 5a3e
000000a0: 54de 8f3d 8d12 253d 671e ffbe 9788 49be
000000b0: e4ad 63bd dc0f 0e3e 9af8 e6bc 43d2 703d
000000c0: 7d7c 1c3e 747a 77be 4075 21be 33bb 633e
000000d0: a1ca b53e 3ad1 ea3e e66d c4bd 5281 bf3e
000000e0: e9ae a5be 41b3 6d3e 0515 7d3e 2f08 c33e
000000f0: dad0 3f3c 59df 10be 371b 133e 4d85 b33d
00000100: d350 213e 33ff aa3e 9460 22bd fc26 94bd
00000110: 09c2 4cbe 0fae 76be 1dc6 e3be 66c6 f33d

encoder_variable_selection.flattened_grn.fc1.bias f4 [3]
-0.027874248 -0.05665623 -0.1086226
00000000: 8958 e4bc 5d10 68bd 8775 debd

encoder_variable_selection.flattened_grn.context.weight f4 [3, 16]
-0.28711504 -0.24297607 -0.29312932 -0.11728199 0.4032297 -0.32068276 0.09088297 0.17672926
-0.26241308 0.19178678 -0.104511455 0.23017508 0.42988586 0.09728866 -0.3302345 -0.33434406
0.43482414 -0.17237149 0.5169226 -0.44439125 -0.3378389 0.5783543 0.005594504 -0.28495127
0.084834665 -0.044473447 -0.4521104 0.17936158 0.24628226 -0.08157434 -0.40353087 -0.12068934
0.27782395 -0.15072766 0.4332296 -0.2461256 -0.20750646 0.4204356 0.09220247 0.18912898
-0.30206528 0.46306106 -0.061879113 0.058380857 0.15527424 0.0461618 -0.106156796 0.44117212
00000000: be00 93be b8ce 78be 0c15 96be 8a31 f0bd
00000010: 2074 ce3e 8830 a4be da20 ba3d 84f8 343e
00000020: 025b 86be c163 443e 1a0a d6bd 04b3 6b3e
00000030: 001a dc3e 473f c73d 7f14 a9be 252f abbe
00000040: 45a1 de3e 2782 30be 0a55 043f 4087 e3be
00000050: 38f9 acbe 070f 143f 1a52 b73b 22e5 91be
00000060: ccbd ad3d ca29 36bd 047b e7be 90aa 373e
00000070: 6b31 7c3e 7310 a7bd 999b cebe f92b f7bd
00000080: f13e 8e3e 5a58 1abe 45d0 dd3e 5908 7cbe
00000090: 937c 54be 5643 d73e a6d4 bc3d 07ab 413e
000000a0: 4da8 9abe 5716 ed3e f474 7dbd c420 6f3d
000000b0: 3600 1f3e 2814 3d3d bc68 d9bd 50e1 e13e

encoder_variable_selection.flattened_grn.fc2.weight f4 [3, 3]
-0.9210501 -1.1690065 -0.17241992 -0.014244063 -1.078884 -0.23496427 -0.39247808 -0.90795285
-0.83085907
00000000: f0c9 6bbf 01a2 95bf d98e 30be ee5f 69bc
00000010: df18 8abf 799a 70be e3f2 c8be 996f 68bf
00000020: 2eb3 54bf

encoder_variable_selection.flattened_grn.fc2.bias f4 [3]
0.08522391 -0.038132574 -0.07444679
00000000: e089 ae3d e730 1cbd 8f77 98bd

encoder_variable_selection.flattened_grn.gate_norm.glu.fc.weight f4 [6, 3]
0.6109824 -0.17446803 0.72148657 -0.054508217 -0.41719544 0.70068866 -0.12248266 -0.23085217
-0.06065889 -0.4862007 -0.54809237 0.714609 0.8571998 -0.031012386 -0.43101117 0.7411302
0.52706575 0.45517996
00000000: 5869 1c3f bfa7 32be 58b3 383f 0244 5fbd
00000010: a49a d5be 5560 333f 30d8 fabd 8364 6cbe
00000020: 7575 78bd 4cef f8be c84f 0cbf 9ef0 363f
00000030: 7271 5b3f b00d febc 7fad dcbe b5ba 3d3f
00000040: c8ed 063f 590d e93e

encoder_variable_selection.flattened_grn.gate_norm.glu.fc.bias f4 [6]
0.06259713 -0.075358264 -0.29270846 -0.09025362 0.24392775 0.25159693
00000000: ed32 803d 6f55 9abd e2dd 95be e4d6 b8bd
00000010: 32c8 793e 50d1 803e

encoder_variable_selection.flattened_grn.gate_norm.add_norm.norm.weight f4 [3]
0.8396509 0.74415374 0.3831045
00000000: 5df3 563f dc80 3e3f 4626 c43e

encoder_variable_selection.flattened_grn.gate_norm.add_norm.norm.bias f4 [3]
-0.0120912725 -0.23944896 0.54318756
00000000: 791a 46bc 1c32 75be 570e 0b3f

encoder_variable_selection.single_variable_grns.SinWeekly.resample_norm.mask f4 [16]
-0.22200163 -0.062069967 -0.1490603 -0.12231598 -0.016564388 0.0466577 -0.03487115 -0.32492325
-0.060049836 0.015344533 -0.08752661 -0.031516038 -0.17082168 0.026962101 0.19086766 0.124976836
00000000: 6554 63be 143d 7ebd 43a3 18be cd80 fabd
00000010: 0ab2 87bc 251c 3f3d 0dd5 0ebd 575c a6be
00000020: d1f6 75bd a367 7b3c 2741 b3bd f616 01bd
00000030: e1eb 2ebe a0df dc3c d072 433e dbf3 ff3d

encoder_variable_selection.single_variable_grns.SinWeekly.resample_norm.norm.weight f4 [16]
0.8154171 0.9732513 0.97656506 0.91449237 0.96118265 1.050035 1.0778761 0.7128287
0.96038 0.95662385 0.947129 0.9711236 0.9933238 1.0081741 1.2125925 1.0569512
00000000: 2dbf 503f ff26 793f 2b00 7a3f 2c1c 6a3f
00000010: 1110 763f 8c67 863f d8f7 893f f17b 363f
00000020: 77db 753f 4de5 743f 0c77 723f 8e9b 783f
00000030: 784a 7e3f d90b 813f 3b36 9b3f 2d4a 873f

encoder_variable_selection.single_variable_grns.SinWeekly.resample_norm.norm.bias f4 [16]
-0.030099137 0.020266553 -0.19146697 0.026573975 0.016818196 0.09012624 -0.104908325 -0.096109
0.0018722335 0.020973034 0.0061617084 0.07526249 -0.11631237 0.03177437 0.03793214 0.094849184
00000000: 7792 f6bc 0b06 a63c eb0f 44be aab1 d93c
00000010: 50c6 893c 1b94 b83d 2dda d6bd ccd4 c4bd
00000020: bb65 f53a a4cf ab3c 28e8 c93b 3823 9a3d
00000030: 2e35 eebd d825 023d bb5e 1b3d 4a40 c23d

encoder_variable_selection.single_variable_grns.SinWeekly.fc1.weight f4 [8, 8]
0.9694822 -1.2100964 -0.75585043 -1.1872144 -0.28347725 -0.23302431 0.37589556 0.5312093
-0.19246379 0.3886112 -0.13849749 -0.097204246 -0.18311231 0.6749183 -0.28298268 -0.23389518
-0.093613654 -0.047440946 -0.32548398 0.28177732 -0.78163475 0.39008257 0.990385 0.32651863
0.31580037 0.12902257 -0.31196457 0.22014876 0.36613306 0.048473127 0.3546072 0.6403393
-0.60361785 -0.10010606 1.1531609 0.016673384 0.13812302 0.71404725 0.57547814 -0.96693975
0.43886265 -0.13703199 -0.9043857 0.16075233 0.023288954 -0.26036388 -0.3383354 0.029509038
-0.7497014 -0.2848196 -0.8181475 0.40112248 0.06987925 -0.09991051 -0.22539318 0.17724864
0.40600258 0.02096781 -0.7408303 0.2581091 0.8045067 0.4593132 -0.16164474 0.37034842
00000000: fc2f 783f 70e4 9abf 6a7f 41bf a4f6 97bf
00000010: ee23 91be ed9d 6ebe 6275 c03e 55fd 073f
00000020: 3a15 45be 0cf8 c63e 49d2 0dbe 0513 c7bd
00000030: cb81 3bbe 72c7 2c3f 1be3 90be 3882 6fbe
00000040: 84b8 bfbd 7051 42bd d6a5 a6be 1e45 903e
00000050: 3719 48bf e7b8 c73e df89 7d3f 732d a73e
00000060: 96b0 a13e 7e1e 043e d2b9 9fbe ad6e 613e
00000070: cb75 bb3e c28b 463d 138f b53e 47ed 233f
00000080: b386 1abf 6804 cdbd c79a 933f 9f96 883c
00000090: 1f70 0d3e cdcb 363f 8952 133f 5d89 77bf
000000a0: 9bb2 e03e 1d52 0cbe d285 67bf 429c 243e
000000b0: 7ac8 be3c 6a4e 85be 4c3a adbe f0bc f13c
000000c0: 6eec 3fbf e0d3 91be 1d72 51bf ed5f cd3e
000000d0: da1c 8f3d e29d ccbd 78cd 66be ab80 353e
000000e0: 92df cf3e afc4 ab3c 0ea7 3dbf e026 843e
000000f0: 27f4 4d3f 1a2b eb3e 3386 25be 4f9e bd3e

encoder_variable_selection.single_variable_grns.SinWeekly.fc1.bias f4 [8]
0.052154843 0.12003597 0.04853601 -0.004975729 0.01777625 -0.04901014 -0.053643066 -0.008263986
00000000: 51a0 553d 6bd5 f53d b2cd 463d 710b a3bb
00000010: 809f 913c dbbe 48bd d5b8 5bbd ab65 07bc

encoder_variable_selection.single_variable_grns.SinWeekly.fc2.weight f4 [8, 8]
-1.0819962 0.13403986 -1.1408243 -0.6417343 -0.75567865 0.14312188 0.49497545 -0.35644376
-0.35102168 -0.3107776 0.47819787 0.12869115 -0.32380402 0.50863194 0.6726726 0.2503625
0.76687294 -0.43859547 -0.11522569 -0.5102813 0.72934985 -0.28357756 0.44868946 0.567891
0.05978806 0.886317 0.44381398 0.17123295 0.04073716 -0.76131564 0.09635393 -0.6610739
-1.0446832 1.2845553 -0.29910603 -0.2978394 -0.41523692 0.7906783 0.30909547 -0.06684301
0.4855228 -0.41127914 -0.62447554 -0.047040805 -0.5531685 0.23077872 -0.32382202 -0.16387868
0.09134181 0.059969384 0.10631828 0.017370246 0.44587383 -0.33954528 0.15853727 0.277856
0.5085878 -0.09543542 0.23957409 0.67541635 0.5653861 -0.43429336 0.5318188 -0.6791336
00000000: da7e 8abf bf41 093e 8806 92bf b348 24bf
00000010: 2874 41bf 8b8e 123e 6c6d fd3e cc7f b6be
00000020: 1db9 b3be 3e1e 9fbe 5ad6 f43e 9dc7 033e
00000030: a4c9 a5be b435 023f 4634 2c3f 832f 803e
00000040: c951 443f 968f e0be 72fb ebbd cca1 02bf
00000050: acb6 3a3f 1431 91be a0ba e53e 4e61 113f
00000060: 53e4 743d ace5 623f 963b e33e b157 2f3e
00000070: 02dc 263d 95e5 42bf 3655 c53d 243c 29bf
00000080: 2eb8 85bf 4f6c a43f 6d24 99be 687e 98be
00000090: ef99 d4be e569 4a3f c341 9e3e fde4 88bd
000000a0: 7296 f83e 2e93 d2be a1dd 1fbf dcad 40bd
000000b0: 739c 0dbf 4251 6c3e 00cc a5be d0cf 27be
000000c0: 6a11 bb3d 75a2 753d 66bd d93d 0c4c 8e3c
000000d0: 9349 e43e e1d8 adbe 9857 223e 2443 8e3e
000000e0: cf32 023f a573 c3bd e952 753e 16e8 2c3f
000000f0: 25bd 103f b35b debe 4725 083f b3db 2dbf

encoder_variable_selection.single_variable_grns.SinWeekly.fc2.bias f4 [8]
0.011597278 -0.06903591 -0.04266885 0.091124326 -0.14173053 -0.049392514 0.021907177 -0.07928668
00000000: 8202 3e3c b362 8dbd 88c5 2ebd 649f ba3d
00000010: cf21 11be ce4f 4abd ae76 b33c 0e61 a2bd

encoder_variable_selection.single_variable_grns.SinWeekly.gate_norm.glu.fc.weight f4 [32, 8]
0.18750028 0.036541957 -0.19349462 -0.104985386 -0.05498016 -0.35730213 -0.2327609 0.14190362
-0.123435676 0.03237797 -0.092309885 -0.23293416 0.11370008 0.1455298 0.35829875 -0.046716075
0.27370602 -0.17882021 0.22634548 -0.024478355 0.43567657 0.19247733 -0.26950562 0.037219595
-0.053268805 -0.23525634 -0.04271263 -0.2839187 0.270134 0.31738955 -0.20303813 0.2101409
0.33178368 0.041473992 0.1133428 0.2426084 0.15364015 -0.18894973 0.20906658 0.13001284
0.106866196 -0.3732945 0.23307525 0.1433466 -0.35412782 -0.15812442 -0.07081091 0.27458724
0.02967299 0.08574657 -0.57341415 -0.06163082 0.036006354 -0.4360145 -0.0060111727 -0.07210333
-0.40942407 -0.040722787 0.40819344 -0.4484492 -0.22119622 -0.008989097 -0.021555522 0.0677951
0.23005264 0.23499994 -0.20096539 0.42330596 0.1260893 -0.38886133 0.23258708 0.280878
-0.06100841 -0.37358502 0.18502629 -0.10594393 -0.3014847 -0.060898338 0.05211906 0.112275034
0.15706508 0.1250617 -0.08310039 -0.115027845 -0.017525194 0.13231082 0.038918063 0.2036992
0.06439166 0.03384136 -0.37467176 -0.020771377 -0.15839165 -0.4147615 0.2779522 0.24893974
0.54499054 0.5248683 -0.071086675 -0.1436582 0.4724075 -0.5588289 -0.15662092 -0.43492672
0.14706069 -0.10852514 0.30348694 0.1486317 0.18068807 0.024811523 -0.2343192 -0.30857274
-0.35566932 -0.32231453 0.33161956 -0.081065506 -0.12022164 0.3019715 -0.24339904 0.078508064
0.15213396 -0.44701356 -0.3064918 0.23552094 -0.12535098 -0.3476133 0.295064 0.06383717
0.06451191 -0.020041803 0.24526744 0.35168138 0.26898375 -0.27314934 0.25451276 -0.34395754
0.1321292 -0.33747137 -0.007314194 -0.17673834 0.0768811 0.33273703 -0.24892633 -0.3638782
0.32363132 -0.22157694 -0.4459447 -0.04164008 -0.0341905 -0.35319805 -0.07120695 0.037888706
0.16609837 -0.043817073 0.32995456 -0.22084402 -0.1156768 0.16615072 0.011635491 0.17483199
0.21675201 0.307411 -0.15556416 -0.11940422 0.04295731 -0.1912333 0.26679516 0.23644179
-0.056480527 -0.339863 0.51637685 0.2129341 -0.30642503 -0.043977052 0.43577486 -0.21028027
-0.12877342 -0.2801945 0.1612062 -0.44072953 -0.295189 -0.0032425835 0.1839385 0.21867286
-0.22539201 0.338105 0.12521999 -0.0555564 0.2287835 -0.112443484 -0.13858685 -0.31712243
0.009822619 0.050873473 0.053002644 -0.26482308 0.49895948 -0.145774 -0.07473015 -0.15864833
-0.06865713 -0.17881933 -0.06838222 0.3624191 0.15064023 -0.0038344262 -0.29627463 0.19805096
-0.003591874 -0.1830546 -0.31562322 -0.45075417 0.070362225 0.31505996 -0.24924403 -0.2488336
0.32116884 -0.050012797 0.09504869 0.28193775 0.2189964 0.11004155 0.22807115 -0.029142719
-0.47585464 -0.39613685 0.32570148 -0.11601585 -0.1008113 0.38048145 0.14368711 0.27904394
-0.33581635 -0.034730922 -0.32295537 0.060606286 0.26684767 -0.11879389 -0.10053059 0.13220619
-0.09099484 0.19254296 -0.35809594 0.12944382 0.00991551 -0.36475867 -0.118530326 -0.08121391
-0.010504169 0.36919194 -0.12806804 0.21529642 -0.094372384 -0.16488554 -0.10962241 -0.21826704
00000000: 1300 403e 05ad 153d 7423 46be 9402 d7bd
00000010: e032 61bd 4ef0 b6be e058 6ebe 2f4f 113e
00000020: d8cb fcbd c39e 043d f70c bdbd 4b86 6ebe
00000030: 96db e83d c405 153e ef72 b73e 5b59 3fbd
00000040: 3223 8c3e a51c 37be 1cc7 673e d586 c8bc
00000050: 0011 df3e c718 453e a4fc 89be 9373 183d
00000060: 6430 5abd 0ae7 70be 70f3 2ebd cb5d 91be
00000070: 014f 8a3e e280 a23e 3ae9 4fbe 2d2f 573e
00000080: 8ddf a93e a2e0 293d 4520 e83d 566e 783e
00000090: d853 1d3e 0a7c 41be 8d15 563e 1622 053e
000000a0: aadc da3d 7520 bfbe 47ab 6e3e 73c9 123e
000000b0: 3e50 b5be 5eeb 21be 4f05 91bd b396 8c3e
000000c0: c514 f33c e69b af3d 45cb 12bf 9970 7cbd
000000d0: 667b 133d 4b3d dfbe 5ff9 c4bb e9aa 93bd
000000e0: 08a0 d1be f0cc 26bd bbfe d03e 229b e5be
000000f0: 4381 62be 0147 13bc 3595 b0bc 28d8 8a3d
00000100: eb92 6b3e d3a3 703e dfc9 4dbe 8fbb d83e
00000110: 8e1d 013e d518 c7be 4f2b 6e3e 3ecf 8f3e
00000120: f4e3 79bd 8946 bfbe 8877 3d3e 22f9 d8bd
00000130: 345c 9abe 8970 79bd cc7a 553d 74f0 e53d
00000140: abd5 203e 2d10 003e 8a30 aabd b893 ebbd
00000150: ff90 8fbc 7d7c 073e 8c68 1f3d 8696 503e
00000160: c6df 833d 3d9d 0a3d fad4 bfbe bc28 aabc
00000170: 6c31 22be 9f5b d4be c04f 8e3e 0fea 7e3e
00000180: 8084 0b3f c55d 063f e495 91bd 231b 13be
00000190: 65df f13e 690f 0fbf 3c61 20be b7ae debe
000001a0: 1497 163e 6e42 debd a462 9b3e e932 183e
000001b0: 4b06 393e 8941 cb3c 5ff1 6fbe 3ffd 9dbe
000001c0: 4a1a b6be 6906 a5be 0aca a93e ac05 a6bd
000001d0: c336 f6bd 029c 9a3e 993d 79be d6c8 a03d
000001e0: 01c9 1b3e f6de e4be 7eec 9cbe 672c 713e
000001f0: 025c 00be 5ffa b1be a112 973e 10bd 823d
00000200: d21e 843d b52e a4bc 6327 7b3e 950f b43e
00000210: 3db8 893e 3bda 8bbe 7f4f 823e 341b b0be
00000220: e14c 073e 0cc9 acbe e8ab efbb e5fa 34be
00000230: d773 9d3d 825c aa3e 8be6 7ebe 3e4e babe
00000240: 01b3 a53e 11e5 62be dd52 e4be ca8e 2abd
00000250: 560b 0cbd 60d6 b4be f3d4 91bd 3031 1b3d
00000260: b115 2a3e 8879 33bd ceef a83e ef24 62be
00000270: f5e7 ecbd 6a23 2a3e c9a2 3e3c 2807 333e
00000280: 3df4 5d3e f964 9d3e 364c 1fbe 338a f4bd
00000290: 01f4 2f3d aad2 43be 6099 883e cc1d 723e
000002a0: 2058 67bd 8602 aebe 4631 043f 660b 5a3e
000002b0: bee3 9cbe 4821 34bd e21d df3e b653 57be
000002c0: 2edd 03be a775 8fbe 3d13 253e 4da7 e1be
000002d0: 0323 97be 8681 54bb 605a 3c3e c7eb 5f3e
000002e0: 2acd 66be 191c ad3e ab39 003e 1c8f 63bd
000002f0: 3946 6a3e c548 e6bd b6e9 0dbe df5d a2be
00000300: 0def 203c b460 503d 4d19 593d e496 87be
00000310: 9e77 ff3e c845 15be 1f0c 99bd b574 22be
00000320: 1c9c 8cbd 6a1c 37be fa0b 8cbd ff8e b93e
00000330: 6f41 1a3e ff4a 7bbb 4fb1 97be dfcd 4a3e
00000340: a565 6bbb aa72 3bbe 5e99 a1be 40c9 e6be
00000350: 121a 903d 8a4f a13e d439 7fbe 3cce 7ebe
00000360: 3e70 a43e 38da 4cbd e3a8 c23d 255a 903e
00000370: 9840 603e 775d e13d 7c8b 693e b6bc eebc
00000380: 38a3 f3be 73d2 cabe 58c2 a63e b899 edbd
00000390: 2876 cebd 77ce c23e b722 133e d9de 8e3e
000003a0: 1ff0 abbe 0342 0ebd 685a a5be 4c3e 783d
000003b0: 42a0 883e 364a f3bd fbe2 cdbd 0f61 073e
000003c0: 815b babd fb29 453e 5a58 b7be ec8c 043e
000003d0: aa74 223c a6c1 babe 07c0 f2bd 7a53 a6bd
000003e0: ae19 2cbc ba06 bd3e 4524 03be aa76 5c3e
000003f0: 4f46 c1bd c1d7 28be b781 e0bd 6581 5fbe

encoder_variable_selection.single_variable_grns.SinWeekly.gate_norm.glu.fc.bias f4 [32]
0.057570968 0.013380948 -0.22521068 0.012744793 0.058363084 0.07857468 -0.09824121 -0.18180773
0.017464932 0.023616161 -0.0015518401 0.08572214 -0.13619296 0.053728655 0.025580106 0.09865145
-0.0076317624 -0.090521306 -0.008299331 -0.11861572 -0.108380266 0.084939554 -0.12271783 0.0917825
-0.10082094 0.01783552 -0.19454695 0.008897247 0.048201747 -0.05374716 0.040149033 -0.0063616117
00000000: 89cf 6b3d c43b 5b3c a19d 66be 89cf 503c
00000010: 210e 6f3d c3eb a03d b032 c9bd ce2b 3abe
00000020: 9e12 8f3c ae76 c13c 1d67 cbba 178f af3d
00000030: 2b76 0bbe 9412 5c3d 5f8d d13c c509 ca3d
00000040: dd13 fabb 3c63 b9bd ebf9 07bc ccec f2bd
00000050: 79f6 ddbd caf4 ad3d 7c53 fbbd 77f8 bb3d
00000060: 367b cebd cc1b 923c 5137 47be c2c5 113c
00000070: 326f 453d fb25 5cbd 5073 243d 1175 d0bb

encoder_variable_selection.single_variable_grns.SinWeekly.gate_norm.add_norm.norm.weight f4 [16]
0.8333491 0.9491593 1.0696687 0.8672306 0.9373383 1.0029368 1.148878 0.588699
0.90555584 1.0013613 0.93001986 0.93467325 1.0289999 0.9259367 1.129543 1.0550351
00000000: 5e56 553f 1bfc 723f e7ea 883f d302 5e3f
00000010: 67f5 6f3f 3c60 803f 6f0e 933f fab4 163f
00000020: 82d2 673f 9b2c 803f c815 6e3f bf46 6f3f
00000030: 45b6 833f 300a 6d3f dd94 903f 640b 873f

encoder_variable_selection.single_variable_grns.SinWeekly.gate_norm.add_norm.norm.bias f4 [16]
-0.075722866 0.055712566 -0.02205668 0.0777739 -0.01092783 0.042248372 -0.081226885 -0.050777737
0.04259393 -0.0265826 -0.017230652 0.115682855 -0.05610529 0.020688374 0.0045289695 0.065839246
00000000: 9714 9bbd dc32 643d 36b0 b4bc ec47 9f3d
00000010: a40a 33bc a10c 2d3d 485a a6bd 51fc 4fbd
00000020: f976 2e3d c1c3 d9bc 4c27 8dbc 22eb ec3d
00000030: a9ce 65bd aa7a a93c c067 943b bad6 863d

encoder_variable_selection.single_variable_grns.VaccinationFull.resample_norm.mask f4 [16]
-0.112657875 -0.07490336 0.091349065 -0.06644165 0.22168718 -0.08137779 -0.0040864637 0.29324225
0.05657005 -0.07624504 -0.035297703 -0.044643313 -0.13637365 0.1800008 -0.06009525 -0.10913877
00000000: 2cb9 e6bd ef66 99bd 3815 bb3d 8f12 88bd
00000010: f701 633e 66a9 a6bd bee7 85bb d923 963e
00000020: ffb5 673d 5c26 9cbd 5394 10bd e8db 36bd
00000030: 89a5 0bbe 2152 383e 7026 76bd 2684 dfbd

encoder_variable_selection.single_variable_grns.VaccinationFull.resample_norm.norm.weight f4 [16]
0.87108004 0.868737 1.1101645 0.95575166 1.260237 0.9355539 0.9197273 1.2424911
1.0565907 0.9327274 0.97473174 0.960634 0.83964086 1.1631315 0.8924916 0.8291617
00000000: 1aff 5e3f 8c65 5e3f df19 8e3f 24ac 743f
00000010: 724f a13f 7680 6f3f 4073 6b3f f309 9f3f
00000020: 5d3e 873f 39c7 6e3f 0588 793f 1cec 753f
00000030: b4f2 563f 7ee1 943f 547a 643f f143 543f

encoder_variable_selection.single_variable_grns.VaccinationFull.resample_norm.norm.bias f4 [16]
-0.11379411 0.14548227 -0.089978956 -0.036190156 -0.23162179 0.04319408 -0.028250683 0.17835878
0.039366927 -0.010753447 -0.022346394 -0.008805946 -0.013382493 -0.053821314 0.032111656 0.11290293
00000000: e30c e9bd 4ef9 143e e346 b8bd 213c 14bd
00000010: 432e 6dbe 47ec 303d fa6d e7bc afa3 363e
00000020: 373f 213d 3a2f 30bc c90f b7bc d146 10bc
00000030: 3e42 5bbc bd73 5cbd 8387 033d a739 e73d

encoder_variable_selection.single_variable_grns.VaccinationFull.fc1.weight f4 [8, 8]
0.38567612 -0.14507233 -0.628923 -0.2530053 0.5674987 0.16840404 -0.5389012 0.010055602
0.11325088 -0.11531276 -0.7105824 -0.9335012 -0.0908815 -0.2408862 0.6394615 -0.23526143
0.03565973 -0.48938486 -0.04326386 -0.3595395 -0.42998007 0.39907432 -0.051256683 -0.5069127
-0.17838787 -0.8153266 -0.17476153 0.3460474 -0.7932141 0.5875023 0.12378332 -0.018333076
0.31604776 0.5195469 0.18474339 0.42231777 0.0716189 0.38467395 0.54824525 0.7805538
-0.081166565 0.26041383 -0.2710044 -0.06012074 -0.07352299 -0.7593552 -0.83123237 -1.7386277
-0.5314242 0.2982721 0.212332 0.22313921 1.0136093 -0.12490317 0.15453689 0.14965835
0.5074653 0.034426663 -0.73333424 0.06007176 -0.23563676 -1.2985935 -0.5205137 -1.7720572
00000000: 5777 c53e d78d 14be 1901 21bf e989 81be
00000010: 9847 113f 1c72 2c3e 6ef5 09bf 40c0 243c
00000020: 14f0 e73d 1929 ecbd bae8 35bf eff9 6ebf
00000030: 1420 babd dfaa 76be c0b3 233f 5fe8 70be
00000040: f00f 123d a790 fabe 7235 31bd 9015 b8be
00000050: 5926 dcbe 7853 cc3e 87f2 51bd 08c5 01bf
00000060: 4fab 36be 3eb9 50bf b0f4 32be 202d b13e
00000070: 1410 4bbf 8d66 163f 1c82 fd3d 3f2f 96bc
00000080: 03d1 a13e 0701 053f 5f2d 3d3e 093a d83e
00000090: eeac 923d fcf3 c43e cd59 0c3f 60d2 473f
000000a0: a83a a6bd f654 853e 17c1 8abe 2a41 76bd
000000b0: 3993 96bd 1a65 42bf a5cb 54bf 5a8b debf
000000c0: 6b0b 08bf 1fb7 983e 8f6d 593e 9b7e 643e
000000d0: f3bd 813f 3ccd ffbd eb3e 1e3e 0a40 193e
000000e0: 3fe9 013f f902 0d3d cbbb 3bbf ce0d 763d
000000f0: c34a 71be 5038 a6bf 6340 05bf c5d2 e2bf

encoder_variable_selection.single_variable_grns.VaccinationFull.fc1.bias f4 [8]
0.00044526538 -0.031203546 -0.0010715727 -0.011203866 0.06325698 0.019559145 -0.06279269 0.14942169
00000000: 8272 e939 949e ffbc 0374 8cba 6c90 37bc
00000010: e08c 813d 803a a03c 7499 80bd 0002 193e

encoder_variable_selection.single_variable_grns.VaccinationFull.fc2.weight f4 [8, 8]
-0.17866364 0.023557121 -0.3062681 -0.6600686 -0.9455961 0.11986294 -0.71530133 0.012767077
0.76746863 -0.27984032 -0.34887674 -0.2552095 -0.4248934 -0.40555677 0.3914104 0.029526502
-1.7769084 -0.0623786 -0.1292424 0.57683694 -0.421484 0.33166364 0.11772662 0.50142616
0.21179235 -0.36070338 0.08375582 -0.40808478 0.6880424 -0.8327566 0.03379107 -0.12286579
-0.3749145 -0.31089032 0.28576174 -0.23817542 0.36516026 0.35793248 -1.2188733 0.87182933
-0.39933723 0.4591259 0.804834 0.25594202 0.13137801 -0.1867171 -0.22663252 -1.188067
0.573756 -0.08555173 -0.063149855 0.79236555 0.109646454 -0.4192422 -0.11603186 0.2667989
-0.2983156 0.28764224 0.43793812 0.36424646 -0.61614376 -0.67448443 0.02584641 -0.494019
00000000: 9af3 36be ddfa c03c 2ccf 9cbe 41fa 28bf
00000010: 9612 72bf b37a f53d fd1d 37bf 012d 513c
00000020: d378 443f 3b47 8fbe f99f b2be d2aa 82be
00000030: a18b d9be 23a5 cfbe f266 c83e 90e1 f13c
00000040: bc71 e3bf b480 7fbd 1f58 04be 96ab 133f
00000050: c0cc d7be d1cf a93e a71a f13d 775d 003f
00000060: 18e0 583e 1dae b8be 2c88 ab3d 7df0 d0be
00000070: 8c23 303f 892f 55bf 8168 0a3d 0fa1 fbbd
00000080: cbf4 bfbe 042d 9fbe 5d4f 923e 42e4 73be
00000090: 49f6 ba3e ed42 b73e 0a04 9cbf 3530 5f3f
000000a0: ee75 ccbe 8d12 eb3e 9a09 4e3f d50a 833e
000000b0: f587 063e c432 3fbe 5b12 68be 9412 98bf
000000c0: ace1 123f bf35 afbd b654 81bd 78d8 4a3f
000000d0: 528e e03d eaa6 d6be 1da2 edbd de99 883e
000000e0: d3bc 98be d845 933e 6d39 e03e 837e ba3e
000000f0: 99bb 1dbf 03ab 2cbf dabb d33c 0ff0 fcbe

encoder_variable_selection.single_variable_grns.VaccinationFull.fc2.bias f4 [8]
-0.060184114 -0.015979242 -0.050253153 -0.009702766 0.08095552 -0.03973594 0.029549591 -0.036787357
00000000: 9e83 76bd e6e6 82bc 40d6 4dbd 5af8 1ebc
00000010: 02cc a53d 27c2 22bd fc11 f23c 57ae 16bd

encoder_variable_selection.single_variable_grns.VaccinationFull.gate_norm.glu.fc.weight f4 [32, 8]
0.0817987 0.21702583 0.3959006 0.18806142 -0.32386708 0.3289346 -0.0745571 -0.18066321
-0.4696128 0.19971338 -0.3524142 0.105121545 0.30275208 -0.2560542 0.20094721 -0.3650121
-0.033685863 0.2554569 0.15320389 0.10054041 -0.20615102 0.507346 -0.2783962 0.5301548
-0.23256692 -0.26149443 0.09355787 0.40622973 -0.4248665 0.35854554 -0.02047376 0.32548606
0.27665335 -0.10588031 0.27389178 -0.33337522 0.24431002 0.04850251 -0.37782967 0.22907472
0.23923106 0.341519 0.24758671 -0.26177278 -0.12909815 0.22747658 -0.10695583 0.27257934
-0.17756866 0.329133 0.015040112 -0.02197504 -0.037622005 0.10316537 0.33385795 0.07041204
-0.32147095 0.18488435 0.1865659 -0.5701187 0.47045413 -0.47779724 0.3745021 -0.62319523
0.006468223 0.275962 -0.06911697 -0.33917692 -0.3142209 0.14327788 0.00983557 0.29831222
0.059690572 0.020575395 0.20176241 -0.37589106 -0.08920159 -0.40889785 -0.30801362 -0.29299963
-0.11306774 -0.11618623 0.08089777 -0.3085807 0.1549708 0.045656648 0.13518691 -0.033480328
-0.19820203 -0.31405494 0.052535422 0.04341845 0.029423775 -0.03760114 -0.2902731 0.14074796
-0.23288359 0.23026526 -0.24685118 -0.38533756 0.05177016 -0.13459949 -0.2461041 -0.21770094
0.3407258 -0.38671094 0.10875289 0.25813282 0.29241997 0.25936913 0.07639229 -0.25552386
-0.22076356 0.09134141 -0.15756063 0.07518915 -0.23563059 0.014808143 -0.17509879 0.12059005
-0.32519197 -0.057181384 0.12422696 -0.02255206 0.23818848 -0.15020742 0.4103939 -0.16995247
0.12291006 -0.13197337 0.20826143 0.0581247 0.08403034 0.25562593 -0.102750435 -0.34686834
-0.15492684 -0.030924035 0.28411323 0.11455636 0.10630755 0.22997838 -0.057787944 -0.0845311
0.18992932 0.41639674 -0.12659882 0.34163448 0.016628042 0.29731402 0.13492604 0.2876247
0.06344462 0.11015404 0.36520174 0.04318426 0.17709684 -0.301668 -0.18930367 -0.3029338
-0.14981534 -0.1425479 -0.014748284 0.58551824 -0.07074236 0.0802585 -0.050409757 0.116409324
0.04273616 -0.08818024 0.3878807 -0.04012801 -0.23953038 0.15954982 -0.40169224 0.1533398
0.14957486 0.34547094 -0.3405291 0.36699986 -0.24131575 0.12840226 -0.32142422 0.36093515
-0.14772627 0.029155316 0.5996193 -0.099255994 0.019621424 -0.31743857 -0.40343487 -0.15817916
0.0409235 0.06782672 0.03046502 -0.114560805 -0.26072598 0.15062448 0.24162197 -0.18650441
0.39791343 -0.41923657 0.42598614 -0.11947464 0.392062 -0.07264487 -0.07855878 0.13638449
-0.21791193 0.021348417 0.3069086 -0.18105054 0.07280772 -0.45503888 0.08942914 -0.055337805
-0.01641988 0.19444217 0.26938882 0.0836688 -0.12947056 0.25699297 -0.112501435 -0.1169646
0.4389244 0.20708568 -0.24907373 0.21871291 0.19366732 0.20104824 -0.3579105 0.080210984
-0.19806752 -0.38483334 -0.24449253 -0.2875843 0.14017598 -0.10471632 -0.23912989 0.020867065
0.4116142 -0.042880744 0.019907566 0.1866086 -0.099808365 -0.42646044 0.08471844 -0.48248535
-0.3046601 0.29289097 0.3986049 0.19962469 -0.06552215 -0.4440201 0.42404386 -0.5436926
00000000: 1486 a73d 053c 5e3e 7cb3 ca3e 2c93 403e
00000010: e8d1 a5be 1e6a a83e 65b1 98bd c7ff 38be
00000020: 1771 f0be aa81 4c3e a26f b4be f749 d73d
00000030: 5202 9b3e 8919 83be 1bc5 4d3e dee2 babe
00000040: 30fa 09bd 3fcb 823e 7be1 1c3e 21e8 cd3d
00000050: 4119 53be 6de1 013f f289 8ebe 3ab8 073f
00000060: 0626 6ebe 99e2 85be 459b bf3d 58fd cf3e
00000070: 1a88 d9be 4893 b73e 96b8 a7bc 1ca6 a63e
00000080: 82a5 8d3e c7d7 d8bd 8b3b 8c3e 28b0 aabe
00000090: 682c 7a3e 91aa 463d e472 c1be 9092 6a3e
000000a0: fdf8 743e 94db ae3e 5f87 7d3e 1507 86be
000000b0: 4e32 04be 9fef 683e a80b dbbd 858f 8b3e
000000c0: 8fd4 35be 1f84 a83e cd6a 763c 0005 b4bc
000000d0: 8819 1abd 5e48 d33d 6eef aa3e 3034 903d
000000e0: d797 a4be 5352 3d3e 220b 3f3e 4df3 11bf
000000f0: 5ddf f03e d7a1 f4be bdbe bf3e b989 1fbf
00000100: 63f3 d33b e44a 8d3e 338d 8dbd 99a8 adbe
00000110: 90e1 a0be 70b7 123e 5f25 213c 61bc 983e
00000120: 1a7e 743d bb8d a83c ce9a 4e3e cb74 c0be
00000130: 53af b6bd 0f5b d1be f6b3 9dbe 0c04 96be
00000140: 0f90 e7bd 0cf3 edbd bbad a53d 4afe 9dbe
00000150: aab0 1e3e 7702 3b3d 706e 0a3e ab22 09bd
00000160: 79f5 4abe cfcb a0be 622f 573d 8bd7 313d
00000170: 210a f13c a703 1abd ad9e 94be 3c20 103e
00000180: 0979 6ebe a8ca 6b3e 8ec6 7cbe f74a c5be
00000190: f30c 543d 73d4 09be b702 7cbe ffec 5ebe
000001a0: 9d73 ae3e fafe c5be d6b9 de3d fc29 843e
000001b0: 12b8 953e 08cc 843e 9073 9c3d 06d4 82be
000001c0: d80f 62be 3511 bb3d 9357 21be c5fc 993d
000001d0: 2549 71be da9d 723c 194d 33be ebf7 f63d
000001e0: 907f a6be 0737 6abd b46a fe3d 19bf b8bc
000001f0: aee7 733e f9cf 19be 261f d23e 0508 2ebe
00000200: 45b8 fb3d 0724 07be 7c42 553e 2a14 6e3d
00000210: 1918 ac3d 67e1 823e d26e d2bd ba98 b1be
00000220: 24a5 1ebe 6754 fdbc 4a77 913e 869c ea3d
00000230: c6b7 d93d 747f 6b3e 0db3 6cbd a41e adbd
00000240: d57c 423e f431 d53e 1fa3 01be b7ea ae3e
00000250: 8837 883c 8b39 983e 0d2a 0a3e 8b43 933e
00000260: 41ef 813d 7198 e13d b9fb ba3e fbe1 303d
00000270: e058 353e 3a74 9abe d2d8 41be 241a 9bbe
00000280: 3169 19be 14f8 11be c9a2 71bc 86e4 153f
00000290: 5fe1 90bd 925e a43d 767a 4ebd 0368 ee3d
000002a0: 1d0c 2f3d d797 b4bd 4d98 c63e 455d 24bd
000002b0: 7447 75be 0761 233e 9baa cdbe 1c05 1d3e
000002c0: 272a 193e 91e1 b03e d559 aebe 68e7 bb3e
000002d0: 7a1b 77be e27b 033e b791 a4be 7ecc b83e
000002e0: 8e45 17be 21d7 ee3c a780 193f ba46 cbbd
000002f0: 1cbd a03c 4f87 a2be 048f cebe b8f9 21be
00000300: 669f 273d bce8 8a3d c791 f93c db9e eabd
00000310: e07d 85be 4e3d 1a3e c06b 773e 03fb 3ebe
00000320: 4fbb cb3e 2da6 d6be db1a da3e 1faf f4bd
00000330: 5abc c83e d5c6 94bd 6de3 a0bd 60a8 0b3e
00000340: 4e24 5fbe e0e2 ae3c 2023 9d3e 5065 39be
00000350: 371c 953d dbfa e8be a026 b73d e5a9 62bd
00000360: fc82 86bc d91b 473e 55ed 893e 8c5a ab3d
00000370: ee93 04be 9594 833e 2767 e6bd 238b efbd
00000380: b3ba e03e 450e 543e 2f0d 7fbe 47f6 5f3e
00000390: ba50 463e 97df 4d3e 0c40 b7be a845 a43d
000003a0: 36d2 4abe e008 c5be 405c 7abe 403e 93be
000003b0: 4b8a 0f3e 8375 d6bd 77de 74be 68f1 aa3c
000003c0: 19bf d23e b8a3 2fbd 3115 a33c 5316 3f3e
000003d0: 5468 ccbd 0659 dabe dd80 ad3d 5208 f7be
000003e0: 69fc 9bbe cef5 953e f115 cc3e 6a6a 4c3e
000003f0: 7a30 86bd 9a56 e3be 471c d93e 702f 0bbf

encoder_variable_selection.single_variable_grns.VaccinationFull.gate_norm.glu.fc.bias f4 [32]
-0.10518984 0.13671486 -0.08540246 -0.09752776 -0.20067386 0.085308656 0.0013164823 0.18485321
0.030127121 0.07249274 -0.0018739698 0.03623487 -0.07559791 -0.036985487 0.019002447 0.118051484
-0.004143474 0.10272405 0.053122696 0.15051064 0.1672852 -0.1020165 0.024533883 0.09998197
0.0040813982 -0.0642502 -0.018854922 -0.07466821 -0.06318398 -0.030079907 -0.0349468 0.097204484
00000000: c56d d7bd fbfe 0b3e 7ce7 aebd a2bc c7bd
00000010: 737d 4dbe 4eb6 ae3d d18d ac3a 294a 3d3e
00000020: 27cd f63c 1377 943d fe9f f5ba 046b 143d
00000030: 14d3 9abd 187e 17bd 05ab 9b3c fac4 f13d
00000040: fbc5 87bb fd60 d23d 2f97 593d 761f 1a3e
00000050: d04c 2b3e 07ee d0bd 48fb c83c 59c3 cc3d
00000060: 40bd 853b 9c95 83bd a375 9abc a6eb 98bd
00000070: 9a66 81bd 236a f6bc 6024 0fbd 2513 c73d

encoder_variable_selection.single_variable_grns.VaccinationFull.gate_norm.add_norm.norm.weight f4 [16]
0.7485415 0.945501 1.0200843 0.89068234 1.0687847 0.93503815 0.835179 0.81304795
0.9665405 0.90526325 0.86894065 0.8240244 0.87227005 0.9320746 0.93496597 0.80270153
00000000: 6aa0 3f3f 5b0c 723f 1f92 823f c203 643f
00000010: f0cd 883f a95e 6f3f 4ace 553f e923 503f
00000020: 336f 773f 55bf 673f e572 5e3f 43f3 523f
00000030: 174d 5f3f 719c 6e3f ee59 6f3f d97d 4d3f

encoder_variable_selection.single_variable_grns.VaccinationFull.gate_norm.add_norm.norm.bias f4 [16]
-0.11298773 0.12658285 0.03504265 0.08003473 -0.06257443 0.0421169 -0.109391145 -0.10759662
-0.036464985 -0.028512899 -0.042008538 0.031439565 0.011516018 0.007886664 -0.014417827 0.07541631
00000000: 1c66 e7bd ef9e 013e e288 0f3d 40e9 a33d
00000010: 0627 80bd c582 2c3d 7708 e0bd 9e5b dcbd
00000020: 4f5c 15bd e293 e9bc 2511 2cbd c6c6 003d
00000030: aead 3c3c 1137 013c c038 6cbc de73 9a3d

encoder_variable_selection.single_variable_grns.Cases.resample_norm.mask f4 [16]
-0.008087028 0.03103859 -0.4052462 0.03880776 0.047651943 0.11350164 -0.013395714 0.0054999627
-0.41514024 0.24434777 0.19993046 -0.082351275 -0.30460778 -0.059559386 0.33322912 0.010287453
00000000: 747f 04bc a444 fe3c 6e7c cfbe e3f4 1e3d
00000010: af2e 433d 8c73 e83d b279 5bbc 0839 b43b
00000020: 438d d4be 4d36 7a3e 92ba 4c3e c9a7 a8bd
00000030: 8df5 9bbe 8bf4 73bd 029d aa3e b58c 283c

encoder_variable_selection.single_variable_grns.Cases.resample_norm.norm.weight f4 [16]
0.8931059 1.0070469 0.59670407 0.9928995 0.9781735 1.0989275 1.0741429 1.0122223
0.5921951 1.2051208 1.1933885 0.91910243 0.67083204 0.909055 1.3050411 1.0250081
00000000: 97a2 643f eae6 803f 99c1 183f a92e 7e3f
00000010: 9469 7a3f a8a9 8c3f 847d 893f 8090 813f
00000020: 199a 173f 6641 9a3f f4c0 983f 4c4a 6b3f
00000030: a6bb 2b3f d4b7 683f 960b a73f 7733 833f

encoder_variable_selection.single_variable_grns.Cases.resample_norm.norm.bias f4 [16]
0.13454948 -0.0055804853 -0.11367278 -0.18281572 -0.24256991 -0.10623556 -0.16504382 0.06409744
0.12529045 0.23179576 0.0031264364 -0.042157747 -0.043943208 0.10202862 -0.01996385 0.15270971
00000000: 57c7 093e 81dc b6bb 46cd e8bd 0b34 3bbe
00000010: 3f64 78be 0792 d9bd 3f01 29be 8545 833d
00000020: 244c 003e de5b 6d3e e6e4 4c3b 9aad 2cbd
00000030: cbfd 33bd 62f4 d03d 3a8b a3bc ef5f 1c3e

encoder_variable_selection.single_variable_grns.Cases.fc1.weight f4 [8, 8]
0.010128555 1.3961698 0.13641743 0.1607516 -0.46120247 0.5034823 -0.29196373 -0.5505278
0.5200178 0.42257452 -0.2518956 -1.1016425 -1.0604478 0.38770944 0.14325398 -0.14611678
1.2044765 0.09242765 -0.041536517 -0.051312666 -0.075766474 -0.19392976 -0.8988409 0.6388646
-0.57679397 -0.14087804 0.7538189 0.45674515 0.8207306 0.00012891582 0.13265295 0.51062536
0.021005154 -0.57440984 -0.14851521 0.48290762 0.5394464 0.16265777 -0.1548755 0.46438706
-0.07889599 -0.10854919 0.07672386 -0.47359553 -0.46365753 0.56500894 -0.05181619 0.6524355
0.080095224 0.2676109 0.23890714 0.92972696 -1.3264688 0.15530412 0.5583351 -0.4615158
-0.20998667 -0.48981687 -0.45320684 -0.67301273 -0.07840612 -0.42262962 -0.74956983 1.3285633
00000000: 3df2 253c b1b5 b23f 03b1 0b3e 119c 243e
00000010: bb22 ecbe 37e4 003f 457c 95be 64ef 0cbf
00000020: e31f 053f b05b d83e 76f8 80be 9f02 8dbf
00000030: c1bc 87bf da81 c63e 2cb1 123e a39f 15be
00000040: 492c 9a3f b54a bd3d 3222 2abd 3b2d 52bd
00000050: 742b 9bbd 8695 46be 701a 66bf a18c 233f
00000060: c5a8 13bf 5542 10be 47fa 403f 80da e93e
00000070: 671b 523f 942d 0739 2dd6 073e 58b8 023f
00000080: 0013 ac3c 860c 13bf 5f14 18be ab3f f73e
00000090: 2919 0a3f c28f 263e af97 1ebe 24c4 ed3e
000000a0: 3994 a1bd 0a4f debd 6621 9d3d 1d7b f2be
000000b0: 8564 edbe 6da4 103f 373d 54bd 0306 273f
000000c0: f708 a43d 4c04 893e 13a4 743e 9602 6e3f
000000d0: bbc9 a9bf 0b08 1f3e 0def 0e3f cd4b ecbe
000000e0: bf06 57be 47c9 fabe ba0a e8be 904a 2cbf
000000f0: 6393 a0bd e962 d8be cfe3 3fbf 5d0e aa3f

encoder_variable_selection.single_variable_grns.Cases.fc1.bias f4 [8]
-0.19068111 -0.13508557 0.07273176 0.020434113 0.05762791 -0.021519296 -0.20393227 0.069610804
00000000: e941 43be df53 0abe 64f4 943d 7165 a73c
00000010: 3e0b 6c3d 3c49 b0bc 9fd3 50be 1c90 8e3d

encoder_variable_selection.single_variable_grns.Cases.fc2.weight f4 [8, 8]
-0.019617729 0.95880795 -0.105338566 -0.61721104 0.25222352 0.014195371 1.0118756 -0.05286881
-0.2985857 -0.022179052 -0.18546681 -0.6852551 0.18322414 0.17011693 0.0456805 -1.3794267
-0.14232028 -0.3100566 -0.98118156 0.2847766 0.5879054 -0.24456607 -0.67855835 0.8404449
-0.28135002 -0.47004324 -0.36430174 -0.9427735 0.67423373 -0.7697163 -0.4732159 -0.093897715
0.4671491 0.76081955 0.19714393 0.4036476 0.23216306 -0.044584796 0.25558528 0.71529144
0.14228381 -0.030840585 1.0808296 0.7302522 -0.33277327 -0.0019319814 -0.1427584 0.46451902
-0.556315 -0.40589806 -0.5658547 0.33358902 -0.045684896 -0.35089296 0.5699986 -0.25118542
0.55298215 0.63734245 -0.1338142 -0.27925354 -0.043622866 0.06363902 0.08809356 -0.10396779
00000000: 5cb5 a0bc 7074 753f bfbb d7bd 8b01 1ebf
00000010: 7123 813e b493 683c 2485 813f f78c 58bd
00000020: 3ae0 98be d8b0 b5bc 03eb 3dbe e16c 2fbf
00000030: 1c9f 3b3e 2233 2e3e 7a1b 3b3d 0e91 b0bf
00000040: 68bc 11be bdbf 9ebe b72e 7bbf 3dce 913e
00000050: f880 163f 876f 7abe 00b6 2dbf 6627 573f
00000060: 1c0d 90be 82a9 f0be c285 babe 9b59 71bf
00000070: 959a 2c3f 210c 45bf 5b49 f2be 724d c0bd
00000080: 2b2e ef3e 12c5 423f 19e0 493e e6aa ce3e
00000090: 27bc 6d3e 8c9e 36bd 13dc 823e 571d 373f
000000a0: d9b2 113e 65a5 fcbc a058 8a3f cff1 3a3f
000000b0: 4261 aabe 8a3a fdba 422f 12be 70d5 ed3e
000000c0: a96a 0ebf dfd1 cfbe dbdb 10bf 2ecc aa3e
000000d0: 1620 3bbd 3ea8 b3be 6eeb 113f 609b 80be
000000e0: 3d90 0d3f e028 233f 9706 09be 52fa 8ebe
000000f0: e4ad 32bd 2d55 823d 656a b43d 11ed d4bd

encoder_variable_selection.single_variable_grns.Cases.fc2.bias f4 [8]
-0.25691912 0.009494713 0.0030962734 0.16463086 -0.089267045 0.07721632 0.10768888 0.012443896
00000000: e78a 83be b68f 1b3c d9ea 4a3b fe94 283e
00000010: a4d1 b6bd 9723 9e3d fd8b dc3d 7ce1 4b3c
